#loc = loc("/root/.cache/vllm/torch_compile_cache/torch_aot_compile/61bda05feca29378847c32f031efa5c8dba258f38b0176a06a3e99e41df8ca50/inductor_cache/53/c5375zwqjlshmg43wsphzoi4ccjdln76exf23trlg5dg3stpojtw.py":22:0)
#loc137 = loc("in_ptr0"(#loc))
#loc138 = loc("in_ptr1"(#loc))
#loc139 = loc("in_ptr2"(#loc))
#loc140 = loc("in_ptr3"(#loc))
#loc141 = loc("in_ptr4"(#loc))
#loc142 = loc("out_ptr0"(#loc))
#loc143 = loc("xnumel"(#loc))
module {
  tt.func public @triton_(%in_ptr0: !tt.ptr<f16> {tt.divisibility = 16 : i32} loc("in_ptr0"(#loc)), %in_ptr1: !tt.ptr<f32> {tt.divisibility = 16 : i32} loc("in_ptr1"(#loc)), %in_ptr2: !tt.ptr<f16> {tt.divisibility = 16 : i32} loc("in_ptr2"(#loc)), %in_ptr3: !tt.ptr<f16> {tt.divisibility = 16 : i32} loc("in_ptr3"(#loc)), %in_ptr4: !tt.ptr<f16> {tt.divisibility = 16 : i32} loc("in_ptr4"(#loc)), %out_ptr0: !tt.ptr<f16> {tt.divisibility = 16 : i32} loc("out_ptr0"(#loc)), %xnumel: i32 {tt.divisibility = 16 : i32} loc("xnumel"(#loc))) attributes {noinline = false} {
    %xoffset = tt.get_program_id x : i32 loc(#loc144)
    %xoffset_0 = arith.constant 512 : i32 loc(#loc145)
    %xoffset_1 = arith.constant 512 : i32 loc(#loc145)
    %xoffset_2 = arith.muli %xoffset, %xoffset_1 : i32 loc(#loc145)
    %xindex = tt.make_range {end = 512 : i32, start = 0 : i32} : tensor<512xi32> loc(#loc146)
    %xindex_3 = tt.splat %xoffset_2 : i32 -> tensor<512xi32> loc(#loc147)
    %xindex_4 = arith.addi %xindex_3, %xindex : tensor<512xi32> loc(#loc147)
    %xmask = tt.splat %xnumel : i32 -> tensor<512xi32> loc(#loc148)
    %xmask_5 = arith.cmpi slt, %xindex_4, %xmask : tensor<512xi32> loc(#loc148)
    %x0 = arith.constant 64 : i32 loc(#loc149)
    %x0_6 = arith.constant 64 : i32 loc(#loc149)
    %x0_7 = arith.constant dense<64> : tensor<512xi32> loc(#loc149)
    %x0_8 = arith.remsi %xindex_4, %x0_7 : tensor<512xi32> loc(#loc149)
    %x1 = arith.constant 64 : i32 loc(#loc150)
    %x1_9 = arith.constant 64 : i32 loc(#loc150)
    %x1_10 = arith.constant dense<64> : tensor<512xi32> loc(#loc150)
    %x1_11 = arith.divsi %xindex_4, %x1_10 : tensor<512xi32> loc(#loc150)
    %tmp1 = arith.constant 0 : i64 loc(#loc151)
    %tmp1_12 = arith.constant dense<0> : tensor<1xi64> loc(#loc151)
    %tmp2 = arith.extsi %x0_8 : tensor<512xi32> to tensor<512xi64> loc(#loc152)
    %tmp2_13 = arith.constant dense<0> : tensor<512xi64> loc(#loc152)
    %tmp2_14 = arith.cmpi sge, %tmp2, %tmp2_13 : tensor<512xi64> loc(#loc152)
    %tmp3 = arith.constant 32 : i64 loc(#loc153)
    %tmp3_15 = arith.constant dense<32> : tensor<1xi64> loc(#loc153)
    %tmp4 = arith.extsi %x0_8 : tensor<512xi32> to tensor<512xi64> loc(#loc154)
    %tmp4_16 = arith.constant dense<32> : tensor<512xi64> loc(#loc154)
    %tmp4_17 = arith.cmpi slt, %tmp4, %tmp4_16 : tensor<512xi64> loc(#loc154)
    %tmp5 = arith.constant 4608 : i32 loc(#loc155)
    %tmp5_18 = arith.constant 4608 : i32 loc(#loc155)
    %tmp5_19 = arith.constant dense<4608> : tensor<512xi32> loc(#loc155)
    %tmp5_20 = arith.muli %tmp5_19, %x1_11 : tensor<512xi32> loc(#loc155)
    %tmp5_21 = arith.constant 4096 : i32 loc(#loc156)
    %tmp5_22 = arith.constant 4096 : i32 loc(#loc156)
    %tmp5_23 = arith.constant dense<4096> : tensor<512xi32> loc(#loc156)
    %tmp5_24 = arith.addi %tmp5_23, %tmp5_20 : tensor<512xi32> loc(#loc156)
    %tmp5_25 = arith.addi %tmp5_24, %x0_8 : tensor<512xi32> loc(#loc157)
    %tmp5_26 = tt.splat %in_ptr0 : !tt.ptr<f16> -> tensor<512x!tt.ptr<f16>> loc(#loc158)
    %tmp5_27 = tt.addptr %tmp5_26, %tmp5_25 : tensor<512x!tt.ptr<f16>>, tensor<512xi32> loc(#loc158)
    %tmp5_28 = arith.andi %tmp4_17, %xmask_5 : tensor<512xi1> loc(#loc159)
    %tmp5_29 = arith.constant 0.000000e+00 : f32 loc(#loc160)
    %tmp5_30 = arith.constant dense<0.000000e+00> : tensor<512xf32> loc(#loc160)
    %tmp5_31 = arith.truncf %tmp5_30 : tensor<512xf32> to tensor<512xf16> loc(#loc160)
    %tmp5_32 = tt.load %tmp5_27, %tmp5_28, %tmp5_31 evictionPolicy = evict_last : tensor<512x!tt.ptr<f16>> loc(#loc160)
    %tmp5_33 = arith.extf %tmp5_32 : tensor<512xf16> to tensor<512xf32> loc(#loc161)
    %tmp7 = tt.splat %in_ptr1 : !tt.ptr<f32> -> tensor<512x!tt.ptr<f32>> loc(#loc162)
    %tmp7_34 = tt.addptr %tmp7, %x1_11 : tensor<512x!tt.ptr<f32>>, tensor<512xi32> loc(#loc162)
    %tmp7_35 = arith.andi %tmp4_17, %xmask_5 : tensor<512xi1> loc(#loc163)
    %tmp7_36 = arith.constant 0.000000e+00 : f32 loc(#loc164)
    %tmp7_37 = arith.constant dense<0.000000e+00> : tensor<512xf32> loc(#loc164)
    %tmp7_38 = tt.load %tmp7_34, %tmp7_35, %tmp7_37 evictionPolicy = evict_last : tensor<512x!tt.ptr<f32>> loc(#loc164)
    %tmp8 = arith.constant 2.560000e+02 : f32 loc(#loc165)
    %tmp8_39 = arith.constant dense<2.560000e+02> : tensor<1xf32> loc(#loc165)
    %tmp9 = arith.constant dense<2.560000e+02> : tensor<512xf32> loc(#loc166)
    %tmp9_40 = arith.divf %tmp7_38, %tmp9 : tensor<512xf32> loc(#loc166)
    %tmp10 = arith.constant 9.99999997E-7 : f32 loc(#loc167)
    %tmp10_41 = arith.constant dense<9.99999997E-7> : tensor<1xf32> loc(#loc167)
    %tmp11 = arith.constant dense<9.99999997E-7> : tensor<512xf32> loc(#loc168)
    %tmp11_42 = arith.addf %tmp9_40, %tmp11 : tensor<512xf32> loc(#loc168)
    %tmp12 = tt.extern_elementwise %tmp11_42 {libname = "", libpath = "", pure = true, symbol = "__nv_rsqrtf"} : (tensor<512xf32>) -> tensor<512xf32> loc(#loc169)
    %tmp13 = arith.mulf %tmp5_33, %tmp12 : tensor<512xf32> loc(#loc170)
    %tmp14 = tt.splat %in_ptr2 : !tt.ptr<f16> -> tensor<512x!tt.ptr<f16>> loc(#loc171)
    %tmp14_43 = tt.addptr %tmp14, %x0_8 : tensor<512x!tt.ptr<f16>>, tensor<512xi32> loc(#loc171)
    %tmp14_44 = arith.andi %tmp4_17, %xmask_5 : tensor<512xi1> loc(#loc172)
    %tmp14_45 = arith.constant 0.000000e+00 : f32 loc(#loc173)
    %tmp14_46 = arith.constant dense<0.000000e+00> : tensor<512xf32> loc(#loc173)
    %tmp14_47 = arith.truncf %tmp14_46 : tensor<512xf32> to tensor<512xf16> loc(#loc173)
    %tmp14_48 = tt.load %tmp14_43, %tmp14_44, %tmp14_47 evictionPolicy = evict_last : tensor<512x!tt.ptr<f16>> loc(#loc173)
    %tmp14_49 = arith.extf %tmp14_48 : tensor<512xf16> to tensor<512xf32> loc(#loc174)
    %tmp16 = arith.constant 1.000000e+00 : f32 loc(#loc175)
    %tmp16_50 = arith.constant dense<1.000000e+00> : tensor<1xf32> loc(#loc175)
    %tmp17 = arith.constant dense<1.000000e+00> : tensor<512xf32> loc(#loc176)
    %tmp17_51 = arith.addf %tmp14_49, %tmp17 : tensor<512xf32> loc(#loc176)
    %tmp18 = arith.mulf %tmp13, %tmp17_51 : tensor<512xf32> loc(#loc177)
    %tmp20 = arith.constant 32 : i32 loc(#loc178)
    %tmp20_52 = arith.constant 32 : i32 loc(#loc178)
    %tmp20_53 = arith.constant dense<32> : tensor<512xi32> loc(#loc178)
    %tmp20_54 = arith.muli %tmp20_53, %x1_11 : tensor<512xi32> loc(#loc178)
    %tmp20_55 = arith.addi %tmp20_54, %x0_8 : tensor<512xi32> loc(#loc179)
    %tmp20_56 = tt.splat %in_ptr3 : !tt.ptr<f16> -> tensor<512x!tt.ptr<f16>> loc(#loc180)
    %tmp20_57 = tt.addptr %tmp20_56, %tmp20_55 : tensor<512x!tt.ptr<f16>>, tensor<512xi32> loc(#loc180)
    %tmp20_58 = arith.andi %tmp4_17, %xmask_5 : tensor<512xi1> loc(#loc181)
    %tmp20_59 = arith.constant 0.000000e+00 : f32 loc(#loc182)
    %tmp20_60 = arith.constant dense<0.000000e+00> : tensor<512xf32> loc(#loc182)
    %tmp20_61 = arith.truncf %tmp20_60 : tensor<512xf32> to tensor<512xf16> loc(#loc182)
    %tmp20_62 = tt.load %tmp20_57, %tmp20_58, %tmp20_61 evictionPolicy = evict_last : tensor<512x!tt.ptr<f16>> loc(#loc182)
    %tmp20_63 = arith.extf %tmp20_62 : tensor<512xf16> to tensor<512xf32> loc(#loc183)
    %tmp21 = arith.mulf %tmp18, %tmp20_63 : tensor<512xf32> loc(#loc184)
    %tmp22 = arith.constant 4608 : i32 loc(#loc185)
    %tmp22_64 = arith.constant 4608 : i32 loc(#loc185)
    %tmp22_65 = arith.constant dense<4608> : tensor<512xi32> loc(#loc185)
    %tmp22_66 = arith.muli %tmp22_65, %x1_11 : tensor<512xi32> loc(#loc185)
    %tmp22_67 = arith.constant 4128 : i32 loc(#loc186)
    %tmp22_68 = arith.constant 4128 : i32 loc(#loc186)
    %tmp22_69 = arith.constant dense<4128> : tensor<512xi32> loc(#loc186)
    %tmp22_70 = arith.addi %tmp22_69, %tmp22_66 : tensor<512xi32> loc(#loc186)
    %tmp22_71 = arith.addi %tmp22_70, %x0_8 : tensor<512xi32> loc(#loc187)
    %tmp22_72 = tt.splat %in_ptr0 : !tt.ptr<f16> -> tensor<512x!tt.ptr<f16>> loc(#loc188)
    %tmp22_73 = tt.addptr %tmp22_72, %tmp22_71 : tensor<512x!tt.ptr<f16>>, tensor<512xi32> loc(#loc188)
    %tmp22_74 = arith.andi %tmp4_17, %xmask_5 : tensor<512xi1> loc(#loc189)
    %tmp22_75 = arith.constant 0.000000e+00 : f32 loc(#loc190)
    %tmp22_76 = arith.constant dense<0.000000e+00> : tensor<512xf32> loc(#loc190)
    %tmp22_77 = arith.truncf %tmp22_76 : tensor<512xf32> to tensor<512xf16> loc(#loc190)
    %tmp22_78 = tt.load %tmp22_73, %tmp22_74, %tmp22_77 evictionPolicy = evict_last : tensor<512x!tt.ptr<f16>> loc(#loc190)
    %tmp22_79 = arith.extf %tmp22_78 : tensor<512xf16> to tensor<512xf32> loc(#loc191)
    %tmp24 = arith.mulf %tmp22_79, %tmp12 : tensor<512xf32> loc(#loc192)
    %tmp25 = arith.constant 32 : i32 loc(#loc193)
    %tmp25_80 = arith.constant 32 : i32 loc(#loc193)
    %tmp25_81 = arith.constant dense<32> : tensor<512xi32> loc(#loc193)
    %tmp25_82 = arith.addi %tmp25_81, %x0_8 : tensor<512xi32> loc(#loc193)
    %tmp25_83 = tt.splat %in_ptr2 : !tt.ptr<f16> -> tensor<512x!tt.ptr<f16>> loc(#loc194)
    %tmp25_84 = tt.addptr %tmp25_83, %tmp25_82 : tensor<512x!tt.ptr<f16>>, tensor<512xi32> loc(#loc194)
    %tmp25_85 = arith.andi %tmp4_17, %xmask_5 : tensor<512xi1> loc(#loc195)
    %tmp25_86 = arith.constant 0.000000e+00 : f32 loc(#loc196)
    %tmp25_87 = arith.constant dense<0.000000e+00> : tensor<512xf32> loc(#loc196)
    %tmp25_88 = arith.truncf %tmp25_87 : tensor<512xf32> to tensor<512xf16> loc(#loc196)
    %tmp25_89 = tt.load %tmp25_84, %tmp25_85, %tmp25_88 evictionPolicy = evict_last : tensor<512x!tt.ptr<f16>> loc(#loc196)
    %tmp25_90 = arith.extf %tmp25_89 : tensor<512xf16> to tensor<512xf32> loc(#loc197)
    %tmp27 = arith.constant dense<1.000000e+00> : tensor<512xf32> loc(#loc198)
    %tmp27_91 = arith.addf %tmp25_90, %tmp27 : tensor<512xf32> loc(#loc198)
    %tmp28 = arith.mulf %tmp24, %tmp27_91 : tensor<512xf32> loc(#loc199)
    %tmp30 = arith.constant 32 : i32 loc(#loc200)
    %tmp30_92 = arith.constant 32 : i32 loc(#loc200)
    %tmp30_93 = arith.constant dense<32> : tensor<512xi32> loc(#loc200)
    %tmp30_94 = arith.muli %tmp30_93, %x1_11 : tensor<512xi32> loc(#loc200)
    %tmp30_95 = arith.addi %tmp30_94, %x0_8 : tensor<512xi32> loc(#loc201)
    %tmp30_96 = tt.splat %in_ptr4 : !tt.ptr<f16> -> tensor<512x!tt.ptr<f16>> loc(#loc202)
    %tmp30_97 = tt.addptr %tmp30_96, %tmp30_95 : tensor<512x!tt.ptr<f16>>, tensor<512xi32> loc(#loc202)
    %tmp30_98 = arith.andi %tmp4_17, %xmask_5 : tensor<512xi1> loc(#loc203)
    %tmp30_99 = arith.constant 0.000000e+00 : f32 loc(#loc204)
    %tmp30_100 = arith.constant dense<0.000000e+00> : tensor<512xf32> loc(#loc204)
    %tmp30_101 = arith.truncf %tmp30_100 : tensor<512xf32> to tensor<512xf16> loc(#loc204)
    %tmp30_102 = tt.load %tmp30_97, %tmp30_98, %tmp30_101 evictionPolicy = evict_last : tensor<512x!tt.ptr<f16>> loc(#loc204)
    %tmp30_103 = arith.extf %tmp30_102 : tensor<512xf16> to tensor<512xf32> loc(#loc205)
    %tmp31 = arith.mulf %tmp28, %tmp30_103 : tensor<512xf32> loc(#loc206)
    %tmp32 = arith.subf %tmp21, %tmp31 : tensor<512xf32> loc(#loc207)
    %tmp33 = arith.constant 0.000000e+00 : f32 loc(#loc208)
    %tmp33_104 = arith.constant dense<0.000000e+00> : tensor<512xf32> loc(#loc208)
    %tmp34 = arith.select %tmp4_17, %tmp32, %tmp33_104 : tensor<512xi1>, tensor<512xf32> loc(#loc209)
    %tmp35 = arith.extsi %x0_8 : tensor<512xi32> to tensor<512xi64> loc(#loc210)
    %tmp35_105 = arith.constant dense<32> : tensor<512xi64> loc(#loc210)
    %tmp35_106 = arith.cmpi sge, %tmp35, %tmp35_105 : tensor<512xi64> loc(#loc210)
    %tmp36 = arith.constant 64 : i64 loc(#loc211)
    %tmp36_107 = arith.constant dense<64> : tensor<1xi64> loc(#loc211)
    %tmp37 = arith.extsi %x0_8 : tensor<512xi32> to tensor<512xi64> loc(#loc212)
    %tmp37_108 = arith.constant dense<64> : tensor<512xi64> loc(#loc212)
    %tmp37_109 = arith.cmpi slt, %tmp37, %tmp37_108 : tensor<512xi64> loc(#loc212)
    %tmp38 = arith.constant 4608 : i32 loc(#loc213)
    %tmp38_110 = arith.constant 4608 : i32 loc(#loc213)
    %tmp38_111 = arith.constant dense<4608> : tensor<512xi32> loc(#loc213)
    %tmp38_112 = arith.muli %tmp38_111, %x1_11 : tensor<512xi32> loc(#loc213)
    %tmp38_113 = arith.constant 4128 : i32 loc(#loc214)
    %tmp38_114 = arith.constant 4128 : i32 loc(#loc214)
    %tmp38_115 = arith.constant dense<4128> : tensor<512xi32> loc(#loc214)
    %tmp38_116 = arith.addi %tmp38_115, %tmp38_112 : tensor<512xi32> loc(#loc214)
    %tmp38_117 = arith.constant -32 : i32 loc(#loc215)
    %tmp38_118 = arith.constant -32 : i32 loc(#loc215)
    %tmp38_119 = arith.constant dense<-32> : tensor<512xi32> loc(#loc215)
    %tmp38_120 = arith.addi %tmp38_119, %x0_8 : tensor<512xi32> loc(#loc215)
    %tmp38_121 = arith.addi %tmp38_116, %tmp38_120 : tensor<512xi32> loc(#loc216)
    %tmp38_122 = tt.splat %in_ptr0 : !tt.ptr<f16> -> tensor<512x!tt.ptr<f16>> loc(#loc217)
    %tmp38_123 = tt.addptr %tmp38_122, %tmp38_121 : tensor<512x!tt.ptr<f16>>, tensor<512xi32> loc(#loc217)
    %tmp38_124 = arith.andi %tmp35_106, %xmask_5 : tensor<512xi1> loc(#loc218)
    %tmp38_125 = arith.constant 0.000000e+00 : f32 loc(#loc219)
    %tmp38_126 = arith.constant dense<0.000000e+00> : tensor<512xf32> loc(#loc219)
    %tmp38_127 = arith.truncf %tmp38_126 : tensor<512xf32> to tensor<512xf16> loc(#loc219)
    %tmp38_128 = tt.load %tmp38_123, %tmp38_124, %tmp38_127 evictionPolicy = evict_last : tensor<512x!tt.ptr<f16>> loc(#loc219)
    %tmp38_129 = arith.extf %tmp38_128 : tensor<512xf16> to tensor<512xf32> loc(#loc220)
    %tmp40 = tt.splat %in_ptr1 : !tt.ptr<f32> -> tensor<512x!tt.ptr<f32>> loc(#loc221)
    %tmp40_130 = tt.addptr %tmp40, %x1_11 : tensor<512x!tt.ptr<f32>>, tensor<512xi32> loc(#loc221)
    %tmp40_131 = arith.andi %tmp35_106, %xmask_5 : tensor<512xi1> loc(#loc222)
    %tmp40_132 = arith.constant 0.000000e+00 : f32 loc(#loc223)
    %tmp40_133 = arith.constant dense<0.000000e+00> : tensor<512xf32> loc(#loc223)
    %tmp40_134 = tt.load %tmp40_130, %tmp40_131, %tmp40_133 evictionPolicy = evict_last : tensor<512x!tt.ptr<f32>> loc(#loc223)
    %tmp41 = arith.constant 2.560000e+02 : f32 loc(#loc224)
    %tmp41_135 = arith.constant dense<2.560000e+02> : tensor<1xf32> loc(#loc224)
    %tmp42 = arith.constant dense<2.560000e+02> : tensor<512xf32> loc(#loc225)
    %tmp42_136 = arith.divf %tmp40_134, %tmp42 : tensor<512xf32> loc(#loc225)
    %tmp43 = arith.constant 9.99999997E-7 : f32 loc(#loc226)
    %tmp43_137 = arith.constant dense<9.99999997E-7> : tensor<1xf32> loc(#loc226)
    %tmp44 = arith.constant dense<9.99999997E-7> : tensor<512xf32> loc(#loc227)
    %tmp44_138 = arith.addf %tmp42_136, %tmp44 : tensor<512xf32> loc(#loc227)
    %tmp45 = tt.extern_elementwise %tmp44_138 {libname = "", libpath = "", pure = true, symbol = "__nv_rsqrtf"} : (tensor<512xf32>) -> tensor<512xf32> loc(#loc228)
    %tmp46 = arith.mulf %tmp38_129, %tmp45 : tensor<512xf32> loc(#loc229)
    %tmp47 = arith.constant -32 : i32 loc(#loc230)
    %tmp47_139 = arith.constant -32 : i32 loc(#loc230)
    %tmp47_140 = arith.constant dense<-32> : tensor<512xi32> loc(#loc230)
    %tmp47_141 = arith.addi %tmp47_140, %x0_8 : tensor<512xi32> loc(#loc230)
    %tmp47_142 = arith.constant 32 : i32 loc(#loc231)
    %tmp47_143 = arith.constant 32 : i32 loc(#loc231)
    %tmp47_144 = arith.constant dense<32> : tensor<512xi32> loc(#loc231)
    %tmp47_145 = arith.addi %tmp47_144, %tmp47_141 : tensor<512xi32> loc(#loc231)
    %tmp47_146 = tt.splat %in_ptr2 : !tt.ptr<f16> -> tensor<512x!tt.ptr<f16>> loc(#loc232)
    %tmp47_147 = tt.addptr %tmp47_146, %tmp47_145 : tensor<512x!tt.ptr<f16>>, tensor<512xi32> loc(#loc232)
    %tmp47_148 = arith.andi %tmp35_106, %xmask_5 : tensor<512xi1> loc(#loc233)
    %tmp47_149 = arith.constant 0.000000e+00 : f32 loc(#loc234)
    %tmp47_150 = arith.constant dense<0.000000e+00> : tensor<512xf32> loc(#loc234)
    %tmp47_151 = arith.truncf %tmp47_150 : tensor<512xf32> to tensor<512xf16> loc(#loc234)
    %tmp47_152 = tt.load %tmp47_147, %tmp47_148, %tmp47_151 evictionPolicy = evict_last : tensor<512x!tt.ptr<f16>> loc(#loc234)
    %tmp47_153 = arith.extf %tmp47_152 : tensor<512xf16> to tensor<512xf32> loc(#loc235)
    %tmp49 = arith.constant 1.000000e+00 : f32 loc(#loc236)
    %tmp49_154 = arith.constant dense<1.000000e+00> : tensor<1xf32> loc(#loc236)
    %tmp50 = arith.constant dense<1.000000e+00> : tensor<512xf32> loc(#loc237)
    %tmp50_155 = arith.addf %tmp47_153, %tmp50 : tensor<512xf32> loc(#loc237)
    %tmp51 = arith.mulf %tmp46, %tmp50_155 : tensor<512xf32> loc(#loc238)
    %tmp53 = arith.constant 32 : i32 loc(#loc239)
    %tmp53_156 = arith.constant 32 : i32 loc(#loc239)
    %tmp53_157 = arith.constant dense<32> : tensor<512xi32> loc(#loc239)
    %tmp53_158 = arith.muli %tmp53_157, %x1_11 : tensor<512xi32> loc(#loc239)
    %tmp53_159 = arith.constant -32 : i32 loc(#loc240)
    %tmp53_160 = arith.constant -32 : i32 loc(#loc240)
    %tmp53_161 = arith.constant dense<-32> : tensor<512xi32> loc(#loc240)
    %tmp53_162 = arith.addi %tmp53_161, %x0_8 : tensor<512xi32> loc(#loc240)
    %tmp53_163 = arith.addi %tmp53_158, %tmp53_162 : tensor<512xi32> loc(#loc241)
    %tmp53_164 = tt.splat %in_ptr3 : !tt.ptr<f16> -> tensor<512x!tt.ptr<f16>> loc(#loc242)
    %tmp53_165 = tt.addptr %tmp53_164, %tmp53_163 : tensor<512x!tt.ptr<f16>>, tensor<512xi32> loc(#loc242)
    %tmp53_166 = arith.andi %tmp35_106, %xmask_5 : tensor<512xi1> loc(#loc243)
    %tmp53_167 = arith.constant 0.000000e+00 : f32 loc(#loc244)
    %tmp53_168 = arith.constant dense<0.000000e+00> : tensor<512xf32> loc(#loc244)
    %tmp53_169 = arith.truncf %tmp53_168 : tensor<512xf32> to tensor<512xf16> loc(#loc244)
    %tmp53_170 = tt.load %tmp53_165, %tmp53_166, %tmp53_169 evictionPolicy = evict_last : tensor<512x!tt.ptr<f16>> loc(#loc244)
    %tmp53_171 = arith.extf %tmp53_170 : tensor<512xf16> to tensor<512xf32> loc(#loc245)
    %tmp54 = arith.mulf %tmp51, %tmp53_171 : tensor<512xf32> loc(#loc246)
    %tmp55 = arith.constant 4608 : i32 loc(#loc247)
    %tmp55_172 = arith.constant 4608 : i32 loc(#loc247)
    %tmp55_173 = arith.constant dense<4608> : tensor<512xi32> loc(#loc247)
    %tmp55_174 = arith.muli %tmp55_173, %x1_11 : tensor<512xi32> loc(#loc247)
    %tmp55_175 = arith.constant 4096 : i32 loc(#loc248)
    %tmp55_176 = arith.constant 4096 : i32 loc(#loc248)
    %tmp55_177 = arith.constant dense<4096> : tensor<512xi32> loc(#loc248)
    %tmp55_178 = arith.addi %tmp55_177, %tmp55_174 : tensor<512xi32> loc(#loc248)
    %tmp55_179 = arith.constant -32 : i32 loc(#loc249)
    %tmp55_180 = arith.constant -32 : i32 loc(#loc249)
    %tmp55_181 = arith.constant dense<-32> : tensor<512xi32> loc(#loc249)
    %tmp55_182 = arith.addi %tmp55_181, %x0_8 : tensor<512xi32> loc(#loc249)
    %tmp55_183 = arith.addi %tmp55_178, %tmp55_182 : tensor<512xi32> loc(#loc250)
    %tmp55_184 = tt.splat %in_ptr0 : !tt.ptr<f16> -> tensor<512x!tt.ptr<f16>> loc(#loc251)
    %tmp55_185 = tt.addptr %tmp55_184, %tmp55_183 : tensor<512x!tt.ptr<f16>>, tensor<512xi32> loc(#loc251)
    %tmp55_186 = arith.andi %tmp35_106, %xmask_5 : tensor<512xi1> loc(#loc252)
    %tmp55_187 = arith.constant 0.000000e+00 : f32 loc(#loc253)
    %tmp55_188 = arith.constant dense<0.000000e+00> : tensor<512xf32> loc(#loc253)
    %tmp55_189 = arith.truncf %tmp55_188 : tensor<512xf32> to tensor<512xf16> loc(#loc253)
    %tmp55_190 = tt.load %tmp55_185, %tmp55_186, %tmp55_189 evictionPolicy = evict_last : tensor<512x!tt.ptr<f16>> loc(#loc253)
    %tmp55_191 = arith.extf %tmp55_190 : tensor<512xf16> to tensor<512xf32> loc(#loc254)
    %tmp57 = arith.mulf %tmp55_191, %tmp45 : tensor<512xf32> loc(#loc255)
    %tmp58 = arith.constant -32 : i32 loc(#loc256)
    %tmp58_192 = arith.constant -32 : i32 loc(#loc256)
    %tmp58_193 = arith.constant dense<-32> : tensor<512xi32> loc(#loc256)
    %tmp58_194 = arith.addi %tmp58_193, %x0_8 : tensor<512xi32> loc(#loc256)
    %tmp58_195 = tt.splat %in_ptr2 : !tt.ptr<f16> -> tensor<512x!tt.ptr<f16>> loc(#loc257)
    %tmp58_196 = tt.addptr %tmp58_195, %tmp58_194 : tensor<512x!tt.ptr<f16>>, tensor<512xi32> loc(#loc257)
    %tmp58_197 = arith.andi %tmp35_106, %xmask_5 : tensor<512xi1> loc(#loc258)
    %tmp58_198 = arith.constant 0.000000e+00 : f32 loc(#loc259)
    %tmp58_199 = arith.constant dense<0.000000e+00> : tensor<512xf32> loc(#loc259)
    %tmp58_200 = arith.truncf %tmp58_199 : tensor<512xf32> to tensor<512xf16> loc(#loc259)
    %tmp58_201 = tt.load %tmp58_196, %tmp58_197, %tmp58_200 evictionPolicy = evict_last : tensor<512x!tt.ptr<f16>> loc(#loc259)
    %tmp58_202 = arith.extf %tmp58_201 : tensor<512xf16> to tensor<512xf32> loc(#loc260)
    %tmp60 = arith.constant dense<1.000000e+00> : tensor<512xf32> loc(#loc261)
    %tmp60_203 = arith.addf %tmp58_202, %tmp60 : tensor<512xf32> loc(#loc261)
    %tmp61 = arith.mulf %tmp57, %tmp60_203 : tensor<512xf32> loc(#loc262)
    %tmp63 = arith.constant 32 : i32 loc(#loc263)
    %tmp63_204 = arith.constant 32 : i32 loc(#loc263)
    %tmp63_205 = arith.constant dense<32> : tensor<512xi32> loc(#loc263)
    %tmp63_206 = arith.muli %tmp63_205, %x1_11 : tensor<512xi32> loc(#loc263)
    %tmp63_207 = arith.constant -32 : i32 loc(#loc264)
    %tmp63_208 = arith.constant -32 : i32 loc(#loc264)
    %tmp63_209 = arith.constant dense<-32> : tensor<512xi32> loc(#loc264)
    %tmp63_210 = arith.addi %tmp63_209, %x0_8 : tensor<512xi32> loc(#loc264)
    %tmp63_211 = arith.addi %tmp63_206, %tmp63_210 : tensor<512xi32> loc(#loc265)
    %tmp63_212 = tt.splat %in_ptr4 : !tt.ptr<f16> -> tensor<512x!tt.ptr<f16>> loc(#loc266)
    %tmp63_213 = tt.addptr %tmp63_212, %tmp63_211 : tensor<512x!tt.ptr<f16>>, tensor<512xi32> loc(#loc266)
    %tmp63_214 = arith.andi %tmp35_106, %xmask_5 : tensor<512xi1> loc(#loc267)
    %tmp63_215 = arith.constant 0.000000e+00 : f32 loc(#loc268)
    %tmp63_216 = arith.constant dense<0.000000e+00> : tensor<512xf32> loc(#loc268)
    %tmp63_217 = arith.truncf %tmp63_216 : tensor<512xf32> to tensor<512xf16> loc(#loc268)
    %tmp63_218 = tt.load %tmp63_213, %tmp63_214, %tmp63_217 evictionPolicy = evict_last : tensor<512x!tt.ptr<f16>> loc(#loc268)
    %tmp63_219 = arith.extf %tmp63_218 : tensor<512xf16> to tensor<512xf32> loc(#loc269)
    %tmp64 = arith.mulf %tmp61, %tmp63_219 : tensor<512xf32> loc(#loc270)
    %tmp65 = arith.addf %tmp54, %tmp64 : tensor<512xf32> loc(#loc271)
    %tmp66 = arith.constant 0.000000e+00 : f32 loc(#loc272)
    %tmp66_220 = arith.constant dense<0.000000e+00> : tensor<512xf32> loc(#loc272)
    %tmp67 = arith.select %tmp35_106, %tmp65, %tmp66_220 : tensor<512xi1>, tensor<512xf32> loc(#loc273)
    %tmp68 = arith.select %tmp4_17, %tmp34, %tmp67 : tensor<512xi1>, tensor<512xf32> loc(#loc274)
    %c256_i32 = arith.constant 256 : i32 loc(#loc132)
    %c256_i32_221 = arith.constant 256 : i32 loc(#loc132)
    %cst = arith.constant dense<256> : tensor<512xi32> loc(#loc132)
    %0 = arith.muli %cst, %x1_11 : tensor<512xi32> loc(#loc132)
    %1 = arith.addi %x0_8, %0 : tensor<512xi32> loc(#loc133)
    %2 = tt.splat %out_ptr0 : !tt.ptr<f16> -> tensor<512x!tt.ptr<f16>> loc(#loc134)
    %3 = tt.addptr %2, %1 : tensor<512x!tt.ptr<f16>>, tensor<512xi32> loc(#loc134)
    %4 = arith.truncf %tmp68 : tensor<512xf32> to tensor<512xf16> loc(#loc135)
    tt.store %3, %4, %xmask_5 : tensor<512x!tt.ptr<f16>> loc(#loc135)
    tt.return loc(#loc136)
  } loc(#loc)
} loc(#loc)
#loc1 = loc("/root/.cache/vllm/torch_compile_cache/torch_aot_compile/61bda05feca29378847c32f031efa5c8dba258f38b0176a06a3e99e41df8ca50/inductor_cache/53/c5375zwqjlshmg43wsphzoi4ccjdln76exf23trlg5dg3stpojtw.py":23:28)
#loc2 = loc("/root/.cache/vllm/torch_compile_cache/torch_aot_compile/61bda05feca29378847c32f031efa5c8dba258f38b0176a06a3e99e41df8ca50/inductor_cache/53/c5375zwqjlshmg43wsphzoi4ccjdln76exf23trlg5dg3stpojtw.py":23:33)
#loc3 = loc("/root/.cache/vllm/torch_compile_cache/torch_aot_compile/61bda05feca29378847c32f031efa5c8dba258f38b0176a06a3e99e41df8ca50/inductor_cache/53/c5375zwqjlshmg43wsphzoi4ccjdln76exf23trlg5dg3stpojtw.py":24:36)
#loc4 = loc("/root/.cache/vllm/torch_compile_cache/torch_aot_compile/61bda05feca29378847c32f031efa5c8dba258f38b0176a06a3e99e41df8ca50/inductor_cache/53/c5375zwqjlshmg43wsphzoi4ccjdln76exf23trlg5dg3stpojtw.py":24:23)
#loc5 = loc("/root/.cache/vllm/torch_compile_cache/torch_aot_compile/61bda05feca29378847c32f031efa5c8dba258f38b0176a06a3e99e41df8ca50/inductor_cache/53/c5375zwqjlshmg43wsphzoi4ccjdln76exf23trlg5dg3stpojtw.py":25:21)
#loc6 = loc("/root/.cache/vllm/torch_compile_cache/torch_aot_compile/61bda05feca29378847c32f031efa5c8dba258f38b0176a06a3e99e41df8ca50/inductor_cache/53/c5375zwqjlshmg43wsphzoi4ccjdln76exf23trlg5dg3stpojtw.py":26:19)
#loc7 = loc("/root/.cache/vllm/torch_compile_cache/torch_aot_compile/61bda05feca29378847c32f031efa5c8dba258f38b0176a06a3e99e41df8ca50/inductor_cache/53/c5375zwqjlshmg43wsphzoi4ccjdln76exf23trlg5dg3stpojtw.py":27:19)
#loc8 = loc("/root/.cache/vllm/torch_compile_cache/torch_aot_compile/61bda05feca29378847c32f031efa5c8dba258f38b0176a06a3e99e41df8ca50/inductor_cache/53/c5375zwqjlshmg43wsphzoi4ccjdln76exf23trlg5dg3stpojtw.py":29:27)
#loc9 = loc("/root/.cache/vllm/torch_compile_cache/torch_aot_compile/61bda05feca29378847c32f031efa5c8dba258f38b0176a06a3e99e41df8ca50/inductor_cache/53/c5375zwqjlshmg43wsphzoi4ccjdln76exf23trlg5dg3stpojtw.py":30:19)
#loc10 = loc("/root/.cache/vllm/torch_compile_cache/torch_aot_compile/61bda05feca29378847c32f031efa5c8dba258f38b0176a06a3e99e41df8ca50/inductor_cache/53/c5375zwqjlshmg43wsphzoi4ccjdln76exf23trlg5dg3stpojtw.py":31:28)
#loc11 = loc("/root/.cache/vllm/torch_compile_cache/torch_aot_compile/61bda05feca29378847c32f031efa5c8dba258f38b0176a06a3e99e41df8ca50/inductor_cache/53/c5375zwqjlshmg43wsphzoi4ccjdln76exf23trlg5dg3stpojtw.py":32:18)
#loc12 = loc("/root/.cache/vllm/torch_compile_cache/torch_aot_compile/61bda05feca29378847c32f031efa5c8dba258f38b0176a06a3e99e41df8ca50/inductor_cache/53/c5375zwqjlshmg43wsphzoi4ccjdln76exf23trlg5dg3stpojtw.py":33:42)
#loc13 = loc("/root/.cache/vllm/torch_compile_cache/torch_aot_compile/61bda05feca29378847c32f031efa5c8dba258f38b0176a06a3e99e41df8ca50/inductor_cache/53/c5375zwqjlshmg43wsphzoi4ccjdln76exf23trlg5dg3stpojtw.py":33:37)
#loc14 = loc("/root/.cache/vllm/torch_compile_cache/torch_aot_compile/61bda05feca29378847c32f031efa5c8dba258f38b0176a06a3e99e41df8ca50/inductor_cache/53/c5375zwqjlshmg43wsphzoi4ccjdln76exf23trlg5dg3stpojtw.py":33:48)
#loc15 = loc("/root/.cache/vllm/torch_compile_cache/torch_aot_compile/61bda05feca29378847c32f031efa5c8dba258f38b0176a06a3e99e41df8ca50/inductor_cache/53/c5375zwqjlshmg43wsphzoi4ccjdln76exf23trlg5dg3stpojtw.py":33:30)
#loc16 = loc("/root/.cache/vllm/torch_compile_cache/torch_aot_compile/61bda05feca29378847c32f031efa5c8dba258f38b0176a06a3e99e41df8ca50/inductor_cache/53/c5375zwqjlshmg43wsphzoi4ccjdln76exf23trlg5dg3stpojtw.py":33:61)
#loc17 = loc("/root/.cache/vllm/torch_compile_cache/torch_aot_compile/61bda05feca29378847c32f031efa5c8dba258f38b0176a06a3e99e41df8ca50/inductor_cache/53/c5375zwqjlshmg43wsphzoi4ccjdln76exf23trlg5dg3stpojtw.py":33:54)
#loc18 = loc("/root/.cache/vllm/torch_compile_cache/torch_aot_compile/61bda05feca29378847c32f031efa5c8dba258f38b0176a06a3e99e41df8ca50/inductor_cache/53/c5375zwqjlshmg43wsphzoi4ccjdln76exf23trlg5dg3stpojtw.py":33:112)
#loc19 = loc("/root/.cache/vllm/torch_compile_cache/torch_aot_compile/61bda05feca29378847c32f031efa5c8dba258f38b0176a06a3e99e41df8ca50/inductor_cache/53/c5375zwqjlshmg43wsphzoi4ccjdln76exf23trlg5dg3stpojtw.py":35:30)
#loc20 = loc("/root/.cache/vllm/torch_compile_cache/torch_aot_compile/61bda05feca29378847c32f031efa5c8dba258f38b0176a06a3e99e41df8ca50/inductor_cache/53/c5375zwqjlshmg43wsphzoi4ccjdln76exf23trlg5dg3stpojtw.py":35:42)
#loc21 = loc("/root/.cache/vllm/torch_compile_cache/torch_aot_compile/61bda05feca29378847c32f031efa5c8dba258f38b0176a06a3e99e41df8ca50/inductor_cache/53/c5375zwqjlshmg43wsphzoi4ccjdln76exf23trlg5dg3stpojtw.py":35:35)
#loc22 = loc("/root/.cache/vllm/torch_compile_cache/torch_aot_compile/61bda05feca29378847c32f031efa5c8dba258f38b0176a06a3e99e41df8ca50/inductor_cache/53/c5375zwqjlshmg43wsphzoi4ccjdln76exf23trlg5dg3stpojtw.py":36:31)
#loc23 = loc("/root/.cache/vllm/torch_compile_cache/torch_aot_compile/61bda05feca29378847c32f031efa5c8dba258f38b0176a06a3e99e41df8ca50/inductor_cache/53/c5375zwqjlshmg43wsphzoi4ccjdln76exf23trlg5dg3stpojtw.py":37:19)
#loc24 = loc("/root/.cache/vllm/torch_compile_cache/torch_aot_compile/61bda05feca29378847c32f031efa5c8dba258f38b0176a06a3e99e41df8ca50/inductor_cache/53/c5375zwqjlshmg43wsphzoi4ccjdln76exf23trlg5dg3stpojtw.py":38:32)
#loc25 = loc("/root/.cache/vllm/torch_compile_cache/torch_aot_compile/61bda05feca29378847c32f031efa5c8dba258f38b0176a06a3e99e41df8ca50/inductor_cache/53/c5375zwqjlshmg43wsphzoi4ccjdln76exf23trlg5dg3stpojtw.py":39:19)
#loc26 = loc("/root/.cache/vllm/torch_compile_cache/torch_aot_compile/61bda05feca29378847c32f031efa5c8dba258f38b0176a06a3e99e41df8ca50/inductor_cache/53/c5375zwqjlshmg43wsphzoi4ccjdln76exf23trlg5dg3stpojtw.py":40:28)
#loc27 = loc("/root/.cache/vllm/torch_compile_cache/torch_aot_compile/61bda05feca29378847c32f031efa5c8dba258f38b0176a06a3e99e41df8ca50/inductor_cache/53/c5375zwqjlshmg43wsphzoi4ccjdln76exf23trlg5dg3stpojtw.py":41:19)
#loc28 = loc("/root/.cache/vllm/torch_compile_cache/torch_aot_compile/61bda05feca29378847c32f031efa5c8dba258f38b0176a06a3e99e41df8ca50/inductor_cache/53/c5375zwqjlshmg43wsphzoi4ccjdln76exf23trlg5dg3stpojtw.py":42:31)
#loc29 = loc("/root/.cache/vllm/torch_compile_cache/torch_aot_compile/61bda05feca29378847c32f031efa5c8dba258f38b0176a06a3e99e41df8ca50/inductor_cache/53/c5375zwqjlshmg43wsphzoi4ccjdln76exf23trlg5dg3stpojtw.py":42:43)
#loc30 = loc("/root/.cache/vllm/torch_compile_cache/torch_aot_compile/61bda05feca29378847c32f031efa5c8dba258f38b0176a06a3e99e41df8ca50/inductor_cache/53/c5375zwqjlshmg43wsphzoi4ccjdln76exf23trlg5dg3stpojtw.py":42:36)
#loc31 = loc("/root/.cache/vllm/torch_compile_cache/torch_aot_compile/61bda05feca29378847c32f031efa5c8dba258f38b0176a06a3e99e41df8ca50/inductor_cache/53/c5375zwqjlshmg43wsphzoi4ccjdln76exf23trlg5dg3stpojtw.py":42:94)
#loc32 = loc("/root/.cache/vllm/torch_compile_cache/torch_aot_compile/61bda05feca29378847c32f031efa5c8dba258f38b0176a06a3e99e41df8ca50/inductor_cache/53/c5375zwqjlshmg43wsphzoi4ccjdln76exf23trlg5dg3stpojtw.py":44:30)
#loc33 = loc("/root/.cache/vllm/torch_compile_cache/torch_aot_compile/61bda05feca29378847c32f031efa5c8dba258f38b0176a06a3e99e41df8ca50/inductor_cache/53/c5375zwqjlshmg43wsphzoi4ccjdln76exf23trlg5dg3stpojtw.py":45:20)
#loc34 = loc("/root/.cache/vllm/torch_compile_cache/torch_aot_compile/61bda05feca29378847c32f031efa5c8dba258f38b0176a06a3e99e41df8ca50/inductor_cache/53/c5375zwqjlshmg43wsphzoi4ccjdln76exf23trlg5dg3stpojtw.py":46:20)
#loc35 = loc("/root/.cache/vllm/torch_compile_cache/torch_aot_compile/61bda05feca29378847c32f031efa5c8dba258f38b0176a06a3e99e41df8ca50/inductor_cache/53/c5375zwqjlshmg43wsphzoi4ccjdln76exf23trlg5dg3stpojtw.py":48:34)
#loc36 = loc("/root/.cache/vllm/torch_compile_cache/torch_aot_compile/61bda05feca29378847c32f031efa5c8dba258f38b0176a06a3e99e41df8ca50/inductor_cache/53/c5375zwqjlshmg43wsphzoi4ccjdln76exf23trlg5dg3stpojtw.py":48:40)
#loc37 = loc("/root/.cache/vllm/torch_compile_cache/torch_aot_compile/61bda05feca29378847c32f031efa5c8dba258f38b0176a06a3e99e41df8ca50/inductor_cache/53/c5375zwqjlshmg43wsphzoi4ccjdln76exf23trlg5dg3stpojtw.py":48:31)
#loc38 = loc("/root/.cache/vllm/torch_compile_cache/torch_aot_compile/61bda05feca29378847c32f031efa5c8dba258f38b0176a06a3e99e41df8ca50/inductor_cache/53/c5375zwqjlshmg43wsphzoi4ccjdln76exf23trlg5dg3stpojtw.py":48:53)
#loc39 = loc("/root/.cache/vllm/torch_compile_cache/torch_aot_compile/61bda05feca29378847c32f031efa5c8dba258f38b0176a06a3e99e41df8ca50/inductor_cache/53/c5375zwqjlshmg43wsphzoi4ccjdln76exf23trlg5dg3stpojtw.py":48:46)
#loc40 = loc("/root/.cache/vllm/torch_compile_cache/torch_aot_compile/61bda05feca29378847c32f031efa5c8dba258f38b0176a06a3e99e41df8ca50/inductor_cache/53/c5375zwqjlshmg43wsphzoi4ccjdln76exf23trlg5dg3stpojtw.py":48:104)
#loc41 = loc("/root/.cache/vllm/torch_compile_cache/torch_aot_compile/61bda05feca29378847c32f031efa5c8dba258f38b0176a06a3e99e41df8ca50/inductor_cache/53/c5375zwqjlshmg43wsphzoi4ccjdln76exf23trlg5dg3stpojtw.py":49:20)
#loc42 = loc("/root/.cache/vllm/torch_compile_cache/torch_aot_compile/61bda05feca29378847c32f031efa5c8dba258f38b0176a06a3e99e41df8ca50/inductor_cache/53/c5375zwqjlshmg43wsphzoi4ccjdln76exf23trlg5dg3stpojtw.py":50:43)
#loc43 = loc("/root/.cache/vllm/torch_compile_cache/torch_aot_compile/61bda05feca29378847c32f031efa5c8dba258f38b0176a06a3e99e41df8ca50/inductor_cache/53/c5375zwqjlshmg43wsphzoi4ccjdln76exf23trlg5dg3stpojtw.py":50:38)
#loc44 = loc("/root/.cache/vllm/torch_compile_cache/torch_aot_compile/61bda05feca29378847c32f031efa5c8dba258f38b0176a06a3e99e41df8ca50/inductor_cache/53/c5375zwqjlshmg43wsphzoi4ccjdln76exf23trlg5dg3stpojtw.py":50:49)
#loc45 = loc("/root/.cache/vllm/torch_compile_cache/torch_aot_compile/61bda05feca29378847c32f031efa5c8dba258f38b0176a06a3e99e41df8ca50/inductor_cache/53/c5375zwqjlshmg43wsphzoi4ccjdln76exf23trlg5dg3stpojtw.py":50:31)
#loc46 = loc("/root/.cache/vllm/torch_compile_cache/torch_aot_compile/61bda05feca29378847c32f031efa5c8dba258f38b0176a06a3e99e41df8ca50/inductor_cache/53/c5375zwqjlshmg43wsphzoi4ccjdln76exf23trlg5dg3stpojtw.py":50:62)
#loc47 = loc("/root/.cache/vllm/torch_compile_cache/torch_aot_compile/61bda05feca29378847c32f031efa5c8dba258f38b0176a06a3e99e41df8ca50/inductor_cache/53/c5375zwqjlshmg43wsphzoi4ccjdln76exf23trlg5dg3stpojtw.py":50:55)
#loc48 = loc("/root/.cache/vllm/torch_compile_cache/torch_aot_compile/61bda05feca29378847c32f031efa5c8dba258f38b0176a06a3e99e41df8ca50/inductor_cache/53/c5375zwqjlshmg43wsphzoi4ccjdln76exf23trlg5dg3stpojtw.py":50:113)
#loc49 = loc("/root/.cache/vllm/torch_compile_cache/torch_aot_compile/61bda05feca29378847c32f031efa5c8dba258f38b0176a06a3e99e41df8ca50/inductor_cache/53/c5375zwqjlshmg43wsphzoi4ccjdln76exf23trlg5dg3stpojtw.py":52:20)
#loc50 = loc("/root/.cache/vllm/torch_compile_cache/torch_aot_compile/61bda05feca29378847c32f031efa5c8dba258f38b0176a06a3e99e41df8ca50/inductor_cache/53/c5375zwqjlshmg43wsphzoi4ccjdln76exf23trlg5dg3stpojtw.py":53:37)
#loc51 = loc("/root/.cache/vllm/torch_compile_cache/torch_aot_compile/61bda05feca29378847c32f031efa5c8dba258f38b0176a06a3e99e41df8ca50/inductor_cache/53/c5375zwqjlshmg43wsphzoi4ccjdln76exf23trlg5dg3stpojtw.py":53:31)
#loc52 = loc("/root/.cache/vllm/torch_compile_cache/torch_aot_compile/61bda05feca29378847c32f031efa5c8dba258f38b0176a06a3e99e41df8ca50/inductor_cache/53/c5375zwqjlshmg43wsphzoi4ccjdln76exf23trlg5dg3stpojtw.py":53:50)
#loc53 = loc("/root/.cache/vllm/torch_compile_cache/torch_aot_compile/61bda05feca29378847c32f031efa5c8dba258f38b0176a06a3e99e41df8ca50/inductor_cache/53/c5375zwqjlshmg43wsphzoi4ccjdln76exf23trlg5dg3stpojtw.py":53:43)
#loc54 = loc("/root/.cache/vllm/torch_compile_cache/torch_aot_compile/61bda05feca29378847c32f031efa5c8dba258f38b0176a06a3e99e41df8ca50/inductor_cache/53/c5375zwqjlshmg43wsphzoi4ccjdln76exf23trlg5dg3stpojtw.py":53:101)
#loc55 = loc("/root/.cache/vllm/torch_compile_cache/torch_aot_compile/61bda05feca29378847c32f031efa5c8dba258f38b0176a06a3e99e41df8ca50/inductor_cache/53/c5375zwqjlshmg43wsphzoi4ccjdln76exf23trlg5dg3stpojtw.py":55:20)
#loc56 = loc("/root/.cache/vllm/torch_compile_cache/torch_aot_compile/61bda05feca29378847c32f031efa5c8dba258f38b0176a06a3e99e41df8ca50/inductor_cache/53/c5375zwqjlshmg43wsphzoi4ccjdln76exf23trlg5dg3stpojtw.py":56:20)
#loc57 = loc("/root/.cache/vllm/torch_compile_cache/torch_aot_compile/61bda05feca29378847c32f031efa5c8dba258f38b0176a06a3e99e41df8ca50/inductor_cache/53/c5375zwqjlshmg43wsphzoi4ccjdln76exf23trlg5dg3stpojtw.py":58:34)
#loc58 = loc("/root/.cache/vllm/torch_compile_cache/torch_aot_compile/61bda05feca29378847c32f031efa5c8dba258f38b0176a06a3e99e41df8ca50/inductor_cache/53/c5375zwqjlshmg43wsphzoi4ccjdln76exf23trlg5dg3stpojtw.py":58:40)
#loc59 = loc("/root/.cache/vllm/torch_compile_cache/torch_aot_compile/61bda05feca29378847c32f031efa5c8dba258f38b0176a06a3e99e41df8ca50/inductor_cache/53/c5375zwqjlshmg43wsphzoi4ccjdln76exf23trlg5dg3stpojtw.py":58:31)
#loc60 = loc("/root/.cache/vllm/torch_compile_cache/torch_aot_compile/61bda05feca29378847c32f031efa5c8dba258f38b0176a06a3e99e41df8ca50/inductor_cache/53/c5375zwqjlshmg43wsphzoi4ccjdln76exf23trlg5dg3stpojtw.py":58:53)
#loc61 = loc("/root/.cache/vllm/torch_compile_cache/torch_aot_compile/61bda05feca29378847c32f031efa5c8dba258f38b0176a06a3e99e41df8ca50/inductor_cache/53/c5375zwqjlshmg43wsphzoi4ccjdln76exf23trlg5dg3stpojtw.py":58:46)
#loc62 = loc("/root/.cache/vllm/torch_compile_cache/torch_aot_compile/61bda05feca29378847c32f031efa5c8dba258f38b0176a06a3e99e41df8ca50/inductor_cache/53/c5375zwqjlshmg43wsphzoi4ccjdln76exf23trlg5dg3stpojtw.py":58:104)
#loc63 = loc("/root/.cache/vllm/torch_compile_cache/torch_aot_compile/61bda05feca29378847c32f031efa5c8dba258f38b0176a06a3e99e41df8ca50/inductor_cache/53/c5375zwqjlshmg43wsphzoi4ccjdln76exf23trlg5dg3stpojtw.py":59:20)
#loc64 = loc("/root/.cache/vllm/torch_compile_cache/torch_aot_compile/61bda05feca29378847c32f031efa5c8dba258f38b0176a06a3e99e41df8ca50/inductor_cache/53/c5375zwqjlshmg43wsphzoi4ccjdln76exf23trlg5dg3stpojtw.py":60:20)
#loc65 = loc("/root/.cache/vllm/torch_compile_cache/torch_aot_compile/61bda05feca29378847c32f031efa5c8dba258f38b0176a06a3e99e41df8ca50/inductor_cache/53/c5375zwqjlshmg43wsphzoi4ccjdln76exf23trlg5dg3stpojtw.py":61:38)
#loc66 = loc("/root/.cache/vllm/torch_compile_cache/torch_aot_compile/61bda05feca29378847c32f031efa5c8dba258f38b0176a06a3e99e41df8ca50/inductor_cache/53/c5375zwqjlshmg43wsphzoi4ccjdln76exf23trlg5dg3stpojtw.py":62:34)
#loc67 = loc("/root/.cache/vllm/torch_compile_cache/torch_aot_compile/61bda05feca29378847c32f031efa5c8dba258f38b0176a06a3e99e41df8ca50/inductor_cache/53/c5375zwqjlshmg43wsphzoi4ccjdln76exf23trlg5dg3stpojtw.py":63:20)
#loc68 = loc("/root/.cache/vllm/torch_compile_cache/torch_aot_compile/61bda05feca29378847c32f031efa5c8dba258f38b0176a06a3e99e41df8ca50/inductor_cache/53/c5375zwqjlshmg43wsphzoi4ccjdln76exf23trlg5dg3stpojtw.py":64:29)
#loc69 = loc("/root/.cache/vllm/torch_compile_cache/torch_aot_compile/61bda05feca29378847c32f031efa5c8dba258f38b0176a06a3e99e41df8ca50/inductor_cache/53/c5375zwqjlshmg43wsphzoi4ccjdln76exf23trlg5dg3stpojtw.py":65:19)
#loc70 = loc("/root/.cache/vllm/torch_compile_cache/torch_aot_compile/61bda05feca29378847c32f031efa5c8dba258f38b0176a06a3e99e41df8ca50/inductor_cache/53/c5375zwqjlshmg43wsphzoi4ccjdln76exf23trlg5dg3stpojtw.py":66:43)
#loc71 = loc("/root/.cache/vllm/torch_compile_cache/torch_aot_compile/61bda05feca29378847c32f031efa5c8dba258f38b0176a06a3e99e41df8ca50/inductor_cache/53/c5375zwqjlshmg43wsphzoi4ccjdln76exf23trlg5dg3stpojtw.py":66:38)
#loc72 = loc("/root/.cache/vllm/torch_compile_cache/torch_aot_compile/61bda05feca29378847c32f031efa5c8dba258f38b0176a06a3e99e41df8ca50/inductor_cache/53/c5375zwqjlshmg43wsphzoi4ccjdln76exf23trlg5dg3stpojtw.py":66:57)
#loc73 = loc("/root/.cache/vllm/torch_compile_cache/torch_aot_compile/61bda05feca29378847c32f031efa5c8dba258f38b0176a06a3e99e41df8ca50/inductor_cache/53/c5375zwqjlshmg43wsphzoi4ccjdln76exf23trlg5dg3stpojtw.py":66:49)
#loc74 = loc("/root/.cache/vllm/torch_compile_cache/torch_aot_compile/61bda05feca29378847c32f031efa5c8dba258f38b0176a06a3e99e41df8ca50/inductor_cache/53/c5375zwqjlshmg43wsphzoi4ccjdln76exf23trlg5dg3stpojtw.py":66:31)
#loc75 = loc("/root/.cache/vllm/torch_compile_cache/torch_aot_compile/61bda05feca29378847c32f031efa5c8dba258f38b0176a06a3e99e41df8ca50/inductor_cache/53/c5375zwqjlshmg43wsphzoi4ccjdln76exf23trlg5dg3stpojtw.py":66:71)
#loc76 = loc("/root/.cache/vllm/torch_compile_cache/torch_aot_compile/61bda05feca29378847c32f031efa5c8dba258f38b0176a06a3e99e41df8ca50/inductor_cache/53/c5375zwqjlshmg43wsphzoi4ccjdln76exf23trlg5dg3stpojtw.py":66:63)
#loc77 = loc("/root/.cache/vllm/torch_compile_cache/torch_aot_compile/61bda05feca29378847c32f031efa5c8dba258f38b0176a06a3e99e41df8ca50/inductor_cache/53/c5375zwqjlshmg43wsphzoi4ccjdln76exf23trlg5dg3stpojtw.py":66:122)
#loc78 = loc("/root/.cache/vllm/torch_compile_cache/torch_aot_compile/61bda05feca29378847c32f031efa5c8dba258f38b0176a06a3e99e41df8ca50/inductor_cache/53/c5375zwqjlshmg43wsphzoi4ccjdln76exf23trlg5dg3stpojtw.py":68:31)
#loc79 = loc("/root/.cache/vllm/torch_compile_cache/torch_aot_compile/61bda05feca29378847c32f031efa5c8dba258f38b0176a06a3e99e41df8ca50/inductor_cache/53/c5375zwqjlshmg43wsphzoi4ccjdln76exf23trlg5dg3stpojtw.py":68:44)
#loc80 = loc("/root/.cache/vllm/torch_compile_cache/torch_aot_compile/61bda05feca29378847c32f031efa5c8dba258f38b0176a06a3e99e41df8ca50/inductor_cache/53/c5375zwqjlshmg43wsphzoi4ccjdln76exf23trlg5dg3stpojtw.py":68:36)
#loc81 = loc("/root/.cache/vllm/torch_compile_cache/torch_aot_compile/61bda05feca29378847c32f031efa5c8dba258f38b0176a06a3e99e41df8ca50/inductor_cache/53/c5375zwqjlshmg43wsphzoi4ccjdln76exf23trlg5dg3stpojtw.py":69:32)
#loc82 = loc("/root/.cache/vllm/torch_compile_cache/torch_aot_compile/61bda05feca29378847c32f031efa5c8dba258f38b0176a06a3e99e41df8ca50/inductor_cache/53/c5375zwqjlshmg43wsphzoi4ccjdln76exf23trlg5dg3stpojtw.py":70:21)
#loc83 = loc("/root/.cache/vllm/torch_compile_cache/torch_aot_compile/61bda05feca29378847c32f031efa5c8dba258f38b0176a06a3e99e41df8ca50/inductor_cache/53/c5375zwqjlshmg43wsphzoi4ccjdln76exf23trlg5dg3stpojtw.py":71:32)
#loc84 = loc("/root/.cache/vllm/torch_compile_cache/torch_aot_compile/61bda05feca29378847c32f031efa5c8dba258f38b0176a06a3e99e41df8ca50/inductor_cache/53/c5375zwqjlshmg43wsphzoi4ccjdln76exf23trlg5dg3stpojtw.py":72:20)
#loc85 = loc("/root/.cache/vllm/torch_compile_cache/torch_aot_compile/61bda05feca29378847c32f031efa5c8dba258f38b0176a06a3e99e41df8ca50/inductor_cache/53/c5375zwqjlshmg43wsphzoi4ccjdln76exf23trlg5dg3stpojtw.py":73:28)
#loc86 = loc("/root/.cache/vllm/torch_compile_cache/torch_aot_compile/61bda05feca29378847c32f031efa5c8dba258f38b0176a06a3e99e41df8ca50/inductor_cache/53/c5375zwqjlshmg43wsphzoi4ccjdln76exf23trlg5dg3stpojtw.py":74:20)
#loc87 = loc("/root/.cache/vllm/torch_compile_cache/torch_aot_compile/61bda05feca29378847c32f031efa5c8dba258f38b0176a06a3e99e41df8ca50/inductor_cache/53/c5375zwqjlshmg43wsphzoi4ccjdln76exf23trlg5dg3stpojtw.py":75:45)
#loc88 = loc("/root/.cache/vllm/torch_compile_cache/torch_aot_compile/61bda05feca29378847c32f031efa5c8dba258f38b0176a06a3e99e41df8ca50/inductor_cache/53/c5375zwqjlshmg43wsphzoi4ccjdln76exf23trlg5dg3stpojtw.py":75:37)
#loc89 = loc("/root/.cache/vllm/torch_compile_cache/torch_aot_compile/61bda05feca29378847c32f031efa5c8dba258f38b0176a06a3e99e41df8ca50/inductor_cache/53/c5375zwqjlshmg43wsphzoi4ccjdln76exf23trlg5dg3stpojtw.py":75:31)
#loc90 = loc("/root/.cache/vllm/torch_compile_cache/torch_aot_compile/61bda05feca29378847c32f031efa5c8dba258f38b0176a06a3e99e41df8ca50/inductor_cache/53/c5375zwqjlshmg43wsphzoi4ccjdln76exf23trlg5dg3stpojtw.py":75:59)
#loc91 = loc("/root/.cache/vllm/torch_compile_cache/torch_aot_compile/61bda05feca29378847c32f031efa5c8dba258f38b0176a06a3e99e41df8ca50/inductor_cache/53/c5375zwqjlshmg43wsphzoi4ccjdln76exf23trlg5dg3stpojtw.py":75:51)
#loc92 = loc("/root/.cache/vllm/torch_compile_cache/torch_aot_compile/61bda05feca29378847c32f031efa5c8dba258f38b0176a06a3e99e41df8ca50/inductor_cache/53/c5375zwqjlshmg43wsphzoi4ccjdln76exf23trlg5dg3stpojtw.py":75:110)
#loc93 = loc("/root/.cache/vllm/torch_compile_cache/torch_aot_compile/61bda05feca29378847c32f031efa5c8dba258f38b0176a06a3e99e41df8ca50/inductor_cache/53/c5375zwqjlshmg43wsphzoi4ccjdln76exf23trlg5dg3stpojtw.py":77:30)
#loc94 = loc("/root/.cache/vllm/torch_compile_cache/torch_aot_compile/61bda05feca29378847c32f031efa5c8dba258f38b0176a06a3e99e41df8ca50/inductor_cache/53/c5375zwqjlshmg43wsphzoi4ccjdln76exf23trlg5dg3stpojtw.py":78:20)
#loc95 = loc("/root/.cache/vllm/torch_compile_cache/torch_aot_compile/61bda05feca29378847c32f031efa5c8dba258f38b0176a06a3e99e41df8ca50/inductor_cache/53/c5375zwqjlshmg43wsphzoi4ccjdln76exf23trlg5dg3stpojtw.py":79:20)
#loc96 = loc("/root/.cache/vllm/torch_compile_cache/torch_aot_compile/61bda05feca29378847c32f031efa5c8dba258f38b0176a06a3e99e41df8ca50/inductor_cache/53/c5375zwqjlshmg43wsphzoi4ccjdln76exf23trlg5dg3stpojtw.py":81:34)
#loc97 = loc("/root/.cache/vllm/torch_compile_cache/torch_aot_compile/61bda05feca29378847c32f031efa5c8dba258f38b0176a06a3e99e41df8ca50/inductor_cache/53/c5375zwqjlshmg43wsphzoi4ccjdln76exf23trlg5dg3stpojtw.py":81:48)
#loc98 = loc("/root/.cache/vllm/torch_compile_cache/torch_aot_compile/61bda05feca29378847c32f031efa5c8dba258f38b0176a06a3e99e41df8ca50/inductor_cache/53/c5375zwqjlshmg43wsphzoi4ccjdln76exf23trlg5dg3stpojtw.py":81:40)
#loc99 = loc("/root/.cache/vllm/torch_compile_cache/torch_aot_compile/61bda05feca29378847c32f031efa5c8dba258f38b0176a06a3e99e41df8ca50/inductor_cache/53/c5375zwqjlshmg43wsphzoi4ccjdln76exf23trlg5dg3stpojtw.py":81:31)
#loc100 = loc("/root/.cache/vllm/torch_compile_cache/torch_aot_compile/61bda05feca29378847c32f031efa5c8dba258f38b0176a06a3e99e41df8ca50/inductor_cache/53/c5375zwqjlshmg43wsphzoi4ccjdln76exf23trlg5dg3stpojtw.py":81:62)
#loc101 = loc("/root/.cache/vllm/torch_compile_cache/torch_aot_compile/61bda05feca29378847c32f031efa5c8dba258f38b0176a06a3e99e41df8ca50/inductor_cache/53/c5375zwqjlshmg43wsphzoi4ccjdln76exf23trlg5dg3stpojtw.py":81:54)
#loc102 = loc("/root/.cache/vllm/torch_compile_cache/torch_aot_compile/61bda05feca29378847c32f031efa5c8dba258f38b0176a06a3e99e41df8ca50/inductor_cache/53/c5375zwqjlshmg43wsphzoi4ccjdln76exf23trlg5dg3stpojtw.py":81:113)
#loc103 = loc("/root/.cache/vllm/torch_compile_cache/torch_aot_compile/61bda05feca29378847c32f031efa5c8dba258f38b0176a06a3e99e41df8ca50/inductor_cache/53/c5375zwqjlshmg43wsphzoi4ccjdln76exf23trlg5dg3stpojtw.py":82:20)
#loc104 = loc("/root/.cache/vllm/torch_compile_cache/torch_aot_compile/61bda05feca29378847c32f031efa5c8dba258f38b0176a06a3e99e41df8ca50/inductor_cache/53/c5375zwqjlshmg43wsphzoi4ccjdln76exf23trlg5dg3stpojtw.py":83:43)
#loc105 = loc("/root/.cache/vllm/torch_compile_cache/torch_aot_compile/61bda05feca29378847c32f031efa5c8dba258f38b0176a06a3e99e41df8ca50/inductor_cache/53/c5375zwqjlshmg43wsphzoi4ccjdln76exf23trlg5dg3stpojtw.py":83:38)
#loc106 = loc("/root/.cache/vllm/torch_compile_cache/torch_aot_compile/61bda05feca29378847c32f031efa5c8dba258f38b0176a06a3e99e41df8ca50/inductor_cache/53/c5375zwqjlshmg43wsphzoi4ccjdln76exf23trlg5dg3stpojtw.py":83:57)
#loc107 = loc("/root/.cache/vllm/torch_compile_cache/torch_aot_compile/61bda05feca29378847c32f031efa5c8dba258f38b0176a06a3e99e41df8ca50/inductor_cache/53/c5375zwqjlshmg43wsphzoi4ccjdln76exf23trlg5dg3stpojtw.py":83:49)
#loc108 = loc("/root/.cache/vllm/torch_compile_cache/torch_aot_compile/61bda05feca29378847c32f031efa5c8dba258f38b0176a06a3e99e41df8ca50/inductor_cache/53/c5375zwqjlshmg43wsphzoi4ccjdln76exf23trlg5dg3stpojtw.py":83:31)
#loc109 = loc("/root/.cache/vllm/torch_compile_cache/torch_aot_compile/61bda05feca29378847c32f031efa5c8dba258f38b0176a06a3e99e41df8ca50/inductor_cache/53/c5375zwqjlshmg43wsphzoi4ccjdln76exf23trlg5dg3stpojtw.py":83:71)
#loc110 = loc("/root/.cache/vllm/torch_compile_cache/torch_aot_compile/61bda05feca29378847c32f031efa5c8dba258f38b0176a06a3e99e41df8ca50/inductor_cache/53/c5375zwqjlshmg43wsphzoi4ccjdln76exf23trlg5dg3stpojtw.py":83:63)
#loc111 = loc("/root/.cache/vllm/torch_compile_cache/torch_aot_compile/61bda05feca29378847c32f031efa5c8dba258f38b0176a06a3e99e41df8ca50/inductor_cache/53/c5375zwqjlshmg43wsphzoi4ccjdln76exf23trlg5dg3stpojtw.py":83:122)
#loc112 = loc("/root/.cache/vllm/torch_compile_cache/torch_aot_compile/61bda05feca29378847c32f031efa5c8dba258f38b0176a06a3e99e41df8ca50/inductor_cache/53/c5375zwqjlshmg43wsphzoi4ccjdln76exf23trlg5dg3stpojtw.py":85:20)
#loc113 = loc("/root/.cache/vllm/torch_compile_cache/torch_aot_compile/61bda05feca29378847c32f031efa5c8dba258f38b0176a06a3e99e41df8ca50/inductor_cache/53/c5375zwqjlshmg43wsphzoi4ccjdln76exf23trlg5dg3stpojtw.py":86:39)
#loc114 = loc("/root/.cache/vllm/torch_compile_cache/torch_aot_compile/61bda05feca29378847c32f031efa5c8dba258f38b0176a06a3e99e41df8ca50/inductor_cache/53/c5375zwqjlshmg43wsphzoi4ccjdln76exf23trlg5dg3stpojtw.py":86:31)
#loc115 = loc("/root/.cache/vllm/torch_compile_cache/torch_aot_compile/61bda05feca29378847c32f031efa5c8dba258f38b0176a06a3e99e41df8ca50/inductor_cache/53/c5375zwqjlshmg43wsphzoi4ccjdln76exf23trlg5dg3stpojtw.py":86:52)
#loc116 = loc("/root/.cache/vllm/torch_compile_cache/torch_aot_compile/61bda05feca29378847c32f031efa5c8dba258f38b0176a06a3e99e41df8ca50/inductor_cache/53/c5375zwqjlshmg43wsphzoi4ccjdln76exf23trlg5dg3stpojtw.py":86:44)
#loc117 = loc("/root/.cache/vllm/torch_compile_cache/torch_aot_compile/61bda05feca29378847c32f031efa5c8dba258f38b0176a06a3e99e41df8ca50/inductor_cache/53/c5375zwqjlshmg43wsphzoi4ccjdln76exf23trlg5dg3stpojtw.py":86:103)
#loc118 = loc("/root/.cache/vllm/torch_compile_cache/torch_aot_compile/61bda05feca29378847c32f031efa5c8dba258f38b0176a06a3e99e41df8ca50/inductor_cache/53/c5375zwqjlshmg43wsphzoi4ccjdln76exf23trlg5dg3stpojtw.py":88:20)
#loc119 = loc("/root/.cache/vllm/torch_compile_cache/torch_aot_compile/61bda05feca29378847c32f031efa5c8dba258f38b0176a06a3e99e41df8ca50/inductor_cache/53/c5375zwqjlshmg43wsphzoi4ccjdln76exf23trlg5dg3stpojtw.py":89:20)
#loc120 = loc("/root/.cache/vllm/torch_compile_cache/torch_aot_compile/61bda05feca29378847c32f031efa5c8dba258f38b0176a06a3e99e41df8ca50/inductor_cache/53/c5375zwqjlshmg43wsphzoi4ccjdln76exf23trlg5dg3stpojtw.py":91:34)
#loc121 = loc("/root/.cache/vllm/torch_compile_cache/torch_aot_compile/61bda05feca29378847c32f031efa5c8dba258f38b0176a06a3e99e41df8ca50/inductor_cache/53/c5375zwqjlshmg43wsphzoi4ccjdln76exf23trlg5dg3stpojtw.py":91:48)
#loc122 = loc("/root/.cache/vllm/torch_compile_cache/torch_aot_compile/61bda05feca29378847c32f031efa5c8dba258f38b0176a06a3e99e41df8ca50/inductor_cache/53/c5375zwqjlshmg43wsphzoi4ccjdln76exf23trlg5dg3stpojtw.py":91:40)
#loc123 = loc("/root/.cache/vllm/torch_compile_cache/torch_aot_compile/61bda05feca29378847c32f031efa5c8dba258f38b0176a06a3e99e41df8ca50/inductor_cache/53/c5375zwqjlshmg43wsphzoi4ccjdln76exf23trlg5dg3stpojtw.py":91:31)
#loc124 = loc("/root/.cache/vllm/torch_compile_cache/torch_aot_compile/61bda05feca29378847c32f031efa5c8dba258f38b0176a06a3e99e41df8ca50/inductor_cache/53/c5375zwqjlshmg43wsphzoi4ccjdln76exf23trlg5dg3stpojtw.py":91:62)
#loc125 = loc("/root/.cache/vllm/torch_compile_cache/torch_aot_compile/61bda05feca29378847c32f031efa5c8dba258f38b0176a06a3e99e41df8ca50/inductor_cache/53/c5375zwqjlshmg43wsphzoi4ccjdln76exf23trlg5dg3stpojtw.py":91:54)
#loc126 = loc("/root/.cache/vllm/torch_compile_cache/torch_aot_compile/61bda05feca29378847c32f031efa5c8dba258f38b0176a06a3e99e41df8ca50/inductor_cache/53/c5375zwqjlshmg43wsphzoi4ccjdln76exf23trlg5dg3stpojtw.py":91:113)
#loc127 = loc("/root/.cache/vllm/torch_compile_cache/torch_aot_compile/61bda05feca29378847c32f031efa5c8dba258f38b0176a06a3e99e41df8ca50/inductor_cache/53/c5375zwqjlshmg43wsphzoi4ccjdln76exf23trlg5dg3stpojtw.py":92:20)
#loc128 = loc("/root/.cache/vllm/torch_compile_cache/torch_aot_compile/61bda05feca29378847c32f031efa5c8dba258f38b0176a06a3e99e41df8ca50/inductor_cache/53/c5375zwqjlshmg43wsphzoi4ccjdln76exf23trlg5dg3stpojtw.py":93:20)
#loc129 = loc("/root/.cache/vllm/torch_compile_cache/torch_aot_compile/61bda05feca29378847c32f031efa5c8dba258f38b0176a06a3e99e41df8ca50/inductor_cache/53/c5375zwqjlshmg43wsphzoi4ccjdln76exf23trlg5dg3stpojtw.py":94:38)
#loc130 = loc("/root/.cache/vllm/torch_compile_cache/torch_aot_compile/61bda05feca29378847c32f031efa5c8dba258f38b0176a06a3e99e41df8ca50/inductor_cache/53/c5375zwqjlshmg43wsphzoi4ccjdln76exf23trlg5dg3stpojtw.py":95:35)
#loc131 = loc("/root/.cache/vllm/torch_compile_cache/torch_aot_compile/61bda05feca29378847c32f031efa5c8dba258f38b0176a06a3e99e41df8ca50/inductor_cache/53/c5375zwqjlshmg43wsphzoi4ccjdln76exf23trlg5dg3stpojtw.py":96:34)
#loc132 = loc("/root/.cache/vllm/torch_compile_cache/torch_aot_compile/61bda05feca29378847c32f031efa5c8dba258f38b0176a06a3e99e41df8ca50/inductor_cache/53/c5375zwqjlshmg43wsphzoi4ccjdln76exf23trlg5dg3stpojtw.py":97:34)
#loc133 = loc("/root/.cache/vllm/torch_compile_cache/torch_aot_compile/61bda05feca29378847c32f031efa5c8dba258f38b0176a06a3e99e41df8ca50/inductor_cache/53/c5375zwqjlshmg43wsphzoi4ccjdln76exf23trlg5dg3stpojtw.py":97:30)
#loc134 = loc("/root/.cache/vllm/torch_compile_cache/torch_aot_compile/61bda05feca29378847c32f031efa5c8dba258f38b0176a06a3e99e41df8ca50/inductor_cache/53/c5375zwqjlshmg43wsphzoi4ccjdln76exf23trlg5dg3stpojtw.py":97:25)
#loc135 = loc("/root/.cache/vllm/torch_compile_cache/torch_aot_compile/61bda05feca29378847c32f031efa5c8dba258f38b0176a06a3e99e41df8ca50/inductor_cache/53/c5375zwqjlshmg43wsphzoi4ccjdln76exf23trlg5dg3stpojtw.py":97:46)
#loc136 = loc("/root/.cache/vllm/torch_compile_cache/torch_aot_compile/61bda05feca29378847c32f031efa5c8dba258f38b0176a06a3e99e41df8ca50/inductor_cache/53/c5375zwqjlshmg43wsphzoi4ccjdln76exf23trlg5dg3stpojtw.py":97:4)
#loc144 = loc("xoffset"(#loc1))
#loc145 = loc("xoffset"(#loc2))
#loc146 = loc("xindex"(#loc3))
#loc147 = loc("xindex"(#loc4))
#loc148 = loc("xmask"(#loc5))
#loc149 = loc("x0"(#loc6))
#loc150 = loc("x1"(#loc7))
#loc151 = loc("tmp1"(#loc8))
#loc152 = loc("tmp2"(#loc9))
#loc153 = loc("tmp3"(#loc10))
#loc154 = loc("tmp4"(#loc11))
#loc155 = loc("tmp5"(#loc12))
#loc156 = loc("tmp5"(#loc13))
#loc157 = loc("tmp5"(#loc14))
#loc158 = loc("tmp5"(#loc15))
#loc159 = loc("tmp5"(#loc16))
#loc160 = loc("tmp5"(#loc17))
#loc161 = loc("tmp5"(#loc18))
#loc162 = loc("tmp7"(#loc19))
#loc163 = loc("tmp7"(#loc20))
#loc164 = loc("tmp7"(#loc21))
#loc165 = loc("tmp8"(#loc22))
#loc166 = loc("tmp9"(#loc23))
#loc167 = loc("tmp10"(#loc24))
#loc168 = loc("tmp11"(#loc25))
#loc169 = loc("tmp12"(#loc26))
#loc170 = loc("tmp13"(#loc27))
#loc171 = loc("tmp14"(#loc28))
#loc172 = loc("tmp14"(#loc29))
#loc173 = loc("tmp14"(#loc30))
#loc174 = loc("tmp14"(#loc31))
#loc175 = loc("tmp16"(#loc32))
#loc176 = loc("tmp17"(#loc33))
#loc177 = loc("tmp18"(#loc34))
#loc178 = loc("tmp20"(#loc35))
#loc179 = loc("tmp20"(#loc36))
#loc180 = loc("tmp20"(#loc37))
#loc181 = loc("tmp20"(#loc38))
#loc182 = loc("tmp20"(#loc39))
#loc183 = loc("tmp20"(#loc40))
#loc184 = loc("tmp21"(#loc41))
#loc185 = loc("tmp22"(#loc42))
#loc186 = loc("tmp22"(#loc43))
#loc187 = loc("tmp22"(#loc44))
#loc188 = loc("tmp22"(#loc45))
#loc189 = loc("tmp22"(#loc46))
#loc190 = loc("tmp22"(#loc47))
#loc191 = loc("tmp22"(#loc48))
#loc192 = loc("tmp24"(#loc49))
#loc193 = loc("tmp25"(#loc50))
#loc194 = loc("tmp25"(#loc51))
#loc195 = loc("tmp25"(#loc52))
#loc196 = loc("tmp25"(#loc53))
#loc197 = loc("tmp25"(#loc54))
#loc198 = loc("tmp27"(#loc55))
#loc199 = loc("tmp28"(#loc56))
#loc200 = loc("tmp30"(#loc57))
#loc201 = loc("tmp30"(#loc58))
#loc202 = loc("tmp30"(#loc59))
#loc203 = loc("tmp30"(#loc60))
#loc204 = loc("tmp30"(#loc61))
#loc205 = loc("tmp30"(#loc62))
#loc206 = loc("tmp31"(#loc63))
#loc207 = loc("tmp32"(#loc64))
#loc208 = loc("tmp33"(#loc65))
#loc209 = loc("tmp34"(#loc66))
#loc210 = loc("tmp35"(#loc67))
#loc211 = loc("tmp36"(#loc68))
#loc212 = loc("tmp37"(#loc69))
#loc213 = loc("tmp38"(#loc70))
#loc214 = loc("tmp38"(#loc71))
#loc215 = loc("tmp38"(#loc72))
#loc216 = loc("tmp38"(#loc73))
#loc217 = loc("tmp38"(#loc74))
#loc218 = loc("tmp38"(#loc75))
#loc219 = loc("tmp38"(#loc76))
#loc220 = loc("tmp38"(#loc77))
#loc221 = loc("tmp40"(#loc78))
#loc222 = loc("tmp40"(#loc79))
#loc223 = loc("tmp40"(#loc80))
#loc224 = loc("tmp41"(#loc81))
#loc225 = loc("tmp42"(#loc82))
#loc226 = loc("tmp43"(#loc83))
#loc227 = loc("tmp44"(#loc84))
#loc228 = loc("tmp45"(#loc85))
#loc229 = loc("tmp46"(#loc86))
#loc230 = loc("tmp47"(#loc87))
#loc231 = loc("tmp47"(#loc88))
#loc232 = loc("tmp47"(#loc89))
#loc233 = loc("tmp47"(#loc90))
#loc234 = loc("tmp47"(#loc91))
#loc235 = loc("tmp47"(#loc92))
#loc236 = loc("tmp49"(#loc93))
#loc237 = loc("tmp50"(#loc94))
#loc238 = loc("tmp51"(#loc95))
#loc239 = loc("tmp53"(#loc96))
#loc240 = loc("tmp53"(#loc97))
#loc241 = loc("tmp53"(#loc98))
#loc242 = loc("tmp53"(#loc99))
#loc243 = loc("tmp53"(#loc100))
#loc244 = loc("tmp53"(#loc101))
#loc245 = loc("tmp53"(#loc102))
#loc246 = loc("tmp54"(#loc103))
#loc247 = loc("tmp55"(#loc104))
#loc248 = loc("tmp55"(#loc105))
#loc249 = loc("tmp55"(#loc106))
#loc250 = loc("tmp55"(#loc107))
#loc251 = loc("tmp55"(#loc108))
#loc252 = loc("tmp55"(#loc109))
#loc253 = loc("tmp55"(#loc110))
#loc254 = loc("tmp55"(#loc111))
#loc255 = loc("tmp57"(#loc112))
#loc256 = loc("tmp58"(#loc113))
#loc257 = loc("tmp58"(#loc114))
#loc258 = loc("tmp58"(#loc115))
#loc259 = loc("tmp58"(#loc116))
#loc260 = loc("tmp58"(#loc117))
#loc261 = loc("tmp60"(#loc118))
#loc262 = loc("tmp61"(#loc119))
#loc263 = loc("tmp63"(#loc120))
#loc264 = loc("tmp63"(#loc121))
#loc265 = loc("tmp63"(#loc122))
#loc266 = loc("tmp63"(#loc123))
#loc267 = loc("tmp63"(#loc124))
#loc268 = loc("tmp63"(#loc125))
#loc269 = loc("tmp63"(#loc126))
#loc270 = loc("tmp64"(#loc127))
#loc271 = loc("tmp65"(#loc128))
#loc272 = loc("tmp66"(#loc129))
#loc273 = loc("tmp67"(#loc130))
#loc274 = loc("tmp68"(#loc131))
