#loc = loc("/root/.cache/vllm/torch_compile_cache/torch_aot_compile/61bda05feca29378847c32f031efa5c8dba258f38b0176a06a3e99e41df8ca50/inductor_cache/6c/c6c3k45citakf7ejhddfm4zqpibrp3btlywhwju5nk3jsdyah5yo.py":22:0)
#loc146 = loc("in_ptr0"(#loc))
#loc147 = loc("in_ptr1"(#loc))
#loc148 = loc("in_ptr2"(#loc))
#loc149 = loc("in_ptr3"(#loc))
#loc150 = loc("in_ptr4"(#loc))
#loc151 = loc("out_ptr0"(#loc))
#loc152 = loc("xnumel"(#loc))
module {
  tt.func public @triton_(%in_ptr0: !tt.ptr<f16> {tt.divisibility = 16 : i32} loc("in_ptr0"(#loc)), %in_ptr1: !tt.ptr<f32> {tt.divisibility = 16 : i32} loc("in_ptr1"(#loc)), %in_ptr2: !tt.ptr<f16> {tt.divisibility = 16 : i32} loc("in_ptr2"(#loc)), %in_ptr3: !tt.ptr<f16> {tt.divisibility = 16 : i32} loc("in_ptr3"(#loc)), %in_ptr4: !tt.ptr<f16> {tt.divisibility = 16 : i32} loc("in_ptr4"(#loc)), %out_ptr0: !tt.ptr<f16> {tt.divisibility = 16 : i32} loc("out_ptr0"(#loc)), %xnumel: i32 {tt.divisibility = 16 : i32} loc("xnumel"(#loc))) attributes {noinline = false} {
    %xoffset = tt.get_program_id x : i32 loc(#loc153)
    %xoffset_0 = arith.constant 512 : i32 loc(#loc154)
    %xoffset_1 = arith.constant 512 : i32 loc(#loc154)
    %xoffset_2 = arith.muli %xoffset, %xoffset_1 : i32 loc(#loc154)
    %xindex = tt.make_range {end = 512 : i32, start = 0 : i32} : tensor<512xi32> loc(#loc155)
    %xindex_3 = tt.splat %xoffset_2 : i32 -> tensor<512xi32> loc(#loc156)
    %xindex_4 = arith.addi %xindex_3, %xindex : tensor<512xi32> loc(#loc156)
    %xmask = tt.splat %xnumel : i32 -> tensor<512xi32> loc(#loc157)
    %xmask_5 = arith.cmpi slt, %xindex_4, %xmask : tensor<512xi32> loc(#loc157)
    %x0 = arith.constant 64 : i32 loc(#loc158)
    %x0_6 = arith.constant 64 : i32 loc(#loc158)
    %x0_7 = arith.constant dense<64> : tensor<512xi32> loc(#loc158)
    %x0_8 = arith.remsi %xindex_4, %x0_7 : tensor<512xi32> loc(#loc158)
    %x1 = arith.constant 64 : i32 loc(#loc159)
    %x1_9 = arith.constant 64 : i32 loc(#loc159)
    %x1_10 = arith.constant dense<64> : tensor<512xi32> loc(#loc159)
    %x1_11 = arith.divsi %xindex_4, %x1_10 : tensor<512xi32> loc(#loc159)
    %x1_12 = arith.constant 8 : i32 loc(#loc160)
    %x1_13 = arith.constant 8 : i32 loc(#loc160)
    %x1_14 = arith.constant dense<8> : tensor<512xi32> loc(#loc160)
    %x1_15 = arith.remsi %x1_11, %x1_14 : tensor<512xi32> loc(#loc160)
    %x2 = arith.constant 512 : i32 loc(#loc161)
    %x2_16 = arith.constant 512 : i32 loc(#loc161)
    %x2_17 = arith.constant dense<512> : tensor<512xi32> loc(#loc161)
    %x2_18 = arith.divsi %xindex_4, %x2_17 : tensor<512xi32> loc(#loc161)
    %x3 = arith.constant 64 : i32 loc(#loc162)
    %x3_19 = arith.constant 64 : i32 loc(#loc162)
    %x3_20 = arith.constant dense<64> : tensor<512xi32> loc(#loc162)
    %x3_21 = arith.divsi %xindex_4, %x3_20 : tensor<512xi32> loc(#loc162)
    %tmp1 = arith.constant 0 : i64 loc(#loc163)
    %tmp1_22 = arith.constant dense<0> : tensor<1xi64> loc(#loc163)
    %tmp2 = arith.extsi %x0_8 : tensor<512xi32> to tensor<512xi64> loc(#loc164)
    %tmp2_23 = arith.constant dense<0> : tensor<512xi64> loc(#loc164)
    %tmp2_24 = arith.cmpi sge, %tmp2, %tmp2_23 : tensor<512xi64> loc(#loc164)
    %tmp3 = arith.constant 32 : i64 loc(#loc165)
    %tmp3_25 = arith.constant dense<32> : tensor<1xi64> loc(#loc165)
    %tmp4 = arith.extsi %x0_8 : tensor<512xi32> to tensor<512xi64> loc(#loc166)
    %tmp4_26 = arith.constant dense<32> : tensor<512xi64> loc(#loc166)
    %tmp4_27 = arith.cmpi slt, %tmp4, %tmp4_26 : tensor<512xi64> loc(#loc166)
    %tmp5 = arith.constant 512 : i32 loc(#loc167)
    %tmp5_28 = arith.constant 512 : i32 loc(#loc167)
    %tmp5_29 = arith.constant dense<512> : tensor<512xi32> loc(#loc167)
    %tmp5_30 = arith.muli %tmp5_29, %x1_15 : tensor<512xi32> loc(#loc167)
    %tmp5_31 = arith.constant 4608 : i32 loc(#loc168)
    %tmp5_32 = arith.constant 4608 : i32 loc(#loc168)
    %tmp5_33 = arith.constant dense<4608> : tensor<512xi32> loc(#loc168)
    %tmp5_34 = arith.muli %tmp5_33, %x2_18 : tensor<512xi32> loc(#loc168)
    %tmp5_35 = arith.addi %tmp5_30, %tmp5_34 : tensor<512xi32> loc(#loc169)
    %tmp5_36 = arith.addi %tmp5_35, %x0_8 : tensor<512xi32> loc(#loc170)
    %tmp5_37 = tt.splat %in_ptr0 : !tt.ptr<f16> -> tensor<512x!tt.ptr<f16>> loc(#loc171)
    %tmp5_38 = tt.addptr %tmp5_37, %tmp5_36 : tensor<512x!tt.ptr<f16>>, tensor<512xi32> loc(#loc171)
    %tmp5_39 = arith.andi %tmp4_27, %xmask_5 : tensor<512xi1> loc(#loc172)
    %tmp5_40 = arith.constant 0.000000e+00 : f32 loc(#loc173)
    %tmp5_41 = arith.constant dense<0.000000e+00> : tensor<512xf32> loc(#loc173)
    %tmp5_42 = arith.truncf %tmp5_41 : tensor<512xf32> to tensor<512xf16> loc(#loc173)
    %tmp5_43 = tt.load %tmp5_38, %tmp5_39, %tmp5_42 evictionPolicy = evict_last : tensor<512x!tt.ptr<f16>> loc(#loc173)
    %tmp5_44 = arith.extf %tmp5_43 : tensor<512xf16> to tensor<512xf32> loc(#loc174)
    %tmp7 = tt.splat %in_ptr1 : !tt.ptr<f32> -> tensor<512x!tt.ptr<f32>> loc(#loc175)
    %tmp7_45 = tt.addptr %tmp7, %x3_21 : tensor<512x!tt.ptr<f32>>, tensor<512xi32> loc(#loc175)
    %tmp7_46 = arith.andi %tmp4_27, %xmask_5 : tensor<512xi1> loc(#loc176)
    %tmp7_47 = arith.constant 0.000000e+00 : f32 loc(#loc177)
    %tmp7_48 = arith.constant dense<0.000000e+00> : tensor<512xf32> loc(#loc177)
    %tmp7_49 = tt.load %tmp7_45, %tmp7_46, %tmp7_48 evictionPolicy = evict_last : tensor<512x!tt.ptr<f32>> loc(#loc177)
    %tmp8 = arith.constant 2.560000e+02 : f32 loc(#loc178)
    %tmp8_50 = arith.constant dense<2.560000e+02> : tensor<1xf32> loc(#loc178)
    %tmp9 = arith.constant dense<2.560000e+02> : tensor<512xf32> loc(#loc179)
    %tmp9_51 = arith.divf %tmp7_49, %tmp9 : tensor<512xf32> loc(#loc179)
    %tmp10 = arith.constant 9.99999997E-7 : f32 loc(#loc180)
    %tmp10_52 = arith.constant dense<9.99999997E-7> : tensor<1xf32> loc(#loc180)
    %tmp11 = arith.constant dense<9.99999997E-7> : tensor<512xf32> loc(#loc181)
    %tmp11_53 = arith.addf %tmp9_51, %tmp11 : tensor<512xf32> loc(#loc181)
    %tmp12 = tt.extern_elementwise %tmp11_53 {libname = "", libpath = "", pure = true, symbol = "__nv_rsqrtf"} : (tensor<512xf32>) -> tensor<512xf32> loc(#loc182)
    %tmp13 = arith.mulf %tmp5_44, %tmp12 : tensor<512xf32> loc(#loc183)
    %tmp14 = tt.splat %in_ptr2 : !tt.ptr<f16> -> tensor<512x!tt.ptr<f16>> loc(#loc184)
    %tmp14_54 = tt.addptr %tmp14, %x0_8 : tensor<512x!tt.ptr<f16>>, tensor<512xi32> loc(#loc184)
    %tmp14_55 = arith.andi %tmp4_27, %xmask_5 : tensor<512xi1> loc(#loc185)
    %tmp14_56 = arith.constant 0.000000e+00 : f32 loc(#loc186)
    %tmp14_57 = arith.constant dense<0.000000e+00> : tensor<512xf32> loc(#loc186)
    %tmp14_58 = arith.truncf %tmp14_57 : tensor<512xf32> to tensor<512xf16> loc(#loc186)
    %tmp14_59 = tt.load %tmp14_54, %tmp14_55, %tmp14_58 evictionPolicy = evict_last : tensor<512x!tt.ptr<f16>> loc(#loc186)
    %tmp14_60 = arith.extf %tmp14_59 : tensor<512xf16> to tensor<512xf32> loc(#loc187)
    %tmp16 = arith.constant 1.000000e+00 : f32 loc(#loc188)
    %tmp16_61 = arith.constant dense<1.000000e+00> : tensor<1xf32> loc(#loc188)
    %tmp17 = arith.constant dense<1.000000e+00> : tensor<512xf32> loc(#loc189)
    %tmp17_62 = arith.addf %tmp14_60, %tmp17 : tensor<512xf32> loc(#loc189)
    %tmp18 = arith.mulf %tmp13, %tmp17_62 : tensor<512xf32> loc(#loc190)
    %tmp20 = arith.constant 32 : i32 loc(#loc191)
    %tmp20_63 = arith.constant 32 : i32 loc(#loc191)
    %tmp20_64 = arith.constant dense<32> : tensor<512xi32> loc(#loc191)
    %tmp20_65 = arith.muli %tmp20_64, %x2_18 : tensor<512xi32> loc(#loc191)
    %tmp20_66 = arith.addi %tmp20_65, %x0_8 : tensor<512xi32> loc(#loc192)
    %tmp20_67 = tt.splat %in_ptr3 : !tt.ptr<f16> -> tensor<512x!tt.ptr<f16>> loc(#loc193)
    %tmp20_68 = tt.addptr %tmp20_67, %tmp20_66 : tensor<512x!tt.ptr<f16>>, tensor<512xi32> loc(#loc193)
    %tmp20_69 = arith.andi %tmp4_27, %xmask_5 : tensor<512xi1> loc(#loc194)
    %tmp20_70 = arith.constant 0.000000e+00 : f32 loc(#loc195)
    %tmp20_71 = arith.constant dense<0.000000e+00> : tensor<512xf32> loc(#loc195)
    %tmp20_72 = arith.truncf %tmp20_71 : tensor<512xf32> to tensor<512xf16> loc(#loc195)
    %tmp20_73 = tt.load %tmp20_68, %tmp20_69, %tmp20_72 evictionPolicy = evict_last : tensor<512x!tt.ptr<f16>> loc(#loc195)
    %tmp20_74 = arith.extf %tmp20_73 : tensor<512xf16> to tensor<512xf32> loc(#loc196)
    %tmp21 = arith.mulf %tmp18, %tmp20_74 : tensor<512xf32> loc(#loc197)
    %tmp22 = arith.constant 512 : i32 loc(#loc198)
    %tmp22_75 = arith.constant 512 : i32 loc(#loc198)
    %tmp22_76 = arith.constant dense<512> : tensor<512xi32> loc(#loc198)
    %tmp22_77 = arith.muli %tmp22_76, %x1_15 : tensor<512xi32> loc(#loc198)
    %tmp22_78 = arith.constant 32 : i32 loc(#loc199)
    %tmp22_79 = arith.constant 32 : i32 loc(#loc199)
    %tmp22_80 = arith.constant dense<32> : tensor<512xi32> loc(#loc199)
    %tmp22_81 = arith.addi %tmp22_80, %tmp22_77 : tensor<512xi32> loc(#loc199)
    %tmp22_82 = arith.constant 4608 : i32 loc(#loc200)
    %tmp22_83 = arith.constant 4608 : i32 loc(#loc200)
    %tmp22_84 = arith.constant dense<4608> : tensor<512xi32> loc(#loc200)
    %tmp22_85 = arith.muli %tmp22_84, %x2_18 : tensor<512xi32> loc(#loc200)
    %tmp22_86 = arith.addi %tmp22_81, %tmp22_85 : tensor<512xi32> loc(#loc201)
    %tmp22_87 = arith.addi %tmp22_86, %x0_8 : tensor<512xi32> loc(#loc202)
    %tmp22_88 = tt.splat %in_ptr0 : !tt.ptr<f16> -> tensor<512x!tt.ptr<f16>> loc(#loc203)
    %tmp22_89 = tt.addptr %tmp22_88, %tmp22_87 : tensor<512x!tt.ptr<f16>>, tensor<512xi32> loc(#loc203)
    %tmp22_90 = arith.andi %tmp4_27, %xmask_5 : tensor<512xi1> loc(#loc204)
    %tmp22_91 = arith.constant 0.000000e+00 : f32 loc(#loc205)
    %tmp22_92 = arith.constant dense<0.000000e+00> : tensor<512xf32> loc(#loc205)
    %tmp22_93 = arith.truncf %tmp22_92 : tensor<512xf32> to tensor<512xf16> loc(#loc205)
    %tmp22_94 = tt.load %tmp22_89, %tmp22_90, %tmp22_93 evictionPolicy = evict_last : tensor<512x!tt.ptr<f16>> loc(#loc205)
    %tmp22_95 = arith.extf %tmp22_94 : tensor<512xf16> to tensor<512xf32> loc(#loc206)
    %tmp24 = arith.mulf %tmp22_95, %tmp12 : tensor<512xf32> loc(#loc207)
    %tmp25 = arith.constant 32 : i32 loc(#loc208)
    %tmp25_96 = arith.constant 32 : i32 loc(#loc208)
    %tmp25_97 = arith.constant dense<32> : tensor<512xi32> loc(#loc208)
    %tmp25_98 = arith.addi %tmp25_97, %x0_8 : tensor<512xi32> loc(#loc208)
    %tmp25_99 = tt.splat %in_ptr2 : !tt.ptr<f16> -> tensor<512x!tt.ptr<f16>> loc(#loc209)
    %tmp25_100 = tt.addptr %tmp25_99, %tmp25_98 : tensor<512x!tt.ptr<f16>>, tensor<512xi32> loc(#loc209)
    %tmp25_101 = arith.andi %tmp4_27, %xmask_5 : tensor<512xi1> loc(#loc210)
    %tmp25_102 = arith.constant 0.000000e+00 : f32 loc(#loc211)
    %tmp25_103 = arith.constant dense<0.000000e+00> : tensor<512xf32> loc(#loc211)
    %tmp25_104 = arith.truncf %tmp25_103 : tensor<512xf32> to tensor<512xf16> loc(#loc211)
    %tmp25_105 = tt.load %tmp25_100, %tmp25_101, %tmp25_104 evictionPolicy = evict_last : tensor<512x!tt.ptr<f16>> loc(#loc211)
    %tmp25_106 = arith.extf %tmp25_105 : tensor<512xf16> to tensor<512xf32> loc(#loc212)
    %tmp27 = arith.constant dense<1.000000e+00> : tensor<512xf32> loc(#loc213)
    %tmp27_107 = arith.addf %tmp25_106, %tmp27 : tensor<512xf32> loc(#loc213)
    %tmp28 = arith.mulf %tmp24, %tmp27_107 : tensor<512xf32> loc(#loc214)
    %tmp30 = arith.constant 32 : i32 loc(#loc215)
    %tmp30_108 = arith.constant 32 : i32 loc(#loc215)
    %tmp30_109 = arith.constant dense<32> : tensor<512xi32> loc(#loc215)
    %tmp30_110 = arith.muli %tmp30_109, %x2_18 : tensor<512xi32> loc(#loc215)
    %tmp30_111 = arith.addi %tmp30_110, %x0_8 : tensor<512xi32> loc(#loc216)
    %tmp30_112 = tt.splat %in_ptr4 : !tt.ptr<f16> -> tensor<512x!tt.ptr<f16>> loc(#loc217)
    %tmp30_113 = tt.addptr %tmp30_112, %tmp30_111 : tensor<512x!tt.ptr<f16>>, tensor<512xi32> loc(#loc217)
    %tmp30_114 = arith.andi %tmp4_27, %xmask_5 : tensor<512xi1> loc(#loc218)
    %tmp30_115 = arith.constant 0.000000e+00 : f32 loc(#loc219)
    %tmp30_116 = arith.constant dense<0.000000e+00> : tensor<512xf32> loc(#loc219)
    %tmp30_117 = arith.truncf %tmp30_116 : tensor<512xf32> to tensor<512xf16> loc(#loc219)
    %tmp30_118 = tt.load %tmp30_113, %tmp30_114, %tmp30_117 evictionPolicy = evict_last : tensor<512x!tt.ptr<f16>> loc(#loc219)
    %tmp30_119 = arith.extf %tmp30_118 : tensor<512xf16> to tensor<512xf32> loc(#loc220)
    %tmp31 = arith.mulf %tmp28, %tmp30_119 : tensor<512xf32> loc(#loc221)
    %tmp32 = arith.subf %tmp21, %tmp31 : tensor<512xf32> loc(#loc222)
    %tmp33 = arith.constant 0.000000e+00 : f32 loc(#loc223)
    %tmp33_120 = arith.constant dense<0.000000e+00> : tensor<512xf32> loc(#loc223)
    %tmp34 = arith.select %tmp4_27, %tmp32, %tmp33_120 : tensor<512xi1>, tensor<512xf32> loc(#loc224)
    %tmp35 = arith.extsi %x0_8 : tensor<512xi32> to tensor<512xi64> loc(#loc225)
    %tmp35_121 = arith.constant dense<32> : tensor<512xi64> loc(#loc225)
    %tmp35_122 = arith.cmpi sge, %tmp35, %tmp35_121 : tensor<512xi64> loc(#loc225)
    %tmp36 = arith.constant 64 : i64 loc(#loc226)
    %tmp36_123 = arith.constant dense<64> : tensor<1xi64> loc(#loc226)
    %tmp37 = arith.extsi %x0_8 : tensor<512xi32> to tensor<512xi64> loc(#loc227)
    %tmp37_124 = arith.constant dense<64> : tensor<512xi64> loc(#loc227)
    %tmp37_125 = arith.cmpi slt, %tmp37, %tmp37_124 : tensor<512xi64> loc(#loc227)
    %tmp38 = arith.constant 512 : i32 loc(#loc228)
    %tmp38_126 = arith.constant 512 : i32 loc(#loc228)
    %tmp38_127 = arith.constant dense<512> : tensor<512xi32> loc(#loc228)
    %tmp38_128 = arith.muli %tmp38_127, %x1_15 : tensor<512xi32> loc(#loc228)
    %tmp38_129 = arith.constant 32 : i32 loc(#loc229)
    %tmp38_130 = arith.constant 32 : i32 loc(#loc229)
    %tmp38_131 = arith.constant dense<32> : tensor<512xi32> loc(#loc229)
    %tmp38_132 = arith.addi %tmp38_131, %tmp38_128 : tensor<512xi32> loc(#loc229)
    %tmp38_133 = arith.constant 4608 : i32 loc(#loc230)
    %tmp38_134 = arith.constant 4608 : i32 loc(#loc230)
    %tmp38_135 = arith.constant dense<4608> : tensor<512xi32> loc(#loc230)
    %tmp38_136 = arith.muli %tmp38_135, %x2_18 : tensor<512xi32> loc(#loc230)
    %tmp38_137 = arith.addi %tmp38_132, %tmp38_136 : tensor<512xi32> loc(#loc231)
    %tmp38_138 = arith.constant -32 : i32 loc(#loc232)
    %tmp38_139 = arith.constant -32 : i32 loc(#loc232)
    %tmp38_140 = arith.constant dense<-32> : tensor<512xi32> loc(#loc232)
    %tmp38_141 = arith.addi %tmp38_140, %x0_8 : tensor<512xi32> loc(#loc232)
    %tmp38_142 = arith.addi %tmp38_137, %tmp38_141 : tensor<512xi32> loc(#loc233)
    %tmp38_143 = tt.splat %in_ptr0 : !tt.ptr<f16> -> tensor<512x!tt.ptr<f16>> loc(#loc234)
    %tmp38_144 = tt.addptr %tmp38_143, %tmp38_142 : tensor<512x!tt.ptr<f16>>, tensor<512xi32> loc(#loc234)
    %tmp38_145 = arith.andi %tmp35_122, %xmask_5 : tensor<512xi1> loc(#loc235)
    %tmp38_146 = arith.constant 0.000000e+00 : f32 loc(#loc236)
    %tmp38_147 = arith.constant dense<0.000000e+00> : tensor<512xf32> loc(#loc236)
    %tmp38_148 = arith.truncf %tmp38_147 : tensor<512xf32> to tensor<512xf16> loc(#loc236)
    %tmp38_149 = tt.load %tmp38_144, %tmp38_145, %tmp38_148 evictionPolicy = evict_last : tensor<512x!tt.ptr<f16>> loc(#loc236)
    %tmp38_150 = arith.extf %tmp38_149 : tensor<512xf16> to tensor<512xf32> loc(#loc237)
    %tmp40 = tt.splat %in_ptr1 : !tt.ptr<f32> -> tensor<512x!tt.ptr<f32>> loc(#loc238)
    %tmp40_151 = tt.addptr %tmp40, %x3_21 : tensor<512x!tt.ptr<f32>>, tensor<512xi32> loc(#loc238)
    %tmp40_152 = arith.andi %tmp35_122, %xmask_5 : tensor<512xi1> loc(#loc239)
    %tmp40_153 = arith.constant 0.000000e+00 : f32 loc(#loc240)
    %tmp40_154 = arith.constant dense<0.000000e+00> : tensor<512xf32> loc(#loc240)
    %tmp40_155 = tt.load %tmp40_151, %tmp40_152, %tmp40_154 evictionPolicy = evict_last : tensor<512x!tt.ptr<f32>> loc(#loc240)
    %tmp41 = arith.constant 2.560000e+02 : f32 loc(#loc241)
    %tmp41_156 = arith.constant dense<2.560000e+02> : tensor<1xf32> loc(#loc241)
    %tmp42 = arith.constant dense<2.560000e+02> : tensor<512xf32> loc(#loc242)
    %tmp42_157 = arith.divf %tmp40_155, %tmp42 : tensor<512xf32> loc(#loc242)
    %tmp43 = arith.constant 9.99999997E-7 : f32 loc(#loc243)
    %tmp43_158 = arith.constant dense<9.99999997E-7> : tensor<1xf32> loc(#loc243)
    %tmp44 = arith.constant dense<9.99999997E-7> : tensor<512xf32> loc(#loc244)
    %tmp44_159 = arith.addf %tmp42_157, %tmp44 : tensor<512xf32> loc(#loc244)
    %tmp45 = tt.extern_elementwise %tmp44_159 {libname = "", libpath = "", pure = true, symbol = "__nv_rsqrtf"} : (tensor<512xf32>) -> tensor<512xf32> loc(#loc245)
    %tmp46 = arith.mulf %tmp38_150, %tmp45 : tensor<512xf32> loc(#loc246)
    %tmp47 = arith.constant -32 : i32 loc(#loc247)
    %tmp47_160 = arith.constant -32 : i32 loc(#loc247)
    %tmp47_161 = arith.constant dense<-32> : tensor<512xi32> loc(#loc247)
    %tmp47_162 = arith.addi %tmp47_161, %x0_8 : tensor<512xi32> loc(#loc247)
    %tmp47_163 = arith.constant 32 : i32 loc(#loc248)
    %tmp47_164 = arith.constant 32 : i32 loc(#loc248)
    %tmp47_165 = arith.constant dense<32> : tensor<512xi32> loc(#loc248)
    %tmp47_166 = arith.addi %tmp47_165, %tmp47_162 : tensor<512xi32> loc(#loc248)
    %tmp47_167 = tt.splat %in_ptr2 : !tt.ptr<f16> -> tensor<512x!tt.ptr<f16>> loc(#loc249)
    %tmp47_168 = tt.addptr %tmp47_167, %tmp47_166 : tensor<512x!tt.ptr<f16>>, tensor<512xi32> loc(#loc249)
    %tmp47_169 = arith.andi %tmp35_122, %xmask_5 : tensor<512xi1> loc(#loc250)
    %tmp47_170 = arith.constant 0.000000e+00 : f32 loc(#loc251)
    %tmp47_171 = arith.constant dense<0.000000e+00> : tensor<512xf32> loc(#loc251)
    %tmp47_172 = arith.truncf %tmp47_171 : tensor<512xf32> to tensor<512xf16> loc(#loc251)
    %tmp47_173 = tt.load %tmp47_168, %tmp47_169, %tmp47_172 evictionPolicy = evict_last : tensor<512x!tt.ptr<f16>> loc(#loc251)
    %tmp47_174 = arith.extf %tmp47_173 : tensor<512xf16> to tensor<512xf32> loc(#loc252)
    %tmp49 = arith.constant 1.000000e+00 : f32 loc(#loc253)
    %tmp49_175 = arith.constant dense<1.000000e+00> : tensor<1xf32> loc(#loc253)
    %tmp50 = arith.constant dense<1.000000e+00> : tensor<512xf32> loc(#loc254)
    %tmp50_176 = arith.addf %tmp47_174, %tmp50 : tensor<512xf32> loc(#loc254)
    %tmp51 = arith.mulf %tmp46, %tmp50_176 : tensor<512xf32> loc(#loc255)
    %tmp53 = arith.constant 32 : i32 loc(#loc256)
    %tmp53_177 = arith.constant 32 : i32 loc(#loc256)
    %tmp53_178 = arith.constant dense<32> : tensor<512xi32> loc(#loc256)
    %tmp53_179 = arith.muli %tmp53_178, %x2_18 : tensor<512xi32> loc(#loc256)
    %tmp53_180 = arith.constant -32 : i32 loc(#loc257)
    %tmp53_181 = arith.constant -32 : i32 loc(#loc257)
    %tmp53_182 = arith.constant dense<-32> : tensor<512xi32> loc(#loc257)
    %tmp53_183 = arith.addi %tmp53_182, %x0_8 : tensor<512xi32> loc(#loc257)
    %tmp53_184 = arith.addi %tmp53_179, %tmp53_183 : tensor<512xi32> loc(#loc258)
    %tmp53_185 = tt.splat %in_ptr3 : !tt.ptr<f16> -> tensor<512x!tt.ptr<f16>> loc(#loc259)
    %tmp53_186 = tt.addptr %tmp53_185, %tmp53_184 : tensor<512x!tt.ptr<f16>>, tensor<512xi32> loc(#loc259)
    %tmp53_187 = arith.andi %tmp35_122, %xmask_5 : tensor<512xi1> loc(#loc260)
    %tmp53_188 = arith.constant 0.000000e+00 : f32 loc(#loc261)
    %tmp53_189 = arith.constant dense<0.000000e+00> : tensor<512xf32> loc(#loc261)
    %tmp53_190 = arith.truncf %tmp53_189 : tensor<512xf32> to tensor<512xf16> loc(#loc261)
    %tmp53_191 = tt.load %tmp53_186, %tmp53_187, %tmp53_190 evictionPolicy = evict_last : tensor<512x!tt.ptr<f16>> loc(#loc261)
    %tmp53_192 = arith.extf %tmp53_191 : tensor<512xf16> to tensor<512xf32> loc(#loc262)
    %tmp54 = arith.mulf %tmp51, %tmp53_192 : tensor<512xf32> loc(#loc263)
    %tmp55 = arith.constant 512 : i32 loc(#loc264)
    %tmp55_193 = arith.constant 512 : i32 loc(#loc264)
    %tmp55_194 = arith.constant dense<512> : tensor<512xi32> loc(#loc264)
    %tmp55_195 = arith.muli %tmp55_194, %x1_15 : tensor<512xi32> loc(#loc264)
    %tmp55_196 = arith.constant 4608 : i32 loc(#loc265)
    %tmp55_197 = arith.constant 4608 : i32 loc(#loc265)
    %tmp55_198 = arith.constant dense<4608> : tensor<512xi32> loc(#loc265)
    %tmp55_199 = arith.muli %tmp55_198, %x2_18 : tensor<512xi32> loc(#loc265)
    %tmp55_200 = arith.addi %tmp55_195, %tmp55_199 : tensor<512xi32> loc(#loc266)
    %tmp55_201 = arith.constant -32 : i32 loc(#loc267)
    %tmp55_202 = arith.constant -32 : i32 loc(#loc267)
    %tmp55_203 = arith.constant dense<-32> : tensor<512xi32> loc(#loc267)
    %tmp55_204 = arith.addi %tmp55_203, %x0_8 : tensor<512xi32> loc(#loc267)
    %tmp55_205 = arith.addi %tmp55_200, %tmp55_204 : tensor<512xi32> loc(#loc268)
    %tmp55_206 = tt.splat %in_ptr0 : !tt.ptr<f16> -> tensor<512x!tt.ptr<f16>> loc(#loc269)
    %tmp55_207 = tt.addptr %tmp55_206, %tmp55_205 : tensor<512x!tt.ptr<f16>>, tensor<512xi32> loc(#loc269)
    %tmp55_208 = arith.andi %tmp35_122, %xmask_5 : tensor<512xi1> loc(#loc270)
    %tmp55_209 = arith.constant 0.000000e+00 : f32 loc(#loc271)
    %tmp55_210 = arith.constant dense<0.000000e+00> : tensor<512xf32> loc(#loc271)
    %tmp55_211 = arith.truncf %tmp55_210 : tensor<512xf32> to tensor<512xf16> loc(#loc271)
    %tmp55_212 = tt.load %tmp55_207, %tmp55_208, %tmp55_211 evictionPolicy = evict_last : tensor<512x!tt.ptr<f16>> loc(#loc271)
    %tmp55_213 = arith.extf %tmp55_212 : tensor<512xf16> to tensor<512xf32> loc(#loc272)
    %tmp57 = arith.mulf %tmp55_213, %tmp45 : tensor<512xf32> loc(#loc273)
    %tmp58 = arith.constant -32 : i32 loc(#loc274)
    %tmp58_214 = arith.constant -32 : i32 loc(#loc274)
    %tmp58_215 = arith.constant dense<-32> : tensor<512xi32> loc(#loc274)
    %tmp58_216 = arith.addi %tmp58_215, %x0_8 : tensor<512xi32> loc(#loc274)
    %tmp58_217 = tt.splat %in_ptr2 : !tt.ptr<f16> -> tensor<512x!tt.ptr<f16>> loc(#loc275)
    %tmp58_218 = tt.addptr %tmp58_217, %tmp58_216 : tensor<512x!tt.ptr<f16>>, tensor<512xi32> loc(#loc275)
    %tmp58_219 = arith.andi %tmp35_122, %xmask_5 : tensor<512xi1> loc(#loc276)
    %tmp58_220 = arith.constant 0.000000e+00 : f32 loc(#loc277)
    %tmp58_221 = arith.constant dense<0.000000e+00> : tensor<512xf32> loc(#loc277)
    %tmp58_222 = arith.truncf %tmp58_221 : tensor<512xf32> to tensor<512xf16> loc(#loc277)
    %tmp58_223 = tt.load %tmp58_218, %tmp58_219, %tmp58_222 evictionPolicy = evict_last : tensor<512x!tt.ptr<f16>> loc(#loc277)
    %tmp58_224 = arith.extf %tmp58_223 : tensor<512xf16> to tensor<512xf32> loc(#loc278)
    %tmp60 = arith.constant dense<1.000000e+00> : tensor<512xf32> loc(#loc279)
    %tmp60_225 = arith.addf %tmp58_224, %tmp60 : tensor<512xf32> loc(#loc279)
    %tmp61 = arith.mulf %tmp57, %tmp60_225 : tensor<512xf32> loc(#loc280)
    %tmp63 = arith.constant 32 : i32 loc(#loc281)
    %tmp63_226 = arith.constant 32 : i32 loc(#loc281)
    %tmp63_227 = arith.constant dense<32> : tensor<512xi32> loc(#loc281)
    %tmp63_228 = arith.muli %tmp63_227, %x2_18 : tensor<512xi32> loc(#loc281)
    %tmp63_229 = arith.constant -32 : i32 loc(#loc282)
    %tmp63_230 = arith.constant -32 : i32 loc(#loc282)
    %tmp63_231 = arith.constant dense<-32> : tensor<512xi32> loc(#loc282)
    %tmp63_232 = arith.addi %tmp63_231, %x0_8 : tensor<512xi32> loc(#loc282)
    %tmp63_233 = arith.addi %tmp63_228, %tmp63_232 : tensor<512xi32> loc(#loc283)
    %tmp63_234 = tt.splat %in_ptr4 : !tt.ptr<f16> -> tensor<512x!tt.ptr<f16>> loc(#loc284)
    %tmp63_235 = tt.addptr %tmp63_234, %tmp63_233 : tensor<512x!tt.ptr<f16>>, tensor<512xi32> loc(#loc284)
    %tmp63_236 = arith.andi %tmp35_122, %xmask_5 : tensor<512xi1> loc(#loc285)
    %tmp63_237 = arith.constant 0.000000e+00 : f32 loc(#loc286)
    %tmp63_238 = arith.constant dense<0.000000e+00> : tensor<512xf32> loc(#loc286)
    %tmp63_239 = arith.truncf %tmp63_238 : tensor<512xf32> to tensor<512xf16> loc(#loc286)
    %tmp63_240 = tt.load %tmp63_235, %tmp63_236, %tmp63_239 evictionPolicy = evict_last : tensor<512x!tt.ptr<f16>> loc(#loc286)
    %tmp63_241 = arith.extf %tmp63_240 : tensor<512xf16> to tensor<512xf32> loc(#loc287)
    %tmp64 = arith.mulf %tmp61, %tmp63_241 : tensor<512xf32> loc(#loc288)
    %tmp65 = arith.addf %tmp54, %tmp64 : tensor<512xf32> loc(#loc289)
    %tmp66 = arith.constant 0.000000e+00 : f32 loc(#loc290)
    %tmp66_242 = arith.constant dense<0.000000e+00> : tensor<512xf32> loc(#loc290)
    %tmp67 = arith.select %tmp35_122, %tmp65, %tmp66_242 : tensor<512xi1>, tensor<512xf32> loc(#loc291)
    %tmp68 = arith.select %tmp4_27, %tmp34, %tmp67 : tensor<512xi1>, tensor<512xf32> loc(#loc292)
    %c256_i32 = arith.constant 256 : i32 loc(#loc141)
    %c256_i32_243 = arith.constant 256 : i32 loc(#loc141)
    %cst = arith.constant dense<256> : tensor<512xi32> loc(#loc141)
    %0 = arith.muli %cst, %x3_21 : tensor<512xi32> loc(#loc141)
    %1 = arith.addi %x0_8, %0 : tensor<512xi32> loc(#loc142)
    %2 = tt.splat %out_ptr0 : !tt.ptr<f16> -> tensor<512x!tt.ptr<f16>> loc(#loc143)
    %3 = tt.addptr %2, %1 : tensor<512x!tt.ptr<f16>>, tensor<512xi32> loc(#loc143)
    %4 = arith.truncf %tmp68 : tensor<512xf32> to tensor<512xf16> loc(#loc144)
    tt.store %3, %4, %xmask_5 : tensor<512x!tt.ptr<f16>> loc(#loc144)
    tt.return loc(#loc145)
  } loc(#loc)
} loc(#loc)
#loc1 = loc("/root/.cache/vllm/torch_compile_cache/torch_aot_compile/61bda05feca29378847c32f031efa5c8dba258f38b0176a06a3e99e41df8ca50/inductor_cache/6c/c6c3k45citakf7ejhddfm4zqpibrp3btlywhwju5nk3jsdyah5yo.py":23:28)
#loc2 = loc("/root/.cache/vllm/torch_compile_cache/torch_aot_compile/61bda05feca29378847c32f031efa5c8dba258f38b0176a06a3e99e41df8ca50/inductor_cache/6c/c6c3k45citakf7ejhddfm4zqpibrp3btlywhwju5nk3jsdyah5yo.py":23:33)
#loc3 = loc("/root/.cache/vllm/torch_compile_cache/torch_aot_compile/61bda05feca29378847c32f031efa5c8dba258f38b0176a06a3e99e41df8ca50/inductor_cache/6c/c6c3k45citakf7ejhddfm4zqpibrp3btlywhwju5nk3jsdyah5yo.py":24:36)
#loc4 = loc("/root/.cache/vllm/torch_compile_cache/torch_aot_compile/61bda05feca29378847c32f031efa5c8dba258f38b0176a06a3e99e41df8ca50/inductor_cache/6c/c6c3k45citakf7ejhddfm4zqpibrp3btlywhwju5nk3jsdyah5yo.py":24:23)
#loc5 = loc("/root/.cache/vllm/torch_compile_cache/torch_aot_compile/61bda05feca29378847c32f031efa5c8dba258f38b0176a06a3e99e41df8ca50/inductor_cache/6c/c6c3k45citakf7ejhddfm4zqpibrp3btlywhwju5nk3jsdyah5yo.py":25:21)
#loc6 = loc("/root/.cache/vllm/torch_compile_cache/torch_aot_compile/61bda05feca29378847c32f031efa5c8dba258f38b0176a06a3e99e41df8ca50/inductor_cache/6c/c6c3k45citakf7ejhddfm4zqpibrp3btlywhwju5nk3jsdyah5yo.py":26:19)
#loc7 = loc("/root/.cache/vllm/torch_compile_cache/torch_aot_compile/61bda05feca29378847c32f031efa5c8dba258f38b0176a06a3e99e41df8ca50/inductor_cache/6c/c6c3k45citakf7ejhddfm4zqpibrp3btlywhwju5nk3jsdyah5yo.py":27:21)
#loc8 = loc("/root/.cache/vllm/torch_compile_cache/torch_aot_compile/61bda05feca29378847c32f031efa5c8dba258f38b0176a06a3e99e41df8ca50/inductor_cache/6c/c6c3k45citakf7ejhddfm4zqpibrp3btlywhwju5nk3jsdyah5yo.py":27:27)
#loc9 = loc("/root/.cache/vllm/torch_compile_cache/torch_aot_compile/61bda05feca29378847c32f031efa5c8dba258f38b0176a06a3e99e41df8ca50/inductor_cache/6c/c6c3k45citakf7ejhddfm4zqpibrp3btlywhwju5nk3jsdyah5yo.py":28:19)
#loc10 = loc("/root/.cache/vllm/torch_compile_cache/torch_aot_compile/61bda05feca29378847c32f031efa5c8dba258f38b0176a06a3e99e41df8ca50/inductor_cache/6c/c6c3k45citakf7ejhddfm4zqpibrp3btlywhwju5nk3jsdyah5yo.py":29:19)
#loc11 = loc("/root/.cache/vllm/torch_compile_cache/torch_aot_compile/61bda05feca29378847c32f031efa5c8dba258f38b0176a06a3e99e41df8ca50/inductor_cache/6c/c6c3k45citakf7ejhddfm4zqpibrp3btlywhwju5nk3jsdyah5yo.py":31:27)
#loc12 = loc("/root/.cache/vllm/torch_compile_cache/torch_aot_compile/61bda05feca29378847c32f031efa5c8dba258f38b0176a06a3e99e41df8ca50/inductor_cache/6c/c6c3k45citakf7ejhddfm4zqpibrp3btlywhwju5nk3jsdyah5yo.py":32:19)
#loc13 = loc("/root/.cache/vllm/torch_compile_cache/torch_aot_compile/61bda05feca29378847c32f031efa5c8dba258f38b0176a06a3e99e41df8ca50/inductor_cache/6c/c6c3k45citakf7ejhddfm4zqpibrp3btlywhwju5nk3jsdyah5yo.py":33:28)
#loc14 = loc("/root/.cache/vllm/torch_compile_cache/torch_aot_compile/61bda05feca29378847c32f031efa5c8dba258f38b0176a06a3e99e41df8ca50/inductor_cache/6c/c6c3k45citakf7ejhddfm4zqpibrp3btlywhwju5nk3jsdyah5yo.py":34:18)
#loc15 = loc("/root/.cache/vllm/torch_compile_cache/torch_aot_compile/61bda05feca29378847c32f031efa5c8dba258f38b0176a06a3e99e41df8ca50/inductor_cache/6c/c6c3k45citakf7ejhddfm4zqpibrp3btlywhwju5nk3jsdyah5yo.py":35:34)
#loc16 = loc("/root/.cache/vllm/torch_compile_cache/torch_aot_compile/61bda05feca29378847c32f031efa5c8dba258f38b0176a06a3e99e41df8ca50/inductor_cache/6c/c6c3k45citakf7ejhddfm4zqpibrp3btlywhwju5nk3jsdyah5yo.py":35:44)
#loc17 = loc("/root/.cache/vllm/torch_compile_cache/torch_aot_compile/61bda05feca29378847c32f031efa5c8dba258f38b0176a06a3e99e41df8ca50/inductor_cache/6c/c6c3k45citakf7ejhddfm4zqpibrp3btlywhwju5nk3jsdyah5yo.py":35:39)
#loc18 = loc("/root/.cache/vllm/torch_compile_cache/torch_aot_compile/61bda05feca29378847c32f031efa5c8dba258f38b0176a06a3e99e41df8ca50/inductor_cache/6c/c6c3k45citakf7ejhddfm4zqpibrp3btlywhwju5nk3jsdyah5yo.py":35:50)
#loc19 = loc("/root/.cache/vllm/torch_compile_cache/torch_aot_compile/61bda05feca29378847c32f031efa5c8dba258f38b0176a06a3e99e41df8ca50/inductor_cache/6c/c6c3k45citakf7ejhddfm4zqpibrp3btlywhwju5nk3jsdyah5yo.py":35:30)
#loc20 = loc("/root/.cache/vllm/torch_compile_cache/torch_aot_compile/61bda05feca29378847c32f031efa5c8dba258f38b0176a06a3e99e41df8ca50/inductor_cache/6c/c6c3k45citakf7ejhddfm4zqpibrp3btlywhwju5nk3jsdyah5yo.py":35:63)
#loc21 = loc("/root/.cache/vllm/torch_compile_cache/torch_aot_compile/61bda05feca29378847c32f031efa5c8dba258f38b0176a06a3e99e41df8ca50/inductor_cache/6c/c6c3k45citakf7ejhddfm4zqpibrp3btlywhwju5nk3jsdyah5yo.py":35:56)
#loc22 = loc("/root/.cache/vllm/torch_compile_cache/torch_aot_compile/61bda05feca29378847c32f031efa5c8dba258f38b0176a06a3e99e41df8ca50/inductor_cache/6c/c6c3k45citakf7ejhddfm4zqpibrp3btlywhwju5nk3jsdyah5yo.py":35:114)
#loc23 = loc("/root/.cache/vllm/torch_compile_cache/torch_aot_compile/61bda05feca29378847c32f031efa5c8dba258f38b0176a06a3e99e41df8ca50/inductor_cache/6c/c6c3k45citakf7ejhddfm4zqpibrp3btlywhwju5nk3jsdyah5yo.py":37:30)
#loc24 = loc("/root/.cache/vllm/torch_compile_cache/torch_aot_compile/61bda05feca29378847c32f031efa5c8dba258f38b0176a06a3e99e41df8ca50/inductor_cache/6c/c6c3k45citakf7ejhddfm4zqpibrp3btlywhwju5nk3jsdyah5yo.py":37:42)
#loc25 = loc("/root/.cache/vllm/torch_compile_cache/torch_aot_compile/61bda05feca29378847c32f031efa5c8dba258f38b0176a06a3e99e41df8ca50/inductor_cache/6c/c6c3k45citakf7ejhddfm4zqpibrp3btlywhwju5nk3jsdyah5yo.py":37:35)
#loc26 = loc("/root/.cache/vllm/torch_compile_cache/torch_aot_compile/61bda05feca29378847c32f031efa5c8dba258f38b0176a06a3e99e41df8ca50/inductor_cache/6c/c6c3k45citakf7ejhddfm4zqpibrp3btlywhwju5nk3jsdyah5yo.py":38:31)
#loc27 = loc("/root/.cache/vllm/torch_compile_cache/torch_aot_compile/61bda05feca29378847c32f031efa5c8dba258f38b0176a06a3e99e41df8ca50/inductor_cache/6c/c6c3k45citakf7ejhddfm4zqpibrp3btlywhwju5nk3jsdyah5yo.py":39:19)
#loc28 = loc("/root/.cache/vllm/torch_compile_cache/torch_aot_compile/61bda05feca29378847c32f031efa5c8dba258f38b0176a06a3e99e41df8ca50/inductor_cache/6c/c6c3k45citakf7ejhddfm4zqpibrp3btlywhwju5nk3jsdyah5yo.py":40:32)
#loc29 = loc("/root/.cache/vllm/torch_compile_cache/torch_aot_compile/61bda05feca29378847c32f031efa5c8dba258f38b0176a06a3e99e41df8ca50/inductor_cache/6c/c6c3k45citakf7ejhddfm4zqpibrp3btlywhwju5nk3jsdyah5yo.py":41:19)
#loc30 = loc("/root/.cache/vllm/torch_compile_cache/torch_aot_compile/61bda05feca29378847c32f031efa5c8dba258f38b0176a06a3e99e41df8ca50/inductor_cache/6c/c6c3k45citakf7ejhddfm4zqpibrp3btlywhwju5nk3jsdyah5yo.py":42:28)
#loc31 = loc("/root/.cache/vllm/torch_compile_cache/torch_aot_compile/61bda05feca29378847c32f031efa5c8dba258f38b0176a06a3e99e41df8ca50/inductor_cache/6c/c6c3k45citakf7ejhddfm4zqpibrp3btlywhwju5nk3jsdyah5yo.py":43:19)
#loc32 = loc("/root/.cache/vllm/torch_compile_cache/torch_aot_compile/61bda05feca29378847c32f031efa5c8dba258f38b0176a06a3e99e41df8ca50/inductor_cache/6c/c6c3k45citakf7ejhddfm4zqpibrp3btlywhwju5nk3jsdyah5yo.py":44:31)
#loc33 = loc("/root/.cache/vllm/torch_compile_cache/torch_aot_compile/61bda05feca29378847c32f031efa5c8dba258f38b0176a06a3e99e41df8ca50/inductor_cache/6c/c6c3k45citakf7ejhddfm4zqpibrp3btlywhwju5nk3jsdyah5yo.py":44:43)
#loc34 = loc("/root/.cache/vllm/torch_compile_cache/torch_aot_compile/61bda05feca29378847c32f031efa5c8dba258f38b0176a06a3e99e41df8ca50/inductor_cache/6c/c6c3k45citakf7ejhddfm4zqpibrp3btlywhwju5nk3jsdyah5yo.py":44:36)
#loc35 = loc("/root/.cache/vllm/torch_compile_cache/torch_aot_compile/61bda05feca29378847c32f031efa5c8dba258f38b0176a06a3e99e41df8ca50/inductor_cache/6c/c6c3k45citakf7ejhddfm4zqpibrp3btlywhwju5nk3jsdyah5yo.py":44:94)
#loc36 = loc("/root/.cache/vllm/torch_compile_cache/torch_aot_compile/61bda05feca29378847c32f031efa5c8dba258f38b0176a06a3e99e41df8ca50/inductor_cache/6c/c6c3k45citakf7ejhddfm4zqpibrp3btlywhwju5nk3jsdyah5yo.py":46:30)
#loc37 = loc("/root/.cache/vllm/torch_compile_cache/torch_aot_compile/61bda05feca29378847c32f031efa5c8dba258f38b0176a06a3e99e41df8ca50/inductor_cache/6c/c6c3k45citakf7ejhddfm4zqpibrp3btlywhwju5nk3jsdyah5yo.py":47:20)
#loc38 = loc("/root/.cache/vllm/torch_compile_cache/torch_aot_compile/61bda05feca29378847c32f031efa5c8dba258f38b0176a06a3e99e41df8ca50/inductor_cache/6c/c6c3k45citakf7ejhddfm4zqpibrp3btlywhwju5nk3jsdyah5yo.py":48:20)
#loc39 = loc("/root/.cache/vllm/torch_compile_cache/torch_aot_compile/61bda05feca29378847c32f031efa5c8dba258f38b0176a06a3e99e41df8ca50/inductor_cache/6c/c6c3k45citakf7ejhddfm4zqpibrp3btlywhwju5nk3jsdyah5yo.py":50:34)
#loc40 = loc("/root/.cache/vllm/torch_compile_cache/torch_aot_compile/61bda05feca29378847c32f031efa5c8dba258f38b0176a06a3e99e41df8ca50/inductor_cache/6c/c6c3k45citakf7ejhddfm4zqpibrp3btlywhwju5nk3jsdyah5yo.py":50:40)
#loc41 = loc("/root/.cache/vllm/torch_compile_cache/torch_aot_compile/61bda05feca29378847c32f031efa5c8dba258f38b0176a06a3e99e41df8ca50/inductor_cache/6c/c6c3k45citakf7ejhddfm4zqpibrp3btlywhwju5nk3jsdyah5yo.py":50:31)
#loc42 = loc("/root/.cache/vllm/torch_compile_cache/torch_aot_compile/61bda05feca29378847c32f031efa5c8dba258f38b0176a06a3e99e41df8ca50/inductor_cache/6c/c6c3k45citakf7ejhddfm4zqpibrp3btlywhwju5nk3jsdyah5yo.py":50:53)
#loc43 = loc("/root/.cache/vllm/torch_compile_cache/torch_aot_compile/61bda05feca29378847c32f031efa5c8dba258f38b0176a06a3e99e41df8ca50/inductor_cache/6c/c6c3k45citakf7ejhddfm4zqpibrp3btlywhwju5nk3jsdyah5yo.py":50:46)
#loc44 = loc("/root/.cache/vllm/torch_compile_cache/torch_aot_compile/61bda05feca29378847c32f031efa5c8dba258f38b0176a06a3e99e41df8ca50/inductor_cache/6c/c6c3k45citakf7ejhddfm4zqpibrp3btlywhwju5nk3jsdyah5yo.py":50:104)
#loc45 = loc("/root/.cache/vllm/torch_compile_cache/torch_aot_compile/61bda05feca29378847c32f031efa5c8dba258f38b0176a06a3e99e41df8ca50/inductor_cache/6c/c6c3k45citakf7ejhddfm4zqpibrp3btlywhwju5nk3jsdyah5yo.py":51:20)
#loc46 = loc("/root/.cache/vllm/torch_compile_cache/torch_aot_compile/61bda05feca29378847c32f031efa5c8dba258f38b0176a06a3e99e41df8ca50/inductor_cache/6c/c6c3k45citakf7ejhddfm4zqpibrp3btlywhwju5nk3jsdyah5yo.py":52:40)
#loc47 = loc("/root/.cache/vllm/torch_compile_cache/torch_aot_compile/61bda05feca29378847c32f031efa5c8dba258f38b0176a06a3e99e41df8ca50/inductor_cache/6c/c6c3k45citakf7ejhddfm4zqpibrp3btlywhwju5nk3jsdyah5yo.py":52:36)
#loc48 = loc("/root/.cache/vllm/torch_compile_cache/torch_aot_compile/61bda05feca29378847c32f031efa5c8dba258f38b0176a06a3e99e41df8ca50/inductor_cache/6c/c6c3k45citakf7ejhddfm4zqpibrp3btlywhwju5nk3jsdyah5yo.py":52:50)
#loc49 = loc("/root/.cache/vllm/torch_compile_cache/torch_aot_compile/61bda05feca29378847c32f031efa5c8dba258f38b0176a06a3e99e41df8ca50/inductor_cache/6c/c6c3k45citakf7ejhddfm4zqpibrp3btlywhwju5nk3jsdyah5yo.py":52:45)
#loc50 = loc("/root/.cache/vllm/torch_compile_cache/torch_aot_compile/61bda05feca29378847c32f031efa5c8dba258f38b0176a06a3e99e41df8ca50/inductor_cache/6c/c6c3k45citakf7ejhddfm4zqpibrp3btlywhwju5nk3jsdyah5yo.py":52:56)
#loc51 = loc("/root/.cache/vllm/torch_compile_cache/torch_aot_compile/61bda05feca29378847c32f031efa5c8dba258f38b0176a06a3e99e41df8ca50/inductor_cache/6c/c6c3k45citakf7ejhddfm4zqpibrp3btlywhwju5nk3jsdyah5yo.py":52:31)
#loc52 = loc("/root/.cache/vllm/torch_compile_cache/torch_aot_compile/61bda05feca29378847c32f031efa5c8dba258f38b0176a06a3e99e41df8ca50/inductor_cache/6c/c6c3k45citakf7ejhddfm4zqpibrp3btlywhwju5nk3jsdyah5yo.py":52:69)
#loc53 = loc("/root/.cache/vllm/torch_compile_cache/torch_aot_compile/61bda05feca29378847c32f031efa5c8dba258f38b0176a06a3e99e41df8ca50/inductor_cache/6c/c6c3k45citakf7ejhddfm4zqpibrp3btlywhwju5nk3jsdyah5yo.py":52:62)
#loc54 = loc("/root/.cache/vllm/torch_compile_cache/torch_aot_compile/61bda05feca29378847c32f031efa5c8dba258f38b0176a06a3e99e41df8ca50/inductor_cache/6c/c6c3k45citakf7ejhddfm4zqpibrp3btlywhwju5nk3jsdyah5yo.py":52:120)
#loc55 = loc("/root/.cache/vllm/torch_compile_cache/torch_aot_compile/61bda05feca29378847c32f031efa5c8dba258f38b0176a06a3e99e41df8ca50/inductor_cache/6c/c6c3k45citakf7ejhddfm4zqpibrp3btlywhwju5nk3jsdyah5yo.py":54:20)
#loc56 = loc("/root/.cache/vllm/torch_compile_cache/torch_aot_compile/61bda05feca29378847c32f031efa5c8dba258f38b0176a06a3e99e41df8ca50/inductor_cache/6c/c6c3k45citakf7ejhddfm4zqpibrp3btlywhwju5nk3jsdyah5yo.py":55:37)
#loc57 = loc("/root/.cache/vllm/torch_compile_cache/torch_aot_compile/61bda05feca29378847c32f031efa5c8dba258f38b0176a06a3e99e41df8ca50/inductor_cache/6c/c6c3k45citakf7ejhddfm4zqpibrp3btlywhwju5nk3jsdyah5yo.py":55:31)
#loc58 = loc("/root/.cache/vllm/torch_compile_cache/torch_aot_compile/61bda05feca29378847c32f031efa5c8dba258f38b0176a06a3e99e41df8ca50/inductor_cache/6c/c6c3k45citakf7ejhddfm4zqpibrp3btlywhwju5nk3jsdyah5yo.py":55:50)
#loc59 = loc("/root/.cache/vllm/torch_compile_cache/torch_aot_compile/61bda05feca29378847c32f031efa5c8dba258f38b0176a06a3e99e41df8ca50/inductor_cache/6c/c6c3k45citakf7ejhddfm4zqpibrp3btlywhwju5nk3jsdyah5yo.py":55:43)
#loc60 = loc("/root/.cache/vllm/torch_compile_cache/torch_aot_compile/61bda05feca29378847c32f031efa5c8dba258f38b0176a06a3e99e41df8ca50/inductor_cache/6c/c6c3k45citakf7ejhddfm4zqpibrp3btlywhwju5nk3jsdyah5yo.py":55:101)
#loc61 = loc("/root/.cache/vllm/torch_compile_cache/torch_aot_compile/61bda05feca29378847c32f031efa5c8dba258f38b0176a06a3e99e41df8ca50/inductor_cache/6c/c6c3k45citakf7ejhddfm4zqpibrp3btlywhwju5nk3jsdyah5yo.py":57:20)
#loc62 = loc("/root/.cache/vllm/torch_compile_cache/torch_aot_compile/61bda05feca29378847c32f031efa5c8dba258f38b0176a06a3e99e41df8ca50/inductor_cache/6c/c6c3k45citakf7ejhddfm4zqpibrp3btlywhwju5nk3jsdyah5yo.py":58:20)
#loc63 = loc("/root/.cache/vllm/torch_compile_cache/torch_aot_compile/61bda05feca29378847c32f031efa5c8dba258f38b0176a06a3e99e41df8ca50/inductor_cache/6c/c6c3k45citakf7ejhddfm4zqpibrp3btlywhwju5nk3jsdyah5yo.py":60:34)
#loc64 = loc("/root/.cache/vllm/torch_compile_cache/torch_aot_compile/61bda05feca29378847c32f031efa5c8dba258f38b0176a06a3e99e41df8ca50/inductor_cache/6c/c6c3k45citakf7ejhddfm4zqpibrp3btlywhwju5nk3jsdyah5yo.py":60:40)
#loc65 = loc("/root/.cache/vllm/torch_compile_cache/torch_aot_compile/61bda05feca29378847c32f031efa5c8dba258f38b0176a06a3e99e41df8ca50/inductor_cache/6c/c6c3k45citakf7ejhddfm4zqpibrp3btlywhwju5nk3jsdyah5yo.py":60:31)
#loc66 = loc("/root/.cache/vllm/torch_compile_cache/torch_aot_compile/61bda05feca29378847c32f031efa5c8dba258f38b0176a06a3e99e41df8ca50/inductor_cache/6c/c6c3k45citakf7ejhddfm4zqpibrp3btlywhwju5nk3jsdyah5yo.py":60:53)
#loc67 = loc("/root/.cache/vllm/torch_compile_cache/torch_aot_compile/61bda05feca29378847c32f031efa5c8dba258f38b0176a06a3e99e41df8ca50/inductor_cache/6c/c6c3k45citakf7ejhddfm4zqpibrp3btlywhwju5nk3jsdyah5yo.py":60:46)
#loc68 = loc("/root/.cache/vllm/torch_compile_cache/torch_aot_compile/61bda05feca29378847c32f031efa5c8dba258f38b0176a06a3e99e41df8ca50/inductor_cache/6c/c6c3k45citakf7ejhddfm4zqpibrp3btlywhwju5nk3jsdyah5yo.py":60:104)
#loc69 = loc("/root/.cache/vllm/torch_compile_cache/torch_aot_compile/61bda05feca29378847c32f031efa5c8dba258f38b0176a06a3e99e41df8ca50/inductor_cache/6c/c6c3k45citakf7ejhddfm4zqpibrp3btlywhwju5nk3jsdyah5yo.py":61:20)
#loc70 = loc("/root/.cache/vllm/torch_compile_cache/torch_aot_compile/61bda05feca29378847c32f031efa5c8dba258f38b0176a06a3e99e41df8ca50/inductor_cache/6c/c6c3k45citakf7ejhddfm4zqpibrp3btlywhwju5nk3jsdyah5yo.py":62:20)
#loc71 = loc("/root/.cache/vllm/torch_compile_cache/torch_aot_compile/61bda05feca29378847c32f031efa5c8dba258f38b0176a06a3e99e41df8ca50/inductor_cache/6c/c6c3k45citakf7ejhddfm4zqpibrp3btlywhwju5nk3jsdyah5yo.py":63:38)
#loc72 = loc("/root/.cache/vllm/torch_compile_cache/torch_aot_compile/61bda05feca29378847c32f031efa5c8dba258f38b0176a06a3e99e41df8ca50/inductor_cache/6c/c6c3k45citakf7ejhddfm4zqpibrp3btlywhwju5nk3jsdyah5yo.py":64:34)
#loc73 = loc("/root/.cache/vllm/torch_compile_cache/torch_aot_compile/61bda05feca29378847c32f031efa5c8dba258f38b0176a06a3e99e41df8ca50/inductor_cache/6c/c6c3k45citakf7ejhddfm4zqpibrp3btlywhwju5nk3jsdyah5yo.py":65:20)
#loc74 = loc("/root/.cache/vllm/torch_compile_cache/torch_aot_compile/61bda05feca29378847c32f031efa5c8dba258f38b0176a06a3e99e41df8ca50/inductor_cache/6c/c6c3k45citakf7ejhddfm4zqpibrp3btlywhwju5nk3jsdyah5yo.py":66:29)
#loc75 = loc("/root/.cache/vllm/torch_compile_cache/torch_aot_compile/61bda05feca29378847c32f031efa5c8dba258f38b0176a06a3e99e41df8ca50/inductor_cache/6c/c6c3k45citakf7ejhddfm4zqpibrp3btlywhwju5nk3jsdyah5yo.py":67:19)
#loc76 = loc("/root/.cache/vllm/torch_compile_cache/torch_aot_compile/61bda05feca29378847c32f031efa5c8dba258f38b0176a06a3e99e41df8ca50/inductor_cache/6c/c6c3k45citakf7ejhddfm4zqpibrp3btlywhwju5nk3jsdyah5yo.py":68:40)
#loc77 = loc("/root/.cache/vllm/torch_compile_cache/torch_aot_compile/61bda05feca29378847c32f031efa5c8dba258f38b0176a06a3e99e41df8ca50/inductor_cache/6c/c6c3k45citakf7ejhddfm4zqpibrp3btlywhwju5nk3jsdyah5yo.py":68:36)
#loc78 = loc("/root/.cache/vllm/torch_compile_cache/torch_aot_compile/61bda05feca29378847c32f031efa5c8dba258f38b0176a06a3e99e41df8ca50/inductor_cache/6c/c6c3k45citakf7ejhddfm4zqpibrp3btlywhwju5nk3jsdyah5yo.py":68:50)
#loc79 = loc("/root/.cache/vllm/torch_compile_cache/torch_aot_compile/61bda05feca29378847c32f031efa5c8dba258f38b0176a06a3e99e41df8ca50/inductor_cache/6c/c6c3k45citakf7ejhddfm4zqpibrp3btlywhwju5nk3jsdyah5yo.py":68:45)
#loc80 = loc("/root/.cache/vllm/torch_compile_cache/torch_aot_compile/61bda05feca29378847c32f031efa5c8dba258f38b0176a06a3e99e41df8ca50/inductor_cache/6c/c6c3k45citakf7ejhddfm4zqpibrp3btlywhwju5nk3jsdyah5yo.py":68:64)
#loc81 = loc("/root/.cache/vllm/torch_compile_cache/torch_aot_compile/61bda05feca29378847c32f031efa5c8dba258f38b0176a06a3e99e41df8ca50/inductor_cache/6c/c6c3k45citakf7ejhddfm4zqpibrp3btlywhwju5nk3jsdyah5yo.py":68:56)
#loc82 = loc("/root/.cache/vllm/torch_compile_cache/torch_aot_compile/61bda05feca29378847c32f031efa5c8dba258f38b0176a06a3e99e41df8ca50/inductor_cache/6c/c6c3k45citakf7ejhddfm4zqpibrp3btlywhwju5nk3jsdyah5yo.py":68:31)
#loc83 = loc("/root/.cache/vllm/torch_compile_cache/torch_aot_compile/61bda05feca29378847c32f031efa5c8dba258f38b0176a06a3e99e41df8ca50/inductor_cache/6c/c6c3k45citakf7ejhddfm4zqpibrp3btlywhwju5nk3jsdyah5yo.py":68:78)
#loc84 = loc("/root/.cache/vllm/torch_compile_cache/torch_aot_compile/61bda05feca29378847c32f031efa5c8dba258f38b0176a06a3e99e41df8ca50/inductor_cache/6c/c6c3k45citakf7ejhddfm4zqpibrp3btlywhwju5nk3jsdyah5yo.py":68:70)
#loc85 = loc("/root/.cache/vllm/torch_compile_cache/torch_aot_compile/61bda05feca29378847c32f031efa5c8dba258f38b0176a06a3e99e41df8ca50/inductor_cache/6c/c6c3k45citakf7ejhddfm4zqpibrp3btlywhwju5nk3jsdyah5yo.py":68:129)
#loc86 = loc("/root/.cache/vllm/torch_compile_cache/torch_aot_compile/61bda05feca29378847c32f031efa5c8dba258f38b0176a06a3e99e41df8ca50/inductor_cache/6c/c6c3k45citakf7ejhddfm4zqpibrp3btlywhwju5nk3jsdyah5yo.py":70:31)
#loc87 = loc("/root/.cache/vllm/torch_compile_cache/torch_aot_compile/61bda05feca29378847c32f031efa5c8dba258f38b0176a06a3e99e41df8ca50/inductor_cache/6c/c6c3k45citakf7ejhddfm4zqpibrp3btlywhwju5nk3jsdyah5yo.py":70:44)
#loc88 = loc("/root/.cache/vllm/torch_compile_cache/torch_aot_compile/61bda05feca29378847c32f031efa5c8dba258f38b0176a06a3e99e41df8ca50/inductor_cache/6c/c6c3k45citakf7ejhddfm4zqpibrp3btlywhwju5nk3jsdyah5yo.py":70:36)
#loc89 = loc("/root/.cache/vllm/torch_compile_cache/torch_aot_compile/61bda05feca29378847c32f031efa5c8dba258f38b0176a06a3e99e41df8ca50/inductor_cache/6c/c6c3k45citakf7ejhddfm4zqpibrp3btlywhwju5nk3jsdyah5yo.py":71:32)
#loc90 = loc("/root/.cache/vllm/torch_compile_cache/torch_aot_compile/61bda05feca29378847c32f031efa5c8dba258f38b0176a06a3e99e41df8ca50/inductor_cache/6c/c6c3k45citakf7ejhddfm4zqpibrp3btlywhwju5nk3jsdyah5yo.py":72:21)
#loc91 = loc("/root/.cache/vllm/torch_compile_cache/torch_aot_compile/61bda05feca29378847c32f031efa5c8dba258f38b0176a06a3e99e41df8ca50/inductor_cache/6c/c6c3k45citakf7ejhddfm4zqpibrp3btlywhwju5nk3jsdyah5yo.py":73:32)
#loc92 = loc("/root/.cache/vllm/torch_compile_cache/torch_aot_compile/61bda05feca29378847c32f031efa5c8dba258f38b0176a06a3e99e41df8ca50/inductor_cache/6c/c6c3k45citakf7ejhddfm4zqpibrp3btlywhwju5nk3jsdyah5yo.py":74:20)
#loc93 = loc("/root/.cache/vllm/torch_compile_cache/torch_aot_compile/61bda05feca29378847c32f031efa5c8dba258f38b0176a06a3e99e41df8ca50/inductor_cache/6c/c6c3k45citakf7ejhddfm4zqpibrp3btlywhwju5nk3jsdyah5yo.py":75:28)
#loc94 = loc("/root/.cache/vllm/torch_compile_cache/torch_aot_compile/61bda05feca29378847c32f031efa5c8dba258f38b0176a06a3e99e41df8ca50/inductor_cache/6c/c6c3k45citakf7ejhddfm4zqpibrp3btlywhwju5nk3jsdyah5yo.py":76:20)
#loc95 = loc("/root/.cache/vllm/torch_compile_cache/torch_aot_compile/61bda05feca29378847c32f031efa5c8dba258f38b0176a06a3e99e41df8ca50/inductor_cache/6c/c6c3k45citakf7ejhddfm4zqpibrp3btlywhwju5nk3jsdyah5yo.py":77:45)
#loc96 = loc("/root/.cache/vllm/torch_compile_cache/torch_aot_compile/61bda05feca29378847c32f031efa5c8dba258f38b0176a06a3e99e41df8ca50/inductor_cache/6c/c6c3k45citakf7ejhddfm4zqpibrp3btlywhwju5nk3jsdyah5yo.py":77:37)
#loc97 = loc("/root/.cache/vllm/torch_compile_cache/torch_aot_compile/61bda05feca29378847c32f031efa5c8dba258f38b0176a06a3e99e41df8ca50/inductor_cache/6c/c6c3k45citakf7ejhddfm4zqpibrp3btlywhwju5nk3jsdyah5yo.py":77:31)
#loc98 = loc("/root/.cache/vllm/torch_compile_cache/torch_aot_compile/61bda05feca29378847c32f031efa5c8dba258f38b0176a06a3e99e41df8ca50/inductor_cache/6c/c6c3k45citakf7ejhddfm4zqpibrp3btlywhwju5nk3jsdyah5yo.py":77:59)
#loc99 = loc("/root/.cache/vllm/torch_compile_cache/torch_aot_compile/61bda05feca29378847c32f031efa5c8dba258f38b0176a06a3e99e41df8ca50/inductor_cache/6c/c6c3k45citakf7ejhddfm4zqpibrp3btlywhwju5nk3jsdyah5yo.py":77:51)
#loc100 = loc("/root/.cache/vllm/torch_compile_cache/torch_aot_compile/61bda05feca29378847c32f031efa5c8dba258f38b0176a06a3e99e41df8ca50/inductor_cache/6c/c6c3k45citakf7ejhddfm4zqpibrp3btlywhwju5nk3jsdyah5yo.py":77:110)
#loc101 = loc("/root/.cache/vllm/torch_compile_cache/torch_aot_compile/61bda05feca29378847c32f031efa5c8dba258f38b0176a06a3e99e41df8ca50/inductor_cache/6c/c6c3k45citakf7ejhddfm4zqpibrp3btlywhwju5nk3jsdyah5yo.py":79:30)
#loc102 = loc("/root/.cache/vllm/torch_compile_cache/torch_aot_compile/61bda05feca29378847c32f031efa5c8dba258f38b0176a06a3e99e41df8ca50/inductor_cache/6c/c6c3k45citakf7ejhddfm4zqpibrp3btlywhwju5nk3jsdyah5yo.py":80:20)
#loc103 = loc("/root/.cache/vllm/torch_compile_cache/torch_aot_compile/61bda05feca29378847c32f031efa5c8dba258f38b0176a06a3e99e41df8ca50/inductor_cache/6c/c6c3k45citakf7ejhddfm4zqpibrp3btlywhwju5nk3jsdyah5yo.py":81:20)
#loc104 = loc("/root/.cache/vllm/torch_compile_cache/torch_aot_compile/61bda05feca29378847c32f031efa5c8dba258f38b0176a06a3e99e41df8ca50/inductor_cache/6c/c6c3k45citakf7ejhddfm4zqpibrp3btlywhwju5nk3jsdyah5yo.py":83:34)
#loc105 = loc("/root/.cache/vllm/torch_compile_cache/torch_aot_compile/61bda05feca29378847c32f031efa5c8dba258f38b0176a06a3e99e41df8ca50/inductor_cache/6c/c6c3k45citakf7ejhddfm4zqpibrp3btlywhwju5nk3jsdyah5yo.py":83:48)
#loc106 = loc("/root/.cache/vllm/torch_compile_cache/torch_aot_compile/61bda05feca29378847c32f031efa5c8dba258f38b0176a06a3e99e41df8ca50/inductor_cache/6c/c6c3k45citakf7ejhddfm4zqpibrp3btlywhwju5nk3jsdyah5yo.py":83:40)
#loc107 = loc("/root/.cache/vllm/torch_compile_cache/torch_aot_compile/61bda05feca29378847c32f031efa5c8dba258f38b0176a06a3e99e41df8ca50/inductor_cache/6c/c6c3k45citakf7ejhddfm4zqpibrp3btlywhwju5nk3jsdyah5yo.py":83:31)
#loc108 = loc("/root/.cache/vllm/torch_compile_cache/torch_aot_compile/61bda05feca29378847c32f031efa5c8dba258f38b0176a06a3e99e41df8ca50/inductor_cache/6c/c6c3k45citakf7ejhddfm4zqpibrp3btlywhwju5nk3jsdyah5yo.py":83:62)
#loc109 = loc("/root/.cache/vllm/torch_compile_cache/torch_aot_compile/61bda05feca29378847c32f031efa5c8dba258f38b0176a06a3e99e41df8ca50/inductor_cache/6c/c6c3k45citakf7ejhddfm4zqpibrp3btlywhwju5nk3jsdyah5yo.py":83:54)
#loc110 = loc("/root/.cache/vllm/torch_compile_cache/torch_aot_compile/61bda05feca29378847c32f031efa5c8dba258f38b0176a06a3e99e41df8ca50/inductor_cache/6c/c6c3k45citakf7ejhddfm4zqpibrp3btlywhwju5nk3jsdyah5yo.py":83:113)
#loc111 = loc("/root/.cache/vllm/torch_compile_cache/torch_aot_compile/61bda05feca29378847c32f031efa5c8dba258f38b0176a06a3e99e41df8ca50/inductor_cache/6c/c6c3k45citakf7ejhddfm4zqpibrp3btlywhwju5nk3jsdyah5yo.py":84:20)
#loc112 = loc("/root/.cache/vllm/torch_compile_cache/torch_aot_compile/61bda05feca29378847c32f031efa5c8dba258f38b0176a06a3e99e41df8ca50/inductor_cache/6c/c6c3k45citakf7ejhddfm4zqpibrp3btlywhwju5nk3jsdyah5yo.py":85:35)
#loc113 = loc("/root/.cache/vllm/torch_compile_cache/torch_aot_compile/61bda05feca29378847c32f031efa5c8dba258f38b0176a06a3e99e41df8ca50/inductor_cache/6c/c6c3k45citakf7ejhddfm4zqpibrp3btlywhwju5nk3jsdyah5yo.py":85:45)
#loc114 = loc("/root/.cache/vllm/torch_compile_cache/torch_aot_compile/61bda05feca29378847c32f031efa5c8dba258f38b0176a06a3e99e41df8ca50/inductor_cache/6c/c6c3k45citakf7ejhddfm4zqpibrp3btlywhwju5nk3jsdyah5yo.py":85:40)
#loc115 = loc("/root/.cache/vllm/torch_compile_cache/torch_aot_compile/61bda05feca29378847c32f031efa5c8dba258f38b0176a06a3e99e41df8ca50/inductor_cache/6c/c6c3k45citakf7ejhddfm4zqpibrp3btlywhwju5nk3jsdyah5yo.py":85:59)
#loc116 = loc("/root/.cache/vllm/torch_compile_cache/torch_aot_compile/61bda05feca29378847c32f031efa5c8dba258f38b0176a06a3e99e41df8ca50/inductor_cache/6c/c6c3k45citakf7ejhddfm4zqpibrp3btlywhwju5nk3jsdyah5yo.py":85:51)
#loc117 = loc("/root/.cache/vllm/torch_compile_cache/torch_aot_compile/61bda05feca29378847c32f031efa5c8dba258f38b0176a06a3e99e41df8ca50/inductor_cache/6c/c6c3k45citakf7ejhddfm4zqpibrp3btlywhwju5nk3jsdyah5yo.py":85:31)
#loc118 = loc("/root/.cache/vllm/torch_compile_cache/torch_aot_compile/61bda05feca29378847c32f031efa5c8dba258f38b0176a06a3e99e41df8ca50/inductor_cache/6c/c6c3k45citakf7ejhddfm4zqpibrp3btlywhwju5nk3jsdyah5yo.py":85:73)
#loc119 = loc("/root/.cache/vllm/torch_compile_cache/torch_aot_compile/61bda05feca29378847c32f031efa5c8dba258f38b0176a06a3e99e41df8ca50/inductor_cache/6c/c6c3k45citakf7ejhddfm4zqpibrp3btlywhwju5nk3jsdyah5yo.py":85:65)
#loc120 = loc("/root/.cache/vllm/torch_compile_cache/torch_aot_compile/61bda05feca29378847c32f031efa5c8dba258f38b0176a06a3e99e41df8ca50/inductor_cache/6c/c6c3k45citakf7ejhddfm4zqpibrp3btlywhwju5nk3jsdyah5yo.py":85:124)
#loc121 = loc("/root/.cache/vllm/torch_compile_cache/torch_aot_compile/61bda05feca29378847c32f031efa5c8dba258f38b0176a06a3e99e41df8ca50/inductor_cache/6c/c6c3k45citakf7ejhddfm4zqpibrp3btlywhwju5nk3jsdyah5yo.py":87:20)
#loc122 = loc("/root/.cache/vllm/torch_compile_cache/torch_aot_compile/61bda05feca29378847c32f031efa5c8dba258f38b0176a06a3e99e41df8ca50/inductor_cache/6c/c6c3k45citakf7ejhddfm4zqpibrp3btlywhwju5nk3jsdyah5yo.py":88:39)
#loc123 = loc("/root/.cache/vllm/torch_compile_cache/torch_aot_compile/61bda05feca29378847c32f031efa5c8dba258f38b0176a06a3e99e41df8ca50/inductor_cache/6c/c6c3k45citakf7ejhddfm4zqpibrp3btlywhwju5nk3jsdyah5yo.py":88:31)
#loc124 = loc("/root/.cache/vllm/torch_compile_cache/torch_aot_compile/61bda05feca29378847c32f031efa5c8dba258f38b0176a06a3e99e41df8ca50/inductor_cache/6c/c6c3k45citakf7ejhddfm4zqpibrp3btlywhwju5nk3jsdyah5yo.py":88:52)
#loc125 = loc("/root/.cache/vllm/torch_compile_cache/torch_aot_compile/61bda05feca29378847c32f031efa5c8dba258f38b0176a06a3e99e41df8ca50/inductor_cache/6c/c6c3k45citakf7ejhddfm4zqpibrp3btlywhwju5nk3jsdyah5yo.py":88:44)
#loc126 = loc("/root/.cache/vllm/torch_compile_cache/torch_aot_compile/61bda05feca29378847c32f031efa5c8dba258f38b0176a06a3e99e41df8ca50/inductor_cache/6c/c6c3k45citakf7ejhddfm4zqpibrp3btlywhwju5nk3jsdyah5yo.py":88:103)
#loc127 = loc("/root/.cache/vllm/torch_compile_cache/torch_aot_compile/61bda05feca29378847c32f031efa5c8dba258f38b0176a06a3e99e41df8ca50/inductor_cache/6c/c6c3k45citakf7ejhddfm4zqpibrp3btlywhwju5nk3jsdyah5yo.py":90:20)
#loc128 = loc("/root/.cache/vllm/torch_compile_cache/torch_aot_compile/61bda05feca29378847c32f031efa5c8dba258f38b0176a06a3e99e41df8ca50/inductor_cache/6c/c6c3k45citakf7ejhddfm4zqpibrp3btlywhwju5nk3jsdyah5yo.py":91:20)
#loc129 = loc("/root/.cache/vllm/torch_compile_cache/torch_aot_compile/61bda05feca29378847c32f031efa5c8dba258f38b0176a06a3e99e41df8ca50/inductor_cache/6c/c6c3k45citakf7ejhddfm4zqpibrp3btlywhwju5nk3jsdyah5yo.py":93:34)
#loc130 = loc("/root/.cache/vllm/torch_compile_cache/torch_aot_compile/61bda05feca29378847c32f031efa5c8dba258f38b0176a06a3e99e41df8ca50/inductor_cache/6c/c6c3k45citakf7ejhddfm4zqpibrp3btlywhwju5nk3jsdyah5yo.py":93:48)
#loc131 = loc("/root/.cache/vllm/torch_compile_cache/torch_aot_compile/61bda05feca29378847c32f031efa5c8dba258f38b0176a06a3e99e41df8ca50/inductor_cache/6c/c6c3k45citakf7ejhddfm4zqpibrp3btlywhwju5nk3jsdyah5yo.py":93:40)
#loc132 = loc("/root/.cache/vllm/torch_compile_cache/torch_aot_compile/61bda05feca29378847c32f031efa5c8dba258f38b0176a06a3e99e41df8ca50/inductor_cache/6c/c6c3k45citakf7ejhddfm4zqpibrp3btlywhwju5nk3jsdyah5yo.py":93:31)
#loc133 = loc("/root/.cache/vllm/torch_compile_cache/torch_aot_compile/61bda05feca29378847c32f031efa5c8dba258f38b0176a06a3e99e41df8ca50/inductor_cache/6c/c6c3k45citakf7ejhddfm4zqpibrp3btlywhwju5nk3jsdyah5yo.py":93:62)
#loc134 = loc("/root/.cache/vllm/torch_compile_cache/torch_aot_compile/61bda05feca29378847c32f031efa5c8dba258f38b0176a06a3e99e41df8ca50/inductor_cache/6c/c6c3k45citakf7ejhddfm4zqpibrp3btlywhwju5nk3jsdyah5yo.py":93:54)
#loc135 = loc("/root/.cache/vllm/torch_compile_cache/torch_aot_compile/61bda05feca29378847c32f031efa5c8dba258f38b0176a06a3e99e41df8ca50/inductor_cache/6c/c6c3k45citakf7ejhddfm4zqpibrp3btlywhwju5nk3jsdyah5yo.py":93:113)
#loc136 = loc("/root/.cache/vllm/torch_compile_cache/torch_aot_compile/61bda05feca29378847c32f031efa5c8dba258f38b0176a06a3e99e41df8ca50/inductor_cache/6c/c6c3k45citakf7ejhddfm4zqpibrp3btlywhwju5nk3jsdyah5yo.py":94:20)
#loc137 = loc("/root/.cache/vllm/torch_compile_cache/torch_aot_compile/61bda05feca29378847c32f031efa5c8dba258f38b0176a06a3e99e41df8ca50/inductor_cache/6c/c6c3k45citakf7ejhddfm4zqpibrp3btlywhwju5nk3jsdyah5yo.py":95:20)
#loc138 = loc("/root/.cache/vllm/torch_compile_cache/torch_aot_compile/61bda05feca29378847c32f031efa5c8dba258f38b0176a06a3e99e41df8ca50/inductor_cache/6c/c6c3k45citakf7ejhddfm4zqpibrp3btlywhwju5nk3jsdyah5yo.py":96:38)
#loc139 = loc("/root/.cache/vllm/torch_compile_cache/torch_aot_compile/61bda05feca29378847c32f031efa5c8dba258f38b0176a06a3e99e41df8ca50/inductor_cache/6c/c6c3k45citakf7ejhddfm4zqpibrp3btlywhwju5nk3jsdyah5yo.py":97:35)
#loc140 = loc("/root/.cache/vllm/torch_compile_cache/torch_aot_compile/61bda05feca29378847c32f031efa5c8dba258f38b0176a06a3e99e41df8ca50/inductor_cache/6c/c6c3k45citakf7ejhddfm4zqpibrp3btlywhwju5nk3jsdyah5yo.py":98:34)
#loc141 = loc("/root/.cache/vllm/torch_compile_cache/torch_aot_compile/61bda05feca29378847c32f031efa5c8dba258f38b0176a06a3e99e41df8ca50/inductor_cache/6c/c6c3k45citakf7ejhddfm4zqpibrp3btlywhwju5nk3jsdyah5yo.py":99:34)
#loc142 = loc("/root/.cache/vllm/torch_compile_cache/torch_aot_compile/61bda05feca29378847c32f031efa5c8dba258f38b0176a06a3e99e41df8ca50/inductor_cache/6c/c6c3k45citakf7ejhddfm4zqpibrp3btlywhwju5nk3jsdyah5yo.py":99:30)
#loc143 = loc("/root/.cache/vllm/torch_compile_cache/torch_aot_compile/61bda05feca29378847c32f031efa5c8dba258f38b0176a06a3e99e41df8ca50/inductor_cache/6c/c6c3k45citakf7ejhddfm4zqpibrp3btlywhwju5nk3jsdyah5yo.py":99:25)
#loc144 = loc("/root/.cache/vllm/torch_compile_cache/torch_aot_compile/61bda05feca29378847c32f031efa5c8dba258f38b0176a06a3e99e41df8ca50/inductor_cache/6c/c6c3k45citakf7ejhddfm4zqpibrp3btlywhwju5nk3jsdyah5yo.py":99:46)
#loc145 = loc("/root/.cache/vllm/torch_compile_cache/torch_aot_compile/61bda05feca29378847c32f031efa5c8dba258f38b0176a06a3e99e41df8ca50/inductor_cache/6c/c6c3k45citakf7ejhddfm4zqpibrp3btlywhwju5nk3jsdyah5yo.py":99:4)
#loc153 = loc("xoffset"(#loc1))
#loc154 = loc("xoffset"(#loc2))
#loc155 = loc("xindex"(#loc3))
#loc156 = loc("xindex"(#loc4))
#loc157 = loc("xmask"(#loc5))
#loc158 = loc("x0"(#loc6))
#loc159 = loc("x1"(#loc7))
#loc160 = loc("x1"(#loc8))
#loc161 = loc("x2"(#loc9))
#loc162 = loc("x3"(#loc10))
#loc163 = loc("tmp1"(#loc11))
#loc164 = loc("tmp2"(#loc12))
#loc165 = loc("tmp3"(#loc13))
#loc166 = loc("tmp4"(#loc14))
#loc167 = loc("tmp5"(#loc15))
#loc168 = loc("tmp5"(#loc16))
#loc169 = loc("tmp5"(#loc17))
#loc170 = loc("tmp5"(#loc18))
#loc171 = loc("tmp5"(#loc19))
#loc172 = loc("tmp5"(#loc20))
#loc173 = loc("tmp5"(#loc21))
#loc174 = loc("tmp5"(#loc22))
#loc175 = loc("tmp7"(#loc23))
#loc176 = loc("tmp7"(#loc24))
#loc177 = loc("tmp7"(#loc25))
#loc178 = loc("tmp8"(#loc26))
#loc179 = loc("tmp9"(#loc27))
#loc180 = loc("tmp10"(#loc28))
#loc181 = loc("tmp11"(#loc29))
#loc182 = loc("tmp12"(#loc30))
#loc183 = loc("tmp13"(#loc31))
#loc184 = loc("tmp14"(#loc32))
#loc185 = loc("tmp14"(#loc33))
#loc186 = loc("tmp14"(#loc34))
#loc187 = loc("tmp14"(#loc35))
#loc188 = loc("tmp16"(#loc36))
#loc189 = loc("tmp17"(#loc37))
#loc190 = loc("tmp18"(#loc38))
#loc191 = loc("tmp20"(#loc39))
#loc192 = loc("tmp20"(#loc40))
#loc193 = loc("tmp20"(#loc41))
#loc194 = loc("tmp20"(#loc42))
#loc195 = loc("tmp20"(#loc43))
#loc196 = loc("tmp20"(#loc44))
#loc197 = loc("tmp21"(#loc45))
#loc198 = loc("tmp22"(#loc46))
#loc199 = loc("tmp22"(#loc47))
#loc200 = loc("tmp22"(#loc48))
#loc201 = loc("tmp22"(#loc49))
#loc202 = loc("tmp22"(#loc50))
#loc203 = loc("tmp22"(#loc51))
#loc204 = loc("tmp22"(#loc52))
#loc205 = loc("tmp22"(#loc53))
#loc206 = loc("tmp22"(#loc54))
#loc207 = loc("tmp24"(#loc55))
#loc208 = loc("tmp25"(#loc56))
#loc209 = loc("tmp25"(#loc57))
#loc210 = loc("tmp25"(#loc58))
#loc211 = loc("tmp25"(#loc59))
#loc212 = loc("tmp25"(#loc60))
#loc213 = loc("tmp27"(#loc61))
#loc214 = loc("tmp28"(#loc62))
#loc215 = loc("tmp30"(#loc63))
#loc216 = loc("tmp30"(#loc64))
#loc217 = loc("tmp30"(#loc65))
#loc218 = loc("tmp30"(#loc66))
#loc219 = loc("tmp30"(#loc67))
#loc220 = loc("tmp30"(#loc68))
#loc221 = loc("tmp31"(#loc69))
#loc222 = loc("tmp32"(#loc70))
#loc223 = loc("tmp33"(#loc71))
#loc224 = loc("tmp34"(#loc72))
#loc225 = loc("tmp35"(#loc73))
#loc226 = loc("tmp36"(#loc74))
#loc227 = loc("tmp37"(#loc75))
#loc228 = loc("tmp38"(#loc76))
#loc229 = loc("tmp38"(#loc77))
#loc230 = loc("tmp38"(#loc78))
#loc231 = loc("tmp38"(#loc79))
#loc232 = loc("tmp38"(#loc80))
#loc233 = loc("tmp38"(#loc81))
#loc234 = loc("tmp38"(#loc82))
#loc235 = loc("tmp38"(#loc83))
#loc236 = loc("tmp38"(#loc84))
#loc237 = loc("tmp38"(#loc85))
#loc238 = loc("tmp40"(#loc86))
#loc239 = loc("tmp40"(#loc87))
#loc240 = loc("tmp40"(#loc88))
#loc241 = loc("tmp41"(#loc89))
#loc242 = loc("tmp42"(#loc90))
#loc243 = loc("tmp43"(#loc91))
#loc244 = loc("tmp44"(#loc92))
#loc245 = loc("tmp45"(#loc93))
#loc246 = loc("tmp46"(#loc94))
#loc247 = loc("tmp47"(#loc95))
#loc248 = loc("tmp47"(#loc96))
#loc249 = loc("tmp47"(#loc97))
#loc250 = loc("tmp47"(#loc98))
#loc251 = loc("tmp47"(#loc99))
#loc252 = loc("tmp47"(#loc100))
#loc253 = loc("tmp49"(#loc101))
#loc254 = loc("tmp50"(#loc102))
#loc255 = loc("tmp51"(#loc103))
#loc256 = loc("tmp53"(#loc104))
#loc257 = loc("tmp53"(#loc105))
#loc258 = loc("tmp53"(#loc106))
#loc259 = loc("tmp53"(#loc107))
#loc260 = loc("tmp53"(#loc108))
#loc261 = loc("tmp53"(#loc109))
#loc262 = loc("tmp53"(#loc110))
#loc263 = loc("tmp54"(#loc111))
#loc264 = loc("tmp55"(#loc112))
#loc265 = loc("tmp55"(#loc113))
#loc266 = loc("tmp55"(#loc114))
#loc267 = loc("tmp55"(#loc115))
#loc268 = loc("tmp55"(#loc116))
#loc269 = loc("tmp55"(#loc117))
#loc270 = loc("tmp55"(#loc118))
#loc271 = loc("tmp55"(#loc119))
#loc272 = loc("tmp55"(#loc120))
#loc273 = loc("tmp57"(#loc121))
#loc274 = loc("tmp58"(#loc122))
#loc275 = loc("tmp58"(#loc123))
#loc276 = loc("tmp58"(#loc124))
#loc277 = loc("tmp58"(#loc125))
#loc278 = loc("tmp58"(#loc126))
#loc279 = loc("tmp60"(#loc127))
#loc280 = loc("tmp61"(#loc128))
#loc281 = loc("tmp63"(#loc129))
#loc282 = loc("tmp63"(#loc130))
#loc283 = loc("tmp63"(#loc131))
#loc284 = loc("tmp63"(#loc132))
#loc285 = loc("tmp63"(#loc133))
#loc286 = loc("tmp63"(#loc134))
#loc287 = loc("tmp63"(#loc135))
#loc288 = loc("tmp64"(#loc136))
#loc289 = loc("tmp65"(#loc137))
#loc290 = loc("tmp66"(#loc138))
#loc291 = loc("tmp67"(#loc139))
#loc292 = loc("tmp68"(#loc140))
