#loc = loc("/root/.cache/vllm/torch_compile_cache/torch_aot_compile/61bda05feca29378847c32f031efa5c8dba258f38b0176a06a3e99e41df8ca50/inductor_cache/i2/ci2c6nx7n5wzdqcphxg5bsqvtbnfwnlulmq5okhdra6afcq4rbfp.py":22:0)
#loc1 = loc(unknown)
#loc33 = loc("/root/.cache/vllm/torch_compile_cache/torch_aot_compile/61bda05feca29378847c32f031efa5c8dba258f38b0176a06a3e99e41df8ca50/inductor_cache/i2/ci2c6nx7n5wzdqcphxg5bsqvtbnfwnlulmq5okhdra6afcq4rbfp.py":44:24)
#loc46 = loc("in_ptr0"(#loc))
#loc47 = loc("in_ptr1"(#loc))
#loc48 = loc("in_ptr2"(#loc))
#loc49 = loc("out_ptr1"(#loc))
#loc50 = loc("xnumel"(#loc))
#loc51 = loc("r0_numel"(#loc))
#loc82 = loc("tmp6"(#loc33))
#loc92 = loc(callsite(#loc1 at #loc82))
module {
  tt.func public @triton_(%in_ptr0: !tt.ptr<f16> {tt.divisibility = 16 : i32} loc("in_ptr0"(#loc)), %in_ptr1: !tt.ptr<f16> {tt.divisibility = 16 : i32} loc("in_ptr1"(#loc)), %in_ptr2: !tt.ptr<f16> {tt.divisibility = 16 : i32} loc("in_ptr2"(#loc)), %out_ptr1: !tt.ptr<f16> {tt.divisibility = 16 : i32} loc("out_ptr1"(#loc)), %xnumel: i32 {tt.divisibility = 16 : i32} loc("xnumel"(#loc)), %r0_numel: i32 {tt.divisibility = 16 : i32} loc("r0_numel"(#loc))) attributes {noinline = false} {
    %cst = arith.constant dense<0.000000e+00> : tensor<8x128xf16> loc(#loc1)
    %tmp21 = arith.constant dense<1.000000e+00> : tensor<8x128xf32> loc(#loc52)
    %tmp10 = arith.constant dense<9.99999997E-7> : tensor<8x1xf32> loc(#loc53)
    %tmp8 = arith.constant dense<1.280000e+02> : tensor<8x1xf32> loc(#loc54)
    %tmp16 = arith.constant dense<6144> : tensor<8x1xi32> loc(#loc55)
    %cst_0 = arith.constant dense<16> : tensor<8x1xi32> loc(#loc1)
    %cst_1 = arith.constant dense<0.000000e+00> : tensor<8x128xf32> loc(#loc1)
    %cst_2 = arith.constant dense<128> : tensor<8x1xi32> loc(#loc1)
    %c8_i32 = arith.constant 8 : i32 loc(#loc1)
    %xoffset = tt.get_program_id x : i32 loc(#loc56)
    %xoffset_3 = arith.muli %xoffset, %c8_i32 : i32 loc(#loc57)
    %xindex = tt.make_range {end = 8 : i32, start = 0 : i32} : tensor<8xi32> loc(#loc58)
    %xindex_4 = tt.expand_dims %xindex {axis = 1 : i32} : tensor<8xi32> -> tensor<8x1xi32> loc(#loc59)
    %xindex_5 = tt.splat %xoffset_3 : i32 -> tensor<8x1xi32> loc(#loc60)
    %xindex_6 = arith.addi %xindex_5, %xindex_4 : tensor<8x1xi32> loc(#loc60)
    %xmask = tt.splat %xnumel : i32 -> tensor<8x1xi32> loc(#loc61)
    %xmask_7 = arith.cmpi slt, %xindex_6, %xmask : tensor<8x1xi32> loc(#loc61)
    %r0_index = tt.make_range {end = 128 : i32, start = 0 : i32} : tensor<128xi32> loc(#loc62)
    %r0_index_8 = tt.expand_dims %r0_index {axis = 0 : i32} : tensor<128xi32> -> tensor<1x128xi32> loc(#loc63)
    %tmp0 = arith.muli %xindex_6, %cst_2 : tensor<8x1xi32> loc(#loc64)
    %tmp0_9 = tt.broadcast %r0_index_8 : tensor<1x128xi32> -> tensor<8x128xi32> loc(#loc65)
    %tmp0_10 = tt.broadcast %tmp0 : tensor<8x1xi32> -> tensor<8x128xi32> loc(#loc65)
    %tmp0_11 = arith.addi %tmp0_9, %tmp0_10 : tensor<8x128xi32> loc(#loc65)
    %tmp0_12 = tt.splat %in_ptr0 : !tt.ptr<f16> -> tensor<8x128x!tt.ptr<f16>> loc(#loc66)
    %tmp0_13 = tt.addptr %tmp0_12, %tmp0_11 : tensor<8x128x!tt.ptr<f16>>, tensor<8x128xi32> loc(#loc66)
    %tmp0_14 = tt.broadcast %xmask_7 : tensor<8x1xi1> -> tensor<8x128xi1> loc(#loc67)
    %tmp0_15 = tt.load %tmp0_13, %tmp0_14, %cst : tensor<8x128x!tt.ptr<f16>> loc(#loc67)
    %tmp0_16 = arith.extf %tmp0_15 : tensor<8x128xf16> to tensor<8x128xf32> loc(#loc68)
    %tmp13 = tt.splat %in_ptr1 : !tt.ptr<f16> -> tensor<1x128x!tt.ptr<f16>> loc(#loc69)
    %tmp13_17 = tt.addptr %tmp13, %r0_index_8 : tensor<1x128x!tt.ptr<f16>>, tensor<1x128xi32> loc(#loc69)
    %tmp13_18 = tt.load %tmp13_17 evictionPolicy = evict_last : tensor<1x128x!tt.ptr<f16>> loc(#loc70)
    %tmp13_19 = arith.extf %tmp13_18 : tensor<1x128xf16> to tensor<1x128xf32> loc(#loc71)
    %tmp16_20 = arith.remsi %xindex_6, %cst_0 : tensor<8x1xi32> loc(#loc72)
    %tmp16_21 = arith.muli %tmp16_20, %cst_2 : tensor<8x1xi32> loc(#loc73)
    %tmp16_22 = tt.broadcast %tmp16_21 : tensor<8x1xi32> -> tensor<8x128xi32> loc(#loc74)
    %tmp16_23 = arith.addi %tmp0_9, %tmp16_22 : tensor<8x128xi32> loc(#loc74)
    %tmp16_24 = arith.divsi %xindex_6, %cst_0 : tensor<8x1xi32> loc(#loc75)
    %tmp16_25 = arith.muli %tmp16_24, %tmp16 : tensor<8x1xi32> loc(#loc55)
    %tmp16_26 = tt.broadcast %tmp16_25 : tensor<8x1xi32> -> tensor<8x128xi32> loc(#loc76)
    %tmp16_27 = arith.addi %tmp16_23, %tmp16_26 : tensor<8x128xi32> loc(#loc76)
    %tmp16_28 = tt.splat %in_ptr2 : !tt.ptr<f16> -> tensor<8x128x!tt.ptr<f16>> loc(#loc77)
    %tmp16_29 = tt.addptr %tmp16_28, %tmp16_27 : tensor<8x128x!tt.ptr<f16>>, tensor<8x128xi32> loc(#loc77)
    %tmp16_30 = tt.load %tmp16_29, %tmp0_14, %cst : tensor<8x128x!tt.ptr<f16>> loc(#loc78)
    %tmp16_31 = arith.extf %tmp16_30 : tensor<8x128xf16> to tensor<8x128xf32> loc(#loc79)
    %tmp2 = arith.mulf %tmp0_16, %tmp0_16 : tensor<8x128xf32> loc(#loc80)
    %tmp5 = arith.select %tmp0_14, %tmp2, %cst_1 : tensor<8x128xi1>, tensor<8x128xf32> loc(#loc81)
    %tmp6 = "tt.reduce"(%tmp5) <{axis = 1 : i32}> ({
    ^bb0(%tmp6_38: f32 loc(callsite(#loc1 at #loc82)), %tmp6_39: f32 loc(callsite(#loc1 at #loc82))):
      %tmp6_40 = arith.addf %tmp6_38, %tmp6_39 : f32 loc(#loc93)
      tt.reduce.return %tmp6_40 : f32 loc(#loc91)
    }) : (tensor<8x128xf32>) -> tensor<8xf32> loc(#loc91)
    %tmp6_32 = tt.expand_dims %tmp6 {axis = 1 : i32} : tensor<8xf32> -> tensor<8x1xf32> loc(#loc83)
    %tmp8_33 = arith.divf %tmp6_32, %tmp8 : tensor<8x1xf32> loc(#loc54)
    %tmp10_34 = arith.addf %tmp8_33, %tmp10 : tensor<8x1xf32> loc(#loc53)
    %tmp11 = tt.extern_elementwise %tmp10_34 {libname = "", libpath = "", pure = true, symbol = "__nv_rsqrtf"} : (tensor<8x1xf32>) -> tensor<8x1xf32> loc(#loc84)
    %tmp12 = tt.broadcast %tmp11 : tensor<8x1xf32> -> tensor<8x128xf32> loc(#loc85)
    %tmp12_35 = arith.mulf %tmp0_16, %tmp12 : tensor<8x128xf32> loc(#loc85)
    %tmp15 = tt.broadcast %tmp13_19 : tensor<1x128xf32> -> tensor<8x128xf32> loc(#loc86)
    %tmp15_36 = arith.mulf %tmp12_35, %tmp15 : tensor<8x128xf32> loc(#loc86)
    %tmp18 = arith.subf %cst_1, %tmp16_31 : tensor<8x128xf32> loc(#loc87)
    %tmp19 = tt.extern_elementwise %tmp18 {libname = "", libpath = "", pure = true, symbol = "__nv_expf"} : (tensor<8x128xf32>) -> tensor<8x128xf32> loc(#loc88)
    %tmp21_37 = arith.addf %tmp19, %tmp21 : tensor<8x128xf32> loc(#loc52)
    %tmp22 = arith.divf %tmp16_31, %tmp21_37 : tensor<8x128xf32> loc(#loc89)
    %tmp23 = arith.mulf %tmp15_36, %tmp22 : tensor<8x128xf32> loc(#loc90)
    %0 = tt.splat %out_ptr1 : !tt.ptr<f16> -> tensor<8x128x!tt.ptr<f16>> loc(#loc43)
    %1 = tt.addptr %0, %tmp0_11 : tensor<8x128x!tt.ptr<f16>>, tensor<8x128xi32> loc(#loc43)
    %2 = arith.truncf %tmp23 : tensor<8x128xf32> to tensor<8x128xf16> loc(#loc44)
    tt.store %1, %2, %tmp0_14 : tensor<8x128x!tt.ptr<f16>> loc(#loc44)
    tt.return loc(#loc45)
  } loc(#loc)
} loc(#loc)
#loc2 = loc("/root/.cache/vllm/torch_compile_cache/torch_aot_compile/61bda05feca29378847c32f031efa5c8dba258f38b0176a06a3e99e41df8ca50/inductor_cache/i2/ci2c6nx7n5wzdqcphxg5bsqvtbnfwnlulmq5okhdra6afcq4rbfp.py":57:20)
#loc3 = loc("/root/.cache/vllm/torch_compile_cache/torch_aot_compile/61bda05feca29378847c32f031efa5c8dba258f38b0176a06a3e99e41df8ca50/inductor_cache/i2/ci2c6nx7n5wzdqcphxg5bsqvtbnfwnlulmq5okhdra6afcq4rbfp.py":48:19)
#loc4 = loc("/root/.cache/vllm/torch_compile_cache/torch_aot_compile/61bda05feca29378847c32f031efa5c8dba258f38b0176a06a3e99e41df8ca50/inductor_cache/i2/ci2c6nx7n5wzdqcphxg5bsqvtbnfwnlulmq5okhdra6afcq4rbfp.py":46:19)
#loc5 = loc("/root/.cache/vllm/torch_compile_cache/torch_aot_compile/61bda05feca29378847c32f031efa5c8dba258f38b0176a06a3e99e41df8ca50/inductor_cache/i2/ci2c6nx7n5wzdqcphxg5bsqvtbnfwnlulmq5okhdra6afcq4rbfp.py":39:62)
#loc6 = loc("/root/.cache/vllm/torch_compile_cache/torch_aot_compile/61bda05feca29378847c32f031efa5c8dba258f38b0176a06a3e99e41df8ca50/inductor_cache/i2/ci2c6nx7n5wzdqcphxg5bsqvtbnfwnlulmq5okhdra6afcq4rbfp.py":27:28)
#loc7 = loc("/root/.cache/vllm/torch_compile_cache/torch_aot_compile/61bda05feca29378847c32f031efa5c8dba258f38b0176a06a3e99e41df8ca50/inductor_cache/i2/ci2c6nx7n5wzdqcphxg5bsqvtbnfwnlulmq5okhdra6afcq4rbfp.py":27:33)
#loc8 = loc("/root/.cache/vllm/torch_compile_cache/torch_aot_compile/61bda05feca29378847c32f031efa5c8dba258f38b0176a06a3e99e41df8ca50/inductor_cache/i2/ci2c6nx7n5wzdqcphxg5bsqvtbnfwnlulmq5okhdra6afcq4rbfp.py":28:36)
#loc9 = loc("/root/.cache/vllm/torch_compile_cache/torch_aot_compile/61bda05feca29378847c32f031efa5c8dba258f38b0176a06a3e99e41df8ca50/inductor_cache/i2/ci2c6nx7n5wzdqcphxg5bsqvtbnfwnlulmq5okhdra6afcq4rbfp.py":28:44)
#loc10 = loc("/root/.cache/vllm/torch_compile_cache/torch_aot_compile/61bda05feca29378847c32f031efa5c8dba258f38b0176a06a3e99e41df8ca50/inductor_cache/i2/ci2c6nx7n5wzdqcphxg5bsqvtbnfwnlulmq5okhdra6afcq4rbfp.py":28:23)
#loc11 = loc("/root/.cache/vllm/torch_compile_cache/torch_aot_compile/61bda05feca29378847c32f031efa5c8dba258f38b0176a06a3e99e41df8ca50/inductor_cache/i2/ci2c6nx7n5wzdqcphxg5bsqvtbnfwnlulmq5okhdra6afcq4rbfp.py":29:21)
#loc12 = loc("/root/.cache/vllm/torch_compile_cache/torch_aot_compile/61bda05feca29378847c32f031efa5c8dba258f38b0176a06a3e99e41df8ca50/inductor_cache/i2/ci2c6nx7n5wzdqcphxg5bsqvtbnfwnlulmq5okhdra6afcq4rbfp.py":30:28)
#loc13 = loc("/root/.cache/vllm/torch_compile_cache/torch_aot_compile/61bda05feca29378847c32f031efa5c8dba258f38b0176a06a3e99e41df8ca50/inductor_cache/i2/ci2c6nx7n5wzdqcphxg5bsqvtbnfwnlulmq5okhdra6afcq4rbfp.py":30:38)
#loc14 = loc("/root/.cache/vllm/torch_compile_cache/torch_aot_compile/61bda05feca29378847c32f031efa5c8dba258f38b0176a06a3e99e41df8ca50/inductor_cache/i2/ci2c6nx7n5wzdqcphxg5bsqvtbnfwnlulmq5okhdra6afcq4rbfp.py":37:41)
#loc15 = loc("/root/.cache/vllm/torch_compile_cache/torch_aot_compile/61bda05feca29378847c32f031efa5c8dba258f38b0176a06a3e99e41df8ca50/inductor_cache/i2/ci2c6nx7n5wzdqcphxg5bsqvtbnfwnlulmq5okhdra6afcq4rbfp.py":37:37)
#loc16 = loc("/root/.cache/vllm/torch_compile_cache/torch_aot_compile/61bda05feca29378847c32f031efa5c8dba258f38b0176a06a3e99e41df8ca50/inductor_cache/i2/ci2c6nx7n5wzdqcphxg5bsqvtbnfwnlulmq5okhdra6afcq4rbfp.py":37:30)
#loc17 = loc("/root/.cache/vllm/torch_compile_cache/torch_aot_compile/61bda05feca29378847c32f031efa5c8dba258f38b0176a06a3e99e41df8ca50/inductor_cache/i2/ci2c6nx7n5wzdqcphxg5bsqvtbnfwnlulmq5okhdra6afcq4rbfp.py":37:46)
#loc18 = loc("/root/.cache/vllm/torch_compile_cache/torch_aot_compile/61bda05feca29378847c32f031efa5c8dba258f38b0176a06a3e99e41df8ca50/inductor_cache/i2/ci2c6nx7n5wzdqcphxg5bsqvtbnfwnlulmq5okhdra6afcq4rbfp.py":37:67)
#loc19 = loc("/root/.cache/vllm/torch_compile_cache/torch_aot_compile/61bda05feca29378847c32f031efa5c8dba258f38b0176a06a3e99e41df8ca50/inductor_cache/i2/ci2c6nx7n5wzdqcphxg5bsqvtbnfwnlulmq5okhdra6afcq4rbfp.py":38:31)
#loc20 = loc("/root/.cache/vllm/torch_compile_cache/torch_aot_compile/61bda05feca29378847c32f031efa5c8dba258f38b0176a06a3e99e41df8ca50/inductor_cache/i2/ci2c6nx7n5wzdqcphxg5bsqvtbnfwnlulmq5okhdra6afcq4rbfp.py":38:38)
#loc21 = loc("/root/.cache/vllm/torch_compile_cache/torch_aot_compile/61bda05feca29378847c32f031efa5c8dba258f38b0176a06a3e99e41df8ca50/inductor_cache/i2/ci2c6nx7n5wzdqcphxg5bsqvtbnfwnlulmq5okhdra6afcq4rbfp.py":38:77)
#loc22 = loc("/root/.cache/vllm/torch_compile_cache/torch_aot_compile/61bda05feca29378847c32f031efa5c8dba258f38b0176a06a3e99e41df8ca50/inductor_cache/i2/ci2c6nx7n5wzdqcphxg5bsqvtbnfwnlulmq5okhdra6afcq4rbfp.py":39:49)
#loc23 = loc("/root/.cache/vllm/torch_compile_cache/torch_aot_compile/61bda05feca29378847c32f031efa5c8dba258f38b0176a06a3e99e41df8ca50/inductor_cache/i2/ci2c6nx7n5wzdqcphxg5bsqvtbnfwnlulmq5okhdra6afcq4rbfp.py":39:44)
#loc24 = loc("/root/.cache/vllm/torch_compile_cache/torch_aot_compile/61bda05feca29378847c32f031efa5c8dba258f38b0176a06a3e99e41df8ca50/inductor_cache/i2/ci2c6nx7n5wzdqcphxg5bsqvtbnfwnlulmq5okhdra6afcq4rbfp.py":39:38)
#loc25 = loc("/root/.cache/vllm/torch_compile_cache/torch_aot_compile/61bda05feca29378847c32f031efa5c8dba258f38b0176a06a3e99e41df8ca50/inductor_cache/i2/ci2c6nx7n5wzdqcphxg5bsqvtbnfwnlulmq5okhdra6afcq4rbfp.py":39:68)
#loc26 = loc("/root/.cache/vllm/torch_compile_cache/torch_aot_compile/61bda05feca29378847c32f031efa5c8dba258f38b0176a06a3e99e41df8ca50/inductor_cache/i2/ci2c6nx7n5wzdqcphxg5bsqvtbnfwnlulmq5okhdra6afcq4rbfp.py":39:56)
#loc27 = loc("/root/.cache/vllm/torch_compile_cache/torch_aot_compile/61bda05feca29378847c32f031efa5c8dba258f38b0176a06a3e99e41df8ca50/inductor_cache/i2/ci2c6nx7n5wzdqcphxg5bsqvtbnfwnlulmq5okhdra6afcq4rbfp.py":39:31)
#loc28 = loc("/root/.cache/vllm/torch_compile_cache/torch_aot_compile/61bda05feca29378847c32f031efa5c8dba258f38b0176a06a3e99e41df8ca50/inductor_cache/i2/ci2c6nx7n5wzdqcphxg5bsqvtbnfwnlulmq5okhdra6afcq4rbfp.py":39:74)
#loc29 = loc("/root/.cache/vllm/torch_compile_cache/torch_aot_compile/61bda05feca29378847c32f031efa5c8dba258f38b0176a06a3e99e41df8ca50/inductor_cache/i2/ci2c6nx7n5wzdqcphxg5bsqvtbnfwnlulmq5okhdra6afcq4rbfp.py":39:95)
#loc30 = loc("/root/.cache/vllm/torch_compile_cache/torch_aot_compile/61bda05feca29378847c32f031efa5c8dba258f38b0176a06a3e99e41df8ca50/inductor_cache/i2/ci2c6nx7n5wzdqcphxg5bsqvtbnfwnlulmq5okhdra6afcq4rbfp.py":41:18)
#loc31 = loc("/root/.cache/vllm/torch_compile_cache/torch_aot_compile/61bda05feca29378847c32f031efa5c8dba258f38b0176a06a3e99e41df8ca50/inductor_cache/i2/ci2c6nx7n5wzdqcphxg5bsqvtbnfwnlulmq5okhdra6afcq4rbfp.py":43:33)
#loc32 = loc("/usr/local/lib/python3.12/dist-packages/triton/language/standard.py":293:36)
#loc34 = loc("/usr/local/lib/python3.12/dist-packages/triton/language/standard.py":263:15)
#loc35 = loc("/root/.cache/vllm/torch_compile_cache/torch_aot_compile/61bda05feca29378847c32f031efa5c8dba258f38b0176a06a3e99e41df8ca50/inductor_cache/i2/ci2c6nx7n5wzdqcphxg5bsqvtbnfwnlulmq5okhdra6afcq4rbfp.py":44:27)
#loc36 = loc("/root/.cache/vllm/torch_compile_cache/torch_aot_compile/61bda05feca29378847c32f031efa5c8dba258f38b0176a06a3e99e41df8ca50/inductor_cache/i2/ci2c6nx7n5wzdqcphxg5bsqvtbnfwnlulmq5okhdra6afcq4rbfp.py":49:28)
#loc37 = loc("/root/.cache/vllm/torch_compile_cache/torch_aot_compile/61bda05feca29378847c32f031efa5c8dba258f38b0176a06a3e99e41df8ca50/inductor_cache/i2/ci2c6nx7n5wzdqcphxg5bsqvtbnfwnlulmq5okhdra6afcq4rbfp.py":50:19)
#loc38 = loc("/root/.cache/vllm/torch_compile_cache/torch_aot_compile/61bda05feca29378847c32f031efa5c8dba258f38b0176a06a3e99e41df8ca50/inductor_cache/i2/ci2c6nx7n5wzdqcphxg5bsqvtbnfwnlulmq5okhdra6afcq4rbfp.py":52:20)
#loc39 = loc("/root/.cache/vllm/torch_compile_cache/torch_aot_compile/61bda05feca29378847c32f031efa5c8dba258f38b0176a06a3e99e41df8ca50/inductor_cache/i2/ci2c6nx7n5wzdqcphxg5bsqvtbnfwnlulmq5okhdra6afcq4rbfp.py":54:13)
#loc40 = loc("/root/.cache/vllm/torch_compile_cache/torch_aot_compile/61bda05feca29378847c32f031efa5c8dba258f38b0176a06a3e99e41df8ca50/inductor_cache/i2/ci2c6nx7n5wzdqcphxg5bsqvtbnfwnlulmq5okhdra6afcq4rbfp.py":55:26)
#loc41 = loc("/root/.cache/vllm/torch_compile_cache/torch_aot_compile/61bda05feca29378847c32f031efa5c8dba258f38b0176a06a3e99e41df8ca50/inductor_cache/i2/ci2c6nx7n5wzdqcphxg5bsqvtbnfwnlulmq5okhdra6afcq4rbfp.py":58:21)
#loc42 = loc("/root/.cache/vllm/torch_compile_cache/torch_aot_compile/61bda05feca29378847c32f031efa5c8dba258f38b0176a06a3e99e41df8ca50/inductor_cache/i2/ci2c6nx7n5wzdqcphxg5bsqvtbnfwnlulmq5okhdra6afcq4rbfp.py":59:20)
#loc43 = loc("/root/.cache/vllm/torch_compile_cache/torch_aot_compile/61bda05feca29378847c32f031efa5c8dba258f38b0176a06a3e99e41df8ca50/inductor_cache/i2/ci2c6nx7n5wzdqcphxg5bsqvtbnfwnlulmq5okhdra6afcq4rbfp.py":61:25)
#loc44 = loc("/root/.cache/vllm/torch_compile_cache/torch_aot_compile/61bda05feca29378847c32f031efa5c8dba258f38b0176a06a3e99e41df8ca50/inductor_cache/i2/ci2c6nx7n5wzdqcphxg5bsqvtbnfwnlulmq5okhdra6afcq4rbfp.py":61:48)
#loc45 = loc("/root/.cache/vllm/torch_compile_cache/torch_aot_compile/61bda05feca29378847c32f031efa5c8dba258f38b0176a06a3e99e41df8ca50/inductor_cache/i2/ci2c6nx7n5wzdqcphxg5bsqvtbnfwnlulmq5okhdra6afcq4rbfp.py":61:4)
#loc52 = loc("tmp21"(#loc2))
#loc53 = loc("tmp10"(#loc3))
#loc54 = loc("tmp8"(#loc4))
#loc55 = loc("tmp16"(#loc5))
#loc56 = loc("xoffset"(#loc6))
#loc57 = loc("xoffset"(#loc7))
#loc58 = loc("xindex"(#loc8))
#loc59 = loc("xindex"(#loc9))
#loc60 = loc("xindex"(#loc10))
#loc61 = loc("xmask"(#loc11))
#loc62 = loc("r0_index"(#loc12))
#loc63 = loc("r0_index"(#loc13))
#loc64 = loc("tmp0"(#loc14))
#loc65 = loc("tmp0"(#loc15))
#loc66 = loc("tmp0"(#loc16))
#loc67 = loc("tmp0"(#loc17))
#loc68 = loc("tmp0"(#loc18))
#loc69 = loc("tmp13"(#loc19))
#loc70 = loc("tmp13"(#loc20))
#loc71 = loc("tmp13"(#loc21))
#loc72 = loc("tmp16"(#loc22))
#loc73 = loc("tmp16"(#loc23))
#loc74 = loc("tmp16"(#loc24))
#loc75 = loc("tmp16"(#loc25))
#loc76 = loc("tmp16"(#loc26))
#loc77 = loc("tmp16"(#loc27))
#loc78 = loc("tmp16"(#loc28))
#loc79 = loc("tmp16"(#loc29))
#loc80 = loc("tmp2"(#loc30))
#loc81 = loc("tmp5"(#loc31))
#loc83 = loc("tmp6"(#loc35))
#loc84 = loc("tmp11"(#loc36))
#loc85 = loc("tmp12"(#loc37))
#loc86 = loc("tmp15"(#loc38))
#loc87 = loc("tmp18"(#loc39))
#loc88 = loc("tmp19"(#loc40))
#loc89 = loc("tmp22"(#loc41))
#loc90 = loc("tmp23"(#loc42))
#loc91 = loc(callsite(#loc32 at #loc82))
#loc93 = loc(callsite(#loc34 at #loc91))
