#loc = loc("/usr/local/lib/python3.12/dist-packages/vllm/model_executor/layers/mamba/ops/causal_conv1d.py":749:0)
#loc88 = loc("x_ptr"(#loc))
#loc89 = loc("w_ptr"(#loc))
#loc90 = loc("conv_state_ptr"(#loc))
#loc91 = loc("conv_state_indices_ptr"(#loc))
#loc92 = loc("o_ptr"(#loc))
#loc93 = loc("batch"(#loc))
#loc94 = loc("stride_x_token"(#loc))
#loc95 = loc("stride_o_token"(#loc))
module {
  tt.func public @_causal_conv1d_update_kernel(%x_ptr: !tt.ptr<f16> {tt.divisibility = 16 : i32} loc("x_ptr"(#loc)), %w_ptr: !tt.ptr<f16> {tt.divisibility = 16 : i32} loc("w_ptr"(#loc)), %conv_state_ptr: !tt.ptr<f16> {tt.divisibility = 16 : i32} loc("conv_state_ptr"(#loc)), %conv_state_indices_ptr: !tt.ptr<i32> {tt.divisibility = 16 : i32} loc("conv_state_indices_ptr"(#loc)), %o_ptr: !tt.ptr<f16> {tt.divisibility = 16 : i32} loc("o_ptr"(#loc)), %batch: i32 loc("batch"(#loc)), %stride_x_token: i64 loc("stride_x_token"(#loc)), %stride_o_token: i64 loc("stride_o_token"(#loc))) attributes {noinline = false} {
    %cst = arith.constant dense<0.000000e+00> : tensor<4x256xf16> loc(#loc1)
    %c2_i64 = arith.constant 2 : i64 loc(#loc1)
    %cst_0 = arith.constant dense<0.000000e+00> : tensor<256xf16> loc(#loc1)
    %c0_i64 = arith.constant 0 : i64 loc(#loc1)
    %cst_1 = arith.constant dense<1.000000e+00> : tensor<256xf32> loc(#loc1)
    %cst_2 = arith.constant dense<3> : tensor<256xi32> loc(#loc1)
    %cst_3 = arith.constant dense<2> : tensor<256xi32> loc(#loc1)
    %cst_4 = arith.constant dense<4> : tensor<256xi32> loc(#loc1)
    %cst_5 = arith.constant dense<0> : tensor<4xi32> loc(#loc1)
    %cst_6 = arith.constant dense<2> : tensor<4xi32> loc(#loc1)
    %cst_7 = arith.constant dense<3> : tensor<4xi32> loc(#loc1)
    %cst_8 = arith.constant dense<4096> : tensor<4xi32> loc(#loc1)
    %cst_9 = arith.constant dense<1> : tensor<4xi32> loc(#loc1)
    %cst_10 = arith.constant dense<8192> : tensor<256xi32> loc(#loc1)
    %cst_11 = arith.constant dense<0.000000e+00> : tensor<256xf32> loc(#loc1)
    %cst_12 = arith.constant dense<4096> : tensor<256xi32> loc(#loc1)
    %cst_13 = arith.constant dense<1> : tensor<256xi32> loc(#loc1)
    %c536576_i64 = arith.constant 536576 : i64 loc(#loc1)
    %c6144_i32 = arith.constant 6144 : i32 loc(#loc1)
    %c1_i32 = arith.constant 1 : i32 loc(#loc1)
    %c256_i32 = arith.constant 256 : i32 loc(#loc1)
    %idx_seq = tt.get_program_id x : i32 loc(#loc96)
    %0 = arith.cmpi sge, %idx_seq, %batch : i32 loc(#loc3)
    cf.cond_br %0, ^bb1, ^bb2 loc(#loc3)
  ^bb1:  // 3 preds: ^bb0, ^bb2, ^bb3
    tt.return loc(#loc4)
  ^bb2:  // pred: ^bb0
    %idx_feats = tt.get_program_id y : i32 loc(#loc97)
    %idx_feats_14 = arith.muli %idx_feats, %c256_i32 : i32 loc(#loc98)
    %idx_feats_15 = tt.make_range {end = 256 : i32, start = 0 : i32} : tensor<256xi32> loc(#loc99)
    %idx_feats_16 = tt.splat %idx_feats_14 : i32 -> tensor<256xi32> loc(#loc100)
    %idx_feats_17 = arith.addi %idx_feats_16, %idx_feats_15 : tensor<256xi32> loc(#loc100)
    %conv_states_input_coord = tt.addptr %conv_state_indices_ptr, %idx_seq : !tt.ptr<i32>, i32 loc(#loc101)
    %conv_states_input_coord_18 = tt.load %conv_states_input_coord : !tt.ptr<i32> loc(#loc102)
    %conv_states_input_coord_19 = arith.extsi %conv_states_input_coord_18 : i32 to i64 loc(#loc103)
    %1 = arith.cmpi eq, %conv_states_input_coord_19, %c0_i64 : i64 loc(#loc12)
    cf.cond_br %1, ^bb1, ^bb3 loc(#loc12)
  ^bb3:  // pred: ^bb2
    %query_end_index = arith.addi %idx_seq, %c1_i32 : i32 loc(#loc104)
    %x_offset = arith.muli %idx_seq, %c6144_i32 : i32 loc(#loc105)
    %2 = arith.cmpi eq, %idx_seq, %query_end_index : i32 loc(#loc15)
    cf.cond_br %2, ^bb1, ^bb4 loc(#loc15)
  ^bb4:  // pred: ^bb3
    %conv_states_base = arith.muli %conv_states_input_coord_19, %c536576_i64 : i64 loc(#loc106)
    %conv_states_base_20 = tt.addptr %conv_state_ptr, %conv_states_base : !tt.ptr<f16>, i64 loc(#loc107)
    %conv_states_base_21 = tt.splat %conv_states_base_20 : !tt.ptr<f16> -> tensor<256x!tt.ptr<f16>> loc(#loc108)
    %conv_states_base_22 = tt.addptr %conv_states_base_21, %idx_feats_17 : tensor<256x!tt.ptr<f16>>, tensor<256xi32> loc(#loc108)
    %mask_w = arith.cmpi slt, %idx_feats_17, %cst_12 : tensor<256xi32> loc(#loc109)
    %col0 = tt.load %conv_states_base_22, %mask_w, %cst_0 : tensor<256x!tt.ptr<f16>> loc(#loc110)
    %conv_states_ptrs = tt.addptr %conv_states_base_22, %cst_12 : tensor<256x!tt.ptr<f16>>, tensor<256xi32> loc(#loc111)
    %col1 = tt.load %conv_states_ptrs, %mask_w, %cst_0 : tensor<256x!tt.ptr<f16>> loc(#loc112)
    %conv_states_ptrs_23 = tt.addptr %conv_states_base_22, %cst_10 : tensor<256x!tt.ptr<f16>>, tensor<256xi32> loc(#loc113)
    %col2 = tt.load %conv_states_ptrs_23, %mask_w, %cst_0 : tensor<256x!tt.ptr<f16>> loc(#loc114)
    %idx_tokens = tt.make_range {end = 4 : i32, start = 0 : i32} : tensor<4xi32> loc(#loc115)
    %conv_state_ptrs_source = tt.expand_dims %idx_feats_17 {axis = 0 : i32} : tensor<256xi32> -> tensor<1x256xi32> loc(#loc116)
    %conv_state_ptrs_source_24 = tt.splat %conv_states_base_20 : !tt.ptr<f16> -> tensor<1x256x!tt.ptr<f16>> loc(#loc117)
    %conv_state_ptrs_source_25 = tt.addptr %conv_state_ptrs_source_24, %conv_state_ptrs_source : tensor<1x256x!tt.ptr<f16>>, tensor<1x256xi32> loc(#loc117)
    %conv_state_ptrs_source_26 = arith.addi %idx_tokens, %cst_9 : tensor<4xi32> loc(#loc118)
    %conv_state_ptrs_source_27 = arith.muli %conv_state_ptrs_source_26, %cst_8 : tensor<4xi32> loc(#loc119)
    %conv_state_ptrs_source_28 = tt.expand_dims %conv_state_ptrs_source_27 {axis = 1 : i32} : tensor<4xi32> -> tensor<4x1xi32> loc(#loc120)
    %conv_state_ptrs_source_29 = tt.broadcast %conv_state_ptrs_source_25 : tensor<1x256x!tt.ptr<f16>> -> tensor<4x256x!tt.ptr<f16>> loc(#loc121)
    %conv_state_ptrs_source_30 = tt.broadcast %conv_state_ptrs_source_28 : tensor<4x1xi32> -> tensor<4x256xi32> loc(#loc121)
    %conv_state_ptrs_source_31 = tt.addptr %conv_state_ptrs_source_29, %conv_state_ptrs_source_30 : tensor<4x256x!tt.ptr<f16>>, tensor<4x256xi32> loc(#loc121)
    %mask = arith.cmpi slt, %conv_states_input_coord_19, %c2_i64 : i64 loc(#loc122)
    %mask_32 = arith.cmpi slt, %conv_state_ptrs_source_26, %cst_7 : tensor<4xi32> loc(#loc123)
    %mask_33 = tt.expand_dims %mask_32 {axis = 1 : i32} : tensor<4xi1> -> tensor<4x1xi1> loc(#loc124)
    %mask_34 = tt.splat %mask : i1 -> tensor<4x1xi1> loc(#loc125)
    %mask_35 = arith.andi %mask_34, %mask_33 : tensor<4x1xi1> loc(#loc125)
    %mask_36 = tt.expand_dims %mask_w {axis = 0 : i32} : tensor<256xi1> -> tensor<1x256xi1> loc(#loc126)
    %mask_37 = tt.broadcast %mask_35 : tensor<4x1xi1> -> tensor<4x256xi1> loc(#loc127)
    %mask_38 = tt.broadcast %mask_36 : tensor<1x256xi1> -> tensor<4x256xi1> loc(#loc127)
    %mask_39 = arith.andi %mask_37, %mask_38 : tensor<4x256xi1> loc(#loc127)
    %conv_state = tt.load %conv_state_ptrs_source_31, %mask_39, %cst : tensor<4x256x!tt.ptr<f16>> loc(#loc128)
    %x_base = tt.addptr %x_ptr, %x_offset : !tt.ptr<f16>, i32 loc(#loc129)
    %x_base_40 = tt.splat %x_base : !tt.ptr<f16> -> tensor<256x!tt.ptr<f16>> loc(#loc130)
    %x_base_41 = tt.addptr %x_base_40, %idx_feats_17 : tensor<256x!tt.ptr<f16>>, tensor<256xi32> loc(#loc130)
    %x_ptrs = tt.expand_dims %x_base_41 {axis = 0 : i32} : tensor<256x!tt.ptr<f16>> -> tensor<1x256x!tt.ptr<f16>> loc(#loc131)
    %x_ptrs_42 = arith.subi %idx_tokens, %cst_6 : tensor<4xi32> loc(#loc132)
    %x_ptrs_43 = arith.extsi %x_ptrs_42 : tensor<4xi32> to tensor<4xi64> loc(#loc133)
    %x_ptrs_44 = tt.splat %stride_x_token : i64 -> tensor<4xi64> loc(#loc133)
    %x_ptrs_45 = arith.muli %x_ptrs_43, %x_ptrs_44 : tensor<4xi64> loc(#loc133)
    %x_ptrs_46 = tt.expand_dims %x_ptrs_45 {axis = 1 : i32} : tensor<4xi64> -> tensor<4x1xi64> loc(#loc134)
    %x_ptrs_47 = tt.broadcast %x_ptrs : tensor<1x256x!tt.ptr<f16>> -> tensor<4x256x!tt.ptr<f16>> loc(#loc135)
    %x_ptrs_48 = tt.broadcast %x_ptrs_46 : tensor<4x1xi64> -> tensor<4x256xi64> loc(#loc135)
    %x_ptrs_49 = tt.addptr %x_ptrs_47, %x_ptrs_48 : tensor<4x256x!tt.ptr<f16>>, tensor<4x256xi64> loc(#loc135)
    %mask_x = arith.cmpi sge, %x_ptrs_42, %cst_5 : tensor<4xi32> loc(#loc136)
    %mask_x_50 = tt.expand_dims %mask_x {axis = 1 : i32} : tensor<4xi1> -> tensor<4x1xi1> loc(#loc137)
    %mask_x_51 = arith.cmpi slt, %x_ptrs_42, %cst_9 : tensor<4xi32> loc(#loc138)
    %mask_x_52 = tt.expand_dims %mask_x_51 {axis = 1 : i32} : tensor<4xi1> -> tensor<4x1xi1> loc(#loc139)
    %mask_x_53 = arith.andi %mask_x_50, %mask_x_52 : tensor<4x1xi1> loc(#loc140)
    %mask_x_54 = tt.broadcast %mask_x_53 : tensor<4x1xi1> -> tensor<4x256xi1> loc(#loc141)
    %mask_x_55 = arith.andi %mask_x_54, %mask_38 : tensor<4x256xi1> loc(#loc141)
    %loaded_x = tt.load %x_ptrs_49, %mask_x_55, %cst : tensor<4x256x!tt.ptr<f16>> loc(#loc142)
    gpu.barrier loc(#loc53)
    %new_conv_state = arith.select %mask_39, %conv_state, %loaded_x : tensor<4x256xi1>, tensor<4x256xf16> loc(#loc143)
    %conv_states_offset = tt.load %conv_states_input_coord : !tt.ptr<i32> loc(#loc144)
    %conv_states_offset_56 = arith.extsi %conv_states_offset : i32 to i64 loc(#loc145)
    %conv_state_ptrs_target = arith.muli %conv_states_offset_56, %c536576_i64 : i64 loc(#loc146)
    %conv_state_ptrs_target_57 = tt.addptr %conv_state_ptr, %conv_state_ptrs_target : !tt.ptr<f16>, i64 loc(#loc147)
    %conv_state_ptrs_target_58 = tt.splat %conv_state_ptrs_target_57 : !tt.ptr<f16> -> tensor<256x!tt.ptr<f16>> loc(#loc148)
    %conv_state_ptrs_target_59 = tt.addptr %conv_state_ptrs_target_58, %idx_feats_17 : tensor<256x!tt.ptr<f16>>, tensor<256xi32> loc(#loc148)
    %conv_state_ptrs_target_60 = tt.expand_dims %conv_state_ptrs_target_59 {axis = 0 : i32} : tensor<256x!tt.ptr<f16>> -> tensor<1x256x!tt.ptr<f16>> loc(#loc149)
    %conv_state_ptrs_target_61 = arith.muli %idx_tokens, %cst_8 : tensor<4xi32> loc(#loc150)
    %conv_state_ptrs_target_62 = tt.expand_dims %conv_state_ptrs_target_61 {axis = 1 : i32} : tensor<4xi32> -> tensor<4x1xi32> loc(#loc151)
    %conv_state_ptrs_target_63 = tt.broadcast %conv_state_ptrs_target_60 : tensor<1x256x!tt.ptr<f16>> -> tensor<4x256x!tt.ptr<f16>> loc(#loc152)
    %conv_state_ptrs_target_64 = tt.broadcast %conv_state_ptrs_target_62 : tensor<4x1xi32> -> tensor<4x256xi32> loc(#loc152)
    %conv_state_ptrs_target_65 = tt.addptr %conv_state_ptrs_target_63, %conv_state_ptrs_target_64 : tensor<4x256x!tt.ptr<f16>>, tensor<4x256xi32> loc(#loc152)
    %mask_66 = arith.cmpi slt, %idx_tokens, %cst_7 : tensor<4xi32> loc(#loc153)
    %mask_67 = tt.expand_dims %mask_66 {axis = 1 : i32} : tensor<4xi1> -> tensor<4x1xi1> loc(#loc154)
    %mask_68 = tt.broadcast %mask_67 : tensor<4x1xi1> -> tensor<4x256xi1> loc(#loc155)
    %mask_69 = arith.andi %mask_68, %mask_38 : tensor<4x256xi1> loc(#loc155)
    tt.store %conv_state_ptrs_target_65, %new_conv_state, %mask_69 : tensor<4x256x!tt.ptr<f16>> loc(#loc67)
    %w_base = arith.muli %idx_feats_17, %cst_4 : tensor<256xi32> loc(#loc156)
    %w_base_70 = tt.splat %w_ptr : !tt.ptr<f16> -> tensor<256x!tt.ptr<f16>> loc(#loc157)
    %w_base_71 = tt.addptr %w_base_70, %w_base : tensor<256x!tt.ptr<f16>>, tensor<256xi32> loc(#loc157)
    %w_col0 = tt.load %w_base_71, %mask_w, %cst_0 : tensor<256x!tt.ptr<f16>> loc(#loc158)
    %w_ptrs = tt.addptr %w_base_71, %cst_13 : tensor<256x!tt.ptr<f16>>, tensor<256xi32> loc(#loc159)
    %w_col1 = tt.load %w_ptrs, %mask_w, %cst_0 : tensor<256x!tt.ptr<f16>> loc(#loc160)
    %w_ptrs_72 = tt.addptr %w_base_71, %cst_3 : tensor<256x!tt.ptr<f16>>, tensor<256xi32> loc(#loc161)
    %w_col2 = tt.load %w_ptrs_72, %mask_w, %cst_0 : tensor<256x!tt.ptr<f16>> loc(#loc162)
    %w_ptrs_73 = tt.addptr %w_base_71, %cst_2 : tensor<256x!tt.ptr<f16>>, tensor<256xi32> loc(#loc163)
    %w_col3 = tt.load %w_ptrs_73, %mask_w, %cst_0 : tensor<256x!tt.ptr<f16>> loc(#loc164)
    %acc = arith.mulf %col0, %w_col0 : tensor<256xf16> loc(#loc165)
    %acc_74 = arith.extf %acc : tensor<256xf16> to tensor<256xf32> loc(#loc166)
    %acc_75 = arith.addf %acc_74, %cst_11 : tensor<256xf32> loc(#loc166)
    %acc_76 = arith.mulf %col1, %w_col1 : tensor<256xf16> loc(#loc165)
    %acc_77 = arith.extf %acc_76 : tensor<256xf16> to tensor<256xf32> loc(#loc166)
    %acc_78 = arith.addf %acc_75, %acc_77 : tensor<256xf32> loc(#loc166)
    %acc_79 = arith.mulf %col2, %w_col2 : tensor<256xf16> loc(#loc165)
    %acc_80 = arith.extf %acc_79 : tensor<256xf16> to tensor<256xf32> loc(#loc166)
    %acc_81 = arith.addf %acc_78, %acc_80 : tensor<256xf32> loc(#loc166)
    %matrix_x = tt.load %x_base_41, %mask_w : tensor<256x!tt.ptr<f16>> loc(#loc167)
    %acc_82 = arith.mulf %matrix_x, %w_col3 : tensor<256xf16> loc(#loc165)
    %acc_83 = arith.extf %acc_82 : tensor<256xf16> to tensor<256xf32> loc(#loc166)
    %acc_84 = arith.addf %acc_81, %acc_83 : tensor<256xf32> loc(#loc166)
    %acc_85 = arith.subf %cst_11, %acc_84 : tensor<256xf32> loc(#loc168)
    %acc_86 = math.exp %acc_85 : tensor<256xf32> loc(#loc169)
    %acc_87 = arith.addf %acc_86, %cst_1 : tensor<256xf32> loc(#loc170)
    %acc_88 = arith.divf %acc_84, %acc_87 : tensor<256xf32> loc(#loc171)
    %o_ptrs = tt.addptr %o_ptr, %x_offset : !tt.ptr<f16>, i32 loc(#loc172)
    %o_ptrs_89 = tt.splat %o_ptrs : !tt.ptr<f16> -> tensor<256x!tt.ptr<f16>> loc(#loc173)
    %o_ptrs_90 = tt.addptr %o_ptrs_89, %idx_feats_17 : tensor<256x!tt.ptr<f16>>, tensor<256xi32> loc(#loc173)
    %3 = arith.truncf %acc_88 : tensor<256xf32> to tensor<256xf16> loc(#loc86)
    tt.store %o_ptrs_90, %3, %mask_w : tensor<256x!tt.ptr<f16>> loc(#loc86)
    tt.return loc(#loc87)
  } loc(#loc)
} loc(#loc)
#loc1 = loc(unknown)
#loc2 = loc("/usr/local/lib/python3.12/dist-packages/vllm/model_executor/layers/mamba/ops/causal_conv1d.py":794:28)
#loc3 = loc("/usr/local/lib/python3.12/dist-packages/vllm/model_executor/layers/mamba/ops/causal_conv1d.py":795:18)
#loc4 = loc("/usr/local/lib/python3.12/dist-packages/vllm/model_executor/layers/mamba/ops/causal_conv1d.py":796:8)
#loc5 = loc("/usr/local/lib/python3.12/dist-packages/vllm/model_executor/layers/mamba/ops/causal_conv1d.py":799:30)
#loc6 = loc("/usr/local/lib/python3.12/dist-packages/vllm/model_executor/layers/mamba/ops/causal_conv1d.py":799:35)
#loc7 = loc("/usr/local/lib/python3.12/dist-packages/vllm/model_executor/layers/mamba/ops/causal_conv1d.py":799:58)
#loc8 = loc("/usr/local/lib/python3.12/dist-packages/vllm/model_executor/layers/mamba/ops/causal_conv1d.py":799:45)
#loc9 = loc("/usr/local/lib/python3.12/dist-packages/vllm/model_executor/layers/mamba/ops/causal_conv1d.py":811:33)
#loc10 = loc("/usr/local/lib/python3.12/dist-packages/vllm/model_executor/layers/mamba/ops/causal_conv1d.py":811:8)
#loc11 = loc("/usr/local/lib/python3.12/dist-packages/vllm/model_executor/layers/mamba/ops/causal_conv1d.py":812:9)
#loc12 = loc("/usr/local/lib/python3.12/dist-packages/vllm/model_executor/layers/mamba/ops/causal_conv1d.py":815:38)
#loc13 = loc("/usr/local/lib/python3.12/dist-packages/vllm/model_executor/layers/mamba/ops/causal_conv1d.py":829:46)
#loc14 = loc("/usr/local/lib/python3.12/dist-packages/vllm/model_executor/layers/mamba/ops/causal_conv1d.py":830:29)
#loc15 = loc("/usr/local/lib/python3.12/dist-packages/vllm/model_executor/layers/mamba/ops/causal_conv1d.py":833:28)
#loc16 = loc("/usr/local/lib/python3.12/dist-packages/vllm/model_executor/layers/mamba/ops/causal_conv1d.py":859:37)
#loc17 = loc("/usr/local/lib/python3.12/dist-packages/vllm/model_executor/layers/mamba/ops/causal_conv1d.py":859:11)
#loc18 = loc("/usr/local/lib/python3.12/dist-packages/vllm/model_executor/layers/mamba/ops/causal_conv1d.py":860:11)
#loc19 = loc("/usr/local/lib/python3.12/dist-packages/vllm/model_executor/layers/mamba/ops/causal_conv1d.py":862:25)
#loc20 = loc("/usr/local/lib/python3.12/dist-packages/vllm/model_executor/layers/mamba/ops/causal_conv1d.py":867:49)
#loc21 = loc("/usr/local/lib/python3.12/dist-packages/vllm/model_executor/layers/mamba/ops/causal_conv1d.py":869:42)
#loc22 = loc("/usr/local/lib/python3.12/dist-packages/vllm/model_executor/layers/mamba/ops/causal_conv1d.py":870:49)
#loc23 = loc("/usr/local/lib/python3.12/dist-packages/vllm/model_executor/layers/mamba/ops/causal_conv1d.py":872:42)
#loc24 = loc("/usr/local/lib/python3.12/dist-packages/vllm/model_executor/layers/mamba/ops/causal_conv1d.py":873:49)
#loc25 = loc("/usr/local/lib/python3.12/dist-packages/vllm/model_executor/layers/mamba/ops/causal_conv1d.py":882:30)
#loc26 = loc("/usr/local/lib/python3.12/dist-packages/vllm/model_executor/layers/mamba/ops/causal_conv1d.py":891:46)
#loc27 = loc("/usr/local/lib/python3.12/dist-packages/vllm/model_executor/layers/mamba/ops/causal_conv1d.py":891:10)
#loc28 = loc("/usr/local/lib/python3.12/dist-packages/vllm/model_executor/layers/mamba/ops/causal_conv1d.py":892:26)
#loc29 = loc("/usr/local/lib/python3.12/dist-packages/vllm/model_executor/layers/mamba/ops/causal_conv1d.py":892:64)
#loc30 = loc("/usr/local/lib/python3.12/dist-packages/vllm/model_executor/layers/mamba/ops/causal_conv1d.py":893:12)
#loc31 = loc("/usr/local/lib/python3.12/dist-packages/vllm/model_executor/layers/mamba/ops/causal_conv1d.py":892:10)
#loc32 = loc("/usr/local/lib/python3.12/dist-packages/vllm/model_executor/layers/mamba/ops/causal_conv1d.py":897:35)
#loc33 = loc("/usr/local/lib/python3.12/dist-packages/vllm/model_executor/layers/mamba/ops/causal_conv1d.py":898:35)
#loc34 = loc("/usr/local/lib/python3.12/dist-packages/vllm/model_executor/layers/mamba/ops/causal_conv1d.py":898:46)
#loc35 = loc("/usr/local/lib/python3.12/dist-packages/vllm/model_executor/layers/mamba/ops/causal_conv1d.py":898:10)
#loc36 = loc("/usr/local/lib/python3.12/dist-packages/vllm/model_executor/layers/mamba/ops/causal_conv1d.py":899:28)
#loc37 = loc("/usr/local/lib/python3.12/dist-packages/vllm/model_executor/layers/mamba/ops/causal_conv1d.py":899:10)
#loc38 = loc("/usr/local/lib/python3.12/dist-packages/vllm/model_executor/layers/mamba/ops/causal_conv1d.py":901:49)
#loc39 = loc("/usr/local/lib/python3.12/dist-packages/vllm/model_executor/layers/mamba/ops/causal_conv1d.py":904:21)
#loc40 = loc("/usr/local/lib/python3.12/dist-packages/vllm/model_executor/layers/mamba/ops/causal_conv1d.py":904:33)
#loc41 = loc("/usr/local/lib/python3.12/dist-packages/vllm/model_executor/layers/mamba/ops/causal_conv1d.py":907:15)
#loc42 = loc("/usr/local/lib/python3.12/dist-packages/vllm/model_executor/layers/mamba/ops/causal_conv1d.py":907:41)
#loc43 = loc("/usr/local/lib/python3.12/dist-packages/vllm/model_executor/layers/mamba/ops/causal_conv1d.py":907:48)
#loc44 = loc("/usr/local/lib/python3.12/dist-packages/vllm/model_executor/layers/mamba/ops/causal_conv1d.py":907:64)
#loc45 = loc("/usr/local/lib/python3.12/dist-packages/vllm/model_executor/layers/mamba/ops/causal_conv1d.py":907:26)
#loc46 = loc("/usr/local/lib/python3.12/dist-packages/vllm/model_executor/layers/mamba/ops/causal_conv1d.py":911:29)
#loc47 = loc("/usr/local/lib/python3.12/dist-packages/vllm/model_executor/layers/mamba/ops/causal_conv1d.py":911:32)
#loc48 = loc("/usr/local/lib/python3.12/dist-packages/vllm/model_executor/layers/mamba/ops/causal_conv1d.py":912:30)
#loc49 = loc("/usr/local/lib/python3.12/dist-packages/vllm/model_executor/layers/mamba/ops/causal_conv1d.py":912:38)
#loc50 = loc("/usr/local/lib/python3.12/dist-packages/vllm/model_executor/layers/mamba/ops/causal_conv1d.py":912:10)
#loc51 = loc("/usr/local/lib/python3.12/dist-packages/vllm/model_executor/layers/mamba/ops/causal_conv1d.py":913:10)
#loc52 = loc("/usr/local/lib/python3.12/dist-packages/vllm/model_executor/layers/mamba/ops/causal_conv1d.py":915:39)
#loc53 = loc("/usr/local/lib/python3.12/dist-packages/vllm/model_executor/layers/mamba/ops/causal_conv1d.py":916:4)
#loc54 = loc("/usr/local/lib/python3.12/dist-packages/vllm/model_executor/layers/mamba/ops/causal_conv1d.py":918:48)
#loc55 = loc("/usr/local/lib/python3.12/dist-packages/vllm/model_executor/layers/mamba/ops/causal_conv1d.py":923:8)
#loc56 = loc("/usr/local/lib/python3.12/dist-packages/vllm/model_executor/layers/mamba/ops/causal_conv1d.py":924:9)
#loc57 = loc("/usr/local/lib/python3.12/dist-packages/vllm/model_executor/layers/mamba/ops/causal_conv1d.py":927:32)
#loc58 = loc("/usr/local/lib/python3.12/dist-packages/vllm/model_executor/layers/mamba/ops/causal_conv1d.py":927:11)
#loc59 = loc("/usr/local/lib/python3.12/dist-packages/vllm/model_executor/layers/mamba/ops/causal_conv1d.py":928:11)
#loc60 = loc("/usr/local/lib/python3.12/dist-packages/vllm/model_executor/layers/mamba/ops/causal_conv1d.py":929:6)
#loc61 = loc("/usr/local/lib/python3.12/dist-packages/vllm/model_executor/layers/mamba/ops/causal_conv1d.py":930:21)
#loc62 = loc("/usr/local/lib/python3.12/dist-packages/vllm/model_executor/layers/mamba/ops/causal_conv1d.py":931:6)
#loc63 = loc("/usr/local/lib/python3.12/dist-packages/vllm/model_executor/layers/mamba/ops/causal_conv1d.py":929:17)
#loc64 = loc("/usr/local/lib/python3.12/dist-packages/vllm/model_executor/layers/mamba/ops/causal_conv1d.py":932:25)
#loc65 = loc("/usr/local/lib/python3.12/dist-packages/vllm/model_executor/layers/mamba/ops/causal_conv1d.py":932:36)
#loc66 = loc("/usr/local/lib/python3.12/dist-packages/vllm/model_executor/layers/mamba/ops/causal_conv1d.py":932:47)
#loc67 = loc("/usr/local/lib/python3.12/dist-packages/vllm/model_executor/layers/mamba/ops/causal_conv1d.py":933:53)
#loc68 = loc("/usr/local/lib/python3.12/dist-packages/vllm/model_executor/layers/mamba/ops/causal_conv1d.py":948:34)
#loc69 = loc("/usr/local/lib/python3.12/dist-packages/vllm/model_executor/layers/mamba/ops/causal_conv1d.py":948:22)
#loc70 = loc("/usr/local/lib/python3.12/dist-packages/vllm/model_executor/layers/mamba/ops/causal_conv1d.py":952:33)
#loc71 = loc("/usr/local/lib/python3.12/dist-packages/vllm/model_executor/layers/mamba/ops/causal_conv1d.py":953:27)
#loc72 = loc("/usr/local/lib/python3.12/dist-packages/vllm/model_executor/layers/mamba/ops/causal_conv1d.py":954:33)
#loc73 = loc("/usr/local/lib/python3.12/dist-packages/vllm/model_executor/layers/mamba/ops/causal_conv1d.py":956:27)
#loc74 = loc("/usr/local/lib/python3.12/dist-packages/vllm/model_executor/layers/mamba/ops/causal_conv1d.py":957:33)
#loc75 = loc("/usr/local/lib/python3.12/dist-packages/vllm/model_executor/layers/mamba/ops/causal_conv1d.py":959:27)
#loc76 = loc("/usr/local/lib/python3.12/dist-packages/vllm/model_executor/layers/mamba/ops/causal_conv1d.py":960:33)
#loc77 = loc("/usr/local/lib/python3.12/dist-packages/vllm/model_executor/layers/mamba/ops/causal_conv1d.py":1034:30)
#loc78 = loc("/usr/local/lib/python3.12/dist-packages/vllm/model_executor/layers/mamba/ops/causal_conv1d.py":1034:19)
#loc79 = loc("/usr/local/lib/python3.12/dist-packages/vllm/model_executor/layers/mamba/ops/causal_conv1d.py":1001:39)
#loc80 = loc("/usr/local/lib/python3.12/dist-packages/vllm/model_executor/layers/mamba/ops/causal_conv1d.py":1058:37)
#loc81 = loc("/usr/local/lib/python3.12/dist-packages/vllm/model_executor/layers/mamba/ops/causal_conv1d.py":1058:36)
#loc82 = loc("/usr/local/lib/python3.12/dist-packages/vllm/model_executor/layers/mamba/ops/causal_conv1d.py":1058:29)
#loc83 = loc("/usr/local/lib/python3.12/dist-packages/vllm/model_executor/layers/mamba/ops/causal_conv1d.py":1058:25)
#loc84 = loc("/usr/local/lib/python3.12/dist-packages/vllm/model_executor/layers/mamba/ops/causal_conv1d.py":1063:20)
#loc85 = loc("/usr/local/lib/python3.12/dist-packages/vllm/model_executor/layers/mamba/ops/causal_conv1d.py":1063:61)
#loc86 = loc("/usr/local/lib/python3.12/dist-packages/vllm/model_executor/layers/mamba/ops/causal_conv1d.py":1066:25)
#loc87 = loc("/usr/local/lib/python3.12/dist-packages/vllm/model_executor/layers/mamba/ops/causal_conv1d.py":972:4)
#loc96 = loc("idx_seq"(#loc2))
#loc97 = loc("idx_feats"(#loc5))
#loc98 = loc("idx_feats"(#loc6))
#loc99 = loc("idx_feats"(#loc7))
#loc100 = loc("idx_feats"(#loc8))
#loc101 = loc("conv_states_input_coord"(#loc9))
#loc102 = loc("conv_states_input_coord"(#loc10))
#loc103 = loc("conv_states_input_coord"(#loc11))
#loc104 = loc("query_end_index"(#loc13))
#loc105 = loc("x_offset"(#loc14))
#loc106 = loc("conv_states_base"(#loc16))
#loc107 = loc("conv_states_base"(#loc17))
#loc108 = loc("conv_states_base"(#loc18))
#loc109 = loc("mask_w"(#loc19))
#loc110 = loc("col0"(#loc20))
#loc111 = loc("conv_states_ptrs"(#loc21))
#loc112 = loc("col1"(#loc22))
#loc113 = loc("conv_states_ptrs"(#loc23))
#loc114 = loc("col2"(#loc24))
#loc115 = loc("idx_tokens"(#loc25))
#loc116 = loc("conv_state_ptrs_source"(#loc26))
#loc117 = loc("conv_state_ptrs_source"(#loc27))
#loc118 = loc("conv_state_ptrs_source"(#loc28))
#loc119 = loc("conv_state_ptrs_source"(#loc29))
#loc120 = loc("conv_state_ptrs_source"(#loc30))
#loc121 = loc("conv_state_ptrs_source"(#loc31))
#loc122 = loc("mask"(#loc32))
#loc123 = loc("mask"(#loc33))
#loc124 = loc("mask"(#loc34))
#loc125 = loc("mask"(#loc35))
#loc126 = loc("mask"(#loc36))
#loc127 = loc("mask"(#loc37))
#loc128 = loc("conv_state"(#loc38))
#loc129 = loc("x_base"(#loc39))
#loc130 = loc("x_base"(#loc40))
#loc131 = loc("x_ptrs"(#loc41))
#loc132 = loc("x_ptrs"(#loc42))
#loc133 = loc("x_ptrs"(#loc43))
#loc134 = loc("x_ptrs"(#loc44))
#loc135 = loc("x_ptrs"(#loc45))
#loc136 = loc("mask_x"(#loc46))
#loc137 = loc("mask_x"(#loc47))
#loc138 = loc("mask_x"(#loc48))
#loc139 = loc("mask_x"(#loc49))
#loc140 = loc("mask_x"(#loc50))
#loc141 = loc("mask_x"(#loc51))
#loc142 = loc("loaded_x"(#loc52))
#loc143 = loc("new_conv_state"(#loc54))
#loc144 = loc("conv_states_offset"(#loc55))
#loc145 = loc("conv_states_offset"(#loc56))
#loc146 = loc("conv_state_ptrs_target"(#loc57))
#loc147 = loc("conv_state_ptrs_target"(#loc58))
#loc148 = loc("conv_state_ptrs_target"(#loc59))
#loc149 = loc("conv_state_ptrs_target"(#loc60))
#loc150 = loc("conv_state_ptrs_target"(#loc61))
#loc151 = loc("conv_state_ptrs_target"(#loc62))
#loc152 = loc("conv_state_ptrs_target"(#loc63))
#loc153 = loc("mask"(#loc64))
#loc154 = loc("mask"(#loc65))
#loc155 = loc("mask"(#loc66))
#loc156 = loc("w_base"(#loc68))
#loc157 = loc("w_base"(#loc69))
#loc158 = loc("w_col0"(#loc70))
#loc159 = loc("w_ptrs"(#loc71))
#loc160 = loc("w_col1"(#loc72))
#loc161 = loc("w_ptrs"(#loc73))
#loc162 = loc("w_col2"(#loc74))
#loc163 = loc("w_ptrs"(#loc75))
#loc164 = loc("w_col3"(#loc76))
#loc165 = loc("acc"(#loc77))
#loc166 = loc("acc"(#loc78))
#loc167 = loc("matrix_x"(#loc79))
#loc168 = loc("acc"(#loc80))
#loc169 = loc("acc"(#loc81))
#loc170 = loc("acc"(#loc82))
#loc171 = loc("acc"(#loc83))
#loc172 = loc("o_ptrs"(#loc84))
#loc173 = loc("o_ptrs"(#loc85))
