#loc = loc("/usr/local/lib/python3.12/dist-packages/vllm/model_executor/layers/fla/ops/chunk_delta_h.py":43:0)
#loc101 = loc("k"(#loc))
#loc102 = loc("v"(#loc))
#loc103 = loc("w"(#loc))
#loc104 = loc("v_new"(#loc))
#loc105 = loc("g"(#loc))
#loc106 = loc("h"(#loc))
#loc107 = loc("h0"(#loc))
#loc108 = loc("ht"(#loc))
#loc109 = loc("cu_seqlens"(#loc))
#loc110 = loc("chunk_offsets"(#loc))
#loc111 = loc("T"(#loc))
module {
  tt.func public @chunk_gated_delta_rule_fwd_kernel_h_blockdim64(%k: !tt.ptr<f16> {tt.divisibility = 16 : i32} loc("k"(#loc)), %v: !tt.ptr<f16> {tt.divisibility = 16 : i32} loc("v"(#loc)), %w: !tt.ptr<f16> {tt.divisibility = 16 : i32} loc("w"(#loc)), %v_new: !tt.ptr<f16> {tt.divisibility = 16 : i32} loc("v_new"(#loc)), %g: !tt.ptr<f32> {tt.divisibility = 16 : i32} loc("g"(#loc)), %h: !tt.ptr<f16> {tt.divisibility = 16 : i32} loc("h"(#loc)), %h0: !tt.ptr<f32> {tt.divisibility = 16 : i32} loc("h0"(#loc)), %ht: !tt.ptr<f32> {tt.divisibility = 16 : i32} loc("ht"(#loc)), %cu_seqlens: !tt.ptr<i32> {tt.divisibility = 16 : i32} loc("cu_seqlens"(#loc)), %chunk_offsets: !tt.ptr<i64> {tt.divisibility = 16 : i32} loc("chunk_offsets"(#loc)), %T: i32 loc("T"(#loc))) attributes {noinline = false} {
    %cst = arith.constant dense<1024> : tensor<1x64xi64> loc(#loc1)
    %cst_0 = arith.constant dense<0> : tensor<64xi64> loc(#loc1)
    %cst_1 = arith.constant dense<16> : tensor<64xi64> loc(#loc1)
    %cst_2 = arith.constant dense<2048> : tensor<64x1xi64> loc(#loc1)
    %cst_3 = arith.constant dense<64> : tensor<64xi64> loc(#loc1)
    %cst_4 = arith.constant dense<128> : tensor<1x64xi64> loc(#loc1)
    %cst_5 = arith.constant dense<0> : tensor<1x64xi64> loc(#loc1)
    %cst_6 = arith.constant dense<0> : tensor<64x1xi64> loc(#loc1)
    %cst_7 = arith.constant dense<128> : tensor<64x1xi64> loc(#loc1)
    %NT = arith.constant 63 : i32 loc(#loc191)
    %c262144_i64 = arith.constant 262144 : i64 loc(#loc1)
    %c16384_i32 = arith.constant 16384 : i32 loc(#loc1)
    %cst_8 = arith.constant dense<0.000000e+00> : tensor<64xf32> loc(#loc1)
    %c16_i64 = arith.constant 16 : i64 loc(#loc1)
    %c64_i64 = arith.constant 64 : i64 loc(#loc1)
    %cst_9 = arith.constant dense<0.000000e+00> : tensor<64x64xf32> loc(#loc1)
    %c0_i32 = arith.constant 0 : i32 loc(#loc1)
    %c1_i64 = arith.constant 1 : i64 loc(#loc1)
    %c64_i32 = arith.constant 64 : i32 loc(#loc1)
    %c2_i32 = arith.constant 2 : i32 loc(#loc1)
    %c8_i32 = arith.constant 8 : i32 loc(#loc1)
    %c128_i32 = arith.constant 128 : i32 loc(#loc1)
    %c1_i32 = arith.constant 1 : i32 loc(#loc1)
    %c16_i32 = arith.constant 16 : i32 loc(#loc1)
    %0 = tt.get_program_id x : i32 loc(#loc3)
    %1 = tt.get_program_id y : i32 loc(#loc4)
    %2 = arith.divsi %1, %c16_i32 : i32 loc(#loc5)
    %3 = arith.remsi %1, %c16_i32 : i32 loc(#loc6)
    %4 = tt.addptr %cu_seqlens, %2 : !tt.ptr<i32>, i32 loc(#loc7)
    %5 = tt.load %4 : !tt.ptr<i32> loc(#loc8)
    %6 = tt.addptr %4, %c1_i32 : !tt.ptr<i32>, i32 loc(#loc9)
    %7 = tt.load %6 : !tt.ptr<i32> loc(#loc10)
    %T_10 = arith.subi %7, %5 : i32 loc(#loc113)
    %NT_11 = arith.addi %T_10, %NT : i32 loc(#loc192)
    %NT_12 = arith.divsi %NT_11, %c64_i32 : i32 loc(#loc193)
    %boh = tt.addptr %chunk_offsets, %2 : !tt.ptr<i64>, i32 loc(#loc114)
    %boh_13 = tt.load %boh : !tt.ptr<i64> loc(#loc115)
    %boh_14 = arith.trunci %boh_13 : i64 to i32 loc(#loc116)
    %h_15 = arith.muli %boh_14, %c16_i32 : i32 loc(#loc117)
    %h_16 = arith.addi %h_15, %3 : i32 loc(#loc118)
    %h_17 = arith.muli %h_16, %c16384_i32 : i32 loc(#loc119)
    %h_18 = arith.extsi %h_17 : i32 to i64 loc(#loc120)
    %v_19 = arith.muli %5, %c16_i32 : i32 loc(#loc121)
    %v_20 = arith.addi %v_19, %3 : i32 loc(#loc122)
    %v_21 = arith.muli %v_20, %c128_i32 : i32 loc(#loc123)
    %v_22 = arith.extsi %v_21 : i32 to i64 loc(#loc124)
    %v_23 = tt.addptr %v, %v_22 : !tt.ptr<f16>, i64 loc(#loc125)
    %k_24 = arith.muli %5, %c8_i32 : i32 loc(#loc126)
    %k_25 = arith.divsi %3, %c2_i32 : i32 loc(#loc127)
    %k_26 = arith.addi %k_24, %k_25 : i32 loc(#loc128)
    %k_27 = arith.muli %k_26, %c128_i32 : i32 loc(#loc129)
    %k_28 = arith.extsi %k_27 : i32 to i64 loc(#loc130)
    %k_29 = tt.addptr %k, %k_28 : !tt.ptr<f16>, i64 loc(#loc131)
    %w_30 = tt.addptr %w, %v_22 : !tt.ptr<f16>, i64 loc(#loc132)
    %v_new_31 = tt.addptr %v_new, %v_22 : !tt.ptr<f16>, i64 loc(#loc133)
    %h0_32 = arith.muli %1, %c16384_i32 : i32 loc(#loc134)
    %h0_33 = tt.addptr %h0, %h0_32 : !tt.ptr<f32>, i32 loc(#loc135)
    %ht_34 = tt.addptr %ht, %h0_32 : !tt.ptr<f32>, i32 loc(#loc136)
    %p_h0_1 = arith.muli %0, %c64_i32 : i32 loc(#loc137)
    %p_h0_1_35 = arith.extsi %p_h0_1 : i32 to i64 loc(#loc138)
    %b_h1 = tt.splat %h0_33 : !tt.ptr<f32> -> tensor<64x64x!tt.ptr<f32>> loc(#loc139)
    %b_h1_36 = tt.splat %p_h0_1_35 : i64 -> tensor<64xi64> loc(#loc139)
    %b_h1_37 = tt.make_range {end = 64 : i32, start = 0 : i32} : tensor<64xi32> loc(#loc139)
    %b_h1_38 = arith.extsi %b_h1_37 : tensor<64xi32> to tensor<64xi64> loc(#loc139)
    %b_h1_39 = arith.addi %b_h1_36, %b_h1_38 : tensor<64xi64> loc(#loc139)
    %b_h1_40 = tt.expand_dims %b_h1_39 {axis = 1 : i32} : tensor<64xi64> -> tensor<64x1xi64> loc(#loc139)
    %b_h1_41 = arith.muli %b_h1_40, %cst_7 : tensor<64x1xi64> loc(#loc139)
    %b_h1_42 = tt.broadcast %b_h1_41 : tensor<64x1xi64> -> tensor<64x64xi64> loc(#loc139)
    %b_h1_43 = tt.expand_dims %b_h1_38 {axis = 0 : i32} : tensor<64xi64> -> tensor<1x64xi64> loc(#loc139)
    %b_h1_44 = tt.broadcast %b_h1_43 : tensor<1x64xi64> -> tensor<64x64xi64> loc(#loc139)
    %b_h1_45 = arith.addi %b_h1_42, %b_h1_44 : tensor<64x64xi64> loc(#loc139)
    %b_h1_46 = tt.addptr %b_h1, %b_h1_45 : tensor<64x64x!tt.ptr<f32>>, tensor<64x64xi64> loc(#loc139)
    %b_h1_47 = arith.cmpi sge, %b_h1_40, %cst_6 : tensor<64x1xi64> loc(#loc139)
    %b_h1_48 = arith.cmpi slt, %b_h1_40, %cst_7 : tensor<64x1xi64> loc(#loc139)
    %b_h1_49 = arith.andi %b_h1_47, %b_h1_48 : tensor<64x1xi1> loc(#loc139)
    %b_h1_50 = tt.broadcast %b_h1_49 : tensor<64x1xi1> -> tensor<64x64xi1> loc(#loc139)
    %b_h1_51 = arith.cmpi sge, %b_h1_43, %cst_5 : tensor<1x64xi64> loc(#loc139)
    %b_h1_52 = arith.cmpi slt, %b_h1_43, %cst_4 : tensor<1x64xi64> loc(#loc139)
    %b_h1_53 = arith.andi %b_h1_51, %b_h1_52 : tensor<1x64xi1> loc(#loc139)
    %b_h1_54 = tt.broadcast %b_h1_53 : tensor<1x64xi1> -> tensor<64x64xi1> loc(#loc139)
    %b_h1_55 = arith.andi %b_h1_50, %b_h1_54 : tensor<64x64xi1> loc(#loc139)
    %b_h1_56 = tt.load %b_h1_46, %b_h1_55 : tensor<64x64x!tt.ptr<f32>> loc(#loc139)
    %b_h1_57 = arith.addf %b_h1_56, %cst_9 : tensor<64x64xf32> loc(#loc140)
    %b_h2 = arith.addi %b_h1_38, %cst_3 : tensor<64xi64> loc(#loc141)
    %b_h2_58 = tt.expand_dims %b_h2 {axis = 0 : i32} : tensor<64xi64> -> tensor<1x64xi64> loc(#loc141)
    %b_h2_59 = tt.broadcast %b_h2_58 : tensor<1x64xi64> -> tensor<64x64xi64> loc(#loc141)
    %b_h2_60 = arith.addi %b_h1_42, %b_h2_59 : tensor<64x64xi64> loc(#loc141)
    %b_h2_61 = tt.addptr %b_h1, %b_h2_60 : tensor<64x64x!tt.ptr<f32>>, tensor<64x64xi64> loc(#loc141)
    %b_h2_62 = arith.cmpi sge, %b_h2_58, %cst_5 : tensor<1x64xi64> loc(#loc141)
    %b_h2_63 = arith.cmpi slt, %b_h2_58, %cst_4 : tensor<1x64xi64> loc(#loc141)
    %b_h2_64 = arith.andi %b_h2_62, %b_h2_63 : tensor<1x64xi1> loc(#loc141)
    %b_h2_65 = tt.broadcast %b_h2_64 : tensor<1x64xi1> -> tensor<64x64xi1> loc(#loc141)
    %b_h2_66 = arith.andi %b_h1_50, %b_h2_65 : tensor<64x64xi1> loc(#loc141)
    %b_h2_67 = tt.load %b_h2_61, %b_h2_66 : tensor<64x64x!tt.ptr<f32>> loc(#loc141)
    %b_h2_68 = arith.addf %b_h2_67, %cst_9 : tensor<64x64xf32> loc(#loc142)
    %b_h2_69:2 = scf.for %i_t = %c0_i32 to %NT_12 step %c1_i32 iter_args(%b_h1_70 = %b_h1_57, %b_h2_71 = %b_h2_68) -> (tensor<64x64xf32>, tensor<64x64xf32>)  : i32 {
      %p_h1 = arith.extsi %i_t : i32 to i64 loc(#loc144)
      %p_h1_72 = arith.muli %p_h1, %c262144_i64 : i64 loc(#loc145)
      %p_h1_73 = arith.addi %h_18, %p_h1_72 : i64 loc(#loc195)
      %p_h1_74 = tt.addptr %h, %p_h1_73 : !tt.ptr<f16>, i64 loc(#loc195)
      %11 = arith.truncf %b_h1_70 : tensor<64x64xf32> to tensor<64x64xf16> loc(#loc48)
      %12 = tt.splat %p_h1_74 : !tt.ptr<f16> -> tensor<64x64x!tt.ptr<f16>> loc(#loc49)
      %13 = tt.addptr %12, %b_h1_45 : tensor<64x64x!tt.ptr<f16>>, tensor<64x64xi64> loc(#loc49)
      tt.store %13, %11, %b_h1_55 : tensor<64x64x!tt.ptr<f16>> loc(#loc49)
      %14 = arith.truncf %b_h2_71 : tensor<64x64xf32> to tensor<64x64xf16> loc(#loc50)
      %15 = tt.addptr %12, %b_h2_60 : tensor<64x64x!tt.ptr<f16>>, tensor<64x64xi64> loc(#loc51)
      tt.store %15, %14, %b_h2_66 : tensor<64x64x!tt.ptr<f16>> loc(#loc51)
      %p_w = arith.muli %i_t, %c64_i32 : i32 loc(#loc148)
      %p_w_75 = arith.extsi %T_10 : i32 to i64 loc(#loc149)
      %p_w_76 = arith.extsi %p_w : i32 to i64 loc(#loc149)
      %b_w = tt.splat %w_30 : !tt.ptr<f16> -> tensor<64x64x!tt.ptr<f16>> loc(#loc150)
      %b_w_77 = tt.splat %p_w_76 : i64 -> tensor<64xi64> loc(#loc150)
      %b_w_78 = arith.addi %b_w_77, %b_h1_38 : tensor<64xi64> loc(#loc150)
      %b_w_79 = tt.expand_dims %b_w_78 {axis = 1 : i32} : tensor<64xi64> -> tensor<64x1xi64> loc(#loc150)
      %b_w_80 = arith.muli %b_w_79, %cst_2 : tensor<64x1xi64> loc(#loc150)
      %b_w_81 = tt.broadcast %b_w_80 : tensor<64x1xi64> -> tensor<64x64xi64> loc(#loc150)
      %b_w_82 = arith.addi %b_w_81, %b_h1_44 : tensor<64x64xi64> loc(#loc150)
      %b_w_83 = tt.addptr %b_w, %b_w_82 : tensor<64x64x!tt.ptr<f16>>, tensor<64x64xi64> loc(#loc150)
      %b_w_84 = arith.cmpi sge, %b_w_79, %cst_6 : tensor<64x1xi64> loc(#loc150)
      %b_w_85 = tt.splat %p_w_75 : i64 -> tensor<64x1xi64> loc(#loc150)
      %b_w_86 = arith.cmpi slt, %b_w_79, %b_w_85 : tensor<64x1xi64> loc(#loc150)
      %b_w_87 = arith.andi %b_w_84, %b_w_86 : tensor<64x1xi1> loc(#loc150)
      %b_w_88 = tt.broadcast %b_w_87 : tensor<64x1xi1> -> tensor<64x64xi1> loc(#loc150)
      %b_w_89 = arith.andi %b_w_88, %b_h1_54 : tensor<64x64xi1> loc(#loc150)
      %b_w_90 = tt.load %b_w_83, %b_w_89 : tensor<64x64x!tt.ptr<f16>> loc(#loc150)
      %b_v = tt.trans %b_h1_70 {order = array<i32: 1, 0>} : tensor<64x64xf32> -> tensor<64x64xf32> loc(#loc151)
      %b_v_91 = arith.truncf %b_v : tensor<64x64xf32> to tensor<64x64xf16> loc(#loc152)
      %b_v_92 = tt.dot %b_w_90, %b_v_91, %cst_9, inputPrecision = tf32 : tensor<64x64xf16> * tensor<64x64xf16> -> tensor<64x64xf32> loc(#loc153)
      %b_w_93 = arith.addi %b_w_81, %b_h2_59 : tensor<64x64xi64> loc(#loc154)
      %b_w_94 = tt.addptr %b_w, %b_w_93 : tensor<64x64x!tt.ptr<f16>>, tensor<64x64xi64> loc(#loc154)
      %b_w_95 = arith.andi %b_w_88, %b_h2_65 : tensor<64x64xi1> loc(#loc154)
      %b_w_96 = tt.load %b_w_94, %b_w_95 : tensor<64x64x!tt.ptr<f16>> loc(#loc154)
      %b_v_97 = tt.trans %b_h2_71 {order = array<i32: 1, 0>} : tensor<64x64xf32> -> tensor<64x64xf32> loc(#loc155)
      %b_v_98 = arith.truncf %b_v_97 : tensor<64x64xf32> to tensor<64x64xf16> loc(#loc156)
      %b_v_99 = tt.dot %b_w_96, %b_v_98, %b_v_92, inputPrecision = tf32 : tensor<64x64xf16> * tensor<64x64xf16> -> tensor<64x64xf32> loc(#loc157)
      %b_v_100 = tt.splat %v_23 : !tt.ptr<f16> -> tensor<64x64x!tt.ptr<f16>> loc(#loc158)
      %b_v_101 = tt.expand_dims %b_h1_39 {axis = 0 : i32} : tensor<64xi64> -> tensor<1x64xi64> loc(#loc158)
      %b_v_102 = tt.broadcast %b_v_101 : tensor<1x64xi64> -> tensor<64x64xi64> loc(#loc158)
      %b_v_103 = arith.addi %b_w_81, %b_v_102 : tensor<64x64xi64> loc(#loc158)
      %b_v_104 = tt.addptr %b_v_100, %b_v_103 : tensor<64x64x!tt.ptr<f16>>, tensor<64x64xi64> loc(#loc158)
      %b_v_105 = arith.cmpi sge, %b_v_101, %cst_5 : tensor<1x64xi64> loc(#loc158)
      %b_v_106 = arith.cmpi slt, %b_v_101, %cst_4 : tensor<1x64xi64> loc(#loc158)
      %b_v_107 = arith.andi %b_v_105, %b_v_106 : tensor<1x64xi1> loc(#loc158)
      %b_v_108 = tt.broadcast %b_v_107 : tensor<1x64xi1> -> tensor<64x64xi1> loc(#loc158)
      %b_v_109 = arith.andi %b_w_88, %b_v_108 : tensor<64x64xi1> loc(#loc158)
      %b_v_110 = tt.load %b_v_104, %b_v_109 : tensor<64x64x!tt.ptr<f16>> loc(#loc158)
      %b_v_111 = arith.extf %b_v_110 : tensor<64x64xf16> to tensor<64x64xf32> loc(#loc159)
      %b_v_112 = arith.subf %b_v_111, %b_v_99 : tensor<64x64xf32> loc(#loc159)
      %16 = arith.truncf %b_v_112 : tensor<64x64xf32> to tensor<64x64xf16> loc(#loc64)
      %17 = tt.splat %v_new_31 : !tt.ptr<f16> -> tensor<64x64x!tt.ptr<f16>> loc(#loc65)
      %18 = tt.addptr %17, %b_v_103 : tensor<64x64x!tt.ptr<f16>>, tensor<64x64xi64> loc(#loc65)
      tt.store %18, %16, %b_v_109 : tensor<64x64x!tt.ptr<f16>> loc(#loc65)
      %last_idx = arith.addi %p_h1, %c1_i64 : i64 loc(#loc160)
      %last_idx_113 = arith.muli %last_idx, %c64_i64 : i64 loc(#loc161)
      %last_idx_114 = arith.minsi %last_idx_113, %p_w_75 : i64 loc(#loc162)
      %last_idx_115 = arith.subi %last_idx_114, %c1_i64 : i64 loc(#loc163)
      %m_t = arith.muli %p_h1, %c64_i64 : i64 loc(#loc164)
      %m_t_116 = tt.splat %m_t : i64 -> tensor<64xi64> loc(#loc165)
      %m_t_117 = arith.addi %m_t_116, %b_h1_38 : tensor<64xi64> loc(#loc165)
      %m_t_118 = tt.splat %p_w_75 : i64 -> tensor<64xi64> loc(#loc166)
      %m_t_119 = arith.cmpi slt, %m_t_117, %m_t_118 : tensor<64xi64> loc(#loc166)
      %b_g_last = tt.addptr %g, %v_19 : !tt.ptr<f32>, i32 loc(#loc167)
      %b_g_last_120 = arith.muli %last_idx_115, %c16_i64 : i64 loc(#loc168)
      %b_g_last_121 = tt.addptr %b_g_last, %b_g_last_120 : !tt.ptr<f32>, i64 loc(#loc169)
      %b_g_last_122 = tt.addptr %b_g_last_121, %3 : !tt.ptr<f32>, i32 loc(#loc170)
      %b_g_last_123 = tt.load %b_g_last_122 : !tt.ptr<f32> loc(#loc171)
      %p_g = tt.addptr %b_g_last, %3 : !tt.ptr<f32>, i32 loc(#loc172)
      %b_g = tt.splat %p_g : !tt.ptr<f32> -> tensor<64x!tt.ptr<f32>> loc(#loc173)
      %b_g_124 = arith.muli %b_w_78, %cst_1 : tensor<64xi64> loc(#loc173)
      %b_g_125 = tt.addptr %b_g, %b_g_124 : tensor<64x!tt.ptr<f32>>, tensor<64xi64> loc(#loc173)
      %b_g_126 = arith.cmpi sge, %b_w_78, %cst_0 : tensor<64xi64> loc(#loc173)
      %b_g_127 = arith.cmpi slt, %b_w_78, %m_t_118 : tensor<64xi64> loc(#loc173)
      %b_g_128 = arith.andi %b_g_126, %b_g_127 : tensor<64xi1> loc(#loc173)
      %b_g_129 = tt.load %b_g_125, %b_g_128 : tensor<64x!tt.ptr<f32>> loc(#loc173)
      %b_v_130 = tt.splat %b_g_last_123 : f32 -> tensor<64xf32> loc(#loc174)
      %b_v_131 = arith.subf %b_v_130, %b_g_129 : tensor<64xf32> loc(#loc174)
      %b_v_132 = math.exp %b_v_131 : tensor<64xf32> loc(#loc175)
      %b_v_133 = arith.select %m_t_119, %b_v_132, %cst_8 : tensor<64xi1>, tensor<64xf32> loc(#loc176)
      %b_v_134 = tt.expand_dims %b_v_133 {axis = 1 : i32} : tensor<64xf32> -> tensor<64x1xf32> loc(#loc177)
      %b_v_135 = tt.broadcast %b_v_134 : tensor<64x1xf32> -> tensor<64x64xf32> loc(#loc178)
      %b_v_136 = arith.mulf %b_v_112, %b_v_135 : tensor<64x64xf32> loc(#loc178)
      %b_g_last_137 = math.exp %b_g_last_123 : f32 loc(#loc179)
      %b_h1_138 = tt.splat %b_g_last_137 : f32 -> tensor<64x64xf32> loc(#loc180)
      %b_h1_139 = arith.mulf %b_h1_70, %b_h1_138 : tensor<64x64xf32> loc(#loc180)
      %b_h2_140 = arith.mulf %b_h2_71, %b_h1_138 : tensor<64x64xf32> loc(#loc181)
      %b_v_141 = arith.truncf %b_v_136 : tensor<64x64xf32> to tensor<64x64xf16> loc(#loc182)
      %b_k = tt.splat %k_29 : !tt.ptr<f16> -> tensor<64x64x!tt.ptr<f16>> loc(#loc183)
      %b_k_142 = tt.expand_dims %b_h1_38 {axis = 1 : i32} : tensor<64xi64> -> tensor<64x1xi64> loc(#loc183)
      %b_k_143 = tt.broadcast %b_k_142 : tensor<64x1xi64> -> tensor<64x64xi64> loc(#loc183)
      %b_k_144 = tt.expand_dims %b_w_78 {axis = 0 : i32} : tensor<64xi64> -> tensor<1x64xi64> loc(#loc183)
      %b_k_145 = arith.muli %b_k_144, %cst : tensor<1x64xi64> loc(#loc183)
      %b_k_146 = tt.broadcast %b_k_145 : tensor<1x64xi64> -> tensor<64x64xi64> loc(#loc183)
      %b_k_147 = arith.addi %b_k_143, %b_k_146 : tensor<64x64xi64> loc(#loc183)
      %b_k_148 = tt.addptr %b_k, %b_k_147 : tensor<64x64x!tt.ptr<f16>>, tensor<64x64xi64> loc(#loc183)
      %b_k_149 = arith.cmpi sge, %b_k_142, %cst_6 : tensor<64x1xi64> loc(#loc183)
      %b_k_150 = arith.cmpi slt, %b_k_142, %cst_7 : tensor<64x1xi64> loc(#loc183)
      %b_k_151 = arith.andi %b_k_149, %b_k_150 : tensor<64x1xi1> loc(#loc183)
      %b_k_152 = tt.broadcast %b_k_151 : tensor<64x1xi1> -> tensor<64x64xi1> loc(#loc183)
      %b_k_153 = arith.cmpi sge, %b_k_144, %cst_5 : tensor<1x64xi64> loc(#loc183)
      %b_k_154 = tt.splat %p_w_75 : i64 -> tensor<1x64xi64> loc(#loc183)
      %b_k_155 = arith.cmpi slt, %b_k_144, %b_k_154 : tensor<1x64xi64> loc(#loc183)
      %b_k_156 = arith.andi %b_k_153, %b_k_155 : tensor<1x64xi1> loc(#loc183)
      %b_k_157 = tt.broadcast %b_k_156 : tensor<1x64xi1> -> tensor<64x64xi1> loc(#loc183)
      %b_k_158 = arith.andi %b_k_152, %b_k_157 : tensor<64x64xi1> loc(#loc183)
      %b_k_159 = tt.load %b_k_148, %b_k_158 : tensor<64x64x!tt.ptr<f16>> loc(#loc183)
      %b_h1_160 = tt.dot %b_k_159, %b_v_141, %cst_9, inputPrecision = tf32 : tensor<64x64xf16> * tensor<64x64xf16> -> tensor<64x64xf32> loc(#loc184)
      %b_h1_161 = tt.trans %b_h1_160 {order = array<i32: 1, 0>} : tensor<64x64xf32> -> tensor<64x64xf32> loc(#loc185)
      %b_h1_162 = arith.addf %b_h1_139, %b_h1_161 : tensor<64x64xf32> loc(#loc186)
      %b_k_163 = tt.expand_dims %b_h2 {axis = 1 : i32} : tensor<64xi64> -> tensor<64x1xi64> loc(#loc187)
      %b_k_164 = tt.broadcast %b_k_163 : tensor<64x1xi64> -> tensor<64x64xi64> loc(#loc187)
      %b_k_165 = arith.addi %b_k_164, %b_k_146 : tensor<64x64xi64> loc(#loc187)
      %b_k_166 = tt.addptr %b_k, %b_k_165 : tensor<64x64x!tt.ptr<f16>>, tensor<64x64xi64> loc(#loc187)
      %b_k_167 = arith.cmpi sge, %b_k_163, %cst_6 : tensor<64x1xi64> loc(#loc187)
      %b_k_168 = arith.cmpi slt, %b_k_163, %cst_7 : tensor<64x1xi64> loc(#loc187)
      %b_k_169 = arith.andi %b_k_167, %b_k_168 : tensor<64x1xi1> loc(#loc187)
      %b_k_170 = tt.broadcast %b_k_169 : tensor<64x1xi1> -> tensor<64x64xi1> loc(#loc187)
      %b_k_171 = arith.andi %b_k_170, %b_k_157 : tensor<64x64xi1> loc(#loc187)
      %b_k_172 = tt.load %b_k_166, %b_k_171 : tensor<64x64x!tt.ptr<f16>> loc(#loc187)
      %b_h2_173 = tt.dot %b_k_172, %b_v_141, %cst_9, inputPrecision = tf32 : tensor<64x64xf16> * tensor<64x64xf16> -> tensor<64x64xf32> loc(#loc188)
      %b_h2_174 = tt.trans %b_h2_173 {order = array<i32: 1, 0>} : tensor<64x64xf32> -> tensor<64x64xf32> loc(#loc189)
      %b_h2_175 = arith.addf %b_h2_140, %b_h2_174 : tensor<64x64xf32> loc(#loc190)
      scf.yield %b_h1_162, %b_h2_175 : tensor<64x64xf32>, tensor<64x64xf32> loc(#loc97)
    } loc(#loc194)
    %8 = tt.splat %ht_34 : !tt.ptr<f32> -> tensor<64x64x!tt.ptr<f32>> loc(#loc98)
    %9 = tt.addptr %8, %b_h1_45 : tensor<64x64x!tt.ptr<f32>>, tensor<64x64xi64> loc(#loc98)
    tt.store %9, %b_h2_69#0, %b_h1_55 : tensor<64x64x!tt.ptr<f32>> loc(#loc98)
    %10 = tt.addptr %8, %b_h2_60 : tensor<64x64x!tt.ptr<f32>>, tensor<64x64xi64> loc(#loc99)
    tt.store %10, %b_h2_69#1, %b_h2_66 : tensor<64x64x!tt.ptr<f32>> loc(#loc99)
    tt.return loc(#loc100)
  } loc(#loc)
} loc(#loc)
#loc1 = loc(unknown)
#loc2 = loc("/usr/local/lib/python3.12/dist-packages/vllm/model_executor/layers/fla/ops/chunk_delta_h.py":78:24)
#loc3 = loc("/usr/local/lib/python3.12/dist-packages/vllm/model_executor/layers/fla/ops/chunk_delta_h.py":70:30)
#loc4 = loc("/usr/local/lib/python3.12/dist-packages/vllm/model_executor/layers/fla/ops/chunk_delta_h.py":70:48)
#loc5 = loc("/usr/local/lib/python3.12/dist-packages/vllm/model_executor/layers/fla/ops/chunk_delta_h.py":71:23)
#loc6 = loc("/usr/local/lib/python3.12/dist-packages/vllm/model_executor/layers/fla/ops/chunk_delta_h.py":71:33)
#loc7 = loc("/usr/local/lib/python3.12/dist-packages/vllm/model_executor/layers/fla/ops/chunk_delta_h.py":74:33)
#loc8 = loc("/usr/local/lib/python3.12/dist-packages/vllm/model_executor/layers/fla/ops/chunk_delta_h.py":74:20)
#loc9 = loc("/usr/local/lib/python3.12/dist-packages/vllm/model_executor/layers/fla/ops/chunk_delta_h.py":75:39)
#loc10 = loc("/usr/local/lib/python3.12/dist-packages/vllm/model_executor/layers/fla/ops/chunk_delta_h.py":75:20)
#loc11 = loc("/usr/local/lib/python3.12/dist-packages/vllm/model_executor/layers/fla/ops/chunk_delta_h.py":77:18)
#loc12 = loc("/usr/local/lib/python3.12/dist-packages/triton/language/standard.py":43:17)
#loc13 = loc("/usr/local/lib/python3.12/dist-packages/triton/language/standard.py":43:30)
#loc14 = loc("/usr/local/lib/python3.12/dist-packages/vllm/model_executor/layers/fla/ops/chunk_delta_h.py":79:38)
#loc15 = loc("/usr/local/lib/python3.12/dist-packages/vllm/model_executor/layers/fla/ops/chunk_delta_h.py":79:22)
#loc16 = loc("/usr/local/lib/python3.12/dist-packages/vllm/model_executor/layers/fla/ops/chunk_delta_h.py":79:46)
#loc17 = loc("/usr/local/lib/python3.12/dist-packages/vllm/model_executor/layers/fla/ops/chunk_delta_h.py":95:17)
#loc18 = loc("/usr/local/lib/python3.12/dist-packages/vllm/model_executor/layers/fla/ops/chunk_delta_h.py":95:21)
#loc19 = loc("/usr/local/lib/python3.12/dist-packages/vllm/model_executor/layers/fla/ops/chunk_delta_h.py":95:32)
#loc20 = loc("/usr/local/lib/python3.12/dist-packages/vllm/model_executor/layers/fla/ops/chunk_delta_h.py":95:38)
#loc21 = loc("/usr/local/lib/python3.12/dist-packages/vllm/model_executor/layers/fla/ops/chunk_delta_h.py":96:17)
#loc22 = loc("/usr/local/lib/python3.12/dist-packages/vllm/model_executor/layers/fla/ops/chunk_delta_h.py":96:21)
#loc23 = loc("/usr/local/lib/python3.12/dist-packages/vllm/model_executor/layers/fla/ops/chunk_delta_h.py":96:28)
#loc24 = loc("/usr/local/lib/python3.12/dist-packages/vllm/model_executor/layers/fla/ops/chunk_delta_h.py":96:34)
#loc25 = loc("/usr/local/lib/python3.12/dist-packages/vllm/model_executor/layers/fla/ops/chunk_delta_h.py":96:9)
#loc26 = loc("/usr/local/lib/python3.12/dist-packages/vllm/model_executor/layers/fla/ops/chunk_delta_h.py":97:17)
#loc27 = loc("/usr/local/lib/python3.12/dist-packages/vllm/model_executor/layers/fla/ops/chunk_delta_h.py":97:30)
#loc28 = loc("/usr/local/lib/python3.12/dist-packages/vllm/model_executor/layers/fla/ops/chunk_delta_h.py":97:22)
#loc29 = loc("/usr/local/lib/python3.12/dist-packages/vllm/model_executor/layers/fla/ops/chunk_delta_h.py":97:42)
#loc30 = loc("/usr/local/lib/python3.12/dist-packages/vllm/model_executor/layers/fla/ops/chunk_delta_h.py":97:48)
#loc31 = loc("/usr/local/lib/python3.12/dist-packages/vllm/model_executor/layers/fla/ops/chunk_delta_h.py":97:9)
#loc32 = loc("/usr/local/lib/python3.12/dist-packages/vllm/model_executor/layers/fla/ops/chunk_delta_h.py":98:9)
#loc33 = loc("/usr/local/lib/python3.12/dist-packages/vllm/model_executor/layers/fla/ops/chunk_delta_h.py":100:17)
#loc34 = loc("/usr/local/lib/python3.12/dist-packages/vllm/model_executor/layers/fla/ops/chunk_delta_h.py":106:29)
#loc35 = loc("/usr/local/lib/python3.12/dist-packages/vllm/model_executor/layers/fla/ops/chunk_delta_h.py":106:18)
#loc36 = loc("/usr/local/lib/python3.12/dist-packages/vllm/model_executor/layers/fla/ops/chunk_delta_h.py":108:18)
#loc37 = loc("/usr/local/lib/python3.12/dist-packages/vllm/model_executor/layers/fla/ops/chunk_delta_h.py":112:62)
#loc38 = loc("/usr/local/lib/python3.12/dist-packages/vllm/model_executor/layers/fla/ops/chunk_delta_h.py":112:80)
#loc39 = loc("/usr/local/lib/python3.12/dist-packages/vllm/model_executor/layers/fla/ops/chunk_delta_h.py":113:24)
#loc40 = loc("/usr/local/lib/python3.12/dist-packages/vllm/model_executor/layers/fla/ops/chunk_delta_h.py":113:16)
#loc41 = loc("/usr/local/lib/python3.12/dist-packages/vllm/model_executor/layers/fla/ops/chunk_delta_h.py":118:28)
#loc42 = loc("/usr/local/lib/python3.12/dist-packages/vllm/model_executor/layers/fla/ops/chunk_delta_h.py":118:20)
#loc43 = loc("/usr/local/lib/python3.12/dist-packages/vllm/model_executor/layers/fla/ops/chunk_delta_h.py":131:21)
#loc44 = loc("/usr/local/lib/python3.12/dist-packages/vllm/model_executor/layers/fla/ops/chunk_delta_h.py":133:23)
#loc45 = loc("/usr/local/lib/python3.12/dist-packages/vllm/model_executor/layers/fla/ops/chunk_delta_h.py":133:35)
#loc46 = loc("/usr/local/lib/python3.12/dist-packages/vllm/model_executor/layers/fla/ops/chunk_delta_h.py":133:16)
#loc47 = loc("/usr/local/lib/python3.12/dist-packages/vllm/model_executor/layers/fla/ops/chunk_delta_h.py":95:9)
#loc48 = loc("/usr/local/lib/python3.12/dist-packages/vllm/model_executor/layers/fla/ops/chunk_delta_h.py":140:31)
#loc49 = loc("/usr/local/lib/python3.12/dist-packages/vllm/model_executor/layers/fla/ops/chunk_delta_h.py":140:23)
#loc50 = loc("/usr/local/lib/python3.12/dist-packages/vllm/model_executor/layers/fla/ops/chunk_delta_h.py":150:35)
#loc51 = loc("/usr/local/lib/python3.12/dist-packages/vllm/model_executor/layers/fla/ops/chunk_delta_h.py":150:27)
#loc52 = loc("/usr/local/lib/python3.12/dist-packages/vllm/model_executor/layers/fla/ops/chunk_delta_h.py":173:45)
#loc53 = loc("/usr/local/lib/python3.12/dist-packages/vllm/model_executor/layers/fla/ops/chunk_delta_h.py":173:63)
#loc54 = loc("/usr/local/lib/python3.12/dist-packages/vllm/model_executor/layers/fla/ops/chunk_delta_h.py":175:22)
#loc55 = loc("/usr/local/lib/python3.12/dist-packages/vllm/model_executor/layers/fla/ops/chunk_delta_h.py":176:35)
#loc56 = loc("/usr/local/lib/python3.12/dist-packages/vllm/model_executor/layers/fla/ops/chunk_delta_h.py":176:44)
#loc57 = loc("/usr/local/lib/python3.12/dist-packages/vllm/model_executor/layers/fla/ops/chunk_delta_h.py":176:26)
#loc58 = loc("/usr/local/lib/python3.12/dist-packages/vllm/model_executor/layers/fla/ops/chunk_delta_h.py":181:26)
#loc59 = loc("/usr/local/lib/python3.12/dist-packages/vllm/model_executor/layers/fla/ops/chunk_delta_h.py":182:40)
#loc60 = loc("/usr/local/lib/python3.12/dist-packages/vllm/model_executor/layers/fla/ops/chunk_delta_h.py":182:49)
#loc61 = loc("/usr/local/lib/python3.12/dist-packages/vllm/model_executor/layers/fla/ops/chunk_delta_h.py":182:31)
#loc62 = loc("/usr/local/lib/python3.12/dist-packages/vllm/model_executor/layers/fla/ops/chunk_delta_h.py":198:22)
#loc63 = loc("/usr/local/lib/python3.12/dist-packages/vllm/model_executor/layers/fla/ops/chunk_delta_h.py":198:52)
#loc64 = loc("/usr/local/lib/python3.12/dist-packages/vllm/model_executor/layers/fla/ops/chunk_delta_h.py":204:33)
#loc65 = loc("/usr/local/lib/python3.12/dist-packages/vllm/model_executor/layers/fla/ops/chunk_delta_h.py":204:26)
#loc66 = loc("/usr/local/lib/python3.12/dist-packages/vllm/model_executor/layers/fla/ops/chunk_delta_h.py":206:43)
#loc67 = loc("/usr/local/lib/python3.12/dist-packages/vllm/model_executor/layers/fla/ops/chunk_delta_h.py":206:48)
#loc68 = loc("/usr/local/lib/python3.12/dist-packages/vllm/model_executor/layers/fla/ops/chunk_delta_h.py":206:52)
#loc69 = loc("/usr/local/lib/python3.12/dist-packages/vllm/model_executor/layers/fla/ops/chunk_delta_h.py":206:57)
#loc70 = loc("/usr/local/lib/python3.12/dist-packages/vllm/model_executor/layers/fla/ops/chunk_delta_h.py":208:38)
#loc71 = loc("/usr/local/lib/python3.12/dist-packages/vllm/model_executor/layers/fla/ops/chunk_delta_h.py":208:43)
#loc72 = loc("/usr/local/lib/python3.12/dist-packages/vllm/model_executor/layers/fla/ops/chunk_delta_h.py":208:63)
#loc73 = loc("/usr/local/lib/python3.12/dist-packages/vllm/model_executor/layers/fla/ops/chunk_delta_h.py":209:35)
#loc74 = loc("/usr/local/lib/python3.12/dist-packages/vllm/model_executor/layers/fla/ops/chunk_delta_h.py":209:56)
#loc75 = loc("/usr/local/lib/python3.12/dist-packages/vllm/model_executor/layers/fla/ops/chunk_delta_h.py":209:45)
#loc76 = loc("/usr/local/lib/python3.12/dist-packages/vllm/model_executor/layers/fla/ops/chunk_delta_h.py":209:60)
#loc77 = loc("/usr/local/lib/python3.12/dist-packages/vllm/model_executor/layers/fla/ops/chunk_delta_h.py":209:31)
#loc78 = loc("/usr/local/lib/python3.12/dist-packages/vllm/model_executor/layers/fla/ops/chunk_delta_h.py":211:30)
#loc79 = loc("/usr/local/lib/python3.12/dist-packages/vllm/model_executor/layers/fla/ops/chunk_delta_h.py":213:26)
#loc80 = loc("/usr/local/lib/python3.12/dist-packages/vllm/model_executor/layers/fla/ops/chunk_delta_h.py":218:57)
#loc81 = loc("/usr/local/lib/python3.12/dist-packages/vllm/model_executor/layers/fla/ops/chunk_delta_h.py":218:46)
#loc82 = loc("/usr/local/lib/python3.12/dist-packages/vllm/model_executor/layers/fla/ops/chunk_delta_h.py":218:63)
#loc83 = loc("/usr/local/lib/python3.12/dist-packages/vllm/model_executor/layers/fla/ops/chunk_delta_h.py":218:66)
#loc84 = loc("/usr/local/lib/python3.12/dist-packages/vllm/model_executor/layers/fla/ops/chunk_delta_h.py":218:28)
#loc85 = loc("/usr/local/lib/python3.12/dist-packages/vllm/model_executor/layers/fla/ops/chunk_delta_h.py":219:31)
#loc86 = loc("/usr/local/lib/python3.12/dist-packages/vllm/model_executor/layers/fla/ops/chunk_delta_h.py":220:20)
#loc87 = loc("/usr/local/lib/python3.12/dist-packages/vllm/model_executor/layers/fla/ops/chunk_delta_h.py":222:24)
#loc88 = loc("/usr/local/lib/python3.12/dist-packages/vllm/model_executor/layers/fla/ops/chunk_delta_h.py":272:21)
#loc89 = loc("/usr/local/lib/python3.12/dist-packages/vllm/model_executor/layers/fla/ops/chunk_delta_h.py":277:22)
#loc90 = loc("/usr/local/lib/python3.12/dist-packages/vllm/model_executor/layers/fla/ops/chunk_delta_h.py":278:37)
#loc91 = loc("/usr/local/lib/python3.12/dist-packages/vllm/model_executor/layers/fla/ops/chunk_delta_h.py":278:25)
#loc92 = loc("/usr/local/lib/python3.12/dist-packages/vllm/model_executor/layers/fla/ops/chunk_delta_h.py":278:16)
#loc93 = loc("/usr/local/lib/python3.12/dist-packages/vllm/model_executor/layers/fla/ops/chunk_delta_h.py":283:26)
#loc94 = loc("/usr/local/lib/python3.12/dist-packages/vllm/model_executor/layers/fla/ops/chunk_delta_h.py":284:41)
#loc95 = loc("/usr/local/lib/python3.12/dist-packages/vllm/model_executor/layers/fla/ops/chunk_delta_h.py":284:29)
#loc96 = loc("/usr/local/lib/python3.12/dist-packages/vllm/model_executor/layers/fla/ops/chunk_delta_h.py":284:20)
#loc97 = loc("/usr/local/lib/python3.12/dist-packages/vllm/model_executor/layers/fla/ops/chunk_delta_h.py":291:8)
#loc98 = loc("/usr/local/lib/python3.12/dist-packages/vllm/model_executor/layers/fla/ops/chunk_delta_h.py":300:23)
#loc99 = loc("/usr/local/lib/python3.12/dist-packages/vllm/model_executor/layers/fla/ops/chunk_delta_h.py":305:27)
#loc100 = loc("/usr/local/lib/python3.12/dist-packages/vllm/model_executor/layers/fla/ops/chunk_delta_h.py":298:4)
#loc112 = loc("NT"(#loc2))
#loc113 = loc("T"(#loc11))
#loc114 = loc("boh"(#loc14))
#loc115 = loc("boh"(#loc15))
#loc116 = loc("boh"(#loc16))
#loc117 = loc("h"(#loc17))
#loc118 = loc("h"(#loc18))
#loc119 = loc("h"(#loc19))
#loc120 = loc("h"(#loc20))
#loc121 = loc("v"(#loc21))
#loc122 = loc("v"(#loc22))
#loc123 = loc("v"(#loc23))
#loc124 = loc("v"(#loc24))
#loc125 = loc("v"(#loc25))
#loc126 = loc("k"(#loc26))
#loc127 = loc("k"(#loc27))
#loc128 = loc("k"(#loc28))
#loc129 = loc("k"(#loc29))
#loc130 = loc("k"(#loc30))
#loc131 = loc("k"(#loc31))
#loc132 = loc("w"(#loc32))
#loc133 = loc("v_new"(#loc33))
#loc134 = loc("h0"(#loc34))
#loc135 = loc("h0"(#loc35))
#loc136 = loc("ht"(#loc36))
#loc137 = loc("p_h0_1"(#loc37))
#loc138 = loc("p_h0_1"(#loc38))
#loc139 = loc("b_h1"(#loc39))
#loc140 = loc("b_h1"(#loc40))
#loc141 = loc("b_h2"(#loc41))
#loc142 = loc("b_h2"(#loc42))
#loc143 = loc("b_h1"(#loc43))
#loc144 = loc("p_h1"(#loc44))
#loc145 = loc("p_h1"(#loc45))
#loc146 = loc("p_h1"(#loc46))
#loc147 = loc("h"(#loc47))
#loc148 = loc("p_w"(#loc52))
#loc149 = loc("p_w"(#loc53))
#loc150 = loc("b_w"(#loc54))
#loc151 = loc("b_v"(#loc55))
#loc152 = loc("b_v"(#loc56))
#loc153 = loc("b_v"(#loc57))
#loc154 = loc("b_w"(#loc58))
#loc155 = loc("b_v"(#loc59))
#loc156 = loc("b_v"(#loc60))
#loc157 = loc("b_v"(#loc61))
#loc158 = loc("b_v"(#loc62))
#loc159 = loc("b_v"(#loc63))
#loc160 = loc("last_idx"(#loc66))
#loc161 = loc("last_idx"(#loc67))
#loc162 = loc("last_idx"(#loc68))
#loc163 = loc("last_idx"(#loc69))
#loc164 = loc("m_t"(#loc70))
#loc165 = loc("m_t"(#loc71))
#loc166 = loc("m_t"(#loc72))
#loc167 = loc("b_g_last"(#loc73))
#loc168 = loc("b_g_last"(#loc74))
#loc169 = loc("b_g_last"(#loc75))
#loc170 = loc("b_g_last"(#loc76))
#loc171 = loc("b_g_last"(#loc77))
#loc172 = loc("p_g"(#loc78))
#loc173 = loc("b_g"(#loc79))
#loc174 = loc("b_v"(#loc80))
#loc175 = loc("b_v"(#loc81))
#loc176 = loc("b_v"(#loc82))
#loc177 = loc("b_v"(#loc83))
#loc178 = loc("b_v"(#loc84))
#loc179 = loc("b_g_last"(#loc85))
#loc180 = loc("b_h1"(#loc86))
#loc181 = loc("b_h2"(#loc87))
#loc182 = loc("b_v"(#loc88))
#loc183 = loc("b_k"(#loc89))
#loc184 = loc("b_h1"(#loc90))
#loc185 = loc("b_h1"(#loc91))
#loc186 = loc("b_h1"(#loc92))
#loc187 = loc("b_k"(#loc93))
#loc188 = loc("b_h2"(#loc94))
#loc189 = loc("b_h2"(#loc95))
#loc190 = loc("b_h2"(#loc96))
#loc191 = loc(callsite(#loc1 at #loc112))
#loc192 = loc(callsite(#loc12 at #loc112))
#loc193 = loc(callsite(#loc13 at #loc112))
#loc194 = loc("b_h2"(#loc143))
#loc195 = loc(fused[#loc146, #loc147])
