#loc = loc("/root/.cache/vllm/torch_compile_cache/torch_aot_compile/61bda05feca29378847c32f031efa5c8dba258f38b0176a06a3e99e41df8ca50/inductor_cache/ay/caymzrb5gogcqsdngpinb46fx4ywkrzmevakxrhhnyso4brdi4go.py":18:0)
#loc87 = loc("/usr/local/lib/python3.12/dist-packages/triton/language/standard.py":287:0)
#loc89 = loc(unknown)
#loc92 = loc("/usr/local/lib/python3.12/dist-packages/triton/language/standard.py":262:0)
#loc96 = loc("in_out_ptr0"(#loc))
#loc97 = loc("in_ptr0"(#loc))
#loc98 = loc("in_ptr1"(#loc))
#loc99 = loc("in_ptr2"(#loc))
#loc100 = loc("out_ptr1"(#loc))
#loc101 = loc("xnumel"(#loc))
#loc102 = loc("r0_numel"(#loc))
#loc176 = loc("input"(#loc87))
#loc177 = loc("a"(#loc92))
#loc178 = loc("b"(#loc92))
module {
  tt.func public @triton_red_fused__to_copy_add_copy__fused_add_rms_norm_3(%in_out_ptr0: !tt.ptr<f16> {tt.divisibility = 16 : i32} loc("in_out_ptr0"(#loc)), %in_ptr0: !tt.ptr<f16> {tt.divisibility = 16 : i32} loc("in_ptr0"(#loc)), %in_ptr1: !tt.ptr<f16> {tt.divisibility = 16 : i32} loc("in_ptr1"(#loc)), %in_ptr2: !tt.ptr<f16> {tt.divisibility = 16 : i32} loc("in_ptr2"(#loc)), %out_ptr1: !tt.ptr<f16> {tt.divisibility = 16 : i32} loc("out_ptr1"(#loc)), %xnumel: i32 loc("xnumel"(#loc)), %r0_numel: i32 {tt.divisibility = 16 : i32} loc("r0_numel"(#loc))) attributes {noinline = false} {
    %r0_numel_0 = arith.constant 2048 : i32 loc(#loc103)
    %xoffset = tt.get_program_id x : i32 loc(#loc104)
    %xoffset_1 = arith.constant 2 : i32 loc(#loc105)
    %xoffset_2 = arith.constant 2 : i32 loc(#loc105)
    %xoffset_3 = arith.muli %xoffset, %xoffset_2 : i32 loc(#loc105)
    %xindex = tt.make_range {end = 2 : i32, start = 0 : i32} : tensor<2xi32> loc(#loc106)
    %xindex_4 = tt.expand_dims %xindex {axis = 1 : i32} : tensor<2xi32> -> tensor<2x1xi32> loc(#loc107)
    %xindex_5 = tt.splat %xoffset_3 : i32 -> tensor<2x1xi32> loc(#loc108)
    %xindex_6 = arith.addi %xindex_5, %xindex_4 : tensor<2x1xi32> loc(#loc108)
    %xmask = tt.splat %xnumel : i32 -> tensor<2x1xi32> loc(#loc109)
    %xmask_7 = arith.cmpi slt, %xindex_6, %xmask : tensor<2x1xi32> loc(#loc109)
    %r0_base = tt.make_range {end = 2048 : i32, start = 0 : i32} : tensor<2048xi32> loc(#loc110)
    %r0_base_8 = tt.expand_dims %r0_base {axis = 0 : i32} : tensor<2048xi32> -> tensor<1x2048xi32> loc(#loc111)
    %_tmp12 = arith.constant 0.000000e+00 : f32 loc(#loc112)
    %_tmp12_9 = arith.constant dense<0.000000e+00> : tensor<2x2048xf32> loc(#loc112)
    %c0_i32 = arith.constant 0 : i32 loc(#loc11)
    %c2048_i32 = arith.constant 2048 : i32 loc(#loc11)
    %0 = arith.bitcast %c0_i32 : i32 to i32 loc(#loc11)
    %1 = arith.bitcast %r0_numel_0 : i32 to i32 loc(#loc11)
    %2 = arith.bitcast %c2048_i32 : i32 to i32 loc(#loc11)
    %3 = ub.poison : i32 loc(#loc11)
    %_tmp12_10 = scf.for %r0_offset = %0 to %1 step %2 iter_args(%_tmp12_14 = %_tmp12_9) -> (tensor<2x2048xf32>)  : i32 {
      %r0_index = tt.splat %r0_offset : i32 -> tensor<1x2048xi32> loc(#loc114)
      %r0_index_15 = arith.addi %r0_index, %r0_base_8 : tensor<1x2048xi32> loc(#loc114)
      %r0_mask = arith.constant dense<2048> : tensor<1x2048xi32> loc(#loc115)
      %r0_mask_16 = arith.cmpi slt, %r0_index_15, %r0_mask : tensor<1x2048xi32> loc(#loc115)
      %tmp0 = arith.constant 2048 : i32 loc(#loc116)
      %tmp0_17 = arith.constant 2048 : i32 loc(#loc116)
      %tmp0_18 = arith.constant dense<2048> : tensor<2x1xi32> loc(#loc116)
      %tmp0_19 = arith.muli %tmp0_18, %xindex_6 : tensor<2x1xi32> loc(#loc116)
      %tmp0_20 = tt.broadcast %r0_index_15 : tensor<1x2048xi32> -> tensor<2x2048xi32> loc(#loc117)
      %tmp0_21 = tt.broadcast %tmp0_19 : tensor<2x1xi32> -> tensor<2x2048xi32> loc(#loc117)
      %tmp0_22 = arith.addi %tmp0_20, %tmp0_21 : tensor<2x2048xi32> loc(#loc117)
      %tmp0_23 = tt.splat %in_out_ptr0 : !tt.ptr<f16> -> tensor<2x2048x!tt.ptr<f16>> loc(#loc118)
      %tmp0_24 = tt.addptr %tmp0_23, %tmp0_22 : tensor<2x2048x!tt.ptr<f16>>, tensor<2x2048xi32> loc(#loc118)
      %tmp0_25 = tt.broadcast %r0_mask_16 : tensor<1x2048xi1> -> tensor<2x2048xi1> loc(#loc119)
      %tmp0_26 = tt.broadcast %xmask_7 : tensor<2x1xi1> -> tensor<2x2048xi1> loc(#loc119)
      %tmp0_27 = arith.andi %tmp0_25, %tmp0_26 : tensor<2x2048xi1> loc(#loc119)
      %tmp0_28 = arith.constant 0.000000e+00 : f32 loc(#loc120)
      %tmp0_29 = arith.constant dense<0.000000e+00> : tensor<2x2048xf32> loc(#loc120)
      %tmp0_30 = arith.truncf %tmp0_29 : tensor<2x2048xf32> to tensor<2x2048xf16> loc(#loc120)
      %tmp0_31 = tt.load %tmp0_24, %tmp0_27, %tmp0_30 evictionPolicy = evict_last : tensor<2x2048x!tt.ptr<f16>> loc(#loc120)
      %tmp0_32 = arith.extf %tmp0_31 : tensor<2x2048xf16> to tensor<2x2048xf32> loc(#loc121)
      %tmp2 = arith.constant 2048 : i32 loc(#loc122)
      %tmp2_33 = arith.constant 2048 : i32 loc(#loc122)
      %tmp2_34 = arith.constant dense<2048> : tensor<2x1xi32> loc(#loc122)
      %tmp2_35 = arith.muli %tmp2_34, %xindex_6 : tensor<2x1xi32> loc(#loc122)
      %tmp2_36 = tt.broadcast %r0_index_15 : tensor<1x2048xi32> -> tensor<2x2048xi32> loc(#loc123)
      %tmp2_37 = tt.broadcast %tmp2_35 : tensor<2x1xi32> -> tensor<2x2048xi32> loc(#loc123)
      %tmp2_38 = arith.addi %tmp2_36, %tmp2_37 : tensor<2x2048xi32> loc(#loc123)
      %tmp2_39 = tt.splat %in_ptr0 : !tt.ptr<f16> -> tensor<2x2048x!tt.ptr<f16>> loc(#loc124)
      %tmp2_40 = tt.addptr %tmp2_39, %tmp2_38 : tensor<2x2048x!tt.ptr<f16>>, tensor<2x2048xi32> loc(#loc124)
      %tmp2_41 = tt.broadcast %r0_mask_16 : tensor<1x2048xi1> -> tensor<2x2048xi1> loc(#loc125)
      %tmp2_42 = tt.broadcast %xmask_7 : tensor<2x1xi1> -> tensor<2x2048xi1> loc(#loc125)
      %tmp2_43 = arith.andi %tmp2_41, %tmp2_42 : tensor<2x2048xi1> loc(#loc125)
      %tmp2_44 = arith.constant 0.000000e+00 : f32 loc(#loc126)
      %tmp2_45 = arith.constant dense<0.000000e+00> : tensor<2x2048xf32> loc(#loc126)
      %tmp2_46 = arith.truncf %tmp2_45 : tensor<2x2048xf32> to tensor<2x2048xf16> loc(#loc126)
      %tmp2_47 = tt.load %tmp2_40, %tmp2_43, %tmp2_46 evictionPolicy = evict_last : tensor<2x2048x!tt.ptr<f16>> loc(#loc126)
      %tmp2_48 = arith.extf %tmp2_47 : tensor<2x2048xf16> to tensor<2x2048xf32> loc(#loc127)
      %tmp4 = arith.constant 2048 : i32 loc(#loc128)
      %tmp4_49 = arith.constant 2048 : i32 loc(#loc128)
      %tmp4_50 = arith.constant dense<2048> : tensor<2x1xi32> loc(#loc128)
      %tmp4_51 = arith.muli %tmp4_50, %xindex_6 : tensor<2x1xi32> loc(#loc128)
      %tmp4_52 = tt.broadcast %r0_index_15 : tensor<1x2048xi32> -> tensor<2x2048xi32> loc(#loc129)
      %tmp4_53 = tt.broadcast %tmp4_51 : tensor<2x1xi32> -> tensor<2x2048xi32> loc(#loc129)
      %tmp4_54 = arith.addi %tmp4_52, %tmp4_53 : tensor<2x2048xi32> loc(#loc129)
      %tmp4_55 = tt.splat %in_ptr1 : !tt.ptr<f16> -> tensor<2x2048x!tt.ptr<f16>> loc(#loc130)
      %tmp4_56 = tt.addptr %tmp4_55, %tmp4_54 : tensor<2x2048x!tt.ptr<f16>>, tensor<2x2048xi32> loc(#loc130)
      %tmp4_57 = tt.broadcast %r0_mask_16 : tensor<1x2048xi1> -> tensor<2x2048xi1> loc(#loc131)
      %tmp4_58 = tt.broadcast %xmask_7 : tensor<2x1xi1> -> tensor<2x2048xi1> loc(#loc131)
      %tmp4_59 = arith.andi %tmp4_57, %tmp4_58 : tensor<2x2048xi1> loc(#loc131)
      %tmp4_60 = arith.constant 0.000000e+00 : f32 loc(#loc132)
      %tmp4_61 = arith.constant dense<0.000000e+00> : tensor<2x2048xf32> loc(#loc132)
      %tmp4_62 = arith.truncf %tmp4_61 : tensor<2x2048xf32> to tensor<2x2048xf16> loc(#loc132)
      %tmp4_63 = tt.load %tmp4_56, %tmp4_59, %tmp4_62 evictionPolicy = evict_last : tensor<2x2048x!tt.ptr<f16>> loc(#loc132)
      %tmp4_64 = arith.extf %tmp4_63 : tensor<2x2048xf16> to tensor<2x2048xf32> loc(#loc133)
      %tmp6 = arith.addf %tmp2_48, %tmp4_64 : tensor<2x2048xf32> loc(#loc134)
      %tmp9 = arith.addf %tmp0_32, %tmp6 : tensor<2x2048xf32> loc(#loc135)
      %tmp10 = arith.mulf %tmp9, %tmp9 : tensor<2x2048xf32> loc(#loc136)
      %tmp13 = arith.addf %_tmp12_14, %tmp10 : tensor<2x2048xf32> loc(#loc137)
      %_tmp12_65 = tt.broadcast %r0_mask_16 : tensor<1x2048xi1> -> tensor<2x2048xi1> loc(#loc138)
      %_tmp12_66 = tt.broadcast %xmask_7 : tensor<2x1xi1> -> tensor<2x2048xi1> loc(#loc138)
      %_tmp12_67 = arith.andi %_tmp12_65, %_tmp12_66 : tensor<2x2048xi1> loc(#loc138)
      %_tmp12_68 = arith.select %_tmp12_67, %tmp13, %_tmp12_14 : tensor<2x2048xi1>, tensor<2x2048xf32> loc(#loc139)
      scf.yield %_tmp12_68 : tensor<2x2048xf32> loc(#loc38)
    } loc(#loc113)
    %tmp12 = tt.call @"triton.language.standard.sum__fp32S2_2048S__(1,)cconstexpr_1__(2,)cconstexpr_False__(3,)cNone"(%_tmp12_10) : (tensor<2x2048xf32>) -> tensor<2xf32> loc(#loc140)
    %tmp12_11 = tt.expand_dims %tmp12 {axis = 1 : i32} : tensor<2xf32> -> tensor<2x1xf32> loc(#loc141)
    %c0_i32_12 = arith.constant 0 : i32 loc(#loc41)
    %c2048_i32_13 = arith.constant 2048 : i32 loc(#loc41)
    %4 = arith.bitcast %c0_i32_12 : i32 to i32 loc(#loc41)
    %5 = arith.bitcast %r0_numel_0 : i32 to i32 loc(#loc41)
    %6 = arith.bitcast %c2048_i32_13 : i32 to i32 loc(#loc41)
    %7 = ub.poison : i32 loc(#loc41)
    scf.for %r0_offset = %4 to %5 step %6  : i32 {
      %r0_index = tt.splat %r0_offset : i32 -> tensor<1x2048xi32> loc(#loc142)
      %r0_index_14 = arith.addi %r0_index, %r0_base_8 : tensor<1x2048xi32> loc(#loc142)
      %r0_mask = arith.constant dense<2048> : tensor<1x2048xi32> loc(#loc143)
      %r0_mask_15 = arith.cmpi slt, %r0_index_14, %r0_mask : tensor<1x2048xi32> loc(#loc143)
      %tmp14 = arith.constant 2048 : i32 loc(#loc144)
      %tmp14_16 = arith.constant 2048 : i32 loc(#loc144)
      %tmp14_17 = arith.constant dense<2048> : tensor<2x1xi32> loc(#loc144)
      %tmp14_18 = arith.muli %tmp14_17, %xindex_6 : tensor<2x1xi32> loc(#loc144)
      %tmp14_19 = tt.broadcast %r0_index_14 : tensor<1x2048xi32> -> tensor<2x2048xi32> loc(#loc145)
      %tmp14_20 = tt.broadcast %tmp14_18 : tensor<2x1xi32> -> tensor<2x2048xi32> loc(#loc145)
      %tmp14_21 = arith.addi %tmp14_19, %tmp14_20 : tensor<2x2048xi32> loc(#loc145)
      %tmp14_22 = tt.splat %in_out_ptr0 : !tt.ptr<f16> -> tensor<2x2048x!tt.ptr<f16>> loc(#loc146)
      %tmp14_23 = tt.addptr %tmp14_22, %tmp14_21 : tensor<2x2048x!tt.ptr<f16>>, tensor<2x2048xi32> loc(#loc146)
      %tmp14_24 = tt.broadcast %r0_mask_15 : tensor<1x2048xi1> -> tensor<2x2048xi1> loc(#loc147)
      %tmp14_25 = tt.broadcast %xmask_7 : tensor<2x1xi1> -> tensor<2x2048xi1> loc(#loc147)
      %tmp14_26 = arith.andi %tmp14_24, %tmp14_25 : tensor<2x2048xi1> loc(#loc147)
      %tmp14_27 = arith.constant 0.000000e+00 : f32 loc(#loc148)
      %tmp14_28 = arith.constant dense<0.000000e+00> : tensor<2x2048xf32> loc(#loc148)
      %tmp14_29 = arith.truncf %tmp14_28 : tensor<2x2048xf32> to tensor<2x2048xf16> loc(#loc148)
      %tmp14_30 = tt.load %tmp14_23, %tmp14_26, %tmp14_29 evictionPolicy = evict_first : tensor<2x2048x!tt.ptr<f16>> loc(#loc148)
      %tmp14_31 = arith.extf %tmp14_30 : tensor<2x2048xf16> to tensor<2x2048xf32> loc(#loc149)
      %tmp16 = arith.constant 2048 : i32 loc(#loc150)
      %tmp16_32 = arith.constant 2048 : i32 loc(#loc150)
      %tmp16_33 = arith.constant dense<2048> : tensor<2x1xi32> loc(#loc150)
      %tmp16_34 = arith.muli %tmp16_33, %xindex_6 : tensor<2x1xi32> loc(#loc150)
      %tmp16_35 = tt.broadcast %r0_index_14 : tensor<1x2048xi32> -> tensor<2x2048xi32> loc(#loc151)
      %tmp16_36 = tt.broadcast %tmp16_34 : tensor<2x1xi32> -> tensor<2x2048xi32> loc(#loc151)
      %tmp16_37 = arith.addi %tmp16_35, %tmp16_36 : tensor<2x2048xi32> loc(#loc151)
      %tmp16_38 = tt.splat %in_ptr0 : !tt.ptr<f16> -> tensor<2x2048x!tt.ptr<f16>> loc(#loc152)
      %tmp16_39 = tt.addptr %tmp16_38, %tmp16_37 : tensor<2x2048x!tt.ptr<f16>>, tensor<2x2048xi32> loc(#loc152)
      %tmp16_40 = tt.broadcast %r0_mask_15 : tensor<1x2048xi1> -> tensor<2x2048xi1> loc(#loc153)
      %tmp16_41 = tt.broadcast %xmask_7 : tensor<2x1xi1> -> tensor<2x2048xi1> loc(#loc153)
      %tmp16_42 = arith.andi %tmp16_40, %tmp16_41 : tensor<2x2048xi1> loc(#loc153)
      %tmp16_43 = arith.constant 0.000000e+00 : f32 loc(#loc154)
      %tmp16_44 = arith.constant dense<0.000000e+00> : tensor<2x2048xf32> loc(#loc154)
      %tmp16_45 = arith.truncf %tmp16_44 : tensor<2x2048xf32> to tensor<2x2048xf16> loc(#loc154)
      %tmp16_46 = tt.load %tmp16_39, %tmp16_42, %tmp16_45 evictionPolicy = evict_first : tensor<2x2048x!tt.ptr<f16>> loc(#loc154)
      %tmp16_47 = arith.extf %tmp16_46 : tensor<2x2048xf16> to tensor<2x2048xf32> loc(#loc155)
      %tmp18 = arith.constant 2048 : i32 loc(#loc156)
      %tmp18_48 = arith.constant 2048 : i32 loc(#loc156)
      %tmp18_49 = arith.constant dense<2048> : tensor<2x1xi32> loc(#loc156)
      %tmp18_50 = arith.muli %tmp18_49, %xindex_6 : tensor<2x1xi32> loc(#loc156)
      %tmp18_51 = tt.broadcast %r0_index_14 : tensor<1x2048xi32> -> tensor<2x2048xi32> loc(#loc157)
      %tmp18_52 = tt.broadcast %tmp18_50 : tensor<2x1xi32> -> tensor<2x2048xi32> loc(#loc157)
      %tmp18_53 = arith.addi %tmp18_51, %tmp18_52 : tensor<2x2048xi32> loc(#loc157)
      %tmp18_54 = tt.splat %in_ptr1 : !tt.ptr<f16> -> tensor<2x2048x!tt.ptr<f16>> loc(#loc158)
      %tmp18_55 = tt.addptr %tmp18_54, %tmp18_53 : tensor<2x2048x!tt.ptr<f16>>, tensor<2x2048xi32> loc(#loc158)
      %tmp18_56 = tt.broadcast %r0_mask_15 : tensor<1x2048xi1> -> tensor<2x2048xi1> loc(#loc159)
      %tmp18_57 = tt.broadcast %xmask_7 : tensor<2x1xi1> -> tensor<2x2048xi1> loc(#loc159)
      %tmp18_58 = arith.andi %tmp18_56, %tmp18_57 : tensor<2x2048xi1> loc(#loc159)
      %tmp18_59 = arith.constant 0.000000e+00 : f32 loc(#loc160)
      %tmp18_60 = arith.constant dense<0.000000e+00> : tensor<2x2048xf32> loc(#loc160)
      %tmp18_61 = arith.truncf %tmp18_60 : tensor<2x2048xf32> to tensor<2x2048xf16> loc(#loc160)
      %tmp18_62 = tt.load %tmp18_55, %tmp18_58, %tmp18_61 evictionPolicy = evict_first : tensor<2x2048x!tt.ptr<f16>> loc(#loc160)
      %tmp18_63 = arith.extf %tmp18_62 : tensor<2x2048xf16> to tensor<2x2048xf32> loc(#loc161)
      %tmp30 = tt.splat %in_ptr2 : !tt.ptr<f16> -> tensor<1x2048x!tt.ptr<f16>> loc(#loc162)
      %tmp30_64 = tt.addptr %tmp30, %r0_index_14 : tensor<1x2048x!tt.ptr<f16>>, tensor<1x2048xi32> loc(#loc162)
      %tmp30_65 = arith.constant 0.000000e+00 : f32 loc(#loc163)
      %tmp30_66 = arith.constant dense<0.000000e+00> : tensor<1x2048xf32> loc(#loc163)
      %tmp30_67 = arith.truncf %tmp30_66 : tensor<1x2048xf32> to tensor<1x2048xf16> loc(#loc163)
      %tmp30_68 = tt.load %tmp30_64, %r0_mask_15, %tmp30_67 evictionPolicy = evict_last : tensor<1x2048x!tt.ptr<f16>> loc(#loc163)
      %tmp30_69 = arith.extf %tmp30_68 : tensor<1x2048xf16> to tensor<1x2048xf32> loc(#loc164)
      %tmp20 = arith.addf %tmp16_47, %tmp18_63 : tensor<2x2048xf32> loc(#loc165)
      %tmp23 = arith.addf %tmp14_31, %tmp20 : tensor<2x2048xf32> loc(#loc166)
      %tmp24 = arith.constant 2.048000e+03 : f32 loc(#loc167)
      %tmp24_70 = arith.constant dense<2.048000e+03> : tensor<1x1xf32> loc(#loc167)
      %tmp25 = arith.constant dense<2.048000e+03> : tensor<2x1xf32> loc(#loc168)
      %tmp25_71 = arith.divf %tmp12_11, %tmp25 : tensor<2x1xf32> loc(#loc168)
      %tmp26 = arith.constant 9.99999997E-7 : f32 loc(#loc169)
      %tmp26_72 = arith.constant dense<9.99999997E-7> : tensor<1x1xf32> loc(#loc169)
      %tmp27 = arith.constant dense<9.99999997E-7> : tensor<2x1xf32> loc(#loc170)
      %tmp27_73 = arith.addf %tmp25_71, %tmp27 : tensor<2x1xf32> loc(#loc170)
      %tmp28 = tt.extern_elementwise %tmp27_73 {libname = "", libpath = "", pure = true, symbol = "__nv_rsqrtf"} : (tensor<2x1xf32>) -> tensor<2x1xf32> loc(#loc171)
      %tmp29 = tt.broadcast %tmp28 : tensor<2x1xf32> -> tensor<2x2048xf32> loc(#loc172)
      %tmp29_74 = arith.mulf %tmp23, %tmp29 : tensor<2x2048xf32> loc(#loc172)
      %tmp32 = arith.constant 1.000000e+00 : f32 loc(#loc173)
      %tmp32_75 = arith.constant dense<1.000000e+00> : tensor<1x1xf32> loc(#loc173)
      %tmp33 = arith.constant dense<1.000000e+00> : tensor<1x2048xf32> loc(#loc174)
      %tmp33_76 = arith.addf %tmp30_69, %tmp33 : tensor<1x2048xf32> loc(#loc174)
      %tmp34 = tt.broadcast %tmp33_76 : tensor<1x2048xf32> -> tensor<2x2048xf32> loc(#loc175)
      %tmp34_77 = arith.mulf %tmp29_74, %tmp34 : tensor<2x2048xf32> loc(#loc175)
      %c2048_i32_78 = arith.constant 2048 : i32 loc(#loc76)
      %c2048_i32_79 = arith.constant 2048 : i32 loc(#loc76)
      %cst = arith.constant dense<2048> : tensor<2x1xi32> loc(#loc76)
      %8 = arith.muli %cst, %xindex_6 : tensor<2x1xi32> loc(#loc76)
      %9 = tt.broadcast %r0_index_14 : tensor<1x2048xi32> -> tensor<2x2048xi32> loc(#loc77)
      %10 = tt.broadcast %8 : tensor<2x1xi32> -> tensor<2x2048xi32> loc(#loc77)
      %11 = arith.addi %9, %10 : tensor<2x2048xi32> loc(#loc77)
      %12 = tt.splat %in_out_ptr0 : !tt.ptr<f16> -> tensor<2x2048x!tt.ptr<f16>> loc(#loc78)
      %13 = tt.addptr %12, %11 : tensor<2x2048x!tt.ptr<f16>>, tensor<2x2048xi32> loc(#loc78)
      %14 = tt.broadcast %r0_mask_15 : tensor<1x2048xi1> -> tensor<2x2048xi1> loc(#loc79)
      %15 = tt.broadcast %xmask_7 : tensor<2x1xi1> -> tensor<2x2048xi1> loc(#loc79)
      %16 = arith.andi %14, %15 : tensor<2x2048xi1> loc(#loc79)
      %17 = arith.truncf %tmp34_77 : tensor<2x2048xf32> to tensor<2x2048xf16> loc(#loc80)
      tt.store %13, %17, %16 : tensor<2x2048x!tt.ptr<f16>> loc(#loc80)
      %c2048_i32_80 = arith.constant 2048 : i32 loc(#loc81)
      %c2048_i32_81 = arith.constant 2048 : i32 loc(#loc81)
      %cst_82 = arith.constant dense<2048> : tensor<2x1xi32> loc(#loc81)
      %18 = arith.muli %cst_82, %xindex_6 : tensor<2x1xi32> loc(#loc81)
      %19 = tt.broadcast %r0_index_14 : tensor<1x2048xi32> -> tensor<2x2048xi32> loc(#loc82)
      %20 = tt.broadcast %18 : tensor<2x1xi32> -> tensor<2x2048xi32> loc(#loc82)
      %21 = arith.addi %19, %20 : tensor<2x2048xi32> loc(#loc82)
      %22 = tt.splat %out_ptr1 : !tt.ptr<f16> -> tensor<2x2048x!tt.ptr<f16>> loc(#loc83)
      %23 = tt.addptr %22, %21 : tensor<2x2048x!tt.ptr<f16>>, tensor<2x2048xi32> loc(#loc83)
      %24 = tt.broadcast %r0_mask_15 : tensor<1x2048xi1> -> tensor<2x2048xi1> loc(#loc84)
      %25 = tt.broadcast %xmask_7 : tensor<2x1xi1> -> tensor<2x2048xi1> loc(#loc84)
      %26 = arith.andi %24, %25 : tensor<2x2048xi1> loc(#loc84)
      %27 = arith.truncf %tmp16_47 : tensor<2x2048xf32> to tensor<2x2048xf16> loc(#loc85)
      tt.store %23, %27, %26 : tensor<2x2048x!tt.ptr<f16>> loc(#loc85)
    } loc(#loc41)
    tt.return loc(#loc86)
  } loc(#loc)
  tt.func private @"triton.language.standard.sum__fp32S2_2048S__(1,)cconstexpr_1__(2,)cconstexpr_False__(3,)cNone"(%input: tensor<2x2048xf32> loc("input"(#loc87))) -> tensor<2xf32> attributes {noinline = false} {
    %0 = "tt.reduce"(%input) <{axis = 1 : i32}> ({
    ^bb0(%arg1: f32 loc(unknown), %arg2: f32 loc(unknown)):
      %2 = tt.call @triton.language.standard._sum_combine__fp32_fp32__(%arg1, %arg2) : (f32, f32) -> f32 loc(#loc88)
      tt.reduce.return %2 : f32 loc(#loc88)
    }) : (tensor<2x2048xf32>) -> tensor<2xf32> loc(#loc88)
    tt.return %0 : tensor<2xf32> loc(#loc90)
  ^bb1:  // no predecessors
    %1 = ub.poison : tensor<2xf32> loc(#loc91)
    tt.return %1 : tensor<2xf32> loc(#loc91)
  } loc(#loc87)
  tt.func private @triton.language.standard._sum_combine__fp32_fp32__(%a: f32 loc("a"(#loc92)), %b: f32 loc("b"(#loc92))) -> f32 attributes {noinline = false} {
    %0 = arith.addf %a, %b : f32 loc(#loc93)
    tt.return %0 : f32 loc(#loc94)
  ^bb1:  // no predecessors
    %1 = ub.poison : f32 loc(#loc95)
    tt.return %1 : f32 loc(#loc95)
  } loc(#loc92)
} loc(#loc)
#loc1 = loc("/root/.cache/vllm/torch_compile_cache/torch_aot_compile/61bda05feca29378847c32f031efa5c8dba258f38b0176a06a3e99e41df8ca50/inductor_cache/ay/caymzrb5gogcqsdngpinb46fx4ywkrzmevakxrhhnyso4brdi4go.py":19:15)
#loc2 = loc("/root/.cache/vllm/torch_compile_cache/torch_aot_compile/61bda05feca29378847c32f031efa5c8dba258f38b0176a06a3e99e41df8ca50/inductor_cache/ay/caymzrb5gogcqsdngpinb46fx4ywkrzmevakxrhhnyso4brdi4go.py":22:28)
#loc3 = loc("/root/.cache/vllm/torch_compile_cache/torch_aot_compile/61bda05feca29378847c32f031efa5c8dba258f38b0176a06a3e99e41df8ca50/inductor_cache/ay/caymzrb5gogcqsdngpinb46fx4ywkrzmevakxrhhnyso4brdi4go.py":22:33)
#loc4 = loc("/root/.cache/vllm/torch_compile_cache/torch_aot_compile/61bda05feca29378847c32f031efa5c8dba258f38b0176a06a3e99e41df8ca50/inductor_cache/ay/caymzrb5gogcqsdngpinb46fx4ywkrzmevakxrhhnyso4brdi4go.py":23:36)
#loc5 = loc("/root/.cache/vllm/torch_compile_cache/torch_aot_compile/61bda05feca29378847c32f031efa5c8dba258f38b0176a06a3e99e41df8ca50/inductor_cache/ay/caymzrb5gogcqsdngpinb46fx4ywkrzmevakxrhhnyso4brdi4go.py":23:44)
#loc6 = loc("/root/.cache/vllm/torch_compile_cache/torch_aot_compile/61bda05feca29378847c32f031efa5c8dba258f38b0176a06a3e99e41df8ca50/inductor_cache/ay/caymzrb5gogcqsdngpinb46fx4ywkrzmevakxrhhnyso4brdi4go.py":23:23)
#loc7 = loc("/root/.cache/vllm/torch_compile_cache/torch_aot_compile/61bda05feca29378847c32f031efa5c8dba258f38b0176a06a3e99e41df8ca50/inductor_cache/ay/caymzrb5gogcqsdngpinb46fx4ywkrzmevakxrhhnyso4brdi4go.py":24:21)
#loc8 = loc("/root/.cache/vllm/torch_compile_cache/torch_aot_compile/61bda05feca29378847c32f031efa5c8dba258f38b0176a06a3e99e41df8ca50/inductor_cache/ay/caymzrb5gogcqsdngpinb46fx4ywkrzmevakxrhhnyso4brdi4go.py":25:27)
#loc9 = loc("/root/.cache/vllm/torch_compile_cache/torch_aot_compile/61bda05feca29378847c32f031efa5c8dba258f38b0176a06a3e99e41df8ca50/inductor_cache/ay/caymzrb5gogcqsdngpinb46fx4ywkrzmevakxrhhnyso4brdi4go.py":25:37)
#loc10 = loc("/root/.cache/vllm/torch_compile_cache/torch_aot_compile/61bda05feca29378847c32f031efa5c8dba258f38b0176a06a3e99e41df8ca50/inductor_cache/ay/caymzrb5gogcqsdngpinb46fx4ywkrzmevakxrhhnyso4brdi4go.py":28:44)
#loc11 = loc("/root/.cache/vllm/torch_compile_cache/torch_aot_compile/61bda05feca29378847c32f031efa5c8dba258f38b0176a06a3e99e41df8ca50/inductor_cache/ay/caymzrb5gogcqsdngpinb46fx4ywkrzmevakxrhhnyso4brdi4go.py":29:43)
#loc12 = loc("/root/.cache/vllm/torch_compile_cache/torch_aot_compile/61bda05feca29378847c32f031efa5c8dba258f38b0176a06a3e99e41df8ca50/inductor_cache/ay/caymzrb5gogcqsdngpinb46fx4ywkrzmevakxrhhnyso4brdi4go.py":30:31)
#loc13 = loc("/root/.cache/vllm/torch_compile_cache/torch_aot_compile/61bda05feca29378847c32f031efa5c8dba258f38b0176a06a3e99e41df8ca50/inductor_cache/ay/caymzrb5gogcqsdngpinb46fx4ywkrzmevakxrhhnyso4brdi4go.py":31:29)
#loc14 = loc("/root/.cache/vllm/torch_compile_cache/torch_aot_compile/61bda05feca29378847c32f031efa5c8dba258f38b0176a06a3e99e41df8ca50/inductor_cache/ay/caymzrb5gogcqsdngpinb46fx4ywkrzmevakxrhhnyso4brdi4go.py":35:50)
#loc15 = loc("/root/.cache/vllm/torch_compile_cache/torch_aot_compile/61bda05feca29378847c32f031efa5c8dba258f38b0176a06a3e99e41df8ca50/inductor_cache/ay/caymzrb5gogcqsdngpinb46fx4ywkrzmevakxrhhnyso4brdi4go.py":35:45)
#loc16 = loc("/root/.cache/vllm/torch_compile_cache/torch_aot_compile/61bda05feca29378847c32f031efa5c8dba258f38b0176a06a3e99e41df8ca50/inductor_cache/ay/caymzrb5gogcqsdngpinb46fx4ywkrzmevakxrhhnyso4brdi4go.py":35:38)
#loc17 = loc("/root/.cache/vllm/torch_compile_cache/torch_aot_compile/61bda05feca29378847c32f031efa5c8dba258f38b0176a06a3e99e41df8ca50/inductor_cache/ay/caymzrb5gogcqsdngpinb46fx4ywkrzmevakxrhhnyso4brdi4go.py":35:65)
#loc18 = loc("/root/.cache/vllm/torch_compile_cache/torch_aot_compile/61bda05feca29378847c32f031efa5c8dba258f38b0176a06a3e99e41df8ca50/inductor_cache/ay/caymzrb5gogcqsdngpinb46fx4ywkrzmevakxrhhnyso4brdi4go.py":35:55)
#loc19 = loc("/root/.cache/vllm/torch_compile_cache/torch_aot_compile/61bda05feca29378847c32f031efa5c8dba258f38b0176a06a3e99e41df8ca50/inductor_cache/ay/caymzrb5gogcqsdngpinb46fx4ywkrzmevakxrhhnyso4brdi4go.py":35:116)
#loc20 = loc("/root/.cache/vllm/torch_compile_cache/torch_aot_compile/61bda05feca29378847c32f031efa5c8dba258f38b0176a06a3e99e41df8ca50/inductor_cache/ay/caymzrb5gogcqsdngpinb46fx4ywkrzmevakxrhhnyso4brdi4go.py":36:46)
#loc21 = loc("/root/.cache/vllm/torch_compile_cache/torch_aot_compile/61bda05feca29378847c32f031efa5c8dba258f38b0176a06a3e99e41df8ca50/inductor_cache/ay/caymzrb5gogcqsdngpinb46fx4ywkrzmevakxrhhnyso4brdi4go.py":36:41)
#loc22 = loc("/root/.cache/vllm/torch_compile_cache/torch_aot_compile/61bda05feca29378847c32f031efa5c8dba258f38b0176a06a3e99e41df8ca50/inductor_cache/ay/caymzrb5gogcqsdngpinb46fx4ywkrzmevakxrhhnyso4brdi4go.py":36:34)
#loc23 = loc("/root/.cache/vllm/torch_compile_cache/torch_aot_compile/61bda05feca29378847c32f031efa5c8dba258f38b0176a06a3e99e41df8ca50/inductor_cache/ay/caymzrb5gogcqsdngpinb46fx4ywkrzmevakxrhhnyso4brdi4go.py":36:61)
#loc24 = loc("/root/.cache/vllm/torch_compile_cache/torch_aot_compile/61bda05feca29378847c32f031efa5c8dba258f38b0176a06a3e99e41df8ca50/inductor_cache/ay/caymzrb5gogcqsdngpinb46fx4ywkrzmevakxrhhnyso4brdi4go.py":36:51)
#loc25 = loc("/root/.cache/vllm/torch_compile_cache/torch_aot_compile/61bda05feca29378847c32f031efa5c8dba258f38b0176a06a3e99e41df8ca50/inductor_cache/ay/caymzrb5gogcqsdngpinb46fx4ywkrzmevakxrhhnyso4brdi4go.py":36:112)
#loc26 = loc("/root/.cache/vllm/torch_compile_cache/torch_aot_compile/61bda05feca29378847c32f031efa5c8dba258f38b0176a06a3e99e41df8ca50/inductor_cache/ay/caymzrb5gogcqsdngpinb46fx4ywkrzmevakxrhhnyso4brdi4go.py":37:46)
#loc27 = loc("/root/.cache/vllm/torch_compile_cache/torch_aot_compile/61bda05feca29378847c32f031efa5c8dba258f38b0176a06a3e99e41df8ca50/inductor_cache/ay/caymzrb5gogcqsdngpinb46fx4ywkrzmevakxrhhnyso4brdi4go.py":37:41)
#loc28 = loc("/root/.cache/vllm/torch_compile_cache/torch_aot_compile/61bda05feca29378847c32f031efa5c8dba258f38b0176a06a3e99e41df8ca50/inductor_cache/ay/caymzrb5gogcqsdngpinb46fx4ywkrzmevakxrhhnyso4brdi4go.py":37:34)
#loc29 = loc("/root/.cache/vllm/torch_compile_cache/torch_aot_compile/61bda05feca29378847c32f031efa5c8dba258f38b0176a06a3e99e41df8ca50/inductor_cache/ay/caymzrb5gogcqsdngpinb46fx4ywkrzmevakxrhhnyso4brdi4go.py":37:61)
#loc30 = loc("/root/.cache/vllm/torch_compile_cache/torch_aot_compile/61bda05feca29378847c32f031efa5c8dba258f38b0176a06a3e99e41df8ca50/inductor_cache/ay/caymzrb5gogcqsdngpinb46fx4ywkrzmevakxrhhnyso4brdi4go.py":37:51)
#loc31 = loc("/root/.cache/vllm/torch_compile_cache/torch_aot_compile/61bda05feca29378847c32f031efa5c8dba258f38b0176a06a3e99e41df8ca50/inductor_cache/ay/caymzrb5gogcqsdngpinb46fx4ywkrzmevakxrhhnyso4brdi4go.py":37:112)
#loc32 = loc("/root/.cache/vllm/torch_compile_cache/torch_aot_compile/61bda05feca29378847c32f031efa5c8dba258f38b0176a06a3e99e41df8ca50/inductor_cache/ay/caymzrb5gogcqsdngpinb46fx4ywkrzmevakxrhhnyso4brdi4go.py":41:22)
#loc33 = loc("/root/.cache/vllm/torch_compile_cache/torch_aot_compile/61bda05feca29378847c32f031efa5c8dba258f38b0176a06a3e99e41df8ca50/inductor_cache/ay/caymzrb5gogcqsdngpinb46fx4ywkrzmevakxrhhnyso4brdi4go.py":44:22)
#loc34 = loc("/root/.cache/vllm/torch_compile_cache/torch_aot_compile/61bda05feca29378847c32f031efa5c8dba258f38b0176a06a3e99e41df8ca50/inductor_cache/ay/caymzrb5gogcqsdngpinb46fx4ywkrzmevakxrhhnyso4brdi4go.py":45:23)
#loc35 = loc("/root/.cache/vllm/torch_compile_cache/torch_aot_compile/61bda05feca29378847c32f031efa5c8dba258f38b0176a06a3e99e41df8ca50/inductor_cache/ay/caymzrb5gogcqsdngpinb46fx4ywkrzmevakxrhhnyso4brdi4go.py":47:25)
#loc36 = loc("/root/.cache/vllm/torch_compile_cache/torch_aot_compile/61bda05feca29378847c32f031efa5c8dba258f38b0176a06a3e99e41df8ca50/inductor_cache/ay/caymzrb5gogcqsdngpinb46fx4ywkrzmevakxrhhnyso4brdi4go.py":48:36)
#loc37 = loc("/root/.cache/vllm/torch_compile_cache/torch_aot_compile/61bda05feca29378847c32f031efa5c8dba258f38b0176a06a3e99e41df8ca50/inductor_cache/ay/caymzrb5gogcqsdngpinb46fx4ywkrzmevakxrhhnyso4brdi4go.py":48:50)
#loc38 = loc("/root/.cache/vllm/torch_compile_cache/torch_aot_compile/61bda05feca29378847c32f031efa5c8dba258f38b0176a06a3e99e41df8ca50/inductor_cache/ay/caymzrb5gogcqsdngpinb46fx4ywkrzmevakxrhhnyso4brdi4go.py":48:8)
#loc39 = loc("/root/.cache/vllm/torch_compile_cache/torch_aot_compile/61bda05feca29378847c32f031efa5c8dba258f38b0176a06a3e99e41df8ca50/inductor_cache/ay/caymzrb5gogcqsdngpinb46fx4ywkrzmevakxrhhnyso4brdi4go.py":49:27)
#loc40 = loc("/root/.cache/vllm/torch_compile_cache/torch_aot_compile/61bda05feca29378847c32f031efa5c8dba258f38b0176a06a3e99e41df8ca50/inductor_cache/ay/caymzrb5gogcqsdngpinb46fx4ywkrzmevakxrhhnyso4brdi4go.py":49:30)
#loc41 = loc("/root/.cache/vllm/torch_compile_cache/torch_aot_compile/61bda05feca29378847c32f031efa5c8dba258f38b0176a06a3e99e41df8ca50/inductor_cache/ay/caymzrb5gogcqsdngpinb46fx4ywkrzmevakxrhhnyso4brdi4go.py":50:43)
#loc42 = loc("/root/.cache/vllm/torch_compile_cache/torch_aot_compile/61bda05feca29378847c32f031efa5c8dba258f38b0176a06a3e99e41df8ca50/inductor_cache/ay/caymzrb5gogcqsdngpinb46fx4ywkrzmevakxrhhnyso4brdi4go.py":51:31)
#loc43 = loc("/root/.cache/vllm/torch_compile_cache/torch_aot_compile/61bda05feca29378847c32f031efa5c8dba258f38b0176a06a3e99e41df8ca50/inductor_cache/ay/caymzrb5gogcqsdngpinb46fx4ywkrzmevakxrhhnyso4brdi4go.py":52:29)
#loc44 = loc("/root/.cache/vllm/torch_compile_cache/torch_aot_compile/61bda05feca29378847c32f031efa5c8dba258f38b0176a06a3e99e41df8ca50/inductor_cache/ay/caymzrb5gogcqsdngpinb46fx4ywkrzmevakxrhhnyso4brdi4go.py":56:51)
#loc45 = loc("/root/.cache/vllm/torch_compile_cache/torch_aot_compile/61bda05feca29378847c32f031efa5c8dba258f38b0176a06a3e99e41df8ca50/inductor_cache/ay/caymzrb5gogcqsdngpinb46fx4ywkrzmevakxrhhnyso4brdi4go.py":56:46)
#loc46 = loc("/root/.cache/vllm/torch_compile_cache/torch_aot_compile/61bda05feca29378847c32f031efa5c8dba258f38b0176a06a3e99e41df8ca50/inductor_cache/ay/caymzrb5gogcqsdngpinb46fx4ywkrzmevakxrhhnyso4brdi4go.py":56:39)
#loc47 = loc("/root/.cache/vllm/torch_compile_cache/torch_aot_compile/61bda05feca29378847c32f031efa5c8dba258f38b0176a06a3e99e41df8ca50/inductor_cache/ay/caymzrb5gogcqsdngpinb46fx4ywkrzmevakxrhhnyso4brdi4go.py":56:66)
#loc48 = loc("/root/.cache/vllm/torch_compile_cache/torch_aot_compile/61bda05feca29378847c32f031efa5c8dba258f38b0176a06a3e99e41df8ca50/inductor_cache/ay/caymzrb5gogcqsdngpinb46fx4ywkrzmevakxrhhnyso4brdi4go.py":56:56)
#loc49 = loc("/root/.cache/vllm/torch_compile_cache/torch_aot_compile/61bda05feca29378847c32f031efa5c8dba258f38b0176a06a3e99e41df8ca50/inductor_cache/ay/caymzrb5gogcqsdngpinb46fx4ywkrzmevakxrhhnyso4brdi4go.py":56:118)
#loc50 = loc("/root/.cache/vllm/torch_compile_cache/torch_aot_compile/61bda05feca29378847c32f031efa5c8dba258f38b0176a06a3e99e41df8ca50/inductor_cache/ay/caymzrb5gogcqsdngpinb46fx4ywkrzmevakxrhhnyso4brdi4go.py":57:47)
#loc51 = loc("/root/.cache/vllm/torch_compile_cache/torch_aot_compile/61bda05feca29378847c32f031efa5c8dba258f38b0176a06a3e99e41df8ca50/inductor_cache/ay/caymzrb5gogcqsdngpinb46fx4ywkrzmevakxrhhnyso4brdi4go.py":57:42)
#loc52 = loc("/root/.cache/vllm/torch_compile_cache/torch_aot_compile/61bda05feca29378847c32f031efa5c8dba258f38b0176a06a3e99e41df8ca50/inductor_cache/ay/caymzrb5gogcqsdngpinb46fx4ywkrzmevakxrhhnyso4brdi4go.py":57:35)
#loc53 = loc("/root/.cache/vllm/torch_compile_cache/torch_aot_compile/61bda05feca29378847c32f031efa5c8dba258f38b0176a06a3e99e41df8ca50/inductor_cache/ay/caymzrb5gogcqsdngpinb46fx4ywkrzmevakxrhhnyso4brdi4go.py":57:62)
#loc54 = loc("/root/.cache/vllm/torch_compile_cache/torch_aot_compile/61bda05feca29378847c32f031efa5c8dba258f38b0176a06a3e99e41df8ca50/inductor_cache/ay/caymzrb5gogcqsdngpinb46fx4ywkrzmevakxrhhnyso4brdi4go.py":57:52)
#loc55 = loc("/root/.cache/vllm/torch_compile_cache/torch_aot_compile/61bda05feca29378847c32f031efa5c8dba258f38b0176a06a3e99e41df8ca50/inductor_cache/ay/caymzrb5gogcqsdngpinb46fx4ywkrzmevakxrhhnyso4brdi4go.py":57:114)
#loc56 = loc("/root/.cache/vllm/torch_compile_cache/torch_aot_compile/61bda05feca29378847c32f031efa5c8dba258f38b0176a06a3e99e41df8ca50/inductor_cache/ay/caymzrb5gogcqsdngpinb46fx4ywkrzmevakxrhhnyso4brdi4go.py":58:47)
#loc57 = loc("/root/.cache/vllm/torch_compile_cache/torch_aot_compile/61bda05feca29378847c32f031efa5c8dba258f38b0176a06a3e99e41df8ca50/inductor_cache/ay/caymzrb5gogcqsdngpinb46fx4ywkrzmevakxrhhnyso4brdi4go.py":58:42)
#loc58 = loc("/root/.cache/vllm/torch_compile_cache/torch_aot_compile/61bda05feca29378847c32f031efa5c8dba258f38b0176a06a3e99e41df8ca50/inductor_cache/ay/caymzrb5gogcqsdngpinb46fx4ywkrzmevakxrhhnyso4brdi4go.py":58:35)
#loc59 = loc("/root/.cache/vllm/torch_compile_cache/torch_aot_compile/61bda05feca29378847c32f031efa5c8dba258f38b0176a06a3e99e41df8ca50/inductor_cache/ay/caymzrb5gogcqsdngpinb46fx4ywkrzmevakxrhhnyso4brdi4go.py":58:62)
#loc60 = loc("/root/.cache/vllm/torch_compile_cache/torch_aot_compile/61bda05feca29378847c32f031efa5c8dba258f38b0176a06a3e99e41df8ca50/inductor_cache/ay/caymzrb5gogcqsdngpinb46fx4ywkrzmevakxrhhnyso4brdi4go.py":58:52)
#loc61 = loc("/root/.cache/vllm/torch_compile_cache/torch_aot_compile/61bda05feca29378847c32f031efa5c8dba258f38b0176a06a3e99e41df8ca50/inductor_cache/ay/caymzrb5gogcqsdngpinb46fx4ywkrzmevakxrhhnyso4brdi4go.py":58:114)
#loc62 = loc("/root/.cache/vllm/torch_compile_cache/torch_aot_compile/61bda05feca29378847c32f031efa5c8dba258f38b0176a06a3e99e41df8ca50/inductor_cache/ay/caymzrb5gogcqsdngpinb46fx4ywkrzmevakxrhhnyso4brdi4go.py":59:35)
#loc63 = loc("/root/.cache/vllm/torch_compile_cache/torch_aot_compile/61bda05feca29378847c32f031efa5c8dba258f38b0176a06a3e99e41df8ca50/inductor_cache/ay/caymzrb5gogcqsdngpinb46fx4ywkrzmevakxrhhnyso4brdi4go.py":59:42)
#loc64 = loc("/root/.cache/vllm/torch_compile_cache/torch_aot_compile/61bda05feca29378847c32f031efa5c8dba258f38b0176a06a3e99e41df8ca50/inductor_cache/ay/caymzrb5gogcqsdngpinb46fx4ywkrzmevakxrhhnyso4brdi4go.py":59:95)
#loc65 = loc("/root/.cache/vllm/torch_compile_cache/torch_aot_compile/61bda05feca29378847c32f031efa5c8dba258f38b0176a06a3e99e41df8ca50/inductor_cache/ay/caymzrb5gogcqsdngpinb46fx4ywkrzmevakxrhhnyso4brdi4go.py":63:24)
#loc66 = loc("/root/.cache/vllm/torch_compile_cache/torch_aot_compile/61bda05feca29378847c32f031efa5c8dba258f38b0176a06a3e99e41df8ca50/inductor_cache/ay/caymzrb5gogcqsdngpinb46fx4ywkrzmevakxrhhnyso4brdi4go.py":66:24)
#loc67 = loc("/root/.cache/vllm/torch_compile_cache/torch_aot_compile/61bda05feca29378847c32f031efa5c8dba258f38b0176a06a3e99e41df8ca50/inductor_cache/ay/caymzrb5gogcqsdngpinb46fx4ywkrzmevakxrhhnyso4brdi4go.py":67:40)
#loc68 = loc("/root/.cache/vllm/torch_compile_cache/torch_aot_compile/61bda05feca29378847c32f031efa5c8dba258f38b0176a06a3e99e41df8ca50/inductor_cache/ay/caymzrb5gogcqsdngpinb46fx4ywkrzmevakxrhhnyso4brdi4go.py":68:25)
#loc69 = loc("/root/.cache/vllm/torch_compile_cache/torch_aot_compile/61bda05feca29378847c32f031efa5c8dba258f38b0176a06a3e99e41df8ca50/inductor_cache/ay/caymzrb5gogcqsdngpinb46fx4ywkrzmevakxrhhnyso4brdi4go.py":69:39)
#loc70 = loc("/root/.cache/vllm/torch_compile_cache/torch_aot_compile/61bda05feca29378847c32f031efa5c8dba258f38b0176a06a3e99e41df8ca50/inductor_cache/ay/caymzrb5gogcqsdngpinb46fx4ywkrzmevakxrhhnyso4brdi4go.py":70:24)
#loc71 = loc("/root/.cache/vllm/torch_compile_cache/torch_aot_compile/61bda05feca29378847c32f031efa5c8dba258f38b0176a06a3e99e41df8ca50/inductor_cache/ay/caymzrb5gogcqsdngpinb46fx4ywkrzmevakxrhhnyso4brdi4go.py":71:32)
#loc72 = loc("/root/.cache/vllm/torch_compile_cache/torch_aot_compile/61bda05feca29378847c32f031efa5c8dba258f38b0176a06a3e99e41df8ca50/inductor_cache/ay/caymzrb5gogcqsdngpinb46fx4ywkrzmevakxrhhnyso4brdi4go.py":72:24)
#loc73 = loc("/root/.cache/vllm/torch_compile_cache/torch_aot_compile/61bda05feca29378847c32f031efa5c8dba258f38b0176a06a3e99e41df8ca50/inductor_cache/ay/caymzrb5gogcqsdngpinb46fx4ywkrzmevakxrhhnyso4brdi4go.py":74:37)
#loc74 = loc("/root/.cache/vllm/torch_compile_cache/torch_aot_compile/61bda05feca29378847c32f031efa5c8dba258f38b0176a06a3e99e41df8ca50/inductor_cache/ay/caymzrb5gogcqsdngpinb46fx4ywkrzmevakxrhhnyso4brdi4go.py":75:24)
#loc75 = loc("/root/.cache/vllm/torch_compile_cache/torch_aot_compile/61bda05feca29378847c32f031efa5c8dba258f38b0176a06a3e99e41df8ca50/inductor_cache/ay/caymzrb5gogcqsdngpinb46fx4ywkrzmevakxrhhnyso4brdi4go.py":76:24)
#loc76 = loc("/root/.cache/vllm/torch_compile_cache/torch_aot_compile/61bda05feca29378847c32f031efa5c8dba258f38b0176a06a3e99e41df8ca50/inductor_cache/ay/caymzrb5gogcqsdngpinb46fx4ywkrzmevakxrhhnyso4brdi4go.py":78:44)
#loc77 = loc("/root/.cache/vllm/torch_compile_cache/torch_aot_compile/61bda05feca29378847c32f031efa5c8dba258f38b0176a06a3e99e41df8ca50/inductor_cache/ay/caymzrb5gogcqsdngpinb46fx4ywkrzmevakxrhhnyso4brdi4go.py":78:39)
#loc78 = loc("/root/.cache/vllm/torch_compile_cache/torch_aot_compile/61bda05feca29378847c32f031efa5c8dba258f38b0176a06a3e99e41df8ca50/inductor_cache/ay/caymzrb5gogcqsdngpinb46fx4ywkrzmevakxrhhnyso4brdi4go.py":78:32)
#loc79 = loc("/root/.cache/vllm/torch_compile_cache/torch_aot_compile/61bda05feca29378847c32f031efa5c8dba258f38b0176a06a3e99e41df8ca50/inductor_cache/ay/caymzrb5gogcqsdngpinb46fx4ywkrzmevakxrhhnyso4brdi4go.py":78:66)
#loc80 = loc("/root/.cache/vllm/torch_compile_cache/torch_aot_compile/61bda05feca29378847c32f031efa5c8dba258f38b0176a06a3e99e41df8ca50/inductor_cache/ay/caymzrb5gogcqsdngpinb46fx4ywkrzmevakxrhhnyso4brdi4go.py":78:56)
#loc81 = loc("/root/.cache/vllm/torch_compile_cache/torch_aot_compile/61bda05feca29378847c32f031efa5c8dba258f38b0176a06a3e99e41df8ca50/inductor_cache/ay/caymzrb5gogcqsdngpinb46fx4ywkrzmevakxrhhnyso4brdi4go.py":79:41)
#loc82 = loc("/root/.cache/vllm/torch_compile_cache/torch_aot_compile/61bda05feca29378847c32f031efa5c8dba258f38b0176a06a3e99e41df8ca50/inductor_cache/ay/caymzrb5gogcqsdngpinb46fx4ywkrzmevakxrhhnyso4brdi4go.py":79:36)
#loc83 = loc("/root/.cache/vllm/torch_compile_cache/torch_aot_compile/61bda05feca29378847c32f031efa5c8dba258f38b0176a06a3e99e41df8ca50/inductor_cache/ay/caymzrb5gogcqsdngpinb46fx4ywkrzmevakxrhhnyso4brdi4go.py":79:29)
#loc84 = loc("/root/.cache/vllm/torch_compile_cache/torch_aot_compile/61bda05feca29378847c32f031efa5c8dba258f38b0176a06a3e99e41df8ca50/inductor_cache/ay/caymzrb5gogcqsdngpinb46fx4ywkrzmevakxrhhnyso4brdi4go.py":79:63)
#loc85 = loc("/root/.cache/vllm/torch_compile_cache/torch_aot_compile/61bda05feca29378847c32f031efa5c8dba258f38b0176a06a3e99e41df8ca50/inductor_cache/ay/caymzrb5gogcqsdngpinb46fx4ywkrzmevakxrhhnyso4brdi4go.py":79:53)
#loc86 = loc("/root/.cache/vllm/torch_compile_cache/torch_aot_compile/61bda05feca29378847c32f031efa5c8dba258f38b0176a06a3e99e41df8ca50/inductor_cache/ay/caymzrb5gogcqsdngpinb46fx4ywkrzmevakxrhhnyso4brdi4go.py":50:4)
#loc88 = loc("/usr/local/lib/python3.12/dist-packages/triton/language/standard.py":293:36)
#loc90 = loc("/usr/local/lib/python3.12/dist-packages/triton/language/standard.py":293:11)
#loc91 = loc("/usr/local/lib/python3.12/dist-packages/triton/language/standard.py":293:4)
#loc93 = loc("/usr/local/lib/python3.12/dist-packages/triton/language/standard.py":263:15)
#loc94 = loc("/usr/local/lib/python3.12/dist-packages/triton/language/standard.py":263:11)
#loc95 = loc("/usr/local/lib/python3.12/dist-packages/triton/language/standard.py":263:4)
#loc103 = loc("r0_numel"(#loc1))
#loc104 = loc("xoffset"(#loc2))
#loc105 = loc("xoffset"(#loc3))
#loc106 = loc("xindex"(#loc4))
#loc107 = loc("xindex"(#loc5))
#loc108 = loc("xindex"(#loc6))
#loc109 = loc("xmask"(#loc7))
#loc110 = loc("r0_base"(#loc8))
#loc111 = loc("r0_base"(#loc9))
#loc112 = loc("_tmp12"(#loc10))
#loc113 = loc("_tmp12"(#loc11))
#loc114 = loc("r0_index"(#loc12))
#loc115 = loc("r0_mask"(#loc13))
#loc116 = loc("tmp0"(#loc14))
#loc117 = loc("tmp0"(#loc15))
#loc118 = loc("tmp0"(#loc16))
#loc119 = loc("tmp0"(#loc17))
#loc120 = loc("tmp0"(#loc18))
#loc121 = loc("tmp0"(#loc19))
#loc122 = loc("tmp2"(#loc20))
#loc123 = loc("tmp2"(#loc21))
#loc124 = loc("tmp2"(#loc22))
#loc125 = loc("tmp2"(#loc23))
#loc126 = loc("tmp2"(#loc24))
#loc127 = loc("tmp2"(#loc25))
#loc128 = loc("tmp4"(#loc26))
#loc129 = loc("tmp4"(#loc27))
#loc130 = loc("tmp4"(#loc28))
#loc131 = loc("tmp4"(#loc29))
#loc132 = loc("tmp4"(#loc30))
#loc133 = loc("tmp4"(#loc31))
#loc134 = loc("tmp6"(#loc32))
#loc135 = loc("tmp9"(#loc33))
#loc136 = loc("tmp10"(#loc34))
#loc137 = loc("tmp13"(#loc35))
#loc138 = loc("_tmp12"(#loc36))
#loc139 = loc("_tmp12"(#loc37))
#loc140 = loc("tmp12"(#loc39))
#loc141 = loc("tmp12"(#loc40))
#loc142 = loc("r0_index"(#loc42))
#loc143 = loc("r0_mask"(#loc43))
#loc144 = loc("tmp14"(#loc44))
#loc145 = loc("tmp14"(#loc45))
#loc146 = loc("tmp14"(#loc46))
#loc147 = loc("tmp14"(#loc47))
#loc148 = loc("tmp14"(#loc48))
#loc149 = loc("tmp14"(#loc49))
#loc150 = loc("tmp16"(#loc50))
#loc151 = loc("tmp16"(#loc51))
#loc152 = loc("tmp16"(#loc52))
#loc153 = loc("tmp16"(#loc53))
#loc154 = loc("tmp16"(#loc54))
#loc155 = loc("tmp16"(#loc55))
#loc156 = loc("tmp18"(#loc56))
#loc157 = loc("tmp18"(#loc57))
#loc158 = loc("tmp18"(#loc58))
#loc159 = loc("tmp18"(#loc59))
#loc160 = loc("tmp18"(#loc60))
#loc161 = loc("tmp18"(#loc61))
#loc162 = loc("tmp30"(#loc62))
#loc163 = loc("tmp30"(#loc63))
#loc164 = loc("tmp30"(#loc64))
#loc165 = loc("tmp20"(#loc65))
#loc166 = loc("tmp23"(#loc66))
#loc167 = loc("tmp24"(#loc67))
#loc168 = loc("tmp25"(#loc68))
#loc169 = loc("tmp26"(#loc69))
#loc170 = loc("tmp27"(#loc70))
#loc171 = loc("tmp28"(#loc71))
#loc172 = loc("tmp29"(#loc72))
#loc173 = loc("tmp32"(#loc73))
#loc174 = loc("tmp33"(#loc74))
#loc175 = loc("tmp34"(#loc75))
