#loc = loc("/root/.cache/vllm/torch_compile_cache/torch_aot_compile/61bda05feca29378847c32f031efa5c8dba258f38b0176a06a3e99e41df8ca50/inductor_cache/ui/cuivcs226dxdwejc7x2g57i63pzrainkud66efix2h3lqfuz2rgl.py":20:0)
#loc40 = loc("/usr/local/lib/python3.12/dist-packages/triton/language/standard.py":34:0)
#loc45 = loc("in_ptr0"(#loc))
#loc46 = loc("out_ptr0"(#loc))
#loc47 = loc("out_ptr1"(#loc))
#loc48 = loc("xnumel_0"(#loc))
#loc49 = loc("xnumel_1"(#loc))
#loc80 = loc("x"(#loc40))
module {
  tt.func public @triton_poi_fused_6(%in_ptr0: !tt.ptr<f16> {tt.divisibility = 16 : i32} loc("in_ptr0"(#loc)), %out_ptr0: !tt.ptr<f16> {tt.divisibility = 16 : i32} loc("out_ptr0"(#loc)), %out_ptr1: !tt.ptr<f16> {tt.divisibility = 16 : i32} loc("out_ptr1"(#loc)), %xnumel_0: i32 {tt.divisibility = 16 : i32} loc("xnumel_0"(#loc)), %xnumel_1: i32 {tt.divisibility = 16 : i32} loc("xnumel_1"(#loc))) attributes {noinline = false} {
    %pid = tt.get_program_id x : i32 loc(#loc50)
    %num_xblocks_0 = tt.call @"triton.language.standard.cdiv__i32__(1,)cconstexpr_512_"(%xnumel_0) : (i32) -> i32 loc(#loc51)
    %num_xblocks_1 = tt.call @"triton.language.standard.cdiv__i32__(1,)cconstexpr_512_"(%xnumel_1) : (i32) -> i32 loc(#loc52)
    %num_xblocks_1_0 = arith.addi %num_xblocks_0, %num_xblocks_1 : i32 loc(#loc53)
    %0 = arith.cmpi slt, %pid, %num_xblocks_0 : i32 loc(#loc5)
    scf.if %0 {
      %r0_numel = arith.constant 1 : i32 loc(#loc54)
      %xoffset = arith.constant 512 : i32 loc(#loc55)
      %xoffset_1 = arith.constant 512 : i32 loc(#loc55)
      %xoffset_2 = arith.muli %pid, %xoffset_1 : i32 loc(#loc55)
      %xindex = tt.make_range {end = 512 : i32, start = 0 : i32} : tensor<512xi32> loc(#loc56)
      %xindex_3 = tt.splat %xoffset_2 : i32 -> tensor<512xi32> loc(#loc57)
      %xindex_4 = arith.addi %xindex_3, %xindex : tensor<512xi32> loc(#loc57)
      %xmask = tt.splat %xnumel_0 : i32 -> tensor<512xi32> loc(#loc58)
      %xmask_5 = arith.cmpi slt, %xindex_4, %xmask : tensor<512xi32> loc(#loc58)
      %x0 = arith.constant 16 : i32 loc(#loc59)
      %x0_6 = arith.constant 16 : i32 loc(#loc59)
      %x0_7 = arith.constant dense<16> : tensor<512xi32> loc(#loc59)
      %x0_8 = arith.remsi %xindex_4, %x0_7 : tensor<512xi32> loc(#loc59)
      %x1 = arith.constant 16 : i32 loc(#loc60)
      %x1_9 = arith.constant 16 : i32 loc(#loc60)
      %x1_10 = arith.constant dense<16> : tensor<512xi32> loc(#loc60)
      %x1_11 = arith.divsi %xindex_4, %x1_10 : tensor<512xi32> loc(#loc60)
      %tmp0 = arith.constant 32 : i32 loc(#loc61)
      %tmp0_12 = arith.constant 32 : i32 loc(#loc61)
      %tmp0_13 = arith.constant dense<32> : tensor<512xi32> loc(#loc61)
      %tmp0_14 = arith.muli %tmp0_13, %x1_11 : tensor<512xi32> loc(#loc61)
      %tmp0_15 = arith.addi %x0_8, %tmp0_14 : tensor<512xi32> loc(#loc62)
      %tmp0_16 = tt.splat %in_ptr0 : !tt.ptr<f16> -> tensor<512x!tt.ptr<f16>> loc(#loc63)
      %tmp0_17 = tt.addptr %tmp0_16, %tmp0_15 : tensor<512x!tt.ptr<f16>>, tensor<512xi32> loc(#loc63)
      %tmp0_18 = tt.load %tmp0_17, %xmask_5 : tensor<512x!tt.ptr<f16>> loc(#loc64)
      %tmp0_19 = arith.extf %tmp0_18 : tensor<512xf16> to tensor<512xf32> loc(#loc65)
      %1 = tt.splat %out_ptr0 : !tt.ptr<f16> -> tensor<512x!tt.ptr<f16>> loc(#loc19)
      %2 = tt.addptr %1, %xindex_4 : tensor<512x!tt.ptr<f16>>, tensor<512xi32> loc(#loc19)
      %3 = arith.truncf %tmp0_19 : tensor<512xf32> to tensor<512xf16> loc(#loc20)
      tt.store %2, %3, %xmask_5 : tensor<512x!tt.ptr<f16>> loc(#loc20)
    } else {
      %1 = arith.cmpi slt, %pid, %num_xblocks_1_0 : i32 loc(#loc21)
      scf.if %1 {
        %pid_offset = arith.subi %pid, %num_xblocks_0 : i32 loc(#loc66)
        %r0_numel = arith.constant 1 : i32 loc(#loc67)
        %xoffset = arith.constant 512 : i32 loc(#loc68)
        %xoffset_1 = arith.constant 512 : i32 loc(#loc68)
        %xoffset_2 = arith.muli %pid_offset, %xoffset_1 : i32 loc(#loc68)
        %xindex = tt.make_range {end = 512 : i32, start = 0 : i32} : tensor<512xi32> loc(#loc69)
        %xindex_3 = tt.splat %xoffset_2 : i32 -> tensor<512xi32> loc(#loc70)
        %xindex_4 = arith.addi %xindex_3, %xindex : tensor<512xi32> loc(#loc70)
        %xmask = tt.splat %xnumel_1 : i32 -> tensor<512xi32> loc(#loc71)
        %xmask_5 = arith.cmpi slt, %xindex_4, %xmask : tensor<512xi32> loc(#loc71)
        %x3 = arith.constant 16 : i32 loc(#loc72)
        %x3_6 = arith.constant 16 : i32 loc(#loc72)
        %x3_7 = arith.constant dense<16> : tensor<512xi32> loc(#loc72)
        %x3_8 = arith.remsi %xindex_4, %x3_7 : tensor<512xi32> loc(#loc72)
        %x4 = arith.constant 16 : i32 loc(#loc73)
        %x4_9 = arith.constant 16 : i32 loc(#loc73)
        %x4_10 = arith.constant dense<16> : tensor<512xi32> loc(#loc73)
        %x4_11 = arith.divsi %xindex_4, %x4_10 : tensor<512xi32> loc(#loc73)
        %tmp1 = arith.constant 16 : i32 loc(#loc74)
        %tmp1_12 = arith.constant 16 : i32 loc(#loc74)
        %tmp1_13 = arith.constant dense<16> : tensor<512xi32> loc(#loc74)
        %tmp1_14 = arith.addi %tmp1_13, %x3_8 : tensor<512xi32> loc(#loc74)
        %tmp1_15 = arith.constant 32 : i32 loc(#loc75)
        %tmp1_16 = arith.constant 32 : i32 loc(#loc75)
        %tmp1_17 = arith.constant dense<32> : tensor<512xi32> loc(#loc75)
        %tmp1_18 = arith.muli %tmp1_17, %x4_11 : tensor<512xi32> loc(#loc75)
        %tmp1_19 = arith.addi %tmp1_14, %tmp1_18 : tensor<512xi32> loc(#loc76)
        %tmp1_20 = tt.splat %in_ptr0 : !tt.ptr<f16> -> tensor<512x!tt.ptr<f16>> loc(#loc77)
        %tmp1_21 = tt.addptr %tmp1_20, %tmp1_19 : tensor<512x!tt.ptr<f16>>, tensor<512xi32> loc(#loc77)
        %tmp1_22 = tt.load %tmp1_21, %xmask_5 : tensor<512x!tt.ptr<f16>> loc(#loc78)
        %tmp1_23 = arith.extf %tmp1_22 : tensor<512xf16> to tensor<512xf32> loc(#loc79)
        %2 = tt.splat %out_ptr1 : !tt.ptr<f16> -> tensor<512x!tt.ptr<f16>> loc(#loc37)
        %3 = tt.addptr %2, %xindex_4 : tensor<512x!tt.ptr<f16>>, tensor<512xi32> loc(#loc37)
        %4 = arith.truncf %tmp1_23 : tensor<512xf32> to tensor<512xf16> loc(#loc38)
        tt.store %3, %4, %xmask_5 : tensor<512x!tt.ptr<f16>> loc(#loc38)
      } else {
      } loc(#loc22)
    } loc(#loc6)
    tt.return loc(#loc39)
  } loc(#loc)
  tt.func private @"triton.language.standard.cdiv__i32__(1,)cconstexpr_512_"(%x: i32 loc("x"(#loc40))) -> i32 attributes {noinline = false} {
    %c511_i32 = arith.constant 511 : i32 loc(#loc41)
    %c511_i32_0 = arith.constant 511 : i32 loc(#loc41)
    %0 = arith.addi %x, %c511_i32_0 : i32 loc(#loc41)
    %c512_i32 = arith.constant 512 : i32 loc(#loc42)
    %c512_i32_1 = arith.constant 512 : i32 loc(#loc42)
    %1 = arith.divsi %0, %c512_i32_1 : i32 loc(#loc42)
    tt.return %1 : i32 loc(#loc43)
  ^bb1:  // no predecessors
    %2 = ub.poison : i32 loc(#loc44)
    tt.return %2 : i32 loc(#loc44)
  } loc(#loc40)
} loc(#loc)
#loc1 = loc("/root/.cache/vllm/torch_compile_cache/torch_aot_compile/61bda05feca29378847c32f031efa5c8dba258f38b0176a06a3e99e41df8ca50/inductor_cache/ui/cuivcs226dxdwejc7x2g57i63pzrainkud66efix2h3lqfuz2rgl.py":21:24)
#loc2 = loc("/root/.cache/vllm/torch_compile_cache/torch_aot_compile/61bda05feca29378847c32f031efa5c8dba258f38b0176a06a3e99e41df8ca50/inductor_cache/ui/cuivcs226dxdwejc7x2g57i63pzrainkud66efix2h3lqfuz2rgl.py":22:38)
#loc3 = loc("/root/.cache/vllm/torch_compile_cache/torch_aot_compile/61bda05feca29378847c32f031efa5c8dba258f38b0176a06a3e99e41df8ca50/inductor_cache/ui/cuivcs226dxdwejc7x2g57i63pzrainkud66efix2h3lqfuz2rgl.py":23:54)
#loc4 = loc("/root/.cache/vllm/torch_compile_cache/torch_aot_compile/61bda05feca29378847c32f031efa5c8dba258f38b0176a06a3e99e41df8ca50/inductor_cache/ui/cuivcs226dxdwejc7x2g57i63pzrainkud66efix2h3lqfuz2rgl.py":23:36)
#loc5 = loc("/root/.cache/vllm/torch_compile_cache/torch_aot_compile/61bda05feca29378847c32f031efa5c8dba258f38b0176a06a3e99e41df8ca50/inductor_cache/ui/cuivcs226dxdwejc7x2g57i63pzrainkud66efix2h3lqfuz2rgl.py":24:13)
#loc6 = loc("/root/.cache/vllm/torch_compile_cache/torch_aot_compile/61bda05feca29378847c32f031efa5c8dba258f38b0176a06a3e99e41df8ca50/inductor_cache/ui/cuivcs226dxdwejc7x2g57i63pzrainkud66efix2h3lqfuz2rgl.py":24:7)
#loc7 = loc("/root/.cache/vllm/torch_compile_cache/torch_aot_compile/61bda05feca29378847c32f031efa5c8dba258f38b0176a06a3e99e41df8ca50/inductor_cache/ui/cuivcs226dxdwejc7x2g57i63pzrainkud66efix2h3lqfuz2rgl.py":26:19)
#loc8 = loc("/root/.cache/vllm/torch_compile_cache/torch_aot_compile/61bda05feca29378847c32f031efa5c8dba258f38b0176a06a3e99e41df8ca50/inductor_cache/ui/cuivcs226dxdwejc7x2g57i63pzrainkud66efix2h3lqfuz2rgl.py":27:31)
#loc9 = loc("/root/.cache/vllm/torch_compile_cache/torch_aot_compile/61bda05feca29378847c32f031efa5c8dba258f38b0176a06a3e99e41df8ca50/inductor_cache/ui/cuivcs226dxdwejc7x2g57i63pzrainkud66efix2h3lqfuz2rgl.py":28:40)
#loc10 = loc("/root/.cache/vllm/torch_compile_cache/torch_aot_compile/61bda05feca29378847c32f031efa5c8dba258f38b0176a06a3e99e41df8ca50/inductor_cache/ui/cuivcs226dxdwejc7x2g57i63pzrainkud66efix2h3lqfuz2rgl.py":28:27)
#loc11 = loc("/root/.cache/vllm/torch_compile_cache/torch_aot_compile/61bda05feca29378847c32f031efa5c8dba258f38b0176a06a3e99e41df8ca50/inductor_cache/ui/cuivcs226dxdwejc7x2g57i63pzrainkud66efix2h3lqfuz2rgl.py":29:25)
#loc12 = loc("/root/.cache/vllm/torch_compile_cache/torch_aot_compile/61bda05feca29378847c32f031efa5c8dba258f38b0176a06a3e99e41df8ca50/inductor_cache/ui/cuivcs226dxdwejc7x2g57i63pzrainkud66efix2h3lqfuz2rgl.py":30:23)
#loc13 = loc("/root/.cache/vllm/torch_compile_cache/torch_aot_compile/61bda05feca29378847c32f031efa5c8dba258f38b0176a06a3e99e41df8ca50/inductor_cache/ui/cuivcs226dxdwejc7x2g57i63pzrainkud66efix2h3lqfuz2rgl.py":31:23)
#loc14 = loc("/root/.cache/vllm/torch_compile_cache/torch_aot_compile/61bda05feca29378847c32f031efa5c8dba258f38b0176a06a3e99e41df8ca50/inductor_cache/ui/cuivcs226dxdwejc7x2g57i63pzrainkud66efix2h3lqfuz2rgl.py":33:42)
#loc15 = loc("/root/.cache/vllm/torch_compile_cache/torch_aot_compile/61bda05feca29378847c32f031efa5c8dba258f38b0176a06a3e99e41df8ca50/inductor_cache/ui/cuivcs226dxdwejc7x2g57i63pzrainkud66efix2h3lqfuz2rgl.py":33:39)
#loc16 = loc("/root/.cache/vllm/torch_compile_cache/torch_aot_compile/61bda05feca29378847c32f031efa5c8dba258f38b0176a06a3e99e41df8ca50/inductor_cache/ui/cuivcs226dxdwejc7x2g57i63pzrainkud66efix2h3lqfuz2rgl.py":33:34)
#loc17 = loc("/root/.cache/vllm/torch_compile_cache/torch_aot_compile/61bda05feca29378847c32f031efa5c8dba258f38b0176a06a3e99e41df8ca50/inductor_cache/ui/cuivcs226dxdwejc7x2g57i63pzrainkud66efix2h3lqfuz2rgl.py":33:47)
#loc18 = loc("/root/.cache/vllm/torch_compile_cache/torch_aot_compile/61bda05feca29378847c32f031efa5c8dba258f38b0176a06a3e99e41df8ca50/inductor_cache/ui/cuivcs226dxdwejc7x2g57i63pzrainkud66efix2h3lqfuz2rgl.py":33:57)
#loc19 = loc("/root/.cache/vllm/torch_compile_cache/torch_aot_compile/61bda05feca29378847c32f031efa5c8dba258f38b0176a06a3e99e41df8ca50/inductor_cache/ui/cuivcs226dxdwejc7x2g57i63pzrainkud66efix2h3lqfuz2rgl.py":34:29)
#loc20 = loc("/root/.cache/vllm/torch_compile_cache/torch_aot_compile/61bda05feca29378847c32f031efa5c8dba258f38b0176a06a3e99e41df8ca50/inductor_cache/ui/cuivcs226dxdwejc7x2g57i63pzrainkud66efix2h3lqfuz2rgl.py":34:40)
#loc21 = loc("/root/.cache/vllm/torch_compile_cache/torch_aot_compile/61bda05feca29378847c32f031efa5c8dba258f38b0176a06a3e99e41df8ca50/inductor_cache/ui/cuivcs226dxdwejc7x2g57i63pzrainkud66efix2h3lqfuz2rgl.py":35:15)
#loc22 = loc("/root/.cache/vllm/torch_compile_cache/torch_aot_compile/61bda05feca29378847c32f031efa5c8dba258f38b0176a06a3e99e41df8ca50/inductor_cache/ui/cuivcs226dxdwejc7x2g57i63pzrainkud66efix2h3lqfuz2rgl.py":35:9)
#loc23 = loc("/root/.cache/vllm/torch_compile_cache/torch_aot_compile/61bda05feca29378847c32f031efa5c8dba258f38b0176a06a3e99e41df8ca50/inductor_cache/ui/cuivcs226dxdwejc7x2g57i63pzrainkud66efix2h3lqfuz2rgl.py":36:27)
#loc24 = loc("/root/.cache/vllm/torch_compile_cache/torch_aot_compile/61bda05feca29378847c32f031efa5c8dba258f38b0176a06a3e99e41df8ca50/inductor_cache/ui/cuivcs226dxdwejc7x2g57i63pzrainkud66efix2h3lqfuz2rgl.py":37:19)
#loc25 = loc("/root/.cache/vllm/torch_compile_cache/torch_aot_compile/61bda05feca29378847c32f031efa5c8dba258f38b0176a06a3e99e41df8ca50/inductor_cache/ui/cuivcs226dxdwejc7x2g57i63pzrainkud66efix2h3lqfuz2rgl.py":38:31)
#loc26 = loc("/root/.cache/vllm/torch_compile_cache/torch_aot_compile/61bda05feca29378847c32f031efa5c8dba258f38b0176a06a3e99e41df8ca50/inductor_cache/ui/cuivcs226dxdwejc7x2g57i63pzrainkud66efix2h3lqfuz2rgl.py":39:40)
#loc27 = loc("/root/.cache/vllm/torch_compile_cache/torch_aot_compile/61bda05feca29378847c32f031efa5c8dba258f38b0176a06a3e99e41df8ca50/inductor_cache/ui/cuivcs226dxdwejc7x2g57i63pzrainkud66efix2h3lqfuz2rgl.py":39:27)
#loc28 = loc("/root/.cache/vllm/torch_compile_cache/torch_aot_compile/61bda05feca29378847c32f031efa5c8dba258f38b0176a06a3e99e41df8ca50/inductor_cache/ui/cuivcs226dxdwejc7x2g57i63pzrainkud66efix2h3lqfuz2rgl.py":40:25)
#loc29 = loc("/root/.cache/vllm/torch_compile_cache/torch_aot_compile/61bda05feca29378847c32f031efa5c8dba258f38b0176a06a3e99e41df8ca50/inductor_cache/ui/cuivcs226dxdwejc7x2g57i63pzrainkud66efix2h3lqfuz2rgl.py":41:23)
#loc30 = loc("/root/.cache/vllm/torch_compile_cache/torch_aot_compile/61bda05feca29378847c32f031efa5c8dba258f38b0176a06a3e99e41df8ca50/inductor_cache/ui/cuivcs226dxdwejc7x2g57i63pzrainkud66efix2h3lqfuz2rgl.py":42:23)
#loc31 = loc("/root/.cache/vllm/torch_compile_cache/torch_aot_compile/61bda05feca29378847c32f031efa5c8dba258f38b0176a06a3e99e41df8ca50/inductor_cache/ui/cuivcs226dxdwejc7x2g57i63pzrainkud66efix2h3lqfuz2rgl.py":44:39)
#loc32 = loc("/root/.cache/vllm/torch_compile_cache/torch_aot_compile/61bda05feca29378847c32f031efa5c8dba258f38b0176a06a3e99e41df8ca50/inductor_cache/ui/cuivcs226dxdwejc7x2g57i63pzrainkud66efix2h3lqfuz2rgl.py":44:47)
#loc33 = loc("/root/.cache/vllm/torch_compile_cache/torch_aot_compile/61bda05feca29378847c32f031efa5c8dba258f38b0176a06a3e99e41df8ca50/inductor_cache/ui/cuivcs226dxdwejc7x2g57i63pzrainkud66efix2h3lqfuz2rgl.py":44:44)
#loc34 = loc("/root/.cache/vllm/torch_compile_cache/torch_aot_compile/61bda05feca29378847c32f031efa5c8dba258f38b0176a06a3e99e41df8ca50/inductor_cache/ui/cuivcs226dxdwejc7x2g57i63pzrainkud66efix2h3lqfuz2rgl.py":44:34)
#loc35 = loc("/root/.cache/vllm/torch_compile_cache/torch_aot_compile/61bda05feca29378847c32f031efa5c8dba258f38b0176a06a3e99e41df8ca50/inductor_cache/ui/cuivcs226dxdwejc7x2g57i63pzrainkud66efix2h3lqfuz2rgl.py":44:52)
#loc36 = loc("/root/.cache/vllm/torch_compile_cache/torch_aot_compile/61bda05feca29378847c32f031efa5c8dba258f38b0176a06a3e99e41df8ca50/inductor_cache/ui/cuivcs226dxdwejc7x2g57i63pzrainkud66efix2h3lqfuz2rgl.py":44:62)
#loc37 = loc("/root/.cache/vllm/torch_compile_cache/torch_aot_compile/61bda05feca29378847c32f031efa5c8dba258f38b0176a06a3e99e41df8ca50/inductor_cache/ui/cuivcs226dxdwejc7x2g57i63pzrainkud66efix2h3lqfuz2rgl.py":45:29)
#loc38 = loc("/root/.cache/vllm/torch_compile_cache/torch_aot_compile/61bda05feca29378847c32f031efa5c8dba258f38b0176a06a3e99e41df8ca50/inductor_cache/ui/cuivcs226dxdwejc7x2g57i63pzrainkud66efix2h3lqfuz2rgl.py":45:40)
#loc39 = loc("/root/.cache/vllm/torch_compile_cache/torch_aot_compile/61bda05feca29378847c32f031efa5c8dba258f38b0176a06a3e99e41df8ca50/inductor_cache/ui/cuivcs226dxdwejc7x2g57i63pzrainkud66efix2h3lqfuz2rgl.py":24:4)
#loc41 = loc("/usr/local/lib/python3.12/dist-packages/triton/language/standard.py":43:17)
#loc42 = loc("/usr/local/lib/python3.12/dist-packages/triton/language/standard.py":43:30)
#loc43 = loc("/usr/local/lib/python3.12/dist-packages/triton/language/standard.py":43:11)
#loc44 = loc("/usr/local/lib/python3.12/dist-packages/triton/language/standard.py":43:4)
#loc50 = loc("pid"(#loc1))
#loc51 = loc("num_xblocks_0"(#loc2))
#loc52 = loc("num_xblocks_1"(#loc3))
#loc53 = loc("num_xblocks_1"(#loc4))
#loc54 = loc("r0_numel"(#loc7))
#loc55 = loc("xoffset"(#loc8))
#loc56 = loc("xindex"(#loc9))
#loc57 = loc("xindex"(#loc10))
#loc58 = loc("xmask"(#loc11))
#loc59 = loc("x0"(#loc12))
#loc60 = loc("x1"(#loc13))
#loc61 = loc("tmp0"(#loc14))
#loc62 = loc("tmp0"(#loc15))
#loc63 = loc("tmp0"(#loc16))
#loc64 = loc("tmp0"(#loc17))
#loc65 = loc("tmp0"(#loc18))
#loc66 = loc("pid_offset"(#loc23))
#loc67 = loc("r0_numel"(#loc24))
#loc68 = loc("xoffset"(#loc25))
#loc69 = loc("xindex"(#loc26))
#loc70 = loc("xindex"(#loc27))
#loc71 = loc("xmask"(#loc28))
#loc72 = loc("x3"(#loc29))
#loc73 = loc("x4"(#loc30))
#loc74 = loc("tmp1"(#loc31))
#loc75 = loc("tmp1"(#loc32))
#loc76 = loc("tmp1"(#loc33))
#loc77 = loc("tmp1"(#loc34))
#loc78 = loc("tmp1"(#loc35))
#loc79 = loc("tmp1"(#loc36))
