#loc = loc("/root/.cache/vllm/torch_compile_cache/torch_aot_compile/61bda05feca29378847c32f031efa5c8dba258f38b0176a06a3e99e41df8ca50/inductor_cache/2m/c2m4hcox3bmzydebnh55if4fawo5knlxsdwokchhp2zalls527nz.py":20:0)
#loc38 = loc("in_ptr0"(#loc))
#loc39 = loc("in_ptr1"(#loc))
#loc40 = loc("out_ptr0"(#loc))
#loc41 = loc("out_ptr1"(#loc))
#loc42 = loc("xnumel_0"(#loc))
#loc43 = loc("xnumel_1"(#loc))
module {
  tt.func public @triton_poi_fused_0(%in_ptr0: !tt.ptr<f16> {tt.divisibility = 16 : i32} loc("in_ptr0"(#loc)), %in_ptr1: !tt.ptr<f16> {tt.divisibility = 16 : i32} loc("in_ptr1"(#loc)), %out_ptr0: !tt.ptr<f16> {tt.divisibility = 16 : i32} loc("out_ptr0"(#loc)), %out_ptr1: !tt.ptr<f16> {tt.divisibility = 16 : i32} loc("out_ptr1"(#loc)), %xnumel_0: i32 {tt.divisibility = 16 : i32} loc("xnumel_0"(#loc)), %xnumel_1: i32 {tt.divisibility = 16 : i32} loc("xnumel_1"(#loc))) attributes {noinline = false} {
    %cst = arith.constant dense<0.000000e+00> : tensor<512xf32> loc(#loc1)
    %cst_0 = arith.constant dense<1.000000e+00> : tensor<512xf32> loc(#loc1)
    %c511_i32 = arith.constant 511 : i32 loc(#loc1)
    %cst_1 = arith.constant dense<0.000000e+00> : tensor<512xf16> loc(#loc1)
    %c512_i32 = arith.constant 512 : i32 loc(#loc1)
    %pid = tt.get_program_id x : i32 loc(#loc44)
    %num_xblocks_0 = arith.addi %xnumel_0, %c511_i32 : i32 loc(#loc65)
    %num_xblocks_0_2 = arith.divsi %num_xblocks_0, %c512_i32 : i32 loc(#loc66)
    %num_xblocks_1 = arith.addi %xnumel_1, %c511_i32 : i32 loc(#loc67)
    %num_xblocks_1_3 = arith.divsi %num_xblocks_1, %c512_i32 : i32 loc(#loc68)
    %num_xblocks_1_4 = arith.addi %num_xblocks_0_2, %num_xblocks_1_3 : i32 loc(#loc47)
    %0 = arith.cmpi slt, %pid, %num_xblocks_0_2 : i32 loc(#loc8)
    scf.if %0 {
      %xoffset = arith.muli %pid, %c512_i32 : i32 loc(#loc48)
      %xindex = tt.make_range {end = 512 : i32, start = 0 : i32} : tensor<512xi32> loc(#loc49)
      %xindex_5 = tt.splat %xoffset : i32 -> tensor<512xi32> loc(#loc50)
      %xindex_6 = arith.addi %xindex_5, %xindex : tensor<512xi32> loc(#loc50)
      %xmask = tt.splat %xnumel_0 : i32 -> tensor<512xi32> loc(#loc51)
      %xmask_7 = arith.cmpi slt, %xindex_6, %xmask : tensor<512xi32> loc(#loc51)
      %tmp0 = tt.splat %in_ptr0 : !tt.ptr<f16> -> tensor<512x!tt.ptr<f16>> loc(#loc52)
      %tmp0_8 = tt.addptr %tmp0, %xindex_6 : tensor<512x!tt.ptr<f16>>, tensor<512xi32> loc(#loc52)
      %tmp0_9 = tt.load %tmp0_8, %xmask_7 : tensor<512x!tt.ptr<f16>> loc(#loc53)
      %tmp0_10 = arith.extf %tmp0_9 : tensor<512xf16> to tensor<512xf32> loc(#loc54)
      %tmp1 = tt.splat %in_ptr1 : !tt.ptr<f16> -> tensor<512x!tt.ptr<f16>> loc(#loc55)
      %tmp1_11 = tt.addptr %tmp1, %xindex_6 : tensor<512x!tt.ptr<f16>>, tensor<512xi32> loc(#loc55)
      %tmp1_12 = tt.load %tmp1_11, %xmask_7 : tensor<512x!tt.ptr<f16>> loc(#loc56)
      %tmp1_13 = arith.extf %tmp1_12 : tensor<512xf16> to tensor<512xf32> loc(#loc57)
      %tmp2 = arith.subf %cst, %tmp1_13 : tensor<512xf32> loc(#loc69)
      %tmp2_14 = math.exp %tmp2 : tensor<512xf32> loc(#loc70)
      %tmp2_15 = arith.addf %tmp2_14, %cst_0 : tensor<512xf32> loc(#loc71)
      %tmp2_16 = arith.divf %cst_0, %tmp2_15 : tensor<512xf32> loc(#loc72)
      %tmp3 = arith.mulf %tmp0_10, %tmp2_16 : tensor<512xf32> loc(#loc59)
      %1 = tt.splat %out_ptr0 : !tt.ptr<f16> -> tensor<512x!tt.ptr<f16>> loc(#loc26)
      %2 = tt.addptr %1, %xindex_6 : tensor<512x!tt.ptr<f16>>, tensor<512xi32> loc(#loc26)
      %3 = arith.truncf %tmp3 : tensor<512xf32> to tensor<512xf16> loc(#loc27)
      tt.store %2, %3, %xmask_7 : tensor<512x!tt.ptr<f16>> loc(#loc27)
    } else {
      %1 = arith.cmpi slt, %pid, %num_xblocks_1_4 : i32 loc(#loc28)
      scf.if %1 {
        %pid_offset = arith.subi %pid, %num_xblocks_0_2 : i32 loc(#loc60)
        %xoffset = arith.muli %pid_offset, %c512_i32 : i32 loc(#loc61)
        %xindex = tt.make_range {end = 512 : i32, start = 0 : i32} : tensor<512xi32> loc(#loc62)
        %xindex_5 = tt.splat %xoffset : i32 -> tensor<512xi32> loc(#loc63)
        %xindex_6 = arith.addi %xindex_5, %xindex : tensor<512xi32> loc(#loc63)
        %xmask = tt.splat %xnumel_1 : i32 -> tensor<512xi32> loc(#loc64)
        %xmask_7 = arith.cmpi slt, %xindex_6, %xmask : tensor<512xi32> loc(#loc64)
        %2 = tt.splat %out_ptr1 : !tt.ptr<f16> -> tensor<512x!tt.ptr<f16>> loc(#loc35)
        %3 = tt.addptr %2, %xindex_6 : tensor<512x!tt.ptr<f16>>, tensor<512xi32> loc(#loc35)
        tt.store %3, %cst_1, %xmask_7 : tensor<512x!tt.ptr<f16>> loc(#loc36)
      } loc(#loc29)
    } loc(#loc9)
    tt.return loc(#loc37)
  } loc(#loc)
} loc(#loc)
#loc1 = loc(unknown)
#loc2 = loc("/root/.cache/vllm/torch_compile_cache/torch_aot_compile/61bda05feca29378847c32f031efa5c8dba258f38b0176a06a3e99e41df8ca50/inductor_cache/2m/c2m4hcox3bmzydebnh55if4fawo5knlxsdwokchhp2zalls527nz.py":21:24)
#loc3 = loc("/usr/local/lib/python3.12/dist-packages/triton/language/standard.py":43:17)
#loc4 = loc("/root/.cache/vllm/torch_compile_cache/torch_aot_compile/61bda05feca29378847c32f031efa5c8dba258f38b0176a06a3e99e41df8ca50/inductor_cache/2m/c2m4hcox3bmzydebnh55if4fawo5knlxsdwokchhp2zalls527nz.py":22:38)
#loc5 = loc("/usr/local/lib/python3.12/dist-packages/triton/language/standard.py":43:30)
#loc6 = loc("/root/.cache/vllm/torch_compile_cache/torch_aot_compile/61bda05feca29378847c32f031efa5c8dba258f38b0176a06a3e99e41df8ca50/inductor_cache/2m/c2m4hcox3bmzydebnh55if4fawo5knlxsdwokchhp2zalls527nz.py":23:54)
#loc7 = loc("/root/.cache/vllm/torch_compile_cache/torch_aot_compile/61bda05feca29378847c32f031efa5c8dba258f38b0176a06a3e99e41df8ca50/inductor_cache/2m/c2m4hcox3bmzydebnh55if4fawo5knlxsdwokchhp2zalls527nz.py":23:36)
#loc8 = loc("/root/.cache/vllm/torch_compile_cache/torch_aot_compile/61bda05feca29378847c32f031efa5c8dba258f38b0176a06a3e99e41df8ca50/inductor_cache/2m/c2m4hcox3bmzydebnh55if4fawo5knlxsdwokchhp2zalls527nz.py":24:13)
#loc9 = loc("/root/.cache/vllm/torch_compile_cache/torch_aot_compile/61bda05feca29378847c32f031efa5c8dba258f38b0176a06a3e99e41df8ca50/inductor_cache/2m/c2m4hcox3bmzydebnh55if4fawo5knlxsdwokchhp2zalls527nz.py":24:7)
#loc10 = loc("/root/.cache/vllm/torch_compile_cache/torch_aot_compile/61bda05feca29378847c32f031efa5c8dba258f38b0176a06a3e99e41df8ca50/inductor_cache/2m/c2m4hcox3bmzydebnh55if4fawo5knlxsdwokchhp2zalls527nz.py":27:31)
#loc11 = loc("/root/.cache/vllm/torch_compile_cache/torch_aot_compile/61bda05feca29378847c32f031efa5c8dba258f38b0176a06a3e99e41df8ca50/inductor_cache/2m/c2m4hcox3bmzydebnh55if4fawo5knlxsdwokchhp2zalls527nz.py":28:40)
#loc12 = loc("/root/.cache/vllm/torch_compile_cache/torch_aot_compile/61bda05feca29378847c32f031efa5c8dba258f38b0176a06a3e99e41df8ca50/inductor_cache/2m/c2m4hcox3bmzydebnh55if4fawo5knlxsdwokchhp2zalls527nz.py":28:27)
#loc13 = loc("/root/.cache/vllm/torch_compile_cache/torch_aot_compile/61bda05feca29378847c32f031efa5c8dba258f38b0176a06a3e99e41df8ca50/inductor_cache/2m/c2m4hcox3bmzydebnh55if4fawo5knlxsdwokchhp2zalls527nz.py":29:25)
#loc14 = loc("/root/.cache/vllm/torch_compile_cache/torch_aot_compile/61bda05feca29378847c32f031efa5c8dba258f38b0176a06a3e99e41df8ca50/inductor_cache/2m/c2m4hcox3bmzydebnh55if4fawo5knlxsdwokchhp2zalls527nz.py":31:34)
#loc15 = loc("/root/.cache/vllm/torch_compile_cache/torch_aot_compile/61bda05feca29378847c32f031efa5c8dba258f38b0176a06a3e99e41df8ca50/inductor_cache/2m/c2m4hcox3bmzydebnh55if4fawo5knlxsdwokchhp2zalls527nz.py":31:39)
#loc16 = loc("/root/.cache/vllm/torch_compile_cache/torch_aot_compile/61bda05feca29378847c32f031efa5c8dba258f38b0176a06a3e99e41df8ca50/inductor_cache/2m/c2m4hcox3bmzydebnh55if4fawo5knlxsdwokchhp2zalls527nz.py":31:49)
#loc17 = loc("/root/.cache/vllm/torch_compile_cache/torch_aot_compile/61bda05feca29378847c32f031efa5c8dba258f38b0176a06a3e99e41df8ca50/inductor_cache/2m/c2m4hcox3bmzydebnh55if4fawo5knlxsdwokchhp2zalls527nz.py":32:34)
#loc18 = loc("/root/.cache/vllm/torch_compile_cache/torch_aot_compile/61bda05feca29378847c32f031efa5c8dba258f38b0176a06a3e99e41df8ca50/inductor_cache/2m/c2m4hcox3bmzydebnh55if4fawo5knlxsdwokchhp2zalls527nz.py":32:39)
#loc19 = loc("/root/.cache/vllm/torch_compile_cache/torch_aot_compile/61bda05feca29378847c32f031efa5c8dba258f38b0176a06a3e99e41df8ca50/inductor_cache/2m/c2m4hcox3bmzydebnh55if4fawo5knlxsdwokchhp2zalls527nz.py":32:49)
#loc20 = loc("/usr/local/lib/python3.12/dist-packages/triton/language/standard.py":50:30)
#loc21 = loc("/root/.cache/vllm/torch_compile_cache/torch_aot_compile/61bda05feca29378847c32f031efa5c8dba258f38b0176a06a3e99e41df8ca50/inductor_cache/2m/c2m4hcox3bmzydebnh55if4fawo5knlxsdwokchhp2zalls527nz.py":33:26)
#loc22 = loc("/usr/local/lib/python3.12/dist-packages/triton/language/standard.py":50:29)
#loc23 = loc("/usr/local/lib/python3.12/dist-packages/triton/language/standard.py":50:20)
#loc24 = loc("/usr/local/lib/python3.12/dist-packages/triton/language/standard.py":50:16)
#loc25 = loc("/root/.cache/vllm/torch_compile_cache/torch_aot_compile/61bda05feca29378847c32f031efa5c8dba258f38b0176a06a3e99e41df8ca50/inductor_cache/2m/c2m4hcox3bmzydebnh55if4fawo5knlxsdwokchhp2zalls527nz.py":34:22)
#loc26 = loc("/root/.cache/vllm/torch_compile_cache/torch_aot_compile/61bda05feca29378847c32f031efa5c8dba258f38b0176a06a3e99e41df8ca50/inductor_cache/2m/c2m4hcox3bmzydebnh55if4fawo5knlxsdwokchhp2zalls527nz.py":35:29)
#loc27 = loc("/root/.cache/vllm/torch_compile_cache/torch_aot_compile/61bda05feca29378847c32f031efa5c8dba258f38b0176a06a3e99e41df8ca50/inductor_cache/2m/c2m4hcox3bmzydebnh55if4fawo5knlxsdwokchhp2zalls527nz.py":35:40)
#loc28 = loc("/root/.cache/vllm/torch_compile_cache/torch_aot_compile/61bda05feca29378847c32f031efa5c8dba258f38b0176a06a3e99e41df8ca50/inductor_cache/2m/c2m4hcox3bmzydebnh55if4fawo5knlxsdwokchhp2zalls527nz.py":36:15)
#loc29 = loc("/root/.cache/vllm/torch_compile_cache/torch_aot_compile/61bda05feca29378847c32f031efa5c8dba258f38b0176a06a3e99e41df8ca50/inductor_cache/2m/c2m4hcox3bmzydebnh55if4fawo5knlxsdwokchhp2zalls527nz.py":36:9)
#loc30 = loc("/root/.cache/vllm/torch_compile_cache/torch_aot_compile/61bda05feca29378847c32f031efa5c8dba258f38b0176a06a3e99e41df8ca50/inductor_cache/2m/c2m4hcox3bmzydebnh55if4fawo5knlxsdwokchhp2zalls527nz.py":37:27)
#loc31 = loc("/root/.cache/vllm/torch_compile_cache/torch_aot_compile/61bda05feca29378847c32f031efa5c8dba258f38b0176a06a3e99e41df8ca50/inductor_cache/2m/c2m4hcox3bmzydebnh55if4fawo5knlxsdwokchhp2zalls527nz.py":39:31)
#loc32 = loc("/root/.cache/vllm/torch_compile_cache/torch_aot_compile/61bda05feca29378847c32f031efa5c8dba258f38b0176a06a3e99e41df8ca50/inductor_cache/2m/c2m4hcox3bmzydebnh55if4fawo5knlxsdwokchhp2zalls527nz.py":40:40)
#loc33 = loc("/root/.cache/vllm/torch_compile_cache/torch_aot_compile/61bda05feca29378847c32f031efa5c8dba258f38b0176a06a3e99e41df8ca50/inductor_cache/2m/c2m4hcox3bmzydebnh55if4fawo5knlxsdwokchhp2zalls527nz.py":40:27)
#loc34 = loc("/root/.cache/vllm/torch_compile_cache/torch_aot_compile/61bda05feca29378847c32f031efa5c8dba258f38b0176a06a3e99e41df8ca50/inductor_cache/2m/c2m4hcox3bmzydebnh55if4fawo5knlxsdwokchhp2zalls527nz.py":41:25)
#loc35 = loc("/root/.cache/vllm/torch_compile_cache/torch_aot_compile/61bda05feca29378847c32f031efa5c8dba258f38b0176a06a3e99e41df8ca50/inductor_cache/2m/c2m4hcox3bmzydebnh55if4fawo5knlxsdwokchhp2zalls527nz.py":44:29)
#loc36 = loc("/root/.cache/vllm/torch_compile_cache/torch_aot_compile/61bda05feca29378847c32f031efa5c8dba258f38b0176a06a3e99e41df8ca50/inductor_cache/2m/c2m4hcox3bmzydebnh55if4fawo5knlxsdwokchhp2zalls527nz.py":44:40)
#loc37 = loc("/root/.cache/vllm/torch_compile_cache/torch_aot_compile/61bda05feca29378847c32f031efa5c8dba258f38b0176a06a3e99e41df8ca50/inductor_cache/2m/c2m4hcox3bmzydebnh55if4fawo5knlxsdwokchhp2zalls527nz.py":24:4)
#loc44 = loc("pid"(#loc2))
#loc45 = loc("num_xblocks_0"(#loc4))
#loc46 = loc("num_xblocks_1"(#loc6))
#loc47 = loc("num_xblocks_1"(#loc7))
#loc48 = loc("xoffset"(#loc10))
#loc49 = loc("xindex"(#loc11))
#loc50 = loc("xindex"(#loc12))
#loc51 = loc("xmask"(#loc13))
#loc52 = loc("tmp0"(#loc14))
#loc53 = loc("tmp0"(#loc15))
#loc54 = loc("tmp0"(#loc16))
#loc55 = loc("tmp1"(#loc17))
#loc56 = loc("tmp1"(#loc18))
#loc57 = loc("tmp1"(#loc19))
#loc58 = loc("tmp2"(#loc21))
#loc59 = loc("tmp3"(#loc25))
#loc60 = loc("pid_offset"(#loc30))
#loc61 = loc("xoffset"(#loc31))
#loc62 = loc("xindex"(#loc32))
#loc63 = loc("xindex"(#loc33))
#loc64 = loc("xmask"(#loc34))
#loc65 = loc(callsite(#loc3 at #loc45))
#loc66 = loc(callsite(#loc5 at #loc45))
#loc67 = loc(callsite(#loc3 at #loc46))
#loc68 = loc(callsite(#loc5 at #loc46))
#loc69 = loc(callsite(#loc20 at #loc58))
#loc70 = loc(callsite(#loc22 at #loc58))
#loc71 = loc(callsite(#loc23 at #loc58))
#loc72 = loc(callsite(#loc24 at #loc58))
