#loc = loc("/root/.cache/vllm/torch_compile_cache/torch_aot_compile/61bda05feca29378847c32f031efa5c8dba258f38b0176a06a3e99e41df8ca50/inductor_cache/cp/ccpbzsub4elastnajeybt3zi7p2trow7jo4sdphzvzeq7wu5umph.py":18:0)
#loc2 = loc(unknown)
#loc30 = loc("/root/.cache/vllm/torch_compile_cache/torch_aot_compile/61bda05feca29378847c32f031efa5c8dba258f38b0176a06a3e99e41df8ca50/inductor_cache/cp/ccpbzsub4elastnajeybt3zi7p2trow7jo4sdphzvzeq7wu5umph.py":49:27)
#loc53 = loc("in_out_ptr0"(#loc))
#loc54 = loc("in_ptr0"(#loc))
#loc55 = loc("in_ptr1"(#loc))
#loc56 = loc("in_ptr2"(#loc))
#loc57 = loc("out_ptr1"(#loc))
#loc58 = loc("xnumel"(#loc))
#loc59 = loc("r0_numel"(#loc))
#loc87 = loc("tmp12"(#loc30))
#loc106 = loc(callsite(#loc2 at #loc87))
module {
  tt.func public @triton_red_fused__to_copy_add_copy__fused_add_rms_norm_3(%in_out_ptr0: !tt.ptr<f16> {tt.divisibility = 16 : i32} loc("in_out_ptr0"(#loc)), %in_ptr0: !tt.ptr<f16> {tt.divisibility = 16 : i32} loc("in_ptr0"(#loc)), %in_ptr1: !tt.ptr<f16> {tt.divisibility = 16 : i32} loc("in_ptr1"(#loc)), %in_ptr2: !tt.ptr<f16> {tt.divisibility = 16 : i32} loc("in_ptr2"(#loc)), %out_ptr1: !tt.ptr<f16> {tt.divisibility = 16 : i32} loc("out_ptr1"(#loc)), %xnumel: i32 loc("xnumel"(#loc)), %r0_numel: i32 {tt.divisibility = 16 : i32} loc("r0_numel"(#loc))) attributes {noinline = false} {
    %tmp30 = arith.constant dense<0.000000e+00> : tensor<1x2048xf16> loc(#loc60)
    %cst = arith.constant dense<0.000000e+00> : tensor<2x2048xf16> loc(#loc2)
    %cst_0 = arith.constant dense<1.000000e+00> : tensor<1x2048xf32> loc(#loc2)
    %cst_1 = arith.constant dense<9.99999997E-7> : tensor<2x1xf32> loc(#loc2)
    %cst_2 = arith.constant dense<2.048000e+03> : tensor<2x1xf32> loc(#loc2)
    %cst_3 = arith.constant dense<2048> : tensor<2x1xi32> loc(#loc2)
    %cst_4 = arith.constant dense<2048> : tensor<1x2048xi32> loc(#loc2)
    %cst_5 = arith.constant dense<0.000000e+00> : tensor<2x2048xf32> loc(#loc2)
    %c2_i32 = arith.constant 2 : i32 loc(#loc2)
    %xoffset = tt.get_program_id x : i32 loc(#loc61)
    %xoffset_6 = arith.muli %xoffset, %c2_i32 : i32 loc(#loc62)
    %xindex = tt.make_range {end = 2 : i32, start = 0 : i32} : tensor<2xi32> loc(#loc63)
    %xindex_7 = tt.expand_dims %xindex {axis = 1 : i32} : tensor<2xi32> -> tensor<2x1xi32> loc(#loc64)
    %xindex_8 = tt.splat %xoffset_6 : i32 -> tensor<2x1xi32> loc(#loc65)
    %xindex_9 = arith.addi %xindex_8, %xindex_7 : tensor<2x1xi32> loc(#loc65)
    %xmask = tt.splat %xnumel : i32 -> tensor<2x1xi32> loc(#loc66)
    %xmask_10 = arith.cmpi slt, %xindex_9, %xmask : tensor<2x1xi32> loc(#loc66)
    %r0_base = tt.make_range {end = 2048 : i32, start = 0 : i32} : tensor<2048xi32> loc(#loc67)
    %r0_base_11 = tt.expand_dims %r0_base {axis = 0 : i32} : tensor<2048xi32> -> tensor<1x2048xi32> loc(#loc68)
    %r0_mask = arith.cmpi slt, %r0_base_11, %cst_4 : tensor<1x2048xi32> loc(#loc69)
    %tmp0 = arith.muli %xindex_9, %cst_3 : tensor<2x1xi32> loc(#loc70)
    %tmp0_12 = tt.broadcast %r0_base_11 : tensor<1x2048xi32> -> tensor<2x2048xi32> loc(#loc71)
    %tmp0_13 = tt.broadcast %tmp0 : tensor<2x1xi32> -> tensor<2x2048xi32> loc(#loc71)
    %tmp0_14 = arith.addi %tmp0_12, %tmp0_13 : tensor<2x2048xi32> loc(#loc71)
    %tmp0_15 = tt.splat %in_out_ptr0 : !tt.ptr<f16> -> tensor<2x2048x!tt.ptr<f16>> loc(#loc72)
    %tmp0_16 = tt.addptr %tmp0_15, %tmp0_14 : tensor<2x2048x!tt.ptr<f16>>, tensor<2x2048xi32> loc(#loc72)
    %tmp0_17 = tt.broadcast %r0_mask : tensor<1x2048xi1> -> tensor<2x2048xi1> loc(#loc73)
    %tmp0_18 = tt.broadcast %xmask_10 : tensor<2x1xi1> -> tensor<2x2048xi1> loc(#loc73)
    %tmp0_19 = arith.andi %tmp0_17, %tmp0_18 : tensor<2x2048xi1> loc(#loc73)
    %tmp0_20 = tt.load %tmp0_16, %tmp0_19, %cst evictionPolicy = evict_last : tensor<2x2048x!tt.ptr<f16>> loc(#loc74)
    %tmp0_21 = arith.extf %tmp0_20 : tensor<2x2048xf16> to tensor<2x2048xf32> loc(#loc75)
    %tmp2 = tt.splat %in_ptr0 : !tt.ptr<f16> -> tensor<2x2048x!tt.ptr<f16>> loc(#loc76)
    %tmp2_22 = tt.addptr %tmp2, %tmp0_14 : tensor<2x2048x!tt.ptr<f16>>, tensor<2x2048xi32> loc(#loc76)
    %tmp2_23 = tt.load %tmp2_22, %tmp0_19, %cst evictionPolicy = evict_last : tensor<2x2048x!tt.ptr<f16>> loc(#loc77)
    %tmp2_24 = arith.extf %tmp2_23 : tensor<2x2048xf16> to tensor<2x2048xf32> loc(#loc78)
    %tmp4 = tt.splat %in_ptr1 : !tt.ptr<f16> -> tensor<2x2048x!tt.ptr<f16>> loc(#loc79)
    %tmp4_25 = tt.addptr %tmp4, %tmp0_14 : tensor<2x2048x!tt.ptr<f16>>, tensor<2x2048xi32> loc(#loc79)
    %tmp4_26 = tt.load %tmp4_25, %tmp0_19, %cst evictionPolicy = evict_last : tensor<2x2048x!tt.ptr<f16>> loc(#loc80)
    %tmp4_27 = arith.extf %tmp4_26 : tensor<2x2048xf16> to tensor<2x2048xf32> loc(#loc81)
    %tmp6 = arith.addf %tmp2_24, %tmp4_27 : tensor<2x2048xf32> loc(#loc82)
    %tmp9 = arith.addf %tmp0_21, %tmp6 : tensor<2x2048xf32> loc(#loc83)
    %tmp10 = arith.mulf %tmp9, %tmp9 : tensor<2x2048xf32> loc(#loc84)
    %tmp13 = arith.addf %tmp10, %cst_5 : tensor<2x2048xf32> loc(#loc85)
    %_tmp12 = arith.select %tmp0_19, %tmp13, %cst_5 : tensor<2x2048xi1>, tensor<2x2048xf32> loc(#loc86)
    %tmp12 = "tt.reduce"(%_tmp12) <{axis = 1 : i32}> ({
    ^bb0(%tmp12_38: f32 loc(callsite(#loc2 at #loc87)), %tmp12_39: f32 loc(callsite(#loc2 at #loc87))):
      %tmp12_40 = arith.addf %tmp12_38, %tmp12_39 : f32 loc(#loc107)
      tt.reduce.return %tmp12_40 : f32 loc(#loc105)
    }) : (tensor<2x2048xf32>) -> tensor<2xf32> loc(#loc105)
    %tmp12_28 = tt.expand_dims %tmp12 {axis = 1 : i32} : tensor<2xf32> -> tensor<2x1xf32> loc(#loc88)
    %tmp14 = tt.load %tmp0_16, %tmp0_19, %cst evictionPolicy = evict_first : tensor<2x2048x!tt.ptr<f16>> loc(#loc89)
    %tmp14_29 = arith.extf %tmp14 : tensor<2x2048xf16> to tensor<2x2048xf32> loc(#loc90)
    %tmp16 = tt.load %tmp2_22, %tmp0_19, %cst evictionPolicy = evict_first : tensor<2x2048x!tt.ptr<f16>> loc(#loc91)
    %tmp16_30 = arith.extf %tmp16 : tensor<2x2048xf16> to tensor<2x2048xf32> loc(#loc92)
    %tmp18 = tt.load %tmp4_25, %tmp0_19, %cst evictionPolicy = evict_first : tensor<2x2048x!tt.ptr<f16>> loc(#loc93)
    %tmp18_31 = arith.extf %tmp18 : tensor<2x2048xf16> to tensor<2x2048xf32> loc(#loc94)
    %tmp30_32 = tt.splat %in_ptr2 : !tt.ptr<f16> -> tensor<1x2048x!tt.ptr<f16>> loc(#loc95)
    %tmp30_33 = tt.addptr %tmp30_32, %r0_base_11 : tensor<1x2048x!tt.ptr<f16>>, tensor<1x2048xi32> loc(#loc95)
    %tmp30_34 = tt.load %tmp30_33, %r0_mask, %tmp30 evictionPolicy = evict_last : tensor<1x2048x!tt.ptr<f16>> loc(#loc60)
    %tmp30_35 = arith.extf %tmp30_34 : tensor<1x2048xf16> to tensor<1x2048xf32> loc(#loc96)
    %tmp20 = arith.addf %tmp16_30, %tmp18_31 : tensor<2x2048xf32> loc(#loc97)
    %tmp23 = arith.addf %tmp14_29, %tmp20 : tensor<2x2048xf32> loc(#loc98)
    %tmp25 = arith.divf %tmp12_28, %cst_2 : tensor<2x1xf32> loc(#loc99)
    %tmp27 = arith.addf %tmp25, %cst_1 : tensor<2x1xf32> loc(#loc100)
    %tmp28 = tt.extern_elementwise %tmp27 {libname = "", libpath = "", pure = true, symbol = "__nv_rsqrtf"} : (tensor<2x1xf32>) -> tensor<2x1xf32> loc(#loc101)
    %tmp29 = tt.broadcast %tmp28 : tensor<2x1xf32> -> tensor<2x2048xf32> loc(#loc102)
    %tmp29_36 = arith.mulf %tmp23, %tmp29 : tensor<2x2048xf32> loc(#loc102)
    %tmp33 = arith.addf %tmp30_35, %cst_0 : tensor<1x2048xf32> loc(#loc103)
    %tmp34 = tt.broadcast %tmp33 : tensor<1x2048xf32> -> tensor<2x2048xf32> loc(#loc104)
    %tmp34_37 = arith.mulf %tmp29_36, %tmp34 : tensor<2x2048xf32> loc(#loc104)
    %0 = arith.truncf %tmp34_37 : tensor<2x2048xf32> to tensor<2x2048xf16> loc(#loc49)
    tt.store %tmp0_16, %0, %tmp0_19 : tensor<2x2048x!tt.ptr<f16>> loc(#loc49)
    %1 = tt.splat %out_ptr1 : !tt.ptr<f16> -> tensor<2x2048x!tt.ptr<f16>> loc(#loc50)
    %2 = tt.addptr %1, %tmp0_14 : tensor<2x2048x!tt.ptr<f16>>, tensor<2x2048xi32> loc(#loc50)
    tt.store %2, %tmp16, %tmp0_19 : tensor<2x2048x!tt.ptr<f16>> loc(#loc51)
    tt.return loc(#loc52)
  } loc(#loc)
} loc(#loc)
#loc1 = loc("/root/.cache/vllm/torch_compile_cache/torch_aot_compile/61bda05feca29378847c32f031efa5c8dba258f38b0176a06a3e99e41df8ca50/inductor_cache/cp/ccpbzsub4elastnajeybt3zi7p2trow7jo4sdphzvzeq7wu5umph.py":59:42)
#loc3 = loc("/root/.cache/vllm/torch_compile_cache/torch_aot_compile/61bda05feca29378847c32f031efa5c8dba258f38b0176a06a3e99e41df8ca50/inductor_cache/cp/ccpbzsub4elastnajeybt3zi7p2trow7jo4sdphzvzeq7wu5umph.py":22:28)
#loc4 = loc("/root/.cache/vllm/torch_compile_cache/torch_aot_compile/61bda05feca29378847c32f031efa5c8dba258f38b0176a06a3e99e41df8ca50/inductor_cache/cp/ccpbzsub4elastnajeybt3zi7p2trow7jo4sdphzvzeq7wu5umph.py":22:33)
#loc5 = loc("/root/.cache/vllm/torch_compile_cache/torch_aot_compile/61bda05feca29378847c32f031efa5c8dba258f38b0176a06a3e99e41df8ca50/inductor_cache/cp/ccpbzsub4elastnajeybt3zi7p2trow7jo4sdphzvzeq7wu5umph.py":23:36)
#loc6 = loc("/root/.cache/vllm/torch_compile_cache/torch_aot_compile/61bda05feca29378847c32f031efa5c8dba258f38b0176a06a3e99e41df8ca50/inductor_cache/cp/ccpbzsub4elastnajeybt3zi7p2trow7jo4sdphzvzeq7wu5umph.py":23:44)
#loc7 = loc("/root/.cache/vllm/torch_compile_cache/torch_aot_compile/61bda05feca29378847c32f031efa5c8dba258f38b0176a06a3e99e41df8ca50/inductor_cache/cp/ccpbzsub4elastnajeybt3zi7p2trow7jo4sdphzvzeq7wu5umph.py":23:23)
#loc8 = loc("/root/.cache/vllm/torch_compile_cache/torch_aot_compile/61bda05feca29378847c32f031efa5c8dba258f38b0176a06a3e99e41df8ca50/inductor_cache/cp/ccpbzsub4elastnajeybt3zi7p2trow7jo4sdphzvzeq7wu5umph.py":24:21)
#loc9 = loc("/root/.cache/vllm/torch_compile_cache/torch_aot_compile/61bda05feca29378847c32f031efa5c8dba258f38b0176a06a3e99e41df8ca50/inductor_cache/cp/ccpbzsub4elastnajeybt3zi7p2trow7jo4sdphzvzeq7wu5umph.py":25:27)
#loc10 = loc("/root/.cache/vllm/torch_compile_cache/torch_aot_compile/61bda05feca29378847c32f031efa5c8dba258f38b0176a06a3e99e41df8ca50/inductor_cache/cp/ccpbzsub4elastnajeybt3zi7p2trow7jo4sdphzvzeq7wu5umph.py":25:37)
#loc11 = loc("/root/.cache/vllm/torch_compile_cache/torch_aot_compile/61bda05feca29378847c32f031efa5c8dba258f38b0176a06a3e99e41df8ca50/inductor_cache/cp/ccpbzsub4elastnajeybt3zi7p2trow7jo4sdphzvzeq7wu5umph.py":31:29)
#loc12 = loc("/root/.cache/vllm/torch_compile_cache/torch_aot_compile/61bda05feca29378847c32f031efa5c8dba258f38b0176a06a3e99e41df8ca50/inductor_cache/cp/ccpbzsub4elastnajeybt3zi7p2trow7jo4sdphzvzeq7wu5umph.py":35:50)
#loc13 = loc("/root/.cache/vllm/torch_compile_cache/torch_aot_compile/61bda05feca29378847c32f031efa5c8dba258f38b0176a06a3e99e41df8ca50/inductor_cache/cp/ccpbzsub4elastnajeybt3zi7p2trow7jo4sdphzvzeq7wu5umph.py":35:45)
#loc14 = loc("/root/.cache/vllm/torch_compile_cache/torch_aot_compile/61bda05feca29378847c32f031efa5c8dba258f38b0176a06a3e99e41df8ca50/inductor_cache/cp/ccpbzsub4elastnajeybt3zi7p2trow7jo4sdphzvzeq7wu5umph.py":35:38)
#loc15 = loc("/root/.cache/vllm/torch_compile_cache/torch_aot_compile/61bda05feca29378847c32f031efa5c8dba258f38b0176a06a3e99e41df8ca50/inductor_cache/cp/ccpbzsub4elastnajeybt3zi7p2trow7jo4sdphzvzeq7wu5umph.py":35:65)
#loc16 = loc("/root/.cache/vllm/torch_compile_cache/torch_aot_compile/61bda05feca29378847c32f031efa5c8dba258f38b0176a06a3e99e41df8ca50/inductor_cache/cp/ccpbzsub4elastnajeybt3zi7p2trow7jo4sdphzvzeq7wu5umph.py":35:55)
#loc17 = loc("/root/.cache/vllm/torch_compile_cache/torch_aot_compile/61bda05feca29378847c32f031efa5c8dba258f38b0176a06a3e99e41df8ca50/inductor_cache/cp/ccpbzsub4elastnajeybt3zi7p2trow7jo4sdphzvzeq7wu5umph.py":35:116)
#loc18 = loc("/root/.cache/vllm/torch_compile_cache/torch_aot_compile/61bda05feca29378847c32f031efa5c8dba258f38b0176a06a3e99e41df8ca50/inductor_cache/cp/ccpbzsub4elastnajeybt3zi7p2trow7jo4sdphzvzeq7wu5umph.py":36:34)
#loc19 = loc("/root/.cache/vllm/torch_compile_cache/torch_aot_compile/61bda05feca29378847c32f031efa5c8dba258f38b0176a06a3e99e41df8ca50/inductor_cache/cp/ccpbzsub4elastnajeybt3zi7p2trow7jo4sdphzvzeq7wu5umph.py":36:51)
#loc20 = loc("/root/.cache/vllm/torch_compile_cache/torch_aot_compile/61bda05feca29378847c32f031efa5c8dba258f38b0176a06a3e99e41df8ca50/inductor_cache/cp/ccpbzsub4elastnajeybt3zi7p2trow7jo4sdphzvzeq7wu5umph.py":36:112)
#loc21 = loc("/root/.cache/vllm/torch_compile_cache/torch_aot_compile/61bda05feca29378847c32f031efa5c8dba258f38b0176a06a3e99e41df8ca50/inductor_cache/cp/ccpbzsub4elastnajeybt3zi7p2trow7jo4sdphzvzeq7wu5umph.py":37:34)
#loc22 = loc("/root/.cache/vllm/torch_compile_cache/torch_aot_compile/61bda05feca29378847c32f031efa5c8dba258f38b0176a06a3e99e41df8ca50/inductor_cache/cp/ccpbzsub4elastnajeybt3zi7p2trow7jo4sdphzvzeq7wu5umph.py":37:51)
#loc23 = loc("/root/.cache/vllm/torch_compile_cache/torch_aot_compile/61bda05feca29378847c32f031efa5c8dba258f38b0176a06a3e99e41df8ca50/inductor_cache/cp/ccpbzsub4elastnajeybt3zi7p2trow7jo4sdphzvzeq7wu5umph.py":37:112)
#loc24 = loc("/root/.cache/vllm/torch_compile_cache/torch_aot_compile/61bda05feca29378847c32f031efa5c8dba258f38b0176a06a3e99e41df8ca50/inductor_cache/cp/ccpbzsub4elastnajeybt3zi7p2trow7jo4sdphzvzeq7wu5umph.py":41:22)
#loc25 = loc("/root/.cache/vllm/torch_compile_cache/torch_aot_compile/61bda05feca29378847c32f031efa5c8dba258f38b0176a06a3e99e41df8ca50/inductor_cache/cp/ccpbzsub4elastnajeybt3zi7p2trow7jo4sdphzvzeq7wu5umph.py":44:22)
#loc26 = loc("/root/.cache/vllm/torch_compile_cache/torch_aot_compile/61bda05feca29378847c32f031efa5c8dba258f38b0176a06a3e99e41df8ca50/inductor_cache/cp/ccpbzsub4elastnajeybt3zi7p2trow7jo4sdphzvzeq7wu5umph.py":45:23)
#loc27 = loc("/root/.cache/vllm/torch_compile_cache/torch_aot_compile/61bda05feca29378847c32f031efa5c8dba258f38b0176a06a3e99e41df8ca50/inductor_cache/cp/ccpbzsub4elastnajeybt3zi7p2trow7jo4sdphzvzeq7wu5umph.py":47:25)
#loc28 = loc("/root/.cache/vllm/torch_compile_cache/torch_aot_compile/61bda05feca29378847c32f031efa5c8dba258f38b0176a06a3e99e41df8ca50/inductor_cache/cp/ccpbzsub4elastnajeybt3zi7p2trow7jo4sdphzvzeq7wu5umph.py":48:50)
#loc29 = loc("/usr/local/lib/python3.12/dist-packages/triton/language/standard.py":293:36)
#loc31 = loc("/usr/local/lib/python3.12/dist-packages/triton/language/standard.py":263:15)
#loc32 = loc("/root/.cache/vllm/torch_compile_cache/torch_aot_compile/61bda05feca29378847c32f031efa5c8dba258f38b0176a06a3e99e41df8ca50/inductor_cache/cp/ccpbzsub4elastnajeybt3zi7p2trow7jo4sdphzvzeq7wu5umph.py":49:30)
#loc33 = loc("/root/.cache/vllm/torch_compile_cache/torch_aot_compile/61bda05feca29378847c32f031efa5c8dba258f38b0176a06a3e99e41df8ca50/inductor_cache/cp/ccpbzsub4elastnajeybt3zi7p2trow7jo4sdphzvzeq7wu5umph.py":56:56)
#loc34 = loc("/root/.cache/vllm/torch_compile_cache/torch_aot_compile/61bda05feca29378847c32f031efa5c8dba258f38b0176a06a3e99e41df8ca50/inductor_cache/cp/ccpbzsub4elastnajeybt3zi7p2trow7jo4sdphzvzeq7wu5umph.py":56:118)
#loc35 = loc("/root/.cache/vllm/torch_compile_cache/torch_aot_compile/61bda05feca29378847c32f031efa5c8dba258f38b0176a06a3e99e41df8ca50/inductor_cache/cp/ccpbzsub4elastnajeybt3zi7p2trow7jo4sdphzvzeq7wu5umph.py":57:52)
#loc36 = loc("/root/.cache/vllm/torch_compile_cache/torch_aot_compile/61bda05feca29378847c32f031efa5c8dba258f38b0176a06a3e99e41df8ca50/inductor_cache/cp/ccpbzsub4elastnajeybt3zi7p2trow7jo4sdphzvzeq7wu5umph.py":57:114)
#loc37 = loc("/root/.cache/vllm/torch_compile_cache/torch_aot_compile/61bda05feca29378847c32f031efa5c8dba258f38b0176a06a3e99e41df8ca50/inductor_cache/cp/ccpbzsub4elastnajeybt3zi7p2trow7jo4sdphzvzeq7wu5umph.py":58:52)
#loc38 = loc("/root/.cache/vllm/torch_compile_cache/torch_aot_compile/61bda05feca29378847c32f031efa5c8dba258f38b0176a06a3e99e41df8ca50/inductor_cache/cp/ccpbzsub4elastnajeybt3zi7p2trow7jo4sdphzvzeq7wu5umph.py":58:114)
#loc39 = loc("/root/.cache/vllm/torch_compile_cache/torch_aot_compile/61bda05feca29378847c32f031efa5c8dba258f38b0176a06a3e99e41df8ca50/inductor_cache/cp/ccpbzsub4elastnajeybt3zi7p2trow7jo4sdphzvzeq7wu5umph.py":59:35)
#loc40 = loc("/root/.cache/vllm/torch_compile_cache/torch_aot_compile/61bda05feca29378847c32f031efa5c8dba258f38b0176a06a3e99e41df8ca50/inductor_cache/cp/ccpbzsub4elastnajeybt3zi7p2trow7jo4sdphzvzeq7wu5umph.py":59:95)
#loc41 = loc("/root/.cache/vllm/torch_compile_cache/torch_aot_compile/61bda05feca29378847c32f031efa5c8dba258f38b0176a06a3e99e41df8ca50/inductor_cache/cp/ccpbzsub4elastnajeybt3zi7p2trow7jo4sdphzvzeq7wu5umph.py":63:24)
#loc42 = loc("/root/.cache/vllm/torch_compile_cache/torch_aot_compile/61bda05feca29378847c32f031efa5c8dba258f38b0176a06a3e99e41df8ca50/inductor_cache/cp/ccpbzsub4elastnajeybt3zi7p2trow7jo4sdphzvzeq7wu5umph.py":66:24)
#loc43 = loc("/root/.cache/vllm/torch_compile_cache/torch_aot_compile/61bda05feca29378847c32f031efa5c8dba258f38b0176a06a3e99e41df8ca50/inductor_cache/cp/ccpbzsub4elastnajeybt3zi7p2trow7jo4sdphzvzeq7wu5umph.py":68:25)
#loc44 = loc("/root/.cache/vllm/torch_compile_cache/torch_aot_compile/61bda05feca29378847c32f031efa5c8dba258f38b0176a06a3e99e41df8ca50/inductor_cache/cp/ccpbzsub4elastnajeybt3zi7p2trow7jo4sdphzvzeq7wu5umph.py":70:24)
#loc45 = loc("/root/.cache/vllm/torch_compile_cache/torch_aot_compile/61bda05feca29378847c32f031efa5c8dba258f38b0176a06a3e99e41df8ca50/inductor_cache/cp/ccpbzsub4elastnajeybt3zi7p2trow7jo4sdphzvzeq7wu5umph.py":71:32)
#loc46 = loc("/root/.cache/vllm/torch_compile_cache/torch_aot_compile/61bda05feca29378847c32f031efa5c8dba258f38b0176a06a3e99e41df8ca50/inductor_cache/cp/ccpbzsub4elastnajeybt3zi7p2trow7jo4sdphzvzeq7wu5umph.py":72:24)
#loc47 = loc("/root/.cache/vllm/torch_compile_cache/torch_aot_compile/61bda05feca29378847c32f031efa5c8dba258f38b0176a06a3e99e41df8ca50/inductor_cache/cp/ccpbzsub4elastnajeybt3zi7p2trow7jo4sdphzvzeq7wu5umph.py":75:24)
#loc48 = loc("/root/.cache/vllm/torch_compile_cache/torch_aot_compile/61bda05feca29378847c32f031efa5c8dba258f38b0176a06a3e99e41df8ca50/inductor_cache/cp/ccpbzsub4elastnajeybt3zi7p2trow7jo4sdphzvzeq7wu5umph.py":76:24)
#loc49 = loc("/root/.cache/vllm/torch_compile_cache/torch_aot_compile/61bda05feca29378847c32f031efa5c8dba258f38b0176a06a3e99e41df8ca50/inductor_cache/cp/ccpbzsub4elastnajeybt3zi7p2trow7jo4sdphzvzeq7wu5umph.py":78:56)
#loc50 = loc("/root/.cache/vllm/torch_compile_cache/torch_aot_compile/61bda05feca29378847c32f031efa5c8dba258f38b0176a06a3e99e41df8ca50/inductor_cache/cp/ccpbzsub4elastnajeybt3zi7p2trow7jo4sdphzvzeq7wu5umph.py":79:29)
#loc51 = loc("/root/.cache/vllm/torch_compile_cache/torch_aot_compile/61bda05feca29378847c32f031efa5c8dba258f38b0176a06a3e99e41df8ca50/inductor_cache/cp/ccpbzsub4elastnajeybt3zi7p2trow7jo4sdphzvzeq7wu5umph.py":79:53)
#loc52 = loc("/root/.cache/vllm/torch_compile_cache/torch_aot_compile/61bda05feca29378847c32f031efa5c8dba258f38b0176a06a3e99e41df8ca50/inductor_cache/cp/ccpbzsub4elastnajeybt3zi7p2trow7jo4sdphzvzeq7wu5umph.py":50:4)
#loc60 = loc("tmp30"(#loc1))
#loc61 = loc("xoffset"(#loc3))
#loc62 = loc("xoffset"(#loc4))
#loc63 = loc("xindex"(#loc5))
#loc64 = loc("xindex"(#loc6))
#loc65 = loc("xindex"(#loc7))
#loc66 = loc("xmask"(#loc8))
#loc67 = loc("r0_base"(#loc9))
#loc68 = loc("r0_base"(#loc10))
#loc69 = loc("r0_mask"(#loc11))
#loc70 = loc("tmp0"(#loc12))
#loc71 = loc("tmp0"(#loc13))
#loc72 = loc("tmp0"(#loc14))
#loc73 = loc("tmp0"(#loc15))
#loc74 = loc("tmp0"(#loc16))
#loc75 = loc("tmp0"(#loc17))
#loc76 = loc("tmp2"(#loc18))
#loc77 = loc("tmp2"(#loc19))
#loc78 = loc("tmp2"(#loc20))
#loc79 = loc("tmp4"(#loc21))
#loc80 = loc("tmp4"(#loc22))
#loc81 = loc("tmp4"(#loc23))
#loc82 = loc("tmp6"(#loc24))
#loc83 = loc("tmp9"(#loc25))
#loc84 = loc("tmp10"(#loc26))
#loc85 = loc("tmp13"(#loc27))
#loc86 = loc("_tmp12"(#loc28))
#loc88 = loc("tmp12"(#loc32))
#loc89 = loc("tmp14"(#loc33))
#loc90 = loc("tmp14"(#loc34))
#loc91 = loc("tmp16"(#loc35))
#loc92 = loc("tmp16"(#loc36))
#loc93 = loc("tmp18"(#loc37))
#loc94 = loc("tmp18"(#loc38))
#loc95 = loc("tmp30"(#loc39))
#loc96 = loc("tmp30"(#loc40))
#loc97 = loc("tmp20"(#loc41))
#loc98 = loc("tmp23"(#loc42))
#loc99 = loc("tmp25"(#loc43))
#loc100 = loc("tmp27"(#loc44))
#loc101 = loc("tmp28"(#loc45))
#loc102 = loc("tmp29"(#loc46))
#loc103 = loc("tmp33"(#loc47))
#loc104 = loc("tmp34"(#loc48))
#loc105 = loc(callsite(#loc29 at #loc87))
#loc107 = loc(callsite(#loc31 at #loc105))
