#loc = loc("/root/.cache/vllm/torch_compile_cache/torch_aot_compile/61bda05feca29378847c32f031efa5c8dba258f38b0176a06a3e99e41df8ca50/inductor_cache/x5/cx5pa6qvisqwahnlvjuhtp7sj7eq6xnk6bor7n3ehpv3asdmqino.py":21:0)
#loc1 = loc(unknown)
#loc34 = loc("/root/.cache/vllm/torch_compile_cache/torch_aot_compile/61bda05feca29378847c32f031efa5c8dba258f38b0176a06a3e99e41df8ca50/inductor_cache/x5/cx5pa6qvisqwahnlvjuhtp7sj7eq6xnk6bor7n3ehpv3asdmqino.py":51:29)
#loc62 = loc("/root/.cache/vllm/torch_compile_cache/torch_aot_compile/61bda05feca29378847c32f031efa5c8dba258f38b0176a06a3e99e41df8ca50/inductor_cache/x5/cx5pa6qvisqwahnlvjuhtp7sj7eq6xnk6bor7n3ehpv3asdmqino.py":77:31)
#loc67 = loc("in_ptr0"(#loc))
#loc68 = loc("out_ptr0"(#loc))
#loc69 = loc("out_ptr1"(#loc))
#loc70 = loc("xnumel_0"(#loc))
#loc71 = loc("xnumel_1"(#loc))
#loc98 = loc("tmp4"(#loc34))
#loc120 = loc("tmp10"(#loc62))
#loc127 = loc(callsite(#loc1 at #loc98))
#loc129 = loc(callsite(#loc1 at #loc120))
module {
  tt.func public @triton_red_fused_7(%in_ptr0: !tt.ptr<f16> {tt.divisibility = 16 : i32} loc("in_ptr0"(#loc)), %out_ptr0: !tt.ptr<f32> {tt.divisibility = 16 : i32} loc("out_ptr0"(#loc)), %out_ptr1: !tt.ptr<f32> {tt.divisibility = 16 : i32} loc("out_ptr1"(#loc)), %xnumel_0: i32 loc("xnumel_0"(#loc)), %xnumel_1: i32 loc("xnumel_1"(#loc))) attributes {noinline = false} {
    %c63_i32 = arith.constant 63 : i32 loc(#loc1)
    %cst = arith.constant dense<0.000000e+00> : tensor<64x64xf16> loc(#loc1)
    %c256_i32 = arith.constant 256 : i32 loc(#loc1)
    %c0_i32 = arith.constant 0 : i32 loc(#loc1)
    %cst_0 = arith.constant dense<4096> : tensor<1x64xi32> loc(#loc1)
    %cst_1 = arith.constant dense<4608> : tensor<64x1xi32> loc(#loc1)
    %cst_2 = arith.constant dense<512> : tensor<64x1xi32> loc(#loc1)
    %cst_3 = arith.constant dense<256> : tensor<1x64xi32> loc(#loc1)
    %cst_4 = arith.constant dense<0.000000e+00> : tensor<64x64xf32> loc(#loc1)
    %cst_5 = arith.constant dense<8> : tensor<64x1xi32> loc(#loc1)
    %c64_i32 = arith.constant 64 : i32 loc(#loc1)
    %pid = tt.get_program_id x : i32 loc(#loc72)
    %num_xblocks_0 = arith.addi %xnumel_0, %c63_i32 : i32 loc(#loc122)
    %num_xblocks_0_6 = arith.divsi %num_xblocks_0, %c64_i32 : i32 loc(#loc123)
    %num_xblocks_1 = arith.addi %xnumel_1, %c63_i32 : i32 loc(#loc124)
    %num_xblocks_1_7 = arith.divsi %num_xblocks_1, %c64_i32 : i32 loc(#loc125)
    %num_xblocks_1_8 = arith.addi %num_xblocks_0_6, %num_xblocks_1_7 : i32 loc(#loc75)
    %0 = arith.cmpi slt, %pid, %num_xblocks_0_6 : i32 loc(#loc8)
    scf.if %0 {
      %xoffset = arith.muli %pid, %c64_i32 : i32 loc(#loc76)
      %xindex = tt.make_range {end = 64 : i32, start = 0 : i32} : tensor<64xi32> loc(#loc77)
      %xindex_9 = tt.expand_dims %xindex {axis = 1 : i32} : tensor<64xi32> -> tensor<64x1xi32> loc(#loc78)
      %xindex_10 = tt.splat %xoffset : i32 -> tensor<64x1xi32> loc(#loc79)
      %xindex_11 = arith.addi %xindex_10, %xindex_9 : tensor<64x1xi32> loc(#loc79)
      %xmask = tt.splat %xnumel_0 : i32 -> tensor<64x1xi32> loc(#loc80)
      %xmask_12 = arith.cmpi slt, %xindex_11, %xmask : tensor<64x1xi32> loc(#loc80)
      %r0_base = tt.expand_dims %xindex {axis = 0 : i32} : tensor<64xi32> -> tensor<1x64xi32> loc(#loc81)
      %x0 = arith.remsi %xindex_11, %cst_5 : tensor<64x1xi32> loc(#loc82)
      %x1 = arith.divsi %xindex_11, %cst_5 : tensor<64x1xi32> loc(#loc83)
      %_tmp4 = scf.for %r0_offset = %c0_i32 to %c256_i32 step %c64_i32 iter_args(%_tmp4_14 = %cst_4) -> (tensor<64x64xf32>)  : i32 {
        %r0_index = tt.splat %r0_offset : i32 -> tensor<1x64xi32> loc(#loc85)
        %r0_index_15 = arith.addi %r0_index, %r0_base : tensor<1x64xi32> loc(#loc85)
        %r0_mask = arith.cmpi slt, %r0_index_15, %cst_3 : tensor<1x64xi32> loc(#loc86)
        %tmp0 = arith.muli %x0, %cst_2 : tensor<64x1xi32> loc(#loc87)
        %tmp0_16 = tt.broadcast %r0_index_15 : tensor<1x64xi32> -> tensor<64x64xi32> loc(#loc88)
        %tmp0_17 = tt.broadcast %tmp0 : tensor<64x1xi32> -> tensor<64x64xi32> loc(#loc88)
        %tmp0_18 = arith.addi %tmp0_16, %tmp0_17 : tensor<64x64xi32> loc(#loc88)
        %tmp0_19 = arith.muli %x1, %cst_1 : tensor<64x1xi32> loc(#loc89)
        %tmp0_20 = tt.broadcast %tmp0_19 : tensor<64x1xi32> -> tensor<64x64xi32> loc(#loc90)
        %tmp0_21 = arith.addi %tmp0_18, %tmp0_20 : tensor<64x64xi32> loc(#loc90)
        %tmp0_22 = tt.splat %in_ptr0 : !tt.ptr<f16> -> tensor<64x64x!tt.ptr<f16>> loc(#loc91)
        %tmp0_23 = tt.addptr %tmp0_22, %tmp0_21 : tensor<64x64x!tt.ptr<f16>>, tensor<64x64xi32> loc(#loc91)
        %tmp0_24 = tt.broadcast %r0_mask : tensor<1x64xi1> -> tensor<64x64xi1> loc(#loc92)
        %tmp0_25 = tt.broadcast %xmask_12 : tensor<64x1xi1> -> tensor<64x64xi1> loc(#loc92)
        %tmp0_26 = arith.andi %tmp0_24, %tmp0_25 : tensor<64x64xi1> loc(#loc92)
        %tmp0_27 = tt.load %tmp0_23, %tmp0_26, %cst evictionPolicy = evict_first : tensor<64x64x!tt.ptr<f16>> loc(#loc93)
        %tmp0_28 = arith.extf %tmp0_27 : tensor<64x64xf16> to tensor<64x64xf32> loc(#loc94)
        %tmp2 = arith.mulf %tmp0_28, %tmp0_28 : tensor<64x64xf32> loc(#loc95)
        %tmp5 = arith.addf %_tmp4_14, %tmp2 : tensor<64x64xf32> loc(#loc96)
        %_tmp4_29 = arith.select %tmp0_26, %tmp5, %_tmp4_14 : tensor<64x64xi1>, tensor<64x64xf32> loc(#loc97)
        scf.yield %_tmp4_29 : tensor<64x64xf32> loc(#loc32)
      } loc(#loc84)
      %tmp4 = "tt.reduce"(%_tmp4) <{axis = 1 : i32}> ({
      ^bb0(%tmp4_14: f32 loc(callsite(#loc1 at #loc98)), %tmp4_15: f32 loc(callsite(#loc1 at #loc98))):
        %tmp4_16 = arith.addf %tmp4_14, %tmp4_15 : f32 loc(#loc130)
        tt.reduce.return %tmp4_16 : f32 loc(#loc126)
      }) : (tensor<64x64xf32>) -> tensor<64xf32> loc(#loc126)
      %tmp4_13 = tt.expand_dims %tmp4 {axis = 1 : i32} : tensor<64xf32> -> tensor<64x1xf32> loc(#loc99)
      %1 = tt.splat %out_ptr0 : !tt.ptr<f32> -> tensor<64x1x!tt.ptr<f32>> loc(#loc37)
      %2 = tt.addptr %1, %xindex_11 : tensor<64x1x!tt.ptr<f32>>, tensor<64x1xi32> loc(#loc37)
      tt.store %2, %tmp4_13, %xmask_12 : tensor<64x1x!tt.ptr<f32>> loc(#loc38)
    } else {
      %1 = arith.cmpi slt, %pid, %num_xblocks_1_8 : i32 loc(#loc39)
      scf.if %1 {
        %pid_offset = arith.subi %pid, %num_xblocks_0_6 : i32 loc(#loc100)
        %xoffset = arith.muli %pid_offset, %c64_i32 : i32 loc(#loc101)
        %xindex = tt.make_range {end = 64 : i32, start = 0 : i32} : tensor<64xi32> loc(#loc102)
        %xindex_9 = tt.expand_dims %xindex {axis = 1 : i32} : tensor<64xi32> -> tensor<64x1xi32> loc(#loc103)
        %xindex_10 = tt.splat %xoffset : i32 -> tensor<64x1xi32> loc(#loc104)
        %xindex_11 = arith.addi %xindex_10, %xindex_9 : tensor<64x1xi32> loc(#loc104)
        %xmask = tt.splat %xnumel_1 : i32 -> tensor<64x1xi32> loc(#loc105)
        %xmask_12 = arith.cmpi slt, %xindex_11, %xmask : tensor<64x1xi32> loc(#loc105)
        %r0_base = tt.expand_dims %xindex {axis = 0 : i32} : tensor<64xi32> -> tensor<1x64xi32> loc(#loc106)
        %_tmp10 = scf.for %r0_offset = %c0_i32 to %c256_i32 step %c64_i32 iter_args(%_tmp10_14 = %cst_4) -> (tensor<64x64xf32>)  : i32 {
          %r0_index = tt.splat %r0_offset : i32 -> tensor<1x64xi32> loc(#loc108)
          %r0_index_15 = arith.addi %r0_index, %r0_base : tensor<1x64xi32> loc(#loc108)
          %r0_mask = arith.cmpi slt, %r0_index_15, %cst_3 : tensor<1x64xi32> loc(#loc109)
          %tmp6 = arith.addi %r0_index_15, %cst_0 : tensor<1x64xi32> loc(#loc110)
          %tmp6_16 = arith.muli %xindex_11, %cst_1 : tensor<64x1xi32> loc(#loc111)
          %tmp6_17 = tt.broadcast %tmp6 : tensor<1x64xi32> -> tensor<64x64xi32> loc(#loc112)
          %tmp6_18 = tt.broadcast %tmp6_16 : tensor<64x1xi32> -> tensor<64x64xi32> loc(#loc112)
          %tmp6_19 = arith.addi %tmp6_17, %tmp6_18 : tensor<64x64xi32> loc(#loc112)
          %tmp6_20 = tt.splat %in_ptr0 : !tt.ptr<f16> -> tensor<64x64x!tt.ptr<f16>> loc(#loc113)
          %tmp6_21 = tt.addptr %tmp6_20, %tmp6_19 : tensor<64x64x!tt.ptr<f16>>, tensor<64x64xi32> loc(#loc113)
          %tmp6_22 = tt.broadcast %r0_mask : tensor<1x64xi1> -> tensor<64x64xi1> loc(#loc114)
          %tmp6_23 = tt.broadcast %xmask_12 : tensor<64x1xi1> -> tensor<64x64xi1> loc(#loc114)
          %tmp6_24 = arith.andi %tmp6_22, %tmp6_23 : tensor<64x64xi1> loc(#loc114)
          %tmp6_25 = tt.load %tmp6_21, %tmp6_24, %cst evictionPolicy = evict_first : tensor<64x64x!tt.ptr<f16>> loc(#loc115)
          %tmp6_26 = arith.extf %tmp6_25 : tensor<64x64xf16> to tensor<64x64xf32> loc(#loc116)
          %tmp8 = arith.mulf %tmp6_26, %tmp6_26 : tensor<64x64xf32> loc(#loc117)
          %tmp11 = arith.addf %_tmp10_14, %tmp8 : tensor<64x64xf32> loc(#loc118)
          %_tmp10_27 = arith.select %tmp6_24, %tmp11, %_tmp10_14 : tensor<64x64xi1>, tensor<64x64xf32> loc(#loc119)
          scf.yield %_tmp10_27 : tensor<64x64xf32> loc(#loc61)
        } loc(#loc107)
        %tmp10 = "tt.reduce"(%_tmp10) <{axis = 1 : i32}> ({
        ^bb0(%tmp10_14: f32 loc(callsite(#loc1 at #loc120)), %tmp10_15: f32 loc(callsite(#loc1 at #loc120))):
          %tmp10_16 = arith.addf %tmp10_14, %tmp10_15 : f32 loc(#loc131)
          tt.reduce.return %tmp10_16 : f32 loc(#loc128)
        }) : (tensor<64x64xf32>) -> tensor<64xf32> loc(#loc128)
        %tmp10_13 = tt.expand_dims %tmp10 {axis = 1 : i32} : tensor<64xf32> -> tensor<64x1xf32> loc(#loc121)
        %2 = tt.splat %out_ptr1 : !tt.ptr<f32> -> tensor<64x1x!tt.ptr<f32>> loc(#loc64)
        %3 = tt.addptr %2, %xindex_11 : tensor<64x1x!tt.ptr<f32>>, tensor<64x1xi32> loc(#loc64)
        tt.store %3, %tmp10_13, %xmask_12 : tensor<64x1x!tt.ptr<f32>> loc(#loc65)
      } loc(#loc40)
    } loc(#loc9)
    tt.return loc(#loc66)
  } loc(#loc)
} loc(#loc)
#loc2 = loc("/root/.cache/vllm/torch_compile_cache/torch_aot_compile/61bda05feca29378847c32f031efa5c8dba258f38b0176a06a3e99e41df8ca50/inductor_cache/x5/cx5pa6qvisqwahnlvjuhtp7sj7eq6xnk6bor7n3ehpv3asdmqino.py":22:24)
#loc3 = loc("/usr/local/lib/python3.12/dist-packages/triton/language/standard.py":43:17)
#loc4 = loc("/root/.cache/vllm/torch_compile_cache/torch_aot_compile/61bda05feca29378847c32f031efa5c8dba258f38b0176a06a3e99e41df8ca50/inductor_cache/x5/cx5pa6qvisqwahnlvjuhtp7sj7eq6xnk6bor7n3ehpv3asdmqino.py":23:38)
#loc5 = loc("/usr/local/lib/python3.12/dist-packages/triton/language/standard.py":43:30)
#loc6 = loc("/root/.cache/vllm/torch_compile_cache/torch_aot_compile/61bda05feca29378847c32f031efa5c8dba258f38b0176a06a3e99e41df8ca50/inductor_cache/x5/cx5pa6qvisqwahnlvjuhtp7sj7eq6xnk6bor7n3ehpv3asdmqino.py":24:54)
#loc7 = loc("/root/.cache/vllm/torch_compile_cache/torch_aot_compile/61bda05feca29378847c32f031efa5c8dba258f38b0176a06a3e99e41df8ca50/inductor_cache/x5/cx5pa6qvisqwahnlvjuhtp7sj7eq6xnk6bor7n3ehpv3asdmqino.py":24:36)
#loc8 = loc("/root/.cache/vllm/torch_compile_cache/torch_aot_compile/61bda05feca29378847c32f031efa5c8dba258f38b0176a06a3e99e41df8ca50/inductor_cache/x5/cx5pa6qvisqwahnlvjuhtp7sj7eq6xnk6bor7n3ehpv3asdmqino.py":25:13)
#loc9 = loc("/root/.cache/vllm/torch_compile_cache/torch_aot_compile/61bda05feca29378847c32f031efa5c8dba258f38b0176a06a3e99e41df8ca50/inductor_cache/x5/cx5pa6qvisqwahnlvjuhtp7sj7eq6xnk6bor7n3ehpv3asdmqino.py":25:7)
#loc10 = loc("/root/.cache/vllm/torch_compile_cache/torch_aot_compile/61bda05feca29378847c32f031efa5c8dba258f38b0176a06a3e99e41df8ca50/inductor_cache/x5/cx5pa6qvisqwahnlvjuhtp7sj7eq6xnk6bor7n3ehpv3asdmqino.py":30:31)
#loc11 = loc("/root/.cache/vllm/torch_compile_cache/torch_aot_compile/61bda05feca29378847c32f031efa5c8dba258f38b0176a06a3e99e41df8ca50/inductor_cache/x5/cx5pa6qvisqwahnlvjuhtp7sj7eq6xnk6bor7n3ehpv3asdmqino.py":31:40)
#loc12 = loc("/root/.cache/vllm/torch_compile_cache/torch_aot_compile/61bda05feca29378847c32f031efa5c8dba258f38b0176a06a3e99e41df8ca50/inductor_cache/x5/cx5pa6qvisqwahnlvjuhtp7sj7eq6xnk6bor7n3ehpv3asdmqino.py":31:48)
#loc13 = loc("/root/.cache/vllm/torch_compile_cache/torch_aot_compile/61bda05feca29378847c32f031efa5c8dba258f38b0176a06a3e99e41df8ca50/inductor_cache/x5/cx5pa6qvisqwahnlvjuhtp7sj7eq6xnk6bor7n3ehpv3asdmqino.py":31:27)
#loc14 = loc("/root/.cache/vllm/torch_compile_cache/torch_aot_compile/61bda05feca29378847c32f031efa5c8dba258f38b0176a06a3e99e41df8ca50/inductor_cache/x5/cx5pa6qvisqwahnlvjuhtp7sj7eq6xnk6bor7n3ehpv3asdmqino.py":32:25)
#loc15 = loc("/root/.cache/vllm/torch_compile_cache/torch_aot_compile/61bda05feca29378847c32f031efa5c8dba258f38b0176a06a3e99e41df8ca50/inductor_cache/x5/cx5pa6qvisqwahnlvjuhtp7sj7eq6xnk6bor7n3ehpv3asdmqino.py":33:41)
#loc16 = loc("/root/.cache/vllm/torch_compile_cache/torch_aot_compile/61bda05feca29378847c32f031efa5c8dba258f38b0176a06a3e99e41df8ca50/inductor_cache/x5/cx5pa6qvisqwahnlvjuhtp7sj7eq6xnk6bor7n3ehpv3asdmqino.py":35:23)
#loc17 = loc("/root/.cache/vllm/torch_compile_cache/torch_aot_compile/61bda05feca29378847c32f031efa5c8dba258f38b0176a06a3e99e41df8ca50/inductor_cache/x5/cx5pa6qvisqwahnlvjuhtp7sj7eq6xnk6bor7n3ehpv3asdmqino.py":36:23)
#loc18 = loc("/root/.cache/vllm/torch_compile_cache/torch_aot_compile/61bda05feca29378847c32f031efa5c8dba258f38b0176a06a3e99e41df8ca50/inductor_cache/x5/cx5pa6qvisqwahnlvjuhtp7sj7eq6xnk6bor7n3ehpv3asdmqino.py":39:47)
#loc19 = loc("/root/.cache/vllm/torch_compile_cache/torch_aot_compile/61bda05feca29378847c32f031efa5c8dba258f38b0176a06a3e99e41df8ca50/inductor_cache/x5/cx5pa6qvisqwahnlvjuhtp7sj7eq6xnk6bor7n3ehpv3asdmqino.py":40:35)
#loc20 = loc("/root/.cache/vllm/torch_compile_cache/torch_aot_compile/61bda05feca29378847c32f031efa5c8dba258f38b0176a06a3e99e41df8ca50/inductor_cache/x5/cx5pa6qvisqwahnlvjuhtp7sj7eq6xnk6bor7n3ehpv3asdmqino.py":41:33)
#loc21 = loc("/root/.cache/vllm/torch_compile_cache/torch_aot_compile/61bda05feca29378847c32f031efa5c8dba258f38b0176a06a3e99e41df8ca50/inductor_cache/x5/cx5pa6qvisqwahnlvjuhtp7sj7eq6xnk6bor7n3ehpv3asdmqino.py":45:49)
#loc22 = loc("/root/.cache/vllm/torch_compile_cache/torch_aot_compile/61bda05feca29378847c32f031efa5c8dba258f38b0176a06a3e99e41df8ca50/inductor_cache/x5/cx5pa6qvisqwahnlvjuhtp7sj7eq6xnk6bor7n3ehpv3asdmqino.py":45:45)
#loc23 = loc("/root/.cache/vllm/torch_compile_cache/torch_aot_compile/61bda05feca29378847c32f031efa5c8dba258f38b0176a06a3e99e41df8ca50/inductor_cache/x5/cx5pa6qvisqwahnlvjuhtp7sj7eq6xnk6bor7n3ehpv3asdmqino.py":45:59)
#loc24 = loc("/root/.cache/vllm/torch_compile_cache/torch_aot_compile/61bda05feca29378847c32f031efa5c8dba258f38b0176a06a3e99e41df8ca50/inductor_cache/x5/cx5pa6qvisqwahnlvjuhtp7sj7eq6xnk6bor7n3ehpv3asdmqino.py":45:54)
#loc25 = loc("/root/.cache/vllm/torch_compile_cache/torch_aot_compile/61bda05feca29378847c32f031efa5c8dba258f38b0176a06a3e99e41df8ca50/inductor_cache/x5/cx5pa6qvisqwahnlvjuhtp7sj7eq6xnk6bor7n3ehpv3asdmqino.py":45:38)
#loc26 = loc("/root/.cache/vllm/torch_compile_cache/torch_aot_compile/61bda05feca29378847c32f031efa5c8dba258f38b0176a06a3e99e41df8ca50/inductor_cache/x5/cx5pa6qvisqwahnlvjuhtp7sj7eq6xnk6bor7n3ehpv3asdmqino.py":45:74)
#loc27 = loc("/root/.cache/vllm/torch_compile_cache/torch_aot_compile/61bda05feca29378847c32f031efa5c8dba258f38b0176a06a3e99e41df8ca50/inductor_cache/x5/cx5pa6qvisqwahnlvjuhtp7sj7eq6xnk6bor7n3ehpv3asdmqino.py":45:64)
#loc28 = loc("/root/.cache/vllm/torch_compile_cache/torch_aot_compile/61bda05feca29378847c32f031efa5c8dba258f38b0176a06a3e99e41df8ca50/inductor_cache/x5/cx5pa6qvisqwahnlvjuhtp7sj7eq6xnk6bor7n3ehpv3asdmqino.py":45:126)
#loc29 = loc("/root/.cache/vllm/torch_compile_cache/torch_aot_compile/61bda05feca29378847c32f031efa5c8dba258f38b0176a06a3e99e41df8ca50/inductor_cache/x5/cx5pa6qvisqwahnlvjuhtp7sj7eq6xnk6bor7n3ehpv3asdmqino.py":47:26)
#loc30 = loc("/root/.cache/vllm/torch_compile_cache/torch_aot_compile/61bda05feca29378847c32f031efa5c8dba258f38b0176a06a3e99e41df8ca50/inductor_cache/x5/cx5pa6qvisqwahnlvjuhtp7sj7eq6xnk6bor7n3ehpv3asdmqino.py":49:27)
#loc31 = loc("/root/.cache/vllm/torch_compile_cache/torch_aot_compile/61bda05feca29378847c32f031efa5c8dba258f38b0176a06a3e99e41df8ca50/inductor_cache/x5/cx5pa6qvisqwahnlvjuhtp7sj7eq6xnk6bor7n3ehpv3asdmqino.py":50:52)
#loc32 = loc("/root/.cache/vllm/torch_compile_cache/torch_aot_compile/61bda05feca29378847c32f031efa5c8dba258f38b0176a06a3e99e41df8ca50/inductor_cache/x5/cx5pa6qvisqwahnlvjuhtp7sj7eq6xnk6bor7n3ehpv3asdmqino.py":50:12)
#loc33 = loc("/usr/local/lib/python3.12/dist-packages/triton/language/standard.py":293:36)
#loc35 = loc("/usr/local/lib/python3.12/dist-packages/triton/language/standard.py":263:15)
#loc36 = loc("/root/.cache/vllm/torch_compile_cache/torch_aot_compile/61bda05feca29378847c32f031efa5c8dba258f38b0176a06a3e99e41df8ca50/inductor_cache/x5/cx5pa6qvisqwahnlvjuhtp7sj7eq6xnk6bor7n3ehpv3asdmqino.py":51:32)
#loc37 = loc("/root/.cache/vllm/torch_compile_cache/torch_aot_compile/61bda05feca29378847c32f031efa5c8dba258f38b0176a06a3e99e41df8ca50/inductor_cache/x5/cx5pa6qvisqwahnlvjuhtp7sj7eq6xnk6bor7n3ehpv3asdmqino.py":52:29)
#loc38 = loc("/root/.cache/vllm/torch_compile_cache/torch_aot_compile/61bda05feca29378847c32f031efa5c8dba258f38b0176a06a3e99e41df8ca50/inductor_cache/x5/cx5pa6qvisqwahnlvjuhtp7sj7eq6xnk6bor7n3ehpv3asdmqino.py":52:40)
#loc39 = loc("/root/.cache/vllm/torch_compile_cache/torch_aot_compile/61bda05feca29378847c32f031efa5c8dba258f38b0176a06a3e99e41df8ca50/inductor_cache/x5/cx5pa6qvisqwahnlvjuhtp7sj7eq6xnk6bor7n3ehpv3asdmqino.py":53:15)
#loc40 = loc("/root/.cache/vllm/torch_compile_cache/torch_aot_compile/61bda05feca29378847c32f031efa5c8dba258f38b0176a06a3e99e41df8ca50/inductor_cache/x5/cx5pa6qvisqwahnlvjuhtp7sj7eq6xnk6bor7n3ehpv3asdmqino.py":53:9)
#loc41 = loc("/root/.cache/vllm/torch_compile_cache/torch_aot_compile/61bda05feca29378847c32f031efa5c8dba258f38b0176a06a3e99e41df8ca50/inductor_cache/x5/cx5pa6qvisqwahnlvjuhtp7sj7eq6xnk6bor7n3ehpv3asdmqino.py":54:27)
#loc42 = loc("/root/.cache/vllm/torch_compile_cache/torch_aot_compile/61bda05feca29378847c32f031efa5c8dba258f38b0176a06a3e99e41df8ca50/inductor_cache/x5/cx5pa6qvisqwahnlvjuhtp7sj7eq6xnk6bor7n3ehpv3asdmqino.py":58:31)
#loc43 = loc("/root/.cache/vllm/torch_compile_cache/torch_aot_compile/61bda05feca29378847c32f031efa5c8dba258f38b0176a06a3e99e41df8ca50/inductor_cache/x5/cx5pa6qvisqwahnlvjuhtp7sj7eq6xnk6bor7n3ehpv3asdmqino.py":59:40)
#loc44 = loc("/root/.cache/vllm/torch_compile_cache/torch_aot_compile/61bda05feca29378847c32f031efa5c8dba258f38b0176a06a3e99e41df8ca50/inductor_cache/x5/cx5pa6qvisqwahnlvjuhtp7sj7eq6xnk6bor7n3ehpv3asdmqino.py":59:48)
#loc45 = loc("/root/.cache/vllm/torch_compile_cache/torch_aot_compile/61bda05feca29378847c32f031efa5c8dba258f38b0176a06a3e99e41df8ca50/inductor_cache/x5/cx5pa6qvisqwahnlvjuhtp7sj7eq6xnk6bor7n3ehpv3asdmqino.py":59:27)
#loc46 = loc("/root/.cache/vllm/torch_compile_cache/torch_aot_compile/61bda05feca29378847c32f031efa5c8dba258f38b0176a06a3e99e41df8ca50/inductor_cache/x5/cx5pa6qvisqwahnlvjuhtp7sj7eq6xnk6bor7n3ehpv3asdmqino.py":60:25)
#loc47 = loc("/root/.cache/vllm/torch_compile_cache/torch_aot_compile/61bda05feca29378847c32f031efa5c8dba258f38b0176a06a3e99e41df8ca50/inductor_cache/x5/cx5pa6qvisqwahnlvjuhtp7sj7eq6xnk6bor7n3ehpv3asdmqino.py":61:41)
#loc48 = loc("/root/.cache/vllm/torch_compile_cache/torch_aot_compile/61bda05feca29378847c32f031efa5c8dba258f38b0176a06a3e99e41df8ca50/inductor_cache/x5/cx5pa6qvisqwahnlvjuhtp7sj7eq6xnk6bor7n3ehpv3asdmqino.py":65:47)
#loc49 = loc("/root/.cache/vllm/torch_compile_cache/torch_aot_compile/61bda05feca29378847c32f031efa5c8dba258f38b0176a06a3e99e41df8ca50/inductor_cache/x5/cx5pa6qvisqwahnlvjuhtp7sj7eq6xnk6bor7n3ehpv3asdmqino.py":66:35)
#loc50 = loc("/root/.cache/vllm/torch_compile_cache/torch_aot_compile/61bda05feca29378847c32f031efa5c8dba258f38b0176a06a3e99e41df8ca50/inductor_cache/x5/cx5pa6qvisqwahnlvjuhtp7sj7eq6xnk6bor7n3ehpv3asdmqino.py":67:33)
#loc51 = loc("/root/.cache/vllm/torch_compile_cache/torch_aot_compile/61bda05feca29378847c32f031efa5c8dba258f38b0176a06a3e99e41df8ca50/inductor_cache/x5/cx5pa6qvisqwahnlvjuhtp7sj7eq6xnk6bor7n3ehpv3asdmqino.py":71:45)
#loc52 = loc("/root/.cache/vllm/torch_compile_cache/torch_aot_compile/61bda05feca29378847c32f031efa5c8dba258f38b0176a06a3e99e41df8ca50/inductor_cache/x5/cx5pa6qvisqwahnlvjuhtp7sj7eq6xnk6bor7n3ehpv3asdmqino.py":71:57)
#loc53 = loc("/root/.cache/vllm/torch_compile_cache/torch_aot_compile/61bda05feca29378847c32f031efa5c8dba258f38b0176a06a3e99e41df8ca50/inductor_cache/x5/cx5pa6qvisqwahnlvjuhtp7sj7eq6xnk6bor7n3ehpv3asdmqino.py":71:52)
#loc54 = loc("/root/.cache/vllm/torch_compile_cache/torch_aot_compile/61bda05feca29378847c32f031efa5c8dba258f38b0176a06a3e99e41df8ca50/inductor_cache/x5/cx5pa6qvisqwahnlvjuhtp7sj7eq6xnk6bor7n3ehpv3asdmqino.py":71:38)
#loc55 = loc("/root/.cache/vllm/torch_compile_cache/torch_aot_compile/61bda05feca29378847c32f031efa5c8dba258f38b0176a06a3e99e41df8ca50/inductor_cache/x5/cx5pa6qvisqwahnlvjuhtp7sj7eq6xnk6bor7n3ehpv3asdmqino.py":71:72)
#loc56 = loc("/root/.cache/vllm/torch_compile_cache/torch_aot_compile/61bda05feca29378847c32f031efa5c8dba258f38b0176a06a3e99e41df8ca50/inductor_cache/x5/cx5pa6qvisqwahnlvjuhtp7sj7eq6xnk6bor7n3ehpv3asdmqino.py":71:62)
#loc57 = loc("/root/.cache/vllm/torch_compile_cache/torch_aot_compile/61bda05feca29378847c32f031efa5c8dba258f38b0176a06a3e99e41df8ca50/inductor_cache/x5/cx5pa6qvisqwahnlvjuhtp7sj7eq6xnk6bor7n3ehpv3asdmqino.py":71:124)
#loc58 = loc("/root/.cache/vllm/torch_compile_cache/torch_aot_compile/61bda05feca29378847c32f031efa5c8dba258f38b0176a06a3e99e41df8ca50/inductor_cache/x5/cx5pa6qvisqwahnlvjuhtp7sj7eq6xnk6bor7n3ehpv3asdmqino.py":73:26)
#loc59 = loc("/root/.cache/vllm/torch_compile_cache/torch_aot_compile/61bda05feca29378847c32f031efa5c8dba258f38b0176a06a3e99e41df8ca50/inductor_cache/x5/cx5pa6qvisqwahnlvjuhtp7sj7eq6xnk6bor7n3ehpv3asdmqino.py":75:29)
#loc60 = loc("/root/.cache/vllm/torch_compile_cache/torch_aot_compile/61bda05feca29378847c32f031efa5c8dba258f38b0176a06a3e99e41df8ca50/inductor_cache/x5/cx5pa6qvisqwahnlvjuhtp7sj7eq6xnk6bor7n3ehpv3asdmqino.py":76:54)
#loc61 = loc("/root/.cache/vllm/torch_compile_cache/torch_aot_compile/61bda05feca29378847c32f031efa5c8dba258f38b0176a06a3e99e41df8ca50/inductor_cache/x5/cx5pa6qvisqwahnlvjuhtp7sj7eq6xnk6bor7n3ehpv3asdmqino.py":76:12)
#loc63 = loc("/root/.cache/vllm/torch_compile_cache/torch_aot_compile/61bda05feca29378847c32f031efa5c8dba258f38b0176a06a3e99e41df8ca50/inductor_cache/x5/cx5pa6qvisqwahnlvjuhtp7sj7eq6xnk6bor7n3ehpv3asdmqino.py":77:34)
#loc64 = loc("/root/.cache/vllm/torch_compile_cache/torch_aot_compile/61bda05feca29378847c32f031efa5c8dba258f38b0176a06a3e99e41df8ca50/inductor_cache/x5/cx5pa6qvisqwahnlvjuhtp7sj7eq6xnk6bor7n3ehpv3asdmqino.py":78:29)
#loc65 = loc("/root/.cache/vllm/torch_compile_cache/torch_aot_compile/61bda05feca29378847c32f031efa5c8dba258f38b0176a06a3e99e41df8ca50/inductor_cache/x5/cx5pa6qvisqwahnlvjuhtp7sj7eq6xnk6bor7n3ehpv3asdmqino.py":78:41)
#loc66 = loc("/root/.cache/vllm/torch_compile_cache/torch_aot_compile/61bda05feca29378847c32f031efa5c8dba258f38b0176a06a3e99e41df8ca50/inductor_cache/x5/cx5pa6qvisqwahnlvjuhtp7sj7eq6xnk6bor7n3ehpv3asdmqino.py":25:4)
#loc72 = loc("pid"(#loc2))
#loc73 = loc("num_xblocks_0"(#loc4))
#loc74 = loc("num_xblocks_1"(#loc6))
#loc75 = loc("num_xblocks_1"(#loc7))
#loc76 = loc("xoffset"(#loc10))
#loc77 = loc("xindex"(#loc11))
#loc78 = loc("xindex"(#loc12))
#loc79 = loc("xindex"(#loc13))
#loc80 = loc("xmask"(#loc14))
#loc81 = loc("r0_base"(#loc15))
#loc82 = loc("x0"(#loc16))
#loc83 = loc("x1"(#loc17))
#loc84 = loc("_tmp4"(#loc18))
#loc85 = loc("r0_index"(#loc19))
#loc86 = loc("r0_mask"(#loc20))
#loc87 = loc("tmp0"(#loc21))
#loc88 = loc("tmp0"(#loc22))
#loc89 = loc("tmp0"(#loc23))
#loc90 = loc("tmp0"(#loc24))
#loc91 = loc("tmp0"(#loc25))
#loc92 = loc("tmp0"(#loc26))
#loc93 = loc("tmp0"(#loc27))
#loc94 = loc("tmp0"(#loc28))
#loc95 = loc("tmp2"(#loc29))
#loc96 = loc("tmp5"(#loc30))
#loc97 = loc("_tmp4"(#loc31))
#loc99 = loc("tmp4"(#loc36))
#loc100 = loc("pid_offset"(#loc41))
#loc101 = loc("xoffset"(#loc42))
#loc102 = loc("xindex"(#loc43))
#loc103 = loc("xindex"(#loc44))
#loc104 = loc("xindex"(#loc45))
#loc105 = loc("xmask"(#loc46))
#loc106 = loc("r0_base"(#loc47))
#loc107 = loc("_tmp10"(#loc48))
#loc108 = loc("r0_index"(#loc49))
#loc109 = loc("r0_mask"(#loc50))
#loc110 = loc("tmp6"(#loc51))
#loc111 = loc("tmp6"(#loc52))
#loc112 = loc("tmp6"(#loc53))
#loc113 = loc("tmp6"(#loc54))
#loc114 = loc("tmp6"(#loc55))
#loc115 = loc("tmp6"(#loc56))
#loc116 = loc("tmp6"(#loc57))
#loc117 = loc("tmp8"(#loc58))
#loc118 = loc("tmp11"(#loc59))
#loc119 = loc("_tmp10"(#loc60))
#loc121 = loc("tmp10"(#loc63))
#loc122 = loc(callsite(#loc3 at #loc73))
#loc123 = loc(callsite(#loc5 at #loc73))
#loc124 = loc(callsite(#loc3 at #loc74))
#loc125 = loc(callsite(#loc5 at #loc74))
#loc126 = loc(callsite(#loc33 at #loc98))
#loc128 = loc(callsite(#loc33 at #loc120))
#loc130 = loc(callsite(#loc35 at #loc126))
#loc131 = loc(callsite(#loc35 at #loc128))
