#loc = loc("/root/.cache/vllm/torch_compile_cache/torch_aot_compile/61bda05feca29378847c32f031efa5c8dba258f38b0176a06a3e99e41df8ca50/inductor_cache/cp/ccpsge7mfp27npsag4utjppqvmefecme7x5mpqgvibeul6aocl7n.py":22:0)
#loc2 = loc(unknown)
#loc22 = loc("/root/.cache/vllm/torch_compile_cache/torch_aot_compile/61bda05feca29378847c32f031efa5c8dba258f38b0176a06a3e99e41df8ca50/inductor_cache/cp/ccpsge7mfp27npsag4utjppqvmefecme7x5mpqgvibeul6aocl7n.py":45:25)
#loc28 = loc("in_ptr0"(#loc))
#loc29 = loc("out_ptr0"(#loc))
#loc30 = loc("xnumel"(#loc))
#loc31 = loc("r0_numel"(#loc))
#loc51 = loc("tmp4"(#loc22))
#loc54 = loc(callsite(#loc2 at #loc51))
module {
  tt.func public @triton_(%in_ptr0: !tt.ptr<f16> {tt.divisibility = 16 : i32} loc("in_ptr0"(#loc)), %out_ptr0: !tt.ptr<f32> {tt.divisibility = 16 : i32} loc("out_ptr0"(#loc)), %xnumel: i32 loc("xnumel"(#loc)), %r0_numel: i32 {tt.divisibility = 16 : i32} loc("r0_numel"(#loc))) attributes {noinline = false} {
    %tmp0 = arith.constant dense<0.000000e+00> : tensor<2x256xf16> loc(#loc32)
    %cst = arith.constant dense<4608> : tensor<2x1xi32> loc(#loc2)
    %cst_0 = arith.constant dense<4096> : tensor<1x256xi32> loc(#loc2)
    %cst_1 = arith.constant dense<256> : tensor<1x256xi32> loc(#loc2)
    %cst_2 = arith.constant dense<0.000000e+00> : tensor<2x256xf32> loc(#loc2)
    %c2_i32 = arith.constant 2 : i32 loc(#loc2)
    %xoffset = tt.get_program_id x : i32 loc(#loc33)
    %xoffset_3 = arith.muli %xoffset, %c2_i32 : i32 loc(#loc34)
    %xindex = tt.make_range {end = 2 : i32, start = 0 : i32} : tensor<2xi32> loc(#loc35)
    %xindex_4 = tt.expand_dims %xindex {axis = 1 : i32} : tensor<2xi32> -> tensor<2x1xi32> loc(#loc36)
    %xindex_5 = tt.splat %xoffset_3 : i32 -> tensor<2x1xi32> loc(#loc37)
    %xindex_6 = arith.addi %xindex_5, %xindex_4 : tensor<2x1xi32> loc(#loc37)
    %xmask = tt.splat %xnumel : i32 -> tensor<2x1xi32> loc(#loc38)
    %xmask_7 = arith.cmpi slt, %xindex_6, %xmask : tensor<2x1xi32> loc(#loc38)
    %r0_base = tt.make_range {end = 256 : i32, start = 0 : i32} : tensor<256xi32> loc(#loc39)
    %r0_base_8 = tt.expand_dims %r0_base {axis = 0 : i32} : tensor<256xi32> -> tensor<1x256xi32> loc(#loc40)
    %r0_mask = arith.cmpi slt, %r0_base_8, %cst_1 : tensor<1x256xi32> loc(#loc41)
    %tmp0_9 = arith.addi %r0_base_8, %cst_0 : tensor<1x256xi32> loc(#loc42)
    %tmp0_10 = arith.muli %xindex_6, %cst : tensor<2x1xi32> loc(#loc43)
    %tmp0_11 = tt.broadcast %tmp0_9 : tensor<1x256xi32> -> tensor<2x256xi32> loc(#loc44)
    %tmp0_12 = tt.broadcast %tmp0_10 : tensor<2x1xi32> -> tensor<2x256xi32> loc(#loc44)
    %tmp0_13 = arith.addi %tmp0_11, %tmp0_12 : tensor<2x256xi32> loc(#loc44)
    %tmp0_14 = tt.splat %in_ptr0 : !tt.ptr<f16> -> tensor<2x256x!tt.ptr<f16>> loc(#loc45)
    %tmp0_15 = tt.addptr %tmp0_14, %tmp0_13 : tensor<2x256x!tt.ptr<f16>>, tensor<2x256xi32> loc(#loc45)
    %tmp0_16 = tt.broadcast %r0_mask : tensor<1x256xi1> -> tensor<2x256xi1> loc(#loc46)
    %tmp0_17 = tt.broadcast %xmask_7 : tensor<2x1xi1> -> tensor<2x256xi1> loc(#loc46)
    %tmp0_18 = arith.andi %tmp0_16, %tmp0_17 : tensor<2x256xi1> loc(#loc46)
    %tmp0_19 = tt.load %tmp0_15, %tmp0_18, %tmp0 evictionPolicy = evict_first : tensor<2x256x!tt.ptr<f16>> loc(#loc32)
    %tmp0_20 = arith.extf %tmp0_19 : tensor<2x256xf16> to tensor<2x256xf32> loc(#loc47)
    %tmp2 = arith.mulf %tmp0_20, %tmp0_20 : tensor<2x256xf32> loc(#loc48)
    %tmp5 = arith.addf %tmp2, %cst_2 : tensor<2x256xf32> loc(#loc49)
    %_tmp4 = arith.select %tmp0_18, %tmp5, %cst_2 : tensor<2x256xi1>, tensor<2x256xf32> loc(#loc50)
    %tmp4 = "tt.reduce"(%_tmp4) <{axis = 1 : i32}> ({
    ^bb0(%tmp4_22: f32 loc(callsite(#loc2 at #loc51)), %tmp4_23: f32 loc(callsite(#loc2 at #loc51))):
      %tmp4_24 = arith.addf %tmp4_22, %tmp4_23 : f32 loc(#loc55)
      tt.reduce.return %tmp4_24 : f32 loc(#loc53)
    }) : (tensor<2x256xf32>) -> tensor<2xf32> loc(#loc53)
    %tmp4_21 = tt.expand_dims %tmp4 {axis = 1 : i32} : tensor<2xf32> -> tensor<2x1xf32> loc(#loc52)
    %0 = tt.splat %out_ptr0 : !tt.ptr<f32> -> tensor<2x1x!tt.ptr<f32>> loc(#loc25)
    %1 = tt.addptr %0, %xindex_6 : tensor<2x1x!tt.ptr<f32>>, tensor<2x1xi32> loc(#loc25)
    tt.store %1, %tmp4_21, %xmask_7 : tensor<2x1x!tt.ptr<f32>> loc(#loc26)
    tt.return loc(#loc27)
  } loc(#loc)
} loc(#loc)
#loc1 = loc("/root/.cache/vllm/torch_compile_cache/torch_aot_compile/61bda05feca29378847c32f031efa5c8dba258f38b0176a06a3e99e41df8ca50/inductor_cache/cp/ccpsge7mfp27npsag4utjppqvmefecme7x5mpqgvibeul6aocl7n.py":39:58)
#loc3 = loc("/root/.cache/vllm/torch_compile_cache/torch_aot_compile/61bda05feca29378847c32f031efa5c8dba258f38b0176a06a3e99e41df8ca50/inductor_cache/cp/ccpsge7mfp27npsag4utjppqvmefecme7x5mpqgvibeul6aocl7n.py":26:28)
#loc4 = loc("/root/.cache/vllm/torch_compile_cache/torch_aot_compile/61bda05feca29378847c32f031efa5c8dba258f38b0176a06a3e99e41df8ca50/inductor_cache/cp/ccpsge7mfp27npsag4utjppqvmefecme7x5mpqgvibeul6aocl7n.py":26:33)
#loc5 = loc("/root/.cache/vllm/torch_compile_cache/torch_aot_compile/61bda05feca29378847c32f031efa5c8dba258f38b0176a06a3e99e41df8ca50/inductor_cache/cp/ccpsge7mfp27npsag4utjppqvmefecme7x5mpqgvibeul6aocl7n.py":27:36)
#loc6 = loc("/root/.cache/vllm/torch_compile_cache/torch_aot_compile/61bda05feca29378847c32f031efa5c8dba258f38b0176a06a3e99e41df8ca50/inductor_cache/cp/ccpsge7mfp27npsag4utjppqvmefecme7x5mpqgvibeul6aocl7n.py":27:44)
#loc7 = loc("/root/.cache/vllm/torch_compile_cache/torch_aot_compile/61bda05feca29378847c32f031efa5c8dba258f38b0176a06a3e99e41df8ca50/inductor_cache/cp/ccpsge7mfp27npsag4utjppqvmefecme7x5mpqgvibeul6aocl7n.py":27:23)
#loc8 = loc("/root/.cache/vllm/torch_compile_cache/torch_aot_compile/61bda05feca29378847c32f031efa5c8dba258f38b0176a06a3e99e41df8ca50/inductor_cache/cp/ccpsge7mfp27npsag4utjppqvmefecme7x5mpqgvibeul6aocl7n.py":28:21)
#loc9 = loc("/root/.cache/vllm/torch_compile_cache/torch_aot_compile/61bda05feca29378847c32f031efa5c8dba258f38b0176a06a3e99e41df8ca50/inductor_cache/cp/ccpsge7mfp27npsag4utjppqvmefecme7x5mpqgvibeul6aocl7n.py":29:27)
#loc10 = loc("/root/.cache/vllm/torch_compile_cache/torch_aot_compile/61bda05feca29378847c32f031efa5c8dba258f38b0176a06a3e99e41df8ca50/inductor_cache/cp/ccpsge7mfp27npsag4utjppqvmefecme7x5mpqgvibeul6aocl7n.py":29:37)
#loc11 = loc("/root/.cache/vllm/torch_compile_cache/torch_aot_compile/61bda05feca29378847c32f031efa5c8dba258f38b0176a06a3e99e41df8ca50/inductor_cache/cp/ccpsge7mfp27npsag4utjppqvmefecme7x5mpqgvibeul6aocl7n.py":35:29)
#loc12 = loc("/root/.cache/vllm/torch_compile_cache/torch_aot_compile/61bda05feca29378847c32f031efa5c8dba258f38b0176a06a3e99e41df8ca50/inductor_cache/cp/ccpsge7mfp27npsag4utjppqvmefecme7x5mpqgvibeul6aocl7n.py":39:41)
#loc13 = loc("/root/.cache/vllm/torch_compile_cache/torch_aot_compile/61bda05feca29378847c32f031efa5c8dba258f38b0176a06a3e99e41df8ca50/inductor_cache/cp/ccpsge7mfp27npsag4utjppqvmefecme7x5mpqgvibeul6aocl7n.py":39:53)
#loc14 = loc("/root/.cache/vllm/torch_compile_cache/torch_aot_compile/61bda05feca29378847c32f031efa5c8dba258f38b0176a06a3e99e41df8ca50/inductor_cache/cp/ccpsge7mfp27npsag4utjppqvmefecme7x5mpqgvibeul6aocl7n.py":39:48)
#loc15 = loc("/root/.cache/vllm/torch_compile_cache/torch_aot_compile/61bda05feca29378847c32f031efa5c8dba258f38b0176a06a3e99e41df8ca50/inductor_cache/cp/ccpsge7mfp27npsag4utjppqvmefecme7x5mpqgvibeul6aocl7n.py":39:34)
#loc16 = loc("/root/.cache/vllm/torch_compile_cache/torch_aot_compile/61bda05feca29378847c32f031efa5c8dba258f38b0176a06a3e99e41df8ca50/inductor_cache/cp/ccpsge7mfp27npsag4utjppqvmefecme7x5mpqgvibeul6aocl7n.py":39:68)
#loc17 = loc("/root/.cache/vllm/torch_compile_cache/torch_aot_compile/61bda05feca29378847c32f031efa5c8dba258f38b0176a06a3e99e41df8ca50/inductor_cache/cp/ccpsge7mfp27npsag4utjppqvmefecme7x5mpqgvibeul6aocl7n.py":39:120)
#loc18 = loc("/root/.cache/vllm/torch_compile_cache/torch_aot_compile/61bda05feca29378847c32f031efa5c8dba258f38b0176a06a3e99e41df8ca50/inductor_cache/cp/ccpsge7mfp27npsag4utjppqvmefecme7x5mpqgvibeul6aocl7n.py":41:22)
#loc19 = loc("/root/.cache/vllm/torch_compile_cache/torch_aot_compile/61bda05feca29378847c32f031efa5c8dba258f38b0176a06a3e99e41df8ca50/inductor_cache/cp/ccpsge7mfp27npsag4utjppqvmefecme7x5mpqgvibeul6aocl7n.py":43:23)
#loc20 = loc("/root/.cache/vllm/torch_compile_cache/torch_aot_compile/61bda05feca29378847c32f031efa5c8dba258f38b0176a06a3e99e41df8ca50/inductor_cache/cp/ccpsge7mfp27npsag4utjppqvmefecme7x5mpqgvibeul6aocl7n.py":44:48)
#loc21 = loc("/usr/local/lib/python3.12/dist-packages/triton/language/standard.py":293:36)
#loc23 = loc("/usr/local/lib/python3.12/dist-packages/triton/language/standard.py":263:15)
#loc24 = loc("/root/.cache/vllm/torch_compile_cache/torch_aot_compile/61bda05feca29378847c32f031efa5c8dba258f38b0176a06a3e99e41df8ca50/inductor_cache/cp/ccpsge7mfp27npsag4utjppqvmefecme7x5mpqgvibeul6aocl7n.py":45:28)
#loc25 = loc("/root/.cache/vllm/torch_compile_cache/torch_aot_compile/61bda05feca29378847c32f031efa5c8dba258f38b0176a06a3e99e41df8ca50/inductor_cache/cp/ccpsge7mfp27npsag4utjppqvmefecme7x5mpqgvibeul6aocl7n.py":46:25)
#loc26 = loc("/root/.cache/vllm/torch_compile_cache/torch_aot_compile/61bda05feca29378847c32f031efa5c8dba258f38b0176a06a3e99e41df8ca50/inductor_cache/cp/ccpsge7mfp27npsag4utjppqvmefecme7x5mpqgvibeul6aocl7n.py":46:36)
#loc27 = loc("/root/.cache/vllm/torch_compile_cache/torch_aot_compile/61bda05feca29378847c32f031efa5c8dba258f38b0176a06a3e99e41df8ca50/inductor_cache/cp/ccpsge7mfp27npsag4utjppqvmefecme7x5mpqgvibeul6aocl7n.py":46:4)
#loc32 = loc("tmp0"(#loc1))
#loc33 = loc("xoffset"(#loc3))
#loc34 = loc("xoffset"(#loc4))
#loc35 = loc("xindex"(#loc5))
#loc36 = loc("xindex"(#loc6))
#loc37 = loc("xindex"(#loc7))
#loc38 = loc("xmask"(#loc8))
#loc39 = loc("r0_base"(#loc9))
#loc40 = loc("r0_base"(#loc10))
#loc41 = loc("r0_mask"(#loc11))
#loc42 = loc("tmp0"(#loc12))
#loc43 = loc("tmp0"(#loc13))
#loc44 = loc("tmp0"(#loc14))
#loc45 = loc("tmp0"(#loc15))
#loc46 = loc("tmp0"(#loc16))
#loc47 = loc("tmp0"(#loc17))
#loc48 = loc("tmp2"(#loc18))
#loc49 = loc("tmp5"(#loc19))
#loc50 = loc("_tmp4"(#loc20))
#loc52 = loc("tmp4"(#loc24))
#loc53 = loc(callsite(#loc21 at #loc51))
#loc55 = loc(callsite(#loc23 at #loc53))
