#loc = loc("/root/.cache/vllm/torch_compile_cache/torch_aot_compile/61bda05feca29378847c32f031efa5c8dba258f38b0176a06a3e99e41df8ca50/inductor_cache/l2/cl23wsnmqzjfq2wnqvfb3s7ixt7jxnwrpeyn5stbrydhl52atnfu.py":18:0)
#loc22 = loc("in_ptr0"(#loc))
#loc23 = loc("out_ptr0"(#loc))
#loc24 = loc("ks0"(#loc))
#loc25 = loc("xnumel"(#loc))
module {
  tt.func public @triton_poi_fused__to_copy__unsafe_view_add_clone_mean_mm_mul_pow_rsqrt_silu_t_view_2(%in_ptr0: !tt.ptr<f16> {tt.divisibility = 16 : i32} loc("in_ptr0"(#loc)), %out_ptr0: !tt.ptr<f16> {tt.divisibility = 16 : i32} loc("out_ptr0"(#loc)), %ks0: i64 loc("ks0"(#loc)), %xnumel: i32 {tt.divisibility = 16 : i32} loc("xnumel"(#loc))) attributes {noinline = false} {
    %xoffset = tt.get_program_id x : i32 loc(#loc26)
    %xoffset_0 = arith.constant 1024 : i32 loc(#loc27)
    %xoffset_1 = arith.constant 1024 : i32 loc(#loc27)
    %xoffset_2 = arith.muli %xoffset, %xoffset_1 : i32 loc(#loc27)
    %xindex = tt.make_range {end = 1024 : i32, start = 0 : i32} : tensor<1024xi32> loc(#loc28)
    %xindex_3 = tt.splat %xoffset_2 : i32 -> tensor<1024xi32> loc(#loc29)
    %xindex_4 = arith.addi %xindex_3, %xindex : tensor<1024xi32> loc(#loc29)
    %xmask = tt.splat %xnumel : i32 -> tensor<1024xi32> loc(#loc30)
    %xmask_5 = arith.cmpi slt, %xindex_4, %xmask : tensor<1024xi32> loc(#loc30)
    %x0 = arith.constant 2048 : i32 loc(#loc31)
    %x0_6 = arith.constant 2048 : i32 loc(#loc31)
    %x0_7 = arith.constant dense<2048> : tensor<1024xi32> loc(#loc31)
    %x0_8 = arith.remsi %xindex_4, %x0_7 : tensor<1024xi32> loc(#loc31)
    %x1 = arith.constant 2048 : i32 loc(#loc32)
    %x1_9 = arith.constant 2048 : i32 loc(#loc32)
    %x1_10 = arith.constant dense<2048> : tensor<1024xi32> loc(#loc32)
    %x1_11 = arith.divsi %xindex_4, %x1_10 : tensor<1024xi32> loc(#loc32)
    %tmp0 = arith.constant 2048 : i32 loc(#loc33)
    %tmp0_12 = arith.constant 2048 : i32 loc(#loc33)
    %tmp0_13 = arith.constant dense<2048> : tensor<1024xi32> loc(#loc33)
    %tmp0_14 = arith.muli %tmp0_13, %x1_11 : tensor<1024xi32> loc(#loc33)
    %tmp0_15 = arith.addi %x0_8, %tmp0_14 : tensor<1024xi32> loc(#loc34)
    %tmp0_16 = arith.constant 128 : i32 loc(#loc35)
    %tmp0_17 = arith.constant 128 : i32 loc(#loc35)
    %tmp0_18 = arith.constant dense<128> : tensor<1024xi32> loc(#loc35)
    %tmp0_19 = arith.divsi %tmp0_15, %tmp0_18 : tensor<1024xi32> loc(#loc35)
    %tmp0_20 = arith.constant 16 : i32 loc(#loc36)
    %tmp0_21 = arith.constant 16 : i64 loc(#loc36)
    %tmp0_22 = arith.muli %tmp0_21, %ks0 : i64 loc(#loc36)
    %tmp0_23 = arith.extsi %tmp0_19 : tensor<1024xi32> to tensor<1024xi64> loc(#loc37)
    %tmp0_24 = tt.splat %tmp0_22 : i64 -> tensor<1024xi64> loc(#loc37)
    %tmp0_25 = arith.remsi %tmp0_23, %tmp0_24 : tensor<1024xi64> loc(#loc37)
    %tmp0_26 = arith.constant 128 : i32 loc(#loc38)
    %tmp0_27 = arith.constant 128 : i64 loc(#loc38)
    %tmp0_28 = arith.constant dense<128> : tensor<1024xi64> loc(#loc38)
    %tmp0_29 = arith.muli %tmp0_28, %tmp0_25 : tensor<1024xi64> loc(#loc38)
    %tmp0_30 = arith.constant 128 : i32 loc(#loc39)
    %tmp0_31 = arith.constant 128 : i32 loc(#loc39)
    %tmp0_32 = arith.constant dense<128> : tensor<1024xi32> loc(#loc39)
    %tmp0_33 = arith.remsi %x0_8, %tmp0_32 : tensor<1024xi32> loc(#loc39)
    %tmp0_34 = arith.extsi %tmp0_33 : tensor<1024xi32> to tensor<1024xi64> loc(#loc40)
    %tmp0_35 = arith.addi %tmp0_29, %tmp0_34 : tensor<1024xi64> loc(#loc40)
    %tmp0_36 = tt.splat %in_ptr0 : !tt.ptr<f16> -> tensor<1024x!tt.ptr<f16>> loc(#loc41)
    %tmp0_37 = tt.addptr %tmp0_36, %tmp0_35 : tensor<1024x!tt.ptr<f16>>, tensor<1024xi64> loc(#loc41)
    %tmp0_38 = tt.load %tmp0_37, %xmask_5 evictionPolicy = evict_last : tensor<1024x!tt.ptr<f16>> loc(#loc42)
    %tmp0_39 = arith.extf %tmp0_38 : tensor<1024xf16> to tensor<1024xf32> loc(#loc43)
    %0 = tt.splat %out_ptr0 : !tt.ptr<f16> -> tensor<1024x!tt.ptr<f16>> loc(#loc19)
    %1 = tt.addptr %0, %xindex_4 : tensor<1024x!tt.ptr<f16>>, tensor<1024xi32> loc(#loc19)
    %2 = arith.truncf %tmp0_39 : tensor<1024xf32> to tensor<1024xf16> loc(#loc20)
    tt.store %1, %2, %xmask_5 : tensor<1024x!tt.ptr<f16>> loc(#loc20)
    tt.return loc(#loc21)
  } loc(#loc)
} loc(#loc)
#loc1 = loc("/root/.cache/vllm/torch_compile_cache/torch_aot_compile/61bda05feca29378847c32f031efa5c8dba258f38b0176a06a3e99e41df8ca50/inductor_cache/l2/cl23wsnmqzjfq2wnqvfb3s7ixt7jxnwrpeyn5stbrydhl52atnfu.py":19:28)
#loc2 = loc("/root/.cache/vllm/torch_compile_cache/torch_aot_compile/61bda05feca29378847c32f031efa5c8dba258f38b0176a06a3e99e41df8ca50/inductor_cache/l2/cl23wsnmqzjfq2wnqvfb3s7ixt7jxnwrpeyn5stbrydhl52atnfu.py":19:33)
#loc3 = loc("/root/.cache/vllm/torch_compile_cache/torch_aot_compile/61bda05feca29378847c32f031efa5c8dba258f38b0176a06a3e99e41df8ca50/inductor_cache/l2/cl23wsnmqzjfq2wnqvfb3s7ixt7jxnwrpeyn5stbrydhl52atnfu.py":20:36)
#loc4 = loc("/root/.cache/vllm/torch_compile_cache/torch_aot_compile/61bda05feca29378847c32f031efa5c8dba258f38b0176a06a3e99e41df8ca50/inductor_cache/l2/cl23wsnmqzjfq2wnqvfb3s7ixt7jxnwrpeyn5stbrydhl52atnfu.py":20:23)
#loc5 = loc("/root/.cache/vllm/torch_compile_cache/torch_aot_compile/61bda05feca29378847c32f031efa5c8dba258f38b0176a06a3e99e41df8ca50/inductor_cache/l2/cl23wsnmqzjfq2wnqvfb3s7ixt7jxnwrpeyn5stbrydhl52atnfu.py":21:21)
#loc6 = loc("/root/.cache/vllm/torch_compile_cache/torch_aot_compile/61bda05feca29378847c32f031efa5c8dba258f38b0176a06a3e99e41df8ca50/inductor_cache/l2/cl23wsnmqzjfq2wnqvfb3s7ixt7jxnwrpeyn5stbrydhl52atnfu.py":22:19)
#loc7 = loc("/root/.cache/vllm/torch_compile_cache/torch_aot_compile/61bda05feca29378847c32f031efa5c8dba258f38b0176a06a3e99e41df8ca50/inductor_cache/l2/cl23wsnmqzjfq2wnqvfb3s7ixt7jxnwrpeyn5stbrydhl52atnfu.py":23:19)
#loc8 = loc("/root/.cache/vllm/torch_compile_cache/torch_aot_compile/61bda05feca29378847c32f031efa5c8dba258f38b0176a06a3e99e41df8ca50/inductor_cache/l2/cl23wsnmqzjfq2wnqvfb3s7ixt7jxnwrpeyn5stbrydhl52atnfu.py":25:48)
#loc9 = loc("/root/.cache/vllm/torch_compile_cache/torch_aot_compile/61bda05feca29378847c32f031efa5c8dba258f38b0176a06a3e99e41df8ca50/inductor_cache/l2/cl23wsnmqzjfq2wnqvfb3s7ixt7jxnwrpeyn5stbrydhl52atnfu.py":25:43)
#loc10 = loc("/root/.cache/vllm/torch_compile_cache/torch_aot_compile/61bda05feca29378847c32f031efa5c8dba258f38b0176a06a3e99e41df8ca50/inductor_cache/l2/cl23wsnmqzjfq2wnqvfb3s7ixt7jxnwrpeyn5stbrydhl52atnfu.py":25:55)
#loc11 = loc("/root/.cache/vllm/torch_compile_cache/torch_aot_compile/61bda05feca29378847c32f031efa5c8dba258f38b0176a06a3e99e41df8ca50/inductor_cache/l2/cl23wsnmqzjfq2wnqvfb3s7ixt7jxnwrpeyn5stbrydhl52atnfu.py":25:66)
#loc12 = loc("/root/.cache/vllm/torch_compile_cache/torch_aot_compile/61bda05feca29378847c32f031efa5c8dba258f38b0176a06a3e99e41df8ca50/inductor_cache/l2/cl23wsnmqzjfq2wnqvfb3s7ixt7jxnwrpeyn5stbrydhl52atnfu.py":25:63)
#loc13 = loc("/root/.cache/vllm/torch_compile_cache/torch_aot_compile/61bda05feca29378847c32f031efa5c8dba258f38b0176a06a3e99e41df8ca50/inductor_cache/l2/cl23wsnmqzjfq2wnqvfb3s7ixt7jxnwrpeyn5stbrydhl52atnfu.py":25:36)
#loc14 = loc("/root/.cache/vllm/torch_compile_cache/torch_aot_compile/61bda05feca29378847c32f031efa5c8dba258f38b0176a06a3e99e41df8ca50/inductor_cache/l2/cl23wsnmqzjfq2wnqvfb3s7ixt7jxnwrpeyn5stbrydhl52atnfu.py":25:82)
#loc15 = loc("/root/.cache/vllm/torch_compile_cache/torch_aot_compile/61bda05feca29378847c32f031efa5c8dba258f38b0176a06a3e99e41df8ca50/inductor_cache/l2/cl23wsnmqzjfq2wnqvfb3s7ixt7jxnwrpeyn5stbrydhl52atnfu.py":25:77)
#loc16 = loc("/root/.cache/vllm/torch_compile_cache/torch_aot_compile/61bda05feca29378847c32f031efa5c8dba258f38b0176a06a3e99e41df8ca50/inductor_cache/l2/cl23wsnmqzjfq2wnqvfb3s7ixt7jxnwrpeyn5stbrydhl52atnfu.py":25:30)
#loc17 = loc("/root/.cache/vllm/torch_compile_cache/torch_aot_compile/61bda05feca29378847c32f031efa5c8dba258f38b0176a06a3e99e41df8ca50/inductor_cache/l2/cl23wsnmqzjfq2wnqvfb3s7ixt7jxnwrpeyn5stbrydhl52atnfu.py":25:90)
#loc18 = loc("/root/.cache/vllm/torch_compile_cache/torch_aot_compile/61bda05feca29378847c32f031efa5c8dba258f38b0176a06a3e99e41df8ca50/inductor_cache/l2/cl23wsnmqzjfq2wnqvfb3s7ixt7jxnwrpeyn5stbrydhl52atnfu.py":25:130)
#loc19 = loc("/root/.cache/vllm/torch_compile_cache/torch_aot_compile/61bda05feca29378847c32f031efa5c8dba258f38b0176a06a3e99e41df8ca50/inductor_cache/l2/cl23wsnmqzjfq2wnqvfb3s7ixt7jxnwrpeyn5stbrydhl52atnfu.py":26:25)
#loc20 = loc("/root/.cache/vllm/torch_compile_cache/torch_aot_compile/61bda05feca29378847c32f031efa5c8dba258f38b0176a06a3e99e41df8ca50/inductor_cache/l2/cl23wsnmqzjfq2wnqvfb3s7ixt7jxnwrpeyn5stbrydhl52atnfu.py":26:36)
#loc21 = loc("/root/.cache/vllm/torch_compile_cache/torch_aot_compile/61bda05feca29378847c32f031efa5c8dba258f38b0176a06a3e99e41df8ca50/inductor_cache/l2/cl23wsnmqzjfq2wnqvfb3s7ixt7jxnwrpeyn5stbrydhl52atnfu.py":26:4)
#loc26 = loc("xoffset"(#loc1))
#loc27 = loc("xoffset"(#loc2))
#loc28 = loc("xindex"(#loc3))
#loc29 = loc("xindex"(#loc4))
#loc30 = loc("xmask"(#loc5))
#loc31 = loc("x0"(#loc6))
#loc32 = loc("x1"(#loc7))
#loc33 = loc("tmp0"(#loc8))
#loc34 = loc("tmp0"(#loc9))
#loc35 = loc("tmp0"(#loc10))
#loc36 = loc("tmp0"(#loc11))
#loc37 = loc("tmp0"(#loc12))
#loc38 = loc("tmp0"(#loc13))
#loc39 = loc("tmp0"(#loc14))
#loc40 = loc("tmp0"(#loc15))
#loc41 = loc("tmp0"(#loc16))
#loc42 = loc("tmp0"(#loc17))
#loc43 = loc("tmp0"(#loc18))
