#loc = loc("/root/.cache/vllm/torch_compile_cache/torch_aot_compile/61bda05feca29378847c32f031efa5c8dba258f38b0176a06a3e99e41df8ca50/inductor_cache/bj/cbjcfhyz453mv4nsfd2kj7nsvtfqfeleeqew3bleie4ghxopa5d5.py":21:0)
#loc70 = loc("/usr/local/lib/python3.12/dist-packages/triton/language/standard.py":34:0)
#loc75 = loc("/usr/local/lib/python3.12/dist-packages/triton/language/standard.py":287:0)
#loc77 = loc(unknown)
#loc80 = loc("/usr/local/lib/python3.12/dist-packages/triton/language/standard.py":262:0)
#loc84 = loc("in_ptr0"(#loc))
#loc85 = loc("out_ptr0"(#loc))
#loc86 = loc("out_ptr1"(#loc))
#loc87 = loc("xnumel_0"(#loc))
#loc88 = loc("xnumel_1"(#loc))
#loc147 = loc("x"(#loc70))
#loc148 = loc("input"(#loc75))
#loc149 = loc("a"(#loc80))
#loc150 = loc("b"(#loc80))
module {
  tt.func public @triton_red_fused_7(%in_ptr0: !tt.ptr<f16> {tt.divisibility = 16 : i32} loc("in_ptr0"(#loc)), %out_ptr0: !tt.ptr<f32> {tt.divisibility = 16 : i32} loc("out_ptr0"(#loc)), %out_ptr1: !tt.ptr<f32> {tt.divisibility = 16 : i32} loc("out_ptr1"(#loc)), %xnumel_0: i32 loc("xnumel_0"(#loc)), %xnumel_1: i32 loc("xnumel_1"(#loc))) attributes {noinline = false} {
    %pid = tt.get_program_id x : i32 loc(#loc89)
    %num_xblocks_0 = tt.call @"triton.language.standard.cdiv__i32__(1,)cconstexpr_64_"(%xnumel_0) : (i32) -> i32 loc(#loc90)
    %num_xblocks_1 = tt.call @"triton.language.standard.cdiv__i32__(1,)cconstexpr_64_"(%xnumel_1) : (i32) -> i32 loc(#loc91)
    %num_xblocks_1_0 = arith.addi %num_xblocks_0, %num_xblocks_1 : i32 loc(#loc92)
    %0 = arith.cmpi slt, %pid, %num_xblocks_0 : i32 loc(#loc5)
    scf.if %0 {
      %r0_numel = arith.constant 256 : i32 loc(#loc93)
      %xoffset = arith.constant 64 : i32 loc(#loc94)
      %xoffset_1 = arith.constant 64 : i32 loc(#loc94)
      %xoffset_2 = arith.muli %pid, %xoffset_1 : i32 loc(#loc94)
      %xindex = tt.make_range {end = 64 : i32, start = 0 : i32} : tensor<64xi32> loc(#loc95)
      %xindex_3 = tt.expand_dims %xindex {axis = 1 : i32} : tensor<64xi32> -> tensor<64x1xi32> loc(#loc96)
      %xindex_4 = tt.splat %xoffset_2 : i32 -> tensor<64x1xi32> loc(#loc97)
      %xindex_5 = arith.addi %xindex_4, %xindex_3 : tensor<64x1xi32> loc(#loc97)
      %xmask = tt.splat %xnumel_0 : i32 -> tensor<64x1xi32> loc(#loc98)
      %xmask_6 = arith.cmpi slt, %xindex_5, %xmask : tensor<64x1xi32> loc(#loc98)
      %r0_base = tt.make_range {end = 64 : i32, start = 0 : i32} : tensor<64xi32> loc(#loc99)
      %r0_base_7 = tt.expand_dims %r0_base {axis = 0 : i32} : tensor<64xi32> -> tensor<1x64xi32> loc(#loc100)
      %x0 = arith.constant 8 : i32 loc(#loc101)
      %x0_8 = arith.constant 8 : i32 loc(#loc101)
      %x0_9 = arith.constant dense<8> : tensor<64x1xi32> loc(#loc101)
      %x0_10 = arith.remsi %xindex_5, %x0_9 : tensor<64x1xi32> loc(#loc101)
      %x1 = arith.constant 8 : i32 loc(#loc102)
      %x1_11 = arith.constant 8 : i32 loc(#loc102)
      %x1_12 = arith.constant dense<8> : tensor<64x1xi32> loc(#loc102)
      %x1_13 = arith.divsi %xindex_5, %x1_12 : tensor<64x1xi32> loc(#loc102)
      %_tmp4 = arith.constant 0.000000e+00 : f32 loc(#loc103)
      %_tmp4_14 = arith.constant dense<0.000000e+00> : tensor<64x64xf32> loc(#loc103)
      %c0_i32 = arith.constant 0 : i32 loc(#loc18)
      %c64_i32 = arith.constant 64 : i32 loc(#loc18)
      %1 = arith.bitcast %c0_i32 : i32 to i32 loc(#loc18)
      %2 = arith.bitcast %r0_numel : i32 to i32 loc(#loc18)
      %3 = arith.bitcast %c64_i32 : i32 to i32 loc(#loc18)
      %4 = ub.poison : i32 loc(#loc18)
      %_tmp4_15 = scf.for %r0_offset = %1 to %2 step %3 iter_args(%_tmp4_17 = %_tmp4_14) -> (tensor<64x64xf32>)  : i32 {
        %r0_index = tt.splat %r0_offset : i32 -> tensor<1x64xi32> loc(#loc105)
        %r0_index_18 = arith.addi %r0_index, %r0_base_7 : tensor<1x64xi32> loc(#loc105)
        %r0_mask = arith.constant dense<256> : tensor<1x64xi32> loc(#loc106)
        %r0_mask_19 = arith.cmpi slt, %r0_index_18, %r0_mask : tensor<1x64xi32> loc(#loc106)
        %tmp0 = arith.constant 512 : i32 loc(#loc107)
        %tmp0_20 = arith.constant 512 : i32 loc(#loc107)
        %tmp0_21 = arith.constant dense<512> : tensor<64x1xi32> loc(#loc107)
        %tmp0_22 = arith.muli %tmp0_21, %x0_10 : tensor<64x1xi32> loc(#loc107)
        %tmp0_23 = tt.broadcast %r0_index_18 : tensor<1x64xi32> -> tensor<64x64xi32> loc(#loc108)
        %tmp0_24 = tt.broadcast %tmp0_22 : tensor<64x1xi32> -> tensor<64x64xi32> loc(#loc108)
        %tmp0_25 = arith.addi %tmp0_23, %tmp0_24 : tensor<64x64xi32> loc(#loc108)
        %tmp0_26 = arith.constant 4608 : i32 loc(#loc109)
        %tmp0_27 = arith.constant 4608 : i32 loc(#loc109)
        %tmp0_28 = arith.constant dense<4608> : tensor<64x1xi32> loc(#loc109)
        %tmp0_29 = arith.muli %tmp0_28, %x1_13 : tensor<64x1xi32> loc(#loc109)
        %tmp0_30 = tt.broadcast %tmp0_29 : tensor<64x1xi32> -> tensor<64x64xi32> loc(#loc110)
        %tmp0_31 = arith.addi %tmp0_25, %tmp0_30 : tensor<64x64xi32> loc(#loc110)
        %tmp0_32 = tt.splat %in_ptr0 : !tt.ptr<f16> -> tensor<64x64x!tt.ptr<f16>> loc(#loc111)
        %tmp0_33 = tt.addptr %tmp0_32, %tmp0_31 : tensor<64x64x!tt.ptr<f16>>, tensor<64x64xi32> loc(#loc111)
        %tmp0_34 = tt.broadcast %r0_mask_19 : tensor<1x64xi1> -> tensor<64x64xi1> loc(#loc112)
        %tmp0_35 = tt.broadcast %xmask_6 : tensor<64x1xi1> -> tensor<64x64xi1> loc(#loc112)
        %tmp0_36 = arith.andi %tmp0_34, %tmp0_35 : tensor<64x64xi1> loc(#loc112)
        %tmp0_37 = arith.constant 0.000000e+00 : f32 loc(#loc113)
        %tmp0_38 = arith.constant dense<0.000000e+00> : tensor<64x64xf32> loc(#loc113)
        %tmp0_39 = arith.truncf %tmp0_38 : tensor<64x64xf32> to tensor<64x64xf16> loc(#loc113)
        %tmp0_40 = tt.load %tmp0_33, %tmp0_36, %tmp0_39 evictionPolicy = evict_first : tensor<64x64x!tt.ptr<f16>> loc(#loc113)
        %tmp0_41 = arith.extf %tmp0_40 : tensor<64x64xf16> to tensor<64x64xf32> loc(#loc114)
        %tmp2 = arith.mulf %tmp0_41, %tmp0_41 : tensor<64x64xf32> loc(#loc115)
        %tmp5 = arith.addf %_tmp4_17, %tmp2 : tensor<64x64xf32> loc(#loc116)
        %_tmp4_42 = tt.broadcast %r0_mask_19 : tensor<1x64xi1> -> tensor<64x64xi1> loc(#loc117)
        %_tmp4_43 = tt.broadcast %xmask_6 : tensor<64x1xi1> -> tensor<64x64xi1> loc(#loc117)
        %_tmp4_44 = arith.andi %_tmp4_42, %_tmp4_43 : tensor<64x64xi1> loc(#loc117)
        %_tmp4_45 = arith.select %_tmp4_44, %tmp5, %_tmp4_17 : tensor<64x64xi1>, tensor<64x64xf32> loc(#loc118)
        scf.yield %_tmp4_45 : tensor<64x64xf32> loc(#loc33)
      } loc(#loc104)
      %tmp4 = tt.call @"triton.language.standard.sum__fp32S64_64S__(1,)cconstexpr_1__(2,)cconstexpr_False__(3,)cNone"(%_tmp4_15) : (tensor<64x64xf32>) -> tensor<64xf32> loc(#loc119)
      %tmp4_16 = tt.expand_dims %tmp4 {axis = 1 : i32} : tensor<64xf32> -> tensor<64x1xf32> loc(#loc120)
      %5 = tt.splat %out_ptr0 : !tt.ptr<f32> -> tensor<64x1x!tt.ptr<f32>> loc(#loc36)
      %6 = tt.addptr %5, %xindex_5 : tensor<64x1x!tt.ptr<f32>>, tensor<64x1xi32> loc(#loc36)
      tt.store %6, %tmp4_16, %xmask_6 : tensor<64x1x!tt.ptr<f32>> loc(#loc37)
    } else {
      %1 = arith.cmpi slt, %pid, %num_xblocks_1_0 : i32 loc(#loc38)
      scf.if %1 {
        %pid_offset = arith.subi %pid, %num_xblocks_0 : i32 loc(#loc121)
        %r0_numel = arith.constant 256 : i32 loc(#loc122)
        %xoffset = arith.constant 64 : i32 loc(#loc123)
        %xoffset_1 = arith.constant 64 : i32 loc(#loc123)
        %xoffset_2 = arith.muli %pid_offset, %xoffset_1 : i32 loc(#loc123)
        %xindex = tt.make_range {end = 64 : i32, start = 0 : i32} : tensor<64xi32> loc(#loc124)
        %xindex_3 = tt.expand_dims %xindex {axis = 1 : i32} : tensor<64xi32> -> tensor<64x1xi32> loc(#loc125)
        %xindex_4 = tt.splat %xoffset_2 : i32 -> tensor<64x1xi32> loc(#loc126)
        %xindex_5 = arith.addi %xindex_4, %xindex_3 : tensor<64x1xi32> loc(#loc126)
        %xmask = tt.splat %xnumel_1 : i32 -> tensor<64x1xi32> loc(#loc127)
        %xmask_6 = arith.cmpi slt, %xindex_5, %xmask : tensor<64x1xi32> loc(#loc127)
        %r0_base = tt.make_range {end = 64 : i32, start = 0 : i32} : tensor<64xi32> loc(#loc128)
        %r0_base_7 = tt.expand_dims %r0_base {axis = 0 : i32} : tensor<64xi32> -> tensor<1x64xi32> loc(#loc129)
        %_tmp10 = arith.constant 0.000000e+00 : f32 loc(#loc130)
        %_tmp10_8 = arith.constant dense<0.000000e+00> : tensor<64x64xf32> loc(#loc130)
        %c0_i32 = arith.constant 0 : i32 loc(#loc50)
        %c64_i32 = arith.constant 64 : i32 loc(#loc50)
        %2 = arith.bitcast %c0_i32 : i32 to i32 loc(#loc50)
        %3 = arith.bitcast %r0_numel : i32 to i32 loc(#loc50)
        %4 = arith.bitcast %c64_i32 : i32 to i32 loc(#loc50)
        %5 = ub.poison : i32 loc(#loc50)
        %_tmp10_9 = scf.for %r0_offset = %2 to %3 step %4 iter_args(%_tmp10_11 = %_tmp10_8) -> (tensor<64x64xf32>)  : i32 {
          %r0_index = tt.splat %r0_offset : i32 -> tensor<1x64xi32> loc(#loc132)
          %r0_index_12 = arith.addi %r0_index, %r0_base_7 : tensor<1x64xi32> loc(#loc132)
          %r0_mask = arith.constant dense<256> : tensor<1x64xi32> loc(#loc133)
          %r0_mask_13 = arith.cmpi slt, %r0_index_12, %r0_mask : tensor<1x64xi32> loc(#loc133)
          %tmp6 = arith.constant 4096 : i32 loc(#loc134)
          %tmp6_14 = arith.constant 4096 : i32 loc(#loc134)
          %tmp6_15 = arith.constant dense<4096> : tensor<1x64xi32> loc(#loc134)
          %tmp6_16 = arith.addi %tmp6_15, %r0_index_12 : tensor<1x64xi32> loc(#loc134)
          %tmp6_17 = arith.constant 4608 : i32 loc(#loc135)
          %tmp6_18 = arith.constant 4608 : i32 loc(#loc135)
          %tmp6_19 = arith.constant dense<4608> : tensor<64x1xi32> loc(#loc135)
          %tmp6_20 = arith.muli %tmp6_19, %xindex_5 : tensor<64x1xi32> loc(#loc135)
          %tmp6_21 = tt.broadcast %tmp6_16 : tensor<1x64xi32> -> tensor<64x64xi32> loc(#loc136)
          %tmp6_22 = tt.broadcast %tmp6_20 : tensor<64x1xi32> -> tensor<64x64xi32> loc(#loc136)
          %tmp6_23 = arith.addi %tmp6_21, %tmp6_22 : tensor<64x64xi32> loc(#loc136)
          %tmp6_24 = tt.splat %in_ptr0 : !tt.ptr<f16> -> tensor<64x64x!tt.ptr<f16>> loc(#loc137)
          %tmp6_25 = tt.addptr %tmp6_24, %tmp6_23 : tensor<64x64x!tt.ptr<f16>>, tensor<64x64xi32> loc(#loc137)
          %tmp6_26 = tt.broadcast %r0_mask_13 : tensor<1x64xi1> -> tensor<64x64xi1> loc(#loc138)
          %tmp6_27 = tt.broadcast %xmask_6 : tensor<64x1xi1> -> tensor<64x64xi1> loc(#loc138)
          %tmp6_28 = arith.andi %tmp6_26, %tmp6_27 : tensor<64x64xi1> loc(#loc138)
          %tmp6_29 = arith.constant 0.000000e+00 : f32 loc(#loc139)
          %tmp6_30 = arith.constant dense<0.000000e+00> : tensor<64x64xf32> loc(#loc139)
          %tmp6_31 = arith.truncf %tmp6_30 : tensor<64x64xf32> to tensor<64x64xf16> loc(#loc139)
          %tmp6_32 = tt.load %tmp6_25, %tmp6_28, %tmp6_31 evictionPolicy = evict_first : tensor<64x64x!tt.ptr<f16>> loc(#loc139)
          %tmp6_33 = arith.extf %tmp6_32 : tensor<64x64xf16> to tensor<64x64xf32> loc(#loc140)
          %tmp8 = arith.mulf %tmp6_33, %tmp6_33 : tensor<64x64xf32> loc(#loc141)
          %tmp11 = arith.addf %_tmp10_11, %tmp8 : tensor<64x64xf32> loc(#loc142)
          %_tmp10_34 = tt.broadcast %r0_mask_13 : tensor<1x64xi1> -> tensor<64x64xi1> loc(#loc143)
          %_tmp10_35 = tt.broadcast %xmask_6 : tensor<64x1xi1> -> tensor<64x64xi1> loc(#loc143)
          %_tmp10_36 = arith.andi %_tmp10_34, %_tmp10_35 : tensor<64x64xi1> loc(#loc143)
          %_tmp10_37 = arith.select %_tmp10_36, %tmp11, %_tmp10_11 : tensor<64x64xi1>, tensor<64x64xf32> loc(#loc144)
          scf.yield %_tmp10_37 : tensor<64x64xf32> loc(#loc64)
        } loc(#loc131)
        %tmp10 = tt.call @"triton.language.standard.sum__fp32S64_64S__(1,)cconstexpr_1__(2,)cconstexpr_False__(3,)cNone"(%_tmp10_9) : (tensor<64x64xf32>) -> tensor<64xf32> loc(#loc145)
        %tmp10_10 = tt.expand_dims %tmp10 {axis = 1 : i32} : tensor<64xf32> -> tensor<64x1xf32> loc(#loc146)
        %6 = tt.splat %out_ptr1 : !tt.ptr<f32> -> tensor<64x1x!tt.ptr<f32>> loc(#loc67)
        %7 = tt.addptr %6, %xindex_5 : tensor<64x1x!tt.ptr<f32>>, tensor<64x1xi32> loc(#loc67)
        tt.store %7, %tmp10_10, %xmask_6 : tensor<64x1x!tt.ptr<f32>> loc(#loc68)
      } else {
      } loc(#loc39)
    } loc(#loc6)
    tt.return loc(#loc69)
  } loc(#loc)
  tt.func private @"triton.language.standard.cdiv__i32__(1,)cconstexpr_64_"(%x: i32 loc("x"(#loc70))) -> i32 attributes {noinline = false} {
    %c63_i32 = arith.constant 63 : i32 loc(#loc71)
    %c63_i32_0 = arith.constant 63 : i32 loc(#loc71)
    %0 = arith.addi %x, %c63_i32_0 : i32 loc(#loc71)
    %c64_i32 = arith.constant 64 : i32 loc(#loc72)
    %c64_i32_1 = arith.constant 64 : i32 loc(#loc72)
    %1 = arith.divsi %0, %c64_i32_1 : i32 loc(#loc72)
    tt.return %1 : i32 loc(#loc73)
  ^bb1:  // no predecessors
    %2 = ub.poison : i32 loc(#loc74)
    tt.return %2 : i32 loc(#loc74)
  } loc(#loc70)
  tt.func private @"triton.language.standard.sum__fp32S64_64S__(1,)cconstexpr_1__(2,)cconstexpr_False__(3,)cNone"(%input: tensor<64x64xf32> loc("input"(#loc75))) -> tensor<64xf32> attributes {noinline = false} {
    %0 = "tt.reduce"(%input) <{axis = 1 : i32}> ({
    ^bb0(%arg1: f32 loc(unknown), %arg2: f32 loc(unknown)):
      %2 = tt.call @triton.language.standard._sum_combine__fp32_fp32__(%arg1, %arg2) : (f32, f32) -> f32 loc(#loc76)
      tt.reduce.return %2 : f32 loc(#loc76)
    }) : (tensor<64x64xf32>) -> tensor<64xf32> loc(#loc76)
    tt.return %0 : tensor<64xf32> loc(#loc78)
  ^bb1:  // no predecessors
    %1 = ub.poison : tensor<64xf32> loc(#loc79)
    tt.return %1 : tensor<64xf32> loc(#loc79)
  } loc(#loc75)
  tt.func private @triton.language.standard._sum_combine__fp32_fp32__(%a: f32 loc("a"(#loc80)), %b: f32 loc("b"(#loc80))) -> f32 attributes {noinline = false} {
    %0 = arith.addf %a, %b : f32 loc(#loc81)
    tt.return %0 : f32 loc(#loc82)
  ^bb1:  // no predecessors
    %1 = ub.poison : f32 loc(#loc83)
    tt.return %1 : f32 loc(#loc83)
  } loc(#loc80)
} loc(#loc)
#loc1 = loc("/root/.cache/vllm/torch_compile_cache/torch_aot_compile/61bda05feca29378847c32f031efa5c8dba258f38b0176a06a3e99e41df8ca50/inductor_cache/bj/cbjcfhyz453mv4nsfd2kj7nsvtfqfeleeqew3bleie4ghxopa5d5.py":22:24)
#loc2 = loc("/root/.cache/vllm/torch_compile_cache/torch_aot_compile/61bda05feca29378847c32f031efa5c8dba258f38b0176a06a3e99e41df8ca50/inductor_cache/bj/cbjcfhyz453mv4nsfd2kj7nsvtfqfeleeqew3bleie4ghxopa5d5.py":23:38)
#loc3 = loc("/root/.cache/vllm/torch_compile_cache/torch_aot_compile/61bda05feca29378847c32f031efa5c8dba258f38b0176a06a3e99e41df8ca50/inductor_cache/bj/cbjcfhyz453mv4nsfd2kj7nsvtfqfeleeqew3bleie4ghxopa5d5.py":24:54)
#loc4 = loc("/root/.cache/vllm/torch_compile_cache/torch_aot_compile/61bda05feca29378847c32f031efa5c8dba258f38b0176a06a3e99e41df8ca50/inductor_cache/bj/cbjcfhyz453mv4nsfd2kj7nsvtfqfeleeqew3bleie4ghxopa5d5.py":24:36)
#loc5 = loc("/root/.cache/vllm/torch_compile_cache/torch_aot_compile/61bda05feca29378847c32f031efa5c8dba258f38b0176a06a3e99e41df8ca50/inductor_cache/bj/cbjcfhyz453mv4nsfd2kj7nsvtfqfeleeqew3bleie4ghxopa5d5.py":25:13)
#loc6 = loc("/root/.cache/vllm/torch_compile_cache/torch_aot_compile/61bda05feca29378847c32f031efa5c8dba258f38b0176a06a3e99e41df8ca50/inductor_cache/bj/cbjcfhyz453mv4nsfd2kj7nsvtfqfeleeqew3bleie4ghxopa5d5.py":25:7)
#loc7 = loc("/root/.cache/vllm/torch_compile_cache/torch_aot_compile/61bda05feca29378847c32f031efa5c8dba258f38b0176a06a3e99e41df8ca50/inductor_cache/bj/cbjcfhyz453mv4nsfd2kj7nsvtfqfeleeqew3bleie4ghxopa5d5.py":27:19)
#loc8 = loc("/root/.cache/vllm/torch_compile_cache/torch_aot_compile/61bda05feca29378847c32f031efa5c8dba258f38b0176a06a3e99e41df8ca50/inductor_cache/bj/cbjcfhyz453mv4nsfd2kj7nsvtfqfeleeqew3bleie4ghxopa5d5.py":30:31)
#loc9 = loc("/root/.cache/vllm/torch_compile_cache/torch_aot_compile/61bda05feca29378847c32f031efa5c8dba258f38b0176a06a3e99e41df8ca50/inductor_cache/bj/cbjcfhyz453mv4nsfd2kj7nsvtfqfeleeqew3bleie4ghxopa5d5.py":31:40)
#loc10 = loc("/root/.cache/vllm/torch_compile_cache/torch_aot_compile/61bda05feca29378847c32f031efa5c8dba258f38b0176a06a3e99e41df8ca50/inductor_cache/bj/cbjcfhyz453mv4nsfd2kj7nsvtfqfeleeqew3bleie4ghxopa5d5.py":31:48)
#loc11 = loc("/root/.cache/vllm/torch_compile_cache/torch_aot_compile/61bda05feca29378847c32f031efa5c8dba258f38b0176a06a3e99e41df8ca50/inductor_cache/bj/cbjcfhyz453mv4nsfd2kj7nsvtfqfeleeqew3bleie4ghxopa5d5.py":31:27)
#loc12 = loc("/root/.cache/vllm/torch_compile_cache/torch_aot_compile/61bda05feca29378847c32f031efa5c8dba258f38b0176a06a3e99e41df8ca50/inductor_cache/bj/cbjcfhyz453mv4nsfd2kj7nsvtfqfeleeqew3bleie4ghxopa5d5.py":32:25)
#loc13 = loc("/root/.cache/vllm/torch_compile_cache/torch_aot_compile/61bda05feca29378847c32f031efa5c8dba258f38b0176a06a3e99e41df8ca50/inductor_cache/bj/cbjcfhyz453mv4nsfd2kj7nsvtfqfeleeqew3bleie4ghxopa5d5.py":33:31)
#loc14 = loc("/root/.cache/vllm/torch_compile_cache/torch_aot_compile/61bda05feca29378847c32f031efa5c8dba258f38b0176a06a3e99e41df8ca50/inductor_cache/bj/cbjcfhyz453mv4nsfd2kj7nsvtfqfeleeqew3bleie4ghxopa5d5.py":33:41)
#loc15 = loc("/root/.cache/vllm/torch_compile_cache/torch_aot_compile/61bda05feca29378847c32f031efa5c8dba258f38b0176a06a3e99e41df8ca50/inductor_cache/bj/cbjcfhyz453mv4nsfd2kj7nsvtfqfeleeqew3bleie4ghxopa5d5.py":35:23)
#loc16 = loc("/root/.cache/vllm/torch_compile_cache/torch_aot_compile/61bda05feca29378847c32f031efa5c8dba258f38b0176a06a3e99e41df8ca50/inductor_cache/bj/cbjcfhyz453mv4nsfd2kj7nsvtfqfeleeqew3bleie4ghxopa5d5.py":36:23)
#loc17 = loc("/root/.cache/vllm/torch_compile_cache/torch_aot_compile/61bda05feca29378847c32f031efa5c8dba258f38b0176a06a3e99e41df8ca50/inductor_cache/bj/cbjcfhyz453mv4nsfd2kj7nsvtfqfeleeqew3bleie4ghxopa5d5.py":37:47)
#loc18 = loc("/root/.cache/vllm/torch_compile_cache/torch_aot_compile/61bda05feca29378847c32f031efa5c8dba258f38b0176a06a3e99e41df8ca50/inductor_cache/bj/cbjcfhyz453mv4nsfd2kj7nsvtfqfeleeqew3bleie4ghxopa5d5.py":39:47)
#loc19 = loc("/root/.cache/vllm/torch_compile_cache/torch_aot_compile/61bda05feca29378847c32f031efa5c8dba258f38b0176a06a3e99e41df8ca50/inductor_cache/bj/cbjcfhyz453mv4nsfd2kj7nsvtfqfeleeqew3bleie4ghxopa5d5.py":40:35)
#loc20 = loc("/root/.cache/vllm/torch_compile_cache/torch_aot_compile/61bda05feca29378847c32f031efa5c8dba258f38b0176a06a3e99e41df8ca50/inductor_cache/bj/cbjcfhyz453mv4nsfd2kj7nsvtfqfeleeqew3bleie4ghxopa5d5.py":41:33)
#loc21 = loc("/root/.cache/vllm/torch_compile_cache/torch_aot_compile/61bda05feca29378847c32f031efa5c8dba258f38b0176a06a3e99e41df8ca50/inductor_cache/bj/cbjcfhyz453mv4nsfd2kj7nsvtfqfeleeqew3bleie4ghxopa5d5.py":45:49)
#loc22 = loc("/root/.cache/vllm/torch_compile_cache/torch_aot_compile/61bda05feca29378847c32f031efa5c8dba258f38b0176a06a3e99e41df8ca50/inductor_cache/bj/cbjcfhyz453mv4nsfd2kj7nsvtfqfeleeqew3bleie4ghxopa5d5.py":45:45)
#loc23 = loc("/root/.cache/vllm/torch_compile_cache/torch_aot_compile/61bda05feca29378847c32f031efa5c8dba258f38b0176a06a3e99e41df8ca50/inductor_cache/bj/cbjcfhyz453mv4nsfd2kj7nsvtfqfeleeqew3bleie4ghxopa5d5.py":45:59)
#loc24 = loc("/root/.cache/vllm/torch_compile_cache/torch_aot_compile/61bda05feca29378847c32f031efa5c8dba258f38b0176a06a3e99e41df8ca50/inductor_cache/bj/cbjcfhyz453mv4nsfd2kj7nsvtfqfeleeqew3bleie4ghxopa5d5.py":45:54)
#loc25 = loc("/root/.cache/vllm/torch_compile_cache/torch_aot_compile/61bda05feca29378847c32f031efa5c8dba258f38b0176a06a3e99e41df8ca50/inductor_cache/bj/cbjcfhyz453mv4nsfd2kj7nsvtfqfeleeqew3bleie4ghxopa5d5.py":45:38)
#loc26 = loc("/root/.cache/vllm/torch_compile_cache/torch_aot_compile/61bda05feca29378847c32f031efa5c8dba258f38b0176a06a3e99e41df8ca50/inductor_cache/bj/cbjcfhyz453mv4nsfd2kj7nsvtfqfeleeqew3bleie4ghxopa5d5.py":45:74)
#loc27 = loc("/root/.cache/vllm/torch_compile_cache/torch_aot_compile/61bda05feca29378847c32f031efa5c8dba258f38b0176a06a3e99e41df8ca50/inductor_cache/bj/cbjcfhyz453mv4nsfd2kj7nsvtfqfeleeqew3bleie4ghxopa5d5.py":45:64)
#loc28 = loc("/root/.cache/vllm/torch_compile_cache/torch_aot_compile/61bda05feca29378847c32f031efa5c8dba258f38b0176a06a3e99e41df8ca50/inductor_cache/bj/cbjcfhyz453mv4nsfd2kj7nsvtfqfeleeqew3bleie4ghxopa5d5.py":45:126)
#loc29 = loc("/root/.cache/vllm/torch_compile_cache/torch_aot_compile/61bda05feca29378847c32f031efa5c8dba258f38b0176a06a3e99e41df8ca50/inductor_cache/bj/cbjcfhyz453mv4nsfd2kj7nsvtfqfeleeqew3bleie4ghxopa5d5.py":47:26)
#loc30 = loc("/root/.cache/vllm/torch_compile_cache/torch_aot_compile/61bda05feca29378847c32f031efa5c8dba258f38b0176a06a3e99e41df8ca50/inductor_cache/bj/cbjcfhyz453mv4nsfd2kj7nsvtfqfeleeqew3bleie4ghxopa5d5.py":49:27)
#loc31 = loc("/root/.cache/vllm/torch_compile_cache/torch_aot_compile/61bda05feca29378847c32f031efa5c8dba258f38b0176a06a3e99e41df8ca50/inductor_cache/bj/cbjcfhyz453mv4nsfd2kj7nsvtfqfeleeqew3bleie4ghxopa5d5.py":50:39)
#loc32 = loc("/root/.cache/vllm/torch_compile_cache/torch_aot_compile/61bda05feca29378847c32f031efa5c8dba258f38b0176a06a3e99e41df8ca50/inductor_cache/bj/cbjcfhyz453mv4nsfd2kj7nsvtfqfeleeqew3bleie4ghxopa5d5.py":50:52)
#loc33 = loc("/root/.cache/vllm/torch_compile_cache/torch_aot_compile/61bda05feca29378847c32f031efa5c8dba258f38b0176a06a3e99e41df8ca50/inductor_cache/bj/cbjcfhyz453mv4nsfd2kj7nsvtfqfeleeqew3bleie4ghxopa5d5.py":50:12)
#loc34 = loc("/root/.cache/vllm/torch_compile_cache/torch_aot_compile/61bda05feca29378847c32f031efa5c8dba258f38b0176a06a3e99e41df8ca50/inductor_cache/bj/cbjcfhyz453mv4nsfd2kj7nsvtfqfeleeqew3bleie4ghxopa5d5.py":51:29)
#loc35 = loc("/root/.cache/vllm/torch_compile_cache/torch_aot_compile/61bda05feca29378847c32f031efa5c8dba258f38b0176a06a3e99e41df8ca50/inductor_cache/bj/cbjcfhyz453mv4nsfd2kj7nsvtfqfeleeqew3bleie4ghxopa5d5.py":51:32)
#loc36 = loc("/root/.cache/vllm/torch_compile_cache/torch_aot_compile/61bda05feca29378847c32f031efa5c8dba258f38b0176a06a3e99e41df8ca50/inductor_cache/bj/cbjcfhyz453mv4nsfd2kj7nsvtfqfeleeqew3bleie4ghxopa5d5.py":52:29)
#loc37 = loc("/root/.cache/vllm/torch_compile_cache/torch_aot_compile/61bda05feca29378847c32f031efa5c8dba258f38b0176a06a3e99e41df8ca50/inductor_cache/bj/cbjcfhyz453mv4nsfd2kj7nsvtfqfeleeqew3bleie4ghxopa5d5.py":52:40)
#loc38 = loc("/root/.cache/vllm/torch_compile_cache/torch_aot_compile/61bda05feca29378847c32f031efa5c8dba258f38b0176a06a3e99e41df8ca50/inductor_cache/bj/cbjcfhyz453mv4nsfd2kj7nsvtfqfeleeqew3bleie4ghxopa5d5.py":53:15)
#loc39 = loc("/root/.cache/vllm/torch_compile_cache/torch_aot_compile/61bda05feca29378847c32f031efa5c8dba258f38b0176a06a3e99e41df8ca50/inductor_cache/bj/cbjcfhyz453mv4nsfd2kj7nsvtfqfeleeqew3bleie4ghxopa5d5.py":53:9)
#loc40 = loc("/root/.cache/vllm/torch_compile_cache/torch_aot_compile/61bda05feca29378847c32f031efa5c8dba258f38b0176a06a3e99e41df8ca50/inductor_cache/bj/cbjcfhyz453mv4nsfd2kj7nsvtfqfeleeqew3bleie4ghxopa5d5.py":54:27)
#loc41 = loc("/root/.cache/vllm/torch_compile_cache/torch_aot_compile/61bda05feca29378847c32f031efa5c8dba258f38b0176a06a3e99e41df8ca50/inductor_cache/bj/cbjcfhyz453mv4nsfd2kj7nsvtfqfeleeqew3bleie4ghxopa5d5.py":55:19)
#loc42 = loc("/root/.cache/vllm/torch_compile_cache/torch_aot_compile/61bda05feca29378847c32f031efa5c8dba258f38b0176a06a3e99e41df8ca50/inductor_cache/bj/cbjcfhyz453mv4nsfd2kj7nsvtfqfeleeqew3bleie4ghxopa5d5.py":58:31)
#loc43 = loc("/root/.cache/vllm/torch_compile_cache/torch_aot_compile/61bda05feca29378847c32f031efa5c8dba258f38b0176a06a3e99e41df8ca50/inductor_cache/bj/cbjcfhyz453mv4nsfd2kj7nsvtfqfeleeqew3bleie4ghxopa5d5.py":59:40)
#loc44 = loc("/root/.cache/vllm/torch_compile_cache/torch_aot_compile/61bda05feca29378847c32f031efa5c8dba258f38b0176a06a3e99e41df8ca50/inductor_cache/bj/cbjcfhyz453mv4nsfd2kj7nsvtfqfeleeqew3bleie4ghxopa5d5.py":59:48)
#loc45 = loc("/root/.cache/vllm/torch_compile_cache/torch_aot_compile/61bda05feca29378847c32f031efa5c8dba258f38b0176a06a3e99e41df8ca50/inductor_cache/bj/cbjcfhyz453mv4nsfd2kj7nsvtfqfeleeqew3bleie4ghxopa5d5.py":59:27)
#loc46 = loc("/root/.cache/vllm/torch_compile_cache/torch_aot_compile/61bda05feca29378847c32f031efa5c8dba258f38b0176a06a3e99e41df8ca50/inductor_cache/bj/cbjcfhyz453mv4nsfd2kj7nsvtfqfeleeqew3bleie4ghxopa5d5.py":60:25)
#loc47 = loc("/root/.cache/vllm/torch_compile_cache/torch_aot_compile/61bda05feca29378847c32f031efa5c8dba258f38b0176a06a3e99e41df8ca50/inductor_cache/bj/cbjcfhyz453mv4nsfd2kj7nsvtfqfeleeqew3bleie4ghxopa5d5.py":61:31)
#loc48 = loc("/root/.cache/vllm/torch_compile_cache/torch_aot_compile/61bda05feca29378847c32f031efa5c8dba258f38b0176a06a3e99e41df8ca50/inductor_cache/bj/cbjcfhyz453mv4nsfd2kj7nsvtfqfeleeqew3bleie4ghxopa5d5.py":61:41)
#loc49 = loc("/root/.cache/vllm/torch_compile_cache/torch_aot_compile/61bda05feca29378847c32f031efa5c8dba258f38b0176a06a3e99e41df8ca50/inductor_cache/bj/cbjcfhyz453mv4nsfd2kj7nsvtfqfeleeqew3bleie4ghxopa5d5.py":64:48)
#loc50 = loc("/root/.cache/vllm/torch_compile_cache/torch_aot_compile/61bda05feca29378847c32f031efa5c8dba258f38b0176a06a3e99e41df8ca50/inductor_cache/bj/cbjcfhyz453mv4nsfd2kj7nsvtfqfeleeqew3bleie4ghxopa5d5.py":65:47)
#loc51 = loc("/root/.cache/vllm/torch_compile_cache/torch_aot_compile/61bda05feca29378847c32f031efa5c8dba258f38b0176a06a3e99e41df8ca50/inductor_cache/bj/cbjcfhyz453mv4nsfd2kj7nsvtfqfeleeqew3bleie4ghxopa5d5.py":66:35)
#loc52 = loc("/root/.cache/vllm/torch_compile_cache/torch_aot_compile/61bda05feca29378847c32f031efa5c8dba258f38b0176a06a3e99e41df8ca50/inductor_cache/bj/cbjcfhyz453mv4nsfd2kj7nsvtfqfeleeqew3bleie4ghxopa5d5.py":67:33)
#loc53 = loc("/root/.cache/vllm/torch_compile_cache/torch_aot_compile/61bda05feca29378847c32f031efa5c8dba258f38b0176a06a3e99e41df8ca50/inductor_cache/bj/cbjcfhyz453mv4nsfd2kj7nsvtfqfeleeqew3bleie4ghxopa5d5.py":71:45)
#loc54 = loc("/root/.cache/vllm/torch_compile_cache/torch_aot_compile/61bda05feca29378847c32f031efa5c8dba258f38b0176a06a3e99e41df8ca50/inductor_cache/bj/cbjcfhyz453mv4nsfd2kj7nsvtfqfeleeqew3bleie4ghxopa5d5.py":71:57)
#loc55 = loc("/root/.cache/vllm/torch_compile_cache/torch_aot_compile/61bda05feca29378847c32f031efa5c8dba258f38b0176a06a3e99e41df8ca50/inductor_cache/bj/cbjcfhyz453mv4nsfd2kj7nsvtfqfeleeqew3bleie4ghxopa5d5.py":71:52)
#loc56 = loc("/root/.cache/vllm/torch_compile_cache/torch_aot_compile/61bda05feca29378847c32f031efa5c8dba258f38b0176a06a3e99e41df8ca50/inductor_cache/bj/cbjcfhyz453mv4nsfd2kj7nsvtfqfeleeqew3bleie4ghxopa5d5.py":71:38)
#loc57 = loc("/root/.cache/vllm/torch_compile_cache/torch_aot_compile/61bda05feca29378847c32f031efa5c8dba258f38b0176a06a3e99e41df8ca50/inductor_cache/bj/cbjcfhyz453mv4nsfd2kj7nsvtfqfeleeqew3bleie4ghxopa5d5.py":71:72)
#loc58 = loc("/root/.cache/vllm/torch_compile_cache/torch_aot_compile/61bda05feca29378847c32f031efa5c8dba258f38b0176a06a3e99e41df8ca50/inductor_cache/bj/cbjcfhyz453mv4nsfd2kj7nsvtfqfeleeqew3bleie4ghxopa5d5.py":71:62)
#loc59 = loc("/root/.cache/vllm/torch_compile_cache/torch_aot_compile/61bda05feca29378847c32f031efa5c8dba258f38b0176a06a3e99e41df8ca50/inductor_cache/bj/cbjcfhyz453mv4nsfd2kj7nsvtfqfeleeqew3bleie4ghxopa5d5.py":71:124)
#loc60 = loc("/root/.cache/vllm/torch_compile_cache/torch_aot_compile/61bda05feca29378847c32f031efa5c8dba258f38b0176a06a3e99e41df8ca50/inductor_cache/bj/cbjcfhyz453mv4nsfd2kj7nsvtfqfeleeqew3bleie4ghxopa5d5.py":73:26)
#loc61 = loc("/root/.cache/vllm/torch_compile_cache/torch_aot_compile/61bda05feca29378847c32f031efa5c8dba258f38b0176a06a3e99e41df8ca50/inductor_cache/bj/cbjcfhyz453mv4nsfd2kj7nsvtfqfeleeqew3bleie4ghxopa5d5.py":75:29)
#loc62 = loc("/root/.cache/vllm/torch_compile_cache/torch_aot_compile/61bda05feca29378847c32f031efa5c8dba258f38b0176a06a3e99e41df8ca50/inductor_cache/bj/cbjcfhyz453mv4nsfd2kj7nsvtfqfeleeqew3bleie4ghxopa5d5.py":76:40)
#loc63 = loc("/root/.cache/vllm/torch_compile_cache/torch_aot_compile/61bda05feca29378847c32f031efa5c8dba258f38b0176a06a3e99e41df8ca50/inductor_cache/bj/cbjcfhyz453mv4nsfd2kj7nsvtfqfeleeqew3bleie4ghxopa5d5.py":76:54)
#loc64 = loc("/root/.cache/vllm/torch_compile_cache/torch_aot_compile/61bda05feca29378847c32f031efa5c8dba258f38b0176a06a3e99e41df8ca50/inductor_cache/bj/cbjcfhyz453mv4nsfd2kj7nsvtfqfeleeqew3bleie4ghxopa5d5.py":76:12)
#loc65 = loc("/root/.cache/vllm/torch_compile_cache/torch_aot_compile/61bda05feca29378847c32f031efa5c8dba258f38b0176a06a3e99e41df8ca50/inductor_cache/bj/cbjcfhyz453mv4nsfd2kj7nsvtfqfeleeqew3bleie4ghxopa5d5.py":77:31)
#loc66 = loc("/root/.cache/vllm/torch_compile_cache/torch_aot_compile/61bda05feca29378847c32f031efa5c8dba258f38b0176a06a3e99e41df8ca50/inductor_cache/bj/cbjcfhyz453mv4nsfd2kj7nsvtfqfeleeqew3bleie4ghxopa5d5.py":77:34)
#loc67 = loc("/root/.cache/vllm/torch_compile_cache/torch_aot_compile/61bda05feca29378847c32f031efa5c8dba258f38b0176a06a3e99e41df8ca50/inductor_cache/bj/cbjcfhyz453mv4nsfd2kj7nsvtfqfeleeqew3bleie4ghxopa5d5.py":78:29)
#loc68 = loc("/root/.cache/vllm/torch_compile_cache/torch_aot_compile/61bda05feca29378847c32f031efa5c8dba258f38b0176a06a3e99e41df8ca50/inductor_cache/bj/cbjcfhyz453mv4nsfd2kj7nsvtfqfeleeqew3bleie4ghxopa5d5.py":78:41)
#loc69 = loc("/root/.cache/vllm/torch_compile_cache/torch_aot_compile/61bda05feca29378847c32f031efa5c8dba258f38b0176a06a3e99e41df8ca50/inductor_cache/bj/cbjcfhyz453mv4nsfd2kj7nsvtfqfeleeqew3bleie4ghxopa5d5.py":25:4)
#loc71 = loc("/usr/local/lib/python3.12/dist-packages/triton/language/standard.py":43:17)
#loc72 = loc("/usr/local/lib/python3.12/dist-packages/triton/language/standard.py":43:30)
#loc73 = loc("/usr/local/lib/python3.12/dist-packages/triton/language/standard.py":43:11)
#loc74 = loc("/usr/local/lib/python3.12/dist-packages/triton/language/standard.py":43:4)
#loc76 = loc("/usr/local/lib/python3.12/dist-packages/triton/language/standard.py":293:36)
#loc78 = loc("/usr/local/lib/python3.12/dist-packages/triton/language/standard.py":293:11)
#loc79 = loc("/usr/local/lib/python3.12/dist-packages/triton/language/standard.py":293:4)
#loc81 = loc("/usr/local/lib/python3.12/dist-packages/triton/language/standard.py":263:15)
#loc82 = loc("/usr/local/lib/python3.12/dist-packages/triton/language/standard.py":263:11)
#loc83 = loc("/usr/local/lib/python3.12/dist-packages/triton/language/standard.py":263:4)
#loc89 = loc("pid"(#loc1))
#loc90 = loc("num_xblocks_0"(#loc2))
#loc91 = loc("num_xblocks_1"(#loc3))
#loc92 = loc("num_xblocks_1"(#loc4))
#loc93 = loc("r0_numel"(#loc7))
#loc94 = loc("xoffset"(#loc8))
#loc95 = loc("xindex"(#loc9))
#loc96 = loc("xindex"(#loc10))
#loc97 = loc("xindex"(#loc11))
#loc98 = loc("xmask"(#loc12))
#loc99 = loc("r0_base"(#loc13))
#loc100 = loc("r0_base"(#loc14))
#loc101 = loc("x0"(#loc15))
#loc102 = loc("x1"(#loc16))
#loc103 = loc("_tmp4"(#loc17))
#loc104 = loc("_tmp4"(#loc18))
#loc105 = loc("r0_index"(#loc19))
#loc106 = loc("r0_mask"(#loc20))
#loc107 = loc("tmp0"(#loc21))
#loc108 = loc("tmp0"(#loc22))
#loc109 = loc("tmp0"(#loc23))
#loc110 = loc("tmp0"(#loc24))
#loc111 = loc("tmp0"(#loc25))
#loc112 = loc("tmp0"(#loc26))
#loc113 = loc("tmp0"(#loc27))
#loc114 = loc("tmp0"(#loc28))
#loc115 = loc("tmp2"(#loc29))
#loc116 = loc("tmp5"(#loc30))
#loc117 = loc("_tmp4"(#loc31))
#loc118 = loc("_tmp4"(#loc32))
#loc119 = loc("tmp4"(#loc34))
#loc120 = loc("tmp4"(#loc35))
#loc121 = loc("pid_offset"(#loc40))
#loc122 = loc("r0_numel"(#loc41))
#loc123 = loc("xoffset"(#loc42))
#loc124 = loc("xindex"(#loc43))
#loc125 = loc("xindex"(#loc44))
#loc126 = loc("xindex"(#loc45))
#loc127 = loc("xmask"(#loc46))
#loc128 = loc("r0_base"(#loc47))
#loc129 = loc("r0_base"(#loc48))
#loc130 = loc("_tmp10"(#loc49))
#loc131 = loc("_tmp10"(#loc50))
#loc132 = loc("r0_index"(#loc51))
#loc133 = loc("r0_mask"(#loc52))
#loc134 = loc("tmp6"(#loc53))
#loc135 = loc("tmp6"(#loc54))
#loc136 = loc("tmp6"(#loc55))
#loc137 = loc("tmp6"(#loc56))
#loc138 = loc("tmp6"(#loc57))
#loc139 = loc("tmp6"(#loc58))
#loc140 = loc("tmp6"(#loc59))
#loc141 = loc("tmp8"(#loc60))
#loc142 = loc("tmp11"(#loc61))
#loc143 = loc("_tmp10"(#loc62))
#loc144 = loc("_tmp10"(#loc63))
#loc145 = loc("tmp10"(#loc65))
#loc146 = loc("tmp10"(#loc66))
