#loc = loc("/root/.cache/vllm/torch_compile_cache/torch_aot_compile/61bda05feca29378847c32f031efa5c8dba258f38b0176a06a3e99e41df8ca50/inductor_cache/lq/clqtizz53lkfia5yetfbu3isbk72xudaobkwcep6jjehbcgj4mwy.py":18:0)
#loc54 = loc("/usr/local/lib/python3.12/dist-packages/triton/language/standard.py":287:0)
#loc56 = loc(unknown)
#loc59 = loc("/usr/local/lib/python3.12/dist-packages/triton/language/standard.py":262:0)
#loc63 = loc("in_ptr0"(#loc))
#loc64 = loc("in_ptr1"(#loc))
#loc65 = loc("out_ptr1"(#loc))
#loc66 = loc("xnumel"(#loc))
#loc67 = loc("r0_numel"(#loc))
#loc113 = loc("input"(#loc54))
#loc114 = loc("a"(#loc59))
#loc115 = loc("b"(#loc59))
module {
  tt.func public @triton_red_fused_1(%in_ptr0: !tt.ptr<f16> {tt.divisibility = 16 : i32} loc("in_ptr0"(#loc)), %in_ptr1: !tt.ptr<f16> {tt.divisibility = 16 : i32} loc("in_ptr1"(#loc)), %out_ptr1: !tt.ptr<f16> {tt.divisibility = 16 : i32} loc("out_ptr1"(#loc)), %xnumel: i32 loc("xnumel"(#loc)), %r0_numel: i32 {tt.divisibility = 16 : i32} loc("r0_numel"(#loc))) attributes {noinline = false} {
    %r0_numel_0 = arith.constant 2048 : i32 loc(#loc68)
    %xoffset = tt.get_program_id x : i32 loc(#loc69)
    %xoffset_1 = arith.constant 2 : i32 loc(#loc70)
    %xoffset_2 = arith.constant 2 : i32 loc(#loc70)
    %xoffset_3 = arith.muli %xoffset, %xoffset_2 : i32 loc(#loc70)
    %xindex = tt.make_range {end = 2 : i32, start = 0 : i32} : tensor<2xi32> loc(#loc71)
    %xindex_4 = tt.expand_dims %xindex {axis = 1 : i32} : tensor<2xi32> -> tensor<2x1xi32> loc(#loc72)
    %xindex_5 = tt.splat %xoffset_3 : i32 -> tensor<2x1xi32> loc(#loc73)
    %xindex_6 = arith.addi %xindex_5, %xindex_4 : tensor<2x1xi32> loc(#loc73)
    %xmask = tt.splat %xnumel : i32 -> tensor<2x1xi32> loc(#loc74)
    %xmask_7 = arith.cmpi slt, %xindex_6, %xmask : tensor<2x1xi32> loc(#loc74)
    %r0_base = tt.make_range {end = 2048 : i32, start = 0 : i32} : tensor<2048xi32> loc(#loc75)
    %r0_base_8 = tt.expand_dims %r0_base {axis = 0 : i32} : tensor<2048xi32> -> tensor<1x2048xi32> loc(#loc76)
    %_tmp4 = arith.constant 0.000000e+00 : f32 loc(#loc77)
    %_tmp4_9 = arith.constant dense<0.000000e+00> : tensor<2x2048xf32> loc(#loc77)
    %c0_i32 = arith.constant 0 : i32 loc(#loc11)
    %c2048_i32 = arith.constant 2048 : i32 loc(#loc11)
    %0 = arith.bitcast %c0_i32 : i32 to i32 loc(#loc11)
    %1 = arith.bitcast %r0_numel_0 : i32 to i32 loc(#loc11)
    %2 = arith.bitcast %c2048_i32 : i32 to i32 loc(#loc11)
    %3 = ub.poison : i32 loc(#loc11)
    %_tmp4_10 = scf.for %r0_offset = %0 to %1 step %2 iter_args(%_tmp4_14 = %_tmp4_9) -> (tensor<2x2048xf32>)  : i32 {
      %r0_index = tt.splat %r0_offset : i32 -> tensor<1x2048xi32> loc(#loc79)
      %r0_index_15 = arith.addi %r0_index, %r0_base_8 : tensor<1x2048xi32> loc(#loc79)
      %r0_mask = arith.constant dense<2048> : tensor<1x2048xi32> loc(#loc80)
      %r0_mask_16 = arith.cmpi slt, %r0_index_15, %r0_mask : tensor<1x2048xi32> loc(#loc80)
      %tmp0 = arith.constant 2048 : i32 loc(#loc81)
      %tmp0_17 = arith.constant 2048 : i32 loc(#loc81)
      %tmp0_18 = arith.constant dense<2048> : tensor<2x1xi32> loc(#loc81)
      %tmp0_19 = arith.muli %tmp0_18, %xindex_6 : tensor<2x1xi32> loc(#loc81)
      %tmp0_20 = tt.broadcast %r0_index_15 : tensor<1x2048xi32> -> tensor<2x2048xi32> loc(#loc82)
      %tmp0_21 = tt.broadcast %tmp0_19 : tensor<2x1xi32> -> tensor<2x2048xi32> loc(#loc82)
      %tmp0_22 = arith.addi %tmp0_20, %tmp0_21 : tensor<2x2048xi32> loc(#loc82)
      %tmp0_23 = tt.splat %in_ptr0 : !tt.ptr<f16> -> tensor<2x2048x!tt.ptr<f16>> loc(#loc83)
      %tmp0_24 = tt.addptr %tmp0_23, %tmp0_22 : tensor<2x2048x!tt.ptr<f16>>, tensor<2x2048xi32> loc(#loc83)
      %tmp0_25 = tt.broadcast %r0_mask_16 : tensor<1x2048xi1> -> tensor<2x2048xi1> loc(#loc84)
      %tmp0_26 = tt.broadcast %xmask_7 : tensor<2x1xi1> -> tensor<2x2048xi1> loc(#loc84)
      %tmp0_27 = arith.andi %tmp0_25, %tmp0_26 : tensor<2x2048xi1> loc(#loc84)
      %tmp0_28 = arith.constant 0.000000e+00 : f32 loc(#loc85)
      %tmp0_29 = arith.constant dense<0.000000e+00> : tensor<2x2048xf32> loc(#loc85)
      %tmp0_30 = arith.truncf %tmp0_29 : tensor<2x2048xf32> to tensor<2x2048xf16> loc(#loc85)
      %tmp0_31 = tt.load %tmp0_24, %tmp0_27, %tmp0_30 evictionPolicy = evict_last : tensor<2x2048x!tt.ptr<f16>> loc(#loc85)
      %tmp0_32 = arith.extf %tmp0_31 : tensor<2x2048xf16> to tensor<2x2048xf32> loc(#loc86)
      %tmp2 = arith.mulf %tmp0_32, %tmp0_32 : tensor<2x2048xf32> loc(#loc87)
      %tmp5 = arith.addf %_tmp4_14, %tmp2 : tensor<2x2048xf32> loc(#loc88)
      %_tmp4_33 = tt.broadcast %r0_mask_16 : tensor<1x2048xi1> -> tensor<2x2048xi1> loc(#loc89)
      %_tmp4_34 = tt.broadcast %xmask_7 : tensor<2x1xi1> -> tensor<2x2048xi1> loc(#loc89)
      %_tmp4_35 = arith.andi %_tmp4_33, %_tmp4_34 : tensor<2x2048xi1> loc(#loc89)
      %_tmp4_36 = arith.select %_tmp4_35, %tmp5, %_tmp4_14 : tensor<2x2048xi1>, tensor<2x2048xf32> loc(#loc90)
      scf.yield %_tmp4_36 : tensor<2x2048xf32> loc(#loc24)
    } loc(#loc78)
    %tmp4 = tt.call @"triton.language.standard.sum__fp32S2_2048S__(1,)cconstexpr_1__(2,)cconstexpr_False__(3,)cNone"(%_tmp4_10) : (tensor<2x2048xf32>) -> tensor<2xf32> loc(#loc91)
    %tmp4_11 = tt.expand_dims %tmp4 {axis = 1 : i32} : tensor<2xf32> -> tensor<2x1xf32> loc(#loc92)
    %c0_i32_12 = arith.constant 0 : i32 loc(#loc27)
    %c2048_i32_13 = arith.constant 2048 : i32 loc(#loc27)
    %4 = arith.bitcast %c0_i32_12 : i32 to i32 loc(#loc27)
    %5 = arith.bitcast %r0_numel_0 : i32 to i32 loc(#loc27)
    %6 = arith.bitcast %c2048_i32_13 : i32 to i32 loc(#loc27)
    %7 = ub.poison : i32 loc(#loc27)
    scf.for %r0_offset = %4 to %5 step %6  : i32 {
      %r0_index = tt.splat %r0_offset : i32 -> tensor<1x2048xi32> loc(#loc93)
      %r0_index_14 = arith.addi %r0_index, %r0_base_8 : tensor<1x2048xi32> loc(#loc93)
      %r0_mask = arith.constant dense<2048> : tensor<1x2048xi32> loc(#loc94)
      %r0_mask_15 = arith.cmpi slt, %r0_index_14, %r0_mask : tensor<1x2048xi32> loc(#loc94)
      %tmp6 = arith.constant 2048 : i32 loc(#loc95)
      %tmp6_16 = arith.constant 2048 : i32 loc(#loc95)
      %tmp6_17 = arith.constant dense<2048> : tensor<2x1xi32> loc(#loc95)
      %tmp6_18 = arith.muli %tmp6_17, %xindex_6 : tensor<2x1xi32> loc(#loc95)
      %tmp6_19 = tt.broadcast %r0_index_14 : tensor<1x2048xi32> -> tensor<2x2048xi32> loc(#loc96)
      %tmp6_20 = tt.broadcast %tmp6_18 : tensor<2x1xi32> -> tensor<2x2048xi32> loc(#loc96)
      %tmp6_21 = arith.addi %tmp6_19, %tmp6_20 : tensor<2x2048xi32> loc(#loc96)
      %tmp6_22 = tt.splat %in_ptr0 : !tt.ptr<f16> -> tensor<2x2048x!tt.ptr<f16>> loc(#loc97)
      %tmp6_23 = tt.addptr %tmp6_22, %tmp6_21 : tensor<2x2048x!tt.ptr<f16>>, tensor<2x2048xi32> loc(#loc97)
      %tmp6_24 = tt.broadcast %r0_mask_15 : tensor<1x2048xi1> -> tensor<2x2048xi1> loc(#loc98)
      %tmp6_25 = tt.broadcast %xmask_7 : tensor<2x1xi1> -> tensor<2x2048xi1> loc(#loc98)
      %tmp6_26 = arith.andi %tmp6_24, %tmp6_25 : tensor<2x2048xi1> loc(#loc98)
      %tmp6_27 = arith.constant 0.000000e+00 : f32 loc(#loc99)
      %tmp6_28 = arith.constant dense<0.000000e+00> : tensor<2x2048xf32> loc(#loc99)
      %tmp6_29 = arith.truncf %tmp6_28 : tensor<2x2048xf32> to tensor<2x2048xf16> loc(#loc99)
      %tmp6_30 = tt.load %tmp6_23, %tmp6_26, %tmp6_29 evictionPolicy = evict_first : tensor<2x2048x!tt.ptr<f16>> loc(#loc99)
      %tmp6_31 = arith.extf %tmp6_30 : tensor<2x2048xf16> to tensor<2x2048xf32> loc(#loc100)
      %tmp14 = tt.splat %in_ptr1 : !tt.ptr<f16> -> tensor<1x2048x!tt.ptr<f16>> loc(#loc101)
      %tmp14_32 = tt.addptr %tmp14, %r0_index_14 : tensor<1x2048x!tt.ptr<f16>>, tensor<1x2048xi32> loc(#loc101)
      %tmp14_33 = arith.constant 0.000000e+00 : f32 loc(#loc102)
      %tmp14_34 = arith.constant dense<0.000000e+00> : tensor<1x2048xf32> loc(#loc102)
      %tmp14_35 = arith.truncf %tmp14_34 : tensor<1x2048xf32> to tensor<1x2048xf16> loc(#loc102)
      %tmp14_36 = tt.load %tmp14_32, %r0_mask_15, %tmp14_35 evictionPolicy = evict_last : tensor<1x2048x!tt.ptr<f16>> loc(#loc102)
      %tmp14_37 = arith.extf %tmp14_36 : tensor<1x2048xf16> to tensor<1x2048xf32> loc(#loc103)
      %tmp8 = arith.constant 2.048000e+03 : f32 loc(#loc104)
      %tmp8_38 = arith.constant dense<2.048000e+03> : tensor<1x1xf32> loc(#loc104)
      %tmp9 = arith.constant dense<2.048000e+03> : tensor<2x1xf32> loc(#loc105)
      %tmp9_39 = arith.divf %tmp4_11, %tmp9 : tensor<2x1xf32> loc(#loc105)
      %tmp10 = arith.constant 9.99999997E-7 : f32 loc(#loc106)
      %tmp10_40 = arith.constant dense<9.99999997E-7> : tensor<1x1xf32> loc(#loc106)
      %tmp11 = arith.constant dense<9.99999997E-7> : tensor<2x1xf32> loc(#loc107)
      %tmp11_41 = arith.addf %tmp9_39, %tmp11 : tensor<2x1xf32> loc(#loc107)
      %tmp12 = tt.extern_elementwise %tmp11_41 {libname = "", libpath = "", pure = true, symbol = "__nv_rsqrtf"} : (tensor<2x1xf32>) -> tensor<2x1xf32> loc(#loc108)
      %tmp13 = tt.broadcast %tmp12 : tensor<2x1xf32> -> tensor<2x2048xf32> loc(#loc109)
      %tmp13_42 = arith.mulf %tmp6_31, %tmp13 : tensor<2x2048xf32> loc(#loc109)
      %tmp16 = arith.constant 1.000000e+00 : f32 loc(#loc110)
      %tmp16_43 = arith.constant dense<1.000000e+00> : tensor<1x1xf32> loc(#loc110)
      %tmp17 = arith.constant dense<1.000000e+00> : tensor<1x2048xf32> loc(#loc111)
      %tmp17_44 = arith.addf %tmp14_37, %tmp17 : tensor<1x2048xf32> loc(#loc111)
      %tmp18 = tt.broadcast %tmp17_44 : tensor<1x2048xf32> -> tensor<2x2048xf32> loc(#loc112)
      %tmp18_45 = arith.mulf %tmp13_42, %tmp18 : tensor<2x2048xf32> loc(#loc112)
      %c2048_i32_46 = arith.constant 2048 : i32 loc(#loc48)
      %c2048_i32_47 = arith.constant 2048 : i32 loc(#loc48)
      %cst = arith.constant dense<2048> : tensor<2x1xi32> loc(#loc48)
      %8 = arith.muli %cst, %xindex_6 : tensor<2x1xi32> loc(#loc48)
      %9 = tt.broadcast %r0_index_14 : tensor<1x2048xi32> -> tensor<2x2048xi32> loc(#loc49)
      %10 = tt.broadcast %8 : tensor<2x1xi32> -> tensor<2x2048xi32> loc(#loc49)
      %11 = arith.addi %9, %10 : tensor<2x2048xi32> loc(#loc49)
      %12 = tt.splat %out_ptr1 : !tt.ptr<f16> -> tensor<2x2048x!tt.ptr<f16>> loc(#loc50)
      %13 = tt.addptr %12, %11 : tensor<2x2048x!tt.ptr<f16>>, tensor<2x2048xi32> loc(#loc50)
      %14 = tt.broadcast %r0_mask_15 : tensor<1x2048xi1> -> tensor<2x2048xi1> loc(#loc51)
      %15 = tt.broadcast %xmask_7 : tensor<2x1xi1> -> tensor<2x2048xi1> loc(#loc51)
      %16 = arith.andi %14, %15 : tensor<2x2048xi1> loc(#loc51)
      %17 = arith.truncf %tmp18_45 : tensor<2x2048xf32> to tensor<2x2048xf16> loc(#loc52)
      tt.store %13, %17, %16 : tensor<2x2048x!tt.ptr<f16>> loc(#loc52)
    } loc(#loc27)
    tt.return loc(#loc53)
  } loc(#loc)
  tt.func private @"triton.language.standard.sum__fp32S2_2048S__(1,)cconstexpr_1__(2,)cconstexpr_False__(3,)cNone"(%input: tensor<2x2048xf32> loc("input"(#loc54))) -> tensor<2xf32> attributes {noinline = false} {
    %0 = "tt.reduce"(%input) <{axis = 1 : i32}> ({
    ^bb0(%arg1: f32 loc(unknown), %arg2: f32 loc(unknown)):
      %2 = tt.call @triton.language.standard._sum_combine__fp32_fp32__(%arg1, %arg2) : (f32, f32) -> f32 loc(#loc55)
      tt.reduce.return %2 : f32 loc(#loc55)
    }) : (tensor<2x2048xf32>) -> tensor<2xf32> loc(#loc55)
    tt.return %0 : tensor<2xf32> loc(#loc57)
  ^bb1:  // no predecessors
    %1 = ub.poison : tensor<2xf32> loc(#loc58)
    tt.return %1 : tensor<2xf32> loc(#loc58)
  } loc(#loc54)
  tt.func private @triton.language.standard._sum_combine__fp32_fp32__(%a: f32 loc("a"(#loc59)), %b: f32 loc("b"(#loc59))) -> f32 attributes {noinline = false} {
    %0 = arith.addf %a, %b : f32 loc(#loc60)
    tt.return %0 : f32 loc(#loc61)
  ^bb1:  // no predecessors
    %1 = ub.poison : f32 loc(#loc62)
    tt.return %1 : f32 loc(#loc62)
  } loc(#loc59)
} loc(#loc)
#loc1 = loc("/root/.cache/vllm/torch_compile_cache/torch_aot_compile/61bda05feca29378847c32f031efa5c8dba258f38b0176a06a3e99e41df8ca50/inductor_cache/lq/clqtizz53lkfia5yetfbu3isbk72xudaobkwcep6jjehbcgj4mwy.py":19:15)
#loc2 = loc("/root/.cache/vllm/torch_compile_cache/torch_aot_compile/61bda05feca29378847c32f031efa5c8dba258f38b0176a06a3e99e41df8ca50/inductor_cache/lq/clqtizz53lkfia5yetfbu3isbk72xudaobkwcep6jjehbcgj4mwy.py":22:28)
#loc3 = loc("/root/.cache/vllm/torch_compile_cache/torch_aot_compile/61bda05feca29378847c32f031efa5c8dba258f38b0176a06a3e99e41df8ca50/inductor_cache/lq/clqtizz53lkfia5yetfbu3isbk72xudaobkwcep6jjehbcgj4mwy.py":22:33)
#loc4 = loc("/root/.cache/vllm/torch_compile_cache/torch_aot_compile/61bda05feca29378847c32f031efa5c8dba258f38b0176a06a3e99e41df8ca50/inductor_cache/lq/clqtizz53lkfia5yetfbu3isbk72xudaobkwcep6jjehbcgj4mwy.py":23:36)
#loc5 = loc("/root/.cache/vllm/torch_compile_cache/torch_aot_compile/61bda05feca29378847c32f031efa5c8dba258f38b0176a06a3e99e41df8ca50/inductor_cache/lq/clqtizz53lkfia5yetfbu3isbk72xudaobkwcep6jjehbcgj4mwy.py":23:44)
#loc6 = loc("/root/.cache/vllm/torch_compile_cache/torch_aot_compile/61bda05feca29378847c32f031efa5c8dba258f38b0176a06a3e99e41df8ca50/inductor_cache/lq/clqtizz53lkfia5yetfbu3isbk72xudaobkwcep6jjehbcgj4mwy.py":23:23)
#loc7 = loc("/root/.cache/vllm/torch_compile_cache/torch_aot_compile/61bda05feca29378847c32f031efa5c8dba258f38b0176a06a3e99e41df8ca50/inductor_cache/lq/clqtizz53lkfia5yetfbu3isbk72xudaobkwcep6jjehbcgj4mwy.py":24:21)
#loc8 = loc("/root/.cache/vllm/torch_compile_cache/torch_aot_compile/61bda05feca29378847c32f031efa5c8dba258f38b0176a06a3e99e41df8ca50/inductor_cache/lq/clqtizz53lkfia5yetfbu3isbk72xudaobkwcep6jjehbcgj4mwy.py":25:27)
#loc9 = loc("/root/.cache/vllm/torch_compile_cache/torch_aot_compile/61bda05feca29378847c32f031efa5c8dba258f38b0176a06a3e99e41df8ca50/inductor_cache/lq/clqtizz53lkfia5yetfbu3isbk72xudaobkwcep6jjehbcgj4mwy.py":25:37)
#loc10 = loc("/root/.cache/vllm/torch_compile_cache/torch_aot_compile/61bda05feca29378847c32f031efa5c8dba258f38b0176a06a3e99e41df8ca50/inductor_cache/lq/clqtizz53lkfia5yetfbu3isbk72xudaobkwcep6jjehbcgj4mwy.py":28:43)
#loc11 = loc("/root/.cache/vllm/torch_compile_cache/torch_aot_compile/61bda05feca29378847c32f031efa5c8dba258f38b0176a06a3e99e41df8ca50/inductor_cache/lq/clqtizz53lkfia5yetfbu3isbk72xudaobkwcep6jjehbcgj4mwy.py":29:43)
#loc12 = loc("/root/.cache/vllm/torch_compile_cache/torch_aot_compile/61bda05feca29378847c32f031efa5c8dba258f38b0176a06a3e99e41df8ca50/inductor_cache/lq/clqtizz53lkfia5yetfbu3isbk72xudaobkwcep6jjehbcgj4mwy.py":30:31)
#loc13 = loc("/root/.cache/vllm/torch_compile_cache/torch_aot_compile/61bda05feca29378847c32f031efa5c8dba258f38b0176a06a3e99e41df8ca50/inductor_cache/lq/clqtizz53lkfia5yetfbu3isbk72xudaobkwcep6jjehbcgj4mwy.py":31:29)
#loc14 = loc("/root/.cache/vllm/torch_compile_cache/torch_aot_compile/61bda05feca29378847c32f031efa5c8dba258f38b0176a06a3e99e41df8ca50/inductor_cache/lq/clqtizz53lkfia5yetfbu3isbk72xudaobkwcep6jjehbcgj4mwy.py":35:46)
#loc15 = loc("/root/.cache/vllm/torch_compile_cache/torch_aot_compile/61bda05feca29378847c32f031efa5c8dba258f38b0176a06a3e99e41df8ca50/inductor_cache/lq/clqtizz53lkfia5yetfbu3isbk72xudaobkwcep6jjehbcgj4mwy.py":35:41)
#loc16 = loc("/root/.cache/vllm/torch_compile_cache/torch_aot_compile/61bda05feca29378847c32f031efa5c8dba258f38b0176a06a3e99e41df8ca50/inductor_cache/lq/clqtizz53lkfia5yetfbu3isbk72xudaobkwcep6jjehbcgj4mwy.py":35:34)
#loc17 = loc("/root/.cache/vllm/torch_compile_cache/torch_aot_compile/61bda05feca29378847c32f031efa5c8dba258f38b0176a06a3e99e41df8ca50/inductor_cache/lq/clqtizz53lkfia5yetfbu3isbk72xudaobkwcep6jjehbcgj4mwy.py":35:61)
#loc18 = loc("/root/.cache/vllm/torch_compile_cache/torch_aot_compile/61bda05feca29378847c32f031efa5c8dba258f38b0176a06a3e99e41df8ca50/inductor_cache/lq/clqtizz53lkfia5yetfbu3isbk72xudaobkwcep6jjehbcgj4mwy.py":35:51)
#loc19 = loc("/root/.cache/vllm/torch_compile_cache/torch_aot_compile/61bda05feca29378847c32f031efa5c8dba258f38b0176a06a3e99e41df8ca50/inductor_cache/lq/clqtizz53lkfia5yetfbu3isbk72xudaobkwcep6jjehbcgj4mwy.py":35:112)
#loc20 = loc("/root/.cache/vllm/torch_compile_cache/torch_aot_compile/61bda05feca29378847c32f031efa5c8dba258f38b0176a06a3e99e41df8ca50/inductor_cache/lq/clqtizz53lkfia5yetfbu3isbk72xudaobkwcep6jjehbcgj4mwy.py":37:22)
#loc21 = loc("/root/.cache/vllm/torch_compile_cache/torch_aot_compile/61bda05feca29378847c32f031efa5c8dba258f38b0176a06a3e99e41df8ca50/inductor_cache/lq/clqtizz53lkfia5yetfbu3isbk72xudaobkwcep6jjehbcgj4mwy.py":39:23)
#loc22 = loc("/root/.cache/vllm/torch_compile_cache/torch_aot_compile/61bda05feca29378847c32f031efa5c8dba258f38b0176a06a3e99e41df8ca50/inductor_cache/lq/clqtizz53lkfia5yetfbu3isbk72xudaobkwcep6jjehbcgj4mwy.py":40:35)
#loc23 = loc("/root/.cache/vllm/torch_compile_cache/torch_aot_compile/61bda05feca29378847c32f031efa5c8dba258f38b0176a06a3e99e41df8ca50/inductor_cache/lq/clqtizz53lkfia5yetfbu3isbk72xudaobkwcep6jjehbcgj4mwy.py":40:48)
#loc24 = loc("/root/.cache/vllm/torch_compile_cache/torch_aot_compile/61bda05feca29378847c32f031efa5c8dba258f38b0176a06a3e99e41df8ca50/inductor_cache/lq/clqtizz53lkfia5yetfbu3isbk72xudaobkwcep6jjehbcgj4mwy.py":40:8)
#loc25 = loc("/root/.cache/vllm/torch_compile_cache/torch_aot_compile/61bda05feca29378847c32f031efa5c8dba258f38b0176a06a3e99e41df8ca50/inductor_cache/lq/clqtizz53lkfia5yetfbu3isbk72xudaobkwcep6jjehbcgj4mwy.py":41:25)
#loc26 = loc("/root/.cache/vllm/torch_compile_cache/torch_aot_compile/61bda05feca29378847c32f031efa5c8dba258f38b0176a06a3e99e41df8ca50/inductor_cache/lq/clqtizz53lkfia5yetfbu3isbk72xudaobkwcep6jjehbcgj4mwy.py":41:28)
#loc27 = loc("/root/.cache/vllm/torch_compile_cache/torch_aot_compile/61bda05feca29378847c32f031efa5c8dba258f38b0176a06a3e99e41df8ca50/inductor_cache/lq/clqtizz53lkfia5yetfbu3isbk72xudaobkwcep6jjehbcgj4mwy.py":42:43)
#loc28 = loc("/root/.cache/vllm/torch_compile_cache/torch_aot_compile/61bda05feca29378847c32f031efa5c8dba258f38b0176a06a3e99e41df8ca50/inductor_cache/lq/clqtizz53lkfia5yetfbu3isbk72xudaobkwcep6jjehbcgj4mwy.py":43:31)
#loc29 = loc("/root/.cache/vllm/torch_compile_cache/torch_aot_compile/61bda05feca29378847c32f031efa5c8dba258f38b0176a06a3e99e41df8ca50/inductor_cache/lq/clqtizz53lkfia5yetfbu3isbk72xudaobkwcep6jjehbcgj4mwy.py":44:29)
#loc30 = loc("/root/.cache/vllm/torch_compile_cache/torch_aot_compile/61bda05feca29378847c32f031efa5c8dba258f38b0176a06a3e99e41df8ca50/inductor_cache/lq/clqtizz53lkfia5yetfbu3isbk72xudaobkwcep6jjehbcgj4mwy.py":48:46)
#loc31 = loc("/root/.cache/vllm/torch_compile_cache/torch_aot_compile/61bda05feca29378847c32f031efa5c8dba258f38b0176a06a3e99e41df8ca50/inductor_cache/lq/clqtizz53lkfia5yetfbu3isbk72xudaobkwcep6jjehbcgj4mwy.py":48:41)
#loc32 = loc("/root/.cache/vllm/torch_compile_cache/torch_aot_compile/61bda05feca29378847c32f031efa5c8dba258f38b0176a06a3e99e41df8ca50/inductor_cache/lq/clqtizz53lkfia5yetfbu3isbk72xudaobkwcep6jjehbcgj4mwy.py":48:34)
#loc33 = loc("/root/.cache/vllm/torch_compile_cache/torch_aot_compile/61bda05feca29378847c32f031efa5c8dba258f38b0176a06a3e99e41df8ca50/inductor_cache/lq/clqtizz53lkfia5yetfbu3isbk72xudaobkwcep6jjehbcgj4mwy.py":48:61)
#loc34 = loc("/root/.cache/vllm/torch_compile_cache/torch_aot_compile/61bda05feca29378847c32f031efa5c8dba258f38b0176a06a3e99e41df8ca50/inductor_cache/lq/clqtizz53lkfia5yetfbu3isbk72xudaobkwcep6jjehbcgj4mwy.py":48:51)
#loc35 = loc("/root/.cache/vllm/torch_compile_cache/torch_aot_compile/61bda05feca29378847c32f031efa5c8dba258f38b0176a06a3e99e41df8ca50/inductor_cache/lq/clqtizz53lkfia5yetfbu3isbk72xudaobkwcep6jjehbcgj4mwy.py":48:113)
#loc36 = loc("/root/.cache/vllm/torch_compile_cache/torch_aot_compile/61bda05feca29378847c32f031efa5c8dba258f38b0176a06a3e99e41df8ca50/inductor_cache/lq/clqtizz53lkfia5yetfbu3isbk72xudaobkwcep6jjehbcgj4mwy.py":49:35)
#loc37 = loc("/root/.cache/vllm/torch_compile_cache/torch_aot_compile/61bda05feca29378847c32f031efa5c8dba258f38b0176a06a3e99e41df8ca50/inductor_cache/lq/clqtizz53lkfia5yetfbu3isbk72xudaobkwcep6jjehbcgj4mwy.py":49:42)
#loc38 = loc("/root/.cache/vllm/torch_compile_cache/torch_aot_compile/61bda05feca29378847c32f031efa5c8dba258f38b0176a06a3e99e41df8ca50/inductor_cache/lq/clqtizz53lkfia5yetfbu3isbk72xudaobkwcep6jjehbcgj4mwy.py":49:95)
#loc39 = loc("/root/.cache/vllm/torch_compile_cache/torch_aot_compile/61bda05feca29378847c32f031efa5c8dba258f38b0176a06a3e99e41df8ca50/inductor_cache/lq/clqtizz53lkfia5yetfbu3isbk72xudaobkwcep6jjehbcgj4mwy.py":51:39)
#loc40 = loc("/root/.cache/vllm/torch_compile_cache/torch_aot_compile/61bda05feca29378847c32f031efa5c8dba258f38b0176a06a3e99e41df8ca50/inductor_cache/lq/clqtizz53lkfia5yetfbu3isbk72xudaobkwcep6jjehbcgj4mwy.py":52:23)
#loc41 = loc("/root/.cache/vllm/torch_compile_cache/torch_aot_compile/61bda05feca29378847c32f031efa5c8dba258f38b0176a06a3e99e41df8ca50/inductor_cache/lq/clqtizz53lkfia5yetfbu3isbk72xudaobkwcep6jjehbcgj4mwy.py":53:39)
#loc42 = loc("/root/.cache/vllm/torch_compile_cache/torch_aot_compile/61bda05feca29378847c32f031efa5c8dba258f38b0176a06a3e99e41df8ca50/inductor_cache/lq/clqtizz53lkfia5yetfbu3isbk72xudaobkwcep6jjehbcgj4mwy.py":54:23)
#loc43 = loc("/root/.cache/vllm/torch_compile_cache/torch_aot_compile/61bda05feca29378847c32f031efa5c8dba258f38b0176a06a3e99e41df8ca50/inductor_cache/lq/clqtizz53lkfia5yetfbu3isbk72xudaobkwcep6jjehbcgj4mwy.py":55:32)
#loc44 = loc("/root/.cache/vllm/torch_compile_cache/torch_aot_compile/61bda05feca29378847c32f031efa5c8dba258f38b0176a06a3e99e41df8ca50/inductor_cache/lq/clqtizz53lkfia5yetfbu3isbk72xudaobkwcep6jjehbcgj4mwy.py":56:23)
#loc45 = loc("/root/.cache/vllm/torch_compile_cache/torch_aot_compile/61bda05feca29378847c32f031efa5c8dba258f38b0176a06a3e99e41df8ca50/inductor_cache/lq/clqtizz53lkfia5yetfbu3isbk72xudaobkwcep6jjehbcgj4mwy.py":58:37)
#loc46 = loc("/root/.cache/vllm/torch_compile_cache/torch_aot_compile/61bda05feca29378847c32f031efa5c8dba258f38b0176a06a3e99e41df8ca50/inductor_cache/lq/clqtizz53lkfia5yetfbu3isbk72xudaobkwcep6jjehbcgj4mwy.py":59:24)
#loc47 = loc("/root/.cache/vllm/torch_compile_cache/torch_aot_compile/61bda05feca29378847c32f031efa5c8dba258f38b0176a06a3e99e41df8ca50/inductor_cache/lq/clqtizz53lkfia5yetfbu3isbk72xudaobkwcep6jjehbcgj4mwy.py":60:24)
#loc48 = loc("/root/.cache/vllm/torch_compile_cache/torch_aot_compile/61bda05feca29378847c32f031efa5c8dba258f38b0176a06a3e99e41df8ca50/inductor_cache/lq/clqtizz53lkfia5yetfbu3isbk72xudaobkwcep6jjehbcgj4mwy.py":62:41)
#loc49 = loc("/root/.cache/vllm/torch_compile_cache/torch_aot_compile/61bda05feca29378847c32f031efa5c8dba258f38b0176a06a3e99e41df8ca50/inductor_cache/lq/clqtizz53lkfia5yetfbu3isbk72xudaobkwcep6jjehbcgj4mwy.py":62:36)
#loc50 = loc("/root/.cache/vllm/torch_compile_cache/torch_aot_compile/61bda05feca29378847c32f031efa5c8dba258f38b0176a06a3e99e41df8ca50/inductor_cache/lq/clqtizz53lkfia5yetfbu3isbk72xudaobkwcep6jjehbcgj4mwy.py":62:29)
#loc51 = loc("/root/.cache/vllm/torch_compile_cache/torch_aot_compile/61bda05feca29378847c32f031efa5c8dba258f38b0176a06a3e99e41df8ca50/inductor_cache/lq/clqtizz53lkfia5yetfbu3isbk72xudaobkwcep6jjehbcgj4mwy.py":62:63)
#loc52 = loc("/root/.cache/vllm/torch_compile_cache/torch_aot_compile/61bda05feca29378847c32f031efa5c8dba258f38b0176a06a3e99e41df8ca50/inductor_cache/lq/clqtizz53lkfia5yetfbu3isbk72xudaobkwcep6jjehbcgj4mwy.py":62:53)
#loc53 = loc("/root/.cache/vllm/torch_compile_cache/torch_aot_compile/61bda05feca29378847c32f031efa5c8dba258f38b0176a06a3e99e41df8ca50/inductor_cache/lq/clqtizz53lkfia5yetfbu3isbk72xudaobkwcep6jjehbcgj4mwy.py":42:4)
#loc55 = loc("/usr/local/lib/python3.12/dist-packages/triton/language/standard.py":293:36)
#loc57 = loc("/usr/local/lib/python3.12/dist-packages/triton/language/standard.py":293:11)
#loc58 = loc("/usr/local/lib/python3.12/dist-packages/triton/language/standard.py":293:4)
#loc60 = loc("/usr/local/lib/python3.12/dist-packages/triton/language/standard.py":263:15)
#loc61 = loc("/usr/local/lib/python3.12/dist-packages/triton/language/standard.py":263:11)
#loc62 = loc("/usr/local/lib/python3.12/dist-packages/triton/language/standard.py":263:4)
#loc68 = loc("r0_numel"(#loc1))
#loc69 = loc("xoffset"(#loc2))
#loc70 = loc("xoffset"(#loc3))
#loc71 = loc("xindex"(#loc4))
#loc72 = loc("xindex"(#loc5))
#loc73 = loc("xindex"(#loc6))
#loc74 = loc("xmask"(#loc7))
#loc75 = loc("r0_base"(#loc8))
#loc76 = loc("r0_base"(#loc9))
#loc77 = loc("_tmp4"(#loc10))
#loc78 = loc("_tmp4"(#loc11))
#loc79 = loc("r0_index"(#loc12))
#loc80 = loc("r0_mask"(#loc13))
#loc81 = loc("tmp0"(#loc14))
#loc82 = loc("tmp0"(#loc15))
#loc83 = loc("tmp0"(#loc16))
#loc84 = loc("tmp0"(#loc17))
#loc85 = loc("tmp0"(#loc18))
#loc86 = loc("tmp0"(#loc19))
#loc87 = loc("tmp2"(#loc20))
#loc88 = loc("tmp5"(#loc21))
#loc89 = loc("_tmp4"(#loc22))
#loc90 = loc("_tmp4"(#loc23))
#loc91 = loc("tmp4"(#loc25))
#loc92 = loc("tmp4"(#loc26))
#loc93 = loc("r0_index"(#loc28))
#loc94 = loc("r0_mask"(#loc29))
#loc95 = loc("tmp6"(#loc30))
#loc96 = loc("tmp6"(#loc31))
#loc97 = loc("tmp6"(#loc32))
#loc98 = loc("tmp6"(#loc33))
#loc99 = loc("tmp6"(#loc34))
#loc100 = loc("tmp6"(#loc35))
#loc101 = loc("tmp14"(#loc36))
#loc102 = loc("tmp14"(#loc37))
#loc103 = loc("tmp14"(#loc38))
#loc104 = loc("tmp8"(#loc39))
#loc105 = loc("tmp9"(#loc40))
#loc106 = loc("tmp10"(#loc41))
#loc107 = loc("tmp11"(#loc42))
#loc108 = loc("tmp12"(#loc43))
#loc109 = loc("tmp13"(#loc44))
#loc110 = loc("tmp16"(#loc45))
#loc111 = loc("tmp17"(#loc46))
#loc112 = loc("tmp18"(#loc47))
