#loc = loc("/root/.cache/vllm/torch_compile_cache/torch_aot_compile/61bda05feca29378847c32f031efa5c8dba258f38b0176a06a3e99e41df8ca50/inductor_cache/wb/cwb7fe4vcrvy27gznbwe4qyuykmfdqwhls62c5kmcgzmieqjm65j.py":20:0)
#loc369 = loc("/usr/local/lib/python3.12/dist-packages/triton/language/standard.py":34:0)
#loc374 = loc("in_ptr0"(#loc))
#loc375 = loc("in_ptr1"(#loc))
#loc376 = loc("in_ptr2"(#loc))
#loc377 = loc("in_ptr3"(#loc))
#loc378 = loc("in_ptr4"(#loc))
#loc379 = loc("in_ptr5"(#loc))
#loc380 = loc("in_ptr6"(#loc))
#loc381 = loc("out_ptr0"(#loc))
#loc382 = loc("out_ptr1"(#loc))
#loc383 = loc("out_ptr2"(#loc))
#loc384 = loc("out_ptr3"(#loc))
#loc385 = loc("xnumel_0"(#loc))
#loc386 = loc("xnumel_1"(#loc))
#loc387 = loc("xnumel_2"(#loc))
#loc388 = loc("xnumel_3"(#loc))
#loc732 = loc("x"(#loc369))
module {
  tt.func public @triton_poi_fused_8(%in_ptr0: !tt.ptr<f16> {tt.divisibility = 16 : i32} loc("in_ptr0"(#loc)), %in_ptr1: !tt.ptr<f32> {tt.divisibility = 16 : i32} loc("in_ptr1"(#loc)), %in_ptr2: !tt.ptr<f16> {tt.divisibility = 16 : i32} loc("in_ptr2"(#loc)), %in_ptr3: !tt.ptr<f16> {tt.divisibility = 16 : i32} loc("in_ptr3"(#loc)), %in_ptr4: !tt.ptr<f16> {tt.divisibility = 16 : i32} loc("in_ptr4"(#loc)), %in_ptr5: !tt.ptr<f32> {tt.divisibility = 16 : i32} loc("in_ptr5"(#loc)), %in_ptr6: !tt.ptr<f16> {tt.divisibility = 16 : i32} loc("in_ptr6"(#loc)), %out_ptr0: !tt.ptr<f16> {tt.divisibility = 16 : i32} loc("out_ptr0"(#loc)), %out_ptr1: !tt.ptr<f16> {tt.divisibility = 16 : i32} loc("out_ptr1"(#loc)), %out_ptr2: !tt.ptr<f16> {tt.divisibility = 16 : i32} loc("out_ptr2"(#loc)), %out_ptr3: !tt.ptr<f16> {tt.divisibility = 16 : i32} loc("out_ptr3"(#loc)), %xnumel_0: i32 {tt.divisibility = 16 : i32} loc("xnumel_0"(#loc)), %xnumel_1: i32 {tt.divisibility = 16 : i32} loc("xnumel_1"(#loc)), %xnumel_2: i32 {tt.divisibility = 16 : i32} loc("xnumel_2"(#loc)), %xnumel_3: i32 {tt.divisibility = 16 : i32} loc("xnumel_3"(#loc))) attributes {noinline = false} {
    %pid = tt.get_program_id x : i32 loc(#loc389)
    %num_xblocks_0 = tt.call @"triton.language.standard.cdiv__i32__(1,)cconstexpr_512_"(%xnumel_0) : (i32) -> i32 loc(#loc390)
    %num_xblocks_1 = tt.call @"triton.language.standard.cdiv__i32__(1,)cconstexpr_512_"(%xnumel_1) : (i32) -> i32 loc(#loc391)
    %num_xblocks_1_0 = arith.addi %num_xblocks_0, %num_xblocks_1 : i32 loc(#loc392)
    %num_xblocks_2 = tt.call @"triton.language.standard.cdiv__i32__(1,)cconstexpr_512_"(%xnumel_2) : (i32) -> i32 loc(#loc393)
    %num_xblocks_2_1 = arith.addi %num_xblocks_1_0, %num_xblocks_2 : i32 loc(#loc394)
    %num_xblocks_3 = tt.call @"triton.language.standard.cdiv__i32__(1,)cconstexpr_512_"(%xnumel_3) : (i32) -> i32 loc(#loc395)
    %num_xblocks_3_2 = arith.addi %num_xblocks_2_1, %num_xblocks_3 : i32 loc(#loc396)
    %0 = arith.cmpi slt, %pid, %num_xblocks_0 : i32 loc(#loc9)
    scf.if %0 {
      %r0_numel = arith.constant 1 : i32 loc(#loc397)
      %xoffset = arith.constant 512 : i32 loc(#loc398)
      %xoffset_3 = arith.constant 512 : i32 loc(#loc398)
      %xoffset_4 = arith.muli %pid, %xoffset_3 : i32 loc(#loc398)
      %xindex = tt.make_range {end = 512 : i32, start = 0 : i32} : tensor<512xi32> loc(#loc399)
      %xindex_5 = tt.splat %xoffset_4 : i32 -> tensor<512xi32> loc(#loc400)
      %xindex_6 = arith.addi %xindex_5, %xindex : tensor<512xi32> loc(#loc400)
      %xmask = tt.splat %xnumel_0 : i32 -> tensor<512xi32> loc(#loc401)
      %xmask_7 = arith.cmpi slt, %xindex_6, %xmask : tensor<512xi32> loc(#loc401)
      %x0 = arith.constant 64 : i32 loc(#loc402)
      %x0_8 = arith.constant 64 : i32 loc(#loc402)
      %x0_9 = arith.constant dense<64> : tensor<512xi32> loc(#loc402)
      %x0_10 = arith.remsi %xindex_6, %x0_9 : tensor<512xi32> loc(#loc402)
      %x1 = arith.constant 64 : i32 loc(#loc403)
      %x1_11 = arith.constant 64 : i32 loc(#loc403)
      %x1_12 = arith.constant dense<64> : tensor<512xi32> loc(#loc403)
      %x1_13 = arith.divsi %xindex_6, %x1_12 : tensor<512xi32> loc(#loc403)
      %x1_14 = arith.constant 8 : i32 loc(#loc404)
      %x1_15 = arith.constant 8 : i32 loc(#loc404)
      %x1_16 = arith.constant dense<8> : tensor<512xi32> loc(#loc404)
      %x1_17 = arith.remsi %x1_13, %x1_16 : tensor<512xi32> loc(#loc404)
      %x2 = arith.constant 512 : i32 loc(#loc405)
      %x2_18 = arith.constant 512 : i32 loc(#loc405)
      %x2_19 = arith.constant dense<512> : tensor<512xi32> loc(#loc405)
      %x2_20 = arith.divsi %xindex_6, %x2_19 : tensor<512xi32> loc(#loc405)
      %x3 = arith.constant 64 : i32 loc(#loc406)
      %x3_21 = arith.constant 64 : i32 loc(#loc406)
      %x3_22 = arith.constant dense<64> : tensor<512xi32> loc(#loc406)
      %x3_23 = arith.divsi %xindex_6, %x3_22 : tensor<512xi32> loc(#loc406)
      %tmp1 = arith.constant 0 : i64 loc(#loc407)
      %tmp1_24 = arith.constant dense<0> : tensor<1xi64> loc(#loc407)
      %tmp2 = arith.extsi %x0_10 : tensor<512xi32> to tensor<512xi64> loc(#loc408)
      %tmp2_25 = arith.constant dense<0> : tensor<512xi64> loc(#loc408)
      %tmp2_26 = arith.cmpi sge, %tmp2, %tmp2_25 : tensor<512xi64> loc(#loc408)
      %tmp3 = arith.constant 32 : i64 loc(#loc409)
      %tmp3_27 = arith.constant dense<32> : tensor<1xi64> loc(#loc409)
      %tmp4 = arith.extsi %x0_10 : tensor<512xi32> to tensor<512xi64> loc(#loc410)
      %tmp4_28 = arith.constant dense<32> : tensor<512xi64> loc(#loc410)
      %tmp4_29 = arith.cmpi slt, %tmp4, %tmp4_28 : tensor<512xi64> loc(#loc410)
      %tmp5 = arith.constant 512 : i32 loc(#loc411)
      %tmp5_30 = arith.constant 512 : i32 loc(#loc411)
      %tmp5_31 = arith.constant dense<512> : tensor<512xi32> loc(#loc411)
      %tmp5_32 = arith.muli %tmp5_31, %x1_17 : tensor<512xi32> loc(#loc411)
      %tmp5_33 = arith.constant 4608 : i32 loc(#loc412)
      %tmp5_34 = arith.constant 4608 : i32 loc(#loc412)
      %tmp5_35 = arith.constant dense<4608> : tensor<512xi32> loc(#loc412)
      %tmp5_36 = arith.muli %tmp5_35, %x2_20 : tensor<512xi32> loc(#loc412)
      %tmp5_37 = arith.addi %tmp5_32, %tmp5_36 : tensor<512xi32> loc(#loc413)
      %tmp5_38 = arith.addi %tmp5_37, %x0_10 : tensor<512xi32> loc(#loc414)
      %tmp5_39 = tt.splat %in_ptr0 : !tt.ptr<f16> -> tensor<512x!tt.ptr<f16>> loc(#loc415)
      %tmp5_40 = tt.addptr %tmp5_39, %tmp5_38 : tensor<512x!tt.ptr<f16>>, tensor<512xi32> loc(#loc415)
      %tmp5_41 = arith.andi %tmp4_29, %xmask_7 : tensor<512xi1> loc(#loc416)
      %tmp5_42 = arith.constant 0.000000e+00 : f32 loc(#loc417)
      %tmp5_43 = arith.constant dense<0.000000e+00> : tensor<512xf32> loc(#loc417)
      %tmp5_44 = arith.truncf %tmp5_43 : tensor<512xf32> to tensor<512xf16> loc(#loc417)
      %tmp5_45 = tt.load %tmp5_40, %tmp5_41, %tmp5_44 evictionPolicy = evict_last : tensor<512x!tt.ptr<f16>> loc(#loc417)
      %tmp5_46 = arith.extf %tmp5_45 : tensor<512xf16> to tensor<512xf32> loc(#loc418)
      %tmp7 = tt.splat %in_ptr1 : !tt.ptr<f32> -> tensor<512x!tt.ptr<f32>> loc(#loc419)
      %tmp7_47 = tt.addptr %tmp7, %x3_23 : tensor<512x!tt.ptr<f32>>, tensor<512xi32> loc(#loc419)
      %tmp7_48 = arith.andi %tmp4_29, %xmask_7 : tensor<512xi1> loc(#loc420)
      %tmp7_49 = arith.constant 0.000000e+00 : f32 loc(#loc421)
      %tmp7_50 = arith.constant dense<0.000000e+00> : tensor<512xf32> loc(#loc421)
      %tmp7_51 = tt.load %tmp7_47, %tmp7_48, %tmp7_50 evictionPolicy = evict_last : tensor<512x!tt.ptr<f32>> loc(#loc421)
      %tmp8 = arith.constant 2.560000e+02 : f32 loc(#loc422)
      %tmp8_52 = arith.constant dense<2.560000e+02> : tensor<1xf32> loc(#loc422)
      %tmp9 = arith.constant dense<2.560000e+02> : tensor<512xf32> loc(#loc423)
      %tmp9_53 = arith.divf %tmp7_51, %tmp9 : tensor<512xf32> loc(#loc423)
      %tmp10 = arith.constant 9.99999997E-7 : f32 loc(#loc424)
      %tmp10_54 = arith.constant dense<9.99999997E-7> : tensor<1xf32> loc(#loc424)
      %tmp11 = arith.constant dense<9.99999997E-7> : tensor<512xf32> loc(#loc425)
      %tmp11_55 = arith.addf %tmp9_53, %tmp11 : tensor<512xf32> loc(#loc425)
      %tmp12 = tt.extern_elementwise %tmp11_55 {libname = "", libpath = "", pure = true, symbol = "__nv_rsqrtf"} : (tensor<512xf32>) -> tensor<512xf32> loc(#loc426)
      %tmp13 = arith.mulf %tmp5_46, %tmp12 : tensor<512xf32> loc(#loc427)
      %tmp14 = tt.splat %in_ptr2 : !tt.ptr<f16> -> tensor<512x!tt.ptr<f16>> loc(#loc428)
      %tmp14_56 = tt.addptr %tmp14, %x0_10 : tensor<512x!tt.ptr<f16>>, tensor<512xi32> loc(#loc428)
      %tmp14_57 = arith.andi %tmp4_29, %xmask_7 : tensor<512xi1> loc(#loc429)
      %tmp14_58 = arith.constant 0.000000e+00 : f32 loc(#loc430)
      %tmp14_59 = arith.constant dense<0.000000e+00> : tensor<512xf32> loc(#loc430)
      %tmp14_60 = arith.truncf %tmp14_59 : tensor<512xf32> to tensor<512xf16> loc(#loc430)
      %tmp14_61 = tt.load %tmp14_56, %tmp14_57, %tmp14_60 evictionPolicy = evict_last : tensor<512x!tt.ptr<f16>> loc(#loc430)
      %tmp14_62 = arith.extf %tmp14_61 : tensor<512xf16> to tensor<512xf32> loc(#loc431)
      %tmp16 = arith.constant 1.000000e+00 : f32 loc(#loc432)
      %tmp16_63 = arith.constant dense<1.000000e+00> : tensor<1xf32> loc(#loc432)
      %tmp17 = arith.constant dense<1.000000e+00> : tensor<512xf32> loc(#loc433)
      %tmp17_64 = arith.addf %tmp14_62, %tmp17 : tensor<512xf32> loc(#loc433)
      %tmp18 = arith.mulf %tmp13, %tmp17_64 : tensor<512xf32> loc(#loc434)
      %tmp20 = arith.constant 32 : i32 loc(#loc435)
      %tmp20_65 = arith.constant 32 : i32 loc(#loc435)
      %tmp20_66 = arith.constant dense<32> : tensor<512xi32> loc(#loc435)
      %tmp20_67 = arith.muli %tmp20_66, %x2_20 : tensor<512xi32> loc(#loc435)
      %tmp20_68 = arith.addi %tmp20_67, %x0_10 : tensor<512xi32> loc(#loc436)
      %tmp20_69 = tt.splat %in_ptr3 : !tt.ptr<f16> -> tensor<512x!tt.ptr<f16>> loc(#loc437)
      %tmp20_70 = tt.addptr %tmp20_69, %tmp20_68 : tensor<512x!tt.ptr<f16>>, tensor<512xi32> loc(#loc437)
      %tmp20_71 = arith.andi %tmp4_29, %xmask_7 : tensor<512xi1> loc(#loc438)
      %tmp20_72 = arith.constant 0.000000e+00 : f32 loc(#loc439)
      %tmp20_73 = arith.constant dense<0.000000e+00> : tensor<512xf32> loc(#loc439)
      %tmp20_74 = arith.truncf %tmp20_73 : tensor<512xf32> to tensor<512xf16> loc(#loc439)
      %tmp20_75 = tt.load %tmp20_70, %tmp20_71, %tmp20_74 evictionPolicy = evict_last : tensor<512x!tt.ptr<f16>> loc(#loc439)
      %tmp20_76 = arith.extf %tmp20_75 : tensor<512xf16> to tensor<512xf32> loc(#loc440)
      %tmp21 = arith.mulf %tmp18, %tmp20_76 : tensor<512xf32> loc(#loc441)
      %tmp22 = arith.constant 512 : i32 loc(#loc442)
      %tmp22_77 = arith.constant 512 : i32 loc(#loc442)
      %tmp22_78 = arith.constant dense<512> : tensor<512xi32> loc(#loc442)
      %tmp22_79 = arith.muli %tmp22_78, %x1_17 : tensor<512xi32> loc(#loc442)
      %tmp22_80 = arith.constant 32 : i32 loc(#loc443)
      %tmp22_81 = arith.constant 32 : i32 loc(#loc443)
      %tmp22_82 = arith.constant dense<32> : tensor<512xi32> loc(#loc443)
      %tmp22_83 = arith.addi %tmp22_82, %tmp22_79 : tensor<512xi32> loc(#loc443)
      %tmp22_84 = arith.constant 4608 : i32 loc(#loc444)
      %tmp22_85 = arith.constant 4608 : i32 loc(#loc444)
      %tmp22_86 = arith.constant dense<4608> : tensor<512xi32> loc(#loc444)
      %tmp22_87 = arith.muli %tmp22_86, %x2_20 : tensor<512xi32> loc(#loc444)
      %tmp22_88 = arith.addi %tmp22_83, %tmp22_87 : tensor<512xi32> loc(#loc445)
      %tmp22_89 = arith.addi %tmp22_88, %x0_10 : tensor<512xi32> loc(#loc446)
      %tmp22_90 = tt.splat %in_ptr0 : !tt.ptr<f16> -> tensor<512x!tt.ptr<f16>> loc(#loc447)
      %tmp22_91 = tt.addptr %tmp22_90, %tmp22_89 : tensor<512x!tt.ptr<f16>>, tensor<512xi32> loc(#loc447)
      %tmp22_92 = arith.andi %tmp4_29, %xmask_7 : tensor<512xi1> loc(#loc448)
      %tmp22_93 = arith.constant 0.000000e+00 : f32 loc(#loc449)
      %tmp22_94 = arith.constant dense<0.000000e+00> : tensor<512xf32> loc(#loc449)
      %tmp22_95 = arith.truncf %tmp22_94 : tensor<512xf32> to tensor<512xf16> loc(#loc449)
      %tmp22_96 = tt.load %tmp22_91, %tmp22_92, %tmp22_95 evictionPolicy = evict_last : tensor<512x!tt.ptr<f16>> loc(#loc449)
      %tmp22_97 = arith.extf %tmp22_96 : tensor<512xf16> to tensor<512xf32> loc(#loc450)
      %tmp24 = arith.mulf %tmp22_97, %tmp12 : tensor<512xf32> loc(#loc451)
      %tmp25 = arith.constant 32 : i32 loc(#loc452)
      %tmp25_98 = arith.constant 32 : i32 loc(#loc452)
      %tmp25_99 = arith.constant dense<32> : tensor<512xi32> loc(#loc452)
      %tmp25_100 = arith.addi %tmp25_99, %x0_10 : tensor<512xi32> loc(#loc452)
      %tmp25_101 = tt.splat %in_ptr2 : !tt.ptr<f16> -> tensor<512x!tt.ptr<f16>> loc(#loc453)
      %tmp25_102 = tt.addptr %tmp25_101, %tmp25_100 : tensor<512x!tt.ptr<f16>>, tensor<512xi32> loc(#loc453)
      %tmp25_103 = arith.andi %tmp4_29, %xmask_7 : tensor<512xi1> loc(#loc454)
      %tmp25_104 = arith.constant 0.000000e+00 : f32 loc(#loc455)
      %tmp25_105 = arith.constant dense<0.000000e+00> : tensor<512xf32> loc(#loc455)
      %tmp25_106 = arith.truncf %tmp25_105 : tensor<512xf32> to tensor<512xf16> loc(#loc455)
      %tmp25_107 = tt.load %tmp25_102, %tmp25_103, %tmp25_106 evictionPolicy = evict_last : tensor<512x!tt.ptr<f16>> loc(#loc455)
      %tmp25_108 = arith.extf %tmp25_107 : tensor<512xf16> to tensor<512xf32> loc(#loc456)
      %tmp27 = arith.constant dense<1.000000e+00> : tensor<512xf32> loc(#loc457)
      %tmp27_109 = arith.addf %tmp25_108, %tmp27 : tensor<512xf32> loc(#loc457)
      %tmp28 = arith.mulf %tmp24, %tmp27_109 : tensor<512xf32> loc(#loc458)
      %tmp30 = arith.constant 32 : i32 loc(#loc459)
      %tmp30_110 = arith.constant 32 : i32 loc(#loc459)
      %tmp30_111 = arith.constant dense<32> : tensor<512xi32> loc(#loc459)
      %tmp30_112 = arith.muli %tmp30_111, %x2_20 : tensor<512xi32> loc(#loc459)
      %tmp30_113 = arith.addi %tmp30_112, %x0_10 : tensor<512xi32> loc(#loc460)
      %tmp30_114 = tt.splat %in_ptr4 : !tt.ptr<f16> -> tensor<512x!tt.ptr<f16>> loc(#loc461)
      %tmp30_115 = tt.addptr %tmp30_114, %tmp30_113 : tensor<512x!tt.ptr<f16>>, tensor<512xi32> loc(#loc461)
      %tmp30_116 = arith.andi %tmp4_29, %xmask_7 : tensor<512xi1> loc(#loc462)
      %tmp30_117 = arith.constant 0.000000e+00 : f32 loc(#loc463)
      %tmp30_118 = arith.constant dense<0.000000e+00> : tensor<512xf32> loc(#loc463)
      %tmp30_119 = arith.truncf %tmp30_118 : tensor<512xf32> to tensor<512xf16> loc(#loc463)
      %tmp30_120 = tt.load %tmp30_115, %tmp30_116, %tmp30_119 evictionPolicy = evict_last : tensor<512x!tt.ptr<f16>> loc(#loc463)
      %tmp30_121 = arith.extf %tmp30_120 : tensor<512xf16> to tensor<512xf32> loc(#loc464)
      %tmp31 = arith.mulf %tmp28, %tmp30_121 : tensor<512xf32> loc(#loc465)
      %tmp32 = arith.subf %tmp21, %tmp31 : tensor<512xf32> loc(#loc466)
      %tmp33 = arith.constant 0.000000e+00 : f32 loc(#loc467)
      %tmp33_122 = arith.constant dense<0.000000e+00> : tensor<512xf32> loc(#loc467)
      %tmp34 = arith.select %tmp4_29, %tmp32, %tmp33_122 : tensor<512xi1>, tensor<512xf32> loc(#loc468)
      %tmp35 = arith.extsi %x0_10 : tensor<512xi32> to tensor<512xi64> loc(#loc469)
      %tmp35_123 = arith.constant dense<32> : tensor<512xi64> loc(#loc469)
      %tmp35_124 = arith.cmpi sge, %tmp35, %tmp35_123 : tensor<512xi64> loc(#loc469)
      %tmp36 = arith.constant 64 : i64 loc(#loc470)
      %tmp36_125 = arith.constant dense<64> : tensor<1xi64> loc(#loc470)
      %tmp37 = arith.extsi %x0_10 : tensor<512xi32> to tensor<512xi64> loc(#loc471)
      %tmp37_126 = arith.constant dense<64> : tensor<512xi64> loc(#loc471)
      %tmp37_127 = arith.cmpi slt, %tmp37, %tmp37_126 : tensor<512xi64> loc(#loc471)
      %tmp38 = arith.constant 512 : i32 loc(#loc472)
      %tmp38_128 = arith.constant 512 : i32 loc(#loc472)
      %tmp38_129 = arith.constant dense<512> : tensor<512xi32> loc(#loc472)
      %tmp38_130 = arith.muli %tmp38_129, %x1_17 : tensor<512xi32> loc(#loc472)
      %tmp38_131 = arith.constant 32 : i32 loc(#loc473)
      %tmp38_132 = arith.constant 32 : i32 loc(#loc473)
      %tmp38_133 = arith.constant dense<32> : tensor<512xi32> loc(#loc473)
      %tmp38_134 = arith.addi %tmp38_133, %tmp38_130 : tensor<512xi32> loc(#loc473)
      %tmp38_135 = arith.constant 4608 : i32 loc(#loc474)
      %tmp38_136 = arith.constant 4608 : i32 loc(#loc474)
      %tmp38_137 = arith.constant dense<4608> : tensor<512xi32> loc(#loc474)
      %tmp38_138 = arith.muli %tmp38_137, %x2_20 : tensor<512xi32> loc(#loc474)
      %tmp38_139 = arith.addi %tmp38_134, %tmp38_138 : tensor<512xi32> loc(#loc475)
      %tmp38_140 = arith.constant -32 : i32 loc(#loc476)
      %tmp38_141 = arith.constant -32 : i32 loc(#loc476)
      %tmp38_142 = arith.constant dense<-32> : tensor<512xi32> loc(#loc476)
      %tmp38_143 = arith.addi %tmp38_142, %x0_10 : tensor<512xi32> loc(#loc476)
      %tmp38_144 = arith.addi %tmp38_139, %tmp38_143 : tensor<512xi32> loc(#loc477)
      %tmp38_145 = tt.splat %in_ptr0 : !tt.ptr<f16> -> tensor<512x!tt.ptr<f16>> loc(#loc478)
      %tmp38_146 = tt.addptr %tmp38_145, %tmp38_144 : tensor<512x!tt.ptr<f16>>, tensor<512xi32> loc(#loc478)
      %tmp38_147 = arith.andi %tmp35_124, %xmask_7 : tensor<512xi1> loc(#loc479)
      %tmp38_148 = arith.constant 0.000000e+00 : f32 loc(#loc480)
      %tmp38_149 = arith.constant dense<0.000000e+00> : tensor<512xf32> loc(#loc480)
      %tmp38_150 = arith.truncf %tmp38_149 : tensor<512xf32> to tensor<512xf16> loc(#loc480)
      %tmp38_151 = tt.load %tmp38_146, %tmp38_147, %tmp38_150 evictionPolicy = evict_last : tensor<512x!tt.ptr<f16>> loc(#loc480)
      %tmp38_152 = arith.extf %tmp38_151 : tensor<512xf16> to tensor<512xf32> loc(#loc481)
      %tmp40 = tt.splat %in_ptr1 : !tt.ptr<f32> -> tensor<512x!tt.ptr<f32>> loc(#loc482)
      %tmp40_153 = tt.addptr %tmp40, %x3_23 : tensor<512x!tt.ptr<f32>>, tensor<512xi32> loc(#loc482)
      %tmp40_154 = arith.andi %tmp35_124, %xmask_7 : tensor<512xi1> loc(#loc483)
      %tmp40_155 = arith.constant 0.000000e+00 : f32 loc(#loc484)
      %tmp40_156 = arith.constant dense<0.000000e+00> : tensor<512xf32> loc(#loc484)
      %tmp40_157 = tt.load %tmp40_153, %tmp40_154, %tmp40_156 evictionPolicy = evict_last : tensor<512x!tt.ptr<f32>> loc(#loc484)
      %tmp41 = arith.constant 2.560000e+02 : f32 loc(#loc485)
      %tmp41_158 = arith.constant dense<2.560000e+02> : tensor<1xf32> loc(#loc485)
      %tmp42 = arith.constant dense<2.560000e+02> : tensor<512xf32> loc(#loc486)
      %tmp42_159 = arith.divf %tmp40_157, %tmp42 : tensor<512xf32> loc(#loc486)
      %tmp43 = arith.constant 9.99999997E-7 : f32 loc(#loc487)
      %tmp43_160 = arith.constant dense<9.99999997E-7> : tensor<1xf32> loc(#loc487)
      %tmp44 = arith.constant dense<9.99999997E-7> : tensor<512xf32> loc(#loc488)
      %tmp44_161 = arith.addf %tmp42_159, %tmp44 : tensor<512xf32> loc(#loc488)
      %tmp45 = tt.extern_elementwise %tmp44_161 {libname = "", libpath = "", pure = true, symbol = "__nv_rsqrtf"} : (tensor<512xf32>) -> tensor<512xf32> loc(#loc489)
      %tmp46 = arith.mulf %tmp38_152, %tmp45 : tensor<512xf32> loc(#loc490)
      %tmp47 = arith.constant -32 : i32 loc(#loc491)
      %tmp47_162 = arith.constant -32 : i32 loc(#loc491)
      %tmp47_163 = arith.constant dense<-32> : tensor<512xi32> loc(#loc491)
      %tmp47_164 = arith.addi %tmp47_163, %x0_10 : tensor<512xi32> loc(#loc491)
      %tmp47_165 = arith.constant 32 : i32 loc(#loc492)
      %tmp47_166 = arith.constant 32 : i32 loc(#loc492)
      %tmp47_167 = arith.constant dense<32> : tensor<512xi32> loc(#loc492)
      %tmp47_168 = arith.addi %tmp47_167, %tmp47_164 : tensor<512xi32> loc(#loc492)
      %tmp47_169 = tt.splat %in_ptr2 : !tt.ptr<f16> -> tensor<512x!tt.ptr<f16>> loc(#loc493)
      %tmp47_170 = tt.addptr %tmp47_169, %tmp47_168 : tensor<512x!tt.ptr<f16>>, tensor<512xi32> loc(#loc493)
      %tmp47_171 = arith.andi %tmp35_124, %xmask_7 : tensor<512xi1> loc(#loc494)
      %tmp47_172 = arith.constant 0.000000e+00 : f32 loc(#loc495)
      %tmp47_173 = arith.constant dense<0.000000e+00> : tensor<512xf32> loc(#loc495)
      %tmp47_174 = arith.truncf %tmp47_173 : tensor<512xf32> to tensor<512xf16> loc(#loc495)
      %tmp47_175 = tt.load %tmp47_170, %tmp47_171, %tmp47_174 evictionPolicy = evict_last : tensor<512x!tt.ptr<f16>> loc(#loc495)
      %tmp47_176 = arith.extf %tmp47_175 : tensor<512xf16> to tensor<512xf32> loc(#loc496)
      %tmp49 = arith.constant 1.000000e+00 : f32 loc(#loc497)
      %tmp49_177 = arith.constant dense<1.000000e+00> : tensor<1xf32> loc(#loc497)
      %tmp50 = arith.constant dense<1.000000e+00> : tensor<512xf32> loc(#loc498)
      %tmp50_178 = arith.addf %tmp47_176, %tmp50 : tensor<512xf32> loc(#loc498)
      %tmp51 = arith.mulf %tmp46, %tmp50_178 : tensor<512xf32> loc(#loc499)
      %tmp53 = arith.constant 32 : i32 loc(#loc500)
      %tmp53_179 = arith.constant 32 : i32 loc(#loc500)
      %tmp53_180 = arith.constant dense<32> : tensor<512xi32> loc(#loc500)
      %tmp53_181 = arith.muli %tmp53_180, %x2_20 : tensor<512xi32> loc(#loc500)
      %tmp53_182 = arith.constant -32 : i32 loc(#loc501)
      %tmp53_183 = arith.constant -32 : i32 loc(#loc501)
      %tmp53_184 = arith.constant dense<-32> : tensor<512xi32> loc(#loc501)
      %tmp53_185 = arith.addi %tmp53_184, %x0_10 : tensor<512xi32> loc(#loc501)
      %tmp53_186 = arith.addi %tmp53_181, %tmp53_185 : tensor<512xi32> loc(#loc502)
      %tmp53_187 = tt.splat %in_ptr3 : !tt.ptr<f16> -> tensor<512x!tt.ptr<f16>> loc(#loc503)
      %tmp53_188 = tt.addptr %tmp53_187, %tmp53_186 : tensor<512x!tt.ptr<f16>>, tensor<512xi32> loc(#loc503)
      %tmp53_189 = arith.andi %tmp35_124, %xmask_7 : tensor<512xi1> loc(#loc504)
      %tmp53_190 = arith.constant 0.000000e+00 : f32 loc(#loc505)
      %tmp53_191 = arith.constant dense<0.000000e+00> : tensor<512xf32> loc(#loc505)
      %tmp53_192 = arith.truncf %tmp53_191 : tensor<512xf32> to tensor<512xf16> loc(#loc505)
      %tmp53_193 = tt.load %tmp53_188, %tmp53_189, %tmp53_192 evictionPolicy = evict_last : tensor<512x!tt.ptr<f16>> loc(#loc505)
      %tmp53_194 = arith.extf %tmp53_193 : tensor<512xf16> to tensor<512xf32> loc(#loc506)
      %tmp54 = arith.mulf %tmp51, %tmp53_194 : tensor<512xf32> loc(#loc507)
      %tmp55 = arith.constant 512 : i32 loc(#loc508)
      %tmp55_195 = arith.constant 512 : i32 loc(#loc508)
      %tmp55_196 = arith.constant dense<512> : tensor<512xi32> loc(#loc508)
      %tmp55_197 = arith.muli %tmp55_196, %x1_17 : tensor<512xi32> loc(#loc508)
      %tmp55_198 = arith.constant 4608 : i32 loc(#loc509)
      %tmp55_199 = arith.constant 4608 : i32 loc(#loc509)
      %tmp55_200 = arith.constant dense<4608> : tensor<512xi32> loc(#loc509)
      %tmp55_201 = arith.muli %tmp55_200, %x2_20 : tensor<512xi32> loc(#loc509)
      %tmp55_202 = arith.addi %tmp55_197, %tmp55_201 : tensor<512xi32> loc(#loc510)
      %tmp55_203 = arith.constant -32 : i32 loc(#loc511)
      %tmp55_204 = arith.constant -32 : i32 loc(#loc511)
      %tmp55_205 = arith.constant dense<-32> : tensor<512xi32> loc(#loc511)
      %tmp55_206 = arith.addi %tmp55_205, %x0_10 : tensor<512xi32> loc(#loc511)
      %tmp55_207 = arith.addi %tmp55_202, %tmp55_206 : tensor<512xi32> loc(#loc512)
      %tmp55_208 = tt.splat %in_ptr0 : !tt.ptr<f16> -> tensor<512x!tt.ptr<f16>> loc(#loc513)
      %tmp55_209 = tt.addptr %tmp55_208, %tmp55_207 : tensor<512x!tt.ptr<f16>>, tensor<512xi32> loc(#loc513)
      %tmp55_210 = arith.andi %tmp35_124, %xmask_7 : tensor<512xi1> loc(#loc514)
      %tmp55_211 = arith.constant 0.000000e+00 : f32 loc(#loc515)
      %tmp55_212 = arith.constant dense<0.000000e+00> : tensor<512xf32> loc(#loc515)
      %tmp55_213 = arith.truncf %tmp55_212 : tensor<512xf32> to tensor<512xf16> loc(#loc515)
      %tmp55_214 = tt.load %tmp55_209, %tmp55_210, %tmp55_213 evictionPolicy = evict_last : tensor<512x!tt.ptr<f16>> loc(#loc515)
      %tmp55_215 = arith.extf %tmp55_214 : tensor<512xf16> to tensor<512xf32> loc(#loc516)
      %tmp57 = arith.mulf %tmp55_215, %tmp45 : tensor<512xf32> loc(#loc517)
      %tmp58 = arith.constant -32 : i32 loc(#loc518)
      %tmp58_216 = arith.constant -32 : i32 loc(#loc518)
      %tmp58_217 = arith.constant dense<-32> : tensor<512xi32> loc(#loc518)
      %tmp58_218 = arith.addi %tmp58_217, %x0_10 : tensor<512xi32> loc(#loc518)
      %tmp58_219 = tt.splat %in_ptr2 : !tt.ptr<f16> -> tensor<512x!tt.ptr<f16>> loc(#loc519)
      %tmp58_220 = tt.addptr %tmp58_219, %tmp58_218 : tensor<512x!tt.ptr<f16>>, tensor<512xi32> loc(#loc519)
      %tmp58_221 = arith.andi %tmp35_124, %xmask_7 : tensor<512xi1> loc(#loc520)
      %tmp58_222 = arith.constant 0.000000e+00 : f32 loc(#loc521)
      %tmp58_223 = arith.constant dense<0.000000e+00> : tensor<512xf32> loc(#loc521)
      %tmp58_224 = arith.truncf %tmp58_223 : tensor<512xf32> to tensor<512xf16> loc(#loc521)
      %tmp58_225 = tt.load %tmp58_220, %tmp58_221, %tmp58_224 evictionPolicy = evict_last : tensor<512x!tt.ptr<f16>> loc(#loc521)
      %tmp58_226 = arith.extf %tmp58_225 : tensor<512xf16> to tensor<512xf32> loc(#loc522)
      %tmp60 = arith.constant dense<1.000000e+00> : tensor<512xf32> loc(#loc523)
      %tmp60_227 = arith.addf %tmp58_226, %tmp60 : tensor<512xf32> loc(#loc523)
      %tmp61 = arith.mulf %tmp57, %tmp60_227 : tensor<512xf32> loc(#loc524)
      %tmp63 = arith.constant 32 : i32 loc(#loc525)
      %tmp63_228 = arith.constant 32 : i32 loc(#loc525)
      %tmp63_229 = arith.constant dense<32> : tensor<512xi32> loc(#loc525)
      %tmp63_230 = arith.muli %tmp63_229, %x2_20 : tensor<512xi32> loc(#loc525)
      %tmp63_231 = arith.constant -32 : i32 loc(#loc526)
      %tmp63_232 = arith.constant -32 : i32 loc(#loc526)
      %tmp63_233 = arith.constant dense<-32> : tensor<512xi32> loc(#loc526)
      %tmp63_234 = arith.addi %tmp63_233, %x0_10 : tensor<512xi32> loc(#loc526)
      %tmp63_235 = arith.addi %tmp63_230, %tmp63_234 : tensor<512xi32> loc(#loc527)
      %tmp63_236 = tt.splat %in_ptr4 : !tt.ptr<f16> -> tensor<512x!tt.ptr<f16>> loc(#loc528)
      %tmp63_237 = tt.addptr %tmp63_236, %tmp63_235 : tensor<512x!tt.ptr<f16>>, tensor<512xi32> loc(#loc528)
      %tmp63_238 = arith.andi %tmp35_124, %xmask_7 : tensor<512xi1> loc(#loc529)
      %tmp63_239 = arith.constant 0.000000e+00 : f32 loc(#loc530)
      %tmp63_240 = arith.constant dense<0.000000e+00> : tensor<512xf32> loc(#loc530)
      %tmp63_241 = arith.truncf %tmp63_240 : tensor<512xf32> to tensor<512xf16> loc(#loc530)
      %tmp63_242 = tt.load %tmp63_237, %tmp63_238, %tmp63_241 evictionPolicy = evict_last : tensor<512x!tt.ptr<f16>> loc(#loc530)
      %tmp63_243 = arith.extf %tmp63_242 : tensor<512xf16> to tensor<512xf32> loc(#loc531)
      %tmp64 = arith.mulf %tmp61, %tmp63_243 : tensor<512xf32> loc(#loc532)
      %tmp65 = arith.addf %tmp54, %tmp64 : tensor<512xf32> loc(#loc533)
      %tmp66 = arith.constant 0.000000e+00 : f32 loc(#loc534)
      %tmp66_244 = arith.constant dense<0.000000e+00> : tensor<512xf32> loc(#loc534)
      %tmp67 = arith.select %tmp35_124, %tmp65, %tmp66_244 : tensor<512xi1>, tensor<512xf32> loc(#loc535)
      %tmp68 = arith.select %tmp4_29, %tmp34, %tmp67 : tensor<512xi1>, tensor<512xf32> loc(#loc536)
      %c256_i32 = arith.constant 256 : i32 loc(#loc151)
      %c256_i32_245 = arith.constant 256 : i32 loc(#loc151)
      %cst = arith.constant dense<256> : tensor<512xi32> loc(#loc151)
      %1 = arith.muli %cst, %x3_23 : tensor<512xi32> loc(#loc151)
      %2 = arith.addi %x0_10, %1 : tensor<512xi32> loc(#loc152)
      %3 = tt.splat %out_ptr0 : !tt.ptr<f16> -> tensor<512x!tt.ptr<f16>> loc(#loc153)
      %4 = tt.addptr %3, %2 : tensor<512x!tt.ptr<f16>>, tensor<512xi32> loc(#loc153)
      %5 = arith.truncf %tmp68 : tensor<512xf32> to tensor<512xf16> loc(#loc154)
      tt.store %4, %5, %xmask_7 : tensor<512x!tt.ptr<f16>> loc(#loc154)
    } else {
      %1 = arith.cmpi slt, %pid, %num_xblocks_1_0 : i32 loc(#loc155)
      scf.if %1 {
        %pid_offset = arith.subi %pid, %num_xblocks_0 : i32 loc(#loc537)
        %r0_numel = arith.constant 1 : i32 loc(#loc538)
        %xoffset = arith.constant 512 : i32 loc(#loc539)
        %xoffset_3 = arith.constant 512 : i32 loc(#loc539)
        %xoffset_4 = arith.muli %pid_offset, %xoffset_3 : i32 loc(#loc539)
        %xindex = tt.make_range {end = 512 : i32, start = 0 : i32} : tensor<512xi32> loc(#loc540)
        %xindex_5 = tt.splat %xoffset_4 : i32 -> tensor<512xi32> loc(#loc541)
        %xindex_6 = arith.addi %xindex_5, %xindex : tensor<512xi32> loc(#loc541)
        %xmask = tt.splat %xnumel_1 : i32 -> tensor<512xi32> loc(#loc542)
        %xmask_7 = arith.cmpi slt, %xindex_6, %xmask : tensor<512xi32> loc(#loc542)
        %x4 = arith.constant 192 : i32 loc(#loc543)
        %x4_8 = arith.constant 192 : i32 loc(#loc543)
        %x4_9 = arith.constant dense<192> : tensor<512xi32> loc(#loc543)
        %x4_10 = arith.remsi %xindex_6, %x4_9 : tensor<512xi32> loc(#loc543)
        %x5 = arith.constant 192 : i32 loc(#loc544)
        %x5_11 = arith.constant 192 : i32 loc(#loc544)
        %x5_12 = arith.constant dense<192> : tensor<512xi32> loc(#loc544)
        %x5_13 = arith.divsi %xindex_6, %x5_12 : tensor<512xi32> loc(#loc544)
        %x5_14 = arith.constant 8 : i32 loc(#loc545)
        %x5_15 = arith.constant 8 : i32 loc(#loc545)
        %x5_16 = arith.constant dense<8> : tensor<512xi32> loc(#loc545)
        %x5_17 = arith.remsi %x5_13, %x5_16 : tensor<512xi32> loc(#loc545)
        %x6 = arith.constant 1536 : i32 loc(#loc546)
        %x6_18 = arith.constant 1536 : i32 loc(#loc546)
        %x6_19 = arith.constant dense<1536> : tensor<512xi32> loc(#loc546)
        %x6_20 = arith.divsi %xindex_6, %x6_19 : tensor<512xi32> loc(#loc546)
        %x7 = arith.constant 192 : i32 loc(#loc547)
        %x7_21 = arith.constant 192 : i32 loc(#loc547)
        %x7_22 = arith.constant dense<192> : tensor<512xi32> loc(#loc547)
        %x7_23 = arith.divsi %xindex_6, %x7_22 : tensor<512xi32> loc(#loc547)
        %tmp69 = arith.constant 64 : i32 loc(#loc548)
        %tmp69_24 = arith.constant 64 : i32 loc(#loc548)
        %tmp69_25 = arith.constant dense<64> : tensor<512xi32> loc(#loc548)
        %tmp69_26 = arith.addi %tmp69_25, %x4_10 : tensor<512xi32> loc(#loc548)
        %tmp69_27 = arith.constant 512 : i32 loc(#loc549)
        %tmp69_28 = arith.constant 512 : i32 loc(#loc549)
        %tmp69_29 = arith.constant dense<512> : tensor<512xi32> loc(#loc549)
        %tmp69_30 = arith.muli %tmp69_29, %x5_17 : tensor<512xi32> loc(#loc549)
        %tmp69_31 = arith.addi %tmp69_26, %tmp69_30 : tensor<512xi32> loc(#loc550)
        %tmp69_32 = arith.constant 4608 : i32 loc(#loc551)
        %tmp69_33 = arith.constant 4608 : i32 loc(#loc551)
        %tmp69_34 = arith.constant dense<4608> : tensor<512xi32> loc(#loc551)
        %tmp69_35 = arith.muli %tmp69_34, %x6_20 : tensor<512xi32> loc(#loc551)
        %tmp69_36 = arith.addi %tmp69_31, %tmp69_35 : tensor<512xi32> loc(#loc552)
        %tmp69_37 = tt.splat %in_ptr0 : !tt.ptr<f16> -> tensor<512x!tt.ptr<f16>> loc(#loc553)
        %tmp69_38 = tt.addptr %tmp69_37, %tmp69_36 : tensor<512x!tt.ptr<f16>>, tensor<512xi32> loc(#loc553)
        %tmp69_39 = tt.load %tmp69_38, %xmask_7 : tensor<512x!tt.ptr<f16>> loc(#loc554)
        %tmp69_40 = arith.extf %tmp69_39 : tensor<512xf16> to tensor<512xf32> loc(#loc555)
        %tmp71 = tt.splat %in_ptr1 : !tt.ptr<f32> -> tensor<512x!tt.ptr<f32>> loc(#loc556)
        %tmp71_41 = tt.addptr %tmp71, %x7_23 : tensor<512x!tt.ptr<f32>>, tensor<512xi32> loc(#loc556)
        %tmp71_42 = tt.load %tmp71_41, %xmask_7 evictionPolicy = evict_last : tensor<512x!tt.ptr<f32>> loc(#loc557)
        %tmp78 = arith.constant 64 : i32 loc(#loc558)
        %tmp78_43 = arith.constant 64 : i32 loc(#loc558)
        %tmp78_44 = arith.constant dense<64> : tensor<512xi32> loc(#loc558)
        %tmp78_45 = arith.addi %tmp78_44, %x4_10 : tensor<512xi32> loc(#loc558)
        %tmp78_46 = tt.splat %in_ptr2 : !tt.ptr<f16> -> tensor<512x!tt.ptr<f16>> loc(#loc559)
        %tmp78_47 = tt.addptr %tmp78_46, %tmp78_45 : tensor<512x!tt.ptr<f16>>, tensor<512xi32> loc(#loc559)
        %tmp78_48 = tt.load %tmp78_47, %xmask_7 evictionPolicy = evict_last : tensor<512x!tt.ptr<f16>> loc(#loc560)
        %tmp78_49 = arith.extf %tmp78_48 : tensor<512xf16> to tensor<512xf32> loc(#loc561)
        %tmp72 = arith.constant 2.560000e+02 : f32 loc(#loc562)
        %tmp72_50 = arith.constant dense<2.560000e+02> : tensor<1xf32> loc(#loc562)
        %tmp73 = arith.constant dense<2.560000e+02> : tensor<512xf32> loc(#loc563)
        %tmp73_51 = arith.divf %tmp71_42, %tmp73 : tensor<512xf32> loc(#loc563)
        %tmp74 = arith.constant 9.99999997E-7 : f32 loc(#loc564)
        %tmp74_52 = arith.constant dense<9.99999997E-7> : tensor<1xf32> loc(#loc564)
        %tmp75 = arith.constant dense<9.99999997E-7> : tensor<512xf32> loc(#loc565)
        %tmp75_53 = arith.addf %tmp73_51, %tmp75 : tensor<512xf32> loc(#loc565)
        %tmp76 = tt.extern_elementwise %tmp75_53 {libname = "", libpath = "", pure = true, symbol = "__nv_rsqrtf"} : (tensor<512xf32>) -> tensor<512xf32> loc(#loc566)
        %tmp77 = arith.mulf %tmp69_40, %tmp76 : tensor<512xf32> loc(#loc567)
        %tmp80 = arith.constant 1.000000e+00 : f32 loc(#loc568)
        %tmp80_54 = arith.constant dense<1.000000e+00> : tensor<1xf32> loc(#loc568)
        %tmp81 = arith.constant dense<1.000000e+00> : tensor<512xf32> loc(#loc569)
        %tmp81_55 = arith.addf %tmp78_49, %tmp81 : tensor<512xf32> loc(#loc569)
        %tmp82 = arith.mulf %tmp77, %tmp81_55 : tensor<512xf32> loc(#loc570)
        %c256_i32 = arith.constant 256 : i32 loc(#loc191)
        %c256_i32_56 = arith.constant 256 : i32 loc(#loc191)
        %cst = arith.constant dense<256> : tensor<512xi32> loc(#loc191)
        %2 = arith.muli %cst, %x7_23 : tensor<512xi32> loc(#loc191)
        %3 = arith.addi %x4_10, %2 : tensor<512xi32> loc(#loc192)
        %4 = tt.splat %out_ptr1 : !tt.ptr<f16> -> tensor<512x!tt.ptr<f16>> loc(#loc193)
        %5 = tt.addptr %4, %3 : tensor<512x!tt.ptr<f16>>, tensor<512xi32> loc(#loc193)
        %6 = arith.truncf %tmp82 : tensor<512xf32> to tensor<512xf16> loc(#loc194)
        tt.store %5, %6, %xmask_7 : tensor<512x!tt.ptr<f16>> loc(#loc194)
      } else {
        %2 = arith.cmpi slt, %pid, %num_xblocks_2_1 : i32 loc(#loc195)
        scf.if %2 {
          %pid_offset = arith.subi %pid, %num_xblocks_1_0 : i32 loc(#loc571)
          %r0_numel = arith.constant 1 : i32 loc(#loc572)
          %xoffset = arith.constant 512 : i32 loc(#loc573)
          %xoffset_3 = arith.constant 512 : i32 loc(#loc573)
          %xoffset_4 = arith.muli %pid_offset, %xoffset_3 : i32 loc(#loc573)
          %xindex = tt.make_range {end = 512 : i32, start = 0 : i32} : tensor<512xi32> loc(#loc574)
          %xindex_5 = tt.splat %xoffset_4 : i32 -> tensor<512xi32> loc(#loc575)
          %xindex_6 = arith.addi %xindex_5, %xindex : tensor<512xi32> loc(#loc575)
          %xmask = tt.splat %xnumel_2 : i32 -> tensor<512xi32> loc(#loc576)
          %xmask_7 = arith.cmpi slt, %xindex_6, %xmask : tensor<512xi32> loc(#loc576)
          %x8 = arith.constant 64 : i32 loc(#loc577)
          %x8_8 = arith.constant 64 : i32 loc(#loc577)
          %x8_9 = arith.constant dense<64> : tensor<512xi32> loc(#loc577)
          %x8_10 = arith.remsi %xindex_6, %x8_9 : tensor<512xi32> loc(#loc577)
          %x9 = arith.constant 64 : i32 loc(#loc578)
          %x9_11 = arith.constant 64 : i32 loc(#loc578)
          %x9_12 = arith.constant dense<64> : tensor<512xi32> loc(#loc578)
          %x9_13 = arith.divsi %xindex_6, %x9_12 : tensor<512xi32> loc(#loc578)
          %tmp85 = arith.constant 0 : i64 loc(#loc579)
          %tmp85_14 = arith.constant dense<0> : tensor<1xi64> loc(#loc579)
          %tmp86 = arith.extsi %x8_10 : tensor<512xi32> to tensor<512xi64> loc(#loc580)
          %tmp86_15 = arith.constant dense<0> : tensor<512xi64> loc(#loc580)
          %tmp86_16 = arith.cmpi sge, %tmp86, %tmp86_15 : tensor<512xi64> loc(#loc580)
          %tmp87 = arith.constant 32 : i64 loc(#loc581)
          %tmp87_17 = arith.constant dense<32> : tensor<1xi64> loc(#loc581)
          %tmp88 = arith.extsi %x8_10 : tensor<512xi32> to tensor<512xi64> loc(#loc582)
          %tmp88_18 = arith.constant dense<32> : tensor<512xi64> loc(#loc582)
          %tmp88_19 = arith.cmpi slt, %tmp88, %tmp88_18 : tensor<512xi64> loc(#loc582)
          %tmp89 = arith.constant 4608 : i32 loc(#loc583)
          %tmp89_20 = arith.constant 4608 : i32 loc(#loc583)
          %tmp89_21 = arith.constant dense<4608> : tensor<512xi32> loc(#loc583)
          %tmp89_22 = arith.muli %tmp89_21, %x9_13 : tensor<512xi32> loc(#loc583)
          %tmp89_23 = arith.constant 4096 : i32 loc(#loc584)
          %tmp89_24 = arith.constant 4096 : i32 loc(#loc584)
          %tmp89_25 = arith.constant dense<4096> : tensor<512xi32> loc(#loc584)
          %tmp89_26 = arith.addi %tmp89_25, %tmp89_22 : tensor<512xi32> loc(#loc584)
          %tmp89_27 = arith.addi %tmp89_26, %x8_10 : tensor<512xi32> loc(#loc585)
          %tmp89_28 = tt.splat %in_ptr0 : !tt.ptr<f16> -> tensor<512x!tt.ptr<f16>> loc(#loc586)
          %tmp89_29 = tt.addptr %tmp89_28, %tmp89_27 : tensor<512x!tt.ptr<f16>>, tensor<512xi32> loc(#loc586)
          %tmp89_30 = arith.andi %tmp88_19, %xmask_7 : tensor<512xi1> loc(#loc587)
          %tmp89_31 = arith.constant 0.000000e+00 : f32 loc(#loc588)
          %tmp89_32 = arith.constant dense<0.000000e+00> : tensor<512xf32> loc(#loc588)
          %tmp89_33 = arith.truncf %tmp89_32 : tensor<512xf32> to tensor<512xf16> loc(#loc588)
          %tmp89_34 = tt.load %tmp89_29, %tmp89_30, %tmp89_33 evictionPolicy = evict_last : tensor<512x!tt.ptr<f16>> loc(#loc588)
          %tmp89_35 = arith.extf %tmp89_34 : tensor<512xf16> to tensor<512xf32> loc(#loc589)
          %tmp91 = tt.splat %in_ptr5 : !tt.ptr<f32> -> tensor<512x!tt.ptr<f32>> loc(#loc590)
          %tmp91_36 = tt.addptr %tmp91, %x9_13 : tensor<512x!tt.ptr<f32>>, tensor<512xi32> loc(#loc590)
          %tmp91_37 = arith.andi %tmp88_19, %xmask_7 : tensor<512xi1> loc(#loc591)
          %tmp91_38 = arith.constant 0.000000e+00 : f32 loc(#loc592)
          %tmp91_39 = arith.constant dense<0.000000e+00> : tensor<512xf32> loc(#loc592)
          %tmp91_40 = tt.load %tmp91_36, %tmp91_37, %tmp91_39 evictionPolicy = evict_last : tensor<512x!tt.ptr<f32>> loc(#loc592)
          %tmp92 = arith.constant 2.560000e+02 : f32 loc(#loc593)
          %tmp92_41 = arith.constant dense<2.560000e+02> : tensor<1xf32> loc(#loc593)
          %tmp93 = arith.constant dense<2.560000e+02> : tensor<512xf32> loc(#loc594)
          %tmp93_42 = arith.divf %tmp91_40, %tmp93 : tensor<512xf32> loc(#loc594)
          %tmp94 = arith.constant 9.99999997E-7 : f32 loc(#loc595)
          %tmp94_43 = arith.constant dense<9.99999997E-7> : tensor<1xf32> loc(#loc595)
          %tmp95 = arith.constant dense<9.99999997E-7> : tensor<512xf32> loc(#loc596)
          %tmp95_44 = arith.addf %tmp93_42, %tmp95 : tensor<512xf32> loc(#loc596)
          %tmp96 = tt.extern_elementwise %tmp95_44 {libname = "", libpath = "", pure = true, symbol = "__nv_rsqrtf"} : (tensor<512xf32>) -> tensor<512xf32> loc(#loc597)
          %tmp97 = arith.mulf %tmp89_35, %tmp96 : tensor<512xf32> loc(#loc598)
          %tmp98 = tt.splat %in_ptr6 : !tt.ptr<f16> -> tensor<512x!tt.ptr<f16>> loc(#loc599)
          %tmp98_45 = tt.addptr %tmp98, %x8_10 : tensor<512x!tt.ptr<f16>>, tensor<512xi32> loc(#loc599)
          %tmp98_46 = arith.andi %tmp88_19, %xmask_7 : tensor<512xi1> loc(#loc600)
          %tmp98_47 = arith.constant 0.000000e+00 : f32 loc(#loc601)
          %tmp98_48 = arith.constant dense<0.000000e+00> : tensor<512xf32> loc(#loc601)
          %tmp98_49 = arith.truncf %tmp98_48 : tensor<512xf32> to tensor<512xf16> loc(#loc601)
          %tmp98_50 = tt.load %tmp98_45, %tmp98_46, %tmp98_49 evictionPolicy = evict_last : tensor<512x!tt.ptr<f16>> loc(#loc601)
          %tmp98_51 = arith.extf %tmp98_50 : tensor<512xf16> to tensor<512xf32> loc(#loc602)
          %tmp100 = arith.constant 1.000000e+00 : f32 loc(#loc603)
          %tmp100_52 = arith.constant dense<1.000000e+00> : tensor<1xf32> loc(#loc603)
          %tmp101 = arith.constant dense<1.000000e+00> : tensor<512xf32> loc(#loc604)
          %tmp101_53 = arith.addf %tmp98_51, %tmp101 : tensor<512xf32> loc(#loc604)
          %tmp102 = arith.mulf %tmp97, %tmp101_53 : tensor<512xf32> loc(#loc605)
          %tmp104 = arith.constant 32 : i32 loc(#loc606)
          %tmp104_54 = arith.constant 32 : i32 loc(#loc606)
          %tmp104_55 = arith.constant dense<32> : tensor<512xi32> loc(#loc606)
          %tmp104_56 = arith.muli %tmp104_55, %x9_13 : tensor<512xi32> loc(#loc606)
          %tmp104_57 = arith.addi %tmp104_56, %x8_10 : tensor<512xi32> loc(#loc607)
          %tmp104_58 = tt.splat %in_ptr3 : !tt.ptr<f16> -> tensor<512x!tt.ptr<f16>> loc(#loc608)
          %tmp104_59 = tt.addptr %tmp104_58, %tmp104_57 : tensor<512x!tt.ptr<f16>>, tensor<512xi32> loc(#loc608)
          %tmp104_60 = arith.andi %tmp88_19, %xmask_7 : tensor<512xi1> loc(#loc609)
          %tmp104_61 = arith.constant 0.000000e+00 : f32 loc(#loc610)
          %tmp104_62 = arith.constant dense<0.000000e+00> : tensor<512xf32> loc(#loc610)
          %tmp104_63 = arith.truncf %tmp104_62 : tensor<512xf32> to tensor<512xf16> loc(#loc610)
          %tmp104_64 = tt.load %tmp104_59, %tmp104_60, %tmp104_63 evictionPolicy = evict_last : tensor<512x!tt.ptr<f16>> loc(#loc610)
          %tmp104_65 = arith.extf %tmp104_64 : tensor<512xf16> to tensor<512xf32> loc(#loc611)
          %tmp105 = arith.mulf %tmp102, %tmp104_65 : tensor<512xf32> loc(#loc612)
          %tmp106 = arith.constant 4608 : i32 loc(#loc613)
          %tmp106_66 = arith.constant 4608 : i32 loc(#loc613)
          %tmp106_67 = arith.constant dense<4608> : tensor<512xi32> loc(#loc613)
          %tmp106_68 = arith.muli %tmp106_67, %x9_13 : tensor<512xi32> loc(#loc613)
          %tmp106_69 = arith.constant 4128 : i32 loc(#loc614)
          %tmp106_70 = arith.constant 4128 : i32 loc(#loc614)
          %tmp106_71 = arith.constant dense<4128> : tensor<512xi32> loc(#loc614)
          %tmp106_72 = arith.addi %tmp106_71, %tmp106_68 : tensor<512xi32> loc(#loc614)
          %tmp106_73 = arith.addi %tmp106_72, %x8_10 : tensor<512xi32> loc(#loc615)
          %tmp106_74 = tt.splat %in_ptr0 : !tt.ptr<f16> -> tensor<512x!tt.ptr<f16>> loc(#loc616)
          %tmp106_75 = tt.addptr %tmp106_74, %tmp106_73 : tensor<512x!tt.ptr<f16>>, tensor<512xi32> loc(#loc616)
          %tmp106_76 = arith.andi %tmp88_19, %xmask_7 : tensor<512xi1> loc(#loc617)
          %tmp106_77 = arith.constant 0.000000e+00 : f32 loc(#loc618)
          %tmp106_78 = arith.constant dense<0.000000e+00> : tensor<512xf32> loc(#loc618)
          %tmp106_79 = arith.truncf %tmp106_78 : tensor<512xf32> to tensor<512xf16> loc(#loc618)
          %tmp106_80 = tt.load %tmp106_75, %tmp106_76, %tmp106_79 evictionPolicy = evict_last : tensor<512x!tt.ptr<f16>> loc(#loc618)
          %tmp106_81 = arith.extf %tmp106_80 : tensor<512xf16> to tensor<512xf32> loc(#loc619)
          %tmp108 = arith.mulf %tmp106_81, %tmp96 : tensor<512xf32> loc(#loc620)
          %tmp109 = arith.constant 32 : i32 loc(#loc621)
          %tmp109_82 = arith.constant 32 : i32 loc(#loc621)
          %tmp109_83 = arith.constant dense<32> : tensor<512xi32> loc(#loc621)
          %tmp109_84 = arith.addi %tmp109_83, %x8_10 : tensor<512xi32> loc(#loc621)
          %tmp109_85 = tt.splat %in_ptr6 : !tt.ptr<f16> -> tensor<512x!tt.ptr<f16>> loc(#loc622)
          %tmp109_86 = tt.addptr %tmp109_85, %tmp109_84 : tensor<512x!tt.ptr<f16>>, tensor<512xi32> loc(#loc622)
          %tmp109_87 = arith.andi %tmp88_19, %xmask_7 : tensor<512xi1> loc(#loc623)
          %tmp109_88 = arith.constant 0.000000e+00 : f32 loc(#loc624)
          %tmp109_89 = arith.constant dense<0.000000e+00> : tensor<512xf32> loc(#loc624)
          %tmp109_90 = arith.truncf %tmp109_89 : tensor<512xf32> to tensor<512xf16> loc(#loc624)
          %tmp109_91 = tt.load %tmp109_86, %tmp109_87, %tmp109_90 evictionPolicy = evict_last : tensor<512x!tt.ptr<f16>> loc(#loc624)
          %tmp109_92 = arith.extf %tmp109_91 : tensor<512xf16> to tensor<512xf32> loc(#loc625)
          %tmp111 = arith.constant dense<1.000000e+00> : tensor<512xf32> loc(#loc626)
          %tmp111_93 = arith.addf %tmp109_92, %tmp111 : tensor<512xf32> loc(#loc626)
          %tmp112 = arith.mulf %tmp108, %tmp111_93 : tensor<512xf32> loc(#loc627)
          %tmp114 = arith.constant 32 : i32 loc(#loc628)
          %tmp114_94 = arith.constant 32 : i32 loc(#loc628)
          %tmp114_95 = arith.constant dense<32> : tensor<512xi32> loc(#loc628)
          %tmp114_96 = arith.muli %tmp114_95, %x9_13 : tensor<512xi32> loc(#loc628)
          %tmp114_97 = arith.addi %tmp114_96, %x8_10 : tensor<512xi32> loc(#loc629)
          %tmp114_98 = tt.splat %in_ptr4 : !tt.ptr<f16> -> tensor<512x!tt.ptr<f16>> loc(#loc630)
          %tmp114_99 = tt.addptr %tmp114_98, %tmp114_97 : tensor<512x!tt.ptr<f16>>, tensor<512xi32> loc(#loc630)
          %tmp114_100 = arith.andi %tmp88_19, %xmask_7 : tensor<512xi1> loc(#loc631)
          %tmp114_101 = arith.constant 0.000000e+00 : f32 loc(#loc632)
          %tmp114_102 = arith.constant dense<0.000000e+00> : tensor<512xf32> loc(#loc632)
          %tmp114_103 = arith.truncf %tmp114_102 : tensor<512xf32> to tensor<512xf16> loc(#loc632)
          %tmp114_104 = tt.load %tmp114_99, %tmp114_100, %tmp114_103 evictionPolicy = evict_last : tensor<512x!tt.ptr<f16>> loc(#loc632)
          %tmp114_105 = arith.extf %tmp114_104 : tensor<512xf16> to tensor<512xf32> loc(#loc633)
          %tmp115 = arith.mulf %tmp112, %tmp114_105 : tensor<512xf32> loc(#loc634)
          %tmp116 = arith.subf %tmp105, %tmp115 : tensor<512xf32> loc(#loc635)
          %tmp117 = arith.constant 0.000000e+00 : f32 loc(#loc636)
          %tmp117_106 = arith.constant dense<0.000000e+00> : tensor<512xf32> loc(#loc636)
          %tmp118 = arith.select %tmp88_19, %tmp116, %tmp117_106 : tensor<512xi1>, tensor<512xf32> loc(#loc637)
          %tmp119 = arith.extsi %x8_10 : tensor<512xi32> to tensor<512xi64> loc(#loc638)
          %tmp119_107 = arith.constant dense<32> : tensor<512xi64> loc(#loc638)
          %tmp119_108 = arith.cmpi sge, %tmp119, %tmp119_107 : tensor<512xi64> loc(#loc638)
          %tmp120 = arith.constant 64 : i64 loc(#loc639)
          %tmp120_109 = arith.constant dense<64> : tensor<1xi64> loc(#loc639)
          %tmp121 = arith.extsi %x8_10 : tensor<512xi32> to tensor<512xi64> loc(#loc640)
          %tmp121_110 = arith.constant dense<64> : tensor<512xi64> loc(#loc640)
          %tmp121_111 = arith.cmpi slt, %tmp121, %tmp121_110 : tensor<512xi64> loc(#loc640)
          %tmp122 = arith.constant 4608 : i32 loc(#loc641)
          %tmp122_112 = arith.constant 4608 : i32 loc(#loc641)
          %tmp122_113 = arith.constant dense<4608> : tensor<512xi32> loc(#loc641)
          %tmp122_114 = arith.muli %tmp122_113, %x9_13 : tensor<512xi32> loc(#loc641)
          %tmp122_115 = arith.constant 4128 : i32 loc(#loc642)
          %tmp122_116 = arith.constant 4128 : i32 loc(#loc642)
          %tmp122_117 = arith.constant dense<4128> : tensor<512xi32> loc(#loc642)
          %tmp122_118 = arith.addi %tmp122_117, %tmp122_114 : tensor<512xi32> loc(#loc642)
          %tmp122_119 = arith.constant -32 : i32 loc(#loc643)
          %tmp122_120 = arith.constant -32 : i32 loc(#loc643)
          %tmp122_121 = arith.constant dense<-32> : tensor<512xi32> loc(#loc643)
          %tmp122_122 = arith.addi %tmp122_121, %x8_10 : tensor<512xi32> loc(#loc643)
          %tmp122_123 = arith.addi %tmp122_118, %tmp122_122 : tensor<512xi32> loc(#loc644)
          %tmp122_124 = tt.splat %in_ptr0 : !tt.ptr<f16> -> tensor<512x!tt.ptr<f16>> loc(#loc645)
          %tmp122_125 = tt.addptr %tmp122_124, %tmp122_123 : tensor<512x!tt.ptr<f16>>, tensor<512xi32> loc(#loc645)
          %tmp122_126 = arith.andi %tmp119_108, %xmask_7 : tensor<512xi1> loc(#loc646)
          %tmp122_127 = arith.constant 0.000000e+00 : f32 loc(#loc647)
          %tmp122_128 = arith.constant dense<0.000000e+00> : tensor<512xf32> loc(#loc647)
          %tmp122_129 = arith.truncf %tmp122_128 : tensor<512xf32> to tensor<512xf16> loc(#loc647)
          %tmp122_130 = tt.load %tmp122_125, %tmp122_126, %tmp122_129 evictionPolicy = evict_last : tensor<512x!tt.ptr<f16>> loc(#loc647)
          %tmp122_131 = arith.extf %tmp122_130 : tensor<512xf16> to tensor<512xf32> loc(#loc648)
          %tmp124 = tt.splat %in_ptr5 : !tt.ptr<f32> -> tensor<512x!tt.ptr<f32>> loc(#loc649)
          %tmp124_132 = tt.addptr %tmp124, %x9_13 : tensor<512x!tt.ptr<f32>>, tensor<512xi32> loc(#loc649)
          %tmp124_133 = arith.andi %tmp119_108, %xmask_7 : tensor<512xi1> loc(#loc650)
          %tmp124_134 = arith.constant 0.000000e+00 : f32 loc(#loc651)
          %tmp124_135 = arith.constant dense<0.000000e+00> : tensor<512xf32> loc(#loc651)
          %tmp124_136 = tt.load %tmp124_132, %tmp124_133, %tmp124_135 evictionPolicy = evict_last : tensor<512x!tt.ptr<f32>> loc(#loc651)
          %tmp125 = arith.constant 2.560000e+02 : f32 loc(#loc652)
          %tmp125_137 = arith.constant dense<2.560000e+02> : tensor<1xf32> loc(#loc652)
          %tmp126 = arith.constant dense<2.560000e+02> : tensor<512xf32> loc(#loc653)
          %tmp126_138 = arith.divf %tmp124_136, %tmp126 : tensor<512xf32> loc(#loc653)
          %tmp127 = arith.constant 9.99999997E-7 : f32 loc(#loc654)
          %tmp127_139 = arith.constant dense<9.99999997E-7> : tensor<1xf32> loc(#loc654)
          %tmp128 = arith.constant dense<9.99999997E-7> : tensor<512xf32> loc(#loc655)
          %tmp128_140 = arith.addf %tmp126_138, %tmp128 : tensor<512xf32> loc(#loc655)
          %tmp129 = tt.extern_elementwise %tmp128_140 {libname = "", libpath = "", pure = true, symbol = "__nv_rsqrtf"} : (tensor<512xf32>) -> tensor<512xf32> loc(#loc656)
          %tmp130 = arith.mulf %tmp122_131, %tmp129 : tensor<512xf32> loc(#loc657)
          %tmp131 = arith.constant -32 : i32 loc(#loc658)
          %tmp131_141 = arith.constant -32 : i32 loc(#loc658)
          %tmp131_142 = arith.constant dense<-32> : tensor<512xi32> loc(#loc658)
          %tmp131_143 = arith.addi %tmp131_142, %x8_10 : tensor<512xi32> loc(#loc658)
          %tmp131_144 = arith.constant 32 : i32 loc(#loc659)
          %tmp131_145 = arith.constant 32 : i32 loc(#loc659)
          %tmp131_146 = arith.constant dense<32> : tensor<512xi32> loc(#loc659)
          %tmp131_147 = arith.addi %tmp131_146, %tmp131_143 : tensor<512xi32> loc(#loc659)
          %tmp131_148 = tt.splat %in_ptr6 : !tt.ptr<f16> -> tensor<512x!tt.ptr<f16>> loc(#loc660)
          %tmp131_149 = tt.addptr %tmp131_148, %tmp131_147 : tensor<512x!tt.ptr<f16>>, tensor<512xi32> loc(#loc660)
          %tmp131_150 = arith.andi %tmp119_108, %xmask_7 : tensor<512xi1> loc(#loc661)
          %tmp131_151 = arith.constant 0.000000e+00 : f32 loc(#loc662)
          %tmp131_152 = arith.constant dense<0.000000e+00> : tensor<512xf32> loc(#loc662)
          %tmp131_153 = arith.truncf %tmp131_152 : tensor<512xf32> to tensor<512xf16> loc(#loc662)
          %tmp131_154 = tt.load %tmp131_149, %tmp131_150, %tmp131_153 evictionPolicy = evict_last : tensor<512x!tt.ptr<f16>> loc(#loc662)
          %tmp131_155 = arith.extf %tmp131_154 : tensor<512xf16> to tensor<512xf32> loc(#loc663)
          %tmp133 = arith.constant 1.000000e+00 : f32 loc(#loc664)
          %tmp133_156 = arith.constant dense<1.000000e+00> : tensor<1xf32> loc(#loc664)
          %tmp134 = arith.constant dense<1.000000e+00> : tensor<512xf32> loc(#loc665)
          %tmp134_157 = arith.addf %tmp131_155, %tmp134 : tensor<512xf32> loc(#loc665)
          %tmp135 = arith.mulf %tmp130, %tmp134_157 : tensor<512xf32> loc(#loc666)
          %tmp137 = arith.constant 32 : i32 loc(#loc667)
          %tmp137_158 = arith.constant 32 : i32 loc(#loc667)
          %tmp137_159 = arith.constant dense<32> : tensor<512xi32> loc(#loc667)
          %tmp137_160 = arith.muli %tmp137_159, %x9_13 : tensor<512xi32> loc(#loc667)
          %tmp137_161 = arith.constant -32 : i32 loc(#loc668)
          %tmp137_162 = arith.constant -32 : i32 loc(#loc668)
          %tmp137_163 = arith.constant dense<-32> : tensor<512xi32> loc(#loc668)
          %tmp137_164 = arith.addi %tmp137_163, %x8_10 : tensor<512xi32> loc(#loc668)
          %tmp137_165 = arith.addi %tmp137_160, %tmp137_164 : tensor<512xi32> loc(#loc669)
          %tmp137_166 = tt.splat %in_ptr3 : !tt.ptr<f16> -> tensor<512x!tt.ptr<f16>> loc(#loc670)
          %tmp137_167 = tt.addptr %tmp137_166, %tmp137_165 : tensor<512x!tt.ptr<f16>>, tensor<512xi32> loc(#loc670)
          %tmp137_168 = arith.andi %tmp119_108, %xmask_7 : tensor<512xi1> loc(#loc671)
          %tmp137_169 = arith.constant 0.000000e+00 : f32 loc(#loc672)
          %tmp137_170 = arith.constant dense<0.000000e+00> : tensor<512xf32> loc(#loc672)
          %tmp137_171 = arith.truncf %tmp137_170 : tensor<512xf32> to tensor<512xf16> loc(#loc672)
          %tmp137_172 = tt.load %tmp137_167, %tmp137_168, %tmp137_171 evictionPolicy = evict_last : tensor<512x!tt.ptr<f16>> loc(#loc672)
          %tmp137_173 = arith.extf %tmp137_172 : tensor<512xf16> to tensor<512xf32> loc(#loc673)
          %tmp138 = arith.mulf %tmp135, %tmp137_173 : tensor<512xf32> loc(#loc674)
          %tmp139 = arith.constant 4608 : i32 loc(#loc675)
          %tmp139_174 = arith.constant 4608 : i32 loc(#loc675)
          %tmp139_175 = arith.constant dense<4608> : tensor<512xi32> loc(#loc675)
          %tmp139_176 = arith.muli %tmp139_175, %x9_13 : tensor<512xi32> loc(#loc675)
          %tmp139_177 = arith.constant 4096 : i32 loc(#loc676)
          %tmp139_178 = arith.constant 4096 : i32 loc(#loc676)
          %tmp139_179 = arith.constant dense<4096> : tensor<512xi32> loc(#loc676)
          %tmp139_180 = arith.addi %tmp139_179, %tmp139_176 : tensor<512xi32> loc(#loc676)
          %tmp139_181 = arith.constant -32 : i32 loc(#loc677)
          %tmp139_182 = arith.constant -32 : i32 loc(#loc677)
          %tmp139_183 = arith.constant dense<-32> : tensor<512xi32> loc(#loc677)
          %tmp139_184 = arith.addi %tmp139_183, %x8_10 : tensor<512xi32> loc(#loc677)
          %tmp139_185 = arith.addi %tmp139_180, %tmp139_184 : tensor<512xi32> loc(#loc678)
          %tmp139_186 = tt.splat %in_ptr0 : !tt.ptr<f16> -> tensor<512x!tt.ptr<f16>> loc(#loc679)
          %tmp139_187 = tt.addptr %tmp139_186, %tmp139_185 : tensor<512x!tt.ptr<f16>>, tensor<512xi32> loc(#loc679)
          %tmp139_188 = arith.andi %tmp119_108, %xmask_7 : tensor<512xi1> loc(#loc680)
          %tmp139_189 = arith.constant 0.000000e+00 : f32 loc(#loc681)
          %tmp139_190 = arith.constant dense<0.000000e+00> : tensor<512xf32> loc(#loc681)
          %tmp139_191 = arith.truncf %tmp139_190 : tensor<512xf32> to tensor<512xf16> loc(#loc681)
          %tmp139_192 = tt.load %tmp139_187, %tmp139_188, %tmp139_191 evictionPolicy = evict_last : tensor<512x!tt.ptr<f16>> loc(#loc681)
          %tmp139_193 = arith.extf %tmp139_192 : tensor<512xf16> to tensor<512xf32> loc(#loc682)
          %tmp141 = arith.mulf %tmp139_193, %tmp129 : tensor<512xf32> loc(#loc683)
          %tmp142 = arith.constant -32 : i32 loc(#loc684)
          %tmp142_194 = arith.constant -32 : i32 loc(#loc684)
          %tmp142_195 = arith.constant dense<-32> : tensor<512xi32> loc(#loc684)
          %tmp142_196 = arith.addi %tmp142_195, %x8_10 : tensor<512xi32> loc(#loc684)
          %tmp142_197 = tt.splat %in_ptr6 : !tt.ptr<f16> -> tensor<512x!tt.ptr<f16>> loc(#loc685)
          %tmp142_198 = tt.addptr %tmp142_197, %tmp142_196 : tensor<512x!tt.ptr<f16>>, tensor<512xi32> loc(#loc685)
          %tmp142_199 = arith.andi %tmp119_108, %xmask_7 : tensor<512xi1> loc(#loc686)
          %tmp142_200 = arith.constant 0.000000e+00 : f32 loc(#loc687)
          %tmp142_201 = arith.constant dense<0.000000e+00> : tensor<512xf32> loc(#loc687)
          %tmp142_202 = arith.truncf %tmp142_201 : tensor<512xf32> to tensor<512xf16> loc(#loc687)
          %tmp142_203 = tt.load %tmp142_198, %tmp142_199, %tmp142_202 evictionPolicy = evict_last : tensor<512x!tt.ptr<f16>> loc(#loc687)
          %tmp142_204 = arith.extf %tmp142_203 : tensor<512xf16> to tensor<512xf32> loc(#loc688)
          %tmp144 = arith.constant dense<1.000000e+00> : tensor<512xf32> loc(#loc689)
          %tmp144_205 = arith.addf %tmp142_204, %tmp144 : tensor<512xf32> loc(#loc689)
          %tmp145 = arith.mulf %tmp141, %tmp144_205 : tensor<512xf32> loc(#loc690)
          %tmp147 = arith.constant 32 : i32 loc(#loc691)
          %tmp147_206 = arith.constant 32 : i32 loc(#loc691)
          %tmp147_207 = arith.constant dense<32> : tensor<512xi32> loc(#loc691)
          %tmp147_208 = arith.muli %tmp147_207, %x9_13 : tensor<512xi32> loc(#loc691)
          %tmp147_209 = arith.constant -32 : i32 loc(#loc692)
          %tmp147_210 = arith.constant -32 : i32 loc(#loc692)
          %tmp147_211 = arith.constant dense<-32> : tensor<512xi32> loc(#loc692)
          %tmp147_212 = arith.addi %tmp147_211, %x8_10 : tensor<512xi32> loc(#loc692)
          %tmp147_213 = arith.addi %tmp147_208, %tmp147_212 : tensor<512xi32> loc(#loc693)
          %tmp147_214 = tt.splat %in_ptr4 : !tt.ptr<f16> -> tensor<512x!tt.ptr<f16>> loc(#loc694)
          %tmp147_215 = tt.addptr %tmp147_214, %tmp147_213 : tensor<512x!tt.ptr<f16>>, tensor<512xi32> loc(#loc694)
          %tmp147_216 = arith.andi %tmp119_108, %xmask_7 : tensor<512xi1> loc(#loc695)
          %tmp147_217 = arith.constant 0.000000e+00 : f32 loc(#loc696)
          %tmp147_218 = arith.constant dense<0.000000e+00> : tensor<512xf32> loc(#loc696)
          %tmp147_219 = arith.truncf %tmp147_218 : tensor<512xf32> to tensor<512xf16> loc(#loc696)
          %tmp147_220 = tt.load %tmp147_215, %tmp147_216, %tmp147_219 evictionPolicy = evict_last : tensor<512x!tt.ptr<f16>> loc(#loc696)
          %tmp147_221 = arith.extf %tmp147_220 : tensor<512xf16> to tensor<512xf32> loc(#loc697)
          %tmp148 = arith.mulf %tmp145, %tmp147_221 : tensor<512xf32> loc(#loc698)
          %tmp149 = arith.addf %tmp138, %tmp148 : tensor<512xf32> loc(#loc699)
          %tmp150 = arith.constant 0.000000e+00 : f32 loc(#loc700)
          %tmp150_222 = arith.constant dense<0.000000e+00> : tensor<512xf32> loc(#loc700)
          %tmp151 = arith.select %tmp119_108, %tmp149, %tmp150_222 : tensor<512xi1>, tensor<512xf32> loc(#loc701)
          %tmp152 = arith.select %tmp88_19, %tmp118, %tmp151 : tensor<512xi1>, tensor<512xf32> loc(#loc702)
          %c256_i32 = arith.constant 256 : i32 loc(#loc329)
          %c256_i32_223 = arith.constant 256 : i32 loc(#loc329)
          %cst = arith.constant dense<256> : tensor<512xi32> loc(#loc329)
          %3 = arith.muli %cst, %x9_13 : tensor<512xi32> loc(#loc329)
          %4 = arith.addi %x8_10, %3 : tensor<512xi32> loc(#loc330)
          %5 = tt.splat %out_ptr2 : !tt.ptr<f16> -> tensor<512x!tt.ptr<f16>> loc(#loc331)
          %6 = tt.addptr %5, %4 : tensor<512x!tt.ptr<f16>>, tensor<512xi32> loc(#loc331)
          %7 = arith.truncf %tmp152 : tensor<512xf32> to tensor<512xf16> loc(#loc332)
          tt.store %6, %7, %xmask_7 : tensor<512x!tt.ptr<f16>> loc(#loc332)
        } else {
          %3 = arith.cmpi slt, %pid, %num_xblocks_3_2 : i32 loc(#loc333)
          scf.if %3 {
            %pid_offset = arith.subi %pid, %num_xblocks_2_1 : i32 loc(#loc703)
            %r0_numel = arith.constant 1 : i32 loc(#loc704)
            %xoffset = arith.constant 512 : i32 loc(#loc705)
            %xoffset_3 = arith.constant 512 : i32 loc(#loc705)
            %xoffset_4 = arith.muli %pid_offset, %xoffset_3 : i32 loc(#loc705)
            %xindex = tt.make_range {end = 512 : i32, start = 0 : i32} : tensor<512xi32> loc(#loc706)
            %xindex_5 = tt.splat %xoffset_4 : i32 -> tensor<512xi32> loc(#loc707)
            %xindex_6 = arith.addi %xindex_5, %xindex : tensor<512xi32> loc(#loc707)
            %xmask = tt.splat %xnumel_3 : i32 -> tensor<512xi32> loc(#loc708)
            %xmask_7 = arith.cmpi slt, %xindex_6, %xmask : tensor<512xi32> loc(#loc708)
            %x10 = arith.constant 192 : i32 loc(#loc709)
            %x10_8 = arith.constant 192 : i32 loc(#loc709)
            %x10_9 = arith.constant dense<192> : tensor<512xi32> loc(#loc709)
            %x10_10 = arith.remsi %xindex_6, %x10_9 : tensor<512xi32> loc(#loc709)
            %x11 = arith.constant 192 : i32 loc(#loc710)
            %x11_11 = arith.constant 192 : i32 loc(#loc710)
            %x11_12 = arith.constant dense<192> : tensor<512xi32> loc(#loc710)
            %x11_13 = arith.divsi %xindex_6, %x11_12 : tensor<512xi32> loc(#loc710)
            %tmp153 = arith.constant 4160 : i32 loc(#loc711)
            %tmp153_14 = arith.constant 4160 : i32 loc(#loc711)
            %tmp153_15 = arith.constant dense<4160> : tensor<512xi32> loc(#loc711)
            %tmp153_16 = arith.addi %tmp153_15, %x10_10 : tensor<512xi32> loc(#loc711)
            %tmp153_17 = arith.constant 4608 : i32 loc(#loc712)
            %tmp153_18 = arith.constant 4608 : i32 loc(#loc712)
            %tmp153_19 = arith.constant dense<4608> : tensor<512xi32> loc(#loc712)
            %tmp153_20 = arith.muli %tmp153_19, %x11_13 : tensor<512xi32> loc(#loc712)
            %tmp153_21 = arith.addi %tmp153_16, %tmp153_20 : tensor<512xi32> loc(#loc713)
            %tmp153_22 = tt.splat %in_ptr0 : !tt.ptr<f16> -> tensor<512x!tt.ptr<f16>> loc(#loc714)
            %tmp153_23 = tt.addptr %tmp153_22, %tmp153_21 : tensor<512x!tt.ptr<f16>>, tensor<512xi32> loc(#loc714)
            %tmp153_24 = tt.load %tmp153_23, %xmask_7 : tensor<512x!tt.ptr<f16>> loc(#loc715)
            %tmp153_25 = arith.extf %tmp153_24 : tensor<512xf16> to tensor<512xf32> loc(#loc716)
            %tmp155 = tt.splat %in_ptr5 : !tt.ptr<f32> -> tensor<512x!tt.ptr<f32>> loc(#loc717)
            %tmp155_26 = tt.addptr %tmp155, %x11_13 : tensor<512x!tt.ptr<f32>>, tensor<512xi32> loc(#loc717)
            %tmp155_27 = tt.load %tmp155_26, %xmask_7 evictionPolicy = evict_last : tensor<512x!tt.ptr<f32>> loc(#loc718)
            %tmp162 = arith.constant 64 : i32 loc(#loc719)
            %tmp162_28 = arith.constant 64 : i32 loc(#loc719)
            %tmp162_29 = arith.constant dense<64> : tensor<512xi32> loc(#loc719)
            %tmp162_30 = arith.addi %tmp162_29, %x10_10 : tensor<512xi32> loc(#loc719)
            %tmp162_31 = tt.splat %in_ptr6 : !tt.ptr<f16> -> tensor<512x!tt.ptr<f16>> loc(#loc720)
            %tmp162_32 = tt.addptr %tmp162_31, %tmp162_30 : tensor<512x!tt.ptr<f16>>, tensor<512xi32> loc(#loc720)
            %tmp162_33 = tt.load %tmp162_32, %xmask_7 evictionPolicy = evict_last : tensor<512x!tt.ptr<f16>> loc(#loc721)
            %tmp162_34 = arith.extf %tmp162_33 : tensor<512xf16> to tensor<512xf32> loc(#loc722)
            %tmp156 = arith.constant 2.560000e+02 : f32 loc(#loc723)
            %tmp156_35 = arith.constant dense<2.560000e+02> : tensor<1xf32> loc(#loc723)
            %tmp157 = arith.constant dense<2.560000e+02> : tensor<512xf32> loc(#loc724)
            %tmp157_36 = arith.divf %tmp155_27, %tmp157 : tensor<512xf32> loc(#loc724)
            %tmp158 = arith.constant 9.99999997E-7 : f32 loc(#loc725)
            %tmp158_37 = arith.constant dense<9.99999997E-7> : tensor<1xf32> loc(#loc725)
            %tmp159 = arith.constant dense<9.99999997E-7> : tensor<512xf32> loc(#loc726)
            %tmp159_38 = arith.addf %tmp157_36, %tmp159 : tensor<512xf32> loc(#loc726)
            %tmp160 = tt.extern_elementwise %tmp159_38 {libname = "", libpath = "", pure = true, symbol = "__nv_rsqrtf"} : (tensor<512xf32>) -> tensor<512xf32> loc(#loc727)
            %tmp161 = arith.mulf %tmp153_25, %tmp160 : tensor<512xf32> loc(#loc728)
            %tmp164 = arith.constant 1.000000e+00 : f32 loc(#loc729)
            %tmp164_39 = arith.constant dense<1.000000e+00> : tensor<1xf32> loc(#loc729)
            %tmp165 = arith.constant dense<1.000000e+00> : tensor<512xf32> loc(#loc730)
            %tmp165_40 = arith.addf %tmp162_34, %tmp165 : tensor<512xf32> loc(#loc730)
            %tmp166 = arith.mulf %tmp161, %tmp165_40 : tensor<512xf32> loc(#loc731)
            %c256_i32 = arith.constant 256 : i32 loc(#loc364)
            %c256_i32_41 = arith.constant 256 : i32 loc(#loc364)
            %cst = arith.constant dense<256> : tensor<512xi32> loc(#loc364)
            %4 = arith.muli %cst, %x11_13 : tensor<512xi32> loc(#loc364)
            %5 = arith.addi %x10_10, %4 : tensor<512xi32> loc(#loc365)
            %6 = tt.splat %out_ptr3 : !tt.ptr<f16> -> tensor<512x!tt.ptr<f16>> loc(#loc366)
            %7 = tt.addptr %6, %5 : tensor<512x!tt.ptr<f16>>, tensor<512xi32> loc(#loc366)
            %8 = arith.truncf %tmp166 : tensor<512xf32> to tensor<512xf16> loc(#loc367)
            tt.store %7, %8, %xmask_7 : tensor<512x!tt.ptr<f16>> loc(#loc367)
          } else {
          } loc(#loc334)
        } loc(#loc196)
      } loc(#loc156)
    } loc(#loc10)
    tt.return loc(#loc368)
  } loc(#loc)
  tt.func private @"triton.language.standard.cdiv__i32__(1,)cconstexpr_512_"(%x: i32 loc("x"(#loc369))) -> i32 attributes {noinline = false} {
    %c511_i32 = arith.constant 511 : i32 loc(#loc370)
    %c511_i32_0 = arith.constant 511 : i32 loc(#loc370)
    %0 = arith.addi %x, %c511_i32_0 : i32 loc(#loc370)
    %c512_i32 = arith.constant 512 : i32 loc(#loc371)
    %c512_i32_1 = arith.constant 512 : i32 loc(#loc371)
    %1 = arith.divsi %0, %c512_i32_1 : i32 loc(#loc371)
    tt.return %1 : i32 loc(#loc372)
  ^bb1:  // no predecessors
    %2 = ub.poison : i32 loc(#loc373)
    tt.return %2 : i32 loc(#loc373)
  } loc(#loc369)
} loc(#loc)
#loc1 = loc("/root/.cache/vllm/torch_compile_cache/torch_aot_compile/61bda05feca29378847c32f031efa5c8dba258f38b0176a06a3e99e41df8ca50/inductor_cache/wb/cwb7fe4vcrvy27gznbwe4qyuykmfdqwhls62c5kmcgzmieqjm65j.py":21:24)
#loc2 = loc("/root/.cache/vllm/torch_compile_cache/torch_aot_compile/61bda05feca29378847c32f031efa5c8dba258f38b0176a06a3e99e41df8ca50/inductor_cache/wb/cwb7fe4vcrvy27gznbwe4qyuykmfdqwhls62c5kmcgzmieqjm65j.py":22:38)
#loc3 = loc("/root/.cache/vllm/torch_compile_cache/torch_aot_compile/61bda05feca29378847c32f031efa5c8dba258f38b0176a06a3e99e41df8ca50/inductor_cache/wb/cwb7fe4vcrvy27gznbwe4qyuykmfdqwhls62c5kmcgzmieqjm65j.py":23:54)
#loc4 = loc("/root/.cache/vllm/torch_compile_cache/torch_aot_compile/61bda05feca29378847c32f031efa5c8dba258f38b0176a06a3e99e41df8ca50/inductor_cache/wb/cwb7fe4vcrvy27gznbwe4qyuykmfdqwhls62c5kmcgzmieqjm65j.py":23:36)
#loc5 = loc("/root/.cache/vllm/torch_compile_cache/torch_aot_compile/61bda05feca29378847c32f031efa5c8dba258f38b0176a06a3e99e41df8ca50/inductor_cache/wb/cwb7fe4vcrvy27gznbwe4qyuykmfdqwhls62c5kmcgzmieqjm65j.py":24:54)
#loc6 = loc("/root/.cache/vllm/torch_compile_cache/torch_aot_compile/61bda05feca29378847c32f031efa5c8dba258f38b0176a06a3e99e41df8ca50/inductor_cache/wb/cwb7fe4vcrvy27gznbwe4qyuykmfdqwhls62c5kmcgzmieqjm65j.py":24:36)
#loc7 = loc("/root/.cache/vllm/torch_compile_cache/torch_aot_compile/61bda05feca29378847c32f031efa5c8dba258f38b0176a06a3e99e41df8ca50/inductor_cache/wb/cwb7fe4vcrvy27gznbwe4qyuykmfdqwhls62c5kmcgzmieqjm65j.py":25:54)
#loc8 = loc("/root/.cache/vllm/torch_compile_cache/torch_aot_compile/61bda05feca29378847c32f031efa5c8dba258f38b0176a06a3e99e41df8ca50/inductor_cache/wb/cwb7fe4vcrvy27gznbwe4qyuykmfdqwhls62c5kmcgzmieqjm65j.py":25:36)
#loc9 = loc("/root/.cache/vllm/torch_compile_cache/torch_aot_compile/61bda05feca29378847c32f031efa5c8dba258f38b0176a06a3e99e41df8ca50/inductor_cache/wb/cwb7fe4vcrvy27gznbwe4qyuykmfdqwhls62c5kmcgzmieqjm65j.py":26:13)
#loc10 = loc("/root/.cache/vllm/torch_compile_cache/torch_aot_compile/61bda05feca29378847c32f031efa5c8dba258f38b0176a06a3e99e41df8ca50/inductor_cache/wb/cwb7fe4vcrvy27gznbwe4qyuykmfdqwhls62c5kmcgzmieqjm65j.py":26:7)
#loc11 = loc("/root/.cache/vllm/torch_compile_cache/torch_aot_compile/61bda05feca29378847c32f031efa5c8dba258f38b0176a06a3e99e41df8ca50/inductor_cache/wb/cwb7fe4vcrvy27gznbwe4qyuykmfdqwhls62c5kmcgzmieqjm65j.py":28:19)
#loc12 = loc("/root/.cache/vllm/torch_compile_cache/torch_aot_compile/61bda05feca29378847c32f031efa5c8dba258f38b0176a06a3e99e41df8ca50/inductor_cache/wb/cwb7fe4vcrvy27gznbwe4qyuykmfdqwhls62c5kmcgzmieqjm65j.py":29:31)
#loc13 = loc("/root/.cache/vllm/torch_compile_cache/torch_aot_compile/61bda05feca29378847c32f031efa5c8dba258f38b0176a06a3e99e41df8ca50/inductor_cache/wb/cwb7fe4vcrvy27gznbwe4qyuykmfdqwhls62c5kmcgzmieqjm65j.py":30:40)
#loc14 = loc("/root/.cache/vllm/torch_compile_cache/torch_aot_compile/61bda05feca29378847c32f031efa5c8dba258f38b0176a06a3e99e41df8ca50/inductor_cache/wb/cwb7fe4vcrvy27gznbwe4qyuykmfdqwhls62c5kmcgzmieqjm65j.py":30:27)
#loc15 = loc("/root/.cache/vllm/torch_compile_cache/torch_aot_compile/61bda05feca29378847c32f031efa5c8dba258f38b0176a06a3e99e41df8ca50/inductor_cache/wb/cwb7fe4vcrvy27gznbwe4qyuykmfdqwhls62c5kmcgzmieqjm65j.py":31:25)
#loc16 = loc("/root/.cache/vllm/torch_compile_cache/torch_aot_compile/61bda05feca29378847c32f031efa5c8dba258f38b0176a06a3e99e41df8ca50/inductor_cache/wb/cwb7fe4vcrvy27gznbwe4qyuykmfdqwhls62c5kmcgzmieqjm65j.py":32:23)
#loc17 = loc("/root/.cache/vllm/torch_compile_cache/torch_aot_compile/61bda05feca29378847c32f031efa5c8dba258f38b0176a06a3e99e41df8ca50/inductor_cache/wb/cwb7fe4vcrvy27gznbwe4qyuykmfdqwhls62c5kmcgzmieqjm65j.py":33:25)
#loc18 = loc("/root/.cache/vllm/torch_compile_cache/torch_aot_compile/61bda05feca29378847c32f031efa5c8dba258f38b0176a06a3e99e41df8ca50/inductor_cache/wb/cwb7fe4vcrvy27gznbwe4qyuykmfdqwhls62c5kmcgzmieqjm65j.py":33:31)
#loc19 = loc("/root/.cache/vllm/torch_compile_cache/torch_aot_compile/61bda05feca29378847c32f031efa5c8dba258f38b0176a06a3e99e41df8ca50/inductor_cache/wb/cwb7fe4vcrvy27gznbwe4qyuykmfdqwhls62c5kmcgzmieqjm65j.py":34:23)
#loc20 = loc("/root/.cache/vllm/torch_compile_cache/torch_aot_compile/61bda05feca29378847c32f031efa5c8dba258f38b0176a06a3e99e41df8ca50/inductor_cache/wb/cwb7fe4vcrvy27gznbwe4qyuykmfdqwhls62c5kmcgzmieqjm65j.py":35:23)
#loc21 = loc("/root/.cache/vllm/torch_compile_cache/torch_aot_compile/61bda05feca29378847c32f031efa5c8dba258f38b0176a06a3e99e41df8ca50/inductor_cache/wb/cwb7fe4vcrvy27gznbwe4qyuykmfdqwhls62c5kmcgzmieqjm65j.py":37:31)
#loc22 = loc("/root/.cache/vllm/torch_compile_cache/torch_aot_compile/61bda05feca29378847c32f031efa5c8dba258f38b0176a06a3e99e41df8ca50/inductor_cache/wb/cwb7fe4vcrvy27gznbwe4qyuykmfdqwhls62c5kmcgzmieqjm65j.py":38:23)
#loc23 = loc("/root/.cache/vllm/torch_compile_cache/torch_aot_compile/61bda05feca29378847c32f031efa5c8dba258f38b0176a06a3e99e41df8ca50/inductor_cache/wb/cwb7fe4vcrvy27gznbwe4qyuykmfdqwhls62c5kmcgzmieqjm65j.py":39:32)
#loc24 = loc("/root/.cache/vllm/torch_compile_cache/torch_aot_compile/61bda05feca29378847c32f031efa5c8dba258f38b0176a06a3e99e41df8ca50/inductor_cache/wb/cwb7fe4vcrvy27gznbwe4qyuykmfdqwhls62c5kmcgzmieqjm65j.py":40:22)
#loc25 = loc("/root/.cache/vllm/torch_compile_cache/torch_aot_compile/61bda05feca29378847c32f031efa5c8dba258f38b0176a06a3e99e41df8ca50/inductor_cache/wb/cwb7fe4vcrvy27gznbwe4qyuykmfdqwhls62c5kmcgzmieqjm65j.py":41:38)
#loc26 = loc("/root/.cache/vllm/torch_compile_cache/torch_aot_compile/61bda05feca29378847c32f031efa5c8dba258f38b0176a06a3e99e41df8ca50/inductor_cache/wb/cwb7fe4vcrvy27gznbwe4qyuykmfdqwhls62c5kmcgzmieqjm65j.py":41:48)
#loc27 = loc("/root/.cache/vllm/torch_compile_cache/torch_aot_compile/61bda05feca29378847c32f031efa5c8dba258f38b0176a06a3e99e41df8ca50/inductor_cache/wb/cwb7fe4vcrvy27gznbwe4qyuykmfdqwhls62c5kmcgzmieqjm65j.py":41:43)
#loc28 = loc("/root/.cache/vllm/torch_compile_cache/torch_aot_compile/61bda05feca29378847c32f031efa5c8dba258f38b0176a06a3e99e41df8ca50/inductor_cache/wb/cwb7fe4vcrvy27gznbwe4qyuykmfdqwhls62c5kmcgzmieqjm65j.py":41:54)
#loc29 = loc("/root/.cache/vllm/torch_compile_cache/torch_aot_compile/61bda05feca29378847c32f031efa5c8dba258f38b0176a06a3e99e41df8ca50/inductor_cache/wb/cwb7fe4vcrvy27gznbwe4qyuykmfdqwhls62c5kmcgzmieqjm65j.py":41:34)
#loc30 = loc("/root/.cache/vllm/torch_compile_cache/torch_aot_compile/61bda05feca29378847c32f031efa5c8dba258f38b0176a06a3e99e41df8ca50/inductor_cache/wb/cwb7fe4vcrvy27gznbwe4qyuykmfdqwhls62c5kmcgzmieqjm65j.py":41:67)
#loc31 = loc("/root/.cache/vllm/torch_compile_cache/torch_aot_compile/61bda05feca29378847c32f031efa5c8dba258f38b0176a06a3e99e41df8ca50/inductor_cache/wb/cwb7fe4vcrvy27gznbwe4qyuykmfdqwhls62c5kmcgzmieqjm65j.py":41:60)
#loc32 = loc("/root/.cache/vllm/torch_compile_cache/torch_aot_compile/61bda05feca29378847c32f031efa5c8dba258f38b0176a06a3e99e41df8ca50/inductor_cache/wb/cwb7fe4vcrvy27gznbwe4qyuykmfdqwhls62c5kmcgzmieqjm65j.py":41:118)
#loc33 = loc("/root/.cache/vllm/torch_compile_cache/torch_aot_compile/61bda05feca29378847c32f031efa5c8dba258f38b0176a06a3e99e41df8ca50/inductor_cache/wb/cwb7fe4vcrvy27gznbwe4qyuykmfdqwhls62c5kmcgzmieqjm65j.py":43:34)
#loc34 = loc("/root/.cache/vllm/torch_compile_cache/torch_aot_compile/61bda05feca29378847c32f031efa5c8dba258f38b0176a06a3e99e41df8ca50/inductor_cache/wb/cwb7fe4vcrvy27gznbwe4qyuykmfdqwhls62c5kmcgzmieqjm65j.py":43:46)
#loc35 = loc("/root/.cache/vllm/torch_compile_cache/torch_aot_compile/61bda05feca29378847c32f031efa5c8dba258f38b0176a06a3e99e41df8ca50/inductor_cache/wb/cwb7fe4vcrvy27gznbwe4qyuykmfdqwhls62c5kmcgzmieqjm65j.py":43:39)
#loc36 = loc("/root/.cache/vllm/torch_compile_cache/torch_aot_compile/61bda05feca29378847c32f031efa5c8dba258f38b0176a06a3e99e41df8ca50/inductor_cache/wb/cwb7fe4vcrvy27gznbwe4qyuykmfdqwhls62c5kmcgzmieqjm65j.py":44:35)
#loc37 = loc("/root/.cache/vllm/torch_compile_cache/torch_aot_compile/61bda05feca29378847c32f031efa5c8dba258f38b0176a06a3e99e41df8ca50/inductor_cache/wb/cwb7fe4vcrvy27gznbwe4qyuykmfdqwhls62c5kmcgzmieqjm65j.py":45:23)
#loc38 = loc("/root/.cache/vllm/torch_compile_cache/torch_aot_compile/61bda05feca29378847c32f031efa5c8dba258f38b0176a06a3e99e41df8ca50/inductor_cache/wb/cwb7fe4vcrvy27gznbwe4qyuykmfdqwhls62c5kmcgzmieqjm65j.py":46:36)
#loc39 = loc("/root/.cache/vllm/torch_compile_cache/torch_aot_compile/61bda05feca29378847c32f031efa5c8dba258f38b0176a06a3e99e41df8ca50/inductor_cache/wb/cwb7fe4vcrvy27gznbwe4qyuykmfdqwhls62c5kmcgzmieqjm65j.py":47:23)
#loc40 = loc("/root/.cache/vllm/torch_compile_cache/torch_aot_compile/61bda05feca29378847c32f031efa5c8dba258f38b0176a06a3e99e41df8ca50/inductor_cache/wb/cwb7fe4vcrvy27gznbwe4qyuykmfdqwhls62c5kmcgzmieqjm65j.py":48:32)
#loc41 = loc("/root/.cache/vllm/torch_compile_cache/torch_aot_compile/61bda05feca29378847c32f031efa5c8dba258f38b0176a06a3e99e41df8ca50/inductor_cache/wb/cwb7fe4vcrvy27gznbwe4qyuykmfdqwhls62c5kmcgzmieqjm65j.py":49:23)
#loc42 = loc("/root/.cache/vllm/torch_compile_cache/torch_aot_compile/61bda05feca29378847c32f031efa5c8dba258f38b0176a06a3e99e41df8ca50/inductor_cache/wb/cwb7fe4vcrvy27gznbwe4qyuykmfdqwhls62c5kmcgzmieqjm65j.py":50:35)
#loc43 = loc("/root/.cache/vllm/torch_compile_cache/torch_aot_compile/61bda05feca29378847c32f031efa5c8dba258f38b0176a06a3e99e41df8ca50/inductor_cache/wb/cwb7fe4vcrvy27gznbwe4qyuykmfdqwhls62c5kmcgzmieqjm65j.py":50:47)
#loc44 = loc("/root/.cache/vllm/torch_compile_cache/torch_aot_compile/61bda05feca29378847c32f031efa5c8dba258f38b0176a06a3e99e41df8ca50/inductor_cache/wb/cwb7fe4vcrvy27gznbwe4qyuykmfdqwhls62c5kmcgzmieqjm65j.py":50:40)
#loc45 = loc("/root/.cache/vllm/torch_compile_cache/torch_aot_compile/61bda05feca29378847c32f031efa5c8dba258f38b0176a06a3e99e41df8ca50/inductor_cache/wb/cwb7fe4vcrvy27gznbwe4qyuykmfdqwhls62c5kmcgzmieqjm65j.py":50:98)
#loc46 = loc("/root/.cache/vllm/torch_compile_cache/torch_aot_compile/61bda05feca29378847c32f031efa5c8dba258f38b0176a06a3e99e41df8ca50/inductor_cache/wb/cwb7fe4vcrvy27gznbwe4qyuykmfdqwhls62c5kmcgzmieqjm65j.py":52:34)
#loc47 = loc("/root/.cache/vllm/torch_compile_cache/torch_aot_compile/61bda05feca29378847c32f031efa5c8dba258f38b0176a06a3e99e41df8ca50/inductor_cache/wb/cwb7fe4vcrvy27gznbwe4qyuykmfdqwhls62c5kmcgzmieqjm65j.py":53:24)
#loc48 = loc("/root/.cache/vllm/torch_compile_cache/torch_aot_compile/61bda05feca29378847c32f031efa5c8dba258f38b0176a06a3e99e41df8ca50/inductor_cache/wb/cwb7fe4vcrvy27gznbwe4qyuykmfdqwhls62c5kmcgzmieqjm65j.py":54:24)
#loc49 = loc("/root/.cache/vllm/torch_compile_cache/torch_aot_compile/61bda05feca29378847c32f031efa5c8dba258f38b0176a06a3e99e41df8ca50/inductor_cache/wb/cwb7fe4vcrvy27gznbwe4qyuykmfdqwhls62c5kmcgzmieqjm65j.py":56:38)
#loc50 = loc("/root/.cache/vllm/torch_compile_cache/torch_aot_compile/61bda05feca29378847c32f031efa5c8dba258f38b0176a06a3e99e41df8ca50/inductor_cache/wb/cwb7fe4vcrvy27gznbwe4qyuykmfdqwhls62c5kmcgzmieqjm65j.py":56:44)
#loc51 = loc("/root/.cache/vllm/torch_compile_cache/torch_aot_compile/61bda05feca29378847c32f031efa5c8dba258f38b0176a06a3e99e41df8ca50/inductor_cache/wb/cwb7fe4vcrvy27gznbwe4qyuykmfdqwhls62c5kmcgzmieqjm65j.py":56:35)
#loc52 = loc("/root/.cache/vllm/torch_compile_cache/torch_aot_compile/61bda05feca29378847c32f031efa5c8dba258f38b0176a06a3e99e41df8ca50/inductor_cache/wb/cwb7fe4vcrvy27gznbwe4qyuykmfdqwhls62c5kmcgzmieqjm65j.py":56:57)
#loc53 = loc("/root/.cache/vllm/torch_compile_cache/torch_aot_compile/61bda05feca29378847c32f031efa5c8dba258f38b0176a06a3e99e41df8ca50/inductor_cache/wb/cwb7fe4vcrvy27gznbwe4qyuykmfdqwhls62c5kmcgzmieqjm65j.py":56:50)
#loc54 = loc("/root/.cache/vllm/torch_compile_cache/torch_aot_compile/61bda05feca29378847c32f031efa5c8dba258f38b0176a06a3e99e41df8ca50/inductor_cache/wb/cwb7fe4vcrvy27gznbwe4qyuykmfdqwhls62c5kmcgzmieqjm65j.py":56:108)
#loc55 = loc("/root/.cache/vllm/torch_compile_cache/torch_aot_compile/61bda05feca29378847c32f031efa5c8dba258f38b0176a06a3e99e41df8ca50/inductor_cache/wb/cwb7fe4vcrvy27gznbwe4qyuykmfdqwhls62c5kmcgzmieqjm65j.py":57:24)
#loc56 = loc("/root/.cache/vllm/torch_compile_cache/torch_aot_compile/61bda05feca29378847c32f031efa5c8dba258f38b0176a06a3e99e41df8ca50/inductor_cache/wb/cwb7fe4vcrvy27gznbwe4qyuykmfdqwhls62c5kmcgzmieqjm65j.py":58:44)
#loc57 = loc("/root/.cache/vllm/torch_compile_cache/torch_aot_compile/61bda05feca29378847c32f031efa5c8dba258f38b0176a06a3e99e41df8ca50/inductor_cache/wb/cwb7fe4vcrvy27gznbwe4qyuykmfdqwhls62c5kmcgzmieqjm65j.py":58:40)
#loc58 = loc("/root/.cache/vllm/torch_compile_cache/torch_aot_compile/61bda05feca29378847c32f031efa5c8dba258f38b0176a06a3e99e41df8ca50/inductor_cache/wb/cwb7fe4vcrvy27gznbwe4qyuykmfdqwhls62c5kmcgzmieqjm65j.py":58:54)
#loc59 = loc("/root/.cache/vllm/torch_compile_cache/torch_aot_compile/61bda05feca29378847c32f031efa5c8dba258f38b0176a06a3e99e41df8ca50/inductor_cache/wb/cwb7fe4vcrvy27gznbwe4qyuykmfdqwhls62c5kmcgzmieqjm65j.py":58:49)
#loc60 = loc("/root/.cache/vllm/torch_compile_cache/torch_aot_compile/61bda05feca29378847c32f031efa5c8dba258f38b0176a06a3e99e41df8ca50/inductor_cache/wb/cwb7fe4vcrvy27gznbwe4qyuykmfdqwhls62c5kmcgzmieqjm65j.py":58:60)
#loc61 = loc("/root/.cache/vllm/torch_compile_cache/torch_aot_compile/61bda05feca29378847c32f031efa5c8dba258f38b0176a06a3e99e41df8ca50/inductor_cache/wb/cwb7fe4vcrvy27gznbwe4qyuykmfdqwhls62c5kmcgzmieqjm65j.py":58:35)
#loc62 = loc("/root/.cache/vllm/torch_compile_cache/torch_aot_compile/61bda05feca29378847c32f031efa5c8dba258f38b0176a06a3e99e41df8ca50/inductor_cache/wb/cwb7fe4vcrvy27gznbwe4qyuykmfdqwhls62c5kmcgzmieqjm65j.py":58:73)
#loc63 = loc("/root/.cache/vllm/torch_compile_cache/torch_aot_compile/61bda05feca29378847c32f031efa5c8dba258f38b0176a06a3e99e41df8ca50/inductor_cache/wb/cwb7fe4vcrvy27gznbwe4qyuykmfdqwhls62c5kmcgzmieqjm65j.py":58:66)
#loc64 = loc("/root/.cache/vllm/torch_compile_cache/torch_aot_compile/61bda05feca29378847c32f031efa5c8dba258f38b0176a06a3e99e41df8ca50/inductor_cache/wb/cwb7fe4vcrvy27gznbwe4qyuykmfdqwhls62c5kmcgzmieqjm65j.py":58:124)
#loc65 = loc("/root/.cache/vllm/torch_compile_cache/torch_aot_compile/61bda05feca29378847c32f031efa5c8dba258f38b0176a06a3e99e41df8ca50/inductor_cache/wb/cwb7fe4vcrvy27gznbwe4qyuykmfdqwhls62c5kmcgzmieqjm65j.py":60:24)
#loc66 = loc("/root/.cache/vllm/torch_compile_cache/torch_aot_compile/61bda05feca29378847c32f031efa5c8dba258f38b0176a06a3e99e41df8ca50/inductor_cache/wb/cwb7fe4vcrvy27gznbwe4qyuykmfdqwhls62c5kmcgzmieqjm65j.py":61:41)
#loc67 = loc("/root/.cache/vllm/torch_compile_cache/torch_aot_compile/61bda05feca29378847c32f031efa5c8dba258f38b0176a06a3e99e41df8ca50/inductor_cache/wb/cwb7fe4vcrvy27gznbwe4qyuykmfdqwhls62c5kmcgzmieqjm65j.py":61:35)
#loc68 = loc("/root/.cache/vllm/torch_compile_cache/torch_aot_compile/61bda05feca29378847c32f031efa5c8dba258f38b0176a06a3e99e41df8ca50/inductor_cache/wb/cwb7fe4vcrvy27gznbwe4qyuykmfdqwhls62c5kmcgzmieqjm65j.py":61:54)
#loc69 = loc("/root/.cache/vllm/torch_compile_cache/torch_aot_compile/61bda05feca29378847c32f031efa5c8dba258f38b0176a06a3e99e41df8ca50/inductor_cache/wb/cwb7fe4vcrvy27gznbwe4qyuykmfdqwhls62c5kmcgzmieqjm65j.py":61:47)
#loc70 = loc("/root/.cache/vllm/torch_compile_cache/torch_aot_compile/61bda05feca29378847c32f031efa5c8dba258f38b0176a06a3e99e41df8ca50/inductor_cache/wb/cwb7fe4vcrvy27gznbwe4qyuykmfdqwhls62c5kmcgzmieqjm65j.py":61:105)
#loc71 = loc("/root/.cache/vllm/torch_compile_cache/torch_aot_compile/61bda05feca29378847c32f031efa5c8dba258f38b0176a06a3e99e41df8ca50/inductor_cache/wb/cwb7fe4vcrvy27gznbwe4qyuykmfdqwhls62c5kmcgzmieqjm65j.py":63:24)
#loc72 = loc("/root/.cache/vllm/torch_compile_cache/torch_aot_compile/61bda05feca29378847c32f031efa5c8dba258f38b0176a06a3e99e41df8ca50/inductor_cache/wb/cwb7fe4vcrvy27gznbwe4qyuykmfdqwhls62c5kmcgzmieqjm65j.py":64:24)
#loc73 = loc("/root/.cache/vllm/torch_compile_cache/torch_aot_compile/61bda05feca29378847c32f031efa5c8dba258f38b0176a06a3e99e41df8ca50/inductor_cache/wb/cwb7fe4vcrvy27gznbwe4qyuykmfdqwhls62c5kmcgzmieqjm65j.py":66:38)
#loc74 = loc("/root/.cache/vllm/torch_compile_cache/torch_aot_compile/61bda05feca29378847c32f031efa5c8dba258f38b0176a06a3e99e41df8ca50/inductor_cache/wb/cwb7fe4vcrvy27gznbwe4qyuykmfdqwhls62c5kmcgzmieqjm65j.py":66:44)
#loc75 = loc("/root/.cache/vllm/torch_compile_cache/torch_aot_compile/61bda05feca29378847c32f031efa5c8dba258f38b0176a06a3e99e41df8ca50/inductor_cache/wb/cwb7fe4vcrvy27gznbwe4qyuykmfdqwhls62c5kmcgzmieqjm65j.py":66:35)
#loc76 = loc("/root/.cache/vllm/torch_compile_cache/torch_aot_compile/61bda05feca29378847c32f031efa5c8dba258f38b0176a06a3e99e41df8ca50/inductor_cache/wb/cwb7fe4vcrvy27gznbwe4qyuykmfdqwhls62c5kmcgzmieqjm65j.py":66:57)
#loc77 = loc("/root/.cache/vllm/torch_compile_cache/torch_aot_compile/61bda05feca29378847c32f031efa5c8dba258f38b0176a06a3e99e41df8ca50/inductor_cache/wb/cwb7fe4vcrvy27gznbwe4qyuykmfdqwhls62c5kmcgzmieqjm65j.py":66:50)
#loc78 = loc("/root/.cache/vllm/torch_compile_cache/torch_aot_compile/61bda05feca29378847c32f031efa5c8dba258f38b0176a06a3e99e41df8ca50/inductor_cache/wb/cwb7fe4vcrvy27gznbwe4qyuykmfdqwhls62c5kmcgzmieqjm65j.py":66:108)
#loc79 = loc("/root/.cache/vllm/torch_compile_cache/torch_aot_compile/61bda05feca29378847c32f031efa5c8dba258f38b0176a06a3e99e41df8ca50/inductor_cache/wb/cwb7fe4vcrvy27gznbwe4qyuykmfdqwhls62c5kmcgzmieqjm65j.py":67:24)
#loc80 = loc("/root/.cache/vllm/torch_compile_cache/torch_aot_compile/61bda05feca29378847c32f031efa5c8dba258f38b0176a06a3e99e41df8ca50/inductor_cache/wb/cwb7fe4vcrvy27gznbwe4qyuykmfdqwhls62c5kmcgzmieqjm65j.py":68:24)
#loc81 = loc("/root/.cache/vllm/torch_compile_cache/torch_aot_compile/61bda05feca29378847c32f031efa5c8dba258f38b0176a06a3e99e41df8ca50/inductor_cache/wb/cwb7fe4vcrvy27gznbwe4qyuykmfdqwhls62c5kmcgzmieqjm65j.py":69:42)
#loc82 = loc("/root/.cache/vllm/torch_compile_cache/torch_aot_compile/61bda05feca29378847c32f031efa5c8dba258f38b0176a06a3e99e41df8ca50/inductor_cache/wb/cwb7fe4vcrvy27gznbwe4qyuykmfdqwhls62c5kmcgzmieqjm65j.py":70:38)
#loc83 = loc("/root/.cache/vllm/torch_compile_cache/torch_aot_compile/61bda05feca29378847c32f031efa5c8dba258f38b0176a06a3e99e41df8ca50/inductor_cache/wb/cwb7fe4vcrvy27gznbwe4qyuykmfdqwhls62c5kmcgzmieqjm65j.py":71:24)
#loc84 = loc("/root/.cache/vllm/torch_compile_cache/torch_aot_compile/61bda05feca29378847c32f031efa5c8dba258f38b0176a06a3e99e41df8ca50/inductor_cache/wb/cwb7fe4vcrvy27gznbwe4qyuykmfdqwhls62c5kmcgzmieqjm65j.py":72:33)
#loc85 = loc("/root/.cache/vllm/torch_compile_cache/torch_aot_compile/61bda05feca29378847c32f031efa5c8dba258f38b0176a06a3e99e41df8ca50/inductor_cache/wb/cwb7fe4vcrvy27gznbwe4qyuykmfdqwhls62c5kmcgzmieqjm65j.py":73:23)
#loc86 = loc("/root/.cache/vllm/torch_compile_cache/torch_aot_compile/61bda05feca29378847c32f031efa5c8dba258f38b0176a06a3e99e41df8ca50/inductor_cache/wb/cwb7fe4vcrvy27gznbwe4qyuykmfdqwhls62c5kmcgzmieqjm65j.py":74:44)
#loc87 = loc("/root/.cache/vllm/torch_compile_cache/torch_aot_compile/61bda05feca29378847c32f031efa5c8dba258f38b0176a06a3e99e41df8ca50/inductor_cache/wb/cwb7fe4vcrvy27gznbwe4qyuykmfdqwhls62c5kmcgzmieqjm65j.py":74:40)
#loc88 = loc("/root/.cache/vllm/torch_compile_cache/torch_aot_compile/61bda05feca29378847c32f031efa5c8dba258f38b0176a06a3e99e41df8ca50/inductor_cache/wb/cwb7fe4vcrvy27gznbwe4qyuykmfdqwhls62c5kmcgzmieqjm65j.py":74:54)
#loc89 = loc("/root/.cache/vllm/torch_compile_cache/torch_aot_compile/61bda05feca29378847c32f031efa5c8dba258f38b0176a06a3e99e41df8ca50/inductor_cache/wb/cwb7fe4vcrvy27gznbwe4qyuykmfdqwhls62c5kmcgzmieqjm65j.py":74:49)
#loc90 = loc("/root/.cache/vllm/torch_compile_cache/torch_aot_compile/61bda05feca29378847c32f031efa5c8dba258f38b0176a06a3e99e41df8ca50/inductor_cache/wb/cwb7fe4vcrvy27gznbwe4qyuykmfdqwhls62c5kmcgzmieqjm65j.py":74:68)
#loc91 = loc("/root/.cache/vllm/torch_compile_cache/torch_aot_compile/61bda05feca29378847c32f031efa5c8dba258f38b0176a06a3e99e41df8ca50/inductor_cache/wb/cwb7fe4vcrvy27gznbwe4qyuykmfdqwhls62c5kmcgzmieqjm65j.py":74:60)
#loc92 = loc("/root/.cache/vllm/torch_compile_cache/torch_aot_compile/61bda05feca29378847c32f031efa5c8dba258f38b0176a06a3e99e41df8ca50/inductor_cache/wb/cwb7fe4vcrvy27gznbwe4qyuykmfdqwhls62c5kmcgzmieqjm65j.py":74:35)
#loc93 = loc("/root/.cache/vllm/torch_compile_cache/torch_aot_compile/61bda05feca29378847c32f031efa5c8dba258f38b0176a06a3e99e41df8ca50/inductor_cache/wb/cwb7fe4vcrvy27gznbwe4qyuykmfdqwhls62c5kmcgzmieqjm65j.py":74:82)
#loc94 = loc("/root/.cache/vllm/torch_compile_cache/torch_aot_compile/61bda05feca29378847c32f031efa5c8dba258f38b0176a06a3e99e41df8ca50/inductor_cache/wb/cwb7fe4vcrvy27gznbwe4qyuykmfdqwhls62c5kmcgzmieqjm65j.py":74:74)
#loc95 = loc("/root/.cache/vllm/torch_compile_cache/torch_aot_compile/61bda05feca29378847c32f031efa5c8dba258f38b0176a06a3e99e41df8ca50/inductor_cache/wb/cwb7fe4vcrvy27gznbwe4qyuykmfdqwhls62c5kmcgzmieqjm65j.py":74:133)
#loc96 = loc("/root/.cache/vllm/torch_compile_cache/torch_aot_compile/61bda05feca29378847c32f031efa5c8dba258f38b0176a06a3e99e41df8ca50/inductor_cache/wb/cwb7fe4vcrvy27gznbwe4qyuykmfdqwhls62c5kmcgzmieqjm65j.py":76:35)
#loc97 = loc("/root/.cache/vllm/torch_compile_cache/torch_aot_compile/61bda05feca29378847c32f031efa5c8dba258f38b0176a06a3e99e41df8ca50/inductor_cache/wb/cwb7fe4vcrvy27gznbwe4qyuykmfdqwhls62c5kmcgzmieqjm65j.py":76:48)
#loc98 = loc("/root/.cache/vllm/torch_compile_cache/torch_aot_compile/61bda05feca29378847c32f031efa5c8dba258f38b0176a06a3e99e41df8ca50/inductor_cache/wb/cwb7fe4vcrvy27gznbwe4qyuykmfdqwhls62c5kmcgzmieqjm65j.py":76:40)
#loc99 = loc("/root/.cache/vllm/torch_compile_cache/torch_aot_compile/61bda05feca29378847c32f031efa5c8dba258f38b0176a06a3e99e41df8ca50/inductor_cache/wb/cwb7fe4vcrvy27gznbwe4qyuykmfdqwhls62c5kmcgzmieqjm65j.py":77:36)
#loc100 = loc("/root/.cache/vllm/torch_compile_cache/torch_aot_compile/61bda05feca29378847c32f031efa5c8dba258f38b0176a06a3e99e41df8ca50/inductor_cache/wb/cwb7fe4vcrvy27gznbwe4qyuykmfdqwhls62c5kmcgzmieqjm65j.py":78:25)
#loc101 = loc("/root/.cache/vllm/torch_compile_cache/torch_aot_compile/61bda05feca29378847c32f031efa5c8dba258f38b0176a06a3e99e41df8ca50/inductor_cache/wb/cwb7fe4vcrvy27gznbwe4qyuykmfdqwhls62c5kmcgzmieqjm65j.py":79:36)
#loc102 = loc("/root/.cache/vllm/torch_compile_cache/torch_aot_compile/61bda05feca29378847c32f031efa5c8dba258f38b0176a06a3e99e41df8ca50/inductor_cache/wb/cwb7fe4vcrvy27gznbwe4qyuykmfdqwhls62c5kmcgzmieqjm65j.py":80:24)
#loc103 = loc("/root/.cache/vllm/torch_compile_cache/torch_aot_compile/61bda05feca29378847c32f031efa5c8dba258f38b0176a06a3e99e41df8ca50/inductor_cache/wb/cwb7fe4vcrvy27gznbwe4qyuykmfdqwhls62c5kmcgzmieqjm65j.py":81:32)
#loc104 = loc("/root/.cache/vllm/torch_compile_cache/torch_aot_compile/61bda05feca29378847c32f031efa5c8dba258f38b0176a06a3e99e41df8ca50/inductor_cache/wb/cwb7fe4vcrvy27gznbwe4qyuykmfdqwhls62c5kmcgzmieqjm65j.py":82:24)
#loc105 = loc("/root/.cache/vllm/torch_compile_cache/torch_aot_compile/61bda05feca29378847c32f031efa5c8dba258f38b0176a06a3e99e41df8ca50/inductor_cache/wb/cwb7fe4vcrvy27gznbwe4qyuykmfdqwhls62c5kmcgzmieqjm65j.py":83:49)
#loc106 = loc("/root/.cache/vllm/torch_compile_cache/torch_aot_compile/61bda05feca29378847c32f031efa5c8dba258f38b0176a06a3e99e41df8ca50/inductor_cache/wb/cwb7fe4vcrvy27gznbwe4qyuykmfdqwhls62c5kmcgzmieqjm65j.py":83:41)
#loc107 = loc("/root/.cache/vllm/torch_compile_cache/torch_aot_compile/61bda05feca29378847c32f031efa5c8dba258f38b0176a06a3e99e41df8ca50/inductor_cache/wb/cwb7fe4vcrvy27gznbwe4qyuykmfdqwhls62c5kmcgzmieqjm65j.py":83:35)
#loc108 = loc("/root/.cache/vllm/torch_compile_cache/torch_aot_compile/61bda05feca29378847c32f031efa5c8dba258f38b0176a06a3e99e41df8ca50/inductor_cache/wb/cwb7fe4vcrvy27gznbwe4qyuykmfdqwhls62c5kmcgzmieqjm65j.py":83:63)
#loc109 = loc("/root/.cache/vllm/torch_compile_cache/torch_aot_compile/61bda05feca29378847c32f031efa5c8dba258f38b0176a06a3e99e41df8ca50/inductor_cache/wb/cwb7fe4vcrvy27gznbwe4qyuykmfdqwhls62c5kmcgzmieqjm65j.py":83:55)
#loc110 = loc("/root/.cache/vllm/torch_compile_cache/torch_aot_compile/61bda05feca29378847c32f031efa5c8dba258f38b0176a06a3e99e41df8ca50/inductor_cache/wb/cwb7fe4vcrvy27gznbwe4qyuykmfdqwhls62c5kmcgzmieqjm65j.py":83:114)
#loc111 = loc("/root/.cache/vllm/torch_compile_cache/torch_aot_compile/61bda05feca29378847c32f031efa5c8dba258f38b0176a06a3e99e41df8ca50/inductor_cache/wb/cwb7fe4vcrvy27gznbwe4qyuykmfdqwhls62c5kmcgzmieqjm65j.py":85:34)
#loc112 = loc("/root/.cache/vllm/torch_compile_cache/torch_aot_compile/61bda05feca29378847c32f031efa5c8dba258f38b0176a06a3e99e41df8ca50/inductor_cache/wb/cwb7fe4vcrvy27gznbwe4qyuykmfdqwhls62c5kmcgzmieqjm65j.py":86:24)
#loc113 = loc("/root/.cache/vllm/torch_compile_cache/torch_aot_compile/61bda05feca29378847c32f031efa5c8dba258f38b0176a06a3e99e41df8ca50/inductor_cache/wb/cwb7fe4vcrvy27gznbwe4qyuykmfdqwhls62c5kmcgzmieqjm65j.py":87:24)
#loc114 = loc("/root/.cache/vllm/torch_compile_cache/torch_aot_compile/61bda05feca29378847c32f031efa5c8dba258f38b0176a06a3e99e41df8ca50/inductor_cache/wb/cwb7fe4vcrvy27gznbwe4qyuykmfdqwhls62c5kmcgzmieqjm65j.py":89:38)
#loc115 = loc("/root/.cache/vllm/torch_compile_cache/torch_aot_compile/61bda05feca29378847c32f031efa5c8dba258f38b0176a06a3e99e41df8ca50/inductor_cache/wb/cwb7fe4vcrvy27gznbwe4qyuykmfdqwhls62c5kmcgzmieqjm65j.py":89:52)
#loc116 = loc("/root/.cache/vllm/torch_compile_cache/torch_aot_compile/61bda05feca29378847c32f031efa5c8dba258f38b0176a06a3e99e41df8ca50/inductor_cache/wb/cwb7fe4vcrvy27gznbwe4qyuykmfdqwhls62c5kmcgzmieqjm65j.py":89:44)
#loc117 = loc("/root/.cache/vllm/torch_compile_cache/torch_aot_compile/61bda05feca29378847c32f031efa5c8dba258f38b0176a06a3e99e41df8ca50/inductor_cache/wb/cwb7fe4vcrvy27gznbwe4qyuykmfdqwhls62c5kmcgzmieqjm65j.py":89:35)
#loc118 = loc("/root/.cache/vllm/torch_compile_cache/torch_aot_compile/61bda05feca29378847c32f031efa5c8dba258f38b0176a06a3e99e41df8ca50/inductor_cache/wb/cwb7fe4vcrvy27gznbwe4qyuykmfdqwhls62c5kmcgzmieqjm65j.py":89:66)
#loc119 = loc("/root/.cache/vllm/torch_compile_cache/torch_aot_compile/61bda05feca29378847c32f031efa5c8dba258f38b0176a06a3e99e41df8ca50/inductor_cache/wb/cwb7fe4vcrvy27gznbwe4qyuykmfdqwhls62c5kmcgzmieqjm65j.py":89:58)
#loc120 = loc("/root/.cache/vllm/torch_compile_cache/torch_aot_compile/61bda05feca29378847c32f031efa5c8dba258f38b0176a06a3e99e41df8ca50/inductor_cache/wb/cwb7fe4vcrvy27gznbwe4qyuykmfdqwhls62c5kmcgzmieqjm65j.py":89:117)
#loc121 = loc("/root/.cache/vllm/torch_compile_cache/torch_aot_compile/61bda05feca29378847c32f031efa5c8dba258f38b0176a06a3e99e41df8ca50/inductor_cache/wb/cwb7fe4vcrvy27gznbwe4qyuykmfdqwhls62c5kmcgzmieqjm65j.py":90:24)
#loc122 = loc("/root/.cache/vllm/torch_compile_cache/torch_aot_compile/61bda05feca29378847c32f031efa5c8dba258f38b0176a06a3e99e41df8ca50/inductor_cache/wb/cwb7fe4vcrvy27gznbwe4qyuykmfdqwhls62c5kmcgzmieqjm65j.py":91:39)
#loc123 = loc("/root/.cache/vllm/torch_compile_cache/torch_aot_compile/61bda05feca29378847c32f031efa5c8dba258f38b0176a06a3e99e41df8ca50/inductor_cache/wb/cwb7fe4vcrvy27gznbwe4qyuykmfdqwhls62c5kmcgzmieqjm65j.py":91:49)
#loc124 = loc("/root/.cache/vllm/torch_compile_cache/torch_aot_compile/61bda05feca29378847c32f031efa5c8dba258f38b0176a06a3e99e41df8ca50/inductor_cache/wb/cwb7fe4vcrvy27gznbwe4qyuykmfdqwhls62c5kmcgzmieqjm65j.py":91:44)
#loc125 = loc("/root/.cache/vllm/torch_compile_cache/torch_aot_compile/61bda05feca29378847c32f031efa5c8dba258f38b0176a06a3e99e41df8ca50/inductor_cache/wb/cwb7fe4vcrvy27gznbwe4qyuykmfdqwhls62c5kmcgzmieqjm65j.py":91:63)
#loc126 = loc("/root/.cache/vllm/torch_compile_cache/torch_aot_compile/61bda05feca29378847c32f031efa5c8dba258f38b0176a06a3e99e41df8ca50/inductor_cache/wb/cwb7fe4vcrvy27gznbwe4qyuykmfdqwhls62c5kmcgzmieqjm65j.py":91:55)
#loc127 = loc("/root/.cache/vllm/torch_compile_cache/torch_aot_compile/61bda05feca29378847c32f031efa5c8dba258f38b0176a06a3e99e41df8ca50/inductor_cache/wb/cwb7fe4vcrvy27gznbwe4qyuykmfdqwhls62c5kmcgzmieqjm65j.py":91:35)
#loc128 = loc("/root/.cache/vllm/torch_compile_cache/torch_aot_compile/61bda05feca29378847c32f031efa5c8dba258f38b0176a06a3e99e41df8ca50/inductor_cache/wb/cwb7fe4vcrvy27gznbwe4qyuykmfdqwhls62c5kmcgzmieqjm65j.py":91:77)
#loc129 = loc("/root/.cache/vllm/torch_compile_cache/torch_aot_compile/61bda05feca29378847c32f031efa5c8dba258f38b0176a06a3e99e41df8ca50/inductor_cache/wb/cwb7fe4vcrvy27gznbwe4qyuykmfdqwhls62c5kmcgzmieqjm65j.py":91:69)
#loc130 = loc("/root/.cache/vllm/torch_compile_cache/torch_aot_compile/61bda05feca29378847c32f031efa5c8dba258f38b0176a06a3e99e41df8ca50/inductor_cache/wb/cwb7fe4vcrvy27gznbwe4qyuykmfdqwhls62c5kmcgzmieqjm65j.py":91:128)
#loc131 = loc("/root/.cache/vllm/torch_compile_cache/torch_aot_compile/61bda05feca29378847c32f031efa5c8dba258f38b0176a06a3e99e41df8ca50/inductor_cache/wb/cwb7fe4vcrvy27gznbwe4qyuykmfdqwhls62c5kmcgzmieqjm65j.py":93:24)
#loc132 = loc("/root/.cache/vllm/torch_compile_cache/torch_aot_compile/61bda05feca29378847c32f031efa5c8dba258f38b0176a06a3e99e41df8ca50/inductor_cache/wb/cwb7fe4vcrvy27gznbwe4qyuykmfdqwhls62c5kmcgzmieqjm65j.py":94:43)
#loc133 = loc("/root/.cache/vllm/torch_compile_cache/torch_aot_compile/61bda05feca29378847c32f031efa5c8dba258f38b0176a06a3e99e41df8ca50/inductor_cache/wb/cwb7fe4vcrvy27gznbwe4qyuykmfdqwhls62c5kmcgzmieqjm65j.py":94:35)
#loc134 = loc("/root/.cache/vllm/torch_compile_cache/torch_aot_compile/61bda05feca29378847c32f031efa5c8dba258f38b0176a06a3e99e41df8ca50/inductor_cache/wb/cwb7fe4vcrvy27gznbwe4qyuykmfdqwhls62c5kmcgzmieqjm65j.py":94:56)
#loc135 = loc("/root/.cache/vllm/torch_compile_cache/torch_aot_compile/61bda05feca29378847c32f031efa5c8dba258f38b0176a06a3e99e41df8ca50/inductor_cache/wb/cwb7fe4vcrvy27gznbwe4qyuykmfdqwhls62c5kmcgzmieqjm65j.py":94:48)
#loc136 = loc("/root/.cache/vllm/torch_compile_cache/torch_aot_compile/61bda05feca29378847c32f031efa5c8dba258f38b0176a06a3e99e41df8ca50/inductor_cache/wb/cwb7fe4vcrvy27gznbwe4qyuykmfdqwhls62c5kmcgzmieqjm65j.py":94:107)
#loc137 = loc("/root/.cache/vllm/torch_compile_cache/torch_aot_compile/61bda05feca29378847c32f031efa5c8dba258f38b0176a06a3e99e41df8ca50/inductor_cache/wb/cwb7fe4vcrvy27gznbwe4qyuykmfdqwhls62c5kmcgzmieqjm65j.py":96:24)
#loc138 = loc("/root/.cache/vllm/torch_compile_cache/torch_aot_compile/61bda05feca29378847c32f031efa5c8dba258f38b0176a06a3e99e41df8ca50/inductor_cache/wb/cwb7fe4vcrvy27gznbwe4qyuykmfdqwhls62c5kmcgzmieqjm65j.py":97:24)
#loc139 = loc("/root/.cache/vllm/torch_compile_cache/torch_aot_compile/61bda05feca29378847c32f031efa5c8dba258f38b0176a06a3e99e41df8ca50/inductor_cache/wb/cwb7fe4vcrvy27gznbwe4qyuykmfdqwhls62c5kmcgzmieqjm65j.py":99:38)
#loc140 = loc("/root/.cache/vllm/torch_compile_cache/torch_aot_compile/61bda05feca29378847c32f031efa5c8dba258f38b0176a06a3e99e41df8ca50/inductor_cache/wb/cwb7fe4vcrvy27gznbwe4qyuykmfdqwhls62c5kmcgzmieqjm65j.py":99:52)
#loc141 = loc("/root/.cache/vllm/torch_compile_cache/torch_aot_compile/61bda05feca29378847c32f031efa5c8dba258f38b0176a06a3e99e41df8ca50/inductor_cache/wb/cwb7fe4vcrvy27gznbwe4qyuykmfdqwhls62c5kmcgzmieqjm65j.py":99:44)
#loc142 = loc("/root/.cache/vllm/torch_compile_cache/torch_aot_compile/61bda05feca29378847c32f031efa5c8dba258f38b0176a06a3e99e41df8ca50/inductor_cache/wb/cwb7fe4vcrvy27gznbwe4qyuykmfdqwhls62c5kmcgzmieqjm65j.py":99:35)
#loc143 = loc("/root/.cache/vllm/torch_compile_cache/torch_aot_compile/61bda05feca29378847c32f031efa5c8dba258f38b0176a06a3e99e41df8ca50/inductor_cache/wb/cwb7fe4vcrvy27gznbwe4qyuykmfdqwhls62c5kmcgzmieqjm65j.py":99:66)
#loc144 = loc("/root/.cache/vllm/torch_compile_cache/torch_aot_compile/61bda05feca29378847c32f031efa5c8dba258f38b0176a06a3e99e41df8ca50/inductor_cache/wb/cwb7fe4vcrvy27gznbwe4qyuykmfdqwhls62c5kmcgzmieqjm65j.py":99:58)
#loc145 = loc("/root/.cache/vllm/torch_compile_cache/torch_aot_compile/61bda05feca29378847c32f031efa5c8dba258f38b0176a06a3e99e41df8ca50/inductor_cache/wb/cwb7fe4vcrvy27gznbwe4qyuykmfdqwhls62c5kmcgzmieqjm65j.py":99:117)
#loc146 = loc("/root/.cache/vllm/torch_compile_cache/torch_aot_compile/61bda05feca29378847c32f031efa5c8dba258f38b0176a06a3e99e41df8ca50/inductor_cache/wb/cwb7fe4vcrvy27gznbwe4qyuykmfdqwhls62c5kmcgzmieqjm65j.py":100:24)
#loc147 = loc("/root/.cache/vllm/torch_compile_cache/torch_aot_compile/61bda05feca29378847c32f031efa5c8dba258f38b0176a06a3e99e41df8ca50/inductor_cache/wb/cwb7fe4vcrvy27gznbwe4qyuykmfdqwhls62c5kmcgzmieqjm65j.py":101:24)
#loc148 = loc("/root/.cache/vllm/torch_compile_cache/torch_aot_compile/61bda05feca29378847c32f031efa5c8dba258f38b0176a06a3e99e41df8ca50/inductor_cache/wb/cwb7fe4vcrvy27gznbwe4qyuykmfdqwhls62c5kmcgzmieqjm65j.py":102:42)
#loc149 = loc("/root/.cache/vllm/torch_compile_cache/torch_aot_compile/61bda05feca29378847c32f031efa5c8dba258f38b0176a06a3e99e41df8ca50/inductor_cache/wb/cwb7fe4vcrvy27gznbwe4qyuykmfdqwhls62c5kmcgzmieqjm65j.py":103:39)
#loc150 = loc("/root/.cache/vllm/torch_compile_cache/torch_aot_compile/61bda05feca29378847c32f031efa5c8dba258f38b0176a06a3e99e41df8ca50/inductor_cache/wb/cwb7fe4vcrvy27gznbwe4qyuykmfdqwhls62c5kmcgzmieqjm65j.py":104:38)
#loc151 = loc("/root/.cache/vllm/torch_compile_cache/torch_aot_compile/61bda05feca29378847c32f031efa5c8dba258f38b0176a06a3e99e41df8ca50/inductor_cache/wb/cwb7fe4vcrvy27gznbwe4qyuykmfdqwhls62c5kmcgzmieqjm65j.py":105:38)
#loc152 = loc("/root/.cache/vllm/torch_compile_cache/torch_aot_compile/61bda05feca29378847c32f031efa5c8dba258f38b0176a06a3e99e41df8ca50/inductor_cache/wb/cwb7fe4vcrvy27gznbwe4qyuykmfdqwhls62c5kmcgzmieqjm65j.py":105:34)
#loc153 = loc("/root/.cache/vllm/torch_compile_cache/torch_aot_compile/61bda05feca29378847c32f031efa5c8dba258f38b0176a06a3e99e41df8ca50/inductor_cache/wb/cwb7fe4vcrvy27gznbwe4qyuykmfdqwhls62c5kmcgzmieqjm65j.py":105:29)
#loc154 = loc("/root/.cache/vllm/torch_compile_cache/torch_aot_compile/61bda05feca29378847c32f031efa5c8dba258f38b0176a06a3e99e41df8ca50/inductor_cache/wb/cwb7fe4vcrvy27gznbwe4qyuykmfdqwhls62c5kmcgzmieqjm65j.py":105:50)
#loc155 = loc("/root/.cache/vllm/torch_compile_cache/torch_aot_compile/61bda05feca29378847c32f031efa5c8dba258f38b0176a06a3e99e41df8ca50/inductor_cache/wb/cwb7fe4vcrvy27gznbwe4qyuykmfdqwhls62c5kmcgzmieqjm65j.py":106:15)
#loc156 = loc("/root/.cache/vllm/torch_compile_cache/torch_aot_compile/61bda05feca29378847c32f031efa5c8dba258f38b0176a06a3e99e41df8ca50/inductor_cache/wb/cwb7fe4vcrvy27gznbwe4qyuykmfdqwhls62c5kmcgzmieqjm65j.py":106:9)
#loc157 = loc("/root/.cache/vllm/torch_compile_cache/torch_aot_compile/61bda05feca29378847c32f031efa5c8dba258f38b0176a06a3e99e41df8ca50/inductor_cache/wb/cwb7fe4vcrvy27gznbwe4qyuykmfdqwhls62c5kmcgzmieqjm65j.py":107:27)
#loc158 = loc("/root/.cache/vllm/torch_compile_cache/torch_aot_compile/61bda05feca29378847c32f031efa5c8dba258f38b0176a06a3e99e41df8ca50/inductor_cache/wb/cwb7fe4vcrvy27gznbwe4qyuykmfdqwhls62c5kmcgzmieqjm65j.py":108:19)
#loc159 = loc("/root/.cache/vllm/torch_compile_cache/torch_aot_compile/61bda05feca29378847c32f031efa5c8dba258f38b0176a06a3e99e41df8ca50/inductor_cache/wb/cwb7fe4vcrvy27gznbwe4qyuykmfdqwhls62c5kmcgzmieqjm65j.py":109:31)
#loc160 = loc("/root/.cache/vllm/torch_compile_cache/torch_aot_compile/61bda05feca29378847c32f031efa5c8dba258f38b0176a06a3e99e41df8ca50/inductor_cache/wb/cwb7fe4vcrvy27gznbwe4qyuykmfdqwhls62c5kmcgzmieqjm65j.py":110:40)
#loc161 = loc("/root/.cache/vllm/torch_compile_cache/torch_aot_compile/61bda05feca29378847c32f031efa5c8dba258f38b0176a06a3e99e41df8ca50/inductor_cache/wb/cwb7fe4vcrvy27gznbwe4qyuykmfdqwhls62c5kmcgzmieqjm65j.py":110:27)
#loc162 = loc("/root/.cache/vllm/torch_compile_cache/torch_aot_compile/61bda05feca29378847c32f031efa5c8dba258f38b0176a06a3e99e41df8ca50/inductor_cache/wb/cwb7fe4vcrvy27gznbwe4qyuykmfdqwhls62c5kmcgzmieqjm65j.py":111:25)
#loc163 = loc("/root/.cache/vllm/torch_compile_cache/torch_aot_compile/61bda05feca29378847c32f031efa5c8dba258f38b0176a06a3e99e41df8ca50/inductor_cache/wb/cwb7fe4vcrvy27gznbwe4qyuykmfdqwhls62c5kmcgzmieqjm65j.py":112:23)
#loc164 = loc("/root/.cache/vllm/torch_compile_cache/torch_aot_compile/61bda05feca29378847c32f031efa5c8dba258f38b0176a06a3e99e41df8ca50/inductor_cache/wb/cwb7fe4vcrvy27gznbwe4qyuykmfdqwhls62c5kmcgzmieqjm65j.py":113:25)
#loc165 = loc("/root/.cache/vllm/torch_compile_cache/torch_aot_compile/61bda05feca29378847c32f031efa5c8dba258f38b0176a06a3e99e41df8ca50/inductor_cache/wb/cwb7fe4vcrvy27gznbwe4qyuykmfdqwhls62c5kmcgzmieqjm65j.py":113:32)
#loc166 = loc("/root/.cache/vllm/torch_compile_cache/torch_aot_compile/61bda05feca29378847c32f031efa5c8dba258f38b0176a06a3e99e41df8ca50/inductor_cache/wb/cwb7fe4vcrvy27gznbwe4qyuykmfdqwhls62c5kmcgzmieqjm65j.py":114:23)
#loc167 = loc("/root/.cache/vllm/torch_compile_cache/torch_aot_compile/61bda05feca29378847c32f031efa5c8dba258f38b0176a06a3e99e41df8ca50/inductor_cache/wb/cwb7fe4vcrvy27gznbwe4qyuykmfdqwhls62c5kmcgzmieqjm65j.py":115:23)
#loc168 = loc("/root/.cache/vllm/torch_compile_cache/torch_aot_compile/61bda05feca29378847c32f031efa5c8dba258f38b0176a06a3e99e41df8ca50/inductor_cache/wb/cwb7fe4vcrvy27gznbwe4qyuykmfdqwhls62c5kmcgzmieqjm65j.py":116:40)
#loc169 = loc("/root/.cache/vllm/torch_compile_cache/torch_aot_compile/61bda05feca29378847c32f031efa5c8dba258f38b0176a06a3e99e41df8ca50/inductor_cache/wb/cwb7fe4vcrvy27gznbwe4qyuykmfdqwhls62c5kmcgzmieqjm65j.py":116:49)
#loc170 = loc("/root/.cache/vllm/torch_compile_cache/torch_aot_compile/61bda05feca29378847c32f031efa5c8dba258f38b0176a06a3e99e41df8ca50/inductor_cache/wb/cwb7fe4vcrvy27gznbwe4qyuykmfdqwhls62c5kmcgzmieqjm65j.py":116:45)
#loc171 = loc("/root/.cache/vllm/torch_compile_cache/torch_aot_compile/61bda05feca29378847c32f031efa5c8dba258f38b0176a06a3e99e41df8ca50/inductor_cache/wb/cwb7fe4vcrvy27gznbwe4qyuykmfdqwhls62c5kmcgzmieqjm65j.py":116:59)
#loc172 = loc("/root/.cache/vllm/torch_compile_cache/torch_aot_compile/61bda05feca29378847c32f031efa5c8dba258f38b0176a06a3e99e41df8ca50/inductor_cache/wb/cwb7fe4vcrvy27gznbwe4qyuykmfdqwhls62c5kmcgzmieqjm65j.py":116:54)
#loc173 = loc("/root/.cache/vllm/torch_compile_cache/torch_aot_compile/61bda05feca29378847c32f031efa5c8dba258f38b0176a06a3e99e41df8ca50/inductor_cache/wb/cwb7fe4vcrvy27gznbwe4qyuykmfdqwhls62c5kmcgzmieqjm65j.py":116:35)
#loc174 = loc("/root/.cache/vllm/torch_compile_cache/torch_aot_compile/61bda05feca29378847c32f031efa5c8dba258f38b0176a06a3e99e41df8ca50/inductor_cache/wb/cwb7fe4vcrvy27gznbwe4qyuykmfdqwhls62c5kmcgzmieqjm65j.py":116:64)
#loc175 = loc("/root/.cache/vllm/torch_compile_cache/torch_aot_compile/61bda05feca29378847c32f031efa5c8dba258f38b0176a06a3e99e41df8ca50/inductor_cache/wb/cwb7fe4vcrvy27gznbwe4qyuykmfdqwhls62c5kmcgzmieqjm65j.py":116:74)
#loc176 = loc("/root/.cache/vllm/torch_compile_cache/torch_aot_compile/61bda05feca29378847c32f031efa5c8dba258f38b0176a06a3e99e41df8ca50/inductor_cache/wb/cwb7fe4vcrvy27gznbwe4qyuykmfdqwhls62c5kmcgzmieqjm65j.py":117:35)
#loc177 = loc("/root/.cache/vllm/torch_compile_cache/torch_aot_compile/61bda05feca29378847c32f031efa5c8dba258f38b0176a06a3e99e41df8ca50/inductor_cache/wb/cwb7fe4vcrvy27gznbwe4qyuykmfdqwhls62c5kmcgzmieqjm65j.py":117:40)
#loc178 = loc("/root/.cache/vllm/torch_compile_cache/torch_aot_compile/61bda05feca29378847c32f031efa5c8dba258f38b0176a06a3e99e41df8ca50/inductor_cache/wb/cwb7fe4vcrvy27gznbwe4qyuykmfdqwhls62c5kmcgzmieqjm65j.py":118:40)
#loc179 = loc("/root/.cache/vllm/torch_compile_cache/torch_aot_compile/61bda05feca29378847c32f031efa5c8dba258f38b0176a06a3e99e41df8ca50/inductor_cache/wb/cwb7fe4vcrvy27gznbwe4qyuykmfdqwhls62c5kmcgzmieqjm65j.py":118:35)
#loc180 = loc("/root/.cache/vllm/torch_compile_cache/torch_aot_compile/61bda05feca29378847c32f031efa5c8dba258f38b0176a06a3e99e41df8ca50/inductor_cache/wb/cwb7fe4vcrvy27gznbwe4qyuykmfdqwhls62c5kmcgzmieqjm65j.py":118:45)
#loc181 = loc("/root/.cache/vllm/torch_compile_cache/torch_aot_compile/61bda05feca29378847c32f031efa5c8dba258f38b0176a06a3e99e41df8ca50/inductor_cache/wb/cwb7fe4vcrvy27gznbwe4qyuykmfdqwhls62c5kmcgzmieqjm65j.py":118:85)
#loc182 = loc("/root/.cache/vllm/torch_compile_cache/torch_aot_compile/61bda05feca29378847c32f031efa5c8dba258f38b0176a06a3e99e41df8ca50/inductor_cache/wb/cwb7fe4vcrvy27gznbwe4qyuykmfdqwhls62c5kmcgzmieqjm65j.py":120:36)
#loc183 = loc("/root/.cache/vllm/torch_compile_cache/torch_aot_compile/61bda05feca29378847c32f031efa5c8dba258f38b0176a06a3e99e41df8ca50/inductor_cache/wb/cwb7fe4vcrvy27gznbwe4qyuykmfdqwhls62c5kmcgzmieqjm65j.py":121:25)
#loc184 = loc("/root/.cache/vllm/torch_compile_cache/torch_aot_compile/61bda05feca29378847c32f031efa5c8dba258f38b0176a06a3e99e41df8ca50/inductor_cache/wb/cwb7fe4vcrvy27gznbwe4qyuykmfdqwhls62c5kmcgzmieqjm65j.py":122:36)
#loc185 = loc("/root/.cache/vllm/torch_compile_cache/torch_aot_compile/61bda05feca29378847c32f031efa5c8dba258f38b0176a06a3e99e41df8ca50/inductor_cache/wb/cwb7fe4vcrvy27gznbwe4qyuykmfdqwhls62c5kmcgzmieqjm65j.py":123:24)
#loc186 = loc("/root/.cache/vllm/torch_compile_cache/torch_aot_compile/61bda05feca29378847c32f031efa5c8dba258f38b0176a06a3e99e41df8ca50/inductor_cache/wb/cwb7fe4vcrvy27gznbwe4qyuykmfdqwhls62c5kmcgzmieqjm65j.py":124:32)
#loc187 = loc("/root/.cache/vllm/torch_compile_cache/torch_aot_compile/61bda05feca29378847c32f031efa5c8dba258f38b0176a06a3e99e41df8ca50/inductor_cache/wb/cwb7fe4vcrvy27gznbwe4qyuykmfdqwhls62c5kmcgzmieqjm65j.py":125:24)
#loc188 = loc("/root/.cache/vllm/torch_compile_cache/torch_aot_compile/61bda05feca29378847c32f031efa5c8dba258f38b0176a06a3e99e41df8ca50/inductor_cache/wb/cwb7fe4vcrvy27gznbwe4qyuykmfdqwhls62c5kmcgzmieqjm65j.py":127:34)
#loc189 = loc("/root/.cache/vllm/torch_compile_cache/torch_aot_compile/61bda05feca29378847c32f031efa5c8dba258f38b0176a06a3e99e41df8ca50/inductor_cache/wb/cwb7fe4vcrvy27gznbwe4qyuykmfdqwhls62c5kmcgzmieqjm65j.py":128:24)
#loc190 = loc("/root/.cache/vllm/torch_compile_cache/torch_aot_compile/61bda05feca29378847c32f031efa5c8dba258f38b0176a06a3e99e41df8ca50/inductor_cache/wb/cwb7fe4vcrvy27gznbwe4qyuykmfdqwhls62c5kmcgzmieqjm65j.py":129:24)
#loc191 = loc("/root/.cache/vllm/torch_compile_cache/torch_aot_compile/61bda05feca29378847c32f031efa5c8dba258f38b0176a06a3e99e41df8ca50/inductor_cache/wb/cwb7fe4vcrvy27gznbwe4qyuykmfdqwhls62c5kmcgzmieqjm65j.py":131:38)
#loc192 = loc("/root/.cache/vllm/torch_compile_cache/torch_aot_compile/61bda05feca29378847c32f031efa5c8dba258f38b0176a06a3e99e41df8ca50/inductor_cache/wb/cwb7fe4vcrvy27gznbwe4qyuykmfdqwhls62c5kmcgzmieqjm65j.py":131:34)
#loc193 = loc("/root/.cache/vllm/torch_compile_cache/torch_aot_compile/61bda05feca29378847c32f031efa5c8dba258f38b0176a06a3e99e41df8ca50/inductor_cache/wb/cwb7fe4vcrvy27gznbwe4qyuykmfdqwhls62c5kmcgzmieqjm65j.py":131:29)
#loc194 = loc("/root/.cache/vllm/torch_compile_cache/torch_aot_compile/61bda05feca29378847c32f031efa5c8dba258f38b0176a06a3e99e41df8ca50/inductor_cache/wb/cwb7fe4vcrvy27gznbwe4qyuykmfdqwhls62c5kmcgzmieqjm65j.py":131:50)
#loc195 = loc("/root/.cache/vllm/torch_compile_cache/torch_aot_compile/61bda05feca29378847c32f031efa5c8dba258f38b0176a06a3e99e41df8ca50/inductor_cache/wb/cwb7fe4vcrvy27gznbwe4qyuykmfdqwhls62c5kmcgzmieqjm65j.py":132:15)
#loc196 = loc("/root/.cache/vllm/torch_compile_cache/torch_aot_compile/61bda05feca29378847c32f031efa5c8dba258f38b0176a06a3e99e41df8ca50/inductor_cache/wb/cwb7fe4vcrvy27gznbwe4qyuykmfdqwhls62c5kmcgzmieqjm65j.py":132:9)
#loc197 = loc("/root/.cache/vllm/torch_compile_cache/torch_aot_compile/61bda05feca29378847c32f031efa5c8dba258f38b0176a06a3e99e41df8ca50/inductor_cache/wb/cwb7fe4vcrvy27gznbwe4qyuykmfdqwhls62c5kmcgzmieqjm65j.py":133:27)
#loc198 = loc("/root/.cache/vllm/torch_compile_cache/torch_aot_compile/61bda05feca29378847c32f031efa5c8dba258f38b0176a06a3e99e41df8ca50/inductor_cache/wb/cwb7fe4vcrvy27gznbwe4qyuykmfdqwhls62c5kmcgzmieqjm65j.py":134:19)
#loc199 = loc("/root/.cache/vllm/torch_compile_cache/torch_aot_compile/61bda05feca29378847c32f031efa5c8dba258f38b0176a06a3e99e41df8ca50/inductor_cache/wb/cwb7fe4vcrvy27gznbwe4qyuykmfdqwhls62c5kmcgzmieqjm65j.py":135:31)
#loc200 = loc("/root/.cache/vllm/torch_compile_cache/torch_aot_compile/61bda05feca29378847c32f031efa5c8dba258f38b0176a06a3e99e41df8ca50/inductor_cache/wb/cwb7fe4vcrvy27gznbwe4qyuykmfdqwhls62c5kmcgzmieqjm65j.py":136:40)
#loc201 = loc("/root/.cache/vllm/torch_compile_cache/torch_aot_compile/61bda05feca29378847c32f031efa5c8dba258f38b0176a06a3e99e41df8ca50/inductor_cache/wb/cwb7fe4vcrvy27gznbwe4qyuykmfdqwhls62c5kmcgzmieqjm65j.py":136:27)
#loc202 = loc("/root/.cache/vllm/torch_compile_cache/torch_aot_compile/61bda05feca29378847c32f031efa5c8dba258f38b0176a06a3e99e41df8ca50/inductor_cache/wb/cwb7fe4vcrvy27gznbwe4qyuykmfdqwhls62c5kmcgzmieqjm65j.py":137:25)
#loc203 = loc("/root/.cache/vllm/torch_compile_cache/torch_aot_compile/61bda05feca29378847c32f031efa5c8dba258f38b0176a06a3e99e41df8ca50/inductor_cache/wb/cwb7fe4vcrvy27gznbwe4qyuykmfdqwhls62c5kmcgzmieqjm65j.py":138:23)
#loc204 = loc("/root/.cache/vllm/torch_compile_cache/torch_aot_compile/61bda05feca29378847c32f031efa5c8dba258f38b0176a06a3e99e41df8ca50/inductor_cache/wb/cwb7fe4vcrvy27gznbwe4qyuykmfdqwhls62c5kmcgzmieqjm65j.py":139:23)
#loc205 = loc("/root/.cache/vllm/torch_compile_cache/torch_aot_compile/61bda05feca29378847c32f031efa5c8dba258f38b0176a06a3e99e41df8ca50/inductor_cache/wb/cwb7fe4vcrvy27gznbwe4qyuykmfdqwhls62c5kmcgzmieqjm65j.py":141:32)
#loc206 = loc("/root/.cache/vllm/torch_compile_cache/torch_aot_compile/61bda05feca29378847c32f031efa5c8dba258f38b0176a06a3e99e41df8ca50/inductor_cache/wb/cwb7fe4vcrvy27gznbwe4qyuykmfdqwhls62c5kmcgzmieqjm65j.py":142:25)
#loc207 = loc("/root/.cache/vllm/torch_compile_cache/torch_aot_compile/61bda05feca29378847c32f031efa5c8dba258f38b0176a06a3e99e41df8ca50/inductor_cache/wb/cwb7fe4vcrvy27gznbwe4qyuykmfdqwhls62c5kmcgzmieqjm65j.py":143:33)
#loc208 = loc("/root/.cache/vllm/torch_compile_cache/torch_aot_compile/61bda05feca29378847c32f031efa5c8dba258f38b0176a06a3e99e41df8ca50/inductor_cache/wb/cwb7fe4vcrvy27gznbwe4qyuykmfdqwhls62c5kmcgzmieqjm65j.py":144:24)
#loc209 = loc("/root/.cache/vllm/torch_compile_cache/torch_aot_compile/61bda05feca29378847c32f031efa5c8dba258f38b0176a06a3e99e41df8ca50/inductor_cache/wb/cwb7fe4vcrvy27gznbwe4qyuykmfdqwhls62c5kmcgzmieqjm65j.py":145:47)
#loc210 = loc("/root/.cache/vllm/torch_compile_cache/torch_aot_compile/61bda05feca29378847c32f031efa5c8dba258f38b0176a06a3e99e41df8ca50/inductor_cache/wb/cwb7fe4vcrvy27gznbwe4qyuykmfdqwhls62c5kmcgzmieqjm65j.py":145:42)
#loc211 = loc("/root/.cache/vllm/torch_compile_cache/torch_aot_compile/61bda05feca29378847c32f031efa5c8dba258f38b0176a06a3e99e41df8ca50/inductor_cache/wb/cwb7fe4vcrvy27gznbwe4qyuykmfdqwhls62c5kmcgzmieqjm65j.py":145:53)
#loc212 = loc("/root/.cache/vllm/torch_compile_cache/torch_aot_compile/61bda05feca29378847c32f031efa5c8dba258f38b0176a06a3e99e41df8ca50/inductor_cache/wb/cwb7fe4vcrvy27gznbwe4qyuykmfdqwhls62c5kmcgzmieqjm65j.py":145:35)
#loc213 = loc("/root/.cache/vllm/torch_compile_cache/torch_aot_compile/61bda05feca29378847c32f031efa5c8dba258f38b0176a06a3e99e41df8ca50/inductor_cache/wb/cwb7fe4vcrvy27gznbwe4qyuykmfdqwhls62c5kmcgzmieqjm65j.py":145:67)
#loc214 = loc("/root/.cache/vllm/torch_compile_cache/torch_aot_compile/61bda05feca29378847c32f031efa5c8dba258f38b0176a06a3e99e41df8ca50/inductor_cache/wb/cwb7fe4vcrvy27gznbwe4qyuykmfdqwhls62c5kmcgzmieqjm65j.py":145:59)
#loc215 = loc("/root/.cache/vllm/torch_compile_cache/torch_aot_compile/61bda05feca29378847c32f031efa5c8dba258f38b0176a06a3e99e41df8ca50/inductor_cache/wb/cwb7fe4vcrvy27gznbwe4qyuykmfdqwhls62c5kmcgzmieqjm65j.py":145:118)
#loc216 = loc("/root/.cache/vllm/torch_compile_cache/torch_aot_compile/61bda05feca29378847c32f031efa5c8dba258f38b0176a06a3e99e41df8ca50/inductor_cache/wb/cwb7fe4vcrvy27gznbwe4qyuykmfdqwhls62c5kmcgzmieqjm65j.py":147:35)
#loc217 = loc("/root/.cache/vllm/torch_compile_cache/torch_aot_compile/61bda05feca29378847c32f031efa5c8dba258f38b0176a06a3e99e41df8ca50/inductor_cache/wb/cwb7fe4vcrvy27gznbwe4qyuykmfdqwhls62c5kmcgzmieqjm65j.py":147:48)
#loc218 = loc("/root/.cache/vllm/torch_compile_cache/torch_aot_compile/61bda05feca29378847c32f031efa5c8dba258f38b0176a06a3e99e41df8ca50/inductor_cache/wb/cwb7fe4vcrvy27gznbwe4qyuykmfdqwhls62c5kmcgzmieqjm65j.py":147:40)
#loc219 = loc("/root/.cache/vllm/torch_compile_cache/torch_aot_compile/61bda05feca29378847c32f031efa5c8dba258f38b0176a06a3e99e41df8ca50/inductor_cache/wb/cwb7fe4vcrvy27gznbwe4qyuykmfdqwhls62c5kmcgzmieqjm65j.py":148:36)
#loc220 = loc("/root/.cache/vllm/torch_compile_cache/torch_aot_compile/61bda05feca29378847c32f031efa5c8dba258f38b0176a06a3e99e41df8ca50/inductor_cache/wb/cwb7fe4vcrvy27gznbwe4qyuykmfdqwhls62c5kmcgzmieqjm65j.py":149:25)
#loc221 = loc("/root/.cache/vllm/torch_compile_cache/torch_aot_compile/61bda05feca29378847c32f031efa5c8dba258f38b0176a06a3e99e41df8ca50/inductor_cache/wb/cwb7fe4vcrvy27gznbwe4qyuykmfdqwhls62c5kmcgzmieqjm65j.py":150:36)
#loc222 = loc("/root/.cache/vllm/torch_compile_cache/torch_aot_compile/61bda05feca29378847c32f031efa5c8dba258f38b0176a06a3e99e41df8ca50/inductor_cache/wb/cwb7fe4vcrvy27gznbwe4qyuykmfdqwhls62c5kmcgzmieqjm65j.py":151:24)
#loc223 = loc("/root/.cache/vllm/torch_compile_cache/torch_aot_compile/61bda05feca29378847c32f031efa5c8dba258f38b0176a06a3e99e41df8ca50/inductor_cache/wb/cwb7fe4vcrvy27gznbwe4qyuykmfdqwhls62c5kmcgzmieqjm65j.py":152:32)
#loc224 = loc("/root/.cache/vllm/torch_compile_cache/torch_aot_compile/61bda05feca29378847c32f031efa5c8dba258f38b0176a06a3e99e41df8ca50/inductor_cache/wb/cwb7fe4vcrvy27gznbwe4qyuykmfdqwhls62c5kmcgzmieqjm65j.py":153:24)
#loc225 = loc("/root/.cache/vllm/torch_compile_cache/torch_aot_compile/61bda05feca29378847c32f031efa5c8dba258f38b0176a06a3e99e41df8ca50/inductor_cache/wb/cwb7fe4vcrvy27gznbwe4qyuykmfdqwhls62c5kmcgzmieqjm65j.py":154:35)
#loc226 = loc("/root/.cache/vllm/torch_compile_cache/torch_aot_compile/61bda05feca29378847c32f031efa5c8dba258f38b0176a06a3e99e41df8ca50/inductor_cache/wb/cwb7fe4vcrvy27gznbwe4qyuykmfdqwhls62c5kmcgzmieqjm65j.py":154:48)
#loc227 = loc("/root/.cache/vllm/torch_compile_cache/torch_aot_compile/61bda05feca29378847c32f031efa5c8dba258f38b0176a06a3e99e41df8ca50/inductor_cache/wb/cwb7fe4vcrvy27gznbwe4qyuykmfdqwhls62c5kmcgzmieqjm65j.py":154:40)
#loc228 = loc("/root/.cache/vllm/torch_compile_cache/torch_aot_compile/61bda05feca29378847c32f031efa5c8dba258f38b0176a06a3e99e41df8ca50/inductor_cache/wb/cwb7fe4vcrvy27gznbwe4qyuykmfdqwhls62c5kmcgzmieqjm65j.py":154:99)
#loc229 = loc("/root/.cache/vllm/torch_compile_cache/torch_aot_compile/61bda05feca29378847c32f031efa5c8dba258f38b0176a06a3e99e41df8ca50/inductor_cache/wb/cwb7fe4vcrvy27gznbwe4qyuykmfdqwhls62c5kmcgzmieqjm65j.py":156:35)
#loc230 = loc("/root/.cache/vllm/torch_compile_cache/torch_aot_compile/61bda05feca29378847c32f031efa5c8dba258f38b0176a06a3e99e41df8ca50/inductor_cache/wb/cwb7fe4vcrvy27gznbwe4qyuykmfdqwhls62c5kmcgzmieqjm65j.py":157:25)
#loc231 = loc("/root/.cache/vllm/torch_compile_cache/torch_aot_compile/61bda05feca29378847c32f031efa5c8dba258f38b0176a06a3e99e41df8ca50/inductor_cache/wb/cwb7fe4vcrvy27gznbwe4qyuykmfdqwhls62c5kmcgzmieqjm65j.py":158:25)
#loc232 = loc("/root/.cache/vllm/torch_compile_cache/torch_aot_compile/61bda05feca29378847c32f031efa5c8dba258f38b0176a06a3e99e41df8ca50/inductor_cache/wb/cwb7fe4vcrvy27gznbwe4qyuykmfdqwhls62c5kmcgzmieqjm65j.py":160:39)
#loc233 = loc("/root/.cache/vllm/torch_compile_cache/torch_aot_compile/61bda05feca29378847c32f031efa5c8dba258f38b0176a06a3e99e41df8ca50/inductor_cache/wb/cwb7fe4vcrvy27gznbwe4qyuykmfdqwhls62c5kmcgzmieqjm65j.py":160:45)
#loc234 = loc("/root/.cache/vllm/torch_compile_cache/torch_aot_compile/61bda05feca29378847c32f031efa5c8dba258f38b0176a06a3e99e41df8ca50/inductor_cache/wb/cwb7fe4vcrvy27gznbwe4qyuykmfdqwhls62c5kmcgzmieqjm65j.py":160:36)
#loc235 = loc("/root/.cache/vllm/torch_compile_cache/torch_aot_compile/61bda05feca29378847c32f031efa5c8dba258f38b0176a06a3e99e41df8ca50/inductor_cache/wb/cwb7fe4vcrvy27gznbwe4qyuykmfdqwhls62c5kmcgzmieqjm65j.py":160:59)
#loc236 = loc("/root/.cache/vllm/torch_compile_cache/torch_aot_compile/61bda05feca29378847c32f031efa5c8dba258f38b0176a06a3e99e41df8ca50/inductor_cache/wb/cwb7fe4vcrvy27gznbwe4qyuykmfdqwhls62c5kmcgzmieqjm65j.py":160:51)
#loc237 = loc("/root/.cache/vllm/torch_compile_cache/torch_aot_compile/61bda05feca29378847c32f031efa5c8dba258f38b0176a06a3e99e41df8ca50/inductor_cache/wb/cwb7fe4vcrvy27gznbwe4qyuykmfdqwhls62c5kmcgzmieqjm65j.py":160:110)
#loc238 = loc("/root/.cache/vllm/torch_compile_cache/torch_aot_compile/61bda05feca29378847c32f031efa5c8dba258f38b0176a06a3e99e41df8ca50/inductor_cache/wb/cwb7fe4vcrvy27gznbwe4qyuykmfdqwhls62c5kmcgzmieqjm65j.py":161:26)
#loc239 = loc("/root/.cache/vllm/torch_compile_cache/torch_aot_compile/61bda05feca29378847c32f031efa5c8dba258f38b0176a06a3e99e41df8ca50/inductor_cache/wb/cwb7fe4vcrvy27gznbwe4qyuykmfdqwhls62c5kmcgzmieqjm65j.py":162:48)
#loc240 = loc("/root/.cache/vllm/torch_compile_cache/torch_aot_compile/61bda05feca29378847c32f031efa5c8dba258f38b0176a06a3e99e41df8ca50/inductor_cache/wb/cwb7fe4vcrvy27gznbwe4qyuykmfdqwhls62c5kmcgzmieqjm65j.py":162:43)
#loc241 = loc("/root/.cache/vllm/torch_compile_cache/torch_aot_compile/61bda05feca29378847c32f031efa5c8dba258f38b0176a06a3e99e41df8ca50/inductor_cache/wb/cwb7fe4vcrvy27gznbwe4qyuykmfdqwhls62c5kmcgzmieqjm65j.py":162:54)
#loc242 = loc("/root/.cache/vllm/torch_compile_cache/torch_aot_compile/61bda05feca29378847c32f031efa5c8dba258f38b0176a06a3e99e41df8ca50/inductor_cache/wb/cwb7fe4vcrvy27gznbwe4qyuykmfdqwhls62c5kmcgzmieqjm65j.py":162:36)
#loc243 = loc("/root/.cache/vllm/torch_compile_cache/torch_aot_compile/61bda05feca29378847c32f031efa5c8dba258f38b0176a06a3e99e41df8ca50/inductor_cache/wb/cwb7fe4vcrvy27gznbwe4qyuykmfdqwhls62c5kmcgzmieqjm65j.py":162:68)
#loc244 = loc("/root/.cache/vllm/torch_compile_cache/torch_aot_compile/61bda05feca29378847c32f031efa5c8dba258f38b0176a06a3e99e41df8ca50/inductor_cache/wb/cwb7fe4vcrvy27gznbwe4qyuykmfdqwhls62c5kmcgzmieqjm65j.py":162:60)
#loc245 = loc("/root/.cache/vllm/torch_compile_cache/torch_aot_compile/61bda05feca29378847c32f031efa5c8dba258f38b0176a06a3e99e41df8ca50/inductor_cache/wb/cwb7fe4vcrvy27gznbwe4qyuykmfdqwhls62c5kmcgzmieqjm65j.py":162:119)
#loc246 = loc("/root/.cache/vllm/torch_compile_cache/torch_aot_compile/61bda05feca29378847c32f031efa5c8dba258f38b0176a06a3e99e41df8ca50/inductor_cache/wb/cwb7fe4vcrvy27gznbwe4qyuykmfdqwhls62c5kmcgzmieqjm65j.py":164:26)
#loc247 = loc("/root/.cache/vllm/torch_compile_cache/torch_aot_compile/61bda05feca29378847c32f031efa5c8dba258f38b0176a06a3e99e41df8ca50/inductor_cache/wb/cwb7fe4vcrvy27gznbwe4qyuykmfdqwhls62c5kmcgzmieqjm65j.py":165:42)
#loc248 = loc("/root/.cache/vllm/torch_compile_cache/torch_aot_compile/61bda05feca29378847c32f031efa5c8dba258f38b0176a06a3e99e41df8ca50/inductor_cache/wb/cwb7fe4vcrvy27gznbwe4qyuykmfdqwhls62c5kmcgzmieqjm65j.py":165:36)
#loc249 = loc("/root/.cache/vllm/torch_compile_cache/torch_aot_compile/61bda05feca29378847c32f031efa5c8dba258f38b0176a06a3e99e41df8ca50/inductor_cache/wb/cwb7fe4vcrvy27gznbwe4qyuykmfdqwhls62c5kmcgzmieqjm65j.py":165:56)
#loc250 = loc("/root/.cache/vllm/torch_compile_cache/torch_aot_compile/61bda05feca29378847c32f031efa5c8dba258f38b0176a06a3e99e41df8ca50/inductor_cache/wb/cwb7fe4vcrvy27gznbwe4qyuykmfdqwhls62c5kmcgzmieqjm65j.py":165:48)
#loc251 = loc("/root/.cache/vllm/torch_compile_cache/torch_aot_compile/61bda05feca29378847c32f031efa5c8dba258f38b0176a06a3e99e41df8ca50/inductor_cache/wb/cwb7fe4vcrvy27gznbwe4qyuykmfdqwhls62c5kmcgzmieqjm65j.py":165:107)
#loc252 = loc("/root/.cache/vllm/torch_compile_cache/torch_aot_compile/61bda05feca29378847c32f031efa5c8dba258f38b0176a06a3e99e41df8ca50/inductor_cache/wb/cwb7fe4vcrvy27gznbwe4qyuykmfdqwhls62c5kmcgzmieqjm65j.py":167:26)
#loc253 = loc("/root/.cache/vllm/torch_compile_cache/torch_aot_compile/61bda05feca29378847c32f031efa5c8dba258f38b0176a06a3e99e41df8ca50/inductor_cache/wb/cwb7fe4vcrvy27gznbwe4qyuykmfdqwhls62c5kmcgzmieqjm65j.py":168:26)
#loc254 = loc("/root/.cache/vllm/torch_compile_cache/torch_aot_compile/61bda05feca29378847c32f031efa5c8dba258f38b0176a06a3e99e41df8ca50/inductor_cache/wb/cwb7fe4vcrvy27gznbwe4qyuykmfdqwhls62c5kmcgzmieqjm65j.py":170:39)
#loc255 = loc("/root/.cache/vllm/torch_compile_cache/torch_aot_compile/61bda05feca29378847c32f031efa5c8dba258f38b0176a06a3e99e41df8ca50/inductor_cache/wb/cwb7fe4vcrvy27gznbwe4qyuykmfdqwhls62c5kmcgzmieqjm65j.py":170:45)
#loc256 = loc("/root/.cache/vllm/torch_compile_cache/torch_aot_compile/61bda05feca29378847c32f031efa5c8dba258f38b0176a06a3e99e41df8ca50/inductor_cache/wb/cwb7fe4vcrvy27gznbwe4qyuykmfdqwhls62c5kmcgzmieqjm65j.py":170:36)
#loc257 = loc("/root/.cache/vllm/torch_compile_cache/torch_aot_compile/61bda05feca29378847c32f031efa5c8dba258f38b0176a06a3e99e41df8ca50/inductor_cache/wb/cwb7fe4vcrvy27gznbwe4qyuykmfdqwhls62c5kmcgzmieqjm65j.py":170:59)
#loc258 = loc("/root/.cache/vllm/torch_compile_cache/torch_aot_compile/61bda05feca29378847c32f031efa5c8dba258f38b0176a06a3e99e41df8ca50/inductor_cache/wb/cwb7fe4vcrvy27gznbwe4qyuykmfdqwhls62c5kmcgzmieqjm65j.py":170:51)
#loc259 = loc("/root/.cache/vllm/torch_compile_cache/torch_aot_compile/61bda05feca29378847c32f031efa5c8dba258f38b0176a06a3e99e41df8ca50/inductor_cache/wb/cwb7fe4vcrvy27gznbwe4qyuykmfdqwhls62c5kmcgzmieqjm65j.py":170:110)
#loc260 = loc("/root/.cache/vllm/torch_compile_cache/torch_aot_compile/61bda05feca29378847c32f031efa5c8dba258f38b0176a06a3e99e41df8ca50/inductor_cache/wb/cwb7fe4vcrvy27gznbwe4qyuykmfdqwhls62c5kmcgzmieqjm65j.py":171:26)
#loc261 = loc("/root/.cache/vllm/torch_compile_cache/torch_aot_compile/61bda05feca29378847c32f031efa5c8dba258f38b0176a06a3e99e41df8ca50/inductor_cache/wb/cwb7fe4vcrvy27gznbwe4qyuykmfdqwhls62c5kmcgzmieqjm65j.py":172:26)
#loc262 = loc("/root/.cache/vllm/torch_compile_cache/torch_aot_compile/61bda05feca29378847c32f031efa5c8dba258f38b0176a06a3e99e41df8ca50/inductor_cache/wb/cwb7fe4vcrvy27gznbwe4qyuykmfdqwhls62c5kmcgzmieqjm65j.py":173:44)
#loc263 = loc("/root/.cache/vllm/torch_compile_cache/torch_aot_compile/61bda05feca29378847c32f031efa5c8dba258f38b0176a06a3e99e41df8ca50/inductor_cache/wb/cwb7fe4vcrvy27gznbwe4qyuykmfdqwhls62c5kmcgzmieqjm65j.py":174:41)
#loc264 = loc("/root/.cache/vllm/torch_compile_cache/torch_aot_compile/61bda05feca29378847c32f031efa5c8dba258f38b0176a06a3e99e41df8ca50/inductor_cache/wb/cwb7fe4vcrvy27gznbwe4qyuykmfdqwhls62c5kmcgzmieqjm65j.py":175:26)
#loc265 = loc("/root/.cache/vllm/torch_compile_cache/torch_aot_compile/61bda05feca29378847c32f031efa5c8dba258f38b0176a06a3e99e41df8ca50/inductor_cache/wb/cwb7fe4vcrvy27gznbwe4qyuykmfdqwhls62c5kmcgzmieqjm65j.py":176:34)
#loc266 = loc("/root/.cache/vllm/torch_compile_cache/torch_aot_compile/61bda05feca29378847c32f031efa5c8dba258f38b0176a06a3e99e41df8ca50/inductor_cache/wb/cwb7fe4vcrvy27gznbwe4qyuykmfdqwhls62c5kmcgzmieqjm65j.py":177:25)
#loc267 = loc("/root/.cache/vllm/torch_compile_cache/torch_aot_compile/61bda05feca29378847c32f031efa5c8dba258f38b0176a06a3e99e41df8ca50/inductor_cache/wb/cwb7fe4vcrvy27gznbwe4qyuykmfdqwhls62c5kmcgzmieqjm65j.py":178:48)
#loc268 = loc("/root/.cache/vllm/torch_compile_cache/torch_aot_compile/61bda05feca29378847c32f031efa5c8dba258f38b0176a06a3e99e41df8ca50/inductor_cache/wb/cwb7fe4vcrvy27gznbwe4qyuykmfdqwhls62c5kmcgzmieqjm65j.py":178:43)
#loc269 = loc("/root/.cache/vllm/torch_compile_cache/torch_aot_compile/61bda05feca29378847c32f031efa5c8dba258f38b0176a06a3e99e41df8ca50/inductor_cache/wb/cwb7fe4vcrvy27gznbwe4qyuykmfdqwhls62c5kmcgzmieqjm65j.py":178:62)
#loc270 = loc("/root/.cache/vllm/torch_compile_cache/torch_aot_compile/61bda05feca29378847c32f031efa5c8dba258f38b0176a06a3e99e41df8ca50/inductor_cache/wb/cwb7fe4vcrvy27gznbwe4qyuykmfdqwhls62c5kmcgzmieqjm65j.py":178:54)
#loc271 = loc("/root/.cache/vllm/torch_compile_cache/torch_aot_compile/61bda05feca29378847c32f031efa5c8dba258f38b0176a06a3e99e41df8ca50/inductor_cache/wb/cwb7fe4vcrvy27gznbwe4qyuykmfdqwhls62c5kmcgzmieqjm65j.py":178:36)
#loc272 = loc("/root/.cache/vllm/torch_compile_cache/torch_aot_compile/61bda05feca29378847c32f031efa5c8dba258f38b0176a06a3e99e41df8ca50/inductor_cache/wb/cwb7fe4vcrvy27gznbwe4qyuykmfdqwhls62c5kmcgzmieqjm65j.py":178:77)
#loc273 = loc("/root/.cache/vllm/torch_compile_cache/torch_aot_compile/61bda05feca29378847c32f031efa5c8dba258f38b0176a06a3e99e41df8ca50/inductor_cache/wb/cwb7fe4vcrvy27gznbwe4qyuykmfdqwhls62c5kmcgzmieqjm65j.py":178:68)
#loc274 = loc("/root/.cache/vllm/torch_compile_cache/torch_aot_compile/61bda05feca29378847c32f031efa5c8dba258f38b0176a06a3e99e41df8ca50/inductor_cache/wb/cwb7fe4vcrvy27gznbwe4qyuykmfdqwhls62c5kmcgzmieqjm65j.py":178:128)
#loc275 = loc("/root/.cache/vllm/torch_compile_cache/torch_aot_compile/61bda05feca29378847c32f031efa5c8dba258f38b0176a06a3e99e41df8ca50/inductor_cache/wb/cwb7fe4vcrvy27gznbwe4qyuykmfdqwhls62c5kmcgzmieqjm65j.py":180:36)
#loc276 = loc("/root/.cache/vllm/torch_compile_cache/torch_aot_compile/61bda05feca29378847c32f031efa5c8dba258f38b0176a06a3e99e41df8ca50/inductor_cache/wb/cwb7fe4vcrvy27gznbwe4qyuykmfdqwhls62c5kmcgzmieqjm65j.py":180:50)
#loc277 = loc("/root/.cache/vllm/torch_compile_cache/torch_aot_compile/61bda05feca29378847c32f031efa5c8dba258f38b0176a06a3e99e41df8ca50/inductor_cache/wb/cwb7fe4vcrvy27gznbwe4qyuykmfdqwhls62c5kmcgzmieqjm65j.py":180:41)
#loc278 = loc("/root/.cache/vllm/torch_compile_cache/torch_aot_compile/61bda05feca29378847c32f031efa5c8dba258f38b0176a06a3e99e41df8ca50/inductor_cache/wb/cwb7fe4vcrvy27gznbwe4qyuykmfdqwhls62c5kmcgzmieqjm65j.py":181:37)
#loc279 = loc("/root/.cache/vllm/torch_compile_cache/torch_aot_compile/61bda05feca29378847c32f031efa5c8dba258f38b0176a06a3e99e41df8ca50/inductor_cache/wb/cwb7fe4vcrvy27gznbwe4qyuykmfdqwhls62c5kmcgzmieqjm65j.py":182:27)
#loc280 = loc("/root/.cache/vllm/torch_compile_cache/torch_aot_compile/61bda05feca29378847c32f031efa5c8dba258f38b0176a06a3e99e41df8ca50/inductor_cache/wb/cwb7fe4vcrvy27gznbwe4qyuykmfdqwhls62c5kmcgzmieqjm65j.py":183:37)
#loc281 = loc("/root/.cache/vllm/torch_compile_cache/torch_aot_compile/61bda05feca29378847c32f031efa5c8dba258f38b0176a06a3e99e41df8ca50/inductor_cache/wb/cwb7fe4vcrvy27gznbwe4qyuykmfdqwhls62c5kmcgzmieqjm65j.py":184:26)
#loc282 = loc("/root/.cache/vllm/torch_compile_cache/torch_aot_compile/61bda05feca29378847c32f031efa5c8dba258f38b0176a06a3e99e41df8ca50/inductor_cache/wb/cwb7fe4vcrvy27gznbwe4qyuykmfdqwhls62c5kmcgzmieqjm65j.py":185:33)
#loc283 = loc("/root/.cache/vllm/torch_compile_cache/torch_aot_compile/61bda05feca29378847c32f031efa5c8dba258f38b0176a06a3e99e41df8ca50/inductor_cache/wb/cwb7fe4vcrvy27gznbwe4qyuykmfdqwhls62c5kmcgzmieqjm65j.py":186:26)
#loc284 = loc("/root/.cache/vllm/torch_compile_cache/torch_aot_compile/61bda05feca29378847c32f031efa5c8dba258f38b0176a06a3e99e41df8ca50/inductor_cache/wb/cwb7fe4vcrvy27gznbwe4qyuykmfdqwhls62c5kmcgzmieqjm65j.py":187:50)
#loc285 = loc("/root/.cache/vllm/torch_compile_cache/torch_aot_compile/61bda05feca29378847c32f031efa5c8dba258f38b0176a06a3e99e41df8ca50/inductor_cache/wb/cwb7fe4vcrvy27gznbwe4qyuykmfdqwhls62c5kmcgzmieqjm65j.py":187:42)
#loc286 = loc("/root/.cache/vllm/torch_compile_cache/torch_aot_compile/61bda05feca29378847c32f031efa5c8dba258f38b0176a06a3e99e41df8ca50/inductor_cache/wb/cwb7fe4vcrvy27gznbwe4qyuykmfdqwhls62c5kmcgzmieqjm65j.py":187:36)
#loc287 = loc("/root/.cache/vllm/torch_compile_cache/torch_aot_compile/61bda05feca29378847c32f031efa5c8dba258f38b0176a06a3e99e41df8ca50/inductor_cache/wb/cwb7fe4vcrvy27gznbwe4qyuykmfdqwhls62c5kmcgzmieqjm65j.py":187:65)
#loc288 = loc("/root/.cache/vllm/torch_compile_cache/torch_aot_compile/61bda05feca29378847c32f031efa5c8dba258f38b0176a06a3e99e41df8ca50/inductor_cache/wb/cwb7fe4vcrvy27gznbwe4qyuykmfdqwhls62c5kmcgzmieqjm65j.py":187:56)
#loc289 = loc("/root/.cache/vllm/torch_compile_cache/torch_aot_compile/61bda05feca29378847c32f031efa5c8dba258f38b0176a06a3e99e41df8ca50/inductor_cache/wb/cwb7fe4vcrvy27gznbwe4qyuykmfdqwhls62c5kmcgzmieqjm65j.py":187:116)
#loc290 = loc("/root/.cache/vllm/torch_compile_cache/torch_aot_compile/61bda05feca29378847c32f031efa5c8dba258f38b0176a06a3e99e41df8ca50/inductor_cache/wb/cwb7fe4vcrvy27gznbwe4qyuykmfdqwhls62c5kmcgzmieqjm65j.py":189:35)
#loc291 = loc("/root/.cache/vllm/torch_compile_cache/torch_aot_compile/61bda05feca29378847c32f031efa5c8dba258f38b0176a06a3e99e41df8ca50/inductor_cache/wb/cwb7fe4vcrvy27gznbwe4qyuykmfdqwhls62c5kmcgzmieqjm65j.py":190:26)
#loc292 = loc("/root/.cache/vllm/torch_compile_cache/torch_aot_compile/61bda05feca29378847c32f031efa5c8dba258f38b0176a06a3e99e41df8ca50/inductor_cache/wb/cwb7fe4vcrvy27gznbwe4qyuykmfdqwhls62c5kmcgzmieqjm65j.py":191:26)
#loc293 = loc("/root/.cache/vllm/torch_compile_cache/torch_aot_compile/61bda05feca29378847c32f031efa5c8dba258f38b0176a06a3e99e41df8ca50/inductor_cache/wb/cwb7fe4vcrvy27gznbwe4qyuykmfdqwhls62c5kmcgzmieqjm65j.py":193:39)
#loc294 = loc("/root/.cache/vllm/torch_compile_cache/torch_aot_compile/61bda05feca29378847c32f031efa5c8dba258f38b0176a06a3e99e41df8ca50/inductor_cache/wb/cwb7fe4vcrvy27gznbwe4qyuykmfdqwhls62c5kmcgzmieqjm65j.py":193:53)
#loc295 = loc("/root/.cache/vllm/torch_compile_cache/torch_aot_compile/61bda05feca29378847c32f031efa5c8dba258f38b0176a06a3e99e41df8ca50/inductor_cache/wb/cwb7fe4vcrvy27gznbwe4qyuykmfdqwhls62c5kmcgzmieqjm65j.py":193:45)
#loc296 = loc("/root/.cache/vllm/torch_compile_cache/torch_aot_compile/61bda05feca29378847c32f031efa5c8dba258f38b0176a06a3e99e41df8ca50/inductor_cache/wb/cwb7fe4vcrvy27gznbwe4qyuykmfdqwhls62c5kmcgzmieqjm65j.py":193:36)
#loc297 = loc("/root/.cache/vllm/torch_compile_cache/torch_aot_compile/61bda05feca29378847c32f031efa5c8dba258f38b0176a06a3e99e41df8ca50/inductor_cache/wb/cwb7fe4vcrvy27gznbwe4qyuykmfdqwhls62c5kmcgzmieqjm65j.py":193:68)
#loc298 = loc("/root/.cache/vllm/torch_compile_cache/torch_aot_compile/61bda05feca29378847c32f031efa5c8dba258f38b0176a06a3e99e41df8ca50/inductor_cache/wb/cwb7fe4vcrvy27gznbwe4qyuykmfdqwhls62c5kmcgzmieqjm65j.py":193:59)
#loc299 = loc("/root/.cache/vllm/torch_compile_cache/torch_aot_compile/61bda05feca29378847c32f031efa5c8dba258f38b0176a06a3e99e41df8ca50/inductor_cache/wb/cwb7fe4vcrvy27gznbwe4qyuykmfdqwhls62c5kmcgzmieqjm65j.py":193:119)
#loc300 = loc("/root/.cache/vllm/torch_compile_cache/torch_aot_compile/61bda05feca29378847c32f031efa5c8dba258f38b0176a06a3e99e41df8ca50/inductor_cache/wb/cwb7fe4vcrvy27gznbwe4qyuykmfdqwhls62c5kmcgzmieqjm65j.py":194:26)
#loc301 = loc("/root/.cache/vllm/torch_compile_cache/torch_aot_compile/61bda05feca29378847c32f031efa5c8dba258f38b0176a06a3e99e41df8ca50/inductor_cache/wb/cwb7fe4vcrvy27gznbwe4qyuykmfdqwhls62c5kmcgzmieqjm65j.py":195:48)
#loc302 = loc("/root/.cache/vllm/torch_compile_cache/torch_aot_compile/61bda05feca29378847c32f031efa5c8dba258f38b0176a06a3e99e41df8ca50/inductor_cache/wb/cwb7fe4vcrvy27gznbwe4qyuykmfdqwhls62c5kmcgzmieqjm65j.py":195:43)
#loc303 = loc("/root/.cache/vllm/torch_compile_cache/torch_aot_compile/61bda05feca29378847c32f031efa5c8dba258f38b0176a06a3e99e41df8ca50/inductor_cache/wb/cwb7fe4vcrvy27gznbwe4qyuykmfdqwhls62c5kmcgzmieqjm65j.py":195:62)
#loc304 = loc("/root/.cache/vllm/torch_compile_cache/torch_aot_compile/61bda05feca29378847c32f031efa5c8dba258f38b0176a06a3e99e41df8ca50/inductor_cache/wb/cwb7fe4vcrvy27gznbwe4qyuykmfdqwhls62c5kmcgzmieqjm65j.py":195:54)
#loc305 = loc("/root/.cache/vllm/torch_compile_cache/torch_aot_compile/61bda05feca29378847c32f031efa5c8dba258f38b0176a06a3e99e41df8ca50/inductor_cache/wb/cwb7fe4vcrvy27gznbwe4qyuykmfdqwhls62c5kmcgzmieqjm65j.py":195:36)
#loc306 = loc("/root/.cache/vllm/torch_compile_cache/torch_aot_compile/61bda05feca29378847c32f031efa5c8dba258f38b0176a06a3e99e41df8ca50/inductor_cache/wb/cwb7fe4vcrvy27gznbwe4qyuykmfdqwhls62c5kmcgzmieqjm65j.py":195:77)
#loc307 = loc("/root/.cache/vllm/torch_compile_cache/torch_aot_compile/61bda05feca29378847c32f031efa5c8dba258f38b0176a06a3e99e41df8ca50/inductor_cache/wb/cwb7fe4vcrvy27gznbwe4qyuykmfdqwhls62c5kmcgzmieqjm65j.py":195:68)
#loc308 = loc("/root/.cache/vllm/torch_compile_cache/torch_aot_compile/61bda05feca29378847c32f031efa5c8dba258f38b0176a06a3e99e41df8ca50/inductor_cache/wb/cwb7fe4vcrvy27gznbwe4qyuykmfdqwhls62c5kmcgzmieqjm65j.py":195:128)
#loc309 = loc("/root/.cache/vllm/torch_compile_cache/torch_aot_compile/61bda05feca29378847c32f031efa5c8dba258f38b0176a06a3e99e41df8ca50/inductor_cache/wb/cwb7fe4vcrvy27gznbwe4qyuykmfdqwhls62c5kmcgzmieqjm65j.py":197:26)
#loc310 = loc("/root/.cache/vllm/torch_compile_cache/torch_aot_compile/61bda05feca29378847c32f031efa5c8dba258f38b0176a06a3e99e41df8ca50/inductor_cache/wb/cwb7fe4vcrvy27gznbwe4qyuykmfdqwhls62c5kmcgzmieqjm65j.py":198:44)
#loc311 = loc("/root/.cache/vllm/torch_compile_cache/torch_aot_compile/61bda05feca29378847c32f031efa5c8dba258f38b0176a06a3e99e41df8ca50/inductor_cache/wb/cwb7fe4vcrvy27gznbwe4qyuykmfdqwhls62c5kmcgzmieqjm65j.py":198:36)
#loc312 = loc("/root/.cache/vllm/torch_compile_cache/torch_aot_compile/61bda05feca29378847c32f031efa5c8dba258f38b0176a06a3e99e41df8ca50/inductor_cache/wb/cwb7fe4vcrvy27gznbwe4qyuykmfdqwhls62c5kmcgzmieqjm65j.py":198:58)
#loc313 = loc("/root/.cache/vllm/torch_compile_cache/torch_aot_compile/61bda05feca29378847c32f031efa5c8dba258f38b0176a06a3e99e41df8ca50/inductor_cache/wb/cwb7fe4vcrvy27gznbwe4qyuykmfdqwhls62c5kmcgzmieqjm65j.py":198:49)
#loc314 = loc("/root/.cache/vllm/torch_compile_cache/torch_aot_compile/61bda05feca29378847c32f031efa5c8dba258f38b0176a06a3e99e41df8ca50/inductor_cache/wb/cwb7fe4vcrvy27gznbwe4qyuykmfdqwhls62c5kmcgzmieqjm65j.py":198:109)
#loc315 = loc("/root/.cache/vllm/torch_compile_cache/torch_aot_compile/61bda05feca29378847c32f031efa5c8dba258f38b0176a06a3e99e41df8ca50/inductor_cache/wb/cwb7fe4vcrvy27gznbwe4qyuykmfdqwhls62c5kmcgzmieqjm65j.py":200:26)
#loc316 = loc("/root/.cache/vllm/torch_compile_cache/torch_aot_compile/61bda05feca29378847c32f031efa5c8dba258f38b0176a06a3e99e41df8ca50/inductor_cache/wb/cwb7fe4vcrvy27gznbwe4qyuykmfdqwhls62c5kmcgzmieqjm65j.py":201:26)
#loc317 = loc("/root/.cache/vllm/torch_compile_cache/torch_aot_compile/61bda05feca29378847c32f031efa5c8dba258f38b0176a06a3e99e41df8ca50/inductor_cache/wb/cwb7fe4vcrvy27gznbwe4qyuykmfdqwhls62c5kmcgzmieqjm65j.py":203:39)
#loc318 = loc("/root/.cache/vllm/torch_compile_cache/torch_aot_compile/61bda05feca29378847c32f031efa5c8dba258f38b0176a06a3e99e41df8ca50/inductor_cache/wb/cwb7fe4vcrvy27gznbwe4qyuykmfdqwhls62c5kmcgzmieqjm65j.py":203:53)
#loc319 = loc("/root/.cache/vllm/torch_compile_cache/torch_aot_compile/61bda05feca29378847c32f031efa5c8dba258f38b0176a06a3e99e41df8ca50/inductor_cache/wb/cwb7fe4vcrvy27gznbwe4qyuykmfdqwhls62c5kmcgzmieqjm65j.py":203:45)
#loc320 = loc("/root/.cache/vllm/torch_compile_cache/torch_aot_compile/61bda05feca29378847c32f031efa5c8dba258f38b0176a06a3e99e41df8ca50/inductor_cache/wb/cwb7fe4vcrvy27gznbwe4qyuykmfdqwhls62c5kmcgzmieqjm65j.py":203:36)
#loc321 = loc("/root/.cache/vllm/torch_compile_cache/torch_aot_compile/61bda05feca29378847c32f031efa5c8dba258f38b0176a06a3e99e41df8ca50/inductor_cache/wb/cwb7fe4vcrvy27gznbwe4qyuykmfdqwhls62c5kmcgzmieqjm65j.py":203:68)
#loc322 = loc("/root/.cache/vllm/torch_compile_cache/torch_aot_compile/61bda05feca29378847c32f031efa5c8dba258f38b0176a06a3e99e41df8ca50/inductor_cache/wb/cwb7fe4vcrvy27gznbwe4qyuykmfdqwhls62c5kmcgzmieqjm65j.py":203:59)
#loc323 = loc("/root/.cache/vllm/torch_compile_cache/torch_aot_compile/61bda05feca29378847c32f031efa5c8dba258f38b0176a06a3e99e41df8ca50/inductor_cache/wb/cwb7fe4vcrvy27gznbwe4qyuykmfdqwhls62c5kmcgzmieqjm65j.py":203:119)
#loc324 = loc("/root/.cache/vllm/torch_compile_cache/torch_aot_compile/61bda05feca29378847c32f031efa5c8dba258f38b0176a06a3e99e41df8ca50/inductor_cache/wb/cwb7fe4vcrvy27gznbwe4qyuykmfdqwhls62c5kmcgzmieqjm65j.py":204:26)
#loc325 = loc("/root/.cache/vllm/torch_compile_cache/torch_aot_compile/61bda05feca29378847c32f031efa5c8dba258f38b0176a06a3e99e41df8ca50/inductor_cache/wb/cwb7fe4vcrvy27gznbwe4qyuykmfdqwhls62c5kmcgzmieqjm65j.py":205:26)
#loc326 = loc("/root/.cache/vllm/torch_compile_cache/torch_aot_compile/61bda05feca29378847c32f031efa5c8dba258f38b0176a06a3e99e41df8ca50/inductor_cache/wb/cwb7fe4vcrvy27gznbwe4qyuykmfdqwhls62c5kmcgzmieqjm65j.py":206:44)
#loc327 = loc("/root/.cache/vllm/torch_compile_cache/torch_aot_compile/61bda05feca29378847c32f031efa5c8dba258f38b0176a06a3e99e41df8ca50/inductor_cache/wb/cwb7fe4vcrvy27gznbwe4qyuykmfdqwhls62c5kmcgzmieqjm65j.py":207:42)
#loc328 = loc("/root/.cache/vllm/torch_compile_cache/torch_aot_compile/61bda05feca29378847c32f031efa5c8dba258f38b0176a06a3e99e41df8ca50/inductor_cache/wb/cwb7fe4vcrvy27gznbwe4qyuykmfdqwhls62c5kmcgzmieqjm65j.py":208:41)
#loc329 = loc("/root/.cache/vllm/torch_compile_cache/torch_aot_compile/61bda05feca29378847c32f031efa5c8dba258f38b0176a06a3e99e41df8ca50/inductor_cache/wb/cwb7fe4vcrvy27gznbwe4qyuykmfdqwhls62c5kmcgzmieqjm65j.py":209:38)
#loc330 = loc("/root/.cache/vllm/torch_compile_cache/torch_aot_compile/61bda05feca29378847c32f031efa5c8dba258f38b0176a06a3e99e41df8ca50/inductor_cache/wb/cwb7fe4vcrvy27gznbwe4qyuykmfdqwhls62c5kmcgzmieqjm65j.py":209:34)
#loc331 = loc("/root/.cache/vllm/torch_compile_cache/torch_aot_compile/61bda05feca29378847c32f031efa5c8dba258f38b0176a06a3e99e41df8ca50/inductor_cache/wb/cwb7fe4vcrvy27gznbwe4qyuykmfdqwhls62c5kmcgzmieqjm65j.py":209:29)
#loc332 = loc("/root/.cache/vllm/torch_compile_cache/torch_aot_compile/61bda05feca29378847c32f031efa5c8dba258f38b0176a06a3e99e41df8ca50/inductor_cache/wb/cwb7fe4vcrvy27gznbwe4qyuykmfdqwhls62c5kmcgzmieqjm65j.py":209:51)
#loc333 = loc("/root/.cache/vllm/torch_compile_cache/torch_aot_compile/61bda05feca29378847c32f031efa5c8dba258f38b0176a06a3e99e41df8ca50/inductor_cache/wb/cwb7fe4vcrvy27gznbwe4qyuykmfdqwhls62c5kmcgzmieqjm65j.py":210:15)
#loc334 = loc("/root/.cache/vllm/torch_compile_cache/torch_aot_compile/61bda05feca29378847c32f031efa5c8dba258f38b0176a06a3e99e41df8ca50/inductor_cache/wb/cwb7fe4vcrvy27gznbwe4qyuykmfdqwhls62c5kmcgzmieqjm65j.py":210:9)
#loc335 = loc("/root/.cache/vllm/torch_compile_cache/torch_aot_compile/61bda05feca29378847c32f031efa5c8dba258f38b0176a06a3e99e41df8ca50/inductor_cache/wb/cwb7fe4vcrvy27gznbwe4qyuykmfdqwhls62c5kmcgzmieqjm65j.py":211:27)
#loc336 = loc("/root/.cache/vllm/torch_compile_cache/torch_aot_compile/61bda05feca29378847c32f031efa5c8dba258f38b0176a06a3e99e41df8ca50/inductor_cache/wb/cwb7fe4vcrvy27gznbwe4qyuykmfdqwhls62c5kmcgzmieqjm65j.py":212:19)
#loc337 = loc("/root/.cache/vllm/torch_compile_cache/torch_aot_compile/61bda05feca29378847c32f031efa5c8dba258f38b0176a06a3e99e41df8ca50/inductor_cache/wb/cwb7fe4vcrvy27gznbwe4qyuykmfdqwhls62c5kmcgzmieqjm65j.py":213:31)
#loc338 = loc("/root/.cache/vllm/torch_compile_cache/torch_aot_compile/61bda05feca29378847c32f031efa5c8dba258f38b0176a06a3e99e41df8ca50/inductor_cache/wb/cwb7fe4vcrvy27gznbwe4qyuykmfdqwhls62c5kmcgzmieqjm65j.py":214:40)
#loc339 = loc("/root/.cache/vllm/torch_compile_cache/torch_aot_compile/61bda05feca29378847c32f031efa5c8dba258f38b0176a06a3e99e41df8ca50/inductor_cache/wb/cwb7fe4vcrvy27gznbwe4qyuykmfdqwhls62c5kmcgzmieqjm65j.py":214:27)
#loc340 = loc("/root/.cache/vllm/torch_compile_cache/torch_aot_compile/61bda05feca29378847c32f031efa5c8dba258f38b0176a06a3e99e41df8ca50/inductor_cache/wb/cwb7fe4vcrvy27gznbwe4qyuykmfdqwhls62c5kmcgzmieqjm65j.py":215:25)
#loc341 = loc("/root/.cache/vllm/torch_compile_cache/torch_aot_compile/61bda05feca29378847c32f031efa5c8dba258f38b0176a06a3e99e41df8ca50/inductor_cache/wb/cwb7fe4vcrvy27gznbwe4qyuykmfdqwhls62c5kmcgzmieqjm65j.py":216:24)
#loc342 = loc("/root/.cache/vllm/torch_compile_cache/torch_aot_compile/61bda05feca29378847c32f031efa5c8dba258f38b0176a06a3e99e41df8ca50/inductor_cache/wb/cwb7fe4vcrvy27gznbwe4qyuykmfdqwhls62c5kmcgzmieqjm65j.py":217:24)
#loc343 = loc("/root/.cache/vllm/torch_compile_cache/torch_aot_compile/61bda05feca29378847c32f031efa5c8dba258f38b0176a06a3e99e41df8ca50/inductor_cache/wb/cwb7fe4vcrvy27gznbwe4qyuykmfdqwhls62c5kmcgzmieqjm65j.py":218:43)
#loc344 = loc("/root/.cache/vllm/torch_compile_cache/torch_aot_compile/61bda05feca29378847c32f031efa5c8dba258f38b0176a06a3e99e41df8ca50/inductor_cache/wb/cwb7fe4vcrvy27gznbwe4qyuykmfdqwhls62c5kmcgzmieqjm65j.py":218:54)
#loc345 = loc("/root/.cache/vllm/torch_compile_cache/torch_aot_compile/61bda05feca29378847c32f031efa5c8dba258f38b0176a06a3e99e41df8ca50/inductor_cache/wb/cwb7fe4vcrvy27gznbwe4qyuykmfdqwhls62c5kmcgzmieqjm65j.py":218:49)
#loc346 = loc("/root/.cache/vllm/torch_compile_cache/torch_aot_compile/61bda05feca29378847c32f031efa5c8dba258f38b0176a06a3e99e41df8ca50/inductor_cache/wb/cwb7fe4vcrvy27gznbwe4qyuykmfdqwhls62c5kmcgzmieqjm65j.py":218:36)
#loc347 = loc("/root/.cache/vllm/torch_compile_cache/torch_aot_compile/61bda05feca29378847c32f031efa5c8dba258f38b0176a06a3e99e41df8ca50/inductor_cache/wb/cwb7fe4vcrvy27gznbwe4qyuykmfdqwhls62c5kmcgzmieqjm65j.py":218:60)
#loc348 = loc("/root/.cache/vllm/torch_compile_cache/torch_aot_compile/61bda05feca29378847c32f031efa5c8dba258f38b0176a06a3e99e41df8ca50/inductor_cache/wb/cwb7fe4vcrvy27gznbwe4qyuykmfdqwhls62c5kmcgzmieqjm65j.py":218:70)
#loc349 = loc("/root/.cache/vllm/torch_compile_cache/torch_aot_compile/61bda05feca29378847c32f031efa5c8dba258f38b0176a06a3e99e41df8ca50/inductor_cache/wb/cwb7fe4vcrvy27gznbwe4qyuykmfdqwhls62c5kmcgzmieqjm65j.py":219:36)
#loc350 = loc("/root/.cache/vllm/torch_compile_cache/torch_aot_compile/61bda05feca29378847c32f031efa5c8dba258f38b0176a06a3e99e41df8ca50/inductor_cache/wb/cwb7fe4vcrvy27gznbwe4qyuykmfdqwhls62c5kmcgzmieqjm65j.py":219:42)
#loc351 = loc("/root/.cache/vllm/torch_compile_cache/torch_aot_compile/61bda05feca29378847c32f031efa5c8dba258f38b0176a06a3e99e41df8ca50/inductor_cache/wb/cwb7fe4vcrvy27gznbwe4qyuykmfdqwhls62c5kmcgzmieqjm65j.py":220:41)
#loc352 = loc("/root/.cache/vllm/torch_compile_cache/torch_aot_compile/61bda05feca29378847c32f031efa5c8dba258f38b0176a06a3e99e41df8ca50/inductor_cache/wb/cwb7fe4vcrvy27gznbwe4qyuykmfdqwhls62c5kmcgzmieqjm65j.py":220:36)
#loc353 = loc("/root/.cache/vllm/torch_compile_cache/torch_aot_compile/61bda05feca29378847c32f031efa5c8dba258f38b0176a06a3e99e41df8ca50/inductor_cache/wb/cwb7fe4vcrvy27gznbwe4qyuykmfdqwhls62c5kmcgzmieqjm65j.py":220:47)
#loc354 = loc("/root/.cache/vllm/torch_compile_cache/torch_aot_compile/61bda05feca29378847c32f031efa5c8dba258f38b0176a06a3e99e41df8ca50/inductor_cache/wb/cwb7fe4vcrvy27gznbwe4qyuykmfdqwhls62c5kmcgzmieqjm65j.py":220:87)
#loc355 = loc("/root/.cache/vllm/torch_compile_cache/torch_aot_compile/61bda05feca29378847c32f031efa5c8dba258f38b0176a06a3e99e41df8ca50/inductor_cache/wb/cwb7fe4vcrvy27gznbwe4qyuykmfdqwhls62c5kmcgzmieqjm65j.py":222:37)
#loc356 = loc("/root/.cache/vllm/torch_compile_cache/torch_aot_compile/61bda05feca29378847c32f031efa5c8dba258f38b0176a06a3e99e41df8ca50/inductor_cache/wb/cwb7fe4vcrvy27gznbwe4qyuykmfdqwhls62c5kmcgzmieqjm65j.py":223:27)
#loc357 = loc("/root/.cache/vllm/torch_compile_cache/torch_aot_compile/61bda05feca29378847c32f031efa5c8dba258f38b0176a06a3e99e41df8ca50/inductor_cache/wb/cwb7fe4vcrvy27gznbwe4qyuykmfdqwhls62c5kmcgzmieqjm65j.py":224:37)
#loc358 = loc("/root/.cache/vllm/torch_compile_cache/torch_aot_compile/61bda05feca29378847c32f031efa5c8dba258f38b0176a06a3e99e41df8ca50/inductor_cache/wb/cwb7fe4vcrvy27gznbwe4qyuykmfdqwhls62c5kmcgzmieqjm65j.py":225:26)
#loc359 = loc("/root/.cache/vllm/torch_compile_cache/torch_aot_compile/61bda05feca29378847c32f031efa5c8dba258f38b0176a06a3e99e41df8ca50/inductor_cache/wb/cwb7fe4vcrvy27gznbwe4qyuykmfdqwhls62c5kmcgzmieqjm65j.py":226:33)
#loc360 = loc("/root/.cache/vllm/torch_compile_cache/torch_aot_compile/61bda05feca29378847c32f031efa5c8dba258f38b0176a06a3e99e41df8ca50/inductor_cache/wb/cwb7fe4vcrvy27gznbwe4qyuykmfdqwhls62c5kmcgzmieqjm65j.py":227:26)
#loc361 = loc("/root/.cache/vllm/torch_compile_cache/torch_aot_compile/61bda05feca29378847c32f031efa5c8dba258f38b0176a06a3e99e41df8ca50/inductor_cache/wb/cwb7fe4vcrvy27gznbwe4qyuykmfdqwhls62c5kmcgzmieqjm65j.py":229:35)
#loc362 = loc("/root/.cache/vllm/torch_compile_cache/torch_aot_compile/61bda05feca29378847c32f031efa5c8dba258f38b0176a06a3e99e41df8ca50/inductor_cache/wb/cwb7fe4vcrvy27gznbwe4qyuykmfdqwhls62c5kmcgzmieqjm65j.py":230:26)
#loc363 = loc("/root/.cache/vllm/torch_compile_cache/torch_aot_compile/61bda05feca29378847c32f031efa5c8dba258f38b0176a06a3e99e41df8ca50/inductor_cache/wb/cwb7fe4vcrvy27gznbwe4qyuykmfdqwhls62c5kmcgzmieqjm65j.py":231:26)
#loc364 = loc("/root/.cache/vllm/torch_compile_cache/torch_aot_compile/61bda05feca29378847c32f031efa5c8dba258f38b0176a06a3e99e41df8ca50/inductor_cache/wb/cwb7fe4vcrvy27gznbwe4qyuykmfdqwhls62c5kmcgzmieqjm65j.py":233:39)
#loc365 = loc("/root/.cache/vllm/torch_compile_cache/torch_aot_compile/61bda05feca29378847c32f031efa5c8dba258f38b0176a06a3e99e41df8ca50/inductor_cache/wb/cwb7fe4vcrvy27gznbwe4qyuykmfdqwhls62c5kmcgzmieqjm65j.py":233:35)
#loc366 = loc("/root/.cache/vllm/torch_compile_cache/torch_aot_compile/61bda05feca29378847c32f031efa5c8dba258f38b0176a06a3e99e41df8ca50/inductor_cache/wb/cwb7fe4vcrvy27gznbwe4qyuykmfdqwhls62c5kmcgzmieqjm65j.py":233:29)
#loc367 = loc("/root/.cache/vllm/torch_compile_cache/torch_aot_compile/61bda05feca29378847c32f031efa5c8dba258f38b0176a06a3e99e41df8ca50/inductor_cache/wb/cwb7fe4vcrvy27gznbwe4qyuykmfdqwhls62c5kmcgzmieqjm65j.py":233:53)
#loc368 = loc("/root/.cache/vllm/torch_compile_cache/torch_aot_compile/61bda05feca29378847c32f031efa5c8dba258f38b0176a06a3e99e41df8ca50/inductor_cache/wb/cwb7fe4vcrvy27gznbwe4qyuykmfdqwhls62c5kmcgzmieqjm65j.py":26:4)
#loc370 = loc("/usr/local/lib/python3.12/dist-packages/triton/language/standard.py":43:17)
#loc371 = loc("/usr/local/lib/python3.12/dist-packages/triton/language/standard.py":43:30)
#loc372 = loc("/usr/local/lib/python3.12/dist-packages/triton/language/standard.py":43:11)
#loc373 = loc("/usr/local/lib/python3.12/dist-packages/triton/language/standard.py":43:4)
#loc389 = loc("pid"(#loc1))
#loc390 = loc("num_xblocks_0"(#loc2))
#loc391 = loc("num_xblocks_1"(#loc3))
#loc392 = loc("num_xblocks_1"(#loc4))
#loc393 = loc("num_xblocks_2"(#loc5))
#loc394 = loc("num_xblocks_2"(#loc6))
#loc395 = loc("num_xblocks_3"(#loc7))
#loc396 = loc("num_xblocks_3"(#loc8))
#loc397 = loc("r0_numel"(#loc11))
#loc398 = loc("xoffset"(#loc12))
#loc399 = loc("xindex"(#loc13))
#loc400 = loc("xindex"(#loc14))
#loc401 = loc("xmask"(#loc15))
#loc402 = loc("x0"(#loc16))
#loc403 = loc("x1"(#loc17))
#loc404 = loc("x1"(#loc18))
#loc405 = loc("x2"(#loc19))
#loc406 = loc("x3"(#loc20))
#loc407 = loc("tmp1"(#loc21))
#loc408 = loc("tmp2"(#loc22))
#loc409 = loc("tmp3"(#loc23))
#loc410 = loc("tmp4"(#loc24))
#loc411 = loc("tmp5"(#loc25))
#loc412 = loc("tmp5"(#loc26))
#loc413 = loc("tmp5"(#loc27))
#loc414 = loc("tmp5"(#loc28))
#loc415 = loc("tmp5"(#loc29))
#loc416 = loc("tmp5"(#loc30))
#loc417 = loc("tmp5"(#loc31))
#loc418 = loc("tmp5"(#loc32))
#loc419 = loc("tmp7"(#loc33))
#loc420 = loc("tmp7"(#loc34))
#loc421 = loc("tmp7"(#loc35))
#loc422 = loc("tmp8"(#loc36))
#loc423 = loc("tmp9"(#loc37))
#loc424 = loc("tmp10"(#loc38))
#loc425 = loc("tmp11"(#loc39))
#loc426 = loc("tmp12"(#loc40))
#loc427 = loc("tmp13"(#loc41))
#loc428 = loc("tmp14"(#loc42))
#loc429 = loc("tmp14"(#loc43))
#loc430 = loc("tmp14"(#loc44))
#loc431 = loc("tmp14"(#loc45))
#loc432 = loc("tmp16"(#loc46))
#loc433 = loc("tmp17"(#loc47))
#loc434 = loc("tmp18"(#loc48))
#loc435 = loc("tmp20"(#loc49))
#loc436 = loc("tmp20"(#loc50))
#loc437 = loc("tmp20"(#loc51))
#loc438 = loc("tmp20"(#loc52))
#loc439 = loc("tmp20"(#loc53))
#loc440 = loc("tmp20"(#loc54))
#loc441 = loc("tmp21"(#loc55))
#loc442 = loc("tmp22"(#loc56))
#loc443 = loc("tmp22"(#loc57))
#loc444 = loc("tmp22"(#loc58))
#loc445 = loc("tmp22"(#loc59))
#loc446 = loc("tmp22"(#loc60))
#loc447 = loc("tmp22"(#loc61))
#loc448 = loc("tmp22"(#loc62))
#loc449 = loc("tmp22"(#loc63))
#loc450 = loc("tmp22"(#loc64))
#loc451 = loc("tmp24"(#loc65))
#loc452 = loc("tmp25"(#loc66))
#loc453 = loc("tmp25"(#loc67))
#loc454 = loc("tmp25"(#loc68))
#loc455 = loc("tmp25"(#loc69))
#loc456 = loc("tmp25"(#loc70))
#loc457 = loc("tmp27"(#loc71))
#loc458 = loc("tmp28"(#loc72))
#loc459 = loc("tmp30"(#loc73))
#loc460 = loc("tmp30"(#loc74))
#loc461 = loc("tmp30"(#loc75))
#loc462 = loc("tmp30"(#loc76))
#loc463 = loc("tmp30"(#loc77))
#loc464 = loc("tmp30"(#loc78))
#loc465 = loc("tmp31"(#loc79))
#loc466 = loc("tmp32"(#loc80))
#loc467 = loc("tmp33"(#loc81))
#loc468 = loc("tmp34"(#loc82))
#loc469 = loc("tmp35"(#loc83))
#loc470 = loc("tmp36"(#loc84))
#loc471 = loc("tmp37"(#loc85))
#loc472 = loc("tmp38"(#loc86))
#loc473 = loc("tmp38"(#loc87))
#loc474 = loc("tmp38"(#loc88))
#loc475 = loc("tmp38"(#loc89))
#loc476 = loc("tmp38"(#loc90))
#loc477 = loc("tmp38"(#loc91))
#loc478 = loc("tmp38"(#loc92))
#loc479 = loc("tmp38"(#loc93))
#loc480 = loc("tmp38"(#loc94))
#loc481 = loc("tmp38"(#loc95))
#loc482 = loc("tmp40"(#loc96))
#loc483 = loc("tmp40"(#loc97))
#loc484 = loc("tmp40"(#loc98))
#loc485 = loc("tmp41"(#loc99))
#loc486 = loc("tmp42"(#loc100))
#loc487 = loc("tmp43"(#loc101))
#loc488 = loc("tmp44"(#loc102))
#loc489 = loc("tmp45"(#loc103))
#loc490 = loc("tmp46"(#loc104))
#loc491 = loc("tmp47"(#loc105))
#loc492 = loc("tmp47"(#loc106))
#loc493 = loc("tmp47"(#loc107))
#loc494 = loc("tmp47"(#loc108))
#loc495 = loc("tmp47"(#loc109))
#loc496 = loc("tmp47"(#loc110))
#loc497 = loc("tmp49"(#loc111))
#loc498 = loc("tmp50"(#loc112))
#loc499 = loc("tmp51"(#loc113))
#loc500 = loc("tmp53"(#loc114))
#loc501 = loc("tmp53"(#loc115))
#loc502 = loc("tmp53"(#loc116))
#loc503 = loc("tmp53"(#loc117))
#loc504 = loc("tmp53"(#loc118))
#loc505 = loc("tmp53"(#loc119))
#loc506 = loc("tmp53"(#loc120))
#loc507 = loc("tmp54"(#loc121))
#loc508 = loc("tmp55"(#loc122))
#loc509 = loc("tmp55"(#loc123))
#loc510 = loc("tmp55"(#loc124))
#loc511 = loc("tmp55"(#loc125))
#loc512 = loc("tmp55"(#loc126))
#loc513 = loc("tmp55"(#loc127))
#loc514 = loc("tmp55"(#loc128))
#loc515 = loc("tmp55"(#loc129))
#loc516 = loc("tmp55"(#loc130))
#loc517 = loc("tmp57"(#loc131))
#loc518 = loc("tmp58"(#loc132))
#loc519 = loc("tmp58"(#loc133))
#loc520 = loc("tmp58"(#loc134))
#loc521 = loc("tmp58"(#loc135))
#loc522 = loc("tmp58"(#loc136))
#loc523 = loc("tmp60"(#loc137))
#loc524 = loc("tmp61"(#loc138))
#loc525 = loc("tmp63"(#loc139))
#loc526 = loc("tmp63"(#loc140))
#loc527 = loc("tmp63"(#loc141))
#loc528 = loc("tmp63"(#loc142))
#loc529 = loc("tmp63"(#loc143))
#loc530 = loc("tmp63"(#loc144))
#loc531 = loc("tmp63"(#loc145))
#loc532 = loc("tmp64"(#loc146))
#loc533 = loc("tmp65"(#loc147))
#loc534 = loc("tmp66"(#loc148))
#loc535 = loc("tmp67"(#loc149))
#loc536 = loc("tmp68"(#loc150))
#loc537 = loc("pid_offset"(#loc157))
#loc538 = loc("r0_numel"(#loc158))
#loc539 = loc("xoffset"(#loc159))
#loc540 = loc("xindex"(#loc160))
#loc541 = loc("xindex"(#loc161))
#loc542 = loc("xmask"(#loc162))
#loc543 = loc("x4"(#loc163))
#loc544 = loc("x5"(#loc164))
#loc545 = loc("x5"(#loc165))
#loc546 = loc("x6"(#loc166))
#loc547 = loc("x7"(#loc167))
#loc548 = loc("tmp69"(#loc168))
#loc549 = loc("tmp69"(#loc169))
#loc550 = loc("tmp69"(#loc170))
#loc551 = loc("tmp69"(#loc171))
#loc552 = loc("tmp69"(#loc172))
#loc553 = loc("tmp69"(#loc173))
#loc554 = loc("tmp69"(#loc174))
#loc555 = loc("tmp69"(#loc175))
#loc556 = loc("tmp71"(#loc176))
#loc557 = loc("tmp71"(#loc177))
#loc558 = loc("tmp78"(#loc178))
#loc559 = loc("tmp78"(#loc179))
#loc560 = loc("tmp78"(#loc180))
#loc561 = loc("tmp78"(#loc181))
#loc562 = loc("tmp72"(#loc182))
#loc563 = loc("tmp73"(#loc183))
#loc564 = loc("tmp74"(#loc184))
#loc565 = loc("tmp75"(#loc185))
#loc566 = loc("tmp76"(#loc186))
#loc567 = loc("tmp77"(#loc187))
#loc568 = loc("tmp80"(#loc188))
#loc569 = loc("tmp81"(#loc189))
#loc570 = loc("tmp82"(#loc190))
#loc571 = loc("pid_offset"(#loc197))
#loc572 = loc("r0_numel"(#loc198))
#loc573 = loc("xoffset"(#loc199))
#loc574 = loc("xindex"(#loc200))
#loc575 = loc("xindex"(#loc201))
#loc576 = loc("xmask"(#loc202))
#loc577 = loc("x8"(#loc203))
#loc578 = loc("x9"(#loc204))
#loc579 = loc("tmp85"(#loc205))
#loc580 = loc("tmp86"(#loc206))
#loc581 = loc("tmp87"(#loc207))
#loc582 = loc("tmp88"(#loc208))
#loc583 = loc("tmp89"(#loc209))
#loc584 = loc("tmp89"(#loc210))
#loc585 = loc("tmp89"(#loc211))
#loc586 = loc("tmp89"(#loc212))
#loc587 = loc("tmp89"(#loc213))
#loc588 = loc("tmp89"(#loc214))
#loc589 = loc("tmp89"(#loc215))
#loc590 = loc("tmp91"(#loc216))
#loc591 = loc("tmp91"(#loc217))
#loc592 = loc("tmp91"(#loc218))
#loc593 = loc("tmp92"(#loc219))
#loc594 = loc("tmp93"(#loc220))
#loc595 = loc("tmp94"(#loc221))
#loc596 = loc("tmp95"(#loc222))
#loc597 = loc("tmp96"(#loc223))
#loc598 = loc("tmp97"(#loc224))
#loc599 = loc("tmp98"(#loc225))
#loc600 = loc("tmp98"(#loc226))
#loc601 = loc("tmp98"(#loc227))
#loc602 = loc("tmp98"(#loc228))
#loc603 = loc("tmp100"(#loc229))
#loc604 = loc("tmp101"(#loc230))
#loc605 = loc("tmp102"(#loc231))
#loc606 = loc("tmp104"(#loc232))
#loc607 = loc("tmp104"(#loc233))
#loc608 = loc("tmp104"(#loc234))
#loc609 = loc("tmp104"(#loc235))
#loc610 = loc("tmp104"(#loc236))
#loc611 = loc("tmp104"(#loc237))
#loc612 = loc("tmp105"(#loc238))
#loc613 = loc("tmp106"(#loc239))
#loc614 = loc("tmp106"(#loc240))
#loc615 = loc("tmp106"(#loc241))
#loc616 = loc("tmp106"(#loc242))
#loc617 = loc("tmp106"(#loc243))
#loc618 = loc("tmp106"(#loc244))
#loc619 = loc("tmp106"(#loc245))
#loc620 = loc("tmp108"(#loc246))
#loc621 = loc("tmp109"(#loc247))
#loc622 = loc("tmp109"(#loc248))
#loc623 = loc("tmp109"(#loc249))
#loc624 = loc("tmp109"(#loc250))
#loc625 = loc("tmp109"(#loc251))
#loc626 = loc("tmp111"(#loc252))
#loc627 = loc("tmp112"(#loc253))
#loc628 = loc("tmp114"(#loc254))
#loc629 = loc("tmp114"(#loc255))
#loc630 = loc("tmp114"(#loc256))
#loc631 = loc("tmp114"(#loc257))
#loc632 = loc("tmp114"(#loc258))
#loc633 = loc("tmp114"(#loc259))
#loc634 = loc("tmp115"(#loc260))
#loc635 = loc("tmp116"(#loc261))
#loc636 = loc("tmp117"(#loc262))
#loc637 = loc("tmp118"(#loc263))
#loc638 = loc("tmp119"(#loc264))
#loc639 = loc("tmp120"(#loc265))
#loc640 = loc("tmp121"(#loc266))
#loc641 = loc("tmp122"(#loc267))
#loc642 = loc("tmp122"(#loc268))
#loc643 = loc("tmp122"(#loc269))
#loc644 = loc("tmp122"(#loc270))
#loc645 = loc("tmp122"(#loc271))
#loc646 = loc("tmp122"(#loc272))
#loc647 = loc("tmp122"(#loc273))
#loc648 = loc("tmp122"(#loc274))
#loc649 = loc("tmp124"(#loc275))
#loc650 = loc("tmp124"(#loc276))
#loc651 = loc("tmp124"(#loc277))
#loc652 = loc("tmp125"(#loc278))
#loc653 = loc("tmp126"(#loc279))
#loc654 = loc("tmp127"(#loc280))
#loc655 = loc("tmp128"(#loc281))
#loc656 = loc("tmp129"(#loc282))
#loc657 = loc("tmp130"(#loc283))
#loc658 = loc("tmp131"(#loc284))
#loc659 = loc("tmp131"(#loc285))
#loc660 = loc("tmp131"(#loc286))
#loc661 = loc("tmp131"(#loc287))
#loc662 = loc("tmp131"(#loc288))
#loc663 = loc("tmp131"(#loc289))
#loc664 = loc("tmp133"(#loc290))
#loc665 = loc("tmp134"(#loc291))
#loc666 = loc("tmp135"(#loc292))
#loc667 = loc("tmp137"(#loc293))
#loc668 = loc("tmp137"(#loc294))
#loc669 = loc("tmp137"(#loc295))
#loc670 = loc("tmp137"(#loc296))
#loc671 = loc("tmp137"(#loc297))
#loc672 = loc("tmp137"(#loc298))
#loc673 = loc("tmp137"(#loc299))
#loc674 = loc("tmp138"(#loc300))
#loc675 = loc("tmp139"(#loc301))
#loc676 = loc("tmp139"(#loc302))
#loc677 = loc("tmp139"(#loc303))
#loc678 = loc("tmp139"(#loc304))
#loc679 = loc("tmp139"(#loc305))
#loc680 = loc("tmp139"(#loc306))
#loc681 = loc("tmp139"(#loc307))
#loc682 = loc("tmp139"(#loc308))
#loc683 = loc("tmp141"(#loc309))
#loc684 = loc("tmp142"(#loc310))
#loc685 = loc("tmp142"(#loc311))
#loc686 = loc("tmp142"(#loc312))
#loc687 = loc("tmp142"(#loc313))
#loc688 = loc("tmp142"(#loc314))
#loc689 = loc("tmp144"(#loc315))
#loc690 = loc("tmp145"(#loc316))
#loc691 = loc("tmp147"(#loc317))
#loc692 = loc("tmp147"(#loc318))
#loc693 = loc("tmp147"(#loc319))
#loc694 = loc("tmp147"(#loc320))
#loc695 = loc("tmp147"(#loc321))
#loc696 = loc("tmp147"(#loc322))
#loc697 = loc("tmp147"(#loc323))
#loc698 = loc("tmp148"(#loc324))
#loc699 = loc("tmp149"(#loc325))
#loc700 = loc("tmp150"(#loc326))
#loc701 = loc("tmp151"(#loc327))
#loc702 = loc("tmp152"(#loc328))
#loc703 = loc("pid_offset"(#loc335))
#loc704 = loc("r0_numel"(#loc336))
#loc705 = loc("xoffset"(#loc337))
#loc706 = loc("xindex"(#loc338))
#loc707 = loc("xindex"(#loc339))
#loc708 = loc("xmask"(#loc340))
#loc709 = loc("x10"(#loc341))
#loc710 = loc("x11"(#loc342))
#loc711 = loc("tmp153"(#loc343))
#loc712 = loc("tmp153"(#loc344))
#loc713 = loc("tmp153"(#loc345))
#loc714 = loc("tmp153"(#loc346))
#loc715 = loc("tmp153"(#loc347))
#loc716 = loc("tmp153"(#loc348))
#loc717 = loc("tmp155"(#loc349))
#loc718 = loc("tmp155"(#loc350))
#loc719 = loc("tmp162"(#loc351))
#loc720 = loc("tmp162"(#loc352))
#loc721 = loc("tmp162"(#loc353))
#loc722 = loc("tmp162"(#loc354))
#loc723 = loc("tmp156"(#loc355))
#loc724 = loc("tmp157"(#loc356))
#loc725 = loc("tmp158"(#loc357))
#loc726 = loc("tmp159"(#loc358))
#loc727 = loc("tmp160"(#loc359))
#loc728 = loc("tmp161"(#loc360))
#loc729 = loc("tmp164"(#loc361))
#loc730 = loc("tmp165"(#loc362))
#loc731 = loc("tmp166"(#loc363))
