#loc = loc("/root/.cache/vllm/torch_compile_cache/torch_aot_compile/61bda05feca29378847c32f031efa5c8dba258f38b0176a06a3e99e41df8ca50/inductor_cache/w5/cw5nddr5bobhvdrhje7khouphnjbuakrntk7xrvjh2xodtkx2ojq.py":18:0)
#loc23 = loc("in_ptr0"(#loc))
#loc24 = loc("out_ptr0"(#loc))
#loc25 = loc("ks0"(#loc))
#loc26 = loc("xnumel"(#loc))
module {
  tt.func public @triton_poi_fused_mul_silu_slice_0(%in_ptr0: !tt.ptr<f16> {tt.divisibility = 16 : i32} loc("in_ptr0"(#loc)), %out_ptr0: !tt.ptr<f16> {tt.divisibility = 16 : i32} loc("out_ptr0"(#loc)), %ks0: i64 loc("ks0"(#loc)), %xnumel: i32 loc("xnumel"(#loc))) attributes {noinline = false} {
    %tmp5 = arith.constant dense<1.000000e+00> : tensor<256xf32> loc(#loc27)
    %tmp2 = arith.constant dense<0.000000e+00> : tensor<256xf32> loc(#loc28)
    %tmp8 = arith.constant 2 : i64 loc(#loc29)
    %c256_i32 = arith.constant 256 : i32 loc(#loc4)
    %xoffset = tt.get_program_id x : i32 loc(#loc30)
    %xoffset_0 = arith.muli %xoffset, %c256_i32 : i32 loc(#loc31)
    %xindex = tt.make_range {end = 256 : i32, start = 0 : i32} : tensor<256xi32> loc(#loc32)
    %xindex_1 = tt.splat %xoffset_0 : i32 -> tensor<256xi32> loc(#loc33)
    %xindex_2 = arith.addi %xindex_1, %xindex : tensor<256xi32> loc(#loc33)
    %xmask = tt.splat %xnumel : i32 -> tensor<256xi32> loc(#loc34)
    %xmask_3 = arith.cmpi slt, %xindex_2, %xmask : tensor<256xi32> loc(#loc34)
    %tmp0 = tt.splat %in_ptr0 : !tt.ptr<f16> -> tensor<256x!tt.ptr<f16>> loc(#loc35)
    %tmp0_4 = tt.addptr %tmp0, %xindex_2 : tensor<256x!tt.ptr<f16>>, tensor<256xi32> loc(#loc35)
    %tmp0_5 = tt.load %tmp0_4, %xmask_3 : tensor<256x!tt.ptr<f16>> loc(#loc36)
    %tmp0_6 = arith.extf %tmp0_5 : tensor<256xf16> to tensor<256xf32> loc(#loc37)
    %tmp8_7 = arith.divsi %ks0, %tmp8 : i64 loc(#loc29)
    %tmp8_8 = arith.extsi %xindex_2 : tensor<256xi32> to tensor<256xi64> loc(#loc38)
    %tmp8_9 = tt.splat %tmp8_7 : i64 -> tensor<256xi64> loc(#loc38)
    %tmp8_10 = arith.addi %tmp8_8, %tmp8_9 : tensor<256xi64> loc(#loc38)
    %tmp8_11 = tt.addptr %tmp0, %tmp8_10 : tensor<256x!tt.ptr<f16>>, tensor<256xi64> loc(#loc39)
    %tmp8_12 = tt.load %tmp8_11, %xmask_3 : tensor<256x!tt.ptr<f16>> loc(#loc40)
    %tmp8_13 = arith.extf %tmp8_12 : tensor<256xf16> to tensor<256xf32> loc(#loc41)
    %tmp2_14 = arith.subf %tmp2, %tmp0_6 : tensor<256xf32> loc(#loc28)
    %tmp3 = tt.extern_elementwise %tmp2_14 {libname = "", libpath = "", pure = true, symbol = "__nv_expf"} : (tensor<256xf32>) -> tensor<256xf32> loc(#loc42)
    %tmp5_15 = arith.addf %tmp3, %tmp5 : tensor<256xf32> loc(#loc27)
    %tmp6 = arith.divf %tmp0_6, %tmp5_15 : tensor<256xf32> loc(#loc43)
    %tmp9 = arith.mulf %tmp6, %tmp8_13 : tensor<256xf32> loc(#loc44)
    %0 = tt.splat %out_ptr0 : !tt.ptr<f16> -> tensor<256x!tt.ptr<f16>> loc(#loc20)
    %1 = tt.addptr %0, %xindex_2 : tensor<256x!tt.ptr<f16>>, tensor<256xi32> loc(#loc20)
    %2 = arith.truncf %tmp9 : tensor<256xf32> to tensor<256xf16> loc(#loc21)
    tt.store %1, %2, %xmask_3 : tensor<256x!tt.ptr<f16>> loc(#loc21)
    tt.return loc(#loc22)
  } loc(#loc)
} loc(#loc)
#loc1 = loc("/root/.cache/vllm/torch_compile_cache/torch_aot_compile/61bda05feca29378847c32f031efa5c8dba258f38b0176a06a3e99e41df8ca50/inductor_cache/w5/cw5nddr5bobhvdrhje7khouphnjbuakrntk7xrvjh2xodtkx2ojq.py":29:18)
#loc2 = loc("/root/.cache/vllm/torch_compile_cache/torch_aot_compile/61bda05feca29378847c32f031efa5c8dba258f38b0176a06a3e99e41df8ca50/inductor_cache/w5/cw5nddr5bobhvdrhje7khouphnjbuakrntk7xrvjh2xodtkx2ojq.py":26:12)
#loc3 = loc("/root/.cache/vllm/torch_compile_cache/torch_aot_compile/61bda05feca29378847c32f031efa5c8dba258f38b0176a06a3e99e41df8ca50/inductor_cache/w5/cw5nddr5bobhvdrhje7khouphnjbuakrntk7xrvjh2xodtkx2ojq.py":24:43)
#loc4 = loc(unknown)
#loc5 = loc("/root/.cache/vllm/torch_compile_cache/torch_aot_compile/61bda05feca29378847c32f031efa5c8dba258f38b0176a06a3e99e41df8ca50/inductor_cache/w5/cw5nddr5bobhvdrhje7khouphnjbuakrntk7xrvjh2xodtkx2ojq.py":19:28)
#loc6 = loc("/root/.cache/vllm/torch_compile_cache/torch_aot_compile/61bda05feca29378847c32f031efa5c8dba258f38b0176a06a3e99e41df8ca50/inductor_cache/w5/cw5nddr5bobhvdrhje7khouphnjbuakrntk7xrvjh2xodtkx2ojq.py":19:33)
#loc7 = loc("/root/.cache/vllm/torch_compile_cache/torch_aot_compile/61bda05feca29378847c32f031efa5c8dba258f38b0176a06a3e99e41df8ca50/inductor_cache/w5/cw5nddr5bobhvdrhje7khouphnjbuakrntk7xrvjh2xodtkx2ojq.py":20:36)
#loc8 = loc("/root/.cache/vllm/torch_compile_cache/torch_aot_compile/61bda05feca29378847c32f031efa5c8dba258f38b0176a06a3e99e41df8ca50/inductor_cache/w5/cw5nddr5bobhvdrhje7khouphnjbuakrntk7xrvjh2xodtkx2ojq.py":20:23)
#loc9 = loc("/root/.cache/vllm/torch_compile_cache/torch_aot_compile/61bda05feca29378847c32f031efa5c8dba258f38b0176a06a3e99e41df8ca50/inductor_cache/w5/cw5nddr5bobhvdrhje7khouphnjbuakrntk7xrvjh2xodtkx2ojq.py":21:21)
#loc10 = loc("/root/.cache/vllm/torch_compile_cache/torch_aot_compile/61bda05feca29378847c32f031efa5c8dba258f38b0176a06a3e99e41df8ca50/inductor_cache/w5/cw5nddr5bobhvdrhje7khouphnjbuakrntk7xrvjh2xodtkx2ojq.py":23:30)
#loc11 = loc("/root/.cache/vllm/torch_compile_cache/torch_aot_compile/61bda05feca29378847c32f031efa5c8dba258f38b0176a06a3e99e41df8ca50/inductor_cache/w5/cw5nddr5bobhvdrhje7khouphnjbuakrntk7xrvjh2xodtkx2ojq.py":23:35)
#loc12 = loc("/root/.cache/vllm/torch_compile_cache/torch_aot_compile/61bda05feca29378847c32f031efa5c8dba258f38b0176a06a3e99e41df8ca50/inductor_cache/w5/cw5nddr5bobhvdrhje7khouphnjbuakrntk7xrvjh2xodtkx2ojq.py":23:45)
#loc13 = loc("/root/.cache/vllm/torch_compile_cache/torch_aot_compile/61bda05feca29378847c32f031efa5c8dba258f38b0176a06a3e99e41df8ca50/inductor_cache/w5/cw5nddr5bobhvdrhje7khouphnjbuakrntk7xrvjh2xodtkx2ojq.py":24:36)
#loc14 = loc("/root/.cache/vllm/torch_compile_cache/torch_aot_compile/61bda05feca29378847c32f031efa5c8dba258f38b0176a06a3e99e41df8ca50/inductor_cache/w5/cw5nddr5bobhvdrhje7khouphnjbuakrntk7xrvjh2xodtkx2ojq.py":24:30)
#loc15 = loc("/root/.cache/vllm/torch_compile_cache/torch_aot_compile/61bda05feca29378847c32f031efa5c8dba258f38b0176a06a3e99e41df8ca50/inductor_cache/w5/cw5nddr5bobhvdrhje7khouphnjbuakrntk7xrvjh2xodtkx2ojq.py":24:48)
#loc16 = loc("/root/.cache/vllm/torch_compile_cache/torch_aot_compile/61bda05feca29378847c32f031efa5c8dba258f38b0176a06a3e99e41df8ca50/inductor_cache/w5/cw5nddr5bobhvdrhje7khouphnjbuakrntk7xrvjh2xodtkx2ojq.py":24:58)
#loc17 = loc("/root/.cache/vllm/torch_compile_cache/torch_aot_compile/61bda05feca29378847c32f031efa5c8dba258f38b0176a06a3e99e41df8ca50/inductor_cache/w5/cw5nddr5bobhvdrhje7khouphnjbuakrntk7xrvjh2xodtkx2ojq.py":27:25)
#loc18 = loc("/root/.cache/vllm/torch_compile_cache/torch_aot_compile/61bda05feca29378847c32f031efa5c8dba258f38b0176a06a3e99e41df8ca50/inductor_cache/w5/cw5nddr5bobhvdrhje7khouphnjbuakrntk7xrvjh2xodtkx2ojq.py":30:19)
#loc19 = loc("/root/.cache/vllm/torch_compile_cache/torch_aot_compile/61bda05feca29378847c32f031efa5c8dba258f38b0176a06a3e99e41df8ca50/inductor_cache/w5/cw5nddr5bobhvdrhje7khouphnjbuakrntk7xrvjh2xodtkx2ojq.py":32:18)
#loc20 = loc("/root/.cache/vllm/torch_compile_cache/torch_aot_compile/61bda05feca29378847c32f031efa5c8dba258f38b0176a06a3e99e41df8ca50/inductor_cache/w5/cw5nddr5bobhvdrhje7khouphnjbuakrntk7xrvjh2xodtkx2ojq.py":33:25)
#loc21 = loc("/root/.cache/vllm/torch_compile_cache/torch_aot_compile/61bda05feca29378847c32f031efa5c8dba258f38b0176a06a3e99e41df8ca50/inductor_cache/w5/cw5nddr5bobhvdrhje7khouphnjbuakrntk7xrvjh2xodtkx2ojq.py":33:36)
#loc22 = loc("/root/.cache/vllm/torch_compile_cache/torch_aot_compile/61bda05feca29378847c32f031efa5c8dba258f38b0176a06a3e99e41df8ca50/inductor_cache/w5/cw5nddr5bobhvdrhje7khouphnjbuakrntk7xrvjh2xodtkx2ojq.py":33:4)
#loc27 = loc("tmp5"(#loc1))
#loc28 = loc("tmp2"(#loc2))
#loc29 = loc("tmp8"(#loc3))
#loc30 = loc("xoffset"(#loc5))
#loc31 = loc("xoffset"(#loc6))
#loc32 = loc("xindex"(#loc7))
#loc33 = loc("xindex"(#loc8))
#loc34 = loc("xmask"(#loc9))
#loc35 = loc("tmp0"(#loc10))
#loc36 = loc("tmp0"(#loc11))
#loc37 = loc("tmp0"(#loc12))
#loc38 = loc("tmp8"(#loc13))
#loc39 = loc("tmp8"(#loc14))
#loc40 = loc("tmp8"(#loc15))
#loc41 = loc("tmp8"(#loc16))
#loc42 = loc("tmp3"(#loc17))
#loc43 = loc("tmp6"(#loc18))
#loc44 = loc("tmp9"(#loc19))
