#loc = loc("/root/.cache/vllm/torch_compile_cache/torch_aot_compile/61bda05feca29378847c32f031efa5c8dba258f38b0176a06a3e99e41df8ca50/inductor_cache/2m/c2m4hcox3bmzydebnh55if4fawo5knlxsdwokchhp2zalls527nz.py":20:0)
#loc34 = loc("/usr/local/lib/python3.12/dist-packages/triton/language/standard.py":34:0)
#loc39 = loc("/usr/local/lib/python3.12/dist-packages/triton/language/standard.py":49:0)
#loc46 = loc("in_ptr0"(#loc))
#loc47 = loc("in_ptr1"(#loc))
#loc48 = loc("out_ptr0"(#loc))
#loc49 = loc("out_ptr1"(#loc))
#loc50 = loc("xnumel_0"(#loc))
#loc51 = loc("xnumel_1"(#loc))
#loc76 = loc("x"(#loc34))
#loc77 = loc("x"(#loc39))
module {
  tt.func public @triton_poi_fused_0(%in_ptr0: !tt.ptr<f16> {tt.divisibility = 16 : i32} loc("in_ptr0"(#loc)), %in_ptr1: !tt.ptr<f16> {tt.divisibility = 16 : i32} loc("in_ptr1"(#loc)), %out_ptr0: !tt.ptr<f16> {tt.divisibility = 16 : i32} loc("out_ptr0"(#loc)), %out_ptr1: !tt.ptr<f16> {tt.divisibility = 16 : i32} loc("out_ptr1"(#loc)), %xnumel_0: i32 {tt.divisibility = 16 : i32} loc("xnumel_0"(#loc)), %xnumel_1: i32 {tt.divisibility = 16 : i32} loc("xnumel_1"(#loc))) attributes {noinline = false} {
    %pid = tt.get_program_id x : i32 loc(#loc52)
    %num_xblocks_0 = tt.call @"triton.language.standard.cdiv__i32__(1,)cconstexpr_1024_"(%xnumel_0) : (i32) -> i32 loc(#loc53)
    %num_xblocks_1 = tt.call @"triton.language.standard.cdiv__i32__(1,)cconstexpr_1024_"(%xnumel_1) : (i32) -> i32 loc(#loc54)
    %num_xblocks_1_0 = arith.addi %num_xblocks_0, %num_xblocks_1 : i32 loc(#loc55)
    %0 = arith.cmpi slt, %pid, %num_xblocks_0 : i32 loc(#loc5)
    scf.if %0 {
      %r0_numel = arith.constant 1 : i32 loc(#loc56)
      %xoffset = arith.constant 1024 : i32 loc(#loc57)
      %xoffset_1 = arith.constant 1024 : i32 loc(#loc57)
      %xoffset_2 = arith.muli %pid, %xoffset_1 : i32 loc(#loc57)
      %xindex = tt.make_range {end = 1024 : i32, start = 0 : i32} : tensor<1024xi32> loc(#loc58)
      %xindex_3 = tt.splat %xoffset_2 : i32 -> tensor<1024xi32> loc(#loc59)
      %xindex_4 = arith.addi %xindex_3, %xindex : tensor<1024xi32> loc(#loc59)
      %xmask = tt.splat %xnumel_0 : i32 -> tensor<1024xi32> loc(#loc60)
      %xmask_5 = arith.cmpi slt, %xindex_4, %xmask : tensor<1024xi32> loc(#loc60)
      %tmp0 = tt.splat %in_ptr0 : !tt.ptr<f16> -> tensor<1024x!tt.ptr<f16>> loc(#loc61)
      %tmp0_6 = tt.addptr %tmp0, %xindex_4 : tensor<1024x!tt.ptr<f16>>, tensor<1024xi32> loc(#loc61)
      %tmp0_7 = tt.load %tmp0_6, %xmask_5 : tensor<1024x!tt.ptr<f16>> loc(#loc62)
      %tmp0_8 = arith.extf %tmp0_7 : tensor<1024xf16> to tensor<1024xf32> loc(#loc63)
      %tmp1 = tt.splat %in_ptr1 : !tt.ptr<f16> -> tensor<1024x!tt.ptr<f16>> loc(#loc64)
      %tmp1_9 = tt.addptr %tmp1, %xindex_4 : tensor<1024x!tt.ptr<f16>>, tensor<1024xi32> loc(#loc64)
      %tmp1_10 = tt.load %tmp1_9, %xmask_5 : tensor<1024x!tt.ptr<f16>> loc(#loc65)
      %tmp1_11 = arith.extf %tmp1_10 : tensor<1024xf16> to tensor<1024xf32> loc(#loc66)
      %tmp2 = tt.call @triton.language.standard.sigmoid__fp32S1024S__(%tmp1_11) : (tensor<1024xf32>) -> tensor<1024xf32> loc(#loc67)
      %tmp3 = arith.mulf %tmp0_8, %tmp2 : tensor<1024xf32> loc(#loc68)
      %1 = tt.splat %out_ptr0 : !tt.ptr<f16> -> tensor<1024x!tt.ptr<f16>> loc(#loc20)
      %2 = tt.addptr %1, %xindex_4 : tensor<1024x!tt.ptr<f16>>, tensor<1024xi32> loc(#loc20)
      %3 = arith.truncf %tmp3 : tensor<1024xf32> to tensor<1024xf16> loc(#loc21)
      tt.store %2, %3, %xmask_5 : tensor<1024x!tt.ptr<f16>> loc(#loc21)
    } else {
      %1 = arith.cmpi slt, %pid, %num_xblocks_1_0 : i32 loc(#loc22)
      scf.if %1 {
        %pid_offset = arith.subi %pid, %num_xblocks_0 : i32 loc(#loc69)
        %r0_numel = arith.constant 1 : i32 loc(#loc70)
        %xoffset = arith.constant 1024 : i32 loc(#loc71)
        %xoffset_1 = arith.constant 1024 : i32 loc(#loc71)
        %xoffset_2 = arith.muli %pid_offset, %xoffset_1 : i32 loc(#loc71)
        %xindex = tt.make_range {end = 1024 : i32, start = 0 : i32} : tensor<1024xi32> loc(#loc72)
        %xindex_3 = tt.splat %xoffset_2 : i32 -> tensor<1024xi32> loc(#loc73)
        %xindex_4 = arith.addi %xindex_3, %xindex : tensor<1024xi32> loc(#loc73)
        %xmask = tt.splat %xnumel_1 : i32 -> tensor<1024xi32> loc(#loc74)
        %xmask_5 = arith.cmpi slt, %xindex_4, %xmask : tensor<1024xi32> loc(#loc74)
        %tmp4 = arith.constant 0.000000e+00 : f32 loc(#loc75)
        %tmp4_6 = arith.constant dense<0.000000e+00> : tensor<1xf32> loc(#loc75)
        %2 = tt.splat %out_ptr1 : !tt.ptr<f16> -> tensor<1024x!tt.ptr<f16>> loc(#loc31)
        %3 = tt.addptr %2, %xindex_4 : tensor<1024x!tt.ptr<f16>>, tensor<1024xi32> loc(#loc31)
        %cst = arith.constant dense<0.000000e+00> : tensor<1024xf32> loc(#loc32)
        %4 = arith.truncf %cst : tensor<1024xf32> to tensor<1024xf16> loc(#loc32)
        tt.store %3, %4, %xmask_5 : tensor<1024x!tt.ptr<f16>> loc(#loc32)
      } else {
      } loc(#loc23)
    } loc(#loc6)
    tt.return loc(#loc33)
  } loc(#loc)
  tt.func private @"triton.language.standard.cdiv__i32__(1,)cconstexpr_1024_"(%x: i32 loc("x"(#loc34))) -> i32 attributes {noinline = false} {
    %c1023_i32 = arith.constant 1023 : i32 loc(#loc35)
    %c1023_i32_0 = arith.constant 1023 : i32 loc(#loc35)
    %0 = arith.addi %x, %c1023_i32_0 : i32 loc(#loc35)
    %c1024_i32 = arith.constant 1024 : i32 loc(#loc36)
    %c1024_i32_1 = arith.constant 1024 : i32 loc(#loc36)
    %1 = arith.divsi %0, %c1024_i32_1 : i32 loc(#loc36)
    tt.return %1 : i32 loc(#loc37)
  ^bb1:  // no predecessors
    %2 = ub.poison : i32 loc(#loc38)
    tt.return %2 : i32 loc(#loc38)
  } loc(#loc34)
  tt.func private @triton.language.standard.sigmoid__fp32S1024S__(%x: tensor<1024xf32> loc("x"(#loc39))) -> tensor<1024xf32> attributes {noinline = false} {
    %cst = arith.constant 0.000000e+00 : f32 loc(#loc40)
    %cst_0 = arith.constant dense<0.000000e+00> : tensor<1024xf32> loc(#loc40)
    %0 = arith.subf %cst_0, %x : tensor<1024xf32> loc(#loc40)
    %1 = math.exp %0 : tensor<1024xf32> loc(#loc41)
    %c1_i32 = arith.constant 1 : i32 loc(#loc42)
    %cst_1 = arith.constant 1.000000e+00 : f32 loc(#loc42)
    %cst_2 = arith.constant dense<1.000000e+00> : tensor<1024xf32> loc(#loc42)
    %2 = arith.addf %cst_2, %1 : tensor<1024xf32> loc(#loc42)
    %c1_i32_3 = arith.constant 1 : i32 loc(#loc43)
    %cst_4 = arith.constant 1.000000e+00 : f32 loc(#loc43)
    %cst_5 = arith.constant dense<1.000000e+00> : tensor<1024xf32> loc(#loc43)
    %3 = arith.divf %cst_5, %2 : tensor<1024xf32> loc(#loc43)
    tt.return %3 : tensor<1024xf32> loc(#loc44)
  ^bb1:  // no predecessors
    %4 = ub.poison : tensor<1024xf32> loc(#loc45)
    tt.return %4 : tensor<1024xf32> loc(#loc45)
  } loc(#loc39)
} loc(#loc)
#loc1 = loc("/root/.cache/vllm/torch_compile_cache/torch_aot_compile/61bda05feca29378847c32f031efa5c8dba258f38b0176a06a3e99e41df8ca50/inductor_cache/2m/c2m4hcox3bmzydebnh55if4fawo5knlxsdwokchhp2zalls527nz.py":21:24)
#loc2 = loc("/root/.cache/vllm/torch_compile_cache/torch_aot_compile/61bda05feca29378847c32f031efa5c8dba258f38b0176a06a3e99e41df8ca50/inductor_cache/2m/c2m4hcox3bmzydebnh55if4fawo5knlxsdwokchhp2zalls527nz.py":22:38)
#loc3 = loc("/root/.cache/vllm/torch_compile_cache/torch_aot_compile/61bda05feca29378847c32f031efa5c8dba258f38b0176a06a3e99e41df8ca50/inductor_cache/2m/c2m4hcox3bmzydebnh55if4fawo5knlxsdwokchhp2zalls527nz.py":23:54)
#loc4 = loc("/root/.cache/vllm/torch_compile_cache/torch_aot_compile/61bda05feca29378847c32f031efa5c8dba258f38b0176a06a3e99e41df8ca50/inductor_cache/2m/c2m4hcox3bmzydebnh55if4fawo5knlxsdwokchhp2zalls527nz.py":23:36)
#loc5 = loc("/root/.cache/vllm/torch_compile_cache/torch_aot_compile/61bda05feca29378847c32f031efa5c8dba258f38b0176a06a3e99e41df8ca50/inductor_cache/2m/c2m4hcox3bmzydebnh55if4fawo5knlxsdwokchhp2zalls527nz.py":24:13)
#loc6 = loc("/root/.cache/vllm/torch_compile_cache/torch_aot_compile/61bda05feca29378847c32f031efa5c8dba258f38b0176a06a3e99e41df8ca50/inductor_cache/2m/c2m4hcox3bmzydebnh55if4fawo5knlxsdwokchhp2zalls527nz.py":24:7)
#loc7 = loc("/root/.cache/vllm/torch_compile_cache/torch_aot_compile/61bda05feca29378847c32f031efa5c8dba258f38b0176a06a3e99e41df8ca50/inductor_cache/2m/c2m4hcox3bmzydebnh55if4fawo5knlxsdwokchhp2zalls527nz.py":26:19)
#loc8 = loc("/root/.cache/vllm/torch_compile_cache/torch_aot_compile/61bda05feca29378847c32f031efa5c8dba258f38b0176a06a3e99e41df8ca50/inductor_cache/2m/c2m4hcox3bmzydebnh55if4fawo5knlxsdwokchhp2zalls527nz.py":27:31)
#loc9 = loc("/root/.cache/vllm/torch_compile_cache/torch_aot_compile/61bda05feca29378847c32f031efa5c8dba258f38b0176a06a3e99e41df8ca50/inductor_cache/2m/c2m4hcox3bmzydebnh55if4fawo5knlxsdwokchhp2zalls527nz.py":28:40)
#loc10 = loc("/root/.cache/vllm/torch_compile_cache/torch_aot_compile/61bda05feca29378847c32f031efa5c8dba258f38b0176a06a3e99e41df8ca50/inductor_cache/2m/c2m4hcox3bmzydebnh55if4fawo5knlxsdwokchhp2zalls527nz.py":28:27)
#loc11 = loc("/root/.cache/vllm/torch_compile_cache/torch_aot_compile/61bda05feca29378847c32f031efa5c8dba258f38b0176a06a3e99e41df8ca50/inductor_cache/2m/c2m4hcox3bmzydebnh55if4fawo5knlxsdwokchhp2zalls527nz.py":29:25)
#loc12 = loc("/root/.cache/vllm/torch_compile_cache/torch_aot_compile/61bda05feca29378847c32f031efa5c8dba258f38b0176a06a3e99e41df8ca50/inductor_cache/2m/c2m4hcox3bmzydebnh55if4fawo5knlxsdwokchhp2zalls527nz.py":31:34)
#loc13 = loc("/root/.cache/vllm/torch_compile_cache/torch_aot_compile/61bda05feca29378847c32f031efa5c8dba258f38b0176a06a3e99e41df8ca50/inductor_cache/2m/c2m4hcox3bmzydebnh55if4fawo5knlxsdwokchhp2zalls527nz.py":31:39)
#loc14 = loc("/root/.cache/vllm/torch_compile_cache/torch_aot_compile/61bda05feca29378847c32f031efa5c8dba258f38b0176a06a3e99e41df8ca50/inductor_cache/2m/c2m4hcox3bmzydebnh55if4fawo5knlxsdwokchhp2zalls527nz.py":31:49)
#loc15 = loc("/root/.cache/vllm/torch_compile_cache/torch_aot_compile/61bda05feca29378847c32f031efa5c8dba258f38b0176a06a3e99e41df8ca50/inductor_cache/2m/c2m4hcox3bmzydebnh55if4fawo5knlxsdwokchhp2zalls527nz.py":32:34)
#loc16 = loc("/root/.cache/vllm/torch_compile_cache/torch_aot_compile/61bda05feca29378847c32f031efa5c8dba258f38b0176a06a3e99e41df8ca50/inductor_cache/2m/c2m4hcox3bmzydebnh55if4fawo5knlxsdwokchhp2zalls527nz.py":32:39)
#loc17 = loc("/root/.cache/vllm/torch_compile_cache/torch_aot_compile/61bda05feca29378847c32f031efa5c8dba258f38b0176a06a3e99e41df8ca50/inductor_cache/2m/c2m4hcox3bmzydebnh55if4fawo5knlxsdwokchhp2zalls527nz.py":32:49)
#loc18 = loc("/root/.cache/vllm/torch_compile_cache/torch_aot_compile/61bda05feca29378847c32f031efa5c8dba258f38b0176a06a3e99e41df8ca50/inductor_cache/2m/c2m4hcox3bmzydebnh55if4fawo5knlxsdwokchhp2zalls527nz.py":33:26)
#loc19 = loc("/root/.cache/vllm/torch_compile_cache/torch_aot_compile/61bda05feca29378847c32f031efa5c8dba258f38b0176a06a3e99e41df8ca50/inductor_cache/2m/c2m4hcox3bmzydebnh55if4fawo5knlxsdwokchhp2zalls527nz.py":34:22)
#loc20 = loc("/root/.cache/vllm/torch_compile_cache/torch_aot_compile/61bda05feca29378847c32f031efa5c8dba258f38b0176a06a3e99e41df8ca50/inductor_cache/2m/c2m4hcox3bmzydebnh55if4fawo5knlxsdwokchhp2zalls527nz.py":35:29)
#loc21 = loc("/root/.cache/vllm/torch_compile_cache/torch_aot_compile/61bda05feca29378847c32f031efa5c8dba258f38b0176a06a3e99e41df8ca50/inductor_cache/2m/c2m4hcox3bmzydebnh55if4fawo5knlxsdwokchhp2zalls527nz.py":35:40)
#loc22 = loc("/root/.cache/vllm/torch_compile_cache/torch_aot_compile/61bda05feca29378847c32f031efa5c8dba258f38b0176a06a3e99e41df8ca50/inductor_cache/2m/c2m4hcox3bmzydebnh55if4fawo5knlxsdwokchhp2zalls527nz.py":36:15)
#loc23 = loc("/root/.cache/vllm/torch_compile_cache/torch_aot_compile/61bda05feca29378847c32f031efa5c8dba258f38b0176a06a3e99e41df8ca50/inductor_cache/2m/c2m4hcox3bmzydebnh55if4fawo5knlxsdwokchhp2zalls527nz.py":36:9)
#loc24 = loc("/root/.cache/vllm/torch_compile_cache/torch_aot_compile/61bda05feca29378847c32f031efa5c8dba258f38b0176a06a3e99e41df8ca50/inductor_cache/2m/c2m4hcox3bmzydebnh55if4fawo5knlxsdwokchhp2zalls527nz.py":37:27)
#loc25 = loc("/root/.cache/vllm/torch_compile_cache/torch_aot_compile/61bda05feca29378847c32f031efa5c8dba258f38b0176a06a3e99e41df8ca50/inductor_cache/2m/c2m4hcox3bmzydebnh55if4fawo5knlxsdwokchhp2zalls527nz.py":38:19)
#loc26 = loc("/root/.cache/vllm/torch_compile_cache/torch_aot_compile/61bda05feca29378847c32f031efa5c8dba258f38b0176a06a3e99e41df8ca50/inductor_cache/2m/c2m4hcox3bmzydebnh55if4fawo5knlxsdwokchhp2zalls527nz.py":39:31)
#loc27 = loc("/root/.cache/vllm/torch_compile_cache/torch_aot_compile/61bda05feca29378847c32f031efa5c8dba258f38b0176a06a3e99e41df8ca50/inductor_cache/2m/c2m4hcox3bmzydebnh55if4fawo5knlxsdwokchhp2zalls527nz.py":40:40)
#loc28 = loc("/root/.cache/vllm/torch_compile_cache/torch_aot_compile/61bda05feca29378847c32f031efa5c8dba258f38b0176a06a3e99e41df8ca50/inductor_cache/2m/c2m4hcox3bmzydebnh55if4fawo5knlxsdwokchhp2zalls527nz.py":40:27)
#loc29 = loc("/root/.cache/vllm/torch_compile_cache/torch_aot_compile/61bda05feca29378847c32f031efa5c8dba258f38b0176a06a3e99e41df8ca50/inductor_cache/2m/c2m4hcox3bmzydebnh55if4fawo5knlxsdwokchhp2zalls527nz.py":41:25)
#loc30 = loc("/root/.cache/vllm/torch_compile_cache/torch_aot_compile/61bda05feca29378847c32f031efa5c8dba258f38b0176a06a3e99e41df8ca50/inductor_cache/2m/c2m4hcox3bmzydebnh55if4fawo5knlxsdwokchhp2zalls527nz.py":43:33)
#loc31 = loc("/root/.cache/vllm/torch_compile_cache/torch_aot_compile/61bda05feca29378847c32f031efa5c8dba258f38b0176a06a3e99e41df8ca50/inductor_cache/2m/c2m4hcox3bmzydebnh55if4fawo5knlxsdwokchhp2zalls527nz.py":44:29)
#loc32 = loc("/root/.cache/vllm/torch_compile_cache/torch_aot_compile/61bda05feca29378847c32f031efa5c8dba258f38b0176a06a3e99e41df8ca50/inductor_cache/2m/c2m4hcox3bmzydebnh55if4fawo5knlxsdwokchhp2zalls527nz.py":44:40)
#loc33 = loc("/root/.cache/vllm/torch_compile_cache/torch_aot_compile/61bda05feca29378847c32f031efa5c8dba258f38b0176a06a3e99e41df8ca50/inductor_cache/2m/c2m4hcox3bmzydebnh55if4fawo5knlxsdwokchhp2zalls527nz.py":24:4)
#loc35 = loc("/usr/local/lib/python3.12/dist-packages/triton/language/standard.py":43:17)
#loc36 = loc("/usr/local/lib/python3.12/dist-packages/triton/language/standard.py":43:30)
#loc37 = loc("/usr/local/lib/python3.12/dist-packages/triton/language/standard.py":43:11)
#loc38 = loc("/usr/local/lib/python3.12/dist-packages/triton/language/standard.py":43:4)
#loc40 = loc("/usr/local/lib/python3.12/dist-packages/triton/language/standard.py":50:30)
#loc41 = loc("/usr/local/lib/python3.12/dist-packages/triton/language/standard.py":50:29)
#loc42 = loc("/usr/local/lib/python3.12/dist-packages/triton/language/standard.py":50:20)
#loc43 = loc("/usr/local/lib/python3.12/dist-packages/triton/language/standard.py":50:16)
#loc44 = loc("/usr/local/lib/python3.12/dist-packages/triton/language/standard.py":50:11)
#loc45 = loc("/usr/local/lib/python3.12/dist-packages/triton/language/standard.py":50:4)
#loc52 = loc("pid"(#loc1))
#loc53 = loc("num_xblocks_0"(#loc2))
#loc54 = loc("num_xblocks_1"(#loc3))
#loc55 = loc("num_xblocks_1"(#loc4))
#loc56 = loc("r0_numel"(#loc7))
#loc57 = loc("xoffset"(#loc8))
#loc58 = loc("xindex"(#loc9))
#loc59 = loc("xindex"(#loc10))
#loc60 = loc("xmask"(#loc11))
#loc61 = loc("tmp0"(#loc12))
#loc62 = loc("tmp0"(#loc13))
#loc63 = loc("tmp0"(#loc14))
#loc64 = loc("tmp1"(#loc15))
#loc65 = loc("tmp1"(#loc16))
#loc66 = loc("tmp1"(#loc17))
#loc67 = loc("tmp2"(#loc18))
#loc68 = loc("tmp3"(#loc19))
#loc69 = loc("pid_offset"(#loc24))
#loc70 = loc("r0_numel"(#loc25))
#loc71 = loc("xoffset"(#loc26))
#loc72 = loc("xindex"(#loc27))
#loc73 = loc("xindex"(#loc28))
#loc74 = loc("xmask"(#loc29))
#loc75 = loc("tmp4"(#loc30))
