#loc = loc("/usr/local/lib/python3.12/dist-packages/vllm/model_executor/layers/fla/ops/fused_gdn_prefill_post_conv.py":20:0)
#loc1 = loc(unknown)
#loc32 = loc("/usr/local/lib/python3.12/dist-packages/vllm/model_executor/layers/fla/ops/fused_gdn_prefill_post_conv.py":85:30)
#loc40 = loc("/usr/local/lib/python3.12/dist-packages/vllm/model_executor/layers/fla/ops/fused_gdn_prefill_post_conv.py":89:30)
#loc121 = loc("mixed_qkv_ptr"(#loc))
#loc122 = loc("a_ptr"(#loc))
#loc123 = loc("b_ptr"(#loc))
#loc124 = loc("A_log_ptr"(#loc))
#loc125 = loc("dt_bias_ptr"(#loc))
#loc126 = loc("q_ptr"(#loc))
#loc127 = loc("k_ptr"(#loc))
#loc128 = loc("v_ptr"(#loc))
#loc129 = loc("g_ptr"(#loc))
#loc130 = loc("beta_ptr"(#loc))
#loc131 = loc("stride_x_tok"(#loc))
#loc132 = loc("stride_a_tok"(#loc))
#loc133 = loc("stride_b_tok"(#loc))
#loc134 = loc("stride_q_tok"(#loc))
#loc135 = loc("stride_k_tok"(#loc))
#loc136 = loc("stride_v_tok"(#loc))
#loc137 = loc("L"(#loc))
#loc165 = loc("q_sq_sum"(#loc32))
#loc172 = loc("k_sq_sum"(#loc40))
#loc238 = loc(callsite(#loc1 at #loc165))
#loc240 = loc(callsite(#loc1 at #loc172))
module {
  tt.func public @_fused_post_conv_kernel(%mixed_qkv_ptr: !tt.ptr<f16> {tt.divisibility = 16 : i32} loc("mixed_qkv_ptr"(#loc)), %a_ptr: !tt.ptr<f16> {tt.divisibility = 16 : i32} loc("a_ptr"(#loc)), %b_ptr: !tt.ptr<f16> {tt.divisibility = 16 : i32} loc("b_ptr"(#loc)), %A_log_ptr: !tt.ptr<f32> {tt.divisibility = 16 : i32} loc("A_log_ptr"(#loc)), %dt_bias_ptr: !tt.ptr<f16> {tt.divisibility = 16 : i32} loc("dt_bias_ptr"(#loc)), %q_ptr: !tt.ptr<f16> {tt.divisibility = 16 : i32} loc("q_ptr"(#loc)), %k_ptr: !tt.ptr<f16> {tt.divisibility = 16 : i32} loc("k_ptr"(#loc)), %v_ptr: !tt.ptr<f16> {tt.divisibility = 16 : i32} loc("v_ptr"(#loc)), %g_ptr: !tt.ptr<f32> {tt.divisibility = 16 : i32} loc("g_ptr"(#loc)), %beta_ptr: !tt.ptr<f32> {tt.divisibility = 16 : i32} loc("beta_ptr"(#loc)), %stride_x_tok: i32 {tt.divisibility = 16 : i32} loc("stride_x_tok"(#loc)), %stride_a_tok: i32 {tt.divisibility = 16 : i32} loc("stride_a_tok"(#loc)), %stride_b_tok: i32 {tt.divisibility = 16 : i32} loc("stride_b_tok"(#loc)), %stride_q_tok: i32 {tt.divisibility = 16 : i32} loc("stride_q_tok"(#loc)), %stride_k_tok: i32 {tt.divisibility = 16 : i32} loc("stride_k_tok"(#loc)), %stride_v_tok: i32 {tt.divisibility = 16 : i32} loc("stride_v_tok"(#loc)), %L: i32 {tt.divisibility = 16 : i32} loc("L"(#loc))) attributes {noinline = false} {
    %cst = arith.constant dense<0.000000e+00> : tensor<16xf16> loc(#loc1)
    %cst_0 = arith.constant dense<0.000000e+00> : tensor<16x128xf16> loc(#loc1)
    %cst_1 = arith.constant dense<16> : tensor<16xi32> loc(#loc1)
    %cst_2 = arith.constant dense<2.000000e+01> : tensor<16xf32> loc(#loc1)
    %cst_3 = arith.constant dense<0.000000e+00> : tensor<16xf32> loc(#loc1)
    %cst_4 = arith.constant 0.000000e+00 : f32 loc(#loc1)
    %cst_5 = arith.constant dense<2048> : tensor<16x1xi32> loc(#loc1)
    %cst_6 = arith.constant dense<1.000000e+00> : tensor<16xf32> loc(#loc1)
    %cst_7 = arith.constant dense<9.99999997E-7> : tensor<16xf32> loc(#loc1)
    %cst_8 = arith.constant dense<1024> : tensor<16x1xi32> loc(#loc1)
    %cst_9 = arith.constant dense<128> : tensor<128xi32> loc(#loc1)
    %c128_i32 = arith.constant 128 : i32 loc(#loc1)
    %c8_i32 = arith.constant 8 : i32 loc(#loc1)
    %c16_i32 = arith.constant 16 : i32 loc(#loc1)
    %i_tb = tt.get_program_id x : i32 loc(#loc138)
    %i_head = tt.get_program_id y : i32 loc(#loc139)
    %offs_t = arith.muli %i_tb, %c16_i32 : i32 loc(#loc140)
    %offs_t_10 = tt.make_range {end = 16 : i32, start = 0 : i32} : tensor<16xi32> loc(#loc141)
    %offs_t_11 = tt.splat %offs_t : i32 -> tensor<16xi32> loc(#loc142)
    %offs_t_12 = arith.addi %offs_t_11, %offs_t_10 : tensor<16xi32> loc(#loc142)
    %mask_t = tt.splat %L : i32 -> tensor<16xi32> loc(#loc143)
    %mask_t_13 = arith.cmpi slt, %offs_t_12, %mask_t : tensor<16xi32> loc(#loc143)
    %0 = arith.cmpi slt, %i_head, %c8_i32 : i32 loc(#loc8)
    scf.if %0 {
      %offs_k = tt.make_range {end = 128 : i32, start = 0 : i32} : tensor<128xi32> loc(#loc144)
      %mask_k = arith.cmpi slt, %offs_k, %cst_9 : tensor<128xi32> loc(#loc145)
      %mask_2d = tt.expand_dims %mask_t_13 {axis = 1 : i32} : tensor<16xi1> -> tensor<16x1xi1> loc(#loc146)
      %mask_2d_14 = tt.expand_dims %mask_k {axis = 0 : i32} : tensor<128xi1> -> tensor<1x128xi1> loc(#loc147)
      %mask_2d_15 = tt.broadcast %mask_2d : tensor<16x1xi1> -> tensor<16x128xi1> loc(#loc148)
      %mask_2d_16 = tt.broadcast %mask_2d_14 : tensor<1x128xi1> -> tensor<16x128xi1> loc(#loc148)
      %mask_2d_17 = arith.andi %mask_2d_15, %mask_2d_16 : tensor<16x128xi1> loc(#loc236)
      %q_offsets = tt.expand_dims %offs_t_12 {axis = 1 : i32} : tensor<16xi32> -> tensor<16x1xi32> loc(#loc149)
      %q_offsets_18 = tt.splat %stride_x_tok : i32 -> tensor<16x1xi32> loc(#loc150)
      %q_offsets_19 = arith.muli %q_offsets, %q_offsets_18 : tensor<16x1xi32> loc(#loc150)
      %q_offsets_20 = arith.muli %i_head, %c128_i32 : i32 loc(#loc151)
      %q_offsets_21 = tt.splat %q_offsets_20 : i32 -> tensor<16x1xi32> loc(#loc152)
      %q_offsets_22 = arith.addi %q_offsets_19, %q_offsets_21 : tensor<16x1xi32> loc(#loc152)
      %q_offsets_23 = tt.expand_dims %offs_k {axis = 0 : i32} : tensor<128xi32> -> tensor<1x128xi32> loc(#loc153)
      %q_offsets_24 = tt.broadcast %q_offsets_22 : tensor<16x1xi32> -> tensor<16x128xi32> loc(#loc154)
      %q_offsets_25 = tt.broadcast %q_offsets_23 : tensor<1x128xi32> -> tensor<16x128xi32> loc(#loc154)
      %q_offsets_26 = arith.addi %q_offsets_24, %q_offsets_25 : tensor<16x128xi32> loc(#loc154)
      %q_f32 = tt.splat %mixed_qkv_ptr : !tt.ptr<f16> -> tensor<16x128x!tt.ptr<f16>> loc(#loc155)
      %q_f32_27 = tt.addptr %q_f32, %q_offsets_26 : tensor<16x128x!tt.ptr<f16>>, tensor<16x128xi32> loc(#loc155)
      %q_f32_28 = tt.load %q_f32_27, %mask_2d_17, %cst_0 : tensor<16x128x!tt.ptr<f16>> loc(#loc156)
      %q_f32_29 = arith.extf %q_f32_28 : tensor<16x128xf16> to tensor<16x128xf32> loc(#loc157)
      %k_offsets = arith.addi %q_offsets_19, %cst_8 : tensor<16x1xi32> loc(#loc158)
      %k_offsets_30 = arith.addi %k_offsets, %q_offsets_21 : tensor<16x1xi32> loc(#loc159)
      %k_offsets_31 = tt.broadcast %k_offsets_30 : tensor<16x1xi32> -> tensor<16x128xi32> loc(#loc160)
      %k_offsets_32 = arith.addi %k_offsets_31, %q_offsets_25 : tensor<16x128xi32> loc(#loc160)
      %k_f32 = tt.addptr %q_f32, %k_offsets_32 : tensor<16x128x!tt.ptr<f16>>, tensor<16x128xi32> loc(#loc161)
      %k_f32_33 = tt.load %k_f32, %mask_2d_17, %cst_0 : tensor<16x128x!tt.ptr<f16>> loc(#loc162)
      %k_f32_34 = arith.extf %k_f32_33 : tensor<16x128xf16> to tensor<16x128xf32> loc(#loc163)
      %q_sq_sum = arith.mulf %q_f32_29, %q_f32_29 : tensor<16x128xf32> loc(#loc164)
      %q_sq_sum_35 = "tt.reduce"(%q_sq_sum) <{axis = 1 : i32}> ({
      ^bb0(%q_sq_sum_55: f32 loc(callsite(#loc1 at #loc165)), %q_sq_sum_56: f32 loc(callsite(#loc1 at #loc165))):
        %q_sq_sum_57 = arith.addf %q_sq_sum_55, %q_sq_sum_56 : f32 loc(#loc246)
        tt.reduce.return %q_sq_sum_57 : f32 loc(#loc237)
      }) : (tensor<16x128xf32>) -> tensor<16xf32> loc(#loc237)
      %q_inv = arith.addf %q_sq_sum_35, %cst_7 : tensor<16xf32> loc(#loc166)
      %q_inv_36 = math.sqrt %q_inv : tensor<16xf32> loc(#loc167)
      %q_inv_37 = arith.divf %cst_6, %q_inv_36 : tensor<16xf32> loc(#loc168)
      %q_f32_38 = tt.expand_dims %q_inv_37 {axis = 1 : i32} : tensor<16xf32> -> tensor<16x1xf32> loc(#loc169)
      %q_f32_39 = tt.broadcast %q_f32_38 : tensor<16x1xf32> -> tensor<16x128xf32> loc(#loc170)
      %q_f32_40 = arith.mulf %q_f32_29, %q_f32_39 : tensor<16x128xf32> loc(#loc170)
      %k_sq_sum = arith.mulf %k_f32_34, %k_f32_34 : tensor<16x128xf32> loc(#loc171)
      %k_sq_sum_41 = "tt.reduce"(%k_sq_sum) <{axis = 1 : i32}> ({
      ^bb0(%k_sq_sum_55: f32 loc(callsite(#loc1 at #loc172)), %k_sq_sum_56: f32 loc(callsite(#loc1 at #loc172))):
        %k_sq_sum_57 = arith.addf %k_sq_sum_55, %k_sq_sum_56 : f32 loc(#loc247)
        tt.reduce.return %k_sq_sum_57 : f32 loc(#loc239)
      }) : (tensor<16x128xf32>) -> tensor<16xf32> loc(#loc239)
      %k_inv = arith.addf %k_sq_sum_41, %cst_7 : tensor<16xf32> loc(#loc173)
      %k_inv_42 = math.sqrt %k_inv : tensor<16xf32> loc(#loc174)
      %k_inv_43 = arith.divf %cst_6, %k_inv_42 : tensor<16xf32> loc(#loc175)
      %k_f32_44 = tt.expand_dims %k_inv_43 {axis = 1 : i32} : tensor<16xf32> -> tensor<16x1xf32> loc(#loc176)
      %k_f32_45 = tt.broadcast %k_f32_44 : tensor<16x1xf32> -> tensor<16x128xf32> loc(#loc177)
      %k_f32_46 = arith.mulf %k_f32_34, %k_f32_45 : tensor<16x128xf32> loc(#loc177)
      %q_out = tt.splat %stride_q_tok : i32 -> tensor<16x1xi32> loc(#loc178)
      %q_out_47 = arith.muli %q_offsets, %q_out : tensor<16x1xi32> loc(#loc178)
      %q_out_48 = arith.addi %q_out_47, %q_offsets_21 : tensor<16x1xi32> loc(#loc179)
      %q_out_49 = tt.broadcast %q_out_48 : tensor<16x1xi32> -> tensor<16x128xi32> loc(#loc180)
      %q_out_50 = arith.addi %q_out_49, %q_offsets_25 : tensor<16x128xi32> loc(#loc180)
      %1 = tt.splat %q_ptr : !tt.ptr<f16> -> tensor<16x128x!tt.ptr<f16>> loc(#loc49)
      %2 = tt.addptr %1, %q_out_50 : tensor<16x128x!tt.ptr<f16>>, tensor<16x128xi32> loc(#loc49)
      %3 = arith.truncf %q_f32_40 : tensor<16x128xf32> to tensor<16x128xf16> loc(#loc50)
      tt.store %2, %3, %mask_2d_17 : tensor<16x128x!tt.ptr<f16>> loc(#loc51)
      %k_out = tt.splat %stride_k_tok : i32 -> tensor<16x1xi32> loc(#loc181)
      %k_out_51 = arith.muli %q_offsets, %k_out : tensor<16x1xi32> loc(#loc181)
      %k_out_52 = arith.addi %k_out_51, %q_offsets_21 : tensor<16x1xi32> loc(#loc182)
      %k_out_53 = tt.broadcast %k_out_52 : tensor<16x1xi32> -> tensor<16x128xi32> loc(#loc183)
      %k_out_54 = arith.addi %k_out_53, %q_offsets_25 : tensor<16x128xi32> loc(#loc183)
      %4 = tt.splat %k_ptr : !tt.ptr<f16> -> tensor<16x128x!tt.ptr<f16>> loc(#loc55)
      %5 = tt.addptr %4, %k_out_54 : tensor<16x128x!tt.ptr<f16>>, tensor<16x128xi32> loc(#loc55)
      %6 = arith.truncf %k_f32_46 : tensor<16x128xf32> to tensor<16x128xf16> loc(#loc56)
      tt.store %5, %6, %mask_2d_17 : tensor<16x128x!tt.ptr<f16>> loc(#loc57)
    } else {
      %i_hv = arith.subi %i_head, %c8_i32 : i32 loc(#loc184)
      %offs_v = tt.make_range {end = 128 : i32, start = 0 : i32} : tensor<128xi32> loc(#loc185)
      %mask_v = arith.cmpi slt, %offs_v, %cst_9 : tensor<128xi32> loc(#loc186)
      %mask_2d = tt.expand_dims %mask_t_13 {axis = 1 : i32} : tensor<16xi1> -> tensor<16x1xi1> loc(#loc187)
      %mask_2d_14 = tt.expand_dims %mask_v {axis = 0 : i32} : tensor<128xi1> -> tensor<1x128xi1> loc(#loc188)
      %mask_2d_15 = tt.broadcast %mask_2d : tensor<16x1xi1> -> tensor<16x128xi1> loc(#loc189)
      %mask_2d_16 = tt.broadcast %mask_2d_14 : tensor<1x128xi1> -> tensor<16x128xi1> loc(#loc189)
      %mask_2d_17 = arith.andi %mask_2d_15, %mask_2d_16 : tensor<16x128xi1> loc(#loc241)
      %v_offsets = tt.expand_dims %offs_t_12 {axis = 1 : i32} : tensor<16xi32> -> tensor<16x1xi32> loc(#loc190)
      %v_offsets_18 = tt.splat %stride_x_tok : i32 -> tensor<16x1xi32> loc(#loc191)
      %v_offsets_19 = arith.muli %v_offsets, %v_offsets_18 : tensor<16x1xi32> loc(#loc191)
      %v_offsets_20 = arith.addi %v_offsets_19, %cst_5 : tensor<16x1xi32> loc(#loc192)
      %v_offsets_21 = arith.muli %i_hv, %c128_i32 : i32 loc(#loc193)
      %v_offsets_22 = tt.splat %v_offsets_21 : i32 -> tensor<16x1xi32> loc(#loc194)
      %v_offsets_23 = arith.addi %v_offsets_20, %v_offsets_22 : tensor<16x1xi32> loc(#loc194)
      %v_offsets_24 = tt.expand_dims %offs_v {axis = 0 : i32} : tensor<128xi32> -> tensor<1x128xi32> loc(#loc195)
      %v_offsets_25 = tt.broadcast %v_offsets_23 : tensor<16x1xi32> -> tensor<16x128xi32> loc(#loc196)
      %v_offsets_26 = tt.broadcast %v_offsets_24 : tensor<1x128xi32> -> tensor<16x128xi32> loc(#loc196)
      %v_offsets_27 = arith.addi %v_offsets_25, %v_offsets_26 : tensor<16x128xi32> loc(#loc196)
      %v_vals = tt.splat %mixed_qkv_ptr : !tt.ptr<f16> -> tensor<16x128x!tt.ptr<f16>> loc(#loc197)
      %v_vals_28 = tt.addptr %v_vals, %v_offsets_27 : tensor<16x128x!tt.ptr<f16>>, tensor<16x128xi32> loc(#loc197)
      %v_vals_29 = tt.load %v_vals_28, %mask_2d_17, %cst_0 : tensor<16x128x!tt.ptr<f16>> loc(#loc198)
      %v_out = tt.splat %stride_v_tok : i32 -> tensor<16x1xi32> loc(#loc199)
      %v_out_30 = arith.muli %v_offsets, %v_out : tensor<16x1xi32> loc(#loc199)
      %v_out_31 = arith.addi %v_out_30, %v_offsets_22 : tensor<16x1xi32> loc(#loc200)
      %v_out_32 = tt.broadcast %v_out_31 : tensor<16x1xi32> -> tensor<16x128xi32> loc(#loc201)
      %v_out_33 = arith.addi %v_out_32, %v_offsets_26 : tensor<16x128xi32> loc(#loc201)
      %1 = tt.splat %v_ptr : !tt.ptr<f16> -> tensor<16x128x!tt.ptr<f16>> loc(#loc76)
      %2 = tt.addptr %1, %v_out_33 : tensor<16x128x!tt.ptr<f16>>, tensor<16x128xi32> loc(#loc76)
      tt.store %2, %v_vals_29, %mask_2d_17 : tensor<16x128x!tt.ptr<f16>> loc(#loc77)
      %A_log_val = tt.addptr %A_log_ptr, %i_hv : !tt.ptr<f32>, i32 loc(#loc202)
      %A_log_val_34 = tt.load %A_log_val : !tt.ptr<f32> loc(#loc203)
      %dt_bias_val = tt.addptr %dt_bias_ptr, %i_hv : !tt.ptr<f16>, i32 loc(#loc204)
      %dt_bias_val_35 = tt.load %dt_bias_val : !tt.ptr<f16> loc(#loc205)
      %dt_bias_val_36 = arith.extf %dt_bias_val_35 : f16 to f32 loc(#loc206)
      %a_offsets = tt.splat %stride_a_tok : i32 -> tensor<16xi32> loc(#loc207)
      %a_offsets_37 = arith.muli %offs_t_12, %a_offsets : tensor<16xi32> loc(#loc207)
      %a_offsets_38 = tt.splat %i_hv : i32 -> tensor<16xi32> loc(#loc208)
      %a_offsets_39 = arith.addi %a_offsets_37, %a_offsets_38 : tensor<16xi32> loc(#loc208)
      %b_offsets = tt.splat %stride_b_tok : i32 -> tensor<16xi32> loc(#loc209)
      %b_offsets_40 = arith.muli %offs_t_12, %b_offsets : tensor<16xi32> loc(#loc209)
      %b_offsets_41 = arith.addi %b_offsets_40, %a_offsets_38 : tensor<16xi32> loc(#loc210)
      %a_vals = tt.splat %a_ptr : !tt.ptr<f16> -> tensor<16x!tt.ptr<f16>> loc(#loc211)
      %a_vals_42 = tt.addptr %a_vals, %a_offsets_39 : tensor<16x!tt.ptr<f16>>, tensor<16xi32> loc(#loc211)
      %a_vals_43 = tt.load %a_vals_42, %mask_t_13, %cst : tensor<16x!tt.ptr<f16>> loc(#loc212)
      %a_vals_44 = arith.extf %a_vals_43 : tensor<16xf16> to tensor<16xf32> loc(#loc213)
      %b_vals = tt.splat %b_ptr : !tt.ptr<f16> -> tensor<16x!tt.ptr<f16>> loc(#loc214)
      %b_vals_45 = tt.addptr %b_vals, %b_offsets_41 : tensor<16x!tt.ptr<f16>>, tensor<16xi32> loc(#loc214)
      %b_vals_46 = tt.load %b_vals_45, %mask_t_13, %cst : tensor<16x!tt.ptr<f16>> loc(#loc215)
      %b_vals_47 = arith.extf %b_vals_46 : tensor<16xf16> to tensor<16xf32> loc(#loc216)
      %x = tt.splat %dt_bias_val_36 : f32 -> tensor<16xf32> loc(#loc217)
      %x_48 = arith.addf %a_vals_44, %x : tensor<16xf32> loc(#loc217)
      %sp = arith.cmpf ogt, %x_48, %cst_3 : tensor<16xf32> loc(#loc218)
      %sp_49 = arith.subf %cst_3, %x_48 : tensor<16xf32> loc(#loc219)
      %sp_50 = math.exp %sp_49 : tensor<16xf32> loc(#loc220)
      %sp_51 = arith.addf %sp_50, %cst_6 : tensor<16xf32> loc(#loc221)
      %sp_52 = math.log %sp_51 : tensor<16xf32> loc(#loc222)
      %sp_53 = arith.addf %x_48, %sp_52 : tensor<16xf32> loc(#loc223)
      %sp_54 = math.exp %x_48 : tensor<16xf32> loc(#loc224)
      %sp_55 = arith.addf %sp_54, %cst_6 : tensor<16xf32> loc(#loc225)
      %sp_56 = math.log %sp_55 : tensor<16xf32> loc(#loc226)
      %sp_57 = arith.select %sp, %sp_53, %sp_56 : tensor<16xi1>, tensor<16xf32> loc(#loc227)
      %sp_58 = arith.cmpf ole, %x_48, %cst_2 : tensor<16xf32> loc(#loc228)
      %sp_59 = arith.select %sp_58, %sp_57, %x_48 : tensor<16xi1>, tensor<16xf32> loc(#loc229)
      %g_vals = math.exp %A_log_val_34 : f32 loc(#loc230)
      %g_vals_60 = arith.subf %cst_4, %g_vals : f32 loc(#loc231)
      %g_vals_61 = tt.splat %g_vals_60 : f32 -> tensor<16xf32> loc(#loc232)
      %g_vals_62 = arith.mulf %g_vals_61, %sp_59 : tensor<16xf32> loc(#loc232)
      %beta_vals = arith.subf %cst_3, %b_vals_47 : tensor<16xf32> loc(#loc242)
      %beta_vals_63 = math.exp %beta_vals : tensor<16xf32> loc(#loc243)
      %beta_vals_64 = arith.addf %beta_vals_63, %cst_6 : tensor<16xf32> loc(#loc244)
      %beta_vals_65 = arith.divf %cst_6, %beta_vals_64 : tensor<16xf32> loc(#loc245)
      %gb_offsets = arith.muli %offs_t_12, %cst_1 : tensor<16xi32> loc(#loc234)
      %gb_offsets_66 = arith.addi %gb_offsets, %a_offsets_38 : tensor<16xi32> loc(#loc235)
      %3 = tt.splat %g_ptr : !tt.ptr<f32> -> tensor<16x!tt.ptr<f32>> loc(#loc116)
      %4 = tt.addptr %3, %gb_offsets_66 : tensor<16x!tt.ptr<f32>>, tensor<16xi32> loc(#loc116)
      tt.store %4, %g_vals_62, %mask_t_13 : tensor<16x!tt.ptr<f32>> loc(#loc117)
      %5 = tt.splat %beta_ptr : !tt.ptr<f32> -> tensor<16x!tt.ptr<f32>> loc(#loc118)
      %6 = tt.addptr %5, %gb_offsets_66 : tensor<16x!tt.ptr<f32>>, tensor<16xi32> loc(#loc118)
      tt.store %6, %beta_vals_65, %mask_t_13 : tensor<16x!tt.ptr<f32>> loc(#loc119)
    } loc(#loc9)
    tt.return loc(#loc120)
  } loc(#loc)
} loc(#loc)
#loc2 = loc("/usr/local/lib/python3.12/dist-packages/vllm/model_executor/layers/fla/ops/fused_gdn_prefill_post_conv.py":61:25)
#loc3 = loc("/usr/local/lib/python3.12/dist-packages/vllm/model_executor/layers/fla/ops/fused_gdn_prefill_post_conv.py":62:27)
#loc4 = loc("/usr/local/lib/python3.12/dist-packages/vllm/model_executor/layers/fla/ops/fused_gdn_prefill_post_conv.py":66:20)
#loc5 = loc("/usr/local/lib/python3.12/dist-packages/vllm/model_executor/layers/fla/ops/fused_gdn_prefill_post_conv.py":66:43)
#loc6 = loc("/usr/local/lib/python3.12/dist-packages/vllm/model_executor/layers/fla/ops/fused_gdn_prefill_post_conv.py":66:30)
#loc7 = loc("/usr/local/lib/python3.12/dist-packages/vllm/model_executor/layers/fla/ops/fused_gdn_prefill_post_conv.py":67:22)
#loc8 = loc("/usr/local/lib/python3.12/dist-packages/vllm/model_executor/layers/fla/ops/fused_gdn_prefill_post_conv.py":69:16)
#loc9 = loc("/usr/local/lib/python3.12/dist-packages/vllm/model_executor/layers/fla/ops/fused_gdn_prefill_post_conv.py":69:7)
#loc10 = loc("/usr/local/lib/python3.12/dist-packages/vllm/model_executor/layers/fla/ops/fused_gdn_prefill_post_conv.py":72:30)
#loc11 = loc("/usr/local/lib/python3.12/dist-packages/vllm/model_executor/layers/fla/ops/fused_gdn_prefill_post_conv.py":73:26)
#loc12 = loc("/usr/local/lib/python3.12/dist-packages/vllm/model_executor/layers/fla/ops/fused_gdn_prefill_post_conv.py":74:25)
#loc13 = loc("/usr/local/lib/python3.12/dist-packages/vllm/model_executor/layers/fla/ops/fused_gdn_prefill_post_conv.py":74:43)
#loc14 = loc("/usr/local/lib/python3.12/dist-packages/vllm/model_executor/layers/fla/ops/fused_gdn_prefill_post_conv.py":74:36)
#loc15 = loc("/usr/local/lib/python3.12/dist-packages/vllm/model_executor/layers/fla/ops/fused_gdn_prefill_post_conv.py":77:27)
#loc16 = loc("/usr/local/lib/python3.12/dist-packages/vllm/model_executor/layers/fla/ops/fused_gdn_prefill_post_conv.py":77:38)
#loc17 = loc("/usr/local/lib/python3.12/dist-packages/vllm/model_executor/layers/fla/ops/fused_gdn_prefill_post_conv.py":77:59)
#loc18 = loc("/usr/local/lib/python3.12/dist-packages/vllm/model_executor/layers/fla/ops/fused_gdn_prefill_post_conv.py":77:53)
#loc19 = loc("/usr/local/lib/python3.12/dist-packages/vllm/model_executor/layers/fla/ops/fused_gdn_prefill_post_conv.py":77:70)
#loc20 = loc("/usr/local/lib/python3.12/dist-packages/vllm/model_executor/layers/fla/ops/fused_gdn_prefill_post_conv.py":77:63)
#loc21 = loc("/usr/local/lib/python3.12/dist-packages/vllm/model_executor/layers/fla/ops/fused_gdn_prefill_post_conv.py":78:40)
#loc22 = loc("/usr/local/lib/python3.12/dist-packages/vllm/model_executor/layers/fla/ops/fused_gdn_prefill_post_conv.py":78:24)
#loc23 = loc("/usr/local/lib/python3.12/dist-packages/vllm/model_executor/layers/fla/ops/fused_gdn_prefill_post_conv.py":78:77)
#loc24 = loc("/usr/local/lib/python3.12/dist-packages/vllm/model_executor/layers/fla/ops/fused_gdn_prefill_post_conv.py":81:53)
#loc25 = loc("/usr/local/lib/python3.12/dist-packages/vllm/model_executor/layers/fla/ops/fused_gdn_prefill_post_conv.py":81:58)
#loc26 = loc("/usr/local/lib/python3.12/dist-packages/vllm/model_executor/layers/fla/ops/fused_gdn_prefill_post_conv.py":81:68)
#loc27 = loc("/usr/local/lib/python3.12/dist-packages/vllm/model_executor/layers/fla/ops/fused_gdn_prefill_post_conv.py":82:40)
#loc28 = loc("/usr/local/lib/python3.12/dist-packages/vllm/model_executor/layers/fla/ops/fused_gdn_prefill_post_conv.py":82:24)
#loc29 = loc("/usr/local/lib/python3.12/dist-packages/vllm/model_executor/layers/fla/ops/fused_gdn_prefill_post_conv.py":82:77)
#loc30 = loc("/usr/local/lib/python3.12/dist-packages/vllm/model_executor/layers/fla/ops/fused_gdn_prefill_post_conv.py":85:38)
#loc31 = loc("/usr/local/lib/python3.12/dist-packages/triton/language/standard.py":293:36)
#loc33 = loc("/usr/local/lib/python3.12/dist-packages/triton/language/standard.py":263:15)
#loc34 = loc("/usr/local/lib/python3.12/dist-packages/vllm/model_executor/layers/fla/ops/fused_gdn_prefill_post_conv.py":86:45)
#loc35 = loc("/usr/local/lib/python3.12/dist-packages/vllm/model_executor/layers/fla/ops/fused_gdn_prefill_post_conv.py":86:34)
#loc36 = loc("/usr/local/lib/python3.12/dist-packages/vllm/model_executor/layers/fla/ops/fused_gdn_prefill_post_conv.py":86:26)
#loc37 = loc("/usr/local/lib/python3.12/dist-packages/vllm/model_executor/layers/fla/ops/fused_gdn_prefill_post_conv.py":87:34)
#loc38 = loc("/usr/local/lib/python3.12/dist-packages/vllm/model_executor/layers/fla/ops/fused_gdn_prefill_post_conv.py":87:28)
#loc39 = loc("/usr/local/lib/python3.12/dist-packages/vllm/model_executor/layers/fla/ops/fused_gdn_prefill_post_conv.py":89:38)
#loc41 = loc("/usr/local/lib/python3.12/dist-packages/vllm/model_executor/layers/fla/ops/fused_gdn_prefill_post_conv.py":90:45)
#loc42 = loc("/usr/local/lib/python3.12/dist-packages/vllm/model_executor/layers/fla/ops/fused_gdn_prefill_post_conv.py":90:34)
#loc43 = loc("/usr/local/lib/python3.12/dist-packages/vllm/model_executor/layers/fla/ops/fused_gdn_prefill_post_conv.py":90:26)
#loc44 = loc("/usr/local/lib/python3.12/dist-packages/vllm/model_executor/layers/fla/ops/fused_gdn_prefill_post_conv.py":91:34)
#loc45 = loc("/usr/local/lib/python3.12/dist-packages/vllm/model_executor/layers/fla/ops/fused_gdn_prefill_post_conv.py":91:28)
#loc46 = loc("/usr/local/lib/python3.12/dist-packages/vllm/model_executor/layers/fla/ops/fused_gdn_prefill_post_conv.py":94:34)
#loc47 = loc("/usr/local/lib/python3.12/dist-packages/vllm/model_executor/layers/fla/ops/fused_gdn_prefill_post_conv.py":94:49)
#loc48 = loc("/usr/local/lib/python3.12/dist-packages/vllm/model_executor/layers/fla/ops/fused_gdn_prefill_post_conv.py":94:59)
#loc49 = loc("/usr/local/lib/python3.12/dist-packages/vllm/model_executor/layers/fla/ops/fused_gdn_prefill_post_conv.py":96:20)
#loc50 = loc("/usr/local/lib/python3.12/dist-packages/vllm/model_executor/layers/fla/ops/fused_gdn_prefill_post_conv.py":97:21)
#loc51 = loc("/usr/local/lib/python3.12/dist-packages/vllm/model_executor/layers/fla/ops/fused_gdn_prefill_post_conv.py":97:12)
#loc52 = loc("/usr/local/lib/python3.12/dist-packages/vllm/model_executor/layers/fla/ops/fused_gdn_prefill_post_conv.py":102:34)
#loc53 = loc("/usr/local/lib/python3.12/dist-packages/vllm/model_executor/layers/fla/ops/fused_gdn_prefill_post_conv.py":102:49)
#loc54 = loc("/usr/local/lib/python3.12/dist-packages/vllm/model_executor/layers/fla/ops/fused_gdn_prefill_post_conv.py":102:59)
#loc55 = loc("/usr/local/lib/python3.12/dist-packages/vllm/model_executor/layers/fla/ops/fused_gdn_prefill_post_conv.py":104:20)
#loc56 = loc("/usr/local/lib/python3.12/dist-packages/vllm/model_executor/layers/fla/ops/fused_gdn_prefill_post_conv.py":105:21)
#loc57 = loc("/usr/local/lib/python3.12/dist-packages/vllm/model_executor/layers/fla/ops/fused_gdn_prefill_post_conv.py":105:12)
#loc58 = loc("/usr/local/lib/python3.12/dist-packages/vllm/model_executor/layers/fla/ops/fused_gdn_prefill_post_conv.py":110:24)
#loc59 = loc("/usr/local/lib/python3.12/dist-packages/vllm/model_executor/layers/fla/ops/fused_gdn_prefill_post_conv.py":111:30)
#loc60 = loc("/usr/local/lib/python3.12/dist-packages/vllm/model_executor/layers/fla/ops/fused_gdn_prefill_post_conv.py":112:26)
#loc61 = loc("/usr/local/lib/python3.12/dist-packages/vllm/model_executor/layers/fla/ops/fused_gdn_prefill_post_conv.py":113:25)
#loc62 = loc("/usr/local/lib/python3.12/dist-packages/vllm/model_executor/layers/fla/ops/fused_gdn_prefill_post_conv.py":113:43)
#loc63 = loc("/usr/local/lib/python3.12/dist-packages/vllm/model_executor/layers/fla/ops/fused_gdn_prefill_post_conv.py":113:36)
#loc64 = loc("/usr/local/lib/python3.12/dist-packages/vllm/model_executor/layers/fla/ops/fused_gdn_prefill_post_conv.py":119:19)
#loc65 = loc("/usr/local/lib/python3.12/dist-packages/vllm/model_executor/layers/fla/ops/fused_gdn_prefill_post_conv.py":119:30)
#loc66 = loc("/usr/local/lib/python3.12/dist-packages/vllm/model_executor/layers/fla/ops/fused_gdn_prefill_post_conv.py":119:45)
#loc67 = loc("/usr/local/lib/python3.12/dist-packages/vllm/model_executor/layers/fla/ops/fused_gdn_prefill_post_conv.py":119:63)
#loc68 = loc("/usr/local/lib/python3.12/dist-packages/vllm/model_executor/layers/fla/ops/fused_gdn_prefill_post_conv.py":119:56)
#loc69 = loc("/usr/local/lib/python3.12/dist-packages/vllm/model_executor/layers/fla/ops/fused_gdn_prefill_post_conv.py":119:74)
#loc70 = loc("/usr/local/lib/python3.12/dist-packages/vllm/model_executor/layers/fla/ops/fused_gdn_prefill_post_conv.py":119:67)
#loc71 = loc("/usr/local/lib/python3.12/dist-packages/vllm/model_executor/layers/fla/ops/fused_gdn_prefill_post_conv.py":121:41)
#loc72 = loc("/usr/local/lib/python3.12/dist-packages/vllm/model_executor/layers/fla/ops/fused_gdn_prefill_post_conv.py":121:25)
#loc73 = loc("/usr/local/lib/python3.12/dist-packages/vllm/model_executor/layers/fla/ops/fused_gdn_prefill_post_conv.py":124:34)
#loc74 = loc("/usr/local/lib/python3.12/dist-packages/vllm/model_executor/layers/fla/ops/fused_gdn_prefill_post_conv.py":124:49)
#loc75 = loc("/usr/local/lib/python3.12/dist-packages/vllm/model_executor/layers/fla/ops/fused_gdn_prefill_post_conv.py":124:60)
#loc76 = loc("/usr/local/lib/python3.12/dist-packages/vllm/model_executor/layers/fla/ops/fused_gdn_prefill_post_conv.py":125:25)
#loc77 = loc("/usr/local/lib/python3.12/dist-packages/vllm/model_executor/layers/fla/ops/fused_gdn_prefill_post_conv.py":125:32)
#loc78 = loc("/usr/local/lib/python3.12/dist-packages/vllm/model_executor/layers/fla/ops/fused_gdn_prefill_post_conv.py":128:40)
#loc79 = loc("/usr/local/lib/python3.12/dist-packages/vllm/model_executor/layers/fla/ops/fused_gdn_prefill_post_conv.py":128:28)
#loc80 = loc("/usr/local/lib/python3.12/dist-packages/vllm/model_executor/layers/fla/ops/fused_gdn_prefill_post_conv.py":129:44)
#loc81 = loc("/usr/local/lib/python3.12/dist-packages/vllm/model_executor/layers/fla/ops/fused_gdn_prefill_post_conv.py":129:30)
#loc82 = loc("/usr/local/lib/python3.12/dist-packages/vllm/model_executor/layers/fla/ops/fused_gdn_prefill_post_conv.py":129:53)
#loc83 = loc("/usr/local/lib/python3.12/dist-packages/vllm/model_executor/layers/fla/ops/fused_gdn_prefill_post_conv.py":131:29)
#loc84 = loc("/usr/local/lib/python3.12/dist-packages/vllm/model_executor/layers/fla/ops/fused_gdn_prefill_post_conv.py":131:44)
#loc85 = loc("/usr/local/lib/python3.12/dist-packages/vllm/model_executor/layers/fla/ops/fused_gdn_prefill_post_conv.py":132:29)
#loc86 = loc("/usr/local/lib/python3.12/dist-packages/vllm/model_executor/layers/fla/ops/fused_gdn_prefill_post_conv.py":132:44)
#loc87 = loc("/usr/local/lib/python3.12/dist-packages/vllm/model_executor/layers/fla/ops/fused_gdn_prefill_post_conv.py":133:33)
#loc88 = loc("/usr/local/lib/python3.12/dist-packages/vllm/model_executor/layers/fla/ops/fused_gdn_prefill_post_conv.py":133:25)
#loc89 = loc("/usr/local/lib/python3.12/dist-packages/vllm/model_executor/layers/fla/ops/fused_gdn_prefill_post_conv.py":133:69)
#loc90 = loc("/usr/local/lib/python3.12/dist-packages/vllm/model_executor/layers/fla/ops/fused_gdn_prefill_post_conv.py":134:33)
#loc91 = loc("/usr/local/lib/python3.12/dist-packages/vllm/model_executor/layers/fla/ops/fused_gdn_prefill_post_conv.py":134:25)
#loc92 = loc("/usr/local/lib/python3.12/dist-packages/vllm/model_executor/layers/fla/ops/fused_gdn_prefill_post_conv.py":134:69)
#loc93 = loc("/usr/local/lib/python3.12/dist-packages/vllm/model_executor/layers/fla/ops/fused_gdn_prefill_post_conv.py":137:21)
#loc94 = loc("/usr/local/lib/python3.12/dist-packages/vllm/model_executor/layers/fla/ops/fused_gdn_prefill_post_conv.py":138:26)
#loc95 = loc("/usr/local/lib/python3.12/dist-packages/vllm/model_executor/layers/fla/ops/fused_gdn_prefill_post_conv.py":138:54)
#loc96 = loc("/usr/local/lib/python3.12/dist-packages/vllm/model_executor/layers/fla/ops/fused_gdn_prefill_post_conv.py":138:53)
#loc97 = loc("/usr/local/lib/python3.12/dist-packages/vllm/model_executor/layers/fla/ops/fused_gdn_prefill_post_conv.py":138:46)
#loc98 = loc("/usr/local/lib/python3.12/dist-packages/vllm/model_executor/layers/fla/ops/fused_gdn_prefill_post_conv.py":138:40)
#loc99 = loc("/usr/local/lib/python3.12/dist-packages/vllm/model_executor/layers/fla/ops/fused_gdn_prefill_post_conv.py":138:33)
#loc100 = loc("/usr/local/lib/python3.12/dist-packages/vllm/model_executor/layers/fla/ops/fused_gdn_prefill_post_conv.py":138:79)
#loc101 = loc("/usr/local/lib/python3.12/dist-packages/vllm/model_executor/layers/fla/ops/fused_gdn_prefill_post_conv.py":138:72)
#loc102 = loc("/usr/local/lib/python3.12/dist-packages/vllm/model_executor/layers/fla/ops/fused_gdn_prefill_post_conv.py":138:66)
#loc103 = loc("/usr/local/lib/python3.12/dist-packages/vllm/model_executor/layers/fla/ops/fused_gdn_prefill_post_conv.py":138:59)
#loc104 = loc("/usr/local/lib/python3.12/dist-packages/vllm/model_executor/layers/fla/ops/fused_gdn_prefill_post_conv.py":139:27)
#loc105 = loc("/usr/local/lib/python3.12/dist-packages/vllm/model_executor/layers/fla/ops/fused_gdn_prefill_post_conv.py":139:51)
#loc106 = loc("/usr/local/lib/python3.12/dist-packages/vllm/model_executor/layers/fla/ops/fused_gdn_prefill_post_conv.py":140:25)
#loc107 = loc("/usr/local/lib/python3.12/dist-packages/vllm/model_executor/layers/fla/ops/fused_gdn_prefill_post_conv.py":140:18)
#loc108 = loc("/usr/local/lib/python3.12/dist-packages/vllm/model_executor/layers/fla/ops/fused_gdn_prefill_post_conv.py":140:38)
#loc109 = loc("/usr/local/lib/python3.12/dist-packages/triton/language/standard.py":50:30)
#loc110 = loc("/usr/local/lib/python3.12/dist-packages/vllm/model_executor/layers/fla/ops/fused_gdn_prefill_post_conv.py":145:31)
#loc111 = loc("/usr/local/lib/python3.12/dist-packages/triton/language/standard.py":50:29)
#loc112 = loc("/usr/local/lib/python3.12/dist-packages/triton/language/standard.py":50:20)
#loc113 = loc("/usr/local/lib/python3.12/dist-packages/triton/language/standard.py":50:16)
#loc114 = loc("/usr/local/lib/python3.12/dist-packages/vllm/model_executor/layers/fla/ops/fused_gdn_prefill_post_conv.py":147:30)
#loc115 = loc("/usr/local/lib/python3.12/dist-packages/vllm/model_executor/layers/fla/ops/fused_gdn_prefill_post_conv.py":147:35)
#loc116 = loc("/usr/local/lib/python3.12/dist-packages/vllm/model_executor/layers/fla/ops/fused_gdn_prefill_post_conv.py":148:25)
#loc117 = loc("/usr/local/lib/python3.12/dist-packages/vllm/model_executor/layers/fla/ops/fused_gdn_prefill_post_conv.py":148:37)
#loc118 = loc("/usr/local/lib/python3.12/dist-packages/vllm/model_executor/layers/fla/ops/fused_gdn_prefill_post_conv.py":149:28)
#loc119 = loc("/usr/local/lib/python3.12/dist-packages/vllm/model_executor/layers/fla/ops/fused_gdn_prefill_post_conv.py":149:40)
#loc120 = loc("/usr/local/lib/python3.12/dist-packages/vllm/model_executor/layers/fla/ops/fused_gdn_prefill_post_conv.py":69:4)
#loc138 = loc("i_tb"(#loc2))
#loc139 = loc("i_head"(#loc3))
#loc140 = loc("offs_t"(#loc4))
#loc141 = loc("offs_t"(#loc5))
#loc142 = loc("offs_t"(#loc6))
#loc143 = loc("mask_t"(#loc7))
#loc144 = loc("offs_k"(#loc10))
#loc145 = loc("mask_k"(#loc11))
#loc146 = loc("mask_2d"(#loc12))
#loc147 = loc("mask_2d"(#loc13))
#loc148 = loc("mask_2d"(#loc14))
#loc149 = loc("q_offsets"(#loc15))
#loc150 = loc("q_offsets"(#loc16))
#loc151 = loc("q_offsets"(#loc17))
#loc152 = loc("q_offsets"(#loc18))
#loc153 = loc("q_offsets"(#loc19))
#loc154 = loc("q_offsets"(#loc20))
#loc155 = loc("q_f32"(#loc21))
#loc156 = loc("q_f32"(#loc22))
#loc157 = loc("q_f32"(#loc23))
#loc158 = loc("k_offsets"(#loc24))
#loc159 = loc("k_offsets"(#loc25))
#loc160 = loc("k_offsets"(#loc26))
#loc161 = loc("k_f32"(#loc27))
#loc162 = loc("k_f32"(#loc28))
#loc163 = loc("k_f32"(#loc29))
#loc164 = loc("q_sq_sum"(#loc30))
#loc166 = loc("q_inv"(#loc34))
#loc167 = loc("q_inv"(#loc35))
#loc168 = loc("q_inv"(#loc36))
#loc169 = loc("q_f32"(#loc37))
#loc170 = loc("q_f32"(#loc38))
#loc171 = loc("k_sq_sum"(#loc39))
#loc173 = loc("k_inv"(#loc41))
#loc174 = loc("k_inv"(#loc42))
#loc175 = loc("k_inv"(#loc43))
#loc176 = loc("k_f32"(#loc44))
#loc177 = loc("k_f32"(#loc45))
#loc178 = loc("q_out"(#loc46))
#loc179 = loc("q_out"(#loc47))
#loc180 = loc("q_out"(#loc48))
#loc181 = loc("k_out"(#loc52))
#loc182 = loc("k_out"(#loc53))
#loc183 = loc("k_out"(#loc54))
#loc184 = loc("i_hv"(#loc58))
#loc185 = loc("offs_v"(#loc59))
#loc186 = loc("mask_v"(#loc60))
#loc187 = loc("mask_2d"(#loc61))
#loc188 = loc("mask_2d"(#loc62))
#loc189 = loc("mask_2d"(#loc63))
#loc190 = loc("v_offsets"(#loc64))
#loc191 = loc("v_offsets"(#loc65))
#loc192 = loc("v_offsets"(#loc66))
#loc193 = loc("v_offsets"(#loc67))
#loc194 = loc("v_offsets"(#loc68))
#loc195 = loc("v_offsets"(#loc69))
#loc196 = loc("v_offsets"(#loc70))
#loc197 = loc("v_vals"(#loc71))
#loc198 = loc("v_vals"(#loc72))
#loc199 = loc("v_out"(#loc73))
#loc200 = loc("v_out"(#loc74))
#loc201 = loc("v_out"(#loc75))
#loc202 = loc("A_log_val"(#loc78))
#loc203 = loc("A_log_val"(#loc79))
#loc204 = loc("dt_bias_val"(#loc80))
#loc205 = loc("dt_bias_val"(#loc81))
#loc206 = loc("dt_bias_val"(#loc82))
#loc207 = loc("a_offsets"(#loc83))
#loc208 = loc("a_offsets"(#loc84))
#loc209 = loc("b_offsets"(#loc85))
#loc210 = loc("b_offsets"(#loc86))
#loc211 = loc("a_vals"(#loc87))
#loc212 = loc("a_vals"(#loc88))
#loc213 = loc("a_vals"(#loc89))
#loc214 = loc("b_vals"(#loc90))
#loc215 = loc("b_vals"(#loc91))
#loc216 = loc("b_vals"(#loc92))
#loc217 = loc("x"(#loc93))
#loc218 = loc("sp"(#loc94))
#loc219 = loc("sp"(#loc95))
#loc220 = loc("sp"(#loc96))
#loc221 = loc("sp"(#loc97))
#loc222 = loc("sp"(#loc98))
#loc223 = loc("sp"(#loc99))
#loc224 = loc("sp"(#loc100))
#loc225 = loc("sp"(#loc101))
#loc226 = loc("sp"(#loc102))
#loc227 = loc("sp"(#loc103))
#loc228 = loc("sp"(#loc104))
#loc229 = loc("sp"(#loc105))
#loc230 = loc("g_vals"(#loc106))
#loc231 = loc("g_vals"(#loc107))
#loc232 = loc("g_vals"(#loc108))
#loc233 = loc("beta_vals"(#loc110))
#loc234 = loc("gb_offsets"(#loc114))
#loc235 = loc("gb_offsets"(#loc115))
#loc236 = loc("mask_2d"(#loc148))
#loc237 = loc(callsite(#loc31 at #loc165))
#loc239 = loc(callsite(#loc31 at #loc172))
#loc241 = loc("mask_2d"(#loc189))
#loc242 = loc(callsite(#loc109 at #loc233))
#loc243 = loc(callsite(#loc111 at #loc233))
#loc244 = loc(callsite(#loc112 at #loc233))
#loc245 = loc(callsite(#loc113 at #loc233))
#loc246 = loc(callsite(#loc33 at #loc237))
#loc247 = loc(callsite(#loc33 at #loc239))
