#loc = loc("/root/.cache/vllm/torch_compile_cache/torch_aot_compile/61bda05feca29378847c32f031efa5c8dba258f38b0176a06a3e99e41df8ca50/inductor_cache/pf/cpflte6pyjgl2kv6xlfwzknhtwhysitxjs2m4luyrmnp4jjarqgg.py":22:0)
#loc35 = loc("in_ptr0"(#loc))
#loc36 = loc("in_ptr1"(#loc))
#loc37 = loc("in_ptr2"(#loc))
#loc38 = loc("out_ptr0"(#loc))
#loc39 = loc("xnumel"(#loc))
module {
  tt.func public @triton_(%in_ptr0: !tt.ptr<f16> {tt.divisibility = 16 : i32} loc("in_ptr0"(#loc)), %in_ptr1: !tt.ptr<f32> {tt.divisibility = 16 : i32} loc("in_ptr1"(#loc)), %in_ptr2: !tt.ptr<f16> {tt.divisibility = 16 : i32} loc("in_ptr2"(#loc)), %out_ptr0: !tt.ptr<f16> {tt.divisibility = 16 : i32} loc("out_ptr0"(#loc)), %xnumel: i32 {tt.divisibility = 16 : i32} loc("xnumel"(#loc))) attributes {noinline = false} {
    %cst = arith.constant dense<256> : tensor<512xi32> loc(#loc1)
    %tmp12 = arith.constant dense<1.000000e+00> : tensor<512xf32> loc(#loc40)
    %tmp6 = arith.constant dense<9.99999997E-7> : tensor<512xf32> loc(#loc41)
    %tmp4 = arith.constant dense<2.560000e+02> : tensor<512xf32> loc(#loc42)
    %tmp0 = arith.constant dense<4608> : tensor<512xi32> loc(#loc43)
    %tmp0_0 = arith.constant dense<512> : tensor<512xi32> loc(#loc44)
    %cst_1 = arith.constant dense<64> : tensor<512xi32> loc(#loc7)
    %x2 = arith.constant dense<1536> : tensor<512xi32> loc(#loc45)
    %x1 = arith.constant dense<8> : tensor<512xi32> loc(#loc46)
    %cst_2 = arith.constant dense<192> : tensor<512xi32> loc(#loc7)
    %c512_i32 = arith.constant 512 : i32 loc(#loc7)
    %xoffset = tt.get_program_id x : i32 loc(#loc47)
    %xoffset_3 = arith.muli %xoffset, %c512_i32 : i32 loc(#loc48)
    %xindex = tt.make_range {end = 512 : i32, start = 0 : i32} : tensor<512xi32> loc(#loc49)
    %xindex_4 = tt.splat %xoffset_3 : i32 -> tensor<512xi32> loc(#loc50)
    %xindex_5 = arith.addi %xindex_4, %xindex : tensor<512xi32> loc(#loc50)
    %xmask = tt.splat %xnumel : i32 -> tensor<512xi32> loc(#loc51)
    %xmask_6 = arith.cmpi slt, %xindex_5, %xmask : tensor<512xi32> loc(#loc51)
    %x0 = arith.remsi %xindex_5, %cst_2 : tensor<512xi32> loc(#loc52)
    %x1_7 = arith.divsi %xindex_5, %cst_2 : tensor<512xi32> loc(#loc53)
    %x1_8 = arith.remsi %x1_7, %x1 : tensor<512xi32> loc(#loc46)
    %x2_9 = arith.divsi %xindex_5, %x2 : tensor<512xi32> loc(#loc45)
    %tmp0_10 = arith.addi %x0, %cst_1 : tensor<512xi32> loc(#loc54)
    %tmp0_11 = arith.muli %x1_8, %tmp0_0 : tensor<512xi32> loc(#loc44)
    %tmp0_12 = arith.addi %tmp0_10, %tmp0_11 : tensor<512xi32> loc(#loc55)
    %tmp0_13 = arith.muli %x2_9, %tmp0 : tensor<512xi32> loc(#loc43)
    %tmp0_14 = arith.addi %tmp0_12, %tmp0_13 : tensor<512xi32> loc(#loc56)
    %tmp0_15 = tt.splat %in_ptr0 : !tt.ptr<f16> -> tensor<512x!tt.ptr<f16>> loc(#loc57)
    %tmp0_16 = tt.addptr %tmp0_15, %tmp0_14 : tensor<512x!tt.ptr<f16>>, tensor<512xi32> loc(#loc57)
    %tmp0_17 = tt.load %tmp0_16, %xmask_6 : tensor<512x!tt.ptr<f16>> loc(#loc58)
    %tmp0_18 = arith.extf %tmp0_17 : tensor<512xf16> to tensor<512xf32> loc(#loc59)
    %tmp2 = tt.splat %in_ptr1 : !tt.ptr<f32> -> tensor<512x!tt.ptr<f32>> loc(#loc60)
    %tmp2_19 = tt.addptr %tmp2, %x1_7 : tensor<512x!tt.ptr<f32>>, tensor<512xi32> loc(#loc60)
    %tmp2_20 = tt.load %tmp2_19, %xmask_6 evictionPolicy = evict_last : tensor<512x!tt.ptr<f32>> loc(#loc61)
    %tmp9 = tt.splat %in_ptr2 : !tt.ptr<f16> -> tensor<512x!tt.ptr<f16>> loc(#loc62)
    %tmp9_21 = tt.addptr %tmp9, %tmp0_10 : tensor<512x!tt.ptr<f16>>, tensor<512xi32> loc(#loc62)
    %tmp9_22 = tt.load %tmp9_21, %xmask_6 evictionPolicy = evict_last : tensor<512x!tt.ptr<f16>> loc(#loc63)
    %tmp9_23 = arith.extf %tmp9_22 : tensor<512xf16> to tensor<512xf32> loc(#loc64)
    %tmp4_24 = arith.divf %tmp2_20, %tmp4 : tensor<512xf32> loc(#loc42)
    %tmp6_25 = arith.addf %tmp4_24, %tmp6 : tensor<512xf32> loc(#loc41)
    %tmp7 = tt.extern_elementwise %tmp6_25 {libname = "", libpath = "", pure = true, symbol = "__nv_rsqrtf"} : (tensor<512xf32>) -> tensor<512xf32> loc(#loc65)
    %tmp8 = arith.mulf %tmp0_18, %tmp7 : tensor<512xf32> loc(#loc66)
    %tmp12_26 = arith.addf %tmp9_23, %tmp12 : tensor<512xf32> loc(#loc40)
    %tmp13 = arith.mulf %tmp8, %tmp12_26 : tensor<512xf32> loc(#loc67)
    %0 = arith.muli %x1_7, %cst : tensor<512xi32> loc(#loc1)
    %1 = arith.addi %x0, %0 : tensor<512xi32> loc(#loc31)
    %2 = tt.splat %out_ptr0 : !tt.ptr<f16> -> tensor<512x!tt.ptr<f16>> loc(#loc32)
    %3 = tt.addptr %2, %1 : tensor<512x!tt.ptr<f16>>, tensor<512xi32> loc(#loc32)
    %4 = arith.truncf %tmp13 : tensor<512xf32> to tensor<512xf16> loc(#loc33)
    tt.store %3, %4, %xmask_6 : tensor<512x!tt.ptr<f16>> loc(#loc33)
    tt.return loc(#loc34)
  } loc(#loc)
} loc(#loc)
#loc1 = loc("/root/.cache/vllm/torch_compile_cache/torch_aot_compile/61bda05feca29378847c32f031efa5c8dba258f38b0176a06a3e99e41df8ca50/inductor_cache/pf/cpflte6pyjgl2kv6xlfwzknhtwhysitxjs2m4luyrmnp4jjarqgg.py":45:34)
#loc2 = loc("/root/.cache/vllm/torch_compile_cache/torch_aot_compile/61bda05feca29378847c32f031efa5c8dba258f38b0176a06a3e99e41df8ca50/inductor_cache/pf/cpflte6pyjgl2kv6xlfwzknhtwhysitxjs2m4luyrmnp4jjarqgg.py":42:20)
#loc3 = loc("/root/.cache/vllm/torch_compile_cache/torch_aot_compile/61bda05feca29378847c32f031efa5c8dba258f38b0176a06a3e99e41df8ca50/inductor_cache/pf/cpflte6pyjgl2kv6xlfwzknhtwhysitxjs2m4luyrmnp4jjarqgg.py":37:18)
#loc4 = loc("/root/.cache/vllm/torch_compile_cache/torch_aot_compile/61bda05feca29378847c32f031efa5c8dba258f38b0176a06a3e99e41df8ca50/inductor_cache/pf/cpflte6pyjgl2kv6xlfwzknhtwhysitxjs2m4luyrmnp4jjarqgg.py":35:19)
#loc5 = loc("/root/.cache/vllm/torch_compile_cache/torch_aot_compile/61bda05feca29378847c32f031efa5c8dba258f38b0176a06a3e99e41df8ca50/inductor_cache/pf/cpflte6pyjgl2kv6xlfwzknhtwhysitxjs2m4luyrmnp4jjarqgg.py":30:54)
#loc6 = loc("/root/.cache/vllm/torch_compile_cache/torch_aot_compile/61bda05feca29378847c32f031efa5c8dba258f38b0176a06a3e99e41df8ca50/inductor_cache/pf/cpflte6pyjgl2kv6xlfwzknhtwhysitxjs2m4luyrmnp4jjarqgg.py":30:44)
#loc7 = loc(unknown)
#loc8 = loc("/root/.cache/vllm/torch_compile_cache/torch_aot_compile/61bda05feca29378847c32f031efa5c8dba258f38b0176a06a3e99e41df8ca50/inductor_cache/pf/cpflte6pyjgl2kv6xlfwzknhtwhysitxjs2m4luyrmnp4jjarqgg.py":28:19)
#loc9 = loc("/root/.cache/vllm/torch_compile_cache/torch_aot_compile/61bda05feca29378847c32f031efa5c8dba258f38b0176a06a3e99e41df8ca50/inductor_cache/pf/cpflte6pyjgl2kv6xlfwzknhtwhysitxjs2m4luyrmnp4jjarqgg.py":27:28)
#loc10 = loc("/root/.cache/vllm/torch_compile_cache/torch_aot_compile/61bda05feca29378847c32f031efa5c8dba258f38b0176a06a3e99e41df8ca50/inductor_cache/pf/cpflte6pyjgl2kv6xlfwzknhtwhysitxjs2m4luyrmnp4jjarqgg.py":23:28)
#loc11 = loc("/root/.cache/vllm/torch_compile_cache/torch_aot_compile/61bda05feca29378847c32f031efa5c8dba258f38b0176a06a3e99e41df8ca50/inductor_cache/pf/cpflte6pyjgl2kv6xlfwzknhtwhysitxjs2m4luyrmnp4jjarqgg.py":23:33)
#loc12 = loc("/root/.cache/vllm/torch_compile_cache/torch_aot_compile/61bda05feca29378847c32f031efa5c8dba258f38b0176a06a3e99e41df8ca50/inductor_cache/pf/cpflte6pyjgl2kv6xlfwzknhtwhysitxjs2m4luyrmnp4jjarqgg.py":24:36)
#loc13 = loc("/root/.cache/vllm/torch_compile_cache/torch_aot_compile/61bda05feca29378847c32f031efa5c8dba258f38b0176a06a3e99e41df8ca50/inductor_cache/pf/cpflte6pyjgl2kv6xlfwzknhtwhysitxjs2m4luyrmnp4jjarqgg.py":24:23)
#loc14 = loc("/root/.cache/vllm/torch_compile_cache/torch_aot_compile/61bda05feca29378847c32f031efa5c8dba258f38b0176a06a3e99e41df8ca50/inductor_cache/pf/cpflte6pyjgl2kv6xlfwzknhtwhysitxjs2m4luyrmnp4jjarqgg.py":25:21)
#loc15 = loc("/root/.cache/vllm/torch_compile_cache/torch_aot_compile/61bda05feca29378847c32f031efa5c8dba258f38b0176a06a3e99e41df8ca50/inductor_cache/pf/cpflte6pyjgl2kv6xlfwzknhtwhysitxjs2m4luyrmnp4jjarqgg.py":26:19)
#loc16 = loc("/root/.cache/vllm/torch_compile_cache/torch_aot_compile/61bda05feca29378847c32f031efa5c8dba258f38b0176a06a3e99e41df8ca50/inductor_cache/pf/cpflte6pyjgl2kv6xlfwzknhtwhysitxjs2m4luyrmnp4jjarqgg.py":27:21)
#loc17 = loc("/root/.cache/vllm/torch_compile_cache/torch_aot_compile/61bda05feca29378847c32f031efa5c8dba258f38b0176a06a3e99e41df8ca50/inductor_cache/pf/cpflte6pyjgl2kv6xlfwzknhtwhysitxjs2m4luyrmnp4jjarqgg.py":30:35)
#loc18 = loc("/root/.cache/vllm/torch_compile_cache/torch_aot_compile/61bda05feca29378847c32f031efa5c8dba258f38b0176a06a3e99e41df8ca50/inductor_cache/pf/cpflte6pyjgl2kv6xlfwzknhtwhysitxjs2m4luyrmnp4jjarqgg.py":30:40)
#loc19 = loc("/root/.cache/vllm/torch_compile_cache/torch_aot_compile/61bda05feca29378847c32f031efa5c8dba258f38b0176a06a3e99e41df8ca50/inductor_cache/pf/cpflte6pyjgl2kv6xlfwzknhtwhysitxjs2m4luyrmnp4jjarqgg.py":30:49)
#loc20 = loc("/root/.cache/vllm/torch_compile_cache/torch_aot_compile/61bda05feca29378847c32f031efa5c8dba258f38b0176a06a3e99e41df8ca50/inductor_cache/pf/cpflte6pyjgl2kv6xlfwzknhtwhysitxjs2m4luyrmnp4jjarqgg.py":30:30)
#loc21 = loc("/root/.cache/vllm/torch_compile_cache/torch_aot_compile/61bda05feca29378847c32f031efa5c8dba258f38b0176a06a3e99e41df8ca50/inductor_cache/pf/cpflte6pyjgl2kv6xlfwzknhtwhysitxjs2m4luyrmnp4jjarqgg.py":30:59)
#loc22 = loc("/root/.cache/vllm/torch_compile_cache/torch_aot_compile/61bda05feca29378847c32f031efa5c8dba258f38b0176a06a3e99e41df8ca50/inductor_cache/pf/cpflte6pyjgl2kv6xlfwzknhtwhysitxjs2m4luyrmnp4jjarqgg.py":30:69)
#loc23 = loc("/root/.cache/vllm/torch_compile_cache/torch_aot_compile/61bda05feca29378847c32f031efa5c8dba258f38b0176a06a3e99e41df8ca50/inductor_cache/pf/cpflte6pyjgl2kv6xlfwzknhtwhysitxjs2m4luyrmnp4jjarqgg.py":31:30)
#loc24 = loc("/root/.cache/vllm/torch_compile_cache/torch_aot_compile/61bda05feca29378847c32f031efa5c8dba258f38b0176a06a3e99e41df8ca50/inductor_cache/pf/cpflte6pyjgl2kv6xlfwzknhtwhysitxjs2m4luyrmnp4jjarqgg.py":31:35)
#loc25 = loc("/root/.cache/vllm/torch_compile_cache/torch_aot_compile/61bda05feca29378847c32f031efa5c8dba258f38b0176a06a3e99e41df8ca50/inductor_cache/pf/cpflte6pyjgl2kv6xlfwzknhtwhysitxjs2m4luyrmnp4jjarqgg.py":32:30)
#loc26 = loc("/root/.cache/vllm/torch_compile_cache/torch_aot_compile/61bda05feca29378847c32f031efa5c8dba258f38b0176a06a3e99e41df8ca50/inductor_cache/pf/cpflte6pyjgl2kv6xlfwzknhtwhysitxjs2m4luyrmnp4jjarqgg.py":32:40)
#loc27 = loc("/root/.cache/vllm/torch_compile_cache/torch_aot_compile/61bda05feca29378847c32f031efa5c8dba258f38b0176a06a3e99e41df8ca50/inductor_cache/pf/cpflte6pyjgl2kv6xlfwzknhtwhysitxjs2m4luyrmnp4jjarqgg.py":32:80)
#loc28 = loc("/root/.cache/vllm/torch_compile_cache/torch_aot_compile/61bda05feca29378847c32f031efa5c8dba258f38b0176a06a3e99e41df8ca50/inductor_cache/pf/cpflte6pyjgl2kv6xlfwzknhtwhysitxjs2m4luyrmnp4jjarqgg.py":38:27)
#loc29 = loc("/root/.cache/vllm/torch_compile_cache/torch_aot_compile/61bda05feca29378847c32f031efa5c8dba258f38b0176a06a3e99e41df8ca50/inductor_cache/pf/cpflte6pyjgl2kv6xlfwzknhtwhysitxjs2m4luyrmnp4jjarqgg.py":39:18)
#loc30 = loc("/root/.cache/vllm/torch_compile_cache/torch_aot_compile/61bda05feca29378847c32f031efa5c8dba258f38b0176a06a3e99e41df8ca50/inductor_cache/pf/cpflte6pyjgl2kv6xlfwzknhtwhysitxjs2m4luyrmnp4jjarqgg.py":43:19)
#loc31 = loc("/root/.cache/vllm/torch_compile_cache/torch_aot_compile/61bda05feca29378847c32f031efa5c8dba258f38b0176a06a3e99e41df8ca50/inductor_cache/pf/cpflte6pyjgl2kv6xlfwzknhtwhysitxjs2m4luyrmnp4jjarqgg.py":45:30)
#loc32 = loc("/root/.cache/vllm/torch_compile_cache/torch_aot_compile/61bda05feca29378847c32f031efa5c8dba258f38b0176a06a3e99e41df8ca50/inductor_cache/pf/cpflte6pyjgl2kv6xlfwzknhtwhysitxjs2m4luyrmnp4jjarqgg.py":45:25)
#loc33 = loc("/root/.cache/vllm/torch_compile_cache/torch_aot_compile/61bda05feca29378847c32f031efa5c8dba258f38b0176a06a3e99e41df8ca50/inductor_cache/pf/cpflte6pyjgl2kv6xlfwzknhtwhysitxjs2m4luyrmnp4jjarqgg.py":45:46)
#loc34 = loc("/root/.cache/vllm/torch_compile_cache/torch_aot_compile/61bda05feca29378847c32f031efa5c8dba258f38b0176a06a3e99e41df8ca50/inductor_cache/pf/cpflte6pyjgl2kv6xlfwzknhtwhysitxjs2m4luyrmnp4jjarqgg.py":45:4)
#loc40 = loc("tmp12"(#loc2))
#loc41 = loc("tmp6"(#loc3))
#loc42 = loc("tmp4"(#loc4))
#loc43 = loc("tmp0"(#loc5))
#loc44 = loc("tmp0"(#loc6))
#loc45 = loc("x2"(#loc8))
#loc46 = loc("x1"(#loc9))
#loc47 = loc("xoffset"(#loc10))
#loc48 = loc("xoffset"(#loc11))
#loc49 = loc("xindex"(#loc12))
#loc50 = loc("xindex"(#loc13))
#loc51 = loc("xmask"(#loc14))
#loc52 = loc("x0"(#loc15))
#loc53 = loc("x1"(#loc16))
#loc54 = loc("tmp0"(#loc17))
#loc55 = loc("tmp0"(#loc18))
#loc56 = loc("tmp0"(#loc19))
#loc57 = loc("tmp0"(#loc20))
#loc58 = loc("tmp0"(#loc21))
#loc59 = loc("tmp0"(#loc22))
#loc60 = loc("tmp2"(#loc23))
#loc61 = loc("tmp2"(#loc24))
#loc62 = loc("tmp9"(#loc25))
#loc63 = loc("tmp9"(#loc26))
#loc64 = loc("tmp9"(#loc27))
#loc65 = loc("tmp7"(#loc28))
#loc66 = loc("tmp8"(#loc29))
#loc67 = loc("tmp13"(#loc30))
