#loc = loc("/usr/local/lib/python3.12/dist-packages/vllm/model_executor/layers/fla/ops/fused_gdn_prefill_post_conv.py":20:0)
#loc127 = loc("/usr/local/lib/python3.12/dist-packages/triton/language/standard.py":287:0)
#loc129 = loc(unknown)
#loc132 = loc("/usr/local/lib/python3.12/dist-packages/triton/language/standard.py":262:0)
#loc136 = loc("/usr/local/lib/python3.12/dist-packages/triton/language/standard.py":49:0)
#loc143 = loc("mixed_qkv_ptr"(#loc))
#loc144 = loc("a_ptr"(#loc))
#loc145 = loc("b_ptr"(#loc))
#loc146 = loc("A_log_ptr"(#loc))
#loc147 = loc("dt_bias_ptr"(#loc))
#loc148 = loc("q_ptr"(#loc))
#loc149 = loc("k_ptr"(#loc))
#loc150 = loc("v_ptr"(#loc))
#loc151 = loc("g_ptr"(#loc))
#loc152 = loc("beta_ptr"(#loc))
#loc153 = loc("stride_x_tok"(#loc))
#loc154 = loc("stride_a_tok"(#loc))
#loc155 = loc("stride_b_tok"(#loc))
#loc156 = loc("stride_q_tok"(#loc))
#loc157 = loc("stride_k_tok"(#loc))
#loc158 = loc("stride_v_tok"(#loc))
#loc159 = loc("L"(#loc))
#loc271 = loc("input"(#loc127))
#loc272 = loc("a"(#loc132))
#loc273 = loc("b"(#loc132))
#loc274 = loc("x"(#loc136))
module {
  tt.func public @_fused_post_conv_kernel(%mixed_qkv_ptr: !tt.ptr<f16> {tt.divisibility = 16 : i32} loc("mixed_qkv_ptr"(#loc)), %a_ptr: !tt.ptr<f16> {tt.divisibility = 16 : i32} loc("a_ptr"(#loc)), %b_ptr: !tt.ptr<f16> {tt.divisibility = 16 : i32} loc("b_ptr"(#loc)), %A_log_ptr: !tt.ptr<f32> {tt.divisibility = 16 : i32} loc("A_log_ptr"(#loc)), %dt_bias_ptr: !tt.ptr<f16> {tt.divisibility = 16 : i32} loc("dt_bias_ptr"(#loc)), %q_ptr: !tt.ptr<f16> {tt.divisibility = 16 : i32} loc("q_ptr"(#loc)), %k_ptr: !tt.ptr<f16> {tt.divisibility = 16 : i32} loc("k_ptr"(#loc)), %v_ptr: !tt.ptr<f16> {tt.divisibility = 16 : i32} loc("v_ptr"(#loc)), %g_ptr: !tt.ptr<f32> {tt.divisibility = 16 : i32} loc("g_ptr"(#loc)), %beta_ptr: !tt.ptr<f32> {tt.divisibility = 16 : i32} loc("beta_ptr"(#loc)), %stride_x_tok: i32 {tt.divisibility = 16 : i32} loc("stride_x_tok"(#loc)), %stride_a_tok: i32 {tt.divisibility = 16 : i32} loc("stride_a_tok"(#loc)), %stride_b_tok: i32 {tt.divisibility = 16 : i32} loc("stride_b_tok"(#loc)), %stride_q_tok: i32 {tt.divisibility = 16 : i32} loc("stride_q_tok"(#loc)), %stride_k_tok: i32 {tt.divisibility = 16 : i32} loc("stride_k_tok"(#loc)), %stride_v_tok: i32 {tt.divisibility = 16 : i32} loc("stride_v_tok"(#loc)), %L: i32 loc("L"(#loc))) attributes {noinline = false} {
    %i_tb = tt.get_program_id x : i32 loc(#loc160)
    %i_head = tt.get_program_id y : i32 loc(#loc161)
    %offs_t = arith.constant 16 : i32 loc(#loc162)
    %offs_t_0 = arith.constant 16 : i32 loc(#loc162)
    %offs_t_1 = arith.extsi %i_tb : i32 to i64 loc(#loc162)
    %offs_t_2 = arith.extsi %offs_t_0 : i32 to i64 loc(#loc162)
    %offs_t_3 = arith.muli %offs_t_1, %offs_t_2 : i64 loc(#loc162)
    %offs_t_4 = arith.constant 2147483647 : i64 loc(#loc162)
    %offs_t_5 = arith.constant -2147483648 : i64 loc(#loc162)
    %offs_t_6 = arith.cmpi sle, %offs_t_3, %offs_t_4 : i64 loc(#loc162)
    %offs_t_7 = arith.cmpi sge, %offs_t_3, %offs_t_5 : i64 loc(#loc162)
    %offs_t_8 = arith.andi %offs_t_6, %offs_t_7 : i1 loc(#loc162)
    %offs_t_9 = arith.muli %i_tb, %offs_t_0 : i32 loc(#loc162)
    %offs_t_10 = tt.make_range {end = 16 : i32, start = 0 : i32} : tensor<16xi32> loc(#loc163)
    %offs_t_11 = tt.splat %offs_t_9 : i32 -> tensor<16xi32> loc(#loc164)
    %offs_t_12 = arith.extsi %offs_t_11 : tensor<16xi32> to tensor<16xi64> loc(#loc164)
    %offs_t_13 = arith.extsi %offs_t_10 : tensor<16xi32> to tensor<16xi64> loc(#loc164)
    %offs_t_14 = arith.addi %offs_t_12, %offs_t_13 : tensor<16xi64> loc(#loc164)
    %offs_t_15 = arith.constant 2147483647 : i64 loc(#loc164)
    %offs_t_16 = arith.constant -2147483648 : i64 loc(#loc164)
    %offs_t_17 = arith.constant dense<2147483647> : tensor<16xi64> loc(#loc164)
    %offs_t_18 = arith.cmpi sle, %offs_t_14, %offs_t_17 : tensor<16xi64> loc(#loc164)
    %offs_t_19 = arith.constant dense<-2147483648> : tensor<16xi64> loc(#loc164)
    %offs_t_20 = arith.cmpi sge, %offs_t_14, %offs_t_19 : tensor<16xi64> loc(#loc164)
    %offs_t_21 = arith.andi %offs_t_18, %offs_t_20 : tensor<16xi1> loc(#loc164)
    %offs_t_22 = arith.addi %offs_t_11, %offs_t_10 : tensor<16xi32> loc(#loc164)
    %mask_t = tt.splat %L : i32 -> tensor<16xi32> loc(#loc165)
    %mask_t_23 = arith.cmpi slt, %offs_t_22, %mask_t : tensor<16xi32> loc(#loc165)
    %c8_i32 = arith.constant 8 : i32 loc(#loc7)
    %0 = arith.cmpi slt, %i_head, %c8_i32 : i32 loc(#loc7)
    %1 = scf.if %0 -> (tensor<16x128xi1>) {
      %offs_k = tt.make_range {end = 128 : i32, start = 0 : i32} : tensor<128xi32> loc(#loc166)
      %mask_k = arith.constant 128 : i32 loc(#loc167)
      %mask_k_24 = arith.constant dense<128> : tensor<128xi32> loc(#loc167)
      %mask_k_25 = arith.cmpi slt, %offs_k, %mask_k_24 : tensor<128xi32> loc(#loc167)
      %mask_2d = tt.expand_dims %mask_t_23 {axis = 1 : i32} : tensor<16xi1> -> tensor<16x1xi1> loc(#loc168)
      %mask_2d_26 = tt.expand_dims %mask_k_25 {axis = 0 : i32} : tensor<128xi1> -> tensor<1x128xi1> loc(#loc169)
      %mask_2d_27 = tt.broadcast %mask_2d : tensor<16x1xi1> -> tensor<16x128xi1> loc(#loc170)
      %mask_2d_28 = tt.broadcast %mask_2d_26 : tensor<1x128xi1> -> tensor<16x128xi1> loc(#loc170)
      %mask_2d_29 = arith.andi %mask_2d_27, %mask_2d_28 : tensor<16x128xi1> loc(#loc275)
      %q_offsets = tt.expand_dims %offs_t_22 {axis = 1 : i32} : tensor<16xi32> -> tensor<16x1xi32> loc(#loc171)
      %q_offsets_30 = tt.splat %stride_x_tok : i32 -> tensor<16x1xi32> loc(#loc172)
      %q_offsets_31 = arith.extsi %q_offsets : tensor<16x1xi32> to tensor<16x1xi64> loc(#loc172)
      %q_offsets_32 = arith.extsi %q_offsets_30 : tensor<16x1xi32> to tensor<16x1xi64> loc(#loc172)
      %q_offsets_33 = arith.muli %q_offsets_31, %q_offsets_32 : tensor<16x1xi64> loc(#loc172)
      %q_offsets_34 = arith.constant 2147483647 : i64 loc(#loc172)
      %q_offsets_35 = arith.constant -2147483648 : i64 loc(#loc172)
      %q_offsets_36 = arith.constant dense<2147483647> : tensor<16x1xi64> loc(#loc172)
      %q_offsets_37 = arith.cmpi sle, %q_offsets_33, %q_offsets_36 : tensor<16x1xi64> loc(#loc172)
      %q_offsets_38 = arith.constant dense<-2147483648> : tensor<16x1xi64> loc(#loc172)
      %q_offsets_39 = arith.cmpi sge, %q_offsets_33, %q_offsets_38 : tensor<16x1xi64> loc(#loc172)
      %q_offsets_40 = arith.andi %q_offsets_37, %q_offsets_39 : tensor<16x1xi1> loc(#loc172)
      %q_offsets_41 = arith.muli %q_offsets, %q_offsets_30 : tensor<16x1xi32> loc(#loc172)
      %q_offsets_42 = arith.constant 128 : i32 loc(#loc173)
      %q_offsets_43 = arith.constant 128 : i32 loc(#loc173)
      %q_offsets_44 = arith.extsi %i_head : i32 to i64 loc(#loc173)
      %q_offsets_45 = arith.extsi %q_offsets_43 : i32 to i64 loc(#loc173)
      %q_offsets_46 = arith.muli %q_offsets_44, %q_offsets_45 : i64 loc(#loc173)
      %q_offsets_47 = arith.constant 2147483647 : i64 loc(#loc173)
      %q_offsets_48 = arith.constant -2147483648 : i64 loc(#loc173)
      %q_offsets_49 = arith.cmpi sle, %q_offsets_46, %q_offsets_47 : i64 loc(#loc173)
      %q_offsets_50 = arith.cmpi sge, %q_offsets_46, %q_offsets_48 : i64 loc(#loc173)
      %q_offsets_51 = arith.andi %q_offsets_49, %q_offsets_50 : i1 loc(#loc173)
      %q_offsets_52 = arith.muli %i_head, %q_offsets_43 : i32 loc(#loc173)
      %q_offsets_53 = tt.splat %q_offsets_52 : i32 -> tensor<16x1xi32> loc(#loc174)
      %q_offsets_54 = arith.extsi %q_offsets_41 : tensor<16x1xi32> to tensor<16x1xi64> loc(#loc174)
      %q_offsets_55 = arith.extsi %q_offsets_53 : tensor<16x1xi32> to tensor<16x1xi64> loc(#loc174)
      %q_offsets_56 = arith.addi %q_offsets_54, %q_offsets_55 : tensor<16x1xi64> loc(#loc174)
      %q_offsets_57 = arith.constant 2147483647 : i64 loc(#loc174)
      %q_offsets_58 = arith.constant -2147483648 : i64 loc(#loc174)
      %q_offsets_59 = arith.constant dense<2147483647> : tensor<16x1xi64> loc(#loc174)
      %q_offsets_60 = arith.cmpi sle, %q_offsets_56, %q_offsets_59 : tensor<16x1xi64> loc(#loc174)
      %q_offsets_61 = arith.constant dense<-2147483648> : tensor<16x1xi64> loc(#loc174)
      %q_offsets_62 = arith.cmpi sge, %q_offsets_56, %q_offsets_61 : tensor<16x1xi64> loc(#loc174)
      %q_offsets_63 = arith.andi %q_offsets_60, %q_offsets_62 : tensor<16x1xi1> loc(#loc174)
      %q_offsets_64 = arith.addi %q_offsets_41, %q_offsets_53 : tensor<16x1xi32> loc(#loc174)
      %q_offsets_65 = tt.expand_dims %offs_k {axis = 0 : i32} : tensor<128xi32> -> tensor<1x128xi32> loc(#loc175)
      %q_offsets_66 = tt.broadcast %q_offsets_64 : tensor<16x1xi32> -> tensor<16x128xi32> loc(#loc176)
      %q_offsets_67 = tt.broadcast %q_offsets_65 : tensor<1x128xi32> -> tensor<16x128xi32> loc(#loc176)
      %q_offsets_68 = arith.extsi %q_offsets_66 : tensor<16x128xi32> to tensor<16x128xi64> loc(#loc176)
      %q_offsets_69 = arith.extsi %q_offsets_67 : tensor<16x128xi32> to tensor<16x128xi64> loc(#loc176)
      %q_offsets_70 = arith.addi %q_offsets_68, %q_offsets_69 : tensor<16x128xi64> loc(#loc176)
      %q_offsets_71 = arith.constant 2147483647 : i64 loc(#loc176)
      %q_offsets_72 = arith.constant -2147483648 : i64 loc(#loc176)
      %q_offsets_73 = arith.constant dense<2147483647> : tensor<16x128xi64> loc(#loc176)
      %q_offsets_74 = arith.cmpi sle, %q_offsets_70, %q_offsets_73 : tensor<16x128xi64> loc(#loc176)
      %q_offsets_75 = arith.constant dense<-2147483648> : tensor<16x128xi64> loc(#loc176)
      %q_offsets_76 = arith.cmpi sge, %q_offsets_70, %q_offsets_75 : tensor<16x128xi64> loc(#loc176)
      %q_offsets_77 = arith.andi %q_offsets_74, %q_offsets_76 : tensor<16x128xi1> loc(#loc176)
      %q_offsets_78 = arith.addi %q_offsets_66, %q_offsets_67 : tensor<16x128xi32> loc(#loc176)
      %q_f32 = tt.splat %mixed_qkv_ptr : !tt.ptr<f16> -> tensor<16x128x!tt.ptr<f16>> loc(#loc177)
      %q_f32_79 = tt.addptr %q_f32, %q_offsets_78 : tensor<16x128x!tt.ptr<f16>>, tensor<16x128xi32> loc(#loc177)
      %q_f32_80 = arith.constant 0 : i32 loc(#loc178)
      %q_f32_81 = arith.constant dense<0> : tensor<16x128xi32> loc(#loc178)
      %q_f32_82 = arith.sitofp %q_f32_81 : tensor<16x128xi32> to tensor<16x128xf16> loc(#loc178)
      %q_f32_83 = tt.load %q_f32_79, %mask_2d_29, %q_f32_82 : tensor<16x128x!tt.ptr<f16>> loc(#loc178)
      %q_f32_84 = arith.extf %q_f32_83 : tensor<16x128xf16> to tensor<16x128xf32> loc(#loc179)
      %k_offsets = tt.expand_dims %offs_t_22 {axis = 1 : i32} : tensor<16xi32> -> tensor<16x1xi32> loc(#loc180)
      %k_offsets_85 = tt.splat %stride_x_tok : i32 -> tensor<16x1xi32> loc(#loc181)
      %k_offsets_86 = arith.extsi %k_offsets : tensor<16x1xi32> to tensor<16x1xi64> loc(#loc181)
      %k_offsets_87 = arith.extsi %k_offsets_85 : tensor<16x1xi32> to tensor<16x1xi64> loc(#loc181)
      %k_offsets_88 = arith.muli %k_offsets_86, %k_offsets_87 : tensor<16x1xi64> loc(#loc181)
      %k_offsets_89 = arith.constant 2147483647 : i64 loc(#loc181)
      %k_offsets_90 = arith.constant -2147483648 : i64 loc(#loc181)
      %k_offsets_91 = arith.constant dense<2147483647> : tensor<16x1xi64> loc(#loc181)
      %k_offsets_92 = arith.cmpi sle, %k_offsets_88, %k_offsets_91 : tensor<16x1xi64> loc(#loc181)
      %k_offsets_93 = arith.constant dense<-2147483648> : tensor<16x1xi64> loc(#loc181)
      %k_offsets_94 = arith.cmpi sge, %k_offsets_88, %k_offsets_93 : tensor<16x1xi64> loc(#loc181)
      %k_offsets_95 = arith.andi %k_offsets_92, %k_offsets_94 : tensor<16x1xi1> loc(#loc181)
      %k_offsets_96 = arith.muli %k_offsets, %k_offsets_85 : tensor<16x1xi32> loc(#loc181)
      %k_offsets_97 = arith.constant 1024 : i32 loc(#loc182)
      %k_offsets_98 = arith.constant 1024 : i32 loc(#loc182)
      %k_offsets_99 = arith.constant dense<1024> : tensor<16x1xi32> loc(#loc182)
      %k_offsets_100 = arith.extsi %k_offsets_96 : tensor<16x1xi32> to tensor<16x1xi64> loc(#loc182)
      %k_offsets_101 = arith.extsi %k_offsets_99 : tensor<16x1xi32> to tensor<16x1xi64> loc(#loc182)
      %k_offsets_102 = arith.addi %k_offsets_100, %k_offsets_101 : tensor<16x1xi64> loc(#loc182)
      %k_offsets_103 = arith.constant 2147483647 : i64 loc(#loc182)
      %k_offsets_104 = arith.constant -2147483648 : i64 loc(#loc182)
      %k_offsets_105 = arith.constant dense<2147483647> : tensor<16x1xi64> loc(#loc182)
      %k_offsets_106 = arith.cmpi sle, %k_offsets_102, %k_offsets_105 : tensor<16x1xi64> loc(#loc182)
      %k_offsets_107 = arith.constant dense<-2147483648> : tensor<16x1xi64> loc(#loc182)
      %k_offsets_108 = arith.cmpi sge, %k_offsets_102, %k_offsets_107 : tensor<16x1xi64> loc(#loc182)
      %k_offsets_109 = arith.andi %k_offsets_106, %k_offsets_108 : tensor<16x1xi1> loc(#loc182)
      %k_offsets_110 = arith.addi %k_offsets_96, %k_offsets_99 : tensor<16x1xi32> loc(#loc182)
      %k_offsets_111 = arith.constant 128 : i32 loc(#loc183)
      %k_offsets_112 = arith.constant 128 : i32 loc(#loc183)
      %k_offsets_113 = arith.extsi %i_head : i32 to i64 loc(#loc183)
      %k_offsets_114 = arith.extsi %k_offsets_112 : i32 to i64 loc(#loc183)
      %k_offsets_115 = arith.muli %k_offsets_113, %k_offsets_114 : i64 loc(#loc183)
      %k_offsets_116 = arith.constant 2147483647 : i64 loc(#loc183)
      %k_offsets_117 = arith.constant -2147483648 : i64 loc(#loc183)
      %k_offsets_118 = arith.cmpi sle, %k_offsets_115, %k_offsets_116 : i64 loc(#loc183)
      %k_offsets_119 = arith.cmpi sge, %k_offsets_115, %k_offsets_117 : i64 loc(#loc183)
      %k_offsets_120 = arith.andi %k_offsets_118, %k_offsets_119 : i1 loc(#loc183)
      %k_offsets_121 = arith.muli %i_head, %k_offsets_112 : i32 loc(#loc183)
      %k_offsets_122 = tt.splat %k_offsets_121 : i32 -> tensor<16x1xi32> loc(#loc184)
      %k_offsets_123 = arith.extsi %k_offsets_110 : tensor<16x1xi32> to tensor<16x1xi64> loc(#loc184)
      %k_offsets_124 = arith.extsi %k_offsets_122 : tensor<16x1xi32> to tensor<16x1xi64> loc(#loc184)
      %k_offsets_125 = arith.addi %k_offsets_123, %k_offsets_124 : tensor<16x1xi64> loc(#loc184)
      %k_offsets_126 = arith.constant 2147483647 : i64 loc(#loc184)
      %k_offsets_127 = arith.constant -2147483648 : i64 loc(#loc184)
      %k_offsets_128 = arith.constant dense<2147483647> : tensor<16x1xi64> loc(#loc184)
      %k_offsets_129 = arith.cmpi sle, %k_offsets_125, %k_offsets_128 : tensor<16x1xi64> loc(#loc184)
      %k_offsets_130 = arith.constant dense<-2147483648> : tensor<16x1xi64> loc(#loc184)
      %k_offsets_131 = arith.cmpi sge, %k_offsets_125, %k_offsets_130 : tensor<16x1xi64> loc(#loc184)
      %k_offsets_132 = arith.andi %k_offsets_129, %k_offsets_131 : tensor<16x1xi1> loc(#loc184)
      %k_offsets_133 = arith.addi %k_offsets_110, %k_offsets_122 : tensor<16x1xi32> loc(#loc184)
      %k_offsets_134 = tt.expand_dims %offs_k {axis = 0 : i32} : tensor<128xi32> -> tensor<1x128xi32> loc(#loc185)
      %k_offsets_135 = tt.broadcast %k_offsets_133 : tensor<16x1xi32> -> tensor<16x128xi32> loc(#loc186)
      %k_offsets_136 = tt.broadcast %k_offsets_134 : tensor<1x128xi32> -> tensor<16x128xi32> loc(#loc186)
      %k_offsets_137 = arith.extsi %k_offsets_135 : tensor<16x128xi32> to tensor<16x128xi64> loc(#loc186)
      %k_offsets_138 = arith.extsi %k_offsets_136 : tensor<16x128xi32> to tensor<16x128xi64> loc(#loc186)
      %k_offsets_139 = arith.addi %k_offsets_137, %k_offsets_138 : tensor<16x128xi64> loc(#loc186)
      %k_offsets_140 = arith.constant 2147483647 : i64 loc(#loc186)
      %k_offsets_141 = arith.constant -2147483648 : i64 loc(#loc186)
      %k_offsets_142 = arith.constant dense<2147483647> : tensor<16x128xi64> loc(#loc186)
      %k_offsets_143 = arith.cmpi sle, %k_offsets_139, %k_offsets_142 : tensor<16x128xi64> loc(#loc186)
      %k_offsets_144 = arith.constant dense<-2147483648> : tensor<16x128xi64> loc(#loc186)
      %k_offsets_145 = arith.cmpi sge, %k_offsets_139, %k_offsets_144 : tensor<16x128xi64> loc(#loc186)
      %k_offsets_146 = arith.andi %k_offsets_143, %k_offsets_145 : tensor<16x128xi1> loc(#loc186)
      %k_offsets_147 = arith.addi %k_offsets_135, %k_offsets_136 : tensor<16x128xi32> loc(#loc186)
      %k_f32 = tt.splat %mixed_qkv_ptr : !tt.ptr<f16> -> tensor<16x128x!tt.ptr<f16>> loc(#loc187)
      %k_f32_148 = tt.addptr %k_f32, %k_offsets_147 : tensor<16x128x!tt.ptr<f16>>, tensor<16x128xi32> loc(#loc187)
      %k_f32_149 = arith.constant 0 : i32 loc(#loc188)
      %k_f32_150 = arith.constant dense<0> : tensor<16x128xi32> loc(#loc188)
      %k_f32_151 = arith.sitofp %k_f32_150 : tensor<16x128xi32> to tensor<16x128xf16> loc(#loc188)
      %k_f32_152 = tt.load %k_f32_148, %mask_2d_29, %k_f32_151 : tensor<16x128x!tt.ptr<f16>> loc(#loc188)
      %k_f32_153 = arith.extf %k_f32_152 : tensor<16x128xf16> to tensor<16x128xf32> loc(#loc189)
      %q_sq_sum = arith.mulf %q_f32_84, %q_f32_84 : tensor<16x128xf32> loc(#loc190)
      %q_sq_sum_154 = tt.call @"triton.language.standard.sum__fp32S16_128S__(1,)cconstexpr_1__(2,)cconstexpr_False__(3,)cNone"(%q_sq_sum) : (tensor<16x128xf32>) -> tensor<16xf32> loc(#loc191)
      %q_inv = arith.constant 9.99999997E-7 : f32 loc(#loc192)
      %q_inv_155 = arith.constant 9.99999997E-7 : f32 loc(#loc192)
      %q_inv_156 = arith.constant dense<9.99999997E-7> : tensor<16xf32> loc(#loc192)
      %q_inv_157 = arith.addf %q_sq_sum_154, %q_inv_156 : tensor<16xf32> loc(#loc192)
      %q_inv_158 = math.sqrt %q_inv_157 : tensor<16xf32> loc(#loc193)
      %q_inv_159 = arith.constant 1.000000e+00 : f32 loc(#loc194)
      %q_inv_160 = arith.constant 1.000000e+00 : f32 loc(#loc194)
      %q_inv_161 = arith.constant dense<1.000000e+00> : tensor<16xf32> loc(#loc194)
      %q_inv_162 = arith.divf %q_inv_161, %q_inv_158 : tensor<16xf32> loc(#loc194)
      %q_f32_163 = tt.expand_dims %q_inv_162 {axis = 1 : i32} : tensor<16xf32> -> tensor<16x1xf32> loc(#loc195)
      %q_f32_164 = tt.broadcast %q_f32_163 : tensor<16x1xf32> -> tensor<16x128xf32> loc(#loc196)
      %q_f32_165 = arith.mulf %q_f32_84, %q_f32_164 : tensor<16x128xf32> loc(#loc196)
      %k_sq_sum = arith.mulf %k_f32_153, %k_f32_153 : tensor<16x128xf32> loc(#loc197)
      %k_sq_sum_166 = tt.call @"triton.language.standard.sum__fp32S16_128S__(1,)cconstexpr_1__(2,)cconstexpr_False__(3,)cNone"(%k_sq_sum) : (tensor<16x128xf32>) -> tensor<16xf32> loc(#loc198)
      %k_inv = arith.constant 9.99999997E-7 : f32 loc(#loc199)
      %k_inv_167 = arith.constant 9.99999997E-7 : f32 loc(#loc199)
      %k_inv_168 = arith.constant dense<9.99999997E-7> : tensor<16xf32> loc(#loc199)
      %k_inv_169 = arith.addf %k_sq_sum_166, %k_inv_168 : tensor<16xf32> loc(#loc199)
      %k_inv_170 = math.sqrt %k_inv_169 : tensor<16xf32> loc(#loc200)
      %k_inv_171 = arith.constant 1.000000e+00 : f32 loc(#loc201)
      %k_inv_172 = arith.constant 1.000000e+00 : f32 loc(#loc201)
      %k_inv_173 = arith.constant dense<1.000000e+00> : tensor<16xf32> loc(#loc201)
      %k_inv_174 = arith.divf %k_inv_173, %k_inv_170 : tensor<16xf32> loc(#loc201)
      %k_f32_175 = tt.expand_dims %k_inv_174 {axis = 1 : i32} : tensor<16xf32> -> tensor<16x1xf32> loc(#loc202)
      %k_f32_176 = tt.broadcast %k_f32_175 : tensor<16x1xf32> -> tensor<16x128xf32> loc(#loc203)
      %k_f32_177 = arith.mulf %k_f32_153, %k_f32_176 : tensor<16x128xf32> loc(#loc203)
      %q_out = tt.expand_dims %offs_t_22 {axis = 1 : i32} : tensor<16xi32> -> tensor<16x1xi32> loc(#loc204)
      %q_out_178 = tt.splat %stride_q_tok : i32 -> tensor<16x1xi32> loc(#loc205)
      %q_out_179 = arith.extsi %q_out : tensor<16x1xi32> to tensor<16x1xi64> loc(#loc205)
      %q_out_180 = arith.extsi %q_out_178 : tensor<16x1xi32> to tensor<16x1xi64> loc(#loc205)
      %q_out_181 = arith.muli %q_out_179, %q_out_180 : tensor<16x1xi64> loc(#loc205)
      %q_out_182 = arith.constant 2147483647 : i64 loc(#loc205)
      %q_out_183 = arith.constant -2147483648 : i64 loc(#loc205)
      %q_out_184 = arith.constant dense<2147483647> : tensor<16x1xi64> loc(#loc205)
      %q_out_185 = arith.cmpi sle, %q_out_181, %q_out_184 : tensor<16x1xi64> loc(#loc205)
      %q_out_186 = arith.constant dense<-2147483648> : tensor<16x1xi64> loc(#loc205)
      %q_out_187 = arith.cmpi sge, %q_out_181, %q_out_186 : tensor<16x1xi64> loc(#loc205)
      %q_out_188 = arith.andi %q_out_185, %q_out_187 : tensor<16x1xi1> loc(#loc205)
      %q_out_189 = arith.muli %q_out, %q_out_178 : tensor<16x1xi32> loc(#loc205)
      %q_out_190 = arith.constant 128 : i32 loc(#loc206)
      %q_out_191 = arith.constant 128 : i32 loc(#loc206)
      %q_out_192 = arith.extsi %i_head : i32 to i64 loc(#loc206)
      %q_out_193 = arith.extsi %q_out_191 : i32 to i64 loc(#loc206)
      %q_out_194 = arith.muli %q_out_192, %q_out_193 : i64 loc(#loc206)
      %q_out_195 = arith.constant 2147483647 : i64 loc(#loc206)
      %q_out_196 = arith.constant -2147483648 : i64 loc(#loc206)
      %q_out_197 = arith.cmpi sle, %q_out_194, %q_out_195 : i64 loc(#loc206)
      %q_out_198 = arith.cmpi sge, %q_out_194, %q_out_196 : i64 loc(#loc206)
      %q_out_199 = arith.andi %q_out_197, %q_out_198 : i1 loc(#loc206)
      %q_out_200 = arith.muli %i_head, %q_out_191 : i32 loc(#loc206)
      %q_out_201 = tt.splat %q_out_200 : i32 -> tensor<16x1xi32> loc(#loc207)
      %q_out_202 = arith.extsi %q_out_189 : tensor<16x1xi32> to tensor<16x1xi64> loc(#loc207)
      %q_out_203 = arith.extsi %q_out_201 : tensor<16x1xi32> to tensor<16x1xi64> loc(#loc207)
      %q_out_204 = arith.addi %q_out_202, %q_out_203 : tensor<16x1xi64> loc(#loc207)
      %q_out_205 = arith.constant 2147483647 : i64 loc(#loc207)
      %q_out_206 = arith.constant -2147483648 : i64 loc(#loc207)
      %q_out_207 = arith.constant dense<2147483647> : tensor<16x1xi64> loc(#loc207)
      %q_out_208 = arith.cmpi sle, %q_out_204, %q_out_207 : tensor<16x1xi64> loc(#loc207)
      %q_out_209 = arith.constant dense<-2147483648> : tensor<16x1xi64> loc(#loc207)
      %q_out_210 = arith.cmpi sge, %q_out_204, %q_out_209 : tensor<16x1xi64> loc(#loc207)
      %q_out_211 = arith.andi %q_out_208, %q_out_210 : tensor<16x1xi1> loc(#loc207)
      %q_out_212 = arith.addi %q_out_189, %q_out_201 : tensor<16x1xi32> loc(#loc207)
      %q_out_213 = tt.expand_dims %offs_k {axis = 0 : i32} : tensor<128xi32> -> tensor<1x128xi32> loc(#loc208)
      %q_out_214 = tt.broadcast %q_out_212 : tensor<16x1xi32> -> tensor<16x128xi32> loc(#loc209)
      %q_out_215 = tt.broadcast %q_out_213 : tensor<1x128xi32> -> tensor<16x128xi32> loc(#loc209)
      %q_out_216 = arith.extsi %q_out_214 : tensor<16x128xi32> to tensor<16x128xi64> loc(#loc209)
      %q_out_217 = arith.extsi %q_out_215 : tensor<16x128xi32> to tensor<16x128xi64> loc(#loc209)
      %q_out_218 = arith.addi %q_out_216, %q_out_217 : tensor<16x128xi64> loc(#loc209)
      %q_out_219 = arith.constant 2147483647 : i64 loc(#loc209)
      %q_out_220 = arith.constant -2147483648 : i64 loc(#loc209)
      %q_out_221 = arith.constant dense<2147483647> : tensor<16x128xi64> loc(#loc209)
      %q_out_222 = arith.cmpi sle, %q_out_218, %q_out_221 : tensor<16x128xi64> loc(#loc209)
      %q_out_223 = arith.constant dense<-2147483648> : tensor<16x128xi64> loc(#loc209)
      %q_out_224 = arith.cmpi sge, %q_out_218, %q_out_223 : tensor<16x128xi64> loc(#loc209)
      %q_out_225 = arith.andi %q_out_222, %q_out_224 : tensor<16x128xi1> loc(#loc209)
      %q_out_226 = arith.addi %q_out_214, %q_out_215 : tensor<16x128xi32> loc(#loc209)
      %2 = tt.splat %q_ptr : !tt.ptr<f16> -> tensor<16x128x!tt.ptr<f16>> loc(#loc53)
      %3 = tt.addptr %2, %q_out_226 : tensor<16x128x!tt.ptr<f16>>, tensor<16x128xi32> loc(#loc53)
      %4 = arith.truncf %q_f32_165 : tensor<16x128xf32> to tensor<16x128xf16> loc(#loc54)
      tt.store %3, %4, %mask_2d_29 : tensor<16x128x!tt.ptr<f16>> loc(#loc55)
      %k_out = tt.expand_dims %offs_t_22 {axis = 1 : i32} : tensor<16xi32> -> tensor<16x1xi32> loc(#loc210)
      %k_out_227 = tt.splat %stride_k_tok : i32 -> tensor<16x1xi32> loc(#loc211)
      %k_out_228 = arith.extsi %k_out : tensor<16x1xi32> to tensor<16x1xi64> loc(#loc211)
      %k_out_229 = arith.extsi %k_out_227 : tensor<16x1xi32> to tensor<16x1xi64> loc(#loc211)
      %k_out_230 = arith.muli %k_out_228, %k_out_229 : tensor<16x1xi64> loc(#loc211)
      %k_out_231 = arith.constant 2147483647 : i64 loc(#loc211)
      %k_out_232 = arith.constant -2147483648 : i64 loc(#loc211)
      %k_out_233 = arith.constant dense<2147483647> : tensor<16x1xi64> loc(#loc211)
      %k_out_234 = arith.cmpi sle, %k_out_230, %k_out_233 : tensor<16x1xi64> loc(#loc211)
      %k_out_235 = arith.constant dense<-2147483648> : tensor<16x1xi64> loc(#loc211)
      %k_out_236 = arith.cmpi sge, %k_out_230, %k_out_235 : tensor<16x1xi64> loc(#loc211)
      %k_out_237 = arith.andi %k_out_234, %k_out_236 : tensor<16x1xi1> loc(#loc211)
      %k_out_238 = arith.muli %k_out, %k_out_227 : tensor<16x1xi32> loc(#loc211)
      %k_out_239 = arith.constant 128 : i32 loc(#loc212)
      %k_out_240 = arith.constant 128 : i32 loc(#loc212)
      %k_out_241 = arith.extsi %i_head : i32 to i64 loc(#loc212)
      %k_out_242 = arith.extsi %k_out_240 : i32 to i64 loc(#loc212)
      %k_out_243 = arith.muli %k_out_241, %k_out_242 : i64 loc(#loc212)
      %k_out_244 = arith.constant 2147483647 : i64 loc(#loc212)
      %k_out_245 = arith.constant -2147483648 : i64 loc(#loc212)
      %k_out_246 = arith.cmpi sle, %k_out_243, %k_out_244 : i64 loc(#loc212)
      %k_out_247 = arith.cmpi sge, %k_out_243, %k_out_245 : i64 loc(#loc212)
      %k_out_248 = arith.andi %k_out_246, %k_out_247 : i1 loc(#loc212)
      %k_out_249 = arith.muli %i_head, %k_out_240 : i32 loc(#loc212)
      %k_out_250 = tt.splat %k_out_249 : i32 -> tensor<16x1xi32> loc(#loc213)
      %k_out_251 = arith.extsi %k_out_238 : tensor<16x1xi32> to tensor<16x1xi64> loc(#loc213)
      %k_out_252 = arith.extsi %k_out_250 : tensor<16x1xi32> to tensor<16x1xi64> loc(#loc213)
      %k_out_253 = arith.addi %k_out_251, %k_out_252 : tensor<16x1xi64> loc(#loc213)
      %k_out_254 = arith.constant 2147483647 : i64 loc(#loc213)
      %k_out_255 = arith.constant -2147483648 : i64 loc(#loc213)
      %k_out_256 = arith.constant dense<2147483647> : tensor<16x1xi64> loc(#loc213)
      %k_out_257 = arith.cmpi sle, %k_out_253, %k_out_256 : tensor<16x1xi64> loc(#loc213)
      %k_out_258 = arith.constant dense<-2147483648> : tensor<16x1xi64> loc(#loc213)
      %k_out_259 = arith.cmpi sge, %k_out_253, %k_out_258 : tensor<16x1xi64> loc(#loc213)
      %k_out_260 = arith.andi %k_out_257, %k_out_259 : tensor<16x1xi1> loc(#loc213)
      %k_out_261 = arith.addi %k_out_238, %k_out_250 : tensor<16x1xi32> loc(#loc213)
      %k_out_262 = tt.expand_dims %offs_k {axis = 0 : i32} : tensor<128xi32> -> tensor<1x128xi32> loc(#loc214)
      %k_out_263 = tt.broadcast %k_out_261 : tensor<16x1xi32> -> tensor<16x128xi32> loc(#loc215)
      %k_out_264 = tt.broadcast %k_out_262 : tensor<1x128xi32> -> tensor<16x128xi32> loc(#loc215)
      %k_out_265 = arith.extsi %k_out_263 : tensor<16x128xi32> to tensor<16x128xi64> loc(#loc215)
      %k_out_266 = arith.extsi %k_out_264 : tensor<16x128xi32> to tensor<16x128xi64> loc(#loc215)
      %k_out_267 = arith.addi %k_out_265, %k_out_266 : tensor<16x128xi64> loc(#loc215)
      %k_out_268 = arith.constant 2147483647 : i64 loc(#loc215)
      %k_out_269 = arith.constant -2147483648 : i64 loc(#loc215)
      %k_out_270 = arith.constant dense<2147483647> : tensor<16x128xi64> loc(#loc215)
      %k_out_271 = arith.cmpi sle, %k_out_267, %k_out_270 : tensor<16x128xi64> loc(#loc215)
      %k_out_272 = arith.constant dense<-2147483648> : tensor<16x128xi64> loc(#loc215)
      %k_out_273 = arith.cmpi sge, %k_out_267, %k_out_272 : tensor<16x128xi64> loc(#loc215)
      %k_out_274 = arith.andi %k_out_271, %k_out_273 : tensor<16x128xi1> loc(#loc215)
      %k_out_275 = arith.addi %k_out_263, %k_out_264 : tensor<16x128xi32> loc(#loc215)
      %5 = tt.splat %k_ptr : !tt.ptr<f16> -> tensor<16x128x!tt.ptr<f16>> loc(#loc62)
      %6 = tt.addptr %5, %k_out_275 : tensor<16x128x!tt.ptr<f16>>, tensor<16x128xi32> loc(#loc62)
      %7 = arith.truncf %k_f32_177 : tensor<16x128xf32> to tensor<16x128xf16> loc(#loc63)
      tt.store %6, %7, %mask_2d_29 : tensor<16x128x!tt.ptr<f16>> loc(#loc64)
      scf.yield %mask_2d_29 : tensor<16x128xi1> loc(#loc64)
    } else {
      %i_hv = arith.constant 8 : i32 loc(#loc216)
      %i_hv_24 = arith.constant 8 : i32 loc(#loc216)
      %i_hv_25 = arith.extsi %i_head : i32 to i64 loc(#loc216)
      %i_hv_26 = arith.extsi %i_hv_24 : i32 to i64 loc(#loc216)
      %i_hv_27 = arith.subi %i_hv_25, %i_hv_26 : i64 loc(#loc216)
      %i_hv_28 = arith.constant 2147483647 : i64 loc(#loc216)
      %i_hv_29 = arith.constant -2147483648 : i64 loc(#loc216)
      %i_hv_30 = arith.cmpi sle, %i_hv_27, %i_hv_28 : i64 loc(#loc216)
      %i_hv_31 = arith.cmpi sge, %i_hv_27, %i_hv_29 : i64 loc(#loc216)
      %i_hv_32 = arith.andi %i_hv_30, %i_hv_31 : i1 loc(#loc216)
      %i_hv_33 = arith.subi %i_head, %i_hv_24 : i32 loc(#loc216)
      %offs_v = tt.make_range {end = 128 : i32, start = 0 : i32} : tensor<128xi32> loc(#loc217)
      %mask_v = arith.constant 128 : i32 loc(#loc218)
      %mask_v_34 = arith.constant dense<128> : tensor<128xi32> loc(#loc218)
      %mask_v_35 = arith.cmpi slt, %offs_v, %mask_v_34 : tensor<128xi32> loc(#loc218)
      %mask_2d = tt.expand_dims %mask_t_23 {axis = 1 : i32} : tensor<16xi1> -> tensor<16x1xi1> loc(#loc219)
      %mask_2d_36 = tt.expand_dims %mask_v_35 {axis = 0 : i32} : tensor<128xi1> -> tensor<1x128xi1> loc(#loc220)
      %mask_2d_37 = tt.broadcast %mask_2d : tensor<16x1xi1> -> tensor<16x128xi1> loc(#loc221)
      %mask_2d_38 = tt.broadcast %mask_2d_36 : tensor<1x128xi1> -> tensor<16x128xi1> loc(#loc221)
      %mask_2d_39 = arith.andi %mask_2d_37, %mask_2d_38 : tensor<16x128xi1> loc(#loc276)
      %v_offsets = tt.expand_dims %offs_t_22 {axis = 1 : i32} : tensor<16xi32> -> tensor<16x1xi32> loc(#loc222)
      %v_offsets_40 = tt.splat %stride_x_tok : i32 -> tensor<16x1xi32> loc(#loc223)
      %v_offsets_41 = arith.extsi %v_offsets : tensor<16x1xi32> to tensor<16x1xi64> loc(#loc223)
      %v_offsets_42 = arith.extsi %v_offsets_40 : tensor<16x1xi32> to tensor<16x1xi64> loc(#loc223)
      %v_offsets_43 = arith.muli %v_offsets_41, %v_offsets_42 : tensor<16x1xi64> loc(#loc223)
      %v_offsets_44 = arith.constant 2147483647 : i64 loc(#loc223)
      %v_offsets_45 = arith.constant -2147483648 : i64 loc(#loc223)
      %v_offsets_46 = arith.constant dense<2147483647> : tensor<16x1xi64> loc(#loc223)
      %v_offsets_47 = arith.cmpi sle, %v_offsets_43, %v_offsets_46 : tensor<16x1xi64> loc(#loc223)
      %v_offsets_48 = arith.constant dense<-2147483648> : tensor<16x1xi64> loc(#loc223)
      %v_offsets_49 = arith.cmpi sge, %v_offsets_43, %v_offsets_48 : tensor<16x1xi64> loc(#loc223)
      %v_offsets_50 = arith.andi %v_offsets_47, %v_offsets_49 : tensor<16x1xi1> loc(#loc223)
      %v_offsets_51 = arith.muli %v_offsets, %v_offsets_40 : tensor<16x1xi32> loc(#loc223)
      %v_offsets_52 = arith.constant 2048 : i32 loc(#loc224)
      %v_offsets_53 = arith.constant 2048 : i32 loc(#loc224)
      %v_offsets_54 = arith.constant dense<2048> : tensor<16x1xi32> loc(#loc224)
      %v_offsets_55 = arith.extsi %v_offsets_51 : tensor<16x1xi32> to tensor<16x1xi64> loc(#loc224)
      %v_offsets_56 = arith.extsi %v_offsets_54 : tensor<16x1xi32> to tensor<16x1xi64> loc(#loc224)
      %v_offsets_57 = arith.addi %v_offsets_55, %v_offsets_56 : tensor<16x1xi64> loc(#loc224)
      %v_offsets_58 = arith.constant 2147483647 : i64 loc(#loc224)
      %v_offsets_59 = arith.constant -2147483648 : i64 loc(#loc224)
      %v_offsets_60 = arith.constant dense<2147483647> : tensor<16x1xi64> loc(#loc224)
      %v_offsets_61 = arith.cmpi sle, %v_offsets_57, %v_offsets_60 : tensor<16x1xi64> loc(#loc224)
      %v_offsets_62 = arith.constant dense<-2147483648> : tensor<16x1xi64> loc(#loc224)
      %v_offsets_63 = arith.cmpi sge, %v_offsets_57, %v_offsets_62 : tensor<16x1xi64> loc(#loc224)
      %v_offsets_64 = arith.andi %v_offsets_61, %v_offsets_63 : tensor<16x1xi1> loc(#loc224)
      %v_offsets_65 = arith.addi %v_offsets_51, %v_offsets_54 : tensor<16x1xi32> loc(#loc224)
      %v_offsets_66 = arith.constant 128 : i32 loc(#loc225)
      %v_offsets_67 = arith.constant 128 : i32 loc(#loc225)
      %v_offsets_68 = arith.extsi %i_hv_33 : i32 to i64 loc(#loc225)
      %v_offsets_69 = arith.extsi %v_offsets_67 : i32 to i64 loc(#loc225)
      %v_offsets_70 = arith.muli %v_offsets_68, %v_offsets_69 : i64 loc(#loc225)
      %v_offsets_71 = arith.constant 2147483647 : i64 loc(#loc225)
      %v_offsets_72 = arith.constant -2147483648 : i64 loc(#loc225)
      %v_offsets_73 = arith.cmpi sle, %v_offsets_70, %v_offsets_71 : i64 loc(#loc225)
      %v_offsets_74 = arith.cmpi sge, %v_offsets_70, %v_offsets_72 : i64 loc(#loc225)
      %v_offsets_75 = arith.andi %v_offsets_73, %v_offsets_74 : i1 loc(#loc225)
      %v_offsets_76 = arith.muli %i_hv_33, %v_offsets_67 : i32 loc(#loc225)
      %v_offsets_77 = tt.splat %v_offsets_76 : i32 -> tensor<16x1xi32> loc(#loc226)
      %v_offsets_78 = arith.extsi %v_offsets_65 : tensor<16x1xi32> to tensor<16x1xi64> loc(#loc226)
      %v_offsets_79 = arith.extsi %v_offsets_77 : tensor<16x1xi32> to tensor<16x1xi64> loc(#loc226)
      %v_offsets_80 = arith.addi %v_offsets_78, %v_offsets_79 : tensor<16x1xi64> loc(#loc226)
      %v_offsets_81 = arith.constant 2147483647 : i64 loc(#loc226)
      %v_offsets_82 = arith.constant -2147483648 : i64 loc(#loc226)
      %v_offsets_83 = arith.constant dense<2147483647> : tensor<16x1xi64> loc(#loc226)
      %v_offsets_84 = arith.cmpi sle, %v_offsets_80, %v_offsets_83 : tensor<16x1xi64> loc(#loc226)
      %v_offsets_85 = arith.constant dense<-2147483648> : tensor<16x1xi64> loc(#loc226)
      %v_offsets_86 = arith.cmpi sge, %v_offsets_80, %v_offsets_85 : tensor<16x1xi64> loc(#loc226)
      %v_offsets_87 = arith.andi %v_offsets_84, %v_offsets_86 : tensor<16x1xi1> loc(#loc226)
      %v_offsets_88 = arith.addi %v_offsets_65, %v_offsets_77 : tensor<16x1xi32> loc(#loc226)
      %v_offsets_89 = tt.expand_dims %offs_v {axis = 0 : i32} : tensor<128xi32> -> tensor<1x128xi32> loc(#loc227)
      %v_offsets_90 = tt.broadcast %v_offsets_88 : tensor<16x1xi32> -> tensor<16x128xi32> loc(#loc228)
      %v_offsets_91 = tt.broadcast %v_offsets_89 : tensor<1x128xi32> -> tensor<16x128xi32> loc(#loc228)
      %v_offsets_92 = arith.extsi %v_offsets_90 : tensor<16x128xi32> to tensor<16x128xi64> loc(#loc228)
      %v_offsets_93 = arith.extsi %v_offsets_91 : tensor<16x128xi32> to tensor<16x128xi64> loc(#loc228)
      %v_offsets_94 = arith.addi %v_offsets_92, %v_offsets_93 : tensor<16x128xi64> loc(#loc228)
      %v_offsets_95 = arith.constant 2147483647 : i64 loc(#loc228)
      %v_offsets_96 = arith.constant -2147483648 : i64 loc(#loc228)
      %v_offsets_97 = arith.constant dense<2147483647> : tensor<16x128xi64> loc(#loc228)
      %v_offsets_98 = arith.cmpi sle, %v_offsets_94, %v_offsets_97 : tensor<16x128xi64> loc(#loc228)
      %v_offsets_99 = arith.constant dense<-2147483648> : tensor<16x128xi64> loc(#loc228)
      %v_offsets_100 = arith.cmpi sge, %v_offsets_94, %v_offsets_99 : tensor<16x128xi64> loc(#loc228)
      %v_offsets_101 = arith.andi %v_offsets_98, %v_offsets_100 : tensor<16x128xi1> loc(#loc228)
      %v_offsets_102 = arith.addi %v_offsets_90, %v_offsets_91 : tensor<16x128xi32> loc(#loc228)
      %v_vals = tt.splat %mixed_qkv_ptr : !tt.ptr<f16> -> tensor<16x128x!tt.ptr<f16>> loc(#loc229)
      %v_vals_103 = tt.addptr %v_vals, %v_offsets_102 : tensor<16x128x!tt.ptr<f16>>, tensor<16x128xi32> loc(#loc229)
      %v_vals_104 = arith.constant 0 : i32 loc(#loc230)
      %v_vals_105 = arith.constant dense<0> : tensor<16x128xi32> loc(#loc230)
      %v_vals_106 = arith.sitofp %v_vals_105 : tensor<16x128xi32> to tensor<16x128xf16> loc(#loc230)
      %v_vals_107 = tt.load %v_vals_103, %mask_2d_39, %v_vals_106 : tensor<16x128x!tt.ptr<f16>> loc(#loc230)
      %v_out = tt.expand_dims %offs_t_22 {axis = 1 : i32} : tensor<16xi32> -> tensor<16x1xi32> loc(#loc231)
      %v_out_108 = tt.splat %stride_v_tok : i32 -> tensor<16x1xi32> loc(#loc232)
      %v_out_109 = arith.extsi %v_out : tensor<16x1xi32> to tensor<16x1xi64> loc(#loc232)
      %v_out_110 = arith.extsi %v_out_108 : tensor<16x1xi32> to tensor<16x1xi64> loc(#loc232)
      %v_out_111 = arith.muli %v_out_109, %v_out_110 : tensor<16x1xi64> loc(#loc232)
      %v_out_112 = arith.constant 2147483647 : i64 loc(#loc232)
      %v_out_113 = arith.constant -2147483648 : i64 loc(#loc232)
      %v_out_114 = arith.constant dense<2147483647> : tensor<16x1xi64> loc(#loc232)
      %v_out_115 = arith.cmpi sle, %v_out_111, %v_out_114 : tensor<16x1xi64> loc(#loc232)
      %v_out_116 = arith.constant dense<-2147483648> : tensor<16x1xi64> loc(#loc232)
      %v_out_117 = arith.cmpi sge, %v_out_111, %v_out_116 : tensor<16x1xi64> loc(#loc232)
      %v_out_118 = arith.andi %v_out_115, %v_out_117 : tensor<16x1xi1> loc(#loc232)
      %v_out_119 = arith.muli %v_out, %v_out_108 : tensor<16x1xi32> loc(#loc232)
      %v_out_120 = arith.constant 128 : i32 loc(#loc233)
      %v_out_121 = arith.constant 128 : i32 loc(#loc233)
      %v_out_122 = arith.extsi %i_hv_33 : i32 to i64 loc(#loc233)
      %v_out_123 = arith.extsi %v_out_121 : i32 to i64 loc(#loc233)
      %v_out_124 = arith.muli %v_out_122, %v_out_123 : i64 loc(#loc233)
      %v_out_125 = arith.constant 2147483647 : i64 loc(#loc233)
      %v_out_126 = arith.constant -2147483648 : i64 loc(#loc233)
      %v_out_127 = arith.cmpi sle, %v_out_124, %v_out_125 : i64 loc(#loc233)
      %v_out_128 = arith.cmpi sge, %v_out_124, %v_out_126 : i64 loc(#loc233)
      %v_out_129 = arith.andi %v_out_127, %v_out_128 : i1 loc(#loc233)
      %v_out_130 = arith.muli %i_hv_33, %v_out_121 : i32 loc(#loc233)
      %v_out_131 = tt.splat %v_out_130 : i32 -> tensor<16x1xi32> loc(#loc234)
      %v_out_132 = arith.extsi %v_out_119 : tensor<16x1xi32> to tensor<16x1xi64> loc(#loc234)
      %v_out_133 = arith.extsi %v_out_131 : tensor<16x1xi32> to tensor<16x1xi64> loc(#loc234)
      %v_out_134 = arith.addi %v_out_132, %v_out_133 : tensor<16x1xi64> loc(#loc234)
      %v_out_135 = arith.constant 2147483647 : i64 loc(#loc234)
      %v_out_136 = arith.constant -2147483648 : i64 loc(#loc234)
      %v_out_137 = arith.constant dense<2147483647> : tensor<16x1xi64> loc(#loc234)
      %v_out_138 = arith.cmpi sle, %v_out_134, %v_out_137 : tensor<16x1xi64> loc(#loc234)
      %v_out_139 = arith.constant dense<-2147483648> : tensor<16x1xi64> loc(#loc234)
      %v_out_140 = arith.cmpi sge, %v_out_134, %v_out_139 : tensor<16x1xi64> loc(#loc234)
      %v_out_141 = arith.andi %v_out_138, %v_out_140 : tensor<16x1xi1> loc(#loc234)
      %v_out_142 = arith.addi %v_out_119, %v_out_131 : tensor<16x1xi32> loc(#loc234)
      %v_out_143 = tt.expand_dims %offs_v {axis = 0 : i32} : tensor<128xi32> -> tensor<1x128xi32> loc(#loc235)
      %v_out_144 = tt.broadcast %v_out_142 : tensor<16x1xi32> -> tensor<16x128xi32> loc(#loc236)
      %v_out_145 = tt.broadcast %v_out_143 : tensor<1x128xi32> -> tensor<16x128xi32> loc(#loc236)
      %v_out_146 = arith.extsi %v_out_144 : tensor<16x128xi32> to tensor<16x128xi64> loc(#loc236)
      %v_out_147 = arith.extsi %v_out_145 : tensor<16x128xi32> to tensor<16x128xi64> loc(#loc236)
      %v_out_148 = arith.addi %v_out_146, %v_out_147 : tensor<16x128xi64> loc(#loc236)
      %v_out_149 = arith.constant 2147483647 : i64 loc(#loc236)
      %v_out_150 = arith.constant -2147483648 : i64 loc(#loc236)
      %v_out_151 = arith.constant dense<2147483647> : tensor<16x128xi64> loc(#loc236)
      %v_out_152 = arith.cmpi sle, %v_out_148, %v_out_151 : tensor<16x128xi64> loc(#loc236)
      %v_out_153 = arith.constant dense<-2147483648> : tensor<16x128xi64> loc(#loc236)
      %v_out_154 = arith.cmpi sge, %v_out_148, %v_out_153 : tensor<16x128xi64> loc(#loc236)
      %v_out_155 = arith.andi %v_out_152, %v_out_154 : tensor<16x128xi1> loc(#loc236)
      %v_out_156 = arith.addi %v_out_144, %v_out_145 : tensor<16x128xi32> loc(#loc236)
      %2 = tt.splat %v_ptr : !tt.ptr<f16> -> tensor<16x128x!tt.ptr<f16>> loc(#loc86)
      %3 = tt.addptr %2, %v_out_156 : tensor<16x128x!tt.ptr<f16>>, tensor<16x128xi32> loc(#loc86)
      tt.store %3, %v_vals_107, %mask_2d_39 : tensor<16x128x!tt.ptr<f16>> loc(#loc87)
      %A_log_val = tt.addptr %A_log_ptr, %i_hv_33 : !tt.ptr<f32>, i32 loc(#loc237)
      %A_log_val_157 = tt.load %A_log_val : !tt.ptr<f32> loc(#loc238)
      %dt_bias_val = tt.addptr %dt_bias_ptr, %i_hv_33 : !tt.ptr<f16>, i32 loc(#loc239)
      %dt_bias_val_158 = tt.load %dt_bias_val : !tt.ptr<f16> loc(#loc240)
      %dt_bias_val_159 = arith.extf %dt_bias_val_158 : f16 to f32 loc(#loc241)
      %a_offsets = tt.splat %stride_a_tok : i32 -> tensor<16xi32> loc(#loc242)
      %a_offsets_160 = arith.extsi %offs_t_22 : tensor<16xi32> to tensor<16xi64> loc(#loc242)
      %a_offsets_161 = arith.extsi %a_offsets : tensor<16xi32> to tensor<16xi64> loc(#loc242)
      %a_offsets_162 = arith.muli %a_offsets_160, %a_offsets_161 : tensor<16xi64> loc(#loc242)
      %a_offsets_163 = arith.constant 2147483647 : i64 loc(#loc242)
      %a_offsets_164 = arith.constant -2147483648 : i64 loc(#loc242)
      %a_offsets_165 = arith.constant dense<2147483647> : tensor<16xi64> loc(#loc242)
      %a_offsets_166 = arith.cmpi sle, %a_offsets_162, %a_offsets_165 : tensor<16xi64> loc(#loc242)
      %a_offsets_167 = arith.constant dense<-2147483648> : tensor<16xi64> loc(#loc242)
      %a_offsets_168 = arith.cmpi sge, %a_offsets_162, %a_offsets_167 : tensor<16xi64> loc(#loc242)
      %a_offsets_169 = arith.andi %a_offsets_166, %a_offsets_168 : tensor<16xi1> loc(#loc242)
      %a_offsets_170 = arith.muli %offs_t_22, %a_offsets : tensor<16xi32> loc(#loc242)
      %a_offsets_171 = tt.splat %i_hv_33 : i32 -> tensor<16xi32> loc(#loc243)
      %a_offsets_172 = arith.extsi %a_offsets_170 : tensor<16xi32> to tensor<16xi64> loc(#loc243)
      %a_offsets_173 = arith.extsi %a_offsets_171 : tensor<16xi32> to tensor<16xi64> loc(#loc243)
      %a_offsets_174 = arith.addi %a_offsets_172, %a_offsets_173 : tensor<16xi64> loc(#loc243)
      %a_offsets_175 = arith.constant 2147483647 : i64 loc(#loc243)
      %a_offsets_176 = arith.constant -2147483648 : i64 loc(#loc243)
      %a_offsets_177 = arith.constant dense<2147483647> : tensor<16xi64> loc(#loc243)
      %a_offsets_178 = arith.cmpi sle, %a_offsets_174, %a_offsets_177 : tensor<16xi64> loc(#loc243)
      %a_offsets_179 = arith.constant dense<-2147483648> : tensor<16xi64> loc(#loc243)
      %a_offsets_180 = arith.cmpi sge, %a_offsets_174, %a_offsets_179 : tensor<16xi64> loc(#loc243)
      %a_offsets_181 = arith.andi %a_offsets_178, %a_offsets_180 : tensor<16xi1> loc(#loc243)
      %a_offsets_182 = arith.addi %a_offsets_170, %a_offsets_171 : tensor<16xi32> loc(#loc243)
      %b_offsets = tt.splat %stride_b_tok : i32 -> tensor<16xi32> loc(#loc244)
      %b_offsets_183 = arith.extsi %offs_t_22 : tensor<16xi32> to tensor<16xi64> loc(#loc244)
      %b_offsets_184 = arith.extsi %b_offsets : tensor<16xi32> to tensor<16xi64> loc(#loc244)
      %b_offsets_185 = arith.muli %b_offsets_183, %b_offsets_184 : tensor<16xi64> loc(#loc244)
      %b_offsets_186 = arith.constant 2147483647 : i64 loc(#loc244)
      %b_offsets_187 = arith.constant -2147483648 : i64 loc(#loc244)
      %b_offsets_188 = arith.constant dense<2147483647> : tensor<16xi64> loc(#loc244)
      %b_offsets_189 = arith.cmpi sle, %b_offsets_185, %b_offsets_188 : tensor<16xi64> loc(#loc244)
      %b_offsets_190 = arith.constant dense<-2147483648> : tensor<16xi64> loc(#loc244)
      %b_offsets_191 = arith.cmpi sge, %b_offsets_185, %b_offsets_190 : tensor<16xi64> loc(#loc244)
      %b_offsets_192 = arith.andi %b_offsets_189, %b_offsets_191 : tensor<16xi1> loc(#loc244)
      %b_offsets_193 = arith.muli %offs_t_22, %b_offsets : tensor<16xi32> loc(#loc244)
      %b_offsets_194 = tt.splat %i_hv_33 : i32 -> tensor<16xi32> loc(#loc245)
      %b_offsets_195 = arith.extsi %b_offsets_193 : tensor<16xi32> to tensor<16xi64> loc(#loc245)
      %b_offsets_196 = arith.extsi %b_offsets_194 : tensor<16xi32> to tensor<16xi64> loc(#loc245)
      %b_offsets_197 = arith.addi %b_offsets_195, %b_offsets_196 : tensor<16xi64> loc(#loc245)
      %b_offsets_198 = arith.constant 2147483647 : i64 loc(#loc245)
      %b_offsets_199 = arith.constant -2147483648 : i64 loc(#loc245)
      %b_offsets_200 = arith.constant dense<2147483647> : tensor<16xi64> loc(#loc245)
      %b_offsets_201 = arith.cmpi sle, %b_offsets_197, %b_offsets_200 : tensor<16xi64> loc(#loc245)
      %b_offsets_202 = arith.constant dense<-2147483648> : tensor<16xi64> loc(#loc245)
      %b_offsets_203 = arith.cmpi sge, %b_offsets_197, %b_offsets_202 : tensor<16xi64> loc(#loc245)
      %b_offsets_204 = arith.andi %b_offsets_201, %b_offsets_203 : tensor<16xi1> loc(#loc245)
      %b_offsets_205 = arith.addi %b_offsets_193, %b_offsets_194 : tensor<16xi32> loc(#loc245)
      %a_vals = tt.splat %a_ptr : !tt.ptr<f16> -> tensor<16x!tt.ptr<f16>> loc(#loc246)
      %a_vals_206 = tt.addptr %a_vals, %a_offsets_182 : tensor<16x!tt.ptr<f16>>, tensor<16xi32> loc(#loc246)
      %a_vals_207 = arith.constant 0 : i32 loc(#loc247)
      %a_vals_208 = arith.constant dense<0> : tensor<16xi32> loc(#loc247)
      %a_vals_209 = arith.sitofp %a_vals_208 : tensor<16xi32> to tensor<16xf16> loc(#loc247)
      %a_vals_210 = tt.load %a_vals_206, %mask_t_23, %a_vals_209 : tensor<16x!tt.ptr<f16>> loc(#loc247)
      %a_vals_211 = arith.extf %a_vals_210 : tensor<16xf16> to tensor<16xf32> loc(#loc248)
      %b_vals = tt.splat %b_ptr : !tt.ptr<f16> -> tensor<16x!tt.ptr<f16>> loc(#loc249)
      %b_vals_212 = tt.addptr %b_vals, %b_offsets_205 : tensor<16x!tt.ptr<f16>>, tensor<16xi32> loc(#loc249)
      %b_vals_213 = arith.constant 0 : i32 loc(#loc250)
      %b_vals_214 = arith.constant dense<0> : tensor<16xi32> loc(#loc250)
      %b_vals_215 = arith.sitofp %b_vals_214 : tensor<16xi32> to tensor<16xf16> loc(#loc250)
      %b_vals_216 = tt.load %b_vals_212, %mask_t_23, %b_vals_215 : tensor<16x!tt.ptr<f16>> loc(#loc250)
      %b_vals_217 = arith.extf %b_vals_216 : tensor<16xf16> to tensor<16xf32> loc(#loc251)
      %x = tt.splat %dt_bias_val_159 : f32 -> tensor<16xf32> loc(#loc252)
      %x_218 = arith.addf %a_vals_211, %x : tensor<16xf32> loc(#loc252)
      %sp = arith.constant 0 : i32 loc(#loc253)
      %sp_219 = arith.sitofp %sp : i32 to f32 loc(#loc253)
      %sp_220 = tt.splat %sp_219 : f32 -> tensor<16xf32> loc(#loc253)
      %sp_221 = arith.cmpf ogt, %x_218, %sp_220 : tensor<16xf32> loc(#loc253)
      %sp_222 = arith.constant 0.000000e+00 : f32 loc(#loc254)
      %sp_223 = arith.constant dense<0.000000e+00> : tensor<16xf32> loc(#loc254)
      %sp_224 = arith.subf %sp_223, %x_218 : tensor<16xf32> loc(#loc254)
      %sp_225 = math.exp %sp_224 : tensor<16xf32> loc(#loc255)
      %sp_226 = arith.constant 1.000000e+00 : f32 loc(#loc256)
      %sp_227 = arith.constant 1.000000e+00 : f32 loc(#loc256)
      %sp_228 = arith.constant dense<1.000000e+00> : tensor<16xf32> loc(#loc256)
      %sp_229 = arith.addf %sp_228, %sp_225 : tensor<16xf32> loc(#loc256)
      %sp_230 = math.log %sp_229 : tensor<16xf32> loc(#loc257)
      %sp_231 = arith.addf %x_218, %sp_230 : tensor<16xf32> loc(#loc258)
      %sp_232 = math.exp %x_218 : tensor<16xf32> loc(#loc259)
      %sp_233 = arith.constant 1.000000e+00 : f32 loc(#loc260)
      %sp_234 = arith.constant 1.000000e+00 : f32 loc(#loc260)
      %sp_235 = arith.constant dense<1.000000e+00> : tensor<16xf32> loc(#loc260)
      %sp_236 = arith.addf %sp_235, %sp_232 : tensor<16xf32> loc(#loc260)
      %sp_237 = math.log %sp_236 : tensor<16xf32> loc(#loc261)
      %sp_238 = arith.select %sp_221, %sp_231, %sp_237 : tensor<16xi1>, tensor<16xf32> loc(#loc262)
      %sp_239 = arith.constant 2.000000e+01 : f32 loc(#loc263)
      %sp_240 = arith.constant dense<2.000000e+01> : tensor<16xf32> loc(#loc263)
      %sp_241 = arith.cmpf ole, %x_218, %sp_240 : tensor<16xf32> loc(#loc263)
      %sp_242 = arith.select %sp_241, %sp_238, %x_218 : tensor<16xi1>, tensor<16xf32> loc(#loc264)
      %g_vals = math.exp %A_log_val_157 : f32 loc(#loc265)
      %g_vals_243 = arith.constant 0.000000e+00 : f32 loc(#loc266)
      %g_vals_244 = arith.subf %g_vals_243, %g_vals : f32 loc(#loc266)
      %g_vals_245 = tt.splat %g_vals_244 : f32 -> tensor<16xf32> loc(#loc267)
      %g_vals_246 = arith.mulf %g_vals_245, %sp_242 : tensor<16xf32> loc(#loc267)
      %beta_vals = tt.call @triton.language.standard.sigmoid__fp32S16S__(%b_vals_217) : (tensor<16xf32>) -> tensor<16xf32> loc(#loc268)
      %gb_offsets = arith.constant 16 : i32 loc(#loc269)
      %gb_offsets_247 = arith.constant 16 : i32 loc(#loc269)
      %gb_offsets_248 = arith.constant dense<16> : tensor<16xi32> loc(#loc269)
      %gb_offsets_249 = arith.extsi %offs_t_22 : tensor<16xi32> to tensor<16xi64> loc(#loc269)
      %gb_offsets_250 = arith.extsi %gb_offsets_248 : tensor<16xi32> to tensor<16xi64> loc(#loc269)
      %gb_offsets_251 = arith.muli %gb_offsets_249, %gb_offsets_250 : tensor<16xi64> loc(#loc269)
      %gb_offsets_252 = arith.constant 2147483647 : i64 loc(#loc269)
      %gb_offsets_253 = arith.constant -2147483648 : i64 loc(#loc269)
      %gb_offsets_254 = arith.constant dense<2147483647> : tensor<16xi64> loc(#loc269)
      %gb_offsets_255 = arith.cmpi sle, %gb_offsets_251, %gb_offsets_254 : tensor<16xi64> loc(#loc269)
      %gb_offsets_256 = arith.constant dense<-2147483648> : tensor<16xi64> loc(#loc269)
      %gb_offsets_257 = arith.cmpi sge, %gb_offsets_251, %gb_offsets_256 : tensor<16xi64> loc(#loc269)
      %gb_offsets_258 = arith.andi %gb_offsets_255, %gb_offsets_257 : tensor<16xi1> loc(#loc269)
      %gb_offsets_259 = arith.muli %offs_t_22, %gb_offsets_248 : tensor<16xi32> loc(#loc269)
      %gb_offsets_260 = tt.splat %i_hv_33 : i32 -> tensor<16xi32> loc(#loc270)
      %gb_offsets_261 = arith.extsi %gb_offsets_259 : tensor<16xi32> to tensor<16xi64> loc(#loc270)
      %gb_offsets_262 = arith.extsi %gb_offsets_260 : tensor<16xi32> to tensor<16xi64> loc(#loc270)
      %gb_offsets_263 = arith.addi %gb_offsets_261, %gb_offsets_262 : tensor<16xi64> loc(#loc270)
      %gb_offsets_264 = arith.constant 2147483647 : i64 loc(#loc270)
      %gb_offsets_265 = arith.constant -2147483648 : i64 loc(#loc270)
      %gb_offsets_266 = arith.constant dense<2147483647> : tensor<16xi64> loc(#loc270)
      %gb_offsets_267 = arith.cmpi sle, %gb_offsets_263, %gb_offsets_266 : tensor<16xi64> loc(#loc270)
      %gb_offsets_268 = arith.constant dense<-2147483648> : tensor<16xi64> loc(#loc270)
      %gb_offsets_269 = arith.cmpi sge, %gb_offsets_263, %gb_offsets_268 : tensor<16xi64> loc(#loc270)
      %gb_offsets_270 = arith.andi %gb_offsets_267, %gb_offsets_269 : tensor<16xi1> loc(#loc270)
      %gb_offsets_271 = arith.addi %gb_offsets_259, %gb_offsets_260 : tensor<16xi32> loc(#loc270)
      %4 = tt.splat %g_ptr : !tt.ptr<f32> -> tensor<16x!tt.ptr<f32>> loc(#loc122)
      %5 = tt.addptr %4, %gb_offsets_271 : tensor<16x!tt.ptr<f32>>, tensor<16xi32> loc(#loc122)
      tt.store %5, %g_vals_246, %mask_t_23 : tensor<16x!tt.ptr<f32>> loc(#loc123)
      %6 = tt.splat %beta_ptr : !tt.ptr<f32> -> tensor<16x!tt.ptr<f32>> loc(#loc124)
      %7 = tt.addptr %6, %gb_offsets_271 : tensor<16x!tt.ptr<f32>>, tensor<16xi32> loc(#loc124)
      tt.store %7, %beta_vals, %mask_t_23 : tensor<16x!tt.ptr<f32>> loc(#loc125)
      scf.yield %mask_2d_39 : tensor<16x128xi1> loc(#loc125)
    } loc(#loc8)
    tt.return loc(#loc126)
  } loc(#loc)
  tt.func private @"triton.language.standard.sum__fp32S16_128S__(1,)cconstexpr_1__(2,)cconstexpr_False__(3,)cNone"(%input: tensor<16x128xf32> loc("input"(#loc127))) -> tensor<16xf32> attributes {noinline = false} {
    %0 = "tt.reduce"(%input) <{axis = 1 : i32}> ({
    ^bb0(%arg1: f32 loc(unknown), %arg2: f32 loc(unknown)):
      %2 = tt.call @triton.language.standard._sum_combine__fp32_fp32__(%arg1, %arg2) : (f32, f32) -> f32 loc(#loc128)
      tt.reduce.return %2 : f32 loc(#loc128)
    }) : (tensor<16x128xf32>) -> tensor<16xf32> loc(#loc128)
    tt.return %0 : tensor<16xf32> loc(#loc130)
  ^bb1:  // no predecessors
    %1 = ub.poison : tensor<16xf32> loc(#loc131)
    tt.return %1 : tensor<16xf32> loc(#loc131)
  } loc(#loc127)
  tt.func private @triton.language.standard._sum_combine__fp32_fp32__(%a: f32 loc("a"(#loc132)), %b: f32 loc("b"(#loc132))) -> f32 attributes {noinline = false} {
    %0 = arith.addf %a, %b : f32 loc(#loc133)
    tt.return %0 : f32 loc(#loc134)
  ^bb1:  // no predecessors
    %1 = ub.poison : f32 loc(#loc135)
    tt.return %1 : f32 loc(#loc135)
  } loc(#loc132)
  tt.func private @triton.language.standard.sigmoid__fp32S16S__(%x: tensor<16xf32> loc("x"(#loc136))) -> tensor<16xf32> attributes {noinline = false} {
    %cst = arith.constant 0.000000e+00 : f32 loc(#loc137)
    %cst_0 = arith.constant dense<0.000000e+00> : tensor<16xf32> loc(#loc137)
    %0 = arith.subf %cst_0, %x : tensor<16xf32> loc(#loc137)
    %1 = math.exp %0 : tensor<16xf32> loc(#loc138)
    %c1_i32 = arith.constant 1 : i32 loc(#loc139)
    %cst_1 = arith.constant 1.000000e+00 : f32 loc(#loc139)
    %cst_2 = arith.constant dense<1.000000e+00> : tensor<16xf32> loc(#loc139)
    %2 = arith.addf %cst_2, %1 : tensor<16xf32> loc(#loc139)
    %c1_i32_3 = arith.constant 1 : i32 loc(#loc140)
    %cst_4 = arith.constant 1.000000e+00 : f32 loc(#loc140)
    %cst_5 = arith.constant dense<1.000000e+00> : tensor<16xf32> loc(#loc140)
    %3 = arith.divf %cst_5, %2 : tensor<16xf32> loc(#loc140)
    tt.return %3 : tensor<16xf32> loc(#loc141)
  ^bb1:  // no predecessors
    %4 = ub.poison : tensor<16xf32> loc(#loc142)
    tt.return %4 : tensor<16xf32> loc(#loc142)
  } loc(#loc136)
} loc(#loc)
#loc1 = loc("/usr/local/lib/python3.12/dist-packages/vllm/model_executor/layers/fla/ops/fused_gdn_prefill_post_conv.py":61:25)
#loc2 = loc("/usr/local/lib/python3.12/dist-packages/vllm/model_executor/layers/fla/ops/fused_gdn_prefill_post_conv.py":62:27)
#loc3 = loc("/usr/local/lib/python3.12/dist-packages/vllm/model_executor/layers/fla/ops/fused_gdn_prefill_post_conv.py":66:20)
#loc4 = loc("/usr/local/lib/python3.12/dist-packages/vllm/model_executor/layers/fla/ops/fused_gdn_prefill_post_conv.py":66:43)
#loc5 = loc("/usr/local/lib/python3.12/dist-packages/vllm/model_executor/layers/fla/ops/fused_gdn_prefill_post_conv.py":66:30)
#loc6 = loc("/usr/local/lib/python3.12/dist-packages/vllm/model_executor/layers/fla/ops/fused_gdn_prefill_post_conv.py":67:22)
#loc7 = loc("/usr/local/lib/python3.12/dist-packages/vllm/model_executor/layers/fla/ops/fused_gdn_prefill_post_conv.py":69:16)
#loc8 = loc("/usr/local/lib/python3.12/dist-packages/vllm/model_executor/layers/fla/ops/fused_gdn_prefill_post_conv.py":69:7)
#loc9 = loc("/usr/local/lib/python3.12/dist-packages/vllm/model_executor/layers/fla/ops/fused_gdn_prefill_post_conv.py":72:30)
#loc10 = loc("/usr/local/lib/python3.12/dist-packages/vllm/model_executor/layers/fla/ops/fused_gdn_prefill_post_conv.py":73:26)
#loc11 = loc("/usr/local/lib/python3.12/dist-packages/vllm/model_executor/layers/fla/ops/fused_gdn_prefill_post_conv.py":74:25)
#loc12 = loc("/usr/local/lib/python3.12/dist-packages/vllm/model_executor/layers/fla/ops/fused_gdn_prefill_post_conv.py":74:43)
#loc13 = loc("/usr/local/lib/python3.12/dist-packages/vllm/model_executor/layers/fla/ops/fused_gdn_prefill_post_conv.py":74:36)
#loc14 = loc("/usr/local/lib/python3.12/dist-packages/vllm/model_executor/layers/fla/ops/fused_gdn_prefill_post_conv.py":77:27)
#loc15 = loc("/usr/local/lib/python3.12/dist-packages/vllm/model_executor/layers/fla/ops/fused_gdn_prefill_post_conv.py":77:38)
#loc16 = loc("/usr/local/lib/python3.12/dist-packages/vllm/model_executor/layers/fla/ops/fused_gdn_prefill_post_conv.py":77:59)
#loc17 = loc("/usr/local/lib/python3.12/dist-packages/vllm/model_executor/layers/fla/ops/fused_gdn_prefill_post_conv.py":77:53)
#loc18 = loc("/usr/local/lib/python3.12/dist-packages/vllm/model_executor/layers/fla/ops/fused_gdn_prefill_post_conv.py":77:70)
#loc19 = loc("/usr/local/lib/python3.12/dist-packages/vllm/model_executor/layers/fla/ops/fused_gdn_prefill_post_conv.py":77:63)
#loc20 = loc("/usr/local/lib/python3.12/dist-packages/vllm/model_executor/layers/fla/ops/fused_gdn_prefill_post_conv.py":78:40)
#loc21 = loc("/usr/local/lib/python3.12/dist-packages/vllm/model_executor/layers/fla/ops/fused_gdn_prefill_post_conv.py":78:24)
#loc22 = loc("/usr/local/lib/python3.12/dist-packages/vllm/model_executor/layers/fla/ops/fused_gdn_prefill_post_conv.py":78:77)
#loc23 = loc("/usr/local/lib/python3.12/dist-packages/vllm/model_executor/layers/fla/ops/fused_gdn_prefill_post_conv.py":81:27)
#loc24 = loc("/usr/local/lib/python3.12/dist-packages/vllm/model_executor/layers/fla/ops/fused_gdn_prefill_post_conv.py":81:38)
#loc25 = loc("/usr/local/lib/python3.12/dist-packages/vllm/model_executor/layers/fla/ops/fused_gdn_prefill_post_conv.py":81:53)
#loc26 = loc("/usr/local/lib/python3.12/dist-packages/vllm/model_executor/layers/fla/ops/fused_gdn_prefill_post_conv.py":81:64)
#loc27 = loc("/usr/local/lib/python3.12/dist-packages/vllm/model_executor/layers/fla/ops/fused_gdn_prefill_post_conv.py":81:58)
#loc28 = loc("/usr/local/lib/python3.12/dist-packages/vllm/model_executor/layers/fla/ops/fused_gdn_prefill_post_conv.py":81:75)
#loc29 = loc("/usr/local/lib/python3.12/dist-packages/vllm/model_executor/layers/fla/ops/fused_gdn_prefill_post_conv.py":81:68)
#loc30 = loc("/usr/local/lib/python3.12/dist-packages/vllm/model_executor/layers/fla/ops/fused_gdn_prefill_post_conv.py":82:40)
#loc31 = loc("/usr/local/lib/python3.12/dist-packages/vllm/model_executor/layers/fla/ops/fused_gdn_prefill_post_conv.py":82:24)
#loc32 = loc("/usr/local/lib/python3.12/dist-packages/vllm/model_executor/layers/fla/ops/fused_gdn_prefill_post_conv.py":82:77)
#loc33 = loc("/usr/local/lib/python3.12/dist-packages/vllm/model_executor/layers/fla/ops/fused_gdn_prefill_post_conv.py":85:38)
#loc34 = loc("/usr/local/lib/python3.12/dist-packages/vllm/model_executor/layers/fla/ops/fused_gdn_prefill_post_conv.py":85:30)
#loc35 = loc("/usr/local/lib/python3.12/dist-packages/vllm/model_executor/layers/fla/ops/fused_gdn_prefill_post_conv.py":86:45)
#loc36 = loc("/usr/local/lib/python3.12/dist-packages/vllm/model_executor/layers/fla/ops/fused_gdn_prefill_post_conv.py":86:34)
#loc37 = loc("/usr/local/lib/python3.12/dist-packages/vllm/model_executor/layers/fla/ops/fused_gdn_prefill_post_conv.py":86:26)
#loc38 = loc("/usr/local/lib/python3.12/dist-packages/vllm/model_executor/layers/fla/ops/fused_gdn_prefill_post_conv.py":87:34)
#loc39 = loc("/usr/local/lib/python3.12/dist-packages/vllm/model_executor/layers/fla/ops/fused_gdn_prefill_post_conv.py":87:28)
#loc40 = loc("/usr/local/lib/python3.12/dist-packages/vllm/model_executor/layers/fla/ops/fused_gdn_prefill_post_conv.py":89:38)
#loc41 = loc("/usr/local/lib/python3.12/dist-packages/vllm/model_executor/layers/fla/ops/fused_gdn_prefill_post_conv.py":89:30)
#loc42 = loc("/usr/local/lib/python3.12/dist-packages/vllm/model_executor/layers/fla/ops/fused_gdn_prefill_post_conv.py":90:45)
#loc43 = loc("/usr/local/lib/python3.12/dist-packages/vllm/model_executor/layers/fla/ops/fused_gdn_prefill_post_conv.py":90:34)
#loc44 = loc("/usr/local/lib/python3.12/dist-packages/vllm/model_executor/layers/fla/ops/fused_gdn_prefill_post_conv.py":90:26)
#loc45 = loc("/usr/local/lib/python3.12/dist-packages/vllm/model_executor/layers/fla/ops/fused_gdn_prefill_post_conv.py":91:34)
#loc46 = loc("/usr/local/lib/python3.12/dist-packages/vllm/model_executor/layers/fla/ops/fused_gdn_prefill_post_conv.py":91:28)
#loc47 = loc("/usr/local/lib/python3.12/dist-packages/vllm/model_executor/layers/fla/ops/fused_gdn_prefill_post_conv.py":94:23)
#loc48 = loc("/usr/local/lib/python3.12/dist-packages/vllm/model_executor/layers/fla/ops/fused_gdn_prefill_post_conv.py":94:34)
#loc49 = loc("/usr/local/lib/python3.12/dist-packages/vllm/model_executor/layers/fla/ops/fused_gdn_prefill_post_conv.py":94:55)
#loc50 = loc("/usr/local/lib/python3.12/dist-packages/vllm/model_executor/layers/fla/ops/fused_gdn_prefill_post_conv.py":94:49)
#loc51 = loc("/usr/local/lib/python3.12/dist-packages/vllm/model_executor/layers/fla/ops/fused_gdn_prefill_post_conv.py":94:66)
#loc52 = loc("/usr/local/lib/python3.12/dist-packages/vllm/model_executor/layers/fla/ops/fused_gdn_prefill_post_conv.py":94:59)
#loc53 = loc("/usr/local/lib/python3.12/dist-packages/vllm/model_executor/layers/fla/ops/fused_gdn_prefill_post_conv.py":96:20)
#loc54 = loc("/usr/local/lib/python3.12/dist-packages/vllm/model_executor/layers/fla/ops/fused_gdn_prefill_post_conv.py":97:21)
#loc55 = loc("/usr/local/lib/python3.12/dist-packages/vllm/model_executor/layers/fla/ops/fused_gdn_prefill_post_conv.py":97:12)
#loc56 = loc("/usr/local/lib/python3.12/dist-packages/vllm/model_executor/layers/fla/ops/fused_gdn_prefill_post_conv.py":102:23)
#loc57 = loc("/usr/local/lib/python3.12/dist-packages/vllm/model_executor/layers/fla/ops/fused_gdn_prefill_post_conv.py":102:34)
#loc58 = loc("/usr/local/lib/python3.12/dist-packages/vllm/model_executor/layers/fla/ops/fused_gdn_prefill_post_conv.py":102:55)
#loc59 = loc("/usr/local/lib/python3.12/dist-packages/vllm/model_executor/layers/fla/ops/fused_gdn_prefill_post_conv.py":102:49)
#loc60 = loc("/usr/local/lib/python3.12/dist-packages/vllm/model_executor/layers/fla/ops/fused_gdn_prefill_post_conv.py":102:66)
#loc61 = loc("/usr/local/lib/python3.12/dist-packages/vllm/model_executor/layers/fla/ops/fused_gdn_prefill_post_conv.py":102:59)
#loc62 = loc("/usr/local/lib/python3.12/dist-packages/vllm/model_executor/layers/fla/ops/fused_gdn_prefill_post_conv.py":104:20)
#loc63 = loc("/usr/local/lib/python3.12/dist-packages/vllm/model_executor/layers/fla/ops/fused_gdn_prefill_post_conv.py":105:21)
#loc64 = loc("/usr/local/lib/python3.12/dist-packages/vllm/model_executor/layers/fla/ops/fused_gdn_prefill_post_conv.py":105:12)
#loc65 = loc("/usr/local/lib/python3.12/dist-packages/vllm/model_executor/layers/fla/ops/fused_gdn_prefill_post_conv.py":110:24)
#loc66 = loc("/usr/local/lib/python3.12/dist-packages/vllm/model_executor/layers/fla/ops/fused_gdn_prefill_post_conv.py":111:30)
#loc67 = loc("/usr/local/lib/python3.12/dist-packages/vllm/model_executor/layers/fla/ops/fused_gdn_prefill_post_conv.py":112:26)
#loc68 = loc("/usr/local/lib/python3.12/dist-packages/vllm/model_executor/layers/fla/ops/fused_gdn_prefill_post_conv.py":113:25)
#loc69 = loc("/usr/local/lib/python3.12/dist-packages/vllm/model_executor/layers/fla/ops/fused_gdn_prefill_post_conv.py":113:43)
#loc70 = loc("/usr/local/lib/python3.12/dist-packages/vllm/model_executor/layers/fla/ops/fused_gdn_prefill_post_conv.py":113:36)
#loc71 = loc("/usr/local/lib/python3.12/dist-packages/vllm/model_executor/layers/fla/ops/fused_gdn_prefill_post_conv.py":119:19)
#loc72 = loc("/usr/local/lib/python3.12/dist-packages/vllm/model_executor/layers/fla/ops/fused_gdn_prefill_post_conv.py":119:30)
#loc73 = loc("/usr/local/lib/python3.12/dist-packages/vllm/model_executor/layers/fla/ops/fused_gdn_prefill_post_conv.py":119:45)
#loc74 = loc("/usr/local/lib/python3.12/dist-packages/vllm/model_executor/layers/fla/ops/fused_gdn_prefill_post_conv.py":119:63)
#loc75 = loc("/usr/local/lib/python3.12/dist-packages/vllm/model_executor/layers/fla/ops/fused_gdn_prefill_post_conv.py":119:56)
#loc76 = loc("/usr/local/lib/python3.12/dist-packages/vllm/model_executor/layers/fla/ops/fused_gdn_prefill_post_conv.py":119:74)
#loc77 = loc("/usr/local/lib/python3.12/dist-packages/vllm/model_executor/layers/fla/ops/fused_gdn_prefill_post_conv.py":119:67)
#loc78 = loc("/usr/local/lib/python3.12/dist-packages/vllm/model_executor/layers/fla/ops/fused_gdn_prefill_post_conv.py":121:41)
#loc79 = loc("/usr/local/lib/python3.12/dist-packages/vllm/model_executor/layers/fla/ops/fused_gdn_prefill_post_conv.py":121:25)
#loc80 = loc("/usr/local/lib/python3.12/dist-packages/vllm/model_executor/layers/fla/ops/fused_gdn_prefill_post_conv.py":124:23)
#loc81 = loc("/usr/local/lib/python3.12/dist-packages/vllm/model_executor/layers/fla/ops/fused_gdn_prefill_post_conv.py":124:34)
#loc82 = loc("/usr/local/lib/python3.12/dist-packages/vllm/model_executor/layers/fla/ops/fused_gdn_prefill_post_conv.py":124:56)
#loc83 = loc("/usr/local/lib/python3.12/dist-packages/vllm/model_executor/layers/fla/ops/fused_gdn_prefill_post_conv.py":124:49)
#loc84 = loc("/usr/local/lib/python3.12/dist-packages/vllm/model_executor/layers/fla/ops/fused_gdn_prefill_post_conv.py":124:67)
#loc85 = loc("/usr/local/lib/python3.12/dist-packages/vllm/model_executor/layers/fla/ops/fused_gdn_prefill_post_conv.py":124:60)
#loc86 = loc("/usr/local/lib/python3.12/dist-packages/vllm/model_executor/layers/fla/ops/fused_gdn_prefill_post_conv.py":125:25)
#loc87 = loc("/usr/local/lib/python3.12/dist-packages/vllm/model_executor/layers/fla/ops/fused_gdn_prefill_post_conv.py":125:32)
#loc88 = loc("/usr/local/lib/python3.12/dist-packages/vllm/model_executor/layers/fla/ops/fused_gdn_prefill_post_conv.py":128:40)
#loc89 = loc("/usr/local/lib/python3.12/dist-packages/vllm/model_executor/layers/fla/ops/fused_gdn_prefill_post_conv.py":128:28)
#loc90 = loc("/usr/local/lib/python3.12/dist-packages/vllm/model_executor/layers/fla/ops/fused_gdn_prefill_post_conv.py":129:44)
#loc91 = loc("/usr/local/lib/python3.12/dist-packages/vllm/model_executor/layers/fla/ops/fused_gdn_prefill_post_conv.py":129:30)
#loc92 = loc("/usr/local/lib/python3.12/dist-packages/vllm/model_executor/layers/fla/ops/fused_gdn_prefill_post_conv.py":129:53)
#loc93 = loc("/usr/local/lib/python3.12/dist-packages/vllm/model_executor/layers/fla/ops/fused_gdn_prefill_post_conv.py":131:29)
#loc94 = loc("/usr/local/lib/python3.12/dist-packages/vllm/model_executor/layers/fla/ops/fused_gdn_prefill_post_conv.py":131:44)
#loc95 = loc("/usr/local/lib/python3.12/dist-packages/vllm/model_executor/layers/fla/ops/fused_gdn_prefill_post_conv.py":132:29)
#loc96 = loc("/usr/local/lib/python3.12/dist-packages/vllm/model_executor/layers/fla/ops/fused_gdn_prefill_post_conv.py":132:44)
#loc97 = loc("/usr/local/lib/python3.12/dist-packages/vllm/model_executor/layers/fla/ops/fused_gdn_prefill_post_conv.py":133:33)
#loc98 = loc("/usr/local/lib/python3.12/dist-packages/vllm/model_executor/layers/fla/ops/fused_gdn_prefill_post_conv.py":133:25)
#loc99 = loc("/usr/local/lib/python3.12/dist-packages/vllm/model_executor/layers/fla/ops/fused_gdn_prefill_post_conv.py":133:69)
#loc100 = loc("/usr/local/lib/python3.12/dist-packages/vllm/model_executor/layers/fla/ops/fused_gdn_prefill_post_conv.py":134:33)
#loc101 = loc("/usr/local/lib/python3.12/dist-packages/vllm/model_executor/layers/fla/ops/fused_gdn_prefill_post_conv.py":134:25)
#loc102 = loc("/usr/local/lib/python3.12/dist-packages/vllm/model_executor/layers/fla/ops/fused_gdn_prefill_post_conv.py":134:69)
#loc103 = loc("/usr/local/lib/python3.12/dist-packages/vllm/model_executor/layers/fla/ops/fused_gdn_prefill_post_conv.py":137:21)
#loc104 = loc("/usr/local/lib/python3.12/dist-packages/vllm/model_executor/layers/fla/ops/fused_gdn_prefill_post_conv.py":138:26)
#loc105 = loc("/usr/local/lib/python3.12/dist-packages/vllm/model_executor/layers/fla/ops/fused_gdn_prefill_post_conv.py":138:54)
#loc106 = loc("/usr/local/lib/python3.12/dist-packages/vllm/model_executor/layers/fla/ops/fused_gdn_prefill_post_conv.py":138:53)
#loc107 = loc("/usr/local/lib/python3.12/dist-packages/vllm/model_executor/layers/fla/ops/fused_gdn_prefill_post_conv.py":138:46)
#loc108 = loc("/usr/local/lib/python3.12/dist-packages/vllm/model_executor/layers/fla/ops/fused_gdn_prefill_post_conv.py":138:40)
#loc109 = loc("/usr/local/lib/python3.12/dist-packages/vllm/model_executor/layers/fla/ops/fused_gdn_prefill_post_conv.py":138:33)
#loc110 = loc("/usr/local/lib/python3.12/dist-packages/vllm/model_executor/layers/fla/ops/fused_gdn_prefill_post_conv.py":138:79)
#loc111 = loc("/usr/local/lib/python3.12/dist-packages/vllm/model_executor/layers/fla/ops/fused_gdn_prefill_post_conv.py":138:72)
#loc112 = loc("/usr/local/lib/python3.12/dist-packages/vllm/model_executor/layers/fla/ops/fused_gdn_prefill_post_conv.py":138:66)
#loc113 = loc("/usr/local/lib/python3.12/dist-packages/vllm/model_executor/layers/fla/ops/fused_gdn_prefill_post_conv.py":138:59)
#loc114 = loc("/usr/local/lib/python3.12/dist-packages/vllm/model_executor/layers/fla/ops/fused_gdn_prefill_post_conv.py":139:27)
#loc115 = loc("/usr/local/lib/python3.12/dist-packages/vllm/model_executor/layers/fla/ops/fused_gdn_prefill_post_conv.py":139:51)
#loc116 = loc("/usr/local/lib/python3.12/dist-packages/vllm/model_executor/layers/fla/ops/fused_gdn_prefill_post_conv.py":140:25)
#loc117 = loc("/usr/local/lib/python3.12/dist-packages/vllm/model_executor/layers/fla/ops/fused_gdn_prefill_post_conv.py":140:18)
#loc118 = loc("/usr/local/lib/python3.12/dist-packages/vllm/model_executor/layers/fla/ops/fused_gdn_prefill_post_conv.py":140:38)
#loc119 = loc("/usr/local/lib/python3.12/dist-packages/vllm/model_executor/layers/fla/ops/fused_gdn_prefill_post_conv.py":145:31)
#loc120 = loc("/usr/local/lib/python3.12/dist-packages/vllm/model_executor/layers/fla/ops/fused_gdn_prefill_post_conv.py":147:30)
#loc121 = loc("/usr/local/lib/python3.12/dist-packages/vllm/model_executor/layers/fla/ops/fused_gdn_prefill_post_conv.py":147:35)
#loc122 = loc("/usr/local/lib/python3.12/dist-packages/vllm/model_executor/layers/fla/ops/fused_gdn_prefill_post_conv.py":148:25)
#loc123 = loc("/usr/local/lib/python3.12/dist-packages/vllm/model_executor/layers/fla/ops/fused_gdn_prefill_post_conv.py":148:37)
#loc124 = loc("/usr/local/lib/python3.12/dist-packages/vllm/model_executor/layers/fla/ops/fused_gdn_prefill_post_conv.py":149:28)
#loc125 = loc("/usr/local/lib/python3.12/dist-packages/vllm/model_executor/layers/fla/ops/fused_gdn_prefill_post_conv.py":149:40)
#loc126 = loc("/usr/local/lib/python3.12/dist-packages/vllm/model_executor/layers/fla/ops/fused_gdn_prefill_post_conv.py":69:4)
#loc128 = loc("/usr/local/lib/python3.12/dist-packages/triton/language/standard.py":293:36)
#loc130 = loc("/usr/local/lib/python3.12/dist-packages/triton/language/standard.py":293:11)
#loc131 = loc("/usr/local/lib/python3.12/dist-packages/triton/language/standard.py":293:4)
#loc133 = loc("/usr/local/lib/python3.12/dist-packages/triton/language/standard.py":263:15)
#loc134 = loc("/usr/local/lib/python3.12/dist-packages/triton/language/standard.py":263:11)
#loc135 = loc("/usr/local/lib/python3.12/dist-packages/triton/language/standard.py":263:4)
#loc137 = loc("/usr/local/lib/python3.12/dist-packages/triton/language/standard.py":50:30)
#loc138 = loc("/usr/local/lib/python3.12/dist-packages/triton/language/standard.py":50:29)
#loc139 = loc("/usr/local/lib/python3.12/dist-packages/triton/language/standard.py":50:20)
#loc140 = loc("/usr/local/lib/python3.12/dist-packages/triton/language/standard.py":50:16)
#loc141 = loc("/usr/local/lib/python3.12/dist-packages/triton/language/standard.py":50:11)
#loc142 = loc("/usr/local/lib/python3.12/dist-packages/triton/language/standard.py":50:4)
#loc160 = loc("i_tb"(#loc1))
#loc161 = loc("i_head"(#loc2))
#loc162 = loc("offs_t"(#loc3))
#loc163 = loc("offs_t"(#loc4))
#loc164 = loc("offs_t"(#loc5))
#loc165 = loc("mask_t"(#loc6))
#loc166 = loc("offs_k"(#loc9))
#loc167 = loc("mask_k"(#loc10))
#loc168 = loc("mask_2d"(#loc11))
#loc169 = loc("mask_2d"(#loc12))
#loc170 = loc("mask_2d"(#loc13))
#loc171 = loc("q_offsets"(#loc14))
#loc172 = loc("q_offsets"(#loc15))
#loc173 = loc("q_offsets"(#loc16))
#loc174 = loc("q_offsets"(#loc17))
#loc175 = loc("q_offsets"(#loc18))
#loc176 = loc("q_offsets"(#loc19))
#loc177 = loc("q_f32"(#loc20))
#loc178 = loc("q_f32"(#loc21))
#loc179 = loc("q_f32"(#loc22))
#loc180 = loc("k_offsets"(#loc23))
#loc181 = loc("k_offsets"(#loc24))
#loc182 = loc("k_offsets"(#loc25))
#loc183 = loc("k_offsets"(#loc26))
#loc184 = loc("k_offsets"(#loc27))
#loc185 = loc("k_offsets"(#loc28))
#loc186 = loc("k_offsets"(#loc29))
#loc187 = loc("k_f32"(#loc30))
#loc188 = loc("k_f32"(#loc31))
#loc189 = loc("k_f32"(#loc32))
#loc190 = loc("q_sq_sum"(#loc33))
#loc191 = loc("q_sq_sum"(#loc34))
#loc192 = loc("q_inv"(#loc35))
#loc193 = loc("q_inv"(#loc36))
#loc194 = loc("q_inv"(#loc37))
#loc195 = loc("q_f32"(#loc38))
#loc196 = loc("q_f32"(#loc39))
#loc197 = loc("k_sq_sum"(#loc40))
#loc198 = loc("k_sq_sum"(#loc41))
#loc199 = loc("k_inv"(#loc42))
#loc200 = loc("k_inv"(#loc43))
#loc201 = loc("k_inv"(#loc44))
#loc202 = loc("k_f32"(#loc45))
#loc203 = loc("k_f32"(#loc46))
#loc204 = loc("q_out"(#loc47))
#loc205 = loc("q_out"(#loc48))
#loc206 = loc("q_out"(#loc49))
#loc207 = loc("q_out"(#loc50))
#loc208 = loc("q_out"(#loc51))
#loc209 = loc("q_out"(#loc52))
#loc210 = loc("k_out"(#loc56))
#loc211 = loc("k_out"(#loc57))
#loc212 = loc("k_out"(#loc58))
#loc213 = loc("k_out"(#loc59))
#loc214 = loc("k_out"(#loc60))
#loc215 = loc("k_out"(#loc61))
#loc216 = loc("i_hv"(#loc65))
#loc217 = loc("offs_v"(#loc66))
#loc218 = loc("mask_v"(#loc67))
#loc219 = loc("mask_2d"(#loc68))
#loc220 = loc("mask_2d"(#loc69))
#loc221 = loc("mask_2d"(#loc70))
#loc222 = loc("v_offsets"(#loc71))
#loc223 = loc("v_offsets"(#loc72))
#loc224 = loc("v_offsets"(#loc73))
#loc225 = loc("v_offsets"(#loc74))
#loc226 = loc("v_offsets"(#loc75))
#loc227 = loc("v_offsets"(#loc76))
#loc228 = loc("v_offsets"(#loc77))
#loc229 = loc("v_vals"(#loc78))
#loc230 = loc("v_vals"(#loc79))
#loc231 = loc("v_out"(#loc80))
#loc232 = loc("v_out"(#loc81))
#loc233 = loc("v_out"(#loc82))
#loc234 = loc("v_out"(#loc83))
#loc235 = loc("v_out"(#loc84))
#loc236 = loc("v_out"(#loc85))
#loc237 = loc("A_log_val"(#loc88))
#loc238 = loc("A_log_val"(#loc89))
#loc239 = loc("dt_bias_val"(#loc90))
#loc240 = loc("dt_bias_val"(#loc91))
#loc241 = loc("dt_bias_val"(#loc92))
#loc242 = loc("a_offsets"(#loc93))
#loc243 = loc("a_offsets"(#loc94))
#loc244 = loc("b_offsets"(#loc95))
#loc245 = loc("b_offsets"(#loc96))
#loc246 = loc("a_vals"(#loc97))
#loc247 = loc("a_vals"(#loc98))
#loc248 = loc("a_vals"(#loc99))
#loc249 = loc("b_vals"(#loc100))
#loc250 = loc("b_vals"(#loc101))
#loc251 = loc("b_vals"(#loc102))
#loc252 = loc("x"(#loc103))
#loc253 = loc("sp"(#loc104))
#loc254 = loc("sp"(#loc105))
#loc255 = loc("sp"(#loc106))
#loc256 = loc("sp"(#loc107))
#loc257 = loc("sp"(#loc108))
#loc258 = loc("sp"(#loc109))
#loc259 = loc("sp"(#loc110))
#loc260 = loc("sp"(#loc111))
#loc261 = loc("sp"(#loc112))
#loc262 = loc("sp"(#loc113))
#loc263 = loc("sp"(#loc114))
#loc264 = loc("sp"(#loc115))
#loc265 = loc("g_vals"(#loc116))
#loc266 = loc("g_vals"(#loc117))
#loc267 = loc("g_vals"(#loc118))
#loc268 = loc("beta_vals"(#loc119))
#loc269 = loc("gb_offsets"(#loc120))
#loc270 = loc("gb_offsets"(#loc121))
#loc275 = loc("mask_2d"(#loc170))
#loc276 = loc("mask_2d"(#loc221))
