#loc = loc("/root/.cache/vllm/torch_compile_cache/torch_aot_compile/61bda05feca29378847c32f031efa5c8dba258f38b0176a06a3e99e41df8ca50/inductor_cache/5p/c5povlqlv72z7uiz7ln6vd3jrxgzs4wu36logdc2rzcikwjp4s3m.py":22:0)
#loc34 = loc("in_ptr0"(#loc))
#loc35 = loc("in_ptr1"(#loc))
#loc36 = loc("in_ptr2"(#loc))
#loc37 = loc("out_ptr0"(#loc))
#loc38 = loc("xnumel"(#loc))
module {
  tt.func public @triton_(%in_ptr0: !tt.ptr<f16> {tt.divisibility = 16 : i32} loc("in_ptr0"(#loc)), %in_ptr1: !tt.ptr<f32> {tt.divisibility = 16 : i32} loc("in_ptr1"(#loc)), %in_ptr2: !tt.ptr<f16> {tt.divisibility = 16 : i32} loc("in_ptr2"(#loc)), %out_ptr0: !tt.ptr<f16> {tt.divisibility = 16 : i32} loc("out_ptr0"(#loc)), %xnumel: i32 {tt.divisibility = 16 : i32} loc("xnumel"(#loc))) attributes {noinline = false} {
    %xoffset = tt.get_program_id x : i32 loc(#loc39)
    %xoffset_0 = arith.constant 1024 : i32 loc(#loc40)
    %xoffset_1 = arith.constant 1024 : i32 loc(#loc40)
    %xoffset_2 = arith.muli %xoffset, %xoffset_1 : i32 loc(#loc40)
    %xindex = tt.make_range {end = 1024 : i32, start = 0 : i32} : tensor<1024xi32> loc(#loc41)
    %xindex_3 = tt.splat %xoffset_2 : i32 -> tensor<1024xi32> loc(#loc42)
    %xindex_4 = arith.addi %xindex_3, %xindex : tensor<1024xi32> loc(#loc42)
    %xmask = tt.splat %xnumel : i32 -> tensor<1024xi32> loc(#loc43)
    %xmask_5 = arith.cmpi slt, %xindex_4, %xmask : tensor<1024xi32> loc(#loc43)
    %x0 = arith.constant 192 : i32 loc(#loc44)
    %x0_6 = arith.constant 192 : i32 loc(#loc44)
    %x0_7 = arith.constant dense<192> : tensor<1024xi32> loc(#loc44)
    %x0_8 = arith.remsi %xindex_4, %x0_7 : tensor<1024xi32> loc(#loc44)
    %x1 = arith.constant 192 : i32 loc(#loc45)
    %x1_9 = arith.constant 192 : i32 loc(#loc45)
    %x1_10 = arith.constant dense<192> : tensor<1024xi32> loc(#loc45)
    %x1_11 = arith.divsi %xindex_4, %x1_10 : tensor<1024xi32> loc(#loc45)
    %tmp0 = arith.constant 4160 : i32 loc(#loc46)
    %tmp0_12 = arith.constant 4160 : i32 loc(#loc46)
    %tmp0_13 = arith.constant dense<4160> : tensor<1024xi32> loc(#loc46)
    %tmp0_14 = arith.addi %tmp0_13, %x0_8 : tensor<1024xi32> loc(#loc46)
    %tmp0_15 = arith.constant 4608 : i32 loc(#loc47)
    %tmp0_16 = arith.constant 4608 : i32 loc(#loc47)
    %tmp0_17 = arith.constant dense<4608> : tensor<1024xi32> loc(#loc47)
    %tmp0_18 = arith.muli %tmp0_17, %x1_11 : tensor<1024xi32> loc(#loc47)
    %tmp0_19 = arith.addi %tmp0_14, %tmp0_18 : tensor<1024xi32> loc(#loc48)
    %tmp0_20 = tt.splat %in_ptr0 : !tt.ptr<f16> -> tensor<1024x!tt.ptr<f16>> loc(#loc49)
    %tmp0_21 = tt.addptr %tmp0_20, %tmp0_19 : tensor<1024x!tt.ptr<f16>>, tensor<1024xi32> loc(#loc49)
    %tmp0_22 = tt.load %tmp0_21, %xmask_5 : tensor<1024x!tt.ptr<f16>> loc(#loc50)
    %tmp0_23 = arith.extf %tmp0_22 : tensor<1024xf16> to tensor<1024xf32> loc(#loc51)
    %tmp2 = tt.splat %in_ptr1 : !tt.ptr<f32> -> tensor<1024x!tt.ptr<f32>> loc(#loc52)
    %tmp2_24 = tt.addptr %tmp2, %x1_11 : tensor<1024x!tt.ptr<f32>>, tensor<1024xi32> loc(#loc52)
    %tmp2_25 = tt.load %tmp2_24, %xmask_5 evictionPolicy = evict_last : tensor<1024x!tt.ptr<f32>> loc(#loc53)
    %tmp9 = arith.constant 64 : i32 loc(#loc54)
    %tmp9_26 = arith.constant 64 : i32 loc(#loc54)
    %tmp9_27 = arith.constant dense<64> : tensor<1024xi32> loc(#loc54)
    %tmp9_28 = arith.addi %tmp9_27, %x0_8 : tensor<1024xi32> loc(#loc54)
    %tmp9_29 = tt.splat %in_ptr2 : !tt.ptr<f16> -> tensor<1024x!tt.ptr<f16>> loc(#loc55)
    %tmp9_30 = tt.addptr %tmp9_29, %tmp9_28 : tensor<1024x!tt.ptr<f16>>, tensor<1024xi32> loc(#loc55)
    %tmp9_31 = tt.load %tmp9_30, %xmask_5 evictionPolicy = evict_last : tensor<1024x!tt.ptr<f16>> loc(#loc56)
    %tmp9_32 = arith.extf %tmp9_31 : tensor<1024xf16> to tensor<1024xf32> loc(#loc57)
    %tmp3 = arith.constant 2.560000e+02 : f32 loc(#loc58)
    %tmp3_33 = arith.constant dense<2.560000e+02> : tensor<1xf32> loc(#loc58)
    %tmp4 = arith.constant dense<2.560000e+02> : tensor<1024xf32> loc(#loc59)
    %tmp4_34 = arith.divf %tmp2_25, %tmp4 : tensor<1024xf32> loc(#loc59)
    %tmp5 = arith.constant 9.99999997E-7 : f32 loc(#loc60)
    %tmp5_35 = arith.constant dense<9.99999997E-7> : tensor<1xf32> loc(#loc60)
    %tmp6 = arith.constant dense<9.99999997E-7> : tensor<1024xf32> loc(#loc61)
    %tmp6_36 = arith.addf %tmp4_34, %tmp6 : tensor<1024xf32> loc(#loc61)
    %tmp7 = tt.extern_elementwise %tmp6_36 {libname = "", libpath = "", pure = true, symbol = "__nv_rsqrtf"} : (tensor<1024xf32>) -> tensor<1024xf32> loc(#loc62)
    %tmp8 = arith.mulf %tmp0_23, %tmp7 : tensor<1024xf32> loc(#loc63)
    %tmp11 = arith.constant 1.000000e+00 : f32 loc(#loc64)
    %tmp11_37 = arith.constant dense<1.000000e+00> : tensor<1xf32> loc(#loc64)
    %tmp12 = arith.constant dense<1.000000e+00> : tensor<1024xf32> loc(#loc65)
    %tmp12_38 = arith.addf %tmp9_32, %tmp12 : tensor<1024xf32> loc(#loc65)
    %tmp13 = arith.mulf %tmp8, %tmp12_38 : tensor<1024xf32> loc(#loc66)
    %c256_i32 = arith.constant 256 : i32 loc(#loc29)
    %c256_i32_39 = arith.constant 256 : i32 loc(#loc29)
    %cst = arith.constant dense<256> : tensor<1024xi32> loc(#loc29)
    %0 = arith.muli %cst, %x1_11 : tensor<1024xi32> loc(#loc29)
    %1 = arith.addi %x0_8, %0 : tensor<1024xi32> loc(#loc30)
    %2 = tt.splat %out_ptr0 : !tt.ptr<f16> -> tensor<1024x!tt.ptr<f16>> loc(#loc31)
    %3 = tt.addptr %2, %1 : tensor<1024x!tt.ptr<f16>>, tensor<1024xi32> loc(#loc31)
    %4 = arith.truncf %tmp13 : tensor<1024xf32> to tensor<1024xf16> loc(#loc32)
    tt.store %3, %4, %xmask_5 : tensor<1024x!tt.ptr<f16>> loc(#loc32)
    tt.return loc(#loc33)
  } loc(#loc)
} loc(#loc)
#loc1 = loc("/root/.cache/vllm/torch_compile_cache/torch_aot_compile/61bda05feca29378847c32f031efa5c8dba258f38b0176a06a3e99e41df8ca50/inductor_cache/5p/c5povlqlv72z7uiz7ln6vd3jrxgzs4wu36logdc2rzcikwjp4s3m.py":23:28)
#loc2 = loc("/root/.cache/vllm/torch_compile_cache/torch_aot_compile/61bda05feca29378847c32f031efa5c8dba258f38b0176a06a3e99e41df8ca50/inductor_cache/5p/c5povlqlv72z7uiz7ln6vd3jrxgzs4wu36logdc2rzcikwjp4s3m.py":23:33)
#loc3 = loc("/root/.cache/vllm/torch_compile_cache/torch_aot_compile/61bda05feca29378847c32f031efa5c8dba258f38b0176a06a3e99e41df8ca50/inductor_cache/5p/c5povlqlv72z7uiz7ln6vd3jrxgzs4wu36logdc2rzcikwjp4s3m.py":24:36)
#loc4 = loc("/root/.cache/vllm/torch_compile_cache/torch_aot_compile/61bda05feca29378847c32f031efa5c8dba258f38b0176a06a3e99e41df8ca50/inductor_cache/5p/c5povlqlv72z7uiz7ln6vd3jrxgzs4wu36logdc2rzcikwjp4s3m.py":24:23)
#loc5 = loc("/root/.cache/vllm/torch_compile_cache/torch_aot_compile/61bda05feca29378847c32f031efa5c8dba258f38b0176a06a3e99e41df8ca50/inductor_cache/5p/c5povlqlv72z7uiz7ln6vd3jrxgzs4wu36logdc2rzcikwjp4s3m.py":25:21)
#loc6 = loc("/root/.cache/vllm/torch_compile_cache/torch_aot_compile/61bda05feca29378847c32f031efa5c8dba258f38b0176a06a3e99e41df8ca50/inductor_cache/5p/c5povlqlv72z7uiz7ln6vd3jrxgzs4wu36logdc2rzcikwjp4s3m.py":26:19)
#loc7 = loc("/root/.cache/vllm/torch_compile_cache/torch_aot_compile/61bda05feca29378847c32f031efa5c8dba258f38b0176a06a3e99e41df8ca50/inductor_cache/5p/c5povlqlv72z7uiz7ln6vd3jrxgzs4wu36logdc2rzcikwjp4s3m.py":27:19)
#loc8 = loc("/root/.cache/vllm/torch_compile_cache/torch_aot_compile/61bda05feca29378847c32f031efa5c8dba258f38b0176a06a3e99e41df8ca50/inductor_cache/5p/c5povlqlv72z7uiz7ln6vd3jrxgzs4wu36logdc2rzcikwjp4s3m.py":28:37)
#loc9 = loc("/root/.cache/vllm/torch_compile_cache/torch_aot_compile/61bda05feca29378847c32f031efa5c8dba258f38b0176a06a3e99e41df8ca50/inductor_cache/5p/c5povlqlv72z7uiz7ln6vd3jrxgzs4wu36logdc2rzcikwjp4s3m.py":28:47)
#loc10 = loc("/root/.cache/vllm/torch_compile_cache/torch_aot_compile/61bda05feca29378847c32f031efa5c8dba258f38b0176a06a3e99e41df8ca50/inductor_cache/5p/c5povlqlv72z7uiz7ln6vd3jrxgzs4wu36logdc2rzcikwjp4s3m.py":28:42)
#loc11 = loc("/root/.cache/vllm/torch_compile_cache/torch_aot_compile/61bda05feca29378847c32f031efa5c8dba258f38b0176a06a3e99e41df8ca50/inductor_cache/5p/c5povlqlv72z7uiz7ln6vd3jrxgzs4wu36logdc2rzcikwjp4s3m.py":28:30)
#loc12 = loc("/root/.cache/vllm/torch_compile_cache/torch_aot_compile/61bda05feca29378847c32f031efa5c8dba258f38b0176a06a3e99e41df8ca50/inductor_cache/5p/c5povlqlv72z7uiz7ln6vd3jrxgzs4wu36logdc2rzcikwjp4s3m.py":28:52)
#loc13 = loc("/root/.cache/vllm/torch_compile_cache/torch_aot_compile/61bda05feca29378847c32f031efa5c8dba258f38b0176a06a3e99e41df8ca50/inductor_cache/5p/c5povlqlv72z7uiz7ln6vd3jrxgzs4wu36logdc2rzcikwjp4s3m.py":28:62)
#loc14 = loc("/root/.cache/vllm/torch_compile_cache/torch_aot_compile/61bda05feca29378847c32f031efa5c8dba258f38b0176a06a3e99e41df8ca50/inductor_cache/5p/c5povlqlv72z7uiz7ln6vd3jrxgzs4wu36logdc2rzcikwjp4s3m.py":29:30)
#loc15 = loc("/root/.cache/vllm/torch_compile_cache/torch_aot_compile/61bda05feca29378847c32f031efa5c8dba258f38b0176a06a3e99e41df8ca50/inductor_cache/5p/c5povlqlv72z7uiz7ln6vd3jrxgzs4wu36logdc2rzcikwjp4s3m.py":29:35)
#loc16 = loc("/root/.cache/vllm/torch_compile_cache/torch_aot_compile/61bda05feca29378847c32f031efa5c8dba258f38b0176a06a3e99e41df8ca50/inductor_cache/5p/c5povlqlv72z7uiz7ln6vd3jrxgzs4wu36logdc2rzcikwjp4s3m.py":30:35)
#loc17 = loc("/root/.cache/vllm/torch_compile_cache/torch_aot_compile/61bda05feca29378847c32f031efa5c8dba258f38b0176a06a3e99e41df8ca50/inductor_cache/5p/c5povlqlv72z7uiz7ln6vd3jrxgzs4wu36logdc2rzcikwjp4s3m.py":30:30)
#loc18 = loc("/root/.cache/vllm/torch_compile_cache/torch_aot_compile/61bda05feca29378847c32f031efa5c8dba258f38b0176a06a3e99e41df8ca50/inductor_cache/5p/c5povlqlv72z7uiz7ln6vd3jrxgzs4wu36logdc2rzcikwjp4s3m.py":30:40)
#loc19 = loc("/root/.cache/vllm/torch_compile_cache/torch_aot_compile/61bda05feca29378847c32f031efa5c8dba258f38b0176a06a3e99e41df8ca50/inductor_cache/5p/c5povlqlv72z7uiz7ln6vd3jrxgzs4wu36logdc2rzcikwjp4s3m.py":30:80)
#loc20 = loc("/root/.cache/vllm/torch_compile_cache/torch_aot_compile/61bda05feca29378847c32f031efa5c8dba258f38b0176a06a3e99e41df8ca50/inductor_cache/5p/c5povlqlv72z7uiz7ln6vd3jrxgzs4wu36logdc2rzcikwjp4s3m.py":32:31)
#loc21 = loc("/root/.cache/vllm/torch_compile_cache/torch_aot_compile/61bda05feca29378847c32f031efa5c8dba258f38b0176a06a3e99e41df8ca50/inductor_cache/5p/c5povlqlv72z7uiz7ln6vd3jrxgzs4wu36logdc2rzcikwjp4s3m.py":33:19)
#loc22 = loc("/root/.cache/vllm/torch_compile_cache/torch_aot_compile/61bda05feca29378847c32f031efa5c8dba258f38b0176a06a3e99e41df8ca50/inductor_cache/5p/c5povlqlv72z7uiz7ln6vd3jrxgzs4wu36logdc2rzcikwjp4s3m.py":34:31)
#loc23 = loc("/root/.cache/vllm/torch_compile_cache/torch_aot_compile/61bda05feca29378847c32f031efa5c8dba258f38b0176a06a3e99e41df8ca50/inductor_cache/5p/c5povlqlv72z7uiz7ln6vd3jrxgzs4wu36logdc2rzcikwjp4s3m.py":35:18)
#loc24 = loc("/root/.cache/vllm/torch_compile_cache/torch_aot_compile/61bda05feca29378847c32f031efa5c8dba258f38b0176a06a3e99e41df8ca50/inductor_cache/5p/c5povlqlv72z7uiz7ln6vd3jrxgzs4wu36logdc2rzcikwjp4s3m.py":36:27)
#loc25 = loc("/root/.cache/vllm/torch_compile_cache/torch_aot_compile/61bda05feca29378847c32f031efa5c8dba258f38b0176a06a3e99e41df8ca50/inductor_cache/5p/c5povlqlv72z7uiz7ln6vd3jrxgzs4wu36logdc2rzcikwjp4s3m.py":37:18)
#loc26 = loc("/root/.cache/vllm/torch_compile_cache/torch_aot_compile/61bda05feca29378847c32f031efa5c8dba258f38b0176a06a3e99e41df8ca50/inductor_cache/5p/c5povlqlv72z7uiz7ln6vd3jrxgzs4wu36logdc2rzcikwjp4s3m.py":39:30)
#loc27 = loc("/root/.cache/vllm/torch_compile_cache/torch_aot_compile/61bda05feca29378847c32f031efa5c8dba258f38b0176a06a3e99e41df8ca50/inductor_cache/5p/c5povlqlv72z7uiz7ln6vd3jrxgzs4wu36logdc2rzcikwjp4s3m.py":40:20)
#loc28 = loc("/root/.cache/vllm/torch_compile_cache/torch_aot_compile/61bda05feca29378847c32f031efa5c8dba258f38b0176a06a3e99e41df8ca50/inductor_cache/5p/c5povlqlv72z7uiz7ln6vd3jrxgzs4wu36logdc2rzcikwjp4s3m.py":41:19)
#loc29 = loc("/root/.cache/vllm/torch_compile_cache/torch_aot_compile/61bda05feca29378847c32f031efa5c8dba258f38b0176a06a3e99e41df8ca50/inductor_cache/5p/c5povlqlv72z7uiz7ln6vd3jrxgzs4wu36logdc2rzcikwjp4s3m.py":43:34)
#loc30 = loc("/root/.cache/vllm/torch_compile_cache/torch_aot_compile/61bda05feca29378847c32f031efa5c8dba258f38b0176a06a3e99e41df8ca50/inductor_cache/5p/c5povlqlv72z7uiz7ln6vd3jrxgzs4wu36logdc2rzcikwjp4s3m.py":43:30)
#loc31 = loc("/root/.cache/vllm/torch_compile_cache/torch_aot_compile/61bda05feca29378847c32f031efa5c8dba258f38b0176a06a3e99e41df8ca50/inductor_cache/5p/c5povlqlv72z7uiz7ln6vd3jrxgzs4wu36logdc2rzcikwjp4s3m.py":43:25)
#loc32 = loc("/root/.cache/vllm/torch_compile_cache/torch_aot_compile/61bda05feca29378847c32f031efa5c8dba258f38b0176a06a3e99e41df8ca50/inductor_cache/5p/c5povlqlv72z7uiz7ln6vd3jrxgzs4wu36logdc2rzcikwjp4s3m.py":43:46)
#loc33 = loc("/root/.cache/vllm/torch_compile_cache/torch_aot_compile/61bda05feca29378847c32f031efa5c8dba258f38b0176a06a3e99e41df8ca50/inductor_cache/5p/c5povlqlv72z7uiz7ln6vd3jrxgzs4wu36logdc2rzcikwjp4s3m.py":43:4)
#loc39 = loc("xoffset"(#loc1))
#loc40 = loc("xoffset"(#loc2))
#loc41 = loc("xindex"(#loc3))
#loc42 = loc("xindex"(#loc4))
#loc43 = loc("xmask"(#loc5))
#loc44 = loc("x0"(#loc6))
#loc45 = loc("x1"(#loc7))
#loc46 = loc("tmp0"(#loc8))
#loc47 = loc("tmp0"(#loc9))
#loc48 = loc("tmp0"(#loc10))
#loc49 = loc("tmp0"(#loc11))
#loc50 = loc("tmp0"(#loc12))
#loc51 = loc("tmp0"(#loc13))
#loc52 = loc("tmp2"(#loc14))
#loc53 = loc("tmp2"(#loc15))
#loc54 = loc("tmp9"(#loc16))
#loc55 = loc("tmp9"(#loc17))
#loc56 = loc("tmp9"(#loc18))
#loc57 = loc("tmp9"(#loc19))
#loc58 = loc("tmp3"(#loc20))
#loc59 = loc("tmp4"(#loc21))
#loc60 = loc("tmp5"(#loc22))
#loc61 = loc("tmp6"(#loc23))
#loc62 = loc("tmp7"(#loc24))
#loc63 = loc("tmp8"(#loc25))
#loc64 = loc("tmp11"(#loc26))
#loc65 = loc("tmp12"(#loc27))
#loc66 = loc("tmp13"(#loc28))
