#loc = loc("/root/.cache/vllm/torch_compile_cache/torch_aot_compile/61bda05feca29378847c32f031efa5c8dba258f38b0176a06a3e99e41df8ca50/inductor_cache/jw/cjwuqvgelgluhfczoxzn2wd2gigh3s2wh4vnyltklt35dkzoyyvk.py":18:0)
#loc23 = loc("in_ptr0"(#loc))
#loc24 = loc("out_ptr0"(#loc))
#loc25 = loc("ks0"(#loc))
#loc26 = loc("xnumel"(#loc))
module {
  tt.func public @triton_poi_fused_mul_silu_slice_0(%in_ptr0: !tt.ptr<f16> {tt.divisibility = 16 : i32} loc("in_ptr0"(#loc)), %out_ptr0: !tt.ptr<f16> {tt.divisibility = 16 : i32} loc("out_ptr0"(#loc)), %ks0: i64 loc("ks0"(#loc)), %xnumel: i32 loc("xnumel"(#loc))) attributes {noinline = false} {
    %xoffset = tt.get_program_id x : i32 loc(#loc27)
    %xoffset_0 = arith.constant 256 : i32 loc(#loc28)
    %xoffset_1 = arith.constant 256 : i32 loc(#loc28)
    %xoffset_2 = arith.muli %xoffset, %xoffset_1 : i32 loc(#loc28)
    %xindex = tt.make_range {end = 256 : i32, start = 0 : i32} : tensor<256xi32> loc(#loc29)
    %xindex_3 = tt.splat %xoffset_2 : i32 -> tensor<256xi32> loc(#loc30)
    %xindex_4 = arith.addi %xindex_3, %xindex : tensor<256xi32> loc(#loc30)
    %xmask = tt.splat %xnumel : i32 -> tensor<256xi32> loc(#loc31)
    %xmask_5 = arith.cmpi slt, %xindex_4, %xmask : tensor<256xi32> loc(#loc31)
    %tmp0 = tt.splat %in_ptr0 : !tt.ptr<f16> -> tensor<256x!tt.ptr<f16>> loc(#loc32)
    %tmp0_6 = tt.addptr %tmp0, %xindex_4 : tensor<256x!tt.ptr<f16>>, tensor<256xi32> loc(#loc32)
    %tmp0_7 = tt.load %tmp0_6, %xmask_5 : tensor<256x!tt.ptr<f16>> loc(#loc33)
    %tmp0_8 = arith.extf %tmp0_7 : tensor<256xf16> to tensor<256xf32> loc(#loc34)
    %tmp8 = arith.constant 2 : i32 loc(#loc35)
    %tmp8_9 = arith.constant 2 : i64 loc(#loc35)
    %tmp8_10 = arith.divsi %ks0, %tmp8_9 : i64 loc(#loc35)
    %tmp8_11 = arith.extsi %xindex_4 : tensor<256xi32> to tensor<256xi64> loc(#loc36)
    %tmp8_12 = tt.splat %tmp8_10 : i64 -> tensor<256xi64> loc(#loc36)
    %tmp8_13 = arith.addi %tmp8_11, %tmp8_12 : tensor<256xi64> loc(#loc36)
    %tmp8_14 = tt.splat %in_ptr0 : !tt.ptr<f16> -> tensor<256x!tt.ptr<f16>> loc(#loc37)
    %tmp8_15 = tt.addptr %tmp8_14, %tmp8_13 : tensor<256x!tt.ptr<f16>>, tensor<256xi64> loc(#loc37)
    %tmp8_16 = tt.load %tmp8_15, %xmask_5 : tensor<256x!tt.ptr<f16>> loc(#loc38)
    %tmp8_17 = arith.extf %tmp8_16 : tensor<256xf16> to tensor<256xf32> loc(#loc39)
    %tmp2 = arith.constant 0.000000e+00 : f32 loc(#loc40)
    %tmp2_18 = arith.constant dense<0.000000e+00> : tensor<256xf32> loc(#loc40)
    %tmp2_19 = arith.subf %tmp2_18, %tmp0_8 : tensor<256xf32> loc(#loc40)
    %tmp3 = tt.extern_elementwise %tmp2_19 {libname = "", libpath = "", pure = true, symbol = "__nv_expf"} : (tensor<256xf32>) -> tensor<256xf32> loc(#loc41)
    %tmp4 = arith.constant 1.000000e+00 : f32 loc(#loc42)
    %tmp4_20 = arith.constant dense<1.000000e+00> : tensor<1xf32> loc(#loc42)
    %tmp5 = arith.constant dense<1.000000e+00> : tensor<256xf32> loc(#loc43)
    %tmp5_21 = arith.addf %tmp3, %tmp5 : tensor<256xf32> loc(#loc43)
    %tmp6 = arith.divf %tmp0_8, %tmp5_21 : tensor<256xf32> loc(#loc44)
    %tmp9 = arith.mulf %tmp6, %tmp8_17 : tensor<256xf32> loc(#loc45)
    %0 = tt.splat %out_ptr0 : !tt.ptr<f16> -> tensor<256x!tt.ptr<f16>> loc(#loc20)
    %1 = tt.addptr %0, %xindex_4 : tensor<256x!tt.ptr<f16>>, tensor<256xi32> loc(#loc20)
    %2 = arith.truncf %tmp9 : tensor<256xf32> to tensor<256xf16> loc(#loc21)
    tt.store %1, %2, %xmask_5 : tensor<256x!tt.ptr<f16>> loc(#loc21)
    tt.return loc(#loc22)
  } loc(#loc)
} loc(#loc)
#loc1 = loc("/root/.cache/vllm/torch_compile_cache/torch_aot_compile/61bda05feca29378847c32f031efa5c8dba258f38b0176a06a3e99e41df8ca50/inductor_cache/jw/cjwuqvgelgluhfczoxzn2wd2gigh3s2wh4vnyltklt35dkzoyyvk.py":19:28)
#loc2 = loc("/root/.cache/vllm/torch_compile_cache/torch_aot_compile/61bda05feca29378847c32f031efa5c8dba258f38b0176a06a3e99e41df8ca50/inductor_cache/jw/cjwuqvgelgluhfczoxzn2wd2gigh3s2wh4vnyltklt35dkzoyyvk.py":19:33)
#loc3 = loc("/root/.cache/vllm/torch_compile_cache/torch_aot_compile/61bda05feca29378847c32f031efa5c8dba258f38b0176a06a3e99e41df8ca50/inductor_cache/jw/cjwuqvgelgluhfczoxzn2wd2gigh3s2wh4vnyltklt35dkzoyyvk.py":20:36)
#loc4 = loc("/root/.cache/vllm/torch_compile_cache/torch_aot_compile/61bda05feca29378847c32f031efa5c8dba258f38b0176a06a3e99e41df8ca50/inductor_cache/jw/cjwuqvgelgluhfczoxzn2wd2gigh3s2wh4vnyltklt35dkzoyyvk.py":20:23)
#loc5 = loc("/root/.cache/vllm/torch_compile_cache/torch_aot_compile/61bda05feca29378847c32f031efa5c8dba258f38b0176a06a3e99e41df8ca50/inductor_cache/jw/cjwuqvgelgluhfczoxzn2wd2gigh3s2wh4vnyltklt35dkzoyyvk.py":21:21)
#loc6 = loc("/root/.cache/vllm/torch_compile_cache/torch_aot_compile/61bda05feca29378847c32f031efa5c8dba258f38b0176a06a3e99e41df8ca50/inductor_cache/jw/cjwuqvgelgluhfczoxzn2wd2gigh3s2wh4vnyltklt35dkzoyyvk.py":23:30)
#loc7 = loc("/root/.cache/vllm/torch_compile_cache/torch_aot_compile/61bda05feca29378847c32f031efa5c8dba258f38b0176a06a3e99e41df8ca50/inductor_cache/jw/cjwuqvgelgluhfczoxzn2wd2gigh3s2wh4vnyltklt35dkzoyyvk.py":23:35)
#loc8 = loc("/root/.cache/vllm/torch_compile_cache/torch_aot_compile/61bda05feca29378847c32f031efa5c8dba258f38b0176a06a3e99e41df8ca50/inductor_cache/jw/cjwuqvgelgluhfczoxzn2wd2gigh3s2wh4vnyltklt35dkzoyyvk.py":23:45)
#loc9 = loc("/root/.cache/vllm/torch_compile_cache/torch_aot_compile/61bda05feca29378847c32f031efa5c8dba258f38b0176a06a3e99e41df8ca50/inductor_cache/jw/cjwuqvgelgluhfczoxzn2wd2gigh3s2wh4vnyltklt35dkzoyyvk.py":24:43)
#loc10 = loc("/root/.cache/vllm/torch_compile_cache/torch_aot_compile/61bda05feca29378847c32f031efa5c8dba258f38b0176a06a3e99e41df8ca50/inductor_cache/jw/cjwuqvgelgluhfczoxzn2wd2gigh3s2wh4vnyltklt35dkzoyyvk.py":24:36)
#loc11 = loc("/root/.cache/vllm/torch_compile_cache/torch_aot_compile/61bda05feca29378847c32f031efa5c8dba258f38b0176a06a3e99e41df8ca50/inductor_cache/jw/cjwuqvgelgluhfczoxzn2wd2gigh3s2wh4vnyltklt35dkzoyyvk.py":24:30)
#loc12 = loc("/root/.cache/vllm/torch_compile_cache/torch_aot_compile/61bda05feca29378847c32f031efa5c8dba258f38b0176a06a3e99e41df8ca50/inductor_cache/jw/cjwuqvgelgluhfczoxzn2wd2gigh3s2wh4vnyltklt35dkzoyyvk.py":24:48)
#loc13 = loc("/root/.cache/vllm/torch_compile_cache/torch_aot_compile/61bda05feca29378847c32f031efa5c8dba258f38b0176a06a3e99e41df8ca50/inductor_cache/jw/cjwuqvgelgluhfczoxzn2wd2gigh3s2wh4vnyltklt35dkzoyyvk.py":24:58)
#loc14 = loc("/root/.cache/vllm/torch_compile_cache/torch_aot_compile/61bda05feca29378847c32f031efa5c8dba258f38b0176a06a3e99e41df8ca50/inductor_cache/jw/cjwuqvgelgluhfczoxzn2wd2gigh3s2wh4vnyltklt35dkzoyyvk.py":26:12)
#loc15 = loc("/root/.cache/vllm/torch_compile_cache/torch_aot_compile/61bda05feca29378847c32f031efa5c8dba258f38b0176a06a3e99e41df8ca50/inductor_cache/jw/cjwuqvgelgluhfczoxzn2wd2gigh3s2wh4vnyltklt35dkzoyyvk.py":27:25)
#loc16 = loc("/root/.cache/vllm/torch_compile_cache/torch_aot_compile/61bda05feca29378847c32f031efa5c8dba258f38b0176a06a3e99e41df8ca50/inductor_cache/jw/cjwuqvgelgluhfczoxzn2wd2gigh3s2wh4vnyltklt35dkzoyyvk.py":28:29)
#loc17 = loc("/root/.cache/vllm/torch_compile_cache/torch_aot_compile/61bda05feca29378847c32f031efa5c8dba258f38b0176a06a3e99e41df8ca50/inductor_cache/jw/cjwuqvgelgluhfczoxzn2wd2gigh3s2wh4vnyltklt35dkzoyyvk.py":29:18)
#loc18 = loc("/root/.cache/vllm/torch_compile_cache/torch_aot_compile/61bda05feca29378847c32f031efa5c8dba258f38b0176a06a3e99e41df8ca50/inductor_cache/jw/cjwuqvgelgluhfczoxzn2wd2gigh3s2wh4vnyltklt35dkzoyyvk.py":30:19)
#loc19 = loc("/root/.cache/vllm/torch_compile_cache/torch_aot_compile/61bda05feca29378847c32f031efa5c8dba258f38b0176a06a3e99e41df8ca50/inductor_cache/jw/cjwuqvgelgluhfczoxzn2wd2gigh3s2wh4vnyltklt35dkzoyyvk.py":32:18)
#loc20 = loc("/root/.cache/vllm/torch_compile_cache/torch_aot_compile/61bda05feca29378847c32f031efa5c8dba258f38b0176a06a3e99e41df8ca50/inductor_cache/jw/cjwuqvgelgluhfczoxzn2wd2gigh3s2wh4vnyltklt35dkzoyyvk.py":33:25)
#loc21 = loc("/root/.cache/vllm/torch_compile_cache/torch_aot_compile/61bda05feca29378847c32f031efa5c8dba258f38b0176a06a3e99e41df8ca50/inductor_cache/jw/cjwuqvgelgluhfczoxzn2wd2gigh3s2wh4vnyltklt35dkzoyyvk.py":33:36)
#loc22 = loc("/root/.cache/vllm/torch_compile_cache/torch_aot_compile/61bda05feca29378847c32f031efa5c8dba258f38b0176a06a3e99e41df8ca50/inductor_cache/jw/cjwuqvgelgluhfczoxzn2wd2gigh3s2wh4vnyltklt35dkzoyyvk.py":33:4)
#loc27 = loc("xoffset"(#loc1))
#loc28 = loc("xoffset"(#loc2))
#loc29 = loc("xindex"(#loc3))
#loc30 = loc("xindex"(#loc4))
#loc31 = loc("xmask"(#loc5))
#loc32 = loc("tmp0"(#loc6))
#loc33 = loc("tmp0"(#loc7))
#loc34 = loc("tmp0"(#loc8))
#loc35 = loc("tmp8"(#loc9))
#loc36 = loc("tmp8"(#loc10))
#loc37 = loc("tmp8"(#loc11))
#loc38 = loc("tmp8"(#loc12))
#loc39 = loc("tmp8"(#loc13))
#loc40 = loc("tmp2"(#loc14))
#loc41 = loc("tmp3"(#loc15))
#loc42 = loc("tmp4"(#loc16))
#loc43 = loc("tmp5"(#loc17))
#loc44 = loc("tmp6"(#loc18))
#loc45 = loc("tmp9"(#loc19))
