#loc = loc("/root/.cache/vllm/torch_compile_cache/torch_aot_compile/61bda05feca29378847c32f031efa5c8dba258f38b0176a06a3e99e41df8ca50/inductor_cache/qr/cqrzqcxz5c3c5powhlgam7xrbfwaohaa62saka7efyhnxgluueqo.py":22:0)
#loc127 = loc("/usr/local/lib/python3.12/dist-packages/torch/_inductor/runtime/triton_helpers.py":75:0)
#loc138 = loc("in_ptr0"(#loc))
#loc139 = loc("in_ptr1"(#loc))
#loc140 = loc("out_ptr0"(#loc))
#loc141 = loc("out_ptr1"(#loc))
#loc142 = loc("ks0"(#loc))
#loc143 = loc("xnumel"(#loc))
#loc245 = loc("a"(#loc127))
module {
  tt.func public @triton_(%in_ptr0: !tt.ptr<i64> {tt.divisibility = 16 : i32} loc("in_ptr0"(#loc)), %in_ptr1: !tt.ptr<f16> {tt.divisibility = 16 : i32} loc("in_ptr1"(#loc)), %out_ptr0: !tt.ptr<f16> {tt.divisibility = 16 : i32} loc("out_ptr0"(#loc)), %out_ptr1: !tt.ptr<f16> {tt.divisibility = 16 : i32} loc("out_ptr1"(#loc)), %ks0: i64 loc("ks0"(#loc)), %xnumel: i32 {tt.divisibility = 16 : i32} loc("xnumel"(#loc))) attributes {noinline = false} {
    %xoffset = tt.get_program_id x : i32 loc(#loc144)
    %xoffset_0 = arith.constant 1024 : i32 loc(#loc145)
    %xoffset_1 = arith.constant 1024 : i32 loc(#loc145)
    %xoffset_2 = arith.muli %xoffset, %xoffset_1 : i32 loc(#loc145)
    %xindex = tt.make_range {end = 1024 : i32, start = 0 : i32} : tensor<1024xi32> loc(#loc146)
    %xindex_3 = tt.splat %xoffset_2 : i32 -> tensor<1024xi32> loc(#loc147)
    %xindex_4 = arith.addi %xindex_3, %xindex : tensor<1024xi32> loc(#loc147)
    %xmask = tt.splat %xnumel : i32 -> tensor<1024xi32> loc(#loc148)
    %xmask_5 = arith.cmpi slt, %xindex_4, %xmask : tensor<1024xi32> loc(#loc148)
    %x0 = arith.constant 32 : i32 loc(#loc149)
    %x0_6 = arith.constant 32 : i32 loc(#loc149)
    %x0_7 = arith.constant dense<32> : tensor<1024xi32> loc(#loc149)
    %x0_8 = arith.remsi %xindex_4, %x0_7 : tensor<1024xi32> loc(#loc149)
    %x1 = arith.constant 32 : i32 loc(#loc150)
    %x1_9 = arith.constant 32 : i32 loc(#loc150)
    %x1_10 = arith.constant dense<32> : tensor<1024xi32> loc(#loc150)
    %x1_11 = arith.divsi %xindex_4, %x1_10 : tensor<1024xi32> loc(#loc150)
    %tmp29 = tt.splat %in_ptr0 : !tt.ptr<i64> -> tensor<1024x!tt.ptr<i64>> loc(#loc151)
    %tmp29_12 = tt.addptr %tmp29, %x1_11 : tensor<1024x!tt.ptr<i64>>, tensor<1024xi32> loc(#loc151)
    %tmp29_13 = tt.load %tmp29_12, %xmask_5 evictionPolicy = evict_last : tensor<1024x!tt.ptr<i64>> loc(#loc152)
    %tmp1 = arith.constant 2 : i64 loc(#loc153)
    %tmp1_14 = arith.constant dense<2> : tensor<1xi64> loc(#loc153)
    %tmp2 = arith.extsi %x0_8 : tensor<1024xi32> to tensor<1024xi64> loc(#loc154)
    %tmp2_15 = arith.constant dense<2> : tensor<1024xi64> loc(#loc154)
    %tmp2_16 = arith.cmpi sge, %tmp2, %tmp2_15 : tensor<1024xi64> loc(#loc154)
    %tmp3 = arith.constant 30 : i64 loc(#loc155)
    %tmp3_17 = arith.constant dense<30> : tensor<1xi64> loc(#loc155)
    %tmp4 = arith.extsi %x0_8 : tensor<1024xi32> to tensor<1024xi64> loc(#loc156)
    %tmp4_18 = arith.constant dense<30> : tensor<1024xi64> loc(#loc156)
    %tmp4_19 = arith.cmpi slt, %tmp4, %tmp4_18 : tensor<1024xi64> loc(#loc156)
    %tmp5 = arith.constant -2 : i32 loc(#loc157)
    %tmp5_20 = arith.constant -2 : i32 loc(#loc157)
    %tmp5_21 = arith.constant dense<-2> : tensor<1024xi32> loc(#loc157)
    %tmp5_22 = arith.addi %tmp5_21, %x0_8 : tensor<1024xi32> loc(#loc157)
    %tmp5_23 = arith.constant 3 : i32 loc(#loc158)
    %tmp5_24 = arith.constant 3 : i32 loc(#loc158)
    %tmp5_25 = arith.constant dense<3> : tensor<1024xi32> loc(#loc158)
    %tmp5_26 = arith.remsi %tmp5_22, %tmp5_25 : tensor<1024xi32> loc(#loc158)
    %tmp6 = arith.constant 0 : i64 loc(#loc159)
    %tmp6_27 = arith.constant dense<0> : tensor<1xi64> loc(#loc159)
    %tmp7 = arith.extsi %tmp5_26 : tensor<1024xi32> to tensor<1024xi64> loc(#loc160)
    %tmp7_28 = arith.constant dense<0> : tensor<1024xi64> loc(#loc160)
    %tmp7_29 = arith.cmpi eq, %tmp7, %tmp7_28 : tensor<1024xi64> loc(#loc160)
    %tmp8 = arith.andi %tmp2_16, %tmp4_19 : tensor<1024xi1> loc(#loc161)
    %tmp9 = arith.andi %tmp8, %tmp7_29 : tensor<1024xi1> loc(#loc162)
    %tmp10 = arith.constant 2 : i32 loc(#loc163)
    %tmp10_30 = arith.constant 2 : i64 loc(#loc163)
    %tmp10_31 = arith.muli %tmp10_30, %ks0 : i64 loc(#loc163)
    %tmp10_32 = arith.extsi %x1_11 : tensor<1024xi32> to tensor<1024xi64> loc(#loc164)
    %tmp10_33 = tt.splat %tmp10_31 : i64 -> tensor<1024xi64> loc(#loc164)
    %tmp10_34 = arith.addi %tmp10_32, %tmp10_33 : tensor<1024xi64> loc(#loc164)
    %tmp10_35 = tt.splat %in_ptr0 : !tt.ptr<i64> -> tensor<1024x!tt.ptr<i64>> loc(#loc165)
    %tmp10_36 = tt.addptr %tmp10_35, %tmp10_34 : tensor<1024x!tt.ptr<i64>>, tensor<1024xi64> loc(#loc165)
    %tmp10_37 = arith.andi %tmp9, %xmask_5 : tensor<1024xi1> loc(#loc166)
    %tmp10_38 = arith.constant 0.000000e+00 : f32 loc(#loc167)
    %tmp10_39 = arith.constant dense<0.000000e+00> : tensor<1024xf32> loc(#loc167)
    %tmp10_40 = arith.fptosi %tmp10_39 : tensor<1024xf32> to tensor<1024xi64> loc(#loc167)
    %tmp10_41 = tt.load %tmp10_36, %tmp10_37, %tmp10_40 evictionPolicy = evict_last : tensor<1024x!tt.ptr<i64>> loc(#loc167)
    %tmp11 = arith.constant 1048576 : i32 loc(#loc168)
    %tmp11_42 = arith.constant dense<1048576> : tensor<1024xi32> loc(#loc168)
    %tmp12 = arith.extsi %tmp11_42 : tensor<1024xi32> to tensor<1024xi64> loc(#loc169)
    %tmp12_43 = arith.addi %tmp10_41, %tmp12 : tensor<1024xi64> loc(#loc169)
    %tmp13 = arith.constant 0 : i32 loc(#loc170)
    %tmp13_44 = arith.extsi %tmp13 : i32 to i64 loc(#loc170)
    %tmp13_45 = tt.splat %tmp13_44 : i64 -> tensor<1024xi64> loc(#loc170)
    %tmp13_46 = arith.cmpi slt, %tmp10_41, %tmp13_45 : tensor<1024xi64> loc(#loc170)
    %tmp14 = arith.select %tmp13_46, %tmp12_43, %tmp10_41 : tensor<1024xi1>, tensor<1024xi64> loc(#loc171)
    %c0_i32 = arith.constant 0 : i32 loc(#loc29)
    %0 = arith.extsi %c0_i32 : i32 to i64 loc(#loc29)
    %1 = tt.splat %0 : i64 -> tensor<1024xi64> loc(#loc29)
    %2 = arith.cmpi sle, %1, %tmp14 : tensor<1024xi64> loc(#loc29)
    %c1048576_i32 = arith.constant 1048576 : i32 loc(#loc30)
    %3 = arith.extsi %c1048576_i32 : i32 to i64 loc(#loc30)
    %4 = tt.splat %3 : i64 -> tensor<1024xi64> loc(#loc30)
    %5 = arith.cmpi slt, %tmp14, %4 : tensor<1024xi64> loc(#loc30)
    %6 = arith.andi %2, %5 : tensor<1024xi1> loc(#loc31)
    %7 = arith.andi %tmp9, %xmask_5 : tensor<1024xi1> loc(#loc32)
    %true = arith.constant true loc(#loc33)
    %cst = arith.constant dense<true> : tensor<1024xi1> loc(#loc33)
    %8 = arith.xori %7, %cst : tensor<1024xi1> loc(#loc33)
    %9 = arith.ori %6, %8 : tensor<1024xi1> loc(#loc34)
    tt.assert %9, "index out of bounds: 0 <= tl.broadcast_to(tmp14, [XBLOCK]) < 1048576" : tensor<1024xi1> loc(#loc35)
    %tmp16 = arith.constant -2 : i32 loc(#loc172)
    %tmp16_47 = arith.constant -2 : i32 loc(#loc172)
    %tmp16_48 = arith.constant dense<-2> : tensor<1024xi32> loc(#loc172)
    %tmp16_49 = arith.addi %tmp16_48, %x0_8 : tensor<1024xi32> loc(#loc172)
    %tmp16_50 = tt.call @"torch._inductor.runtime.triton_helpers.div_floor_integer__i32S1024S__(1,)cconstexpr_3_"(%tmp16_49) : (tensor<1024xi32>) -> tensor<1024xi32> loc(#loc173)
    %tmp16_51 = arith.constant 3 : i32 loc(#loc174)
    %tmp16_52 = arith.constant 3 : i32 loc(#loc174)
    %tmp16_53 = arith.constant dense<3> : tensor<1024xi32> loc(#loc174)
    %tmp16_54 = arith.muli %tmp16_53, %tmp16_50 : tensor<1024xi32> loc(#loc174)
    %tmp16_55 = arith.constant 2 : i32 loc(#loc175)
    %tmp16_56 = arith.constant 2 : i32 loc(#loc175)
    %tmp16_57 = arith.constant dense<2> : tensor<1024xi32> loc(#loc175)
    %tmp16_58 = arith.addi %tmp16_57, %tmp16_54 : tensor<1024xi32> loc(#loc175)
    %tmp16_59 = arith.constant 64 : i32 loc(#loc176)
    %tmp16_60 = arith.constant 64 : i64 loc(#loc176)
    %tmp16_61 = arith.constant dense<64> : tensor<1024xi64> loc(#loc176)
    %tmp16_62 = arith.muli %tmp16_61, %tmp14 : tensor<1024xi64> loc(#loc176)
    %tmp16_63 = arith.extsi %tmp16_58 : tensor<1024xi32> to tensor<1024xi64> loc(#loc177)
    %tmp16_64 = arith.addi %tmp16_63, %tmp16_62 : tensor<1024xi64> loc(#loc177)
    %tmp16_65 = tt.splat %in_ptr1 : !tt.ptr<f16> -> tensor<1024x!tt.ptr<f16>> loc(#loc178)
    %tmp16_66 = tt.addptr %tmp16_65, %tmp16_64 : tensor<1024x!tt.ptr<f16>>, tensor<1024xi64> loc(#loc178)
    %tmp16_67 = arith.andi %tmp9, %xmask_5 : tensor<1024xi1> loc(#loc179)
    %tmp16_68 = arith.constant 0.000000e+00 : f32 loc(#loc180)
    %tmp16_69 = arith.constant dense<0.000000e+00> : tensor<1024xf32> loc(#loc180)
    %tmp16_70 = arith.truncf %tmp16_69 : tensor<1024xf32> to tensor<1024xf16> loc(#loc180)
    %tmp16_71 = tt.load %tmp16_66, %tmp16_67, %tmp16_70 evictionPolicy = evict_last : tensor<1024x!tt.ptr<f16>> loc(#loc180)
    %tmp16_72 = arith.extf %tmp16_71 : tensor<1024xf16> to tensor<1024xf32> loc(#loc181)
    %tmp17 = arith.constant 1 : i64 loc(#loc182)
    %tmp17_73 = arith.constant dense<1> : tensor<1xi64> loc(#loc182)
    %tmp18 = arith.extsi %x0_8 : tensor<1024xi32> to tensor<1024xi64> loc(#loc183)
    %tmp18_74 = arith.constant dense<1> : tensor<1024xi64> loc(#loc183)
    %tmp18_75 = arith.cmpi sge, %tmp18, %tmp18_74 : tensor<1024xi64> loc(#loc183)
    %tmp19 = arith.constant -1 : i32 loc(#loc184)
    %tmp19_76 = arith.constant -1 : i32 loc(#loc184)
    %tmp19_77 = arith.constant dense<-1> : tensor<1024xi32> loc(#loc184)
    %tmp19_78 = arith.addi %tmp19_77, %x0_8 : tensor<1024xi32> loc(#loc184)
    %tmp19_79 = arith.constant 3 : i32 loc(#loc185)
    %tmp19_80 = arith.constant 3 : i32 loc(#loc185)
    %tmp19_81 = arith.constant dense<3> : tensor<1024xi32> loc(#loc185)
    %tmp19_82 = arith.remsi %tmp19_78, %tmp19_81 : tensor<1024xi32> loc(#loc185)
    %tmp20 = arith.extsi %tmp19_82 : tensor<1024xi32> to tensor<1024xi64> loc(#loc186)
    %tmp20_83 = arith.constant dense<0> : tensor<1024xi64> loc(#loc186)
    %tmp20_84 = arith.cmpi eq, %tmp20, %tmp20_83 : tensor<1024xi64> loc(#loc186)
    %tmp21 = arith.andi %tmp18_75, %tmp20_84 : tensor<1024xi1> loc(#loc187)
    %tmp22 = arith.extsi %x1_11 : tensor<1024xi32> to tensor<1024xi64> loc(#loc188)
    %tmp22_85 = tt.splat %ks0 : i64 -> tensor<1024xi64> loc(#loc188)
    %tmp22_86 = arith.addi %tmp22_85, %tmp22 : tensor<1024xi64> loc(#loc188)
    %tmp22_87 = tt.splat %in_ptr0 : !tt.ptr<i64> -> tensor<1024x!tt.ptr<i64>> loc(#loc189)
    %tmp22_88 = tt.addptr %tmp22_87, %tmp22_86 : tensor<1024x!tt.ptr<i64>>, tensor<1024xi64> loc(#loc189)
    %tmp22_89 = arith.andi %tmp21, %xmask_5 : tensor<1024xi1> loc(#loc190)
    %tmp22_90 = arith.constant 0.000000e+00 : f32 loc(#loc191)
    %tmp22_91 = arith.constant dense<0.000000e+00> : tensor<1024xf32> loc(#loc191)
    %tmp22_92 = arith.fptosi %tmp22_91 : tensor<1024xf32> to tensor<1024xi64> loc(#loc191)
    %tmp22_93 = tt.load %tmp22_88, %tmp22_89, %tmp22_92 evictionPolicy = evict_last : tensor<1024x!tt.ptr<i64>> loc(#loc191)
    %tmp23 = arith.constant 1048576 : i32 loc(#loc192)
    %tmp23_94 = arith.constant dense<1048576> : tensor<1024xi32> loc(#loc192)
    %tmp24 = arith.extsi %tmp23_94 : tensor<1024xi32> to tensor<1024xi64> loc(#loc193)
    %tmp24_95 = arith.addi %tmp22_93, %tmp24 : tensor<1024xi64> loc(#loc193)
    %tmp25 = arith.constant 0 : i32 loc(#loc194)
    %tmp25_96 = arith.extsi %tmp25 : i32 to i64 loc(#loc194)
    %tmp25_97 = tt.splat %tmp25_96 : i64 -> tensor<1024xi64> loc(#loc194)
    %tmp25_98 = arith.cmpi slt, %tmp22_93, %tmp25_97 : tensor<1024xi64> loc(#loc194)
    %tmp26 = arith.select %tmp25_98, %tmp24_95, %tmp22_93 : tensor<1024xi1>, tensor<1024xi64> loc(#loc195)
    %c0_i32_99 = arith.constant 0 : i32 loc(#loc60)
    %10 = arith.extsi %c0_i32_99 : i32 to i64 loc(#loc60)
    %11 = tt.splat %10 : i64 -> tensor<1024xi64> loc(#loc60)
    %12 = arith.cmpi sle, %11, %tmp26 : tensor<1024xi64> loc(#loc60)
    %c1048576_i32_100 = arith.constant 1048576 : i32 loc(#loc61)
    %13 = arith.extsi %c1048576_i32_100 : i32 to i64 loc(#loc61)
    %14 = tt.splat %13 : i64 -> tensor<1024xi64> loc(#loc61)
    %15 = arith.cmpi slt, %tmp26, %14 : tensor<1024xi64> loc(#loc61)
    %16 = arith.andi %12, %15 : tensor<1024xi1> loc(#loc62)
    %17 = arith.andi %tmp21, %xmask_5 : tensor<1024xi1> loc(#loc63)
    %true_101 = arith.constant true loc(#loc64)
    %cst_102 = arith.constant dense<true> : tensor<1024xi1> loc(#loc64)
    %18 = arith.xori %17, %cst_102 : tensor<1024xi1> loc(#loc64)
    %19 = arith.ori %16, %18 : tensor<1024xi1> loc(#loc65)
    tt.assert %19, "index out of bounds: 0 <= tl.broadcast_to(tmp26, [XBLOCK]) < 1048576" : tensor<1024xi1> loc(#loc66)
    %tmp28 = arith.constant -1 : i32 loc(#loc196)
    %tmp28_103 = arith.constant -1 : i32 loc(#loc196)
    %tmp28_104 = arith.constant dense<-1> : tensor<1024xi32> loc(#loc196)
    %tmp28_105 = arith.addi %tmp28_104, %x0_8 : tensor<1024xi32> loc(#loc196)
    %tmp28_106 = tt.call @"torch._inductor.runtime.triton_helpers.div_floor_integer__i32S1024S__(1,)cconstexpr_3_"(%tmp28_105) : (tensor<1024xi32>) -> tensor<1024xi32> loc(#loc197)
    %tmp28_107 = arith.constant 3 : i32 loc(#loc198)
    %tmp28_108 = arith.constant 3 : i32 loc(#loc198)
    %tmp28_109 = arith.constant dense<3> : tensor<1024xi32> loc(#loc198)
    %tmp28_110 = arith.muli %tmp28_109, %tmp28_106 : tensor<1024xi32> loc(#loc198)
    %tmp28_111 = arith.constant 1 : i32 loc(#loc199)
    %tmp28_112 = arith.constant 1 : i32 loc(#loc199)
    %tmp28_113 = arith.constant dense<1> : tensor<1024xi32> loc(#loc199)
    %tmp28_114 = arith.addi %tmp28_113, %tmp28_110 : tensor<1024xi32> loc(#loc199)
    %tmp28_115 = arith.constant 64 : i32 loc(#loc200)
    %tmp28_116 = arith.constant 64 : i64 loc(#loc200)
    %tmp28_117 = arith.constant dense<64> : tensor<1024xi64> loc(#loc200)
    %tmp28_118 = arith.muli %tmp28_117, %tmp26 : tensor<1024xi64> loc(#loc200)
    %tmp28_119 = arith.extsi %tmp28_114 : tensor<1024xi32> to tensor<1024xi64> loc(#loc201)
    %tmp28_120 = arith.addi %tmp28_119, %tmp28_118 : tensor<1024xi64> loc(#loc201)
    %tmp28_121 = tt.splat %in_ptr1 : !tt.ptr<f16> -> tensor<1024x!tt.ptr<f16>> loc(#loc202)
    %tmp28_122 = tt.addptr %tmp28_121, %tmp28_120 : tensor<1024x!tt.ptr<f16>>, tensor<1024xi64> loc(#loc202)
    %tmp28_123 = arith.andi %tmp21, %xmask_5 : tensor<1024xi1> loc(#loc203)
    %tmp28_124 = arith.constant 0.000000e+00 : f32 loc(#loc204)
    %tmp28_125 = arith.constant dense<0.000000e+00> : tensor<1024xf32> loc(#loc204)
    %tmp28_126 = arith.truncf %tmp28_125 : tensor<1024xf32> to tensor<1024xf16> loc(#loc204)
    %tmp28_127 = tt.load %tmp28_122, %tmp28_123, %tmp28_126 evictionPolicy = evict_last : tensor<1024x!tt.ptr<f16>> loc(#loc204)
    %tmp28_128 = arith.extf %tmp28_127 : tensor<1024xf16> to tensor<1024xf32> loc(#loc205)
    %tmp30 = arith.constant 1048576 : i32 loc(#loc206)
    %tmp30_129 = arith.constant dense<1048576> : tensor<1024xi32> loc(#loc206)
    %tmp31 = arith.extsi %tmp30_129 : tensor<1024xi32> to tensor<1024xi64> loc(#loc207)
    %tmp31_130 = arith.addi %tmp29_13, %tmp31 : tensor<1024xi64> loc(#loc207)
    %tmp32 = arith.constant 0 : i32 loc(#loc208)
    %tmp32_131 = arith.extsi %tmp32 : i32 to i64 loc(#loc208)
    %tmp32_132 = tt.splat %tmp32_131 : i64 -> tensor<1024xi64> loc(#loc208)
    %tmp32_133 = arith.cmpi slt, %tmp29_13, %tmp32_132 : tensor<1024xi64> loc(#loc208)
    %tmp33 = arith.select %tmp32_133, %tmp31_130, %tmp29_13 : tensor<1024xi1>, tensor<1024xi64> loc(#loc209)
    %c0_i32_134 = arith.constant 0 : i32 loc(#loc81)
    %20 = arith.extsi %c0_i32_134 : i32 to i64 loc(#loc81)
    %21 = tt.splat %20 : i64 -> tensor<1024xi64> loc(#loc81)
    %22 = arith.cmpi sle, %21, %tmp33 : tensor<1024xi64> loc(#loc81)
    %c1048576_i32_135 = arith.constant 1048576 : i32 loc(#loc82)
    %23 = arith.extsi %c1048576_i32_135 : i32 to i64 loc(#loc82)
    %24 = tt.splat %23 : i64 -> tensor<1024xi64> loc(#loc82)
    %25 = arith.cmpi slt, %tmp33, %24 : tensor<1024xi64> loc(#loc82)
    %26 = arith.andi %22, %25 : tensor<1024xi1> loc(#loc83)
    %true_136 = arith.constant true loc(#loc84)
    %cst_137 = arith.constant dense<true> : tensor<1024xi1> loc(#loc84)
    %27 = arith.xori %xmask_5, %cst_137 : tensor<1024xi1> loc(#loc84)
    %28 = arith.ori %26, %27 : tensor<1024xi1> loc(#loc85)
    tt.assert %28, "index out of bounds: 0 <= tmp33 < 1048576" : tensor<1024xi1> loc(#loc86)
    %tmp35 = arith.constant 64 : i32 loc(#loc210)
    %tmp35_138 = arith.constant 64 : i64 loc(#loc210)
    %tmp35_139 = arith.constant dense<64> : tensor<1024xi64> loc(#loc210)
    %tmp35_140 = arith.muli %tmp35_139, %tmp33 : tensor<1024xi64> loc(#loc210)
    %tmp35_141 = arith.extsi %x0_8 : tensor<1024xi32> to tensor<1024xi64> loc(#loc211)
    %tmp35_142 = arith.addi %tmp35_141, %tmp35_140 : tensor<1024xi64> loc(#loc211)
    %tmp35_143 = tt.splat %in_ptr1 : !tt.ptr<f16> -> tensor<1024x!tt.ptr<f16>> loc(#loc212)
    %tmp35_144 = tt.addptr %tmp35_143, %tmp35_142 : tensor<1024x!tt.ptr<f16>>, tensor<1024xi64> loc(#loc212)
    %tmp35_145 = tt.load %tmp35_144, %xmask_5 : tensor<1024x!tt.ptr<f16>> loc(#loc213)
    %tmp35_146 = arith.extf %tmp35_145 : tensor<1024xf16> to tensor<1024xf32> loc(#loc214)
    %tmp36 = arith.select %tmp21, %tmp28_128, %tmp35_146 : tensor<1024xi1>, tensor<1024xf32> loc(#loc215)
    %tmp37 = arith.select %tmp9, %tmp16_72, %tmp36 : tensor<1024xi1>, tensor<1024xf32> loc(#loc216)
    %tmp38 = arith.constant -2 : i32 loc(#loc217)
    %tmp38_147 = arith.constant -2 : i32 loc(#loc217)
    %tmp38_148 = arith.constant dense<-2> : tensor<1024xi32> loc(#loc217)
    %tmp38_149 = arith.addi %tmp38_148, %x0_8 : tensor<1024xi32> loc(#loc217)
    %tmp38_150 = tt.call @"torch._inductor.runtime.triton_helpers.div_floor_integer__i32S1024S__(1,)cconstexpr_3_"(%tmp38_149) : (tensor<1024xi32>) -> tensor<1024xi32> loc(#loc218)
    %tmp38_151 = arith.constant 3 : i32 loc(#loc219)
    %tmp38_152 = arith.constant 3 : i32 loc(#loc219)
    %tmp38_153 = arith.constant dense<3> : tensor<1024xi32> loc(#loc219)
    %tmp38_154 = arith.muli %tmp38_153, %tmp38_150 : tensor<1024xi32> loc(#loc219)
    %tmp38_155 = arith.constant 34 : i32 loc(#loc220)
    %tmp38_156 = arith.constant 34 : i32 loc(#loc220)
    %tmp38_157 = arith.constant dense<34> : tensor<1024xi32> loc(#loc220)
    %tmp38_158 = arith.addi %tmp38_157, %tmp38_154 : tensor<1024xi32> loc(#loc220)
    %tmp38_159 = arith.constant 64 : i32 loc(#loc221)
    %tmp38_160 = arith.constant 64 : i64 loc(#loc221)
    %tmp38_161 = arith.constant dense<64> : tensor<1024xi64> loc(#loc221)
    %tmp38_162 = arith.muli %tmp38_161, %tmp14 : tensor<1024xi64> loc(#loc221)
    %tmp38_163 = arith.extsi %tmp38_158 : tensor<1024xi32> to tensor<1024xi64> loc(#loc222)
    %tmp38_164 = arith.addi %tmp38_163, %tmp38_162 : tensor<1024xi64> loc(#loc222)
    %tmp38_165 = tt.splat %in_ptr1 : !tt.ptr<f16> -> tensor<1024x!tt.ptr<f16>> loc(#loc223)
    %tmp38_166 = tt.addptr %tmp38_165, %tmp38_164 : tensor<1024x!tt.ptr<f16>>, tensor<1024xi64> loc(#loc223)
    %tmp38_167 = arith.andi %tmp9, %xmask_5 : tensor<1024xi1> loc(#loc224)
    %tmp38_168 = arith.constant 0.000000e+00 : f32 loc(#loc225)
    %tmp38_169 = arith.constant dense<0.000000e+00> : tensor<1024xf32> loc(#loc225)
    %tmp38_170 = arith.truncf %tmp38_169 : tensor<1024xf32> to tensor<1024xf16> loc(#loc225)
    %tmp38_171 = tt.load %tmp38_166, %tmp38_167, %tmp38_170 evictionPolicy = evict_last : tensor<1024x!tt.ptr<f16>> loc(#loc225)
    %tmp38_172 = arith.extf %tmp38_171 : tensor<1024xf16> to tensor<1024xf32> loc(#loc226)
    %tmp39 = arith.constant -1 : i32 loc(#loc227)
    %tmp39_173 = arith.constant -1 : i32 loc(#loc227)
    %tmp39_174 = arith.constant dense<-1> : tensor<1024xi32> loc(#loc227)
    %tmp39_175 = arith.addi %tmp39_174, %x0_8 : tensor<1024xi32> loc(#loc227)
    %tmp39_176 = tt.call @"torch._inductor.runtime.triton_helpers.div_floor_integer__i32S1024S__(1,)cconstexpr_3_"(%tmp39_175) : (tensor<1024xi32>) -> tensor<1024xi32> loc(#loc228)
    %tmp39_177 = arith.constant 3 : i32 loc(#loc229)
    %tmp39_178 = arith.constant 3 : i32 loc(#loc229)
    %tmp39_179 = arith.constant dense<3> : tensor<1024xi32> loc(#loc229)
    %tmp39_180 = arith.muli %tmp39_179, %tmp39_176 : tensor<1024xi32> loc(#loc229)
    %tmp39_181 = arith.constant 33 : i32 loc(#loc230)
    %tmp39_182 = arith.constant 33 : i32 loc(#loc230)
    %tmp39_183 = arith.constant dense<33> : tensor<1024xi32> loc(#loc230)
    %tmp39_184 = arith.addi %tmp39_183, %tmp39_180 : tensor<1024xi32> loc(#loc230)
    %tmp39_185 = arith.constant 64 : i32 loc(#loc231)
    %tmp39_186 = arith.constant 64 : i64 loc(#loc231)
    %tmp39_187 = arith.constant dense<64> : tensor<1024xi64> loc(#loc231)
    %tmp39_188 = arith.muli %tmp39_187, %tmp26 : tensor<1024xi64> loc(#loc231)
    %tmp39_189 = arith.extsi %tmp39_184 : tensor<1024xi32> to tensor<1024xi64> loc(#loc232)
    %tmp39_190 = arith.addi %tmp39_189, %tmp39_188 : tensor<1024xi64> loc(#loc232)
    %tmp39_191 = tt.splat %in_ptr1 : !tt.ptr<f16> -> tensor<1024x!tt.ptr<f16>> loc(#loc233)
    %tmp39_192 = tt.addptr %tmp39_191, %tmp39_190 : tensor<1024x!tt.ptr<f16>>, tensor<1024xi64> loc(#loc233)
    %tmp39_193 = arith.andi %tmp21, %xmask_5 : tensor<1024xi1> loc(#loc234)
    %tmp39_194 = arith.constant 0.000000e+00 : f32 loc(#loc235)
    %tmp39_195 = arith.constant dense<0.000000e+00> : tensor<1024xf32> loc(#loc235)
    %tmp39_196 = arith.truncf %tmp39_195 : tensor<1024xf32> to tensor<1024xf16> loc(#loc235)
    %tmp39_197 = tt.load %tmp39_192, %tmp39_193, %tmp39_196 evictionPolicy = evict_last : tensor<1024x!tt.ptr<f16>> loc(#loc235)
    %tmp39_198 = arith.extf %tmp39_197 : tensor<1024xf16> to tensor<1024xf32> loc(#loc236)
    %tmp40 = arith.constant 32 : i32 loc(#loc237)
    %tmp40_199 = arith.constant 32 : i32 loc(#loc237)
    %tmp40_200 = arith.constant dense<32> : tensor<1024xi32> loc(#loc237)
    %tmp40_201 = arith.addi %tmp40_200, %x0_8 : tensor<1024xi32> loc(#loc237)
    %tmp40_202 = arith.constant 64 : i32 loc(#loc238)
    %tmp40_203 = arith.constant 64 : i64 loc(#loc238)
    %tmp40_204 = arith.constant dense<64> : tensor<1024xi64> loc(#loc238)
    %tmp40_205 = arith.muli %tmp40_204, %tmp33 : tensor<1024xi64> loc(#loc238)
    %tmp40_206 = arith.extsi %tmp40_201 : tensor<1024xi32> to tensor<1024xi64> loc(#loc239)
    %tmp40_207 = arith.addi %tmp40_206, %tmp40_205 : tensor<1024xi64> loc(#loc239)
    %tmp40_208 = tt.splat %in_ptr1 : !tt.ptr<f16> -> tensor<1024x!tt.ptr<f16>> loc(#loc240)
    %tmp40_209 = tt.addptr %tmp40_208, %tmp40_207 : tensor<1024x!tt.ptr<f16>>, tensor<1024xi64> loc(#loc240)
    %tmp40_210 = tt.load %tmp40_209, %xmask_5 : tensor<1024x!tt.ptr<f16>> loc(#loc241)
    %tmp40_211 = arith.extf %tmp40_210 : tensor<1024xf16> to tensor<1024xf32> loc(#loc242)
    %tmp41 = arith.select %tmp21, %tmp39_198, %tmp40_211 : tensor<1024xi1>, tensor<1024xf32> loc(#loc243)
    %tmp42 = arith.select %tmp9, %tmp38_172, %tmp41 : tensor<1024xi1>, tensor<1024xf32> loc(#loc244)
    %29 = tt.splat %out_ptr0 : !tt.ptr<f16> -> tensor<1024x!tt.ptr<f16>> loc(#loc122)
    %30 = tt.addptr %29, %xindex_4 : tensor<1024x!tt.ptr<f16>>, tensor<1024xi32> loc(#loc122)
    %31 = arith.truncf %tmp37 : tensor<1024xf32> to tensor<1024xf16> loc(#loc123)
    tt.store %30, %31, %xmask_5 : tensor<1024x!tt.ptr<f16>> loc(#loc123)
    %32 = tt.splat %out_ptr1 : !tt.ptr<f16> -> tensor<1024x!tt.ptr<f16>> loc(#loc124)
    %33 = tt.addptr %32, %xindex_4 : tensor<1024x!tt.ptr<f16>>, tensor<1024xi32> loc(#loc124)
    %34 = arith.truncf %tmp42 : tensor<1024xf32> to tensor<1024xf16> loc(#loc125)
    tt.store %33, %34, %xmask_5 : tensor<1024x!tt.ptr<f16>> loc(#loc125)
    tt.return loc(#loc126)
  } loc(#loc)
  tt.func private @"torch._inductor.runtime.triton_helpers.div_floor_integer__i32S1024S__(1,)cconstexpr_3_"(%a: tensor<1024xi32> loc("a"(#loc127))) -> tensor<1024xi32> attributes {noinline = false} {
    %quot = arith.constant 3 : i32 loc(#loc246)
    %quot_0 = arith.constant 3 : i32 loc(#loc246)
    %quot_1 = arith.constant dense<3> : tensor<1024xi32> loc(#loc246)
    %quot_2 = arith.divsi %a, %quot_1 : tensor<1024xi32> loc(#loc246)
    %remainder = arith.constant 3 : i32 loc(#loc247)
    %remainder_3 = arith.constant 3 : i32 loc(#loc247)
    %remainder_4 = arith.constant dense<3> : tensor<1024xi32> loc(#loc247)
    %remainder_5 = arith.remsi %a, %remainder_4 : tensor<1024xi32> loc(#loc247)
    %fixed = arith.constant 0 : i32 loc(#loc248)
    %fixed_6 = arith.constant dense<0> : tensor<1024xi32> loc(#loc248)
    %fixed_7 = arith.cmpi ne, %remainder_5, %fixed_6 : tensor<1024xi32> loc(#loc248)
    %fixed_8 = arith.constant 1 : i32 loc(#loc249)
    %fixed_9 = arith.constant 1 : i32 loc(#loc249)
    %fixed_10 = arith.constant dense<1> : tensor<1024xi32> loc(#loc249)
    %fixed_11 = arith.subi %quot_2, %fixed_10 : tensor<1024xi32> loc(#loc249)
    %fixed_12 = arith.select %fixed_7, %fixed_11, %quot_2 : tensor<1024xi1>, tensor<1024xi32> loc(#loc250)
    %c0_i32 = arith.constant 0 : i32 loc(#loc133)
    %cst = arith.constant dense<0> : tensor<1024xi32> loc(#loc133)
    %0 = arith.cmpi slt, %a, %cst : tensor<1024xi32> loc(#loc133)
    %false = arith.constant false loc(#loc134)
    %cst_13 = arith.constant dense<false> : tensor<1024xi1> loc(#loc134)
    %1 = arith.cmpi ne, %0, %cst_13 : tensor<1024xi1> loc(#loc134)
    %2 = arith.select %1, %fixed_12, %quot_2 : tensor<1024xi1>, tensor<1024xi32> loc(#loc135)
    tt.return %2 : tensor<1024xi32> loc(#loc136)
  ^bb1:  // no predecessors
    %3 = ub.poison : tensor<1024xi32> loc(#loc137)
    tt.return %3 : tensor<1024xi32> loc(#loc137)
  } loc(#loc127)
} loc(#loc)
#loc1 = loc("/root/.cache/vllm/torch_compile_cache/torch_aot_compile/61bda05feca29378847c32f031efa5c8dba258f38b0176a06a3e99e41df8ca50/inductor_cache/qr/cqrzqcxz5c3c5powhlgam7xrbfwaohaa62saka7efyhnxgluueqo.py":23:28)
#loc2 = loc("/root/.cache/vllm/torch_compile_cache/torch_aot_compile/61bda05feca29378847c32f031efa5c8dba258f38b0176a06a3e99e41df8ca50/inductor_cache/qr/cqrzqcxz5c3c5powhlgam7xrbfwaohaa62saka7efyhnxgluueqo.py":23:33)
#loc3 = loc("/root/.cache/vllm/torch_compile_cache/torch_aot_compile/61bda05feca29378847c32f031efa5c8dba258f38b0176a06a3e99e41df8ca50/inductor_cache/qr/cqrzqcxz5c3c5powhlgam7xrbfwaohaa62saka7efyhnxgluueqo.py":24:36)
#loc4 = loc("/root/.cache/vllm/torch_compile_cache/torch_aot_compile/61bda05feca29378847c32f031efa5c8dba258f38b0176a06a3e99e41df8ca50/inductor_cache/qr/cqrzqcxz5c3c5powhlgam7xrbfwaohaa62saka7efyhnxgluueqo.py":24:23)
#loc5 = loc("/root/.cache/vllm/torch_compile_cache/torch_aot_compile/61bda05feca29378847c32f031efa5c8dba258f38b0176a06a3e99e41df8ca50/inductor_cache/qr/cqrzqcxz5c3c5powhlgam7xrbfwaohaa62saka7efyhnxgluueqo.py":25:21)
#loc6 = loc("/root/.cache/vllm/torch_compile_cache/torch_aot_compile/61bda05feca29378847c32f031efa5c8dba258f38b0176a06a3e99e41df8ca50/inductor_cache/qr/cqrzqcxz5c3c5powhlgam7xrbfwaohaa62saka7efyhnxgluueqo.py":26:19)
#loc7 = loc("/root/.cache/vllm/torch_compile_cache/torch_aot_compile/61bda05feca29378847c32f031efa5c8dba258f38b0176a06a3e99e41df8ca50/inductor_cache/qr/cqrzqcxz5c3c5powhlgam7xrbfwaohaa62saka7efyhnxgluueqo.py":27:19)
#loc8 = loc("/root/.cache/vllm/torch_compile_cache/torch_aot_compile/61bda05feca29378847c32f031efa5c8dba258f38b0176a06a3e99e41df8ca50/inductor_cache/qr/cqrzqcxz5c3c5powhlgam7xrbfwaohaa62saka7efyhnxgluueqo.py":29:31)
#loc9 = loc("/root/.cache/vllm/torch_compile_cache/torch_aot_compile/61bda05feca29378847c32f031efa5c8dba258f38b0176a06a3e99e41df8ca50/inductor_cache/qr/cqrzqcxz5c3c5powhlgam7xrbfwaohaa62saka7efyhnxgluueqo.py":29:36)
#loc10 = loc("/root/.cache/vllm/torch_compile_cache/torch_aot_compile/61bda05feca29378847c32f031efa5c8dba258f38b0176a06a3e99e41df8ca50/inductor_cache/qr/cqrzqcxz5c3c5powhlgam7xrbfwaohaa62saka7efyhnxgluueqo.py":31:27)
#loc11 = loc("/root/.cache/vllm/torch_compile_cache/torch_aot_compile/61bda05feca29378847c32f031efa5c8dba258f38b0176a06a3e99e41df8ca50/inductor_cache/qr/cqrzqcxz5c3c5powhlgam7xrbfwaohaa62saka7efyhnxgluueqo.py":32:19)
#loc12 = loc("/root/.cache/vllm/torch_compile_cache/torch_aot_compile/61bda05feca29378847c32f031efa5c8dba258f38b0176a06a3e99e41df8ca50/inductor_cache/qr/cqrzqcxz5c3c5powhlgam7xrbfwaohaa62saka7efyhnxgluueqo.py":33:28)
#loc13 = loc("/root/.cache/vllm/torch_compile_cache/torch_aot_compile/61bda05feca29378847c32f031efa5c8dba258f38b0176a06a3e99e41df8ca50/inductor_cache/qr/cqrzqcxz5c3c5powhlgam7xrbfwaohaa62saka7efyhnxgluueqo.py":34:18)
#loc14 = loc("/root/.cache/vllm/torch_compile_cache/torch_aot_compile/61bda05feca29378847c32f031efa5c8dba258f38b0176a06a3e99e41df8ca50/inductor_cache/qr/cqrzqcxz5c3c5powhlgam7xrbfwaohaa62saka7efyhnxgluueqo.py":35:20)
#loc15 = loc("/root/.cache/vllm/torch_compile_cache/torch_aot_compile/61bda05feca29378847c32f031efa5c8dba258f38b0176a06a3e99e41df8ca50/inductor_cache/qr/cqrzqcxz5c3c5powhlgam7xrbfwaohaa62saka7efyhnxgluueqo.py":35:26)
#loc16 = loc("/root/.cache/vllm/torch_compile_cache/torch_aot_compile/61bda05feca29378847c32f031efa5c8dba258f38b0176a06a3e99e41df8ca50/inductor_cache/qr/cqrzqcxz5c3c5powhlgam7xrbfwaohaa62saka7efyhnxgluueqo.py":36:27)
#loc17 = loc("/root/.cache/vllm/torch_compile_cache/torch_aot_compile/61bda05feca29378847c32f031efa5c8dba258f38b0176a06a3e99e41df8ca50/inductor_cache/qr/cqrzqcxz5c3c5powhlgam7xrbfwaohaa62saka7efyhnxgluueqo.py":37:19)
#loc18 = loc("/root/.cache/vllm/torch_compile_cache/torch_aot_compile/61bda05feca29378847c32f031efa5c8dba258f38b0176a06a3e99e41df8ca50/inductor_cache/qr/cqrzqcxz5c3c5powhlgam7xrbfwaohaa62saka7efyhnxgluueqo.py":38:18)
#loc19 = loc("/root/.cache/vllm/torch_compile_cache/torch_aot_compile/61bda05feca29378847c32f031efa5c8dba258f38b0176a06a3e99e41df8ca50/inductor_cache/qr/cqrzqcxz5c3c5powhlgam7xrbfwaohaa62saka7efyhnxgluueqo.py":39:18)
#loc20 = loc("/root/.cache/vllm/torch_compile_cache/torch_aot_compile/61bda05feca29378847c32f031efa5c8dba258f38b0176a06a3e99e41df8ca50/inductor_cache/qr/cqrzqcxz5c3c5powhlgam7xrbfwaohaa62saka7efyhnxgluueqo.py":40:38)
#loc21 = loc("/root/.cache/vllm/torch_compile_cache/torch_aot_compile/61bda05feca29378847c32f031efa5c8dba258f38b0176a06a3e99e41df8ca50/inductor_cache/qr/cqrzqcxz5c3c5powhlgam7xrbfwaohaa62saka7efyhnxgluueqo.py":40:36)
#loc22 = loc("/root/.cache/vllm/torch_compile_cache/torch_aot_compile/61bda05feca29378847c32f031efa5c8dba258f38b0176a06a3e99e41df8ca50/inductor_cache/qr/cqrzqcxz5c3c5powhlgam7xrbfwaohaa62saka7efyhnxgluueqo.py":40:31)
#loc23 = loc("/root/.cache/vllm/torch_compile_cache/torch_aot_compile/61bda05feca29378847c32f031efa5c8dba258f38b0176a06a3e99e41df8ca50/inductor_cache/qr/cqrzqcxz5c3c5powhlgam7xrbfwaohaa62saka7efyhnxgluueqo.py":40:51)
#loc24 = loc("/root/.cache/vllm/torch_compile_cache/torch_aot_compile/61bda05feca29378847c32f031efa5c8dba258f38b0176a06a3e99e41df8ca50/inductor_cache/qr/cqrzqcxz5c3c5powhlgam7xrbfwaohaa62saka7efyhnxgluueqo.py":40:44)
#loc25 = loc("/root/.cache/vllm/torch_compile_cache/torch_aot_compile/61bda05feca29378847c32f031efa5c8dba258f38b0176a06a3e99e41df8ca50/inductor_cache/qr/cqrzqcxz5c3c5powhlgam7xrbfwaohaa62saka7efyhnxgluueqo.py":41:39)
#loc26 = loc("/root/.cache/vllm/torch_compile_cache/torch_aot_compile/61bda05feca29378847c32f031efa5c8dba258f38b0176a06a3e99e41df8ca50/inductor_cache/qr/cqrzqcxz5c3c5powhlgam7xrbfwaohaa62saka7efyhnxgluueqo.py":42:20)
#loc27 = loc("/root/.cache/vllm/torch_compile_cache/torch_aot_compile/61bda05feca29378847c32f031efa5c8dba258f38b0176a06a3e99e41df8ca50/inductor_cache/qr/cqrzqcxz5c3c5powhlgam7xrbfwaohaa62saka7efyhnxgluueqo.py":43:20)
#loc28 = loc("/root/.cache/vllm/torch_compile_cache/torch_aot_compile/61bda05feca29378847c32f031efa5c8dba258f38b0176a06a3e99e41df8ca50/inductor_cache/qr/cqrzqcxz5c3c5powhlgam7xrbfwaohaa62saka7efyhnxgluueqo.py":44:35)
#loc29 = loc("/root/.cache/vllm/torch_compile_cache/torch_aot_compile/61bda05feca29378847c32f031efa5c8dba258f38b0176a06a3e99e41df8ca50/inductor_cache/qr/cqrzqcxz5c3c5powhlgam7xrbfwaohaa62saka7efyhnxgluueqo.py":45:28)
#loc30 = loc("/root/.cache/vllm/torch_compile_cache/torch_aot_compile/61bda05feca29378847c32f031efa5c8dba258f38b0176a06a3e99e41df8ca50/inductor_cache/qr/cqrzqcxz5c3c5powhlgam7xrbfwaohaa62saka7efyhnxgluueqo.py":45:100)
#loc31 = loc("/root/.cache/vllm/torch_compile_cache/torch_aot_compile/61bda05feca29378847c32f031efa5c8dba258f38b0176a06a3e99e41df8ca50/inductor_cache/qr/cqrzqcxz5c3c5powhlgam7xrbfwaohaa62saka7efyhnxgluueqo.py":45:65)
#loc32 = loc("/root/.cache/vllm/torch_compile_cache/torch_aot_compile/61bda05feca29378847c32f031efa5c8dba258f38b0176a06a3e99e41df8ca50/inductor_cache/qr/cqrzqcxz5c3c5powhlgam7xrbfwaohaa62saka7efyhnxgluueqo.py":45:121)
#loc33 = loc("/root/.cache/vllm/torch_compile_cache/torch_aot_compile/61bda05feca29378847c32f031efa5c8dba258f38b0176a06a3e99e41df8ca50/inductor_cache/qr/cqrzqcxz5c3c5powhlgam7xrbfwaohaa62saka7efyhnxgluueqo.py":45:114)
#loc34 = loc("/root/.cache/vllm/torch_compile_cache/torch_aot_compile/61bda05feca29378847c32f031efa5c8dba258f38b0176a06a3e99e41df8ca50/inductor_cache/qr/cqrzqcxz5c3c5powhlgam7xrbfwaohaa62saka7efyhnxgluueqo.py":45:112)
#loc35 = loc("/root/.cache/vllm/torch_compile_cache/torch_aot_compile/61bda05feca29378847c32f031efa5c8dba258f38b0176a06a3e99e41df8ca50/inductor_cache/qr/cqrzqcxz5c3c5powhlgam7xrbfwaohaa62saka7efyhnxgluueqo.py":45:129)
#loc36 = loc("/root/.cache/vllm/torch_compile_cache/torch_aot_compile/61bda05feca29378847c32f031efa5c8dba258f38b0176a06a3e99e41df8ca50/inductor_cache/qr/cqrzqcxz5c3c5powhlgam7xrbfwaohaa62saka7efyhnxgluueqo.py":46:78)
#loc37 = loc("/root/.cache/vllm/torch_compile_cache/torch_aot_compile/61bda05feca29378847c32f031efa5c8dba258f38b0176a06a3e99e41df8ca50/inductor_cache/qr/cqrzqcxz5c3c5powhlgam7xrbfwaohaa62saka7efyhnxgluueqo.py":46:83)
#loc38 = loc("/root/.cache/vllm/torch_compile_cache/torch_aot_compile/61bda05feca29378847c32f031efa5c8dba258f38b0176a06a3e99e41df8ca50/inductor_cache/qr/cqrzqcxz5c3c5powhlgam7xrbfwaohaa62saka7efyhnxgluueqo.py":46:38)
#loc39 = loc("/root/.cache/vllm/torch_compile_cache/torch_aot_compile/61bda05feca29378847c32f031efa5c8dba258f38b0176a06a3e99e41df8ca50/inductor_cache/qr/cqrzqcxz5c3c5powhlgam7xrbfwaohaa62saka7efyhnxgluueqo.py":46:35)
#loc40 = loc("/root/.cache/vllm/torch_compile_cache/torch_aot_compile/61bda05feca29378847c32f031efa5c8dba258f38b0176a06a3e99e41df8ca50/inductor_cache/qr/cqrzqcxz5c3c5powhlgam7xrbfwaohaa62saka7efyhnxgluueqo.py":46:92)
#loc41 = loc("/root/.cache/vllm/torch_compile_cache/torch_aot_compile/61bda05feca29378847c32f031efa5c8dba258f38b0176a06a3e99e41df8ca50/inductor_cache/qr/cqrzqcxz5c3c5powhlgam7xrbfwaohaa62saka7efyhnxgluueqo.py":46:89)
#loc42 = loc("/root/.cache/vllm/torch_compile_cache/torch_aot_compile/61bda05feca29378847c32f031efa5c8dba258f38b0176a06a3e99e41df8ca50/inductor_cache/qr/cqrzqcxz5c3c5powhlgam7xrbfwaohaa62saka7efyhnxgluueqo.py":46:31)
#loc43 = loc("/root/.cache/vllm/torch_compile_cache/torch_aot_compile/61bda05feca29378847c32f031efa5c8dba258f38b0176a06a3e99e41df8ca50/inductor_cache/qr/cqrzqcxz5c3c5powhlgam7xrbfwaohaa62saka7efyhnxgluueqo.py":46:107)
#loc44 = loc("/root/.cache/vllm/torch_compile_cache/torch_aot_compile/61bda05feca29378847c32f031efa5c8dba258f38b0176a06a3e99e41df8ca50/inductor_cache/qr/cqrzqcxz5c3c5powhlgam7xrbfwaohaa62saka7efyhnxgluueqo.py":46:100)
#loc45 = loc("/root/.cache/vllm/torch_compile_cache/torch_aot_compile/61bda05feca29378847c32f031efa5c8dba258f38b0176a06a3e99e41df8ca50/inductor_cache/qr/cqrzqcxz5c3c5powhlgam7xrbfwaohaa62saka7efyhnxgluueqo.py":46:158)
#loc46 = loc("/root/.cache/vllm/torch_compile_cache/torch_aot_compile/61bda05feca29378847c32f031efa5c8dba258f38b0176a06a3e99e41df8ca50/inductor_cache/qr/cqrzqcxz5c3c5powhlgam7xrbfwaohaa62saka7efyhnxgluueqo.py":47:28)
#loc47 = loc("/root/.cache/vllm/torch_compile_cache/torch_aot_compile/61bda05feca29378847c32f031efa5c8dba258f38b0176a06a3e99e41df8ca50/inductor_cache/qr/cqrzqcxz5c3c5powhlgam7xrbfwaohaa62saka7efyhnxgluueqo.py":48:20)
#loc48 = loc("/root/.cache/vllm/torch_compile_cache/torch_aot_compile/61bda05feca29378847c32f031efa5c8dba258f38b0176a06a3e99e41df8ca50/inductor_cache/qr/cqrzqcxz5c3c5powhlgam7xrbfwaohaa62saka7efyhnxgluueqo.py":49:21)
#loc49 = loc("/root/.cache/vllm/torch_compile_cache/torch_aot_compile/61bda05feca29378847c32f031efa5c8dba258f38b0176a06a3e99e41df8ca50/inductor_cache/qr/cqrzqcxz5c3c5powhlgam7xrbfwaohaa62saka7efyhnxgluueqo.py":49:27)
#loc50 = loc("/root/.cache/vllm/torch_compile_cache/torch_aot_compile/61bda05feca29378847c32f031efa5c8dba258f38b0176a06a3e99e41df8ca50/inductor_cache/qr/cqrzqcxz5c3c5powhlgam7xrbfwaohaa62saka7efyhnxgluueqo.py":50:21)
#loc51 = loc("/root/.cache/vllm/torch_compile_cache/torch_aot_compile/61bda05feca29378847c32f031efa5c8dba258f38b0176a06a3e99e41df8ca50/inductor_cache/qr/cqrzqcxz5c3c5powhlgam7xrbfwaohaa62saka7efyhnxgluueqo.py":51:20)
#loc52 = loc("/root/.cache/vllm/torch_compile_cache/torch_aot_compile/61bda05feca29378847c32f031efa5c8dba258f38b0176a06a3e99e41df8ca50/inductor_cache/qr/cqrzqcxz5c3c5powhlgam7xrbfwaohaa62saka7efyhnxgluueqo.py":52:37)
#loc53 = loc("/root/.cache/vllm/torch_compile_cache/torch_aot_compile/61bda05feca29378847c32f031efa5c8dba258f38b0176a06a3e99e41df8ca50/inductor_cache/qr/cqrzqcxz5c3c5powhlgam7xrbfwaohaa62saka7efyhnxgluueqo.py":52:31)
#loc54 = loc("/root/.cache/vllm/torch_compile_cache/torch_aot_compile/61bda05feca29378847c32f031efa5c8dba258f38b0176a06a3e99e41df8ca50/inductor_cache/qr/cqrzqcxz5c3c5powhlgam7xrbfwaohaa62saka7efyhnxgluueqo.py":52:50)
#loc55 = loc("/root/.cache/vllm/torch_compile_cache/torch_aot_compile/61bda05feca29378847c32f031efa5c8dba258f38b0176a06a3e99e41df8ca50/inductor_cache/qr/cqrzqcxz5c3c5powhlgam7xrbfwaohaa62saka7efyhnxgluueqo.py":52:42)
#loc56 = loc("/root/.cache/vllm/torch_compile_cache/torch_aot_compile/61bda05feca29378847c32f031efa5c8dba258f38b0176a06a3e99e41df8ca50/inductor_cache/qr/cqrzqcxz5c3c5powhlgam7xrbfwaohaa62saka7efyhnxgluueqo.py":53:39)
#loc57 = loc("/root/.cache/vllm/torch_compile_cache/torch_aot_compile/61bda05feca29378847c32f031efa5c8dba258f38b0176a06a3e99e41df8ca50/inductor_cache/qr/cqrzqcxz5c3c5powhlgam7xrbfwaohaa62saka7efyhnxgluueqo.py":54:20)
#loc58 = loc("/root/.cache/vllm/torch_compile_cache/torch_aot_compile/61bda05feca29378847c32f031efa5c8dba258f38b0176a06a3e99e41df8ca50/inductor_cache/qr/cqrzqcxz5c3c5powhlgam7xrbfwaohaa62saka7efyhnxgluueqo.py":55:20)
#loc59 = loc("/root/.cache/vllm/torch_compile_cache/torch_aot_compile/61bda05feca29378847c32f031efa5c8dba258f38b0176a06a3e99e41df8ca50/inductor_cache/qr/cqrzqcxz5c3c5powhlgam7xrbfwaohaa62saka7efyhnxgluueqo.py":56:35)
#loc60 = loc("/root/.cache/vllm/torch_compile_cache/torch_aot_compile/61bda05feca29378847c32f031efa5c8dba258f38b0176a06a3e99e41df8ca50/inductor_cache/qr/cqrzqcxz5c3c5powhlgam7xrbfwaohaa62saka7efyhnxgluueqo.py":57:28)
#loc61 = loc("/root/.cache/vllm/torch_compile_cache/torch_aot_compile/61bda05feca29378847c32f031efa5c8dba258f38b0176a06a3e99e41df8ca50/inductor_cache/qr/cqrzqcxz5c3c5powhlgam7xrbfwaohaa62saka7efyhnxgluueqo.py":57:100)
#loc62 = loc("/root/.cache/vllm/torch_compile_cache/torch_aot_compile/61bda05feca29378847c32f031efa5c8dba258f38b0176a06a3e99e41df8ca50/inductor_cache/qr/cqrzqcxz5c3c5powhlgam7xrbfwaohaa62saka7efyhnxgluueqo.py":57:65)
#loc63 = loc("/root/.cache/vllm/torch_compile_cache/torch_aot_compile/61bda05feca29378847c32f031efa5c8dba258f38b0176a06a3e99e41df8ca50/inductor_cache/qr/cqrzqcxz5c3c5powhlgam7xrbfwaohaa62saka7efyhnxgluueqo.py":57:122)
#loc64 = loc("/root/.cache/vllm/torch_compile_cache/torch_aot_compile/61bda05feca29378847c32f031efa5c8dba258f38b0176a06a3e99e41df8ca50/inductor_cache/qr/cqrzqcxz5c3c5powhlgam7xrbfwaohaa62saka7efyhnxgluueqo.py":57:114)
#loc65 = loc("/root/.cache/vllm/torch_compile_cache/torch_aot_compile/61bda05feca29378847c32f031efa5c8dba258f38b0176a06a3e99e41df8ca50/inductor_cache/qr/cqrzqcxz5c3c5powhlgam7xrbfwaohaa62saka7efyhnxgluueqo.py":57:112)
#loc66 = loc("/root/.cache/vllm/torch_compile_cache/torch_aot_compile/61bda05feca29378847c32f031efa5c8dba258f38b0176a06a3e99e41df8ca50/inductor_cache/qr/cqrzqcxz5c3c5powhlgam7xrbfwaohaa62saka7efyhnxgluueqo.py":57:130)
#loc67 = loc("/root/.cache/vllm/torch_compile_cache/torch_aot_compile/61bda05feca29378847c32f031efa5c8dba258f38b0176a06a3e99e41df8ca50/inductor_cache/qr/cqrzqcxz5c3c5powhlgam7xrbfwaohaa62saka7efyhnxgluueqo.py":58:78)
#loc68 = loc("/root/.cache/vllm/torch_compile_cache/torch_aot_compile/61bda05feca29378847c32f031efa5c8dba258f38b0176a06a3e99e41df8ca50/inductor_cache/qr/cqrzqcxz5c3c5powhlgam7xrbfwaohaa62saka7efyhnxgluueqo.py":58:83)
#loc69 = loc("/root/.cache/vllm/torch_compile_cache/torch_aot_compile/61bda05feca29378847c32f031efa5c8dba258f38b0176a06a3e99e41df8ca50/inductor_cache/qr/cqrzqcxz5c3c5powhlgam7xrbfwaohaa62saka7efyhnxgluueqo.py":58:38)
#loc70 = loc("/root/.cache/vllm/torch_compile_cache/torch_aot_compile/61bda05feca29378847c32f031efa5c8dba258f38b0176a06a3e99e41df8ca50/inductor_cache/qr/cqrzqcxz5c3c5powhlgam7xrbfwaohaa62saka7efyhnxgluueqo.py":58:35)
#loc71 = loc("/root/.cache/vllm/torch_compile_cache/torch_aot_compile/61bda05feca29378847c32f031efa5c8dba258f38b0176a06a3e99e41df8ca50/inductor_cache/qr/cqrzqcxz5c3c5powhlgam7xrbfwaohaa62saka7efyhnxgluueqo.py":58:92)
#loc72 = loc("/root/.cache/vllm/torch_compile_cache/torch_aot_compile/61bda05feca29378847c32f031efa5c8dba258f38b0176a06a3e99e41df8ca50/inductor_cache/qr/cqrzqcxz5c3c5powhlgam7xrbfwaohaa62saka7efyhnxgluueqo.py":58:89)
#loc73 = loc("/root/.cache/vllm/torch_compile_cache/torch_aot_compile/61bda05feca29378847c32f031efa5c8dba258f38b0176a06a3e99e41df8ca50/inductor_cache/qr/cqrzqcxz5c3c5powhlgam7xrbfwaohaa62saka7efyhnxgluueqo.py":58:31)
#loc74 = loc("/root/.cache/vllm/torch_compile_cache/torch_aot_compile/61bda05feca29378847c32f031efa5c8dba258f38b0176a06a3e99e41df8ca50/inductor_cache/qr/cqrzqcxz5c3c5powhlgam7xrbfwaohaa62saka7efyhnxgluueqo.py":58:108)
#loc75 = loc("/root/.cache/vllm/torch_compile_cache/torch_aot_compile/61bda05feca29378847c32f031efa5c8dba258f38b0176a06a3e99e41df8ca50/inductor_cache/qr/cqrzqcxz5c3c5powhlgam7xrbfwaohaa62saka7efyhnxgluueqo.py":58:100)
#loc76 = loc("/root/.cache/vllm/torch_compile_cache/torch_aot_compile/61bda05feca29378847c32f031efa5c8dba258f38b0176a06a3e99e41df8ca50/inductor_cache/qr/cqrzqcxz5c3c5powhlgam7xrbfwaohaa62saka7efyhnxgluueqo.py":58:159)
#loc77 = loc("/root/.cache/vllm/torch_compile_cache/torch_aot_compile/61bda05feca29378847c32f031efa5c8dba258f38b0176a06a3e99e41df8ca50/inductor_cache/qr/cqrzqcxz5c3c5powhlgam7xrbfwaohaa62saka7efyhnxgluueqo.py":59:39)
#loc78 = loc("/root/.cache/vllm/torch_compile_cache/torch_aot_compile/61bda05feca29378847c32f031efa5c8dba258f38b0176a06a3e99e41df8ca50/inductor_cache/qr/cqrzqcxz5c3c5powhlgam7xrbfwaohaa62saka7efyhnxgluueqo.py":60:20)
#loc79 = loc("/root/.cache/vllm/torch_compile_cache/torch_aot_compile/61bda05feca29378847c32f031efa5c8dba258f38b0176a06a3e99e41df8ca50/inductor_cache/qr/cqrzqcxz5c3c5powhlgam7xrbfwaohaa62saka7efyhnxgluueqo.py":61:20)
#loc80 = loc("/root/.cache/vllm/torch_compile_cache/torch_aot_compile/61bda05feca29378847c32f031efa5c8dba258f38b0176a06a3e99e41df8ca50/inductor_cache/qr/cqrzqcxz5c3c5powhlgam7xrbfwaohaa62saka7efyhnxgluueqo.py":62:35)
#loc81 = loc("/root/.cache/vllm/torch_compile_cache/torch_aot_compile/61bda05feca29378847c32f031efa5c8dba258f38b0176a06a3e99e41df8ca50/inductor_cache/qr/cqrzqcxz5c3c5powhlgam7xrbfwaohaa62saka7efyhnxgluueqo.py":63:28)
#loc82 = loc("/root/.cache/vllm/torch_compile_cache/torch_aot_compile/61bda05feca29378847c32f031efa5c8dba258f38b0176a06a3e99e41df8ca50/inductor_cache/qr/cqrzqcxz5c3c5powhlgam7xrbfwaohaa62saka7efyhnxgluueqo.py":63:46)
#loc83 = loc("/root/.cache/vllm/torch_compile_cache/torch_aot_compile/61bda05feca29378847c32f031efa5c8dba258f38b0176a06a3e99e41df8ca50/inductor_cache/qr/cqrzqcxz5c3c5powhlgam7xrbfwaohaa62saka7efyhnxgluueqo.py":63:38)
#loc84 = loc("/root/.cache/vllm/torch_compile_cache/torch_aot_compile/61bda05feca29378847c32f031efa5c8dba258f38b0176a06a3e99e41df8ca50/inductor_cache/qr/cqrzqcxz5c3c5powhlgam7xrbfwaohaa62saka7efyhnxgluueqo.py":63:60)
#loc85 = loc("/root/.cache/vllm/torch_compile_cache/torch_aot_compile/61bda05feca29378847c32f031efa5c8dba258f38b0176a06a3e99e41df8ca50/inductor_cache/qr/cqrzqcxz5c3c5powhlgam7xrbfwaohaa62saka7efyhnxgluueqo.py":63:58)
#loc86 = loc("/root/.cache/vllm/torch_compile_cache/torch_aot_compile/61bda05feca29378847c32f031efa5c8dba258f38b0176a06a3e99e41df8ca50/inductor_cache/qr/cqrzqcxz5c3c5powhlgam7xrbfwaohaa62saka7efyhnxgluueqo.py":63:68)
#loc87 = loc("/root/.cache/vllm/torch_compile_cache/torch_aot_compile/61bda05feca29378847c32f031efa5c8dba258f38b0176a06a3e99e41df8ca50/inductor_cache/qr/cqrzqcxz5c3c5powhlgam7xrbfwaohaa62saka7efyhnxgluueqo.py":64:39)
#loc88 = loc("/root/.cache/vllm/torch_compile_cache/torch_aot_compile/61bda05feca29378847c32f031efa5c8dba258f38b0176a06a3e99e41df8ca50/inductor_cache/qr/cqrzqcxz5c3c5powhlgam7xrbfwaohaa62saka7efyhnxgluueqo.py":64:36)
#loc89 = loc("/root/.cache/vllm/torch_compile_cache/torch_aot_compile/61bda05feca29378847c32f031efa5c8dba258f38b0176a06a3e99e41df8ca50/inductor_cache/qr/cqrzqcxz5c3c5powhlgam7xrbfwaohaa62saka7efyhnxgluueqo.py":64:31)
#loc90 = loc("/root/.cache/vllm/torch_compile_cache/torch_aot_compile/61bda05feca29378847c32f031efa5c8dba258f38b0176a06a3e99e41df8ca50/inductor_cache/qr/cqrzqcxz5c3c5powhlgam7xrbfwaohaa62saka7efyhnxgluueqo.py":64:47)
#loc91 = loc("/root/.cache/vllm/torch_compile_cache/torch_aot_compile/61bda05feca29378847c32f031efa5c8dba258f38b0176a06a3e99e41df8ca50/inductor_cache/qr/cqrzqcxz5c3c5powhlgam7xrbfwaohaa62saka7efyhnxgluueqo.py":64:57)
#loc92 = loc("/root/.cache/vllm/torch_compile_cache/torch_aot_compile/61bda05feca29378847c32f031efa5c8dba258f38b0176a06a3e99e41df8ca50/inductor_cache/qr/cqrzqcxz5c3c5powhlgam7xrbfwaohaa62saka7efyhnxgluueqo.py":65:35)
#loc93 = loc("/root/.cache/vllm/torch_compile_cache/torch_aot_compile/61bda05feca29378847c32f031efa5c8dba258f38b0176a06a3e99e41df8ca50/inductor_cache/qr/cqrzqcxz5c3c5powhlgam7xrbfwaohaa62saka7efyhnxgluueqo.py":66:34)
#loc94 = loc("/root/.cache/vllm/torch_compile_cache/torch_aot_compile/61bda05feca29378847c32f031efa5c8dba258f38b0176a06a3e99e41df8ca50/inductor_cache/qr/cqrzqcxz5c3c5powhlgam7xrbfwaohaa62saka7efyhnxgluueqo.py":67:79)
#loc95 = loc("/root/.cache/vllm/torch_compile_cache/torch_aot_compile/61bda05feca29378847c32f031efa5c8dba258f38b0176a06a3e99e41df8ca50/inductor_cache/qr/cqrzqcxz5c3c5powhlgam7xrbfwaohaa62saka7efyhnxgluueqo.py":67:84)
#loc96 = loc("/root/.cache/vllm/torch_compile_cache/torch_aot_compile/61bda05feca29378847c32f031efa5c8dba258f38b0176a06a3e99e41df8ca50/inductor_cache/qr/cqrzqcxz5c3c5powhlgam7xrbfwaohaa62saka7efyhnxgluueqo.py":67:39)
#loc97 = loc("/root/.cache/vllm/torch_compile_cache/torch_aot_compile/61bda05feca29378847c32f031efa5c8dba258f38b0176a06a3e99e41df8ca50/inductor_cache/qr/cqrzqcxz5c3c5powhlgam7xrbfwaohaa62saka7efyhnxgluueqo.py":67:36)
#loc98 = loc("/root/.cache/vllm/torch_compile_cache/torch_aot_compile/61bda05feca29378847c32f031efa5c8dba258f38b0176a06a3e99e41df8ca50/inductor_cache/qr/cqrzqcxz5c3c5powhlgam7xrbfwaohaa62saka7efyhnxgluueqo.py":67:93)
#loc99 = loc("/root/.cache/vllm/torch_compile_cache/torch_aot_compile/61bda05feca29378847c32f031efa5c8dba258f38b0176a06a3e99e41df8ca50/inductor_cache/qr/cqrzqcxz5c3c5powhlgam7xrbfwaohaa62saka7efyhnxgluueqo.py":67:90)
#loc100 = loc("/root/.cache/vllm/torch_compile_cache/torch_aot_compile/61bda05feca29378847c32f031efa5c8dba258f38b0176a06a3e99e41df8ca50/inductor_cache/qr/cqrzqcxz5c3c5powhlgam7xrbfwaohaa62saka7efyhnxgluueqo.py":67:31)
#loc101 = loc("/root/.cache/vllm/torch_compile_cache/torch_aot_compile/61bda05feca29378847c32f031efa5c8dba258f38b0176a06a3e99e41df8ca50/inductor_cache/qr/cqrzqcxz5c3c5powhlgam7xrbfwaohaa62saka7efyhnxgluueqo.py":67:108)
#loc102 = loc("/root/.cache/vllm/torch_compile_cache/torch_aot_compile/61bda05feca29378847c32f031efa5c8dba258f38b0176a06a3e99e41df8ca50/inductor_cache/qr/cqrzqcxz5c3c5powhlgam7xrbfwaohaa62saka7efyhnxgluueqo.py":67:101)
#loc103 = loc("/root/.cache/vllm/torch_compile_cache/torch_aot_compile/61bda05feca29378847c32f031efa5c8dba258f38b0176a06a3e99e41df8ca50/inductor_cache/qr/cqrzqcxz5c3c5powhlgam7xrbfwaohaa62saka7efyhnxgluueqo.py":67:159)
#loc104 = loc("/root/.cache/vllm/torch_compile_cache/torch_aot_compile/61bda05feca29378847c32f031efa5c8dba258f38b0176a06a3e99e41df8ca50/inductor_cache/qr/cqrzqcxz5c3c5powhlgam7xrbfwaohaa62saka7efyhnxgluueqo.py":68:79)
#loc105 = loc("/root/.cache/vllm/torch_compile_cache/torch_aot_compile/61bda05feca29378847c32f031efa5c8dba258f38b0176a06a3e99e41df8ca50/inductor_cache/qr/cqrzqcxz5c3c5powhlgam7xrbfwaohaa62saka7efyhnxgluueqo.py":68:84)
#loc106 = loc("/root/.cache/vllm/torch_compile_cache/torch_aot_compile/61bda05feca29378847c32f031efa5c8dba258f38b0176a06a3e99e41df8ca50/inductor_cache/qr/cqrzqcxz5c3c5powhlgam7xrbfwaohaa62saka7efyhnxgluueqo.py":68:39)
#loc107 = loc("/root/.cache/vllm/torch_compile_cache/torch_aot_compile/61bda05feca29378847c32f031efa5c8dba258f38b0176a06a3e99e41df8ca50/inductor_cache/qr/cqrzqcxz5c3c5powhlgam7xrbfwaohaa62saka7efyhnxgluueqo.py":68:36)
#loc108 = loc("/root/.cache/vllm/torch_compile_cache/torch_aot_compile/61bda05feca29378847c32f031efa5c8dba258f38b0176a06a3e99e41df8ca50/inductor_cache/qr/cqrzqcxz5c3c5powhlgam7xrbfwaohaa62saka7efyhnxgluueqo.py":68:93)
#loc109 = loc("/root/.cache/vllm/torch_compile_cache/torch_aot_compile/61bda05feca29378847c32f031efa5c8dba258f38b0176a06a3e99e41df8ca50/inductor_cache/qr/cqrzqcxz5c3c5powhlgam7xrbfwaohaa62saka7efyhnxgluueqo.py":68:90)
#loc110 = loc("/root/.cache/vllm/torch_compile_cache/torch_aot_compile/61bda05feca29378847c32f031efa5c8dba258f38b0176a06a3e99e41df8ca50/inductor_cache/qr/cqrzqcxz5c3c5powhlgam7xrbfwaohaa62saka7efyhnxgluueqo.py":68:31)
#loc111 = loc("/root/.cache/vllm/torch_compile_cache/torch_aot_compile/61bda05feca29378847c32f031efa5c8dba258f38b0176a06a3e99e41df8ca50/inductor_cache/qr/cqrzqcxz5c3c5powhlgam7xrbfwaohaa62saka7efyhnxgluueqo.py":68:109)
#loc112 = loc("/root/.cache/vllm/torch_compile_cache/torch_aot_compile/61bda05feca29378847c32f031efa5c8dba258f38b0176a06a3e99e41df8ca50/inductor_cache/qr/cqrzqcxz5c3c5powhlgam7xrbfwaohaa62saka7efyhnxgluueqo.py":68:101)
#loc113 = loc("/root/.cache/vllm/torch_compile_cache/torch_aot_compile/61bda05feca29378847c32f031efa5c8dba258f38b0176a06a3e99e41df8ca50/inductor_cache/qr/cqrzqcxz5c3c5powhlgam7xrbfwaohaa62saka7efyhnxgluueqo.py":68:160)
#loc114 = loc("/root/.cache/vllm/torch_compile_cache/torch_aot_compile/61bda05feca29378847c32f031efa5c8dba258f38b0176a06a3e99e41df8ca50/inductor_cache/qr/cqrzqcxz5c3c5powhlgam7xrbfwaohaa62saka7efyhnxgluueqo.py":69:36)
#loc115 = loc("/root/.cache/vllm/torch_compile_cache/torch_aot_compile/61bda05feca29378847c32f031efa5c8dba258f38b0176a06a3e99e41df8ca50/inductor_cache/qr/cqrzqcxz5c3c5powhlgam7xrbfwaohaa62saka7efyhnxgluueqo.py":69:44)
#loc116 = loc("/root/.cache/vllm/torch_compile_cache/torch_aot_compile/61bda05feca29378847c32f031efa5c8dba258f38b0176a06a3e99e41df8ca50/inductor_cache/qr/cqrzqcxz5c3c5powhlgam7xrbfwaohaa62saka7efyhnxgluueqo.py":69:41)
#loc117 = loc("/root/.cache/vllm/torch_compile_cache/torch_aot_compile/61bda05feca29378847c32f031efa5c8dba258f38b0176a06a3e99e41df8ca50/inductor_cache/qr/cqrzqcxz5c3c5powhlgam7xrbfwaohaa62saka7efyhnxgluueqo.py":69:31)
#loc118 = loc("/root/.cache/vllm/torch_compile_cache/torch_aot_compile/61bda05feca29378847c32f031efa5c8dba258f38b0176a06a3e99e41df8ca50/inductor_cache/qr/cqrzqcxz5c3c5powhlgam7xrbfwaohaa62saka7efyhnxgluueqo.py":69:52)
#loc119 = loc("/root/.cache/vllm/torch_compile_cache/torch_aot_compile/61bda05feca29378847c32f031efa5c8dba258f38b0176a06a3e99e41df8ca50/inductor_cache/qr/cqrzqcxz5c3c5powhlgam7xrbfwaohaa62saka7efyhnxgluueqo.py":69:62)
#loc120 = loc("/root/.cache/vllm/torch_compile_cache/torch_aot_compile/61bda05feca29378847c32f031efa5c8dba258f38b0176a06a3e99e41df8ca50/inductor_cache/qr/cqrzqcxz5c3c5powhlgam7xrbfwaohaa62saka7efyhnxgluueqo.py":70:35)
#loc121 = loc("/root/.cache/vllm/torch_compile_cache/torch_aot_compile/61bda05feca29378847c32f031efa5c8dba258f38b0176a06a3e99e41df8ca50/inductor_cache/qr/cqrzqcxz5c3c5powhlgam7xrbfwaohaa62saka7efyhnxgluueqo.py":71:34)
#loc122 = loc("/root/.cache/vllm/torch_compile_cache/torch_aot_compile/61bda05feca29378847c32f031efa5c8dba258f38b0176a06a3e99e41df8ca50/inductor_cache/qr/cqrzqcxz5c3c5powhlgam7xrbfwaohaa62saka7efyhnxgluueqo.py":72:25)
#loc123 = loc("/root/.cache/vllm/torch_compile_cache/torch_aot_compile/61bda05feca29378847c32f031efa5c8dba258f38b0176a06a3e99e41df8ca50/inductor_cache/qr/cqrzqcxz5c3c5powhlgam7xrbfwaohaa62saka7efyhnxgluueqo.py":72:37)
#loc124 = loc("/root/.cache/vllm/torch_compile_cache/torch_aot_compile/61bda05feca29378847c32f031efa5c8dba258f38b0176a06a3e99e41df8ca50/inductor_cache/qr/cqrzqcxz5c3c5powhlgam7xrbfwaohaa62saka7efyhnxgluueqo.py":73:25)
#loc125 = loc("/root/.cache/vllm/torch_compile_cache/torch_aot_compile/61bda05feca29378847c32f031efa5c8dba258f38b0176a06a3e99e41df8ca50/inductor_cache/qr/cqrzqcxz5c3c5powhlgam7xrbfwaohaa62saka7efyhnxgluueqo.py":73:37)
#loc126 = loc("/root/.cache/vllm/torch_compile_cache/torch_aot_compile/61bda05feca29378847c32f031efa5c8dba258f38b0176a06a3e99e41df8ca50/inductor_cache/qr/cqrzqcxz5c3c5powhlgam7xrbfwaohaa62saka7efyhnxgluueqo.py":73:4)
#loc128 = loc("/usr/local/lib/python3.12/dist-packages/torch/_inductor/runtime/triton_helpers.py":78:16)
#loc129 = loc("/usr/local/lib/python3.12/dist-packages/torch/_inductor/runtime/triton_helpers.py":79:20)
#loc130 = loc("/usr/local/lib/python3.12/dist-packages/torch/_inductor/runtime/triton_helpers.py":80:34)
#loc131 = loc("/usr/local/lib/python3.12/dist-packages/torch/_inductor/runtime/triton_helpers.py":80:44)
#loc132 = loc("/usr/local/lib/python3.12/dist-packages/torch/_inductor/runtime/triton_helpers.py":80:47)
#loc133 = loc("/usr/local/lib/python3.12/dist-packages/torch/_inductor/runtime/triton_helpers.py":81:25)
#loc134 = loc("/usr/local/lib/python3.12/dist-packages/torch/_inductor/runtime/triton_helpers.py":81:32)
#loc135 = loc("/usr/local/lib/python3.12/dist-packages/torch/_inductor/runtime/triton_helpers.py":81:47)
#loc136 = loc("/usr/local/lib/python3.12/dist-packages/torch/_inductor/runtime/triton_helpers.py":81:11)
#loc137 = loc("/usr/local/lib/python3.12/dist-packages/torch/_inductor/runtime/triton_helpers.py":81:4)
#loc144 = loc("xoffset"(#loc1))
#loc145 = loc("xoffset"(#loc2))
#loc146 = loc("xindex"(#loc3))
#loc147 = loc("xindex"(#loc4))
#loc148 = loc("xmask"(#loc5))
#loc149 = loc("x0"(#loc6))
#loc150 = loc("x1"(#loc7))
#loc151 = loc("tmp29"(#loc8))
#loc152 = loc("tmp29"(#loc9))
#loc153 = loc("tmp1"(#loc10))
#loc154 = loc("tmp2"(#loc11))
#loc155 = loc("tmp3"(#loc12))
#loc156 = loc("tmp4"(#loc13))
#loc157 = loc("tmp5"(#loc14))
#loc158 = loc("tmp5"(#loc15))
#loc159 = loc("tmp6"(#loc16))
#loc160 = loc("tmp7"(#loc17))
#loc161 = loc("tmp8"(#loc18))
#loc162 = loc("tmp9"(#loc19))
#loc163 = loc("tmp10"(#loc20))
#loc164 = loc("tmp10"(#loc21))
#loc165 = loc("tmp10"(#loc22))
#loc166 = loc("tmp10"(#loc23))
#loc167 = loc("tmp10"(#loc24))
#loc168 = loc("tmp11"(#loc25))
#loc169 = loc("tmp12"(#loc26))
#loc170 = loc("tmp13"(#loc27))
#loc171 = loc("tmp14"(#loc28))
#loc172 = loc("tmp16"(#loc36))
#loc173 = loc("tmp16"(#loc37))
#loc174 = loc("tmp16"(#loc38))
#loc175 = loc("tmp16"(#loc39))
#loc176 = loc("tmp16"(#loc40))
#loc177 = loc("tmp16"(#loc41))
#loc178 = loc("tmp16"(#loc42))
#loc179 = loc("tmp16"(#loc43))
#loc180 = loc("tmp16"(#loc44))
#loc181 = loc("tmp16"(#loc45))
#loc182 = loc("tmp17"(#loc46))
#loc183 = loc("tmp18"(#loc47))
#loc184 = loc("tmp19"(#loc48))
#loc185 = loc("tmp19"(#loc49))
#loc186 = loc("tmp20"(#loc50))
#loc187 = loc("tmp21"(#loc51))
#loc188 = loc("tmp22"(#loc52))
#loc189 = loc("tmp22"(#loc53))
#loc190 = loc("tmp22"(#loc54))
#loc191 = loc("tmp22"(#loc55))
#loc192 = loc("tmp23"(#loc56))
#loc193 = loc("tmp24"(#loc57))
#loc194 = loc("tmp25"(#loc58))
#loc195 = loc("tmp26"(#loc59))
#loc196 = loc("tmp28"(#loc67))
#loc197 = loc("tmp28"(#loc68))
#loc198 = loc("tmp28"(#loc69))
#loc199 = loc("tmp28"(#loc70))
#loc200 = loc("tmp28"(#loc71))
#loc201 = loc("tmp28"(#loc72))
#loc202 = loc("tmp28"(#loc73))
#loc203 = loc("tmp28"(#loc74))
#loc204 = loc("tmp28"(#loc75))
#loc205 = loc("tmp28"(#loc76))
#loc206 = loc("tmp30"(#loc77))
#loc207 = loc("tmp31"(#loc78))
#loc208 = loc("tmp32"(#loc79))
#loc209 = loc("tmp33"(#loc80))
#loc210 = loc("tmp35"(#loc87))
#loc211 = loc("tmp35"(#loc88))
#loc212 = loc("tmp35"(#loc89))
#loc213 = loc("tmp35"(#loc90))
#loc214 = loc("tmp35"(#loc91))
#loc215 = loc("tmp36"(#loc92))
#loc216 = loc("tmp37"(#loc93))
#loc217 = loc("tmp38"(#loc94))
#loc218 = loc("tmp38"(#loc95))
#loc219 = loc("tmp38"(#loc96))
#loc220 = loc("tmp38"(#loc97))
#loc221 = loc("tmp38"(#loc98))
#loc222 = loc("tmp38"(#loc99))
#loc223 = loc("tmp38"(#loc100))
#loc224 = loc("tmp38"(#loc101))
#loc225 = loc("tmp38"(#loc102))
#loc226 = loc("tmp38"(#loc103))
#loc227 = loc("tmp39"(#loc104))
#loc228 = loc("tmp39"(#loc105))
#loc229 = loc("tmp39"(#loc106))
#loc230 = loc("tmp39"(#loc107))
#loc231 = loc("tmp39"(#loc108))
#loc232 = loc("tmp39"(#loc109))
#loc233 = loc("tmp39"(#loc110))
#loc234 = loc("tmp39"(#loc111))
#loc235 = loc("tmp39"(#loc112))
#loc236 = loc("tmp39"(#loc113))
#loc237 = loc("tmp40"(#loc114))
#loc238 = loc("tmp40"(#loc115))
#loc239 = loc("tmp40"(#loc116))
#loc240 = loc("tmp40"(#loc117))
#loc241 = loc("tmp40"(#loc118))
#loc242 = loc("tmp40"(#loc119))
#loc243 = loc("tmp41"(#loc120))
#loc244 = loc("tmp42"(#loc121))
#loc246 = loc("quot"(#loc128))
#loc247 = loc("remainder"(#loc129))
#loc248 = loc("fixed"(#loc130))
#loc249 = loc("fixed"(#loc131))
#loc250 = loc("fixed"(#loc132))
