#loc = loc("/root/.cache/vllm/torch_compile_cache/torch_aot_compile/61bda05feca29378847c32f031efa5c8dba258f38b0176a06a3e99e41df8ca50/inductor_cache/lz/clz6mbgndsomurymgete2qcrlwentiqet6tjalg5d3ux6kx4qwhd.py":18:0)
#loc34 = loc("in_ptr0"(#loc))
#loc35 = loc("out_ptr0"(#loc))
#loc36 = loc("ks0"(#loc))
#loc37 = loc("ks1"(#loc))
#loc38 = loc("xnumel"(#loc))
module {
  tt.func public @triton_poi_fused_mul_silu_slice_0(%in_ptr0: !tt.ptr<f16> {tt.divisibility = 16 : i32} loc("in_ptr0"(#loc)), %out_ptr0: !tt.ptr<f16> {tt.divisibility = 16 : i32} loc("out_ptr0"(#loc)), %ks0: i64 loc("ks0"(#loc)), %ks1: i64 loc("ks1"(#loc)), %xnumel: i32 loc("xnumel"(#loc))) attributes {noinline = false} {
    %c1_i64 = arith.constant 1 : i64 loc(#loc1)
    %tmp5 = arith.constant dense<1.000000e+00> : tensor<1024xf32> loc(#loc39)
    %tmp2 = arith.constant dense<0.000000e+00> : tensor<1024xf32> loc(#loc40)
    %c1024_i32 = arith.constant 1024 : i32 loc(#loc1)
    %xoffset = tt.get_program_id x : i32 loc(#loc41)
    %xoffset_0 = arith.muli %xoffset, %c1024_i32 : i32 loc(#loc42)
    %xindex = tt.make_range {end = 1024 : i32, start = 0 : i32} : tensor<1024xi32> loc(#loc43)
    %xindex_1 = tt.splat %xoffset_0 : i32 -> tensor<1024xi32> loc(#loc44)
    %xindex_2 = arith.addi %xindex_1, %xindex : tensor<1024xi32> loc(#loc44)
    %xmask = tt.splat %xnumel : i32 -> tensor<1024xi32> loc(#loc45)
    %xmask_3 = arith.cmpi slt, %xindex_2, %xmask : tensor<1024xi32> loc(#loc45)
    %x0 = arith.extsi %xindex_2 : tensor<1024xi32> to tensor<1024xi64> loc(#loc46)
    %x0_4 = tt.splat %ks0 : i64 -> tensor<1024xi64> loc(#loc46)
    %x0_5 = arith.remsi %x0, %x0_4 : tensor<1024xi64> loc(#loc46)
    %x1 = arith.divsi %x0, %x0_4 : tensor<1024xi64> loc(#loc47)
    %tmp0 = tt.splat %ks1 : i64 -> tensor<1024xi64> loc(#loc48)
    %tmp0_6 = arith.muli %tmp0, %x1 : tensor<1024xi64> loc(#loc48)
    %tmp0_7 = arith.addi %x0_5, %tmp0_6 : tensor<1024xi64> loc(#loc49)
    %tmp0_8 = tt.splat %in_ptr0 : !tt.ptr<f16> -> tensor<1024x!tt.ptr<f16>> loc(#loc50)
    %tmp0_9 = tt.addptr %tmp0_8, %tmp0_7 : tensor<1024x!tt.ptr<f16>>, tensor<1024xi64> loc(#loc50)
    %tmp0_10 = tt.load %tmp0_9, %xmask_3 evictionPolicy = evict_last : tensor<1024x!tt.ptr<f16>> loc(#loc51)
    %tmp0_11 = arith.extf %tmp0_10 : tensor<1024xf16> to tensor<1024xf32> loc(#loc52)
    %tmp8 = arith.addi %x0_4, %x0_5 : tensor<1024xi64> loc(#loc53)
    %tmp8_12 = arith.addi %tmp8, %tmp0_6 : tensor<1024xi64> loc(#loc54)
    %tmp8_13 = tt.addptr %tmp0_8, %tmp8_12 : tensor<1024x!tt.ptr<f16>>, tensor<1024xi64> loc(#loc55)
    %tmp8_14 = tt.load %tmp8_13, %xmask_3 evictionPolicy = evict_last : tensor<1024x!tt.ptr<f16>> loc(#loc56)
    %tmp8_15 = arith.extf %tmp8_14 : tensor<1024xf16> to tensor<1024xf32> loc(#loc57)
    %tmp2_16 = arith.subf %tmp2, %tmp0_11 : tensor<1024xf32> loc(#loc40)
    %tmp3 = tt.extern_elementwise %tmp2_16 {libname = "", libpath = "", pure = true, symbol = "__nv_expf"} : (tensor<1024xf32>) -> tensor<1024xf32> loc(#loc58)
    %tmp5_17 = arith.addf %tmp3, %tmp5 : tensor<1024xf32> loc(#loc39)
    %tmp6 = arith.divf %tmp0_11, %tmp5_17 : tensor<1024xf32> loc(#loc59)
    %tmp9 = arith.mulf %tmp6, %tmp8_15 : tensor<1024xf32> loc(#loc60)
    %0 = arith.cmpi sle, %ks0, %c1_i64 : i64 loc(#loc24)
    %1 = arith.cmpi sgt, %ks0, %c1_i64 : i64 loc(#loc25)
    %2 = arith.extui %1 : i1 to i64 loc(#loc26)
    %3 = arith.muli %ks0, %2 : i64 loc(#loc26)
    %4 = arith.extui %0 : i1 to i64 loc(#loc61)
    %5 = arith.addi %4, %3 : i64 loc(#loc27)
    %6 = tt.splat %5 : i64 -> tensor<1024xi64> loc(#loc29)
    %7 = arith.muli %x1, %6 : tensor<1024xi64> loc(#loc29)
    %8 = arith.addi %x0_5, %7 : tensor<1024xi64> loc(#loc30)
    %9 = tt.splat %out_ptr0 : !tt.ptr<f16> -> tensor<1024x!tt.ptr<f16>> loc(#loc31)
    %10 = tt.addptr %9, %8 : tensor<1024x!tt.ptr<f16>>, tensor<1024xi64> loc(#loc31)
    %11 = arith.truncf %tmp9 : tensor<1024xf32> to tensor<1024xf16> loc(#loc32)
    tt.store %10, %11, %xmask_3 : tensor<1024x!tt.ptr<f16>> loc(#loc32)
    tt.return loc(#loc33)
  } loc(#loc)
} loc(#loc)
#loc1 = loc(unknown)
#loc2 = loc("/root/.cache/vllm/torch_compile_cache/torch_aot_compile/61bda05feca29378847c32f031efa5c8dba258f38b0176a06a3e99e41df8ca50/inductor_cache/lz/clz6mbgndsomurymgete2qcrlwentiqet6tjalg5d3ux6kx4qwhd.py":30:18)
#loc3 = loc("/root/.cache/vllm/torch_compile_cache/torch_aot_compile/61bda05feca29378847c32f031efa5c8dba258f38b0176a06a3e99e41df8ca50/inductor_cache/lz/clz6mbgndsomurymgete2qcrlwentiqet6tjalg5d3ux6kx4qwhd.py":27:12)
#loc4 = loc("/root/.cache/vllm/torch_compile_cache/torch_aot_compile/61bda05feca29378847c32f031efa5c8dba258f38b0176a06a3e99e41df8ca50/inductor_cache/lz/clz6mbgndsomurymgete2qcrlwentiqet6tjalg5d3ux6kx4qwhd.py":19:28)
#loc5 = loc("/root/.cache/vllm/torch_compile_cache/torch_aot_compile/61bda05feca29378847c32f031efa5c8dba258f38b0176a06a3e99e41df8ca50/inductor_cache/lz/clz6mbgndsomurymgete2qcrlwentiqet6tjalg5d3ux6kx4qwhd.py":19:33)
#loc6 = loc("/root/.cache/vllm/torch_compile_cache/torch_aot_compile/61bda05feca29378847c32f031efa5c8dba258f38b0176a06a3e99e41df8ca50/inductor_cache/lz/clz6mbgndsomurymgete2qcrlwentiqet6tjalg5d3ux6kx4qwhd.py":20:36)
#loc7 = loc("/root/.cache/vllm/torch_compile_cache/torch_aot_compile/61bda05feca29378847c32f031efa5c8dba258f38b0176a06a3e99e41df8ca50/inductor_cache/lz/clz6mbgndsomurymgete2qcrlwentiqet6tjalg5d3ux6kx4qwhd.py":20:23)
#loc8 = loc("/root/.cache/vllm/torch_compile_cache/torch_aot_compile/61bda05feca29378847c32f031efa5c8dba258f38b0176a06a3e99e41df8ca50/inductor_cache/lz/clz6mbgndsomurymgete2qcrlwentiqet6tjalg5d3ux6kx4qwhd.py":21:21)
#loc9 = loc("/root/.cache/vllm/torch_compile_cache/torch_aot_compile/61bda05feca29378847c32f031efa5c8dba258f38b0176a06a3e99e41df8ca50/inductor_cache/lz/clz6mbgndsomurymgete2qcrlwentiqet6tjalg5d3ux6kx4qwhd.py":22:19)
#loc10 = loc("/root/.cache/vllm/torch_compile_cache/torch_aot_compile/61bda05feca29378847c32f031efa5c8dba258f38b0176a06a3e99e41df8ca50/inductor_cache/lz/clz6mbgndsomurymgete2qcrlwentiqet6tjalg5d3ux6kx4qwhd.py":23:19)
#loc11 = loc("/root/.cache/vllm/torch_compile_cache/torch_aot_compile/61bda05feca29378847c32f031efa5c8dba258f38b0176a06a3e99e41df8ca50/inductor_cache/lz/clz6mbgndsomurymgete2qcrlwentiqet6tjalg5d3ux6kx4qwhd.py":24:39)
#loc12 = loc("/root/.cache/vllm/torch_compile_cache/torch_aot_compile/61bda05feca29378847c32f031efa5c8dba258f38b0176a06a3e99e41df8ca50/inductor_cache/lz/clz6mbgndsomurymgete2qcrlwentiqet6tjalg5d3ux6kx4qwhd.py":24:35)
#loc13 = loc("/root/.cache/vllm/torch_compile_cache/torch_aot_compile/61bda05feca29378847c32f031efa5c8dba258f38b0176a06a3e99e41df8ca50/inductor_cache/lz/clz6mbgndsomurymgete2qcrlwentiqet6tjalg5d3ux6kx4qwhd.py":24:30)
#loc14 = loc("/root/.cache/vllm/torch_compile_cache/torch_aot_compile/61bda05feca29378847c32f031efa5c8dba258f38b0176a06a3e99e41df8ca50/inductor_cache/lz/clz6mbgndsomurymgete2qcrlwentiqet6tjalg5d3ux6kx4qwhd.py":24:44)
#loc15 = loc("/root/.cache/vllm/torch_compile_cache/torch_aot_compile/61bda05feca29378847c32f031efa5c8dba258f38b0176a06a3e99e41df8ca50/inductor_cache/lz/clz6mbgndsomurymgete2qcrlwentiqet6tjalg5d3ux6kx4qwhd.py":24:84)
#loc16 = loc("/root/.cache/vllm/torch_compile_cache/torch_aot_compile/61bda05feca29378847c32f031efa5c8dba258f38b0176a06a3e99e41df8ca50/inductor_cache/lz/clz6mbgndsomurymgete2qcrlwentiqet6tjalg5d3ux6kx4qwhd.py":25:36)
#loc17 = loc("/root/.cache/vllm/torch_compile_cache/torch_aot_compile/61bda05feca29378847c32f031efa5c8dba258f38b0176a06a3e99e41df8ca50/inductor_cache/lz/clz6mbgndsomurymgete2qcrlwentiqet6tjalg5d3ux6kx4qwhd.py":25:41)
#loc18 = loc("/root/.cache/vllm/torch_compile_cache/torch_aot_compile/61bda05feca29378847c32f031efa5c8dba258f38b0176a06a3e99e41df8ca50/inductor_cache/lz/clz6mbgndsomurymgete2qcrlwentiqet6tjalg5d3ux6kx4qwhd.py":25:30)
#loc19 = loc("/root/.cache/vllm/torch_compile_cache/torch_aot_compile/61bda05feca29378847c32f031efa5c8dba258f38b0176a06a3e99e41df8ca50/inductor_cache/lz/clz6mbgndsomurymgete2qcrlwentiqet6tjalg5d3ux6kx4qwhd.py":25:50)
#loc20 = loc("/root/.cache/vllm/torch_compile_cache/torch_aot_compile/61bda05feca29378847c32f031efa5c8dba258f38b0176a06a3e99e41df8ca50/inductor_cache/lz/clz6mbgndsomurymgete2qcrlwentiqet6tjalg5d3ux6kx4qwhd.py":25:90)
#loc21 = loc("/root/.cache/vllm/torch_compile_cache/torch_aot_compile/61bda05feca29378847c32f031efa5c8dba258f38b0176a06a3e99e41df8ca50/inductor_cache/lz/clz6mbgndsomurymgete2qcrlwentiqet6tjalg5d3ux6kx4qwhd.py":28:25)
#loc22 = loc("/root/.cache/vllm/torch_compile_cache/torch_aot_compile/61bda05feca29378847c32f031efa5c8dba258f38b0176a06a3e99e41df8ca50/inductor_cache/lz/clz6mbgndsomurymgete2qcrlwentiqet6tjalg5d3ux6kx4qwhd.py":31:19)
#loc23 = loc("/root/.cache/vllm/torch_compile_cache/torch_aot_compile/61bda05feca29378847c32f031efa5c8dba258f38b0176a06a3e99e41df8ca50/inductor_cache/lz/clz6mbgndsomurymgete2qcrlwentiqet6tjalg5d3ux6kx4qwhd.py":33:18)
#loc24 = loc("/root/.cache/vllm/torch_compile_cache/torch_aot_compile/61bda05feca29378847c32f031efa5c8dba258f38b0176a06a3e99e41df8ca50/inductor_cache/lz/clz6mbgndsomurymgete2qcrlwentiqet6tjalg5d3ux6kx4qwhd.py":34:49)
#loc25 = loc("/root/.cache/vllm/torch_compile_cache/torch_aot_compile/61bda05feca29378847c32f031efa5c8dba258f38b0176a06a3e99e41df8ca50/inductor_cache/lz/clz6mbgndsomurymgete2qcrlwentiqet6tjalg5d3ux6kx4qwhd.py":34:75)
#loc26 = loc("/root/.cache/vllm/torch_compile_cache/torch_aot_compile/61bda05feca29378847c32f031efa5c8dba258f38b0176a06a3e99e41df8ca50/inductor_cache/lz/clz6mbgndsomurymgete2qcrlwentiqet6tjalg5d3ux6kx4qwhd.py":34:66)
#loc27 = loc("/root/.cache/vllm/torch_compile_cache/torch_aot_compile/61bda05feca29378847c32f031efa5c8dba258f38b0176a06a3e99e41df8ca50/inductor_cache/lz/clz6mbgndsomurymgete2qcrlwentiqet6tjalg5d3ux6kx4qwhd.py":34:57)
#loc28 = loc("/root/.cache/vllm/torch_compile_cache/torch_aot_compile/61bda05feca29378847c32f031efa5c8dba258f38b0176a06a3e99e41df8ca50/inductor_cache/lz/clz6mbgndsomurymgete2qcrlwentiqet6tjalg5d3ux6kx4qwhd.py":34:41)
#loc29 = loc("/root/.cache/vllm/torch_compile_cache/torch_aot_compile/61bda05feca29378847c32f031efa5c8dba258f38b0176a06a3e99e41df8ca50/inductor_cache/lz/clz6mbgndsomurymgete2qcrlwentiqet6tjalg5d3ux6kx4qwhd.py":34:34)
#loc30 = loc("/root/.cache/vllm/torch_compile_cache/torch_aot_compile/61bda05feca29378847c32f031efa5c8dba258f38b0176a06a3e99e41df8ca50/inductor_cache/lz/clz6mbgndsomurymgete2qcrlwentiqet6tjalg5d3ux6kx4qwhd.py":34:30)
#loc31 = loc("/root/.cache/vllm/torch_compile_cache/torch_aot_compile/61bda05feca29378847c32f031efa5c8dba258f38b0176a06a3e99e41df8ca50/inductor_cache/lz/clz6mbgndsomurymgete2qcrlwentiqet6tjalg5d3ux6kx4qwhd.py":34:25)
#loc32 = loc("/root/.cache/vllm/torch_compile_cache/torch_aot_compile/61bda05feca29378847c32f031efa5c8dba258f38b0176a06a3e99e41df8ca50/inductor_cache/lz/clz6mbgndsomurymgete2qcrlwentiqet6tjalg5d3ux6kx4qwhd.py":34:88)
#loc33 = loc("/root/.cache/vllm/torch_compile_cache/torch_aot_compile/61bda05feca29378847c32f031efa5c8dba258f38b0176a06a3e99e41df8ca50/inductor_cache/lz/clz6mbgndsomurymgete2qcrlwentiqet6tjalg5d3ux6kx4qwhd.py":34:4)
#loc39 = loc("tmp5"(#loc2))
#loc40 = loc("tmp2"(#loc3))
#loc41 = loc("xoffset"(#loc4))
#loc42 = loc("xoffset"(#loc5))
#loc43 = loc("xindex"(#loc6))
#loc44 = loc("xindex"(#loc7))
#loc45 = loc("xmask"(#loc8))
#loc46 = loc("x0"(#loc9))
#loc47 = loc("x1"(#loc10))
#loc48 = loc("tmp0"(#loc11))
#loc49 = loc("tmp0"(#loc12))
#loc50 = loc("tmp0"(#loc13))
#loc51 = loc("tmp0"(#loc14))
#loc52 = loc("tmp0"(#loc15))
#loc53 = loc("tmp8"(#loc16))
#loc54 = loc("tmp8"(#loc17))
#loc55 = loc("tmp8"(#loc18))
#loc56 = loc("tmp8"(#loc19))
#loc57 = loc("tmp8"(#loc20))
#loc58 = loc("tmp3"(#loc21))
#loc59 = loc("tmp6"(#loc22))
#loc60 = loc("tmp9"(#loc23))
#loc61 = loc(fused[#loc27, #loc28])
