#loc = loc("/root/.cache/vllm/torch_compile_cache/torch_aot_compile/61bda05feca29378847c32f031efa5c8dba258f38b0176a06a3e99e41df8ca50/inductor_cache/mr/cmrt6oanchgbkjcxengzltjpbaibjqn3orp5aynvxauwh6dyeuoj.py":18:0)
#loc2 = loc(unknown)
#loc26 = loc("/root/.cache/vllm/torch_compile_cache/torch_aot_compile/61bda05feca29378847c32f031efa5c8dba258f38b0176a06a3e99e41df8ca50/inductor_cache/mr/cmrt6oanchgbkjcxengzltjpbaibjqn3orp5aynvxauwh6dyeuoj.py":44:25)
#loc49 = loc("in_ptr0"(#loc))
#loc50 = loc("in_ptr1"(#loc))
#loc51 = loc("in_ptr2"(#loc))
#loc52 = loc("out_ptr1"(#loc))
#loc53 = loc("out_ptr2"(#loc))
#loc54 = loc("out_ptr3"(#loc))
#loc55 = loc("xnumel"(#loc))
#loc56 = loc("r0_numel"(#loc))
#loc80 = loc("tmp7"(#loc26))
#loc96 = loc(callsite(#loc2 at #loc80))
module {
  tt.func public @triton_red_fused__to_copy_add_fused_add_rms_norm_moe_forward_shared_1(%in_ptr0: !tt.ptr<f16> {tt.divisibility = 16 : i32} loc("in_ptr0"(#loc)), %in_ptr1: !tt.ptr<f16> {tt.divisibility = 16 : i32} loc("in_ptr1"(#loc)), %in_ptr2: !tt.ptr<f16> {tt.divisibility = 16 : i32} loc("in_ptr2"(#loc)), %out_ptr1: !tt.ptr<f16> {tt.divisibility = 16 : i32} loc("out_ptr1"(#loc)), %out_ptr2: !tt.ptr<f16> {tt.divisibility = 16 : i32} loc("out_ptr2"(#loc)), %out_ptr3: !tt.ptr<f16> {tt.divisibility = 16 : i32} loc("out_ptr3"(#loc)), %xnumel: i32 loc("xnumel"(#loc)), %r0_numel: i32 {tt.divisibility = 16 : i32} loc("r0_numel"(#loc))) attributes {noinline = false} {
    %tmp20 = arith.constant dense<0.000000e+00> : tensor<1x2048xf16> loc(#loc57)
    %cst = arith.constant dense<0.000000e+00> : tensor<2x2048xf16> loc(#loc2)
    %cst_0 = arith.constant dense<1.000000e+00> : tensor<1x2048xf32> loc(#loc2)
    %cst_1 = arith.constant dense<9.99999997E-7> : tensor<2x1xf32> loc(#loc2)
    %cst_2 = arith.constant dense<2.048000e+03> : tensor<2x1xf32> loc(#loc2)
    %cst_3 = arith.constant dense<2048> : tensor<2x1xi32> loc(#loc2)
    %cst_4 = arith.constant dense<2048> : tensor<1x2048xi32> loc(#loc2)
    %cst_5 = arith.constant dense<0.000000e+00> : tensor<2x2048xf32> loc(#loc2)
    %c2_i32 = arith.constant 2 : i32 loc(#loc2)
    %xoffset = tt.get_program_id x : i32 loc(#loc58)
    %xoffset_6 = arith.muli %xoffset, %c2_i32 : i32 loc(#loc59)
    %xindex = tt.make_range {end = 2 : i32, start = 0 : i32} : tensor<2xi32> loc(#loc60)
    %xindex_7 = tt.expand_dims %xindex {axis = 1 : i32} : tensor<2xi32> -> tensor<2x1xi32> loc(#loc61)
    %xindex_8 = tt.splat %xoffset_6 : i32 -> tensor<2x1xi32> loc(#loc62)
    %xindex_9 = arith.addi %xindex_8, %xindex_7 : tensor<2x1xi32> loc(#loc62)
    %xmask = tt.splat %xnumel : i32 -> tensor<2x1xi32> loc(#loc63)
    %xmask_10 = arith.cmpi slt, %xindex_9, %xmask : tensor<2x1xi32> loc(#loc63)
    %r0_base = tt.make_range {end = 2048 : i32, start = 0 : i32} : tensor<2048xi32> loc(#loc64)
    %r0_base_11 = tt.expand_dims %r0_base {axis = 0 : i32} : tensor<2048xi32> -> tensor<1x2048xi32> loc(#loc65)
    %r0_mask = arith.cmpi slt, %r0_base_11, %cst_4 : tensor<1x2048xi32> loc(#loc66)
    %tmp0 = arith.muli %xindex_9, %cst_3 : tensor<2x1xi32> loc(#loc67)
    %tmp0_12 = tt.broadcast %r0_base_11 : tensor<1x2048xi32> -> tensor<2x2048xi32> loc(#loc68)
    %tmp0_13 = tt.broadcast %tmp0 : tensor<2x1xi32> -> tensor<2x2048xi32> loc(#loc68)
    %tmp0_14 = arith.addi %tmp0_12, %tmp0_13 : tensor<2x2048xi32> loc(#loc68)
    %tmp0_15 = tt.splat %in_ptr0 : !tt.ptr<f16> -> tensor<2x2048x!tt.ptr<f16>> loc(#loc69)
    %tmp0_16 = tt.addptr %tmp0_15, %tmp0_14 : tensor<2x2048x!tt.ptr<f16>>, tensor<2x2048xi32> loc(#loc69)
    %tmp0_17 = tt.broadcast %r0_mask : tensor<1x2048xi1> -> tensor<2x2048xi1> loc(#loc70)
    %tmp0_18 = tt.broadcast %xmask_10 : tensor<2x1xi1> -> tensor<2x2048xi1> loc(#loc70)
    %tmp0_19 = arith.andi %tmp0_17, %tmp0_18 : tensor<2x2048xi1> loc(#loc70)
    %tmp0_20 = tt.load %tmp0_16, %tmp0_19, %cst evictionPolicy = evict_last : tensor<2x2048x!tt.ptr<f16>> loc(#loc71)
    %tmp0_21 = arith.extf %tmp0_20 : tensor<2x2048xf16> to tensor<2x2048xf32> loc(#loc72)
    %tmp2 = tt.splat %in_ptr1 : !tt.ptr<f16> -> tensor<2x2048x!tt.ptr<f16>> loc(#loc73)
    %tmp2_22 = tt.addptr %tmp2, %tmp0_14 : tensor<2x2048x!tt.ptr<f16>>, tensor<2x2048xi32> loc(#loc73)
    %tmp2_23 = tt.load %tmp2_22, %tmp0_19, %cst evictionPolicy = evict_last : tensor<2x2048x!tt.ptr<f16>> loc(#loc74)
    %tmp2_24 = arith.extf %tmp2_23 : tensor<2x2048xf16> to tensor<2x2048xf32> loc(#loc75)
    %tmp4 = arith.addf %tmp0_21, %tmp2_24 : tensor<2x2048xf32> loc(#loc76)
    %tmp5 = arith.mulf %tmp4, %tmp4 : tensor<2x2048xf32> loc(#loc77)
    %tmp8 = arith.addf %tmp5, %cst_5 : tensor<2x2048xf32> loc(#loc78)
    %_tmp7 = arith.select %tmp0_19, %tmp8, %cst_5 : tensor<2x2048xi1>, tensor<2x2048xf32> loc(#loc79)
    %tmp7 = "tt.reduce"(%_tmp7) <{axis = 1 : i32}> ({
    ^bb0(%tmp7_34: f32 loc(callsite(#loc2 at #loc80)), %tmp7_35: f32 loc(callsite(#loc2 at #loc80))):
      %tmp7_36 = arith.addf %tmp7_34, %tmp7_35 : f32 loc(#loc97)
      tt.reduce.return %tmp7_36 : f32 loc(#loc95)
    }) : (tensor<2x2048xf32>) -> tensor<2xf32> loc(#loc95)
    %tmp7_25 = tt.expand_dims %tmp7 {axis = 1 : i32} : tensor<2xf32> -> tensor<2x1xf32> loc(#loc81)
    %tmp9 = tt.load %tmp0_16, %tmp0_19, %cst evictionPolicy = evict_first : tensor<2x2048x!tt.ptr<f16>> loc(#loc82)
    %tmp9_26 = arith.extf %tmp9 : tensor<2x2048xf16> to tensor<2x2048xf32> loc(#loc83)
    %tmp11 = tt.load %tmp2_22, %tmp0_19, %cst evictionPolicy = evict_first : tensor<2x2048x!tt.ptr<f16>> loc(#loc84)
    %tmp11_27 = arith.extf %tmp11 : tensor<2x2048xf16> to tensor<2x2048xf32> loc(#loc85)
    %tmp20_28 = tt.splat %in_ptr2 : !tt.ptr<f16> -> tensor<1x2048x!tt.ptr<f16>> loc(#loc86)
    %tmp20_29 = tt.addptr %tmp20_28, %r0_base_11 : tensor<1x2048x!tt.ptr<f16>>, tensor<1x2048xi32> loc(#loc86)
    %tmp20_30 = tt.load %tmp20_29, %r0_mask, %tmp20 evictionPolicy = evict_last : tensor<1x2048x!tt.ptr<f16>> loc(#loc57)
    %tmp20_31 = arith.extf %tmp20_30 : tensor<1x2048xf16> to tensor<1x2048xf32> loc(#loc87)
    %tmp13 = arith.addf %tmp9_26, %tmp11_27 : tensor<2x2048xf32> loc(#loc88)
    %tmp15 = arith.divf %tmp7_25, %cst_2 : tensor<2x1xf32> loc(#loc89)
    %tmp17 = arith.addf %tmp15, %cst_1 : tensor<2x1xf32> loc(#loc90)
    %tmp18 = tt.extern_elementwise %tmp17 {libname = "", libpath = "", pure = true, symbol = "__nv_rsqrtf"} : (tensor<2x1xf32>) -> tensor<2x1xf32> loc(#loc91)
    %tmp19 = tt.broadcast %tmp18 : tensor<2x1xf32> -> tensor<2x2048xf32> loc(#loc92)
    %tmp19_32 = arith.mulf %tmp13, %tmp19 : tensor<2x2048xf32> loc(#loc92)
    %tmp23 = arith.addf %tmp20_31, %cst_0 : tensor<1x2048xf32> loc(#loc93)
    %tmp24 = tt.broadcast %tmp23 : tensor<1x2048xf32> -> tensor<2x2048xf32> loc(#loc94)
    %tmp24_33 = arith.mulf %tmp19_32, %tmp24 : tensor<2x2048xf32> loc(#loc94)
    %0 = tt.splat %out_ptr1 : !tt.ptr<f16> -> tensor<2x2048x!tt.ptr<f16>> loc(#loc42)
    %1 = tt.addptr %0, %tmp0_14 : tensor<2x2048x!tt.ptr<f16>>, tensor<2x2048xi32> loc(#loc42)
    %2 = arith.truncf %tmp24_33 : tensor<2x2048xf32> to tensor<2x2048xf16> loc(#loc43)
    tt.store %1, %2, %tmp0_19 : tensor<2x2048x!tt.ptr<f16>> loc(#loc43)
    %3 = tt.splat %out_ptr2 : !tt.ptr<f16> -> tensor<2x2048x!tt.ptr<f16>> loc(#loc44)
    %4 = tt.addptr %3, %tmp0_14 : tensor<2x2048x!tt.ptr<f16>>, tensor<2x2048xi32> loc(#loc44)
    tt.store %4, %2, %tmp0_19 : tensor<2x2048x!tt.ptr<f16>> loc(#loc45)
    %5 = tt.splat %out_ptr3 : !tt.ptr<f16> -> tensor<2x2048x!tt.ptr<f16>> loc(#loc46)
    %6 = tt.addptr %5, %tmp0_14 : tensor<2x2048x!tt.ptr<f16>>, tensor<2x2048xi32> loc(#loc46)
    tt.store %6, %2, %tmp0_19 : tensor<2x2048x!tt.ptr<f16>> loc(#loc47)
    tt.return loc(#loc48)
  } loc(#loc)
} loc(#loc)
#loc1 = loc("/root/.cache/vllm/torch_compile_cache/torch_aot_compile/61bda05feca29378847c32f031efa5c8dba258f38b0176a06a3e99e41df8ca50/inductor_cache/mr/cmrt6oanchgbkjcxengzltjpbaibjqn3orp5aynvxauwh6dyeuoj.py":53:42)
#loc3 = loc("/root/.cache/vllm/torch_compile_cache/torch_aot_compile/61bda05feca29378847c32f031efa5c8dba258f38b0176a06a3e99e41df8ca50/inductor_cache/mr/cmrt6oanchgbkjcxengzltjpbaibjqn3orp5aynvxauwh6dyeuoj.py":22:28)
#loc4 = loc("/root/.cache/vllm/torch_compile_cache/torch_aot_compile/61bda05feca29378847c32f031efa5c8dba258f38b0176a06a3e99e41df8ca50/inductor_cache/mr/cmrt6oanchgbkjcxengzltjpbaibjqn3orp5aynvxauwh6dyeuoj.py":22:33)
#loc5 = loc("/root/.cache/vllm/torch_compile_cache/torch_aot_compile/61bda05feca29378847c32f031efa5c8dba258f38b0176a06a3e99e41df8ca50/inductor_cache/mr/cmrt6oanchgbkjcxengzltjpbaibjqn3orp5aynvxauwh6dyeuoj.py":23:36)
#loc6 = loc("/root/.cache/vllm/torch_compile_cache/torch_aot_compile/61bda05feca29378847c32f031efa5c8dba258f38b0176a06a3e99e41df8ca50/inductor_cache/mr/cmrt6oanchgbkjcxengzltjpbaibjqn3orp5aynvxauwh6dyeuoj.py":23:44)
#loc7 = loc("/root/.cache/vllm/torch_compile_cache/torch_aot_compile/61bda05feca29378847c32f031efa5c8dba258f38b0176a06a3e99e41df8ca50/inductor_cache/mr/cmrt6oanchgbkjcxengzltjpbaibjqn3orp5aynvxauwh6dyeuoj.py":23:23)
#loc8 = loc("/root/.cache/vllm/torch_compile_cache/torch_aot_compile/61bda05feca29378847c32f031efa5c8dba258f38b0176a06a3e99e41df8ca50/inductor_cache/mr/cmrt6oanchgbkjcxengzltjpbaibjqn3orp5aynvxauwh6dyeuoj.py":24:21)
#loc9 = loc("/root/.cache/vllm/torch_compile_cache/torch_aot_compile/61bda05feca29378847c32f031efa5c8dba258f38b0176a06a3e99e41df8ca50/inductor_cache/mr/cmrt6oanchgbkjcxengzltjpbaibjqn3orp5aynvxauwh6dyeuoj.py":25:27)
#loc10 = loc("/root/.cache/vllm/torch_compile_cache/torch_aot_compile/61bda05feca29378847c32f031efa5c8dba258f38b0176a06a3e99e41df8ca50/inductor_cache/mr/cmrt6oanchgbkjcxengzltjpbaibjqn3orp5aynvxauwh6dyeuoj.py":25:37)
#loc11 = loc("/root/.cache/vllm/torch_compile_cache/torch_aot_compile/61bda05feca29378847c32f031efa5c8dba258f38b0176a06a3e99e41df8ca50/inductor_cache/mr/cmrt6oanchgbkjcxengzltjpbaibjqn3orp5aynvxauwh6dyeuoj.py":31:29)
#loc12 = loc("/root/.cache/vllm/torch_compile_cache/torch_aot_compile/61bda05feca29378847c32f031efa5c8dba258f38b0176a06a3e99e41df8ca50/inductor_cache/mr/cmrt6oanchgbkjcxengzltjpbaibjqn3orp5aynvxauwh6dyeuoj.py":35:46)
#loc13 = loc("/root/.cache/vllm/torch_compile_cache/torch_aot_compile/61bda05feca29378847c32f031efa5c8dba258f38b0176a06a3e99e41df8ca50/inductor_cache/mr/cmrt6oanchgbkjcxengzltjpbaibjqn3orp5aynvxauwh6dyeuoj.py":35:41)
#loc14 = loc("/root/.cache/vllm/torch_compile_cache/torch_aot_compile/61bda05feca29378847c32f031efa5c8dba258f38b0176a06a3e99e41df8ca50/inductor_cache/mr/cmrt6oanchgbkjcxengzltjpbaibjqn3orp5aynvxauwh6dyeuoj.py":35:34)
#loc15 = loc("/root/.cache/vllm/torch_compile_cache/torch_aot_compile/61bda05feca29378847c32f031efa5c8dba258f38b0176a06a3e99e41df8ca50/inductor_cache/mr/cmrt6oanchgbkjcxengzltjpbaibjqn3orp5aynvxauwh6dyeuoj.py":35:61)
#loc16 = loc("/root/.cache/vllm/torch_compile_cache/torch_aot_compile/61bda05feca29378847c32f031efa5c8dba258f38b0176a06a3e99e41df8ca50/inductor_cache/mr/cmrt6oanchgbkjcxengzltjpbaibjqn3orp5aynvxauwh6dyeuoj.py":35:51)
#loc17 = loc("/root/.cache/vllm/torch_compile_cache/torch_aot_compile/61bda05feca29378847c32f031efa5c8dba258f38b0176a06a3e99e41df8ca50/inductor_cache/mr/cmrt6oanchgbkjcxengzltjpbaibjqn3orp5aynvxauwh6dyeuoj.py":35:112)
#loc18 = loc("/root/.cache/vllm/torch_compile_cache/torch_aot_compile/61bda05feca29378847c32f031efa5c8dba258f38b0176a06a3e99e41df8ca50/inductor_cache/mr/cmrt6oanchgbkjcxengzltjpbaibjqn3orp5aynvxauwh6dyeuoj.py":36:34)
#loc19 = loc("/root/.cache/vllm/torch_compile_cache/torch_aot_compile/61bda05feca29378847c32f031efa5c8dba258f38b0176a06a3e99e41df8ca50/inductor_cache/mr/cmrt6oanchgbkjcxengzltjpbaibjqn3orp5aynvxauwh6dyeuoj.py":36:51)
#loc20 = loc("/root/.cache/vllm/torch_compile_cache/torch_aot_compile/61bda05feca29378847c32f031efa5c8dba258f38b0176a06a3e99e41df8ca50/inductor_cache/mr/cmrt6oanchgbkjcxengzltjpbaibjqn3orp5aynvxauwh6dyeuoj.py":36:112)
#loc21 = loc("/root/.cache/vllm/torch_compile_cache/torch_aot_compile/61bda05feca29378847c32f031efa5c8dba258f38b0176a06a3e99e41df8ca50/inductor_cache/mr/cmrt6oanchgbkjcxengzltjpbaibjqn3orp5aynvxauwh6dyeuoj.py":39:22)
#loc22 = loc("/root/.cache/vllm/torch_compile_cache/torch_aot_compile/61bda05feca29378847c32f031efa5c8dba258f38b0176a06a3e99e41df8ca50/inductor_cache/mr/cmrt6oanchgbkjcxengzltjpbaibjqn3orp5aynvxauwh6dyeuoj.py":40:22)
#loc23 = loc("/root/.cache/vllm/torch_compile_cache/torch_aot_compile/61bda05feca29378847c32f031efa5c8dba258f38b0176a06a3e99e41df8ca50/inductor_cache/mr/cmrt6oanchgbkjcxengzltjpbaibjqn3orp5aynvxauwh6dyeuoj.py":42:23)
#loc24 = loc("/root/.cache/vllm/torch_compile_cache/torch_aot_compile/61bda05feca29378847c32f031efa5c8dba258f38b0176a06a3e99e41df8ca50/inductor_cache/mr/cmrt6oanchgbkjcxengzltjpbaibjqn3orp5aynvxauwh6dyeuoj.py":43:48)
#loc25 = loc("/usr/local/lib/python3.12/dist-packages/triton/language/standard.py":293:36)
#loc27 = loc("/usr/local/lib/python3.12/dist-packages/triton/language/standard.py":263:15)
#loc28 = loc("/root/.cache/vllm/torch_compile_cache/torch_aot_compile/61bda05feca29378847c32f031efa5c8dba258f38b0176a06a3e99e41df8ca50/inductor_cache/mr/cmrt6oanchgbkjcxengzltjpbaibjqn3orp5aynvxauwh6dyeuoj.py":44:28)
#loc29 = loc("/root/.cache/vllm/torch_compile_cache/torch_aot_compile/61bda05feca29378847c32f031efa5c8dba258f38b0176a06a3e99e41df8ca50/inductor_cache/mr/cmrt6oanchgbkjcxengzltjpbaibjqn3orp5aynvxauwh6dyeuoj.py":51:51)
#loc30 = loc("/root/.cache/vllm/torch_compile_cache/torch_aot_compile/61bda05feca29378847c32f031efa5c8dba258f38b0176a06a3e99e41df8ca50/inductor_cache/mr/cmrt6oanchgbkjcxengzltjpbaibjqn3orp5aynvxauwh6dyeuoj.py":51:113)
#loc31 = loc("/root/.cache/vllm/torch_compile_cache/torch_aot_compile/61bda05feca29378847c32f031efa5c8dba258f38b0176a06a3e99e41df8ca50/inductor_cache/mr/cmrt6oanchgbkjcxengzltjpbaibjqn3orp5aynvxauwh6dyeuoj.py":52:52)
#loc32 = loc("/root/.cache/vllm/torch_compile_cache/torch_aot_compile/61bda05feca29378847c32f031efa5c8dba258f38b0176a06a3e99e41df8ca50/inductor_cache/mr/cmrt6oanchgbkjcxengzltjpbaibjqn3orp5aynvxauwh6dyeuoj.py":52:114)
#loc33 = loc("/root/.cache/vllm/torch_compile_cache/torch_aot_compile/61bda05feca29378847c32f031efa5c8dba258f38b0176a06a3e99e41df8ca50/inductor_cache/mr/cmrt6oanchgbkjcxengzltjpbaibjqn3orp5aynvxauwh6dyeuoj.py":53:35)
#loc34 = loc("/root/.cache/vllm/torch_compile_cache/torch_aot_compile/61bda05feca29378847c32f031efa5c8dba258f38b0176a06a3e99e41df8ca50/inductor_cache/mr/cmrt6oanchgbkjcxengzltjpbaibjqn3orp5aynvxauwh6dyeuoj.py":53:95)
#loc35 = loc("/root/.cache/vllm/torch_compile_cache/torch_aot_compile/61bda05feca29378847c32f031efa5c8dba258f38b0176a06a3e99e41df8ca50/inductor_cache/mr/cmrt6oanchgbkjcxengzltjpbaibjqn3orp5aynvxauwh6dyeuoj.py":56:24)
#loc36 = loc("/root/.cache/vllm/torch_compile_cache/torch_aot_compile/61bda05feca29378847c32f031efa5c8dba258f38b0176a06a3e99e41df8ca50/inductor_cache/mr/cmrt6oanchgbkjcxengzltjpbaibjqn3orp5aynvxauwh6dyeuoj.py":58:24)
#loc37 = loc("/root/.cache/vllm/torch_compile_cache/torch_aot_compile/61bda05feca29378847c32f031efa5c8dba258f38b0176a06a3e99e41df8ca50/inductor_cache/mr/cmrt6oanchgbkjcxengzltjpbaibjqn3orp5aynvxauwh6dyeuoj.py":60:24)
#loc38 = loc("/root/.cache/vllm/torch_compile_cache/torch_aot_compile/61bda05feca29378847c32f031efa5c8dba258f38b0176a06a3e99e41df8ca50/inductor_cache/mr/cmrt6oanchgbkjcxengzltjpbaibjqn3orp5aynvxauwh6dyeuoj.py":61:32)
#loc39 = loc("/root/.cache/vllm/torch_compile_cache/torch_aot_compile/61bda05feca29378847c32f031efa5c8dba258f38b0176a06a3e99e41df8ca50/inductor_cache/mr/cmrt6oanchgbkjcxengzltjpbaibjqn3orp5aynvxauwh6dyeuoj.py":62:24)
#loc40 = loc("/root/.cache/vllm/torch_compile_cache/torch_aot_compile/61bda05feca29378847c32f031efa5c8dba258f38b0176a06a3e99e41df8ca50/inductor_cache/mr/cmrt6oanchgbkjcxengzltjpbaibjqn3orp5aynvxauwh6dyeuoj.py":65:24)
#loc41 = loc("/root/.cache/vllm/torch_compile_cache/torch_aot_compile/61bda05feca29378847c32f031efa5c8dba258f38b0176a06a3e99e41df8ca50/inductor_cache/mr/cmrt6oanchgbkjcxengzltjpbaibjqn3orp5aynvxauwh6dyeuoj.py":66:24)
#loc42 = loc("/root/.cache/vllm/torch_compile_cache/torch_aot_compile/61bda05feca29378847c32f031efa5c8dba258f38b0176a06a3e99e41df8ca50/inductor_cache/mr/cmrt6oanchgbkjcxengzltjpbaibjqn3orp5aynvxauwh6dyeuoj.py":68:29)
#loc43 = loc("/root/.cache/vllm/torch_compile_cache/torch_aot_compile/61bda05feca29378847c32f031efa5c8dba258f38b0176a06a3e99e41df8ca50/inductor_cache/mr/cmrt6oanchgbkjcxengzltjpbaibjqn3orp5aynvxauwh6dyeuoj.py":68:53)
#loc44 = loc("/root/.cache/vllm/torch_compile_cache/torch_aot_compile/61bda05feca29378847c32f031efa5c8dba258f38b0176a06a3e99e41df8ca50/inductor_cache/mr/cmrt6oanchgbkjcxengzltjpbaibjqn3orp5aynvxauwh6dyeuoj.py":69:29)
#loc45 = loc("/root/.cache/vllm/torch_compile_cache/torch_aot_compile/61bda05feca29378847c32f031efa5c8dba258f38b0176a06a3e99e41df8ca50/inductor_cache/mr/cmrt6oanchgbkjcxengzltjpbaibjqn3orp5aynvxauwh6dyeuoj.py":69:53)
#loc46 = loc("/root/.cache/vllm/torch_compile_cache/torch_aot_compile/61bda05feca29378847c32f031efa5c8dba258f38b0176a06a3e99e41df8ca50/inductor_cache/mr/cmrt6oanchgbkjcxengzltjpbaibjqn3orp5aynvxauwh6dyeuoj.py":70:29)
#loc47 = loc("/root/.cache/vllm/torch_compile_cache/torch_aot_compile/61bda05feca29378847c32f031efa5c8dba258f38b0176a06a3e99e41df8ca50/inductor_cache/mr/cmrt6oanchgbkjcxengzltjpbaibjqn3orp5aynvxauwh6dyeuoj.py":70:53)
#loc48 = loc("/root/.cache/vllm/torch_compile_cache/torch_aot_compile/61bda05feca29378847c32f031efa5c8dba258f38b0176a06a3e99e41df8ca50/inductor_cache/mr/cmrt6oanchgbkjcxengzltjpbaibjqn3orp5aynvxauwh6dyeuoj.py":45:4)
#loc57 = loc("tmp20"(#loc1))
#loc58 = loc("xoffset"(#loc3))
#loc59 = loc("xoffset"(#loc4))
#loc60 = loc("xindex"(#loc5))
#loc61 = loc("xindex"(#loc6))
#loc62 = loc("xindex"(#loc7))
#loc63 = loc("xmask"(#loc8))
#loc64 = loc("r0_base"(#loc9))
#loc65 = loc("r0_base"(#loc10))
#loc66 = loc("r0_mask"(#loc11))
#loc67 = loc("tmp0"(#loc12))
#loc68 = loc("tmp0"(#loc13))
#loc69 = loc("tmp0"(#loc14))
#loc70 = loc("tmp0"(#loc15))
#loc71 = loc("tmp0"(#loc16))
#loc72 = loc("tmp0"(#loc17))
#loc73 = loc("tmp2"(#loc18))
#loc74 = loc("tmp2"(#loc19))
#loc75 = loc("tmp2"(#loc20))
#loc76 = loc("tmp4"(#loc21))
#loc77 = loc("tmp5"(#loc22))
#loc78 = loc("tmp8"(#loc23))
#loc79 = loc("_tmp7"(#loc24))
#loc81 = loc("tmp7"(#loc28))
#loc82 = loc("tmp9"(#loc29))
#loc83 = loc("tmp9"(#loc30))
#loc84 = loc("tmp11"(#loc31))
#loc85 = loc("tmp11"(#loc32))
#loc86 = loc("tmp20"(#loc33))
#loc87 = loc("tmp20"(#loc34))
#loc88 = loc("tmp13"(#loc35))
#loc89 = loc("tmp15"(#loc36))
#loc90 = loc("tmp17"(#loc37))
#loc91 = loc("tmp18"(#loc38))
#loc92 = loc("tmp19"(#loc39))
#loc93 = loc("tmp23"(#loc40))
#loc94 = loc("tmp24"(#loc41))
#loc95 = loc(callsite(#loc25 at #loc80))
#loc97 = loc(callsite(#loc27 at #loc95))
