#loc = loc("/root/.cache/vllm/torch_compile_cache/torch_aot_compile/61bda05feca29378847c32f031efa5c8dba258f38b0176a06a3e99e41df8ca50/inductor_cache/mr/cmrt6oanchgbkjcxengzltjpbaibjqn3orp5aynvxauwh6dyeuoj.py":18:0)
#loc78 = loc("/usr/local/lib/python3.12/dist-packages/triton/language/standard.py":287:0)
#loc80 = loc(unknown)
#loc83 = loc("/usr/local/lib/python3.12/dist-packages/triton/language/standard.py":262:0)
#loc87 = loc("in_ptr0"(#loc))
#loc88 = loc("in_ptr1"(#loc))
#loc89 = loc("in_ptr2"(#loc))
#loc90 = loc("out_ptr1"(#loc))
#loc91 = loc("out_ptr2"(#loc))
#loc92 = loc("out_ptr3"(#loc))
#loc93 = loc("xnumel"(#loc))
#loc94 = loc("r0_numel"(#loc))
#loc154 = loc("input"(#loc78))
#loc155 = loc("a"(#loc83))
#loc156 = loc("b"(#loc83))
module {
  tt.func public @triton_red_fused__to_copy_add_fused_add_rms_norm_moe_forward_shared_1(%in_ptr0: !tt.ptr<f16> {tt.divisibility = 16 : i32} loc("in_ptr0"(#loc)), %in_ptr1: !tt.ptr<f16> {tt.divisibility = 16 : i32} loc("in_ptr1"(#loc)), %in_ptr2: !tt.ptr<f16> {tt.divisibility = 16 : i32} loc("in_ptr2"(#loc)), %out_ptr1: !tt.ptr<f16> {tt.divisibility = 16 : i32} loc("out_ptr1"(#loc)), %out_ptr2: !tt.ptr<f16> {tt.divisibility = 16 : i32} loc("out_ptr2"(#loc)), %out_ptr3: !tt.ptr<f16> {tt.divisibility = 16 : i32} loc("out_ptr3"(#loc)), %xnumel: i32 loc("xnumel"(#loc)), %r0_numel: i32 {tt.divisibility = 16 : i32} loc("r0_numel"(#loc))) attributes {noinline = false} {
    %r0_numel_0 = arith.constant 2048 : i32 loc(#loc95)
    %xoffset = tt.get_program_id x : i32 loc(#loc96)
    %xoffset_1 = arith.constant 2 : i32 loc(#loc97)
    %xoffset_2 = arith.constant 2 : i32 loc(#loc97)
    %xoffset_3 = arith.muli %xoffset, %xoffset_2 : i32 loc(#loc97)
    %xindex = tt.make_range {end = 2 : i32, start = 0 : i32} : tensor<2xi32> loc(#loc98)
    %xindex_4 = tt.expand_dims %xindex {axis = 1 : i32} : tensor<2xi32> -> tensor<2x1xi32> loc(#loc99)
    %xindex_5 = tt.splat %xoffset_3 : i32 -> tensor<2x1xi32> loc(#loc100)
    %xindex_6 = arith.addi %xindex_5, %xindex_4 : tensor<2x1xi32> loc(#loc100)
    %xmask = tt.splat %xnumel : i32 -> tensor<2x1xi32> loc(#loc101)
    %xmask_7 = arith.cmpi slt, %xindex_6, %xmask : tensor<2x1xi32> loc(#loc101)
    %r0_base = tt.make_range {end = 2048 : i32, start = 0 : i32} : tensor<2048xi32> loc(#loc102)
    %r0_base_8 = tt.expand_dims %r0_base {axis = 0 : i32} : tensor<2048xi32> -> tensor<1x2048xi32> loc(#loc103)
    %_tmp7 = arith.constant 0.000000e+00 : f32 loc(#loc104)
    %_tmp7_9 = arith.constant dense<0.000000e+00> : tensor<2x2048xf32> loc(#loc104)
    %c0_i32 = arith.constant 0 : i32 loc(#loc11)
    %c2048_i32 = arith.constant 2048 : i32 loc(#loc11)
    %0 = arith.bitcast %c0_i32 : i32 to i32 loc(#loc11)
    %1 = arith.bitcast %r0_numel_0 : i32 to i32 loc(#loc11)
    %2 = arith.bitcast %c2048_i32 : i32 to i32 loc(#loc11)
    %3 = ub.poison : i32 loc(#loc11)
    %_tmp7_10 = scf.for %r0_offset = %0 to %1 step %2 iter_args(%_tmp7_14 = %_tmp7_9) -> (tensor<2x2048xf32>)  : i32 {
      %r0_index = tt.splat %r0_offset : i32 -> tensor<1x2048xi32> loc(#loc106)
      %r0_index_15 = arith.addi %r0_index, %r0_base_8 : tensor<1x2048xi32> loc(#loc106)
      %r0_mask = arith.constant dense<2048> : tensor<1x2048xi32> loc(#loc107)
      %r0_mask_16 = arith.cmpi slt, %r0_index_15, %r0_mask : tensor<1x2048xi32> loc(#loc107)
      %tmp0 = arith.constant 2048 : i32 loc(#loc108)
      %tmp0_17 = arith.constant 2048 : i32 loc(#loc108)
      %tmp0_18 = arith.constant dense<2048> : tensor<2x1xi32> loc(#loc108)
      %tmp0_19 = arith.muli %tmp0_18, %xindex_6 : tensor<2x1xi32> loc(#loc108)
      %tmp0_20 = tt.broadcast %r0_index_15 : tensor<1x2048xi32> -> tensor<2x2048xi32> loc(#loc109)
      %tmp0_21 = tt.broadcast %tmp0_19 : tensor<2x1xi32> -> tensor<2x2048xi32> loc(#loc109)
      %tmp0_22 = arith.addi %tmp0_20, %tmp0_21 : tensor<2x2048xi32> loc(#loc109)
      %tmp0_23 = tt.splat %in_ptr0 : !tt.ptr<f16> -> tensor<2x2048x!tt.ptr<f16>> loc(#loc110)
      %tmp0_24 = tt.addptr %tmp0_23, %tmp0_22 : tensor<2x2048x!tt.ptr<f16>>, tensor<2x2048xi32> loc(#loc110)
      %tmp0_25 = tt.broadcast %r0_mask_16 : tensor<1x2048xi1> -> tensor<2x2048xi1> loc(#loc111)
      %tmp0_26 = tt.broadcast %xmask_7 : tensor<2x1xi1> -> tensor<2x2048xi1> loc(#loc111)
      %tmp0_27 = arith.andi %tmp0_25, %tmp0_26 : tensor<2x2048xi1> loc(#loc111)
      %tmp0_28 = arith.constant 0.000000e+00 : f32 loc(#loc112)
      %tmp0_29 = arith.constant dense<0.000000e+00> : tensor<2x2048xf32> loc(#loc112)
      %tmp0_30 = arith.truncf %tmp0_29 : tensor<2x2048xf32> to tensor<2x2048xf16> loc(#loc112)
      %tmp0_31 = tt.load %tmp0_24, %tmp0_27, %tmp0_30 evictionPolicy = evict_last : tensor<2x2048x!tt.ptr<f16>> loc(#loc112)
      %tmp0_32 = arith.extf %tmp0_31 : tensor<2x2048xf16> to tensor<2x2048xf32> loc(#loc113)
      %tmp2 = arith.constant 2048 : i32 loc(#loc114)
      %tmp2_33 = arith.constant 2048 : i32 loc(#loc114)
      %tmp2_34 = arith.constant dense<2048> : tensor<2x1xi32> loc(#loc114)
      %tmp2_35 = arith.muli %tmp2_34, %xindex_6 : tensor<2x1xi32> loc(#loc114)
      %tmp2_36 = tt.broadcast %r0_index_15 : tensor<1x2048xi32> -> tensor<2x2048xi32> loc(#loc115)
      %tmp2_37 = tt.broadcast %tmp2_35 : tensor<2x1xi32> -> tensor<2x2048xi32> loc(#loc115)
      %tmp2_38 = arith.addi %tmp2_36, %tmp2_37 : tensor<2x2048xi32> loc(#loc115)
      %tmp2_39 = tt.splat %in_ptr1 : !tt.ptr<f16> -> tensor<2x2048x!tt.ptr<f16>> loc(#loc116)
      %tmp2_40 = tt.addptr %tmp2_39, %tmp2_38 : tensor<2x2048x!tt.ptr<f16>>, tensor<2x2048xi32> loc(#loc116)
      %tmp2_41 = tt.broadcast %r0_mask_16 : tensor<1x2048xi1> -> tensor<2x2048xi1> loc(#loc117)
      %tmp2_42 = tt.broadcast %xmask_7 : tensor<2x1xi1> -> tensor<2x2048xi1> loc(#loc117)
      %tmp2_43 = arith.andi %tmp2_41, %tmp2_42 : tensor<2x2048xi1> loc(#loc117)
      %tmp2_44 = arith.constant 0.000000e+00 : f32 loc(#loc118)
      %tmp2_45 = arith.constant dense<0.000000e+00> : tensor<2x2048xf32> loc(#loc118)
      %tmp2_46 = arith.truncf %tmp2_45 : tensor<2x2048xf32> to tensor<2x2048xf16> loc(#loc118)
      %tmp2_47 = tt.load %tmp2_40, %tmp2_43, %tmp2_46 evictionPolicy = evict_last : tensor<2x2048x!tt.ptr<f16>> loc(#loc118)
      %tmp2_48 = arith.extf %tmp2_47 : tensor<2x2048xf16> to tensor<2x2048xf32> loc(#loc119)
      %tmp4 = arith.addf %tmp0_32, %tmp2_48 : tensor<2x2048xf32> loc(#loc120)
      %tmp5 = arith.mulf %tmp4, %tmp4 : tensor<2x2048xf32> loc(#loc121)
      %tmp8 = arith.addf %_tmp7_14, %tmp5 : tensor<2x2048xf32> loc(#loc122)
      %_tmp7_49 = tt.broadcast %r0_mask_16 : tensor<1x2048xi1> -> tensor<2x2048xi1> loc(#loc123)
      %_tmp7_50 = tt.broadcast %xmask_7 : tensor<2x1xi1> -> tensor<2x2048xi1> loc(#loc123)
      %_tmp7_51 = arith.andi %_tmp7_49, %_tmp7_50 : tensor<2x2048xi1> loc(#loc123)
      %_tmp7_52 = arith.select %_tmp7_51, %tmp8, %_tmp7_14 : tensor<2x2048xi1>, tensor<2x2048xf32> loc(#loc124)
      scf.yield %_tmp7_52 : tensor<2x2048xf32> loc(#loc31)
    } loc(#loc105)
    %tmp7 = tt.call @"triton.language.standard.sum__fp32S2_2048S__(1,)cconstexpr_1__(2,)cconstexpr_False__(3,)cNone"(%_tmp7_10) : (tensor<2x2048xf32>) -> tensor<2xf32> loc(#loc125)
    %tmp7_11 = tt.expand_dims %tmp7 {axis = 1 : i32} : tensor<2xf32> -> tensor<2x1xf32> loc(#loc126)
    %c0_i32_12 = arith.constant 0 : i32 loc(#loc34)
    %c2048_i32_13 = arith.constant 2048 : i32 loc(#loc34)
    %4 = arith.bitcast %c0_i32_12 : i32 to i32 loc(#loc34)
    %5 = arith.bitcast %r0_numel_0 : i32 to i32 loc(#loc34)
    %6 = arith.bitcast %c2048_i32_13 : i32 to i32 loc(#loc34)
    %7 = ub.poison : i32 loc(#loc34)
    scf.for %r0_offset = %4 to %5 step %6  : i32 {
      %r0_index = tt.splat %r0_offset : i32 -> tensor<1x2048xi32> loc(#loc127)
      %r0_index_14 = arith.addi %r0_index, %r0_base_8 : tensor<1x2048xi32> loc(#loc127)
      %r0_mask = arith.constant dense<2048> : tensor<1x2048xi32> loc(#loc128)
      %r0_mask_15 = arith.cmpi slt, %r0_index_14, %r0_mask : tensor<1x2048xi32> loc(#loc128)
      %tmp9 = arith.constant 2048 : i32 loc(#loc129)
      %tmp9_16 = arith.constant 2048 : i32 loc(#loc129)
      %tmp9_17 = arith.constant dense<2048> : tensor<2x1xi32> loc(#loc129)
      %tmp9_18 = arith.muli %tmp9_17, %xindex_6 : tensor<2x1xi32> loc(#loc129)
      %tmp9_19 = tt.broadcast %r0_index_14 : tensor<1x2048xi32> -> tensor<2x2048xi32> loc(#loc130)
      %tmp9_20 = tt.broadcast %tmp9_18 : tensor<2x1xi32> -> tensor<2x2048xi32> loc(#loc130)
      %tmp9_21 = arith.addi %tmp9_19, %tmp9_20 : tensor<2x2048xi32> loc(#loc130)
      %tmp9_22 = tt.splat %in_ptr0 : !tt.ptr<f16> -> tensor<2x2048x!tt.ptr<f16>> loc(#loc131)
      %tmp9_23 = tt.addptr %tmp9_22, %tmp9_21 : tensor<2x2048x!tt.ptr<f16>>, tensor<2x2048xi32> loc(#loc131)
      %tmp9_24 = tt.broadcast %r0_mask_15 : tensor<1x2048xi1> -> tensor<2x2048xi1> loc(#loc132)
      %tmp9_25 = tt.broadcast %xmask_7 : tensor<2x1xi1> -> tensor<2x2048xi1> loc(#loc132)
      %tmp9_26 = arith.andi %tmp9_24, %tmp9_25 : tensor<2x2048xi1> loc(#loc132)
      %tmp9_27 = arith.constant 0.000000e+00 : f32 loc(#loc133)
      %tmp9_28 = arith.constant dense<0.000000e+00> : tensor<2x2048xf32> loc(#loc133)
      %tmp9_29 = arith.truncf %tmp9_28 : tensor<2x2048xf32> to tensor<2x2048xf16> loc(#loc133)
      %tmp9_30 = tt.load %tmp9_23, %tmp9_26, %tmp9_29 evictionPolicy = evict_first : tensor<2x2048x!tt.ptr<f16>> loc(#loc133)
      %tmp9_31 = arith.extf %tmp9_30 : tensor<2x2048xf16> to tensor<2x2048xf32> loc(#loc134)
      %tmp11 = arith.constant 2048 : i32 loc(#loc135)
      %tmp11_32 = arith.constant 2048 : i32 loc(#loc135)
      %tmp11_33 = arith.constant dense<2048> : tensor<2x1xi32> loc(#loc135)
      %tmp11_34 = arith.muli %tmp11_33, %xindex_6 : tensor<2x1xi32> loc(#loc135)
      %tmp11_35 = tt.broadcast %r0_index_14 : tensor<1x2048xi32> -> tensor<2x2048xi32> loc(#loc136)
      %tmp11_36 = tt.broadcast %tmp11_34 : tensor<2x1xi32> -> tensor<2x2048xi32> loc(#loc136)
      %tmp11_37 = arith.addi %tmp11_35, %tmp11_36 : tensor<2x2048xi32> loc(#loc136)
      %tmp11_38 = tt.splat %in_ptr1 : !tt.ptr<f16> -> tensor<2x2048x!tt.ptr<f16>> loc(#loc137)
      %tmp11_39 = tt.addptr %tmp11_38, %tmp11_37 : tensor<2x2048x!tt.ptr<f16>>, tensor<2x2048xi32> loc(#loc137)
      %tmp11_40 = tt.broadcast %r0_mask_15 : tensor<1x2048xi1> -> tensor<2x2048xi1> loc(#loc138)
      %tmp11_41 = tt.broadcast %xmask_7 : tensor<2x1xi1> -> tensor<2x2048xi1> loc(#loc138)
      %tmp11_42 = arith.andi %tmp11_40, %tmp11_41 : tensor<2x2048xi1> loc(#loc138)
      %tmp11_43 = arith.constant 0.000000e+00 : f32 loc(#loc139)
      %tmp11_44 = arith.constant dense<0.000000e+00> : tensor<2x2048xf32> loc(#loc139)
      %tmp11_45 = arith.truncf %tmp11_44 : tensor<2x2048xf32> to tensor<2x2048xf16> loc(#loc139)
      %tmp11_46 = tt.load %tmp11_39, %tmp11_42, %tmp11_45 evictionPolicy = evict_first : tensor<2x2048x!tt.ptr<f16>> loc(#loc139)
      %tmp11_47 = arith.extf %tmp11_46 : tensor<2x2048xf16> to tensor<2x2048xf32> loc(#loc140)
      %tmp20 = tt.splat %in_ptr2 : !tt.ptr<f16> -> tensor<1x2048x!tt.ptr<f16>> loc(#loc141)
      %tmp20_48 = tt.addptr %tmp20, %r0_index_14 : tensor<1x2048x!tt.ptr<f16>>, tensor<1x2048xi32> loc(#loc141)
      %tmp20_49 = arith.constant 0.000000e+00 : f32 loc(#loc142)
      %tmp20_50 = arith.constant dense<0.000000e+00> : tensor<1x2048xf32> loc(#loc142)
      %tmp20_51 = arith.truncf %tmp20_50 : tensor<1x2048xf32> to tensor<1x2048xf16> loc(#loc142)
      %tmp20_52 = tt.load %tmp20_48, %r0_mask_15, %tmp20_51 evictionPolicy = evict_last : tensor<1x2048x!tt.ptr<f16>> loc(#loc142)
      %tmp20_53 = arith.extf %tmp20_52 : tensor<1x2048xf16> to tensor<1x2048xf32> loc(#loc143)
      %tmp13 = arith.addf %tmp9_31, %tmp11_47 : tensor<2x2048xf32> loc(#loc144)
      %tmp14 = arith.constant 2.048000e+03 : f32 loc(#loc145)
      %tmp14_54 = arith.constant dense<2.048000e+03> : tensor<1x1xf32> loc(#loc145)
      %tmp15 = arith.constant dense<2.048000e+03> : tensor<2x1xf32> loc(#loc146)
      %tmp15_55 = arith.divf %tmp7_11, %tmp15 : tensor<2x1xf32> loc(#loc146)
      %tmp16 = arith.constant 9.99999997E-7 : f32 loc(#loc147)
      %tmp16_56 = arith.constant dense<9.99999997E-7> : tensor<1x1xf32> loc(#loc147)
      %tmp17 = arith.constant dense<9.99999997E-7> : tensor<2x1xf32> loc(#loc148)
      %tmp17_57 = arith.addf %tmp15_55, %tmp17 : tensor<2x1xf32> loc(#loc148)
      %tmp18 = tt.extern_elementwise %tmp17_57 {libname = "", libpath = "", pure = true, symbol = "__nv_rsqrtf"} : (tensor<2x1xf32>) -> tensor<2x1xf32> loc(#loc149)
      %tmp19 = tt.broadcast %tmp18 : tensor<2x1xf32> -> tensor<2x2048xf32> loc(#loc150)
      %tmp19_58 = arith.mulf %tmp13, %tmp19 : tensor<2x2048xf32> loc(#loc150)
      %tmp22 = arith.constant 1.000000e+00 : f32 loc(#loc151)
      %tmp22_59 = arith.constant dense<1.000000e+00> : tensor<1x1xf32> loc(#loc151)
      %tmp23 = arith.constant dense<1.000000e+00> : tensor<1x2048xf32> loc(#loc152)
      %tmp23_60 = arith.addf %tmp20_53, %tmp23 : tensor<1x2048xf32> loc(#loc152)
      %tmp24 = tt.broadcast %tmp23_60 : tensor<1x2048xf32> -> tensor<2x2048xf32> loc(#loc153)
      %tmp24_61 = arith.mulf %tmp19_58, %tmp24 : tensor<2x2048xf32> loc(#loc153)
      %c2048_i32_62 = arith.constant 2048 : i32 loc(#loc62)
      %c2048_i32_63 = arith.constant 2048 : i32 loc(#loc62)
      %cst = arith.constant dense<2048> : tensor<2x1xi32> loc(#loc62)
      %8 = arith.muli %cst, %xindex_6 : tensor<2x1xi32> loc(#loc62)
      %9 = tt.broadcast %r0_index_14 : tensor<1x2048xi32> -> tensor<2x2048xi32> loc(#loc63)
      %10 = tt.broadcast %8 : tensor<2x1xi32> -> tensor<2x2048xi32> loc(#loc63)
      %11 = arith.addi %9, %10 : tensor<2x2048xi32> loc(#loc63)
      %12 = tt.splat %out_ptr1 : !tt.ptr<f16> -> tensor<2x2048x!tt.ptr<f16>> loc(#loc64)
      %13 = tt.addptr %12, %11 : tensor<2x2048x!tt.ptr<f16>>, tensor<2x2048xi32> loc(#loc64)
      %14 = tt.broadcast %r0_mask_15 : tensor<1x2048xi1> -> tensor<2x2048xi1> loc(#loc65)
      %15 = tt.broadcast %xmask_7 : tensor<2x1xi1> -> tensor<2x2048xi1> loc(#loc65)
      %16 = arith.andi %14, %15 : tensor<2x2048xi1> loc(#loc65)
      %17 = arith.truncf %tmp24_61 : tensor<2x2048xf32> to tensor<2x2048xf16> loc(#loc66)
      tt.store %13, %17, %16 : tensor<2x2048x!tt.ptr<f16>> loc(#loc66)
      %c2048_i32_64 = arith.constant 2048 : i32 loc(#loc67)
      %c2048_i32_65 = arith.constant 2048 : i32 loc(#loc67)
      %cst_66 = arith.constant dense<2048> : tensor<2x1xi32> loc(#loc67)
      %18 = arith.muli %cst_66, %xindex_6 : tensor<2x1xi32> loc(#loc67)
      %19 = tt.broadcast %r0_index_14 : tensor<1x2048xi32> -> tensor<2x2048xi32> loc(#loc68)
      %20 = tt.broadcast %18 : tensor<2x1xi32> -> tensor<2x2048xi32> loc(#loc68)
      %21 = arith.addi %19, %20 : tensor<2x2048xi32> loc(#loc68)
      %22 = tt.splat %out_ptr2 : !tt.ptr<f16> -> tensor<2x2048x!tt.ptr<f16>> loc(#loc69)
      %23 = tt.addptr %22, %21 : tensor<2x2048x!tt.ptr<f16>>, tensor<2x2048xi32> loc(#loc69)
      %24 = tt.broadcast %r0_mask_15 : tensor<1x2048xi1> -> tensor<2x2048xi1> loc(#loc70)
      %25 = tt.broadcast %xmask_7 : tensor<2x1xi1> -> tensor<2x2048xi1> loc(#loc70)
      %26 = arith.andi %24, %25 : tensor<2x2048xi1> loc(#loc70)
      %27 = arith.truncf %tmp24_61 : tensor<2x2048xf32> to tensor<2x2048xf16> loc(#loc71)
      tt.store %23, %27, %26 : tensor<2x2048x!tt.ptr<f16>> loc(#loc71)
      %c2048_i32_67 = arith.constant 2048 : i32 loc(#loc72)
      %c2048_i32_68 = arith.constant 2048 : i32 loc(#loc72)
      %cst_69 = arith.constant dense<2048> : tensor<2x1xi32> loc(#loc72)
      %28 = arith.muli %cst_69, %xindex_6 : tensor<2x1xi32> loc(#loc72)
      %29 = tt.broadcast %r0_index_14 : tensor<1x2048xi32> -> tensor<2x2048xi32> loc(#loc73)
      %30 = tt.broadcast %28 : tensor<2x1xi32> -> tensor<2x2048xi32> loc(#loc73)
      %31 = arith.addi %29, %30 : tensor<2x2048xi32> loc(#loc73)
      %32 = tt.splat %out_ptr3 : !tt.ptr<f16> -> tensor<2x2048x!tt.ptr<f16>> loc(#loc74)
      %33 = tt.addptr %32, %31 : tensor<2x2048x!tt.ptr<f16>>, tensor<2x2048xi32> loc(#loc74)
      %34 = tt.broadcast %r0_mask_15 : tensor<1x2048xi1> -> tensor<2x2048xi1> loc(#loc75)
      %35 = tt.broadcast %xmask_7 : tensor<2x1xi1> -> tensor<2x2048xi1> loc(#loc75)
      %36 = arith.andi %34, %35 : tensor<2x2048xi1> loc(#loc75)
      %37 = arith.truncf %tmp24_61 : tensor<2x2048xf32> to tensor<2x2048xf16> loc(#loc76)
      tt.store %33, %37, %36 : tensor<2x2048x!tt.ptr<f16>> loc(#loc76)
    } loc(#loc34)
    tt.return loc(#loc77)
  } loc(#loc)
  tt.func private @"triton.language.standard.sum__fp32S2_2048S__(1,)cconstexpr_1__(2,)cconstexpr_False__(3,)cNone"(%input: tensor<2x2048xf32> loc("input"(#loc78))) -> tensor<2xf32> attributes {noinline = false} {
    %0 = "tt.reduce"(%input) <{axis = 1 : i32}> ({
    ^bb0(%arg1: f32 loc(unknown), %arg2: f32 loc(unknown)):
      %2 = tt.call @triton.language.standard._sum_combine__fp32_fp32__(%arg1, %arg2) : (f32, f32) -> f32 loc(#loc79)
      tt.reduce.return %2 : f32 loc(#loc79)
    }) : (tensor<2x2048xf32>) -> tensor<2xf32> loc(#loc79)
    tt.return %0 : tensor<2xf32> loc(#loc81)
  ^bb1:  // no predecessors
    %1 = ub.poison : tensor<2xf32> loc(#loc82)
    tt.return %1 : tensor<2xf32> loc(#loc82)
  } loc(#loc78)
  tt.func private @triton.language.standard._sum_combine__fp32_fp32__(%a: f32 loc("a"(#loc83)), %b: f32 loc("b"(#loc83))) -> f32 attributes {noinline = false} {
    %0 = arith.addf %a, %b : f32 loc(#loc84)
    tt.return %0 : f32 loc(#loc85)
  ^bb1:  // no predecessors
    %1 = ub.poison : f32 loc(#loc86)
    tt.return %1 : f32 loc(#loc86)
  } loc(#loc83)
} loc(#loc)
#loc1 = loc("/root/.cache/vllm/torch_compile_cache/torch_aot_compile/61bda05feca29378847c32f031efa5c8dba258f38b0176a06a3e99e41df8ca50/inductor_cache/mr/cmrt6oanchgbkjcxengzltjpbaibjqn3orp5aynvxauwh6dyeuoj.py":19:15)
#loc2 = loc("/root/.cache/vllm/torch_compile_cache/torch_aot_compile/61bda05feca29378847c32f031efa5c8dba258f38b0176a06a3e99e41df8ca50/inductor_cache/mr/cmrt6oanchgbkjcxengzltjpbaibjqn3orp5aynvxauwh6dyeuoj.py":22:28)
#loc3 = loc("/root/.cache/vllm/torch_compile_cache/torch_aot_compile/61bda05feca29378847c32f031efa5c8dba258f38b0176a06a3e99e41df8ca50/inductor_cache/mr/cmrt6oanchgbkjcxengzltjpbaibjqn3orp5aynvxauwh6dyeuoj.py":22:33)
#loc4 = loc("/root/.cache/vllm/torch_compile_cache/torch_aot_compile/61bda05feca29378847c32f031efa5c8dba258f38b0176a06a3e99e41df8ca50/inductor_cache/mr/cmrt6oanchgbkjcxengzltjpbaibjqn3orp5aynvxauwh6dyeuoj.py":23:36)
#loc5 = loc("/root/.cache/vllm/torch_compile_cache/torch_aot_compile/61bda05feca29378847c32f031efa5c8dba258f38b0176a06a3e99e41df8ca50/inductor_cache/mr/cmrt6oanchgbkjcxengzltjpbaibjqn3orp5aynvxauwh6dyeuoj.py":23:44)
#loc6 = loc("/root/.cache/vllm/torch_compile_cache/torch_aot_compile/61bda05feca29378847c32f031efa5c8dba258f38b0176a06a3e99e41df8ca50/inductor_cache/mr/cmrt6oanchgbkjcxengzltjpbaibjqn3orp5aynvxauwh6dyeuoj.py":23:23)
#loc7 = loc("/root/.cache/vllm/torch_compile_cache/torch_aot_compile/61bda05feca29378847c32f031efa5c8dba258f38b0176a06a3e99e41df8ca50/inductor_cache/mr/cmrt6oanchgbkjcxengzltjpbaibjqn3orp5aynvxauwh6dyeuoj.py":24:21)
#loc8 = loc("/root/.cache/vllm/torch_compile_cache/torch_aot_compile/61bda05feca29378847c32f031efa5c8dba258f38b0176a06a3e99e41df8ca50/inductor_cache/mr/cmrt6oanchgbkjcxengzltjpbaibjqn3orp5aynvxauwh6dyeuoj.py":25:27)
#loc9 = loc("/root/.cache/vllm/torch_compile_cache/torch_aot_compile/61bda05feca29378847c32f031efa5c8dba258f38b0176a06a3e99e41df8ca50/inductor_cache/mr/cmrt6oanchgbkjcxengzltjpbaibjqn3orp5aynvxauwh6dyeuoj.py":25:37)
#loc10 = loc("/root/.cache/vllm/torch_compile_cache/torch_aot_compile/61bda05feca29378847c32f031efa5c8dba258f38b0176a06a3e99e41df8ca50/inductor_cache/mr/cmrt6oanchgbkjcxengzltjpbaibjqn3orp5aynvxauwh6dyeuoj.py":28:43)
#loc11 = loc("/root/.cache/vllm/torch_compile_cache/torch_aot_compile/61bda05feca29378847c32f031efa5c8dba258f38b0176a06a3e99e41df8ca50/inductor_cache/mr/cmrt6oanchgbkjcxengzltjpbaibjqn3orp5aynvxauwh6dyeuoj.py":29:43)
#loc12 = loc("/root/.cache/vllm/torch_compile_cache/torch_aot_compile/61bda05feca29378847c32f031efa5c8dba258f38b0176a06a3e99e41df8ca50/inductor_cache/mr/cmrt6oanchgbkjcxengzltjpbaibjqn3orp5aynvxauwh6dyeuoj.py":30:31)
#loc13 = loc("/root/.cache/vllm/torch_compile_cache/torch_aot_compile/61bda05feca29378847c32f031efa5c8dba258f38b0176a06a3e99e41df8ca50/inductor_cache/mr/cmrt6oanchgbkjcxengzltjpbaibjqn3orp5aynvxauwh6dyeuoj.py":31:29)
#loc14 = loc("/root/.cache/vllm/torch_compile_cache/torch_aot_compile/61bda05feca29378847c32f031efa5c8dba258f38b0176a06a3e99e41df8ca50/inductor_cache/mr/cmrt6oanchgbkjcxengzltjpbaibjqn3orp5aynvxauwh6dyeuoj.py":35:46)
#loc15 = loc("/root/.cache/vllm/torch_compile_cache/torch_aot_compile/61bda05feca29378847c32f031efa5c8dba258f38b0176a06a3e99e41df8ca50/inductor_cache/mr/cmrt6oanchgbkjcxengzltjpbaibjqn3orp5aynvxauwh6dyeuoj.py":35:41)
#loc16 = loc("/root/.cache/vllm/torch_compile_cache/torch_aot_compile/61bda05feca29378847c32f031efa5c8dba258f38b0176a06a3e99e41df8ca50/inductor_cache/mr/cmrt6oanchgbkjcxengzltjpbaibjqn3orp5aynvxauwh6dyeuoj.py":35:34)
#loc17 = loc("/root/.cache/vllm/torch_compile_cache/torch_aot_compile/61bda05feca29378847c32f031efa5c8dba258f38b0176a06a3e99e41df8ca50/inductor_cache/mr/cmrt6oanchgbkjcxengzltjpbaibjqn3orp5aynvxauwh6dyeuoj.py":35:61)
#loc18 = loc("/root/.cache/vllm/torch_compile_cache/torch_aot_compile/61bda05feca29378847c32f031efa5c8dba258f38b0176a06a3e99e41df8ca50/inductor_cache/mr/cmrt6oanchgbkjcxengzltjpbaibjqn3orp5aynvxauwh6dyeuoj.py":35:51)
#loc19 = loc("/root/.cache/vllm/torch_compile_cache/torch_aot_compile/61bda05feca29378847c32f031efa5c8dba258f38b0176a06a3e99e41df8ca50/inductor_cache/mr/cmrt6oanchgbkjcxengzltjpbaibjqn3orp5aynvxauwh6dyeuoj.py":35:112)
#loc20 = loc("/root/.cache/vllm/torch_compile_cache/torch_aot_compile/61bda05feca29378847c32f031efa5c8dba258f38b0176a06a3e99e41df8ca50/inductor_cache/mr/cmrt6oanchgbkjcxengzltjpbaibjqn3orp5aynvxauwh6dyeuoj.py":36:46)
#loc21 = loc("/root/.cache/vllm/torch_compile_cache/torch_aot_compile/61bda05feca29378847c32f031efa5c8dba258f38b0176a06a3e99e41df8ca50/inductor_cache/mr/cmrt6oanchgbkjcxengzltjpbaibjqn3orp5aynvxauwh6dyeuoj.py":36:41)
#loc22 = loc("/root/.cache/vllm/torch_compile_cache/torch_aot_compile/61bda05feca29378847c32f031efa5c8dba258f38b0176a06a3e99e41df8ca50/inductor_cache/mr/cmrt6oanchgbkjcxengzltjpbaibjqn3orp5aynvxauwh6dyeuoj.py":36:34)
#loc23 = loc("/root/.cache/vllm/torch_compile_cache/torch_aot_compile/61bda05feca29378847c32f031efa5c8dba258f38b0176a06a3e99e41df8ca50/inductor_cache/mr/cmrt6oanchgbkjcxengzltjpbaibjqn3orp5aynvxauwh6dyeuoj.py":36:61)
#loc24 = loc("/root/.cache/vllm/torch_compile_cache/torch_aot_compile/61bda05feca29378847c32f031efa5c8dba258f38b0176a06a3e99e41df8ca50/inductor_cache/mr/cmrt6oanchgbkjcxengzltjpbaibjqn3orp5aynvxauwh6dyeuoj.py":36:51)
#loc25 = loc("/root/.cache/vllm/torch_compile_cache/torch_aot_compile/61bda05feca29378847c32f031efa5c8dba258f38b0176a06a3e99e41df8ca50/inductor_cache/mr/cmrt6oanchgbkjcxengzltjpbaibjqn3orp5aynvxauwh6dyeuoj.py":36:112)
#loc26 = loc("/root/.cache/vllm/torch_compile_cache/torch_aot_compile/61bda05feca29378847c32f031efa5c8dba258f38b0176a06a3e99e41df8ca50/inductor_cache/mr/cmrt6oanchgbkjcxengzltjpbaibjqn3orp5aynvxauwh6dyeuoj.py":39:22)
#loc27 = loc("/root/.cache/vllm/torch_compile_cache/torch_aot_compile/61bda05feca29378847c32f031efa5c8dba258f38b0176a06a3e99e41df8ca50/inductor_cache/mr/cmrt6oanchgbkjcxengzltjpbaibjqn3orp5aynvxauwh6dyeuoj.py":40:22)
#loc28 = loc("/root/.cache/vllm/torch_compile_cache/torch_aot_compile/61bda05feca29378847c32f031efa5c8dba258f38b0176a06a3e99e41df8ca50/inductor_cache/mr/cmrt6oanchgbkjcxengzltjpbaibjqn3orp5aynvxauwh6dyeuoj.py":42:23)
#loc29 = loc("/root/.cache/vllm/torch_compile_cache/torch_aot_compile/61bda05feca29378847c32f031efa5c8dba258f38b0176a06a3e99e41df8ca50/inductor_cache/mr/cmrt6oanchgbkjcxengzltjpbaibjqn3orp5aynvxauwh6dyeuoj.py":43:35)
#loc30 = loc("/root/.cache/vllm/torch_compile_cache/torch_aot_compile/61bda05feca29378847c32f031efa5c8dba258f38b0176a06a3e99e41df8ca50/inductor_cache/mr/cmrt6oanchgbkjcxengzltjpbaibjqn3orp5aynvxauwh6dyeuoj.py":43:48)
#loc31 = loc("/root/.cache/vllm/torch_compile_cache/torch_aot_compile/61bda05feca29378847c32f031efa5c8dba258f38b0176a06a3e99e41df8ca50/inductor_cache/mr/cmrt6oanchgbkjcxengzltjpbaibjqn3orp5aynvxauwh6dyeuoj.py":43:8)
#loc32 = loc("/root/.cache/vllm/torch_compile_cache/torch_aot_compile/61bda05feca29378847c32f031efa5c8dba258f38b0176a06a3e99e41df8ca50/inductor_cache/mr/cmrt6oanchgbkjcxengzltjpbaibjqn3orp5aynvxauwh6dyeuoj.py":44:25)
#loc33 = loc("/root/.cache/vllm/torch_compile_cache/torch_aot_compile/61bda05feca29378847c32f031efa5c8dba258f38b0176a06a3e99e41df8ca50/inductor_cache/mr/cmrt6oanchgbkjcxengzltjpbaibjqn3orp5aynvxauwh6dyeuoj.py":44:28)
#loc34 = loc("/root/.cache/vllm/torch_compile_cache/torch_aot_compile/61bda05feca29378847c32f031efa5c8dba258f38b0176a06a3e99e41df8ca50/inductor_cache/mr/cmrt6oanchgbkjcxengzltjpbaibjqn3orp5aynvxauwh6dyeuoj.py":45:43)
#loc35 = loc("/root/.cache/vllm/torch_compile_cache/torch_aot_compile/61bda05feca29378847c32f031efa5c8dba258f38b0176a06a3e99e41df8ca50/inductor_cache/mr/cmrt6oanchgbkjcxengzltjpbaibjqn3orp5aynvxauwh6dyeuoj.py":46:31)
#loc36 = loc("/root/.cache/vllm/torch_compile_cache/torch_aot_compile/61bda05feca29378847c32f031efa5c8dba258f38b0176a06a3e99e41df8ca50/inductor_cache/mr/cmrt6oanchgbkjcxengzltjpbaibjqn3orp5aynvxauwh6dyeuoj.py":47:29)
#loc37 = loc("/root/.cache/vllm/torch_compile_cache/torch_aot_compile/61bda05feca29378847c32f031efa5c8dba258f38b0176a06a3e99e41df8ca50/inductor_cache/mr/cmrt6oanchgbkjcxengzltjpbaibjqn3orp5aynvxauwh6dyeuoj.py":51:46)
#loc38 = loc("/root/.cache/vllm/torch_compile_cache/torch_aot_compile/61bda05feca29378847c32f031efa5c8dba258f38b0176a06a3e99e41df8ca50/inductor_cache/mr/cmrt6oanchgbkjcxengzltjpbaibjqn3orp5aynvxauwh6dyeuoj.py":51:41)
#loc39 = loc("/root/.cache/vllm/torch_compile_cache/torch_aot_compile/61bda05feca29378847c32f031efa5c8dba258f38b0176a06a3e99e41df8ca50/inductor_cache/mr/cmrt6oanchgbkjcxengzltjpbaibjqn3orp5aynvxauwh6dyeuoj.py":51:34)
#loc40 = loc("/root/.cache/vllm/torch_compile_cache/torch_aot_compile/61bda05feca29378847c32f031efa5c8dba258f38b0176a06a3e99e41df8ca50/inductor_cache/mr/cmrt6oanchgbkjcxengzltjpbaibjqn3orp5aynvxauwh6dyeuoj.py":51:61)
#loc41 = loc("/root/.cache/vllm/torch_compile_cache/torch_aot_compile/61bda05feca29378847c32f031efa5c8dba258f38b0176a06a3e99e41df8ca50/inductor_cache/mr/cmrt6oanchgbkjcxengzltjpbaibjqn3orp5aynvxauwh6dyeuoj.py":51:51)
#loc42 = loc("/root/.cache/vllm/torch_compile_cache/torch_aot_compile/61bda05feca29378847c32f031efa5c8dba258f38b0176a06a3e99e41df8ca50/inductor_cache/mr/cmrt6oanchgbkjcxengzltjpbaibjqn3orp5aynvxauwh6dyeuoj.py":51:113)
#loc43 = loc("/root/.cache/vllm/torch_compile_cache/torch_aot_compile/61bda05feca29378847c32f031efa5c8dba258f38b0176a06a3e99e41df8ca50/inductor_cache/mr/cmrt6oanchgbkjcxengzltjpbaibjqn3orp5aynvxauwh6dyeuoj.py":52:47)
#loc44 = loc("/root/.cache/vllm/torch_compile_cache/torch_aot_compile/61bda05feca29378847c32f031efa5c8dba258f38b0176a06a3e99e41df8ca50/inductor_cache/mr/cmrt6oanchgbkjcxengzltjpbaibjqn3orp5aynvxauwh6dyeuoj.py":52:42)
#loc45 = loc("/root/.cache/vllm/torch_compile_cache/torch_aot_compile/61bda05feca29378847c32f031efa5c8dba258f38b0176a06a3e99e41df8ca50/inductor_cache/mr/cmrt6oanchgbkjcxengzltjpbaibjqn3orp5aynvxauwh6dyeuoj.py":52:35)
#loc46 = loc("/root/.cache/vllm/torch_compile_cache/torch_aot_compile/61bda05feca29378847c32f031efa5c8dba258f38b0176a06a3e99e41df8ca50/inductor_cache/mr/cmrt6oanchgbkjcxengzltjpbaibjqn3orp5aynvxauwh6dyeuoj.py":52:62)
#loc47 = loc("/root/.cache/vllm/torch_compile_cache/torch_aot_compile/61bda05feca29378847c32f031efa5c8dba258f38b0176a06a3e99e41df8ca50/inductor_cache/mr/cmrt6oanchgbkjcxengzltjpbaibjqn3orp5aynvxauwh6dyeuoj.py":52:52)
#loc48 = loc("/root/.cache/vllm/torch_compile_cache/torch_aot_compile/61bda05feca29378847c32f031efa5c8dba258f38b0176a06a3e99e41df8ca50/inductor_cache/mr/cmrt6oanchgbkjcxengzltjpbaibjqn3orp5aynvxauwh6dyeuoj.py":52:114)
#loc49 = loc("/root/.cache/vllm/torch_compile_cache/torch_aot_compile/61bda05feca29378847c32f031efa5c8dba258f38b0176a06a3e99e41df8ca50/inductor_cache/mr/cmrt6oanchgbkjcxengzltjpbaibjqn3orp5aynvxauwh6dyeuoj.py":53:35)
#loc50 = loc("/root/.cache/vllm/torch_compile_cache/torch_aot_compile/61bda05feca29378847c32f031efa5c8dba258f38b0176a06a3e99e41df8ca50/inductor_cache/mr/cmrt6oanchgbkjcxengzltjpbaibjqn3orp5aynvxauwh6dyeuoj.py":53:42)
#loc51 = loc("/root/.cache/vllm/torch_compile_cache/torch_aot_compile/61bda05feca29378847c32f031efa5c8dba258f38b0176a06a3e99e41df8ca50/inductor_cache/mr/cmrt6oanchgbkjcxengzltjpbaibjqn3orp5aynvxauwh6dyeuoj.py":53:95)
#loc52 = loc("/root/.cache/vllm/torch_compile_cache/torch_aot_compile/61bda05feca29378847c32f031efa5c8dba258f38b0176a06a3e99e41df8ca50/inductor_cache/mr/cmrt6oanchgbkjcxengzltjpbaibjqn3orp5aynvxauwh6dyeuoj.py":56:24)
#loc53 = loc("/root/.cache/vllm/torch_compile_cache/torch_aot_compile/61bda05feca29378847c32f031efa5c8dba258f38b0176a06a3e99e41df8ca50/inductor_cache/mr/cmrt6oanchgbkjcxengzltjpbaibjqn3orp5aynvxauwh6dyeuoj.py":57:40)
#loc54 = loc("/root/.cache/vllm/torch_compile_cache/torch_aot_compile/61bda05feca29378847c32f031efa5c8dba258f38b0176a06a3e99e41df8ca50/inductor_cache/mr/cmrt6oanchgbkjcxengzltjpbaibjqn3orp5aynvxauwh6dyeuoj.py":58:24)
#loc55 = loc("/root/.cache/vllm/torch_compile_cache/torch_aot_compile/61bda05feca29378847c32f031efa5c8dba258f38b0176a06a3e99e41df8ca50/inductor_cache/mr/cmrt6oanchgbkjcxengzltjpbaibjqn3orp5aynvxauwh6dyeuoj.py":59:39)
#loc56 = loc("/root/.cache/vllm/torch_compile_cache/torch_aot_compile/61bda05feca29378847c32f031efa5c8dba258f38b0176a06a3e99e41df8ca50/inductor_cache/mr/cmrt6oanchgbkjcxengzltjpbaibjqn3orp5aynvxauwh6dyeuoj.py":60:24)
#loc57 = loc("/root/.cache/vllm/torch_compile_cache/torch_aot_compile/61bda05feca29378847c32f031efa5c8dba258f38b0176a06a3e99e41df8ca50/inductor_cache/mr/cmrt6oanchgbkjcxengzltjpbaibjqn3orp5aynvxauwh6dyeuoj.py":61:32)
#loc58 = loc("/root/.cache/vllm/torch_compile_cache/torch_aot_compile/61bda05feca29378847c32f031efa5c8dba258f38b0176a06a3e99e41df8ca50/inductor_cache/mr/cmrt6oanchgbkjcxengzltjpbaibjqn3orp5aynvxauwh6dyeuoj.py":62:24)
#loc59 = loc("/root/.cache/vllm/torch_compile_cache/torch_aot_compile/61bda05feca29378847c32f031efa5c8dba258f38b0176a06a3e99e41df8ca50/inductor_cache/mr/cmrt6oanchgbkjcxengzltjpbaibjqn3orp5aynvxauwh6dyeuoj.py":64:37)
#loc60 = loc("/root/.cache/vllm/torch_compile_cache/torch_aot_compile/61bda05feca29378847c32f031efa5c8dba258f38b0176a06a3e99e41df8ca50/inductor_cache/mr/cmrt6oanchgbkjcxengzltjpbaibjqn3orp5aynvxauwh6dyeuoj.py":65:24)
#loc61 = loc("/root/.cache/vllm/torch_compile_cache/torch_aot_compile/61bda05feca29378847c32f031efa5c8dba258f38b0176a06a3e99e41df8ca50/inductor_cache/mr/cmrt6oanchgbkjcxengzltjpbaibjqn3orp5aynvxauwh6dyeuoj.py":66:24)
#loc62 = loc("/root/.cache/vllm/torch_compile_cache/torch_aot_compile/61bda05feca29378847c32f031efa5c8dba258f38b0176a06a3e99e41df8ca50/inductor_cache/mr/cmrt6oanchgbkjcxengzltjpbaibjqn3orp5aynvxauwh6dyeuoj.py":68:41)
#loc63 = loc("/root/.cache/vllm/torch_compile_cache/torch_aot_compile/61bda05feca29378847c32f031efa5c8dba258f38b0176a06a3e99e41df8ca50/inductor_cache/mr/cmrt6oanchgbkjcxengzltjpbaibjqn3orp5aynvxauwh6dyeuoj.py":68:36)
#loc64 = loc("/root/.cache/vllm/torch_compile_cache/torch_aot_compile/61bda05feca29378847c32f031efa5c8dba258f38b0176a06a3e99e41df8ca50/inductor_cache/mr/cmrt6oanchgbkjcxengzltjpbaibjqn3orp5aynvxauwh6dyeuoj.py":68:29)
#loc65 = loc("/root/.cache/vllm/torch_compile_cache/torch_aot_compile/61bda05feca29378847c32f031efa5c8dba258f38b0176a06a3e99e41df8ca50/inductor_cache/mr/cmrt6oanchgbkjcxengzltjpbaibjqn3orp5aynvxauwh6dyeuoj.py":68:63)
#loc66 = loc("/root/.cache/vllm/torch_compile_cache/torch_aot_compile/61bda05feca29378847c32f031efa5c8dba258f38b0176a06a3e99e41df8ca50/inductor_cache/mr/cmrt6oanchgbkjcxengzltjpbaibjqn3orp5aynvxauwh6dyeuoj.py":68:53)
#loc67 = loc("/root/.cache/vllm/torch_compile_cache/torch_aot_compile/61bda05feca29378847c32f031efa5c8dba258f38b0176a06a3e99e41df8ca50/inductor_cache/mr/cmrt6oanchgbkjcxengzltjpbaibjqn3orp5aynvxauwh6dyeuoj.py":69:41)
#loc68 = loc("/root/.cache/vllm/torch_compile_cache/torch_aot_compile/61bda05feca29378847c32f031efa5c8dba258f38b0176a06a3e99e41df8ca50/inductor_cache/mr/cmrt6oanchgbkjcxengzltjpbaibjqn3orp5aynvxauwh6dyeuoj.py":69:36)
#loc69 = loc("/root/.cache/vllm/torch_compile_cache/torch_aot_compile/61bda05feca29378847c32f031efa5c8dba258f38b0176a06a3e99e41df8ca50/inductor_cache/mr/cmrt6oanchgbkjcxengzltjpbaibjqn3orp5aynvxauwh6dyeuoj.py":69:29)
#loc70 = loc("/root/.cache/vllm/torch_compile_cache/torch_aot_compile/61bda05feca29378847c32f031efa5c8dba258f38b0176a06a3e99e41df8ca50/inductor_cache/mr/cmrt6oanchgbkjcxengzltjpbaibjqn3orp5aynvxauwh6dyeuoj.py":69:63)
#loc71 = loc("/root/.cache/vllm/torch_compile_cache/torch_aot_compile/61bda05feca29378847c32f031efa5c8dba258f38b0176a06a3e99e41df8ca50/inductor_cache/mr/cmrt6oanchgbkjcxengzltjpbaibjqn3orp5aynvxauwh6dyeuoj.py":69:53)
#loc72 = loc("/root/.cache/vllm/torch_compile_cache/torch_aot_compile/61bda05feca29378847c32f031efa5c8dba258f38b0176a06a3e99e41df8ca50/inductor_cache/mr/cmrt6oanchgbkjcxengzltjpbaibjqn3orp5aynvxauwh6dyeuoj.py":70:41)
#loc73 = loc("/root/.cache/vllm/torch_compile_cache/torch_aot_compile/61bda05feca29378847c32f031efa5c8dba258f38b0176a06a3e99e41df8ca50/inductor_cache/mr/cmrt6oanchgbkjcxengzltjpbaibjqn3orp5aynvxauwh6dyeuoj.py":70:36)
#loc74 = loc("/root/.cache/vllm/torch_compile_cache/torch_aot_compile/61bda05feca29378847c32f031efa5c8dba258f38b0176a06a3e99e41df8ca50/inductor_cache/mr/cmrt6oanchgbkjcxengzltjpbaibjqn3orp5aynvxauwh6dyeuoj.py":70:29)
#loc75 = loc("/root/.cache/vllm/torch_compile_cache/torch_aot_compile/61bda05feca29378847c32f031efa5c8dba258f38b0176a06a3e99e41df8ca50/inductor_cache/mr/cmrt6oanchgbkjcxengzltjpbaibjqn3orp5aynvxauwh6dyeuoj.py":70:63)
#loc76 = loc("/root/.cache/vllm/torch_compile_cache/torch_aot_compile/61bda05feca29378847c32f031efa5c8dba258f38b0176a06a3e99e41df8ca50/inductor_cache/mr/cmrt6oanchgbkjcxengzltjpbaibjqn3orp5aynvxauwh6dyeuoj.py":70:53)
#loc77 = loc("/root/.cache/vllm/torch_compile_cache/torch_aot_compile/61bda05feca29378847c32f031efa5c8dba258f38b0176a06a3e99e41df8ca50/inductor_cache/mr/cmrt6oanchgbkjcxengzltjpbaibjqn3orp5aynvxauwh6dyeuoj.py":45:4)
#loc79 = loc("/usr/local/lib/python3.12/dist-packages/triton/language/standard.py":293:36)
#loc81 = loc("/usr/local/lib/python3.12/dist-packages/triton/language/standard.py":293:11)
#loc82 = loc("/usr/local/lib/python3.12/dist-packages/triton/language/standard.py":293:4)
#loc84 = loc("/usr/local/lib/python3.12/dist-packages/triton/language/standard.py":263:15)
#loc85 = loc("/usr/local/lib/python3.12/dist-packages/triton/language/standard.py":263:11)
#loc86 = loc("/usr/local/lib/python3.12/dist-packages/triton/language/standard.py":263:4)
#loc95 = loc("r0_numel"(#loc1))
#loc96 = loc("xoffset"(#loc2))
#loc97 = loc("xoffset"(#loc3))
#loc98 = loc("xindex"(#loc4))
#loc99 = loc("xindex"(#loc5))
#loc100 = loc("xindex"(#loc6))
#loc101 = loc("xmask"(#loc7))
#loc102 = loc("r0_base"(#loc8))
#loc103 = loc("r0_base"(#loc9))
#loc104 = loc("_tmp7"(#loc10))
#loc105 = loc("_tmp7"(#loc11))
#loc106 = loc("r0_index"(#loc12))
#loc107 = loc("r0_mask"(#loc13))
#loc108 = loc("tmp0"(#loc14))
#loc109 = loc("tmp0"(#loc15))
#loc110 = loc("tmp0"(#loc16))
#loc111 = loc("tmp0"(#loc17))
#loc112 = loc("tmp0"(#loc18))
#loc113 = loc("tmp0"(#loc19))
#loc114 = loc("tmp2"(#loc20))
#loc115 = loc("tmp2"(#loc21))
#loc116 = loc("tmp2"(#loc22))
#loc117 = loc("tmp2"(#loc23))
#loc118 = loc("tmp2"(#loc24))
#loc119 = loc("tmp2"(#loc25))
#loc120 = loc("tmp4"(#loc26))
#loc121 = loc("tmp5"(#loc27))
#loc122 = loc("tmp8"(#loc28))
#loc123 = loc("_tmp7"(#loc29))
#loc124 = loc("_tmp7"(#loc30))
#loc125 = loc("tmp7"(#loc32))
#loc126 = loc("tmp7"(#loc33))
#loc127 = loc("r0_index"(#loc35))
#loc128 = loc("r0_mask"(#loc36))
#loc129 = loc("tmp9"(#loc37))
#loc130 = loc("tmp9"(#loc38))
#loc131 = loc("tmp9"(#loc39))
#loc132 = loc("tmp9"(#loc40))
#loc133 = loc("tmp9"(#loc41))
#loc134 = loc("tmp9"(#loc42))
#loc135 = loc("tmp11"(#loc43))
#loc136 = loc("tmp11"(#loc44))
#loc137 = loc("tmp11"(#loc45))
#loc138 = loc("tmp11"(#loc46))
#loc139 = loc("tmp11"(#loc47))
#loc140 = loc("tmp11"(#loc48))
#loc141 = loc("tmp20"(#loc49))
#loc142 = loc("tmp20"(#loc50))
#loc143 = loc("tmp20"(#loc51))
#loc144 = loc("tmp13"(#loc52))
#loc145 = loc("tmp14"(#loc53))
#loc146 = loc("tmp15"(#loc54))
#loc147 = loc("tmp16"(#loc55))
#loc148 = loc("tmp17"(#loc56))
#loc149 = loc("tmp18"(#loc57))
#loc150 = loc("tmp19"(#loc58))
#loc151 = loc("tmp22"(#loc59))
#loc152 = loc("tmp23"(#loc60))
#loc153 = loc("tmp24"(#loc61))
