#loc = loc("/root/.cache/vllm/torch_compile_cache/torch_aot_compile/61bda05feca29378847c32f031efa5c8dba258f38b0176a06a3e99e41df8ca50/inductor_cache/37/c37byzoit7f6rzrdctgqp5n5gmji3tcjvy7bd6ezasgfx4ttkoai.py":18:0)
#loc17 = loc("/usr/local/lib/python3.12/dist-packages/triton/language/standard.py":49:0)
#loc24 = loc("in_ptr0"(#loc))
#loc25 = loc("in_ptr1"(#loc))
#loc26 = loc("out_ptr0"(#loc))
#loc27 = loc("xnumel"(#loc))
#loc41 = loc("x"(#loc17))
module {
  tt.func public @triton_poi_fused_marlin_gemm_mul_sigmoid_view_0(%in_ptr0: !tt.ptr<f16> {tt.divisibility = 16 : i32} loc("in_ptr0"(#loc)), %in_ptr1: !tt.ptr<f16> {tt.divisibility = 16 : i32} loc("in_ptr1"(#loc)), %out_ptr0: !tt.ptr<f16> {tt.divisibility = 16 : i32} loc("out_ptr0"(#loc)), %xnumel: i32 {tt.divisibility = 16 : i32} loc("xnumel"(#loc))) attributes {noinline = false} {
    %xoffset = tt.get_program_id x : i32 loc(#loc28)
    %xoffset_0 = arith.constant 512 : i32 loc(#loc29)
    %xoffset_1 = arith.constant 512 : i32 loc(#loc29)
    %xoffset_2 = arith.muli %xoffset, %xoffset_1 : i32 loc(#loc29)
    %xindex = tt.make_range {end = 512 : i32, start = 0 : i32} : tensor<512xi32> loc(#loc30)
    %xindex_3 = tt.splat %xoffset_2 : i32 -> tensor<512xi32> loc(#loc31)
    %xindex_4 = arith.addi %xindex_3, %xindex : tensor<512xi32> loc(#loc31)
    %xmask = tt.splat %xnumel : i32 -> tensor<512xi32> loc(#loc32)
    %xmask_5 = arith.cmpi slt, %xindex_4, %xmask : tensor<512xi32> loc(#loc32)
    %tmp0 = tt.splat %in_ptr0 : !tt.ptr<f16> -> tensor<512x!tt.ptr<f16>> loc(#loc33)
    %tmp0_6 = tt.addptr %tmp0, %xindex_4 : tensor<512x!tt.ptr<f16>>, tensor<512xi32> loc(#loc33)
    %tmp0_7 = tt.load %tmp0_6, %xmask_5 : tensor<512x!tt.ptr<f16>> loc(#loc34)
    %tmp0_8 = arith.extf %tmp0_7 : tensor<512xf16> to tensor<512xf32> loc(#loc35)
    %tmp1 = tt.splat %in_ptr1 : !tt.ptr<f16> -> tensor<512x!tt.ptr<f16>> loc(#loc36)
    %tmp1_9 = tt.addptr %tmp1, %xindex_4 : tensor<512x!tt.ptr<f16>>, tensor<512xi32> loc(#loc36)
    %tmp1_10 = tt.load %tmp1_9, %xmask_5 : tensor<512x!tt.ptr<f16>> loc(#loc37)
    %tmp1_11 = arith.extf %tmp1_10 : tensor<512xf16> to tensor<512xf32> loc(#loc38)
    %tmp2 = tt.call @triton.language.standard.sigmoid__fp32S512S__(%tmp1_11) : (tensor<512xf32>) -> tensor<512xf32> loc(#loc39)
    %tmp3 = arith.mulf %tmp0_8, %tmp2 : tensor<512xf32> loc(#loc40)
    %0 = tt.splat %out_ptr0 : !tt.ptr<f16> -> tensor<512x!tt.ptr<f16>> loc(#loc14)
    %1 = tt.addptr %0, %xindex_4 : tensor<512x!tt.ptr<f16>>, tensor<512xi32> loc(#loc14)
    %2 = arith.truncf %tmp3 : tensor<512xf32> to tensor<512xf16> loc(#loc15)
    tt.store %1, %2, %xmask_5 : tensor<512x!tt.ptr<f16>> loc(#loc15)
    tt.return loc(#loc16)
  } loc(#loc)
  tt.func private @triton.language.standard.sigmoid__fp32S512S__(%x: tensor<512xf32> loc("x"(#loc17))) -> tensor<512xf32> attributes {noinline = false} {
    %cst = arith.constant 0.000000e+00 : f32 loc(#loc18)
    %cst_0 = arith.constant dense<0.000000e+00> : tensor<512xf32> loc(#loc18)
    %0 = arith.subf %cst_0, %x : tensor<512xf32> loc(#loc18)
    %1 = math.exp %0 : tensor<512xf32> loc(#loc19)
    %c1_i32 = arith.constant 1 : i32 loc(#loc20)
    %cst_1 = arith.constant 1.000000e+00 : f32 loc(#loc20)
    %cst_2 = arith.constant dense<1.000000e+00> : tensor<512xf32> loc(#loc20)
    %2 = arith.addf %cst_2, %1 : tensor<512xf32> loc(#loc20)
    %c1_i32_3 = arith.constant 1 : i32 loc(#loc21)
    %cst_4 = arith.constant 1.000000e+00 : f32 loc(#loc21)
    %cst_5 = arith.constant dense<1.000000e+00> : tensor<512xf32> loc(#loc21)
    %3 = arith.divf %cst_5, %2 : tensor<512xf32> loc(#loc21)
    tt.return %3 : tensor<512xf32> loc(#loc22)
  ^bb1:  // no predecessors
    %4 = ub.poison : tensor<512xf32> loc(#loc23)
    tt.return %4 : tensor<512xf32> loc(#loc23)
  } loc(#loc17)
} loc(#loc)
#loc1 = loc("/root/.cache/vllm/torch_compile_cache/torch_aot_compile/61bda05feca29378847c32f031efa5c8dba258f38b0176a06a3e99e41df8ca50/inductor_cache/37/c37byzoit7f6rzrdctgqp5n5gmji3tcjvy7bd6ezasgfx4ttkoai.py":19:28)
#loc2 = loc("/root/.cache/vllm/torch_compile_cache/torch_aot_compile/61bda05feca29378847c32f031efa5c8dba258f38b0176a06a3e99e41df8ca50/inductor_cache/37/c37byzoit7f6rzrdctgqp5n5gmji3tcjvy7bd6ezasgfx4ttkoai.py":19:33)
#loc3 = loc("/root/.cache/vllm/torch_compile_cache/torch_aot_compile/61bda05feca29378847c32f031efa5c8dba258f38b0176a06a3e99e41df8ca50/inductor_cache/37/c37byzoit7f6rzrdctgqp5n5gmji3tcjvy7bd6ezasgfx4ttkoai.py":20:36)
#loc4 = loc("/root/.cache/vllm/torch_compile_cache/torch_aot_compile/61bda05feca29378847c32f031efa5c8dba258f38b0176a06a3e99e41df8ca50/inductor_cache/37/c37byzoit7f6rzrdctgqp5n5gmji3tcjvy7bd6ezasgfx4ttkoai.py":20:23)
#loc5 = loc("/root/.cache/vllm/torch_compile_cache/torch_aot_compile/61bda05feca29378847c32f031efa5c8dba258f38b0176a06a3e99e41df8ca50/inductor_cache/37/c37byzoit7f6rzrdctgqp5n5gmji3tcjvy7bd6ezasgfx4ttkoai.py":21:21)
#loc6 = loc("/root/.cache/vllm/torch_compile_cache/torch_aot_compile/61bda05feca29378847c32f031efa5c8dba258f38b0176a06a3e99e41df8ca50/inductor_cache/37/c37byzoit7f6rzrdctgqp5n5gmji3tcjvy7bd6ezasgfx4ttkoai.py":23:30)
#loc7 = loc("/root/.cache/vllm/torch_compile_cache/torch_aot_compile/61bda05feca29378847c32f031efa5c8dba258f38b0176a06a3e99e41df8ca50/inductor_cache/37/c37byzoit7f6rzrdctgqp5n5gmji3tcjvy7bd6ezasgfx4ttkoai.py":23:35)
#loc8 = loc("/root/.cache/vllm/torch_compile_cache/torch_aot_compile/61bda05feca29378847c32f031efa5c8dba258f38b0176a06a3e99e41df8ca50/inductor_cache/37/c37byzoit7f6rzrdctgqp5n5gmji3tcjvy7bd6ezasgfx4ttkoai.py":23:45)
#loc9 = loc("/root/.cache/vllm/torch_compile_cache/torch_aot_compile/61bda05feca29378847c32f031efa5c8dba258f38b0176a06a3e99e41df8ca50/inductor_cache/37/c37byzoit7f6rzrdctgqp5n5gmji3tcjvy7bd6ezasgfx4ttkoai.py":24:30)
#loc10 = loc("/root/.cache/vllm/torch_compile_cache/torch_aot_compile/61bda05feca29378847c32f031efa5c8dba258f38b0176a06a3e99e41df8ca50/inductor_cache/37/c37byzoit7f6rzrdctgqp5n5gmji3tcjvy7bd6ezasgfx4ttkoai.py":24:35)
#loc11 = loc("/root/.cache/vllm/torch_compile_cache/torch_aot_compile/61bda05feca29378847c32f031efa5c8dba258f38b0176a06a3e99e41df8ca50/inductor_cache/37/c37byzoit7f6rzrdctgqp5n5gmji3tcjvy7bd6ezasgfx4ttkoai.py":24:45)
#loc12 = loc("/root/.cache/vllm/torch_compile_cache/torch_aot_compile/61bda05feca29378847c32f031efa5c8dba258f38b0176a06a3e99e41df8ca50/inductor_cache/37/c37byzoit7f6rzrdctgqp5n5gmji3tcjvy7bd6ezasgfx4ttkoai.py":25:22)
#loc13 = loc("/root/.cache/vllm/torch_compile_cache/torch_aot_compile/61bda05feca29378847c32f031efa5c8dba258f38b0176a06a3e99e41df8ca50/inductor_cache/37/c37byzoit7f6rzrdctgqp5n5gmji3tcjvy7bd6ezasgfx4ttkoai.py":26:18)
#loc14 = loc("/root/.cache/vllm/torch_compile_cache/torch_aot_compile/61bda05feca29378847c32f031efa5c8dba258f38b0176a06a3e99e41df8ca50/inductor_cache/37/c37byzoit7f6rzrdctgqp5n5gmji3tcjvy7bd6ezasgfx4ttkoai.py":27:25)
#loc15 = loc("/root/.cache/vllm/torch_compile_cache/torch_aot_compile/61bda05feca29378847c32f031efa5c8dba258f38b0176a06a3e99e41df8ca50/inductor_cache/37/c37byzoit7f6rzrdctgqp5n5gmji3tcjvy7bd6ezasgfx4ttkoai.py":27:36)
#loc16 = loc("/root/.cache/vllm/torch_compile_cache/torch_aot_compile/61bda05feca29378847c32f031efa5c8dba258f38b0176a06a3e99e41df8ca50/inductor_cache/37/c37byzoit7f6rzrdctgqp5n5gmji3tcjvy7bd6ezasgfx4ttkoai.py":27:4)
#loc18 = loc("/usr/local/lib/python3.12/dist-packages/triton/language/standard.py":50:30)
#loc19 = loc("/usr/local/lib/python3.12/dist-packages/triton/language/standard.py":50:29)
#loc20 = loc("/usr/local/lib/python3.12/dist-packages/triton/language/standard.py":50:20)
#loc21 = loc("/usr/local/lib/python3.12/dist-packages/triton/language/standard.py":50:16)
#loc22 = loc("/usr/local/lib/python3.12/dist-packages/triton/language/standard.py":50:11)
#loc23 = loc("/usr/local/lib/python3.12/dist-packages/triton/language/standard.py":50:4)
#loc28 = loc("xoffset"(#loc1))
#loc29 = loc("xoffset"(#loc2))
#loc30 = loc("xindex"(#loc3))
#loc31 = loc("xindex"(#loc4))
#loc32 = loc("xmask"(#loc5))
#loc33 = loc("tmp0"(#loc6))
#loc34 = loc("tmp0"(#loc7))
#loc35 = loc("tmp0"(#loc8))
#loc36 = loc("tmp1"(#loc9))
#loc37 = loc("tmp1"(#loc10))
#loc38 = loc("tmp1"(#loc11))
#loc39 = loc("tmp2"(#loc12))
#loc40 = loc("tmp3"(#loc13))
