#loc = loc("/usr/local/lib/python3.12/dist-packages/vllm/model_executor/layers/mamba/ops/causal_conv1d.py":16:0)
#loc280 = loc("x_ptr"(#loc))
#loc281 = loc("w_ptr"(#loc))
#loc282 = loc("initial_states_ptr"(#loc))
#loc283 = loc("cache_indices_ptr"(#loc))
#loc284 = loc("has_initial_states_ptr"(#loc))
#loc285 = loc("query_start_loc_ptr"(#loc))
#loc286 = loc("batch_ptr"(#loc))
#loc287 = loc("token_chunk_offset_ptr"(#loc))
#loc288 = loc("o_ptr"(#loc))
#loc289 = loc("stride_x_token"(#loc))
#loc290 = loc("stride_o_token"(#loc))
module {
  tt.func public @_causal_conv1d_fwd_kernel(%x_ptr: !tt.ptr<f16> {tt.divisibility = 16 : i32} loc("x_ptr"(#loc)), %w_ptr: !tt.ptr<f16> {tt.divisibility = 16 : i32} loc("w_ptr"(#loc)), %initial_states_ptr: !tt.ptr<f16> {tt.divisibility = 16 : i32} loc("initial_states_ptr"(#loc)), %cache_indices_ptr: !tt.ptr<i32> {tt.divisibility = 16 : i32} loc("cache_indices_ptr"(#loc)), %has_initial_states_ptr: !tt.ptr<i1> {tt.divisibility = 16 : i32} loc("has_initial_states_ptr"(#loc)), %query_start_loc_ptr: !tt.ptr<i32> {tt.divisibility = 16 : i32} loc("query_start_loc_ptr"(#loc)), %batch_ptr: !tt.ptr<i32> {tt.divisibility = 16 : i32} loc("batch_ptr"(#loc)), %token_chunk_offset_ptr: !tt.ptr<i32> {tt.divisibility = 16 : i32} loc("token_chunk_offset_ptr"(#loc)), %o_ptr: !tt.ptr<f16> {tt.divisibility = 16 : i32} loc("o_ptr"(#loc)), %stride_x_token: i64 {tt.divisibility = 16 : i32} loc("stride_x_token"(#loc)), %stride_o_token: i64 {tt.divisibility = 16 : i32} loc("stride_o_token"(#loc))) attributes {noinline = false} {
    %stride_conv_state_seq = arith.constant 536576 : i32 loc(#loc291)
    %stride_conv_state_dim = arith.constant 1 : i32 loc(#loc292)
    %stride_conv_state_tok = arith.constant 4096 : i32 loc(#loc293)
    %state_len = arith.constant 3 : i32 loc(#loc294)
    %idx_seq = tt.get_program_id x : i32 loc(#loc295)
    %idx_seq_0 = tt.addptr %batch_ptr, %idx_seq : !tt.ptr<i32>, i32 loc(#loc296)
    %idx_seq_1 = tt.load %idx_seq_0 : !tt.ptr<i32> loc(#loc297)
    %idx_seq_2 = arith.extsi %idx_seq_1 : i32 to i64 loc(#loc298)
    %chunk_offset = tt.get_program_id x : i32 loc(#loc299)
    %chunk_offset_3 = tt.addptr %token_chunk_offset_ptr, %chunk_offset : !tt.ptr<i32>, i32 loc(#loc300)
    %chunk_offset_4 = tt.load %chunk_offset_3 : !tt.ptr<i32> loc(#loc301)
    %idx_feats = tt.get_program_id y : i32 loc(#loc302)
    %idx_feats_5 = arith.constant 256 : i32 loc(#loc303)
    %idx_feats_6 = arith.constant 256 : i32 loc(#loc303)
    %idx_feats_7 = arith.extsi %idx_feats : i32 to i64 loc(#loc303)
    %idx_feats_8 = arith.extsi %idx_feats_6 : i32 to i64 loc(#loc303)
    %idx_feats_9 = arith.muli %idx_feats_7, %idx_feats_8 : i64 loc(#loc303)
    %idx_feats_10 = arith.constant 2147483647 : i64 loc(#loc303)
    %idx_feats_11 = arith.constant -2147483648 : i64 loc(#loc303)
    %idx_feats_12 = arith.cmpi sle, %idx_feats_9, %idx_feats_10 : i64 loc(#loc303)
    %idx_feats_13 = arith.cmpi sge, %idx_feats_9, %idx_feats_11 : i64 loc(#loc303)
    %idx_feats_14 = arith.andi %idx_feats_12, %idx_feats_13 : i1 loc(#loc303)
    %idx_feats_15 = arith.muli %idx_feats, %idx_feats_6 : i32 loc(#loc303)
    %idx_feats_16 = tt.make_range {end = 256 : i32, start = 0 : i32} : tensor<256xi32> loc(#loc304)
    %idx_feats_17 = tt.splat %idx_feats_15 : i32 -> tensor<256xi32> loc(#loc305)
    %idx_feats_18 = arith.extsi %idx_feats_17 : tensor<256xi32> to tensor<256xi64> loc(#loc305)
    %idx_feats_19 = arith.extsi %idx_feats_16 : tensor<256xi32> to tensor<256xi64> loc(#loc305)
    %idx_feats_20 = arith.addi %idx_feats_18, %idx_feats_19 : tensor<256xi64> loc(#loc305)
    %idx_feats_21 = arith.constant 2147483647 : i64 loc(#loc305)
    %idx_feats_22 = arith.constant -2147483648 : i64 loc(#loc305)
    %idx_feats_23 = arith.constant dense<2147483647> : tensor<256xi64> loc(#loc305)
    %idx_feats_24 = arith.cmpi sle, %idx_feats_20, %idx_feats_23 : tensor<256xi64> loc(#loc305)
    %idx_feats_25 = arith.constant dense<-2147483648> : tensor<256xi64> loc(#loc305)
    %idx_feats_26 = arith.cmpi sge, %idx_feats_20, %idx_feats_25 : tensor<256xi64> loc(#loc305)
    %idx_feats_27 = arith.andi %idx_feats_24, %idx_feats_26 : tensor<256xi1> loc(#loc305)
    %idx_feats_28 = arith.addi %idx_feats_17, %idx_feats_16 : tensor<256xi32> loc(#loc305)
    %c-1_i32 = arith.constant -1 : i32 loc(#loc16)
    %0 = arith.extsi %c-1_i32 : i32 to i64 loc(#loc16)
    %1 = arith.cmpi eq, %idx_seq_2, %0 : i64 loc(#loc16)
    cf.cond_br %1, ^bb1, ^bb2 loc(#loc16)
  ^bb1:  // pred: ^bb0
    tt.return loc(#loc17)
  ^bb2:  // pred: ^bb0
    cf.br ^bb4 loc(#loc)
  ^bb3:  // no predecessors
    cf.br ^bb4 loc(#loc)
  ^bb4:  // 2 preds: ^bb2, ^bb3
    %sequence_start_index = tt.addptr %query_start_loc_ptr, %idx_seq_2 : !tt.ptr<i32>, i64 loc(#loc306)
    %sequence_start_index_29 = tt.load %sequence_start_index : !tt.ptr<i32> loc(#loc307)
    %sequence_end_index = tt.addptr %query_start_loc_ptr, %idx_seq_2 : !tt.ptr<i32>, i64 loc(#loc308)
    %sequence_end_index_30 = arith.constant 1 : i32 loc(#loc309)
    %sequence_end_index_31 = tt.addptr %sequence_end_index, %sequence_end_index_30 : !tt.ptr<i32>, i32 loc(#loc309)
    %sequence_end_index_32 = tt.load %sequence_end_index_31 : !tt.ptr<i32> loc(#loc310)
    %seqlen = arith.extsi %sequence_end_index_32 : i32 to i64 loc(#loc311)
    %seqlen_33 = arith.extsi %sequence_start_index_29 : i32 to i64 loc(#loc311)
    %seqlen_34 = arith.subi %seqlen, %seqlen_33 : i64 loc(#loc311)
    %seqlen_35 = arith.constant 2147483647 : i64 loc(#loc311)
    %seqlen_36 = arith.constant -2147483648 : i64 loc(#loc311)
    %seqlen_37 = arith.cmpi sle, %seqlen_34, %seqlen_35 : i64 loc(#loc311)
    %seqlen_38 = arith.cmpi sge, %seqlen_34, %seqlen_36 : i64 loc(#loc311)
    %seqlen_39 = arith.andi %seqlen_37, %seqlen_38 : i1 loc(#loc311)
    %seqlen_40 = arith.subi %sequence_end_index_32, %sequence_start_index_29 : i32 loc(#loc311)
    %n_block_to_fill = arith.constant 0 : i32 loc(#loc312)
    %current_last_index = arith.constant 0 : i32 loc(#loc313)
    %conv_state_init_index = arith.constant 0 : i32 loc(#loc314)
    %current_first_index = arith.constant 0 : i32 loc(#loc315)
    %last_full_block_token_index = arith.constant 0 : i32 loc(#loc316)
    %token_offset = arith.constant 8 : i32 loc(#loc317)
    %token_offset_41 = arith.constant 8 : i32 loc(#loc317)
    %token_offset_42 = arith.extsi %token_offset_41 : i32 to i64 loc(#loc317)
    %token_offset_43 = arith.extsi %chunk_offset_4 : i32 to i64 loc(#loc317)
    %token_offset_44 = arith.muli %token_offset_42, %token_offset_43 : i64 loc(#loc317)
    %token_offset_45 = arith.constant 2147483647 : i64 loc(#loc317)
    %token_offset_46 = arith.constant -2147483648 : i64 loc(#loc317)
    %token_offset_47 = arith.cmpi sle, %token_offset_44, %token_offset_45 : i64 loc(#loc317)
    %token_offset_48 = arith.cmpi sge, %token_offset_44, %token_offset_46 : i64 loc(#loc317)
    %token_offset_49 = arith.andi %token_offset_47, %token_offset_48 : i1 loc(#loc317)
    %token_offset_50 = arith.muli %token_offset_41, %chunk_offset_4 : i32 loc(#loc317)
    %segment_len = arith.extsi %seqlen_40 : i32 to i64 loc(#loc318)
    %segment_len_51 = arith.extsi %token_offset_50 : i32 to i64 loc(#loc318)
    %segment_len_52 = arith.subi %segment_len, %segment_len_51 : i64 loc(#loc318)
    %segment_len_53 = arith.constant 2147483647 : i64 loc(#loc318)
    %segment_len_54 = arith.constant -2147483648 : i64 loc(#loc318)
    %segment_len_55 = arith.cmpi sle, %segment_len_52, %segment_len_53 : i64 loc(#loc318)
    %segment_len_56 = arith.cmpi sge, %segment_len_52, %segment_len_54 : i64 loc(#loc318)
    %segment_len_57 = arith.andi %segment_len_55, %segment_len_56 : i1 loc(#loc318)
    %segment_len_58 = arith.subi %seqlen_40, %token_offset_50 : i32 loc(#loc318)
    %segment_len_59 = arith.constant 8 : i32 loc(#loc319)
    %segment_len_60 = arith.minsi %segment_len_59, %segment_len_58 : i32 loc(#loc319)
    %x_base = arith.extsi %sequence_start_index_29 : i32 to i64 loc(#loc320)
    %x_base_61 = arith.muli %x_base, %stride_x_token : i64 loc(#loc320)
    %x_base_62 = tt.addptr %x_ptr, %x_base_61 : !tt.ptr<f16>, i64 loc(#loc321)
    %x_base_63 = arith.constant 1 : i32 loc(#loc322)
    %x_base_64 = arith.constant 1 : i32 loc(#loc322)
    %x_base_65 = arith.constant dense<1> : tensor<256xi32> loc(#loc322)
    %x_base_66 = arith.extsi %idx_feats_28 : tensor<256xi32> to tensor<256xi64> loc(#loc322)
    %x_base_67 = arith.extsi %x_base_65 : tensor<256xi32> to tensor<256xi64> loc(#loc322)
    %x_base_68 = arith.muli %x_base_66, %x_base_67 : tensor<256xi64> loc(#loc322)
    %x_base_69 = arith.constant 2147483647 : i64 loc(#loc322)
    %x_base_70 = arith.constant -2147483648 : i64 loc(#loc322)
    %x_base_71 = arith.constant dense<2147483647> : tensor<256xi64> loc(#loc322)
    %x_base_72 = arith.cmpi sle, %x_base_68, %x_base_71 : tensor<256xi64> loc(#loc322)
    %x_base_73 = arith.constant dense<-2147483648> : tensor<256xi64> loc(#loc322)
    %x_base_74 = arith.cmpi sge, %x_base_68, %x_base_73 : tensor<256xi64> loc(#loc322)
    %x_base_75 = arith.andi %x_base_72, %x_base_74 : tensor<256xi1> loc(#loc322)
    %x_base_76 = arith.muli %idx_feats_28, %x_base_65 : tensor<256xi32> loc(#loc322)
    %x_base_77 = tt.splat %x_base_62 : !tt.ptr<f16> -> tensor<256x!tt.ptr<f16>> loc(#loc323)
    %x_base_78 = tt.addptr %x_base_77, %x_base_76 : tensor<256x!tt.ptr<f16>>, tensor<256xi32> loc(#loc323)
    %conv_states_input_coord = arith.constant 1 : i32 loc(#loc324)
    %conv_states_input_coord_79 = arith.constant 1 : i64 loc(#loc324)
    %conv_states_input_coord_80 = arith.muli %idx_seq_2, %conv_states_input_coord_79 : i64 loc(#loc324)
    %conv_states_input_coord_81 = tt.addptr %cache_indices_ptr, %conv_states_input_coord_80 : !tt.ptr<i32>, i64 loc(#loc325)
    %conv_states_input_coord_82 = tt.addptr %conv_states_input_coord_81, %conv_state_init_index : !tt.ptr<i32>, i32 loc(#loc326)
    %conv_states_input_coord_83 = tt.load %conv_states_input_coord_82 : !tt.ptr<i32> loc(#loc327)
    %conv_states_input_coord_84 = arith.extsi %conv_states_input_coord_83 : i32 to i64 loc(#loc328)
    %c0_i32 = arith.constant 0 : i32 loc(#loc41)
    %2 = arith.extsi %c0_i32 : i32 to i64 loc(#loc41)
    %3 = arith.cmpi eq, %conv_states_input_coord_84, %2 : i64 loc(#loc41)
    cf.cond_br %3, ^bb5, ^bb6 loc(#loc41)
  ^bb5:  // pred: ^bb4
    tt.return loc(#loc42)
  ^bb6:  // pred: ^bb4
    cf.br ^bb8 loc(#loc)
  ^bb7:  // no predecessors
    cf.br ^bb8 loc(#loc)
  ^bb8:  // 2 preds: ^bb6, ^bb7
    %conv_states_base = arith.extsi %stride_conv_state_seq : i32 to i64 loc(#loc329)
    %conv_states_base_85 = arith.muli %conv_states_input_coord_84, %conv_states_base : i64 loc(#loc329)
    %conv_states_base_86 = tt.addptr %initial_states_ptr, %conv_states_base_85 : !tt.ptr<f16>, i64 loc(#loc330)
    %conv_states_base_87 = arith.constant dense<1> : tensor<256xi32> loc(#loc331)
    %conv_states_base_88 = arith.extsi %idx_feats_28 : tensor<256xi32> to tensor<256xi64> loc(#loc331)
    %conv_states_base_89 = arith.extsi %conv_states_base_87 : tensor<256xi32> to tensor<256xi64> loc(#loc331)
    %conv_states_base_90 = arith.muli %conv_states_base_88, %conv_states_base_89 : tensor<256xi64> loc(#loc331)
    %conv_states_base_91 = arith.constant 2147483647 : i64 loc(#loc331)
    %conv_states_base_92 = arith.constant -2147483648 : i64 loc(#loc331)
    %conv_states_base_93 = arith.constant dense<2147483647> : tensor<256xi64> loc(#loc331)
    %conv_states_base_94 = arith.cmpi sle, %conv_states_base_90, %conv_states_base_93 : tensor<256xi64> loc(#loc331)
    %conv_states_base_95 = arith.constant dense<-2147483648> : tensor<256xi64> loc(#loc331)
    %conv_states_base_96 = arith.cmpi sge, %conv_states_base_90, %conv_states_base_95 : tensor<256xi64> loc(#loc331)
    %conv_states_base_97 = arith.andi %conv_states_base_94, %conv_states_base_96 : tensor<256xi1> loc(#loc331)
    %conv_states_base_98 = arith.muli %idx_feats_28, %conv_states_base_87 : tensor<256xi32> loc(#loc331)
    %conv_states_base_99 = tt.splat %conv_states_base_86 : !tt.ptr<f16> -> tensor<256x!tt.ptr<f16>> loc(#loc332)
    %conv_states_base_100 = tt.addptr %conv_states_base_99, %conv_states_base_98 : tensor<256x!tt.ptr<f16>>, tensor<256xi32> loc(#loc332)
    %w_base = arith.constant 4 : i32 loc(#loc333)
    %w_base_101 = arith.constant 4 : i32 loc(#loc333)
    %w_base_102 = arith.constant dense<4> : tensor<256xi32> loc(#loc333)
    %w_base_103 = arith.extsi %idx_feats_28 : tensor<256xi32> to tensor<256xi64> loc(#loc333)
    %w_base_104 = arith.extsi %w_base_102 : tensor<256xi32> to tensor<256xi64> loc(#loc333)
    %w_base_105 = arith.muli %w_base_103, %w_base_104 : tensor<256xi64> loc(#loc333)
    %w_base_106 = arith.constant 2147483647 : i64 loc(#loc333)
    %w_base_107 = arith.constant -2147483648 : i64 loc(#loc333)
    %w_base_108 = arith.constant dense<2147483647> : tensor<256xi64> loc(#loc333)
    %w_base_109 = arith.cmpi sle, %w_base_105, %w_base_108 : tensor<256xi64> loc(#loc333)
    %w_base_110 = arith.constant dense<-2147483648> : tensor<256xi64> loc(#loc333)
    %w_base_111 = arith.cmpi sge, %w_base_105, %w_base_110 : tensor<256xi64> loc(#loc333)
    %w_base_112 = arith.andi %w_base_109, %w_base_111 : tensor<256xi1> loc(#loc333)
    %w_base_113 = arith.muli %idx_feats_28, %w_base_102 : tensor<256xi32> loc(#loc333)
    %w_base_114 = tt.splat %w_ptr : !tt.ptr<f16> -> tensor<256x!tt.ptr<f16>> loc(#loc334)
    %w_base_115 = tt.addptr %w_base_114, %w_base_113 : tensor<256x!tt.ptr<f16>>, tensor<256xi32> loc(#loc334)
    %c0_i32_116 = arith.constant 0 : i32 loc(#loc49)
    %4 = arith.cmpi eq, %chunk_offset_4, %c0_i32_116 : i32 loc(#loc49)
    %5:4 = scf.if %4 -> (tensor<256xf16>, tensor<256xf16>, tensor<256xf16>, i1) {
      %load_init_state = tt.addptr %has_initial_states_ptr, %idx_seq_2 : !tt.ptr<i1>, i64 loc(#loc335)
      %load_init_state_148 = tt.bitcast %load_init_state : !tt.ptr<i1> -> !tt.ptr<i8> loc(#loc336)
      %load_init_state_149 = tt.load %load_init_state_148 : !tt.ptr<i8> loc(#loc336)
      %load_init_state_150 = arith.constant 0 : i8 loc(#loc336)
      %load_init_state_151 = arith.cmpi ne, %load_init_state_149, %load_init_state_150 : i8 loc(#loc545)
      %col2_152:3 = scf.if %load_init_state_151 -> (tensor<256xf16>, tensor<256xf16>, tensor<256xf16>) {
        %prior_tokens = arith.constant 1 : i32 loc(#loc338)
        %prior_tokens_153 = arith.constant 1 : i32 loc(#loc338)
        %prior_tokens_154 = arith.extsi %state_len : i32 to i64 loc(#loc338)
        %prior_tokens_155 = arith.extsi %prior_tokens_153 : i32 to i64 loc(#loc338)
        %prior_tokens_156 = arith.subi %prior_tokens_154, %prior_tokens_155 : i64 loc(#loc338)
        %prior_tokens_157 = arith.constant 2147483647 : i64 loc(#loc338)
        %prior_tokens_158 = arith.constant -2147483648 : i64 loc(#loc338)
        %prior_tokens_159 = arith.cmpi sle, %prior_tokens_156, %prior_tokens_157 : i64 loc(#loc338)
        %prior_tokens_160 = arith.cmpi sge, %prior_tokens_156, %prior_tokens_158 : i64 loc(#loc338)
        %prior_tokens_161 = arith.andi %prior_tokens_159, %prior_tokens_160 : i1 loc(#loc338)
        %prior_tokens_162 = arith.subi %state_len, %prior_tokens_153 : i32 loc(#loc338)
        %prior_tokens_163 = arith.extsi %prior_tokens_162 : i32 to i64 loc(#loc339)
        %prior_tokens_164 = arith.extsi %stride_conv_state_tok : i32 to i64 loc(#loc339)
        %prior_tokens_165 = arith.muli %prior_tokens_163, %prior_tokens_164 : i64 loc(#loc339)
        %prior_tokens_166 = arith.constant 2147483647 : i64 loc(#loc339)
        %prior_tokens_167 = arith.constant -2147483648 : i64 loc(#loc339)
        %prior_tokens_168 = arith.cmpi sle, %prior_tokens_165, %prior_tokens_166 : i64 loc(#loc339)
        %prior_tokens_169 = arith.cmpi sge, %prior_tokens_165, %prior_tokens_167 : i64 loc(#loc339)
        %prior_tokens_170 = arith.andi %prior_tokens_168, %prior_tokens_169 : i1 loc(#loc339)
        %prior_tokens_171 = arith.muli %prior_tokens_162, %stride_conv_state_tok : i32 loc(#loc339)
        %prior_tokens_172 = tt.splat %prior_tokens_171 : i32 -> tensor<256xi32> loc(#loc340)
        %prior_tokens_173 = tt.addptr %conv_states_base_100, %prior_tokens_172 : tensor<256x!tt.ptr<f16>>, tensor<256xi32> loc(#loc340)
        %mask_w_174 = arith.constant 4096 : i32 loc(#loc341)
        %mask_w_175 = arith.constant dense<4096> : tensor<256xi32> loc(#loc341)
        %mask_w_176 = arith.cmpi slt, %idx_feats_28, %mask_w_175 : tensor<256xi32> loc(#loc341)
        %col2_177 = arith.constant 0.000000e+00 : f32 loc(#loc342)
        %col2_178 = arith.constant dense<0.000000e+00> : tensor<256xf32> loc(#loc342)
        %col2_179 = arith.truncf %col2_178 : tensor<256xf32> to tensor<256xf16> loc(#loc342)
        %col2_180 = tt.load %prior_tokens_173, %mask_w_176, %col2_179 : tensor<256x!tt.ptr<f16>> loc(#loc547)
        %conv_states_ptrs = arith.constant 1 : i32 loc(#loc343)
        %conv_states_ptrs_181 = arith.constant 1 : i32 loc(#loc343)
        %conv_states_ptrs_182 = arith.extsi %conv_states_ptrs_181 : i32 to i64 loc(#loc343)
        %conv_states_ptrs_183 = arith.extsi %stride_conv_state_tok : i32 to i64 loc(#loc343)
        %conv_states_ptrs_184 = arith.muli %conv_states_ptrs_182, %conv_states_ptrs_183 : i64 loc(#loc343)
        %conv_states_ptrs_185 = arith.constant 2147483647 : i64 loc(#loc343)
        %conv_states_ptrs_186 = arith.constant -2147483648 : i64 loc(#loc343)
        %conv_states_ptrs_187 = arith.cmpi sle, %conv_states_ptrs_184, %conv_states_ptrs_185 : i64 loc(#loc343)
        %conv_states_ptrs_188 = arith.cmpi sge, %conv_states_ptrs_184, %conv_states_ptrs_186 : i64 loc(#loc343)
        %conv_states_ptrs_189 = arith.andi %conv_states_ptrs_187, %conv_states_ptrs_188 : i1 loc(#loc343)
        %conv_states_ptrs_190 = arith.muli %conv_states_ptrs_181, %stride_conv_state_tok : i32 loc(#loc343)
        %conv_states_ptrs_191 = tt.splat %conv_states_ptrs_190 : i32 -> tensor<256xi32> loc(#loc344)
        %conv_states_ptrs_192 = arith.constant 0 : i32 loc(#loc344)
        %conv_states_ptrs_193 = arith.constant dense<0> : tensor<256xi32> loc(#loc344)
        %conv_states_ptrs_194 = arith.extsi %conv_states_ptrs_193 : tensor<256xi32> to tensor<256xi64> loc(#loc344)
        %conv_states_ptrs_195 = arith.extsi %conv_states_ptrs_191 : tensor<256xi32> to tensor<256xi64> loc(#loc344)
        %conv_states_ptrs_196 = arith.subi %conv_states_ptrs_194, %conv_states_ptrs_195 : tensor<256xi64> loc(#loc344)
        %conv_states_ptrs_197 = arith.constant 2147483647 : i64 loc(#loc344)
        %conv_states_ptrs_198 = arith.constant -2147483648 : i64 loc(#loc344)
        %conv_states_ptrs_199 = arith.constant dense<2147483647> : tensor<256xi64> loc(#loc344)
        %conv_states_ptrs_200 = arith.cmpi sle, %conv_states_ptrs_196, %conv_states_ptrs_199 : tensor<256xi64> loc(#loc344)
        %conv_states_ptrs_201 = arith.constant dense<-2147483648> : tensor<256xi64> loc(#loc344)
        %conv_states_ptrs_202 = arith.cmpi sge, %conv_states_ptrs_196, %conv_states_ptrs_201 : tensor<256xi64> loc(#loc344)
        %conv_states_ptrs_203 = arith.andi %conv_states_ptrs_200, %conv_states_ptrs_202 : tensor<256xi1> loc(#loc344)
        %conv_states_ptrs_204 = arith.subi %conv_states_ptrs_193, %conv_states_ptrs_191 : tensor<256xi32> loc(#loc344)
        %conv_states_ptrs_205 = tt.addptr %prior_tokens_173, %conv_states_ptrs_204 : tensor<256x!tt.ptr<f16>>, tensor<256xi32> loc(#loc344)
        %col1 = arith.constant 0.000000e+00 : f32 loc(#loc345)
        %col1_206 = arith.constant dense<0.000000e+00> : tensor<256xf32> loc(#loc345)
        %col1_207 = arith.truncf %col1_206 : tensor<256xf32> to tensor<256xf16> loc(#loc345)
        %col1_208 = tt.load %conv_states_ptrs_205, %mask_w_176, %col1_207 : tensor<256x!tt.ptr<f16>> loc(#loc548)
        %conv_states_ptrs_209 = arith.constant 2 : i32 loc(#loc346)
        %conv_states_ptrs_210 = arith.constant 2 : i32 loc(#loc346)
        %conv_states_ptrs_211 = arith.extsi %conv_states_ptrs_210 : i32 to i64 loc(#loc346)
        %conv_states_ptrs_212 = arith.extsi %stride_conv_state_tok : i32 to i64 loc(#loc346)
        %conv_states_ptrs_213 = arith.muli %conv_states_ptrs_211, %conv_states_ptrs_212 : i64 loc(#loc346)
        %conv_states_ptrs_214 = arith.constant 2147483647 : i64 loc(#loc346)
        %conv_states_ptrs_215 = arith.constant -2147483648 : i64 loc(#loc346)
        %conv_states_ptrs_216 = arith.cmpi sle, %conv_states_ptrs_213, %conv_states_ptrs_214 : i64 loc(#loc346)
        %conv_states_ptrs_217 = arith.cmpi sge, %conv_states_ptrs_213, %conv_states_ptrs_215 : i64 loc(#loc346)
        %conv_states_ptrs_218 = arith.andi %conv_states_ptrs_216, %conv_states_ptrs_217 : i1 loc(#loc346)
        %conv_states_ptrs_219 = arith.muli %conv_states_ptrs_210, %stride_conv_state_tok : i32 loc(#loc346)
        %conv_states_ptrs_220 = tt.splat %conv_states_ptrs_219 : i32 -> tensor<256xi32> loc(#loc347)
        %conv_states_ptrs_221 = arith.constant 0 : i32 loc(#loc347)
        %conv_states_ptrs_222 = arith.constant dense<0> : tensor<256xi32> loc(#loc347)
        %conv_states_ptrs_223 = arith.extsi %conv_states_ptrs_222 : tensor<256xi32> to tensor<256xi64> loc(#loc347)
        %conv_states_ptrs_224 = arith.extsi %conv_states_ptrs_220 : tensor<256xi32> to tensor<256xi64> loc(#loc347)
        %conv_states_ptrs_225 = arith.subi %conv_states_ptrs_223, %conv_states_ptrs_224 : tensor<256xi64> loc(#loc347)
        %conv_states_ptrs_226 = arith.constant 2147483647 : i64 loc(#loc347)
        %conv_states_ptrs_227 = arith.constant -2147483648 : i64 loc(#loc347)
        %conv_states_ptrs_228 = arith.constant dense<2147483647> : tensor<256xi64> loc(#loc347)
        %conv_states_ptrs_229 = arith.cmpi sle, %conv_states_ptrs_225, %conv_states_ptrs_228 : tensor<256xi64> loc(#loc347)
        %conv_states_ptrs_230 = arith.constant dense<-2147483648> : tensor<256xi64> loc(#loc347)
        %conv_states_ptrs_231 = arith.cmpi sge, %conv_states_ptrs_225, %conv_states_ptrs_230 : tensor<256xi64> loc(#loc347)
        %conv_states_ptrs_232 = arith.andi %conv_states_ptrs_229, %conv_states_ptrs_231 : tensor<256xi1> loc(#loc347)
        %conv_states_ptrs_233 = arith.subi %conv_states_ptrs_222, %conv_states_ptrs_220 : tensor<256xi32> loc(#loc347)
        %conv_states_ptrs_234 = tt.addptr %prior_tokens_173, %conv_states_ptrs_233 : tensor<256x!tt.ptr<f16>>, tensor<256xi32> loc(#loc347)
        %col0 = arith.constant 0.000000e+00 : f32 loc(#loc348)
        %col0_235 = arith.constant dense<0.000000e+00> : tensor<256xf32> loc(#loc348)
        %col0_236 = arith.truncf %col0_235 : tensor<256xf32> to tensor<256xf16> loc(#loc348)
        %col0_237 = tt.load %conv_states_ptrs_234, %mask_w_176, %col0_236 : tensor<256x!tt.ptr<f16>> loc(#loc549)
        scf.yield %col0_237, %col1_208, %col2_180 : tensor<256xf16>, tensor<256xf16>, tensor<256xf16> loc(#loc549)
      } else {
        %col0 = tt.call @"triton.language.standard.zeros____(0, 0)cconstexpr_256__(1,)cconstexpr_fp16_"() : () -> tensor<256xf16> loc(#loc550)
        %col1 = tt.call @"triton.language.standard.zeros____(0, 0)cconstexpr_256__(1,)cconstexpr_fp16_"() : () -> tensor<256xf16> loc(#loc551)
        %col2_153 = tt.call @"triton.language.standard.zeros____(0, 0)cconstexpr_256__(1,)cconstexpr_fp16_"() : () -> tensor<256xf16> loc(#loc552)
        scf.yield %col0, %col1, %col2_153 : tensor<256xf16>, tensor<256xf16>, tensor<256xf16> loc(#loc351)
      } loc(#loc578)
      %10 = arith.cmpi sle, %state_len, %seqlen_40 : i32 loc(#loc68)
      %11:5 = scf.if %10 -> (tensor<4x256x!tt.ptr<f16>>, tensor<4xi32>, tensor<4x256xi1>, tensor<4x256xi1>, tensor<4x256x!tt.ptr<f16>>) {
        %idx_tokens_last = arith.extsi %seqlen_40 : i32 to i64 loc(#loc352)
        %idx_tokens_last_153 = arith.extsi %state_len : i32 to i64 loc(#loc352)
        %idx_tokens_last_154 = arith.subi %idx_tokens_last, %idx_tokens_last_153 : i64 loc(#loc352)
        %idx_tokens_last_155 = arith.constant 2147483647 : i64 loc(#loc352)
        %idx_tokens_last_156 = arith.constant -2147483648 : i64 loc(#loc352)
        %idx_tokens_last_157 = arith.cmpi sle, %idx_tokens_last_154, %idx_tokens_last_155 : i64 loc(#loc352)
        %idx_tokens_last_158 = arith.cmpi sge, %idx_tokens_last_154, %idx_tokens_last_156 : i64 loc(#loc352)
        %idx_tokens_last_159 = arith.andi %idx_tokens_last_157, %idx_tokens_last_158 : i1 loc(#loc352)
        %idx_tokens_last_160 = arith.subi %seqlen_40, %state_len : i32 loc(#loc352)
        %idx_tokens_last_161 = tt.make_range {end = 4 : i32, start = 0 : i32} : tensor<4xi32> loc(#loc353)
        %idx_tokens_last_162 = tt.splat %idx_tokens_last_160 : i32 -> tensor<4xi32> loc(#loc354)
        %idx_tokens_last_163 = arith.extsi %idx_tokens_last_162 : tensor<4xi32> to tensor<4xi64> loc(#loc354)
        %idx_tokens_last_164 = arith.extsi %idx_tokens_last_161 : tensor<4xi32> to tensor<4xi64> loc(#loc354)
        %idx_tokens_last_165 = arith.addi %idx_tokens_last_163, %idx_tokens_last_164 : tensor<4xi64> loc(#loc354)
        %idx_tokens_last_166 = arith.constant 2147483647 : i64 loc(#loc354)
        %idx_tokens_last_167 = arith.constant -2147483648 : i64 loc(#loc354)
        %idx_tokens_last_168 = arith.constant dense<2147483647> : tensor<4xi64> loc(#loc354)
        %idx_tokens_last_169 = arith.cmpi sle, %idx_tokens_last_165, %idx_tokens_last_168 : tensor<4xi64> loc(#loc354)
        %idx_tokens_last_170 = arith.constant dense<-2147483648> : tensor<4xi64> loc(#loc354)
        %idx_tokens_last_171 = arith.cmpi sge, %idx_tokens_last_165, %idx_tokens_last_170 : tensor<4xi64> loc(#loc354)
        %idx_tokens_last_172 = arith.andi %idx_tokens_last_169, %idx_tokens_last_171 : tensor<4xi1> loc(#loc354)
        %idx_tokens_last_173 = arith.addi %idx_tokens_last_162, %idx_tokens_last_161 : tensor<4xi32> loc(#loc354)
        %x_ptrs = tt.splat %sequence_start_index_29 : i32 -> tensor<4xi32> loc(#loc355)
        %x_ptrs_174 = arith.extsi %x_ptrs : tensor<4xi32> to tensor<4xi64> loc(#loc355)
        %x_ptrs_175 = arith.extsi %idx_tokens_last_173 : tensor<4xi32> to tensor<4xi64> loc(#loc355)
        %x_ptrs_176 = arith.addi %x_ptrs_174, %x_ptrs_175 : tensor<4xi64> loc(#loc355)
        %x_ptrs_177 = arith.constant 2147483647 : i64 loc(#loc355)
        %x_ptrs_178 = arith.constant -2147483648 : i64 loc(#loc355)
        %x_ptrs_179 = arith.constant dense<2147483647> : tensor<4xi64> loc(#loc355)
        %x_ptrs_180 = arith.cmpi sle, %x_ptrs_176, %x_ptrs_179 : tensor<4xi64> loc(#loc355)
        %x_ptrs_181 = arith.constant dense<-2147483648> : tensor<4xi64> loc(#loc355)
        %x_ptrs_182 = arith.cmpi sge, %x_ptrs_176, %x_ptrs_181 : tensor<4xi64> loc(#loc355)
        %x_ptrs_183 = arith.andi %x_ptrs_180, %x_ptrs_182 : tensor<4xi1> loc(#loc355)
        %x_ptrs_184 = arith.addi %x_ptrs, %idx_tokens_last_173 : tensor<4xi32> loc(#loc355)
        %x_ptrs_185 = arith.extsi %x_ptrs_184 : tensor<4xi32> to tensor<4xi64> loc(#loc356)
        %x_ptrs_186 = tt.splat %stride_x_token : i64 -> tensor<4xi64> loc(#loc356)
        %x_ptrs_187 = arith.muli %x_ptrs_185, %x_ptrs_186 : tensor<4xi64> loc(#loc356)
        %x_ptrs_188 = tt.expand_dims %x_ptrs_187 {axis = 1 : i32} : tensor<4xi64> -> tensor<4x1xi64> loc(#loc357)
        %x_ptrs_189 = tt.splat %x_ptr : !tt.ptr<f16> -> tensor<4x1x!tt.ptr<f16>> loc(#loc358)
        %x_ptrs_190 = tt.addptr %x_ptrs_189, %x_ptrs_188 : tensor<4x1x!tt.ptr<f16>>, tensor<4x1xi64> loc(#loc358)
        %x_ptrs_191 = arith.constant 1 : i32 loc(#loc359)
        %x_ptrs_192 = arith.constant 1 : i32 loc(#loc359)
        %x_ptrs_193 = arith.constant dense<1> : tensor<256xi32> loc(#loc359)
        %x_ptrs_194 = arith.extsi %idx_feats_28 : tensor<256xi32> to tensor<256xi64> loc(#loc359)
        %x_ptrs_195 = arith.extsi %x_ptrs_193 : tensor<256xi32> to tensor<256xi64> loc(#loc359)
        %x_ptrs_196 = arith.muli %x_ptrs_194, %x_ptrs_195 : tensor<256xi64> loc(#loc359)
        %x_ptrs_197 = arith.constant 2147483647 : i64 loc(#loc359)
        %x_ptrs_198 = arith.constant -2147483648 : i64 loc(#loc359)
        %x_ptrs_199 = arith.constant dense<2147483647> : tensor<256xi64> loc(#loc359)
        %x_ptrs_200 = arith.cmpi sle, %x_ptrs_196, %x_ptrs_199 : tensor<256xi64> loc(#loc359)
        %x_ptrs_201 = arith.constant dense<-2147483648> : tensor<256xi64> loc(#loc359)
        %x_ptrs_202 = arith.cmpi sge, %x_ptrs_196, %x_ptrs_201 : tensor<256xi64> loc(#loc359)
        %x_ptrs_203 = arith.andi %x_ptrs_200, %x_ptrs_202 : tensor<256xi1> loc(#loc359)
        %x_ptrs_204 = arith.muli %idx_feats_28, %x_ptrs_193 : tensor<256xi32> loc(#loc359)
        %x_ptrs_205 = tt.expand_dims %x_ptrs_204 {axis = 0 : i32} : tensor<256xi32> -> tensor<1x256xi32> loc(#loc360)
        %x_ptrs_206 = tt.broadcast %x_ptrs_190 : tensor<4x1x!tt.ptr<f16>> -> tensor<4x256x!tt.ptr<f16>> loc(#loc361)
        %x_ptrs_207 = tt.broadcast %x_ptrs_205 : tensor<1x256xi32> -> tensor<4x256xi32> loc(#loc361)
        %x_ptrs_208 = tt.addptr %x_ptrs_206, %x_ptrs_207 : tensor<4x256x!tt.ptr<f16>>, tensor<4x256xi32> loc(#loc553)
        %mask_x = arith.constant 0 : i32 loc(#loc362)
        %mask_x_209 = arith.constant dense<0> : tensor<4xi32> loc(#loc362)
        %mask_x_210 = arith.cmpi sge, %idx_tokens_last_173, %mask_x_209 : tensor<4xi32> loc(#loc362)
        %mask_x_211 = tt.expand_dims %mask_x_210 {axis = 1 : i32} : tensor<4xi1> -> tensor<4x1xi1> loc(#loc363)
        %mask_x_212 = tt.splat %seqlen_40 : i32 -> tensor<4xi32> loc(#loc364)
        %mask_x_213 = arith.cmpi slt, %idx_tokens_last_173, %mask_x_212 : tensor<4xi32> loc(#loc364)
        %mask_x_214 = tt.expand_dims %mask_x_213 {axis = 1 : i32} : tensor<4xi1> -> tensor<4x1xi1> loc(#loc365)
        %mask_x_215 = arith.andi %mask_x_211, %mask_x_214 : tensor<4x1xi1> loc(#loc366)
        %mask_x_216 = arith.constant 4096 : i32 loc(#loc367)
        %mask_x_217 = arith.constant dense<4096> : tensor<256xi32> loc(#loc367)
        %mask_x_218 = arith.cmpi slt, %idx_feats_28, %mask_x_217 : tensor<256xi32> loc(#loc367)
        %mask_x_219 = tt.expand_dims %mask_x_218 {axis = 0 : i32} : tensor<256xi1> -> tensor<1x256xi1> loc(#loc368)
        %mask_x_220 = tt.broadcast %mask_x_215 : tensor<4x1xi1> -> tensor<4x256xi1> loc(#loc369)
        %mask_x_221 = tt.broadcast %mask_x_219 : tensor<1x256xi1> -> tensor<4x256xi1> loc(#loc369)
        %mask_x_222 = arith.andi %mask_x_220, %mask_x_221 : tensor<4x256xi1> loc(#loc554)
        %loaded_x = arith.constant 0.000000e+00 : f32 loc(#loc370)
        %loaded_x_223 = arith.constant dense<0.000000e+00> : tensor<4x256xf32> loc(#loc370)
        %loaded_x_224 = arith.truncf %loaded_x_223 : tensor<4x256xf32> to tensor<4x256xf16> loc(#loc370)
        %loaded_x_225 = tt.load %x_ptrs_208, %mask_x_222, %loaded_x_224 : tensor<4x256x!tt.ptr<f16>> loc(#loc370)
        %idx_tokens_conv = tt.make_range {end = 4 : i32, start = 0 : i32} : tensor<4xi32> loc(#loc555)
        %conv_states_output_coord = arith.constant 1 : i32 loc(#loc372)
        %conv_states_output_coord_226 = arith.constant 1 : i64 loc(#loc372)
        %conv_states_output_coord_227 = arith.muli %idx_seq_2, %conv_states_output_coord_226 : i64 loc(#loc372)
        %conv_states_output_coord_228 = tt.addptr %cache_indices_ptr, %conv_states_output_coord_227 : !tt.ptr<i32>, i64 loc(#loc373)
        %conv_states_output_coord_229 = tt.addptr %conv_states_output_coord_228, %current_last_index : !tt.ptr<i32>, i32 loc(#loc374)
        %conv_states_output_coord_230 = tt.load %conv_states_output_coord_229 : !tt.ptr<i32> loc(#loc375)
        %conv_states_output_coord_231 = arith.extsi %conv_states_output_coord_230 : i32 to i64 loc(#loc376)
        %conv_states_ptrs_target = arith.extsi %stride_conv_state_seq : i32 to i64 loc(#loc377)
        %conv_states_ptrs_target_232 = arith.muli %conv_states_output_coord_231, %conv_states_ptrs_target : i64 loc(#loc377)
        %conv_states_ptrs_target_233 = tt.addptr %initial_states_ptr, %conv_states_ptrs_target_232 : !tt.ptr<f16>, i64 loc(#loc378)
        %conv_states_ptrs_target_234 = arith.constant dense<1> : tensor<256xi32> loc(#loc379)
        %conv_states_ptrs_target_235 = arith.extsi %idx_feats_28 : tensor<256xi32> to tensor<256xi64> loc(#loc379)
        %conv_states_ptrs_target_236 = arith.extsi %conv_states_ptrs_target_234 : tensor<256xi32> to tensor<256xi64> loc(#loc379)
        %conv_states_ptrs_target_237 = arith.muli %conv_states_ptrs_target_235, %conv_states_ptrs_target_236 : tensor<256xi64> loc(#loc379)
        %conv_states_ptrs_target_238 = arith.constant 2147483647 : i64 loc(#loc379)
        %conv_states_ptrs_target_239 = arith.constant -2147483648 : i64 loc(#loc379)
        %conv_states_ptrs_target_240 = arith.constant dense<2147483647> : tensor<256xi64> loc(#loc379)
        %conv_states_ptrs_target_241 = arith.cmpi sle, %conv_states_ptrs_target_237, %conv_states_ptrs_target_240 : tensor<256xi64> loc(#loc379)
        %conv_states_ptrs_target_242 = arith.constant dense<-2147483648> : tensor<256xi64> loc(#loc379)
        %conv_states_ptrs_target_243 = arith.cmpi sge, %conv_states_ptrs_target_237, %conv_states_ptrs_target_242 : tensor<256xi64> loc(#loc379)
        %conv_states_ptrs_target_244 = arith.andi %conv_states_ptrs_target_241, %conv_states_ptrs_target_243 : tensor<256xi1> loc(#loc379)
        %conv_states_ptrs_target_245 = arith.muli %idx_feats_28, %conv_states_ptrs_target_234 : tensor<256xi32> loc(#loc379)
        %conv_states_ptrs_target_246 = tt.splat %conv_states_ptrs_target_233 : !tt.ptr<f16> -> tensor<256x!tt.ptr<f16>> loc(#loc380)
        %conv_states_ptrs_target_247 = tt.addptr %conv_states_ptrs_target_246, %conv_states_ptrs_target_245 : tensor<256x!tt.ptr<f16>>, tensor<256xi32> loc(#loc380)
        %conv_states_ptrs_target_248 = tt.expand_dims %conv_states_ptrs_target_247 {axis = 0 : i32} : tensor<256x!tt.ptr<f16>> -> tensor<1x256x!tt.ptr<f16>> loc(#loc381)
        %conv_states_ptrs_target_249 = arith.constant dense<4096> : tensor<4xi32> loc(#loc382)
        %conv_states_ptrs_target_250 = arith.extsi %idx_tokens_conv : tensor<4xi32> to tensor<4xi64> loc(#loc382)
        %conv_states_ptrs_target_251 = arith.extsi %conv_states_ptrs_target_249 : tensor<4xi32> to tensor<4xi64> loc(#loc382)
        %conv_states_ptrs_target_252 = arith.muli %conv_states_ptrs_target_250, %conv_states_ptrs_target_251 : tensor<4xi64> loc(#loc382)
        %conv_states_ptrs_target_253 = arith.constant 2147483647 : i64 loc(#loc382)
        %conv_states_ptrs_target_254 = arith.constant -2147483648 : i64 loc(#loc382)
        %conv_states_ptrs_target_255 = arith.constant dense<2147483647> : tensor<4xi64> loc(#loc382)
        %conv_states_ptrs_target_256 = arith.cmpi sle, %conv_states_ptrs_target_252, %conv_states_ptrs_target_255 : tensor<4xi64> loc(#loc382)
        %conv_states_ptrs_target_257 = arith.constant dense<-2147483648> : tensor<4xi64> loc(#loc382)
        %conv_states_ptrs_target_258 = arith.cmpi sge, %conv_states_ptrs_target_252, %conv_states_ptrs_target_257 : tensor<4xi64> loc(#loc382)
        %conv_states_ptrs_target_259 = arith.andi %conv_states_ptrs_target_256, %conv_states_ptrs_target_258 : tensor<4xi1> loc(#loc382)
        %conv_states_ptrs_target_260 = arith.muli %idx_tokens_conv, %conv_states_ptrs_target_249 : tensor<4xi32> loc(#loc382)
        %conv_states_ptrs_target_261 = tt.expand_dims %conv_states_ptrs_target_260 {axis = 1 : i32} : tensor<4xi32> -> tensor<4x1xi32> loc(#loc383)
        %conv_states_ptrs_target_262 = tt.broadcast %conv_states_ptrs_target_248 : tensor<1x256x!tt.ptr<f16>> -> tensor<4x256x!tt.ptr<f16>> loc(#loc384)
        %conv_states_ptrs_target_263 = tt.broadcast %conv_states_ptrs_target_261 : tensor<4x1xi32> -> tensor<4x256xi32> loc(#loc384)
        %conv_states_ptrs_target_264 = tt.addptr %conv_states_ptrs_target_262, %conv_states_ptrs_target_263 : tensor<4x256x!tt.ptr<f16>>, tensor<4x256xi32> loc(#loc556)
        %mask = arith.constant dense<3> : tensor<4xi32> loc(#loc385)
        %mask_265 = arith.cmpi slt, %idx_tokens_conv, %mask : tensor<4xi32> loc(#loc385)
        %mask_266 = tt.expand_dims %mask_265 {axis = 1 : i32} : tensor<4xi1> -> tensor<4x1xi1> loc(#loc386)
        %mask_267 = arith.constant 4096 : i32 loc(#loc387)
        %mask_268 = arith.constant dense<4096> : tensor<256xi32> loc(#loc387)
        %mask_269 = arith.cmpi slt, %idx_feats_28, %mask_268 : tensor<256xi32> loc(#loc387)
        %mask_270 = tt.expand_dims %mask_269 {axis = 0 : i32} : tensor<256xi1> -> tensor<1x256xi1> loc(#loc388)
        %mask_271 = tt.broadcast %mask_266 : tensor<4x1xi1> -> tensor<4x256xi1> loc(#loc389)
        %mask_272 = tt.broadcast %mask_270 : tensor<1x256xi1> -> tensor<4x256xi1> loc(#loc389)
        %mask_273 = arith.andi %mask_271, %mask_272 : tensor<4x256xi1> loc(#loc557)
        gpu.barrier loc(#loc108)
        tt.store %conv_states_ptrs_target_264, %loaded_x_225, %mask_273 : tensor<4x256x!tt.ptr<f16>> loc(#loc109)
        scf.yield %conv_states_ptrs_target_264, %idx_tokens_conv, %mask_273, %mask_x_222, %x_ptrs_208 : tensor<4x256x!tt.ptr<f16>>, tensor<4xi32>, tensor<4x256xi1>, tensor<4x256xi1>, tensor<4x256x!tt.ptr<f16>> loc(#loc109)
      } else {
        %x_ptrs:7 = scf.if %load_init_state_151 -> (i32, tensor<4x256x!tt.ptr<f16>>, tensor<4xi32>, tensor<4x256xi1>, tensor<4x256xi1>, tensor<4x256xf16>, tensor<4x256x!tt.ptr<f16>>) {
          %idx_tokens_conv = tt.make_range {end = 4 : i32, start = 0 : i32} : tensor<4xi32> loc(#loc559)
          %conv_states_ptrs_source = arith.extsi %stride_conv_state_seq : i32 to i64 loc(#loc392)
          %conv_states_ptrs_source_153 = arith.muli %conv_states_input_coord_84, %conv_states_ptrs_source : i64 loc(#loc392)
          %conv_states_ptrs_source_154 = tt.addptr %initial_states_ptr, %conv_states_ptrs_source_153 : !tt.ptr<f16>, i64 loc(#loc393)
          %conv_states_ptrs_source_155 = arith.constant dense<1> : tensor<256xi32> loc(#loc394)
          %conv_states_ptrs_source_156 = arith.extsi %idx_feats_28 : tensor<256xi32> to tensor<256xi64> loc(#loc394)
          %conv_states_ptrs_source_157 = arith.extsi %conv_states_ptrs_source_155 : tensor<256xi32> to tensor<256xi64> loc(#loc394)
          %conv_states_ptrs_source_158 = arith.muli %conv_states_ptrs_source_156, %conv_states_ptrs_source_157 : tensor<256xi64> loc(#loc394)
          %conv_states_ptrs_source_159 = arith.constant 2147483647 : i64 loc(#loc394)
          %conv_states_ptrs_source_160 = arith.constant -2147483648 : i64 loc(#loc394)
          %conv_states_ptrs_source_161 = arith.constant dense<2147483647> : tensor<256xi64> loc(#loc394)
          %conv_states_ptrs_source_162 = arith.cmpi sle, %conv_states_ptrs_source_158, %conv_states_ptrs_source_161 : tensor<256xi64> loc(#loc394)
          %conv_states_ptrs_source_163 = arith.constant dense<-2147483648> : tensor<256xi64> loc(#loc394)
          %conv_states_ptrs_source_164 = arith.cmpi sge, %conv_states_ptrs_source_158, %conv_states_ptrs_source_163 : tensor<256xi64> loc(#loc394)
          %conv_states_ptrs_source_165 = arith.andi %conv_states_ptrs_source_162, %conv_states_ptrs_source_164 : tensor<256xi1> loc(#loc394)
          %conv_states_ptrs_source_166 = arith.muli %idx_feats_28, %conv_states_ptrs_source_155 : tensor<256xi32> loc(#loc394)
          %conv_states_ptrs_source_167 = tt.expand_dims %conv_states_ptrs_source_166 {axis = 0 : i32} : tensor<256xi32> -> tensor<1x256xi32> loc(#loc395)
          %conv_states_ptrs_source_168 = tt.splat %conv_states_ptrs_source_154 : !tt.ptr<f16> -> tensor<1x256x!tt.ptr<f16>> loc(#loc396)
          %conv_states_ptrs_source_169 = tt.addptr %conv_states_ptrs_source_168, %conv_states_ptrs_source_167 : tensor<1x256x!tt.ptr<f16>>, tensor<1x256xi32> loc(#loc396)
          %conv_states_ptrs_source_170 = tt.splat %seqlen_40 : i32 -> tensor<4xi32> loc(#loc397)
          %conv_states_ptrs_source_171 = arith.extsi %idx_tokens_conv : tensor<4xi32> to tensor<4xi64> loc(#loc397)
          %conv_states_ptrs_source_172 = arith.extsi %conv_states_ptrs_source_170 : tensor<4xi32> to tensor<4xi64> loc(#loc397)
          %conv_states_ptrs_source_173 = arith.addi %conv_states_ptrs_source_171, %conv_states_ptrs_source_172 : tensor<4xi64> loc(#loc397)
          %conv_states_ptrs_source_174 = arith.constant 2147483647 : i64 loc(#loc397)
          %conv_states_ptrs_source_175 = arith.constant -2147483648 : i64 loc(#loc397)
          %conv_states_ptrs_source_176 = arith.constant dense<2147483647> : tensor<4xi64> loc(#loc397)
          %conv_states_ptrs_source_177 = arith.cmpi sle, %conv_states_ptrs_source_173, %conv_states_ptrs_source_176 : tensor<4xi64> loc(#loc397)
          %conv_states_ptrs_source_178 = arith.constant dense<-2147483648> : tensor<4xi64> loc(#loc397)
          %conv_states_ptrs_source_179 = arith.cmpi sge, %conv_states_ptrs_source_173, %conv_states_ptrs_source_178 : tensor<4xi64> loc(#loc397)
          %conv_states_ptrs_source_180 = arith.andi %conv_states_ptrs_source_177, %conv_states_ptrs_source_179 : tensor<4xi1> loc(#loc397)
          %conv_states_ptrs_source_181 = arith.addi %idx_tokens_conv, %conv_states_ptrs_source_170 : tensor<4xi32> loc(#loc397)
          %conv_states_ptrs_source_182 = arith.constant dense<4096> : tensor<4xi32> loc(#loc398)
          %conv_states_ptrs_source_183 = arith.extsi %conv_states_ptrs_source_181 : tensor<4xi32> to tensor<4xi64> loc(#loc398)
          %conv_states_ptrs_source_184 = arith.extsi %conv_states_ptrs_source_182 : tensor<4xi32> to tensor<4xi64> loc(#loc398)
          %conv_states_ptrs_source_185 = arith.muli %conv_states_ptrs_source_183, %conv_states_ptrs_source_184 : tensor<4xi64> loc(#loc398)
          %conv_states_ptrs_source_186 = arith.constant 2147483647 : i64 loc(#loc398)
          %conv_states_ptrs_source_187 = arith.constant -2147483648 : i64 loc(#loc398)
          %conv_states_ptrs_source_188 = arith.constant dense<2147483647> : tensor<4xi64> loc(#loc398)
          %conv_states_ptrs_source_189 = arith.cmpi sle, %conv_states_ptrs_source_185, %conv_states_ptrs_source_188 : tensor<4xi64> loc(#loc398)
          %conv_states_ptrs_source_190 = arith.constant dense<-2147483648> : tensor<4xi64> loc(#loc398)
          %conv_states_ptrs_source_191 = arith.cmpi sge, %conv_states_ptrs_source_185, %conv_states_ptrs_source_190 : tensor<4xi64> loc(#loc398)
          %conv_states_ptrs_source_192 = arith.andi %conv_states_ptrs_source_189, %conv_states_ptrs_source_191 : tensor<4xi1> loc(#loc398)
          %conv_states_ptrs_source_193 = arith.muli %conv_states_ptrs_source_181, %conv_states_ptrs_source_182 : tensor<4xi32> loc(#loc398)
          %conv_states_ptrs_source_194 = tt.expand_dims %conv_states_ptrs_source_193 {axis = 1 : i32} : tensor<4xi32> -> tensor<4x1xi32> loc(#loc399)
          %conv_states_ptrs_source_195 = tt.broadcast %conv_states_ptrs_source_169 : tensor<1x256x!tt.ptr<f16>> -> tensor<4x256x!tt.ptr<f16>> loc(#loc400)
          %conv_states_ptrs_source_196 = tt.broadcast %conv_states_ptrs_source_194 : tensor<4x1xi32> -> tensor<4x256xi32> loc(#loc400)
          %conv_states_ptrs_source_197 = tt.addptr %conv_states_ptrs_source_195, %conv_states_ptrs_source_196 : tensor<4x256x!tt.ptr<f16>>, tensor<4x256xi32> loc(#loc400)
          %mask = arith.constant 199 : i32 loc(#loc401)
          %mask_198 = arith.extsi %mask : i32 to i64 loc(#loc401)
          %mask_199 = arith.cmpi slt, %conv_states_input_coord_84, %mask_198 : i64 loc(#loc401)
          %mask_200 = tt.splat %seqlen_40 : i32 -> tensor<4xi32> loc(#loc402)
          %mask_201 = arith.extsi %idx_tokens_conv : tensor<4xi32> to tensor<4xi64> loc(#loc402)
          %mask_202 = arith.extsi %mask_200 : tensor<4xi32> to tensor<4xi64> loc(#loc402)
          %mask_203 = arith.addi %mask_201, %mask_202 : tensor<4xi64> loc(#loc402)
          %mask_204 = arith.constant 2147483647 : i64 loc(#loc402)
          %mask_205 = arith.constant -2147483648 : i64 loc(#loc402)
          %mask_206 = arith.constant dense<2147483647> : tensor<4xi64> loc(#loc402)
          %mask_207 = arith.cmpi sle, %mask_203, %mask_206 : tensor<4xi64> loc(#loc402)
          %mask_208 = arith.constant dense<-2147483648> : tensor<4xi64> loc(#loc402)
          %mask_209 = arith.cmpi sge, %mask_203, %mask_208 : tensor<4xi64> loc(#loc402)
          %mask_210 = arith.andi %mask_207, %mask_209 : tensor<4xi1> loc(#loc402)
          %mask_211 = arith.addi %idx_tokens_conv, %mask_200 : tensor<4xi32> loc(#loc402)
          %mask_212 = arith.constant dense<3> : tensor<4xi32> loc(#loc403)
          %mask_213 = arith.cmpi slt, %mask_211, %mask_212 : tensor<4xi32> loc(#loc403)
          %mask_214 = tt.expand_dims %mask_213 {axis = 1 : i32} : tensor<4xi1> -> tensor<4x1xi1> loc(#loc404)
          %mask_215 = tt.splat %mask_199 : i1 -> tensor<4x1xi1> loc(#loc405)
          %mask_216 = arith.andi %mask_215, %mask_214 : tensor<4x1xi1> loc(#loc405)
          %mask_217 = arith.constant 4096 : i32 loc(#loc406)
          %mask_218 = arith.constant dense<4096> : tensor<256xi32> loc(#loc406)
          %mask_219 = arith.cmpi slt, %idx_feats_28, %mask_218 : tensor<256xi32> loc(#loc406)
          %mask_220 = tt.expand_dims %mask_219 {axis = 0 : i32} : tensor<256xi1> -> tensor<1x256xi1> loc(#loc407)
          %mask_221 = tt.broadcast %mask_216 : tensor<4x1xi1> -> tensor<4x256xi1> loc(#loc408)
          %mask_222 = tt.broadcast %mask_220 : tensor<1x256xi1> -> tensor<4x256xi1> loc(#loc408)
          %mask_223 = arith.andi %mask_221, %mask_222 : tensor<4x256xi1> loc(#loc408)
          %conv_state = arith.constant 0.000000e+00 : f32 loc(#loc409)
          %conv_state_224 = arith.constant dense<0.000000e+00> : tensor<4x256xf32> loc(#loc409)
          %conv_state_225 = arith.truncf %conv_state_224 : tensor<4x256xf32> to tensor<4x256xf16> loc(#loc409)
          %conv_state_226 = tt.load %conv_states_ptrs_source_197, %mask_223, %conv_state_225 : tensor<4x256x!tt.ptr<f16>> loc(#loc409)
          %VAL = arith.extsi %state_len : i32 to i64 loc(#loc410)
          %VAL_227 = arith.extsi %seqlen_40 : i32 to i64 loc(#loc410)
          %VAL_228 = arith.subi %VAL, %VAL_227 : i64 loc(#loc410)
          %VAL_229 = arith.constant 2147483647 : i64 loc(#loc410)
          %VAL_230 = arith.constant -2147483648 : i64 loc(#loc410)
          %VAL_231 = arith.cmpi sle, %VAL_228, %VAL_229 : i64 loc(#loc410)
          %VAL_232 = arith.cmpi sge, %VAL_228, %VAL_230 : i64 loc(#loc410)
          %VAL_233 = arith.andi %VAL_231, %VAL_232 : i1 loc(#loc410)
          %VAL_234 = arith.subi %state_len, %seqlen_40 : i32 loc(#loc560)
          %x_ptrs_235 = tt.expand_dims %x_base_78 {axis = 0 : i32} : tensor<256x!tt.ptr<f16>> -> tensor<1x256x!tt.ptr<f16>> loc(#loc411)
          %x_ptrs_236 = tt.splat %VAL_234 : i32 -> tensor<4xi32> loc(#loc412)
          %x_ptrs_237 = arith.extsi %idx_tokens_conv : tensor<4xi32> to tensor<4xi64> loc(#loc412)
          %x_ptrs_238 = arith.extsi %x_ptrs_236 : tensor<4xi32> to tensor<4xi64> loc(#loc412)
          %x_ptrs_239 = arith.subi %x_ptrs_237, %x_ptrs_238 : tensor<4xi64> loc(#loc412)
          %x_ptrs_240 = arith.constant 2147483647 : i64 loc(#loc412)
          %x_ptrs_241 = arith.constant -2147483648 : i64 loc(#loc412)
          %x_ptrs_242 = arith.constant dense<2147483647> : tensor<4xi64> loc(#loc412)
          %x_ptrs_243 = arith.cmpi sle, %x_ptrs_239, %x_ptrs_242 : tensor<4xi64> loc(#loc412)
          %x_ptrs_244 = arith.constant dense<-2147483648> : tensor<4xi64> loc(#loc412)
          %x_ptrs_245 = arith.cmpi sge, %x_ptrs_239, %x_ptrs_244 : tensor<4xi64> loc(#loc412)
          %x_ptrs_246 = arith.andi %x_ptrs_243, %x_ptrs_245 : tensor<4xi1> loc(#loc412)
          %x_ptrs_247 = arith.subi %idx_tokens_conv, %x_ptrs_236 : tensor<4xi32> loc(#loc412)
          %x_ptrs_248 = arith.extsi %x_ptrs_247 : tensor<4xi32> to tensor<4xi64> loc(#loc413)
          %x_ptrs_249 = tt.splat %stride_x_token : i64 -> tensor<4xi64> loc(#loc413)
          %x_ptrs_250 = arith.muli %x_ptrs_248, %x_ptrs_249 : tensor<4xi64> loc(#loc413)
          %x_ptrs_251 = tt.expand_dims %x_ptrs_250 {axis = 1 : i32} : tensor<4xi64> -> tensor<4x1xi64> loc(#loc414)
          %x_ptrs_252 = tt.broadcast %x_ptrs_235 : tensor<1x256x!tt.ptr<f16>> -> tensor<4x256x!tt.ptr<f16>> loc(#loc415)
          %x_ptrs_253 = tt.broadcast %x_ptrs_251 : tensor<4x1xi64> -> tensor<4x256xi64> loc(#loc415)
          %x_ptrs_254 = tt.addptr %x_ptrs_252, %x_ptrs_253 : tensor<4x256x!tt.ptr<f16>>, tensor<4x256xi64> loc(#loc561)
          %mask_x = tt.splat %VAL_234 : i32 -> tensor<4xi32> loc(#loc416)
          %mask_x_255 = arith.extsi %idx_tokens_conv : tensor<4xi32> to tensor<4xi64> loc(#loc416)
          %mask_x_256 = arith.extsi %mask_x : tensor<4xi32> to tensor<4xi64> loc(#loc416)
          %mask_x_257 = arith.subi %mask_x_255, %mask_x_256 : tensor<4xi64> loc(#loc416)
          %mask_x_258 = arith.constant 2147483647 : i64 loc(#loc416)
          %mask_x_259 = arith.constant -2147483648 : i64 loc(#loc416)
          %mask_x_260 = arith.constant dense<2147483647> : tensor<4xi64> loc(#loc416)
          %mask_x_261 = arith.cmpi sle, %mask_x_257, %mask_x_260 : tensor<4xi64> loc(#loc416)
          %mask_x_262 = arith.constant dense<-2147483648> : tensor<4xi64> loc(#loc416)
          %mask_x_263 = arith.cmpi sge, %mask_x_257, %mask_x_262 : tensor<4xi64> loc(#loc416)
          %mask_x_264 = arith.andi %mask_x_261, %mask_x_263 : tensor<4xi1> loc(#loc416)
          %mask_x_265 = arith.subi %idx_tokens_conv, %mask_x : tensor<4xi32> loc(#loc416)
          %mask_x_266 = arith.constant 0 : i32 loc(#loc417)
          %mask_x_267 = arith.constant dense<0> : tensor<4xi32> loc(#loc417)
          %mask_x_268 = arith.cmpi sge, %mask_x_265, %mask_x_267 : tensor<4xi32> loc(#loc417)
          %mask_x_269 = tt.expand_dims %mask_x_268 {axis = 1 : i32} : tensor<4xi1> -> tensor<4x1xi1> loc(#loc418)
          %mask_x_270 = tt.splat %VAL_234 : i32 -> tensor<4xi32> loc(#loc419)
          %mask_x_271 = arith.extsi %idx_tokens_conv : tensor<4xi32> to tensor<4xi64> loc(#loc419)
          %mask_x_272 = arith.extsi %mask_x_270 : tensor<4xi32> to tensor<4xi64> loc(#loc419)
          %mask_x_273 = arith.subi %mask_x_271, %mask_x_272 : tensor<4xi64> loc(#loc419)
          %mask_x_274 = arith.constant 2147483647 : i64 loc(#loc419)
          %mask_x_275 = arith.constant -2147483648 : i64 loc(#loc419)
          %mask_x_276 = arith.constant dense<2147483647> : tensor<4xi64> loc(#loc419)
          %mask_x_277 = arith.cmpi sle, %mask_x_273, %mask_x_276 : tensor<4xi64> loc(#loc419)
          %mask_x_278 = arith.constant dense<-2147483648> : tensor<4xi64> loc(#loc419)
          %mask_x_279 = arith.cmpi sge, %mask_x_273, %mask_x_278 : tensor<4xi64> loc(#loc419)
          %mask_x_280 = arith.andi %mask_x_277, %mask_x_279 : tensor<4xi1> loc(#loc419)
          %mask_x_281 = arith.subi %idx_tokens_conv, %mask_x_270 : tensor<4xi32> loc(#loc419)
          %mask_x_282 = tt.splat %seqlen_40 : i32 -> tensor<4xi32> loc(#loc420)
          %mask_x_283 = arith.cmpi slt, %mask_x_281, %mask_x_282 : tensor<4xi32> loc(#loc420)
          %mask_x_284 = tt.expand_dims %mask_x_283 {axis = 1 : i32} : tensor<4xi1> -> tensor<4x1xi1> loc(#loc421)
          %mask_x_285 = arith.andi %mask_x_269, %mask_x_284 : tensor<4x1xi1> loc(#loc422)
          %mask_x_286 = arith.constant 4096 : i32 loc(#loc423)
          %mask_x_287 = arith.constant dense<4096> : tensor<256xi32> loc(#loc423)
          %mask_x_288 = arith.cmpi slt, %idx_feats_28, %mask_x_287 : tensor<256xi32> loc(#loc423)
          %mask_x_289 = tt.expand_dims %mask_x_288 {axis = 0 : i32} : tensor<256xi1> -> tensor<1x256xi1> loc(#loc424)
          %mask_x_290 = tt.broadcast %mask_x_285 : tensor<4x1xi1> -> tensor<4x256xi1> loc(#loc425)
          %mask_x_291 = tt.broadcast %mask_x_289 : tensor<1x256xi1> -> tensor<4x256xi1> loc(#loc425)
          %mask_x_292 = arith.andi %mask_x_290, %mask_x_291 : tensor<4x256xi1> loc(#loc562)
          %loaded_x = arith.constant 0.000000e+00 : f32 loc(#loc426)
          %loaded_x_293 = arith.constant dense<0.000000e+00> : tensor<4x256xf32> loc(#loc426)
          %loaded_x_294 = arith.truncf %loaded_x_293 : tensor<4x256xf32> to tensor<4x256xf16> loc(#loc426)
          %loaded_x_295 = tt.load %x_ptrs_254, %mask_x_292, %loaded_x_294 : tensor<4x256x!tt.ptr<f16>> loc(#loc426)
          gpu.barrier loc(#loc147)
          %new_conv_state = arith.select %mask_223, %conv_state_226, %loaded_x_295 : tensor<4x256xi1>, tensor<4x256xf16> loc(#loc563)
          %conv_states_ptrs_target = arith.constant dense<4096> : tensor<4xi32> loc(#loc428)
          %conv_states_ptrs_target_296 = arith.extsi %idx_tokens_conv : tensor<4xi32> to tensor<4xi64> loc(#loc428)
          %conv_states_ptrs_target_297 = arith.extsi %conv_states_ptrs_target : tensor<4xi32> to tensor<4xi64> loc(#loc428)
          %conv_states_ptrs_target_298 = arith.muli %conv_states_ptrs_target_296, %conv_states_ptrs_target_297 : tensor<4xi64> loc(#loc428)
          %conv_states_ptrs_target_299 = arith.constant 2147483647 : i64 loc(#loc428)
          %conv_states_ptrs_target_300 = arith.constant -2147483648 : i64 loc(#loc428)
          %conv_states_ptrs_target_301 = arith.constant dense<2147483647> : tensor<4xi64> loc(#loc428)
          %conv_states_ptrs_target_302 = arith.cmpi sle, %conv_states_ptrs_target_298, %conv_states_ptrs_target_301 : tensor<4xi64> loc(#loc428)
          %conv_states_ptrs_target_303 = arith.constant dense<-2147483648> : tensor<4xi64> loc(#loc428)
          %conv_states_ptrs_target_304 = arith.cmpi sge, %conv_states_ptrs_target_298, %conv_states_ptrs_target_303 : tensor<4xi64> loc(#loc428)
          %conv_states_ptrs_target_305 = arith.andi %conv_states_ptrs_target_302, %conv_states_ptrs_target_304 : tensor<4xi1> loc(#loc428)
          %conv_states_ptrs_target_306 = arith.muli %idx_tokens_conv, %conv_states_ptrs_target : tensor<4xi32> loc(#loc428)
          %conv_states_ptrs_target_307 = tt.expand_dims %conv_states_ptrs_target_306 {axis = 1 : i32} : tensor<4xi32> -> tensor<4x1xi32> loc(#loc429)
          %conv_states_ptrs_target_308 = tt.expand_dims %conv_states_base_100 {axis = 0 : i32} : tensor<256x!tt.ptr<f16>> -> tensor<1x256x!tt.ptr<f16>> loc(#loc430)
          %conv_states_ptrs_target_309 = tt.broadcast %conv_states_ptrs_target_308 : tensor<1x256x!tt.ptr<f16>> -> tensor<4x256x!tt.ptr<f16>> loc(#loc430)
          %conv_states_ptrs_target_310 = tt.broadcast %conv_states_ptrs_target_307 : tensor<4x1xi32> -> tensor<4x256xi32> loc(#loc430)
          %conv_states_ptrs_target_311 = tt.addptr %conv_states_ptrs_target_309, %conv_states_ptrs_target_310 : tensor<4x256x!tt.ptr<f16>>, tensor<4x256xi32> loc(#loc564)
          %mask_312 = arith.constant dense<3> : tensor<4xi32> loc(#loc431)
          %mask_313 = arith.cmpi slt, %idx_tokens_conv, %mask_312 : tensor<4xi32> loc(#loc431)
          %mask_314 = tt.expand_dims %mask_313 {axis = 1 : i32} : tensor<4xi1> -> tensor<4x1xi1> loc(#loc432)
          %mask_315 = arith.constant 4096 : i32 loc(#loc433)
          %mask_316 = arith.constant dense<4096> : tensor<256xi32> loc(#loc433)
          %mask_317 = arith.cmpi slt, %idx_feats_28, %mask_316 : tensor<256xi32> loc(#loc433)
          %mask_318 = tt.expand_dims %mask_317 {axis = 0 : i32} : tensor<256xi1> -> tensor<1x256xi1> loc(#loc434)
          %mask_319 = tt.broadcast %mask_314 : tensor<4x1xi1> -> tensor<4x256xi1> loc(#loc435)
          %mask_320 = tt.broadcast %mask_318 : tensor<1x256xi1> -> tensor<4x256xi1> loc(#loc435)
          %mask_321 = arith.andi %mask_319, %mask_320 : tensor<4x256xi1> loc(#loc565)
          tt.store %conv_states_ptrs_target_311, %new_conv_state, %mask_321 : tensor<4x256x!tt.ptr<f16>> loc(#loc157)
          scf.yield %VAL_234, %conv_states_ptrs_target_311, %idx_tokens_conv, %mask_321, %mask_x_292, %new_conv_state, %x_ptrs_254 : i32, tensor<4x256x!tt.ptr<f16>>, tensor<4xi32>, tensor<4x256xi1>, tensor<4x256xi1>, tensor<4x256xf16>, tensor<4x256x!tt.ptr<f16>> loc(#loc157)
        } else {
          %idx_tokens_conv = tt.make_range {end = 4 : i32, start = 0 : i32} : tensor<4xi32> loc(#loc566)
          %VAL = arith.extsi %state_len : i32 to i64 loc(#loc437)
          %VAL_153 = arith.extsi %seqlen_40 : i32 to i64 loc(#loc437)
          %VAL_154 = arith.subi %VAL, %VAL_153 : i64 loc(#loc437)
          %VAL_155 = arith.constant 2147483647 : i64 loc(#loc437)
          %VAL_156 = arith.constant -2147483648 : i64 loc(#loc437)
          %VAL_157 = arith.cmpi sle, %VAL_154, %VAL_155 : i64 loc(#loc437)
          %VAL_158 = arith.cmpi sge, %VAL_154, %VAL_156 : i64 loc(#loc437)
          %VAL_159 = arith.andi %VAL_157, %VAL_158 : i1 loc(#loc437)
          %VAL_160 = arith.subi %state_len, %seqlen_40 : i32 loc(#loc567)
          %x_ptrs_161 = tt.expand_dims %x_base_78 {axis = 0 : i32} : tensor<256x!tt.ptr<f16>> -> tensor<1x256x!tt.ptr<f16>> loc(#loc438)
          %x_ptrs_162 = tt.splat %VAL_160 : i32 -> tensor<4xi32> loc(#loc439)
          %x_ptrs_163 = arith.extsi %idx_tokens_conv : tensor<4xi32> to tensor<4xi64> loc(#loc439)
          %x_ptrs_164 = arith.extsi %x_ptrs_162 : tensor<4xi32> to tensor<4xi64> loc(#loc439)
          %x_ptrs_165 = arith.subi %x_ptrs_163, %x_ptrs_164 : tensor<4xi64> loc(#loc439)
          %x_ptrs_166 = arith.constant 2147483647 : i64 loc(#loc439)
          %x_ptrs_167 = arith.constant -2147483648 : i64 loc(#loc439)
          %x_ptrs_168 = arith.constant dense<2147483647> : tensor<4xi64> loc(#loc439)
          %x_ptrs_169 = arith.cmpi sle, %x_ptrs_165, %x_ptrs_168 : tensor<4xi64> loc(#loc439)
          %x_ptrs_170 = arith.constant dense<-2147483648> : tensor<4xi64> loc(#loc439)
          %x_ptrs_171 = arith.cmpi sge, %x_ptrs_165, %x_ptrs_170 : tensor<4xi64> loc(#loc439)
          %x_ptrs_172 = arith.andi %x_ptrs_169, %x_ptrs_171 : tensor<4xi1> loc(#loc439)
          %x_ptrs_173 = arith.subi %idx_tokens_conv, %x_ptrs_162 : tensor<4xi32> loc(#loc439)
          %x_ptrs_174 = arith.extsi %x_ptrs_173 : tensor<4xi32> to tensor<4xi64> loc(#loc440)
          %x_ptrs_175 = tt.splat %stride_x_token : i64 -> tensor<4xi64> loc(#loc440)
          %x_ptrs_176 = arith.muli %x_ptrs_174, %x_ptrs_175 : tensor<4xi64> loc(#loc440)
          %x_ptrs_177 = tt.expand_dims %x_ptrs_176 {axis = 1 : i32} : tensor<4xi64> -> tensor<4x1xi64> loc(#loc441)
          %x_ptrs_178 = tt.broadcast %x_ptrs_161 : tensor<1x256x!tt.ptr<f16>> -> tensor<4x256x!tt.ptr<f16>> loc(#loc442)
          %x_ptrs_179 = tt.broadcast %x_ptrs_177 : tensor<4x1xi64> -> tensor<4x256xi64> loc(#loc442)
          %x_ptrs_180 = tt.addptr %x_ptrs_178, %x_ptrs_179 : tensor<4x256x!tt.ptr<f16>>, tensor<4x256xi64> loc(#loc568)
          %mask_x = tt.splat %VAL_160 : i32 -> tensor<4xi32> loc(#loc443)
          %mask_x_181 = arith.extsi %idx_tokens_conv : tensor<4xi32> to tensor<4xi64> loc(#loc443)
          %mask_x_182 = arith.extsi %mask_x : tensor<4xi32> to tensor<4xi64> loc(#loc443)
          %mask_x_183 = arith.subi %mask_x_181, %mask_x_182 : tensor<4xi64> loc(#loc443)
          %mask_x_184 = arith.constant 2147483647 : i64 loc(#loc443)
          %mask_x_185 = arith.constant -2147483648 : i64 loc(#loc443)
          %mask_x_186 = arith.constant dense<2147483647> : tensor<4xi64> loc(#loc443)
          %mask_x_187 = arith.cmpi sle, %mask_x_183, %mask_x_186 : tensor<4xi64> loc(#loc443)
          %mask_x_188 = arith.constant dense<-2147483648> : tensor<4xi64> loc(#loc443)
          %mask_x_189 = arith.cmpi sge, %mask_x_183, %mask_x_188 : tensor<4xi64> loc(#loc443)
          %mask_x_190 = arith.andi %mask_x_187, %mask_x_189 : tensor<4xi1> loc(#loc443)
          %mask_x_191 = arith.subi %idx_tokens_conv, %mask_x : tensor<4xi32> loc(#loc443)
          %mask_x_192 = arith.constant 0 : i32 loc(#loc444)
          %mask_x_193 = arith.constant dense<0> : tensor<4xi32> loc(#loc444)
          %mask_x_194 = arith.cmpi sge, %mask_x_191, %mask_x_193 : tensor<4xi32> loc(#loc444)
          %mask_x_195 = tt.expand_dims %mask_x_194 {axis = 1 : i32} : tensor<4xi1> -> tensor<4x1xi1> loc(#loc445)
          %mask_x_196 = tt.splat %VAL_160 : i32 -> tensor<4xi32> loc(#loc446)
          %mask_x_197 = arith.extsi %idx_tokens_conv : tensor<4xi32> to tensor<4xi64> loc(#loc446)
          %mask_x_198 = arith.extsi %mask_x_196 : tensor<4xi32> to tensor<4xi64> loc(#loc446)
          %mask_x_199 = arith.subi %mask_x_197, %mask_x_198 : tensor<4xi64> loc(#loc446)
          %mask_x_200 = arith.constant 2147483647 : i64 loc(#loc446)
          %mask_x_201 = arith.constant -2147483648 : i64 loc(#loc446)
          %mask_x_202 = arith.constant dense<2147483647> : tensor<4xi64> loc(#loc446)
          %mask_x_203 = arith.cmpi sle, %mask_x_199, %mask_x_202 : tensor<4xi64> loc(#loc446)
          %mask_x_204 = arith.constant dense<-2147483648> : tensor<4xi64> loc(#loc446)
          %mask_x_205 = arith.cmpi sge, %mask_x_199, %mask_x_204 : tensor<4xi64> loc(#loc446)
          %mask_x_206 = arith.andi %mask_x_203, %mask_x_205 : tensor<4xi1> loc(#loc446)
          %mask_x_207 = arith.subi %idx_tokens_conv, %mask_x_196 : tensor<4xi32> loc(#loc446)
          %mask_x_208 = tt.splat %seqlen_40 : i32 -> tensor<4xi32> loc(#loc447)
          %mask_x_209 = arith.cmpi slt, %mask_x_207, %mask_x_208 : tensor<4xi32> loc(#loc447)
          %mask_x_210 = tt.expand_dims %mask_x_209 {axis = 1 : i32} : tensor<4xi1> -> tensor<4x1xi1> loc(#loc448)
          %mask_x_211 = arith.andi %mask_x_195, %mask_x_210 : tensor<4x1xi1> loc(#loc449)
          %mask_x_212 = arith.constant 4096 : i32 loc(#loc450)
          %mask_x_213 = arith.constant dense<4096> : tensor<256xi32> loc(#loc450)
          %mask_x_214 = arith.cmpi slt, %idx_feats_28, %mask_x_213 : tensor<256xi32> loc(#loc450)
          %mask_x_215 = tt.expand_dims %mask_x_214 {axis = 0 : i32} : tensor<256xi1> -> tensor<1x256xi1> loc(#loc451)
          %mask_x_216 = tt.broadcast %mask_x_211 : tensor<4x1xi1> -> tensor<4x256xi1> loc(#loc452)
          %mask_x_217 = tt.broadcast %mask_x_215 : tensor<1x256xi1> -> tensor<4x256xi1> loc(#loc452)
          %mask_x_218 = arith.andi %mask_x_216, %mask_x_217 : tensor<4x256xi1> loc(#loc569)
          %new_conv_state = arith.constant 0.000000e+00 : f32 loc(#loc453)
          %new_conv_state_219 = arith.constant dense<0.000000e+00> : tensor<4x256xf32> loc(#loc453)
          %new_conv_state_220 = arith.truncf %new_conv_state_219 : tensor<4x256xf32> to tensor<4x256xf16> loc(#loc453)
          %new_conv_state_221 = tt.load %x_ptrs_180, %mask_x_218, %new_conv_state_220 : tensor<4x256x!tt.ptr<f16>> loc(#loc570)
          %conv_states_ptrs_target = arith.constant dense<4096> : tensor<4xi32> loc(#loc454)
          %conv_states_ptrs_target_222 = arith.extsi %idx_tokens_conv : tensor<4xi32> to tensor<4xi64> loc(#loc454)
          %conv_states_ptrs_target_223 = arith.extsi %conv_states_ptrs_target : tensor<4xi32> to tensor<4xi64> loc(#loc454)
          %conv_states_ptrs_target_224 = arith.muli %conv_states_ptrs_target_222, %conv_states_ptrs_target_223 : tensor<4xi64> loc(#loc454)
          %conv_states_ptrs_target_225 = arith.constant 2147483647 : i64 loc(#loc454)
          %conv_states_ptrs_target_226 = arith.constant -2147483648 : i64 loc(#loc454)
          %conv_states_ptrs_target_227 = arith.constant dense<2147483647> : tensor<4xi64> loc(#loc454)
          %conv_states_ptrs_target_228 = arith.cmpi sle, %conv_states_ptrs_target_224, %conv_states_ptrs_target_227 : tensor<4xi64> loc(#loc454)
          %conv_states_ptrs_target_229 = arith.constant dense<-2147483648> : tensor<4xi64> loc(#loc454)
          %conv_states_ptrs_target_230 = arith.cmpi sge, %conv_states_ptrs_target_224, %conv_states_ptrs_target_229 : tensor<4xi64> loc(#loc454)
          %conv_states_ptrs_target_231 = arith.andi %conv_states_ptrs_target_228, %conv_states_ptrs_target_230 : tensor<4xi1> loc(#loc454)
          %conv_states_ptrs_target_232 = arith.muli %idx_tokens_conv, %conv_states_ptrs_target : tensor<4xi32> loc(#loc454)
          %conv_states_ptrs_target_233 = tt.expand_dims %conv_states_ptrs_target_232 {axis = 1 : i32} : tensor<4xi32> -> tensor<4x1xi32> loc(#loc455)
          %conv_states_ptrs_target_234 = tt.expand_dims %conv_states_base_100 {axis = 0 : i32} : tensor<256x!tt.ptr<f16>> -> tensor<1x256x!tt.ptr<f16>> loc(#loc456)
          %conv_states_ptrs_target_235 = tt.broadcast %conv_states_ptrs_target_234 : tensor<1x256x!tt.ptr<f16>> -> tensor<4x256x!tt.ptr<f16>> loc(#loc456)
          %conv_states_ptrs_target_236 = tt.broadcast %conv_states_ptrs_target_233 : tensor<4x1xi32> -> tensor<4x256xi32> loc(#loc456)
          %conv_states_ptrs_target_237 = tt.addptr %conv_states_ptrs_target_235, %conv_states_ptrs_target_236 : tensor<4x256x!tt.ptr<f16>>, tensor<4x256xi32> loc(#loc571)
          %mask = arith.constant dense<3> : tensor<4xi32> loc(#loc457)
          %mask_238 = arith.cmpi slt, %idx_tokens_conv, %mask : tensor<4xi32> loc(#loc457)
          %mask_239 = tt.expand_dims %mask_238 {axis = 1 : i32} : tensor<4xi1> -> tensor<4x1xi1> loc(#loc458)
          %mask_240 = arith.constant 4096 : i32 loc(#loc459)
          %mask_241 = arith.constant dense<4096> : tensor<256xi32> loc(#loc459)
          %mask_242 = arith.cmpi slt, %idx_feats_28, %mask_241 : tensor<256xi32> loc(#loc459)
          %mask_243 = tt.expand_dims %mask_242 {axis = 0 : i32} : tensor<256xi1> -> tensor<1x256xi1> loc(#loc460)
          %mask_244 = tt.broadcast %mask_239 : tensor<4x1xi1> -> tensor<4x256xi1> loc(#loc461)
          %mask_245 = tt.broadcast %mask_243 : tensor<1x256xi1> -> tensor<4x256xi1> loc(#loc461)
          %mask_246 = arith.andi %mask_244, %mask_245 : tensor<4x256xi1> loc(#loc572)
          tt.store %conv_states_ptrs_target_237, %new_conv_state_221, %mask_246 : tensor<4x256x!tt.ptr<f16>> loc(#loc184)
          scf.yield %VAL_160, %conv_states_ptrs_target_237, %idx_tokens_conv, %mask_246, %mask_x_218, %new_conv_state_221, %x_ptrs_180 : i32, tensor<4x256x!tt.ptr<f16>>, tensor<4xi32>, tensor<4x256xi1>, tensor<4x256xi1>, tensor<4x256xf16>, tensor<4x256x!tt.ptr<f16>> loc(#loc184)
        } loc(#loc582)
        scf.yield %x_ptrs#1, %x_ptrs#2, %x_ptrs#3, %x_ptrs#4, %x_ptrs#6 : tensor<4x256x!tt.ptr<f16>>, tensor<4xi32>, tensor<4x256xi1>, tensor<4x256xi1>, tensor<4x256x!tt.ptr<f16>> loc(#loc110)
      } loc(#loc69)
      scf.yield %col2_152#0, %col2_152#1, %col2_152#2, %load_init_state_151 : tensor<256xf16>, tensor<256xf16>, tensor<256xf16>, i1 loc(#loc69)
    } else {
      %load_init_state = arith.constant true loc(#loc573)
      %prior_tokens = arith.constant 1 : i32 loc(#loc463)
      %prior_tokens_148 = arith.constant 1 : i32 loc(#loc463)
      %prior_tokens_149 = arith.extsi %token_offset_50 : i32 to i64 loc(#loc463)
      %prior_tokens_150 = arith.extsi %prior_tokens_148 : i32 to i64 loc(#loc463)
      %prior_tokens_151 = arith.subi %prior_tokens_149, %prior_tokens_150 : i64 loc(#loc463)
      %prior_tokens_152 = arith.constant 2147483647 : i64 loc(#loc463)
      %prior_tokens_153 = arith.constant -2147483648 : i64 loc(#loc463)
      %prior_tokens_154 = arith.cmpi sle, %prior_tokens_151, %prior_tokens_152 : i64 loc(#loc463)
      %prior_tokens_155 = arith.cmpi sge, %prior_tokens_151, %prior_tokens_153 : i64 loc(#loc463)
      %prior_tokens_156 = arith.andi %prior_tokens_154, %prior_tokens_155 : i1 loc(#loc463)
      %prior_tokens_157 = arith.subi %token_offset_50, %prior_tokens_148 : i32 loc(#loc463)
      %prior_tokens_158 = arith.extsi %prior_tokens_157 : i32 to i64 loc(#loc464)
      %prior_tokens_159 = arith.muli %prior_tokens_158, %stride_x_token : i64 loc(#loc464)
      %prior_tokens_160 = tt.splat %prior_tokens_159 : i64 -> tensor<256xi64> loc(#loc465)
      %prior_tokens_161 = tt.addptr %x_base_78, %prior_tokens_160 : tensor<256x!tt.ptr<f16>>, tensor<256xi64> loc(#loc465)
      %mask_w_162 = arith.constant 4096 : i32 loc(#loc466)
      %mask_w_163 = arith.constant dense<4096> : tensor<256xi32> loc(#loc466)
      %mask_w_164 = arith.cmpi slt, %idx_feats_28, %mask_w_163 : tensor<256xi32> loc(#loc466)
      %col2_165 = arith.constant 0.000000e+00 : f32 loc(#loc467)
      %col2_166 = arith.constant dense<0.000000e+00> : tensor<256xf32> loc(#loc467)
      %col2_167 = arith.truncf %col2_166 : tensor<256xf32> to tensor<256xf16> loc(#loc467)
      %col2_168 = tt.load %prior_tokens_161, %mask_w_164, %col2_167 cacheModifier = ca : tensor<256x!tt.ptr<f16>> loc(#loc574)
      %conv_states_ptrs = arith.constant 1 : i32 loc(#loc468)
      %conv_states_ptrs_169 = arith.constant 1 : i64 loc(#loc468)
      %conv_states_ptrs_170 = arith.muli %conv_states_ptrs_169, %stride_x_token : i64 loc(#loc468)
      %conv_states_ptrs_171 = tt.splat %conv_states_ptrs_170 : i64 -> tensor<256xi64> loc(#loc469)
      %conv_states_ptrs_172 = arith.constant 0 : i64 loc(#loc469)
      %conv_states_ptrs_173 = arith.constant dense<0> : tensor<256xi64> loc(#loc469)
      %conv_states_ptrs_174 = arith.subi %conv_states_ptrs_173, %conv_states_ptrs_171 : tensor<256xi64> loc(#loc469)
      %conv_states_ptrs_175 = tt.addptr %prior_tokens_161, %conv_states_ptrs_174 : tensor<256x!tt.ptr<f16>>, tensor<256xi64> loc(#loc469)
      %col1 = arith.constant 0.000000e+00 : f32 loc(#loc470)
      %col1_176 = arith.constant dense<0.000000e+00> : tensor<256xf32> loc(#loc470)
      %col1_177 = arith.truncf %col1_176 : tensor<256xf32> to tensor<256xf16> loc(#loc470)
      %col1_178 = tt.load %conv_states_ptrs_175, %mask_w_164, %col1_177 cacheModifier = ca : tensor<256x!tt.ptr<f16>> loc(#loc575)
      %conv_states_ptrs_179 = arith.constant 2 : i32 loc(#loc471)
      %conv_states_ptrs_180 = arith.constant 2 : i64 loc(#loc471)
      %conv_states_ptrs_181 = arith.muli %conv_states_ptrs_180, %stride_x_token : i64 loc(#loc471)
      %conv_states_ptrs_182 = tt.splat %conv_states_ptrs_181 : i64 -> tensor<256xi64> loc(#loc472)
      %conv_states_ptrs_183 = arith.constant 0 : i64 loc(#loc472)
      %conv_states_ptrs_184 = arith.constant dense<0> : tensor<256xi64> loc(#loc472)
      %conv_states_ptrs_185 = arith.subi %conv_states_ptrs_184, %conv_states_ptrs_182 : tensor<256xi64> loc(#loc472)
      %conv_states_ptrs_186 = tt.addptr %prior_tokens_161, %conv_states_ptrs_185 : tensor<256x!tt.ptr<f16>>, tensor<256xi64> loc(#loc472)
      %col0 = arith.constant 0.000000e+00 : f32 loc(#loc473)
      %col0_187 = arith.constant dense<0.000000e+00> : tensor<256xf32> loc(#loc473)
      %col0_188 = arith.truncf %col0_187 : tensor<256xf32> to tensor<256xf16> loc(#loc473)
      %col0_189 = tt.load %conv_states_ptrs_186, %mask_w_164, %col0_188 cacheModifier = ca : tensor<256x!tt.ptr<f16>> loc(#loc576)
      %c1_i32_190 = arith.constant 1 : i32 loc(#loc197)
      %c1_i32_191 = arith.constant 1 : i32 loc(#loc197)
      %10 = arith.extsi %chunk_offset_4 : i32 to i64 loc(#loc197)
      %11 = arith.extsi %c1_i32_191 : i32 to i64 loc(#loc197)
      %12 = arith.subi %10, %11 : i64 loc(#loc197)
      %c2147483647_i64 = arith.constant 2147483647 : i64 loc(#loc197)
      %c-2147483648_i64 = arith.constant -2147483648 : i64 loc(#loc197)
      %13 = arith.cmpi sle, %12, %c2147483647_i64 : i64 loc(#loc197)
      %14 = arith.cmpi sge, %12, %c-2147483648_i64 : i64 loc(#loc197)
      %15 = arith.andi %13, %14 : i1 loc(#loc197)
      %16 = arith.subi %chunk_offset_4, %c1_i32_191 : i32 loc(#loc197)
      %17 = arith.cmpi slt, %16, %n_block_to_fill : i32 loc(#loc198)
      scf.if %17 {
        %idx_tokens_last = arith.extsi %n_block_to_fill : i32 to i64 loc(#loc474)
        %idx_tokens_last_192 = arith.extsi %chunk_offset_4 : i32 to i64 loc(#loc474)
        %idx_tokens_last_193 = arith.subi %idx_tokens_last, %idx_tokens_last_192 : i64 loc(#loc474)
        %idx_tokens_last_194 = arith.constant 2147483647 : i64 loc(#loc474)
        %idx_tokens_last_195 = arith.constant -2147483648 : i64 loc(#loc474)
        %idx_tokens_last_196 = arith.cmpi sle, %idx_tokens_last_193, %idx_tokens_last_194 : i64 loc(#loc474)
        %idx_tokens_last_197 = arith.cmpi sge, %idx_tokens_last_193, %idx_tokens_last_195 : i64 loc(#loc474)
        %idx_tokens_last_198 = arith.andi %idx_tokens_last_196, %idx_tokens_last_197 : i1 loc(#loc474)
        %idx_tokens_last_199 = arith.subi %n_block_to_fill, %chunk_offset_4 : i32 loc(#loc474)
        %idx_tokens_last_200 = arith.constant 0 : i32 loc(#loc475)
        %idx_tokens_last_201 = arith.constant 0 : i32 loc(#loc475)
        %idx_tokens_last_202 = arith.extsi %idx_tokens_last_199 : i32 to i64 loc(#loc475)
        %idx_tokens_last_203 = arith.extsi %idx_tokens_last_201 : i32 to i64 loc(#loc475)
        %idx_tokens_last_204 = arith.muli %idx_tokens_last_202, %idx_tokens_last_203 : i64 loc(#loc475)
        %idx_tokens_last_205 = arith.constant 2147483647 : i64 loc(#loc475)
        %idx_tokens_last_206 = arith.constant -2147483648 : i64 loc(#loc475)
        %idx_tokens_last_207 = arith.cmpi sle, %idx_tokens_last_204, %idx_tokens_last_205 : i64 loc(#loc475)
        %idx_tokens_last_208 = arith.cmpi sge, %idx_tokens_last_204, %idx_tokens_last_206 : i64 loc(#loc475)
        %idx_tokens_last_209 = arith.andi %idx_tokens_last_207, %idx_tokens_last_208 : i1 loc(#loc475)
        %idx_tokens_last_210 = arith.muli %idx_tokens_last_199, %idx_tokens_last_201 : i32 loc(#loc475)
        %idx_tokens_last_211 = arith.extsi %last_full_block_token_index : i32 to i64 loc(#loc476)
        %idx_tokens_last_212 = arith.extsi %idx_tokens_last_210 : i32 to i64 loc(#loc476)
        %idx_tokens_last_213 = arith.subi %idx_tokens_last_211, %idx_tokens_last_212 : i64 loc(#loc476)
        %idx_tokens_last_214 = arith.constant 2147483647 : i64 loc(#loc476)
        %idx_tokens_last_215 = arith.constant -2147483648 : i64 loc(#loc476)
        %idx_tokens_last_216 = arith.cmpi sle, %idx_tokens_last_213, %idx_tokens_last_214 : i64 loc(#loc476)
        %idx_tokens_last_217 = arith.cmpi sge, %idx_tokens_last_213, %idx_tokens_last_215 : i64 loc(#loc476)
        %idx_tokens_last_218 = arith.andi %idx_tokens_last_216, %idx_tokens_last_217 : i1 loc(#loc476)
        %idx_tokens_last_219 = arith.subi %last_full_block_token_index, %idx_tokens_last_210 : i32 loc(#loc476)
        %idx_tokens_last_220 = arith.extsi %idx_tokens_last_219 : i32 to i64 loc(#loc477)
        %idx_tokens_last_221 = arith.extsi %state_len : i32 to i64 loc(#loc477)
        %idx_tokens_last_222 = arith.subi %idx_tokens_last_220, %idx_tokens_last_221 : i64 loc(#loc477)
        %idx_tokens_last_223 = arith.constant 2147483647 : i64 loc(#loc477)
        %idx_tokens_last_224 = arith.constant -2147483648 : i64 loc(#loc477)
        %idx_tokens_last_225 = arith.cmpi sle, %idx_tokens_last_222, %idx_tokens_last_223 : i64 loc(#loc477)
        %idx_tokens_last_226 = arith.cmpi sge, %idx_tokens_last_222, %idx_tokens_last_224 : i64 loc(#loc477)
        %idx_tokens_last_227 = arith.andi %idx_tokens_last_225, %idx_tokens_last_226 : i1 loc(#loc477)
        %idx_tokens_last_228 = arith.subi %idx_tokens_last_219, %state_len : i32 loc(#loc477)
        %idx_tokens_last_229 = tt.make_range {end = 4 : i32, start = 0 : i32} : tensor<4xi32> loc(#loc478)
        %idx_tokens_last_230 = tt.splat %idx_tokens_last_228 : i32 -> tensor<4xi32> loc(#loc479)
        %idx_tokens_last_231 = arith.extsi %idx_tokens_last_230 : tensor<4xi32> to tensor<4xi64> loc(#loc479)
        %idx_tokens_last_232 = arith.extsi %idx_tokens_last_229 : tensor<4xi32> to tensor<4xi64> loc(#loc479)
        %idx_tokens_last_233 = arith.addi %idx_tokens_last_231, %idx_tokens_last_232 : tensor<4xi64> loc(#loc479)
        %idx_tokens_last_234 = arith.constant 2147483647 : i64 loc(#loc479)
        %idx_tokens_last_235 = arith.constant -2147483648 : i64 loc(#loc479)
        %idx_tokens_last_236 = arith.constant dense<2147483647> : tensor<4xi64> loc(#loc479)
        %idx_tokens_last_237 = arith.cmpi sle, %idx_tokens_last_233, %idx_tokens_last_236 : tensor<4xi64> loc(#loc479)
        %idx_tokens_last_238 = arith.constant dense<-2147483648> : tensor<4xi64> loc(#loc479)
        %idx_tokens_last_239 = arith.cmpi sge, %idx_tokens_last_233, %idx_tokens_last_238 : tensor<4xi64> loc(#loc479)
        %idx_tokens_last_240 = arith.andi %idx_tokens_last_237, %idx_tokens_last_239 : tensor<4xi1> loc(#loc479)
        %idx_tokens_last_241 = arith.addi %idx_tokens_last_230, %idx_tokens_last_229 : tensor<4xi32> loc(#loc479)
        %x_ptrs = arith.extsi %idx_tokens_last_241 : tensor<4xi32> to tensor<4xi64> loc(#loc480)
        %x_ptrs_242 = tt.splat %stride_x_token : i64 -> tensor<4xi64> loc(#loc480)
        %x_ptrs_243 = arith.muli %x_ptrs, %x_ptrs_242 : tensor<4xi64> loc(#loc480)
        %x_ptrs_244 = tt.expand_dims %x_ptrs_243 {axis = 1 : i32} : tensor<4xi64> -> tensor<4x1xi64> loc(#loc481)
        %x_ptrs_245 = tt.splat %x_ptr : !tt.ptr<f16> -> tensor<4x1x!tt.ptr<f16>> loc(#loc482)
        %x_ptrs_246 = tt.addptr %x_ptrs_245, %x_ptrs_244 : tensor<4x1x!tt.ptr<f16>>, tensor<4x1xi64> loc(#loc482)
        %x_ptrs_247 = arith.constant 1 : i32 loc(#loc483)
        %x_ptrs_248 = arith.constant 1 : i32 loc(#loc483)
        %x_ptrs_249 = arith.constant dense<1> : tensor<256xi32> loc(#loc483)
        %x_ptrs_250 = arith.extsi %idx_feats_28 : tensor<256xi32> to tensor<256xi64> loc(#loc483)
        %x_ptrs_251 = arith.extsi %x_ptrs_249 : tensor<256xi32> to tensor<256xi64> loc(#loc483)
        %x_ptrs_252 = arith.muli %x_ptrs_250, %x_ptrs_251 : tensor<256xi64> loc(#loc483)
        %x_ptrs_253 = arith.constant 2147483647 : i64 loc(#loc483)
        %x_ptrs_254 = arith.constant -2147483648 : i64 loc(#loc483)
        %x_ptrs_255 = arith.constant dense<2147483647> : tensor<256xi64> loc(#loc483)
        %x_ptrs_256 = arith.cmpi sle, %x_ptrs_252, %x_ptrs_255 : tensor<256xi64> loc(#loc483)
        %x_ptrs_257 = arith.constant dense<-2147483648> : tensor<256xi64> loc(#loc483)
        %x_ptrs_258 = arith.cmpi sge, %x_ptrs_252, %x_ptrs_257 : tensor<256xi64> loc(#loc483)
        %x_ptrs_259 = arith.andi %x_ptrs_256, %x_ptrs_258 : tensor<256xi1> loc(#loc483)
        %x_ptrs_260 = arith.muli %idx_feats_28, %x_ptrs_249 : tensor<256xi32> loc(#loc483)
        %x_ptrs_261 = tt.expand_dims %x_ptrs_260 {axis = 0 : i32} : tensor<256xi32> -> tensor<1x256xi32> loc(#loc484)
        %x_ptrs_262 = tt.broadcast %x_ptrs_246 : tensor<4x1x!tt.ptr<f16>> -> tensor<4x256x!tt.ptr<f16>> loc(#loc485)
        %x_ptrs_263 = tt.broadcast %x_ptrs_261 : tensor<1x256xi32> -> tensor<4x256xi32> loc(#loc485)
        %x_ptrs_264 = tt.addptr %x_ptrs_262, %x_ptrs_263 : tensor<4x256x!tt.ptr<f16>>, tensor<4x256xi32> loc(#loc485)
        %mask_x = arith.constant 0 : i32 loc(#loc486)
        %mask_x_265 = arith.constant dense<0> : tensor<4xi32> loc(#loc486)
        %mask_x_266 = arith.cmpi sge, %idx_tokens_last_241, %mask_x_265 : tensor<4xi32> loc(#loc486)
        %mask_x_267 = tt.expand_dims %mask_x_266 {axis = 1 : i32} : tensor<4xi1> -> tensor<4x1xi1> loc(#loc487)
        %mask_x_268 = arith.constant 4096 : i32 loc(#loc488)
        %mask_x_269 = arith.constant dense<4096> : tensor<256xi32> loc(#loc488)
        %mask_x_270 = arith.cmpi slt, %idx_feats_28, %mask_x_269 : tensor<256xi32> loc(#loc488)
        %mask_x_271 = tt.expand_dims %mask_x_270 {axis = 0 : i32} : tensor<256xi1> -> tensor<1x256xi1> loc(#loc489)
        %mask_x_272 = tt.broadcast %mask_x_267 : tensor<4x1xi1> -> tensor<4x256xi1> loc(#loc490)
        %mask_x_273 = tt.broadcast %mask_x_271 : tensor<1x256xi1> -> tensor<4x256xi1> loc(#loc490)
        %mask_x_274 = arith.andi %mask_x_272, %mask_x_273 : tensor<4x256xi1> loc(#loc490)
        %loaded_x = arith.constant 0.000000e+00 : f32 loc(#loc491)
        %loaded_x_275 = arith.constant dense<0.000000e+00> : tensor<4x256xf32> loc(#loc491)
        %loaded_x_276 = arith.truncf %loaded_x_275 : tensor<4x256xf32> to tensor<4x256xf16> loc(#loc491)
        %loaded_x_277 = tt.load %x_ptrs_264, %mask_x_274, %loaded_x_276 : tensor<4x256x!tt.ptr<f16>> loc(#loc491)
        %idx_tokens_conv = tt.make_range {end = 4 : i32, start = 0 : i32} : tensor<4xi32> loc(#loc492)
        %conv_states_output_coord = arith.constant 1 : i32 loc(#loc493)
        %conv_states_output_coord_278 = arith.constant 1 : i64 loc(#loc493)
        %conv_states_output_coord_279 = arith.muli %idx_seq_2, %conv_states_output_coord_278 : i64 loc(#loc493)
        %conv_states_output_coord_280 = tt.addptr %cache_indices_ptr, %conv_states_output_coord_279 : !tt.ptr<i32>, i64 loc(#loc494)
        %conv_states_output_coord_281 = tt.addptr %conv_states_output_coord_280, %current_first_index : !tt.ptr<i32>, i32 loc(#loc495)
        %conv_states_output_coord_282 = arith.constant 1 : i32 loc(#loc496)
        %conv_states_output_coord_283 = arith.constant 1 : i32 loc(#loc496)
        %conv_states_output_coord_284 = arith.extsi %chunk_offset_4 : i32 to i64 loc(#loc496)
        %conv_states_output_coord_285 = arith.extsi %conv_states_output_coord_283 : i32 to i64 loc(#loc496)
        %conv_states_output_coord_286 = arith.subi %conv_states_output_coord_284, %conv_states_output_coord_285 : i64 loc(#loc496)
        %conv_states_output_coord_287 = arith.constant 2147483647 : i64 loc(#loc496)
        %conv_states_output_coord_288 = arith.constant -2147483648 : i64 loc(#loc496)
        %conv_states_output_coord_289 = arith.cmpi sle, %conv_states_output_coord_286, %conv_states_output_coord_287 : i64 loc(#loc496)
        %conv_states_output_coord_290 = arith.cmpi sge, %conv_states_output_coord_286, %conv_states_output_coord_288 : i64 loc(#loc496)
        %conv_states_output_coord_291 = arith.andi %conv_states_output_coord_289, %conv_states_output_coord_290 : i1 loc(#loc496)
        %conv_states_output_coord_292 = arith.subi %chunk_offset_4, %conv_states_output_coord_283 : i32 loc(#loc496)
        %conv_states_output_coord_293 = tt.addptr %conv_states_output_coord_281, %conv_states_output_coord_292 : !tt.ptr<i32>, i32 loc(#loc497)
        %conv_states_output_coord_294 = tt.load %conv_states_output_coord_293 : !tt.ptr<i32> loc(#loc498)
        %conv_states_output_coord_295 = arith.extsi %conv_states_output_coord_294 : i32 to i64 loc(#loc499)
        %conv_states_ptrs_target = arith.extsi %stride_conv_state_seq : i32 to i64 loc(#loc500)
        %conv_states_ptrs_target_296 = arith.muli %conv_states_output_coord_295, %conv_states_ptrs_target : i64 loc(#loc500)
        %conv_states_ptrs_target_297 = tt.addptr %initial_states_ptr, %conv_states_ptrs_target_296 : !tt.ptr<f16>, i64 loc(#loc501)
        %conv_states_ptrs_target_298 = arith.constant dense<1> : tensor<256xi32> loc(#loc502)
        %conv_states_ptrs_target_299 = arith.extsi %idx_feats_28 : tensor<256xi32> to tensor<256xi64> loc(#loc502)
        %conv_states_ptrs_target_300 = arith.extsi %conv_states_ptrs_target_298 : tensor<256xi32> to tensor<256xi64> loc(#loc502)
        %conv_states_ptrs_target_301 = arith.muli %conv_states_ptrs_target_299, %conv_states_ptrs_target_300 : tensor<256xi64> loc(#loc502)
        %conv_states_ptrs_target_302 = arith.constant 2147483647 : i64 loc(#loc502)
        %conv_states_ptrs_target_303 = arith.constant -2147483648 : i64 loc(#loc502)
        %conv_states_ptrs_target_304 = arith.constant dense<2147483647> : tensor<256xi64> loc(#loc502)
        %conv_states_ptrs_target_305 = arith.cmpi sle, %conv_states_ptrs_target_301, %conv_states_ptrs_target_304 : tensor<256xi64> loc(#loc502)
        %conv_states_ptrs_target_306 = arith.constant dense<-2147483648> : tensor<256xi64> loc(#loc502)
        %conv_states_ptrs_target_307 = arith.cmpi sge, %conv_states_ptrs_target_301, %conv_states_ptrs_target_306 : tensor<256xi64> loc(#loc502)
        %conv_states_ptrs_target_308 = arith.andi %conv_states_ptrs_target_305, %conv_states_ptrs_target_307 : tensor<256xi1> loc(#loc502)
        %conv_states_ptrs_target_309 = arith.muli %idx_feats_28, %conv_states_ptrs_target_298 : tensor<256xi32> loc(#loc502)
        %conv_states_ptrs_target_310 = tt.splat %conv_states_ptrs_target_297 : !tt.ptr<f16> -> tensor<256x!tt.ptr<f16>> loc(#loc503)
        %conv_states_ptrs_target_311 = tt.addptr %conv_states_ptrs_target_310, %conv_states_ptrs_target_309 : tensor<256x!tt.ptr<f16>>, tensor<256xi32> loc(#loc503)
        %conv_states_ptrs_target_312 = tt.expand_dims %conv_states_ptrs_target_311 {axis = 0 : i32} : tensor<256x!tt.ptr<f16>> -> tensor<1x256x!tt.ptr<f16>> loc(#loc504)
        %conv_states_ptrs_target_313 = arith.constant dense<4096> : tensor<4xi32> loc(#loc505)
        %conv_states_ptrs_target_314 = arith.extsi %idx_tokens_conv : tensor<4xi32> to tensor<4xi64> loc(#loc505)
        %conv_states_ptrs_target_315 = arith.extsi %conv_states_ptrs_target_313 : tensor<4xi32> to tensor<4xi64> loc(#loc505)
        %conv_states_ptrs_target_316 = arith.muli %conv_states_ptrs_target_314, %conv_states_ptrs_target_315 : tensor<4xi64> loc(#loc505)
        %conv_states_ptrs_target_317 = arith.constant 2147483647 : i64 loc(#loc505)
        %conv_states_ptrs_target_318 = arith.constant -2147483648 : i64 loc(#loc505)
        %conv_states_ptrs_target_319 = arith.constant dense<2147483647> : tensor<4xi64> loc(#loc505)
        %conv_states_ptrs_target_320 = arith.cmpi sle, %conv_states_ptrs_target_316, %conv_states_ptrs_target_319 : tensor<4xi64> loc(#loc505)
        %conv_states_ptrs_target_321 = arith.constant dense<-2147483648> : tensor<4xi64> loc(#loc505)
        %conv_states_ptrs_target_322 = arith.cmpi sge, %conv_states_ptrs_target_316, %conv_states_ptrs_target_321 : tensor<4xi64> loc(#loc505)
        %conv_states_ptrs_target_323 = arith.andi %conv_states_ptrs_target_320, %conv_states_ptrs_target_322 : tensor<4xi1> loc(#loc505)
        %conv_states_ptrs_target_324 = arith.muli %idx_tokens_conv, %conv_states_ptrs_target_313 : tensor<4xi32> loc(#loc505)
        %conv_states_ptrs_target_325 = tt.expand_dims %conv_states_ptrs_target_324 {axis = 1 : i32} : tensor<4xi32> -> tensor<4x1xi32> loc(#loc506)
        %conv_states_ptrs_target_326 = tt.broadcast %conv_states_ptrs_target_312 : tensor<1x256x!tt.ptr<f16>> -> tensor<4x256x!tt.ptr<f16>> loc(#loc507)
        %conv_states_ptrs_target_327 = tt.broadcast %conv_states_ptrs_target_325 : tensor<4x1xi32> -> tensor<4x256xi32> loc(#loc507)
        %conv_states_ptrs_target_328 = tt.addptr %conv_states_ptrs_target_326, %conv_states_ptrs_target_327 : tensor<4x256x!tt.ptr<f16>>, tensor<4x256xi32> loc(#loc507)
        %mask = arith.constant dense<3> : tensor<4xi32> loc(#loc508)
        %mask_329 = arith.cmpi slt, %idx_tokens_conv, %mask : tensor<4xi32> loc(#loc508)
        %mask_330 = tt.expand_dims %mask_329 {axis = 1 : i32} : tensor<4xi1> -> tensor<4x1xi1> loc(#loc509)
        %mask_331 = arith.constant 4096 : i32 loc(#loc510)
        %mask_332 = arith.constant dense<4096> : tensor<256xi32> loc(#loc510)
        %mask_333 = arith.cmpi slt, %idx_feats_28, %mask_332 : tensor<256xi32> loc(#loc510)
        %mask_334 = tt.expand_dims %mask_333 {axis = 0 : i32} : tensor<256xi1> -> tensor<1x256xi1> loc(#loc511)
        %mask_335 = tt.broadcast %mask_330 : tensor<4x1xi1> -> tensor<4x256xi1> loc(#loc512)
        %mask_336 = tt.broadcast %mask_334 : tensor<1x256xi1> -> tensor<4x256xi1> loc(#loc512)
        %mask_337 = arith.andi %mask_335, %mask_336 : tensor<4x256xi1> loc(#loc512)
        gpu.barrier loc(#loc239)
        tt.store %conv_states_ptrs_target_328, %loaded_x_277, %mask_337 : tensor<4x256x!tt.ptr<f16>> loc(#loc240)
      } else {
      } loc(#loc199)
      scf.yield %col0_189, %col1_178, %col2_168, %load_init_state : tensor<256xf16>, tensor<256xf16>, tensor<256xf16>, i1 loc(#loc199)
    } loc(#loc50)
    %acc_preload = tt.call @"triton.language.standard.zeros____(0, 0)cconstexpr_256__(1,)cconstexpr_fp32_"() : () -> tensor<256xf32> loc(#loc513)
    %x_base_1d = arith.extsi %token_offset_50 : i32 to i64 loc(#loc514)
    %x_base_1d_117 = arith.muli %x_base_1d, %stride_x_token : i64 loc(#loc514)
    %x_base_1d_118 = tt.splat %x_base_1d_117 : i64 -> tensor<256xi64> loc(#loc515)
    %x_base_1d_119 = tt.addptr %x_base_78, %x_base_1d_118 : tensor<256x!tt.ptr<f16>>, tensor<256xi64> loc(#loc515)
    %mask_w = arith.constant 4096 : i32 loc(#loc516)
    %mask_w_120 = arith.constant dense<4096> : tensor<256xi32> loc(#loc516)
    %mask_w_121 = arith.cmpi slt, %idx_feats_28, %mask_w_120 : tensor<256xi32> loc(#loc516)
    %w_ptrs = arith.constant 0 : i32 loc(#loc517)
    %w_ptrs_122 = arith.constant dense<0> : tensor<256xi32> loc(#loc517)
    %w_ptrs_123 = tt.addptr %w_base_115, %w_ptrs_122 : tensor<256x!tt.ptr<f16>>, tensor<256xi32> loc(#loc517)
    %w_col0 = arith.constant 0.000000e+00 : f32 loc(#loc518)
    %w_col0_124 = arith.constant dense<0.000000e+00> : tensor<256xf32> loc(#loc518)
    %w_col0_125 = arith.truncf %w_col0_124 : tensor<256xf32> to tensor<256xf16> loc(#loc518)
    %w_col0_126 = tt.load %w_ptrs_123, %mask_w_121, %w_col0_125 : tensor<256x!tt.ptr<f16>> loc(#loc518)
    %w_ptrs_127 = arith.constant 1 : i32 loc(#loc519)
    %w_ptrs_128 = arith.constant dense<1> : tensor<256xi32> loc(#loc519)
    %w_ptrs_129 = tt.addptr %w_base_115, %w_ptrs_128 : tensor<256x!tt.ptr<f16>>, tensor<256xi32> loc(#loc519)
    %w_col1 = arith.constant 0.000000e+00 : f32 loc(#loc520)
    %w_col1_130 = arith.constant dense<0.000000e+00> : tensor<256xf32> loc(#loc520)
    %w_col1_131 = arith.truncf %w_col1_130 : tensor<256xf32> to tensor<256xf16> loc(#loc520)
    %w_col1_132 = tt.load %w_ptrs_129, %mask_w_121, %w_col1_131 : tensor<256x!tt.ptr<f16>> loc(#loc520)
    %w_ptrs_133 = arith.constant 2 : i32 loc(#loc521)
    %w_ptrs_134 = arith.constant dense<2> : tensor<256xi32> loc(#loc521)
    %w_ptrs_135 = tt.addptr %w_base_115, %w_ptrs_134 : tensor<256x!tt.ptr<f16>>, tensor<256xi32> loc(#loc521)
    %w_col2 = arith.constant 0.000000e+00 : f32 loc(#loc522)
    %w_col2_136 = arith.constant dense<0.000000e+00> : tensor<256xf32> loc(#loc522)
    %w_col2_137 = arith.truncf %w_col2_136 : tensor<256xf32> to tensor<256xf16> loc(#loc522)
    %w_col2_138 = tt.load %w_ptrs_135, %mask_w_121, %w_col2_137 : tensor<256x!tt.ptr<f16>> loc(#loc522)
    %w_ptrs_139 = arith.constant 3 : i32 loc(#loc523)
    %w_ptrs_140 = arith.constant dense<3> : tensor<256xi32> loc(#loc523)
    %w_ptrs_141 = tt.addptr %w_base_115, %w_ptrs_140 : tensor<256x!tt.ptr<f16>>, tensor<256xi32> loc(#loc523)
    %w_col3 = arith.constant 0.000000e+00 : f32 loc(#loc524)
    %w_col3_142 = arith.constant dense<0.000000e+00> : tensor<256xf32> loc(#loc524)
    %w_col3_143 = arith.truncf %w_col3_142 : tensor<256xf32> to tensor<256xf16> loc(#loc524)
    %w_col3_144 = tt.load %w_ptrs_141, %mask_w_121, %w_col3_143 : tensor<256x!tt.ptr<f16>> loc(#loc524)
    %mask_x_1d = arith.constant 4096 : i32 loc(#loc525)
    %mask_x_1d_145 = arith.constant dense<4096> : tensor<256xi32> loc(#loc525)
    %mask_x_1d_146 = arith.cmpi slt, %idx_feats_28, %mask_x_1d_145 : tensor<256xi32> loc(#loc525)
    %c0_i32_147 = arith.constant 0 : i32 loc(#loc254)
    %c1_i32 = arith.constant 1 : i32 loc(#loc254)
    %6 = arith.bitcast %c0_i32_147 : i32 to i32 loc(#loc254)
    %7 = arith.bitcast %segment_len_60 : i32 to i32 loc(#loc254)
    %8 = arith.bitcast %c1_i32 : i32 to i32 loc(#loc254)
    %9 = ub.poison : i32 loc(#loc254)
    %col2:3 = scf.for %idx_token = %6 to %7 step %8 iter_args(%col0 = %5#0, %col1 = %5#1, %col2_148 = %5#2) -> (tensor<256xf16>, tensor<256xf16>, tensor<256xf16>)  : i32 {
      %acc = arith.mulf %col0, %w_col0_126 : tensor<256xf16> loc(#loc527)
      %acc_149 = arith.extf %acc : tensor<256xf16> to tensor<256xf32> loc(#loc528)
      %acc_150 = arith.addf %acc_preload, %acc_149 : tensor<256xf32> loc(#loc528)
      %acc_151 = arith.mulf %col1, %w_col1_132 : tensor<256xf16> loc(#loc527)
      %acc_152 = arith.extf %acc_151 : tensor<256xf16> to tensor<256xf32> loc(#loc528)
      %acc_153 = arith.addf %acc_150, %acc_152 : tensor<256xf32> loc(#loc528)
      %acc_154 = arith.mulf %col2_148, %w_col2_138 : tensor<256xf16> loc(#loc527)
      %acc_155 = arith.extf %acc_154 : tensor<256xf16> to tensor<256xf32> loc(#loc528)
      %acc_156 = arith.addf %acc_153, %acc_155 : tensor<256xf32> loc(#loc528)
      %x_ptrs_1d = arith.extsi %idx_token : i32 to i64 loc(#loc529)
      %x_ptrs_1d_157 = arith.muli %x_ptrs_1d, %stride_x_token : i64 loc(#loc529)
      %x_ptrs_1d_158 = tt.splat %x_ptrs_1d_157 : i64 -> tensor<256xi64> loc(#loc530)
      %x_ptrs_1d_159 = tt.addptr %x_base_1d_119, %x_ptrs_1d_158 : tensor<256x!tt.ptr<f16>>, tensor<256xi64> loc(#loc530)
      %matrix_x = tt.load %x_ptrs_1d_159, %mask_x_1d_146 : tensor<256x!tt.ptr<f16>> loc(#loc531)
      %acc_160 = arith.mulf %matrix_x, %w_col3_144 : tensor<256xf16> loc(#loc527)
      %acc_161 = arith.extf %acc_160 : tensor<256xf16> to tensor<256xf32> loc(#loc528)
      %acc_162 = arith.addf %acc_156, %acc_161 : tensor<256xf32> loc(#loc528)
      %acc_163 = arith.constant 0.000000e+00 : f32 loc(#loc532)
      %acc_164 = arith.constant dense<0.000000e+00> : tensor<256xf32> loc(#loc532)
      %acc_165 = arith.subf %acc_164, %acc_162 : tensor<256xf32> loc(#loc532)
      %acc_166 = math.exp %acc_165 : tensor<256xf32> loc(#loc533)
      %acc_167 = arith.constant 1 : i32 loc(#loc534)
      %acc_168 = arith.constant 1.000000e+00 : f32 loc(#loc534)
      %acc_169 = arith.constant dense<1.000000e+00> : tensor<256xf32> loc(#loc534)
      %acc_170 = arith.addf %acc_169, %acc_166 : tensor<256xf32> loc(#loc534)
      %acc_171 = arith.divf %acc_162, %acc_170 : tensor<256xf32> loc(#loc535)
      %mask_1d = arith.cmpi slt, %idx_token, %segment_len_60 : i32 loc(#loc536)
      %mask_1d_172 = arith.constant 4096 : i32 loc(#loc537)
      %mask_1d_173 = arith.constant dense<4096> : tensor<256xi32> loc(#loc537)
      %mask_1d_174 = arith.cmpi slt, %idx_feats_28, %mask_1d_173 : tensor<256xi32> loc(#loc537)
      %mask_1d_175 = tt.splat %mask_1d : i1 -> tensor<256xi1> loc(#loc538)
      %mask_1d_176 = arith.andi %mask_1d_175, %mask_1d_174 : tensor<256xi1> loc(#loc538)
      %o_ptrs = arith.extsi %sequence_start_index_29 : i32 to i64 loc(#loc539)
      %o_ptrs_177 = arith.extsi %token_offset_50 : i32 to i64 loc(#loc539)
      %o_ptrs_178 = arith.addi %o_ptrs, %o_ptrs_177 : i64 loc(#loc539)
      %o_ptrs_179 = arith.constant 2147483647 : i64 loc(#loc539)
      %o_ptrs_180 = arith.constant -2147483648 : i64 loc(#loc539)
      %o_ptrs_181 = arith.cmpi sle, %o_ptrs_178, %o_ptrs_179 : i64 loc(#loc539)
      %o_ptrs_182 = arith.cmpi sge, %o_ptrs_178, %o_ptrs_180 : i64 loc(#loc539)
      %o_ptrs_183 = arith.andi %o_ptrs_181, %o_ptrs_182 : i1 loc(#loc539)
      %o_ptrs_184 = arith.addi %sequence_start_index_29, %token_offset_50 : i32 loc(#loc539)
      %o_ptrs_185 = arith.extsi %o_ptrs_184 : i32 to i64 loc(#loc540)
      %o_ptrs_186 = arith.extsi %idx_token : i32 to i64 loc(#loc540)
      %o_ptrs_187 = arith.addi %o_ptrs_185, %o_ptrs_186 : i64 loc(#loc540)
      %o_ptrs_188 = arith.constant 2147483647 : i64 loc(#loc540)
      %o_ptrs_189 = arith.constant -2147483648 : i64 loc(#loc540)
      %o_ptrs_190 = arith.cmpi sle, %o_ptrs_187, %o_ptrs_188 : i64 loc(#loc540)
      %o_ptrs_191 = arith.cmpi sge, %o_ptrs_187, %o_ptrs_189 : i64 loc(#loc540)
      %o_ptrs_192 = arith.andi %o_ptrs_190, %o_ptrs_191 : i1 loc(#loc540)
      %o_ptrs_193 = arith.addi %o_ptrs_184, %idx_token : i32 loc(#loc540)
      %o_ptrs_194 = arith.extsi %o_ptrs_193 : i32 to i64 loc(#loc541)
      %o_ptrs_195 = arith.muli %o_ptrs_194, %stride_o_token : i64 loc(#loc541)
      %o_ptrs_196 = tt.addptr %o_ptr, %o_ptrs_195 : !tt.ptr<f16>, i64 loc(#loc542)
      %o_ptrs_197 = arith.constant 1 : i32 loc(#loc543)
      %o_ptrs_198 = arith.constant 1 : i32 loc(#loc543)
      %o_ptrs_199 = arith.constant dense<1> : tensor<256xi32> loc(#loc543)
      %o_ptrs_200 = arith.extsi %idx_feats_28 : tensor<256xi32> to tensor<256xi64> loc(#loc543)
      %o_ptrs_201 = arith.extsi %o_ptrs_199 : tensor<256xi32> to tensor<256xi64> loc(#loc543)
      %o_ptrs_202 = arith.muli %o_ptrs_200, %o_ptrs_201 : tensor<256xi64> loc(#loc543)
      %o_ptrs_203 = arith.constant 2147483647 : i64 loc(#loc543)
      %o_ptrs_204 = arith.constant -2147483648 : i64 loc(#loc543)
      %o_ptrs_205 = arith.constant dense<2147483647> : tensor<256xi64> loc(#loc543)
      %o_ptrs_206 = arith.cmpi sle, %o_ptrs_202, %o_ptrs_205 : tensor<256xi64> loc(#loc543)
      %o_ptrs_207 = arith.constant dense<-2147483648> : tensor<256xi64> loc(#loc543)
      %o_ptrs_208 = arith.cmpi sge, %o_ptrs_202, %o_ptrs_207 : tensor<256xi64> loc(#loc543)
      %o_ptrs_209 = arith.andi %o_ptrs_206, %o_ptrs_208 : tensor<256xi1> loc(#loc543)
      %o_ptrs_210 = arith.muli %idx_feats_28, %o_ptrs_199 : tensor<256xi32> loc(#loc543)
      %o_ptrs_211 = tt.splat %o_ptrs_196 : !tt.ptr<f16> -> tensor<256x!tt.ptr<f16>> loc(#loc544)
      %o_ptrs_212 = tt.addptr %o_ptrs_211, %o_ptrs_210 : tensor<256x!tt.ptr<f16>>, tensor<256xi32> loc(#loc544)
      %10 = arith.truncf %acc_171 : tensor<256xf32> to tensor<256xf16> loc(#loc273)
      tt.store %o_ptrs_212, %10, %mask_1d_176 : tensor<256x!tt.ptr<f16>> loc(#loc273)
      scf.yield %col1, %col2_148, %matrix_x : tensor<256xf16>, tensor<256xf16>, tensor<256xf16> loc(#loc274)
    } loc(#loc580)
    tt.return loc(#loc275)
  } loc(#loc)
  tt.func private @"triton.language.standard.zeros____(0, 0)cconstexpr_256__(1,)cconstexpr_fp16_"() -> tensor<256xf16> attributes {noinline = false} {
    %cst = arith.constant 0.000000e+00 : f16 loc(#loc277)
    %cst_0 = arith.constant dense<0.000000e+00> : tensor<256xf16> loc(#loc277)
    tt.return %cst_0 : tensor<256xf16> loc(#loc278)
  ^bb1:  // no predecessors
    %0 = ub.poison : tensor<256xf16> loc(#loc279)
    tt.return %0 : tensor<256xf16> loc(#loc279)
  } loc(#loc276)
  tt.func private @"triton.language.standard.zeros____(0, 0)cconstexpr_256__(1,)cconstexpr_fp32_"() -> tensor<256xf32> attributes {noinline = false} {
    %cst = arith.constant 0.000000e+00 : f32 loc(#loc277)
    %cst_0 = arith.constant dense<0.000000e+00> : tensor<256xf32> loc(#loc277)
    tt.return %cst_0 : tensor<256xf32> loc(#loc278)
  ^bb1:  // no predecessors
    %0 = ub.poison : tensor<256xf32> loc(#loc279)
    tt.return %0 : tensor<256xf32> loc(#loc279)
  } loc(#loc276)
} loc(#loc)
#loc1 = loc("/usr/local/lib/python3.12/dist-packages/vllm/model_executor/layers/mamba/ops/causal_conv1d.py":64:28)
#loc2 = loc("/usr/local/lib/python3.12/dist-packages/vllm/model_executor/layers/mamba/ops/causal_conv1d.py":65:28)
#loc3 = loc("/usr/local/lib/python3.12/dist-packages/vllm/model_executor/layers/mamba/ops/causal_conv1d.py":66:28)
#loc4 = loc("/usr/local/lib/python3.12/dist-packages/vllm/model_executor/layers/mamba/ops/causal_conv1d.py":68:8)
#loc5 = loc("/usr/local/lib/python3.12/dist-packages/vllm/model_executor/layers/mamba/ops/causal_conv1d.py":75:48)
#loc6 = loc("/usr/local/lib/python3.12/dist-packages/vllm/model_executor/layers/mamba/ops/causal_conv1d.py":75:34)
#loc7 = loc("/usr/local/lib/python3.12/dist-packages/vllm/model_executor/layers/mamba/ops/causal_conv1d.py":75:22)
#loc8 = loc("/usr/local/lib/python3.12/dist-packages/vllm/model_executor/layers/mamba/ops/causal_conv1d.py":75:55)
#loc9 = loc("/usr/local/lib/python3.12/dist-packages/vllm/model_executor/layers/mamba/ops/causal_conv1d.py":76:66)
#loc10 = loc("/usr/local/lib/python3.12/dist-packages/vllm/model_executor/layers/mamba/ops/causal_conv1d.py":76:52)
#loc11 = loc("/usr/local/lib/python3.12/dist-packages/vllm/model_executor/layers/mamba/ops/causal_conv1d.py":76:27)
#loc12 = loc("/usr/local/lib/python3.12/dist-packages/vllm/model_executor/layers/mamba/ops/causal_conv1d.py":79:30)
#loc13 = loc("/usr/local/lib/python3.12/dist-packages/vllm/model_executor/layers/mamba/ops/causal_conv1d.py":79:35)
#loc14 = loc("/usr/local/lib/python3.12/dist-packages/vllm/model_executor/layers/mamba/ops/causal_conv1d.py":79:58)
#loc15 = loc("/usr/local/lib/python3.12/dist-packages/vllm/model_executor/layers/mamba/ops/causal_conv1d.py":79:45)
#loc16 = loc("/usr/local/lib/python3.12/dist-packages/vllm/model_executor/layers/mamba/ops/causal_conv1d.py":81:18)
#loc17 = loc("/usr/local/lib/python3.12/dist-packages/vllm/model_executor/layers/mamba/ops/causal_conv1d.py":82:8)
#loc18 = loc("/usr/local/lib/python3.12/dist-packages/vllm/model_executor/layers/mamba/ops/causal_conv1d.py":84:57)
#loc19 = loc("/usr/local/lib/python3.12/dist-packages/vllm/model_executor/layers/mamba/ops/causal_conv1d.py":84:35)
#loc20 = loc("/usr/local/lib/python3.12/dist-packages/vllm/model_executor/layers/mamba/ops/causal_conv1d.py":85:55)
#loc21 = loc("/usr/local/lib/python3.12/dist-packages/vllm/model_executor/layers/mamba/ops/causal_conv1d.py":85:65)
#loc22 = loc("/usr/local/lib/python3.12/dist-packages/vllm/model_executor/layers/mamba/ops/causal_conv1d.py":85:33)
#loc23 = loc("/usr/local/lib/python3.12/dist-packages/vllm/model_executor/layers/mamba/ops/causal_conv1d.py":87:34)
#loc24 = loc("/usr/local/lib/python3.12/dist-packages/vllm/model_executor/layers/mamba/ops/causal_conv1d.py":117:26)
#loc25 = loc("/usr/local/lib/python3.12/dist-packages/vllm/model_executor/layers/mamba/ops/causal_conv1d.py":118:29)
#loc26 = loc("/usr/local/lib/python3.12/dist-packages/vllm/model_executor/layers/mamba/ops/causal_conv1d.py":119:32)
#loc27 = loc("/usr/local/lib/python3.12/dist-packages/vllm/model_executor/layers/mamba/ops/causal_conv1d.py":120:30)
#loc28 = loc("/usr/local/lib/python3.12/dist-packages/vllm/model_executor/layers/mamba/ops/causal_conv1d.py":121:38)
#loc29 = loc("/usr/local/lib/python3.12/dist-packages/vllm/model_executor/layers/mamba/ops/causal_conv1d.py":123:29)
#loc30 = loc("/usr/local/lib/python3.12/dist-packages/vllm/model_executor/layers/mamba/ops/causal_conv1d.py":124:40)
#loc31 = loc("/usr/local/lib/python3.12/dist-packages/vllm/model_executor/layers/mamba/ops/causal_conv1d.py":124:31)
#loc32 = loc("/usr/local/lib/python3.12/dist-packages/vllm/model_executor/layers/mamba/ops/causal_conv1d.py":128:39)
#loc33 = loc("/usr/local/lib/python3.12/dist-packages/vllm/model_executor/layers/mamba/ops/causal_conv1d.py":128:16)
#loc34 = loc("/usr/local/lib/python3.12/dist-packages/vllm/model_executor/layers/mamba/ops/causal_conv1d.py":128:68)
#loc35 = loc("/usr/local/lib/python3.12/dist-packages/vllm/model_executor/layers/mamba/ops/causal_conv1d.py":128:56)
#loc36 = loc("/usr/local/lib/python3.12/dist-packages/vllm/model_executor/layers/mamba/ops/causal_conv1d.py":133:43)
#loc37 = loc("/usr/local/lib/python3.12/dist-packages/vllm/model_executor/layers/mamba/ops/causal_conv1d.py":133:33)
#loc38 = loc("/usr/local/lib/python3.12/dist-packages/vllm/model_executor/layers/mamba/ops/causal_conv1d.py":133:66)
#loc39 = loc("/usr/local/lib/python3.12/dist-packages/vllm/model_executor/layers/mamba/ops/causal_conv1d.py":133:8)
#loc40 = loc("/usr/local/lib/python3.12/dist-packages/vllm/model_executor/layers/mamba/ops/causal_conv1d.py":134:9)
#loc41 = loc("/usr/local/lib/python3.12/dist-packages/vllm/model_executor/layers/mamba/ops/causal_conv1d.py":137:38)
#loc42 = loc("/usr/local/lib/python3.12/dist-packages/vllm/model_executor/layers/mamba/ops/causal_conv1d.py":139:12)
#loc43 = loc("/usr/local/lib/python3.12/dist-packages/vllm/model_executor/layers/mamba/ops/causal_conv1d.py":142:37)
#loc44 = loc("/usr/local/lib/python3.12/dist-packages/vllm/model_executor/layers/mamba/ops/causal_conv1d.py":142:11)
#loc45 = loc("/usr/local/lib/python3.12/dist-packages/vllm/model_executor/layers/mamba/ops/causal_conv1d.py":143:23)
#loc46 = loc("/usr/local/lib/python3.12/dist-packages/vllm/model_executor/layers/mamba/ops/causal_conv1d.py":143:11)
#loc47 = loc("/usr/local/lib/python3.12/dist-packages/vllm/model_executor/layers/mamba/ops/causal_conv1d.py":146:34)
#loc48 = loc("/usr/local/lib/python3.12/dist-packages/vllm/model_executor/layers/mamba/ops/causal_conv1d.py":146:22)
#loc49 = loc("/usr/local/lib/python3.12/dist-packages/vllm/model_executor/layers/mamba/ops/causal_conv1d.py":151:23)
#loc50 = loc("/usr/local/lib/python3.12/dist-packages/vllm/model_executor/layers/mamba/ops/causal_conv1d.py":151:7)
#loc51 = loc("/usr/local/lib/python3.12/dist-packages/vllm/model_executor/layers/mamba/ops/causal_conv1d.py":153:59)
#loc52 = loc("/usr/local/lib/python3.12/dist-packages/vllm/model_executor/layers/mamba/ops/causal_conv1d.py":153:34)
#loc53 = loc("/usr/local/lib/python3.12/dist-packages/vllm/model_executor/layers/mamba/ops/causal_conv1d.py":154:11)
#loc54 = loc("/usr/local/lib/python3.12/dist-packages/vllm/model_executor/layers/mamba/ops/causal_conv1d.py":156:59)
#loc55 = loc("/usr/local/lib/python3.12/dist-packages/vllm/model_executor/layers/mamba/ops/causal_conv1d.py":156:64)
#loc56 = loc("/usr/local/lib/python3.12/dist-packages/vllm/model_executor/layers/mamba/ops/causal_conv1d.py":156:46)
#loc57 = loc("/usr/local/lib/python3.12/dist-packages/vllm/model_executor/layers/mamba/ops/causal_conv1d.py":157:33)
#loc58 = loc("/usr/local/lib/python3.12/dist-packages/vllm/model_executor/layers/mamba/ops/causal_conv1d.py":168:57)
#loc59 = loc("/usr/local/lib/python3.12/dist-packages/vllm/model_executor/layers/mamba/ops/causal_conv1d.py":169:54)
#loc60 = loc("/usr/local/lib/python3.12/dist-packages/vllm/model_executor/layers/mamba/ops/causal_conv1d.py":169:50)
#loc61 = loc("/usr/local/lib/python3.12/dist-packages/vllm/model_executor/layers/mamba/ops/causal_conv1d.py":170:57)
#loc62 = loc("/usr/local/lib/python3.12/dist-packages/vllm/model_executor/layers/mamba/ops/causal_conv1d.py":171:54)
#loc63 = loc("/usr/local/lib/python3.12/dist-packages/vllm/model_executor/layers/mamba/ops/causal_conv1d.py":171:50)
#loc64 = loc("/usr/local/lib/python3.12/dist-packages/vllm/model_executor/layers/mamba/ops/causal_conv1d.py":172:57)
#loc65 = loc("/usr/local/lib/python3.12/dist-packages/vllm/model_executor/layers/mamba/ops/causal_conv1d.py":186:32)
#loc66 = loc("/usr/local/lib/python3.12/dist-packages/vllm/model_executor/layers/mamba/ops/causal_conv1d.py":188:32)
#loc67 = loc("/usr/local/lib/python3.12/dist-packages/vllm/model_executor/layers/mamba/ops/causal_conv1d.py":190:32)
#loc68 = loc("/usr/local/lib/python3.12/dist-packages/vllm/model_executor/layers/mamba/ops/causal_conv1d.py":197:25)
#loc69 = loc("/usr/local/lib/python3.12/dist-packages/vllm/model_executor/layers/mamba/ops/causal_conv1d.py":197:12)
#loc70 = loc("/usr/local/lib/python3.12/dist-packages/vllm/model_executor/layers/mamba/ops/causal_conv1d.py":202:40)
#loc71 = loc("/usr/local/lib/python3.12/dist-packages/vllm/model_executor/layers/mamba/ops/causal_conv1d.py":203:19)
#loc72 = loc("/usr/local/lib/python3.12/dist-packages/vllm/model_executor/layers/mamba/ops/causal_conv1d.py":202:53)
#loc73 = loc("/usr/local/lib/python3.12/dist-packages/vllm/model_executor/layers/mamba/ops/causal_conv1d.py":207:43)
#loc74 = loc("/usr/local/lib/python3.12/dist-packages/vllm/model_executor/layers/mamba/ops/causal_conv1d.py":207:62)
#loc75 = loc("/usr/local/lib/python3.12/dist-packages/vllm/model_executor/layers/mamba/ops/causal_conv1d.py":207:78)
#loc76 = loc("/usr/local/lib/python3.12/dist-packages/vllm/model_executor/layers/mamba/ops/causal_conv1d.py":207:18)
#loc77 = loc("/usr/local/lib/python3.12/dist-packages/vllm/model_executor/layers/mamba/ops/causal_conv1d.py":208:31)
#loc78 = loc("/usr/local/lib/python3.12/dist-packages/vllm/model_executor/layers/mamba/ops/causal_conv1d.py":208:45)
#loc79 = loc("/usr/local/lib/python3.12/dist-packages/vllm/model_executor/layers/mamba/ops/causal_conv1d.py":208:18)
#loc80 = loc("/usr/local/lib/python3.12/dist-packages/vllm/model_executor/layers/mamba/ops/causal_conv1d.py":211:36)
#loc81 = loc("/usr/local/lib/python3.12/dist-packages/vllm/model_executor/layers/mamba/ops/causal_conv1d.py":211:39)
#loc82 = loc("/usr/local/lib/python3.12/dist-packages/vllm/model_executor/layers/mamba/ops/causal_conv1d.py":212:37)
#loc83 = loc("/usr/local/lib/python3.12/dist-packages/vllm/model_executor/layers/mamba/ops/causal_conv1d.py":212:45)
#loc84 = loc("/usr/local/lib/python3.12/dist-packages/vllm/model_executor/layers/mamba/ops/causal_conv1d.py":212:18)
#loc85 = loc("/usr/local/lib/python3.12/dist-packages/vllm/model_executor/layers/mamba/ops/causal_conv1d.py":213:31)
#loc86 = loc("/usr/local/lib/python3.12/dist-packages/vllm/model_executor/layers/mamba/ops/causal_conv1d.py":213:36)
#loc87 = loc("/usr/local/lib/python3.12/dist-packages/vllm/model_executor/layers/mamba/ops/causal_conv1d.py":213:18)
#loc88 = loc("/usr/local/lib/python3.12/dist-packages/vllm/model_executor/layers/mamba/ops/causal_conv1d.py":215:47)
#loc89 = loc("/usr/local/lib/python3.12/dist-packages/vllm/model_executor/layers/mamba/ops/causal_conv1d.py":216:43)
#loc90 = loc("/usr/local/lib/python3.12/dist-packages/vllm/model_executor/layers/mamba/ops/causal_conv1d.py":221:28)
#loc91 = loc("/usr/local/lib/python3.12/dist-packages/vllm/model_executor/layers/mamba/ops/causal_conv1d.py":221:18)
#loc92 = loc("/usr/local/lib/python3.12/dist-packages/vllm/model_executor/layers/mamba/ops/causal_conv1d.py":222:18)
#loc93 = loc("/usr/local/lib/python3.12/dist-packages/vllm/model_executor/layers/mamba/ops/causal_conv1d.py":220:16)
#loc94 = loc("/usr/local/lib/python3.12/dist-packages/vllm/model_executor/layers/mamba/ops/causal_conv1d.py":223:17)
#loc95 = loc("/usr/local/lib/python3.12/dist-packages/vllm/model_executor/layers/mamba/ops/causal_conv1d.py":227:46)
#loc96 = loc("/usr/local/lib/python3.12/dist-packages/vllm/model_executor/layers/mamba/ops/causal_conv1d.py":227:19)
#loc97 = loc("/usr/local/lib/python3.12/dist-packages/vllm/model_executor/layers/mamba/ops/causal_conv1d.py":228:31)
#loc98 = loc("/usr/local/lib/python3.12/dist-packages/vllm/model_executor/layers/mamba/ops/causal_conv1d.py":228:19)
#loc99 = loc("/usr/local/lib/python3.12/dist-packages/vllm/model_executor/layers/mamba/ops/causal_conv1d.py":229:14)
#loc100 = loc("/usr/local/lib/python3.12/dist-packages/vllm/model_executor/layers/mamba/ops/causal_conv1d.py":230:34)
#loc101 = loc("/usr/local/lib/python3.12/dist-packages/vllm/model_executor/layers/mamba/ops/causal_conv1d.py":231:14)
#loc102 = loc("/usr/local/lib/python3.12/dist-packages/vllm/model_executor/layers/mamba/ops/causal_conv1d.py":229:25)
#loc103 = loc("/usr/local/lib/python3.12/dist-packages/vllm/model_executor/layers/mamba/ops/causal_conv1d.py":233:38)
#loc104 = loc("/usr/local/lib/python3.12/dist-packages/vllm/model_executor/layers/mamba/ops/causal_conv1d.py":233:49)
#loc105 = loc("/usr/local/lib/python3.12/dist-packages/vllm/model_executor/layers/mamba/ops/causal_conv1d.py":233:73)
#loc106 = loc("/usr/local/lib/python3.12/dist-packages/vllm/model_executor/layers/mamba/ops/causal_conv1d.py":233:78)
#loc107 = loc("/usr/local/lib/python3.12/dist-packages/vllm/model_executor/layers/mamba/ops/causal_conv1d.py":233:60)
#loc108 = loc("/usr/local/lib/python3.12/dist-packages/vllm/model_executor/layers/mamba/ops/causal_conv1d.py":234:12)
#loc109 = loc("/usr/local/lib/python3.12/dist-packages/vllm/model_executor/layers/mamba/ops/causal_conv1d.py":235:56)
#loc110 = loc("/usr/local/lib/python3.12/dist-packages/vllm/model_executor/layers/mamba/ops/causal_conv1d.py":238:15)
#loc111 = loc("/usr/local/lib/python3.12/dist-packages/vllm/model_executor/layers/mamba/ops/causal_conv1d.py":240:47)
#loc112 = loc("/usr/local/lib/python3.12/dist-packages/vllm/model_executor/layers/mamba/ops/causal_conv1d.py":244:49)
#loc113 = loc("/usr/local/lib/python3.12/dist-packages/vllm/model_executor/layers/mamba/ops/causal_conv1d.py":244:23)
#loc114 = loc("/usr/local/lib/python3.12/dist-packages/vllm/model_executor/layers/mamba/ops/causal_conv1d.py":245:35)
#loc115 = loc("/usr/local/lib/python3.12/dist-packages/vllm/model_executor/layers/mamba/ops/causal_conv1d.py":245:58)
#loc116 = loc("/usr/local/lib/python3.12/dist-packages/vllm/model_executor/layers/mamba/ops/causal_conv1d.py":245:22)
#loc117 = loc("/usr/local/lib/python3.12/dist-packages/vllm/model_executor/layers/mamba/ops/causal_conv1d.py":246:42)
#loc118 = loc("/usr/local/lib/python3.12/dist-packages/vllm/model_executor/layers/mamba/ops/causal_conv1d.py":246:52)
#loc119 = loc("/usr/local/lib/python3.12/dist-packages/vllm/model_executor/layers/mamba/ops/causal_conv1d.py":246:75)
#loc120 = loc("/usr/local/lib/python3.12/dist-packages/vllm/model_executor/layers/mamba/ops/causal_conv1d.py":246:22)
#loc121 = loc("/usr/local/lib/python3.12/dist-packages/vllm/model_executor/layers/mamba/ops/causal_conv1d.py":249:47)
#loc122 = loc("/usr/local/lib/python3.12/dist-packages/vllm/model_executor/layers/mamba/ops/causal_conv1d.py":250:42)
#loc123 = loc("/usr/local/lib/python3.12/dist-packages/vllm/model_executor/layers/mamba/ops/causal_conv1d.py":250:52)
#loc124 = loc("/usr/local/lib/python3.12/dist-packages/vllm/model_executor/layers/mamba/ops/causal_conv1d.py":250:63)
#loc125 = loc("/usr/local/lib/python3.12/dist-packages/vllm/model_executor/layers/mamba/ops/causal_conv1d.py":250:22)
#loc126 = loc("/usr/local/lib/python3.12/dist-packages/vllm/model_executor/layers/mamba/ops/causal_conv1d.py":251:35)
#loc127 = loc("/usr/local/lib/python3.12/dist-packages/vllm/model_executor/layers/mamba/ops/causal_conv1d.py":251:40)
#loc128 = loc("/usr/local/lib/python3.12/dist-packages/vllm/model_executor/layers/mamba/ops/causal_conv1d.py":251:22)
#loc129 = loc("/usr/local/lib/python3.12/dist-packages/vllm/model_executor/layers/mamba/ops/causal_conv1d.py":253:62)
#loc130 = loc("/usr/local/lib/python3.12/dist-packages/vllm/model_executor/layers/mamba/ops/causal_conv1d.py":255:34)
#loc131 = loc("/usr/local/lib/python3.12/dist-packages/vllm/model_executor/layers/mamba/ops/causal_conv1d.py":258:27)
#loc132 = loc("/usr/local/lib/python3.12/dist-packages/vllm/model_executor/layers/mamba/ops/causal_conv1d.py":259:42)
#loc133 = loc("/usr/local/lib/python3.12/dist-packages/vllm/model_executor/layers/mamba/ops/causal_conv1d.py":259:49)
#loc134 = loc("/usr/local/lib/python3.12/dist-packages/vllm/model_executor/layers/mamba/ops/causal_conv1d.py":259:65)
#loc135 = loc("/usr/local/lib/python3.12/dist-packages/vllm/model_executor/layers/mamba/ops/causal_conv1d.py":259:22)
#loc136 = loc("/usr/local/lib/python3.12/dist-packages/vllm/model_executor/layers/mamba/ops/causal_conv1d.py":263:39)
#loc137 = loc("/usr/local/lib/python3.12/dist-packages/vllm/model_executor/layers/mamba/ops/causal_conv1d.py":263:46)
#loc138 = loc("/usr/local/lib/python3.12/dist-packages/vllm/model_executor/layers/mamba/ops/causal_conv1d.py":263:49)
#loc139 = loc("/usr/local/lib/python3.12/dist-packages/vllm/model_executor/layers/mamba/ops/causal_conv1d.py":264:41)
#loc140 = loc("/usr/local/lib/python3.12/dist-packages/vllm/model_executor/layers/mamba/ops/causal_conv1d.py":264:47)
#loc141 = loc("/usr/local/lib/python3.12/dist-packages/vllm/model_executor/layers/mamba/ops/causal_conv1d.py":264:55)
#loc142 = loc("/usr/local/lib/python3.12/dist-packages/vllm/model_executor/layers/mamba/ops/causal_conv1d.py":264:22)
#loc143 = loc("/usr/local/lib/python3.12/dist-packages/vllm/model_executor/layers/mamba/ops/causal_conv1d.py":265:35)
#loc144 = loc("/usr/local/lib/python3.12/dist-packages/vllm/model_executor/layers/mamba/ops/causal_conv1d.py":265:40)
#loc145 = loc("/usr/local/lib/python3.12/dist-packages/vllm/model_executor/layers/mamba/ops/causal_conv1d.py":265:22)
#loc146 = loc("/usr/local/lib/python3.12/dist-packages/vllm/model_executor/layers/mamba/ops/causal_conv1d.py":267:51)
#loc147 = loc("/usr/local/lib/python3.12/dist-packages/vllm/model_executor/layers/mamba/ops/causal_conv1d.py":269:16)
#loc148 = loc("/usr/local/lib/python3.12/dist-packages/vllm/model_executor/layers/mamba/ops/causal_conv1d.py":271:38)
#loc149 = loc("/usr/local/lib/python3.12/dist-packages/vllm/model_executor/layers/mamba/ops/causal_conv1d.py":275:41)
#loc150 = loc("/usr/local/lib/python3.12/dist-packages/vllm/model_executor/layers/mamba/ops/causal_conv1d.py":275:64)
#loc151 = loc("/usr/local/lib/python3.12/dist-packages/vllm/model_executor/layers/mamba/ops/causal_conv1d.py":275:22)
#loc152 = loc("/usr/local/lib/python3.12/dist-packages/vllm/model_executor/layers/mamba/ops/causal_conv1d.py":277:42)
#loc153 = loc("/usr/local/lib/python3.12/dist-packages/vllm/model_executor/layers/mamba/ops/causal_conv1d.py":277:53)
#loc154 = loc("/usr/local/lib/python3.12/dist-packages/vllm/model_executor/layers/mamba/ops/causal_conv1d.py":277:77)
#loc155 = loc("/usr/local/lib/python3.12/dist-packages/vllm/model_executor/layers/mamba/ops/causal_conv1d.py":278:20)
#loc156 = loc("/usr/local/lib/python3.12/dist-packages/vllm/model_executor/layers/mamba/ops/causal_conv1d.py":277:64)
#loc157 = loc("/usr/local/lib/python3.12/dist-packages/vllm/model_executor/layers/mamba/ops/causal_conv1d.py":280:66)
#loc158 = loc("/usr/local/lib/python3.12/dist-packages/vllm/model_executor/layers/mamba/ops/causal_conv1d.py":284:47)
#loc159 = loc("/usr/local/lib/python3.12/dist-packages/vllm/model_executor/layers/mamba/ops/causal_conv1d.py":286:34)
#loc160 = loc("/usr/local/lib/python3.12/dist-packages/vllm/model_executor/layers/mamba/ops/causal_conv1d.py":289:27)
#loc161 = loc("/usr/local/lib/python3.12/dist-packages/vllm/model_executor/layers/mamba/ops/causal_conv1d.py":290:42)
#loc162 = loc("/usr/local/lib/python3.12/dist-packages/vllm/model_executor/layers/mamba/ops/causal_conv1d.py":290:49)
#loc163 = loc("/usr/local/lib/python3.12/dist-packages/vllm/model_executor/layers/mamba/ops/causal_conv1d.py":290:65)
#loc164 = loc("/usr/local/lib/python3.12/dist-packages/vllm/model_executor/layers/mamba/ops/causal_conv1d.py":290:22)
#loc165 = loc("/usr/local/lib/python3.12/dist-packages/vllm/model_executor/layers/mamba/ops/causal_conv1d.py":294:39)
#loc166 = loc("/usr/local/lib/python3.12/dist-packages/vllm/model_executor/layers/mamba/ops/causal_conv1d.py":294:46)
#loc167 = loc("/usr/local/lib/python3.12/dist-packages/vllm/model_executor/layers/mamba/ops/causal_conv1d.py":294:49)
#loc168 = loc("/usr/local/lib/python3.12/dist-packages/vllm/model_executor/layers/mamba/ops/causal_conv1d.py":295:41)
#loc169 = loc("/usr/local/lib/python3.12/dist-packages/vllm/model_executor/layers/mamba/ops/causal_conv1d.py":295:47)
#loc170 = loc("/usr/local/lib/python3.12/dist-packages/vllm/model_executor/layers/mamba/ops/causal_conv1d.py":295:55)
#loc171 = loc("/usr/local/lib/python3.12/dist-packages/vllm/model_executor/layers/mamba/ops/causal_conv1d.py":295:22)
#loc172 = loc("/usr/local/lib/python3.12/dist-packages/vllm/model_executor/layers/mamba/ops/causal_conv1d.py":296:35)
#loc173 = loc("/usr/local/lib/python3.12/dist-packages/vllm/model_executor/layers/mamba/ops/causal_conv1d.py":296:40)
#loc174 = loc("/usr/local/lib/python3.12/dist-packages/vllm/model_executor/layers/mamba/ops/causal_conv1d.py":296:22)
#loc175 = loc("/usr/local/lib/python3.12/dist-packages/vllm/model_executor/layers/mamba/ops/causal_conv1d.py":298:57)
#loc176 = loc("/usr/local/lib/python3.12/dist-packages/vllm/model_executor/layers/mamba/ops/causal_conv1d.py":302:41)
#loc177 = loc("/usr/local/lib/python3.12/dist-packages/vllm/model_executor/layers/mamba/ops/causal_conv1d.py":302:64)
#loc178 = loc("/usr/local/lib/python3.12/dist-packages/vllm/model_executor/layers/mamba/ops/causal_conv1d.py":302:22)
#loc179 = loc("/usr/local/lib/python3.12/dist-packages/vllm/model_executor/layers/mamba/ops/causal_conv1d.py":304:42)
#loc180 = loc("/usr/local/lib/python3.12/dist-packages/vllm/model_executor/layers/mamba/ops/causal_conv1d.py":304:53)
#loc181 = loc("/usr/local/lib/python3.12/dist-packages/vllm/model_executor/layers/mamba/ops/causal_conv1d.py":304:77)
#loc182 = loc("/usr/local/lib/python3.12/dist-packages/vllm/model_executor/layers/mamba/ops/causal_conv1d.py":305:20)
#loc183 = loc("/usr/local/lib/python3.12/dist-packages/vllm/model_executor/layers/mamba/ops/causal_conv1d.py":304:64)
#loc184 = loc("/usr/local/lib/python3.12/dist-packages/vllm/model_executor/layers/mamba/ops/causal_conv1d.py":307:66)
#loc185 = loc("/usr/local/lib/python3.12/dist-packages/vllm/model_executor/layers/mamba/ops/causal_conv1d.py":311:26)
#loc186 = loc("/usr/local/lib/python3.12/dist-packages/vllm/model_executor/layers/mamba/ops/causal_conv1d.py":312:48)
#loc187 = loc("/usr/local/lib/python3.12/dist-packages/vllm/model_executor/layers/mamba/ops/causal_conv1d.py":312:53)
#loc188 = loc("/usr/local/lib/python3.12/dist-packages/vllm/model_executor/layers/mamba/ops/causal_conv1d.py":312:32)
#loc189 = loc("/usr/local/lib/python3.12/dist-packages/vllm/model_executor/layers/mamba/ops/causal_conv1d.py":313:29)
#loc190 = loc("/usr/local/lib/python3.12/dist-packages/vllm/model_executor/layers/mamba/ops/causal_conv1d.py":324:53)
#loc191 = loc("/usr/local/lib/python3.12/dist-packages/vllm/model_executor/layers/mamba/ops/causal_conv1d.py":325:50)
#loc192 = loc("/usr/local/lib/python3.12/dist-packages/vllm/model_executor/layers/mamba/ops/causal_conv1d.py":325:46)
#loc193 = loc("/usr/local/lib/python3.12/dist-packages/vllm/model_executor/layers/mamba/ops/causal_conv1d.py":326:53)
#loc194 = loc("/usr/local/lib/python3.12/dist-packages/vllm/model_executor/layers/mamba/ops/causal_conv1d.py":327:50)
#loc195 = loc("/usr/local/lib/python3.12/dist-packages/vllm/model_executor/layers/mamba/ops/causal_conv1d.py":327:46)
#loc196 = loc("/usr/local/lib/python3.12/dist-packages/vllm/model_executor/layers/mamba/ops/causal_conv1d.py":328:53)
#loc197 = loc("/usr/local/lib/python3.12/dist-packages/vllm/model_executor/layers/mamba/ops/causal_conv1d.py":347:27)
#loc198 = loc("/usr/local/lib/python3.12/dist-packages/vllm/model_executor/layers/mamba/ops/causal_conv1d.py":347:32)
#loc199 = loc("/usr/local/lib/python3.12/dist-packages/vllm/model_executor/layers/mamba/ops/causal_conv1d.py":347:11)
#loc200 = loc("/usr/local/lib/python3.12/dist-packages/vllm/model_executor/layers/mamba/ops/causal_conv1d.py":351:37)
#loc201 = loc("/usr/local/lib/python3.12/dist-packages/vllm/model_executor/layers/mamba/ops/causal_conv1d.py":351:53)
#loc202 = loc("/usr/local/lib/python3.12/dist-packages/vllm/model_executor/layers/mamba/ops/causal_conv1d.py":351:18)
#loc203 = loc("/usr/local/lib/python3.12/dist-packages/vllm/model_executor/layers/mamba/ops/causal_conv1d.py":352:18)
#loc204 = loc("/usr/local/lib/python3.12/dist-packages/vllm/model_executor/layers/mamba/ops/causal_conv1d.py":353:29)
#loc205 = loc("/usr/local/lib/python3.12/dist-packages/vllm/model_executor/layers/mamba/ops/causal_conv1d.py":353:16)
#loc206 = loc("/usr/local/lib/python3.12/dist-packages/vllm/model_executor/layers/mamba/ops/causal_conv1d.py":356:37)
#loc207 = loc("/usr/local/lib/python3.12/dist-packages/vllm/model_executor/layers/mamba/ops/causal_conv1d.py":356:53)
#loc208 = loc("/usr/local/lib/python3.12/dist-packages/vllm/model_executor/layers/mamba/ops/causal_conv1d.py":356:18)
#loc209 = loc("/usr/local/lib/python3.12/dist-packages/vllm/model_executor/layers/mamba/ops/causal_conv1d.py":357:31)
#loc210 = loc("/usr/local/lib/python3.12/dist-packages/vllm/model_executor/layers/mamba/ops/causal_conv1d.py":357:45)
#loc211 = loc("/usr/local/lib/python3.12/dist-packages/vllm/model_executor/layers/mamba/ops/causal_conv1d.py":357:18)
#loc212 = loc("/usr/local/lib/python3.12/dist-packages/vllm/model_executor/layers/mamba/ops/causal_conv1d.py":360:41)
#loc213 = loc("/usr/local/lib/python3.12/dist-packages/vllm/model_executor/layers/mamba/ops/causal_conv1d.py":360:44)
#loc214 = loc("/usr/local/lib/python3.12/dist-packages/vllm/model_executor/layers/mamba/ops/causal_conv1d.py":360:68)
#loc215 = loc("/usr/local/lib/python3.12/dist-packages/vllm/model_executor/layers/mamba/ops/causal_conv1d.py":361:16)
#loc216 = loc("/usr/local/lib/python3.12/dist-packages/vllm/model_executor/layers/mamba/ops/causal_conv1d.py":360:55)
#loc217 = loc("/usr/local/lib/python3.12/dist-packages/vllm/model_executor/layers/mamba/ops/causal_conv1d.py":363:47)
#loc218 = loc("/usr/local/lib/python3.12/dist-packages/vllm/model_executor/layers/mamba/ops/causal_conv1d.py":364:43)
#loc219 = loc("/usr/local/lib/python3.12/dist-packages/vllm/model_executor/layers/mamba/ops/causal_conv1d.py":369:28)
#loc220 = loc("/usr/local/lib/python3.12/dist-packages/vllm/model_executor/layers/mamba/ops/causal_conv1d.py":369:18)
#loc221 = loc("/usr/local/lib/python3.12/dist-packages/vllm/model_executor/layers/mamba/ops/causal_conv1d.py":370:18)
#loc222 = loc("/usr/local/lib/python3.12/dist-packages/vllm/model_executor/layers/mamba/ops/causal_conv1d.py":371:34)
#loc223 = loc("/usr/local/lib/python3.12/dist-packages/vllm/model_executor/layers/mamba/ops/causal_conv1d.py":371:19)
#loc224 = loc("/usr/local/lib/python3.12/dist-packages/vllm/model_executor/layers/mamba/ops/causal_conv1d.py":368:16)
#loc225 = loc("/usr/local/lib/python3.12/dist-packages/vllm/model_executor/layers/mamba/ops/causal_conv1d.py":372:17)
#loc226 = loc("/usr/local/lib/python3.12/dist-packages/vllm/model_executor/layers/mamba/ops/causal_conv1d.py":376:46)
#loc227 = loc("/usr/local/lib/python3.12/dist-packages/vllm/model_executor/layers/mamba/ops/causal_conv1d.py":376:19)
#loc228 = loc("/usr/local/lib/python3.12/dist-packages/vllm/model_executor/layers/mamba/ops/causal_conv1d.py":377:31)
#loc229 = loc("/usr/local/lib/python3.12/dist-packages/vllm/model_executor/layers/mamba/ops/causal_conv1d.py":377:19)
#loc230 = loc("/usr/local/lib/python3.12/dist-packages/vllm/model_executor/layers/mamba/ops/causal_conv1d.py":378:14)
#loc231 = loc("/usr/local/lib/python3.12/dist-packages/vllm/model_executor/layers/mamba/ops/causal_conv1d.py":379:34)
#loc232 = loc("/usr/local/lib/python3.12/dist-packages/vllm/model_executor/layers/mamba/ops/causal_conv1d.py":380:14)
#loc233 = loc("/usr/local/lib/python3.12/dist-packages/vllm/model_executor/layers/mamba/ops/causal_conv1d.py":378:25)
#loc234 = loc("/usr/local/lib/python3.12/dist-packages/vllm/model_executor/layers/mamba/ops/causal_conv1d.py":382:38)
#loc235 = loc("/usr/local/lib/python3.12/dist-packages/vllm/model_executor/layers/mamba/ops/causal_conv1d.py":382:49)
#loc236 = loc("/usr/local/lib/python3.12/dist-packages/vllm/model_executor/layers/mamba/ops/causal_conv1d.py":382:73)
#loc237 = loc("/usr/local/lib/python3.12/dist-packages/vllm/model_executor/layers/mamba/ops/causal_conv1d.py":382:78)
#loc238 = loc("/usr/local/lib/python3.12/dist-packages/vllm/model_executor/layers/mamba/ops/causal_conv1d.py":382:60)
#loc239 = loc("/usr/local/lib/python3.12/dist-packages/vllm/model_executor/layers/mamba/ops/causal_conv1d.py":383:12)
#loc240 = loc("/usr/local/lib/python3.12/dist-packages/vllm/model_executor/layers/mamba/ops/causal_conv1d.py":384:56)
#loc241 = loc("/usr/local/lib/python3.12/dist-packages/vllm/model_executor/layers/mamba/ops/causal_conv1d.py":393:31)
#loc242 = loc("/usr/local/lib/python3.12/dist-packages/vllm/model_executor/layers/mamba/ops/causal_conv1d.py":395:40)
#loc243 = loc("/usr/local/lib/python3.12/dist-packages/vllm/model_executor/layers/mamba/ops/causal_conv1d.py":395:25)
#loc244 = loc("/usr/local/lib/python3.12/dist-packages/vllm/model_executor/layers/mamba/ops/causal_conv1d.py":398:25)
#loc245 = loc("/usr/local/lib/python3.12/dist-packages/vllm/model_executor/layers/mamba/ops/causal_conv1d.py":400:27)
#loc246 = loc("/usr/local/lib/python3.12/dist-packages/vllm/model_executor/layers/mamba/ops/causal_conv1d.py":401:33)
#loc247 = loc("/usr/local/lib/python3.12/dist-packages/vllm/model_executor/layers/mamba/ops/causal_conv1d.py":402:27)
#loc248 = loc("/usr/local/lib/python3.12/dist-packages/vllm/model_executor/layers/mamba/ops/causal_conv1d.py":403:33)
#loc249 = loc("/usr/local/lib/python3.12/dist-packages/vllm/model_executor/layers/mamba/ops/causal_conv1d.py":405:27)
#loc250 = loc("/usr/local/lib/python3.12/dist-packages/vllm/model_executor/layers/mamba/ops/causal_conv1d.py":406:33)
#loc251 = loc("/usr/local/lib/python3.12/dist-packages/vllm/model_executor/layers/mamba/ops/causal_conv1d.py":408:27)
#loc252 = loc("/usr/local/lib/python3.12/dist-packages/vllm/model_executor/layers/mamba/ops/causal_conv1d.py":409:33)
#loc253 = loc("/usr/local/lib/python3.12/dist-packages/vllm/model_executor/layers/mamba/ops/causal_conv1d.py":410:28)
#loc254 = loc("/usr/local/lib/python3.12/dist-packages/vllm/model_executor/layers/mamba/ops/causal_conv1d.py":411:27)
#loc255 = loc("/usr/local/lib/python3.12/dist-packages/vllm/model_executor/layers/mamba/ops/causal_conv1d.py":442:30)
#loc256 = loc("/usr/local/lib/python3.12/dist-packages/vllm/model_executor/layers/mamba/ops/causal_conv1d.py":442:19)
#loc257 = loc("/usr/local/lib/python3.12/dist-packages/vllm/model_executor/layers/mamba/ops/causal_conv1d.py":439:56)
#loc258 = loc("/usr/local/lib/python3.12/dist-packages/vllm/model_executor/layers/mamba/ops/causal_conv1d.py":439:44)
#loc259 = loc("/usr/local/lib/python3.12/dist-packages/vllm/model_executor/layers/mamba/ops/causal_conv1d.py":440:39)
#loc260 = loc("/usr/local/lib/python3.12/dist-packages/vllm/model_executor/layers/mamba/ops/causal_conv1d.py":455:37)
#loc261 = loc("/usr/local/lib/python3.12/dist-packages/vllm/model_executor/layers/mamba/ops/causal_conv1d.py":455:36)
#loc262 = loc("/usr/local/lib/python3.12/dist-packages/vllm/model_executor/layers/mamba/ops/causal_conv1d.py":455:29)
#loc263 = loc("/usr/local/lib/python3.12/dist-packages/vllm/model_executor/layers/mamba/ops/causal_conv1d.py":455:25)
#loc264 = loc("/usr/local/lib/python3.12/dist-packages/vllm/model_executor/layers/mamba/ops/causal_conv1d.py":456:31)
#loc265 = loc("/usr/local/lib/python3.12/dist-packages/vllm/model_executor/layers/mamba/ops/causal_conv1d.py":457:24)
#loc266 = loc("/usr/local/lib/python3.12/dist-packages/vllm/model_executor/layers/mamba/ops/causal_conv1d.py":457:12)
#loc267 = loc("/usr/local/lib/python3.12/dist-packages/vllm/model_executor/layers/mamba/ops/causal_conv1d.py":461:38)
#loc268 = loc("/usr/local/lib/python3.12/dist-packages/vllm/model_executor/layers/mamba/ops/causal_conv1d.py":461:53)
#loc269 = loc("/usr/local/lib/python3.12/dist-packages/vllm/model_executor/layers/mamba/ops/causal_conv1d.py":461:66)
#loc270 = loc("/usr/local/lib/python3.12/dist-packages/vllm/model_executor/layers/mamba/ops/causal_conv1d.py":461:14)
#loc271 = loc("/usr/local/lib/python3.12/dist-packages/vllm/model_executor/layers/mamba/ops/causal_conv1d.py":462:27)
#loc272 = loc("/usr/local/lib/python3.12/dist-packages/vllm/model_executor/layers/mamba/ops/causal_conv1d.py":462:15)
#loc273 = loc("/usr/local/lib/python3.12/dist-packages/vllm/model_executor/layers/mamba/ops/causal_conv1d.py":465:25)
#loc274 = loc("/usr/local/lib/python3.12/dist-packages/vllm/model_executor/layers/mamba/ops/causal_conv1d.py":465:8)
#loc275 = loc("/usr/local/lib/python3.12/dist-packages/vllm/model_executor/layers/mamba/ops/causal_conv1d.py":411:4)
#loc276 = loc("/usr/local/lib/python3.12/dist-packages/triton/language/standard.py":120:0)
#loc277 = loc("/usr/local/lib/python3.12/dist-packages/triton/language/standard.py":129:31)
#loc278 = loc("/usr/local/lib/python3.12/dist-packages/triton/language/standard.py":129:11)
#loc279 = loc("/usr/local/lib/python3.12/dist-packages/triton/language/standard.py":129:4)
#loc291 = loc("stride_conv_state_seq"(#loc1))
#loc292 = loc("stride_conv_state_dim"(#loc2))
#loc293 = loc("stride_conv_state_tok"(#loc3))
#loc294 = loc("state_len"(#loc4))
#loc295 = loc("idx_seq"(#loc5))
#loc296 = loc("idx_seq"(#loc6))
#loc297 = loc("idx_seq"(#loc7))
#loc298 = loc("idx_seq"(#loc8))
#loc299 = loc("chunk_offset"(#loc9))
#loc300 = loc("chunk_offset"(#loc10))
#loc301 = loc("chunk_offset"(#loc11))
#loc302 = loc("idx_feats"(#loc12))
#loc303 = loc("idx_feats"(#loc13))
#loc304 = loc("idx_feats"(#loc14))
#loc305 = loc("idx_feats"(#loc15))
#loc306 = loc("sequence_start_index"(#loc18))
#loc307 = loc("sequence_start_index"(#loc19))
#loc308 = loc("sequence_end_index"(#loc20))
#loc309 = loc("sequence_end_index"(#loc21))
#loc310 = loc("sequence_end_index"(#loc22))
#loc311 = loc("seqlen"(#loc23))
#loc312 = loc("n_block_to_fill"(#loc24))
#loc313 = loc("current_last_index"(#loc25))
#loc314 = loc("conv_state_init_index"(#loc26))
#loc315 = loc("current_first_index"(#loc27))
#loc316 = loc("last_full_block_token_index"(#loc28))
#loc317 = loc("token_offset"(#loc29))
#loc318 = loc("segment_len"(#loc30))
#loc319 = loc("segment_len"(#loc31))
#loc320 = loc("x_base"(#loc32))
#loc321 = loc("x_base"(#loc33))
#loc322 = loc("x_base"(#loc34))
#loc323 = loc("x_base"(#loc35))
#loc324 = loc("conv_states_input_coord"(#loc36))
#loc325 = loc("conv_states_input_coord"(#loc37))
#loc326 = loc("conv_states_input_coord"(#loc38))
#loc327 = loc("conv_states_input_coord"(#loc39))
#loc328 = loc("conv_states_input_coord"(#loc40))
#loc329 = loc("conv_states_base"(#loc43))
#loc330 = loc("conv_states_base"(#loc44))
#loc331 = loc("conv_states_base"(#loc45))
#loc332 = loc("conv_states_base"(#loc46))
#loc333 = loc("w_base"(#loc47))
#loc334 = loc("w_base"(#loc48))
#loc335 = loc("load_init_state"(#loc51))
#loc336 = loc("load_init_state"(#loc52))
#loc337 = loc("col0"(#loc53))
#loc338 = loc("prior_tokens"(#loc54))
#loc339 = loc("prior_tokens"(#loc55))
#loc340 = loc("prior_tokens"(#loc56))
#loc341 = loc("mask_w"(#loc57))
#loc342 = loc("col2"(#loc58))
#loc343 = loc("conv_states_ptrs"(#loc59))
#loc344 = loc("conv_states_ptrs"(#loc60))
#loc345 = loc("col1"(#loc61))
#loc346 = loc("conv_states_ptrs"(#loc62))
#loc347 = loc("conv_states_ptrs"(#loc63))
#loc348 = loc("col0"(#loc64))
#loc349 = loc("col0"(#loc65))
#loc350 = loc("col1"(#loc66))
#loc351 = loc("col2"(#loc67))
#loc352 = loc("idx_tokens_last"(#loc70))
#loc353 = loc("idx_tokens_last"(#loc71))
#loc354 = loc("idx_tokens_last"(#loc72))
#loc355 = loc("x_ptrs"(#loc73))
#loc356 = loc("x_ptrs"(#loc74))
#loc357 = loc("x_ptrs"(#loc75))
#loc358 = loc("x_ptrs"(#loc76))
#loc359 = loc("x_ptrs"(#loc77))
#loc360 = loc("x_ptrs"(#loc78))
#loc361 = loc("x_ptrs"(#loc79))
#loc362 = loc("mask_x"(#loc80))
#loc363 = loc("mask_x"(#loc81))
#loc364 = loc("mask_x"(#loc82))
#loc365 = loc("mask_x"(#loc83))
#loc366 = loc("mask_x"(#loc84))
#loc367 = loc("mask_x"(#loc85))
#loc368 = loc("mask_x"(#loc86))
#loc369 = loc("mask_x"(#loc87))
#loc370 = loc("loaded_x"(#loc88))
#loc371 = loc("idx_tokens_conv"(#loc89))
#loc372 = loc("conv_states_output_coord"(#loc90))
#loc373 = loc("conv_states_output_coord"(#loc91))
#loc374 = loc("conv_states_output_coord"(#loc92))
#loc375 = loc("conv_states_output_coord"(#loc93))
#loc376 = loc("conv_states_output_coord"(#loc94))
#loc377 = loc("conv_states_ptrs_target"(#loc95))
#loc378 = loc("conv_states_ptrs_target"(#loc96))
#loc379 = loc("conv_states_ptrs_target"(#loc97))
#loc380 = loc("conv_states_ptrs_target"(#loc98))
#loc381 = loc("conv_states_ptrs_target"(#loc99))
#loc382 = loc("conv_states_ptrs_target"(#loc100))
#loc383 = loc("conv_states_ptrs_target"(#loc101))
#loc384 = loc("conv_states_ptrs_target"(#loc102))
#loc385 = loc("mask"(#loc103))
#loc386 = loc("mask"(#loc104))
#loc387 = loc("mask"(#loc105))
#loc388 = loc("mask"(#loc106))
#loc389 = loc("mask"(#loc107))
#loc390 = loc("conv_states_ptrs_target"(#loc110))
#loc391 = loc("idx_tokens_conv"(#loc111))
#loc392 = loc("conv_states_ptrs_source"(#loc112))
#loc393 = loc("conv_states_ptrs_source"(#loc113))
#loc394 = loc("conv_states_ptrs_source"(#loc114))
#loc395 = loc("conv_states_ptrs_source"(#loc115))
#loc396 = loc("conv_states_ptrs_source"(#loc116))
#loc397 = loc("conv_states_ptrs_source"(#loc117))
#loc398 = loc("conv_states_ptrs_source"(#loc118))
#loc399 = loc("conv_states_ptrs_source"(#loc119))
#loc400 = loc("conv_states_ptrs_source"(#loc120))
#loc401 = loc("mask"(#loc121))
#loc402 = loc("mask"(#loc122))
#loc403 = loc("mask"(#loc123))
#loc404 = loc("mask"(#loc124))
#loc405 = loc("mask"(#loc125))
#loc406 = loc("mask"(#loc126))
#loc407 = loc("mask"(#loc127))
#loc408 = loc("mask"(#loc128))
#loc409 = loc("conv_state"(#loc129))
#loc410 = loc("VAL"(#loc130))
#loc411 = loc("x_ptrs"(#loc131))
#loc412 = loc("x_ptrs"(#loc132))
#loc413 = loc("x_ptrs"(#loc133))
#loc414 = loc("x_ptrs"(#loc134))
#loc415 = loc("x_ptrs"(#loc135))
#loc416 = loc("mask_x"(#loc136))
#loc417 = loc("mask_x"(#loc137))
#loc418 = loc("mask_x"(#loc138))
#loc419 = loc("mask_x"(#loc139))
#loc420 = loc("mask_x"(#loc140))
#loc421 = loc("mask_x"(#loc141))
#loc422 = loc("mask_x"(#loc142))
#loc423 = loc("mask_x"(#loc143))
#loc424 = loc("mask_x"(#loc144))
#loc425 = loc("mask_x"(#loc145))
#loc426 = loc("loaded_x"(#loc146))
#loc427 = loc("new_conv_state"(#loc148))
#loc428 = loc("conv_states_ptrs_target"(#loc149))
#loc429 = loc("conv_states_ptrs_target"(#loc150))
#loc430 = loc("conv_states_ptrs_target"(#loc151))
#loc431 = loc("mask"(#loc152))
#loc432 = loc("mask"(#loc153))
#loc433 = loc("mask"(#loc154))
#loc434 = loc("mask"(#loc155))
#loc435 = loc("mask"(#loc156))
#loc436 = loc("idx_tokens_conv"(#loc158))
#loc437 = loc("VAL"(#loc159))
#loc438 = loc("x_ptrs"(#loc160))
#loc439 = loc("x_ptrs"(#loc161))
#loc440 = loc("x_ptrs"(#loc162))
#loc441 = loc("x_ptrs"(#loc163))
#loc442 = loc("x_ptrs"(#loc164))
#loc443 = loc("mask_x"(#loc165))
#loc444 = loc("mask_x"(#loc166))
#loc445 = loc("mask_x"(#loc167))
#loc446 = loc("mask_x"(#loc168))
#loc447 = loc("mask_x"(#loc169))
#loc448 = loc("mask_x"(#loc170))
#loc449 = loc("mask_x"(#loc171))
#loc450 = loc("mask_x"(#loc172))
#loc451 = loc("mask_x"(#loc173))
#loc452 = loc("mask_x"(#loc174))
#loc453 = loc("new_conv_state"(#loc175))
#loc454 = loc("conv_states_ptrs_target"(#loc176))
#loc455 = loc("conv_states_ptrs_target"(#loc177))
#loc456 = loc("conv_states_ptrs_target"(#loc178))
#loc457 = loc("mask"(#loc179))
#loc458 = loc("mask"(#loc180))
#loc459 = loc("mask"(#loc181))
#loc460 = loc("mask"(#loc182))
#loc461 = loc("mask"(#loc183))
#loc462 = loc("load_init_state"(#loc185))
#loc463 = loc("prior_tokens"(#loc186))
#loc464 = loc("prior_tokens"(#loc187))
#loc465 = loc("prior_tokens"(#loc188))
#loc466 = loc("mask_w"(#loc189))
#loc467 = loc("col2"(#loc190))
#loc468 = loc("conv_states_ptrs"(#loc191))
#loc469 = loc("conv_states_ptrs"(#loc192))
#loc470 = loc("col1"(#loc193))
#loc471 = loc("conv_states_ptrs"(#loc194))
#loc472 = loc("conv_states_ptrs"(#loc195))
#loc473 = loc("col0"(#loc196))
#loc474 = loc("idx_tokens_last"(#loc200))
#loc475 = loc("idx_tokens_last"(#loc201))
#loc476 = loc("idx_tokens_last"(#loc202))
#loc477 = loc("idx_tokens_last"(#loc203))
#loc478 = loc("idx_tokens_last"(#loc204))
#loc479 = loc("idx_tokens_last"(#loc205))
#loc480 = loc("x_ptrs"(#loc206))
#loc481 = loc("x_ptrs"(#loc207))
#loc482 = loc("x_ptrs"(#loc208))
#loc483 = loc("x_ptrs"(#loc209))
#loc484 = loc("x_ptrs"(#loc210))
#loc485 = loc("x_ptrs"(#loc211))
#loc486 = loc("mask_x"(#loc212))
#loc487 = loc("mask_x"(#loc213))
#loc488 = loc("mask_x"(#loc214))
#loc489 = loc("mask_x"(#loc215))
#loc490 = loc("mask_x"(#loc216))
#loc491 = loc("loaded_x"(#loc217))
#loc492 = loc("idx_tokens_conv"(#loc218))
#loc493 = loc("conv_states_output_coord"(#loc219))
#loc494 = loc("conv_states_output_coord"(#loc220))
#loc495 = loc("conv_states_output_coord"(#loc221))
#loc496 = loc("conv_states_output_coord"(#loc222))
#loc497 = loc("conv_states_output_coord"(#loc223))
#loc498 = loc("conv_states_output_coord"(#loc224))
#loc499 = loc("conv_states_output_coord"(#loc225))
#loc500 = loc("conv_states_ptrs_target"(#loc226))
#loc501 = loc("conv_states_ptrs_target"(#loc227))
#loc502 = loc("conv_states_ptrs_target"(#loc228))
#loc503 = loc("conv_states_ptrs_target"(#loc229))
#loc504 = loc("conv_states_ptrs_target"(#loc230))
#loc505 = loc("conv_states_ptrs_target"(#loc231))
#loc506 = loc("conv_states_ptrs_target"(#loc232))
#loc507 = loc("conv_states_ptrs_target"(#loc233))
#loc508 = loc("mask"(#loc234))
#loc509 = loc("mask"(#loc235))
#loc510 = loc("mask"(#loc236))
#loc511 = loc("mask"(#loc237))
#loc512 = loc("mask"(#loc238))
#loc513 = loc("acc_preload"(#loc241))
#loc514 = loc("x_base_1d"(#loc242))
#loc515 = loc("x_base_1d"(#loc243))
#loc516 = loc("mask_w"(#loc244))
#loc517 = loc("w_ptrs"(#loc245))
#loc518 = loc("w_col0"(#loc246))
#loc519 = loc("w_ptrs"(#loc247))
#loc520 = loc("w_col1"(#loc248))
#loc521 = loc("w_ptrs"(#loc249))
#loc522 = loc("w_col2"(#loc250))
#loc523 = loc("w_ptrs"(#loc251))
#loc524 = loc("w_col3"(#loc252))
#loc525 = loc("mask_x_1d"(#loc253))
#loc526 = loc("col0"(#loc254))
#loc527 = loc("acc"(#loc255))
#loc528 = loc("acc"(#loc256))
#loc529 = loc("x_ptrs_1d"(#loc257))
#loc530 = loc("x_ptrs_1d"(#loc258))
#loc531 = loc("matrix_x"(#loc259))
#loc532 = loc("acc"(#loc260))
#loc533 = loc("acc"(#loc261))
#loc534 = loc("acc"(#loc262))
#loc535 = loc("acc"(#loc263))
#loc536 = loc("mask_1d"(#loc264))
#loc537 = loc("mask_1d"(#loc265))
#loc538 = loc("mask_1d"(#loc266))
#loc539 = loc("o_ptrs"(#loc267))
#loc540 = loc("o_ptrs"(#loc268))
#loc541 = loc("o_ptrs"(#loc269))
#loc542 = loc("o_ptrs"(#loc270))
#loc543 = loc("o_ptrs"(#loc271))
#loc544 = loc("o_ptrs"(#loc272))
#loc545 = loc("load_init_state"(#loc336))
#loc546 = loc("col1"(#loc337))
#loc547 = loc("col2"(#loc342))
#loc548 = loc("col1"(#loc345))
#loc549 = loc("col0"(#loc348))
#loc550 = loc("col0"(#loc349))
#loc551 = loc("col1"(#loc350))
#loc552 = loc("col2"(#loc351))
#loc553 = loc("x_ptrs"(#loc361))
#loc554 = loc("mask_x"(#loc369))
#loc555 = loc("idx_tokens_conv"(#loc371))
#loc556 = loc("conv_states_ptrs_target"(#loc384))
#loc557 = loc("mask"(#loc389))
#loc558 = loc("idx_tokens_conv"(#loc390))
#loc559 = loc("idx_tokens_conv"(#loc391))
#loc560 = loc("VAL"(#loc410))
#loc561 = loc("x_ptrs"(#loc415))
#loc562 = loc("mask_x"(#loc425))
#loc563 = loc("new_conv_state"(#loc427))
#loc564 = loc("conv_states_ptrs_target"(#loc430))
#loc565 = loc("mask"(#loc435))
#loc566 = loc("idx_tokens_conv"(#loc436))
#loc567 = loc("VAL"(#loc437))
#loc568 = loc("x_ptrs"(#loc442))
#loc569 = loc("mask_x"(#loc452))
#loc570 = loc("new_conv_state"(#loc453))
#loc571 = loc("conv_states_ptrs_target"(#loc456))
#loc572 = loc("mask"(#loc461))
#loc573 = loc("load_init_state"(#loc462))
#loc574 = loc("col2"(#loc467))
#loc575 = loc("col1"(#loc470))
#loc576 = loc("col0"(#loc473))
#loc577 = loc("col1"(#loc526))
#loc578 = loc("col2"(#loc546))
#loc579 = loc("mask"(#loc558))
#loc580 = loc("col2"(#loc577))
#loc581 = loc("mask_x"(#loc579))
#loc582 = loc("x_ptrs"(#loc581))
