#loc = loc("/usr/local/lib/python3.12/dist-packages/vllm/model_executor/layers/mamba/ops/causal_conv1d.py":16:0)
#loc211 = loc("x_ptr"(#loc))
#loc212 = loc("w_ptr"(#loc))
#loc213 = loc("initial_states_ptr"(#loc))
#loc214 = loc("cache_indices_ptr"(#loc))
#loc215 = loc("has_initial_states_ptr"(#loc))
#loc216 = loc("query_start_loc_ptr"(#loc))
#loc217 = loc("batch_ptr"(#loc))
#loc218 = loc("token_chunk_offset_ptr"(#loc))
#loc219 = loc("o_ptr"(#loc))
#loc220 = loc("stride_x_token"(#loc))
#loc221 = loc("stride_o_token"(#loc))
module {
  tt.func public @_causal_conv1d_fwd_kernel(%x_ptr: !tt.ptr<f16> {tt.divisibility = 16 : i32} loc("x_ptr"(#loc)), %w_ptr: !tt.ptr<f16> {tt.divisibility = 16 : i32} loc("w_ptr"(#loc)), %initial_states_ptr: !tt.ptr<f16> {tt.divisibility = 16 : i32} loc("initial_states_ptr"(#loc)), %cache_indices_ptr: !tt.ptr<i32> {tt.divisibility = 16 : i32} loc("cache_indices_ptr"(#loc)), %has_initial_states_ptr: !tt.ptr<i1> {tt.divisibility = 16 : i32} loc("has_initial_states_ptr"(#loc)), %query_start_loc_ptr: !tt.ptr<i32> {tt.divisibility = 16 : i32} loc("query_start_loc_ptr"(#loc)), %batch_ptr: !tt.ptr<i32> {tt.divisibility = 16 : i32} loc("batch_ptr"(#loc)), %token_chunk_offset_ptr: !tt.ptr<i32> {tt.divisibility = 16 : i32} loc("token_chunk_offset_ptr"(#loc)), %o_ptr: !tt.ptr<f16> {tt.divisibility = 16 : i32} loc("o_ptr"(#loc)), %stride_x_token: i64 {tt.divisibility = 16 : i32} loc("stride_x_token"(#loc)), %stride_o_token: i64 {tt.divisibility = 16 : i32} loc("stride_o_token"(#loc))) attributes {noinline = false} {
    %cst = arith.constant dense<-3> : tensor<4xi32> loc(#loc1)
    %c199_i64 = arith.constant 199 : i64 loc(#loc1)
    %cst_0 = arith.constant dense<0.000000e+00> : tensor<4x256xf16> loc(#loc1)
    %cst_1 = arith.constant dense<0.000000e+00> : tensor<256xf16> loc(#loc1)
    %cst_2 = arith.constant dense<8192> : tensor<256xi32> loc(#loc1)
    %c536576_i64 = arith.constant 536576 : i64 loc(#loc1)
    %c0_i64 = arith.constant 0 : i64 loc(#loc1)
    %c-1_i64 = arith.constant -1 : i64 loc(#loc2)
    %cst_3 = arith.constant dense<1.000000e+00> : tensor<256xf32> loc(#loc1)
    %cst_4 = arith.constant dense<3> : tensor<256xi32> loc(#loc1)
    %cst_5 = arith.constant dense<2> : tensor<256xi32> loc(#loc1)
    %c2_i64 = arith.constant 2 : i64 loc(#loc1)
    %cst_6 = arith.constant dense<3> : tensor<4xi32> loc(#loc1)
    %cst_7 = arith.constant dense<4096> : tensor<4xi32> loc(#loc1)
    %cst_8 = arith.constant dense<0> : tensor<4xi32> loc(#loc1)
    %cst_9 = arith.constant dense<0.000000e+00> : tensor<256xf32> loc(#loc1)
    %cst_10 = arith.constant dense<4096> : tensor<256xi32> loc(#loc1)
    %c0_i8 = arith.constant 0 : i8 loc(#loc1)
    %cst_11 = arith.constant dense<4> : tensor<256xi32> loc(#loc1)
    %cst_12 = arith.constant dense<1> : tensor<256xi32> loc(#loc1)
    %c8_i32 = arith.constant 8 : i32 loc(#loc1)
    %c0_i32 = arith.constant 0 : i32 loc(#loc1)
    %c256_i32 = arith.constant 256 : i32 loc(#loc1)
    %c1_i32 = arith.constant 1 : i32 loc(#loc1)
    %c3_i32 = arith.constant 3 : i32 loc(#loc1)
    %idx_seq = tt.get_program_id x : i32 loc(#loc222)
    %idx_seq_13 = tt.addptr %batch_ptr, %idx_seq : !tt.ptr<i32>, i32 loc(#loc223)
    %idx_seq_14 = tt.load %idx_seq_13 : !tt.ptr<i32> loc(#loc224)
    %idx_seq_15 = arith.extsi %idx_seq_14 : i32 to i64 loc(#loc225)
    %chunk_offset = tt.addptr %token_chunk_offset_ptr, %idx_seq : !tt.ptr<i32>, i32 loc(#loc226)
    %chunk_offset_16 = tt.load %chunk_offset : !tt.ptr<i32> loc(#loc227)
    %idx_feats = tt.get_program_id y : i32 loc(#loc228)
    %idx_feats_17 = arith.muli %idx_feats, %c256_i32 : i32 loc(#loc229)
    %idx_feats_18 = tt.make_range {end = 256 : i32, start = 0 : i32} : tensor<256xi32> loc(#loc230)
    %idx_feats_19 = tt.splat %idx_feats_17 : i32 -> tensor<256xi32> loc(#loc231)
    %idx_feats_20 = arith.addi %idx_feats_19, %idx_feats_18 : tensor<256xi32> loc(#loc231)
    %0 = arith.cmpi eq, %idx_seq_15, %c-1_i64 : i64 loc(#loc2)
    cf.cond_br %0, ^bb1, ^bb2 loc(#loc2)
  ^bb1:  // 2 preds: ^bb0, ^bb2
    tt.return loc(#loc13)
  ^bb2:  // pred: ^bb0
    %sequence_start_index = tt.addptr %query_start_loc_ptr, %idx_seq_15 : !tt.ptr<i32>, i64 loc(#loc232)
    %sequence_start_index_21 = tt.load %sequence_start_index : !tt.ptr<i32> loc(#loc233)
    %sequence_end_index = tt.addptr %sequence_start_index, %c1_i32 : !tt.ptr<i32>, i32 loc(#loc234)
    %sequence_end_index_22 = tt.load %sequence_end_index : !tt.ptr<i32> loc(#loc235)
    %seqlen = arith.subi %sequence_end_index_22, %sequence_start_index_21 : i32 loc(#loc236)
    %token_offset = arith.muli %chunk_offset_16, %c8_i32 : i32 loc(#loc237)
    %segment_len = arith.subi %seqlen, %token_offset : i32 loc(#loc238)
    %segment_len_23 = arith.minsi %segment_len, %c8_i32 : i32 loc(#loc239)
    %x_base = arith.extsi %sequence_start_index_21 : i32 to i64 loc(#loc240)
    %x_base_24 = arith.muli %x_base, %stride_x_token : i64 loc(#loc240)
    %x_base_25 = tt.addptr %x_ptr, %x_base_24 : !tt.ptr<f16>, i64 loc(#loc241)
    %x_base_26 = tt.splat %x_base_25 : !tt.ptr<f16> -> tensor<256x!tt.ptr<f16>> loc(#loc242)
    %x_base_27 = tt.addptr %x_base_26, %idx_feats_20 : tensor<256x!tt.ptr<f16>>, tensor<256xi32> loc(#loc242)
    %conv_states_input_coord = tt.addptr %cache_indices_ptr, %idx_seq_15 : !tt.ptr<i32>, i64 loc(#loc243)
    %conv_states_input_coord_28 = tt.load %conv_states_input_coord : !tt.ptr<i32> loc(#loc244)
    %conv_states_input_coord_29 = arith.extsi %conv_states_input_coord_28 : i32 to i64 loc(#loc245)
    %1 = arith.cmpi eq, %conv_states_input_coord_29, %c0_i64 : i64 loc(#loc28)
    cf.cond_br %1, ^bb1, ^bb3 loc(#loc28)
  ^bb3:  // pred: ^bb2
    %conv_states_base = arith.muli %conv_states_input_coord_29, %c536576_i64 : i64 loc(#loc246)
    %conv_states_base_30 = tt.addptr %initial_states_ptr, %conv_states_base : !tt.ptr<f16>, i64 loc(#loc247)
    %conv_states_base_31 = tt.splat %conv_states_base_30 : !tt.ptr<f16> -> tensor<256x!tt.ptr<f16>> loc(#loc248)
    %conv_states_base_32 = tt.addptr %conv_states_base_31, %idx_feats_20 : tensor<256x!tt.ptr<f16>>, tensor<256xi32> loc(#loc248)
    %w_base = arith.muli %idx_feats_20, %cst_11 : tensor<256xi32> loc(#loc249)
    %w_base_33 = tt.splat %w_ptr : !tt.ptr<f16> -> tensor<256x!tt.ptr<f16>> loc(#loc250)
    %w_base_34 = tt.addptr %w_base_33, %w_base : tensor<256x!tt.ptr<f16>>, tensor<256xi32> loc(#loc250)
    %2 = arith.cmpi eq, %chunk_offset_16, %c0_i32 : i32 loc(#loc34)
    %3:3 = scf.if %2 -> (tensor<256xf16>, tensor<256xf16>, tensor<256xf16>) {
      %load_init_state = tt.addptr %has_initial_states_ptr, %idx_seq_15 : !tt.ptr<i1>, i64 loc(#loc251)
      %load_init_state_38 = tt.bitcast %load_init_state : !tt.ptr<i1> -> !tt.ptr<i8> loc(#loc252)
      %load_init_state_39 = tt.load %load_init_state_38 : !tt.ptr<i8> loc(#loc252)
      %load_init_state_40 = arith.cmpi ne, %load_init_state_39, %c0_i8 : i8 loc(#loc411)
      %col2_41:3 = scf.if %load_init_state_40 -> (tensor<256xf16>, tensor<256xf16>, tensor<256xf16>) {
        %prior_tokens = tt.addptr %conv_states_base_32, %cst_2 : tensor<256x!tt.ptr<f16>>, tensor<256xi32> loc(#loc254)
        %mask_w_42 = arith.cmpi slt, %idx_feats_20, %cst_10 : tensor<256xi32> loc(#loc255)
        %col2_43 = tt.load %prior_tokens, %mask_w_42, %cst_1 : tensor<256x!tt.ptr<f16>> loc(#loc413)
        %conv_states_ptrs = tt.addptr %conv_states_base_32, %cst_10 : tensor<256x!tt.ptr<f16>>, tensor<256xi32> loc(#loc414)
        %col1 = tt.load %conv_states_ptrs, %mask_w_42, %cst_1 : tensor<256x!tt.ptr<f16>> loc(#loc415)
        %col0 = tt.load %conv_states_base_32, %mask_w_42, %cst_1 : tensor<256x!tt.ptr<f16>> loc(#loc416)
        scf.yield %col0, %col1, %col2_43 : tensor<256xf16>, tensor<256xf16>, tensor<256xf16> loc(#loc416)
      } else {
        scf.yield %cst_1, %cst_1, %cst_1 : tensor<256xf16>, tensor<256xf16>, tensor<256xf16> loc(#loc260)
      } loc(#loc443)
      %4 = arith.cmpi sge, %seqlen, %c3_i32 : i32 loc(#loc46)
      scf.if %4 {
        %idx_tokens_last = arith.subi %seqlen, %c3_i32 : i32 loc(#loc261)
        %idx_tokens_last_42 = tt.make_range {end = 4 : i32, start = 0 : i32} : tensor<4xi32> loc(#loc262)
        %idx_tokens_last_43 = tt.splat %idx_tokens_last : i32 -> tensor<4xi32> loc(#loc263)
        %idx_tokens_last_44 = arith.addi %idx_tokens_last_43, %idx_tokens_last_42 : tensor<4xi32> loc(#loc263)
        %x_ptrs = tt.splat %sequence_start_index_21 : i32 -> tensor<4xi32> loc(#loc264)
        %x_ptrs_45 = arith.addi %x_ptrs, %idx_tokens_last_44 : tensor<4xi32> loc(#loc264)
        %x_ptrs_46 = arith.extsi %x_ptrs_45 : tensor<4xi32> to tensor<4xi64> loc(#loc265)
        %x_ptrs_47 = tt.splat %stride_x_token : i64 -> tensor<4xi64> loc(#loc265)
        %x_ptrs_48 = arith.muli %x_ptrs_46, %x_ptrs_47 : tensor<4xi64> loc(#loc265)
        %x_ptrs_49 = tt.expand_dims %x_ptrs_48 {axis = 1 : i32} : tensor<4xi64> -> tensor<4x1xi64> loc(#loc266)
        %x_ptrs_50 = tt.splat %x_ptr : !tt.ptr<f16> -> tensor<4x1x!tt.ptr<f16>> loc(#loc267)
        %x_ptrs_51 = tt.addptr %x_ptrs_50, %x_ptrs_49 : tensor<4x1x!tt.ptr<f16>>, tensor<4x1xi64> loc(#loc267)
        %x_ptrs_52 = tt.expand_dims %idx_feats_20 {axis = 0 : i32} : tensor<256xi32> -> tensor<1x256xi32> loc(#loc268)
        %x_ptrs_53 = tt.broadcast %x_ptrs_51 : tensor<4x1x!tt.ptr<f16>> -> tensor<4x256x!tt.ptr<f16>> loc(#loc269)
        %x_ptrs_54 = tt.broadcast %x_ptrs_52 : tensor<1x256xi32> -> tensor<4x256xi32> loc(#loc269)
        %x_ptrs_55 = tt.addptr %x_ptrs_53, %x_ptrs_54 : tensor<4x256x!tt.ptr<f16>>, tensor<4x256xi32> loc(#loc417)
        %mask_x = arith.cmpi sge, %idx_tokens_last_44, %cst_8 : tensor<4xi32> loc(#loc270)
        %mask_x_56 = tt.expand_dims %mask_x {axis = 1 : i32} : tensor<4xi1> -> tensor<4x1xi1> loc(#loc271)
        %mask_x_57 = tt.splat %seqlen : i32 -> tensor<4xi32> loc(#loc272)
        %mask_x_58 = arith.cmpi slt, %idx_tokens_last_44, %mask_x_57 : tensor<4xi32> loc(#loc272)
        %mask_x_59 = tt.expand_dims %mask_x_58 {axis = 1 : i32} : tensor<4xi1> -> tensor<4x1xi1> loc(#loc273)
        %mask_x_60 = arith.andi %mask_x_56, %mask_x_59 : tensor<4x1xi1> loc(#loc274)
        %mask_x_61 = arith.cmpi slt, %idx_feats_20, %cst_10 : tensor<256xi32> loc(#loc275)
        %mask_x_62 = tt.expand_dims %mask_x_61 {axis = 0 : i32} : tensor<256xi1> -> tensor<1x256xi1> loc(#loc276)
        %mask_x_63 = tt.broadcast %mask_x_60 : tensor<4x1xi1> -> tensor<4x256xi1> loc(#loc277)
        %mask_x_64 = tt.broadcast %mask_x_62 : tensor<1x256xi1> -> tensor<4x256xi1> loc(#loc277)
        %mask_x_65 = arith.andi %mask_x_63, %mask_x_64 : tensor<4x256xi1> loc(#loc418)
        %loaded_x = tt.load %x_ptrs_55, %mask_x_65, %cst_0 : tensor<4x256x!tt.ptr<f16>> loc(#loc278)
        %conv_states_output_coord = tt.load %conv_states_input_coord : !tt.ptr<i32> loc(#loc279)
        %conv_states_output_coord_66 = arith.extsi %conv_states_output_coord : i32 to i64 loc(#loc280)
        %conv_states_ptrs_target = arith.muli %conv_states_output_coord_66, %c536576_i64 : i64 loc(#loc281)
        %conv_states_ptrs_target_67 = tt.addptr %initial_states_ptr, %conv_states_ptrs_target : !tt.ptr<f16>, i64 loc(#loc282)
        %conv_states_ptrs_target_68 = tt.splat %conv_states_ptrs_target_67 : !tt.ptr<f16> -> tensor<256x!tt.ptr<f16>> loc(#loc283)
        %conv_states_ptrs_target_69 = tt.addptr %conv_states_ptrs_target_68, %idx_feats_20 : tensor<256x!tt.ptr<f16>>, tensor<256xi32> loc(#loc283)
        %conv_states_ptrs_target_70 = tt.expand_dims %conv_states_ptrs_target_69 {axis = 0 : i32} : tensor<256x!tt.ptr<f16>> -> tensor<1x256x!tt.ptr<f16>> loc(#loc284)
        %conv_states_ptrs_target_71 = arith.muli %idx_tokens_last_42, %cst_7 : tensor<4xi32> loc(#loc285)
        %conv_states_ptrs_target_72 = tt.expand_dims %conv_states_ptrs_target_71 {axis = 1 : i32} : tensor<4xi32> -> tensor<4x1xi32> loc(#loc286)
        %conv_states_ptrs_target_73 = tt.broadcast %conv_states_ptrs_target_70 : tensor<1x256x!tt.ptr<f16>> -> tensor<4x256x!tt.ptr<f16>> loc(#loc287)
        %conv_states_ptrs_target_74 = tt.broadcast %conv_states_ptrs_target_72 : tensor<4x1xi32> -> tensor<4x256xi32> loc(#loc287)
        %conv_states_ptrs_target_75 = tt.addptr %conv_states_ptrs_target_73, %conv_states_ptrs_target_74 : tensor<4x256x!tt.ptr<f16>>, tensor<4x256xi32> loc(#loc419)
        %mask = arith.cmpi slt, %idx_tokens_last_42, %cst_6 : tensor<4xi32> loc(#loc288)
        %mask_76 = tt.expand_dims %mask {axis = 1 : i32} : tensor<4xi1> -> tensor<4x1xi1> loc(#loc289)
        %mask_77 = tt.broadcast %mask_76 : tensor<4x1xi1> -> tensor<4x256xi1> loc(#loc290)
        %mask_78 = arith.andi %mask_77, %mask_x_64 : tensor<4x256xi1> loc(#loc420)
        gpu.barrier loc(#loc78)
        tt.store %conv_states_ptrs_target_75, %loaded_x, %mask_78 : tensor<4x256x!tt.ptr<f16>> loc(#loc79)
      } else {
        scf.if %load_init_state_40 {
          %idx_tokens_conv = tt.make_range {end = 4 : i32, start = 0 : i32} : tensor<4xi32> loc(#loc422)
          %conv_states_ptrs_source = tt.expand_dims %idx_feats_20 {axis = 0 : i32} : tensor<256xi32> -> tensor<1x256xi32> loc(#loc293)
          %conv_states_ptrs_source_42 = tt.splat %conv_states_base_30 : !tt.ptr<f16> -> tensor<1x256x!tt.ptr<f16>> loc(#loc294)
          %conv_states_ptrs_source_43 = tt.addptr %conv_states_ptrs_source_42, %conv_states_ptrs_source : tensor<1x256x!tt.ptr<f16>>, tensor<1x256xi32> loc(#loc294)
          %conv_states_ptrs_source_44 = tt.splat %seqlen : i32 -> tensor<4xi32> loc(#loc295)
          %conv_states_ptrs_source_45 = arith.addi %idx_tokens_conv, %conv_states_ptrs_source_44 : tensor<4xi32> loc(#loc295)
          %conv_states_ptrs_source_46 = arith.muli %conv_states_ptrs_source_45, %cst_7 : tensor<4xi32> loc(#loc296)
          %conv_states_ptrs_source_47 = tt.expand_dims %conv_states_ptrs_source_46 {axis = 1 : i32} : tensor<4xi32> -> tensor<4x1xi32> loc(#loc297)
          %conv_states_ptrs_source_48 = tt.broadcast %conv_states_ptrs_source_43 : tensor<1x256x!tt.ptr<f16>> -> tensor<4x256x!tt.ptr<f16>> loc(#loc298)
          %conv_states_ptrs_source_49 = tt.broadcast %conv_states_ptrs_source_47 : tensor<4x1xi32> -> tensor<4x256xi32> loc(#loc298)
          %conv_states_ptrs_source_50 = tt.addptr %conv_states_ptrs_source_48, %conv_states_ptrs_source_49 : tensor<4x256x!tt.ptr<f16>>, tensor<4x256xi32> loc(#loc298)
          %mask = arith.cmpi slt, %conv_states_input_coord_29, %c199_i64 : i64 loc(#loc299)
          %mask_51 = arith.cmpi slt, %conv_states_ptrs_source_45, %cst_6 : tensor<4xi32> loc(#loc300)
          %mask_52 = tt.expand_dims %mask_51 {axis = 1 : i32} : tensor<4xi1> -> tensor<4x1xi1> loc(#loc301)
          %mask_53 = tt.splat %mask : i1 -> tensor<4x1xi1> loc(#loc302)
          %mask_54 = arith.andi %mask_53, %mask_52 : tensor<4x1xi1> loc(#loc302)
          %mask_55 = arith.cmpi slt, %idx_feats_20, %cst_10 : tensor<256xi32> loc(#loc303)
          %mask_56 = tt.expand_dims %mask_55 {axis = 0 : i32} : tensor<256xi1> -> tensor<1x256xi1> loc(#loc304)
          %mask_57 = tt.broadcast %mask_54 : tensor<4x1xi1> -> tensor<4x256xi1> loc(#loc305)
          %mask_58 = tt.broadcast %mask_56 : tensor<1x256xi1> -> tensor<4x256xi1> loc(#loc305)
          %mask_59 = arith.andi %mask_57, %mask_58 : tensor<4x256xi1> loc(#loc305)
          %conv_state = tt.load %conv_states_ptrs_source_50, %mask_59, %cst_0 : tensor<4x256x!tt.ptr<f16>> loc(#loc306)
          %VAL = arith.subi %c3_i32, %seqlen : i32 loc(#loc423)
          %x_ptrs = tt.expand_dims %x_base_27 {axis = 0 : i32} : tensor<256x!tt.ptr<f16>> -> tensor<1x256x!tt.ptr<f16>> loc(#loc308)
          %x_ptrs_60 = tt.splat %VAL : i32 -> tensor<4xi32> loc(#loc309)
          %x_ptrs_61 = arith.subi %idx_tokens_conv, %x_ptrs_60 : tensor<4xi32> loc(#loc309)
          %x_ptrs_62 = arith.extsi %x_ptrs_61 : tensor<4xi32> to tensor<4xi64> loc(#loc310)
          %x_ptrs_63 = tt.splat %stride_x_token : i64 -> tensor<4xi64> loc(#loc310)
          %x_ptrs_64 = arith.muli %x_ptrs_62, %x_ptrs_63 : tensor<4xi64> loc(#loc310)
          %x_ptrs_65 = tt.expand_dims %x_ptrs_64 {axis = 1 : i32} : tensor<4xi64> -> tensor<4x1xi64> loc(#loc311)
          %x_ptrs_66 = tt.broadcast %x_ptrs : tensor<1x256x!tt.ptr<f16>> -> tensor<4x256x!tt.ptr<f16>> loc(#loc312)
          %x_ptrs_67 = tt.broadcast %x_ptrs_65 : tensor<4x1xi64> -> tensor<4x256xi64> loc(#loc312)
          %x_ptrs_68 = tt.addptr %x_ptrs_66, %x_ptrs_67 : tensor<4x256x!tt.ptr<f16>>, tensor<4x256xi64> loc(#loc424)
          %mask_x = arith.cmpi sge, %x_ptrs_61, %cst_8 : tensor<4xi32> loc(#loc313)
          %mask_x_69 = tt.expand_dims %mask_x {axis = 1 : i32} : tensor<4xi1> -> tensor<4x1xi1> loc(#loc314)
          %mask_x_70 = arith.cmpi slt, %x_ptrs_61, %conv_states_ptrs_source_44 : tensor<4xi32> loc(#loc315)
          %mask_x_71 = tt.expand_dims %mask_x_70 {axis = 1 : i32} : tensor<4xi1> -> tensor<4x1xi1> loc(#loc316)
          %mask_x_72 = arith.andi %mask_x_69, %mask_x_71 : tensor<4x1xi1> loc(#loc317)
          %mask_x_73 = tt.broadcast %mask_x_72 : tensor<4x1xi1> -> tensor<4x256xi1> loc(#loc318)
          %mask_x_74 = arith.andi %mask_x_73, %mask_58 : tensor<4x256xi1> loc(#loc425)
          %loaded_x = tt.load %x_ptrs_68, %mask_x_74, %cst_0 : tensor<4x256x!tt.ptr<f16>> loc(#loc319)
          gpu.barrier loc(#loc109)
          %new_conv_state = arith.select %mask_59, %conv_state, %loaded_x : tensor<4x256xi1>, tensor<4x256xf16> loc(#loc426)
          %conv_states_ptrs_target = arith.muli %idx_tokens_conv, %cst_7 : tensor<4xi32> loc(#loc321)
          %conv_states_ptrs_target_75 = tt.expand_dims %conv_states_ptrs_target {axis = 1 : i32} : tensor<4xi32> -> tensor<4x1xi32> loc(#loc322)
          %conv_states_ptrs_target_76 = tt.expand_dims %conv_states_base_32 {axis = 0 : i32} : tensor<256x!tt.ptr<f16>> -> tensor<1x256x!tt.ptr<f16>> loc(#loc323)
          %conv_states_ptrs_target_77 = tt.broadcast %conv_states_ptrs_target_76 : tensor<1x256x!tt.ptr<f16>> -> tensor<4x256x!tt.ptr<f16>> loc(#loc323)
          %conv_states_ptrs_target_78 = tt.broadcast %conv_states_ptrs_target_75 : tensor<4x1xi32> -> tensor<4x256xi32> loc(#loc323)
          %conv_states_ptrs_target_79 = tt.addptr %conv_states_ptrs_target_77, %conv_states_ptrs_target_78 : tensor<4x256x!tt.ptr<f16>>, tensor<4x256xi32> loc(#loc427)
          %mask_80 = arith.cmpi slt, %idx_tokens_conv, %cst_6 : tensor<4xi32> loc(#loc324)
          %mask_81 = tt.expand_dims %mask_80 {axis = 1 : i32} : tensor<4xi1> -> tensor<4x1xi1> loc(#loc325)
          %mask_82 = tt.broadcast %mask_81 : tensor<4x1xi1> -> tensor<4x256xi1> loc(#loc326)
          %mask_83 = arith.andi %mask_82, %mask_58 : tensor<4x256xi1> loc(#loc428)
          tt.store %conv_states_ptrs_target_79, %new_conv_state, %mask_83 : tensor<4x256x!tt.ptr<f16>> loc(#loc117)
        } else {
          %idx_tokens_conv = tt.make_range {end = 4 : i32, start = 0 : i32} : tensor<4xi32> loc(#loc429)
          %VAL = arith.subi %c3_i32, %seqlen : i32 loc(#loc430)
          %x_ptrs = tt.expand_dims %x_base_27 {axis = 0 : i32} : tensor<256x!tt.ptr<f16>> -> tensor<1x256x!tt.ptr<f16>> loc(#loc329)
          %x_ptrs_42 = tt.splat %VAL : i32 -> tensor<4xi32> loc(#loc330)
          %x_ptrs_43 = arith.subi %idx_tokens_conv, %x_ptrs_42 : tensor<4xi32> loc(#loc330)
          %x_ptrs_44 = arith.extsi %x_ptrs_43 : tensor<4xi32> to tensor<4xi64> loc(#loc331)
          %x_ptrs_45 = tt.splat %stride_x_token : i64 -> tensor<4xi64> loc(#loc331)
          %x_ptrs_46 = arith.muli %x_ptrs_44, %x_ptrs_45 : tensor<4xi64> loc(#loc331)
          %x_ptrs_47 = tt.expand_dims %x_ptrs_46 {axis = 1 : i32} : tensor<4xi64> -> tensor<4x1xi64> loc(#loc332)
          %x_ptrs_48 = tt.broadcast %x_ptrs : tensor<1x256x!tt.ptr<f16>> -> tensor<4x256x!tt.ptr<f16>> loc(#loc333)
          %x_ptrs_49 = tt.broadcast %x_ptrs_47 : tensor<4x1xi64> -> tensor<4x256xi64> loc(#loc333)
          %x_ptrs_50 = tt.addptr %x_ptrs_48, %x_ptrs_49 : tensor<4x256x!tt.ptr<f16>>, tensor<4x256xi64> loc(#loc431)
          %mask_x = arith.cmpi sge, %x_ptrs_43, %cst_8 : tensor<4xi32> loc(#loc334)
          %mask_x_51 = tt.expand_dims %mask_x {axis = 1 : i32} : tensor<4xi1> -> tensor<4x1xi1> loc(#loc335)
          %mask_x_52 = tt.splat %seqlen : i32 -> tensor<4xi32> loc(#loc336)
          %mask_x_53 = arith.cmpi slt, %x_ptrs_43, %mask_x_52 : tensor<4xi32> loc(#loc336)
          %mask_x_54 = tt.expand_dims %mask_x_53 {axis = 1 : i32} : tensor<4xi1> -> tensor<4x1xi1> loc(#loc337)
          %mask_x_55 = arith.andi %mask_x_51, %mask_x_54 : tensor<4x1xi1> loc(#loc338)
          %mask_x_56 = arith.cmpi slt, %idx_feats_20, %cst_10 : tensor<256xi32> loc(#loc339)
          %mask_x_57 = tt.expand_dims %mask_x_56 {axis = 0 : i32} : tensor<256xi1> -> tensor<1x256xi1> loc(#loc340)
          %mask_x_58 = tt.broadcast %mask_x_55 : tensor<4x1xi1> -> tensor<4x256xi1> loc(#loc341)
          %mask_x_59 = tt.broadcast %mask_x_57 : tensor<1x256xi1> -> tensor<4x256xi1> loc(#loc341)
          %mask_x_60 = arith.andi %mask_x_58, %mask_x_59 : tensor<4x256xi1> loc(#loc432)
          %new_conv_state = tt.load %x_ptrs_50, %mask_x_60, %cst_0 : tensor<4x256x!tt.ptr<f16>> loc(#loc433)
          %conv_states_ptrs_target = arith.muli %idx_tokens_conv, %cst_7 : tensor<4xi32> loc(#loc343)
          %conv_states_ptrs_target_61 = tt.expand_dims %conv_states_ptrs_target {axis = 1 : i32} : tensor<4xi32> -> tensor<4x1xi32> loc(#loc344)
          %conv_states_ptrs_target_62 = tt.expand_dims %conv_states_base_32 {axis = 0 : i32} : tensor<256x!tt.ptr<f16>> -> tensor<1x256x!tt.ptr<f16>> loc(#loc345)
          %conv_states_ptrs_target_63 = tt.broadcast %conv_states_ptrs_target_62 : tensor<1x256x!tt.ptr<f16>> -> tensor<4x256x!tt.ptr<f16>> loc(#loc345)
          %conv_states_ptrs_target_64 = tt.broadcast %conv_states_ptrs_target_61 : tensor<4x1xi32> -> tensor<4x256xi32> loc(#loc345)
          %conv_states_ptrs_target_65 = tt.addptr %conv_states_ptrs_target_63, %conv_states_ptrs_target_64 : tensor<4x256x!tt.ptr<f16>>, tensor<4x256xi32> loc(#loc434)
          %mask = arith.cmpi slt, %idx_tokens_conv, %cst_6 : tensor<4xi32> loc(#loc346)
          %mask_66 = tt.expand_dims %mask {axis = 1 : i32} : tensor<4xi1> -> tensor<4x1xi1> loc(#loc347)
          %mask_67 = tt.broadcast %mask_66 : tensor<4x1xi1> -> tensor<4x256xi1> loc(#loc348)
          %mask_68 = arith.andi %mask_67, %mask_x_59 : tensor<4x256xi1> loc(#loc435)
          tt.store %conv_states_ptrs_target_65, %new_conv_state, %mask_68 : tensor<4x256x!tt.ptr<f16>> loc(#loc140)
        } loc(#loc447)
      } loc(#loc47)
      scf.yield %col2_41#0, %col2_41#1, %col2_41#2 : tensor<256xf16>, tensor<256xf16>, tensor<256xf16> loc(#loc47)
    } else {
      %prior_tokens = arith.subi %token_offset, %c1_i32 : i32 loc(#loc349)
      %prior_tokens_38 = arith.extsi %prior_tokens : i32 to i64 loc(#loc350)
      %prior_tokens_39 = arith.muli %prior_tokens_38, %stride_x_token : i64 loc(#loc350)
      %prior_tokens_40 = tt.splat %prior_tokens_39 : i64 -> tensor<256xi64> loc(#loc351)
      %prior_tokens_41 = tt.addptr %x_base_27, %prior_tokens_40 : tensor<256x!tt.ptr<f16>>, tensor<256xi64> loc(#loc351)
      %mask_w_42 = arith.cmpi slt, %idx_feats_20, %cst_10 : tensor<256xi32> loc(#loc352)
      %col2_43 = tt.load %prior_tokens_41, %mask_w_42, %cst_1 cacheModifier = ca : tensor<256x!tt.ptr<f16>> loc(#loc436)
      %conv_states_ptrs = arith.subi %c0_i64, %stride_x_token : i64 loc(#loc354)
      %conv_states_ptrs_44 = arith.addi %prior_tokens_39, %conv_states_ptrs : i64 loc(#loc437)
      %conv_states_ptrs_45 = tt.splat %conv_states_ptrs_44 : i64 -> tensor<256xi64> loc(#loc437)
      %conv_states_ptrs_46 = tt.addptr %x_base_27, %conv_states_ptrs_45 : tensor<256x!tt.ptr<f16>>, tensor<256xi64> loc(#loc437)
      %col1 = tt.load %conv_states_ptrs_46, %mask_w_42, %cst_1 cacheModifier = ca : tensor<256x!tt.ptr<f16>> loc(#loc438)
      %conv_states_ptrs_47 = arith.muli %stride_x_token, %c2_i64 : i64 loc(#loc356)
      %conv_states_ptrs_48 = arith.subi %c0_i64, %conv_states_ptrs_47 : i64 loc(#loc357)
      %conv_states_ptrs_49 = arith.addi %prior_tokens_39, %conv_states_ptrs_48 : i64 loc(#loc439)
      %conv_states_ptrs_50 = tt.splat %conv_states_ptrs_49 : i64 -> tensor<256xi64> loc(#loc439)
      %conv_states_ptrs_51 = tt.addptr %x_base_27, %conv_states_ptrs_50 : tensor<256x!tt.ptr<f16>>, tensor<256xi64> loc(#loc439)
      %col0 = tt.load %conv_states_ptrs_51, %mask_w_42, %cst_1 cacheModifier = ca : tensor<256x!tt.ptr<f16>> loc(#loc440)
      %4 = arith.subi %chunk_offset_16, %c1_i32 : i32 loc(#loc151)
      %5 = arith.cmpi slt, %4, %c0_i32 : i32 loc(#loc152)
      scf.if %5 {
        %idx_tokens_last = tt.make_range {end = 4 : i32, start = 0 : i32} : tensor<4xi32> loc(#loc359)
        %idx_tokens_last_52 = arith.addi %idx_tokens_last, %cst : tensor<4xi32> loc(#loc360)
        %x_ptrs = arith.extsi %idx_tokens_last_52 : tensor<4xi32> to tensor<4xi64> loc(#loc361)
        %x_ptrs_53 = tt.splat %stride_x_token : i64 -> tensor<4xi64> loc(#loc361)
        %x_ptrs_54 = arith.muli %x_ptrs, %x_ptrs_53 : tensor<4xi64> loc(#loc361)
        %x_ptrs_55 = tt.expand_dims %x_ptrs_54 {axis = 1 : i32} : tensor<4xi64> -> tensor<4x1xi64> loc(#loc362)
        %x_ptrs_56 = tt.splat %x_ptr : !tt.ptr<f16> -> tensor<4x1x!tt.ptr<f16>> loc(#loc363)
        %x_ptrs_57 = tt.addptr %x_ptrs_56, %x_ptrs_55 : tensor<4x1x!tt.ptr<f16>>, tensor<4x1xi64> loc(#loc363)
        %x_ptrs_58 = tt.expand_dims %idx_feats_20 {axis = 0 : i32} : tensor<256xi32> -> tensor<1x256xi32> loc(#loc364)
        %x_ptrs_59 = tt.broadcast %x_ptrs_57 : tensor<4x1x!tt.ptr<f16>> -> tensor<4x256x!tt.ptr<f16>> loc(#loc365)
        %x_ptrs_60 = tt.broadcast %x_ptrs_58 : tensor<1x256xi32> -> tensor<4x256xi32> loc(#loc365)
        %x_ptrs_61 = tt.addptr %x_ptrs_59, %x_ptrs_60 : tensor<4x256x!tt.ptr<f16>>, tensor<4x256xi32> loc(#loc365)
        %mask_x = arith.cmpi sge, %idx_tokens_last_52, %cst_8 : tensor<4xi32> loc(#loc366)
        %mask_x_62 = tt.expand_dims %mask_x {axis = 1 : i32} : tensor<4xi1> -> tensor<4x1xi1> loc(#loc367)
        %mask_x_63 = tt.expand_dims %mask_w_42 {axis = 0 : i32} : tensor<256xi1> -> tensor<1x256xi1> loc(#loc368)
        %mask_x_64 = tt.broadcast %mask_x_62 : tensor<4x1xi1> -> tensor<4x256xi1> loc(#loc369)
        %mask_x_65 = tt.broadcast %mask_x_63 : tensor<1x256xi1> -> tensor<4x256xi1> loc(#loc369)
        %mask_x_66 = arith.andi %mask_x_64, %mask_x_65 : tensor<4x256xi1> loc(#loc369)
        %loaded_x = tt.load %x_ptrs_61, %mask_x_66, %cst_0 : tensor<4x256x!tt.ptr<f16>> loc(#loc370)
        %conv_states_output_coord = tt.addptr %conv_states_input_coord, %4 : !tt.ptr<i32>, i32 loc(#loc371)
        %conv_states_output_coord_67 = tt.load %conv_states_output_coord : !tt.ptr<i32> loc(#loc372)
        %conv_states_output_coord_68 = arith.extsi %conv_states_output_coord_67 : i32 to i64 loc(#loc373)
        %conv_states_ptrs_target = arith.muli %conv_states_output_coord_68, %c536576_i64 : i64 loc(#loc374)
        %conv_states_ptrs_target_69 = tt.addptr %initial_states_ptr, %conv_states_ptrs_target : !tt.ptr<f16>, i64 loc(#loc375)
        %conv_states_ptrs_target_70 = tt.splat %conv_states_ptrs_target_69 : !tt.ptr<f16> -> tensor<256x!tt.ptr<f16>> loc(#loc376)
        %conv_states_ptrs_target_71 = tt.addptr %conv_states_ptrs_target_70, %idx_feats_20 : tensor<256x!tt.ptr<f16>>, tensor<256xi32> loc(#loc376)
        %conv_states_ptrs_target_72 = tt.expand_dims %conv_states_ptrs_target_71 {axis = 0 : i32} : tensor<256x!tt.ptr<f16>> -> tensor<1x256x!tt.ptr<f16>> loc(#loc377)
        %conv_states_ptrs_target_73 = arith.muli %idx_tokens_last, %cst_7 : tensor<4xi32> loc(#loc378)
        %conv_states_ptrs_target_74 = tt.expand_dims %conv_states_ptrs_target_73 {axis = 1 : i32} : tensor<4xi32> -> tensor<4x1xi32> loc(#loc379)
        %conv_states_ptrs_target_75 = tt.broadcast %conv_states_ptrs_target_72 : tensor<1x256x!tt.ptr<f16>> -> tensor<4x256x!tt.ptr<f16>> loc(#loc380)
        %conv_states_ptrs_target_76 = tt.broadcast %conv_states_ptrs_target_74 : tensor<4x1xi32> -> tensor<4x256xi32> loc(#loc380)
        %conv_states_ptrs_target_77 = tt.addptr %conv_states_ptrs_target_75, %conv_states_ptrs_target_76 : tensor<4x256x!tt.ptr<f16>>, tensor<4x256xi32> loc(#loc380)
        %mask = arith.cmpi slt, %idx_tokens_last, %cst_6 : tensor<4xi32> loc(#loc381)
        %mask_78 = tt.expand_dims %mask {axis = 1 : i32} : tensor<4xi1> -> tensor<4x1xi1> loc(#loc382)
        %mask_79 = tt.broadcast %mask_78 : tensor<4x1xi1> -> tensor<4x256xi1> loc(#loc383)
        %mask_80 = arith.andi %mask_79, %mask_x_65 : tensor<4x256xi1> loc(#loc383)
        gpu.barrier loc(#loc179)
        tt.store %conv_states_ptrs_target_77, %loaded_x, %mask_80 : tensor<4x256x!tt.ptr<f16>> loc(#loc180)
      } loc(#loc153)
      scf.yield %col0, %col1, %col2_43 : tensor<256xf16>, tensor<256xf16>, tensor<256xf16> loc(#loc153)
    } loc(#loc35)
    %x_base_1d = arith.extsi %token_offset : i32 to i64 loc(#loc384)
    %x_base_1d_35 = arith.muli %x_base_1d, %stride_x_token : i64 loc(#loc384)
    %mask_w = arith.cmpi slt, %idx_feats_20, %cst_10 : tensor<256xi32> loc(#loc385)
    %w_col0 = tt.load %w_base_34, %mask_w, %cst_1 : tensor<256x!tt.ptr<f16>> loc(#loc386)
    %w_ptrs = tt.addptr %w_base_34, %cst_12 : tensor<256x!tt.ptr<f16>>, tensor<256xi32> loc(#loc387)
    %w_col1 = tt.load %w_ptrs, %mask_w, %cst_1 : tensor<256x!tt.ptr<f16>> loc(#loc388)
    %w_ptrs_36 = tt.addptr %w_base_34, %cst_5 : tensor<256x!tt.ptr<f16>>, tensor<256xi32> loc(#loc389)
    %w_col2 = tt.load %w_ptrs_36, %mask_w, %cst_1 : tensor<256x!tt.ptr<f16>> loc(#loc390)
    %w_ptrs_37 = tt.addptr %w_base_34, %cst_4 : tensor<256x!tt.ptr<f16>>, tensor<256xi32> loc(#loc391)
    %w_col3 = tt.load %w_ptrs_37, %mask_w, %cst_1 : tensor<256x!tt.ptr<f16>> loc(#loc392)
    %col2:3 = scf.for %idx_token = %c0_i32 to %segment_len_23 step %c1_i32 iter_args(%col0 = %3#0, %col1 = %3#1, %col2_38 = %3#2) -> (tensor<256xf16>, tensor<256xf16>, tensor<256xf16>)  : i32 {
      %acc = arith.mulf %col0, %w_col0 : tensor<256xf16> loc(#loc394)
      %acc_39 = arith.extf %acc : tensor<256xf16> to tensor<256xf32> loc(#loc395)
      %acc_40 = arith.addf %acc_39, %cst_9 : tensor<256xf32> loc(#loc395)
      %acc_41 = arith.mulf %col1, %w_col1 : tensor<256xf16> loc(#loc394)
      %acc_42 = arith.extf %acc_41 : tensor<256xf16> to tensor<256xf32> loc(#loc395)
      %acc_43 = arith.addf %acc_40, %acc_42 : tensor<256xf32> loc(#loc395)
      %acc_44 = arith.mulf %col2_38, %w_col2 : tensor<256xf16> loc(#loc394)
      %acc_45 = arith.extf %acc_44 : tensor<256xf16> to tensor<256xf32> loc(#loc395)
      %acc_46 = arith.addf %acc_43, %acc_45 : tensor<256xf32> loc(#loc395)
      %x_ptrs_1d = arith.extsi %idx_token : i32 to i64 loc(#loc396)
      %x_ptrs_1d_47 = arith.muli %x_ptrs_1d, %stride_x_token : i64 loc(#loc396)
      %x_ptrs_1d_48 = arith.addi %x_base_1d_35, %x_ptrs_1d_47 : i64 loc(#loc442)
      %x_ptrs_1d_49 = tt.splat %x_ptrs_1d_48 : i64 -> tensor<256xi64> loc(#loc442)
      %x_ptrs_1d_50 = tt.addptr %x_base_27, %x_ptrs_1d_49 : tensor<256x!tt.ptr<f16>>, tensor<256xi64> loc(#loc442)
      %matrix_x = tt.load %x_ptrs_1d_50, %mask_w : tensor<256x!tt.ptr<f16>> loc(#loc399)
      %acc_51 = arith.mulf %matrix_x, %w_col3 : tensor<256xf16> loc(#loc394)
      %acc_52 = arith.extf %acc_51 : tensor<256xf16> to tensor<256xf32> loc(#loc395)
      %acc_53 = arith.addf %acc_46, %acc_52 : tensor<256xf32> loc(#loc395)
      %acc_54 = arith.subf %cst_9, %acc_53 : tensor<256xf32> loc(#loc400)
      %acc_55 = math.exp %acc_54 : tensor<256xf32> loc(#loc401)
      %acc_56 = arith.addf %acc_55, %cst_3 : tensor<256xf32> loc(#loc402)
      %acc_57 = arith.divf %acc_53, %acc_56 : tensor<256xf32> loc(#loc403)
      %mask_1d = arith.cmpi slt, %idx_token, %segment_len_23 : i32 loc(#loc404)
      %mask_1d_58 = tt.splat %mask_1d : i1 -> tensor<256xi1> loc(#loc405)
      %mask_1d_59 = arith.andi %mask_1d_58, %mask_w : tensor<256xi1> loc(#loc405)
      %o_ptrs = arith.addi %sequence_start_index_21, %token_offset : i32 loc(#loc406)
      %o_ptrs_60 = arith.addi %o_ptrs, %idx_token : i32 loc(#loc407)
      %o_ptrs_61 = arith.extsi %o_ptrs_60 : i32 to i64 loc(#loc408)
      %o_ptrs_62 = arith.muli %o_ptrs_61, %stride_o_token : i64 loc(#loc408)
      %o_ptrs_63 = tt.addptr %o_ptr, %o_ptrs_62 : !tt.ptr<f16>, i64 loc(#loc409)
      %o_ptrs_64 = tt.splat %o_ptrs_63 : !tt.ptr<f16> -> tensor<256x!tt.ptr<f16>> loc(#loc410)
      %o_ptrs_65 = tt.addptr %o_ptrs_64, %idx_feats_20 : tensor<256x!tt.ptr<f16>>, tensor<256xi32> loc(#loc410)
      %4 = arith.truncf %acc_57 : tensor<256xf32> to tensor<256xf16> loc(#loc208)
      tt.store %o_ptrs_65, %4, %mask_1d_59 : tensor<256x!tt.ptr<f16>> loc(#loc208)
      scf.yield %col1, %col2_38, %matrix_x : tensor<256xf16>, tensor<256xf16>, tensor<256xf16> loc(#loc209)
    } loc(#loc445)
    tt.return loc(#loc210)
  } loc(#loc)
} loc(#loc)
#loc1 = loc(unknown)
#loc2 = loc("/usr/local/lib/python3.12/dist-packages/vllm/model_executor/layers/mamba/ops/causal_conv1d.py":81:18)
#loc3 = loc("/usr/local/lib/python3.12/dist-packages/vllm/model_executor/layers/mamba/ops/causal_conv1d.py":75:48)
#loc4 = loc("/usr/local/lib/python3.12/dist-packages/vllm/model_executor/layers/mamba/ops/causal_conv1d.py":75:34)
#loc5 = loc("/usr/local/lib/python3.12/dist-packages/vllm/model_executor/layers/mamba/ops/causal_conv1d.py":75:22)
#loc6 = loc("/usr/local/lib/python3.12/dist-packages/vllm/model_executor/layers/mamba/ops/causal_conv1d.py":75:55)
#loc7 = loc("/usr/local/lib/python3.12/dist-packages/vllm/model_executor/layers/mamba/ops/causal_conv1d.py":76:52)
#loc8 = loc("/usr/local/lib/python3.12/dist-packages/vllm/model_executor/layers/mamba/ops/causal_conv1d.py":76:27)
#loc9 = loc("/usr/local/lib/python3.12/dist-packages/vllm/model_executor/layers/mamba/ops/causal_conv1d.py":79:30)
#loc10 = loc("/usr/local/lib/python3.12/dist-packages/vllm/model_executor/layers/mamba/ops/causal_conv1d.py":79:35)
#loc11 = loc("/usr/local/lib/python3.12/dist-packages/vllm/model_executor/layers/mamba/ops/causal_conv1d.py":79:58)
#loc12 = loc("/usr/local/lib/python3.12/dist-packages/vllm/model_executor/layers/mamba/ops/causal_conv1d.py":79:45)
#loc13 = loc("/usr/local/lib/python3.12/dist-packages/vllm/model_executor/layers/mamba/ops/causal_conv1d.py":82:8)
#loc14 = loc("/usr/local/lib/python3.12/dist-packages/vllm/model_executor/layers/mamba/ops/causal_conv1d.py":84:57)
#loc15 = loc("/usr/local/lib/python3.12/dist-packages/vllm/model_executor/layers/mamba/ops/causal_conv1d.py":84:35)
#loc16 = loc("/usr/local/lib/python3.12/dist-packages/vllm/model_executor/layers/mamba/ops/causal_conv1d.py":85:65)
#loc17 = loc("/usr/local/lib/python3.12/dist-packages/vllm/model_executor/layers/mamba/ops/causal_conv1d.py":85:33)
#loc18 = loc("/usr/local/lib/python3.12/dist-packages/vllm/model_executor/layers/mamba/ops/causal_conv1d.py":87:34)
#loc19 = loc("/usr/local/lib/python3.12/dist-packages/vllm/model_executor/layers/mamba/ops/causal_conv1d.py":123:29)
#loc20 = loc("/usr/local/lib/python3.12/dist-packages/vllm/model_executor/layers/mamba/ops/causal_conv1d.py":124:40)
#loc21 = loc("/usr/local/lib/python3.12/dist-packages/vllm/model_executor/layers/mamba/ops/causal_conv1d.py":124:31)
#loc22 = loc("/usr/local/lib/python3.12/dist-packages/vllm/model_executor/layers/mamba/ops/causal_conv1d.py":128:39)
#loc23 = loc("/usr/local/lib/python3.12/dist-packages/vllm/model_executor/layers/mamba/ops/causal_conv1d.py":128:16)
#loc24 = loc("/usr/local/lib/python3.12/dist-packages/vllm/model_executor/layers/mamba/ops/causal_conv1d.py":128:56)
#loc25 = loc("/usr/local/lib/python3.12/dist-packages/vllm/model_executor/layers/mamba/ops/causal_conv1d.py":133:33)
#loc26 = loc("/usr/local/lib/python3.12/dist-packages/vllm/model_executor/layers/mamba/ops/causal_conv1d.py":133:8)
#loc27 = loc("/usr/local/lib/python3.12/dist-packages/vllm/model_executor/layers/mamba/ops/causal_conv1d.py":134:9)
#loc28 = loc("/usr/local/lib/python3.12/dist-packages/vllm/model_executor/layers/mamba/ops/causal_conv1d.py":137:38)
#loc29 = loc("/usr/local/lib/python3.12/dist-packages/vllm/model_executor/layers/mamba/ops/causal_conv1d.py":142:37)
#loc30 = loc("/usr/local/lib/python3.12/dist-packages/vllm/model_executor/layers/mamba/ops/causal_conv1d.py":142:11)
#loc31 = loc("/usr/local/lib/python3.12/dist-packages/vllm/model_executor/layers/mamba/ops/causal_conv1d.py":143:11)
#loc32 = loc("/usr/local/lib/python3.12/dist-packages/vllm/model_executor/layers/mamba/ops/causal_conv1d.py":146:34)
#loc33 = loc("/usr/local/lib/python3.12/dist-packages/vllm/model_executor/layers/mamba/ops/causal_conv1d.py":146:22)
#loc34 = loc("/usr/local/lib/python3.12/dist-packages/vllm/model_executor/layers/mamba/ops/causal_conv1d.py":151:23)
#loc35 = loc("/usr/local/lib/python3.12/dist-packages/vllm/model_executor/layers/mamba/ops/causal_conv1d.py":151:7)
#loc36 = loc("/usr/local/lib/python3.12/dist-packages/vllm/model_executor/layers/mamba/ops/causal_conv1d.py":153:59)
#loc37 = loc("/usr/local/lib/python3.12/dist-packages/vllm/model_executor/layers/mamba/ops/causal_conv1d.py":153:34)
#loc38 = loc("/usr/local/lib/python3.12/dist-packages/vllm/model_executor/layers/mamba/ops/causal_conv1d.py":154:11)
#loc39 = loc("/usr/local/lib/python3.12/dist-packages/vllm/model_executor/layers/mamba/ops/causal_conv1d.py":156:46)
#loc40 = loc("/usr/local/lib/python3.12/dist-packages/vllm/model_executor/layers/mamba/ops/causal_conv1d.py":157:33)
#loc41 = loc("/usr/local/lib/python3.12/dist-packages/vllm/model_executor/layers/mamba/ops/causal_conv1d.py":168:57)
#loc42 = loc("/usr/local/lib/python3.12/dist-packages/vllm/model_executor/layers/mamba/ops/causal_conv1d.py":169:50)
#loc43 = loc("/usr/local/lib/python3.12/dist-packages/vllm/model_executor/layers/mamba/ops/causal_conv1d.py":170:57)
#loc44 = loc("/usr/local/lib/python3.12/dist-packages/vllm/model_executor/layers/mamba/ops/causal_conv1d.py":172:57)
#loc45 = loc("/usr/local/lib/python3.12/dist-packages/vllm/model_executor/layers/mamba/ops/causal_conv1d.py":190:32)
#loc46 = loc("/usr/local/lib/python3.12/dist-packages/vllm/model_executor/layers/mamba/ops/causal_conv1d.py":197:25)
#loc47 = loc("/usr/local/lib/python3.12/dist-packages/vllm/model_executor/layers/mamba/ops/causal_conv1d.py":197:12)
#loc48 = loc("/usr/local/lib/python3.12/dist-packages/vllm/model_executor/layers/mamba/ops/causal_conv1d.py":202:40)
#loc49 = loc("/usr/local/lib/python3.12/dist-packages/vllm/model_executor/layers/mamba/ops/causal_conv1d.py":203:19)
#loc50 = loc("/usr/local/lib/python3.12/dist-packages/vllm/model_executor/layers/mamba/ops/causal_conv1d.py":202:53)
#loc51 = loc("/usr/local/lib/python3.12/dist-packages/vllm/model_executor/layers/mamba/ops/causal_conv1d.py":207:43)
#loc52 = loc("/usr/local/lib/python3.12/dist-packages/vllm/model_executor/layers/mamba/ops/causal_conv1d.py":207:62)
#loc53 = loc("/usr/local/lib/python3.12/dist-packages/vllm/model_executor/layers/mamba/ops/causal_conv1d.py":207:78)
#loc54 = loc("/usr/local/lib/python3.12/dist-packages/vllm/model_executor/layers/mamba/ops/causal_conv1d.py":207:18)
#loc55 = loc("/usr/local/lib/python3.12/dist-packages/vllm/model_executor/layers/mamba/ops/causal_conv1d.py":208:45)
#loc56 = loc("/usr/local/lib/python3.12/dist-packages/vllm/model_executor/layers/mamba/ops/causal_conv1d.py":208:18)
#loc57 = loc("/usr/local/lib/python3.12/dist-packages/vllm/model_executor/layers/mamba/ops/causal_conv1d.py":211:36)
#loc58 = loc("/usr/local/lib/python3.12/dist-packages/vllm/model_executor/layers/mamba/ops/causal_conv1d.py":211:39)
#loc59 = loc("/usr/local/lib/python3.12/dist-packages/vllm/model_executor/layers/mamba/ops/causal_conv1d.py":212:37)
#loc60 = loc("/usr/local/lib/python3.12/dist-packages/vllm/model_executor/layers/mamba/ops/causal_conv1d.py":212:45)
#loc61 = loc("/usr/local/lib/python3.12/dist-packages/vllm/model_executor/layers/mamba/ops/causal_conv1d.py":212:18)
#loc62 = loc("/usr/local/lib/python3.12/dist-packages/vllm/model_executor/layers/mamba/ops/causal_conv1d.py":213:31)
#loc63 = loc("/usr/local/lib/python3.12/dist-packages/vllm/model_executor/layers/mamba/ops/causal_conv1d.py":213:36)
#loc64 = loc("/usr/local/lib/python3.12/dist-packages/vllm/model_executor/layers/mamba/ops/causal_conv1d.py":213:18)
#loc65 = loc("/usr/local/lib/python3.12/dist-packages/vllm/model_executor/layers/mamba/ops/causal_conv1d.py":215:47)
#loc66 = loc("/usr/local/lib/python3.12/dist-packages/vllm/model_executor/layers/mamba/ops/causal_conv1d.py":220:16)
#loc67 = loc("/usr/local/lib/python3.12/dist-packages/vllm/model_executor/layers/mamba/ops/causal_conv1d.py":223:17)
#loc68 = loc("/usr/local/lib/python3.12/dist-packages/vllm/model_executor/layers/mamba/ops/causal_conv1d.py":227:46)
#loc69 = loc("/usr/local/lib/python3.12/dist-packages/vllm/model_executor/layers/mamba/ops/causal_conv1d.py":227:19)
#loc70 = loc("/usr/local/lib/python3.12/dist-packages/vllm/model_executor/layers/mamba/ops/causal_conv1d.py":228:19)
#loc71 = loc("/usr/local/lib/python3.12/dist-packages/vllm/model_executor/layers/mamba/ops/causal_conv1d.py":229:14)
#loc72 = loc("/usr/local/lib/python3.12/dist-packages/vllm/model_executor/layers/mamba/ops/causal_conv1d.py":230:34)
#loc73 = loc("/usr/local/lib/python3.12/dist-packages/vllm/model_executor/layers/mamba/ops/causal_conv1d.py":231:14)
#loc74 = loc("/usr/local/lib/python3.12/dist-packages/vllm/model_executor/layers/mamba/ops/causal_conv1d.py":229:25)
#loc75 = loc("/usr/local/lib/python3.12/dist-packages/vllm/model_executor/layers/mamba/ops/causal_conv1d.py":233:38)
#loc76 = loc("/usr/local/lib/python3.12/dist-packages/vllm/model_executor/layers/mamba/ops/causal_conv1d.py":233:49)
#loc77 = loc("/usr/local/lib/python3.12/dist-packages/vllm/model_executor/layers/mamba/ops/causal_conv1d.py":233:60)
#loc78 = loc("/usr/local/lib/python3.12/dist-packages/vllm/model_executor/layers/mamba/ops/causal_conv1d.py":234:12)
#loc79 = loc("/usr/local/lib/python3.12/dist-packages/vllm/model_executor/layers/mamba/ops/causal_conv1d.py":235:56)
#loc80 = loc("/usr/local/lib/python3.12/dist-packages/vllm/model_executor/layers/mamba/ops/causal_conv1d.py":238:15)
#loc81 = loc("/usr/local/lib/python3.12/dist-packages/vllm/model_executor/layers/mamba/ops/causal_conv1d.py":240:47)
#loc82 = loc("/usr/local/lib/python3.12/dist-packages/vllm/model_executor/layers/mamba/ops/causal_conv1d.py":245:58)
#loc83 = loc("/usr/local/lib/python3.12/dist-packages/vllm/model_executor/layers/mamba/ops/causal_conv1d.py":245:22)
#loc84 = loc("/usr/local/lib/python3.12/dist-packages/vllm/model_executor/layers/mamba/ops/causal_conv1d.py":246:42)
#loc85 = loc("/usr/local/lib/python3.12/dist-packages/vllm/model_executor/layers/mamba/ops/causal_conv1d.py":246:52)
#loc86 = loc("/usr/local/lib/python3.12/dist-packages/vllm/model_executor/layers/mamba/ops/causal_conv1d.py":246:75)
#loc87 = loc("/usr/local/lib/python3.12/dist-packages/vllm/model_executor/layers/mamba/ops/causal_conv1d.py":246:22)
#loc88 = loc("/usr/local/lib/python3.12/dist-packages/vllm/model_executor/layers/mamba/ops/causal_conv1d.py":249:47)
#loc89 = loc("/usr/local/lib/python3.12/dist-packages/vllm/model_executor/layers/mamba/ops/causal_conv1d.py":250:52)
#loc90 = loc("/usr/local/lib/python3.12/dist-packages/vllm/model_executor/layers/mamba/ops/causal_conv1d.py":250:63)
#loc91 = loc("/usr/local/lib/python3.12/dist-packages/vllm/model_executor/layers/mamba/ops/causal_conv1d.py":250:22)
#loc92 = loc("/usr/local/lib/python3.12/dist-packages/vllm/model_executor/layers/mamba/ops/causal_conv1d.py":251:35)
#loc93 = loc("/usr/local/lib/python3.12/dist-packages/vllm/model_executor/layers/mamba/ops/causal_conv1d.py":251:40)
#loc94 = loc("/usr/local/lib/python3.12/dist-packages/vllm/model_executor/layers/mamba/ops/causal_conv1d.py":251:22)
#loc95 = loc("/usr/local/lib/python3.12/dist-packages/vllm/model_executor/layers/mamba/ops/causal_conv1d.py":253:62)
#loc96 = loc("/usr/local/lib/python3.12/dist-packages/vllm/model_executor/layers/mamba/ops/causal_conv1d.py":255:34)
#loc97 = loc("/usr/local/lib/python3.12/dist-packages/vllm/model_executor/layers/mamba/ops/causal_conv1d.py":258:27)
#loc98 = loc("/usr/local/lib/python3.12/dist-packages/vllm/model_executor/layers/mamba/ops/causal_conv1d.py":259:42)
#loc99 = loc("/usr/local/lib/python3.12/dist-packages/vllm/model_executor/layers/mamba/ops/causal_conv1d.py":259:49)
#loc100 = loc("/usr/local/lib/python3.12/dist-packages/vllm/model_executor/layers/mamba/ops/causal_conv1d.py":259:65)
#loc101 = loc("/usr/local/lib/python3.12/dist-packages/vllm/model_executor/layers/mamba/ops/causal_conv1d.py":259:22)
#loc102 = loc("/usr/local/lib/python3.12/dist-packages/vllm/model_executor/layers/mamba/ops/causal_conv1d.py":263:46)
#loc103 = loc("/usr/local/lib/python3.12/dist-packages/vllm/model_executor/layers/mamba/ops/causal_conv1d.py":263:49)
#loc104 = loc("/usr/local/lib/python3.12/dist-packages/vllm/model_executor/layers/mamba/ops/causal_conv1d.py":264:47)
#loc105 = loc("/usr/local/lib/python3.12/dist-packages/vllm/model_executor/layers/mamba/ops/causal_conv1d.py":264:55)
#loc106 = loc("/usr/local/lib/python3.12/dist-packages/vllm/model_executor/layers/mamba/ops/causal_conv1d.py":264:22)
#loc107 = loc("/usr/local/lib/python3.12/dist-packages/vllm/model_executor/layers/mamba/ops/causal_conv1d.py":265:22)
#loc108 = loc("/usr/local/lib/python3.12/dist-packages/vllm/model_executor/layers/mamba/ops/causal_conv1d.py":267:51)
#loc109 = loc("/usr/local/lib/python3.12/dist-packages/vllm/model_executor/layers/mamba/ops/causal_conv1d.py":269:16)
#loc110 = loc("/usr/local/lib/python3.12/dist-packages/vllm/model_executor/layers/mamba/ops/causal_conv1d.py":271:38)
#loc111 = loc("/usr/local/lib/python3.12/dist-packages/vllm/model_executor/layers/mamba/ops/causal_conv1d.py":275:41)
#loc112 = loc("/usr/local/lib/python3.12/dist-packages/vllm/model_executor/layers/mamba/ops/causal_conv1d.py":275:64)
#loc113 = loc("/usr/local/lib/python3.12/dist-packages/vllm/model_executor/layers/mamba/ops/causal_conv1d.py":275:22)
#loc114 = loc("/usr/local/lib/python3.12/dist-packages/vllm/model_executor/layers/mamba/ops/causal_conv1d.py":277:42)
#loc115 = loc("/usr/local/lib/python3.12/dist-packages/vllm/model_executor/layers/mamba/ops/causal_conv1d.py":277:53)
#loc116 = loc("/usr/local/lib/python3.12/dist-packages/vllm/model_executor/layers/mamba/ops/causal_conv1d.py":277:64)
#loc117 = loc("/usr/local/lib/python3.12/dist-packages/vllm/model_executor/layers/mamba/ops/causal_conv1d.py":280:66)
#loc118 = loc("/usr/local/lib/python3.12/dist-packages/vllm/model_executor/layers/mamba/ops/causal_conv1d.py":284:47)
#loc119 = loc("/usr/local/lib/python3.12/dist-packages/vllm/model_executor/layers/mamba/ops/causal_conv1d.py":286:34)
#loc120 = loc("/usr/local/lib/python3.12/dist-packages/vllm/model_executor/layers/mamba/ops/causal_conv1d.py":289:27)
#loc121 = loc("/usr/local/lib/python3.12/dist-packages/vllm/model_executor/layers/mamba/ops/causal_conv1d.py":290:42)
#loc122 = loc("/usr/local/lib/python3.12/dist-packages/vllm/model_executor/layers/mamba/ops/causal_conv1d.py":290:49)
#loc123 = loc("/usr/local/lib/python3.12/dist-packages/vllm/model_executor/layers/mamba/ops/causal_conv1d.py":290:65)
#loc124 = loc("/usr/local/lib/python3.12/dist-packages/vllm/model_executor/layers/mamba/ops/causal_conv1d.py":290:22)
#loc125 = loc("/usr/local/lib/python3.12/dist-packages/vllm/model_executor/layers/mamba/ops/causal_conv1d.py":294:46)
#loc126 = loc("/usr/local/lib/python3.12/dist-packages/vllm/model_executor/layers/mamba/ops/causal_conv1d.py":294:49)
#loc127 = loc("/usr/local/lib/python3.12/dist-packages/vllm/model_executor/layers/mamba/ops/causal_conv1d.py":295:47)
#loc128 = loc("/usr/local/lib/python3.12/dist-packages/vllm/model_executor/layers/mamba/ops/causal_conv1d.py":295:55)
#loc129 = loc("/usr/local/lib/python3.12/dist-packages/vllm/model_executor/layers/mamba/ops/causal_conv1d.py":295:22)
#loc130 = loc("/usr/local/lib/python3.12/dist-packages/vllm/model_executor/layers/mamba/ops/causal_conv1d.py":296:35)
#loc131 = loc("/usr/local/lib/python3.12/dist-packages/vllm/model_executor/layers/mamba/ops/causal_conv1d.py":296:40)
#loc132 = loc("/usr/local/lib/python3.12/dist-packages/vllm/model_executor/layers/mamba/ops/causal_conv1d.py":296:22)
#loc133 = loc("/usr/local/lib/python3.12/dist-packages/vllm/model_executor/layers/mamba/ops/causal_conv1d.py":298:57)
#loc134 = loc("/usr/local/lib/python3.12/dist-packages/vllm/model_executor/layers/mamba/ops/causal_conv1d.py":302:41)
#loc135 = loc("/usr/local/lib/python3.12/dist-packages/vllm/model_executor/layers/mamba/ops/causal_conv1d.py":302:64)
#loc136 = loc("/usr/local/lib/python3.12/dist-packages/vllm/model_executor/layers/mamba/ops/causal_conv1d.py":302:22)
#loc137 = loc("/usr/local/lib/python3.12/dist-packages/vllm/model_executor/layers/mamba/ops/causal_conv1d.py":304:42)
#loc138 = loc("/usr/local/lib/python3.12/dist-packages/vllm/model_executor/layers/mamba/ops/causal_conv1d.py":304:53)
#loc139 = loc("/usr/local/lib/python3.12/dist-packages/vllm/model_executor/layers/mamba/ops/causal_conv1d.py":304:64)
#loc140 = loc("/usr/local/lib/python3.12/dist-packages/vllm/model_executor/layers/mamba/ops/causal_conv1d.py":307:66)
#loc141 = loc("/usr/local/lib/python3.12/dist-packages/vllm/model_executor/layers/mamba/ops/causal_conv1d.py":312:48)
#loc142 = loc("/usr/local/lib/python3.12/dist-packages/vllm/model_executor/layers/mamba/ops/causal_conv1d.py":312:53)
#loc143 = loc("/usr/local/lib/python3.12/dist-packages/vllm/model_executor/layers/mamba/ops/causal_conv1d.py":312:32)
#loc144 = loc("/usr/local/lib/python3.12/dist-packages/vllm/model_executor/layers/mamba/ops/causal_conv1d.py":313:29)
#loc145 = loc("/usr/local/lib/python3.12/dist-packages/vllm/model_executor/layers/mamba/ops/causal_conv1d.py":324:53)
#loc146 = loc("/usr/local/lib/python3.12/dist-packages/vllm/model_executor/layers/mamba/ops/causal_conv1d.py":325:46)
#loc147 = loc("/usr/local/lib/python3.12/dist-packages/vllm/model_executor/layers/mamba/ops/causal_conv1d.py":326:53)
#loc148 = loc("/usr/local/lib/python3.12/dist-packages/vllm/model_executor/layers/mamba/ops/causal_conv1d.py":327:50)
#loc149 = loc("/usr/local/lib/python3.12/dist-packages/vllm/model_executor/layers/mamba/ops/causal_conv1d.py":327:46)
#loc150 = loc("/usr/local/lib/python3.12/dist-packages/vllm/model_executor/layers/mamba/ops/causal_conv1d.py":328:53)
#loc151 = loc("/usr/local/lib/python3.12/dist-packages/vllm/model_executor/layers/mamba/ops/causal_conv1d.py":347:27)
#loc152 = loc("/usr/local/lib/python3.12/dist-packages/vllm/model_executor/layers/mamba/ops/causal_conv1d.py":347:32)
#loc153 = loc("/usr/local/lib/python3.12/dist-packages/vllm/model_executor/layers/mamba/ops/causal_conv1d.py":347:11)
#loc154 = loc("/usr/local/lib/python3.12/dist-packages/vllm/model_executor/layers/mamba/ops/causal_conv1d.py":353:29)
#loc155 = loc("/usr/local/lib/python3.12/dist-packages/vllm/model_executor/layers/mamba/ops/causal_conv1d.py":353:16)
#loc156 = loc("/usr/local/lib/python3.12/dist-packages/vllm/model_executor/layers/mamba/ops/causal_conv1d.py":356:37)
#loc157 = loc("/usr/local/lib/python3.12/dist-packages/vllm/model_executor/layers/mamba/ops/causal_conv1d.py":356:53)
#loc158 = loc("/usr/local/lib/python3.12/dist-packages/vllm/model_executor/layers/mamba/ops/causal_conv1d.py":356:18)
#loc159 = loc("/usr/local/lib/python3.12/dist-packages/vllm/model_executor/layers/mamba/ops/causal_conv1d.py":357:45)
#loc160 = loc("/usr/local/lib/python3.12/dist-packages/vllm/model_executor/layers/mamba/ops/causal_conv1d.py":357:18)
#loc161 = loc("/usr/local/lib/python3.12/dist-packages/vllm/model_executor/layers/mamba/ops/causal_conv1d.py":360:41)
#loc162 = loc("/usr/local/lib/python3.12/dist-packages/vllm/model_executor/layers/mamba/ops/causal_conv1d.py":360:44)
#loc163 = loc("/usr/local/lib/python3.12/dist-packages/vllm/model_executor/layers/mamba/ops/causal_conv1d.py":361:16)
#loc164 = loc("/usr/local/lib/python3.12/dist-packages/vllm/model_executor/layers/mamba/ops/causal_conv1d.py":360:55)
#loc165 = loc("/usr/local/lib/python3.12/dist-packages/vllm/model_executor/layers/mamba/ops/causal_conv1d.py":363:47)
#loc166 = loc("/usr/local/lib/python3.12/dist-packages/vllm/model_executor/layers/mamba/ops/causal_conv1d.py":371:19)
#loc167 = loc("/usr/local/lib/python3.12/dist-packages/vllm/model_executor/layers/mamba/ops/causal_conv1d.py":368:16)
#loc168 = loc("/usr/local/lib/python3.12/dist-packages/vllm/model_executor/layers/mamba/ops/causal_conv1d.py":372:17)
#loc169 = loc("/usr/local/lib/python3.12/dist-packages/vllm/model_executor/layers/mamba/ops/causal_conv1d.py":376:46)
#loc170 = loc("/usr/local/lib/python3.12/dist-packages/vllm/model_executor/layers/mamba/ops/causal_conv1d.py":376:19)
#loc171 = loc("/usr/local/lib/python3.12/dist-packages/vllm/model_executor/layers/mamba/ops/causal_conv1d.py":377:19)
#loc172 = loc("/usr/local/lib/python3.12/dist-packages/vllm/model_executor/layers/mamba/ops/causal_conv1d.py":378:14)
#loc173 = loc("/usr/local/lib/python3.12/dist-packages/vllm/model_executor/layers/mamba/ops/causal_conv1d.py":379:34)
#loc174 = loc("/usr/local/lib/python3.12/dist-packages/vllm/model_executor/layers/mamba/ops/causal_conv1d.py":380:14)
#loc175 = loc("/usr/local/lib/python3.12/dist-packages/vllm/model_executor/layers/mamba/ops/causal_conv1d.py":378:25)
#loc176 = loc("/usr/local/lib/python3.12/dist-packages/vllm/model_executor/layers/mamba/ops/causal_conv1d.py":382:38)
#loc177 = loc("/usr/local/lib/python3.12/dist-packages/vllm/model_executor/layers/mamba/ops/causal_conv1d.py":382:49)
#loc178 = loc("/usr/local/lib/python3.12/dist-packages/vllm/model_executor/layers/mamba/ops/causal_conv1d.py":382:60)
#loc179 = loc("/usr/local/lib/python3.12/dist-packages/vllm/model_executor/layers/mamba/ops/causal_conv1d.py":383:12)
#loc180 = loc("/usr/local/lib/python3.12/dist-packages/vllm/model_executor/layers/mamba/ops/causal_conv1d.py":384:56)
#loc181 = loc("/usr/local/lib/python3.12/dist-packages/vllm/model_executor/layers/mamba/ops/causal_conv1d.py":395:40)
#loc182 = loc("/usr/local/lib/python3.12/dist-packages/vllm/model_executor/layers/mamba/ops/causal_conv1d.py":398:25)
#loc183 = loc("/usr/local/lib/python3.12/dist-packages/vllm/model_executor/layers/mamba/ops/causal_conv1d.py":401:33)
#loc184 = loc("/usr/local/lib/python3.12/dist-packages/vllm/model_executor/layers/mamba/ops/causal_conv1d.py":402:27)
#loc185 = loc("/usr/local/lib/python3.12/dist-packages/vllm/model_executor/layers/mamba/ops/causal_conv1d.py":403:33)
#loc186 = loc("/usr/local/lib/python3.12/dist-packages/vllm/model_executor/layers/mamba/ops/causal_conv1d.py":405:27)
#loc187 = loc("/usr/local/lib/python3.12/dist-packages/vllm/model_executor/layers/mamba/ops/causal_conv1d.py":406:33)
#loc188 = loc("/usr/local/lib/python3.12/dist-packages/vllm/model_executor/layers/mamba/ops/causal_conv1d.py":408:27)
#loc189 = loc("/usr/local/lib/python3.12/dist-packages/vllm/model_executor/layers/mamba/ops/causal_conv1d.py":409:33)
#loc190 = loc("/usr/local/lib/python3.12/dist-packages/vllm/model_executor/layers/mamba/ops/causal_conv1d.py":411:27)
#loc191 = loc("/usr/local/lib/python3.12/dist-packages/vllm/model_executor/layers/mamba/ops/causal_conv1d.py":442:30)
#loc192 = loc("/usr/local/lib/python3.12/dist-packages/vllm/model_executor/layers/mamba/ops/causal_conv1d.py":442:19)
#loc193 = loc("/usr/local/lib/python3.12/dist-packages/vllm/model_executor/layers/mamba/ops/causal_conv1d.py":439:56)
#loc194 = loc("/usr/local/lib/python3.12/dist-packages/vllm/model_executor/layers/mamba/ops/causal_conv1d.py":439:44)
#loc195 = loc("/usr/local/lib/python3.12/dist-packages/vllm/model_executor/layers/mamba/ops/causal_conv1d.py":395:25)
#loc196 = loc("/usr/local/lib/python3.12/dist-packages/vllm/model_executor/layers/mamba/ops/causal_conv1d.py":440:39)
#loc197 = loc("/usr/local/lib/python3.12/dist-packages/vllm/model_executor/layers/mamba/ops/causal_conv1d.py":455:37)
#loc198 = loc("/usr/local/lib/python3.12/dist-packages/vllm/model_executor/layers/mamba/ops/causal_conv1d.py":455:36)
#loc199 = loc("/usr/local/lib/python3.12/dist-packages/vllm/model_executor/layers/mamba/ops/causal_conv1d.py":455:29)
#loc200 = loc("/usr/local/lib/python3.12/dist-packages/vllm/model_executor/layers/mamba/ops/causal_conv1d.py":455:25)
#loc201 = loc("/usr/local/lib/python3.12/dist-packages/vllm/model_executor/layers/mamba/ops/causal_conv1d.py":456:31)
#loc202 = loc("/usr/local/lib/python3.12/dist-packages/vllm/model_executor/layers/mamba/ops/causal_conv1d.py":457:12)
#loc203 = loc("/usr/local/lib/python3.12/dist-packages/vllm/model_executor/layers/mamba/ops/causal_conv1d.py":461:38)
#loc204 = loc("/usr/local/lib/python3.12/dist-packages/vllm/model_executor/layers/mamba/ops/causal_conv1d.py":461:53)
#loc205 = loc("/usr/local/lib/python3.12/dist-packages/vllm/model_executor/layers/mamba/ops/causal_conv1d.py":461:66)
#loc206 = loc("/usr/local/lib/python3.12/dist-packages/vllm/model_executor/layers/mamba/ops/causal_conv1d.py":461:14)
#loc207 = loc("/usr/local/lib/python3.12/dist-packages/vllm/model_executor/layers/mamba/ops/causal_conv1d.py":462:15)
#loc208 = loc("/usr/local/lib/python3.12/dist-packages/vllm/model_executor/layers/mamba/ops/causal_conv1d.py":465:25)
#loc209 = loc("/usr/local/lib/python3.12/dist-packages/vllm/model_executor/layers/mamba/ops/causal_conv1d.py":465:8)
#loc210 = loc("/usr/local/lib/python3.12/dist-packages/vllm/model_executor/layers/mamba/ops/causal_conv1d.py":411:4)
#loc222 = loc("idx_seq"(#loc3))
#loc223 = loc("idx_seq"(#loc4))
#loc224 = loc("idx_seq"(#loc5))
#loc225 = loc("idx_seq"(#loc6))
#loc226 = loc("chunk_offset"(#loc7))
#loc227 = loc("chunk_offset"(#loc8))
#loc228 = loc("idx_feats"(#loc9))
#loc229 = loc("idx_feats"(#loc10))
#loc230 = loc("idx_feats"(#loc11))
#loc231 = loc("idx_feats"(#loc12))
#loc232 = loc("sequence_start_index"(#loc14))
#loc233 = loc("sequence_start_index"(#loc15))
#loc234 = loc("sequence_end_index"(#loc16))
#loc235 = loc("sequence_end_index"(#loc17))
#loc236 = loc("seqlen"(#loc18))
#loc237 = loc("token_offset"(#loc19))
#loc238 = loc("segment_len"(#loc20))
#loc239 = loc("segment_len"(#loc21))
#loc240 = loc("x_base"(#loc22))
#loc241 = loc("x_base"(#loc23))
#loc242 = loc("x_base"(#loc24))
#loc243 = loc("conv_states_input_coord"(#loc25))
#loc244 = loc("conv_states_input_coord"(#loc26))
#loc245 = loc("conv_states_input_coord"(#loc27))
#loc246 = loc("conv_states_base"(#loc29))
#loc247 = loc("conv_states_base"(#loc30))
#loc248 = loc("conv_states_base"(#loc31))
#loc249 = loc("w_base"(#loc32))
#loc250 = loc("w_base"(#loc33))
#loc251 = loc("load_init_state"(#loc36))
#loc252 = loc("load_init_state"(#loc37))
#loc253 = loc("col0"(#loc38))
#loc254 = loc("prior_tokens"(#loc39))
#loc255 = loc("mask_w"(#loc40))
#loc256 = loc("col2"(#loc41))
#loc257 = loc("conv_states_ptrs"(#loc42))
#loc258 = loc("col1"(#loc43))
#loc259 = loc("col0"(#loc44))
#loc260 = loc("col2"(#loc45))
#loc261 = loc("idx_tokens_last"(#loc48))
#loc262 = loc("idx_tokens_last"(#loc49))
#loc263 = loc("idx_tokens_last"(#loc50))
#loc264 = loc("x_ptrs"(#loc51))
#loc265 = loc("x_ptrs"(#loc52))
#loc266 = loc("x_ptrs"(#loc53))
#loc267 = loc("x_ptrs"(#loc54))
#loc268 = loc("x_ptrs"(#loc55))
#loc269 = loc("x_ptrs"(#loc56))
#loc270 = loc("mask_x"(#loc57))
#loc271 = loc("mask_x"(#loc58))
#loc272 = loc("mask_x"(#loc59))
#loc273 = loc("mask_x"(#loc60))
#loc274 = loc("mask_x"(#loc61))
#loc275 = loc("mask_x"(#loc62))
#loc276 = loc("mask_x"(#loc63))
#loc277 = loc("mask_x"(#loc64))
#loc278 = loc("loaded_x"(#loc65))
#loc279 = loc("conv_states_output_coord"(#loc66))
#loc280 = loc("conv_states_output_coord"(#loc67))
#loc281 = loc("conv_states_ptrs_target"(#loc68))
#loc282 = loc("conv_states_ptrs_target"(#loc69))
#loc283 = loc("conv_states_ptrs_target"(#loc70))
#loc284 = loc("conv_states_ptrs_target"(#loc71))
#loc285 = loc("conv_states_ptrs_target"(#loc72))
#loc286 = loc("conv_states_ptrs_target"(#loc73))
#loc287 = loc("conv_states_ptrs_target"(#loc74))
#loc288 = loc("mask"(#loc75))
#loc289 = loc("mask"(#loc76))
#loc290 = loc("mask"(#loc77))
#loc291 = loc("conv_states_ptrs_target"(#loc80))
#loc292 = loc("idx_tokens_conv"(#loc81))
#loc293 = loc("conv_states_ptrs_source"(#loc82))
#loc294 = loc("conv_states_ptrs_source"(#loc83))
#loc295 = loc("conv_states_ptrs_source"(#loc84))
#loc296 = loc("conv_states_ptrs_source"(#loc85))
#loc297 = loc("conv_states_ptrs_source"(#loc86))
#loc298 = loc("conv_states_ptrs_source"(#loc87))
#loc299 = loc("mask"(#loc88))
#loc300 = loc("mask"(#loc89))
#loc301 = loc("mask"(#loc90))
#loc302 = loc("mask"(#loc91))
#loc303 = loc("mask"(#loc92))
#loc304 = loc("mask"(#loc93))
#loc305 = loc("mask"(#loc94))
#loc306 = loc("conv_state"(#loc95))
#loc307 = loc("VAL"(#loc96))
#loc308 = loc("x_ptrs"(#loc97))
#loc309 = loc("x_ptrs"(#loc98))
#loc310 = loc("x_ptrs"(#loc99))
#loc311 = loc("x_ptrs"(#loc100))
#loc312 = loc("x_ptrs"(#loc101))
#loc313 = loc("mask_x"(#loc102))
#loc314 = loc("mask_x"(#loc103))
#loc315 = loc("mask_x"(#loc104))
#loc316 = loc("mask_x"(#loc105))
#loc317 = loc("mask_x"(#loc106))
#loc318 = loc("mask_x"(#loc107))
#loc319 = loc("loaded_x"(#loc108))
#loc320 = loc("new_conv_state"(#loc110))
#loc321 = loc("conv_states_ptrs_target"(#loc111))
#loc322 = loc("conv_states_ptrs_target"(#loc112))
#loc323 = loc("conv_states_ptrs_target"(#loc113))
#loc324 = loc("mask"(#loc114))
#loc325 = loc("mask"(#loc115))
#loc326 = loc("mask"(#loc116))
#loc327 = loc("idx_tokens_conv"(#loc118))
#loc328 = loc("VAL"(#loc119))
#loc329 = loc("x_ptrs"(#loc120))
#loc330 = loc("x_ptrs"(#loc121))
#loc331 = loc("x_ptrs"(#loc122))
#loc332 = loc("x_ptrs"(#loc123))
#loc333 = loc("x_ptrs"(#loc124))
#loc334 = loc("mask_x"(#loc125))
#loc335 = loc("mask_x"(#loc126))
#loc336 = loc("mask_x"(#loc127))
#loc337 = loc("mask_x"(#loc128))
#loc338 = loc("mask_x"(#loc129))
#loc339 = loc("mask_x"(#loc130))
#loc340 = loc("mask_x"(#loc131))
#loc341 = loc("mask_x"(#loc132))
#loc342 = loc("new_conv_state"(#loc133))
#loc343 = loc("conv_states_ptrs_target"(#loc134))
#loc344 = loc("conv_states_ptrs_target"(#loc135))
#loc345 = loc("conv_states_ptrs_target"(#loc136))
#loc346 = loc("mask"(#loc137))
#loc347 = loc("mask"(#loc138))
#loc348 = loc("mask"(#loc139))
#loc349 = loc("prior_tokens"(#loc141))
#loc350 = loc("prior_tokens"(#loc142))
#loc351 = loc("prior_tokens"(#loc143))
#loc352 = loc("mask_w"(#loc144))
#loc353 = loc("col2"(#loc145))
#loc354 = loc("conv_states_ptrs"(#loc146))
#loc355 = loc("col1"(#loc147))
#loc356 = loc("conv_states_ptrs"(#loc148))
#loc357 = loc("conv_states_ptrs"(#loc149))
#loc358 = loc("col0"(#loc150))
#loc359 = loc("idx_tokens_last"(#loc154))
#loc360 = loc("idx_tokens_last"(#loc155))
#loc361 = loc("x_ptrs"(#loc156))
#loc362 = loc("x_ptrs"(#loc157))
#loc363 = loc("x_ptrs"(#loc158))
#loc364 = loc("x_ptrs"(#loc159))
#loc365 = loc("x_ptrs"(#loc160))
#loc366 = loc("mask_x"(#loc161))
#loc367 = loc("mask_x"(#loc162))
#loc368 = loc("mask_x"(#loc163))
#loc369 = loc("mask_x"(#loc164))
#loc370 = loc("loaded_x"(#loc165))
#loc371 = loc("conv_states_output_coord"(#loc166))
#loc372 = loc("conv_states_output_coord"(#loc167))
#loc373 = loc("conv_states_output_coord"(#loc168))
#loc374 = loc("conv_states_ptrs_target"(#loc169))
#loc375 = loc("conv_states_ptrs_target"(#loc170))
#loc376 = loc("conv_states_ptrs_target"(#loc171))
#loc377 = loc("conv_states_ptrs_target"(#loc172))
#loc378 = loc("conv_states_ptrs_target"(#loc173))
#loc379 = loc("conv_states_ptrs_target"(#loc174))
#loc380 = loc("conv_states_ptrs_target"(#loc175))
#loc381 = loc("mask"(#loc176))
#loc382 = loc("mask"(#loc177))
#loc383 = loc("mask"(#loc178))
#loc384 = loc("x_base_1d"(#loc181))
#loc385 = loc("mask_w"(#loc182))
#loc386 = loc("w_col0"(#loc183))
#loc387 = loc("w_ptrs"(#loc184))
#loc388 = loc("w_col1"(#loc185))
#loc389 = loc("w_ptrs"(#loc186))
#loc390 = loc("w_col2"(#loc187))
#loc391 = loc("w_ptrs"(#loc188))
#loc392 = loc("w_col3"(#loc189))
#loc393 = loc("col0"(#loc190))
#loc394 = loc("acc"(#loc191))
#loc395 = loc("acc"(#loc192))
#loc396 = loc("x_ptrs_1d"(#loc193))
#loc397 = loc("x_ptrs_1d"(#loc194))
#loc398 = loc("x_base_1d"(#loc195))
#loc399 = loc("matrix_x"(#loc196))
#loc400 = loc("acc"(#loc197))
#loc401 = loc("acc"(#loc198))
#loc402 = loc("acc"(#loc199))
#loc403 = loc("acc"(#loc200))
#loc404 = loc("mask_1d"(#loc201))
#loc405 = loc("mask_1d"(#loc202))
#loc406 = loc("o_ptrs"(#loc203))
#loc407 = loc("o_ptrs"(#loc204))
#loc408 = loc("o_ptrs"(#loc205))
#loc409 = loc("o_ptrs"(#loc206))
#loc410 = loc("o_ptrs"(#loc207))
#loc411 = loc("load_init_state"(#loc252))
#loc412 = loc("col1"(#loc253))
#loc413 = loc("col2"(#loc256))
#loc414 = loc(fused[#loc257, #loc254])
#loc415 = loc("col1"(#loc258))
#loc416 = loc("col0"(#loc259))
#loc417 = loc("x_ptrs"(#loc269))
#loc418 = loc("mask_x"(#loc277))
#loc419 = loc("conv_states_ptrs_target"(#loc287))
#loc420 = loc("mask"(#loc290))
#loc421 = loc("idx_tokens_conv"(#loc291))
#loc422 = loc("idx_tokens_conv"(#loc292))
#loc423 = loc("VAL"(#loc307))
#loc424 = loc("x_ptrs"(#loc312))
#loc425 = loc("mask_x"(#loc318))
#loc426 = loc("new_conv_state"(#loc320))
#loc427 = loc("conv_states_ptrs_target"(#loc323))
#loc428 = loc("mask"(#loc326))
#loc429 = loc("idx_tokens_conv"(#loc327))
#loc430 = loc("VAL"(#loc328))
#loc431 = loc("x_ptrs"(#loc333))
#loc432 = loc("mask_x"(#loc341))
#loc433 = loc("new_conv_state"(#loc342))
#loc434 = loc("conv_states_ptrs_target"(#loc345))
#loc435 = loc("mask"(#loc348))
#loc436 = loc("col2"(#loc353))
#loc437 = loc(fused[#loc354, #loc351])
#loc438 = loc("col1"(#loc355))
#loc439 = loc(fused[#loc357, #loc351])
#loc440 = loc("col0"(#loc358))
#loc441 = loc("col1"(#loc393))
#loc442 = loc(fused[#loc397, #loc398])
#loc443 = loc("col2"(#loc412))
#loc444 = loc("mask"(#loc421))
#loc445 = loc("col2"(#loc441))
#loc446 = loc("mask_x"(#loc444))
#loc447 = loc("x_ptrs"(#loc446))
