#loc = loc("/root/.cache/vllm/torch_compile_cache/torch_aot_compile/61bda05feca29378847c32f031efa5c8dba258f38b0176a06a3e99e41df8ca50/inductor_cache/43/c43lpfprcoxvubaowx65xdg32oaven4n63mj3ctwj6ltvksclxb2.py":22:0)
#loc21 = loc("in_ptr0"(#loc))
#loc22 = loc("out_ptr0"(#loc))
#loc23 = loc("xnumel"(#loc))
module {
  tt.func public @triton_(%in_ptr0: !tt.ptr<f16> {tt.divisibility = 16 : i32} loc("in_ptr0"(#loc)), %out_ptr0: !tt.ptr<f16> {tt.divisibility = 16 : i32} loc("out_ptr0"(#loc)), %xnumel: i32 {tt.divisibility = 16 : i32} loc("xnumel"(#loc))) attributes {noinline = false} {
    %xoffset = tt.get_program_id x : i32 loc(#loc24)
    %xoffset_0 = arith.constant 1024 : i32 loc(#loc25)
    %xoffset_1 = arith.constant 1024 : i32 loc(#loc25)
    %xoffset_2 = arith.muli %xoffset, %xoffset_1 : i32 loc(#loc25)
    %xindex = tt.make_range {end = 1024 : i32, start = 0 : i32} : tensor<1024xi32> loc(#loc26)
    %xindex_3 = tt.splat %xoffset_2 : i32 -> tensor<1024xi32> loc(#loc27)
    %xindex_4 = arith.addi %xindex_3, %xindex : tensor<1024xi32> loc(#loc27)
    %xmask = tt.splat %xnumel : i32 -> tensor<1024xi32> loc(#loc28)
    %xmask_5 = arith.cmpi slt, %xindex_4, %xmask : tensor<1024xi32> loc(#loc28)
    %x0 = arith.constant 256 : i32 loc(#loc29)
    %x0_6 = arith.constant 256 : i32 loc(#loc29)
    %x0_7 = arith.constant dense<256> : tensor<1024xi32> loc(#loc29)
    %x0_8 = arith.remsi %xindex_4, %x0_7 : tensor<1024xi32> loc(#loc29)
    %x1 = arith.constant 256 : i32 loc(#loc30)
    %x1_9 = arith.constant 256 : i32 loc(#loc30)
    %x1_10 = arith.constant dense<256> : tensor<1024xi32> loc(#loc30)
    %x1_11 = arith.divsi %xindex_4, %x1_10 : tensor<1024xi32> loc(#loc30)
    %x1_12 = arith.constant 8 : i32 loc(#loc31)
    %x1_13 = arith.constant 8 : i32 loc(#loc31)
    %x1_14 = arith.constant dense<8> : tensor<1024xi32> loc(#loc31)
    %x1_15 = arith.remsi %x1_11, %x1_14 : tensor<1024xi32> loc(#loc31)
    %x2 = arith.constant 2048 : i32 loc(#loc32)
    %x2_16 = arith.constant 2048 : i32 loc(#loc32)
    %x2_17 = arith.constant dense<2048> : tensor<1024xi32> loc(#loc32)
    %x2_18 = arith.divsi %xindex_4, %x2_17 : tensor<1024xi32> loc(#loc32)
    %tmp0 = arith.constant 256 : i32 loc(#loc33)
    %tmp0_19 = arith.constant 256 : i32 loc(#loc33)
    %tmp0_20 = arith.constant dense<256> : tensor<1024xi32> loc(#loc33)
    %tmp0_21 = arith.addi %tmp0_20, %x0_8 : tensor<1024xi32> loc(#loc33)
    %tmp0_22 = arith.constant 512 : i32 loc(#loc34)
    %tmp0_23 = arith.constant 512 : i32 loc(#loc34)
    %tmp0_24 = arith.constant dense<512> : tensor<1024xi32> loc(#loc34)
    %tmp0_25 = arith.muli %tmp0_24, %x1_15 : tensor<1024xi32> loc(#loc34)
    %tmp0_26 = arith.addi %tmp0_21, %tmp0_25 : tensor<1024xi32> loc(#loc35)
    %tmp0_27 = arith.constant 4608 : i32 loc(#loc36)
    %tmp0_28 = arith.constant 4608 : i32 loc(#loc36)
    %tmp0_29 = arith.constant dense<4608> : tensor<1024xi32> loc(#loc36)
    %tmp0_30 = arith.muli %tmp0_29, %x2_18 : tensor<1024xi32> loc(#loc36)
    %tmp0_31 = arith.addi %tmp0_26, %tmp0_30 : tensor<1024xi32> loc(#loc37)
    %tmp0_32 = tt.splat %in_ptr0 : !tt.ptr<f16> -> tensor<1024x!tt.ptr<f16>> loc(#loc38)
    %tmp0_33 = tt.addptr %tmp0_32, %tmp0_31 : tensor<1024x!tt.ptr<f16>>, tensor<1024xi32> loc(#loc38)
    %tmp0_34 = tt.load %tmp0_33, %xmask_5 : tensor<1024x!tt.ptr<f16>> loc(#loc39)
    %tmp0_35 = arith.extf %tmp0_34 : tensor<1024xf16> to tensor<1024xf32> loc(#loc40)
    %0 = tt.splat %out_ptr0 : !tt.ptr<f16> -> tensor<1024x!tt.ptr<f16>> loc(#loc18)
    %1 = tt.addptr %0, %xindex_4 : tensor<1024x!tt.ptr<f16>>, tensor<1024xi32> loc(#loc18)
    %2 = arith.truncf %tmp0_35 : tensor<1024xf32> to tensor<1024xf16> loc(#loc19)
    tt.store %1, %2, %xmask_5 : tensor<1024x!tt.ptr<f16>> loc(#loc19)
    tt.return loc(#loc20)
  } loc(#loc)
} loc(#loc)
#loc1 = loc("/root/.cache/vllm/torch_compile_cache/torch_aot_compile/61bda05feca29378847c32f031efa5c8dba258f38b0176a06a3e99e41df8ca50/inductor_cache/43/c43lpfprcoxvubaowx65xdg32oaven4n63mj3ctwj6ltvksclxb2.py":23:28)
#loc2 = loc("/root/.cache/vllm/torch_compile_cache/torch_aot_compile/61bda05feca29378847c32f031efa5c8dba258f38b0176a06a3e99e41df8ca50/inductor_cache/43/c43lpfprcoxvubaowx65xdg32oaven4n63mj3ctwj6ltvksclxb2.py":23:33)
#loc3 = loc("/root/.cache/vllm/torch_compile_cache/torch_aot_compile/61bda05feca29378847c32f031efa5c8dba258f38b0176a06a3e99e41df8ca50/inductor_cache/43/c43lpfprcoxvubaowx65xdg32oaven4n63mj3ctwj6ltvksclxb2.py":24:36)
#loc4 = loc("/root/.cache/vllm/torch_compile_cache/torch_aot_compile/61bda05feca29378847c32f031efa5c8dba258f38b0176a06a3e99e41df8ca50/inductor_cache/43/c43lpfprcoxvubaowx65xdg32oaven4n63mj3ctwj6ltvksclxb2.py":24:23)
#loc5 = loc("/root/.cache/vllm/torch_compile_cache/torch_aot_compile/61bda05feca29378847c32f031efa5c8dba258f38b0176a06a3e99e41df8ca50/inductor_cache/43/c43lpfprcoxvubaowx65xdg32oaven4n63mj3ctwj6ltvksclxb2.py":25:21)
#loc6 = loc("/root/.cache/vllm/torch_compile_cache/torch_aot_compile/61bda05feca29378847c32f031efa5c8dba258f38b0176a06a3e99e41df8ca50/inductor_cache/43/c43lpfprcoxvubaowx65xdg32oaven4n63mj3ctwj6ltvksclxb2.py":26:19)
#loc7 = loc("/root/.cache/vllm/torch_compile_cache/torch_aot_compile/61bda05feca29378847c32f031efa5c8dba258f38b0176a06a3e99e41df8ca50/inductor_cache/43/c43lpfprcoxvubaowx65xdg32oaven4n63mj3ctwj6ltvksclxb2.py":27:21)
#loc8 = loc("/root/.cache/vllm/torch_compile_cache/torch_aot_compile/61bda05feca29378847c32f031efa5c8dba258f38b0176a06a3e99e41df8ca50/inductor_cache/43/c43lpfprcoxvubaowx65xdg32oaven4n63mj3ctwj6ltvksclxb2.py":27:28)
#loc9 = loc("/root/.cache/vllm/torch_compile_cache/torch_aot_compile/61bda05feca29378847c32f031efa5c8dba258f38b0176a06a3e99e41df8ca50/inductor_cache/43/c43lpfprcoxvubaowx65xdg32oaven4n63mj3ctwj6ltvksclxb2.py":28:19)
#loc10 = loc("/root/.cache/vllm/torch_compile_cache/torch_aot_compile/61bda05feca29378847c32f031efa5c8dba258f38b0176a06a3e99e41df8ca50/inductor_cache/43/c43lpfprcoxvubaowx65xdg32oaven4n63mj3ctwj6ltvksclxb2.py":30:36)
#loc11 = loc("/root/.cache/vllm/torch_compile_cache/torch_aot_compile/61bda05feca29378847c32f031efa5c8dba258f38b0176a06a3e99e41df8ca50/inductor_cache/43/c43lpfprcoxvubaowx65xdg32oaven4n63mj3ctwj6ltvksclxb2.py":30:45)
#loc12 = loc("/root/.cache/vllm/torch_compile_cache/torch_aot_compile/61bda05feca29378847c32f031efa5c8dba258f38b0176a06a3e99e41df8ca50/inductor_cache/43/c43lpfprcoxvubaowx65xdg32oaven4n63mj3ctwj6ltvksclxb2.py":30:41)
#loc13 = loc("/root/.cache/vllm/torch_compile_cache/torch_aot_compile/61bda05feca29378847c32f031efa5c8dba258f38b0176a06a3e99e41df8ca50/inductor_cache/43/c43lpfprcoxvubaowx65xdg32oaven4n63mj3ctwj6ltvksclxb2.py":30:55)
#loc14 = loc("/root/.cache/vllm/torch_compile_cache/torch_aot_compile/61bda05feca29378847c32f031efa5c8dba258f38b0176a06a3e99e41df8ca50/inductor_cache/43/c43lpfprcoxvubaowx65xdg32oaven4n63mj3ctwj6ltvksclxb2.py":30:50)
#loc15 = loc("/root/.cache/vllm/torch_compile_cache/torch_aot_compile/61bda05feca29378847c32f031efa5c8dba258f38b0176a06a3e99e41df8ca50/inductor_cache/43/c43lpfprcoxvubaowx65xdg32oaven4n63mj3ctwj6ltvksclxb2.py":30:30)
#loc16 = loc("/root/.cache/vllm/torch_compile_cache/torch_aot_compile/61bda05feca29378847c32f031efa5c8dba258f38b0176a06a3e99e41df8ca50/inductor_cache/43/c43lpfprcoxvubaowx65xdg32oaven4n63mj3ctwj6ltvksclxb2.py":30:60)
#loc17 = loc("/root/.cache/vllm/torch_compile_cache/torch_aot_compile/61bda05feca29378847c32f031efa5c8dba258f38b0176a06a3e99e41df8ca50/inductor_cache/43/c43lpfprcoxvubaowx65xdg32oaven4n63mj3ctwj6ltvksclxb2.py":30:70)
#loc18 = loc("/root/.cache/vllm/torch_compile_cache/torch_aot_compile/61bda05feca29378847c32f031efa5c8dba258f38b0176a06a3e99e41df8ca50/inductor_cache/43/c43lpfprcoxvubaowx65xdg32oaven4n63mj3ctwj6ltvksclxb2.py":31:25)
#loc19 = loc("/root/.cache/vllm/torch_compile_cache/torch_aot_compile/61bda05feca29378847c32f031efa5c8dba258f38b0176a06a3e99e41df8ca50/inductor_cache/43/c43lpfprcoxvubaowx65xdg32oaven4n63mj3ctwj6ltvksclxb2.py":31:36)
#loc20 = loc("/root/.cache/vllm/torch_compile_cache/torch_aot_compile/61bda05feca29378847c32f031efa5c8dba258f38b0176a06a3e99e41df8ca50/inductor_cache/43/c43lpfprcoxvubaowx65xdg32oaven4n63mj3ctwj6ltvksclxb2.py":31:4)
#loc24 = loc("xoffset"(#loc1))
#loc25 = loc("xoffset"(#loc2))
#loc26 = loc("xindex"(#loc3))
#loc27 = loc("xindex"(#loc4))
#loc28 = loc("xmask"(#loc5))
#loc29 = loc("x0"(#loc6))
#loc30 = loc("x1"(#loc7))
#loc31 = loc("x1"(#loc8))
#loc32 = loc("x2"(#loc9))
#loc33 = loc("tmp0"(#loc10))
#loc34 = loc("tmp0"(#loc11))
#loc35 = loc("tmp0"(#loc12))
#loc36 = loc("tmp0"(#loc13))
#loc37 = loc("tmp0"(#loc14))
#loc38 = loc("tmp0"(#loc15))
#loc39 = loc("tmp0"(#loc16))
#loc40 = loc("tmp0"(#loc17))
