#loc = loc("/root/.cache/vllm/torch_compile_cache/torch_aot_compile/61bda05feca29378847c32f031efa5c8dba258f38b0176a06a3e99e41df8ca50/inductor_cache/tz/ctz6a4jvvt3fqr4r6s5jcwhifxzxninp3zhavn7gx6i5wkl4du6r.py":18:0)
#loc16 = loc("in_out_ptr0"(#loc))
#loc17 = loc("in_ptr0"(#loc))
#loc18 = loc("xnumel"(#loc))
module {
  tt.func public @triton_poi_fused_add_4(%in_out_ptr0: !tt.ptr<f16> {tt.divisibility = 16 : i32} loc("in_out_ptr0"(#loc)), %in_ptr0: !tt.ptr<f16> {tt.divisibility = 16 : i32} loc("in_ptr0"(#loc)), %xnumel: i32 {tt.divisibility = 16 : i32} loc("xnumel"(#loc))) attributes {noinline = false} {
    %xoffset = tt.get_program_id x : i32 loc(#loc19)
    %xoffset_0 = arith.constant 512 : i32 loc(#loc20)
    %xoffset_1 = arith.constant 512 : i32 loc(#loc20)
    %xoffset_2 = arith.muli %xoffset, %xoffset_1 : i32 loc(#loc20)
    %xindex = tt.make_range {end = 512 : i32, start = 0 : i32} : tensor<512xi32> loc(#loc21)
    %xindex_3 = tt.splat %xoffset_2 : i32 -> tensor<512xi32> loc(#loc22)
    %xindex_4 = arith.addi %xindex_3, %xindex : tensor<512xi32> loc(#loc22)
    %xmask = tt.splat %xnumel : i32 -> tensor<512xi32> loc(#loc23)
    %xmask_5 = arith.cmpi slt, %xindex_4, %xmask : tensor<512xi32> loc(#loc23)
    %tmp0 = tt.splat %in_out_ptr0 : !tt.ptr<f16> -> tensor<512x!tt.ptr<f16>> loc(#loc24)
    %tmp0_6 = tt.addptr %tmp0, %xindex_4 : tensor<512x!tt.ptr<f16>>, tensor<512xi32> loc(#loc24)
    %tmp0_7 = tt.load %tmp0_6, %xmask_5 : tensor<512x!tt.ptr<f16>> loc(#loc25)
    %tmp0_8 = arith.extf %tmp0_7 : tensor<512xf16> to tensor<512xf32> loc(#loc26)
    %tmp1 = tt.splat %in_ptr0 : !tt.ptr<f16> -> tensor<512x!tt.ptr<f16>> loc(#loc27)
    %tmp1_9 = tt.addptr %tmp1, %xindex_4 : tensor<512x!tt.ptr<f16>>, tensor<512xi32> loc(#loc27)
    %tmp1_10 = tt.load %tmp1_9, %xmask_5 : tensor<512x!tt.ptr<f16>> loc(#loc28)
    %tmp1_11 = arith.extf %tmp1_10 : tensor<512xf16> to tensor<512xf32> loc(#loc29)
    %tmp2 = arith.addf %tmp0_8, %tmp1_11 : tensor<512xf32> loc(#loc30)
    %0 = tt.splat %in_out_ptr0 : !tt.ptr<f16> -> tensor<512x!tt.ptr<f16>> loc(#loc13)
    %1 = tt.addptr %0, %xindex_4 : tensor<512x!tt.ptr<f16>>, tensor<512xi32> loc(#loc13)
    %2 = arith.truncf %tmp2 : tensor<512xf32> to tensor<512xf16> loc(#loc14)
    tt.store %1, %2, %xmask_5 : tensor<512x!tt.ptr<f16>> loc(#loc14)
    tt.return loc(#loc15)
  } loc(#loc)
} loc(#loc)
#loc1 = loc("/root/.cache/vllm/torch_compile_cache/torch_aot_compile/61bda05feca29378847c32f031efa5c8dba258f38b0176a06a3e99e41df8ca50/inductor_cache/tz/ctz6a4jvvt3fqr4r6s5jcwhifxzxninp3zhavn7gx6i5wkl4du6r.py":19:28)
#loc2 = loc("/root/.cache/vllm/torch_compile_cache/torch_aot_compile/61bda05feca29378847c32f031efa5c8dba258f38b0176a06a3e99e41df8ca50/inductor_cache/tz/ctz6a4jvvt3fqr4r6s5jcwhifxzxninp3zhavn7gx6i5wkl4du6r.py":19:33)
#loc3 = loc("/root/.cache/vllm/torch_compile_cache/torch_aot_compile/61bda05feca29378847c32f031efa5c8dba258f38b0176a06a3e99e41df8ca50/inductor_cache/tz/ctz6a4jvvt3fqr4r6s5jcwhifxzxninp3zhavn7gx6i5wkl4du6r.py":20:36)
#loc4 = loc("/root/.cache/vllm/torch_compile_cache/torch_aot_compile/61bda05feca29378847c32f031efa5c8dba258f38b0176a06a3e99e41df8ca50/inductor_cache/tz/ctz6a4jvvt3fqr4r6s5jcwhifxzxninp3zhavn7gx6i5wkl4du6r.py":20:23)
#loc5 = loc("/root/.cache/vllm/torch_compile_cache/torch_aot_compile/61bda05feca29378847c32f031efa5c8dba258f38b0176a06a3e99e41df8ca50/inductor_cache/tz/ctz6a4jvvt3fqr4r6s5jcwhifxzxninp3zhavn7gx6i5wkl4du6r.py":21:21)
#loc6 = loc("/root/.cache/vllm/torch_compile_cache/torch_aot_compile/61bda05feca29378847c32f031efa5c8dba258f38b0176a06a3e99e41df8ca50/inductor_cache/tz/ctz6a4jvvt3fqr4r6s5jcwhifxzxninp3zhavn7gx6i5wkl4du6r.py":23:34)
#loc7 = loc("/root/.cache/vllm/torch_compile_cache/torch_aot_compile/61bda05feca29378847c32f031efa5c8dba258f38b0176a06a3e99e41df8ca50/inductor_cache/tz/ctz6a4jvvt3fqr4r6s5jcwhifxzxninp3zhavn7gx6i5wkl4du6r.py":23:39)
#loc8 = loc("/root/.cache/vllm/torch_compile_cache/torch_aot_compile/61bda05feca29378847c32f031efa5c8dba258f38b0176a06a3e99e41df8ca50/inductor_cache/tz/ctz6a4jvvt3fqr4r6s5jcwhifxzxninp3zhavn7gx6i5wkl4du6r.py":23:49)
#loc9 = loc("/root/.cache/vllm/torch_compile_cache/torch_aot_compile/61bda05feca29378847c32f031efa5c8dba258f38b0176a06a3e99e41df8ca50/inductor_cache/tz/ctz6a4jvvt3fqr4r6s5jcwhifxzxninp3zhavn7gx6i5wkl4du6r.py":24:30)
#loc10 = loc("/root/.cache/vllm/torch_compile_cache/torch_aot_compile/61bda05feca29378847c32f031efa5c8dba258f38b0176a06a3e99e41df8ca50/inductor_cache/tz/ctz6a4jvvt3fqr4r6s5jcwhifxzxninp3zhavn7gx6i5wkl4du6r.py":24:35)
#loc11 = loc("/root/.cache/vllm/torch_compile_cache/torch_aot_compile/61bda05feca29378847c32f031efa5c8dba258f38b0176a06a3e99e41df8ca50/inductor_cache/tz/ctz6a4jvvt3fqr4r6s5jcwhifxzxninp3zhavn7gx6i5wkl4du6r.py":24:45)
#loc12 = loc("/root/.cache/vllm/torch_compile_cache/torch_aot_compile/61bda05feca29378847c32f031efa5c8dba258f38b0176a06a3e99e41df8ca50/inductor_cache/tz/ctz6a4jvvt3fqr4r6s5jcwhifxzxninp3zhavn7gx6i5wkl4du6r.py":25:18)
#loc13 = loc("/root/.cache/vllm/torch_compile_cache/torch_aot_compile/61bda05feca29378847c32f031efa5c8dba258f38b0176a06a3e99e41df8ca50/inductor_cache/tz/ctz6a4jvvt3fqr4r6s5jcwhifxzxninp3zhavn7gx6i5wkl4du6r.py":26:28)
#loc14 = loc("/root/.cache/vllm/torch_compile_cache/torch_aot_compile/61bda05feca29378847c32f031efa5c8dba258f38b0176a06a3e99e41df8ca50/inductor_cache/tz/ctz6a4jvvt3fqr4r6s5jcwhifxzxninp3zhavn7gx6i5wkl4du6r.py":26:39)
#loc15 = loc("/root/.cache/vllm/torch_compile_cache/torch_aot_compile/61bda05feca29378847c32f031efa5c8dba258f38b0176a06a3e99e41df8ca50/inductor_cache/tz/ctz6a4jvvt3fqr4r6s5jcwhifxzxninp3zhavn7gx6i5wkl4du6r.py":26:4)
#loc19 = loc("xoffset"(#loc1))
#loc20 = loc("xoffset"(#loc2))
#loc21 = loc("xindex"(#loc3))
#loc22 = loc("xindex"(#loc4))
#loc23 = loc("xmask"(#loc5))
#loc24 = loc("tmp0"(#loc6))
#loc25 = loc("tmp0"(#loc7))
#loc26 = loc("tmp0"(#loc8))
#loc27 = loc("tmp1"(#loc9))
#loc28 = loc("tmp1"(#loc10))
#loc29 = loc("tmp1"(#loc11))
#loc30 = loc("tmp2"(#loc12))
