#loc = loc("/root/.cache/vllm/torch_compile_cache/torch_aot_compile/61bda05feca29378847c32f031efa5c8dba258f38b0176a06a3e99e41df8ca50/inductor_cache/x5/cx5pa6qvisqwahnlvjuhtp7sj7eq6xnk6bor7n3ehpv3asdmqino.py":21:0)
#loc1 = loc(unknown)
#loc32 = loc("/root/.cache/vllm/torch_compile_cache/torch_aot_compile/61bda05feca29378847c32f031efa5c8dba258f38b0176a06a3e99e41df8ca50/inductor_cache/x5/cx5pa6qvisqwahnlvjuhtp7sj7eq6xnk6bor7n3ehpv3asdmqino.py":51:29)
#loc58 = loc("/root/.cache/vllm/torch_compile_cache/torch_aot_compile/61bda05feca29378847c32f031efa5c8dba258f38b0176a06a3e99e41df8ca50/inductor_cache/x5/cx5pa6qvisqwahnlvjuhtp7sj7eq6xnk6bor7n3ehpv3asdmqino.py":77:31)
#loc63 = loc("in_ptr0"(#loc))
#loc64 = loc("out_ptr0"(#loc))
#loc65 = loc("out_ptr1"(#loc))
#loc66 = loc("xnumel_0"(#loc))
#loc67 = loc("xnumel_1"(#loc))
#loc93 = loc("tmp4"(#loc32))
#loc114 = loc("tmp10"(#loc58))
#loc121 = loc(callsite(#loc1 at #loc93))
#loc123 = loc(callsite(#loc1 at #loc114))
module {
  tt.func public @triton_red_fused_7(%in_ptr0: !tt.ptr<f16> {tt.divisibility = 16 : i32} loc("in_ptr0"(#loc)), %out_ptr0: !tt.ptr<f32> {tt.divisibility = 16 : i32} loc("out_ptr0"(#loc)), %out_ptr1: !tt.ptr<f32> {tt.divisibility = 16 : i32} loc("out_ptr1"(#loc)), %xnumel_0: i32 loc("xnumel_0"(#loc)), %xnumel_1: i32 loc("xnumel_1"(#loc))) attributes {noinline = false} {
    %c7_i32 = arith.constant 7 : i32 loc(#loc1)
    %cst = arith.constant dense<0.000000e+00> : tensor<8x256xf16> loc(#loc1)
    %cst_0 = arith.constant dense<4096> : tensor<1x256xi32> loc(#loc1)
    %cst_1 = arith.constant dense<4608> : tensor<8x1xi32> loc(#loc1)
    %cst_2 = arith.constant dense<512> : tensor<8x1xi32> loc(#loc1)
    %cst_3 = arith.constant dense<256> : tensor<1x256xi32> loc(#loc1)
    %cst_4 = arith.constant dense<0.000000e+00> : tensor<8x256xf32> loc(#loc1)
    %cst_5 = arith.constant dense<8> : tensor<8x1xi32> loc(#loc1)
    %c8_i32 = arith.constant 8 : i32 loc(#loc1)
    %pid = tt.get_program_id x : i32 loc(#loc68)
    %num_xblocks_0 = arith.addi %xnumel_0, %c7_i32 : i32 loc(#loc116)
    %num_xblocks_0_6 = arith.divsi %num_xblocks_0, %c8_i32 : i32 loc(#loc117)
    %num_xblocks_1 = arith.addi %xnumel_1, %c7_i32 : i32 loc(#loc118)
    %num_xblocks_1_7 = arith.divsi %num_xblocks_1, %c8_i32 : i32 loc(#loc119)
    %num_xblocks_1_8 = arith.addi %num_xblocks_0_6, %num_xblocks_1_7 : i32 loc(#loc71)
    %0 = arith.cmpi slt, %pid, %num_xblocks_0_6 : i32 loc(#loc8)
    scf.if %0 {
      %xoffset = arith.muli %pid, %c8_i32 : i32 loc(#loc72)
      %xindex = tt.make_range {end = 8 : i32, start = 0 : i32} : tensor<8xi32> loc(#loc73)
      %xindex_9 = tt.expand_dims %xindex {axis = 1 : i32} : tensor<8xi32> -> tensor<8x1xi32> loc(#loc74)
      %xindex_10 = tt.splat %xoffset : i32 -> tensor<8x1xi32> loc(#loc75)
      %xindex_11 = arith.addi %xindex_10, %xindex_9 : tensor<8x1xi32> loc(#loc75)
      %xmask = tt.splat %xnumel_0 : i32 -> tensor<8x1xi32> loc(#loc76)
      %xmask_12 = arith.cmpi slt, %xindex_11, %xmask : tensor<8x1xi32> loc(#loc76)
      %r0_base = tt.make_range {end = 256 : i32, start = 0 : i32} : tensor<256xi32> loc(#loc77)
      %r0_base_13 = tt.expand_dims %r0_base {axis = 0 : i32} : tensor<256xi32> -> tensor<1x256xi32> loc(#loc78)
      %x0 = arith.remsi %xindex_11, %cst_5 : tensor<8x1xi32> loc(#loc79)
      %x1 = arith.divsi %xindex_11, %cst_5 : tensor<8x1xi32> loc(#loc80)
      %r0_mask = arith.cmpi slt, %r0_base_13, %cst_3 : tensor<1x256xi32> loc(#loc81)
      %tmp0 = arith.muli %x0, %cst_2 : tensor<8x1xi32> loc(#loc82)
      %tmp0_14 = tt.broadcast %r0_base_13 : tensor<1x256xi32> -> tensor<8x256xi32> loc(#loc83)
      %tmp0_15 = tt.broadcast %tmp0 : tensor<8x1xi32> -> tensor<8x256xi32> loc(#loc83)
      %tmp0_16 = arith.addi %tmp0_14, %tmp0_15 : tensor<8x256xi32> loc(#loc83)
      %tmp0_17 = arith.muli %x1, %cst_1 : tensor<8x1xi32> loc(#loc84)
      %tmp0_18 = tt.broadcast %tmp0_17 : tensor<8x1xi32> -> tensor<8x256xi32> loc(#loc85)
      %tmp0_19 = arith.addi %tmp0_16, %tmp0_18 : tensor<8x256xi32> loc(#loc85)
      %tmp0_20 = tt.splat %in_ptr0 : !tt.ptr<f16> -> tensor<8x256x!tt.ptr<f16>> loc(#loc86)
      %tmp0_21 = tt.addptr %tmp0_20, %tmp0_19 : tensor<8x256x!tt.ptr<f16>>, tensor<8x256xi32> loc(#loc86)
      %tmp0_22 = tt.broadcast %r0_mask : tensor<1x256xi1> -> tensor<8x256xi1> loc(#loc87)
      %tmp0_23 = tt.broadcast %xmask_12 : tensor<8x1xi1> -> tensor<8x256xi1> loc(#loc87)
      %tmp0_24 = arith.andi %tmp0_22, %tmp0_23 : tensor<8x256xi1> loc(#loc87)
      %tmp0_25 = tt.load %tmp0_21, %tmp0_24, %cst evictionPolicy = evict_first : tensor<8x256x!tt.ptr<f16>> loc(#loc88)
      %tmp0_26 = arith.extf %tmp0_25 : tensor<8x256xf16> to tensor<8x256xf32> loc(#loc89)
      %tmp2 = arith.mulf %tmp0_26, %tmp0_26 : tensor<8x256xf32> loc(#loc90)
      %tmp5 = arith.addf %tmp2, %cst_4 : tensor<8x256xf32> loc(#loc91)
      %_tmp4 = arith.select %tmp0_24, %tmp5, %cst_4 : tensor<8x256xi1>, tensor<8x256xf32> loc(#loc92)
      %tmp4 = "tt.reduce"(%_tmp4) <{axis = 1 : i32}> ({
      ^bb0(%tmp4_28: f32 loc(callsite(#loc1 at #loc93)), %tmp4_29: f32 loc(callsite(#loc1 at #loc93))):
        %tmp4_30 = arith.addf %tmp4_28, %tmp4_29 : f32 loc(#loc124)
        tt.reduce.return %tmp4_30 : f32 loc(#loc120)
      }) : (tensor<8x256xf32>) -> tensor<8xf32> loc(#loc120)
      %tmp4_27 = tt.expand_dims %tmp4 {axis = 1 : i32} : tensor<8xf32> -> tensor<8x1xf32> loc(#loc94)
      %1 = tt.splat %out_ptr0 : !tt.ptr<f32> -> tensor<8x1x!tt.ptr<f32>> loc(#loc35)
      %2 = tt.addptr %1, %xindex_11 : tensor<8x1x!tt.ptr<f32>>, tensor<8x1xi32> loc(#loc35)
      tt.store %2, %tmp4_27, %xmask_12 : tensor<8x1x!tt.ptr<f32>> loc(#loc36)
    } else {
      %1 = arith.cmpi slt, %pid, %num_xblocks_1_8 : i32 loc(#loc37)
      scf.if %1 {
        %pid_offset = arith.subi %pid, %num_xblocks_0_6 : i32 loc(#loc95)
        %xoffset = arith.muli %pid_offset, %c8_i32 : i32 loc(#loc96)
        %xindex = tt.make_range {end = 8 : i32, start = 0 : i32} : tensor<8xi32> loc(#loc97)
        %xindex_9 = tt.expand_dims %xindex {axis = 1 : i32} : tensor<8xi32> -> tensor<8x1xi32> loc(#loc98)
        %xindex_10 = tt.splat %xoffset : i32 -> tensor<8x1xi32> loc(#loc99)
        %xindex_11 = arith.addi %xindex_10, %xindex_9 : tensor<8x1xi32> loc(#loc99)
        %xmask = tt.splat %xnumel_1 : i32 -> tensor<8x1xi32> loc(#loc100)
        %xmask_12 = arith.cmpi slt, %xindex_11, %xmask : tensor<8x1xi32> loc(#loc100)
        %r0_base = tt.make_range {end = 256 : i32, start = 0 : i32} : tensor<256xi32> loc(#loc101)
        %r0_base_13 = tt.expand_dims %r0_base {axis = 0 : i32} : tensor<256xi32> -> tensor<1x256xi32> loc(#loc102)
        %r0_mask = arith.cmpi slt, %r0_base_13, %cst_3 : tensor<1x256xi32> loc(#loc103)
        %tmp6 = arith.addi %r0_base_13, %cst_0 : tensor<1x256xi32> loc(#loc104)
        %tmp6_14 = arith.muli %xindex_11, %cst_1 : tensor<8x1xi32> loc(#loc105)
        %tmp6_15 = tt.broadcast %tmp6 : tensor<1x256xi32> -> tensor<8x256xi32> loc(#loc106)
        %tmp6_16 = tt.broadcast %tmp6_14 : tensor<8x1xi32> -> tensor<8x256xi32> loc(#loc106)
        %tmp6_17 = arith.addi %tmp6_15, %tmp6_16 : tensor<8x256xi32> loc(#loc106)
        %tmp6_18 = tt.splat %in_ptr0 : !tt.ptr<f16> -> tensor<8x256x!tt.ptr<f16>> loc(#loc107)
        %tmp6_19 = tt.addptr %tmp6_18, %tmp6_17 : tensor<8x256x!tt.ptr<f16>>, tensor<8x256xi32> loc(#loc107)
        %tmp6_20 = tt.broadcast %r0_mask : tensor<1x256xi1> -> tensor<8x256xi1> loc(#loc108)
        %tmp6_21 = tt.broadcast %xmask_12 : tensor<8x1xi1> -> tensor<8x256xi1> loc(#loc108)
        %tmp6_22 = arith.andi %tmp6_20, %tmp6_21 : tensor<8x256xi1> loc(#loc108)
        %tmp6_23 = tt.load %tmp6_19, %tmp6_22, %cst evictionPolicy = evict_first : tensor<8x256x!tt.ptr<f16>> loc(#loc109)
        %tmp6_24 = arith.extf %tmp6_23 : tensor<8x256xf16> to tensor<8x256xf32> loc(#loc110)
        %tmp8 = arith.mulf %tmp6_24, %tmp6_24 : tensor<8x256xf32> loc(#loc111)
        %tmp11 = arith.addf %tmp8, %cst_4 : tensor<8x256xf32> loc(#loc112)
        %_tmp10 = arith.select %tmp6_22, %tmp11, %cst_4 : tensor<8x256xi1>, tensor<8x256xf32> loc(#loc113)
        %tmp10 = "tt.reduce"(%_tmp10) <{axis = 1 : i32}> ({
        ^bb0(%tmp10_26: f32 loc(callsite(#loc1 at #loc114)), %tmp10_27: f32 loc(callsite(#loc1 at #loc114))):
          %tmp10_28 = arith.addf %tmp10_26, %tmp10_27 : f32 loc(#loc125)
          tt.reduce.return %tmp10_28 : f32 loc(#loc122)
        }) : (tensor<8x256xf32>) -> tensor<8xf32> loc(#loc122)
        %tmp10_25 = tt.expand_dims %tmp10 {axis = 1 : i32} : tensor<8xf32> -> tensor<8x1xf32> loc(#loc115)
        %2 = tt.splat %out_ptr1 : !tt.ptr<f32> -> tensor<8x1x!tt.ptr<f32>> loc(#loc60)
        %3 = tt.addptr %2, %xindex_11 : tensor<8x1x!tt.ptr<f32>>, tensor<8x1xi32> loc(#loc60)
        tt.store %3, %tmp10_25, %xmask_12 : tensor<8x1x!tt.ptr<f32>> loc(#loc61)
      } loc(#loc38)
    } loc(#loc9)
    tt.return loc(#loc62)
  } loc(#loc)
} loc(#loc)
#loc2 = loc("/root/.cache/vllm/torch_compile_cache/torch_aot_compile/61bda05feca29378847c32f031efa5c8dba258f38b0176a06a3e99e41df8ca50/inductor_cache/x5/cx5pa6qvisqwahnlvjuhtp7sj7eq6xnk6bor7n3ehpv3asdmqino.py":22:24)
#loc3 = loc("/usr/local/lib/python3.12/dist-packages/triton/language/standard.py":43:17)
#loc4 = loc("/root/.cache/vllm/torch_compile_cache/torch_aot_compile/61bda05feca29378847c32f031efa5c8dba258f38b0176a06a3e99e41df8ca50/inductor_cache/x5/cx5pa6qvisqwahnlvjuhtp7sj7eq6xnk6bor7n3ehpv3asdmqino.py":23:38)
#loc5 = loc("/usr/local/lib/python3.12/dist-packages/triton/language/standard.py":43:30)
#loc6 = loc("/root/.cache/vllm/torch_compile_cache/torch_aot_compile/61bda05feca29378847c32f031efa5c8dba258f38b0176a06a3e99e41df8ca50/inductor_cache/x5/cx5pa6qvisqwahnlvjuhtp7sj7eq6xnk6bor7n3ehpv3asdmqino.py":24:54)
#loc7 = loc("/root/.cache/vllm/torch_compile_cache/torch_aot_compile/61bda05feca29378847c32f031efa5c8dba258f38b0176a06a3e99e41df8ca50/inductor_cache/x5/cx5pa6qvisqwahnlvjuhtp7sj7eq6xnk6bor7n3ehpv3asdmqino.py":24:36)
#loc8 = loc("/root/.cache/vllm/torch_compile_cache/torch_aot_compile/61bda05feca29378847c32f031efa5c8dba258f38b0176a06a3e99e41df8ca50/inductor_cache/x5/cx5pa6qvisqwahnlvjuhtp7sj7eq6xnk6bor7n3ehpv3asdmqino.py":25:13)
#loc9 = loc("/root/.cache/vllm/torch_compile_cache/torch_aot_compile/61bda05feca29378847c32f031efa5c8dba258f38b0176a06a3e99e41df8ca50/inductor_cache/x5/cx5pa6qvisqwahnlvjuhtp7sj7eq6xnk6bor7n3ehpv3asdmqino.py":25:7)
#loc10 = loc("/root/.cache/vllm/torch_compile_cache/torch_aot_compile/61bda05feca29378847c32f031efa5c8dba258f38b0176a06a3e99e41df8ca50/inductor_cache/x5/cx5pa6qvisqwahnlvjuhtp7sj7eq6xnk6bor7n3ehpv3asdmqino.py":30:31)
#loc11 = loc("/root/.cache/vllm/torch_compile_cache/torch_aot_compile/61bda05feca29378847c32f031efa5c8dba258f38b0176a06a3e99e41df8ca50/inductor_cache/x5/cx5pa6qvisqwahnlvjuhtp7sj7eq6xnk6bor7n3ehpv3asdmqino.py":31:40)
#loc12 = loc("/root/.cache/vllm/torch_compile_cache/torch_aot_compile/61bda05feca29378847c32f031efa5c8dba258f38b0176a06a3e99e41df8ca50/inductor_cache/x5/cx5pa6qvisqwahnlvjuhtp7sj7eq6xnk6bor7n3ehpv3asdmqino.py":31:48)
#loc13 = loc("/root/.cache/vllm/torch_compile_cache/torch_aot_compile/61bda05feca29378847c32f031efa5c8dba258f38b0176a06a3e99e41df8ca50/inductor_cache/x5/cx5pa6qvisqwahnlvjuhtp7sj7eq6xnk6bor7n3ehpv3asdmqino.py":31:27)
#loc14 = loc("/root/.cache/vllm/torch_compile_cache/torch_aot_compile/61bda05feca29378847c32f031efa5c8dba258f38b0176a06a3e99e41df8ca50/inductor_cache/x5/cx5pa6qvisqwahnlvjuhtp7sj7eq6xnk6bor7n3ehpv3asdmqino.py":32:25)
#loc15 = loc("/root/.cache/vllm/torch_compile_cache/torch_aot_compile/61bda05feca29378847c32f031efa5c8dba258f38b0176a06a3e99e41df8ca50/inductor_cache/x5/cx5pa6qvisqwahnlvjuhtp7sj7eq6xnk6bor7n3ehpv3asdmqino.py":33:31)
#loc16 = loc("/root/.cache/vllm/torch_compile_cache/torch_aot_compile/61bda05feca29378847c32f031efa5c8dba258f38b0176a06a3e99e41df8ca50/inductor_cache/x5/cx5pa6qvisqwahnlvjuhtp7sj7eq6xnk6bor7n3ehpv3asdmqino.py":33:41)
#loc17 = loc("/root/.cache/vllm/torch_compile_cache/torch_aot_compile/61bda05feca29378847c32f031efa5c8dba258f38b0176a06a3e99e41df8ca50/inductor_cache/x5/cx5pa6qvisqwahnlvjuhtp7sj7eq6xnk6bor7n3ehpv3asdmqino.py":35:23)
#loc18 = loc("/root/.cache/vllm/torch_compile_cache/torch_aot_compile/61bda05feca29378847c32f031efa5c8dba258f38b0176a06a3e99e41df8ca50/inductor_cache/x5/cx5pa6qvisqwahnlvjuhtp7sj7eq6xnk6bor7n3ehpv3asdmqino.py":36:23)
#loc19 = loc("/root/.cache/vllm/torch_compile_cache/torch_aot_compile/61bda05feca29378847c32f031efa5c8dba258f38b0176a06a3e99e41df8ca50/inductor_cache/x5/cx5pa6qvisqwahnlvjuhtp7sj7eq6xnk6bor7n3ehpv3asdmqino.py":41:33)
#loc20 = loc("/root/.cache/vllm/torch_compile_cache/torch_aot_compile/61bda05feca29378847c32f031efa5c8dba258f38b0176a06a3e99e41df8ca50/inductor_cache/x5/cx5pa6qvisqwahnlvjuhtp7sj7eq6xnk6bor7n3ehpv3asdmqino.py":45:49)
#loc21 = loc("/root/.cache/vllm/torch_compile_cache/torch_aot_compile/61bda05feca29378847c32f031efa5c8dba258f38b0176a06a3e99e41df8ca50/inductor_cache/x5/cx5pa6qvisqwahnlvjuhtp7sj7eq6xnk6bor7n3ehpv3asdmqino.py":45:45)
#loc22 = loc("/root/.cache/vllm/torch_compile_cache/torch_aot_compile/61bda05feca29378847c32f031efa5c8dba258f38b0176a06a3e99e41df8ca50/inductor_cache/x5/cx5pa6qvisqwahnlvjuhtp7sj7eq6xnk6bor7n3ehpv3asdmqino.py":45:59)
#loc23 = loc("/root/.cache/vllm/torch_compile_cache/torch_aot_compile/61bda05feca29378847c32f031efa5c8dba258f38b0176a06a3e99e41df8ca50/inductor_cache/x5/cx5pa6qvisqwahnlvjuhtp7sj7eq6xnk6bor7n3ehpv3asdmqino.py":45:54)
#loc24 = loc("/root/.cache/vllm/torch_compile_cache/torch_aot_compile/61bda05feca29378847c32f031efa5c8dba258f38b0176a06a3e99e41df8ca50/inductor_cache/x5/cx5pa6qvisqwahnlvjuhtp7sj7eq6xnk6bor7n3ehpv3asdmqino.py":45:38)
#loc25 = loc("/root/.cache/vllm/torch_compile_cache/torch_aot_compile/61bda05feca29378847c32f031efa5c8dba258f38b0176a06a3e99e41df8ca50/inductor_cache/x5/cx5pa6qvisqwahnlvjuhtp7sj7eq6xnk6bor7n3ehpv3asdmqino.py":45:74)
#loc26 = loc("/root/.cache/vllm/torch_compile_cache/torch_aot_compile/61bda05feca29378847c32f031efa5c8dba258f38b0176a06a3e99e41df8ca50/inductor_cache/x5/cx5pa6qvisqwahnlvjuhtp7sj7eq6xnk6bor7n3ehpv3asdmqino.py":45:64)
#loc27 = loc("/root/.cache/vllm/torch_compile_cache/torch_aot_compile/61bda05feca29378847c32f031efa5c8dba258f38b0176a06a3e99e41df8ca50/inductor_cache/x5/cx5pa6qvisqwahnlvjuhtp7sj7eq6xnk6bor7n3ehpv3asdmqino.py":45:126)
#loc28 = loc("/root/.cache/vllm/torch_compile_cache/torch_aot_compile/61bda05feca29378847c32f031efa5c8dba258f38b0176a06a3e99e41df8ca50/inductor_cache/x5/cx5pa6qvisqwahnlvjuhtp7sj7eq6xnk6bor7n3ehpv3asdmqino.py":47:26)
#loc29 = loc("/root/.cache/vllm/torch_compile_cache/torch_aot_compile/61bda05feca29378847c32f031efa5c8dba258f38b0176a06a3e99e41df8ca50/inductor_cache/x5/cx5pa6qvisqwahnlvjuhtp7sj7eq6xnk6bor7n3ehpv3asdmqino.py":49:27)
#loc30 = loc("/root/.cache/vllm/torch_compile_cache/torch_aot_compile/61bda05feca29378847c32f031efa5c8dba258f38b0176a06a3e99e41df8ca50/inductor_cache/x5/cx5pa6qvisqwahnlvjuhtp7sj7eq6xnk6bor7n3ehpv3asdmqino.py":50:52)
#loc31 = loc("/usr/local/lib/python3.12/dist-packages/triton/language/standard.py":293:36)
#loc33 = loc("/usr/local/lib/python3.12/dist-packages/triton/language/standard.py":263:15)
#loc34 = loc("/root/.cache/vllm/torch_compile_cache/torch_aot_compile/61bda05feca29378847c32f031efa5c8dba258f38b0176a06a3e99e41df8ca50/inductor_cache/x5/cx5pa6qvisqwahnlvjuhtp7sj7eq6xnk6bor7n3ehpv3asdmqino.py":51:32)
#loc35 = loc("/root/.cache/vllm/torch_compile_cache/torch_aot_compile/61bda05feca29378847c32f031efa5c8dba258f38b0176a06a3e99e41df8ca50/inductor_cache/x5/cx5pa6qvisqwahnlvjuhtp7sj7eq6xnk6bor7n3ehpv3asdmqino.py":52:29)
#loc36 = loc("/root/.cache/vllm/torch_compile_cache/torch_aot_compile/61bda05feca29378847c32f031efa5c8dba258f38b0176a06a3e99e41df8ca50/inductor_cache/x5/cx5pa6qvisqwahnlvjuhtp7sj7eq6xnk6bor7n3ehpv3asdmqino.py":52:40)
#loc37 = loc("/root/.cache/vllm/torch_compile_cache/torch_aot_compile/61bda05feca29378847c32f031efa5c8dba258f38b0176a06a3e99e41df8ca50/inductor_cache/x5/cx5pa6qvisqwahnlvjuhtp7sj7eq6xnk6bor7n3ehpv3asdmqino.py":53:15)
#loc38 = loc("/root/.cache/vllm/torch_compile_cache/torch_aot_compile/61bda05feca29378847c32f031efa5c8dba258f38b0176a06a3e99e41df8ca50/inductor_cache/x5/cx5pa6qvisqwahnlvjuhtp7sj7eq6xnk6bor7n3ehpv3asdmqino.py":53:9)
#loc39 = loc("/root/.cache/vllm/torch_compile_cache/torch_aot_compile/61bda05feca29378847c32f031efa5c8dba258f38b0176a06a3e99e41df8ca50/inductor_cache/x5/cx5pa6qvisqwahnlvjuhtp7sj7eq6xnk6bor7n3ehpv3asdmqino.py":54:27)
#loc40 = loc("/root/.cache/vllm/torch_compile_cache/torch_aot_compile/61bda05feca29378847c32f031efa5c8dba258f38b0176a06a3e99e41df8ca50/inductor_cache/x5/cx5pa6qvisqwahnlvjuhtp7sj7eq6xnk6bor7n3ehpv3asdmqino.py":58:31)
#loc41 = loc("/root/.cache/vllm/torch_compile_cache/torch_aot_compile/61bda05feca29378847c32f031efa5c8dba258f38b0176a06a3e99e41df8ca50/inductor_cache/x5/cx5pa6qvisqwahnlvjuhtp7sj7eq6xnk6bor7n3ehpv3asdmqino.py":59:40)
#loc42 = loc("/root/.cache/vllm/torch_compile_cache/torch_aot_compile/61bda05feca29378847c32f031efa5c8dba258f38b0176a06a3e99e41df8ca50/inductor_cache/x5/cx5pa6qvisqwahnlvjuhtp7sj7eq6xnk6bor7n3ehpv3asdmqino.py":59:48)
#loc43 = loc("/root/.cache/vllm/torch_compile_cache/torch_aot_compile/61bda05feca29378847c32f031efa5c8dba258f38b0176a06a3e99e41df8ca50/inductor_cache/x5/cx5pa6qvisqwahnlvjuhtp7sj7eq6xnk6bor7n3ehpv3asdmqino.py":59:27)
#loc44 = loc("/root/.cache/vllm/torch_compile_cache/torch_aot_compile/61bda05feca29378847c32f031efa5c8dba258f38b0176a06a3e99e41df8ca50/inductor_cache/x5/cx5pa6qvisqwahnlvjuhtp7sj7eq6xnk6bor7n3ehpv3asdmqino.py":60:25)
#loc45 = loc("/root/.cache/vllm/torch_compile_cache/torch_aot_compile/61bda05feca29378847c32f031efa5c8dba258f38b0176a06a3e99e41df8ca50/inductor_cache/x5/cx5pa6qvisqwahnlvjuhtp7sj7eq6xnk6bor7n3ehpv3asdmqino.py":61:31)
#loc46 = loc("/root/.cache/vllm/torch_compile_cache/torch_aot_compile/61bda05feca29378847c32f031efa5c8dba258f38b0176a06a3e99e41df8ca50/inductor_cache/x5/cx5pa6qvisqwahnlvjuhtp7sj7eq6xnk6bor7n3ehpv3asdmqino.py":61:41)
#loc47 = loc("/root/.cache/vllm/torch_compile_cache/torch_aot_compile/61bda05feca29378847c32f031efa5c8dba258f38b0176a06a3e99e41df8ca50/inductor_cache/x5/cx5pa6qvisqwahnlvjuhtp7sj7eq6xnk6bor7n3ehpv3asdmqino.py":67:33)
#loc48 = loc("/root/.cache/vllm/torch_compile_cache/torch_aot_compile/61bda05feca29378847c32f031efa5c8dba258f38b0176a06a3e99e41df8ca50/inductor_cache/x5/cx5pa6qvisqwahnlvjuhtp7sj7eq6xnk6bor7n3ehpv3asdmqino.py":71:45)
#loc49 = loc("/root/.cache/vllm/torch_compile_cache/torch_aot_compile/61bda05feca29378847c32f031efa5c8dba258f38b0176a06a3e99e41df8ca50/inductor_cache/x5/cx5pa6qvisqwahnlvjuhtp7sj7eq6xnk6bor7n3ehpv3asdmqino.py":71:57)
#loc50 = loc("/root/.cache/vllm/torch_compile_cache/torch_aot_compile/61bda05feca29378847c32f031efa5c8dba258f38b0176a06a3e99e41df8ca50/inductor_cache/x5/cx5pa6qvisqwahnlvjuhtp7sj7eq6xnk6bor7n3ehpv3asdmqino.py":71:52)
#loc51 = loc("/root/.cache/vllm/torch_compile_cache/torch_aot_compile/61bda05feca29378847c32f031efa5c8dba258f38b0176a06a3e99e41df8ca50/inductor_cache/x5/cx5pa6qvisqwahnlvjuhtp7sj7eq6xnk6bor7n3ehpv3asdmqino.py":71:38)
#loc52 = loc("/root/.cache/vllm/torch_compile_cache/torch_aot_compile/61bda05feca29378847c32f031efa5c8dba258f38b0176a06a3e99e41df8ca50/inductor_cache/x5/cx5pa6qvisqwahnlvjuhtp7sj7eq6xnk6bor7n3ehpv3asdmqino.py":71:72)
#loc53 = loc("/root/.cache/vllm/torch_compile_cache/torch_aot_compile/61bda05feca29378847c32f031efa5c8dba258f38b0176a06a3e99e41df8ca50/inductor_cache/x5/cx5pa6qvisqwahnlvjuhtp7sj7eq6xnk6bor7n3ehpv3asdmqino.py":71:62)
#loc54 = loc("/root/.cache/vllm/torch_compile_cache/torch_aot_compile/61bda05feca29378847c32f031efa5c8dba258f38b0176a06a3e99e41df8ca50/inductor_cache/x5/cx5pa6qvisqwahnlvjuhtp7sj7eq6xnk6bor7n3ehpv3asdmqino.py":71:124)
#loc55 = loc("/root/.cache/vllm/torch_compile_cache/torch_aot_compile/61bda05feca29378847c32f031efa5c8dba258f38b0176a06a3e99e41df8ca50/inductor_cache/x5/cx5pa6qvisqwahnlvjuhtp7sj7eq6xnk6bor7n3ehpv3asdmqino.py":73:26)
#loc56 = loc("/root/.cache/vllm/torch_compile_cache/torch_aot_compile/61bda05feca29378847c32f031efa5c8dba258f38b0176a06a3e99e41df8ca50/inductor_cache/x5/cx5pa6qvisqwahnlvjuhtp7sj7eq6xnk6bor7n3ehpv3asdmqino.py":75:29)
#loc57 = loc("/root/.cache/vllm/torch_compile_cache/torch_aot_compile/61bda05feca29378847c32f031efa5c8dba258f38b0176a06a3e99e41df8ca50/inductor_cache/x5/cx5pa6qvisqwahnlvjuhtp7sj7eq6xnk6bor7n3ehpv3asdmqino.py":76:54)
#loc59 = loc("/root/.cache/vllm/torch_compile_cache/torch_aot_compile/61bda05feca29378847c32f031efa5c8dba258f38b0176a06a3e99e41df8ca50/inductor_cache/x5/cx5pa6qvisqwahnlvjuhtp7sj7eq6xnk6bor7n3ehpv3asdmqino.py":77:34)
#loc60 = loc("/root/.cache/vllm/torch_compile_cache/torch_aot_compile/61bda05feca29378847c32f031efa5c8dba258f38b0176a06a3e99e41df8ca50/inductor_cache/x5/cx5pa6qvisqwahnlvjuhtp7sj7eq6xnk6bor7n3ehpv3asdmqino.py":78:29)
#loc61 = loc("/root/.cache/vllm/torch_compile_cache/torch_aot_compile/61bda05feca29378847c32f031efa5c8dba258f38b0176a06a3e99e41df8ca50/inductor_cache/x5/cx5pa6qvisqwahnlvjuhtp7sj7eq6xnk6bor7n3ehpv3asdmqino.py":78:41)
#loc62 = loc("/root/.cache/vllm/torch_compile_cache/torch_aot_compile/61bda05feca29378847c32f031efa5c8dba258f38b0176a06a3e99e41df8ca50/inductor_cache/x5/cx5pa6qvisqwahnlvjuhtp7sj7eq6xnk6bor7n3ehpv3asdmqino.py":25:4)
#loc68 = loc("pid"(#loc2))
#loc69 = loc("num_xblocks_0"(#loc4))
#loc70 = loc("num_xblocks_1"(#loc6))
#loc71 = loc("num_xblocks_1"(#loc7))
#loc72 = loc("xoffset"(#loc10))
#loc73 = loc("xindex"(#loc11))
#loc74 = loc("xindex"(#loc12))
#loc75 = loc("xindex"(#loc13))
#loc76 = loc("xmask"(#loc14))
#loc77 = loc("r0_base"(#loc15))
#loc78 = loc("r0_base"(#loc16))
#loc79 = loc("x0"(#loc17))
#loc80 = loc("x1"(#loc18))
#loc81 = loc("r0_mask"(#loc19))
#loc82 = loc("tmp0"(#loc20))
#loc83 = loc("tmp0"(#loc21))
#loc84 = loc("tmp0"(#loc22))
#loc85 = loc("tmp0"(#loc23))
#loc86 = loc("tmp0"(#loc24))
#loc87 = loc("tmp0"(#loc25))
#loc88 = loc("tmp0"(#loc26))
#loc89 = loc("tmp0"(#loc27))
#loc90 = loc("tmp2"(#loc28))
#loc91 = loc("tmp5"(#loc29))
#loc92 = loc("_tmp4"(#loc30))
#loc94 = loc("tmp4"(#loc34))
#loc95 = loc("pid_offset"(#loc39))
#loc96 = loc("xoffset"(#loc40))
#loc97 = loc("xindex"(#loc41))
#loc98 = loc("xindex"(#loc42))
#loc99 = loc("xindex"(#loc43))
#loc100 = loc("xmask"(#loc44))
#loc101 = loc("r0_base"(#loc45))
#loc102 = loc("r0_base"(#loc46))
#loc103 = loc("r0_mask"(#loc47))
#loc104 = loc("tmp6"(#loc48))
#loc105 = loc("tmp6"(#loc49))
#loc106 = loc("tmp6"(#loc50))
#loc107 = loc("tmp6"(#loc51))
#loc108 = loc("tmp6"(#loc52))
#loc109 = loc("tmp6"(#loc53))
#loc110 = loc("tmp6"(#loc54))
#loc111 = loc("tmp8"(#loc55))
#loc112 = loc("tmp11"(#loc56))
#loc113 = loc("_tmp10"(#loc57))
#loc115 = loc("tmp10"(#loc59))
#loc116 = loc(callsite(#loc3 at #loc69))
#loc117 = loc(callsite(#loc5 at #loc69))
#loc118 = loc(callsite(#loc3 at #loc70))
#loc119 = loc(callsite(#loc5 at #loc70))
#loc120 = loc(callsite(#loc31 at #loc93))
#loc122 = loc(callsite(#loc31 at #loc114))
#loc124 = loc(callsite(#loc33 at #loc120))
#loc125 = loc(callsite(#loc33 at #loc122))
