#loc = loc("/usr/local/lib/python3.12/dist-packages/vllm/vllm_flash_attn/ops/triton/rotary.py":13:0)
#loc95 = loc("OUT"(#loc))
#loc96 = loc("X"(#loc))
#loc97 = loc("COS"(#loc))
#loc98 = loc("SIN"(#loc))
#loc99 = loc("SEQLEN_OFFSETS"(#loc))
#loc100 = loc("seqlen"(#loc))
#loc101 = loc("rotary_dim"(#loc))
#loc102 = loc("seqlen_ro"(#loc))
#loc103 = loc("stride_out_batch"(#loc))
#loc104 = loc("stride_out_seqlen"(#loc))
#loc105 = loc("stride_out_nheads"(#loc))
#loc106 = loc("stride_x_batch"(#loc))
#loc107 = loc("stride_x_seqlen"(#loc))
#loc108 = loc("stride_x_nheads"(#loc))
module {
  tt.func public @rotary_kernel(%OUT: !tt.ptr<f16> {tt.divisibility = 16 : i32} loc("OUT"(#loc)), %X: !tt.ptr<f16> {tt.divisibility = 16 : i32} loc("X"(#loc)), %COS: !tt.ptr<f16> {tt.divisibility = 16 : i32} loc("COS"(#loc)), %SIN: !tt.ptr<f16> {tt.divisibility = 16 : i32} loc("SIN"(#loc)), %SEQLEN_OFFSETS: i32 {tt.divisibility = 16 : i32} loc("SEQLEN_OFFSETS"(#loc)), %seqlen: i32 {tt.divisibility = 16 : i32} loc("seqlen"(#loc)), %rotary_dim: i32 loc("rotary_dim"(#loc)), %seqlen_ro: i32 {tt.divisibility = 16 : i32} loc("seqlen_ro"(#loc)), %stride_out_batch: i32 {tt.divisibility = 16 : i32} loc("stride_out_batch"(#loc)), %stride_out_seqlen: i32 {tt.divisibility = 16 : i32} loc("stride_out_seqlen"(#loc)), %stride_out_nheads: i32 loc("stride_out_nheads"(#loc)), %stride_x_batch: i32 {tt.divisibility = 16 : i32} loc("stride_x_batch"(#loc)), %stride_x_seqlen: i32 {tt.divisibility = 16 : i32} loc("stride_x_seqlen"(#loc)), %stride_x_nheads: i32 loc("stride_x_nheads"(#loc))) attributes {noinline = false} {
    %pid_m = tt.get_program_id x : i32 loc(#loc109)
    %pid_head = tt.get_program_id y : i32 loc(#loc110)
    %pid_batch = tt.get_program_id z : i32 loc(#loc111)
    %rotary_dim_half = arith.constant 2 : i32 loc(#loc112)
    %rotary_dim_half_0 = arith.constant 2 : i32 loc(#loc112)
    %rotary_dim_half_1 = arith.divsi %rotary_dim, %rotary_dim_half_0 : i32 loc(#loc112)
    %X_2 = arith.extsi %pid_batch : i32 to i64 loc(#loc113)
    %X_3 = arith.extsi %stride_x_batch : i32 to i64 loc(#loc113)
    %X_4 = arith.muli %X_2, %X_3 : i64 loc(#loc113)
    %X_5 = arith.constant 2147483647 : i64 loc(#loc113)
    %X_6 = arith.constant -2147483648 : i64 loc(#loc113)
    %X_7 = arith.cmpi sle, %X_4, %X_5 : i64 loc(#loc113)
    %X_8 = arith.cmpi sge, %X_4, %X_6 : i64 loc(#loc113)
    %X_9 = arith.andi %X_7, %X_8 : i1 loc(#loc113)
    %X_10 = arith.muli %pid_batch, %stride_x_batch : i32 loc(#loc113)
    %X_11 = tt.addptr %X, %X_10 : !tt.ptr<f16>, i32 loc(#loc114)
    %X_12 = arith.extsi %pid_head : i32 to i64 loc(#loc115)
    %X_13 = arith.extsi %stride_x_nheads : i32 to i64 loc(#loc115)
    %X_14 = arith.muli %X_12, %X_13 : i64 loc(#loc115)
    %X_15 = arith.constant 2147483647 : i64 loc(#loc115)
    %X_16 = arith.constant -2147483648 : i64 loc(#loc115)
    %X_17 = arith.cmpi sle, %X_14, %X_15 : i64 loc(#loc115)
    %X_18 = arith.cmpi sge, %X_14, %X_16 : i64 loc(#loc115)
    %X_19 = arith.andi %X_17, %X_18 : i1 loc(#loc115)
    %X_20 = arith.muli %pid_head, %stride_x_nheads : i32 loc(#loc115)
    %X_21 = tt.addptr %X_11, %X_20 : !tt.ptr<f16>, i32 loc(#loc116)
    %OUT_22 = arith.extsi %pid_batch : i32 to i64 loc(#loc117)
    %OUT_23 = arith.extsi %stride_out_batch : i32 to i64 loc(#loc117)
    %OUT_24 = arith.muli %OUT_22, %OUT_23 : i64 loc(#loc117)
    %OUT_25 = arith.constant 2147483647 : i64 loc(#loc117)
    %OUT_26 = arith.constant -2147483648 : i64 loc(#loc117)
    %OUT_27 = arith.cmpi sle, %OUT_24, %OUT_25 : i64 loc(#loc117)
    %OUT_28 = arith.cmpi sge, %OUT_24, %OUT_26 : i64 loc(#loc117)
    %OUT_29 = arith.andi %OUT_27, %OUT_28 : i1 loc(#loc117)
    %OUT_30 = arith.muli %pid_batch, %stride_out_batch : i32 loc(#loc117)
    %OUT_31 = tt.addptr %OUT, %OUT_30 : !tt.ptr<f16>, i32 loc(#loc118)
    %OUT_32 = arith.extsi %pid_head : i32 to i64 loc(#loc119)
    %OUT_33 = arith.extsi %stride_out_nheads : i32 to i64 loc(#loc119)
    %OUT_34 = arith.muli %OUT_32, %OUT_33 : i64 loc(#loc119)
    %OUT_35 = arith.constant 2147483647 : i64 loc(#loc119)
    %OUT_36 = arith.constant -2147483648 : i64 loc(#loc119)
    %OUT_37 = arith.cmpi sle, %OUT_34, %OUT_35 : i64 loc(#loc119)
    %OUT_38 = arith.cmpi sge, %OUT_34, %OUT_36 : i64 loc(#loc119)
    %OUT_39 = arith.andi %OUT_37, %OUT_38 : i1 loc(#loc119)
    %OUT_40 = arith.muli %pid_head, %stride_out_nheads : i32 loc(#loc119)
    %OUT_41 = tt.addptr %OUT_31, %OUT_40 : !tt.ptr<f16>, i32 loc(#loc120)
    %c8_i32 = arith.constant 8 : i32 loc(#loc13)
    %c8_i32_42 = arith.constant 8 : i32 loc(#loc13)
    %0 = arith.extsi %pid_m : i32 to i64 loc(#loc13)
    %1 = arith.extsi %c8_i32_42 : i32 to i64 loc(#loc13)
    %2 = arith.muli %0, %1 : i64 loc(#loc13)
    %c2147483647_i64 = arith.constant 2147483647 : i64 loc(#loc13)
    %c-2147483648_i64 = arith.constant -2147483648 : i64 loc(#loc13)
    %3 = arith.cmpi sle, %2, %c2147483647_i64 : i64 loc(#loc13)
    %4 = arith.cmpi sge, %2, %c-2147483648_i64 : i64 loc(#loc13)
    %5 = arith.andi %3, %4 : i1 loc(#loc13)
    %6 = arith.muli %pid_m, %c8_i32_42 : i32 loc(#loc13)
    %7 = arith.cmpi sge, %6, %seqlen : i32 loc(#loc14)
    cf.cond_br %7, ^bb1, ^bb2 loc(#loc14)
  ^bb1:  // pred: ^bb0
    tt.return loc(#loc15)
  ^bb2:  // pred: ^bb0
    cf.br ^bb4 loc(#loc)
  ^bb3:  // no predecessors
    cf.br ^bb4 loc(#loc)
  ^bb4:  // 2 preds: ^bb2, ^bb3
    %rm = arith.constant 8 : i32 loc(#loc121)
    %rm_43 = arith.constant 8 : i32 loc(#loc121)
    %rm_44 = arith.extsi %pid_m : i32 to i64 loc(#loc121)
    %rm_45 = arith.extsi %rm_43 : i32 to i64 loc(#loc121)
    %rm_46 = arith.muli %rm_44, %rm_45 : i64 loc(#loc121)
    %rm_47 = arith.constant 2147483647 : i64 loc(#loc121)
    %rm_48 = arith.constant -2147483648 : i64 loc(#loc121)
    %rm_49 = arith.cmpi sle, %rm_46, %rm_47 : i64 loc(#loc121)
    %rm_50 = arith.cmpi sge, %rm_46, %rm_48 : i64 loc(#loc121)
    %rm_51 = arith.andi %rm_49, %rm_50 : i1 loc(#loc121)
    %rm_52 = arith.muli %pid_m, %rm_43 : i32 loc(#loc121)
    %rm_53 = tt.make_range {end = 8 : i32, start = 0 : i32} : tensor<8xi32> loc(#loc122)
    %rm_54 = tt.splat %rm_52 : i32 -> tensor<8xi32> loc(#loc123)
    %rm_55 = arith.extsi %rm_54 : tensor<8xi32> to tensor<8xi64> loc(#loc123)
    %rm_56 = arith.extsi %rm_53 : tensor<8xi32> to tensor<8xi64> loc(#loc123)
    %rm_57 = arith.addi %rm_55, %rm_56 : tensor<8xi64> loc(#loc123)
    %rm_58 = arith.constant 2147483647 : i64 loc(#loc123)
    %rm_59 = arith.constant -2147483648 : i64 loc(#loc123)
    %rm_60 = arith.constant dense<2147483647> : tensor<8xi64> loc(#loc123)
    %rm_61 = arith.cmpi sle, %rm_57, %rm_60 : tensor<8xi64> loc(#loc123)
    %rm_62 = arith.constant dense<-2147483648> : tensor<8xi64> loc(#loc123)
    %rm_63 = arith.cmpi sge, %rm_57, %rm_62 : tensor<8xi64> loc(#loc123)
    %rm_64 = arith.andi %rm_61, %rm_63 : tensor<8xi1> loc(#loc123)
    %rm_65 = arith.addi %rm_54, %rm_53 : tensor<8xi32> loc(#loc123)
    %rm_cs = tt.splat %SEQLEN_OFFSETS : i32 -> tensor<8xi32> loc(#loc124)
    %rm_cs_66 = arith.extsi %rm_65 : tensor<8xi32> to tensor<8xi64> loc(#loc124)
    %rm_cs_67 = arith.extsi %rm_cs : tensor<8xi32> to tensor<8xi64> loc(#loc124)
    %rm_cs_68 = arith.addi %rm_cs_66, %rm_cs_67 : tensor<8xi64> loc(#loc124)
    %rm_cs_69 = arith.constant 2147483647 : i64 loc(#loc124)
    %rm_cs_70 = arith.constant -2147483648 : i64 loc(#loc124)
    %rm_cs_71 = arith.constant dense<2147483647> : tensor<8xi64> loc(#loc124)
    %rm_cs_72 = arith.cmpi sle, %rm_cs_68, %rm_cs_71 : tensor<8xi64> loc(#loc124)
    %rm_cs_73 = arith.constant dense<-2147483648> : tensor<8xi64> loc(#loc124)
    %rm_cs_74 = arith.cmpi sge, %rm_cs_68, %rm_cs_73 : tensor<8xi64> loc(#loc124)
    %rm_cs_75 = arith.andi %rm_cs_72, %rm_cs_74 : tensor<8xi1> loc(#loc124)
    %rm_cs_76 = arith.addi %rm_65, %rm_cs : tensor<8xi32> loc(#loc124)
    %rk = tt.make_range {end = 128 : i32, start = 0 : i32} : tensor<128xi32> loc(#loc125)
    %rk_half = tt.make_range {end = 64 : i32, start = 0 : i32} : tensor<64xi32> loc(#loc126)
    %X_77 = tt.expand_dims %rm_65 {axis = 1 : i32} : tensor<8xi32> -> tensor<8x1xi32> loc(#loc127)
    %X_78 = tt.splat %stride_x_seqlen : i32 -> tensor<8x1xi32> loc(#loc128)
    %X_79 = arith.extsi %X_77 : tensor<8x1xi32> to tensor<8x1xi64> loc(#loc128)
    %X_80 = arith.extsi %X_78 : tensor<8x1xi32> to tensor<8x1xi64> loc(#loc128)
    %X_81 = arith.muli %X_79, %X_80 : tensor<8x1xi64> loc(#loc128)
    %X_82 = arith.constant 2147483647 : i64 loc(#loc128)
    %X_83 = arith.constant -2147483648 : i64 loc(#loc128)
    %X_84 = arith.constant dense<2147483647> : tensor<8x1xi64> loc(#loc128)
    %X_85 = arith.cmpi sle, %X_81, %X_84 : tensor<8x1xi64> loc(#loc128)
    %X_86 = arith.constant dense<-2147483648> : tensor<8x1xi64> loc(#loc128)
    %X_87 = arith.cmpi sge, %X_81, %X_86 : tensor<8x1xi64> loc(#loc128)
    %X_88 = arith.andi %X_85, %X_87 : tensor<8x1xi1> loc(#loc128)
    %X_89 = arith.muli %X_77, %X_78 : tensor<8x1xi32> loc(#loc128)
    %X_90 = tt.expand_dims %rk_half {axis = 0 : i32} : tensor<64xi32> -> tensor<1x64xi32> loc(#loc129)
    %X_91 = arith.constant 1 : i32 loc(#loc130)
    %X_92 = arith.constant 1 : i32 loc(#loc130)
    %X_93 = arith.constant dense<1> : tensor<1x64xi32> loc(#loc130)
    %X_94 = arith.extsi %X_90 : tensor<1x64xi32> to tensor<1x64xi64> loc(#loc130)
    %X_95 = arith.extsi %X_93 : tensor<1x64xi32> to tensor<1x64xi64> loc(#loc130)
    %X_96 = arith.muli %X_94, %X_95 : tensor<1x64xi64> loc(#loc130)
    %X_97 = arith.constant 2147483647 : i64 loc(#loc130)
    %X_98 = arith.constant -2147483648 : i64 loc(#loc130)
    %X_99 = arith.constant dense<2147483647> : tensor<1x64xi64> loc(#loc130)
    %X_100 = arith.cmpi sle, %X_96, %X_99 : tensor<1x64xi64> loc(#loc130)
    %X_101 = arith.constant dense<-2147483648> : tensor<1x64xi64> loc(#loc130)
    %X_102 = arith.cmpi sge, %X_96, %X_101 : tensor<1x64xi64> loc(#loc130)
    %X_103 = arith.andi %X_100, %X_102 : tensor<1x64xi1> loc(#loc130)
    %X_104 = arith.muli %X_90, %X_93 : tensor<1x64xi32> loc(#loc130)
    %X_105 = tt.broadcast %X_89 : tensor<8x1xi32> -> tensor<8x64xi32> loc(#loc131)
    %X_106 = tt.broadcast %X_104 : tensor<1x64xi32> -> tensor<8x64xi32> loc(#loc131)
    %X_107 = arith.extsi %X_105 : tensor<8x64xi32> to tensor<8x64xi64> loc(#loc131)
    %X_108 = arith.extsi %X_106 : tensor<8x64xi32> to tensor<8x64xi64> loc(#loc131)
    %X_109 = arith.addi %X_107, %X_108 : tensor<8x64xi64> loc(#loc131)
    %X_110 = arith.constant 2147483647 : i64 loc(#loc131)
    %X_111 = arith.constant -2147483648 : i64 loc(#loc131)
    %X_112 = arith.constant dense<2147483647> : tensor<8x64xi64> loc(#loc131)
    %X_113 = arith.cmpi sle, %X_109, %X_112 : tensor<8x64xi64> loc(#loc131)
    %X_114 = arith.constant dense<-2147483648> : tensor<8x64xi64> loc(#loc131)
    %X_115 = arith.cmpi sge, %X_109, %X_114 : tensor<8x64xi64> loc(#loc131)
    %X_116 = arith.andi %X_113, %X_115 : tensor<8x64xi1> loc(#loc131)
    %X_117 = arith.addi %X_105, %X_106 : tensor<8x64xi32> loc(#loc131)
    %X_118 = tt.splat %X_21 : !tt.ptr<f16> -> tensor<8x64x!tt.ptr<f16>> loc(#loc132)
    %X_119 = tt.addptr %X_118, %X_117 : tensor<8x64x!tt.ptr<f16>>, tensor<8x64xi32> loc(#loc132)
    %COS_120 = tt.expand_dims %rm_cs_76 {axis = 1 : i32} : tensor<8xi32> -> tensor<8x1xi32> loc(#loc133)
    %COS_121 = tt.splat %rotary_dim_half_1 : i32 -> tensor<8x1xi32> loc(#loc134)
    %COS_122 = arith.extsi %COS_120 : tensor<8x1xi32> to tensor<8x1xi64> loc(#loc134)
    %COS_123 = arith.extsi %COS_121 : tensor<8x1xi32> to tensor<8x1xi64> loc(#loc134)
    %COS_124 = arith.muli %COS_122, %COS_123 : tensor<8x1xi64> loc(#loc134)
    %COS_125 = arith.constant 2147483647 : i64 loc(#loc134)
    %COS_126 = arith.constant -2147483648 : i64 loc(#loc134)
    %COS_127 = arith.constant dense<2147483647> : tensor<8x1xi64> loc(#loc134)
    %COS_128 = arith.cmpi sle, %COS_124, %COS_127 : tensor<8x1xi64> loc(#loc134)
    %COS_129 = arith.constant dense<-2147483648> : tensor<8x1xi64> loc(#loc134)
    %COS_130 = arith.cmpi sge, %COS_124, %COS_129 : tensor<8x1xi64> loc(#loc134)
    %COS_131 = arith.andi %COS_128, %COS_130 : tensor<8x1xi1> loc(#loc134)
    %COS_132 = arith.muli %COS_120, %COS_121 : tensor<8x1xi32> loc(#loc134)
    %COS_133 = tt.expand_dims %rk_half {axis = 0 : i32} : tensor<64xi32> -> tensor<1x64xi32> loc(#loc135)
    %COS_134 = tt.broadcast %COS_132 : tensor<8x1xi32> -> tensor<8x64xi32> loc(#loc136)
    %COS_135 = tt.broadcast %COS_133 : tensor<1x64xi32> -> tensor<8x64xi32> loc(#loc136)
    %COS_136 = arith.extsi %COS_134 : tensor<8x64xi32> to tensor<8x64xi64> loc(#loc136)
    %COS_137 = arith.extsi %COS_135 : tensor<8x64xi32> to tensor<8x64xi64> loc(#loc136)
    %COS_138 = arith.addi %COS_136, %COS_137 : tensor<8x64xi64> loc(#loc136)
    %COS_139 = arith.constant 2147483647 : i64 loc(#loc136)
    %COS_140 = arith.constant -2147483648 : i64 loc(#loc136)
    %COS_141 = arith.constant dense<2147483647> : tensor<8x64xi64> loc(#loc136)
    %COS_142 = arith.cmpi sle, %COS_138, %COS_141 : tensor<8x64xi64> loc(#loc136)
    %COS_143 = arith.constant dense<-2147483648> : tensor<8x64xi64> loc(#loc136)
    %COS_144 = arith.cmpi sge, %COS_138, %COS_143 : tensor<8x64xi64> loc(#loc136)
    %COS_145 = arith.andi %COS_142, %COS_144 : tensor<8x64xi1> loc(#loc136)
    %COS_146 = arith.addi %COS_134, %COS_135 : tensor<8x64xi32> loc(#loc136)
    %COS_147 = tt.splat %COS : !tt.ptr<f16> -> tensor<8x64x!tt.ptr<f16>> loc(#loc137)
    %COS_148 = tt.addptr %COS_147, %COS_146 : tensor<8x64x!tt.ptr<f16>>, tensor<8x64xi32> loc(#loc137)
    %SIN_149 = tt.expand_dims %rm_cs_76 {axis = 1 : i32} : tensor<8xi32> -> tensor<8x1xi32> loc(#loc138)
    %SIN_150 = tt.splat %rotary_dim_half_1 : i32 -> tensor<8x1xi32> loc(#loc139)
    %SIN_151 = arith.extsi %SIN_149 : tensor<8x1xi32> to tensor<8x1xi64> loc(#loc139)
    %SIN_152 = arith.extsi %SIN_150 : tensor<8x1xi32> to tensor<8x1xi64> loc(#loc139)
    %SIN_153 = arith.muli %SIN_151, %SIN_152 : tensor<8x1xi64> loc(#loc139)
    %SIN_154 = arith.constant 2147483647 : i64 loc(#loc139)
    %SIN_155 = arith.constant -2147483648 : i64 loc(#loc139)
    %SIN_156 = arith.constant dense<2147483647> : tensor<8x1xi64> loc(#loc139)
    %SIN_157 = arith.cmpi sle, %SIN_153, %SIN_156 : tensor<8x1xi64> loc(#loc139)
    %SIN_158 = arith.constant dense<-2147483648> : tensor<8x1xi64> loc(#loc139)
    %SIN_159 = arith.cmpi sge, %SIN_153, %SIN_158 : tensor<8x1xi64> loc(#loc139)
    %SIN_160 = arith.andi %SIN_157, %SIN_159 : tensor<8x1xi1> loc(#loc139)
    %SIN_161 = arith.muli %SIN_149, %SIN_150 : tensor<8x1xi32> loc(#loc139)
    %SIN_162 = tt.expand_dims %rk_half {axis = 0 : i32} : tensor<64xi32> -> tensor<1x64xi32> loc(#loc140)
    %SIN_163 = tt.broadcast %SIN_161 : tensor<8x1xi32> -> tensor<8x64xi32> loc(#loc141)
    %SIN_164 = tt.broadcast %SIN_162 : tensor<1x64xi32> -> tensor<8x64xi32> loc(#loc141)
    %SIN_165 = arith.extsi %SIN_163 : tensor<8x64xi32> to tensor<8x64xi64> loc(#loc141)
    %SIN_166 = arith.extsi %SIN_164 : tensor<8x64xi32> to tensor<8x64xi64> loc(#loc141)
    %SIN_167 = arith.addi %SIN_165, %SIN_166 : tensor<8x64xi64> loc(#loc141)
    %SIN_168 = arith.constant 2147483647 : i64 loc(#loc141)
    %SIN_169 = arith.constant -2147483648 : i64 loc(#loc141)
    %SIN_170 = arith.constant dense<2147483647> : tensor<8x64xi64> loc(#loc141)
    %SIN_171 = arith.cmpi sle, %SIN_167, %SIN_170 : tensor<8x64xi64> loc(#loc141)
    %SIN_172 = arith.constant dense<-2147483648> : tensor<8x64xi64> loc(#loc141)
    %SIN_173 = arith.cmpi sge, %SIN_167, %SIN_172 : tensor<8x64xi64> loc(#loc141)
    %SIN_174 = arith.andi %SIN_171, %SIN_173 : tensor<8x64xi1> loc(#loc141)
    %SIN_175 = arith.addi %SIN_163, %SIN_164 : tensor<8x64xi32> loc(#loc141)
    %SIN_176 = tt.splat %SIN : !tt.ptr<f16> -> tensor<8x64x!tt.ptr<f16>> loc(#loc142)
    %SIN_177 = tt.addptr %SIN_176, %SIN_175 : tensor<8x64x!tt.ptr<f16>>, tensor<8x64xi32> loc(#loc142)
    %cos = tt.expand_dims %rm_cs_76 {axis = 1 : i32} : tensor<8xi32> -> tensor<8x1xi32> loc(#loc143)
    %cos_178 = tt.splat %seqlen_ro : i32 -> tensor<8x1xi32> loc(#loc144)
    %cos_179 = arith.cmpi slt, %cos, %cos_178 : tensor<8x1xi32> loc(#loc144)
    %cos_180 = tt.expand_dims %rk_half {axis = 0 : i32} : tensor<64xi32> -> tensor<1x64xi32> loc(#loc145)
    %cos_181 = tt.splat %rotary_dim_half_1 : i32 -> tensor<1x64xi32> loc(#loc146)
    %cos_182 = arith.cmpi slt, %cos_180, %cos_181 : tensor<1x64xi32> loc(#loc146)
    %cos_183 = tt.broadcast %cos_179 : tensor<8x1xi1> -> tensor<8x64xi1> loc(#loc147)
    %cos_184 = tt.broadcast %cos_182 : tensor<1x64xi1> -> tensor<8x64xi1> loc(#loc147)
    %cos_185 = arith.andi %cos_183, %cos_184 : tensor<8x64xi1> loc(#loc147)
    %cos_186 = arith.constant 1.000000e+00 : f32 loc(#loc148)
    %cos_187 = arith.constant dense<1.000000e+00> : tensor<8x64xf32> loc(#loc148)
    %cos_188 = arith.truncf %cos_187 : tensor<8x64xf32> to tensor<8x64xf16> loc(#loc148)
    %cos_189 = tt.load %COS_148, %cos_185, %cos_188 : tensor<8x64x!tt.ptr<f16>> loc(#loc148)
    %cos_190 = arith.extf %cos_189 : tensor<8x64xf16> to tensor<8x64xf32> loc(#loc149)
    %sin = tt.expand_dims %rm_cs_76 {axis = 1 : i32} : tensor<8xi32> -> tensor<8x1xi32> loc(#loc150)
    %sin_191 = tt.splat %seqlen_ro : i32 -> tensor<8x1xi32> loc(#loc151)
    %sin_192 = arith.cmpi slt, %sin, %sin_191 : tensor<8x1xi32> loc(#loc151)
    %sin_193 = tt.expand_dims %rk_half {axis = 0 : i32} : tensor<64xi32> -> tensor<1x64xi32> loc(#loc152)
    %sin_194 = tt.splat %rotary_dim_half_1 : i32 -> tensor<1x64xi32> loc(#loc153)
    %sin_195 = arith.cmpi slt, %sin_193, %sin_194 : tensor<1x64xi32> loc(#loc153)
    %sin_196 = tt.broadcast %sin_192 : tensor<8x1xi1> -> tensor<8x64xi1> loc(#loc154)
    %sin_197 = tt.broadcast %sin_195 : tensor<1x64xi1> -> tensor<8x64xi1> loc(#loc154)
    %sin_198 = arith.andi %sin_196, %sin_197 : tensor<8x64xi1> loc(#loc154)
    %sin_199 = arith.constant 0.000000e+00 : f32 loc(#loc155)
    %sin_200 = arith.constant dense<0.000000e+00> : tensor<8x64xf32> loc(#loc155)
    %sin_201 = arith.truncf %sin_200 : tensor<8x64xf32> to tensor<8x64xf16> loc(#loc155)
    %sin_202 = tt.load %SIN_177, %sin_198, %sin_201 : tensor<8x64x!tt.ptr<f16>> loc(#loc155)
    %sin_203 = arith.extf %sin_202 : tensor<8x64xf16> to tensor<8x64xf32> loc(#loc156)
    %x0 = tt.expand_dims %rm_65 {axis = 1 : i32} : tensor<8xi32> -> tensor<8x1xi32> loc(#loc157)
    %x0_204 = tt.splat %seqlen : i32 -> tensor<8x1xi32> loc(#loc158)
    %x0_205 = arith.cmpi slt, %x0, %x0_204 : tensor<8x1xi32> loc(#loc158)
    %x0_206 = tt.expand_dims %rk_half {axis = 0 : i32} : tensor<64xi32> -> tensor<1x64xi32> loc(#loc159)
    %x0_207 = tt.splat %rotary_dim_half_1 : i32 -> tensor<1x64xi32> loc(#loc160)
    %x0_208 = arith.cmpi slt, %x0_206, %x0_207 : tensor<1x64xi32> loc(#loc160)
    %x0_209 = tt.broadcast %x0_205 : tensor<8x1xi1> -> tensor<8x64xi1> loc(#loc161)
    %x0_210 = tt.broadcast %x0_208 : tensor<1x64xi1> -> tensor<8x64xi1> loc(#loc161)
    %x0_211 = arith.andi %x0_209, %x0_210 : tensor<8x64xi1> loc(#loc161)
    %x0_212 = arith.constant 0.000000e+00 : f32 loc(#loc162)
    %x0_213 = arith.constant dense<0.000000e+00> : tensor<8x64xf32> loc(#loc162)
    %x0_214 = arith.truncf %x0_213 : tensor<8x64xf32> to tensor<8x64xf16> loc(#loc162)
    %x0_215 = tt.load %X_119, %x0_211, %x0_214 : tensor<8x64x!tt.ptr<f16>> loc(#loc162)
    %x0_216 = arith.extf %x0_215 : tensor<8x64xf16> to tensor<8x64xf32> loc(#loc163)
    %x1 = tt.expand_dims %rm_65 {axis = 1 : i32} : tensor<8xi32> -> tensor<8x1xi32> loc(#loc164)
    %x1_217 = tt.splat %seqlen : i32 -> tensor<8x1xi32> loc(#loc165)
    %x1_218 = arith.cmpi slt, %x1, %x1_217 : tensor<8x1xi32> loc(#loc165)
    %x1_219 = tt.expand_dims %rk_half {axis = 0 : i32} : tensor<64xi32> -> tensor<1x64xi32> loc(#loc166)
    %x1_220 = tt.splat %rotary_dim_half_1 : i32 -> tensor<1x64xi32> loc(#loc167)
    %x1_221 = arith.cmpi slt, %x1_219, %x1_220 : tensor<1x64xi32> loc(#loc167)
    %x1_222 = tt.broadcast %x1_218 : tensor<8x1xi1> -> tensor<8x64xi1> loc(#loc168)
    %x1_223 = tt.broadcast %x1_221 : tensor<1x64xi1> -> tensor<8x64xi1> loc(#loc168)
    %x1_224 = arith.andi %x1_222, %x1_223 : tensor<8x64xi1> loc(#loc168)
    %x1_225 = arith.constant 1 : i32 loc(#loc169)
    %x1_226 = arith.constant 1 : i32 loc(#loc169)
    %x1_227 = arith.extsi %rotary_dim_half_1 : i32 to i64 loc(#loc169)
    %x1_228 = arith.extsi %x1_226 : i32 to i64 loc(#loc169)
    %x1_229 = arith.muli %x1_227, %x1_228 : i64 loc(#loc169)
    %x1_230 = arith.constant 2147483647 : i64 loc(#loc169)
    %x1_231 = arith.constant -2147483648 : i64 loc(#loc169)
    %x1_232 = arith.cmpi sle, %x1_229, %x1_230 : i64 loc(#loc169)
    %x1_233 = arith.cmpi sge, %x1_229, %x1_231 : i64 loc(#loc169)
    %x1_234 = arith.andi %x1_232, %x1_233 : i1 loc(#loc169)
    %x1_235 = arith.muli %rotary_dim_half_1, %x1_226 : i32 loc(#loc169)
    %x1_236 = tt.splat %x1_235 : i32 -> tensor<8x64xi32> loc(#loc170)
    %x1_237 = tt.addptr %X_119, %x1_236 : tensor<8x64x!tt.ptr<f16>>, tensor<8x64xi32> loc(#loc170)
    %x1_238 = arith.constant 0.000000e+00 : f32 loc(#loc171)
    %x1_239 = arith.constant dense<0.000000e+00> : tensor<8x64xf32> loc(#loc171)
    %x1_240 = arith.truncf %x1_239 : tensor<8x64xf32> to tensor<8x64xf16> loc(#loc171)
    %x1_241 = tt.load %x1_237, %x1_224, %x1_240 : tensor<8x64x!tt.ptr<f16>> loc(#loc171)
    %x1_242 = arith.extf %x1_241 : tensor<8x64xf16> to tensor<8x64xf32> loc(#loc172)
    %o0 = arith.mulf %x0_216, %cos_190 : tensor<8x64xf32> loc(#loc173)
    %o0_243 = arith.mulf %x1_242, %sin_203 : tensor<8x64xf32> loc(#loc174)
    %o0_244 = arith.subf %o0, %o0_243 : tensor<8x64xf32> loc(#loc175)
    %o1 = arith.mulf %x0_216, %sin_203 : tensor<8x64xf32> loc(#loc176)
    %o1_245 = arith.mulf %x1_242, %cos_190 : tensor<8x64xf32> loc(#loc177)
    %o1_246 = arith.addf %o1, %o1_245 : tensor<8x64xf32> loc(#loc178)
    %OUT_247 = tt.expand_dims %rm_65 {axis = 1 : i32} : tensor<8xi32> -> tensor<8x1xi32> loc(#loc179)
    %OUT_248 = tt.splat %stride_out_seqlen : i32 -> tensor<8x1xi32> loc(#loc180)
    %OUT_249 = arith.extsi %OUT_247 : tensor<8x1xi32> to tensor<8x1xi64> loc(#loc180)
    %OUT_250 = arith.extsi %OUT_248 : tensor<8x1xi32> to tensor<8x1xi64> loc(#loc180)
    %OUT_251 = arith.muli %OUT_249, %OUT_250 : tensor<8x1xi64> loc(#loc180)
    %OUT_252 = arith.constant 2147483647 : i64 loc(#loc180)
    %OUT_253 = arith.constant -2147483648 : i64 loc(#loc180)
    %OUT_254 = arith.constant dense<2147483647> : tensor<8x1xi64> loc(#loc180)
    %OUT_255 = arith.cmpi sle, %OUT_251, %OUT_254 : tensor<8x1xi64> loc(#loc180)
    %OUT_256 = arith.constant dense<-2147483648> : tensor<8x1xi64> loc(#loc180)
    %OUT_257 = arith.cmpi sge, %OUT_251, %OUT_256 : tensor<8x1xi64> loc(#loc180)
    %OUT_258 = arith.andi %OUT_255, %OUT_257 : tensor<8x1xi1> loc(#loc180)
    %OUT_259 = arith.muli %OUT_247, %OUT_248 : tensor<8x1xi32> loc(#loc180)
    %OUT_260 = tt.expand_dims %rk_half {axis = 0 : i32} : tensor<64xi32> -> tensor<1x64xi32> loc(#loc181)
    %OUT_261 = arith.constant 1 : i32 loc(#loc182)
    %OUT_262 = arith.constant 1 : i32 loc(#loc182)
    %OUT_263 = arith.constant dense<1> : tensor<1x64xi32> loc(#loc182)
    %OUT_264 = arith.extsi %OUT_260 : tensor<1x64xi32> to tensor<1x64xi64> loc(#loc182)
    %OUT_265 = arith.extsi %OUT_263 : tensor<1x64xi32> to tensor<1x64xi64> loc(#loc182)
    %OUT_266 = arith.muli %OUT_264, %OUT_265 : tensor<1x64xi64> loc(#loc182)
    %OUT_267 = arith.constant 2147483647 : i64 loc(#loc182)
    %OUT_268 = arith.constant -2147483648 : i64 loc(#loc182)
    %OUT_269 = arith.constant dense<2147483647> : tensor<1x64xi64> loc(#loc182)
    %OUT_270 = arith.cmpi sle, %OUT_266, %OUT_269 : tensor<1x64xi64> loc(#loc182)
    %OUT_271 = arith.constant dense<-2147483648> : tensor<1x64xi64> loc(#loc182)
    %OUT_272 = arith.cmpi sge, %OUT_266, %OUT_271 : tensor<1x64xi64> loc(#loc182)
    %OUT_273 = arith.andi %OUT_270, %OUT_272 : tensor<1x64xi1> loc(#loc182)
    %OUT_274 = arith.muli %OUT_260, %OUT_263 : tensor<1x64xi32> loc(#loc182)
    %OUT_275 = tt.broadcast %OUT_259 : tensor<8x1xi32> -> tensor<8x64xi32> loc(#loc183)
    %OUT_276 = tt.broadcast %OUT_274 : tensor<1x64xi32> -> tensor<8x64xi32> loc(#loc183)
    %OUT_277 = arith.extsi %OUT_275 : tensor<8x64xi32> to tensor<8x64xi64> loc(#loc183)
    %OUT_278 = arith.extsi %OUT_276 : tensor<8x64xi32> to tensor<8x64xi64> loc(#loc183)
    %OUT_279 = arith.addi %OUT_277, %OUT_278 : tensor<8x64xi64> loc(#loc183)
    %OUT_280 = arith.constant 2147483647 : i64 loc(#loc183)
    %OUT_281 = arith.constant -2147483648 : i64 loc(#loc183)
    %OUT_282 = arith.constant dense<2147483647> : tensor<8x64xi64> loc(#loc183)
    %OUT_283 = arith.cmpi sle, %OUT_279, %OUT_282 : tensor<8x64xi64> loc(#loc183)
    %OUT_284 = arith.constant dense<-2147483648> : tensor<8x64xi64> loc(#loc183)
    %OUT_285 = arith.cmpi sge, %OUT_279, %OUT_284 : tensor<8x64xi64> loc(#loc183)
    %OUT_286 = arith.andi %OUT_283, %OUT_285 : tensor<8x64xi1> loc(#loc183)
    %OUT_287 = arith.addi %OUT_275, %OUT_276 : tensor<8x64xi32> loc(#loc183)
    %OUT_288 = tt.splat %OUT_41 : !tt.ptr<f16> -> tensor<8x64x!tt.ptr<f16>> loc(#loc184)
    %OUT_289 = tt.addptr %OUT_288, %OUT_287 : tensor<8x64x!tt.ptr<f16>>, tensor<8x64xi32> loc(#loc184)
    %8 = tt.expand_dims %rm_65 {axis = 1 : i32} : tensor<8xi32> -> tensor<8x1xi32> loc(#loc80)
    %9 = tt.splat %seqlen : i32 -> tensor<8x1xi32> loc(#loc81)
    %10 = arith.cmpi slt, %8, %9 : tensor<8x1xi32> loc(#loc81)
    %11 = tt.expand_dims %rk_half {axis = 0 : i32} : tensor<64xi32> -> tensor<1x64xi32> loc(#loc82)
    %12 = tt.splat %rotary_dim_half_1 : i32 -> tensor<1x64xi32> loc(#loc83)
    %13 = arith.cmpi slt, %11, %12 : tensor<1x64xi32> loc(#loc83)
    %14 = tt.broadcast %10 : tensor<8x1xi1> -> tensor<8x64xi1> loc(#loc84)
    %15 = tt.broadcast %13 : tensor<1x64xi1> -> tensor<8x64xi1> loc(#loc84)
    %16 = arith.andi %14, %15 : tensor<8x64xi1> loc(#loc84)
    %17 = arith.truncf %o0_244 : tensor<8x64xf32> to tensor<8x64xf16> loc(#loc85)
    tt.store %OUT_289, %17, %16 : tensor<8x64x!tt.ptr<f16>> loc(#loc85)
    %18 = tt.expand_dims %rm_65 {axis = 1 : i32} : tensor<8xi32> -> tensor<8x1xi32> loc(#loc86)
    %19 = tt.splat %seqlen : i32 -> tensor<8x1xi32> loc(#loc87)
    %20 = arith.cmpi slt, %18, %19 : tensor<8x1xi32> loc(#loc87)
    %21 = tt.expand_dims %rk_half {axis = 0 : i32} : tensor<64xi32> -> tensor<1x64xi32> loc(#loc88)
    %22 = tt.splat %rotary_dim_half_1 : i32 -> tensor<1x64xi32> loc(#loc89)
    %23 = arith.cmpi slt, %21, %22 : tensor<1x64xi32> loc(#loc89)
    %24 = tt.broadcast %20 : tensor<8x1xi1> -> tensor<8x64xi1> loc(#loc90)
    %25 = tt.broadcast %23 : tensor<1x64xi1> -> tensor<8x64xi1> loc(#loc90)
    %26 = arith.andi %24, %25 : tensor<8x64xi1> loc(#loc90)
    %c1_i32 = arith.constant 1 : i32 loc(#loc91)
    %c1_i32_290 = arith.constant 1 : i32 loc(#loc91)
    %27 = arith.extsi %rotary_dim_half_1 : i32 to i64 loc(#loc91)
    %28 = arith.extsi %c1_i32_290 : i32 to i64 loc(#loc91)
    %29 = arith.muli %27, %28 : i64 loc(#loc91)
    %c2147483647_i64_291 = arith.constant 2147483647 : i64 loc(#loc91)
    %c-2147483648_i64_292 = arith.constant -2147483648 : i64 loc(#loc91)
    %30 = arith.cmpi sle, %29, %c2147483647_i64_291 : i64 loc(#loc91)
    %31 = arith.cmpi sge, %29, %c-2147483648_i64_292 : i64 loc(#loc91)
    %32 = arith.andi %30, %31 : i1 loc(#loc91)
    %33 = arith.muli %rotary_dim_half_1, %c1_i32_290 : i32 loc(#loc91)
    %34 = tt.splat %33 : i32 -> tensor<8x64xi32> loc(#loc92)
    %35 = tt.addptr %OUT_289, %34 : tensor<8x64x!tt.ptr<f16>>, tensor<8x64xi32> loc(#loc92)
    %36 = arith.truncf %o1_246 : tensor<8x64xf32> to tensor<8x64xf16> loc(#loc93)
    tt.store %35, %36, %26 : tensor<8x64x!tt.ptr<f16>> loc(#loc93)
    tt.return loc(#loc94)
  } loc(#loc)
} loc(#loc)
#loc1 = loc("/usr/local/lib/python3.12/dist-packages/vllm/vllm_flash_attn/ops/triton/rotary.py":41:26)
#loc2 = loc("/usr/local/lib/python3.12/dist-packages/vllm/vllm_flash_attn/ops/triton/rotary.py":42:29)
#loc3 = loc("/usr/local/lib/python3.12/dist-packages/vllm/vllm_flash_attn/ops/triton/rotary.py":43:30)
#loc4 = loc("/usr/local/lib/python3.12/dist-packages/vllm/vllm_flash_attn/ops/triton/rotary.py":44:36)
#loc5 = loc("/usr/local/lib/python3.12/dist-packages/vllm/vllm_flash_attn/ops/triton/rotary.py":47:28)
#loc6 = loc("/usr/local/lib/python3.12/dist-packages/vllm/vllm_flash_attn/ops/triton/rotary.py":47:16)
#loc7 = loc("/usr/local/lib/python3.12/dist-packages/vllm/vllm_flash_attn/ops/triton/rotary.py":47:56)
#loc8 = loc("/usr/local/lib/python3.12/dist-packages/vllm/vllm_flash_attn/ops/triton/rotary.py":47:45)
#loc9 = loc("/usr/local/lib/python3.12/dist-packages/vllm/vllm_flash_attn/ops/triton/rotary.py":48:32)
#loc10 = loc("/usr/local/lib/python3.12/dist-packages/vllm/vllm_flash_attn/ops/triton/rotary.py":48:20)
#loc11 = loc("/usr/local/lib/python3.12/dist-packages/vllm/vllm_flash_attn/ops/triton/rotary.py":48:62)
#loc12 = loc("/usr/local/lib/python3.12/dist-packages/vllm/vllm_flash_attn/ops/triton/rotary.py":48:51)
#loc13 = loc("/usr/local/lib/python3.12/dist-packages/vllm/vllm_flash_attn/ops/triton/rotary.py":55:15)
#loc14 = loc("/usr/local/lib/python3.12/dist-packages/vllm/vllm_flash_attn/ops/triton/rotary.py":55:26)
#loc15 = loc("/usr/local/lib/python3.12/dist-packages/vllm/vllm_flash_attn/ops/triton/rotary.py":56:8)
#loc16 = loc("/usr/local/lib/python3.12/dist-packages/vllm/vllm_flash_attn/ops/triton/rotary.py":57:17)
#loc17 = loc("/usr/local/lib/python3.12/dist-packages/vllm/vllm_flash_attn/ops/triton/rotary.py":57:40)
#loc18 = loc("/usr/local/lib/python3.12/dist-packages/vllm/vllm_flash_attn/ops/triton/rotary.py":57:27)
#loc19 = loc("/usr/local/lib/python3.12/dist-packages/vllm/vllm_flash_attn/ops/triton/rotary.py":59:21)
#loc20 = loc("/usr/local/lib/python3.12/dist-packages/vllm/vllm_flash_attn/ops/triton/rotary.py":62:22)
#loc21 = loc("/usr/local/lib/python3.12/dist-packages/vllm/vllm_flash_attn/ops/triton/rotary.py":63:27)
#loc22 = loc("/usr/local/lib/python3.12/dist-packages/vllm/vllm_flash_attn/ops/triton/rotary.py":67:20)
#loc23 = loc("/usr/local/lib/python3.12/dist-packages/vllm/vllm_flash_attn/ops/triton/rotary.py":67:31)
#loc24 = loc("/usr/local/lib/python3.12/dist-packages/vllm/vllm_flash_attn/ops/triton/rotary.py":67:57)
#loc25 = loc("/usr/local/lib/python3.12/dist-packages/vllm/vllm_flash_attn/ops/triton/rotary.py":67:68)
#loc26 = loc("/usr/local/lib/python3.12/dist-packages/vllm/vllm_flash_attn/ops/triton/rotary.py":67:49)
#loc27 = loc("/usr/local/lib/python3.12/dist-packages/vllm/vllm_flash_attn/ops/triton/rotary.py":67:17)
#loc28 = loc("/usr/local/lib/python3.12/dist-packages/vllm/vllm_flash_attn/ops/triton/rotary.py":68:27)
#loc29 = loc("/usr/local/lib/python3.12/dist-packages/vllm/vllm_flash_attn/ops/triton/rotary.py":68:38)
#loc30 = loc("/usr/local/lib/python3.12/dist-packages/vllm/vllm_flash_attn/ops/triton/rotary.py":68:64)
#loc31 = loc("/usr/local/lib/python3.12/dist-packages/vllm/vllm_flash_attn/ops/triton/rotary.py":68:56)
#loc32 = loc("/usr/local/lib/python3.12/dist-packages/vllm/vllm_flash_attn/ops/triton/rotary.py":68:21)
#loc33 = loc("/usr/local/lib/python3.12/dist-packages/vllm/vllm_flash_attn/ops/triton/rotary.py":69:27)
#loc34 = loc("/usr/local/lib/python3.12/dist-packages/vllm/vllm_flash_attn/ops/triton/rotary.py":69:38)
#loc35 = loc("/usr/local/lib/python3.12/dist-packages/vllm/vllm_flash_attn/ops/triton/rotary.py":69:64)
#loc36 = loc("/usr/local/lib/python3.12/dist-packages/vllm/vllm_flash_attn/ops/triton/rotary.py":69:56)
#loc37 = loc("/usr/local/lib/python3.12/dist-packages/vllm/vllm_flash_attn/ops/triton/rotary.py":69:21)
#loc38 = loc("/usr/local/lib/python3.12/dist-packages/vllm/vllm_flash_attn/ops/triton/rotary.py":71:29)
#loc39 = loc("/usr/local/lib/python3.12/dist-packages/vllm/vllm_flash_attn/ops/triton/rotary.py":71:40)
#loc40 = loc("/usr/local/lib/python3.12/dist-packages/vllm/vllm_flash_attn/ops/triton/rotary.py":71:62)
#loc41 = loc("/usr/local/lib/python3.12/dist-packages/vllm/vllm_flash_attn/ops/triton/rotary.py":71:73)
#loc42 = loc("/usr/local/lib/python3.12/dist-packages/vllm/vllm_flash_attn/ops/triton/rotary.py":71:54)
#loc43 = loc("/usr/local/lib/python3.12/dist-packages/vllm/vllm_flash_attn/ops/triton/rotary.py":71:12)
#loc44 = loc("/usr/local/lib/python3.12/dist-packages/vllm/vllm_flash_attn/ops/triton/rotary.py":72:13)
#loc45 = loc("/usr/local/lib/python3.12/dist-packages/vllm/vllm_flash_attn/ops/triton/rotary.py":74:29)
#loc46 = loc("/usr/local/lib/python3.12/dist-packages/vllm/vllm_flash_attn/ops/triton/rotary.py":74:40)
#loc47 = loc("/usr/local/lib/python3.12/dist-packages/vllm/vllm_flash_attn/ops/triton/rotary.py":74:62)
#loc48 = loc("/usr/local/lib/python3.12/dist-packages/vllm/vllm_flash_attn/ops/triton/rotary.py":74:73)
#loc49 = loc("/usr/local/lib/python3.12/dist-packages/vllm/vllm_flash_attn/ops/triton/rotary.py":74:54)
#loc50 = loc("/usr/local/lib/python3.12/dist-packages/vllm/vllm_flash_attn/ops/triton/rotary.py":74:12)
#loc51 = loc("/usr/local/lib/python3.12/dist-packages/vllm/vllm_flash_attn/ops/triton/rotary.py":75:13)
#loc52 = loc("/usr/local/lib/python3.12/dist-packages/vllm/vllm_flash_attn/ops/triton/rotary.py":77:24)
#loc53 = loc("/usr/local/lib/python3.12/dist-packages/vllm/vllm_flash_attn/ops/triton/rotary.py":77:35)
#loc54 = loc("/usr/local/lib/python3.12/dist-packages/vllm/vllm_flash_attn/ops/triton/rotary.py":77:54)
#loc55 = loc("/usr/local/lib/python3.12/dist-packages/vllm/vllm_flash_attn/ops/triton/rotary.py":77:65)
#loc56 = loc("/usr/local/lib/python3.12/dist-packages/vllm/vllm_flash_attn/ops/triton/rotary.py":77:46)
#loc57 = loc("/usr/local/lib/python3.12/dist-packages/vllm/vllm_flash_attn/ops/triton/rotary.py":77:12)
#loc58 = loc("/usr/local/lib/python3.12/dist-packages/vllm/vllm_flash_attn/ops/triton/rotary.py":78:13)
#loc59 = loc("/usr/local/lib/python3.12/dist-packages/vllm/vllm_flash_attn/ops/triton/rotary.py":81:21)
#loc60 = loc("/usr/local/lib/python3.12/dist-packages/vllm/vllm_flash_attn/ops/triton/rotary.py":81:32)
#loc61 = loc("/usr/local/lib/python3.12/dist-packages/vllm/vllm_flash_attn/ops/triton/rotary.py":81:51)
#loc62 = loc("/usr/local/lib/python3.12/dist-packages/vllm/vllm_flash_attn/ops/triton/rotary.py":81:62)
#loc63 = loc("/usr/local/lib/python3.12/dist-packages/vllm/vllm_flash_attn/ops/triton/rotary.py":81:43)
#loc64 = loc("/usr/local/lib/python3.12/dist-packages/vllm/vllm_flash_attn/ops/triton/rotary.py":80:34)
#loc65 = loc("/usr/local/lib/python3.12/dist-packages/vllm/vllm_flash_attn/ops/triton/rotary.py":80:16)
#loc66 = loc("/usr/local/lib/python3.12/dist-packages/vllm/vllm_flash_attn/ops/triton/rotary.py":80:12)
#loc67 = loc("/usr/local/lib/python3.12/dist-packages/vllm/vllm_flash_attn/ops/triton/rotary.py":83:13)
#loc68 = loc("/usr/local/lib/python3.12/dist-packages/vllm/vllm_flash_attn/ops/triton/rotary.py":86:18)
#loc69 = loc("/usr/local/lib/python3.12/dist-packages/vllm/vllm_flash_attn/ops/triton/rotary.py":86:29)
#loc70 = loc("/usr/local/lib/python3.12/dist-packages/vllm/vllm_flash_attn/ops/triton/rotary.py":86:24)
#loc71 = loc("/usr/local/lib/python3.12/dist-packages/vllm/vllm_flash_attn/ops/triton/rotary.py":87:18)
#loc72 = loc("/usr/local/lib/python3.12/dist-packages/vllm/vllm_flash_attn/ops/triton/rotary.py":87:29)
#loc73 = loc("/usr/local/lib/python3.12/dist-packages/vllm/vllm_flash_attn/ops/triton/rotary.py":87:24)
#loc74 = loc("/usr/local/lib/python3.12/dist-packages/vllm/vllm_flash_attn/ops/triton/rotary.py":89:24)
#loc75 = loc("/usr/local/lib/python3.12/dist-packages/vllm/vllm_flash_attn/ops/triton/rotary.py":89:35)
#loc76 = loc("/usr/local/lib/python3.12/dist-packages/vllm/vllm_flash_attn/ops/triton/rotary.py":89:63)
#loc77 = loc("/usr/local/lib/python3.12/dist-packages/vllm/vllm_flash_attn/ops/triton/rotary.py":89:74)
#loc78 = loc("/usr/local/lib/python3.12/dist-packages/vllm/vllm_flash_attn/ops/triton/rotary.py":89:55)
#loc79 = loc("/usr/local/lib/python3.12/dist-packages/vllm/vllm_flash_attn/ops/triton/rotary.py":89:21)
#loc80 = loc("/usr/local/lib/python3.12/dist-packages/vllm/vllm_flash_attn/ops/triton/rotary.py":90:35)
#loc81 = loc("/usr/local/lib/python3.12/dist-packages/vllm/vllm_flash_attn/ops/triton/rotary.py":90:46)
#loc82 = loc("/usr/local/lib/python3.12/dist-packages/vllm/vllm_flash_attn/ops/triton/rotary.py":90:65)
#loc83 = loc("/usr/local/lib/python3.12/dist-packages/vllm/vllm_flash_attn/ops/triton/rotary.py":90:76)
#loc84 = loc("/usr/local/lib/python3.12/dist-packages/vllm/vllm_flash_attn/ops/triton/rotary.py":90:57)
#loc85 = loc("/usr/local/lib/python3.12/dist-packages/vllm/vllm_flash_attn/ops/triton/rotary.py":90:22)
#loc86 = loc("/usr/local/lib/python3.12/dist-packages/vllm/vllm_flash_attn/ops/triton/rotary.py":94:21)
#loc87 = loc("/usr/local/lib/python3.12/dist-packages/vllm/vllm_flash_attn/ops/triton/rotary.py":94:32)
#loc88 = loc("/usr/local/lib/python3.12/dist-packages/vllm/vllm_flash_attn/ops/triton/rotary.py":94:51)
#loc89 = loc("/usr/local/lib/python3.12/dist-packages/vllm/vllm_flash_attn/ops/triton/rotary.py":94:62)
#loc90 = loc("/usr/local/lib/python3.12/dist-packages/vllm/vllm_flash_attn/ops/triton/rotary.py":94:43)
#loc91 = loc("/usr/local/lib/python3.12/dist-packages/vllm/vllm_flash_attn/ops/triton/rotary.py":92:36)
#loc92 = loc("/usr/local/lib/python3.12/dist-packages/vllm/vllm_flash_attn/ops/triton/rotary.py":92:18)
#loc93 = loc("/usr/local/lib/python3.12/dist-packages/vllm/vllm_flash_attn/ops/triton/rotary.py":93:12)
#loc94 = loc("/usr/local/lib/python3.12/dist-packages/vllm/vllm_flash_attn/ops/triton/rotary.py":65:4)
#loc109 = loc("pid_m"(#loc1))
#loc110 = loc("pid_head"(#loc2))
#loc111 = loc("pid_batch"(#loc3))
#loc112 = loc("rotary_dim_half"(#loc4))
#loc113 = loc("X"(#loc5))
#loc114 = loc("X"(#loc6))
#loc115 = loc("X"(#loc7))
#loc116 = loc("X"(#loc8))
#loc117 = loc("OUT"(#loc9))
#loc118 = loc("OUT"(#loc10))
#loc119 = loc("OUT"(#loc11))
#loc120 = loc("OUT"(#loc12))
#loc121 = loc("rm"(#loc16))
#loc122 = loc("rm"(#loc17))
#loc123 = loc("rm"(#loc18))
#loc124 = loc("rm_cs"(#loc19))
#loc125 = loc("rk"(#loc20))
#loc126 = loc("rk_half"(#loc21))
#loc127 = loc("X"(#loc22))
#loc128 = loc("X"(#loc23))
#loc129 = loc("X"(#loc24))
#loc130 = loc("X"(#loc25))
#loc131 = loc("X"(#loc26))
#loc132 = loc("X"(#loc27))
#loc133 = loc("COS"(#loc28))
#loc134 = loc("COS"(#loc29))
#loc135 = loc("COS"(#loc30))
#loc136 = loc("COS"(#loc31))
#loc137 = loc("COS"(#loc32))
#loc138 = loc("SIN"(#loc33))
#loc139 = loc("SIN"(#loc34))
#loc140 = loc("SIN"(#loc35))
#loc141 = loc("SIN"(#loc36))
#loc142 = loc("SIN"(#loc37))
#loc143 = loc("cos"(#loc38))
#loc144 = loc("cos"(#loc39))
#loc145 = loc("cos"(#loc40))
#loc146 = loc("cos"(#loc41))
#loc147 = loc("cos"(#loc42))
#loc148 = loc("cos"(#loc43))
#loc149 = loc("cos"(#loc44))
#loc150 = loc("sin"(#loc45))
#loc151 = loc("sin"(#loc46))
#loc152 = loc("sin"(#loc47))
#loc153 = loc("sin"(#loc48))
#loc154 = loc("sin"(#loc49))
#loc155 = loc("sin"(#loc50))
#loc156 = loc("sin"(#loc51))
#loc157 = loc("x0"(#loc52))
#loc158 = loc("x0"(#loc53))
#loc159 = loc("x0"(#loc54))
#loc160 = loc("x0"(#loc55))
#loc161 = loc("x0"(#loc56))
#loc162 = loc("x0"(#loc57))
#loc163 = loc("x0"(#loc58))
#loc164 = loc("x1"(#loc59))
#loc165 = loc("x1"(#loc60))
#loc166 = loc("x1"(#loc61))
#loc167 = loc("x1"(#loc62))
#loc168 = loc("x1"(#loc63))
#loc169 = loc("x1"(#loc64))
#loc170 = loc("x1"(#loc65))
#loc171 = loc("x1"(#loc66))
#loc172 = loc("x1"(#loc67))
#loc173 = loc("o0"(#loc68))
#loc174 = loc("o0"(#loc69))
#loc175 = loc("o0"(#loc70))
#loc176 = loc("o1"(#loc71))
#loc177 = loc("o1"(#loc72))
#loc178 = loc("o1"(#loc73))
#loc179 = loc("OUT"(#loc74))
#loc180 = loc("OUT"(#loc75))
#loc181 = loc("OUT"(#loc76))
#loc182 = loc("OUT"(#loc77))
#loc183 = loc("OUT"(#loc78))
#loc184 = loc("OUT"(#loc79))
