#loc = loc("/usr/local/lib/python3.12/dist-packages/vllm/vllm_flash_attn/ops/triton/rotary.py":13:0)
#loc58 = loc("OUT"(#loc))
#loc59 = loc("X"(#loc))
#loc60 = loc("COS"(#loc))
#loc61 = loc("SIN"(#loc))
#loc62 = loc("SEQLEN_OFFSETS"(#loc))
#loc63 = loc("seqlen"(#loc))
#loc64 = loc("rotary_dim"(#loc))
#loc65 = loc("seqlen_ro"(#loc))
#loc66 = loc("stride_out_batch"(#loc))
#loc67 = loc("stride_out_seqlen"(#loc))
#loc68 = loc("stride_out_nheads"(#loc))
#loc69 = loc("stride_x_batch"(#loc))
#loc70 = loc("stride_x_seqlen"(#loc))
#loc71 = loc("stride_x_nheads"(#loc))
module {
  tt.func public @rotary_kernel(%OUT: !tt.ptr<f16> {tt.divisibility = 16 : i32} loc("OUT"(#loc)), %X: !tt.ptr<f16> {tt.divisibility = 16 : i32} loc("X"(#loc)), %COS: !tt.ptr<f16> {tt.divisibility = 16 : i32} loc("COS"(#loc)), %SIN: !tt.ptr<f16> {tt.divisibility = 16 : i32} loc("SIN"(#loc)), %SEQLEN_OFFSETS: i32 {tt.divisibility = 16 : i32} loc("SEQLEN_OFFSETS"(#loc)), %seqlen: i32 {tt.divisibility = 16 : i32} loc("seqlen"(#loc)), %rotary_dim: i32 loc("rotary_dim"(#loc)), %seqlen_ro: i32 {tt.divisibility = 16 : i32} loc("seqlen_ro"(#loc)), %stride_out_batch: i32 {tt.divisibility = 16 : i32} loc("stride_out_batch"(#loc)), %stride_out_seqlen: i32 {tt.divisibility = 16 : i32} loc("stride_out_seqlen"(#loc)), %stride_out_nheads: i32 loc("stride_out_nheads"(#loc)), %stride_x_batch: i32 {tt.divisibility = 16 : i32} loc("stride_x_batch"(#loc)), %stride_x_seqlen: i32 {tt.divisibility = 16 : i32} loc("stride_x_seqlen"(#loc)), %stride_x_nheads: i32 loc("stride_x_nheads"(#loc))) attributes {noinline = false} {
    %cst = arith.constant dense<0.000000e+00> : tensor<8x64xf16> loc(#loc1)
    %cst_0 = arith.constant dense<1.000000e+00> : tensor<8x64xf16> loc(#loc1)
    %c8_i32 = arith.constant 8 : i32 loc(#loc1)
    %c2_i32 = arith.constant 2 : i32 loc(#loc1)
    %pid_m = tt.get_program_id x : i32 loc(#loc72)
    %pid_head = tt.get_program_id y : i32 loc(#loc73)
    %pid_batch = tt.get_program_id z : i32 loc(#loc74)
    %rotary_dim_half = arith.divsi %rotary_dim, %c2_i32 : i32 loc(#loc75)
    %X_1 = arith.muli %pid_batch, %stride_x_batch : i32 loc(#loc76)
    %X_2 = tt.addptr %X, %X_1 : !tt.ptr<f16>, i32 loc(#loc77)
    %X_3 = arith.muli %pid_head, %stride_x_nheads : i32 loc(#loc78)
    %X_4 = tt.addptr %X_2, %X_3 : !tt.ptr<f16>, i32 loc(#loc79)
    %OUT_5 = arith.muli %pid_batch, %stride_out_batch : i32 loc(#loc80)
    %OUT_6 = tt.addptr %OUT, %OUT_5 : !tt.ptr<f16>, i32 loc(#loc81)
    %OUT_7 = arith.muli %pid_head, %stride_out_nheads : i32 loc(#loc82)
    %OUT_8 = tt.addptr %OUT_6, %OUT_7 : !tt.ptr<f16>, i32 loc(#loc83)
    %0 = arith.muli %pid_m, %c8_i32 : i32 loc(#loc14)
    %1 = arith.cmpi sge, %0, %seqlen : i32 loc(#loc15)
    cf.cond_br %1, ^bb1, ^bb2 loc(#loc15)
  ^bb1:  // pred: ^bb0
    tt.return loc(#loc16)
  ^bb2:  // pred: ^bb0
    %rm = tt.make_range {end = 8 : i32, start = 0 : i32} : tensor<8xi32> loc(#loc84)
    %rm_9 = tt.splat %0 : i32 -> tensor<8xi32> loc(#loc85)
    %rm_10 = arith.addi %rm_9, %rm : tensor<8xi32> loc(#loc85)
    %rm_cs = tt.splat %SEQLEN_OFFSETS : i32 -> tensor<8xi32> loc(#loc86)
    %rm_cs_11 = arith.addi %rm_10, %rm_cs : tensor<8xi32> loc(#loc86)
    %rk_half = tt.make_range {end = 64 : i32, start = 0 : i32} : tensor<64xi32> loc(#loc87)
    %X_12 = tt.expand_dims %rm_10 {axis = 1 : i32} : tensor<8xi32> -> tensor<8x1xi32> loc(#loc88)
    %X_13 = tt.splat %stride_x_seqlen : i32 -> tensor<8x1xi32> loc(#loc89)
    %X_14 = arith.muli %X_12, %X_13 : tensor<8x1xi32> loc(#loc89)
    %X_15 = tt.expand_dims %rk_half {axis = 0 : i32} : tensor<64xi32> -> tensor<1x64xi32> loc(#loc90)
    %X_16 = tt.broadcast %X_14 : tensor<8x1xi32> -> tensor<8x64xi32> loc(#loc91)
    %X_17 = tt.broadcast %X_15 : tensor<1x64xi32> -> tensor<8x64xi32> loc(#loc91)
    %X_18 = arith.addi %X_16, %X_17 : tensor<8x64xi32> loc(#loc91)
    %X_19 = tt.splat %X_4 : !tt.ptr<f16> -> tensor<8x64x!tt.ptr<f16>> loc(#loc92)
    %X_20 = tt.addptr %X_19, %X_18 : tensor<8x64x!tt.ptr<f16>>, tensor<8x64xi32> loc(#loc92)
    %COS_21 = tt.expand_dims %rm_cs_11 {axis = 1 : i32} : tensor<8xi32> -> tensor<8x1xi32> loc(#loc93)
    %COS_22 = tt.splat %rotary_dim_half : i32 -> tensor<8x1xi32> loc(#loc94)
    %COS_23 = arith.muli %COS_21, %COS_22 : tensor<8x1xi32> loc(#loc94)
    %COS_24 = tt.broadcast %COS_23 : tensor<8x1xi32> -> tensor<8x64xi32> loc(#loc95)
    %COS_25 = arith.addi %COS_24, %X_17 : tensor<8x64xi32> loc(#loc95)
    %COS_26 = tt.splat %COS : !tt.ptr<f16> -> tensor<8x64x!tt.ptr<f16>> loc(#loc96)
    %COS_27 = tt.addptr %COS_26, %COS_25 : tensor<8x64x!tt.ptr<f16>>, tensor<8x64xi32> loc(#loc96)
    %SIN_28 = tt.splat %SIN : !tt.ptr<f16> -> tensor<8x64x!tt.ptr<f16>> loc(#loc97)
    %SIN_29 = tt.addptr %SIN_28, %COS_25 : tensor<8x64x!tt.ptr<f16>>, tensor<8x64xi32> loc(#loc97)
    %cos = tt.splat %seqlen_ro : i32 -> tensor<8x1xi32> loc(#loc98)
    %cos_30 = arith.cmpi slt, %COS_21, %cos : tensor<8x1xi32> loc(#loc98)
    %cos_31 = tt.splat %rotary_dim_half : i32 -> tensor<1x64xi32> loc(#loc99)
    %cos_32 = arith.cmpi slt, %X_15, %cos_31 : tensor<1x64xi32> loc(#loc99)
    %cos_33 = tt.broadcast %cos_30 : tensor<8x1xi1> -> tensor<8x64xi1> loc(#loc100)
    %cos_34 = tt.broadcast %cos_32 : tensor<1x64xi1> -> tensor<8x64xi1> loc(#loc100)
    %cos_35 = arith.andi %cos_33, %cos_34 : tensor<8x64xi1> loc(#loc100)
    %cos_36 = tt.load %COS_27, %cos_35, %cst_0 : tensor<8x64x!tt.ptr<f16>> loc(#loc101)
    %cos_37 = arith.extf %cos_36 : tensor<8x64xf16> to tensor<8x64xf32> loc(#loc102)
    %sin = tt.load %SIN_29, %cos_35, %cst : tensor<8x64x!tt.ptr<f16>> loc(#loc103)
    %sin_38 = arith.extf %sin : tensor<8x64xf16> to tensor<8x64xf32> loc(#loc104)
    %x0 = tt.splat %seqlen : i32 -> tensor<8x1xi32> loc(#loc105)
    %x0_39 = arith.cmpi slt, %X_12, %x0 : tensor<8x1xi32> loc(#loc105)
    %x0_40 = tt.broadcast %x0_39 : tensor<8x1xi1> -> tensor<8x64xi1> loc(#loc106)
    %x0_41 = arith.andi %x0_40, %cos_34 : tensor<8x64xi1> loc(#loc106)
    %x0_42 = tt.load %X_20, %x0_41, %cst : tensor<8x64x!tt.ptr<f16>> loc(#loc107)
    %x0_43 = arith.extf %x0_42 : tensor<8x64xf16> to tensor<8x64xf32> loc(#loc108)
    %x1 = tt.splat %rotary_dim_half : i32 -> tensor<8x64xi32> loc(#loc109)
    %x1_44 = tt.addptr %X_20, %x1 : tensor<8x64x!tt.ptr<f16>>, tensor<8x64xi32> loc(#loc109)
    %x1_45 = tt.load %x1_44, %x0_41, %cst : tensor<8x64x!tt.ptr<f16>> loc(#loc110)
    %x1_46 = arith.extf %x1_45 : tensor<8x64xf16> to tensor<8x64xf32> loc(#loc111)
    %o0 = arith.mulf %x0_43, %cos_37 : tensor<8x64xf32> loc(#loc112)
    %o0_47 = arith.mulf %x1_46, %sin_38 : tensor<8x64xf32> loc(#loc113)
    %o0_48 = arith.subf %o0, %o0_47 : tensor<8x64xf32> loc(#loc114)
    %o1 = arith.mulf %x0_43, %sin_38 : tensor<8x64xf32> loc(#loc115)
    %o1_49 = arith.mulf %x1_46, %cos_37 : tensor<8x64xf32> loc(#loc116)
    %o1_50 = arith.addf %o1, %o1_49 : tensor<8x64xf32> loc(#loc117)
    %OUT_51 = tt.splat %stride_out_seqlen : i32 -> tensor<8x1xi32> loc(#loc118)
    %OUT_52 = arith.muli %X_12, %OUT_51 : tensor<8x1xi32> loc(#loc118)
    %OUT_53 = tt.broadcast %OUT_52 : tensor<8x1xi32> -> tensor<8x64xi32> loc(#loc119)
    %OUT_54 = arith.addi %OUT_53, %X_17 : tensor<8x64xi32> loc(#loc119)
    %OUT_55 = tt.splat %OUT_8 : !tt.ptr<f16> -> tensor<8x64x!tt.ptr<f16>> loc(#loc120)
    %OUT_56 = tt.addptr %OUT_55, %OUT_54 : tensor<8x64x!tt.ptr<f16>>, tensor<8x64xi32> loc(#loc120)
    %2 = arith.truncf %o0_48 : tensor<8x64xf32> to tensor<8x64xf16> loc(#loc54)
    tt.store %OUT_56, %2, %x0_41 : tensor<8x64x!tt.ptr<f16>> loc(#loc54)
    %3 = tt.addptr %OUT_56, %x1 : tensor<8x64x!tt.ptr<f16>>, tensor<8x64xi32> loc(#loc55)
    %4 = arith.truncf %o1_50 : tensor<8x64xf32> to tensor<8x64xf16> loc(#loc56)
    tt.store %3, %4, %x0_41 : tensor<8x64x!tt.ptr<f16>> loc(#loc56)
    tt.return loc(#loc57)
  } loc(#loc)
} loc(#loc)
#loc1 = loc(unknown)
#loc2 = loc("/usr/local/lib/python3.12/dist-packages/vllm/vllm_flash_attn/ops/triton/rotary.py":41:26)
#loc3 = loc("/usr/local/lib/python3.12/dist-packages/vllm/vllm_flash_attn/ops/triton/rotary.py":42:29)
#loc4 = loc("/usr/local/lib/python3.12/dist-packages/vllm/vllm_flash_attn/ops/triton/rotary.py":43:30)
#loc5 = loc("/usr/local/lib/python3.12/dist-packages/vllm/vllm_flash_attn/ops/triton/rotary.py":44:36)
#loc6 = loc("/usr/local/lib/python3.12/dist-packages/vllm/vllm_flash_attn/ops/triton/rotary.py":47:28)
#loc7 = loc("/usr/local/lib/python3.12/dist-packages/vllm/vllm_flash_attn/ops/triton/rotary.py":47:16)
#loc8 = loc("/usr/local/lib/python3.12/dist-packages/vllm/vllm_flash_attn/ops/triton/rotary.py":47:56)
#loc9 = loc("/usr/local/lib/python3.12/dist-packages/vllm/vllm_flash_attn/ops/triton/rotary.py":47:45)
#loc10 = loc("/usr/local/lib/python3.12/dist-packages/vllm/vllm_flash_attn/ops/triton/rotary.py":48:32)
#loc11 = loc("/usr/local/lib/python3.12/dist-packages/vllm/vllm_flash_attn/ops/triton/rotary.py":48:20)
#loc12 = loc("/usr/local/lib/python3.12/dist-packages/vllm/vllm_flash_attn/ops/triton/rotary.py":48:62)
#loc13 = loc("/usr/local/lib/python3.12/dist-packages/vllm/vllm_flash_attn/ops/triton/rotary.py":48:51)
#loc14 = loc("/usr/local/lib/python3.12/dist-packages/vllm/vllm_flash_attn/ops/triton/rotary.py":55:15)
#loc15 = loc("/usr/local/lib/python3.12/dist-packages/vllm/vllm_flash_attn/ops/triton/rotary.py":55:26)
#loc16 = loc("/usr/local/lib/python3.12/dist-packages/vllm/vllm_flash_attn/ops/triton/rotary.py":56:8)
#loc17 = loc("/usr/local/lib/python3.12/dist-packages/vllm/vllm_flash_attn/ops/triton/rotary.py":57:40)
#loc18 = loc("/usr/local/lib/python3.12/dist-packages/vllm/vllm_flash_attn/ops/triton/rotary.py":57:27)
#loc19 = loc("/usr/local/lib/python3.12/dist-packages/vllm/vllm_flash_attn/ops/triton/rotary.py":59:21)
#loc20 = loc("/usr/local/lib/python3.12/dist-packages/vllm/vllm_flash_attn/ops/triton/rotary.py":63:27)
#loc21 = loc("/usr/local/lib/python3.12/dist-packages/vllm/vllm_flash_attn/ops/triton/rotary.py":67:20)
#loc22 = loc("/usr/local/lib/python3.12/dist-packages/vllm/vllm_flash_attn/ops/triton/rotary.py":67:31)
#loc23 = loc("/usr/local/lib/python3.12/dist-packages/vllm/vllm_flash_attn/ops/triton/rotary.py":67:57)
#loc24 = loc("/usr/local/lib/python3.12/dist-packages/vllm/vllm_flash_attn/ops/triton/rotary.py":67:49)
#loc25 = loc("/usr/local/lib/python3.12/dist-packages/vllm/vllm_flash_attn/ops/triton/rotary.py":67:17)
#loc26 = loc("/usr/local/lib/python3.12/dist-packages/vllm/vllm_flash_attn/ops/triton/rotary.py":68:27)
#loc27 = loc("/usr/local/lib/python3.12/dist-packages/vllm/vllm_flash_attn/ops/triton/rotary.py":68:38)
#loc28 = loc("/usr/local/lib/python3.12/dist-packages/vllm/vllm_flash_attn/ops/triton/rotary.py":68:56)
#loc29 = loc("/usr/local/lib/python3.12/dist-packages/vllm/vllm_flash_attn/ops/triton/rotary.py":68:21)
#loc30 = loc("/usr/local/lib/python3.12/dist-packages/vllm/vllm_flash_attn/ops/triton/rotary.py":69:21)
#loc31 = loc("/usr/local/lib/python3.12/dist-packages/vllm/vllm_flash_attn/ops/triton/rotary.py":71:40)
#loc32 = loc("/usr/local/lib/python3.12/dist-packages/vllm/vllm_flash_attn/ops/triton/rotary.py":71:73)
#loc33 = loc("/usr/local/lib/python3.12/dist-packages/vllm/vllm_flash_attn/ops/triton/rotary.py":71:54)
#loc34 = loc("/usr/local/lib/python3.12/dist-packages/vllm/vllm_flash_attn/ops/triton/rotary.py":71:12)
#loc35 = loc("/usr/local/lib/python3.12/dist-packages/vllm/vllm_flash_attn/ops/triton/rotary.py":72:13)
#loc36 = loc("/usr/local/lib/python3.12/dist-packages/vllm/vllm_flash_attn/ops/triton/rotary.py":74:12)
#loc37 = loc("/usr/local/lib/python3.12/dist-packages/vllm/vllm_flash_attn/ops/triton/rotary.py":75:13)
#loc38 = loc("/usr/local/lib/python3.12/dist-packages/vllm/vllm_flash_attn/ops/triton/rotary.py":77:35)
#loc39 = loc("/usr/local/lib/python3.12/dist-packages/vllm/vllm_flash_attn/ops/triton/rotary.py":77:46)
#loc40 = loc("/usr/local/lib/python3.12/dist-packages/vllm/vllm_flash_attn/ops/triton/rotary.py":77:12)
#loc41 = loc("/usr/local/lib/python3.12/dist-packages/vllm/vllm_flash_attn/ops/triton/rotary.py":78:13)
#loc42 = loc("/usr/local/lib/python3.12/dist-packages/vllm/vllm_flash_attn/ops/triton/rotary.py":80:16)
#loc43 = loc("/usr/local/lib/python3.12/dist-packages/vllm/vllm_flash_attn/ops/triton/rotary.py":80:12)
#loc44 = loc("/usr/local/lib/python3.12/dist-packages/vllm/vllm_flash_attn/ops/triton/rotary.py":83:13)
#loc45 = loc("/usr/local/lib/python3.12/dist-packages/vllm/vllm_flash_attn/ops/triton/rotary.py":86:18)
#loc46 = loc("/usr/local/lib/python3.12/dist-packages/vllm/vllm_flash_attn/ops/triton/rotary.py":86:29)
#loc47 = loc("/usr/local/lib/python3.12/dist-packages/vllm/vllm_flash_attn/ops/triton/rotary.py":86:24)
#loc48 = loc("/usr/local/lib/python3.12/dist-packages/vllm/vllm_flash_attn/ops/triton/rotary.py":87:18)
#loc49 = loc("/usr/local/lib/python3.12/dist-packages/vllm/vllm_flash_attn/ops/triton/rotary.py":87:29)
#loc50 = loc("/usr/local/lib/python3.12/dist-packages/vllm/vllm_flash_attn/ops/triton/rotary.py":87:24)
#loc51 = loc("/usr/local/lib/python3.12/dist-packages/vllm/vllm_flash_attn/ops/triton/rotary.py":89:35)
#loc52 = loc("/usr/local/lib/python3.12/dist-packages/vllm/vllm_flash_attn/ops/triton/rotary.py":89:55)
#loc53 = loc("/usr/local/lib/python3.12/dist-packages/vllm/vllm_flash_attn/ops/triton/rotary.py":89:21)
#loc54 = loc("/usr/local/lib/python3.12/dist-packages/vllm/vllm_flash_attn/ops/triton/rotary.py":90:22)
#loc55 = loc("/usr/local/lib/python3.12/dist-packages/vllm/vllm_flash_attn/ops/triton/rotary.py":92:18)
#loc56 = loc("/usr/local/lib/python3.12/dist-packages/vllm/vllm_flash_attn/ops/triton/rotary.py":93:12)
#loc57 = loc("/usr/local/lib/python3.12/dist-packages/vllm/vllm_flash_attn/ops/triton/rotary.py":65:4)
#loc72 = loc("pid_m"(#loc2))
#loc73 = loc("pid_head"(#loc3))
#loc74 = loc("pid_batch"(#loc4))
#loc75 = loc("rotary_dim_half"(#loc5))
#loc76 = loc("X"(#loc6))
#loc77 = loc("X"(#loc7))
#loc78 = loc("X"(#loc8))
#loc79 = loc("X"(#loc9))
#loc80 = loc("OUT"(#loc10))
#loc81 = loc("OUT"(#loc11))
#loc82 = loc("OUT"(#loc12))
#loc83 = loc("OUT"(#loc13))
#loc84 = loc("rm"(#loc17))
#loc85 = loc("rm"(#loc18))
#loc86 = loc("rm_cs"(#loc19))
#loc87 = loc("rk_half"(#loc20))
#loc88 = loc("X"(#loc21))
#loc89 = loc("X"(#loc22))
#loc90 = loc("X"(#loc23))
#loc91 = loc("X"(#loc24))
#loc92 = loc("X"(#loc25))
#loc93 = loc("COS"(#loc26))
#loc94 = loc("COS"(#loc27))
#loc95 = loc("COS"(#loc28))
#loc96 = loc("COS"(#loc29))
#loc97 = loc("SIN"(#loc30))
#loc98 = loc("cos"(#loc31))
#loc99 = loc("cos"(#loc32))
#loc100 = loc("cos"(#loc33))
#loc101 = loc("cos"(#loc34))
#loc102 = loc("cos"(#loc35))
#loc103 = loc("sin"(#loc36))
#loc104 = loc("sin"(#loc37))
#loc105 = loc("x0"(#loc38))
#loc106 = loc("x0"(#loc39))
#loc107 = loc("x0"(#loc40))
#loc108 = loc("x0"(#loc41))
#loc109 = loc("x1"(#loc42))
#loc110 = loc("x1"(#loc43))
#loc111 = loc("x1"(#loc44))
#loc112 = loc("o0"(#loc45))
#loc113 = loc("o0"(#loc46))
#loc114 = loc("o0"(#loc47))
#loc115 = loc("o1"(#loc48))
#loc116 = loc("o1"(#loc49))
#loc117 = loc("o1"(#loc50))
#loc118 = loc("OUT"(#loc51))
#loc119 = loc("OUT"(#loc52))
#loc120 = loc("OUT"(#loc53))
