#loc = loc("/usr/local/lib/python3.12/dist-packages/vllm/model_executor/layers/fla/ops/fused_recurrent.py":256:0)
#loc129 = loc("/usr/local/lib/python3.12/dist-packages/triton/language/standard.py":287:0)
#loc131 = loc(unknown)
#loc134 = loc("/usr/local/lib/python3.12/dist-packages/triton/language/standard.py":262:0)
#loc138 = loc("/usr/local/lib/python3.12/dist-packages/triton/language/standard.py":49:0)
#loc145 = loc("mixed_qkv"(#loc))
#loc146 = loc("a"(#loc))
#loc147 = loc("b"(#loc))
#loc148 = loc("A_log"(#loc))
#loc149 = loc("dt_bias"(#loc))
#loc150 = loc("o"(#loc))
#loc151 = loc("h0"(#loc))
#loc152 = loc("ht"(#loc))
#loc153 = loc("ssm_state_indices"(#loc))
#loc154 = loc("scale"(#loc))
#loc268 = loc("input"(#loc129))
#loc269 = loc("a"(#loc134))
#loc270 = loc("b"(#loc134))
#loc271 = loc("x"(#loc138))
module {
  tt.func public @fused_recurrent_gated_delta_rule_packed_decode_kernel(%mixed_qkv: !tt.ptr<f16> {tt.divisibility = 16 : i32} loc("mixed_qkv"(#loc)), %a: !tt.ptr<f16> {tt.divisibility = 16 : i32} loc("a"(#loc)), %b: !tt.ptr<f16> {tt.divisibility = 16 : i32} loc("b"(#loc)), %A_log: !tt.ptr<f32> {tt.divisibility = 16 : i32} loc("A_log"(#loc)), %dt_bias: !tt.ptr<f16> {tt.divisibility = 16 : i32} loc("dt_bias"(#loc)), %o: !tt.ptr<f16> {tt.divisibility = 16 : i32} loc("o"(#loc)), %h0: !tt.ptr<f32> {tt.divisibility = 16 : i32} loc("h0"(#loc)), %ht: !tt.ptr<f32> {tt.divisibility = 16 : i32} loc("ht"(#loc)), %ssm_state_indices: !tt.ptr<i32> {tt.divisibility = 16 : i32} loc("ssm_state_indices"(#loc)), %scale: f32 loc("scale"(#loc))) attributes {noinline = false} {
    %0 = tt.get_program_id x : i32 loc(#loc1)
    %1 = tt.get_program_id y : i32 loc(#loc2)
    %c16_i32 = arith.constant 16 : i32 loc(#loc3)
    %c16_i32_0 = arith.constant 16 : i32 loc(#loc3)
    %2 = arith.divsi %1, %c16_i32_0 : i32 loc(#loc3)
    %c16_i32_1 = arith.constant 16 : i32 loc(#loc4)
    %c16_i32_2 = arith.constant 16 : i32 loc(#loc4)
    %3 = arith.remsi %1, %c16_i32_2 : i32 loc(#loc4)
    %i_h = arith.constant 2 : i32 loc(#loc155)
    %i_h_3 = arith.constant 2 : i32 loc(#loc155)
    %i_h_4 = arith.divsi %3, %i_h_3 : i32 loc(#loc155)
    %o_k = tt.make_range {end = 128 : i32, start = 0 : i32} : tensor<128xi32> loc(#loc156)
    %o_v = arith.constant 32 : i32 loc(#loc157)
    %o_v_5 = arith.constant 32 : i32 loc(#loc157)
    %o_v_6 = arith.extsi %0 : i32 to i64 loc(#loc157)
    %o_v_7 = arith.extsi %o_v_5 : i32 to i64 loc(#loc157)
    %o_v_8 = arith.muli %o_v_6, %o_v_7 : i64 loc(#loc157)
    %o_v_9 = arith.constant 2147483647 : i64 loc(#loc157)
    %o_v_10 = arith.constant -2147483648 : i64 loc(#loc157)
    %o_v_11 = arith.cmpi sle, %o_v_8, %o_v_9 : i64 loc(#loc157)
    %o_v_12 = arith.cmpi sge, %o_v_8, %o_v_10 : i64 loc(#loc157)
    %o_v_13 = arith.andi %o_v_11, %o_v_12 : i1 loc(#loc157)
    %o_v_14 = arith.muli %0, %o_v_5 : i32 loc(#loc157)
    %o_v_15 = tt.make_range {end = 32 : i32, start = 0 : i32} : tensor<32xi32> loc(#loc158)
    %o_v_16 = tt.splat %o_v_14 : i32 -> tensor<32xi32> loc(#loc159)
    %o_v_17 = arith.extsi %o_v_16 : tensor<32xi32> to tensor<32xi64> loc(#loc159)
    %o_v_18 = arith.extsi %o_v_15 : tensor<32xi32> to tensor<32xi64> loc(#loc159)
    %o_v_19 = arith.addi %o_v_17, %o_v_18 : tensor<32xi64> loc(#loc159)
    %o_v_20 = arith.constant 2147483647 : i64 loc(#loc159)
    %o_v_21 = arith.constant -2147483648 : i64 loc(#loc159)
    %o_v_22 = arith.constant dense<2147483647> : tensor<32xi64> loc(#loc159)
    %o_v_23 = arith.cmpi sle, %o_v_19, %o_v_22 : tensor<32xi64> loc(#loc159)
    %o_v_24 = arith.constant dense<-2147483648> : tensor<32xi64> loc(#loc159)
    %o_v_25 = arith.cmpi sge, %o_v_19, %o_v_24 : tensor<32xi64> loc(#loc159)
    %o_v_26 = arith.andi %o_v_23, %o_v_25 : tensor<32xi1> loc(#loc159)
    %o_v_27 = arith.addi %o_v_16, %o_v_15 : tensor<32xi32> loc(#loc159)
    %mask_k = arith.constant 128 : i32 loc(#loc160)
    %mask_k_28 = arith.constant dense<128> : tensor<128xi32> loc(#loc160)
    %mask_k_29 = arith.cmpi slt, %o_k, %mask_k_28 : tensor<128xi32> loc(#loc160)
    %mask_v = arith.constant 128 : i32 loc(#loc161)
    %mask_v_30 = arith.constant dense<128> : tensor<32xi32> loc(#loc161)
    %mask_v_31 = arith.cmpi slt, %o_v_27, %mask_v_30 : tensor<32xi32> loc(#loc161)
    %mask_h = tt.expand_dims %mask_v_31 {axis = 1 : i32} : tensor<32xi1> -> tensor<32x1xi1> loc(#loc162)
    %mask_h_32 = tt.expand_dims %mask_k_29 {axis = 0 : i32} : tensor<128xi1> -> tensor<1x128xi1> loc(#loc163)
    %mask_h_33 = tt.broadcast %mask_h : tensor<32x1xi1> -> tensor<32x128xi1> loc(#loc164)
    %mask_h_34 = tt.broadcast %mask_h_32 : tensor<1x128xi1> -> tensor<32x128xi1> loc(#loc164)
    %mask_h_35 = arith.andi %mask_h_33, %mask_h_34 : tensor<32x128xi1> loc(#loc164)
    %state_idx = arith.constant 1 : i32 loc(#loc165)
    %state_idx_36 = arith.constant 1 : i32 loc(#loc165)
    %state_idx_37 = arith.extsi %2 : i32 to i64 loc(#loc165)
    %state_idx_38 = arith.extsi %state_idx_36 : i32 to i64 loc(#loc165)
    %state_idx_39 = arith.muli %state_idx_37, %state_idx_38 : i64 loc(#loc165)
    %state_idx_40 = arith.constant 2147483647 : i64 loc(#loc165)
    %state_idx_41 = arith.constant -2147483648 : i64 loc(#loc165)
    %state_idx_42 = arith.cmpi sle, %state_idx_39, %state_idx_40 : i64 loc(#loc165)
    %state_idx_43 = arith.cmpi sge, %state_idx_39, %state_idx_41 : i64 loc(#loc165)
    %state_idx_44 = arith.andi %state_idx_42, %state_idx_43 : i1 loc(#loc165)
    %state_idx_45 = arith.muli %2, %state_idx_36 : i32 loc(#loc165)
    %state_idx_46 = tt.addptr %ssm_state_indices, %state_idx_45 : !tt.ptr<i32>, i32 loc(#loc166)
    %state_idx_47 = tt.load %state_idx_46 : !tt.ptr<i32> loc(#loc167)
    %state_idx_48 = arith.extsi %state_idx_47 : i32 to i64 loc(#loc168)
    %p_o = arith.constant 16 : i32 loc(#loc169)
    %p_o_49 = arith.constant 16 : i32 loc(#loc169)
    %p_o_50 = arith.extsi %2 : i32 to i64 loc(#loc169)
    %p_o_51 = arith.extsi %p_o_49 : i32 to i64 loc(#loc169)
    %p_o_52 = arith.muli %p_o_50, %p_o_51 : i64 loc(#loc169)
    %p_o_53 = arith.constant 2147483647 : i64 loc(#loc169)
    %p_o_54 = arith.constant -2147483648 : i64 loc(#loc169)
    %p_o_55 = arith.cmpi sle, %p_o_52, %p_o_53 : i64 loc(#loc169)
    %p_o_56 = arith.cmpi sge, %p_o_52, %p_o_54 : i64 loc(#loc169)
    %p_o_57 = arith.andi %p_o_55, %p_o_56 : i1 loc(#loc169)
    %p_o_58 = arith.muli %2, %p_o_49 : i32 loc(#loc169)
    %p_o_59 = arith.extsi %p_o_58 : i32 to i64 loc(#loc170)
    %p_o_60 = arith.extsi %3 : i32 to i64 loc(#loc170)
    %p_o_61 = arith.addi %p_o_59, %p_o_60 : i64 loc(#loc170)
    %p_o_62 = arith.constant 2147483647 : i64 loc(#loc170)
    %p_o_63 = arith.constant -2147483648 : i64 loc(#loc170)
    %p_o_64 = arith.cmpi sle, %p_o_61, %p_o_62 : i64 loc(#loc170)
    %p_o_65 = arith.cmpi sge, %p_o_61, %p_o_63 : i64 loc(#loc170)
    %p_o_66 = arith.andi %p_o_64, %p_o_65 : i1 loc(#loc170)
    %p_o_67 = arith.addi %p_o_58, %3 : i32 loc(#loc170)
    %p_o_68 = arith.constant 128 : i32 loc(#loc171)
    %p_o_69 = arith.constant 128 : i32 loc(#loc171)
    %p_o_70 = arith.extsi %p_o_67 : i32 to i64 loc(#loc171)
    %p_o_71 = arith.extsi %p_o_69 : i32 to i64 loc(#loc171)
    %p_o_72 = arith.muli %p_o_70, %p_o_71 : i64 loc(#loc171)
    %p_o_73 = arith.constant 2147483647 : i64 loc(#loc171)
    %p_o_74 = arith.constant -2147483648 : i64 loc(#loc171)
    %p_o_75 = arith.cmpi sle, %p_o_72, %p_o_73 : i64 loc(#loc171)
    %p_o_76 = arith.cmpi sge, %p_o_72, %p_o_74 : i64 loc(#loc171)
    %p_o_77 = arith.andi %p_o_75, %p_o_76 : i1 loc(#loc171)
    %p_o_78 = arith.muli %p_o_67, %p_o_69 : i32 loc(#loc171)
    %p_o_79 = tt.addptr %o, %p_o_78 : !tt.ptr<f16>, i32 loc(#loc172)
    %p_o_80 = tt.splat %p_o_79 : !tt.ptr<f16> -> tensor<32x!tt.ptr<f16>> loc(#loc173)
    %p_o_81 = tt.addptr %p_o_80, %o_v_27 : tensor<32x!tt.ptr<f16>>, tensor<32xi32> loc(#loc173)
    %c0_i32 = arith.constant 0 : i32 loc(#loc24)
    %4 = arith.extsi %c0_i32 : i32 to i64 loc(#loc24)
    %5 = arith.cmpi sle, %state_idx_48, %4 : i64 loc(#loc24)
    cf.cond_br %5, ^bb1, ^bb2 loc(#loc24)
  ^bb1:  // pred: ^bb0
    %zero = tt.call @"triton.language.standard.zeros____(0, 0)cconstexpr_32__(1,)cconstexpr_fp32_"() : () -> tensor<32xf32> loc(#loc174)
    %zero_82 = arith.truncf %zero : tensor<32xf32> to tensor<32xf16> loc(#loc175)
    tt.store %p_o_81, %zero_82, %mask_v_31 : tensor<32x!tt.ptr<f16>> loc(#loc27)
    tt.return loc(#loc28)
  ^bb2:  // pred: ^bb0
    cf.br ^bb4 loc(#loc)
  ^bb3:  // no predecessors
    cf.br ^bb4 loc(#loc)
  ^bb4:  // 2 preds: ^bb2, ^bb3
    %p_h0 = arith.constant 268288 : i32 loc(#loc176)
    %p_h0_83 = arith.constant 268288 : i64 loc(#loc176)
    %p_h0_84 = arith.muli %state_idx_48, %p_h0_83 : i64 loc(#loc176)
    %p_h0_85 = tt.addptr %h0, %p_h0_84 : !tt.ptr<f32>, i64 loc(#loc177)
    %p_h0_86 = arith.constant 128 : i32 loc(#loc178)
    %p_h0_87 = arith.constant 128 : i32 loc(#loc178)
    %p_h0_88 = arith.extsi %3 : i32 to i64 loc(#loc178)
    %p_h0_89 = arith.extsi %p_h0_87 : i32 to i64 loc(#loc178)
    %p_h0_90 = arith.muli %p_h0_88, %p_h0_89 : i64 loc(#loc178)
    %p_h0_91 = arith.constant 2147483647 : i64 loc(#loc178)
    %p_h0_92 = arith.constant -2147483648 : i64 loc(#loc178)
    %p_h0_93 = arith.cmpi sle, %p_h0_90, %p_h0_91 : i64 loc(#loc178)
    %p_h0_94 = arith.cmpi sge, %p_h0_90, %p_h0_92 : i64 loc(#loc178)
    %p_h0_95 = arith.andi %p_h0_93, %p_h0_94 : i1 loc(#loc178)
    %p_h0_96 = arith.muli %3, %p_h0_87 : i32 loc(#loc178)
    %p_h0_97 = arith.constant 128 : i32 loc(#loc179)
    %p_h0_98 = arith.constant 128 : i32 loc(#loc179)
    %p_h0_99 = arith.extsi %p_h0_96 : i32 to i64 loc(#loc179)
    %p_h0_100 = arith.extsi %p_h0_98 : i32 to i64 loc(#loc179)
    %p_h0_101 = arith.muli %p_h0_99, %p_h0_100 : i64 loc(#loc179)
    %p_h0_102 = arith.constant 2147483647 : i64 loc(#loc179)
    %p_h0_103 = arith.constant -2147483648 : i64 loc(#loc179)
    %p_h0_104 = arith.cmpi sle, %p_h0_101, %p_h0_102 : i64 loc(#loc179)
    %p_h0_105 = arith.cmpi sge, %p_h0_101, %p_h0_103 : i64 loc(#loc179)
    %p_h0_106 = arith.andi %p_h0_104, %p_h0_105 : i1 loc(#loc179)
    %p_h0_107 = arith.muli %p_h0_96, %p_h0_98 : i32 loc(#loc179)
    %p_h0_108 = tt.addptr %p_h0_85, %p_h0_107 : !tt.ptr<f32>, i32 loc(#loc180)
    %p_h0_109 = tt.expand_dims %o_v_27 {axis = 1 : i32} : tensor<32xi32> -> tensor<32x1xi32> loc(#loc181)
    %p_h0_110 = arith.constant 128 : i32 loc(#loc182)
    %p_h0_111 = arith.constant 128 : i32 loc(#loc182)
    %p_h0_112 = arith.constant dense<128> : tensor<32x1xi32> loc(#loc182)
    %p_h0_113 = arith.extsi %p_h0_109 : tensor<32x1xi32> to tensor<32x1xi64> loc(#loc182)
    %p_h0_114 = arith.extsi %p_h0_112 : tensor<32x1xi32> to tensor<32x1xi64> loc(#loc182)
    %p_h0_115 = arith.muli %p_h0_113, %p_h0_114 : tensor<32x1xi64> loc(#loc182)
    %p_h0_116 = arith.constant 2147483647 : i64 loc(#loc182)
    %p_h0_117 = arith.constant -2147483648 : i64 loc(#loc182)
    %p_h0_118 = arith.constant dense<2147483647> : tensor<32x1xi64> loc(#loc182)
    %p_h0_119 = arith.cmpi sle, %p_h0_115, %p_h0_118 : tensor<32x1xi64> loc(#loc182)
    %p_h0_120 = arith.constant dense<-2147483648> : tensor<32x1xi64> loc(#loc182)
    %p_h0_121 = arith.cmpi sge, %p_h0_115, %p_h0_120 : tensor<32x1xi64> loc(#loc182)
    %p_h0_122 = arith.andi %p_h0_119, %p_h0_121 : tensor<32x1xi1> loc(#loc182)
    %p_h0_123 = arith.muli %p_h0_109, %p_h0_112 : tensor<32x1xi32> loc(#loc182)
    %p_h0_124 = tt.splat %p_h0_108 : !tt.ptr<f32> -> tensor<32x1x!tt.ptr<f32>> loc(#loc183)
    %p_h0_125 = tt.addptr %p_h0_124, %p_h0_123 : tensor<32x1x!tt.ptr<f32>>, tensor<32x1xi32> loc(#loc183)
    %p_h0_126 = tt.expand_dims %o_k {axis = 0 : i32} : tensor<128xi32> -> tensor<1x128xi32> loc(#loc184)
    %p_h0_127 = tt.broadcast %p_h0_125 : tensor<32x1x!tt.ptr<f32>> -> tensor<32x128x!tt.ptr<f32>> loc(#loc185)
    %p_h0_128 = tt.broadcast %p_h0_126 : tensor<1x128xi32> -> tensor<32x128xi32> loc(#loc185)
    %p_h0_129 = tt.addptr %p_h0_127, %p_h0_128 : tensor<32x128x!tt.ptr<f32>>, tensor<32x128xi32> loc(#loc185)
    %b_h = arith.constant 0 : i32 loc(#loc186)
    %b_h_130 = arith.constant dense<0> : tensor<32x128xi32> loc(#loc186)
    %b_h_131 = arith.sitofp %b_h_130 : tensor<32x128xi32> to tensor<32x128xf32> loc(#loc186)
    %b_h_132 = tt.load %p_h0_129, %mask_h_35, %b_h_131 : tensor<32x128x!tt.ptr<f32>> loc(#loc186)
    %p_mixed = arith.constant 6144 : i32 loc(#loc187)
    %p_mixed_133 = arith.constant 6144 : i32 loc(#loc187)
    %p_mixed_134 = arith.extsi %2 : i32 to i64 loc(#loc187)
    %p_mixed_135 = arith.extsi %p_mixed_133 : i32 to i64 loc(#loc187)
    %p_mixed_136 = arith.muli %p_mixed_134, %p_mixed_135 : i64 loc(#loc187)
    %p_mixed_137 = arith.constant 2147483647 : i64 loc(#loc187)
    %p_mixed_138 = arith.constant -2147483648 : i64 loc(#loc187)
    %p_mixed_139 = arith.cmpi sle, %p_mixed_136, %p_mixed_137 : i64 loc(#loc187)
    %p_mixed_140 = arith.cmpi sge, %p_mixed_136, %p_mixed_138 : i64 loc(#loc187)
    %p_mixed_141 = arith.andi %p_mixed_139, %p_mixed_140 : i1 loc(#loc187)
    %p_mixed_142 = arith.muli %2, %p_mixed_133 : i32 loc(#loc187)
    %p_mixed_143 = tt.addptr %mixed_qkv, %p_mixed_142 : !tt.ptr<f16>, i32 loc(#loc188)
    %q_off = arith.constant 128 : i32 loc(#loc189)
    %q_off_144 = arith.constant 128 : i32 loc(#loc189)
    %q_off_145 = arith.extsi %i_h_4 : i32 to i64 loc(#loc189)
    %q_off_146 = arith.extsi %q_off_144 : i32 to i64 loc(#loc189)
    %q_off_147 = arith.muli %q_off_145, %q_off_146 : i64 loc(#loc189)
    %q_off_148 = arith.constant 2147483647 : i64 loc(#loc189)
    %q_off_149 = arith.constant -2147483648 : i64 loc(#loc189)
    %q_off_150 = arith.cmpi sle, %q_off_147, %q_off_148 : i64 loc(#loc189)
    %q_off_151 = arith.cmpi sge, %q_off_147, %q_off_149 : i64 loc(#loc189)
    %q_off_152 = arith.andi %q_off_150, %q_off_151 : i1 loc(#loc189)
    %q_off_153 = arith.muli %i_h_4, %q_off_144 : i32 loc(#loc189)
    %q_off_154 = tt.splat %q_off_153 : i32 -> tensor<128xi32> loc(#loc190)
    %q_off_155 = arith.extsi %q_off_154 : tensor<128xi32> to tensor<128xi64> loc(#loc190)
    %q_off_156 = arith.extsi %o_k : tensor<128xi32> to tensor<128xi64> loc(#loc190)
    %q_off_157 = arith.addi %q_off_155, %q_off_156 : tensor<128xi64> loc(#loc190)
    %q_off_158 = arith.constant 2147483647 : i64 loc(#loc190)
    %q_off_159 = arith.constant -2147483648 : i64 loc(#loc190)
    %q_off_160 = arith.constant dense<2147483647> : tensor<128xi64> loc(#loc190)
    %q_off_161 = arith.cmpi sle, %q_off_157, %q_off_160 : tensor<128xi64> loc(#loc190)
    %q_off_162 = arith.constant dense<-2147483648> : tensor<128xi64> loc(#loc190)
    %q_off_163 = arith.cmpi sge, %q_off_157, %q_off_162 : tensor<128xi64> loc(#loc190)
    %q_off_164 = arith.andi %q_off_161, %q_off_163 : tensor<128xi1> loc(#loc190)
    %q_off_165 = arith.addi %q_off_154, %o_k : tensor<128xi32> loc(#loc190)
    %k_off = arith.constant 128 : i32 loc(#loc191)
    %k_off_166 = arith.constant 128 : i32 loc(#loc191)
    %k_off_167 = arith.extsi %i_h_4 : i32 to i64 loc(#loc191)
    %k_off_168 = arith.extsi %k_off_166 : i32 to i64 loc(#loc191)
    %k_off_169 = arith.muli %k_off_167, %k_off_168 : i64 loc(#loc191)
    %k_off_170 = arith.constant 2147483647 : i64 loc(#loc191)
    %k_off_171 = arith.constant -2147483648 : i64 loc(#loc191)
    %k_off_172 = arith.cmpi sle, %k_off_169, %k_off_170 : i64 loc(#loc191)
    %k_off_173 = arith.cmpi sge, %k_off_169, %k_off_171 : i64 loc(#loc191)
    %k_off_174 = arith.andi %k_off_172, %k_off_173 : i1 loc(#loc191)
    %k_off_175 = arith.muli %i_h_4, %k_off_166 : i32 loc(#loc191)
    %k_off_176 = arith.constant 1024 : i32 loc(#loc192)
    %k_off_177 = arith.constant 1024 : i32 loc(#loc192)
    %k_off_178 = arith.extsi %k_off_177 : i32 to i64 loc(#loc192)
    %k_off_179 = arith.extsi %k_off_175 : i32 to i64 loc(#loc192)
    %k_off_180 = arith.addi %k_off_178, %k_off_179 : i64 loc(#loc192)
    %k_off_181 = arith.constant 2147483647 : i64 loc(#loc192)
    %k_off_182 = arith.constant -2147483648 : i64 loc(#loc192)
    %k_off_183 = arith.cmpi sle, %k_off_180, %k_off_181 : i64 loc(#loc192)
    %k_off_184 = arith.cmpi sge, %k_off_180, %k_off_182 : i64 loc(#loc192)
    %k_off_185 = arith.andi %k_off_183, %k_off_184 : i1 loc(#loc192)
    %k_off_186 = arith.addi %k_off_177, %k_off_175 : i32 loc(#loc192)
    %k_off_187 = tt.splat %k_off_186 : i32 -> tensor<128xi32> loc(#loc193)
    %k_off_188 = arith.extsi %k_off_187 : tensor<128xi32> to tensor<128xi64> loc(#loc193)
    %k_off_189 = arith.extsi %o_k : tensor<128xi32> to tensor<128xi64> loc(#loc193)
    %k_off_190 = arith.addi %k_off_188, %k_off_189 : tensor<128xi64> loc(#loc193)
    %k_off_191 = arith.constant 2147483647 : i64 loc(#loc193)
    %k_off_192 = arith.constant -2147483648 : i64 loc(#loc193)
    %k_off_193 = arith.constant dense<2147483647> : tensor<128xi64> loc(#loc193)
    %k_off_194 = arith.cmpi sle, %k_off_190, %k_off_193 : tensor<128xi64> loc(#loc193)
    %k_off_195 = arith.constant dense<-2147483648> : tensor<128xi64> loc(#loc193)
    %k_off_196 = arith.cmpi sge, %k_off_190, %k_off_195 : tensor<128xi64> loc(#loc193)
    %k_off_197 = arith.andi %k_off_194, %k_off_196 : tensor<128xi1> loc(#loc193)
    %k_off_198 = arith.addi %k_off_187, %o_k : tensor<128xi32> loc(#loc193)
    %v_off = arith.constant 128 : i32 loc(#loc194)
    %v_off_199 = arith.constant 128 : i32 loc(#loc194)
    %v_off_200 = arith.extsi %3 : i32 to i64 loc(#loc194)
    %v_off_201 = arith.extsi %v_off_199 : i32 to i64 loc(#loc194)
    %v_off_202 = arith.muli %v_off_200, %v_off_201 : i64 loc(#loc194)
    %v_off_203 = arith.constant 2147483647 : i64 loc(#loc194)
    %v_off_204 = arith.constant -2147483648 : i64 loc(#loc194)
    %v_off_205 = arith.cmpi sle, %v_off_202, %v_off_203 : i64 loc(#loc194)
    %v_off_206 = arith.cmpi sge, %v_off_202, %v_off_204 : i64 loc(#loc194)
    %v_off_207 = arith.andi %v_off_205, %v_off_206 : i1 loc(#loc194)
    %v_off_208 = arith.muli %3, %v_off_199 : i32 loc(#loc194)
    %v_off_209 = arith.constant 2048 : i32 loc(#loc195)
    %v_off_210 = arith.constant 2048 : i32 loc(#loc195)
    %v_off_211 = arith.extsi %v_off_210 : i32 to i64 loc(#loc195)
    %v_off_212 = arith.extsi %v_off_208 : i32 to i64 loc(#loc195)
    %v_off_213 = arith.addi %v_off_211, %v_off_212 : i64 loc(#loc195)
    %v_off_214 = arith.constant 2147483647 : i64 loc(#loc195)
    %v_off_215 = arith.constant -2147483648 : i64 loc(#loc195)
    %v_off_216 = arith.cmpi sle, %v_off_213, %v_off_214 : i64 loc(#loc195)
    %v_off_217 = arith.cmpi sge, %v_off_213, %v_off_215 : i64 loc(#loc195)
    %v_off_218 = arith.andi %v_off_216, %v_off_217 : i1 loc(#loc195)
    %v_off_219 = arith.addi %v_off_210, %v_off_208 : i32 loc(#loc195)
    %v_off_220 = tt.splat %v_off_219 : i32 -> tensor<32xi32> loc(#loc196)
    %v_off_221 = arith.extsi %v_off_220 : tensor<32xi32> to tensor<32xi64> loc(#loc196)
    %v_off_222 = arith.extsi %o_v_27 : tensor<32xi32> to tensor<32xi64> loc(#loc196)
    %v_off_223 = arith.addi %v_off_221, %v_off_222 : tensor<32xi64> loc(#loc196)
    %v_off_224 = arith.constant 2147483647 : i64 loc(#loc196)
    %v_off_225 = arith.constant -2147483648 : i64 loc(#loc196)
    %v_off_226 = arith.constant dense<2147483647> : tensor<32xi64> loc(#loc196)
    %v_off_227 = arith.cmpi sle, %v_off_223, %v_off_226 : tensor<32xi64> loc(#loc196)
    %v_off_228 = arith.constant dense<-2147483648> : tensor<32xi64> loc(#loc196)
    %v_off_229 = arith.cmpi sge, %v_off_223, %v_off_228 : tensor<32xi64> loc(#loc196)
    %v_off_230 = arith.andi %v_off_227, %v_off_229 : tensor<32xi1> loc(#loc196)
    %v_off_231 = arith.addi %v_off_220, %o_v_27 : tensor<32xi32> loc(#loc196)
    %b_q = tt.splat %p_mixed_143 : !tt.ptr<f16> -> tensor<128x!tt.ptr<f16>> loc(#loc197)
    %b_q_232 = tt.addptr %b_q, %q_off_165 : tensor<128x!tt.ptr<f16>>, tensor<128xi32> loc(#loc197)
    %b_q_233 = arith.constant 0 : i32 loc(#loc198)
    %b_q_234 = arith.constant dense<0> : tensor<128xi32> loc(#loc198)
    %b_q_235 = arith.sitofp %b_q_234 : tensor<128xi32> to tensor<128xf16> loc(#loc198)
    %b_q_236 = tt.load %b_q_232, %mask_k_29, %b_q_235 : tensor<128x!tt.ptr<f16>> loc(#loc198)
    %b_q_237 = arith.extf %b_q_236 : tensor<128xf16> to tensor<128xf32> loc(#loc199)
    %b_k = tt.splat %p_mixed_143 : !tt.ptr<f16> -> tensor<128x!tt.ptr<f16>> loc(#loc200)
    %b_k_238 = tt.addptr %b_k, %k_off_198 : tensor<128x!tt.ptr<f16>>, tensor<128xi32> loc(#loc200)
    %b_k_239 = arith.constant 0 : i32 loc(#loc201)
    %b_k_240 = arith.constant dense<0> : tensor<128xi32> loc(#loc201)
    %b_k_241 = arith.sitofp %b_k_240 : tensor<128xi32> to tensor<128xf16> loc(#loc201)
    %b_k_242 = tt.load %b_k_238, %mask_k_29, %b_k_241 : tensor<128x!tt.ptr<f16>> loc(#loc201)
    %b_k_243 = arith.extf %b_k_242 : tensor<128xf16> to tensor<128xf32> loc(#loc202)
    %b_v = tt.splat %p_mixed_143 : !tt.ptr<f16> -> tensor<32x!tt.ptr<f16>> loc(#loc203)
    %b_v_244 = tt.addptr %b_v, %v_off_231 : tensor<32x!tt.ptr<f16>>, tensor<32xi32> loc(#loc203)
    %b_v_245 = arith.constant 0 : i32 loc(#loc204)
    %b_v_246 = arith.constant dense<0> : tensor<32xi32> loc(#loc204)
    %b_v_247 = arith.sitofp %b_v_246 : tensor<32xi32> to tensor<32xf16> loc(#loc204)
    %b_v_248 = tt.load %b_v_244, %mask_v_31, %b_v_247 : tensor<32x!tt.ptr<f16>> loc(#loc204)
    %b_v_249 = arith.extf %b_v_248 : tensor<32xf16> to tensor<32xf32> loc(#loc205)
    %b_q_250 = arith.mulf %b_q_237, %b_q_237 : tensor<128xf32> loc(#loc206)
    %b_q_251 = tt.call @"triton.language.standard.sum__fp32S128S__(1,)cNone_(2,)cconstexpr_False__(3,)cNone"(%b_q_250) : (tensor<128xf32>) -> f32 loc(#loc207)
    %b_q_252 = arith.constant 9.99999997E-7 : f32 loc(#loc208)
    %b_q_253 = arith.constant 9.99999997E-7 : f32 loc(#loc208)
    %b_q_254 = arith.addf %b_q_251, %b_q_253 : f32 loc(#loc208)
    %b_q_255 = math.sqrt %b_q_254 : f32 loc(#loc209)
    %b_q_256 = tt.splat %b_q_255 : f32 -> tensor<128xf32> loc(#loc210)
    %b_q_257 = arith.divf %b_q_237, %b_q_256 : tensor<128xf32> loc(#loc210)
    %b_k_258 = arith.mulf %b_k_243, %b_k_243 : tensor<128xf32> loc(#loc211)
    %b_k_259 = tt.call @"triton.language.standard.sum__fp32S128S__(1,)cNone_(2,)cconstexpr_False__(3,)cNone"(%b_k_258) : (tensor<128xf32>) -> f32 loc(#loc212)
    %b_k_260 = arith.constant 9.99999997E-7 : f32 loc(#loc213)
    %b_k_261 = arith.constant 9.99999997E-7 : f32 loc(#loc213)
    %b_k_262 = arith.addf %b_k_259, %b_k_261 : f32 loc(#loc213)
    %b_k_263 = math.sqrt %b_k_262 : f32 loc(#loc214)
    %b_k_264 = tt.splat %b_k_263 : f32 -> tensor<128xf32> loc(#loc215)
    %b_k_265 = arith.divf %b_k_243, %b_k_264 : tensor<128xf32> loc(#loc215)
    %b_q_266 = tt.splat %scale : f32 -> tensor<128xf32> loc(#loc216)
    %b_q_267 = arith.mulf %b_q_257, %b_q_266 : tensor<128xf32> loc(#loc216)
    %a_val = arith.constant 16 : i32 loc(#loc217)
    %a_val_268 = arith.constant 16 : i32 loc(#loc217)
    %a_val_269 = arith.extsi %2 : i32 to i64 loc(#loc217)
    %a_val_270 = arith.extsi %a_val_268 : i32 to i64 loc(#loc217)
    %a_val_271 = arith.muli %a_val_269, %a_val_270 : i64 loc(#loc217)
    %a_val_272 = arith.constant 2147483647 : i64 loc(#loc217)
    %a_val_273 = arith.constant -2147483648 : i64 loc(#loc217)
    %a_val_274 = arith.cmpi sle, %a_val_271, %a_val_272 : i64 loc(#loc217)
    %a_val_275 = arith.cmpi sge, %a_val_271, %a_val_273 : i64 loc(#loc217)
    %a_val_276 = arith.andi %a_val_274, %a_val_275 : i1 loc(#loc217)
    %a_val_277 = arith.muli %2, %a_val_268 : i32 loc(#loc217)
    %a_val_278 = tt.addptr %a, %a_val_277 : !tt.ptr<f16>, i32 loc(#loc218)
    %a_val_279 = tt.addptr %a_val_278, %3 : !tt.ptr<f16>, i32 loc(#loc219)
    %a_val_280 = tt.load %a_val_279 : !tt.ptr<f16> loc(#loc220)
    %a_val_281 = arith.extf %a_val_280 : f16 to f32 loc(#loc221)
    %b_val = arith.constant 16 : i32 loc(#loc222)
    %b_val_282 = arith.constant 16 : i32 loc(#loc222)
    %b_val_283 = arith.extsi %2 : i32 to i64 loc(#loc222)
    %b_val_284 = arith.extsi %b_val_282 : i32 to i64 loc(#loc222)
    %b_val_285 = arith.muli %b_val_283, %b_val_284 : i64 loc(#loc222)
    %b_val_286 = arith.constant 2147483647 : i64 loc(#loc222)
    %b_val_287 = arith.constant -2147483648 : i64 loc(#loc222)
    %b_val_288 = arith.cmpi sle, %b_val_285, %b_val_286 : i64 loc(#loc222)
    %b_val_289 = arith.cmpi sge, %b_val_285, %b_val_287 : i64 loc(#loc222)
    %b_val_290 = arith.andi %b_val_288, %b_val_289 : i1 loc(#loc222)
    %b_val_291 = arith.muli %2, %b_val_282 : i32 loc(#loc222)
    %b_val_292 = tt.addptr %b, %b_val_291 : !tt.ptr<f16>, i32 loc(#loc223)
    %b_val_293 = tt.addptr %b_val_292, %3 : !tt.ptr<f16>, i32 loc(#loc224)
    %b_val_294 = tt.load %b_val_293 : !tt.ptr<f16> loc(#loc225)
    %b_val_295 = arith.extf %b_val_294 : f16 to f32 loc(#loc226)
    %A_log_val = tt.addptr %A_log, %3 : !tt.ptr<f32>, i32 loc(#loc227)
    %A_log_val_296 = tt.load %A_log_val : !tt.ptr<f32> loc(#loc228)
    %dt_bias_val = tt.addptr %dt_bias, %3 : !tt.ptr<f16>, i32 loc(#loc229)
    %dt_bias_val_297 = tt.load %dt_bias_val : !tt.ptr<f16> loc(#loc230)
    %dt_bias_val_298 = arith.extf %dt_bias_val_297 : f16 to f32 loc(#loc231)
    %x = arith.addf %a_val_281, %dt_bias_val_298 : f32 loc(#loc232)
    %softplus_x = arith.constant 2.000000e+01 : f32 loc(#loc233)
    %softplus_x_299 = arith.cmpf ole, %x, %softplus_x : f32 loc(#loc233)
    %softplus_x_300 = math.exp %x : f32 loc(#loc234)
    %softplus_x_301 = arith.constant 1.000000e+00 : f32 loc(#loc235)
    %softplus_x_302 = arith.constant 1.000000e+00 : f32 loc(#loc235)
    %softplus_x_303 = arith.addf %softplus_x_302, %softplus_x_300 : f32 loc(#loc235)
    %softplus_x_304 = math.log %softplus_x_303 : f32 loc(#loc236)
    %softplus_x_305 = arith.select %softplus_x_299, %softplus_x_304, %x : f32 loc(#loc237)
    %g_val = math.exp %A_log_val_296 : f32 loc(#loc238)
    %g_val_306 = arith.constant 0.000000e+00 : f32 loc(#loc239)
    %g_val_307 = arith.subf %g_val_306, %g_val : f32 loc(#loc239)
    %g_val_308 = arith.mulf %g_val_307, %softplus_x_305 : f32 loc(#loc240)
    %beta_val = tt.call @triton.language.standard.sigmoid__fp32__(%b_val_295) : (f32) -> f32 loc(#loc241)
    %beta_val_309 = arith.truncf %beta_val : f32 to f16 loc(#loc242)
    %beta_val_310 = arith.extf %beta_val_309 : f16 to f32 loc(#loc243)
    %b_h_311 = math.exp %g_val_308 : f32 loc(#loc244)
    %b_h_312 = tt.splat %b_h_311 : f32 -> tensor<32x128xf32> loc(#loc245)
    %b_h_313 = arith.mulf %b_h_132, %b_h_312 : tensor<32x128xf32> loc(#loc245)
    %b_v_314 = tt.expand_dims %b_k_265 {axis = 0 : i32} : tensor<128xf32> -> tensor<1x128xf32> loc(#loc246)
    %b_v_315 = tt.broadcast %b_v_314 : tensor<1x128xf32> -> tensor<32x128xf32> loc(#loc247)
    %b_v_316 = arith.mulf %b_h_313, %b_v_315 : tensor<32x128xf32> loc(#loc247)
    %b_v_317 = tt.call @"triton.language.standard.sum__fp32S32_128S__(1,)cconstexpr_1__(2,)cconstexpr_False__(3,)cNone"(%b_v_316) : (tensor<32x128xf32>) -> tensor<32xf32> loc(#loc248)
    %b_v_318 = arith.subf %b_v_249, %b_v_317 : tensor<32xf32> loc(#loc249)
    %b_v_319 = tt.splat %beta_val_310 : f32 -> tensor<32xf32> loc(#loc250)
    %b_v_320 = arith.mulf %b_v_318, %b_v_319 : tensor<32xf32> loc(#loc250)
    %b_h_321 = tt.expand_dims %b_v_320 {axis = 1 : i32} : tensor<32xf32> -> tensor<32x1xf32> loc(#loc251)
    %b_h_322 = tt.expand_dims %b_k_265 {axis = 0 : i32} : tensor<128xf32> -> tensor<1x128xf32> loc(#loc252)
    %b_h_323 = tt.broadcast %b_h_321 : tensor<32x1xf32> -> tensor<32x128xf32> loc(#loc253)
    %b_h_324 = tt.broadcast %b_h_322 : tensor<1x128xf32> -> tensor<32x128xf32> loc(#loc253)
    %b_h_325 = arith.mulf %b_h_323, %b_h_324 : tensor<32x128xf32> loc(#loc253)
    %b_h_326 = arith.addf %b_h_313, %b_h_325 : tensor<32x128xf32> loc(#loc254)
    %b_o = tt.expand_dims %b_q_267 {axis = 0 : i32} : tensor<128xf32> -> tensor<1x128xf32> loc(#loc255)
    %b_o_327 = tt.broadcast %b_o : tensor<1x128xf32> -> tensor<32x128xf32> loc(#loc256)
    %b_o_328 = arith.mulf %b_h_326, %b_o_327 : tensor<32x128xf32> loc(#loc256)
    %b_o_329 = tt.call @"triton.language.standard.sum__fp32S32_128S__(1,)cconstexpr_1__(2,)cconstexpr_False__(3,)cNone"(%b_o_328) : (tensor<32x128xf32>) -> tensor<32xf32> loc(#loc257)
    %6 = arith.truncf %b_o_329 : tensor<32xf32> to tensor<32xf16> loc(#loc111)
    tt.store %p_o_81, %6, %mask_v_31 : tensor<32x!tt.ptr<f16>> loc(#loc112)
    %p_ht = arith.constant 268288 : i32 loc(#loc258)
    %p_ht_330 = arith.constant 268288 : i64 loc(#loc258)
    %p_ht_331 = arith.muli %state_idx_48, %p_ht_330 : i64 loc(#loc258)
    %p_ht_332 = tt.addptr %ht, %p_ht_331 : !tt.ptr<f32>, i64 loc(#loc259)
    %p_ht_333 = arith.constant 128 : i32 loc(#loc260)
    %p_ht_334 = arith.constant 128 : i32 loc(#loc260)
    %p_ht_335 = arith.extsi %3 : i32 to i64 loc(#loc260)
    %p_ht_336 = arith.extsi %p_ht_334 : i32 to i64 loc(#loc260)
    %p_ht_337 = arith.muli %p_ht_335, %p_ht_336 : i64 loc(#loc260)
    %p_ht_338 = arith.constant 2147483647 : i64 loc(#loc260)
    %p_ht_339 = arith.constant -2147483648 : i64 loc(#loc260)
    %p_ht_340 = arith.cmpi sle, %p_ht_337, %p_ht_338 : i64 loc(#loc260)
    %p_ht_341 = arith.cmpi sge, %p_ht_337, %p_ht_339 : i64 loc(#loc260)
    %p_ht_342 = arith.andi %p_ht_340, %p_ht_341 : i1 loc(#loc260)
    %p_ht_343 = arith.muli %3, %p_ht_334 : i32 loc(#loc260)
    %p_ht_344 = arith.constant 128 : i32 loc(#loc261)
    %p_ht_345 = arith.constant 128 : i32 loc(#loc261)
    %p_ht_346 = arith.extsi %p_ht_343 : i32 to i64 loc(#loc261)
    %p_ht_347 = arith.extsi %p_ht_345 : i32 to i64 loc(#loc261)
    %p_ht_348 = arith.muli %p_ht_346, %p_ht_347 : i64 loc(#loc261)
    %p_ht_349 = arith.constant 2147483647 : i64 loc(#loc261)
    %p_ht_350 = arith.constant -2147483648 : i64 loc(#loc261)
    %p_ht_351 = arith.cmpi sle, %p_ht_348, %p_ht_349 : i64 loc(#loc261)
    %p_ht_352 = arith.cmpi sge, %p_ht_348, %p_ht_350 : i64 loc(#loc261)
    %p_ht_353 = arith.andi %p_ht_351, %p_ht_352 : i1 loc(#loc261)
    %p_ht_354 = arith.muli %p_ht_343, %p_ht_345 : i32 loc(#loc261)
    %p_ht_355 = tt.addptr %p_ht_332, %p_ht_354 : !tt.ptr<f32>, i32 loc(#loc262)
    %p_ht_356 = tt.expand_dims %o_v_27 {axis = 1 : i32} : tensor<32xi32> -> tensor<32x1xi32> loc(#loc263)
    %p_ht_357 = arith.constant 128 : i32 loc(#loc264)
    %p_ht_358 = arith.constant 128 : i32 loc(#loc264)
    %p_ht_359 = arith.constant dense<128> : tensor<32x1xi32> loc(#loc264)
    %p_ht_360 = arith.extsi %p_ht_356 : tensor<32x1xi32> to tensor<32x1xi64> loc(#loc264)
    %p_ht_361 = arith.extsi %p_ht_359 : tensor<32x1xi32> to tensor<32x1xi64> loc(#loc264)
    %p_ht_362 = arith.muli %p_ht_360, %p_ht_361 : tensor<32x1xi64> loc(#loc264)
    %p_ht_363 = arith.constant 2147483647 : i64 loc(#loc264)
    %p_ht_364 = arith.constant -2147483648 : i64 loc(#loc264)
    %p_ht_365 = arith.constant dense<2147483647> : tensor<32x1xi64> loc(#loc264)
    %p_ht_366 = arith.cmpi sle, %p_ht_362, %p_ht_365 : tensor<32x1xi64> loc(#loc264)
    %p_ht_367 = arith.constant dense<-2147483648> : tensor<32x1xi64> loc(#loc264)
    %p_ht_368 = arith.cmpi sge, %p_ht_362, %p_ht_367 : tensor<32x1xi64> loc(#loc264)
    %p_ht_369 = arith.andi %p_ht_366, %p_ht_368 : tensor<32x1xi1> loc(#loc264)
    %p_ht_370 = arith.muli %p_ht_356, %p_ht_359 : tensor<32x1xi32> loc(#loc264)
    %p_ht_371 = tt.splat %p_ht_355 : !tt.ptr<f32> -> tensor<32x1x!tt.ptr<f32>> loc(#loc265)
    %p_ht_372 = tt.addptr %p_ht_371, %p_ht_370 : tensor<32x1x!tt.ptr<f32>>, tensor<32x1xi32> loc(#loc265)
    %p_ht_373 = tt.expand_dims %o_k {axis = 0 : i32} : tensor<128xi32> -> tensor<1x128xi32> loc(#loc266)
    %p_ht_374 = tt.broadcast %p_ht_372 : tensor<32x1x!tt.ptr<f32>> -> tensor<32x128x!tt.ptr<f32>> loc(#loc267)
    %p_ht_375 = tt.broadcast %p_ht_373 : tensor<1x128xi32> -> tensor<32x128xi32> loc(#loc267)
    %p_ht_376 = tt.addptr %p_ht_374, %p_ht_375 : tensor<32x128x!tt.ptr<f32>>, tensor<32x128xi32> loc(#loc267)
    tt.store %p_ht_376, %b_h_326, %mask_h_35 : tensor<32x128x!tt.ptr<f32>> loc(#loc123)
    tt.return loc(#loc124)
  } loc(#loc)
  tt.func private @"triton.language.standard.zeros____(0, 0)cconstexpr_32__(1,)cconstexpr_fp32_"() -> tensor<32xf32> attributes {noinline = false} {
    %cst = arith.constant 0.000000e+00 : f32 loc(#loc126)
    %cst_0 = arith.constant dense<0.000000e+00> : tensor<32xf32> loc(#loc126)
    tt.return %cst_0 : tensor<32xf32> loc(#loc127)
  ^bb1:  // no predecessors
    %0 = ub.poison : tensor<32xf32> loc(#loc128)
    tt.return %0 : tensor<32xf32> loc(#loc128)
  } loc(#loc125)
  tt.func private @"triton.language.standard.sum__fp32S128S__(1,)cNone_(2,)cconstexpr_False__(3,)cNone"(%input: tensor<128xf32> loc("input"(#loc129))) -> f32 attributes {noinline = false} {
    %0 = tt.reshape %input allow_reorder : tensor<128xf32> -> tensor<128xf32> loc(#loc130)
    %1 = "tt.reduce"(%0) <{axis = 0 : i32}> ({
    ^bb0(%arg1: f32 loc(unknown), %arg2: f32 loc(unknown)):
      %3 = tt.call @triton.language.standard._sum_combine__fp32_fp32__(%arg1, %arg2) : (f32, f32) -> f32 loc(#loc130)
      tt.reduce.return %3 : f32 loc(#loc130)
    }) : (tensor<128xf32>) -> f32 loc(#loc130)
    tt.return %1 : f32 loc(#loc132)
  ^bb1:  // no predecessors
    %2 = ub.poison : f32 loc(#loc133)
    tt.return %2 : f32 loc(#loc133)
  } loc(#loc129)
  tt.func private @triton.language.standard._sum_combine__fp32_fp32__(%a: f32 loc("a"(#loc134)), %b: f32 loc("b"(#loc134))) -> f32 attributes {noinline = false} {
    %0 = arith.addf %a, %b : f32 loc(#loc135)
    tt.return %0 : f32 loc(#loc136)
  ^bb1:  // no predecessors
    %1 = ub.poison : f32 loc(#loc137)
    tt.return %1 : f32 loc(#loc137)
  } loc(#loc134)
  tt.func private @triton.language.standard.sigmoid__fp32__(%x: f32 loc("x"(#loc138))) -> f32 attributes {noinline = false} {
    %cst = arith.constant 0.000000e+00 : f32 loc(#loc139)
    %0 = arith.subf %cst, %x : f32 loc(#loc139)
    %1 = math.exp %0 : f32 loc(#loc140)
    %c1_i32 = arith.constant 1 : i32 loc(#loc141)
    %cst_0 = arith.constant 1.000000e+00 : f32 loc(#loc141)
    %2 = arith.addf %cst_0, %1 : f32 loc(#loc141)
    %c1_i32_1 = arith.constant 1 : i32 loc(#loc142)
    %cst_2 = arith.constant 1.000000e+00 : f32 loc(#loc142)
    %3 = arith.divf %cst_2, %2 : f32 loc(#loc142)
    tt.return %3 : f32 loc(#loc143)
  ^bb1:  // no predecessors
    %4 = ub.poison : f32 loc(#loc144)
    tt.return %4 : f32 loc(#loc144)
  } loc(#loc138)
  tt.func private @"triton.language.standard.sum__fp32S32_128S__(1,)cconstexpr_1__(2,)cconstexpr_False__(3,)cNone"(%input: tensor<32x128xf32> loc("input"(#loc129))) -> tensor<32xf32> attributes {noinline = false} {
    %0 = "tt.reduce"(%input) <{axis = 1 : i32}> ({
    ^bb0(%arg1: f32 loc(unknown), %arg2: f32 loc(unknown)):
      %2 = tt.call @triton.language.standard._sum_combine__fp32_fp32__(%arg1, %arg2) : (f32, f32) -> f32 loc(#loc130)
      tt.reduce.return %2 : f32 loc(#loc130)
    }) : (tensor<32x128xf32>) -> tensor<32xf32> loc(#loc130)
    tt.return %0 : tensor<32xf32> loc(#loc132)
  ^bb1:  // no predecessors
    %1 = ub.poison : tensor<32xf32> loc(#loc133)
    tt.return %1 : tensor<32xf32> loc(#loc133)
  } loc(#loc129)
} loc(#loc)
#loc1 = loc("/usr/local/lib/python3.12/dist-packages/vllm/model_executor/layers/fla/ops/fused_recurrent.py":282:30)
#loc2 = loc("/usr/local/lib/python3.12/dist-packages/vllm/model_executor/layers/fla/ops/fused_recurrent.py":282:48)
#loc3 = loc("/usr/local/lib/python3.12/dist-packages/vllm/model_executor/layers/fla/ops/fused_recurrent.py":283:24)
#loc4 = loc("/usr/local/lib/python3.12/dist-packages/vllm/model_executor/layers/fla/ops/fused_recurrent.py":283:35)
#loc5 = loc("/usr/local/lib/python3.12/dist-packages/vllm/model_executor/layers/fla/ops/fused_recurrent.py":284:19)
#loc6 = loc("/usr/local/lib/python3.12/dist-packages/vllm/model_executor/layers/fla/ops/fused_recurrent.py":286:23)
#loc7 = loc("/usr/local/lib/python3.12/dist-packages/vllm/model_executor/layers/fla/ops/fused_recurrent.py":287:16)
#loc8 = loc("/usr/local/lib/python3.12/dist-packages/vllm/model_executor/layers/fla/ops/fused_recurrent.py":287:34)
#loc9 = loc("/usr/local/lib/python3.12/dist-packages/vllm/model_executor/layers/fla/ops/fused_recurrent.py":287:21)
#loc10 = loc("/usr/local/lib/python3.12/dist-packages/vllm/model_executor/layers/fla/ops/fused_recurrent.py":288:19)
#loc11 = loc("/usr/local/lib/python3.12/dist-packages/vllm/model_executor/layers/fla/ops/fused_recurrent.py":289:19)
#loc12 = loc("/usr/local/lib/python3.12/dist-packages/vllm/model_executor/layers/fla/ops/fused_recurrent.py":290:20)
#loc13 = loc("/usr/local/lib/python3.12/dist-packages/vllm/model_executor/layers/fla/ops/fused_recurrent.py":290:38)
#loc14 = loc("/usr/local/lib/python3.12/dist-packages/vllm/model_executor/layers/fla/ops/fused_recurrent.py":290:31)
#loc15 = loc("/usr/local/lib/python3.12/dist-packages/vllm/model_executor/layers/fla/ops/fused_recurrent.py":292:50)
#loc16 = loc("/usr/local/lib/python3.12/dist-packages/vllm/model_executor/layers/fla/ops/fused_recurrent.py":292:44)
#loc17 = loc("/usr/local/lib/python3.12/dist-packages/vllm/model_executor/layers/fla/ops/fused_recurrent.py":292:24)
#loc18 = loc("/usr/local/lib/python3.12/dist-packages/vllm/model_executor/layers/fla/ops/fused_recurrent.py":292:73)
#loc19 = loc("/usr/local/lib/python3.12/dist-packages/vllm/model_executor/layers/fla/ops/fused_recurrent.py":293:21)
#loc20 = loc("/usr/local/lib/python3.12/dist-packages/vllm/model_executor/layers/fla/ops/fused_recurrent.py":293:26)
#loc21 = loc("/usr/local/lib/python3.12/dist-packages/vllm/model_executor/layers/fla/ops/fused_recurrent.py":293:34)
#loc22 = loc("/usr/local/lib/python3.12/dist-packages/vllm/model_executor/layers/fla/ops/fused_recurrent.py":293:14)
#loc23 = loc("/usr/local/lib/python3.12/dist-packages/vllm/model_executor/layers/fla/ops/fused_recurrent.py":293:38)
#loc24 = loc("/usr/local/lib/python3.12/dist-packages/vllm/model_executor/layers/fla/ops/fused_recurrent.py":296:20)
#loc25 = loc("/usr/local/lib/python3.12/dist-packages/vllm/model_executor/layers/fla/ops/fused_recurrent.py":297:24)
#loc26 = loc("/usr/local/lib/python3.12/dist-packages/vllm/model_executor/layers/fla/ops/fused_recurrent.py":297:51)
#loc27 = loc("/usr/local/lib/python3.12/dist-packages/vllm/model_executor/layers/fla/ops/fused_recurrent.py":298:22)
#loc28 = loc("/usr/local/lib/python3.12/dist-packages/vllm/model_executor/layers/fla/ops/fused_recurrent.py":299:8)
#loc29 = loc("/usr/local/lib/python3.12/dist-packages/vllm/model_executor/layers/fla/ops/fused_recurrent.py":301:28)
#loc30 = loc("/usr/local/lib/python3.12/dist-packages/vllm/model_executor/layers/fla/ops/fused_recurrent.py":301:16)
#loc31 = loc("/usr/local/lib/python3.12/dist-packages/vllm/model_executor/layers/fla/ops/fused_recurrent.py":302:25)
#loc32 = loc("/usr/local/lib/python3.12/dist-packages/vllm/model_executor/layers/fla/ops/fused_recurrent.py":302:29)
#loc33 = loc("/usr/local/lib/python3.12/dist-packages/vllm/model_executor/layers/fla/ops/fused_recurrent.py":302:18)
#loc34 = loc("/usr/local/lib/python3.12/dist-packages/vllm/model_executor/layers/fla/ops/fused_recurrent.py":302:37)
#loc35 = loc("/usr/local/lib/python3.12/dist-packages/vllm/model_executor/layers/fla/ops/fused_recurrent.py":302:48)
#loc36 = loc("/usr/local/lib/python3.12/dist-packages/vllm/model_executor/layers/fla/ops/fused_recurrent.py":302:33)
#loc37 = loc("/usr/local/lib/python3.12/dist-packages/vllm/model_executor/layers/fla/ops/fused_recurrent.py":302:56)
#loc38 = loc("/usr/local/lib/python3.12/dist-packages/vllm/model_executor/layers/fla/ops/fused_recurrent.py":302:52)
#loc39 = loc("/usr/local/lib/python3.12/dist-packages/vllm/model_executor/layers/fla/ops/fused_recurrent.py":303:18)
#loc40 = loc("/usr/local/lib/python3.12/dist-packages/vllm/model_executor/layers/fla/ops/fused_recurrent.py":305:32)
#loc41 = loc("/usr/local/lib/python3.12/dist-packages/vllm/model_executor/layers/fla/ops/fused_recurrent.py":305:26)
#loc42 = loc("/usr/local/lib/python3.12/dist-packages/vllm/model_executor/layers/fla/ops/fused_recurrent.py":306:18)
#loc43 = loc("/usr/local/lib/python3.12/dist-packages/vllm/model_executor/layers/fla/ops/fused_recurrent.py":306:22)
#loc44 = loc("/usr/local/lib/python3.12/dist-packages/vllm/model_executor/layers/fla/ops/fused_recurrent.py":307:28)
#loc45 = loc("/usr/local/lib/python3.12/dist-packages/vllm/model_executor/layers/fla/ops/fused_recurrent.py":307:22)
#loc46 = loc("/usr/local/lib/python3.12/dist-packages/vllm/model_executor/layers/fla/ops/fused_recurrent.py":307:32)
#loc47 = loc("/usr/local/lib/python3.12/dist-packages/vllm/model_executor/layers/fla/ops/fused_recurrent.py":308:33)
#loc48 = loc("/usr/local/lib/python3.12/dist-packages/vllm/model_executor/layers/fla/ops/fused_recurrent.py":308:26)
#loc49 = loc("/usr/local/lib/python3.12/dist-packages/vllm/model_executor/layers/fla/ops/fused_recurrent.py":308:37)
#loc50 = loc("/usr/local/lib/python3.12/dist-packages/vllm/model_executor/layers/fla/ops/fused_recurrent.py":309:28)
#loc51 = loc("/usr/local/lib/python3.12/dist-packages/vllm/model_executor/layers/fla/ops/fused_recurrent.py":309:18)
#loc52 = loc("/usr/local/lib/python3.12/dist-packages/vllm/model_executor/layers/fla/ops/fused_recurrent.py":309:60)
#loc53 = loc("/usr/local/lib/python3.12/dist-packages/vllm/model_executor/layers/fla/ops/fused_recurrent.py":310:28)
#loc54 = loc("/usr/local/lib/python3.12/dist-packages/vllm/model_executor/layers/fla/ops/fused_recurrent.py":310:18)
#loc55 = loc("/usr/local/lib/python3.12/dist-packages/vllm/model_executor/layers/fla/ops/fused_recurrent.py":310:60)
#loc56 = loc("/usr/local/lib/python3.12/dist-packages/vllm/model_executor/layers/fla/ops/fused_recurrent.py":311:28)
#loc57 = loc("/usr/local/lib/python3.12/dist-packages/vllm/model_executor/layers/fla/ops/fused_recurrent.py":311:18)
#loc58 = loc("/usr/local/lib/python3.12/dist-packages/vllm/model_executor/layers/fla/ops/fused_recurrent.py":311:60)
#loc59 = loc("/usr/local/lib/python3.12/dist-packages/vllm/model_executor/layers/fla/ops/fused_recurrent.py":314:41)
#loc60 = loc("/usr/local/lib/python3.12/dist-packages/vllm/model_executor/layers/fla/ops/fused_recurrent.py":314:35)
#loc61 = loc("/usr/local/lib/python3.12/dist-packages/vllm/model_executor/layers/fla/ops/fused_recurrent.py":314:48)
#loc62 = loc("/usr/local/lib/python3.12/dist-packages/vllm/model_executor/layers/fla/ops/fused_recurrent.py":314:28)
#loc63 = loc("/usr/local/lib/python3.12/dist-packages/vllm/model_executor/layers/fla/ops/fused_recurrent.py":314:20)
#loc64 = loc("/usr/local/lib/python3.12/dist-packages/vllm/model_executor/layers/fla/ops/fused_recurrent.py":315:41)
#loc65 = loc("/usr/local/lib/python3.12/dist-packages/vllm/model_executor/layers/fla/ops/fused_recurrent.py":315:35)
#loc66 = loc("/usr/local/lib/python3.12/dist-packages/vllm/model_executor/layers/fla/ops/fused_recurrent.py":315:48)
#loc67 = loc("/usr/local/lib/python3.12/dist-packages/vllm/model_executor/layers/fla/ops/fused_recurrent.py":315:28)
#loc68 = loc("/usr/local/lib/python3.12/dist-packages/vllm/model_executor/layers/fla/ops/fused_recurrent.py":315:20)
#loc69 = loc("/usr/local/lib/python3.12/dist-packages/vllm/model_executor/layers/fla/ops/fused_recurrent.py":316:16)
#loc70 = loc("/usr/local/lib/python3.12/dist-packages/vllm/model_executor/layers/fla/ops/fused_recurrent.py":318:30)
#loc71 = loc("/usr/local/lib/python3.12/dist-packages/vllm/model_executor/layers/fla/ops/fused_recurrent.py":318:24)
#loc72 = loc("/usr/local/lib/python3.12/dist-packages/vllm/model_executor/layers/fla/ops/fused_recurrent.py":318:45)
#loc73 = loc("/usr/local/lib/python3.12/dist-packages/vllm/model_executor/layers/fla/ops/fused_recurrent.py":318:20)
#loc74 = loc("/usr/local/lib/python3.12/dist-packages/vllm/model_executor/layers/fla/ops/fused_recurrent.py":318:54)
#loc75 = loc("/usr/local/lib/python3.12/dist-packages/vllm/model_executor/layers/fla/ops/fused_recurrent.py":319:30)
#loc76 = loc("/usr/local/lib/python3.12/dist-packages/vllm/model_executor/layers/fla/ops/fused_recurrent.py":319:24)
#loc77 = loc("/usr/local/lib/python3.12/dist-packages/vllm/model_executor/layers/fla/ops/fused_recurrent.py":319:45)
#loc78 = loc("/usr/local/lib/python3.12/dist-packages/vllm/model_executor/layers/fla/ops/fused_recurrent.py":319:20)
#loc79 = loc("/usr/local/lib/python3.12/dist-packages/vllm/model_executor/layers/fla/ops/fused_recurrent.py":319:54)
#loc80 = loc("/usr/local/lib/python3.12/dist-packages/vllm/model_executor/layers/fla/ops/fused_recurrent.py":320:32)
#loc81 = loc("/usr/local/lib/python3.12/dist-packages/vllm/model_executor/layers/fla/ops/fused_recurrent.py":320:24)
#loc82 = loc("/usr/local/lib/python3.12/dist-packages/vllm/model_executor/layers/fla/ops/fused_recurrent.py":321:36)
#loc83 = loc("/usr/local/lib/python3.12/dist-packages/vllm/model_executor/layers/fla/ops/fused_recurrent.py":321:26)
#loc84 = loc("/usr/local/lib/python3.12/dist-packages/vllm/model_executor/layers/fla/ops/fused_recurrent.py":321:45)
#loc85 = loc("/usr/local/lib/python3.12/dist-packages/vllm/model_executor/layers/fla/ops/fused_recurrent.py":322:16)
#loc86 = loc("/usr/local/lib/python3.12/dist-packages/vllm/model_executor/layers/fla/ops/fused_recurrent.py":323:31)
#loc87 = loc("/usr/local/lib/python3.12/dist-packages/vllm/model_executor/layers/fla/ops/fused_recurrent.py":323:71)
#loc88 = loc("/usr/local/lib/python3.12/dist-packages/vllm/model_executor/layers/fla/ops/fused_recurrent.py":323:64)
#loc89 = loc("/usr/local/lib/python3.12/dist-packages/vllm/model_executor/layers/fla/ops/fused_recurrent.py":323:58)
#loc90 = loc("/usr/local/lib/python3.12/dist-packages/vllm/model_executor/layers/fla/ops/fused_recurrent.py":323:76)
#loc91 = loc("/usr/local/lib/python3.12/dist-packages/vllm/model_executor/layers/fla/ops/fused_recurrent.py":324:20)
#loc92 = loc("/usr/local/lib/python3.12/dist-packages/vllm/model_executor/layers/fla/ops/fused_recurrent.py":324:13)
#loc93 = loc("/usr/local/lib/python3.12/dist-packages/vllm/model_executor/layers/fla/ops/fused_recurrent.py":324:33)
#loc94 = loc("/usr/local/lib/python3.12/dist-packages/vllm/model_executor/layers/fla/ops/fused_recurrent.py":325:26)
#loc95 = loc("/usr/local/lib/python3.12/dist-packages/vllm/model_executor/layers/fla/ops/fused_recurrent.py":325:36)
#loc96 = loc("/usr/local/lib/python3.12/dist-packages/vllm/model_executor/layers/fla/ops/fused_recurrent.py":325:59)
#loc97 = loc("/usr/local/lib/python3.12/dist-packages/vllm/model_executor/layers/fla/ops/fused_recurrent.py":327:15)
#loc98 = loc("/usr/local/lib/python3.12/dist-packages/vllm/model_executor/layers/fla/ops/fused_recurrent.py":327:11)
#loc99 = loc("/usr/local/lib/python3.12/dist-packages/vllm/model_executor/layers/fla/ops/fused_recurrent.py":328:28)
#loc100 = loc("/usr/local/lib/python3.12/dist-packages/vllm/model_executor/layers/fla/ops/fused_recurrent.py":328:24)
#loc101 = loc("/usr/local/lib/python3.12/dist-packages/vllm/model_executor/layers/fla/ops/fused_recurrent.py":328:38)
#loc102 = loc("/usr/local/lib/python3.12/dist-packages/vllm/model_executor/layers/fla/ops/fused_recurrent.py":328:11)
#loc103 = loc("/usr/local/lib/python3.12/dist-packages/vllm/model_executor/layers/fla/ops/fused_recurrent.py":329:11)
#loc104 = loc("/usr/local/lib/python3.12/dist-packages/vllm/model_executor/layers/fla/ops/fused_recurrent.py":330:15)
#loc105 = loc("/usr/local/lib/python3.12/dist-packages/vllm/model_executor/layers/fla/ops/fused_recurrent.py":330:30)
#loc106 = loc("/usr/local/lib/python3.12/dist-packages/vllm/model_executor/layers/fla/ops/fused_recurrent.py":330:26)
#loc107 = loc("/usr/local/lib/python3.12/dist-packages/vllm/model_executor/layers/fla/ops/fused_recurrent.py":330:11)
#loc108 = loc("/usr/local/lib/python3.12/dist-packages/vllm/model_executor/layers/fla/ops/fused_recurrent.py":331:27)
#loc109 = loc("/usr/local/lib/python3.12/dist-packages/vllm/model_executor/layers/fla/ops/fused_recurrent.py":331:23)
#loc110 = loc("/usr/local/lib/python3.12/dist-packages/vllm/model_executor/layers/fla/ops/fused_recurrent.py":331:37)
#loc111 = loc("/usr/local/lib/python3.12/dist-packages/vllm/model_executor/layers/fla/ops/fused_recurrent.py":332:25)
#loc112 = loc("/usr/local/lib/python3.12/dist-packages/vllm/model_executor/layers/fla/ops/fused_recurrent.py":332:18)
#loc113 = loc("/usr/local/lib/python3.12/dist-packages/vllm/model_executor/layers/fla/ops/fused_recurrent.py":334:28)
#loc114 = loc("/usr/local/lib/python3.12/dist-packages/vllm/model_executor/layers/fla/ops/fused_recurrent.py":334:16)
#loc115 = loc("/usr/local/lib/python3.12/dist-packages/vllm/model_executor/layers/fla/ops/fused_recurrent.py":335:25)
#loc116 = loc("/usr/local/lib/python3.12/dist-packages/vllm/model_executor/layers/fla/ops/fused_recurrent.py":335:29)
#loc117 = loc("/usr/local/lib/python3.12/dist-packages/vllm/model_executor/layers/fla/ops/fused_recurrent.py":335:18)
#loc118 = loc("/usr/local/lib/python3.12/dist-packages/vllm/model_executor/layers/fla/ops/fused_recurrent.py":335:37)
#loc119 = loc("/usr/local/lib/python3.12/dist-packages/vllm/model_executor/layers/fla/ops/fused_recurrent.py":335:48)
#loc120 = loc("/usr/local/lib/python3.12/dist-packages/vllm/model_executor/layers/fla/ops/fused_recurrent.py":335:33)
#loc121 = loc("/usr/local/lib/python3.12/dist-packages/vllm/model_executor/layers/fla/ops/fused_recurrent.py":335:56)
#loc122 = loc("/usr/local/lib/python3.12/dist-packages/vllm/model_executor/layers/fla/ops/fused_recurrent.py":335:52)
#loc123 = loc("/usr/local/lib/python3.12/dist-packages/vllm/model_executor/layers/fla/ops/fused_recurrent.py":336:19)
#loc124 = loc("/usr/local/lib/python3.12/dist-packages/vllm/model_executor/layers/fla/ops/fused_recurrent.py":336:4)
#loc125 = loc("/usr/local/lib/python3.12/dist-packages/triton/language/standard.py":120:0)
#loc126 = loc("/usr/local/lib/python3.12/dist-packages/triton/language/standard.py":129:31)
#loc127 = loc("/usr/local/lib/python3.12/dist-packages/triton/language/standard.py":129:11)
#loc128 = loc("/usr/local/lib/python3.12/dist-packages/triton/language/standard.py":129:4)
#loc130 = loc("/usr/local/lib/python3.12/dist-packages/triton/language/standard.py":293:36)
#loc132 = loc("/usr/local/lib/python3.12/dist-packages/triton/language/standard.py":293:11)
#loc133 = loc("/usr/local/lib/python3.12/dist-packages/triton/language/standard.py":293:4)
#loc135 = loc("/usr/local/lib/python3.12/dist-packages/triton/language/standard.py":263:15)
#loc136 = loc("/usr/local/lib/python3.12/dist-packages/triton/language/standard.py":263:11)
#loc137 = loc("/usr/local/lib/python3.12/dist-packages/triton/language/standard.py":263:4)
#loc139 = loc("/usr/local/lib/python3.12/dist-packages/triton/language/standard.py":50:30)
#loc140 = loc("/usr/local/lib/python3.12/dist-packages/triton/language/standard.py":50:29)
#loc141 = loc("/usr/local/lib/python3.12/dist-packages/triton/language/standard.py":50:20)
#loc142 = loc("/usr/local/lib/python3.12/dist-packages/triton/language/standard.py":50:16)
#loc143 = loc("/usr/local/lib/python3.12/dist-packages/triton/language/standard.py":50:11)
#loc144 = loc("/usr/local/lib/python3.12/dist-packages/triton/language/standard.py":50:4)
#loc155 = loc("i_h"(#loc5))
#loc156 = loc("o_k"(#loc6))
#loc157 = loc("o_v"(#loc7))
#loc158 = loc("o_v"(#loc8))
#loc159 = loc("o_v"(#loc9))
#loc160 = loc("mask_k"(#loc10))
#loc161 = loc("mask_v"(#loc11))
#loc162 = loc("mask_h"(#loc12))
#loc163 = loc("mask_h"(#loc13))
#loc164 = loc("mask_h"(#loc14))
#loc165 = loc("state_idx"(#loc15))
#loc166 = loc("state_idx"(#loc16))
#loc167 = loc("state_idx"(#loc17))
#loc168 = loc("state_idx"(#loc18))
#loc169 = loc("p_o"(#loc19))
#loc170 = loc("p_o"(#loc20))
#loc171 = loc("p_o"(#loc21))
#loc172 = loc("p_o"(#loc22))
#loc173 = loc("p_o"(#loc23))
#loc174 = loc("zero"(#loc25))
#loc175 = loc("zero"(#loc26))
#loc176 = loc("p_h0"(#loc29))
#loc177 = loc("p_h0"(#loc30))
#loc178 = loc("p_h0"(#loc31))
#loc179 = loc("p_h0"(#loc32))
#loc180 = loc("p_h0"(#loc33))
#loc181 = loc("p_h0"(#loc34))
#loc182 = loc("p_h0"(#loc35))
#loc183 = loc("p_h0"(#loc36))
#loc184 = loc("p_h0"(#loc37))
#loc185 = loc("p_h0"(#loc38))
#loc186 = loc("b_h"(#loc39))
#loc187 = loc("p_mixed"(#loc40))
#loc188 = loc("p_mixed"(#loc41))
#loc189 = loc("q_off"(#loc42))
#loc190 = loc("q_off"(#loc43))
#loc191 = loc("k_off"(#loc44))
#loc192 = loc("k_off"(#loc45))
#loc193 = loc("k_off"(#loc46))
#loc194 = loc("v_off"(#loc47))
#loc195 = loc("v_off"(#loc48))
#loc196 = loc("v_off"(#loc49))
#loc197 = loc("b_q"(#loc50))
#loc198 = loc("b_q"(#loc51))
#loc199 = loc("b_q"(#loc52))
#loc200 = loc("b_k"(#loc53))
#loc201 = loc("b_k"(#loc54))
#loc202 = loc("b_k"(#loc55))
#loc203 = loc("b_v"(#loc56))
#loc204 = loc("b_v"(#loc57))
#loc205 = loc("b_v"(#loc58))
#loc206 = loc("b_q"(#loc59))
#loc207 = loc("b_q"(#loc60))
#loc208 = loc("b_q"(#loc61))
#loc209 = loc("b_q"(#loc62))
#loc210 = loc("b_q"(#loc63))
#loc211 = loc("b_k"(#loc64))
#loc212 = loc("b_k"(#loc65))
#loc213 = loc("b_k"(#loc66))
#loc214 = loc("b_k"(#loc67))
#loc215 = loc("b_k"(#loc68))
#loc216 = loc("b_q"(#loc69))
#loc217 = loc("a_val"(#loc70))
#loc218 = loc("a_val"(#loc71))
#loc219 = loc("a_val"(#loc72))
#loc220 = loc("a_val"(#loc73))
#loc221 = loc("a_val"(#loc74))
#loc222 = loc("b_val"(#loc75))
#loc223 = loc("b_val"(#loc76))
#loc224 = loc("b_val"(#loc77))
#loc225 = loc("b_val"(#loc78))
#loc226 = loc("b_val"(#loc79))
#loc227 = loc("A_log_val"(#loc80))
#loc228 = loc("A_log_val"(#loc81))
#loc229 = loc("dt_bias_val"(#loc82))
#loc230 = loc("dt_bias_val"(#loc83))
#loc231 = loc("dt_bias_val"(#loc84))
#loc232 = loc("x"(#loc85))
#loc233 = loc("softplus_x"(#loc86))
#loc234 = loc("softplus_x"(#loc87))
#loc235 = loc("softplus_x"(#loc88))
#loc236 = loc("softplus_x"(#loc89))
#loc237 = loc("softplus_x"(#loc90))
#loc238 = loc("g_val"(#loc91))
#loc239 = loc("g_val"(#loc92))
#loc240 = loc("g_val"(#loc93))
#loc241 = loc("beta_val"(#loc94))
#loc242 = loc("beta_val"(#loc95))
#loc243 = loc("beta_val"(#loc96))
#loc244 = loc("b_h"(#loc97))
#loc245 = loc("b_h"(#loc98))
#loc246 = loc("b_v"(#loc99))
#loc247 = loc("b_v"(#loc100))
#loc248 = loc("b_v"(#loc101))
#loc249 = loc("b_v"(#loc102))
#loc250 = loc("b_v"(#loc103))
#loc251 = loc("b_h"(#loc104))
#loc252 = loc("b_h"(#loc105))
#loc253 = loc("b_h"(#loc106))
#loc254 = loc("b_h"(#loc107))
#loc255 = loc("b_o"(#loc108))
#loc256 = loc("b_o"(#loc109))
#loc257 = loc("b_o"(#loc110))
#loc258 = loc("p_ht"(#loc113))
#loc259 = loc("p_ht"(#loc114))
#loc260 = loc("p_ht"(#loc115))
#loc261 = loc("p_ht"(#loc116))
#loc262 = loc("p_ht"(#loc117))
#loc263 = loc("p_ht"(#loc118))
#loc264 = loc("p_ht"(#loc119))
#loc265 = loc("p_ht"(#loc120))
#loc266 = loc("p_ht"(#loc121))
#loc267 = loc("p_ht"(#loc122))
