#loc = loc("/usr/local/lib/python3.12/dist-packages/vllm/model_executor/layers/fla/ops/chunk_o.py":42:0)
#loc77 = loc("q"(#loc))
#loc78 = loc("k"(#loc))
#loc79 = loc("v"(#loc))
#loc80 = loc("h"(#loc))
#loc81 = loc("g"(#loc))
#loc82 = loc("o"(#loc))
#loc83 = loc("cu_seqlens"(#loc))
#loc84 = loc("chunk_indices"(#loc))
#loc85 = loc("scale"(#loc))
#loc86 = loc("T"(#loc))
module {
  tt.func public @chunk_fwd_kernel_o(%q: !tt.ptr<f16> {tt.divisibility = 16 : i32} loc("q"(#loc)), %k: !tt.ptr<f16> {tt.divisibility = 16 : i32} loc("k"(#loc)), %v: !tt.ptr<f16> {tt.divisibility = 16 : i32} loc("v"(#loc)), %h: !tt.ptr<f16> {tt.divisibility = 16 : i32} loc("h"(#loc)), %g: !tt.ptr<f32> {tt.divisibility = 16 : i32} loc("g"(#loc)), %o: !tt.ptr<f16> {tt.divisibility = 16 : i32} loc("o"(#loc)), %cu_seqlens: !tt.ptr<i32> {tt.divisibility = 16 : i32} loc("cu_seqlens"(#loc)), %chunk_indices: !tt.ptr<i32> {tt.divisibility = 16 : i32} loc("chunk_indices"(#loc)), %scale: f32 loc("scale"(#loc)), %T: i32 loc("T"(#loc))) attributes {noinline = false} {
    %cst = arith.constant dense<128> : tensor<1x64xi64> loc(#loc1)
    %cst_0 = arith.constant dense<2048> : tensor<64x1xi64> loc(#loc1)
    %b_g = arith.constant dense<0> : tensor<64xi64> loc(#loc87)
    %b_g_1 = arith.constant dense<16> : tensor<64xi64> loc(#loc87)
    %cst_2 = arith.constant dense<128> : tensor<64x1xi64> loc(#loc1)
    %cst_3 = arith.constant dense<0> : tensor<1x64xi64> loc(#loc1)
    %cst_4 = arith.constant dense<128> : tensor<32x1xi64> loc(#loc1)
    %cst_5 = arith.constant dense<0> : tensor<32x1xi64> loc(#loc1)
    %cst_6 = arith.constant dense<1024> : tensor<1x64xi64> loc(#loc1)
    %cst_7 = arith.constant dense<128> : tensor<1x32xi64> loc(#loc1)
    %cst_8 = arith.constant dense<0> : tensor<1x32xi64> loc(#loc1)
    %cst_9 = arith.constant dense<0> : tensor<64x1xi64> loc(#loc1)
    %cst_10 = arith.constant dense<1024> : tensor<64x1xi64> loc(#loc1)
    %c4_i32 = arith.constant 4 : i32 loc(#loc1)
    %c0_i32 = arith.constant 0 : i32 loc(#loc3)
    %h_11 = arith.constant 16384 : i64 loc(#loc88)
    %cst_12 = arith.constant dense<0.000000e+00> : tensor<64x64xf32> loc(#loc1)
    %c32_i32 = arith.constant 32 : i32 loc(#loc1)
    %c64_i32 = arith.constant 64 : i32 loc(#loc1)
    %c128_i32 = arith.constant 128 : i32 loc(#loc1)
    %c8_i32 = arith.constant 8 : i32 loc(#loc1)
    %c1_i32 = arith.constant 1 : i32 loc(#loc1)
    %c2_i32 = arith.constant 2 : i32 loc(#loc1)
    %c16_i32 = arith.constant 16 : i32 loc(#loc1)
    %0 = tt.get_program_id x : i32 loc(#loc5)
    %1 = tt.get_program_id y : i32 loc(#loc6)
    %2 = tt.get_program_id z : i32 loc(#loc7)
    %3 = arith.remsi %2, %c16_i32 : i32 loc(#loc8)
    %4 = arith.muli %1, %c2_i32 : i32 loc(#loc9)
    %5 = tt.addptr %chunk_indices, %4 : !tt.ptr<i32>, i32 loc(#loc10)
    %6 = tt.load %5 : !tt.ptr<i32> loc(#loc11)
    %7 = tt.addptr %5, %c1_i32 : !tt.ptr<i32>, i32 loc(#loc12)
    %8 = tt.load %7 : !tt.ptr<i32> loc(#loc13)
    %9 = tt.addptr %cu_seqlens, %6 : !tt.ptr<i32>, i32 loc(#loc14)
    %10 = tt.load %9 : !tt.ptr<i32> loc(#loc15)
    %11 = tt.addptr %9, %c1_i32 : !tt.ptr<i32>, i32 loc(#loc16)
    %12 = tt.load %11 : !tt.ptr<i32> loc(#loc17)
    %T_13 = arith.subi %12, %10 : i32 loc(#loc89)
    %q_14 = arith.muli %10, %c8_i32 : i32 loc(#loc90)
    %q_15 = arith.divsi %3, %c2_i32 : i32 loc(#loc91)
    %q_16 = arith.addi %q_14, %q_15 : i32 loc(#loc92)
    %q_17 = arith.muli %q_16, %c128_i32 : i32 loc(#loc93)
    %q_18 = tt.addptr %q, %q_17 : !tt.ptr<f16>, i32 loc(#loc94)
    %k_19 = tt.addptr %k, %q_17 : !tt.ptr<f16>, i32 loc(#loc95)
    %v_20 = arith.muli %10, %c16_i32 : i32 loc(#loc96)
    %v_21 = arith.addi %v_20, %3 : i32 loc(#loc97)
    %v_22 = arith.muli %v_21, %c128_i32 : i32 loc(#loc98)
    %v_23 = tt.addptr %v, %v_22 : !tt.ptr<f16>, i32 loc(#loc99)
    %o_24 = tt.addptr %o, %v_22 : !tt.ptr<f16>, i32 loc(#loc100)
    %h_25 = arith.muli %1, %c16_i32 : i32 loc(#loc101)
    %h_26 = arith.addi %h_25, %3 : i32 loc(#loc102)
    %h_27 = arith.extsi %h_26 : i32 to i64 loc(#loc103)
    %h_28 = arith.muli %h_27, %h_11 : i64 loc(#loc88)
    %h_29 = tt.addptr %h, %h_28 : !tt.ptr<f16>, i64 loc(#loc104)
    %b_A:2 = scf.for %i_k = %c0_i32 to %c4_i32 step %c1_i32 iter_args(%b_o_95 = %cst_12, %b_A_96 = %cst_12) -> (tensor<64x64xf32>, tensor<64x64xf32>)  : i32 {
      %p_q = arith.muli %8, %c64_i32 : i32 loc(#loc106)
      %p_q_97 = arith.muli %i_k, %c32_i32 : i32 loc(#loc107)
      %p_q_98 = arith.extsi %T_13 : i32 to i64 loc(#loc108)
      %p_q_99 = arith.extsi %p_q : i32 to i64 loc(#loc108)
      %p_q_100 = arith.extsi %p_q_97 : i32 to i64 loc(#loc108)
      %p_h = arith.muli %0, %c64_i32 : i32 loc(#loc109)
      %p_h_101 = arith.extsi %p_h : i32 to i64 loc(#loc110)
      %b_q = tt.splat %q_18 : !tt.ptr<f16> -> tensor<64x32x!tt.ptr<f16>> loc(#loc111)
      %b_q_102 = tt.splat %p_q_99 : i64 -> tensor<64xi64> loc(#loc111)
      %b_q_103 = tt.make_range {end = 64 : i32, start = 0 : i32} : tensor<64xi32> loc(#loc111)
      %b_q_104 = arith.extsi %b_q_103 : tensor<64xi32> to tensor<64xi64> loc(#loc111)
      %b_q_105 = arith.addi %b_q_102, %b_q_104 : tensor<64xi64> loc(#loc111)
      %b_q_106 = tt.expand_dims %b_q_105 {axis = 1 : i32} : tensor<64xi64> -> tensor<64x1xi64> loc(#loc111)
      %b_q_107 = arith.muli %b_q_106, %cst_10 : tensor<64x1xi64> loc(#loc111)
      %b_q_108 = tt.broadcast %b_q_107 : tensor<64x1xi64> -> tensor<64x32xi64> loc(#loc111)
      %b_q_109 = tt.splat %p_q_100 : i64 -> tensor<32xi64> loc(#loc111)
      %b_q_110 = tt.make_range {end = 32 : i32, start = 0 : i32} : tensor<32xi32> loc(#loc111)
      %b_q_111 = arith.extsi %b_q_110 : tensor<32xi32> to tensor<32xi64> loc(#loc111)
      %b_q_112 = arith.addi %b_q_109, %b_q_111 : tensor<32xi64> loc(#loc111)
      %b_q_113 = tt.expand_dims %b_q_112 {axis = 0 : i32} : tensor<32xi64> -> tensor<1x32xi64> loc(#loc111)
      %b_q_114 = tt.broadcast %b_q_113 : tensor<1x32xi64> -> tensor<64x32xi64> loc(#loc111)
      %b_q_115 = arith.addi %b_q_108, %b_q_114 : tensor<64x32xi64> loc(#loc111)
      %b_q_116 = tt.addptr %b_q, %b_q_115 : tensor<64x32x!tt.ptr<f16>>, tensor<64x32xi64> loc(#loc111)
      %b_q_117 = arith.cmpi sge, %b_q_106, %cst_9 : tensor<64x1xi64> loc(#loc111)
      %b_q_118 = tt.splat %p_q_98 : i64 -> tensor<64x1xi64> loc(#loc111)
      %b_q_119 = arith.cmpi slt, %b_q_106, %b_q_118 : tensor<64x1xi64> loc(#loc111)
      %b_q_120 = arith.andi %b_q_117, %b_q_119 : tensor<64x1xi1> loc(#loc111)
      %b_q_121 = tt.broadcast %b_q_120 : tensor<64x1xi1> -> tensor<64x32xi1> loc(#loc111)
      %b_q_122 = arith.cmpi sge, %b_q_113, %cst_8 : tensor<1x32xi64> loc(#loc111)
      %b_q_123 = arith.cmpi slt, %b_q_113, %cst_7 : tensor<1x32xi64> loc(#loc111)
      %b_q_124 = arith.andi %b_q_122, %b_q_123 : tensor<1x32xi1> loc(#loc111)
      %b_q_125 = tt.broadcast %b_q_124 : tensor<1x32xi1> -> tensor<64x32xi1> loc(#loc111)
      %b_q_126 = arith.andi %b_q_121, %b_q_125 : tensor<64x32xi1> loc(#loc111)
      %b_q_127 = tt.load %b_q_116, %b_q_126 : tensor<64x32x!tt.ptr<f16>> loc(#loc111)
      %b_k = tt.splat %k_19 : !tt.ptr<f16> -> tensor<32x64x!tt.ptr<f16>> loc(#loc112)
      %b_k_128 = tt.expand_dims %b_q_112 {axis = 1 : i32} : tensor<32xi64> -> tensor<32x1xi64> loc(#loc112)
      %b_k_129 = tt.broadcast %b_k_128 : tensor<32x1xi64> -> tensor<32x64xi64> loc(#loc112)
      %b_k_130 = tt.expand_dims %b_q_105 {axis = 0 : i32} : tensor<64xi64> -> tensor<1x64xi64> loc(#loc112)
      %b_k_131 = arith.muli %b_k_130, %cst_6 : tensor<1x64xi64> loc(#loc112)
      %b_k_132 = tt.broadcast %b_k_131 : tensor<1x64xi64> -> tensor<32x64xi64> loc(#loc112)
      %b_k_133 = arith.addi %b_k_129, %b_k_132 : tensor<32x64xi64> loc(#loc112)
      %b_k_134 = tt.addptr %b_k, %b_k_133 : tensor<32x64x!tt.ptr<f16>>, tensor<32x64xi64> loc(#loc112)
      %b_k_135 = arith.cmpi sge, %b_k_128, %cst_5 : tensor<32x1xi64> loc(#loc112)
      %b_k_136 = arith.cmpi slt, %b_k_128, %cst_4 : tensor<32x1xi64> loc(#loc112)
      %b_k_137 = arith.andi %b_k_135, %b_k_136 : tensor<32x1xi1> loc(#loc112)
      %b_k_138 = tt.broadcast %b_k_137 : tensor<32x1xi1> -> tensor<32x64xi1> loc(#loc112)
      %b_k_139 = arith.cmpi sge, %b_k_130, %cst_3 : tensor<1x64xi64> loc(#loc112)
      %b_k_140 = tt.splat %p_q_98 : i64 -> tensor<1x64xi64> loc(#loc112)
      %b_k_141 = arith.cmpi slt, %b_k_130, %b_k_140 : tensor<1x64xi64> loc(#loc112)
      %b_k_142 = arith.andi %b_k_139, %b_k_141 : tensor<1x64xi1> loc(#loc112)
      %b_k_143 = tt.broadcast %b_k_142 : tensor<1x64xi1> -> tensor<32x64xi1> loc(#loc112)
      %b_k_144 = arith.andi %b_k_138, %b_k_143 : tensor<32x64xi1> loc(#loc112)
      %b_k_145 = tt.load %b_k_134, %b_k_144 : tensor<32x64x!tt.ptr<f16>> loc(#loc112)
      %b_h = tt.splat %h_29 : !tt.ptr<f16> -> tensor<64x32x!tt.ptr<f16>> loc(#loc113)
      %b_h_146 = tt.splat %p_h_101 : i64 -> tensor<64xi64> loc(#loc113)
      %b_h_147 = arith.addi %b_h_146, %b_q_104 : tensor<64xi64> loc(#loc113)
      %b_h_148 = tt.expand_dims %b_h_147 {axis = 1 : i32} : tensor<64xi64> -> tensor<64x1xi64> loc(#loc113)
      %b_h_149 = arith.muli %b_h_148, %cst_2 : tensor<64x1xi64> loc(#loc113)
      %b_h_150 = tt.broadcast %b_h_149 : tensor<64x1xi64> -> tensor<64x32xi64> loc(#loc113)
      %b_h_151 = arith.addi %b_h_150, %b_q_114 : tensor<64x32xi64> loc(#loc113)
      %b_h_152 = tt.addptr %b_h, %b_h_151 : tensor<64x32x!tt.ptr<f16>>, tensor<64x32xi64> loc(#loc113)
      %b_h_153 = arith.cmpi sge, %b_h_148, %cst_9 : tensor<64x1xi64> loc(#loc113)
      %b_h_154 = arith.cmpi slt, %b_h_148, %cst_2 : tensor<64x1xi64> loc(#loc113)
      %b_h_155 = arith.andi %b_h_153, %b_h_154 : tensor<64x1xi1> loc(#loc113)
      %b_h_156 = tt.broadcast %b_h_155 : tensor<64x1xi1> -> tensor<64x32xi1> loc(#loc113)
      %b_h_157 = arith.andi %b_h_156, %b_q_125 : tensor<64x32xi1> loc(#loc113)
      %b_h_158 = tt.load %b_h_152, %b_h_157 : tensor<64x32x!tt.ptr<f16>> loc(#loc113)
      %b_o_159 = tt.trans %b_h_158 {order = array<i32: 1, 0>} : tensor<64x32xf16> -> tensor<32x64xf16> loc(#loc114)
      %b_o_160 = tt.dot %b_q_127, %b_o_159, %b_o_95, inputPrecision = tf32 : tensor<64x32xf16> * tensor<32x64xf16> -> tensor<64x64xf32> loc(#loc115)
      %b_A_161 = tt.dot %b_q_127, %b_k_145, %b_A_96, inputPrecision = tf32 : tensor<64x32xf16> * tensor<32x64xf16> -> tensor<64x64xf32> loc(#loc116)
      scf.yield %b_o_160, %b_A_161 : tensor<64x64xf32>, tensor<64x64xf32> loc(#loc45)
    } loc(#loc145)
    %g_30 = tt.addptr %g, %v_21 : !tt.ptr<f32>, i32 loc(#loc117)
    %p_g = arith.muli %8, %c64_i32 : i32 loc(#loc118)
    %p_g_31 = arith.extsi %T_13 : i32 to i64 loc(#loc119)
    %p_g_32 = arith.extsi %p_g : i32 to i64 loc(#loc119)
    %b_g_33 = tt.splat %g_30 : !tt.ptr<f32> -> tensor<64x!tt.ptr<f32>> loc(#loc87)
    %b_g_34 = tt.splat %p_g_32 : i64 -> tensor<64xi64> loc(#loc87)
    %b_g_35 = tt.make_range {end = 64 : i32, start = 0 : i32} : tensor<64xi32> loc(#loc87)
    %b_g_36 = arith.extsi %b_g_35 : tensor<64xi32> to tensor<64xi64> loc(#loc87)
    %b_g_37 = arith.addi %b_g_34, %b_g_36 : tensor<64xi64> loc(#loc87)
    %b_g_38 = arith.muli %b_g_37, %b_g_1 : tensor<64xi64> loc(#loc87)
    %b_g_39 = tt.addptr %b_g_33, %b_g_38 : tensor<64x!tt.ptr<f32>>, tensor<64xi64> loc(#loc87)
    %b_g_40 = arith.cmpi sge, %b_g_37, %b_g : tensor<64xi64> loc(#loc87)
    %b_g_41 = tt.splat %p_g_31 : i64 -> tensor<64xi64> loc(#loc87)
    %b_g_42 = arith.cmpi slt, %b_g_37, %b_g_41 : tensor<64xi64> loc(#loc87)
    %b_g_43 = arith.andi %b_g_40, %b_g_42 : tensor<64xi1> loc(#loc87)
    %b_g_44 = tt.load %b_g_39, %b_g_43 : tensor<64x!tt.ptr<f32>> loc(#loc87)
    %b_o = math.exp %b_g_44 : tensor<64xf32> loc(#loc120)
    %b_o_45 = tt.expand_dims %b_o {axis = 1 : i32} : tensor<64xf32> -> tensor<64x1xf32> loc(#loc121)
    %b_o_46 = tt.broadcast %b_o_45 : tensor<64x1xf32> -> tensor<64x64xf32> loc(#loc122)
    %b_o_47 = arith.mulf %b_A#0, %b_o_46 : tensor<64x64xf32> loc(#loc122)
    %b_A_48 = tt.expand_dims %b_g_44 {axis = 1 : i32} : tensor<64xf32> -> tensor<64x1xf32> loc(#loc123)
    %b_A_49 = tt.expand_dims %b_g_44 {axis = 0 : i32} : tensor<64xf32> -> tensor<1x64xf32> loc(#loc124)
    %b_A_50 = tt.broadcast %b_A_48 : tensor<64x1xf32> -> tensor<64x64xf32> loc(#loc125)
    %b_A_51 = tt.broadcast %b_A_49 : tensor<1x64xf32> -> tensor<64x64xf32> loc(#loc125)
    %b_A_52 = arith.subf %b_A_50, %b_A_51 : tensor<64x64xf32> loc(#loc125)
    %b_A_53 = math.exp %b_A_52 : tensor<64x64xf32> loc(#loc126)
    %b_A_54 = arith.mulf %b_A#1, %b_A_53 : tensor<64x64xf32> loc(#loc127)
    %o_t = tt.splat %p_g : i32 -> tensor<64xi32> loc(#loc128)
    %o_t_55 = arith.addi %o_t, %b_g_35 : tensor<64xi32> loc(#loc128)
    %m_t = tt.splat %T_13 : i32 -> tensor<64xi32> loc(#loc129)
    %m_t_56 = arith.cmpi slt, %o_t_55, %m_t : tensor<64xi32> loc(#loc129)
    %m_A = tt.expand_dims %o_t_55 {axis = 1 : i32} : tensor<64xi32> -> tensor<64x1xi32> loc(#loc130)
    %m_A_57 = tt.expand_dims %o_t_55 {axis = 0 : i32} : tensor<64xi32> -> tensor<1x64xi32> loc(#loc131)
    %m_A_58 = tt.broadcast %m_A : tensor<64x1xi32> -> tensor<64x64xi32> loc(#loc132)
    %m_A_59 = tt.broadcast %m_A_57 : tensor<1x64xi32> -> tensor<64x64xi32> loc(#loc132)
    %m_A_60 = arith.cmpi sge, %m_A_58, %m_A_59 : tensor<64x64xi32> loc(#loc132)
    %m_A_61 = tt.expand_dims %m_t_56 {axis = 1 : i32} : tensor<64xi1> -> tensor<64x1xi1> loc(#loc133)
    %m_A_62 = tt.expand_dims %m_t_56 {axis = 0 : i32} : tensor<64xi1> -> tensor<1x64xi1> loc(#loc134)
    %m_A_63 = tt.broadcast %m_A_61 : tensor<64x1xi1> -> tensor<64x64xi1> loc(#loc134)
    %m_A_64 = tt.broadcast %m_A_62 : tensor<1x64xi1> -> tensor<64x64xi1> loc(#loc134)
    %m_A_65 = arith.andi %m_A_63, %m_A_64 : tensor<64x64xi1> loc(#loc134)
    %m_A_66 = arith.andi %m_A_60, %m_A_65 : tensor<64x64xi1> loc(#loc135)
    %b_A_67 = arith.select %m_A_66, %b_A_54, %cst_12 : tensor<64x64xi1>, tensor<64x64xf32> loc(#loc136)
    %p_v = arith.muli %0, %c64_i32 : i32 loc(#loc137)
    %p_v_68 = arith.extsi %p_v : i32 to i64 loc(#loc138)
    %b_v = tt.splat %v_23 : !tt.ptr<f16> -> tensor<64x64x!tt.ptr<f16>> loc(#loc139)
    %b_v_69 = tt.expand_dims %b_g_37 {axis = 1 : i32} : tensor<64xi64> -> tensor<64x1xi64> loc(#loc139)
    %b_v_70 = arith.muli %b_v_69, %cst_0 : tensor<64x1xi64> loc(#loc139)
    %b_v_71 = tt.broadcast %b_v_70 : tensor<64x1xi64> -> tensor<64x64xi64> loc(#loc139)
    %b_v_72 = tt.splat %p_v_68 : i64 -> tensor<64xi64> loc(#loc139)
    %b_v_73 = arith.addi %b_v_72, %b_g_36 : tensor<64xi64> loc(#loc139)
    %b_v_74 = tt.expand_dims %b_v_73 {axis = 0 : i32} : tensor<64xi64> -> tensor<1x64xi64> loc(#loc139)
    %b_v_75 = tt.broadcast %b_v_74 : tensor<1x64xi64> -> tensor<64x64xi64> loc(#loc139)
    %b_v_76 = arith.addi %b_v_71, %b_v_75 : tensor<64x64xi64> loc(#loc139)
    %b_v_77 = tt.addptr %b_v, %b_v_76 : tensor<64x64x!tt.ptr<f16>>, tensor<64x64xi64> loc(#loc139)
    %b_v_78 = arith.cmpi sge, %b_v_69, %cst_9 : tensor<64x1xi64> loc(#loc139)
    %b_v_79 = tt.splat %p_g_31 : i64 -> tensor<64x1xi64> loc(#loc139)
    %b_v_80 = arith.cmpi slt, %b_v_69, %b_v_79 : tensor<64x1xi64> loc(#loc139)
    %b_v_81 = arith.andi %b_v_78, %b_v_80 : tensor<64x1xi1> loc(#loc139)
    %b_v_82 = tt.broadcast %b_v_81 : tensor<64x1xi1> -> tensor<64x64xi1> loc(#loc139)
    %b_v_83 = arith.cmpi sge, %b_v_74, %cst_3 : tensor<1x64xi64> loc(#loc139)
    %b_v_84 = arith.cmpi slt, %b_v_74, %cst : tensor<1x64xi64> loc(#loc139)
    %b_v_85 = arith.andi %b_v_83, %b_v_84 : tensor<1x64xi1> loc(#loc139)
    %b_v_86 = tt.broadcast %b_v_85 : tensor<1x64xi1> -> tensor<64x64xi1> loc(#loc139)
    %b_v_87 = arith.andi %b_v_82, %b_v_86 : tensor<64x64xi1> loc(#loc139)
    %b_v_88 = tt.load %b_v_77, %b_v_87 : tensor<64x64x!tt.ptr<f16>> loc(#loc139)
    %b_o_89 = tt.splat %scale : f32 -> tensor<64x64xf32> loc(#loc140)
    %b_o_90 = arith.mulf %b_o_47, %b_o_89 : tensor<64x64xf32> loc(#loc140)
    %b_o_91 = arith.truncf %b_A_67 : tensor<64x64xf32> to tensor<64x64xf16> loc(#loc141)
    %b_o_92 = tt.dot %b_o_91, %b_v_88, %cst_12, inputPrecision = tf32 : tensor<64x64xf16> * tensor<64x64xf16> -> tensor<64x64xf32> loc(#loc142)
    %b_o_93 = arith.mulf %b_o_92, %b_o_89 : tensor<64x64xf32> loc(#loc143)
    %b_o_94 = arith.addf %b_o_90, %b_o_93 : tensor<64x64xf32> loc(#loc144)
    %13 = arith.truncf %b_o_94 : tensor<64x64xf32> to tensor<64x64xf16> loc(#loc74)
    %14 = tt.splat %o_24 : !tt.ptr<f16> -> tensor<64x64x!tt.ptr<f16>> loc(#loc75)
    %15 = tt.addptr %14, %b_v_76 : tensor<64x64x!tt.ptr<f16>>, tensor<64x64xi64> loc(#loc75)
    tt.store %15, %13, %b_v_87 : tensor<64x64x!tt.ptr<f16>> loc(#loc75)
    tt.return loc(#loc76)
  } loc(#loc)
} loc(#loc)
#loc1 = loc(unknown)
#loc2 = loc("/usr/local/lib/python3.12/dist-packages/vllm/model_executor/layers/fla/ops/chunk_o.py":118:22)
#loc3 = loc("/usr/local/lib/python3.12/dist-packages/vllm/model_executor/layers/fla/ops/chunk_o.py":93:21)
#loc4 = loc("/usr/local/lib/python3.12/dist-packages/vllm/model_executor/layers/fla/ops/chunk_o.py":88:45)
#loc5 = loc("/usr/local/lib/python3.12/dist-packages/vllm/model_executor/layers/fla/ops/chunk_o.py":63:35)
#loc6 = loc("/usr/local/lib/python3.12/dist-packages/vllm/model_executor/layers/fla/ops/chunk_o.py":63:53)
#loc7 = loc("/usr/local/lib/python3.12/dist-packages/vllm/model_executor/layers/fla/ops/chunk_o.py":63:71)
#loc8 = loc("/usr/local/lib/python3.12/dist-packages/vllm/model_executor/layers/fla/ops/chunk_o.py":64:33)
#loc9 = loc("/usr/local/lib/python3.12/dist-packages/vllm/model_executor/layers/fla/ops/chunk_o.py":69:42)
#loc10 = loc("/usr/local/lib/python3.12/dist-packages/vllm/model_executor/layers/fla/ops/chunk_o.py":69:36)
#loc11 = loc("/usr/local/lib/python3.12/dist-packages/vllm/model_executor/layers/fla/ops/chunk_o.py":69:20)
#loc12 = loc("/usr/local/lib/python3.12/dist-packages/vllm/model_executor/layers/fla/ops/chunk_o.py":70:46)
#loc13 = loc("/usr/local/lib/python3.12/dist-packages/vllm/model_executor/layers/fla/ops/chunk_o.py":70:20)
#loc14 = loc("/usr/local/lib/python3.12/dist-packages/vllm/model_executor/layers/fla/ops/chunk_o.py":73:33)
#loc15 = loc("/usr/local/lib/python3.12/dist-packages/vllm/model_executor/layers/fla/ops/chunk_o.py":73:20)
#loc16 = loc("/usr/local/lib/python3.12/dist-packages/vllm/model_executor/layers/fla/ops/chunk_o.py":74:39)
#loc17 = loc("/usr/local/lib/python3.12/dist-packages/vllm/model_executor/layers/fla/ops/chunk_o.py":74:20)
#loc18 = loc("/usr/local/lib/python3.12/dist-packages/vllm/model_executor/layers/fla/ops/chunk_o.py":76:18)
#loc19 = loc("/usr/local/lib/python3.12/dist-packages/vllm/model_executor/layers/fla/ops/chunk_o.py":84:16)
#loc20 = loc("/usr/local/lib/python3.12/dist-packages/vllm/model_executor/layers/fla/ops/chunk_o.py":84:29)
#loc21 = loc("/usr/local/lib/python3.12/dist-packages/vllm/model_executor/layers/fla/ops/chunk_o.py":84:21)
#loc22 = loc("/usr/local/lib/python3.12/dist-packages/vllm/model_executor/layers/fla/ops/chunk_o.py":84:41)
#loc23 = loc("/usr/local/lib/python3.12/dist-packages/vllm/model_executor/layers/fla/ops/chunk_o.py":84:9)
#loc24 = loc("/usr/local/lib/python3.12/dist-packages/vllm/model_executor/layers/fla/ops/chunk_o.py":85:9)
#loc25 = loc("/usr/local/lib/python3.12/dist-packages/vllm/model_executor/layers/fla/ops/chunk_o.py":86:16)
#loc26 = loc("/usr/local/lib/python3.12/dist-packages/vllm/model_executor/layers/fla/ops/chunk_o.py":86:20)
#loc27 = loc("/usr/local/lib/python3.12/dist-packages/vllm/model_executor/layers/fla/ops/chunk_o.py":86:27)
#loc28 = loc("/usr/local/lib/python3.12/dist-packages/vllm/model_executor/layers/fla/ops/chunk_o.py":86:9)
#loc29 = loc("/usr/local/lib/python3.12/dist-packages/vllm/model_executor/layers/fla/ops/chunk_o.py":87:9)
#loc30 = loc("/usr/local/lib/python3.12/dist-packages/vllm/model_executor/layers/fla/ops/chunk_o.py":88:17)
#loc31 = loc("/usr/local/lib/python3.12/dist-packages/vllm/model_executor/layers/fla/ops/chunk_o.py":88:21)
#loc32 = loc("/usr/local/lib/python3.12/dist-packages/vllm/model_executor/layers/fla/ops/chunk_o.py":88:29)
#loc33 = loc("/usr/local/lib/python3.12/dist-packages/vllm/model_executor/layers/fla/ops/chunk_o.py":88:9)
#loc34 = loc("/usr/local/lib/python3.12/dist-packages/vllm/model_executor/layers/fla/ops/chunk_o.py":95:43)
#loc35 = loc("/usr/local/lib/python3.12/dist-packages/vllm/model_executor/layers/fla/ops/chunk_o.py":95:53)
#loc36 = loc("/usr/local/lib/python3.12/dist-packages/vllm/model_executor/layers/fla/ops/chunk_o.py":95:68)
#loc37 = loc("/usr/local/lib/python3.12/dist-packages/vllm/model_executor/layers/fla/ops/chunk_o.py":101:38)
#loc38 = loc("/usr/local/lib/python3.12/dist-packages/vllm/model_executor/layers/fla/ops/chunk_o.py":101:63)
#loc39 = loc("/usr/local/lib/python3.12/dist-packages/vllm/model_executor/layers/fla/ops/chunk_o.py":104:22)
#loc40 = loc("/usr/local/lib/python3.12/dist-packages/vllm/model_executor/layers/fla/ops/chunk_o.py":106:22)
#loc41 = loc("/usr/local/lib/python3.12/dist-packages/vllm/model_executor/layers/fla/ops/chunk_o.py":108:22)
#loc42 = loc("/usr/local/lib/python3.12/dist-packages/vllm/model_executor/layers/fla/ops/chunk_o.py":111:36)
#loc43 = loc("/usr/local/lib/python3.12/dist-packages/vllm/model_executor/layers/fla/ops/chunk_o.py":111:27)
#loc44 = loc("/usr/local/lib/python3.12/dist-packages/vllm/model_executor/layers/fla/ops/chunk_o.py":113:27)
#loc45 = loc("/usr/local/lib/python3.12/dist-packages/vllm/model_executor/layers/fla/ops/chunk_o.py":113:8)
#loc46 = loc("/usr/local/lib/python3.12/dist-packages/vllm/model_executor/layers/fla/ops/chunk_o.py":116:13)
#loc47 = loc("/usr/local/lib/python3.12/dist-packages/vllm/model_executor/layers/fla/ops/chunk_o.py":117:54)
#loc48 = loc("/usr/local/lib/python3.12/dist-packages/vllm/model_executor/layers/fla/ops/chunk_o.py":117:67)
#loc49 = loc("/usr/local/lib/python3.12/dist-packages/vllm/model_executor/layers/fla/ops/chunk_o.py":119:24)
#loc50 = loc("/usr/local/lib/python3.12/dist-packages/vllm/model_executor/layers/fla/ops/chunk_o.py":119:29)
#loc51 = loc("/usr/local/lib/python3.12/dist-packages/vllm/model_executor/layers/fla/ops/chunk_o.py":119:20)
#loc52 = loc("/usr/local/lib/python3.12/dist-packages/vllm/model_executor/layers/fla/ops/chunk_o.py":120:28)
#loc53 = loc("/usr/local/lib/python3.12/dist-packages/vllm/model_executor/layers/fla/ops/chunk_o.py":120:43)
#loc54 = loc("/usr/local/lib/python3.12/dist-packages/vllm/model_executor/layers/fla/ops/chunk_o.py":120:39)
#loc55 = loc("/usr/local/lib/python3.12/dist-packages/vllm/model_executor/layers/fla/ops/chunk_o.py":120:24)
#loc56 = loc("/usr/local/lib/python3.12/dist-packages/vllm/model_executor/layers/fla/ops/chunk_o.py":120:20)
#loc57 = loc("/usr/local/lib/python3.12/dist-packages/vllm/model_executor/layers/fla/ops/chunk_o.py":122:21)
#loc58 = loc("/usr/local/lib/python3.12/dist-packages/vllm/model_executor/layers/fla/ops/chunk_o.py":123:16)
#loc59 = loc("/usr/local/lib/python3.12/dist-packages/vllm/model_executor/layers/fla/ops/chunk_o.py":124:15)
#loc60 = loc("/usr/local/lib/python3.12/dist-packages/vllm/model_executor/layers/fla/ops/chunk_o.py":124:31)
#loc61 = loc("/usr/local/lib/python3.12/dist-packages/vllm/model_executor/layers/fla/ops/chunk_o.py":124:27)
#loc62 = loc("/usr/local/lib/python3.12/dist-packages/vllm/model_executor/layers/fla/ops/chunk_o.py":124:48)
#loc63 = loc("/usr/local/lib/python3.12/dist-packages/vllm/model_executor/layers/fla/ops/chunk_o.py":124:59)
#loc64 = loc("/usr/local/lib/python3.12/dist-packages/vllm/model_executor/layers/fla/ops/chunk_o.py":124:44)
#loc65 = loc("/usr/local/lib/python3.12/dist-packages/vllm/model_executor/layers/fla/ops/chunk_o.py":125:29)
#loc66 = loc("/usr/local/lib/python3.12/dist-packages/vllm/model_executor/layers/fla/ops/chunk_o.py":128:48)
#loc67 = loc("/usr/local/lib/python3.12/dist-packages/vllm/model_executor/layers/fla/ops/chunk_o.py":128:63)
#loc68 = loc("/usr/local/lib/python3.12/dist-packages/vllm/model_executor/layers/fla/ops/chunk_o.py":133:18)
#loc69 = loc("/usr/local/lib/python3.12/dist-packages/vllm/model_executor/layers/fla/ops/chunk_o.py":137:16)
#loc70 = loc("/usr/local/lib/python3.12/dist-packages/vllm/model_executor/layers/fla/ops/chunk_o.py":137:38)
#loc71 = loc("/usr/local/lib/python3.12/dist-packages/vllm/model_executor/layers/fla/ops/chunk_o.py":137:50)
#loc72 = loc("/usr/local/lib/python3.12/dist-packages/vllm/model_executor/layers/fla/ops/chunk_o.py":137:57)
#loc73 = loc("/usr/local/lib/python3.12/dist-packages/vllm/model_executor/layers/fla/ops/chunk_o.py":137:24)
#loc74 = loc("/usr/local/lib/python3.12/dist-packages/vllm/model_executor/layers/fla/ops/chunk_o.py":138:25)
#loc75 = loc("/usr/local/lib/python3.12/dist-packages/vllm/model_executor/layers/fla/ops/chunk_o.py":138:18)
#loc76 = loc("/usr/local/lib/python3.12/dist-packages/vllm/model_executor/layers/fla/ops/chunk_o.py":138:4)
#loc87 = loc("b_g"(#loc2))
#loc88 = loc("h"(#loc4))
#loc89 = loc("T"(#loc18))
#loc90 = loc("q"(#loc19))
#loc91 = loc("q"(#loc20))
#loc92 = loc("q"(#loc21))
#loc93 = loc("q"(#loc22))
#loc94 = loc("q"(#loc23))
#loc95 = loc("k"(#loc24))
#loc96 = loc("v"(#loc25))
#loc97 = loc("v"(#loc26))
#loc98 = loc("v"(#loc27))
#loc99 = loc("v"(#loc28))
#loc100 = loc("o"(#loc29))
#loc101 = loc("h"(#loc30))
#loc102 = loc("h"(#loc31))
#loc103 = loc("h"(#loc32))
#loc104 = loc("h"(#loc33))
#loc105 = loc("b_o"(#loc3))
#loc106 = loc("p_q"(#loc34))
#loc107 = loc("p_q"(#loc35))
#loc108 = loc("p_q"(#loc36))
#loc109 = loc("p_h"(#loc37))
#loc110 = loc("p_h"(#loc38))
#loc111 = loc("b_q"(#loc39))
#loc112 = loc("b_k"(#loc40))
#loc113 = loc("b_h"(#loc41))
#loc114 = loc("b_o"(#loc42))
#loc115 = loc("b_o"(#loc43))
#loc116 = loc("b_A"(#loc44))
#loc117 = loc("g"(#loc46))
#loc118 = loc("p_g"(#loc47))
#loc119 = loc("p_g"(#loc48))
#loc120 = loc("b_o"(#loc49))
#loc121 = loc("b_o"(#loc50))
#loc122 = loc("b_o"(#loc51))
#loc123 = loc("b_A"(#loc52))
#loc124 = loc("b_A"(#loc53))
#loc125 = loc("b_A"(#loc54))
#loc126 = loc("b_A"(#loc55))
#loc127 = loc("b_A"(#loc56))
#loc128 = loc("o_t"(#loc57))
#loc129 = loc("m_t"(#loc58))
#loc130 = loc("m_A"(#loc59))
#loc131 = loc("m_A"(#loc60))
#loc132 = loc("m_A"(#loc61))
#loc133 = loc("m_A"(#loc62))
#loc134 = loc("m_A"(#loc63))
#loc135 = loc("m_A"(#loc64))
#loc136 = loc("b_A"(#loc65))
#loc137 = loc("p_v"(#loc66))
#loc138 = loc("p_v"(#loc67))
#loc139 = loc("b_v"(#loc68))
#loc140 = loc("b_o"(#loc69))
#loc141 = loc("b_o"(#loc70))
#loc142 = loc("b_o"(#loc71))
#loc143 = loc("b_o"(#loc72))
#loc144 = loc("b_o"(#loc73))
#loc145 = loc("b_A"(#loc105))
