#loc = loc("/root/.cache/vllm/torch_compile_cache/torch_aot_compile/61bda05feca29378847c32f031efa5c8dba258f38b0176a06a3e99e41df8ca50/inductor_cache/2w/c2whb7ksap65qxfi36q7glgaa5ipb6s2g355lpkchxhznd7ga4xn.py":22:0)
#loc1 = loc(unknown)
#loc24 = loc("/root/.cache/vllm/torch_compile_cache/torch_aot_compile/61bda05feca29378847c32f031efa5c8dba258f38b0176a06a3e99e41df8ca50/inductor_cache/2w/c2whb7ksap65qxfi36q7glgaa5ipb6s2g355lpkchxhznd7ga4xn.py":45:25)
#loc30 = loc("in_ptr0"(#loc))
#loc31 = loc("out_ptr0"(#loc))
#loc32 = loc("xnumel"(#loc))
#loc33 = loc("r0_numel"(#loc))
#loc54 = loc("tmp4"(#loc24))
#loc57 = loc(callsite(#loc1 at #loc54))
module {
  tt.func public @triton_(%in_ptr0: !tt.ptr<f16> {tt.divisibility = 16 : i32} loc("in_ptr0"(#loc)), %out_ptr0: !tt.ptr<f32> {tt.divisibility = 16 : i32} loc("out_ptr0"(#loc)), %xnumel: i32 loc("xnumel"(#loc)), %r0_numel: i32 {tt.divisibility = 16 : i32} loc("r0_numel"(#loc))) attributes {noinline = false} {
    %cst = arith.constant dense<0.000000e+00> : tensor<64x64xf16> loc(#loc1)
    %c256_i32 = arith.constant 256 : i32 loc(#loc2)
    %c0_i32 = arith.constant 0 : i32 loc(#loc2)
    %cst_0 = arith.constant dense<4608> : tensor<64x1xi32> loc(#loc1)
    %cst_1 = arith.constant dense<4096> : tensor<1x64xi32> loc(#loc1)
    %cst_2 = arith.constant dense<256> : tensor<1x64xi32> loc(#loc1)
    %cst_3 = arith.constant dense<0.000000e+00> : tensor<64x64xf32> loc(#loc1)
    %c64_i32 = arith.constant 64 : i32 loc(#loc1)
    %xoffset = tt.get_program_id x : i32 loc(#loc34)
    %xoffset_4 = arith.muli %xoffset, %c64_i32 : i32 loc(#loc35)
    %xindex = tt.make_range {end = 64 : i32, start = 0 : i32} : tensor<64xi32> loc(#loc36)
    %xindex_5 = tt.expand_dims %xindex {axis = 1 : i32} : tensor<64xi32> -> tensor<64x1xi32> loc(#loc37)
    %xindex_6 = tt.splat %xoffset_4 : i32 -> tensor<64x1xi32> loc(#loc38)
    %xindex_7 = arith.addi %xindex_6, %xindex_5 : tensor<64x1xi32> loc(#loc38)
    %xmask = tt.splat %xnumel : i32 -> tensor<64x1xi32> loc(#loc39)
    %xmask_8 = arith.cmpi slt, %xindex_7, %xmask : tensor<64x1xi32> loc(#loc39)
    %r0_base = tt.expand_dims %xindex {axis = 0 : i32} : tensor<64xi32> -> tensor<1x64xi32> loc(#loc40)
    %_tmp4 = scf.for %r0_offset = %c0_i32 to %c256_i32 step %c64_i32 iter_args(%_tmp4_10 = %cst_3) -> (tensor<64x64xf32>)  : i32 {
      %r0_index = tt.splat %r0_offset : i32 -> tensor<1x64xi32> loc(#loc42)
      %r0_index_11 = arith.addi %r0_index, %r0_base : tensor<1x64xi32> loc(#loc42)
      %r0_mask = arith.cmpi slt, %r0_index_11, %cst_2 : tensor<1x64xi32> loc(#loc43)
      %tmp0 = arith.addi %r0_index_11, %cst_1 : tensor<1x64xi32> loc(#loc44)
      %tmp0_12 = arith.muli %xindex_7, %cst_0 : tensor<64x1xi32> loc(#loc45)
      %tmp0_13 = tt.broadcast %tmp0 : tensor<1x64xi32> -> tensor<64x64xi32> loc(#loc46)
      %tmp0_14 = tt.broadcast %tmp0_12 : tensor<64x1xi32> -> tensor<64x64xi32> loc(#loc46)
      %tmp0_15 = arith.addi %tmp0_13, %tmp0_14 : tensor<64x64xi32> loc(#loc46)
      %tmp0_16 = tt.splat %in_ptr0 : !tt.ptr<f16> -> tensor<64x64x!tt.ptr<f16>> loc(#loc47)
      %tmp0_17 = tt.addptr %tmp0_16, %tmp0_15 : tensor<64x64x!tt.ptr<f16>>, tensor<64x64xi32> loc(#loc47)
      %tmp0_18 = tt.broadcast %r0_mask : tensor<1x64xi1> -> tensor<64x64xi1> loc(#loc48)
      %tmp0_19 = tt.broadcast %xmask_8 : tensor<64x1xi1> -> tensor<64x64xi1> loc(#loc48)
      %tmp0_20 = arith.andi %tmp0_18, %tmp0_19 : tensor<64x64xi1> loc(#loc48)
      %tmp0_21 = tt.load %tmp0_17, %tmp0_20, %cst evictionPolicy = evict_first : tensor<64x64x!tt.ptr<f16>> loc(#loc49)
      %tmp0_22 = arith.extf %tmp0_21 : tensor<64x64xf16> to tensor<64x64xf32> loc(#loc50)
      %tmp2 = arith.mulf %tmp0_22, %tmp0_22 : tensor<64x64xf32> loc(#loc51)
      %tmp5 = arith.addf %_tmp4_10, %tmp2 : tensor<64x64xf32> loc(#loc52)
      %_tmp4_23 = arith.select %tmp0_20, %tmp5, %_tmp4_10 : tensor<64x64xi1>, tensor<64x64xf32> loc(#loc53)
      scf.yield %_tmp4_23 : tensor<64x64xf32> loc(#loc22)
    } loc(#loc41)
    %tmp4 = "tt.reduce"(%_tmp4) <{axis = 1 : i32}> ({
    ^bb0(%tmp4_10: f32 loc(callsite(#loc1 at #loc54)), %tmp4_11: f32 loc(callsite(#loc1 at #loc54))):
      %tmp4_12 = arith.addf %tmp4_10, %tmp4_11 : f32 loc(#loc58)
      tt.reduce.return %tmp4_12 : f32 loc(#loc56)
    }) : (tensor<64x64xf32>) -> tensor<64xf32> loc(#loc56)
    %tmp4_9 = tt.expand_dims %tmp4 {axis = 1 : i32} : tensor<64xf32> -> tensor<64x1xf32> loc(#loc55)
    %0 = tt.splat %out_ptr0 : !tt.ptr<f32> -> tensor<64x1x!tt.ptr<f32>> loc(#loc27)
    %1 = tt.addptr %0, %xindex_7 : tensor<64x1x!tt.ptr<f32>>, tensor<64x1xi32> loc(#loc27)
    tt.store %1, %tmp4_9, %xmask_8 : tensor<64x1x!tt.ptr<f32>> loc(#loc28)
    tt.return loc(#loc29)
  } loc(#loc)
} loc(#loc)
#loc2 = loc("/root/.cache/vllm/torch_compile_cache/torch_aot_compile/61bda05feca29378847c32f031efa5c8dba258f38b0176a06a3e99e41df8ca50/inductor_cache/2w/c2whb7ksap65qxfi36q7glgaa5ipb6s2g355lpkchxhznd7ga4xn.py":33:43)
#loc3 = loc("/root/.cache/vllm/torch_compile_cache/torch_aot_compile/61bda05feca29378847c32f031efa5c8dba258f38b0176a06a3e99e41df8ca50/inductor_cache/2w/c2whb7ksap65qxfi36q7glgaa5ipb6s2g355lpkchxhznd7ga4xn.py":26:28)
#loc4 = loc("/root/.cache/vllm/torch_compile_cache/torch_aot_compile/61bda05feca29378847c32f031efa5c8dba258f38b0176a06a3e99e41df8ca50/inductor_cache/2w/c2whb7ksap65qxfi36q7glgaa5ipb6s2g355lpkchxhznd7ga4xn.py":26:33)
#loc5 = loc("/root/.cache/vllm/torch_compile_cache/torch_aot_compile/61bda05feca29378847c32f031efa5c8dba258f38b0176a06a3e99e41df8ca50/inductor_cache/2w/c2whb7ksap65qxfi36q7glgaa5ipb6s2g355lpkchxhznd7ga4xn.py":27:36)
#loc6 = loc("/root/.cache/vllm/torch_compile_cache/torch_aot_compile/61bda05feca29378847c32f031efa5c8dba258f38b0176a06a3e99e41df8ca50/inductor_cache/2w/c2whb7ksap65qxfi36q7glgaa5ipb6s2g355lpkchxhznd7ga4xn.py":27:44)
#loc7 = loc("/root/.cache/vllm/torch_compile_cache/torch_aot_compile/61bda05feca29378847c32f031efa5c8dba258f38b0176a06a3e99e41df8ca50/inductor_cache/2w/c2whb7ksap65qxfi36q7glgaa5ipb6s2g355lpkchxhznd7ga4xn.py":27:23)
#loc8 = loc("/root/.cache/vllm/torch_compile_cache/torch_aot_compile/61bda05feca29378847c32f031efa5c8dba258f38b0176a06a3e99e41df8ca50/inductor_cache/2w/c2whb7ksap65qxfi36q7glgaa5ipb6s2g355lpkchxhznd7ga4xn.py":28:21)
#loc9 = loc("/root/.cache/vllm/torch_compile_cache/torch_aot_compile/61bda05feca29378847c32f031efa5c8dba258f38b0176a06a3e99e41df8ca50/inductor_cache/2w/c2whb7ksap65qxfi36q7glgaa5ipb6s2g355lpkchxhznd7ga4xn.py":29:37)
#loc10 = loc("/root/.cache/vllm/torch_compile_cache/torch_aot_compile/61bda05feca29378847c32f031efa5c8dba258f38b0176a06a3e99e41df8ca50/inductor_cache/2w/c2whb7ksap65qxfi36q7glgaa5ipb6s2g355lpkchxhznd7ga4xn.py":34:31)
#loc11 = loc("/root/.cache/vllm/torch_compile_cache/torch_aot_compile/61bda05feca29378847c32f031efa5c8dba258f38b0176a06a3e99e41df8ca50/inductor_cache/2w/c2whb7ksap65qxfi36q7glgaa5ipb6s2g355lpkchxhznd7ga4xn.py":35:29)
#loc12 = loc("/root/.cache/vllm/torch_compile_cache/torch_aot_compile/61bda05feca29378847c32f031efa5c8dba258f38b0176a06a3e99e41df8ca50/inductor_cache/2w/c2whb7ksap65qxfi36q7glgaa5ipb6s2g355lpkchxhznd7ga4xn.py":39:41)
#loc13 = loc("/root/.cache/vllm/torch_compile_cache/torch_aot_compile/61bda05feca29378847c32f031efa5c8dba258f38b0176a06a3e99e41df8ca50/inductor_cache/2w/c2whb7ksap65qxfi36q7glgaa5ipb6s2g355lpkchxhznd7ga4xn.py":39:53)
#loc14 = loc("/root/.cache/vllm/torch_compile_cache/torch_aot_compile/61bda05feca29378847c32f031efa5c8dba258f38b0176a06a3e99e41df8ca50/inductor_cache/2w/c2whb7ksap65qxfi36q7glgaa5ipb6s2g355lpkchxhznd7ga4xn.py":39:48)
#loc15 = loc("/root/.cache/vllm/torch_compile_cache/torch_aot_compile/61bda05feca29378847c32f031efa5c8dba258f38b0176a06a3e99e41df8ca50/inductor_cache/2w/c2whb7ksap65qxfi36q7glgaa5ipb6s2g355lpkchxhznd7ga4xn.py":39:34)
#loc16 = loc("/root/.cache/vllm/torch_compile_cache/torch_aot_compile/61bda05feca29378847c32f031efa5c8dba258f38b0176a06a3e99e41df8ca50/inductor_cache/2w/c2whb7ksap65qxfi36q7glgaa5ipb6s2g355lpkchxhznd7ga4xn.py":39:68)
#loc17 = loc("/root/.cache/vllm/torch_compile_cache/torch_aot_compile/61bda05feca29378847c32f031efa5c8dba258f38b0176a06a3e99e41df8ca50/inductor_cache/2w/c2whb7ksap65qxfi36q7glgaa5ipb6s2g355lpkchxhznd7ga4xn.py":39:58)
#loc18 = loc("/root/.cache/vllm/torch_compile_cache/torch_aot_compile/61bda05feca29378847c32f031efa5c8dba258f38b0176a06a3e99e41df8ca50/inductor_cache/2w/c2whb7ksap65qxfi36q7glgaa5ipb6s2g355lpkchxhznd7ga4xn.py":39:120)
#loc19 = loc("/root/.cache/vllm/torch_compile_cache/torch_aot_compile/61bda05feca29378847c32f031efa5c8dba258f38b0176a06a3e99e41df8ca50/inductor_cache/2w/c2whb7ksap65qxfi36q7glgaa5ipb6s2g355lpkchxhznd7ga4xn.py":41:22)
#loc20 = loc("/root/.cache/vllm/torch_compile_cache/torch_aot_compile/61bda05feca29378847c32f031efa5c8dba258f38b0176a06a3e99e41df8ca50/inductor_cache/2w/c2whb7ksap65qxfi36q7glgaa5ipb6s2g355lpkchxhznd7ga4xn.py":43:23)
#loc21 = loc("/root/.cache/vllm/torch_compile_cache/torch_aot_compile/61bda05feca29378847c32f031efa5c8dba258f38b0176a06a3e99e41df8ca50/inductor_cache/2w/c2whb7ksap65qxfi36q7glgaa5ipb6s2g355lpkchxhznd7ga4xn.py":44:48)
#loc22 = loc("/root/.cache/vllm/torch_compile_cache/torch_aot_compile/61bda05feca29378847c32f031efa5c8dba258f38b0176a06a3e99e41df8ca50/inductor_cache/2w/c2whb7ksap65qxfi36q7glgaa5ipb6s2g355lpkchxhznd7ga4xn.py":44:8)
#loc23 = loc("/usr/local/lib/python3.12/dist-packages/triton/language/standard.py":293:36)
#loc25 = loc("/usr/local/lib/python3.12/dist-packages/triton/language/standard.py":263:15)
#loc26 = loc("/root/.cache/vllm/torch_compile_cache/torch_aot_compile/61bda05feca29378847c32f031efa5c8dba258f38b0176a06a3e99e41df8ca50/inductor_cache/2w/c2whb7ksap65qxfi36q7glgaa5ipb6s2g355lpkchxhznd7ga4xn.py":45:28)
#loc27 = loc("/root/.cache/vllm/torch_compile_cache/torch_aot_compile/61bda05feca29378847c32f031efa5c8dba258f38b0176a06a3e99e41df8ca50/inductor_cache/2w/c2whb7ksap65qxfi36q7glgaa5ipb6s2g355lpkchxhznd7ga4xn.py":46:25)
#loc28 = loc("/root/.cache/vllm/torch_compile_cache/torch_aot_compile/61bda05feca29378847c32f031efa5c8dba258f38b0176a06a3e99e41df8ca50/inductor_cache/2w/c2whb7ksap65qxfi36q7glgaa5ipb6s2g355lpkchxhznd7ga4xn.py":46:36)
#loc29 = loc("/root/.cache/vllm/torch_compile_cache/torch_aot_compile/61bda05feca29378847c32f031efa5c8dba258f38b0176a06a3e99e41df8ca50/inductor_cache/2w/c2whb7ksap65qxfi36q7glgaa5ipb6s2g355lpkchxhznd7ga4xn.py":46:4)
#loc34 = loc("xoffset"(#loc3))
#loc35 = loc("xoffset"(#loc4))
#loc36 = loc("xindex"(#loc5))
#loc37 = loc("xindex"(#loc6))
#loc38 = loc("xindex"(#loc7))
#loc39 = loc("xmask"(#loc8))
#loc40 = loc("r0_base"(#loc9))
#loc41 = loc("_tmp4"(#loc2))
#loc42 = loc("r0_index"(#loc10))
#loc43 = loc("r0_mask"(#loc11))
#loc44 = loc("tmp0"(#loc12))
#loc45 = loc("tmp0"(#loc13))
#loc46 = loc("tmp0"(#loc14))
#loc47 = loc("tmp0"(#loc15))
#loc48 = loc("tmp0"(#loc16))
#loc49 = loc("tmp0"(#loc17))
#loc50 = loc("tmp0"(#loc18))
#loc51 = loc("tmp2"(#loc19))
#loc52 = loc("tmp5"(#loc20))
#loc53 = loc("_tmp4"(#loc21))
#loc55 = loc("tmp4"(#loc26))
#loc56 = loc(callsite(#loc23 at #loc54))
#loc58 = loc(callsite(#loc25 at #loc56))
