#loc = loc("/root/.cache/vllm/torch_compile_cache/torch_aot_compile/61bda05feca29378847c32f031efa5c8dba258f38b0176a06a3e99e41df8ca50/inductor_cache/wb/cwbiokcltj4325ked6d6k5wutgntx3cwqz5trx5bzjexlassudnt.py":22:0)
#loc101 = loc("in_ptr0"(#loc))
#loc102 = loc("in_ptr1"(#loc))
#loc103 = loc("in_ptr2"(#loc))
#loc104 = loc("in_ptr3"(#loc))
#loc105 = loc("in_ptr4"(#loc))
#loc106 = loc("out_ptr0"(#loc))
#loc107 = loc("xnumel"(#loc))
module {
  tt.func public @triton_(%in_ptr0: !tt.ptr<f16> {tt.divisibility = 16 : i32} loc("in_ptr0"(#loc)), %in_ptr1: !tt.ptr<f32> {tt.divisibility = 16 : i32} loc("in_ptr1"(#loc)), %in_ptr2: !tt.ptr<f16> {tt.divisibility = 16 : i32} loc("in_ptr2"(#loc)), %in_ptr3: !tt.ptr<f16> {tt.divisibility = 16 : i32} loc("in_ptr3"(#loc)), %in_ptr4: !tt.ptr<f16> {tt.divisibility = 16 : i32} loc("in_ptr4"(#loc)), %out_ptr0: !tt.ptr<f16> {tt.divisibility = 16 : i32} loc("out_ptr0"(#loc)), %xnumel: i32 {tt.divisibility = 16 : i32} loc("xnumel"(#loc))) attributes {noinline = false} {
    %cst = arith.constant dense<0.000000e+00> : tensor<1024xf16> loc(#loc1)
    %cst_0 = arith.constant dense<256> : tensor<1024xi32> loc(#loc2)
    %cst_1 = arith.constant dense<-32> : tensor<1024xi32> loc(#loc1)
    %cst_2 = arith.constant dense<32> : tensor<1024xi32> loc(#loc1)
    %cst_3 = arith.constant dense<1.000000e+00> : tensor<1024xf32> loc(#loc1)
    %cst_4 = arith.constant dense<9.99999997E-7> : tensor<1024xf32> loc(#loc1)
    %cst_5 = arith.constant dense<2.560000e+02> : tensor<1024xf32> loc(#loc1)
    %cst_6 = arith.constant dense<0.000000e+00> : tensor<1024xf32> loc(#loc1)
    %cst_7 = arith.constant dense<4608> : tensor<1024xi32> loc(#loc1)
    %cst_8 = arith.constant dense<32> : tensor<1024xi64> loc(#loc1)
    %cst_9 = arith.constant dense<512> : tensor<1024xi32> loc(#loc1)
    %x1 = arith.constant dense<8> : tensor<1024xi32> loc(#loc108)
    %cst_10 = arith.constant dense<64> : tensor<1024xi32> loc(#loc1)
    %c1024_i32 = arith.constant 1024 : i32 loc(#loc1)
    %xoffset = tt.get_program_id x : i32 loc(#loc109)
    %xoffset_11 = arith.muli %xoffset, %c1024_i32 : i32 loc(#loc110)
    %xindex = tt.make_range {end = 1024 : i32, start = 0 : i32} : tensor<1024xi32> loc(#loc111)
    %xindex_12 = tt.splat %xoffset_11 : i32 -> tensor<1024xi32> loc(#loc112)
    %xindex_13 = arith.addi %xindex_12, %xindex : tensor<1024xi32> loc(#loc112)
    %xmask = tt.splat %xnumel : i32 -> tensor<1024xi32> loc(#loc113)
    %xmask_14 = arith.cmpi slt, %xindex_13, %xmask : tensor<1024xi32> loc(#loc113)
    %x0 = arith.remsi %xindex_13, %cst_10 : tensor<1024xi32> loc(#loc114)
    %x1_15 = arith.divsi %xindex_13, %cst_10 : tensor<1024xi32> loc(#loc115)
    %x1_16 = arith.remsi %x1_15, %x1 : tensor<1024xi32> loc(#loc108)
    %x2 = arith.divsi %xindex_13, %cst_9 : tensor<1024xi32> loc(#loc116)
    %tmp4 = arith.extsi %x0 : tensor<1024xi32> to tensor<1024xi64> loc(#loc117)
    %tmp4_17 = arith.cmpi slt, %tmp4, %cst_8 : tensor<1024xi64> loc(#loc117)
    %tmp5 = arith.muli %x1_16, %cst_9 : tensor<1024xi32> loc(#loc118)
    %tmp5_18 = arith.muli %x2, %cst_7 : tensor<1024xi32> loc(#loc119)
    %tmp5_19 = arith.addi %tmp5, %tmp5_18 : tensor<1024xi32> loc(#loc120)
    %tmp5_20 = arith.addi %tmp5_19, %x0 : tensor<1024xi32> loc(#loc121)
    %tmp5_21 = tt.splat %in_ptr0 : !tt.ptr<f16> -> tensor<1024x!tt.ptr<f16>> loc(#loc122)
    %tmp5_22 = tt.addptr %tmp5_21, %tmp5_20 : tensor<1024x!tt.ptr<f16>>, tensor<1024xi32> loc(#loc122)
    %tmp5_23 = arith.andi %tmp4_17, %xmask_14 : tensor<1024xi1> loc(#loc123)
    %tmp5_24 = tt.load %tmp5_22, %tmp5_23, %cst evictionPolicy = evict_last : tensor<1024x!tt.ptr<f16>> loc(#loc124)
    %tmp5_25 = arith.extf %tmp5_24 : tensor<1024xf16> to tensor<1024xf32> loc(#loc125)
    %tmp7 = tt.splat %in_ptr1 : !tt.ptr<f32> -> tensor<1024x!tt.ptr<f32>> loc(#loc126)
    %tmp7_26 = tt.addptr %tmp7, %x1_15 : tensor<1024x!tt.ptr<f32>>, tensor<1024xi32> loc(#loc126)
    %tmp7_27 = tt.load %tmp7_26, %tmp5_23, %cst_6 evictionPolicy = evict_last : tensor<1024x!tt.ptr<f32>> loc(#loc127)
    %tmp9 = arith.divf %tmp7_27, %cst_5 : tensor<1024xf32> loc(#loc128)
    %tmp11 = arith.addf %tmp9, %cst_4 : tensor<1024xf32> loc(#loc129)
    %tmp12 = tt.extern_elementwise %tmp11 {libname = "", libpath = "", pure = true, symbol = "__nv_rsqrtf"} : (tensor<1024xf32>) -> tensor<1024xf32> loc(#loc130)
    %tmp13 = arith.mulf %tmp5_25, %tmp12 : tensor<1024xf32> loc(#loc131)
    %tmp14 = tt.splat %in_ptr2 : !tt.ptr<f16> -> tensor<1024x!tt.ptr<f16>> loc(#loc132)
    %tmp14_28 = tt.addptr %tmp14, %x0 : tensor<1024x!tt.ptr<f16>>, tensor<1024xi32> loc(#loc132)
    %tmp14_29 = tt.load %tmp14_28, %tmp5_23, %cst evictionPolicy = evict_last : tensor<1024x!tt.ptr<f16>> loc(#loc133)
    %tmp14_30 = arith.extf %tmp14_29 : tensor<1024xf16> to tensor<1024xf32> loc(#loc134)
    %tmp17 = arith.addf %tmp14_30, %cst_3 : tensor<1024xf32> loc(#loc135)
    %tmp18 = arith.mulf %tmp13, %tmp17 : tensor<1024xf32> loc(#loc136)
    %tmp20 = arith.muli %x2, %cst_2 : tensor<1024xi32> loc(#loc137)
    %tmp20_31 = arith.addi %tmp20, %x0 : tensor<1024xi32> loc(#loc138)
    %tmp20_32 = tt.splat %in_ptr3 : !tt.ptr<f16> -> tensor<1024x!tt.ptr<f16>> loc(#loc139)
    %tmp20_33 = tt.addptr %tmp20_32, %tmp20_31 : tensor<1024x!tt.ptr<f16>>, tensor<1024xi32> loc(#loc139)
    %tmp20_34 = tt.load %tmp20_33, %tmp5_23, %cst evictionPolicy = evict_last : tensor<1024x!tt.ptr<f16>> loc(#loc140)
    %tmp20_35 = arith.extf %tmp20_34 : tensor<1024xf16> to tensor<1024xf32> loc(#loc141)
    %tmp21 = arith.mulf %tmp18, %tmp20_35 : tensor<1024xf32> loc(#loc142)
    %tmp22 = arith.addi %tmp5, %cst_2 : tensor<1024xi32> loc(#loc143)
    %tmp22_36 = arith.addi %tmp22, %tmp5_18 : tensor<1024xi32> loc(#loc144)
    %tmp22_37 = arith.addi %tmp22_36, %x0 : tensor<1024xi32> loc(#loc145)
    %tmp22_38 = tt.addptr %tmp5_21, %tmp22_37 : tensor<1024x!tt.ptr<f16>>, tensor<1024xi32> loc(#loc146)
    %tmp22_39 = tt.load %tmp22_38, %tmp5_23, %cst evictionPolicy = evict_last : tensor<1024x!tt.ptr<f16>> loc(#loc147)
    %tmp22_40 = arith.extf %tmp22_39 : tensor<1024xf16> to tensor<1024xf32> loc(#loc148)
    %tmp24 = arith.mulf %tmp22_40, %tmp12 : tensor<1024xf32> loc(#loc149)
    %tmp25 = arith.addi %x0, %cst_2 : tensor<1024xi32> loc(#loc150)
    %tmp25_41 = tt.addptr %tmp14, %tmp25 : tensor<1024x!tt.ptr<f16>>, tensor<1024xi32> loc(#loc151)
    %tmp25_42 = tt.load %tmp25_41, %tmp5_23, %cst evictionPolicy = evict_last : tensor<1024x!tt.ptr<f16>> loc(#loc152)
    %tmp25_43 = arith.extf %tmp25_42 : tensor<1024xf16> to tensor<1024xf32> loc(#loc153)
    %tmp27 = arith.addf %tmp25_43, %cst_3 : tensor<1024xf32> loc(#loc154)
    %tmp28 = arith.mulf %tmp24, %tmp27 : tensor<1024xf32> loc(#loc155)
    %tmp30 = tt.splat %in_ptr4 : !tt.ptr<f16> -> tensor<1024x!tt.ptr<f16>> loc(#loc156)
    %tmp30_44 = tt.addptr %tmp30, %tmp20_31 : tensor<1024x!tt.ptr<f16>>, tensor<1024xi32> loc(#loc156)
    %tmp30_45 = tt.load %tmp30_44, %tmp5_23, %cst evictionPolicy = evict_last : tensor<1024x!tt.ptr<f16>> loc(#loc157)
    %tmp30_46 = arith.extf %tmp30_45 : tensor<1024xf16> to tensor<1024xf32> loc(#loc158)
    %tmp31 = arith.mulf %tmp28, %tmp30_46 : tensor<1024xf32> loc(#loc159)
    %tmp32 = arith.subf %tmp21, %tmp31 : tensor<1024xf32> loc(#loc160)
    %tmp35 = arith.cmpi sge, %tmp4, %cst_8 : tensor<1024xi64> loc(#loc161)
    %tmp38 = arith.addi %x0, %cst_1 : tensor<1024xi32> loc(#loc162)
    %tmp38_47 = arith.addi %tmp22_36, %tmp38 : tensor<1024xi32> loc(#loc163)
    %tmp38_48 = tt.addptr %tmp5_21, %tmp38_47 : tensor<1024x!tt.ptr<f16>>, tensor<1024xi32> loc(#loc164)
    %tmp38_49 = arith.andi %tmp35, %xmask_14 : tensor<1024xi1> loc(#loc165)
    %tmp38_50 = tt.load %tmp38_48, %tmp38_49, %cst evictionPolicy = evict_last : tensor<1024x!tt.ptr<f16>> loc(#loc166)
    %tmp38_51 = arith.extf %tmp38_50 : tensor<1024xf16> to tensor<1024xf32> loc(#loc167)
    %tmp40 = tt.load %tmp7_26, %tmp38_49, %cst_6 evictionPolicy = evict_last : tensor<1024x!tt.ptr<f32>> loc(#loc168)
    %tmp42 = arith.divf %tmp40, %cst_5 : tensor<1024xf32> loc(#loc169)
    %tmp44 = arith.addf %tmp42, %cst_4 : tensor<1024xf32> loc(#loc170)
    %tmp45 = tt.extern_elementwise %tmp44 {libname = "", libpath = "", pure = true, symbol = "__nv_rsqrtf"} : (tensor<1024xf32>) -> tensor<1024xf32> loc(#loc171)
    %tmp46 = arith.mulf %tmp38_51, %tmp45 : tensor<1024xf32> loc(#loc172)
    %tmp47 = arith.addi %tmp38, %cst_2 : tensor<1024xi32> loc(#loc173)
    %tmp47_52 = tt.addptr %tmp14, %tmp47 : tensor<1024x!tt.ptr<f16>>, tensor<1024xi32> loc(#loc174)
    %tmp47_53 = tt.load %tmp47_52, %tmp38_49, %cst evictionPolicy = evict_last : tensor<1024x!tt.ptr<f16>> loc(#loc175)
    %tmp47_54 = arith.extf %tmp47_53 : tensor<1024xf16> to tensor<1024xf32> loc(#loc176)
    %tmp50 = arith.addf %tmp47_54, %cst_3 : tensor<1024xf32> loc(#loc177)
    %tmp51 = arith.mulf %tmp46, %tmp50 : tensor<1024xf32> loc(#loc178)
    %tmp53 = arith.addi %tmp20, %tmp38 : tensor<1024xi32> loc(#loc179)
    %tmp53_55 = tt.addptr %tmp20_32, %tmp53 : tensor<1024x!tt.ptr<f16>>, tensor<1024xi32> loc(#loc180)
    %tmp53_56 = tt.load %tmp53_55, %tmp38_49, %cst evictionPolicy = evict_last : tensor<1024x!tt.ptr<f16>> loc(#loc181)
    %tmp53_57 = arith.extf %tmp53_56 : tensor<1024xf16> to tensor<1024xf32> loc(#loc182)
    %tmp54 = arith.mulf %tmp51, %tmp53_57 : tensor<1024xf32> loc(#loc183)
    %tmp55 = arith.addi %tmp5_19, %tmp38 : tensor<1024xi32> loc(#loc184)
    %tmp55_58 = tt.addptr %tmp5_21, %tmp55 : tensor<1024x!tt.ptr<f16>>, tensor<1024xi32> loc(#loc185)
    %tmp55_59 = tt.load %tmp55_58, %tmp38_49, %cst evictionPolicy = evict_last : tensor<1024x!tt.ptr<f16>> loc(#loc186)
    %tmp55_60 = arith.extf %tmp55_59 : tensor<1024xf16> to tensor<1024xf32> loc(#loc187)
    %tmp57 = arith.mulf %tmp55_60, %tmp45 : tensor<1024xf32> loc(#loc188)
    %tmp58 = tt.addptr %tmp14, %tmp38 : tensor<1024x!tt.ptr<f16>>, tensor<1024xi32> loc(#loc189)
    %tmp58_61 = tt.load %tmp58, %tmp38_49, %cst evictionPolicy = evict_last : tensor<1024x!tt.ptr<f16>> loc(#loc190)
    %tmp58_62 = arith.extf %tmp58_61 : tensor<1024xf16> to tensor<1024xf32> loc(#loc191)
    %tmp60 = arith.addf %tmp58_62, %cst_3 : tensor<1024xf32> loc(#loc192)
    %tmp61 = arith.mulf %tmp57, %tmp60 : tensor<1024xf32> loc(#loc193)
    %tmp63 = tt.addptr %tmp30, %tmp53 : tensor<1024x!tt.ptr<f16>>, tensor<1024xi32> loc(#loc194)
    %tmp63_63 = tt.load %tmp63, %tmp38_49, %cst evictionPolicy = evict_last : tensor<1024x!tt.ptr<f16>> loc(#loc195)
    %tmp63_64 = arith.extf %tmp63_63 : tensor<1024xf16> to tensor<1024xf32> loc(#loc196)
    %tmp64 = arith.mulf %tmp61, %tmp63_64 : tensor<1024xf32> loc(#loc197)
    %tmp65 = arith.addf %tmp54, %tmp64 : tensor<1024xf32> loc(#loc198)
    %tmp67 = arith.select %tmp35, %tmp65, %cst_6 : tensor<1024xi1>, tensor<1024xf32> loc(#loc199)
    %tmp68 = arith.select %tmp4_17, %tmp32, %tmp67 : tensor<1024xi1>, tensor<1024xf32> loc(#loc202)
    %0 = arith.muli %x1_15, %cst_0 : tensor<1024xi32> loc(#loc2)
    %1 = arith.addi %x0, %0 : tensor<1024xi32> loc(#loc97)
    %2 = tt.splat %out_ptr0 : !tt.ptr<f16> -> tensor<1024x!tt.ptr<f16>> loc(#loc98)
    %3 = tt.addptr %2, %1 : tensor<1024x!tt.ptr<f16>>, tensor<1024xi32> loc(#loc98)
    %4 = arith.truncf %tmp68 : tensor<1024xf32> to tensor<1024xf16> loc(#loc99)
    tt.store %3, %4, %xmask_14 : tensor<1024x!tt.ptr<f16>> loc(#loc99)
    tt.return loc(#loc100)
  } loc(#loc)
} loc(#loc)
#loc1 = loc(unknown)
#loc2 = loc("/root/.cache/vllm/torch_compile_cache/torch_aot_compile/61bda05feca29378847c32f031efa5c8dba258f38b0176a06a3e99e41df8ca50/inductor_cache/wb/cwbiokcltj4325ked6d6k5wutgntx3cwqz5trx5bzjexlassudnt.py":99:34)
#loc3 = loc("/root/.cache/vllm/torch_compile_cache/torch_aot_compile/61bda05feca29378847c32f031efa5c8dba258f38b0176a06a3e99e41df8ca50/inductor_cache/wb/cwbiokcltj4325ked6d6k5wutgntx3cwqz5trx5bzjexlassudnt.py":27:27)
#loc4 = loc("/root/.cache/vllm/torch_compile_cache/torch_aot_compile/61bda05feca29378847c32f031efa5c8dba258f38b0176a06a3e99e41df8ca50/inductor_cache/wb/cwbiokcltj4325ked6d6k5wutgntx3cwqz5trx5bzjexlassudnt.py":23:28)
#loc5 = loc("/root/.cache/vllm/torch_compile_cache/torch_aot_compile/61bda05feca29378847c32f031efa5c8dba258f38b0176a06a3e99e41df8ca50/inductor_cache/wb/cwbiokcltj4325ked6d6k5wutgntx3cwqz5trx5bzjexlassudnt.py":23:33)
#loc6 = loc("/root/.cache/vllm/torch_compile_cache/torch_aot_compile/61bda05feca29378847c32f031efa5c8dba258f38b0176a06a3e99e41df8ca50/inductor_cache/wb/cwbiokcltj4325ked6d6k5wutgntx3cwqz5trx5bzjexlassudnt.py":24:36)
#loc7 = loc("/root/.cache/vllm/torch_compile_cache/torch_aot_compile/61bda05feca29378847c32f031efa5c8dba258f38b0176a06a3e99e41df8ca50/inductor_cache/wb/cwbiokcltj4325ked6d6k5wutgntx3cwqz5trx5bzjexlassudnt.py":24:23)
#loc8 = loc("/root/.cache/vllm/torch_compile_cache/torch_aot_compile/61bda05feca29378847c32f031efa5c8dba258f38b0176a06a3e99e41df8ca50/inductor_cache/wb/cwbiokcltj4325ked6d6k5wutgntx3cwqz5trx5bzjexlassudnt.py":25:21)
#loc9 = loc("/root/.cache/vllm/torch_compile_cache/torch_aot_compile/61bda05feca29378847c32f031efa5c8dba258f38b0176a06a3e99e41df8ca50/inductor_cache/wb/cwbiokcltj4325ked6d6k5wutgntx3cwqz5trx5bzjexlassudnt.py":26:19)
#loc10 = loc("/root/.cache/vllm/torch_compile_cache/torch_aot_compile/61bda05feca29378847c32f031efa5c8dba258f38b0176a06a3e99e41df8ca50/inductor_cache/wb/cwbiokcltj4325ked6d6k5wutgntx3cwqz5trx5bzjexlassudnt.py":27:21)
#loc11 = loc("/root/.cache/vllm/torch_compile_cache/torch_aot_compile/61bda05feca29378847c32f031efa5c8dba258f38b0176a06a3e99e41df8ca50/inductor_cache/wb/cwbiokcltj4325ked6d6k5wutgntx3cwqz5trx5bzjexlassudnt.py":28:19)
#loc12 = loc("/root/.cache/vllm/torch_compile_cache/torch_aot_compile/61bda05feca29378847c32f031efa5c8dba258f38b0176a06a3e99e41df8ca50/inductor_cache/wb/cwbiokcltj4325ked6d6k5wutgntx3cwqz5trx5bzjexlassudnt.py":34:18)
#loc13 = loc("/root/.cache/vllm/torch_compile_cache/torch_aot_compile/61bda05feca29378847c32f031efa5c8dba258f38b0176a06a3e99e41df8ca50/inductor_cache/wb/cwbiokcltj4325ked6d6k5wutgntx3cwqz5trx5bzjexlassudnt.py":35:34)
#loc14 = loc("/root/.cache/vllm/torch_compile_cache/torch_aot_compile/61bda05feca29378847c32f031efa5c8dba258f38b0176a06a3e99e41df8ca50/inductor_cache/wb/cwbiokcltj4325ked6d6k5wutgntx3cwqz5trx5bzjexlassudnt.py":35:44)
#loc15 = loc("/root/.cache/vllm/torch_compile_cache/torch_aot_compile/61bda05feca29378847c32f031efa5c8dba258f38b0176a06a3e99e41df8ca50/inductor_cache/wb/cwbiokcltj4325ked6d6k5wutgntx3cwqz5trx5bzjexlassudnt.py":35:39)
#loc16 = loc("/root/.cache/vllm/torch_compile_cache/torch_aot_compile/61bda05feca29378847c32f031efa5c8dba258f38b0176a06a3e99e41df8ca50/inductor_cache/wb/cwbiokcltj4325ked6d6k5wutgntx3cwqz5trx5bzjexlassudnt.py":35:50)
#loc17 = loc("/root/.cache/vllm/torch_compile_cache/torch_aot_compile/61bda05feca29378847c32f031efa5c8dba258f38b0176a06a3e99e41df8ca50/inductor_cache/wb/cwbiokcltj4325ked6d6k5wutgntx3cwqz5trx5bzjexlassudnt.py":35:30)
#loc18 = loc("/root/.cache/vllm/torch_compile_cache/torch_aot_compile/61bda05feca29378847c32f031efa5c8dba258f38b0176a06a3e99e41df8ca50/inductor_cache/wb/cwbiokcltj4325ked6d6k5wutgntx3cwqz5trx5bzjexlassudnt.py":35:63)
#loc19 = loc("/root/.cache/vllm/torch_compile_cache/torch_aot_compile/61bda05feca29378847c32f031efa5c8dba258f38b0176a06a3e99e41df8ca50/inductor_cache/wb/cwbiokcltj4325ked6d6k5wutgntx3cwqz5trx5bzjexlassudnt.py":35:56)
#loc20 = loc("/root/.cache/vllm/torch_compile_cache/torch_aot_compile/61bda05feca29378847c32f031efa5c8dba258f38b0176a06a3e99e41df8ca50/inductor_cache/wb/cwbiokcltj4325ked6d6k5wutgntx3cwqz5trx5bzjexlassudnt.py":35:114)
#loc21 = loc("/root/.cache/vllm/torch_compile_cache/torch_aot_compile/61bda05feca29378847c32f031efa5c8dba258f38b0176a06a3e99e41df8ca50/inductor_cache/wb/cwbiokcltj4325ked6d6k5wutgntx3cwqz5trx5bzjexlassudnt.py":37:30)
#loc22 = loc("/root/.cache/vllm/torch_compile_cache/torch_aot_compile/61bda05feca29378847c32f031efa5c8dba258f38b0176a06a3e99e41df8ca50/inductor_cache/wb/cwbiokcltj4325ked6d6k5wutgntx3cwqz5trx5bzjexlassudnt.py":37:35)
#loc23 = loc("/root/.cache/vllm/torch_compile_cache/torch_aot_compile/61bda05feca29378847c32f031efa5c8dba258f38b0176a06a3e99e41df8ca50/inductor_cache/wb/cwbiokcltj4325ked6d6k5wutgntx3cwqz5trx5bzjexlassudnt.py":39:19)
#loc24 = loc("/root/.cache/vllm/torch_compile_cache/torch_aot_compile/61bda05feca29378847c32f031efa5c8dba258f38b0176a06a3e99e41df8ca50/inductor_cache/wb/cwbiokcltj4325ked6d6k5wutgntx3cwqz5trx5bzjexlassudnt.py":41:19)
#loc25 = loc("/root/.cache/vllm/torch_compile_cache/torch_aot_compile/61bda05feca29378847c32f031efa5c8dba258f38b0176a06a3e99e41df8ca50/inductor_cache/wb/cwbiokcltj4325ked6d6k5wutgntx3cwqz5trx5bzjexlassudnt.py":42:28)
#loc26 = loc("/root/.cache/vllm/torch_compile_cache/torch_aot_compile/61bda05feca29378847c32f031efa5c8dba258f38b0176a06a3e99e41df8ca50/inductor_cache/wb/cwbiokcltj4325ked6d6k5wutgntx3cwqz5trx5bzjexlassudnt.py":43:19)
#loc27 = loc("/root/.cache/vllm/torch_compile_cache/torch_aot_compile/61bda05feca29378847c32f031efa5c8dba258f38b0176a06a3e99e41df8ca50/inductor_cache/wb/cwbiokcltj4325ked6d6k5wutgntx3cwqz5trx5bzjexlassudnt.py":44:31)
#loc28 = loc("/root/.cache/vllm/torch_compile_cache/torch_aot_compile/61bda05feca29378847c32f031efa5c8dba258f38b0176a06a3e99e41df8ca50/inductor_cache/wb/cwbiokcltj4325ked6d6k5wutgntx3cwqz5trx5bzjexlassudnt.py":44:36)
#loc29 = loc("/root/.cache/vllm/torch_compile_cache/torch_aot_compile/61bda05feca29378847c32f031efa5c8dba258f38b0176a06a3e99e41df8ca50/inductor_cache/wb/cwbiokcltj4325ked6d6k5wutgntx3cwqz5trx5bzjexlassudnt.py":44:94)
#loc30 = loc("/root/.cache/vllm/torch_compile_cache/torch_aot_compile/61bda05feca29378847c32f031efa5c8dba258f38b0176a06a3e99e41df8ca50/inductor_cache/wb/cwbiokcltj4325ked6d6k5wutgntx3cwqz5trx5bzjexlassudnt.py":47:20)
#loc31 = loc("/root/.cache/vllm/torch_compile_cache/torch_aot_compile/61bda05feca29378847c32f031efa5c8dba258f38b0176a06a3e99e41df8ca50/inductor_cache/wb/cwbiokcltj4325ked6d6k5wutgntx3cwqz5trx5bzjexlassudnt.py":48:20)
#loc32 = loc("/root/.cache/vllm/torch_compile_cache/torch_aot_compile/61bda05feca29378847c32f031efa5c8dba258f38b0176a06a3e99e41df8ca50/inductor_cache/wb/cwbiokcltj4325ked6d6k5wutgntx3cwqz5trx5bzjexlassudnt.py":50:34)
#loc33 = loc("/root/.cache/vllm/torch_compile_cache/torch_aot_compile/61bda05feca29378847c32f031efa5c8dba258f38b0176a06a3e99e41df8ca50/inductor_cache/wb/cwbiokcltj4325ked6d6k5wutgntx3cwqz5trx5bzjexlassudnt.py":50:40)
#loc34 = loc("/root/.cache/vllm/torch_compile_cache/torch_aot_compile/61bda05feca29378847c32f031efa5c8dba258f38b0176a06a3e99e41df8ca50/inductor_cache/wb/cwbiokcltj4325ked6d6k5wutgntx3cwqz5trx5bzjexlassudnt.py":50:31)
#loc35 = loc("/root/.cache/vllm/torch_compile_cache/torch_aot_compile/61bda05feca29378847c32f031efa5c8dba258f38b0176a06a3e99e41df8ca50/inductor_cache/wb/cwbiokcltj4325ked6d6k5wutgntx3cwqz5trx5bzjexlassudnt.py":50:46)
#loc36 = loc("/root/.cache/vllm/torch_compile_cache/torch_aot_compile/61bda05feca29378847c32f031efa5c8dba258f38b0176a06a3e99e41df8ca50/inductor_cache/wb/cwbiokcltj4325ked6d6k5wutgntx3cwqz5trx5bzjexlassudnt.py":50:104)
#loc37 = loc("/root/.cache/vllm/torch_compile_cache/torch_aot_compile/61bda05feca29378847c32f031efa5c8dba258f38b0176a06a3e99e41df8ca50/inductor_cache/wb/cwbiokcltj4325ked6d6k5wutgntx3cwqz5trx5bzjexlassudnt.py":51:20)
#loc38 = loc("/root/.cache/vllm/torch_compile_cache/torch_aot_compile/61bda05feca29378847c32f031efa5c8dba258f38b0176a06a3e99e41df8ca50/inductor_cache/wb/cwbiokcltj4325ked6d6k5wutgntx3cwqz5trx5bzjexlassudnt.py":52:36)
#loc39 = loc("/root/.cache/vllm/torch_compile_cache/torch_aot_compile/61bda05feca29378847c32f031efa5c8dba258f38b0176a06a3e99e41df8ca50/inductor_cache/wb/cwbiokcltj4325ked6d6k5wutgntx3cwqz5trx5bzjexlassudnt.py":52:45)
#loc40 = loc("/root/.cache/vllm/torch_compile_cache/torch_aot_compile/61bda05feca29378847c32f031efa5c8dba258f38b0176a06a3e99e41df8ca50/inductor_cache/wb/cwbiokcltj4325ked6d6k5wutgntx3cwqz5trx5bzjexlassudnt.py":52:56)
#loc41 = loc("/root/.cache/vllm/torch_compile_cache/torch_aot_compile/61bda05feca29378847c32f031efa5c8dba258f38b0176a06a3e99e41df8ca50/inductor_cache/wb/cwbiokcltj4325ked6d6k5wutgntx3cwqz5trx5bzjexlassudnt.py":52:31)
#loc42 = loc("/root/.cache/vllm/torch_compile_cache/torch_aot_compile/61bda05feca29378847c32f031efa5c8dba258f38b0176a06a3e99e41df8ca50/inductor_cache/wb/cwbiokcltj4325ked6d6k5wutgntx3cwqz5trx5bzjexlassudnt.py":52:62)
#loc43 = loc("/root/.cache/vllm/torch_compile_cache/torch_aot_compile/61bda05feca29378847c32f031efa5c8dba258f38b0176a06a3e99e41df8ca50/inductor_cache/wb/cwbiokcltj4325ked6d6k5wutgntx3cwqz5trx5bzjexlassudnt.py":52:120)
#loc44 = loc("/root/.cache/vllm/torch_compile_cache/torch_aot_compile/61bda05feca29378847c32f031efa5c8dba258f38b0176a06a3e99e41df8ca50/inductor_cache/wb/cwbiokcltj4325ked6d6k5wutgntx3cwqz5trx5bzjexlassudnt.py":54:20)
#loc45 = loc("/root/.cache/vllm/torch_compile_cache/torch_aot_compile/61bda05feca29378847c32f031efa5c8dba258f38b0176a06a3e99e41df8ca50/inductor_cache/wb/cwbiokcltj4325ked6d6k5wutgntx3cwqz5trx5bzjexlassudnt.py":55:37)
#loc46 = loc("/root/.cache/vllm/torch_compile_cache/torch_aot_compile/61bda05feca29378847c32f031efa5c8dba258f38b0176a06a3e99e41df8ca50/inductor_cache/wb/cwbiokcltj4325ked6d6k5wutgntx3cwqz5trx5bzjexlassudnt.py":55:31)
#loc47 = loc("/root/.cache/vllm/torch_compile_cache/torch_aot_compile/61bda05feca29378847c32f031efa5c8dba258f38b0176a06a3e99e41df8ca50/inductor_cache/wb/cwbiokcltj4325ked6d6k5wutgntx3cwqz5trx5bzjexlassudnt.py":55:43)
#loc48 = loc("/root/.cache/vllm/torch_compile_cache/torch_aot_compile/61bda05feca29378847c32f031efa5c8dba258f38b0176a06a3e99e41df8ca50/inductor_cache/wb/cwbiokcltj4325ked6d6k5wutgntx3cwqz5trx5bzjexlassudnt.py":55:101)
#loc49 = loc("/root/.cache/vllm/torch_compile_cache/torch_aot_compile/61bda05feca29378847c32f031efa5c8dba258f38b0176a06a3e99e41df8ca50/inductor_cache/wb/cwbiokcltj4325ked6d6k5wutgntx3cwqz5trx5bzjexlassudnt.py":57:20)
#loc50 = loc("/root/.cache/vllm/torch_compile_cache/torch_aot_compile/61bda05feca29378847c32f031efa5c8dba258f38b0176a06a3e99e41df8ca50/inductor_cache/wb/cwbiokcltj4325ked6d6k5wutgntx3cwqz5trx5bzjexlassudnt.py":58:20)
#loc51 = loc("/root/.cache/vllm/torch_compile_cache/torch_aot_compile/61bda05feca29378847c32f031efa5c8dba258f38b0176a06a3e99e41df8ca50/inductor_cache/wb/cwbiokcltj4325ked6d6k5wutgntx3cwqz5trx5bzjexlassudnt.py":60:31)
#loc52 = loc("/root/.cache/vllm/torch_compile_cache/torch_aot_compile/61bda05feca29378847c32f031efa5c8dba258f38b0176a06a3e99e41df8ca50/inductor_cache/wb/cwbiokcltj4325ked6d6k5wutgntx3cwqz5trx5bzjexlassudnt.py":60:46)
#loc53 = loc("/root/.cache/vllm/torch_compile_cache/torch_aot_compile/61bda05feca29378847c32f031efa5c8dba258f38b0176a06a3e99e41df8ca50/inductor_cache/wb/cwbiokcltj4325ked6d6k5wutgntx3cwqz5trx5bzjexlassudnt.py":60:104)
#loc54 = loc("/root/.cache/vllm/torch_compile_cache/torch_aot_compile/61bda05feca29378847c32f031efa5c8dba258f38b0176a06a3e99e41df8ca50/inductor_cache/wb/cwbiokcltj4325ked6d6k5wutgntx3cwqz5trx5bzjexlassudnt.py":61:20)
#loc55 = loc("/root/.cache/vllm/torch_compile_cache/torch_aot_compile/61bda05feca29378847c32f031efa5c8dba258f38b0176a06a3e99e41df8ca50/inductor_cache/wb/cwbiokcltj4325ked6d6k5wutgntx3cwqz5trx5bzjexlassudnt.py":62:20)
#loc56 = loc("/root/.cache/vllm/torch_compile_cache/torch_aot_compile/61bda05feca29378847c32f031efa5c8dba258f38b0176a06a3e99e41df8ca50/inductor_cache/wb/cwbiokcltj4325ked6d6k5wutgntx3cwqz5trx5bzjexlassudnt.py":65:20)
#loc57 = loc("/root/.cache/vllm/torch_compile_cache/torch_aot_compile/61bda05feca29378847c32f031efa5c8dba258f38b0176a06a3e99e41df8ca50/inductor_cache/wb/cwbiokcltj4325ked6d6k5wutgntx3cwqz5trx5bzjexlassudnt.py":68:64)
#loc58 = loc("/root/.cache/vllm/torch_compile_cache/torch_aot_compile/61bda05feca29378847c32f031efa5c8dba258f38b0176a06a3e99e41df8ca50/inductor_cache/wb/cwbiokcltj4325ked6d6k5wutgntx3cwqz5trx5bzjexlassudnt.py":68:56)
#loc59 = loc("/root/.cache/vllm/torch_compile_cache/torch_aot_compile/61bda05feca29378847c32f031efa5c8dba258f38b0176a06a3e99e41df8ca50/inductor_cache/wb/cwbiokcltj4325ked6d6k5wutgntx3cwqz5trx5bzjexlassudnt.py":68:31)
#loc60 = loc("/root/.cache/vllm/torch_compile_cache/torch_aot_compile/61bda05feca29378847c32f031efa5c8dba258f38b0176a06a3e99e41df8ca50/inductor_cache/wb/cwbiokcltj4325ked6d6k5wutgntx3cwqz5trx5bzjexlassudnt.py":68:78)
#loc61 = loc("/root/.cache/vllm/torch_compile_cache/torch_aot_compile/61bda05feca29378847c32f031efa5c8dba258f38b0176a06a3e99e41df8ca50/inductor_cache/wb/cwbiokcltj4325ked6d6k5wutgntx3cwqz5trx5bzjexlassudnt.py":68:70)
#loc62 = loc("/root/.cache/vllm/torch_compile_cache/torch_aot_compile/61bda05feca29378847c32f031efa5c8dba258f38b0176a06a3e99e41df8ca50/inductor_cache/wb/cwbiokcltj4325ked6d6k5wutgntx3cwqz5trx5bzjexlassudnt.py":68:129)
#loc63 = loc("/root/.cache/vllm/torch_compile_cache/torch_aot_compile/61bda05feca29378847c32f031efa5c8dba258f38b0176a06a3e99e41df8ca50/inductor_cache/wb/cwbiokcltj4325ked6d6k5wutgntx3cwqz5trx5bzjexlassudnt.py":70:36)
#loc64 = loc("/root/.cache/vllm/torch_compile_cache/torch_aot_compile/61bda05feca29378847c32f031efa5c8dba258f38b0176a06a3e99e41df8ca50/inductor_cache/wb/cwbiokcltj4325ked6d6k5wutgntx3cwqz5trx5bzjexlassudnt.py":72:21)
#loc65 = loc("/root/.cache/vllm/torch_compile_cache/torch_aot_compile/61bda05feca29378847c32f031efa5c8dba258f38b0176a06a3e99e41df8ca50/inductor_cache/wb/cwbiokcltj4325ked6d6k5wutgntx3cwqz5trx5bzjexlassudnt.py":74:20)
#loc66 = loc("/root/.cache/vllm/torch_compile_cache/torch_aot_compile/61bda05feca29378847c32f031efa5c8dba258f38b0176a06a3e99e41df8ca50/inductor_cache/wb/cwbiokcltj4325ked6d6k5wutgntx3cwqz5trx5bzjexlassudnt.py":75:28)
#loc67 = loc("/root/.cache/vllm/torch_compile_cache/torch_aot_compile/61bda05feca29378847c32f031efa5c8dba258f38b0176a06a3e99e41df8ca50/inductor_cache/wb/cwbiokcltj4325ked6d6k5wutgntx3cwqz5trx5bzjexlassudnt.py":76:20)
#loc68 = loc("/root/.cache/vllm/torch_compile_cache/torch_aot_compile/61bda05feca29378847c32f031efa5c8dba258f38b0176a06a3e99e41df8ca50/inductor_cache/wb/cwbiokcltj4325ked6d6k5wutgntx3cwqz5trx5bzjexlassudnt.py":77:37)
#loc69 = loc("/root/.cache/vllm/torch_compile_cache/torch_aot_compile/61bda05feca29378847c32f031efa5c8dba258f38b0176a06a3e99e41df8ca50/inductor_cache/wb/cwbiokcltj4325ked6d6k5wutgntx3cwqz5trx5bzjexlassudnt.py":77:31)
#loc70 = loc("/root/.cache/vllm/torch_compile_cache/torch_aot_compile/61bda05feca29378847c32f031efa5c8dba258f38b0176a06a3e99e41df8ca50/inductor_cache/wb/cwbiokcltj4325ked6d6k5wutgntx3cwqz5trx5bzjexlassudnt.py":77:51)
#loc71 = loc("/root/.cache/vllm/torch_compile_cache/torch_aot_compile/61bda05feca29378847c32f031efa5c8dba258f38b0176a06a3e99e41df8ca50/inductor_cache/wb/cwbiokcltj4325ked6d6k5wutgntx3cwqz5trx5bzjexlassudnt.py":77:110)
#loc72 = loc("/root/.cache/vllm/torch_compile_cache/torch_aot_compile/61bda05feca29378847c32f031efa5c8dba258f38b0176a06a3e99e41df8ca50/inductor_cache/wb/cwbiokcltj4325ked6d6k5wutgntx3cwqz5trx5bzjexlassudnt.py":80:20)
#loc73 = loc("/root/.cache/vllm/torch_compile_cache/torch_aot_compile/61bda05feca29378847c32f031efa5c8dba258f38b0176a06a3e99e41df8ca50/inductor_cache/wb/cwbiokcltj4325ked6d6k5wutgntx3cwqz5trx5bzjexlassudnt.py":81:20)
#loc74 = loc("/root/.cache/vllm/torch_compile_cache/torch_aot_compile/61bda05feca29378847c32f031efa5c8dba258f38b0176a06a3e99e41df8ca50/inductor_cache/wb/cwbiokcltj4325ked6d6k5wutgntx3cwqz5trx5bzjexlassudnt.py":83:40)
#loc75 = loc("/root/.cache/vllm/torch_compile_cache/torch_aot_compile/61bda05feca29378847c32f031efa5c8dba258f38b0176a06a3e99e41df8ca50/inductor_cache/wb/cwbiokcltj4325ked6d6k5wutgntx3cwqz5trx5bzjexlassudnt.py":83:31)
#loc76 = loc("/root/.cache/vllm/torch_compile_cache/torch_aot_compile/61bda05feca29378847c32f031efa5c8dba258f38b0176a06a3e99e41df8ca50/inductor_cache/wb/cwbiokcltj4325ked6d6k5wutgntx3cwqz5trx5bzjexlassudnt.py":83:54)
#loc77 = loc("/root/.cache/vllm/torch_compile_cache/torch_aot_compile/61bda05feca29378847c32f031efa5c8dba258f38b0176a06a3e99e41df8ca50/inductor_cache/wb/cwbiokcltj4325ked6d6k5wutgntx3cwqz5trx5bzjexlassudnt.py":83:113)
#loc78 = loc("/root/.cache/vllm/torch_compile_cache/torch_aot_compile/61bda05feca29378847c32f031efa5c8dba258f38b0176a06a3e99e41df8ca50/inductor_cache/wb/cwbiokcltj4325ked6d6k5wutgntx3cwqz5trx5bzjexlassudnt.py":84:20)
#loc79 = loc("/root/.cache/vllm/torch_compile_cache/torch_aot_compile/61bda05feca29378847c32f031efa5c8dba258f38b0176a06a3e99e41df8ca50/inductor_cache/wb/cwbiokcltj4325ked6d6k5wutgntx3cwqz5trx5bzjexlassudnt.py":85:51)
#loc80 = loc("/root/.cache/vllm/torch_compile_cache/torch_aot_compile/61bda05feca29378847c32f031efa5c8dba258f38b0176a06a3e99e41df8ca50/inductor_cache/wb/cwbiokcltj4325ked6d6k5wutgntx3cwqz5trx5bzjexlassudnt.py":85:31)
#loc81 = loc("/root/.cache/vllm/torch_compile_cache/torch_aot_compile/61bda05feca29378847c32f031efa5c8dba258f38b0176a06a3e99e41df8ca50/inductor_cache/wb/cwbiokcltj4325ked6d6k5wutgntx3cwqz5trx5bzjexlassudnt.py":85:65)
#loc82 = loc("/root/.cache/vllm/torch_compile_cache/torch_aot_compile/61bda05feca29378847c32f031efa5c8dba258f38b0176a06a3e99e41df8ca50/inductor_cache/wb/cwbiokcltj4325ked6d6k5wutgntx3cwqz5trx5bzjexlassudnt.py":85:124)
#loc83 = loc("/root/.cache/vllm/torch_compile_cache/torch_aot_compile/61bda05feca29378847c32f031efa5c8dba258f38b0176a06a3e99e41df8ca50/inductor_cache/wb/cwbiokcltj4325ked6d6k5wutgntx3cwqz5trx5bzjexlassudnt.py":87:20)
#loc84 = loc("/root/.cache/vllm/torch_compile_cache/torch_aot_compile/61bda05feca29378847c32f031efa5c8dba258f38b0176a06a3e99e41df8ca50/inductor_cache/wb/cwbiokcltj4325ked6d6k5wutgntx3cwqz5trx5bzjexlassudnt.py":88:31)
#loc85 = loc("/root/.cache/vllm/torch_compile_cache/torch_aot_compile/61bda05feca29378847c32f031efa5c8dba258f38b0176a06a3e99e41df8ca50/inductor_cache/wb/cwbiokcltj4325ked6d6k5wutgntx3cwqz5trx5bzjexlassudnt.py":88:44)
#loc86 = loc("/root/.cache/vllm/torch_compile_cache/torch_aot_compile/61bda05feca29378847c32f031efa5c8dba258f38b0176a06a3e99e41df8ca50/inductor_cache/wb/cwbiokcltj4325ked6d6k5wutgntx3cwqz5trx5bzjexlassudnt.py":88:103)
#loc87 = loc("/root/.cache/vllm/torch_compile_cache/torch_aot_compile/61bda05feca29378847c32f031efa5c8dba258f38b0176a06a3e99e41df8ca50/inductor_cache/wb/cwbiokcltj4325ked6d6k5wutgntx3cwqz5trx5bzjexlassudnt.py":90:20)
#loc88 = loc("/root/.cache/vllm/torch_compile_cache/torch_aot_compile/61bda05feca29378847c32f031efa5c8dba258f38b0176a06a3e99e41df8ca50/inductor_cache/wb/cwbiokcltj4325ked6d6k5wutgntx3cwqz5trx5bzjexlassudnt.py":91:20)
#loc89 = loc("/root/.cache/vllm/torch_compile_cache/torch_aot_compile/61bda05feca29378847c32f031efa5c8dba258f38b0176a06a3e99e41df8ca50/inductor_cache/wb/cwbiokcltj4325ked6d6k5wutgntx3cwqz5trx5bzjexlassudnt.py":93:31)
#loc90 = loc("/root/.cache/vllm/torch_compile_cache/torch_aot_compile/61bda05feca29378847c32f031efa5c8dba258f38b0176a06a3e99e41df8ca50/inductor_cache/wb/cwbiokcltj4325ked6d6k5wutgntx3cwqz5trx5bzjexlassudnt.py":93:54)
#loc91 = loc("/root/.cache/vllm/torch_compile_cache/torch_aot_compile/61bda05feca29378847c32f031efa5c8dba258f38b0176a06a3e99e41df8ca50/inductor_cache/wb/cwbiokcltj4325ked6d6k5wutgntx3cwqz5trx5bzjexlassudnt.py":93:113)
#loc92 = loc("/root/.cache/vllm/torch_compile_cache/torch_aot_compile/61bda05feca29378847c32f031efa5c8dba258f38b0176a06a3e99e41df8ca50/inductor_cache/wb/cwbiokcltj4325ked6d6k5wutgntx3cwqz5trx5bzjexlassudnt.py":94:20)
#loc93 = loc("/root/.cache/vllm/torch_compile_cache/torch_aot_compile/61bda05feca29378847c32f031efa5c8dba258f38b0176a06a3e99e41df8ca50/inductor_cache/wb/cwbiokcltj4325ked6d6k5wutgntx3cwqz5trx5bzjexlassudnt.py":95:20)
#loc94 = loc("/root/.cache/vllm/torch_compile_cache/torch_aot_compile/61bda05feca29378847c32f031efa5c8dba258f38b0176a06a3e99e41df8ca50/inductor_cache/wb/cwbiokcltj4325ked6d6k5wutgntx3cwqz5trx5bzjexlassudnt.py":97:35)
#loc95 = loc("/root/.cache/vllm/torch_compile_cache/torch_aot_compile/61bda05feca29378847c32f031efa5c8dba258f38b0176a06a3e99e41df8ca50/inductor_cache/wb/cwbiokcltj4325ked6d6k5wutgntx3cwqz5trx5bzjexlassudnt.py":98:34)
#loc96 = loc("/root/.cache/vllm/torch_compile_cache/torch_aot_compile/61bda05feca29378847c32f031efa5c8dba258f38b0176a06a3e99e41df8ca50/inductor_cache/wb/cwbiokcltj4325ked6d6k5wutgntx3cwqz5trx5bzjexlassudnt.py":64:34)
#loc97 = loc("/root/.cache/vllm/torch_compile_cache/torch_aot_compile/61bda05feca29378847c32f031efa5c8dba258f38b0176a06a3e99e41df8ca50/inductor_cache/wb/cwbiokcltj4325ked6d6k5wutgntx3cwqz5trx5bzjexlassudnt.py":99:30)
#loc98 = loc("/root/.cache/vllm/torch_compile_cache/torch_aot_compile/61bda05feca29378847c32f031efa5c8dba258f38b0176a06a3e99e41df8ca50/inductor_cache/wb/cwbiokcltj4325ked6d6k5wutgntx3cwqz5trx5bzjexlassudnt.py":99:25)
#loc99 = loc("/root/.cache/vllm/torch_compile_cache/torch_aot_compile/61bda05feca29378847c32f031efa5c8dba258f38b0176a06a3e99e41df8ca50/inductor_cache/wb/cwbiokcltj4325ked6d6k5wutgntx3cwqz5trx5bzjexlassudnt.py":99:46)
#loc100 = loc("/root/.cache/vllm/torch_compile_cache/torch_aot_compile/61bda05feca29378847c32f031efa5c8dba258f38b0176a06a3e99e41df8ca50/inductor_cache/wb/cwbiokcltj4325ked6d6k5wutgntx3cwqz5trx5bzjexlassudnt.py":99:4)
#loc108 = loc("x1"(#loc3))
#loc109 = loc("xoffset"(#loc4))
#loc110 = loc("xoffset"(#loc5))
#loc111 = loc("xindex"(#loc6))
#loc112 = loc("xindex"(#loc7))
#loc113 = loc("xmask"(#loc8))
#loc114 = loc("x0"(#loc9))
#loc115 = loc("x1"(#loc10))
#loc116 = loc("x2"(#loc11))
#loc117 = loc("tmp4"(#loc12))
#loc118 = loc("tmp5"(#loc13))
#loc119 = loc("tmp5"(#loc14))
#loc120 = loc("tmp5"(#loc15))
#loc121 = loc("tmp5"(#loc16))
#loc122 = loc("tmp5"(#loc17))
#loc123 = loc("tmp5"(#loc18))
#loc124 = loc("tmp5"(#loc19))
#loc125 = loc("tmp5"(#loc20))
#loc126 = loc("tmp7"(#loc21))
#loc127 = loc("tmp7"(#loc22))
#loc128 = loc("tmp9"(#loc23))
#loc129 = loc("tmp11"(#loc24))
#loc130 = loc("tmp12"(#loc25))
#loc131 = loc("tmp13"(#loc26))
#loc132 = loc("tmp14"(#loc27))
#loc133 = loc("tmp14"(#loc28))
#loc134 = loc("tmp14"(#loc29))
#loc135 = loc("tmp17"(#loc30))
#loc136 = loc("tmp18"(#loc31))
#loc137 = loc("tmp20"(#loc32))
#loc138 = loc("tmp20"(#loc33))
#loc139 = loc("tmp20"(#loc34))
#loc140 = loc("tmp20"(#loc35))
#loc141 = loc("tmp20"(#loc36))
#loc142 = loc("tmp21"(#loc37))
#loc143 = loc("tmp22"(#loc38))
#loc144 = loc("tmp22"(#loc39))
#loc145 = loc("tmp22"(#loc40))
#loc146 = loc("tmp22"(#loc41))
#loc147 = loc("tmp22"(#loc42))
#loc148 = loc("tmp22"(#loc43))
#loc149 = loc("tmp24"(#loc44))
#loc150 = loc("tmp25"(#loc45))
#loc151 = loc("tmp25"(#loc46))
#loc152 = loc("tmp25"(#loc47))
#loc153 = loc("tmp25"(#loc48))
#loc154 = loc("tmp27"(#loc49))
#loc155 = loc("tmp28"(#loc50))
#loc156 = loc("tmp30"(#loc51))
#loc157 = loc("tmp30"(#loc52))
#loc158 = loc("tmp30"(#loc53))
#loc159 = loc("tmp31"(#loc54))
#loc160 = loc("tmp32"(#loc55))
#loc161 = loc("tmp35"(#loc56))
#loc162 = loc("tmp38"(#loc57))
#loc163 = loc("tmp38"(#loc58))
#loc164 = loc("tmp38"(#loc59))
#loc165 = loc("tmp38"(#loc60))
#loc166 = loc("tmp38"(#loc61))
#loc167 = loc("tmp38"(#loc62))
#loc168 = loc("tmp40"(#loc63))
#loc169 = loc("tmp42"(#loc64))
#loc170 = loc("tmp44"(#loc65))
#loc171 = loc("tmp45"(#loc66))
#loc172 = loc("tmp46"(#loc67))
#loc173 = loc("tmp47"(#loc68))
#loc174 = loc("tmp47"(#loc69))
#loc175 = loc("tmp47"(#loc70))
#loc176 = loc("tmp47"(#loc71))
#loc177 = loc("tmp50"(#loc72))
#loc178 = loc("tmp51"(#loc73))
#loc179 = loc("tmp53"(#loc74))
#loc180 = loc("tmp53"(#loc75))
#loc181 = loc("tmp53"(#loc76))
#loc182 = loc("tmp53"(#loc77))
#loc183 = loc("tmp54"(#loc78))
#loc184 = loc("tmp55"(#loc79))
#loc185 = loc("tmp55"(#loc80))
#loc186 = loc("tmp55"(#loc81))
#loc187 = loc("tmp55"(#loc82))
#loc188 = loc("tmp57"(#loc83))
#loc189 = loc("tmp58"(#loc84))
#loc190 = loc("tmp58"(#loc85))
#loc191 = loc("tmp58"(#loc86))
#loc192 = loc("tmp60"(#loc87))
#loc193 = loc("tmp61"(#loc88))
#loc194 = loc("tmp63"(#loc89))
#loc195 = loc("tmp63"(#loc90))
#loc196 = loc("tmp63"(#loc91))
#loc197 = loc("tmp64"(#loc92))
#loc198 = loc("tmp65"(#loc93))
#loc199 = loc("tmp67"(#loc94))
#loc200 = loc("tmp68"(#loc95))
#loc201 = loc("tmp34"(#loc96))
#loc202 = loc(fused[#loc200, #loc201])
