#loc = loc("/usr/local/lib/python3.12/dist-packages/vllm/model_executor/layers/fla/ops/solve_tril.py":238:0)
#loc246 = loc("/usr/local/lib/python3.12/dist-packages/triton/language/standard.py":287:0)
#loc248 = loc(unknown)
#loc251 = loc("/usr/local/lib/python3.12/dist-packages/triton/language/standard.py":262:0)
#loc255 = loc("A"(#loc))
#loc256 = loc("Ai"(#loc))
#loc257 = loc("cu_seqlens"(#loc))
#loc258 = loc("chunk_indices"(#loc))
#loc259 = loc("T"(#loc))
#loc452 = loc("input"(#loc246))
#loc453 = loc("a"(#loc251))
#loc454 = loc("b"(#loc251))
module {
  tt.func public @merge_16x16_to_64x64_inverse_kernel(%A: !tt.ptr<f32> {tt.divisibility = 16 : i32} loc("A"(#loc)), %Ai: !tt.ptr<f16> {tt.divisibility = 16 : i32} loc("Ai"(#loc)), %cu_seqlens: !tt.ptr<i32> {tt.divisibility = 16 : i32} loc("cu_seqlens"(#loc)), %chunk_indices: !tt.ptr<i32> {tt.divisibility = 16 : i32} loc("chunk_indices"(#loc)), %T: i32 loc("T"(#loc))) attributes {noinline = false} {
    %0 = tt.get_program_id x : i32 loc(#loc1)
    %1 = tt.get_program_id y : i32 loc(#loc2)
    %c16_i32 = arith.constant 16 : i32 loc(#loc3)
    %c16_i32_0 = arith.constant 16 : i32 loc(#loc3)
    %2 = arith.divsi %1, %c16_i32_0 : i32 loc(#loc3)
    %c16_i32_1 = arith.constant 16 : i32 loc(#loc4)
    %c16_i32_2 = arith.constant 16 : i32 loc(#loc4)
    %3 = arith.remsi %1, %c16_i32_2 : i32 loc(#loc4)
    %c2_i32 = arith.constant 2 : i32 loc(#loc5)
    %c2_i32_3 = arith.constant 2 : i32 loc(#loc5)
    %4 = arith.extsi %0 : i32 to i64 loc(#loc5)
    %5 = arith.extsi %c2_i32_3 : i32 to i64 loc(#loc5)
    %6 = arith.muli %4, %5 : i64 loc(#loc5)
    %c2147483647_i64 = arith.constant 2147483647 : i64 loc(#loc5)
    %c-2147483648_i64 = arith.constant -2147483648 : i64 loc(#loc5)
    %7 = arith.cmpi sle, %6, %c2147483647_i64 : i64 loc(#loc5)
    %8 = arith.cmpi sge, %6, %c-2147483648_i64 : i64 loc(#loc5)
    %9 = arith.andi %7, %8 : i1 loc(#loc5)
    %10 = arith.muli %0, %c2_i32_3 : i32 loc(#loc5)
    %11 = tt.addptr %chunk_indices, %10 : !tt.ptr<i32>, i32 loc(#loc6)
    %12 = tt.load %11 : !tt.ptr<i32> loc(#loc7)
    %c2_i32_4 = arith.constant 2 : i32 loc(#loc8)
    %c2_i32_5 = arith.constant 2 : i32 loc(#loc8)
    %13 = arith.extsi %0 : i32 to i64 loc(#loc8)
    %14 = arith.extsi %c2_i32_5 : i32 to i64 loc(#loc8)
    %15 = arith.muli %13, %14 : i64 loc(#loc8)
    %c2147483647_i64_6 = arith.constant 2147483647 : i64 loc(#loc8)
    %c-2147483648_i64_7 = arith.constant -2147483648 : i64 loc(#loc8)
    %16 = arith.cmpi sle, %15, %c2147483647_i64_6 : i64 loc(#loc8)
    %17 = arith.cmpi sge, %15, %c-2147483648_i64_7 : i64 loc(#loc8)
    %18 = arith.andi %16, %17 : i1 loc(#loc8)
    %19 = arith.muli %0, %c2_i32_5 : i32 loc(#loc8)
    %20 = tt.addptr %chunk_indices, %19 : !tt.ptr<i32>, i32 loc(#loc9)
    %c1_i32 = arith.constant 1 : i32 loc(#loc10)
    %21 = tt.addptr %20, %c1_i32 : !tt.ptr<i32>, i32 loc(#loc10)
    %22 = tt.load %21 : !tt.ptr<i32> loc(#loc11)
    %23 = tt.addptr %cu_seqlens, %12 : !tt.ptr<i32>, i32 loc(#loc12)
    %24 = tt.load %23 : !tt.ptr<i32> loc(#loc13)
    %25 = tt.addptr %cu_seqlens, %12 : !tt.ptr<i32>, i32 loc(#loc14)
    %c1_i32_8 = arith.constant 1 : i32 loc(#loc15)
    %26 = tt.addptr %25, %c1_i32_8 : !tt.ptr<i32>, i32 loc(#loc15)
    %27 = tt.load %26 : !tt.ptr<i32> loc(#loc16)
    %T_9 = arith.extsi %27 : i32 to i64 loc(#loc260)
    %T_10 = arith.extsi %24 : i32 to i64 loc(#loc260)
    %T_11 = arith.subi %T_9, %T_10 : i64 loc(#loc260)
    %T_12 = arith.constant 2147483647 : i64 loc(#loc260)
    %T_13 = arith.constant -2147483648 : i64 loc(#loc260)
    %T_14 = arith.cmpi sle, %T_11, %T_12 : i64 loc(#loc260)
    %T_15 = arith.cmpi sge, %T_11, %T_13 : i64 loc(#loc260)
    %T_16 = arith.andi %T_14, %T_15 : i1 loc(#loc260)
    %T_17 = arith.subi %27, %24 : i32 loc(#loc260)
    %o_i = tt.make_range {end = 16 : i32, start = 0 : i32} : tensor<16xi32> loc(#loc261)
    %m_A = tt.expand_dims %o_i {axis = 1 : i32} : tensor<16xi32> -> tensor<16x1xi32> loc(#loc262)
    %m_A_18 = tt.expand_dims %o_i {axis = 0 : i32} : tensor<16xi32> -> tensor<1x16xi32> loc(#loc263)
    %m_A_19 = tt.broadcast %m_A : tensor<16x1xi32> -> tensor<16x16xi32> loc(#loc264)
    %m_A_20 = tt.broadcast %m_A_18 : tensor<1x16xi32> -> tensor<16x16xi32> loc(#loc264)
    %m_A_21 = arith.cmpi sgt, %m_A_19, %m_A_20 : tensor<16x16xi32> loc(#loc264)
    %m_I = tt.expand_dims %o_i {axis = 1 : i32} : tensor<16xi32> -> tensor<16x1xi32> loc(#loc265)
    %m_I_22 = tt.expand_dims %o_i {axis = 0 : i32} : tensor<16xi32> -> tensor<1x16xi32> loc(#loc266)
    %m_I_23 = tt.broadcast %m_I : tensor<16x1xi32> -> tensor<16x16xi32> loc(#loc267)
    %m_I_24 = tt.broadcast %m_I_22 : tensor<1x16xi32> -> tensor<16x16xi32> loc(#loc267)
    %m_I_25 = arith.cmpi eq, %m_I_23, %m_I_24 : tensor<16x16xi32> loc(#loc267)
    %A_26 = arith.constant 16 : i32 loc(#loc268)
    %A_27 = arith.constant 16 : i32 loc(#loc268)
    %A_28 = arith.extsi %24 : i32 to i64 loc(#loc268)
    %A_29 = arith.extsi %A_27 : i32 to i64 loc(#loc268)
    %A_30 = arith.muli %A_28, %A_29 : i64 loc(#loc268)
    %A_31 = arith.constant 2147483647 : i64 loc(#loc268)
    %A_32 = arith.constant -2147483648 : i64 loc(#loc268)
    %A_33 = arith.cmpi sle, %A_30, %A_31 : i64 loc(#loc268)
    %A_34 = arith.cmpi sge, %A_30, %A_32 : i64 loc(#loc268)
    %A_35 = arith.andi %A_33, %A_34 : i1 loc(#loc268)
    %A_36 = arith.muli %24, %A_27 : i32 loc(#loc268)
    %A_37 = arith.extsi %A_36 : i32 to i64 loc(#loc269)
    %A_38 = arith.extsi %3 : i32 to i64 loc(#loc269)
    %A_39 = arith.addi %A_37, %A_38 : i64 loc(#loc269)
    %A_40 = arith.constant 2147483647 : i64 loc(#loc269)
    %A_41 = arith.constant -2147483648 : i64 loc(#loc269)
    %A_42 = arith.cmpi sle, %A_39, %A_40 : i64 loc(#loc269)
    %A_43 = arith.cmpi sge, %A_39, %A_41 : i64 loc(#loc269)
    %A_44 = arith.andi %A_42, %A_43 : i1 loc(#loc269)
    %A_45 = arith.addi %A_36, %3 : i32 loc(#loc269)
    %A_46 = arith.constant 64 : i32 loc(#loc270)
    %A_47 = arith.constant 64 : i32 loc(#loc270)
    %A_48 = arith.extsi %A_45 : i32 to i64 loc(#loc270)
    %A_49 = arith.extsi %A_47 : i32 to i64 loc(#loc270)
    %A_50 = arith.muli %A_48, %A_49 : i64 loc(#loc270)
    %A_51 = arith.constant 2147483647 : i64 loc(#loc270)
    %A_52 = arith.constant -2147483648 : i64 loc(#loc270)
    %A_53 = arith.cmpi sle, %A_50, %A_51 : i64 loc(#loc270)
    %A_54 = arith.cmpi sge, %A_50, %A_52 : i64 loc(#loc270)
    %A_55 = arith.andi %A_53, %A_54 : i1 loc(#loc270)
    %A_56 = arith.muli %A_45, %A_47 : i32 loc(#loc270)
    %A_57 = tt.addptr %A, %A_56 : !tt.ptr<f32>, i32 loc(#loc271)
    %Ai_58 = arith.constant 16 : i32 loc(#loc272)
    %Ai_59 = arith.constant 16 : i32 loc(#loc272)
    %Ai_60 = arith.extsi %24 : i32 to i64 loc(#loc272)
    %Ai_61 = arith.extsi %Ai_59 : i32 to i64 loc(#loc272)
    %Ai_62 = arith.muli %Ai_60, %Ai_61 : i64 loc(#loc272)
    %Ai_63 = arith.constant 2147483647 : i64 loc(#loc272)
    %Ai_64 = arith.constant -2147483648 : i64 loc(#loc272)
    %Ai_65 = arith.cmpi sle, %Ai_62, %Ai_63 : i64 loc(#loc272)
    %Ai_66 = arith.cmpi sge, %Ai_62, %Ai_64 : i64 loc(#loc272)
    %Ai_67 = arith.andi %Ai_65, %Ai_66 : i1 loc(#loc272)
    %Ai_68 = arith.muli %24, %Ai_59 : i32 loc(#loc272)
    %Ai_69 = arith.extsi %Ai_68 : i32 to i64 loc(#loc273)
    %Ai_70 = arith.extsi %3 : i32 to i64 loc(#loc273)
    %Ai_71 = arith.addi %Ai_69, %Ai_70 : i64 loc(#loc273)
    %Ai_72 = arith.constant 2147483647 : i64 loc(#loc273)
    %Ai_73 = arith.constant -2147483648 : i64 loc(#loc273)
    %Ai_74 = arith.cmpi sle, %Ai_71, %Ai_72 : i64 loc(#loc273)
    %Ai_75 = arith.cmpi sge, %Ai_71, %Ai_73 : i64 loc(#loc273)
    %Ai_76 = arith.andi %Ai_74, %Ai_75 : i1 loc(#loc273)
    %Ai_77 = arith.addi %Ai_68, %3 : i32 loc(#loc273)
    %Ai_78 = arith.constant 64 : i32 loc(#loc274)
    %Ai_79 = arith.constant 64 : i32 loc(#loc274)
    %Ai_80 = arith.extsi %Ai_77 : i32 to i64 loc(#loc274)
    %Ai_81 = arith.extsi %Ai_79 : i32 to i64 loc(#loc274)
    %Ai_82 = arith.muli %Ai_80, %Ai_81 : i64 loc(#loc274)
    %Ai_83 = arith.constant 2147483647 : i64 loc(#loc274)
    %Ai_84 = arith.constant -2147483648 : i64 loc(#loc274)
    %Ai_85 = arith.cmpi sle, %Ai_82, %Ai_83 : i64 loc(#loc274)
    %Ai_86 = arith.cmpi sge, %Ai_82, %Ai_84 : i64 loc(#loc274)
    %Ai_87 = arith.andi %Ai_85, %Ai_86 : i1 loc(#loc274)
    %Ai_88 = arith.muli %Ai_77, %Ai_79 : i32 loc(#loc274)
    %Ai_89 = tt.addptr %Ai, %Ai_88 : !tt.ptr<f16>, i32 loc(#loc275)
    %p_A_11 = arith.constant 64 : i32 loc(#loc276)
    %p_A_11_90 = arith.constant 64 : i32 loc(#loc276)
    %p_A_11_91 = arith.extsi %22 : i32 to i64 loc(#loc276)
    %p_A_11_92 = arith.extsi %p_A_11_90 : i32 to i64 loc(#loc276)
    %p_A_11_93 = arith.muli %p_A_11_91, %p_A_11_92 : i64 loc(#loc276)
    %p_A_11_94 = arith.constant 2147483647 : i64 loc(#loc276)
    %p_A_11_95 = arith.constant -2147483648 : i64 loc(#loc276)
    %p_A_11_96 = arith.cmpi sle, %p_A_11_93, %p_A_11_94 : i64 loc(#loc276)
    %p_A_11_97 = arith.cmpi sge, %p_A_11_93, %p_A_11_95 : i64 loc(#loc276)
    %p_A_11_98 = arith.andi %p_A_11_96, %p_A_11_97 : i1 loc(#loc276)
    %p_A_11_99 = arith.muli %22, %p_A_11_90 : i32 loc(#loc276)
    %p_A_11_100 = arith.extsi %T_17 : i32 to i64 loc(#loc277)
    %p_A_11_101 = arith.constant 64 : i64 loc(#loc277)
    %p_A_11_102 = arith.constant 1024 : i64 loc(#loc277)
    %p_A_11_103 = arith.constant 1 : i64 loc(#loc277)
    %p_A_11_104 = arith.constant 0 : i32 loc(#loc277)
    %p_A_11_105 = tt.make_tensor_ptr %A_57, [%p_A_11_100, %p_A_11_101], [%p_A_11_102, %p_A_11_103], [%p_A_11_99, %p_A_11_104] {order = array<i32: 1, 0>} : <tensor<16x16xf32>> loc(#loc277)
    %p_A_22 = arith.constant 64 : i32 loc(#loc278)
    %p_A_22_106 = arith.constant 64 : i32 loc(#loc278)
    %p_A_22_107 = arith.extsi %22 : i32 to i64 loc(#loc278)
    %p_A_22_108 = arith.extsi %p_A_22_106 : i32 to i64 loc(#loc278)
    %p_A_22_109 = arith.muli %p_A_22_107, %p_A_22_108 : i64 loc(#loc278)
    %p_A_22_110 = arith.constant 2147483647 : i64 loc(#loc278)
    %p_A_22_111 = arith.constant -2147483648 : i64 loc(#loc278)
    %p_A_22_112 = arith.cmpi sle, %p_A_22_109, %p_A_22_110 : i64 loc(#loc278)
    %p_A_22_113 = arith.cmpi sge, %p_A_22_109, %p_A_22_111 : i64 loc(#loc278)
    %p_A_22_114 = arith.andi %p_A_22_112, %p_A_22_113 : i1 loc(#loc278)
    %p_A_22_115 = arith.muli %22, %p_A_22_106 : i32 loc(#loc278)
    %p_A_22_116 = arith.constant 16 : i32 loc(#loc279)
    %p_A_22_117 = arith.constant 16 : i32 loc(#loc279)
    %p_A_22_118 = arith.extsi %p_A_22_115 : i32 to i64 loc(#loc279)
    %p_A_22_119 = arith.extsi %p_A_22_117 : i32 to i64 loc(#loc279)
    %p_A_22_120 = arith.addi %p_A_22_118, %p_A_22_119 : i64 loc(#loc279)
    %p_A_22_121 = arith.constant 2147483647 : i64 loc(#loc279)
    %p_A_22_122 = arith.constant -2147483648 : i64 loc(#loc279)
    %p_A_22_123 = arith.cmpi sle, %p_A_22_120, %p_A_22_121 : i64 loc(#loc279)
    %p_A_22_124 = arith.cmpi sge, %p_A_22_120, %p_A_22_122 : i64 loc(#loc279)
    %p_A_22_125 = arith.andi %p_A_22_123, %p_A_22_124 : i1 loc(#loc279)
    %p_A_22_126 = arith.addi %p_A_22_115, %p_A_22_117 : i32 loc(#loc279)
    %p_A_22_127 = arith.extsi %T_17 : i32 to i64 loc(#loc280)
    %p_A_22_128 = arith.constant 64 : i64 loc(#loc280)
    %p_A_22_129 = arith.constant 1024 : i64 loc(#loc280)
    %p_A_22_130 = arith.constant 1 : i64 loc(#loc280)
    %p_A_22_131 = arith.constant 16 : i32 loc(#loc280)
    %p_A_22_132 = tt.make_tensor_ptr %A_57, [%p_A_22_127, %p_A_22_128], [%p_A_22_129, %p_A_22_130], [%p_A_22_126, %p_A_22_131] {order = array<i32: 1, 0>} : <tensor<16x16xf32>> loc(#loc280)
    %p_A_33 = arith.constant 64 : i32 loc(#loc281)
    %p_A_33_133 = arith.constant 64 : i32 loc(#loc281)
    %p_A_33_134 = arith.extsi %22 : i32 to i64 loc(#loc281)
    %p_A_33_135 = arith.extsi %p_A_33_133 : i32 to i64 loc(#loc281)
    %p_A_33_136 = arith.muli %p_A_33_134, %p_A_33_135 : i64 loc(#loc281)
    %p_A_33_137 = arith.constant 2147483647 : i64 loc(#loc281)
    %p_A_33_138 = arith.constant -2147483648 : i64 loc(#loc281)
    %p_A_33_139 = arith.cmpi sle, %p_A_33_136, %p_A_33_137 : i64 loc(#loc281)
    %p_A_33_140 = arith.cmpi sge, %p_A_33_136, %p_A_33_138 : i64 loc(#loc281)
    %p_A_33_141 = arith.andi %p_A_33_139, %p_A_33_140 : i1 loc(#loc281)
    %p_A_33_142 = arith.muli %22, %p_A_33_133 : i32 loc(#loc281)
    %p_A_33_143 = arith.constant 32 : i32 loc(#loc282)
    %p_A_33_144 = arith.constant 32 : i32 loc(#loc282)
    %p_A_33_145 = arith.extsi %p_A_33_142 : i32 to i64 loc(#loc282)
    %p_A_33_146 = arith.extsi %p_A_33_144 : i32 to i64 loc(#loc282)
    %p_A_33_147 = arith.addi %p_A_33_145, %p_A_33_146 : i64 loc(#loc282)
    %p_A_33_148 = arith.constant 2147483647 : i64 loc(#loc282)
    %p_A_33_149 = arith.constant -2147483648 : i64 loc(#loc282)
    %p_A_33_150 = arith.cmpi sle, %p_A_33_147, %p_A_33_148 : i64 loc(#loc282)
    %p_A_33_151 = arith.cmpi sge, %p_A_33_147, %p_A_33_149 : i64 loc(#loc282)
    %p_A_33_152 = arith.andi %p_A_33_150, %p_A_33_151 : i1 loc(#loc282)
    %p_A_33_153 = arith.addi %p_A_33_142, %p_A_33_144 : i32 loc(#loc282)
    %p_A_33_154 = arith.extsi %T_17 : i32 to i64 loc(#loc283)
    %p_A_33_155 = arith.constant 64 : i64 loc(#loc283)
    %p_A_33_156 = arith.constant 1024 : i64 loc(#loc283)
    %p_A_33_157 = arith.constant 1 : i64 loc(#loc283)
    %p_A_33_158 = arith.constant 32 : i32 loc(#loc283)
    %p_A_33_159 = tt.make_tensor_ptr %A_57, [%p_A_33_154, %p_A_33_155], [%p_A_33_156, %p_A_33_157], [%p_A_33_153, %p_A_33_158] {order = array<i32: 1, 0>} : <tensor<16x16xf32>> loc(#loc283)
    %p_A_44 = arith.constant 64 : i32 loc(#loc284)
    %p_A_44_160 = arith.constant 64 : i32 loc(#loc284)
    %p_A_44_161 = arith.extsi %22 : i32 to i64 loc(#loc284)
    %p_A_44_162 = arith.extsi %p_A_44_160 : i32 to i64 loc(#loc284)
    %p_A_44_163 = arith.muli %p_A_44_161, %p_A_44_162 : i64 loc(#loc284)
    %p_A_44_164 = arith.constant 2147483647 : i64 loc(#loc284)
    %p_A_44_165 = arith.constant -2147483648 : i64 loc(#loc284)
    %p_A_44_166 = arith.cmpi sle, %p_A_44_163, %p_A_44_164 : i64 loc(#loc284)
    %p_A_44_167 = arith.cmpi sge, %p_A_44_163, %p_A_44_165 : i64 loc(#loc284)
    %p_A_44_168 = arith.andi %p_A_44_166, %p_A_44_167 : i1 loc(#loc284)
    %p_A_44_169 = arith.muli %22, %p_A_44_160 : i32 loc(#loc284)
    %p_A_44_170 = arith.constant 48 : i32 loc(#loc285)
    %p_A_44_171 = arith.constant 48 : i32 loc(#loc285)
    %p_A_44_172 = arith.extsi %p_A_44_169 : i32 to i64 loc(#loc285)
    %p_A_44_173 = arith.extsi %p_A_44_171 : i32 to i64 loc(#loc285)
    %p_A_44_174 = arith.addi %p_A_44_172, %p_A_44_173 : i64 loc(#loc285)
    %p_A_44_175 = arith.constant 2147483647 : i64 loc(#loc285)
    %p_A_44_176 = arith.constant -2147483648 : i64 loc(#loc285)
    %p_A_44_177 = arith.cmpi sle, %p_A_44_174, %p_A_44_175 : i64 loc(#loc285)
    %p_A_44_178 = arith.cmpi sge, %p_A_44_174, %p_A_44_176 : i64 loc(#loc285)
    %p_A_44_179 = arith.andi %p_A_44_177, %p_A_44_178 : i1 loc(#loc285)
    %p_A_44_180 = arith.addi %p_A_44_169, %p_A_44_171 : i32 loc(#loc285)
    %p_A_44_181 = arith.extsi %T_17 : i32 to i64 loc(#loc286)
    %p_A_44_182 = arith.constant 64 : i64 loc(#loc286)
    %p_A_44_183 = arith.constant 1024 : i64 loc(#loc286)
    %p_A_44_184 = arith.constant 1 : i64 loc(#loc286)
    %p_A_44_185 = arith.constant 48 : i32 loc(#loc286)
    %p_A_44_186 = tt.make_tensor_ptr %A_57, [%p_A_44_181, %p_A_44_182], [%p_A_44_183, %p_A_44_184], [%p_A_44_180, %p_A_44_185] {order = array<i32: 1, 0>} : <tensor<16x16xf32>> loc(#loc286)
    %b_Ai_11 = tt.load %p_A_11_105 {boundaryCheck = array<i32: 0, 1>} : !tt.ptr<tensor<16x16xf32>> loc(#loc287)
    %b_Ai_22 = tt.load %p_A_22_132 {boundaryCheck = array<i32: 0, 1>} : !tt.ptr<tensor<16x16xf32>> loc(#loc288)
    %b_Ai_33 = tt.load %p_A_33_159 {boundaryCheck = array<i32: 0, 1>} : !tt.ptr<tensor<16x16xf32>> loc(#loc289)
    %b_Ai_44 = tt.load %p_A_44_186 {boundaryCheck = array<i32: 0, 1>} : !tt.ptr<tensor<16x16xf32>> loc(#loc290)
    %b_Ai_11_187 = arith.constant 0 : i32 loc(#loc291)
    %b_Ai_11_188 = arith.constant 0.000000e+00 : f32 loc(#loc291)
    %b_Ai_11_189 = arith.constant dense<0.000000e+00> : tensor<16x16xf32> loc(#loc291)
    %b_Ai_11_190 = arith.select %m_A_21, %b_Ai_11, %b_Ai_11_189 : tensor<16x16xi1>, tensor<16x16xf32> loc(#loc291)
    %b_Ai_11_191 = arith.constant 0.000000e+00 : f32 loc(#loc292)
    %b_Ai_11_192 = arith.constant dense<0.000000e+00> : tensor<16x16xf32> loc(#loc292)
    %b_Ai_11_193 = arith.subf %b_Ai_11_192, %b_Ai_11_190 : tensor<16x16xf32> loc(#loc292)
    %b_Ai_22_194 = arith.constant 0 : i32 loc(#loc293)
    %b_Ai_22_195 = arith.constant 0.000000e+00 : f32 loc(#loc293)
    %b_Ai_22_196 = arith.constant dense<0.000000e+00> : tensor<16x16xf32> loc(#loc293)
    %b_Ai_22_197 = arith.select %m_A_21, %b_Ai_22, %b_Ai_22_196 : tensor<16x16xi1>, tensor<16x16xf32> loc(#loc293)
    %b_Ai_22_198 = arith.constant 0.000000e+00 : f32 loc(#loc294)
    %b_Ai_22_199 = arith.constant dense<0.000000e+00> : tensor<16x16xf32> loc(#loc294)
    %b_Ai_22_200 = arith.subf %b_Ai_22_199, %b_Ai_22_197 : tensor<16x16xf32> loc(#loc294)
    %b_Ai_33_201 = arith.constant 0 : i32 loc(#loc295)
    %b_Ai_33_202 = arith.constant 0.000000e+00 : f32 loc(#loc295)
    %b_Ai_33_203 = arith.constant dense<0.000000e+00> : tensor<16x16xf32> loc(#loc295)
    %b_Ai_33_204 = arith.select %m_A_21, %b_Ai_33, %b_Ai_33_203 : tensor<16x16xi1>, tensor<16x16xf32> loc(#loc295)
    %b_Ai_33_205 = arith.constant 0.000000e+00 : f32 loc(#loc296)
    %b_Ai_33_206 = arith.constant dense<0.000000e+00> : tensor<16x16xf32> loc(#loc296)
    %b_Ai_33_207 = arith.subf %b_Ai_33_206, %b_Ai_33_204 : tensor<16x16xf32> loc(#loc296)
    %b_Ai_44_208 = arith.constant 0 : i32 loc(#loc297)
    %b_Ai_44_209 = arith.constant 0.000000e+00 : f32 loc(#loc297)
    %b_Ai_44_210 = arith.constant dense<0.000000e+00> : tensor<16x16xf32> loc(#loc297)
    %b_Ai_44_211 = arith.select %m_A_21, %b_Ai_44, %b_Ai_44_210 : tensor<16x16xi1>, tensor<16x16xf32> loc(#loc297)
    %b_Ai_44_212 = arith.constant 0.000000e+00 : f32 loc(#loc298)
    %b_Ai_44_213 = arith.constant dense<0.000000e+00> : tensor<16x16xf32> loc(#loc298)
    %b_Ai_44_214 = arith.subf %b_Ai_44_213, %b_Ai_44_211 : tensor<16x16xf32> loc(#loc298)
    %c64_i32 = arith.constant 64 : i32 loc(#loc56)
    %c64_i32_215 = arith.constant 64 : i32 loc(#loc56)
    %28 = arith.extsi %22 : i32 to i64 loc(#loc56)
    %29 = arith.extsi %c64_i32_215 : i32 to i64 loc(#loc56)
    %30 = arith.muli %28, %29 : i64 loc(#loc56)
    %c2147483647_i64_216 = arith.constant 2147483647 : i64 loc(#loc56)
    %c-2147483648_i64_217 = arith.constant -2147483648 : i64 loc(#loc56)
    %31 = arith.cmpi sle, %30, %c2147483647_i64_216 : i64 loc(#loc56)
    %32 = arith.cmpi sge, %30, %c-2147483648_i64_217 : i64 loc(#loc56)
    %33 = arith.andi %31, %32 : i1 loc(#loc56)
    %34 = arith.muli %22, %c64_i32_215 : i32 loc(#loc56)
    %35 = arith.extsi %T_17 : i32 to i64 loc(#loc57)
    %36 = arith.extsi %34 : i32 to i64 loc(#loc57)
    %37 = arith.subi %35, %36 : i64 loc(#loc57)
    %c2147483647_i64_218 = arith.constant 2147483647 : i64 loc(#loc57)
    %c-2147483648_i64_219 = arith.constant -2147483648 : i64 loc(#loc57)
    %38 = arith.cmpi sle, %37, %c2147483647_i64_218 : i64 loc(#loc57)
    %39 = arith.cmpi sge, %37, %c-2147483648_i64_219 : i64 loc(#loc57)
    %40 = arith.andi %38, %39 : i1 loc(#loc57)
    %41 = arith.subi %T_17, %34 : i32 loc(#loc57)
    %c16_i32_220 = arith.constant 16 : i32 loc(#loc58)
    %42 = arith.minsi %c16_i32_220, %41 : i32 loc(#loc58)
    %c2_i32_221 = arith.constant 2 : i32 loc(#loc59)
    %c1_i32_222 = arith.constant 1 : i32 loc(#loc59)
    %43 = arith.bitcast %c2_i32_221 : i32 to i32 loc(#loc59)
    %44 = arith.bitcast %42 : i32 to i32 loc(#loc59)
    %45 = arith.bitcast %c1_i32_222 : i32 to i32 loc(#loc59)
    %46 = ub.poison : i32 loc(#loc59)
    %b_Ai_11_223 = scf.for %i = %43 to %44 step %45 iter_args(%b_Ai_11_742 = %b_Ai_11_193) -> (tensor<16x16xf32>)  : i32 {
      %b_a_11 = arith.constant 64 : i32 loc(#loc300)
      %b_a_11_743 = arith.constant 64 : i32 loc(#loc300)
      %b_a_11_744 = arith.extsi %22 : i32 to i64 loc(#loc300)
      %b_a_11_745 = arith.extsi %b_a_11_743 : i32 to i64 loc(#loc300)
      %b_a_11_746 = arith.muli %b_a_11_744, %b_a_11_745 : i64 loc(#loc300)
      %b_a_11_747 = arith.constant 2147483647 : i64 loc(#loc300)
      %b_a_11_748 = arith.constant -2147483648 : i64 loc(#loc300)
      %b_a_11_749 = arith.cmpi sle, %b_a_11_746, %b_a_11_747 : i64 loc(#loc300)
      %b_a_11_750 = arith.cmpi sge, %b_a_11_746, %b_a_11_748 : i64 loc(#loc300)
      %b_a_11_751 = arith.andi %b_a_11_749, %b_a_11_750 : i1 loc(#loc300)
      %b_a_11_752 = arith.muli %22, %b_a_11_743 : i32 loc(#loc300)
      %b_a_11_753 = arith.extsi %b_a_11_752 : i32 to i64 loc(#loc301)
      %b_a_11_754 = arith.extsi %i : i32 to i64 loc(#loc301)
      %b_a_11_755 = arith.addi %b_a_11_753, %b_a_11_754 : i64 loc(#loc301)
      %b_a_11_756 = arith.constant 2147483647 : i64 loc(#loc301)
      %b_a_11_757 = arith.constant -2147483648 : i64 loc(#loc301)
      %b_a_11_758 = arith.cmpi sle, %b_a_11_755, %b_a_11_756 : i64 loc(#loc301)
      %b_a_11_759 = arith.cmpi sge, %b_a_11_755, %b_a_11_757 : i64 loc(#loc301)
      %b_a_11_760 = arith.andi %b_a_11_758, %b_a_11_759 : i1 loc(#loc301)
      %b_a_11_761 = arith.addi %b_a_11_752, %i : i32 loc(#loc301)
      %b_a_11_762 = arith.constant 16 : i32 loc(#loc302)
      %b_a_11_763 = arith.constant 16 : i32 loc(#loc302)
      %b_a_11_764 = arith.extsi %b_a_11_761 : i32 to i64 loc(#loc302)
      %b_a_11_765 = arith.extsi %b_a_11_763 : i32 to i64 loc(#loc302)
      %b_a_11_766 = arith.muli %b_a_11_764, %b_a_11_765 : i64 loc(#loc302)
      %b_a_11_767 = arith.constant 2147483647 : i64 loc(#loc302)
      %b_a_11_768 = arith.constant -2147483648 : i64 loc(#loc302)
      %b_a_11_769 = arith.cmpi sle, %b_a_11_766, %b_a_11_767 : i64 loc(#loc302)
      %b_a_11_770 = arith.cmpi sge, %b_a_11_766, %b_a_11_768 : i64 loc(#loc302)
      %b_a_11_771 = arith.andi %b_a_11_769, %b_a_11_770 : i1 loc(#loc302)
      %b_a_11_772 = arith.muli %b_a_11_761, %b_a_11_763 : i32 loc(#loc302)
      %b_a_11_773 = arith.constant 64 : i32 loc(#loc303)
      %b_a_11_774 = arith.constant 64 : i32 loc(#loc303)
      %b_a_11_775 = arith.extsi %b_a_11_772 : i32 to i64 loc(#loc303)
      %b_a_11_776 = arith.extsi %b_a_11_774 : i32 to i64 loc(#loc303)
      %b_a_11_777 = arith.muli %b_a_11_775, %b_a_11_776 : i64 loc(#loc303)
      %b_a_11_778 = arith.constant 2147483647 : i64 loc(#loc303)
      %b_a_11_779 = arith.constant -2147483648 : i64 loc(#loc303)
      %b_a_11_780 = arith.cmpi sle, %b_a_11_777, %b_a_11_778 : i64 loc(#loc303)
      %b_a_11_781 = arith.cmpi sge, %b_a_11_777, %b_a_11_779 : i64 loc(#loc303)
      %b_a_11_782 = arith.andi %b_a_11_780, %b_a_11_781 : i1 loc(#loc303)
      %b_a_11_783 = arith.muli %b_a_11_772, %b_a_11_774 : i32 loc(#loc303)
      %b_a_11_784 = tt.addptr %A_57, %b_a_11_783 : !tt.ptr<f32>, i32 loc(#loc304)
      %b_a_11_785 = tt.splat %b_a_11_784 : !tt.ptr<f32> -> tensor<16x!tt.ptr<f32>> loc(#loc305)
      %b_a_11_786 = tt.addptr %b_a_11_785, %o_i : tensor<16x!tt.ptr<f32>>, tensor<16xi32> loc(#loc305)
      %b_a_11_787 = tt.load %b_a_11_786 : tensor<16x!tt.ptr<f32>> loc(#loc306)
      %b_a_11_788 = arith.constant 0.000000e+00 : f32 loc(#loc307)
      %b_a_11_789 = arith.constant dense<0.000000e+00> : tensor<16xf32> loc(#loc307)
      %b_a_11_790 = arith.subf %b_a_11_789, %b_a_11_787 : tensor<16xf32> loc(#loc307)
      %b_a_11_791 = tt.expand_dims %b_a_11_790 {axis = 1 : i32} : tensor<16xf32> -> tensor<16x1xf32> loc(#loc308)
      %b_a_11_792 = tt.broadcast %b_a_11_791 : tensor<16x1xf32> -> tensor<16x16xf32> loc(#loc309)
      %b_a_11_793 = arith.mulf %b_a_11_792, %b_Ai_11_742 : tensor<16x16xf32> loc(#loc309)
      %b_a_11_794 = tt.call @"triton.language.standard.sum__fp32S16_16S__(1,)cconstexpr_0__(2,)cconstexpr_False__(3,)cNone"(%b_a_11_793) : (tensor<16x16xf32>) -> tensor<16xf32> loc(#loc310)
      %b_a_11_795 = arith.addf %b_a_11_790, %b_a_11_794 : tensor<16xf32> loc(#loc311)
      %b_Ai_11_796 = tt.splat %i : i32 -> tensor<16xi32> loc(#loc312)
      %b_Ai_11_797 = arith.cmpi eq, %o_i, %b_Ai_11_796 : tensor<16xi32> loc(#loc312)
      %b_Ai_11_798 = tt.expand_dims %b_Ai_11_797 {axis = 1 : i32} : tensor<16xi1> -> tensor<16x1xi1> loc(#loc313)
      %b_Ai_11_799 = tt.expand_dims %b_a_11_795 {axis = 0 : i32} : tensor<16xf32> -> tensor<1x16xf32> loc(#loc314)
      %b_Ai_11_800 = tt.broadcast %b_Ai_11_799 : tensor<1x16xf32> -> tensor<16x16xf32> loc(#loc314)
      %b_Ai_11_801 = tt.broadcast %b_Ai_11_798 : tensor<16x1xi1> -> tensor<16x16xi1> loc(#loc314)
      %b_Ai_11_802 = arith.select %b_Ai_11_801, %b_Ai_11_800, %b_Ai_11_742 : tensor<16x16xi1>, tensor<16x16xf32> loc(#loc314)
      scf.yield %b_Ai_11_802 : tensor<16x16xf32> loc(#loc75)
    } loc(#loc299)
    %c64_i32_224 = arith.constant 64 : i32 loc(#loc76)
    %c64_i32_225 = arith.constant 64 : i32 loc(#loc76)
    %47 = arith.extsi %22 : i32 to i64 loc(#loc76)
    %48 = arith.extsi %c64_i32_225 : i32 to i64 loc(#loc76)
    %49 = arith.muli %47, %48 : i64 loc(#loc76)
    %c2147483647_i64_226 = arith.constant 2147483647 : i64 loc(#loc76)
    %c-2147483648_i64_227 = arith.constant -2147483648 : i64 loc(#loc76)
    %50 = arith.cmpi sle, %49, %c2147483647_i64_226 : i64 loc(#loc76)
    %51 = arith.cmpi sge, %49, %c-2147483648_i64_227 : i64 loc(#loc76)
    %52 = arith.andi %50, %51 : i1 loc(#loc76)
    %53 = arith.muli %22, %c64_i32_225 : i32 loc(#loc76)
    %54 = arith.extsi %T_17 : i32 to i64 loc(#loc77)
    %55 = arith.extsi %53 : i32 to i64 loc(#loc77)
    %56 = arith.subi %54, %55 : i64 loc(#loc77)
    %c2147483647_i64_228 = arith.constant 2147483647 : i64 loc(#loc77)
    %c-2147483648_i64_229 = arith.constant -2147483648 : i64 loc(#loc77)
    %57 = arith.cmpi sle, %56, %c2147483647_i64_228 : i64 loc(#loc77)
    %58 = arith.cmpi sge, %56, %c-2147483648_i64_229 : i64 loc(#loc77)
    %59 = arith.andi %57, %58 : i1 loc(#loc77)
    %60 = arith.subi %T_17, %53 : i32 loc(#loc77)
    %c32_i32 = arith.constant 32 : i32 loc(#loc78)
    %61 = arith.minsi %c32_i32, %60 : i32 loc(#loc78)
    %c18_i32 = arith.constant 18 : i32 loc(#loc79)
    %c1_i32_230 = arith.constant 1 : i32 loc(#loc79)
    %62 = arith.bitcast %c18_i32 : i32 to i32 loc(#loc79)
    %63 = arith.bitcast %61 : i32 to i32 loc(#loc79)
    %64 = arith.bitcast %c1_i32_230 : i32 to i32 loc(#loc79)
    %65 = ub.poison : i32 loc(#loc79)
    %b_Ai_22_231 = scf.for %i = %62 to %63 step %64 iter_args(%b_Ai_22_742 = %b_Ai_22_200) -> (tensor<16x16xf32>)  : i32 {
      %b_a_22 = arith.constant 64 : i32 loc(#loc316)
      %b_a_22_743 = arith.constant 64 : i32 loc(#loc316)
      %b_a_22_744 = arith.extsi %22 : i32 to i64 loc(#loc316)
      %b_a_22_745 = arith.extsi %b_a_22_743 : i32 to i64 loc(#loc316)
      %b_a_22_746 = arith.muli %b_a_22_744, %b_a_22_745 : i64 loc(#loc316)
      %b_a_22_747 = arith.constant 2147483647 : i64 loc(#loc316)
      %b_a_22_748 = arith.constant -2147483648 : i64 loc(#loc316)
      %b_a_22_749 = arith.cmpi sle, %b_a_22_746, %b_a_22_747 : i64 loc(#loc316)
      %b_a_22_750 = arith.cmpi sge, %b_a_22_746, %b_a_22_748 : i64 loc(#loc316)
      %b_a_22_751 = arith.andi %b_a_22_749, %b_a_22_750 : i1 loc(#loc316)
      %b_a_22_752 = arith.muli %22, %b_a_22_743 : i32 loc(#loc316)
      %b_a_22_753 = arith.extsi %b_a_22_752 : i32 to i64 loc(#loc317)
      %b_a_22_754 = arith.extsi %i : i32 to i64 loc(#loc317)
      %b_a_22_755 = arith.addi %b_a_22_753, %b_a_22_754 : i64 loc(#loc317)
      %b_a_22_756 = arith.constant 2147483647 : i64 loc(#loc317)
      %b_a_22_757 = arith.constant -2147483648 : i64 loc(#loc317)
      %b_a_22_758 = arith.cmpi sle, %b_a_22_755, %b_a_22_756 : i64 loc(#loc317)
      %b_a_22_759 = arith.cmpi sge, %b_a_22_755, %b_a_22_757 : i64 loc(#loc317)
      %b_a_22_760 = arith.andi %b_a_22_758, %b_a_22_759 : i1 loc(#loc317)
      %b_a_22_761 = arith.addi %b_a_22_752, %i : i32 loc(#loc317)
      %b_a_22_762 = arith.constant 16 : i32 loc(#loc318)
      %b_a_22_763 = arith.constant 16 : i32 loc(#loc318)
      %b_a_22_764 = arith.extsi %b_a_22_761 : i32 to i64 loc(#loc318)
      %b_a_22_765 = arith.extsi %b_a_22_763 : i32 to i64 loc(#loc318)
      %b_a_22_766 = arith.muli %b_a_22_764, %b_a_22_765 : i64 loc(#loc318)
      %b_a_22_767 = arith.constant 2147483647 : i64 loc(#loc318)
      %b_a_22_768 = arith.constant -2147483648 : i64 loc(#loc318)
      %b_a_22_769 = arith.cmpi sle, %b_a_22_766, %b_a_22_767 : i64 loc(#loc318)
      %b_a_22_770 = arith.cmpi sge, %b_a_22_766, %b_a_22_768 : i64 loc(#loc318)
      %b_a_22_771 = arith.andi %b_a_22_769, %b_a_22_770 : i1 loc(#loc318)
      %b_a_22_772 = arith.muli %b_a_22_761, %b_a_22_763 : i32 loc(#loc318)
      %b_a_22_773 = arith.constant 64 : i32 loc(#loc319)
      %b_a_22_774 = arith.constant 64 : i32 loc(#loc319)
      %b_a_22_775 = arith.extsi %b_a_22_772 : i32 to i64 loc(#loc319)
      %b_a_22_776 = arith.extsi %b_a_22_774 : i32 to i64 loc(#loc319)
      %b_a_22_777 = arith.muli %b_a_22_775, %b_a_22_776 : i64 loc(#loc319)
      %b_a_22_778 = arith.constant 2147483647 : i64 loc(#loc319)
      %b_a_22_779 = arith.constant -2147483648 : i64 loc(#loc319)
      %b_a_22_780 = arith.cmpi sle, %b_a_22_777, %b_a_22_778 : i64 loc(#loc319)
      %b_a_22_781 = arith.cmpi sge, %b_a_22_777, %b_a_22_779 : i64 loc(#loc319)
      %b_a_22_782 = arith.andi %b_a_22_780, %b_a_22_781 : i1 loc(#loc319)
      %b_a_22_783 = arith.muli %b_a_22_772, %b_a_22_774 : i32 loc(#loc319)
      %b_a_22_784 = tt.addptr %A_57, %b_a_22_783 : !tt.ptr<f32>, i32 loc(#loc320)
      %b_a_22_785 = tt.splat %b_a_22_784 : !tt.ptr<f32> -> tensor<16x!tt.ptr<f32>> loc(#loc321)
      %b_a_22_786 = tt.addptr %b_a_22_785, %o_i : tensor<16x!tt.ptr<f32>>, tensor<16xi32> loc(#loc321)
      %b_a_22_787 = arith.constant 16 : i32 loc(#loc322)
      %b_a_22_788 = arith.constant dense<16> : tensor<16xi32> loc(#loc322)
      %b_a_22_789 = tt.addptr %b_a_22_786, %b_a_22_788 : tensor<16x!tt.ptr<f32>>, tensor<16xi32> loc(#loc322)
      %b_a_22_790 = tt.load %b_a_22_789 : tensor<16x!tt.ptr<f32>> loc(#loc323)
      %b_a_22_791 = arith.constant 0.000000e+00 : f32 loc(#loc324)
      %b_a_22_792 = arith.constant dense<0.000000e+00> : tensor<16xf32> loc(#loc324)
      %b_a_22_793 = arith.subf %b_a_22_792, %b_a_22_790 : tensor<16xf32> loc(#loc324)
      %b_a_22_794 = tt.expand_dims %b_a_22_793 {axis = 1 : i32} : tensor<16xf32> -> tensor<16x1xf32> loc(#loc325)
      %b_a_22_795 = tt.broadcast %b_a_22_794 : tensor<16x1xf32> -> tensor<16x16xf32> loc(#loc326)
      %b_a_22_796 = arith.mulf %b_a_22_795, %b_Ai_22_742 : tensor<16x16xf32> loc(#loc326)
      %b_a_22_797 = tt.call @"triton.language.standard.sum__fp32S16_16S__(1,)cconstexpr_0__(2,)cconstexpr_False__(3,)cNone"(%b_a_22_796) : (tensor<16x16xf32>) -> tensor<16xf32> loc(#loc327)
      %b_a_22_798 = arith.addf %b_a_22_793, %b_a_22_797 : tensor<16xf32> loc(#loc328)
      %b_Ai_22_799 = arith.constant 16 : i32 loc(#loc329)
      %b_Ai_22_800 = arith.constant 16 : i32 loc(#loc329)
      %b_Ai_22_801 = arith.extsi %i : i32 to i64 loc(#loc329)
      %b_Ai_22_802 = arith.extsi %b_Ai_22_800 : i32 to i64 loc(#loc329)
      %b_Ai_22_803 = arith.subi %b_Ai_22_801, %b_Ai_22_802 : i64 loc(#loc329)
      %b_Ai_22_804 = arith.constant 2147483647 : i64 loc(#loc329)
      %b_Ai_22_805 = arith.constant -2147483648 : i64 loc(#loc329)
      %b_Ai_22_806 = arith.cmpi sle, %b_Ai_22_803, %b_Ai_22_804 : i64 loc(#loc329)
      %b_Ai_22_807 = arith.cmpi sge, %b_Ai_22_803, %b_Ai_22_805 : i64 loc(#loc329)
      %b_Ai_22_808 = arith.andi %b_Ai_22_806, %b_Ai_22_807 : i1 loc(#loc329)
      %b_Ai_22_809 = arith.subi %i, %b_Ai_22_800 : i32 loc(#loc329)
      %b_Ai_22_810 = tt.splat %b_Ai_22_809 : i32 -> tensor<16xi32> loc(#loc330)
      %b_Ai_22_811 = arith.cmpi eq, %o_i, %b_Ai_22_810 : tensor<16xi32> loc(#loc330)
      %b_Ai_22_812 = tt.expand_dims %b_Ai_22_811 {axis = 1 : i32} : tensor<16xi1> -> tensor<16x1xi1> loc(#loc331)
      %b_Ai_22_813 = tt.expand_dims %b_a_22_798 {axis = 0 : i32} : tensor<16xf32> -> tensor<1x16xf32> loc(#loc332)
      %b_Ai_22_814 = tt.broadcast %b_Ai_22_813 : tensor<1x16xf32> -> tensor<16x16xf32> loc(#loc332)
      %b_Ai_22_815 = tt.broadcast %b_Ai_22_812 : tensor<16x1xi1> -> tensor<16x16xi1> loc(#loc332)
      %b_Ai_22_816 = arith.select %b_Ai_22_815, %b_Ai_22_814, %b_Ai_22_742 : tensor<16x16xi1>, tensor<16x16xf32> loc(#loc332)
      scf.yield %b_Ai_22_816 : tensor<16x16xf32> loc(#loc97)
    } loc(#loc315)
    %c64_i32_232 = arith.constant 64 : i32 loc(#loc98)
    %c64_i32_233 = arith.constant 64 : i32 loc(#loc98)
    %66 = arith.extsi %22 : i32 to i64 loc(#loc98)
    %67 = arith.extsi %c64_i32_233 : i32 to i64 loc(#loc98)
    %68 = arith.muli %66, %67 : i64 loc(#loc98)
    %c2147483647_i64_234 = arith.constant 2147483647 : i64 loc(#loc98)
    %c-2147483648_i64_235 = arith.constant -2147483648 : i64 loc(#loc98)
    %69 = arith.cmpi sle, %68, %c2147483647_i64_234 : i64 loc(#loc98)
    %70 = arith.cmpi sge, %68, %c-2147483648_i64_235 : i64 loc(#loc98)
    %71 = arith.andi %69, %70 : i1 loc(#loc98)
    %72 = arith.muli %22, %c64_i32_233 : i32 loc(#loc98)
    %73 = arith.extsi %T_17 : i32 to i64 loc(#loc99)
    %74 = arith.extsi %72 : i32 to i64 loc(#loc99)
    %75 = arith.subi %73, %74 : i64 loc(#loc99)
    %c2147483647_i64_236 = arith.constant 2147483647 : i64 loc(#loc99)
    %c-2147483648_i64_237 = arith.constant -2147483648 : i64 loc(#loc99)
    %76 = arith.cmpi sle, %75, %c2147483647_i64_236 : i64 loc(#loc99)
    %77 = arith.cmpi sge, %75, %c-2147483648_i64_237 : i64 loc(#loc99)
    %78 = arith.andi %76, %77 : i1 loc(#loc99)
    %79 = arith.subi %T_17, %72 : i32 loc(#loc99)
    %c48_i32 = arith.constant 48 : i32 loc(#loc100)
    %80 = arith.minsi %c48_i32, %79 : i32 loc(#loc100)
    %c34_i32 = arith.constant 34 : i32 loc(#loc101)
    %c1_i32_238 = arith.constant 1 : i32 loc(#loc101)
    %81 = arith.bitcast %c34_i32 : i32 to i32 loc(#loc101)
    %82 = arith.bitcast %80 : i32 to i32 loc(#loc101)
    %83 = arith.bitcast %c1_i32_238 : i32 to i32 loc(#loc101)
    %84 = ub.poison : i32 loc(#loc101)
    %b_Ai_33_239 = scf.for %i = %81 to %82 step %83 iter_args(%b_Ai_33_742 = %b_Ai_33_207) -> (tensor<16x16xf32>)  : i32 {
      %b_a_33 = arith.constant 64 : i32 loc(#loc334)
      %b_a_33_743 = arith.constant 64 : i32 loc(#loc334)
      %b_a_33_744 = arith.extsi %22 : i32 to i64 loc(#loc334)
      %b_a_33_745 = arith.extsi %b_a_33_743 : i32 to i64 loc(#loc334)
      %b_a_33_746 = arith.muli %b_a_33_744, %b_a_33_745 : i64 loc(#loc334)
      %b_a_33_747 = arith.constant 2147483647 : i64 loc(#loc334)
      %b_a_33_748 = arith.constant -2147483648 : i64 loc(#loc334)
      %b_a_33_749 = arith.cmpi sle, %b_a_33_746, %b_a_33_747 : i64 loc(#loc334)
      %b_a_33_750 = arith.cmpi sge, %b_a_33_746, %b_a_33_748 : i64 loc(#loc334)
      %b_a_33_751 = arith.andi %b_a_33_749, %b_a_33_750 : i1 loc(#loc334)
      %b_a_33_752 = arith.muli %22, %b_a_33_743 : i32 loc(#loc334)
      %b_a_33_753 = arith.extsi %b_a_33_752 : i32 to i64 loc(#loc335)
      %b_a_33_754 = arith.extsi %i : i32 to i64 loc(#loc335)
      %b_a_33_755 = arith.addi %b_a_33_753, %b_a_33_754 : i64 loc(#loc335)
      %b_a_33_756 = arith.constant 2147483647 : i64 loc(#loc335)
      %b_a_33_757 = arith.constant -2147483648 : i64 loc(#loc335)
      %b_a_33_758 = arith.cmpi sle, %b_a_33_755, %b_a_33_756 : i64 loc(#loc335)
      %b_a_33_759 = arith.cmpi sge, %b_a_33_755, %b_a_33_757 : i64 loc(#loc335)
      %b_a_33_760 = arith.andi %b_a_33_758, %b_a_33_759 : i1 loc(#loc335)
      %b_a_33_761 = arith.addi %b_a_33_752, %i : i32 loc(#loc335)
      %b_a_33_762 = arith.constant 16 : i32 loc(#loc336)
      %b_a_33_763 = arith.constant 16 : i32 loc(#loc336)
      %b_a_33_764 = arith.extsi %b_a_33_761 : i32 to i64 loc(#loc336)
      %b_a_33_765 = arith.extsi %b_a_33_763 : i32 to i64 loc(#loc336)
      %b_a_33_766 = arith.muli %b_a_33_764, %b_a_33_765 : i64 loc(#loc336)
      %b_a_33_767 = arith.constant 2147483647 : i64 loc(#loc336)
      %b_a_33_768 = arith.constant -2147483648 : i64 loc(#loc336)
      %b_a_33_769 = arith.cmpi sle, %b_a_33_766, %b_a_33_767 : i64 loc(#loc336)
      %b_a_33_770 = arith.cmpi sge, %b_a_33_766, %b_a_33_768 : i64 loc(#loc336)
      %b_a_33_771 = arith.andi %b_a_33_769, %b_a_33_770 : i1 loc(#loc336)
      %b_a_33_772 = arith.muli %b_a_33_761, %b_a_33_763 : i32 loc(#loc336)
      %b_a_33_773 = arith.constant 64 : i32 loc(#loc337)
      %b_a_33_774 = arith.constant 64 : i32 loc(#loc337)
      %b_a_33_775 = arith.extsi %b_a_33_772 : i32 to i64 loc(#loc337)
      %b_a_33_776 = arith.extsi %b_a_33_774 : i32 to i64 loc(#loc337)
      %b_a_33_777 = arith.muli %b_a_33_775, %b_a_33_776 : i64 loc(#loc337)
      %b_a_33_778 = arith.constant 2147483647 : i64 loc(#loc337)
      %b_a_33_779 = arith.constant -2147483648 : i64 loc(#loc337)
      %b_a_33_780 = arith.cmpi sle, %b_a_33_777, %b_a_33_778 : i64 loc(#loc337)
      %b_a_33_781 = arith.cmpi sge, %b_a_33_777, %b_a_33_779 : i64 loc(#loc337)
      %b_a_33_782 = arith.andi %b_a_33_780, %b_a_33_781 : i1 loc(#loc337)
      %b_a_33_783 = arith.muli %b_a_33_772, %b_a_33_774 : i32 loc(#loc337)
      %b_a_33_784 = tt.addptr %A_57, %b_a_33_783 : !tt.ptr<f32>, i32 loc(#loc338)
      %b_a_33_785 = tt.splat %b_a_33_784 : !tt.ptr<f32> -> tensor<16x!tt.ptr<f32>> loc(#loc339)
      %b_a_33_786 = tt.addptr %b_a_33_785, %o_i : tensor<16x!tt.ptr<f32>>, tensor<16xi32> loc(#loc339)
      %b_a_33_787 = arith.constant 32 : i32 loc(#loc340)
      %b_a_33_788 = arith.constant dense<32> : tensor<16xi32> loc(#loc340)
      %b_a_33_789 = tt.addptr %b_a_33_786, %b_a_33_788 : tensor<16x!tt.ptr<f32>>, tensor<16xi32> loc(#loc340)
      %b_a_33_790 = tt.load %b_a_33_789 : tensor<16x!tt.ptr<f32>> loc(#loc341)
      %b_a_33_791 = arith.constant 0.000000e+00 : f32 loc(#loc342)
      %b_a_33_792 = arith.constant dense<0.000000e+00> : tensor<16xf32> loc(#loc342)
      %b_a_33_793 = arith.subf %b_a_33_792, %b_a_33_790 : tensor<16xf32> loc(#loc342)
      %b_a_33_794 = tt.expand_dims %b_a_33_793 {axis = 1 : i32} : tensor<16xf32> -> tensor<16x1xf32> loc(#loc343)
      %b_a_33_795 = tt.broadcast %b_a_33_794 : tensor<16x1xf32> -> tensor<16x16xf32> loc(#loc344)
      %b_a_33_796 = arith.mulf %b_a_33_795, %b_Ai_33_742 : tensor<16x16xf32> loc(#loc344)
      %b_a_33_797 = tt.call @"triton.language.standard.sum__fp32S16_16S__(1,)cconstexpr_0__(2,)cconstexpr_False__(3,)cNone"(%b_a_33_796) : (tensor<16x16xf32>) -> tensor<16xf32> loc(#loc345)
      %b_a_33_798 = arith.addf %b_a_33_793, %b_a_33_797 : tensor<16xf32> loc(#loc346)
      %b_Ai_33_799 = arith.constant 32 : i32 loc(#loc347)
      %b_Ai_33_800 = arith.constant 32 : i32 loc(#loc347)
      %b_Ai_33_801 = arith.extsi %i : i32 to i64 loc(#loc347)
      %b_Ai_33_802 = arith.extsi %b_Ai_33_800 : i32 to i64 loc(#loc347)
      %b_Ai_33_803 = arith.subi %b_Ai_33_801, %b_Ai_33_802 : i64 loc(#loc347)
      %b_Ai_33_804 = arith.constant 2147483647 : i64 loc(#loc347)
      %b_Ai_33_805 = arith.constant -2147483648 : i64 loc(#loc347)
      %b_Ai_33_806 = arith.cmpi sle, %b_Ai_33_803, %b_Ai_33_804 : i64 loc(#loc347)
      %b_Ai_33_807 = arith.cmpi sge, %b_Ai_33_803, %b_Ai_33_805 : i64 loc(#loc347)
      %b_Ai_33_808 = arith.andi %b_Ai_33_806, %b_Ai_33_807 : i1 loc(#loc347)
      %b_Ai_33_809 = arith.subi %i, %b_Ai_33_800 : i32 loc(#loc347)
      %b_Ai_33_810 = tt.splat %b_Ai_33_809 : i32 -> tensor<16xi32> loc(#loc348)
      %b_Ai_33_811 = arith.cmpi eq, %o_i, %b_Ai_33_810 : tensor<16xi32> loc(#loc348)
      %b_Ai_33_812 = tt.expand_dims %b_Ai_33_811 {axis = 1 : i32} : tensor<16xi1> -> tensor<16x1xi1> loc(#loc349)
      %b_Ai_33_813 = tt.expand_dims %b_a_33_798 {axis = 0 : i32} : tensor<16xf32> -> tensor<1x16xf32> loc(#loc350)
      %b_Ai_33_814 = tt.broadcast %b_Ai_33_813 : tensor<1x16xf32> -> tensor<16x16xf32> loc(#loc350)
      %b_Ai_33_815 = tt.broadcast %b_Ai_33_812 : tensor<16x1xi1> -> tensor<16x16xi1> loc(#loc350)
      %b_Ai_33_816 = arith.select %b_Ai_33_815, %b_Ai_33_814, %b_Ai_33_742 : tensor<16x16xi1>, tensor<16x16xf32> loc(#loc350)
      scf.yield %b_Ai_33_816 : tensor<16x16xf32> loc(#loc119)
    } loc(#loc333)
    %c64_i32_240 = arith.constant 64 : i32 loc(#loc120)
    %c64_i32_241 = arith.constant 64 : i32 loc(#loc120)
    %85 = arith.extsi %22 : i32 to i64 loc(#loc120)
    %86 = arith.extsi %c64_i32_241 : i32 to i64 loc(#loc120)
    %87 = arith.muli %85, %86 : i64 loc(#loc120)
    %c2147483647_i64_242 = arith.constant 2147483647 : i64 loc(#loc120)
    %c-2147483648_i64_243 = arith.constant -2147483648 : i64 loc(#loc120)
    %88 = arith.cmpi sle, %87, %c2147483647_i64_242 : i64 loc(#loc120)
    %89 = arith.cmpi sge, %87, %c-2147483648_i64_243 : i64 loc(#loc120)
    %90 = arith.andi %88, %89 : i1 loc(#loc120)
    %91 = arith.muli %22, %c64_i32_241 : i32 loc(#loc120)
    %92 = arith.extsi %T_17 : i32 to i64 loc(#loc121)
    %93 = arith.extsi %91 : i32 to i64 loc(#loc121)
    %94 = arith.subi %92, %93 : i64 loc(#loc121)
    %c2147483647_i64_244 = arith.constant 2147483647 : i64 loc(#loc121)
    %c-2147483648_i64_245 = arith.constant -2147483648 : i64 loc(#loc121)
    %95 = arith.cmpi sle, %94, %c2147483647_i64_244 : i64 loc(#loc121)
    %96 = arith.cmpi sge, %94, %c-2147483648_i64_245 : i64 loc(#loc121)
    %97 = arith.andi %95, %96 : i1 loc(#loc121)
    %98 = arith.subi %T_17, %91 : i32 loc(#loc121)
    %c64_i32_246 = arith.constant 64 : i32 loc(#loc122)
    %99 = arith.minsi %c64_i32_246, %98 : i32 loc(#loc122)
    %c50_i32 = arith.constant 50 : i32 loc(#loc123)
    %c1_i32_247 = arith.constant 1 : i32 loc(#loc123)
    %100 = arith.bitcast %c50_i32 : i32 to i32 loc(#loc123)
    %101 = arith.bitcast %99 : i32 to i32 loc(#loc123)
    %102 = arith.bitcast %c1_i32_247 : i32 to i32 loc(#loc123)
    %103 = ub.poison : i32 loc(#loc123)
    %b_Ai_44_248 = scf.for %i = %100 to %101 step %102 iter_args(%b_Ai_44_742 = %b_Ai_44_214) -> (tensor<16x16xf32>)  : i32 {
      %b_a_44 = arith.constant 64 : i32 loc(#loc352)
      %b_a_44_743 = arith.constant 64 : i32 loc(#loc352)
      %b_a_44_744 = arith.extsi %22 : i32 to i64 loc(#loc352)
      %b_a_44_745 = arith.extsi %b_a_44_743 : i32 to i64 loc(#loc352)
      %b_a_44_746 = arith.muli %b_a_44_744, %b_a_44_745 : i64 loc(#loc352)
      %b_a_44_747 = arith.constant 2147483647 : i64 loc(#loc352)
      %b_a_44_748 = arith.constant -2147483648 : i64 loc(#loc352)
      %b_a_44_749 = arith.cmpi sle, %b_a_44_746, %b_a_44_747 : i64 loc(#loc352)
      %b_a_44_750 = arith.cmpi sge, %b_a_44_746, %b_a_44_748 : i64 loc(#loc352)
      %b_a_44_751 = arith.andi %b_a_44_749, %b_a_44_750 : i1 loc(#loc352)
      %b_a_44_752 = arith.muli %22, %b_a_44_743 : i32 loc(#loc352)
      %b_a_44_753 = arith.extsi %b_a_44_752 : i32 to i64 loc(#loc353)
      %b_a_44_754 = arith.extsi %i : i32 to i64 loc(#loc353)
      %b_a_44_755 = arith.addi %b_a_44_753, %b_a_44_754 : i64 loc(#loc353)
      %b_a_44_756 = arith.constant 2147483647 : i64 loc(#loc353)
      %b_a_44_757 = arith.constant -2147483648 : i64 loc(#loc353)
      %b_a_44_758 = arith.cmpi sle, %b_a_44_755, %b_a_44_756 : i64 loc(#loc353)
      %b_a_44_759 = arith.cmpi sge, %b_a_44_755, %b_a_44_757 : i64 loc(#loc353)
      %b_a_44_760 = arith.andi %b_a_44_758, %b_a_44_759 : i1 loc(#loc353)
      %b_a_44_761 = arith.addi %b_a_44_752, %i : i32 loc(#loc353)
      %b_a_44_762 = arith.constant 16 : i32 loc(#loc354)
      %b_a_44_763 = arith.constant 16 : i32 loc(#loc354)
      %b_a_44_764 = arith.extsi %b_a_44_761 : i32 to i64 loc(#loc354)
      %b_a_44_765 = arith.extsi %b_a_44_763 : i32 to i64 loc(#loc354)
      %b_a_44_766 = arith.muli %b_a_44_764, %b_a_44_765 : i64 loc(#loc354)
      %b_a_44_767 = arith.constant 2147483647 : i64 loc(#loc354)
      %b_a_44_768 = arith.constant -2147483648 : i64 loc(#loc354)
      %b_a_44_769 = arith.cmpi sle, %b_a_44_766, %b_a_44_767 : i64 loc(#loc354)
      %b_a_44_770 = arith.cmpi sge, %b_a_44_766, %b_a_44_768 : i64 loc(#loc354)
      %b_a_44_771 = arith.andi %b_a_44_769, %b_a_44_770 : i1 loc(#loc354)
      %b_a_44_772 = arith.muli %b_a_44_761, %b_a_44_763 : i32 loc(#loc354)
      %b_a_44_773 = arith.constant 64 : i32 loc(#loc355)
      %b_a_44_774 = arith.constant 64 : i32 loc(#loc355)
      %b_a_44_775 = arith.extsi %b_a_44_772 : i32 to i64 loc(#loc355)
      %b_a_44_776 = arith.extsi %b_a_44_774 : i32 to i64 loc(#loc355)
      %b_a_44_777 = arith.muli %b_a_44_775, %b_a_44_776 : i64 loc(#loc355)
      %b_a_44_778 = arith.constant 2147483647 : i64 loc(#loc355)
      %b_a_44_779 = arith.constant -2147483648 : i64 loc(#loc355)
      %b_a_44_780 = arith.cmpi sle, %b_a_44_777, %b_a_44_778 : i64 loc(#loc355)
      %b_a_44_781 = arith.cmpi sge, %b_a_44_777, %b_a_44_779 : i64 loc(#loc355)
      %b_a_44_782 = arith.andi %b_a_44_780, %b_a_44_781 : i1 loc(#loc355)
      %b_a_44_783 = arith.muli %b_a_44_772, %b_a_44_774 : i32 loc(#loc355)
      %b_a_44_784 = tt.addptr %A_57, %b_a_44_783 : !tt.ptr<f32>, i32 loc(#loc356)
      %b_a_44_785 = tt.splat %b_a_44_784 : !tt.ptr<f32> -> tensor<16x!tt.ptr<f32>> loc(#loc357)
      %b_a_44_786 = tt.addptr %b_a_44_785, %o_i : tensor<16x!tt.ptr<f32>>, tensor<16xi32> loc(#loc357)
      %b_a_44_787 = arith.constant 48 : i32 loc(#loc358)
      %b_a_44_788 = arith.constant dense<48> : tensor<16xi32> loc(#loc358)
      %b_a_44_789 = tt.addptr %b_a_44_786, %b_a_44_788 : tensor<16x!tt.ptr<f32>>, tensor<16xi32> loc(#loc358)
      %b_a_44_790 = tt.load %b_a_44_789 : tensor<16x!tt.ptr<f32>> loc(#loc359)
      %b_a_44_791 = arith.constant 0.000000e+00 : f32 loc(#loc360)
      %b_a_44_792 = arith.constant dense<0.000000e+00> : tensor<16xf32> loc(#loc360)
      %b_a_44_793 = arith.subf %b_a_44_792, %b_a_44_790 : tensor<16xf32> loc(#loc360)
      %b_a_44_794 = tt.expand_dims %b_a_44_793 {axis = 1 : i32} : tensor<16xf32> -> tensor<16x1xf32> loc(#loc361)
      %b_a_44_795 = tt.broadcast %b_a_44_794 : tensor<16x1xf32> -> tensor<16x16xf32> loc(#loc362)
      %b_a_44_796 = arith.mulf %b_a_44_795, %b_Ai_44_742 : tensor<16x16xf32> loc(#loc362)
      %b_a_44_797 = tt.call @"triton.language.standard.sum__fp32S16_16S__(1,)cconstexpr_0__(2,)cconstexpr_False__(3,)cNone"(%b_a_44_796) : (tensor<16x16xf32>) -> tensor<16xf32> loc(#loc363)
      %b_a_44_798 = arith.addf %b_a_44_793, %b_a_44_797 : tensor<16xf32> loc(#loc364)
      %b_Ai_44_799 = arith.constant 48 : i32 loc(#loc365)
      %b_Ai_44_800 = arith.constant 48 : i32 loc(#loc365)
      %b_Ai_44_801 = arith.extsi %i : i32 to i64 loc(#loc365)
      %b_Ai_44_802 = arith.extsi %b_Ai_44_800 : i32 to i64 loc(#loc365)
      %b_Ai_44_803 = arith.subi %b_Ai_44_801, %b_Ai_44_802 : i64 loc(#loc365)
      %b_Ai_44_804 = arith.constant 2147483647 : i64 loc(#loc365)
      %b_Ai_44_805 = arith.constant -2147483648 : i64 loc(#loc365)
      %b_Ai_44_806 = arith.cmpi sle, %b_Ai_44_803, %b_Ai_44_804 : i64 loc(#loc365)
      %b_Ai_44_807 = arith.cmpi sge, %b_Ai_44_803, %b_Ai_44_805 : i64 loc(#loc365)
      %b_Ai_44_808 = arith.andi %b_Ai_44_806, %b_Ai_44_807 : i1 loc(#loc365)
      %b_Ai_44_809 = arith.subi %i, %b_Ai_44_800 : i32 loc(#loc365)
      %b_Ai_44_810 = tt.splat %b_Ai_44_809 : i32 -> tensor<16xi32> loc(#loc366)
      %b_Ai_44_811 = arith.cmpi eq, %o_i, %b_Ai_44_810 : tensor<16xi32> loc(#loc366)
      %b_Ai_44_812 = tt.expand_dims %b_Ai_44_811 {axis = 1 : i32} : tensor<16xi1> -> tensor<16x1xi1> loc(#loc367)
      %b_Ai_44_813 = tt.expand_dims %b_a_44_798 {axis = 0 : i32} : tensor<16xf32> -> tensor<1x16xf32> loc(#loc368)
      %b_Ai_44_814 = tt.broadcast %b_Ai_44_813 : tensor<1x16xf32> -> tensor<16x16xf32> loc(#loc368)
      %b_Ai_44_815 = tt.broadcast %b_Ai_44_812 : tensor<16x1xi1> -> tensor<16x16xi1> loc(#loc368)
      %b_Ai_44_816 = arith.select %b_Ai_44_815, %b_Ai_44_814, %b_Ai_44_742 : tensor<16x16xi1>, tensor<16x16xf32> loc(#loc368)
      scf.yield %b_Ai_44_816 : tensor<16x16xf32> loc(#loc141)
    } loc(#loc351)
    %b_Ai_11_249 = arith.uitofp %m_I_25 : tensor<16x16xi1> to tensor<16x16xf32> loc(#loc369)
    %b_Ai_11_250 = arith.addf %b_Ai_11_223, %b_Ai_11_249 : tensor<16x16xf32> loc(#loc369)
    %b_Ai_22_251 = arith.uitofp %m_I_25 : tensor<16x16xi1> to tensor<16x16xf32> loc(#loc370)
    %b_Ai_22_252 = arith.addf %b_Ai_22_231, %b_Ai_22_251 : tensor<16x16xf32> loc(#loc370)
    %b_Ai_33_253 = arith.uitofp %m_I_25 : tensor<16x16xi1> to tensor<16x16xf32> loc(#loc371)
    %b_Ai_33_254 = arith.addf %b_Ai_33_239, %b_Ai_33_253 : tensor<16x16xf32> loc(#loc371)
    %b_Ai_44_255 = arith.uitofp %m_I_25 : tensor<16x16xi1> to tensor<16x16xf32> loc(#loc372)
    %b_Ai_44_256 = arith.addf %b_Ai_44_248, %b_Ai_44_255 : tensor<16x16xf32> loc(#loc372)
    %p_A_21 = arith.constant 64 : i32 loc(#loc373)
    %p_A_21_257 = arith.constant 64 : i32 loc(#loc373)
    %p_A_21_258 = arith.extsi %22 : i32 to i64 loc(#loc373)
    %p_A_21_259 = arith.extsi %p_A_21_257 : i32 to i64 loc(#loc373)
    %p_A_21_260 = arith.muli %p_A_21_258, %p_A_21_259 : i64 loc(#loc373)
    %p_A_21_261 = arith.constant 2147483647 : i64 loc(#loc373)
    %p_A_21_262 = arith.constant -2147483648 : i64 loc(#loc373)
    %p_A_21_263 = arith.cmpi sle, %p_A_21_260, %p_A_21_261 : i64 loc(#loc373)
    %p_A_21_264 = arith.cmpi sge, %p_A_21_260, %p_A_21_262 : i64 loc(#loc373)
    %p_A_21_265 = arith.andi %p_A_21_263, %p_A_21_264 : i1 loc(#loc373)
    %p_A_21_266 = arith.muli %22, %p_A_21_257 : i32 loc(#loc373)
    %p_A_21_267 = arith.constant 16 : i32 loc(#loc374)
    %p_A_21_268 = arith.constant 16 : i32 loc(#loc374)
    %p_A_21_269 = arith.extsi %p_A_21_266 : i32 to i64 loc(#loc374)
    %p_A_21_270 = arith.extsi %p_A_21_268 : i32 to i64 loc(#loc374)
    %p_A_21_271 = arith.addi %p_A_21_269, %p_A_21_270 : i64 loc(#loc374)
    %p_A_21_272 = arith.constant 2147483647 : i64 loc(#loc374)
    %p_A_21_273 = arith.constant -2147483648 : i64 loc(#loc374)
    %p_A_21_274 = arith.cmpi sle, %p_A_21_271, %p_A_21_272 : i64 loc(#loc374)
    %p_A_21_275 = arith.cmpi sge, %p_A_21_271, %p_A_21_273 : i64 loc(#loc374)
    %p_A_21_276 = arith.andi %p_A_21_274, %p_A_21_275 : i1 loc(#loc374)
    %p_A_21_277 = arith.addi %p_A_21_266, %p_A_21_268 : i32 loc(#loc374)
    %p_A_21_278 = arith.extsi %T_17 : i32 to i64 loc(#loc375)
    %p_A_21_279 = arith.constant 64 : i64 loc(#loc375)
    %p_A_21_280 = arith.constant 1024 : i64 loc(#loc375)
    %p_A_21_281 = arith.constant 1 : i64 loc(#loc375)
    %p_A_21_282 = arith.constant 0 : i32 loc(#loc375)
    %p_A_21_283 = tt.make_tensor_ptr %A_57, [%p_A_21_278, %p_A_21_279], [%p_A_21_280, %p_A_21_281], [%p_A_21_277, %p_A_21_282] {order = array<i32: 1, 0>} : <tensor<16x16xf32>> loc(#loc375)
    %p_A_31 = arith.constant 64 : i32 loc(#loc376)
    %p_A_31_284 = arith.constant 64 : i32 loc(#loc376)
    %p_A_31_285 = arith.extsi %22 : i32 to i64 loc(#loc376)
    %p_A_31_286 = arith.extsi %p_A_31_284 : i32 to i64 loc(#loc376)
    %p_A_31_287 = arith.muli %p_A_31_285, %p_A_31_286 : i64 loc(#loc376)
    %p_A_31_288 = arith.constant 2147483647 : i64 loc(#loc376)
    %p_A_31_289 = arith.constant -2147483648 : i64 loc(#loc376)
    %p_A_31_290 = arith.cmpi sle, %p_A_31_287, %p_A_31_288 : i64 loc(#loc376)
    %p_A_31_291 = arith.cmpi sge, %p_A_31_287, %p_A_31_289 : i64 loc(#loc376)
    %p_A_31_292 = arith.andi %p_A_31_290, %p_A_31_291 : i1 loc(#loc376)
    %p_A_31_293 = arith.muli %22, %p_A_31_284 : i32 loc(#loc376)
    %p_A_31_294 = arith.constant 32 : i32 loc(#loc377)
    %p_A_31_295 = arith.constant 32 : i32 loc(#loc377)
    %p_A_31_296 = arith.extsi %p_A_31_293 : i32 to i64 loc(#loc377)
    %p_A_31_297 = arith.extsi %p_A_31_295 : i32 to i64 loc(#loc377)
    %p_A_31_298 = arith.addi %p_A_31_296, %p_A_31_297 : i64 loc(#loc377)
    %p_A_31_299 = arith.constant 2147483647 : i64 loc(#loc377)
    %p_A_31_300 = arith.constant -2147483648 : i64 loc(#loc377)
    %p_A_31_301 = arith.cmpi sle, %p_A_31_298, %p_A_31_299 : i64 loc(#loc377)
    %p_A_31_302 = arith.cmpi sge, %p_A_31_298, %p_A_31_300 : i64 loc(#loc377)
    %p_A_31_303 = arith.andi %p_A_31_301, %p_A_31_302 : i1 loc(#loc377)
    %p_A_31_304 = arith.addi %p_A_31_293, %p_A_31_295 : i32 loc(#loc377)
    %p_A_31_305 = arith.extsi %T_17 : i32 to i64 loc(#loc378)
    %p_A_31_306 = arith.constant 64 : i64 loc(#loc378)
    %p_A_31_307 = arith.constant 1024 : i64 loc(#loc378)
    %p_A_31_308 = arith.constant 1 : i64 loc(#loc378)
    %p_A_31_309 = arith.constant 0 : i32 loc(#loc378)
    %p_A_31_310 = tt.make_tensor_ptr %A_57, [%p_A_31_305, %p_A_31_306], [%p_A_31_307, %p_A_31_308], [%p_A_31_304, %p_A_31_309] {order = array<i32: 1, 0>} : <tensor<16x16xf32>> loc(#loc378)
    %p_A_32 = arith.constant 64 : i32 loc(#loc379)
    %p_A_32_311 = arith.constant 64 : i32 loc(#loc379)
    %p_A_32_312 = arith.extsi %22 : i32 to i64 loc(#loc379)
    %p_A_32_313 = arith.extsi %p_A_32_311 : i32 to i64 loc(#loc379)
    %p_A_32_314 = arith.muli %p_A_32_312, %p_A_32_313 : i64 loc(#loc379)
    %p_A_32_315 = arith.constant 2147483647 : i64 loc(#loc379)
    %p_A_32_316 = arith.constant -2147483648 : i64 loc(#loc379)
    %p_A_32_317 = arith.cmpi sle, %p_A_32_314, %p_A_32_315 : i64 loc(#loc379)
    %p_A_32_318 = arith.cmpi sge, %p_A_32_314, %p_A_32_316 : i64 loc(#loc379)
    %p_A_32_319 = arith.andi %p_A_32_317, %p_A_32_318 : i1 loc(#loc379)
    %p_A_32_320 = arith.muli %22, %p_A_32_311 : i32 loc(#loc379)
    %p_A_32_321 = arith.constant 32 : i32 loc(#loc380)
    %p_A_32_322 = arith.constant 32 : i32 loc(#loc380)
    %p_A_32_323 = arith.extsi %p_A_32_320 : i32 to i64 loc(#loc380)
    %p_A_32_324 = arith.extsi %p_A_32_322 : i32 to i64 loc(#loc380)
    %p_A_32_325 = arith.addi %p_A_32_323, %p_A_32_324 : i64 loc(#loc380)
    %p_A_32_326 = arith.constant 2147483647 : i64 loc(#loc380)
    %p_A_32_327 = arith.constant -2147483648 : i64 loc(#loc380)
    %p_A_32_328 = arith.cmpi sle, %p_A_32_325, %p_A_32_326 : i64 loc(#loc380)
    %p_A_32_329 = arith.cmpi sge, %p_A_32_325, %p_A_32_327 : i64 loc(#loc380)
    %p_A_32_330 = arith.andi %p_A_32_328, %p_A_32_329 : i1 loc(#loc380)
    %p_A_32_331 = arith.addi %p_A_32_320, %p_A_32_322 : i32 loc(#loc380)
    %p_A_32_332 = arith.extsi %T_17 : i32 to i64 loc(#loc381)
    %p_A_32_333 = arith.constant 64 : i64 loc(#loc381)
    %p_A_32_334 = arith.constant 1024 : i64 loc(#loc381)
    %p_A_32_335 = arith.constant 1 : i64 loc(#loc381)
    %p_A_32_336 = arith.constant 16 : i32 loc(#loc381)
    %p_A_32_337 = tt.make_tensor_ptr %A_57, [%p_A_32_332, %p_A_32_333], [%p_A_32_334, %p_A_32_335], [%p_A_32_331, %p_A_32_336] {order = array<i32: 1, 0>} : <tensor<16x16xf32>> loc(#loc381)
    %p_A_41 = arith.constant 64 : i32 loc(#loc382)
    %p_A_41_338 = arith.constant 64 : i32 loc(#loc382)
    %p_A_41_339 = arith.extsi %22 : i32 to i64 loc(#loc382)
    %p_A_41_340 = arith.extsi %p_A_41_338 : i32 to i64 loc(#loc382)
    %p_A_41_341 = arith.muli %p_A_41_339, %p_A_41_340 : i64 loc(#loc382)
    %p_A_41_342 = arith.constant 2147483647 : i64 loc(#loc382)
    %p_A_41_343 = arith.constant -2147483648 : i64 loc(#loc382)
    %p_A_41_344 = arith.cmpi sle, %p_A_41_341, %p_A_41_342 : i64 loc(#loc382)
    %p_A_41_345 = arith.cmpi sge, %p_A_41_341, %p_A_41_343 : i64 loc(#loc382)
    %p_A_41_346 = arith.andi %p_A_41_344, %p_A_41_345 : i1 loc(#loc382)
    %p_A_41_347 = arith.muli %22, %p_A_41_338 : i32 loc(#loc382)
    %p_A_41_348 = arith.constant 48 : i32 loc(#loc383)
    %p_A_41_349 = arith.constant 48 : i32 loc(#loc383)
    %p_A_41_350 = arith.extsi %p_A_41_347 : i32 to i64 loc(#loc383)
    %p_A_41_351 = arith.extsi %p_A_41_349 : i32 to i64 loc(#loc383)
    %p_A_41_352 = arith.addi %p_A_41_350, %p_A_41_351 : i64 loc(#loc383)
    %p_A_41_353 = arith.constant 2147483647 : i64 loc(#loc383)
    %p_A_41_354 = arith.constant -2147483648 : i64 loc(#loc383)
    %p_A_41_355 = arith.cmpi sle, %p_A_41_352, %p_A_41_353 : i64 loc(#loc383)
    %p_A_41_356 = arith.cmpi sge, %p_A_41_352, %p_A_41_354 : i64 loc(#loc383)
    %p_A_41_357 = arith.andi %p_A_41_355, %p_A_41_356 : i1 loc(#loc383)
    %p_A_41_358 = arith.addi %p_A_41_347, %p_A_41_349 : i32 loc(#loc383)
    %p_A_41_359 = arith.extsi %T_17 : i32 to i64 loc(#loc384)
    %p_A_41_360 = arith.constant 64 : i64 loc(#loc384)
    %p_A_41_361 = arith.constant 1024 : i64 loc(#loc384)
    %p_A_41_362 = arith.constant 1 : i64 loc(#loc384)
    %p_A_41_363 = arith.constant 0 : i32 loc(#loc384)
    %p_A_41_364 = tt.make_tensor_ptr %A_57, [%p_A_41_359, %p_A_41_360], [%p_A_41_361, %p_A_41_362], [%p_A_41_358, %p_A_41_363] {order = array<i32: 1, 0>} : <tensor<16x16xf32>> loc(#loc384)
    %p_A_42 = arith.constant 64 : i32 loc(#loc385)
    %p_A_42_365 = arith.constant 64 : i32 loc(#loc385)
    %p_A_42_366 = arith.extsi %22 : i32 to i64 loc(#loc385)
    %p_A_42_367 = arith.extsi %p_A_42_365 : i32 to i64 loc(#loc385)
    %p_A_42_368 = arith.muli %p_A_42_366, %p_A_42_367 : i64 loc(#loc385)
    %p_A_42_369 = arith.constant 2147483647 : i64 loc(#loc385)
    %p_A_42_370 = arith.constant -2147483648 : i64 loc(#loc385)
    %p_A_42_371 = arith.cmpi sle, %p_A_42_368, %p_A_42_369 : i64 loc(#loc385)
    %p_A_42_372 = arith.cmpi sge, %p_A_42_368, %p_A_42_370 : i64 loc(#loc385)
    %p_A_42_373 = arith.andi %p_A_42_371, %p_A_42_372 : i1 loc(#loc385)
    %p_A_42_374 = arith.muli %22, %p_A_42_365 : i32 loc(#loc385)
    %p_A_42_375 = arith.constant 48 : i32 loc(#loc386)
    %p_A_42_376 = arith.constant 48 : i32 loc(#loc386)
    %p_A_42_377 = arith.extsi %p_A_42_374 : i32 to i64 loc(#loc386)
    %p_A_42_378 = arith.extsi %p_A_42_376 : i32 to i64 loc(#loc386)
    %p_A_42_379 = arith.addi %p_A_42_377, %p_A_42_378 : i64 loc(#loc386)
    %p_A_42_380 = arith.constant 2147483647 : i64 loc(#loc386)
    %p_A_42_381 = arith.constant -2147483648 : i64 loc(#loc386)
    %p_A_42_382 = arith.cmpi sle, %p_A_42_379, %p_A_42_380 : i64 loc(#loc386)
    %p_A_42_383 = arith.cmpi sge, %p_A_42_379, %p_A_42_381 : i64 loc(#loc386)
    %p_A_42_384 = arith.andi %p_A_42_382, %p_A_42_383 : i1 loc(#loc386)
    %p_A_42_385 = arith.addi %p_A_42_374, %p_A_42_376 : i32 loc(#loc386)
    %p_A_42_386 = arith.extsi %T_17 : i32 to i64 loc(#loc387)
    %p_A_42_387 = arith.constant 64 : i64 loc(#loc387)
    %p_A_42_388 = arith.constant 1024 : i64 loc(#loc387)
    %p_A_42_389 = arith.constant 1 : i64 loc(#loc387)
    %p_A_42_390 = arith.constant 16 : i32 loc(#loc387)
    %p_A_42_391 = tt.make_tensor_ptr %A_57, [%p_A_42_386, %p_A_42_387], [%p_A_42_388, %p_A_42_389], [%p_A_42_385, %p_A_42_390] {order = array<i32: 1, 0>} : <tensor<16x16xf32>> loc(#loc387)
    %p_A_43 = arith.constant 64 : i32 loc(#loc388)
    %p_A_43_392 = arith.constant 64 : i32 loc(#loc388)
    %p_A_43_393 = arith.extsi %22 : i32 to i64 loc(#loc388)
    %p_A_43_394 = arith.extsi %p_A_43_392 : i32 to i64 loc(#loc388)
    %p_A_43_395 = arith.muli %p_A_43_393, %p_A_43_394 : i64 loc(#loc388)
    %p_A_43_396 = arith.constant 2147483647 : i64 loc(#loc388)
    %p_A_43_397 = arith.constant -2147483648 : i64 loc(#loc388)
    %p_A_43_398 = arith.cmpi sle, %p_A_43_395, %p_A_43_396 : i64 loc(#loc388)
    %p_A_43_399 = arith.cmpi sge, %p_A_43_395, %p_A_43_397 : i64 loc(#loc388)
    %p_A_43_400 = arith.andi %p_A_43_398, %p_A_43_399 : i1 loc(#loc388)
    %p_A_43_401 = arith.muli %22, %p_A_43_392 : i32 loc(#loc388)
    %p_A_43_402 = arith.constant 48 : i32 loc(#loc389)
    %p_A_43_403 = arith.constant 48 : i32 loc(#loc389)
    %p_A_43_404 = arith.extsi %p_A_43_401 : i32 to i64 loc(#loc389)
    %p_A_43_405 = arith.extsi %p_A_43_403 : i32 to i64 loc(#loc389)
    %p_A_43_406 = arith.addi %p_A_43_404, %p_A_43_405 : i64 loc(#loc389)
    %p_A_43_407 = arith.constant 2147483647 : i64 loc(#loc389)
    %p_A_43_408 = arith.constant -2147483648 : i64 loc(#loc389)
    %p_A_43_409 = arith.cmpi sle, %p_A_43_406, %p_A_43_407 : i64 loc(#loc389)
    %p_A_43_410 = arith.cmpi sge, %p_A_43_406, %p_A_43_408 : i64 loc(#loc389)
    %p_A_43_411 = arith.andi %p_A_43_409, %p_A_43_410 : i1 loc(#loc389)
    %p_A_43_412 = arith.addi %p_A_43_401, %p_A_43_403 : i32 loc(#loc389)
    %p_A_43_413 = arith.extsi %T_17 : i32 to i64 loc(#loc390)
    %p_A_43_414 = arith.constant 64 : i64 loc(#loc390)
    %p_A_43_415 = arith.constant 1024 : i64 loc(#loc390)
    %p_A_43_416 = arith.constant 1 : i64 loc(#loc390)
    %p_A_43_417 = arith.constant 32 : i32 loc(#loc390)
    %p_A_43_418 = tt.make_tensor_ptr %A_57, [%p_A_43_413, %p_A_43_414], [%p_A_43_415, %p_A_43_416], [%p_A_43_412, %p_A_43_417] {order = array<i32: 1, 0>} : <tensor<16x16xf32>> loc(#loc390)
    %b_A_21 = tt.load %p_A_21_283 {boundaryCheck = array<i32: 0, 1>} : !tt.ptr<tensor<16x16xf32>> loc(#loc391)
    %b_A_31 = tt.load %p_A_31_310 {boundaryCheck = array<i32: 0, 1>} : !tt.ptr<tensor<16x16xf32>> loc(#loc392)
    %b_A_32 = tt.load %p_A_32_337 {boundaryCheck = array<i32: 0, 1>} : !tt.ptr<tensor<16x16xf32>> loc(#loc393)
    %b_A_41 = tt.load %p_A_41_364 {boundaryCheck = array<i32: 0, 1>} : !tt.ptr<tensor<16x16xf32>> loc(#loc394)
    %b_A_42 = tt.load %p_A_42_391 {boundaryCheck = array<i32: 0, 1>} : !tt.ptr<tensor<16x16xf32>> loc(#loc395)
    %b_A_43 = tt.load %p_A_43_418 {boundaryCheck = array<i32: 0, 1>} : !tt.ptr<tensor<16x16xf32>> loc(#loc396)
    %b_Ai_21 = arith.constant 0.000000e+00 : f32 loc(#loc397)
    %b_Ai_21_419 = arith.constant dense<0.000000e+00> : tensor<16x16xf32> loc(#loc397)
    %b_Ai_21_420 = tt.dot %b_Ai_22_252, %b_A_21, %b_Ai_21_419 : tensor<16x16xf32> * tensor<16x16xf32> -> tensor<16x16xf32> loc(#loc397)
    %b_Ai_21_421 = arith.constant 0.000000e+00 : f32 loc(#loc398)
    %b_Ai_21_422 = arith.constant dense<0.000000e+00> : tensor<16x16xf32> loc(#loc398)
    %b_Ai_21_423 = tt.dot %b_Ai_21_420, %b_Ai_11_250, %b_Ai_21_422 : tensor<16x16xf32> * tensor<16x16xf32> -> tensor<16x16xf32> loc(#loc398)
    %b_Ai_21_424 = arith.constant 0.000000e+00 : f32 loc(#loc399)
    %b_Ai_21_425 = arith.constant dense<0.000000e+00> : tensor<16x16xf32> loc(#loc399)
    %b_Ai_21_426 = arith.subf %b_Ai_21_425, %b_Ai_21_423 : tensor<16x16xf32> loc(#loc399)
    %b_Ai_32 = arith.constant 0.000000e+00 : f32 loc(#loc400)
    %b_Ai_32_427 = arith.constant dense<0.000000e+00> : tensor<16x16xf32> loc(#loc400)
    %b_Ai_32_428 = tt.dot %b_Ai_33_254, %b_A_32, %b_Ai_32_427 : tensor<16x16xf32> * tensor<16x16xf32> -> tensor<16x16xf32> loc(#loc400)
    %b_Ai_32_429 = arith.constant 0.000000e+00 : f32 loc(#loc401)
    %b_Ai_32_430 = arith.constant dense<0.000000e+00> : tensor<16x16xf32> loc(#loc401)
    %b_Ai_32_431 = tt.dot %b_Ai_32_428, %b_Ai_22_252, %b_Ai_32_430 : tensor<16x16xf32> * tensor<16x16xf32> -> tensor<16x16xf32> loc(#loc401)
    %b_Ai_32_432 = arith.constant 0.000000e+00 : f32 loc(#loc402)
    %b_Ai_32_433 = arith.constant dense<0.000000e+00> : tensor<16x16xf32> loc(#loc402)
    %b_Ai_32_434 = arith.subf %b_Ai_32_433, %b_Ai_32_431 : tensor<16x16xf32> loc(#loc402)
    %b_Ai_43 = arith.constant 0.000000e+00 : f32 loc(#loc403)
    %b_Ai_43_435 = arith.constant dense<0.000000e+00> : tensor<16x16xf32> loc(#loc403)
    %b_Ai_43_436 = tt.dot %b_Ai_44_256, %b_A_43, %b_Ai_43_435 : tensor<16x16xf32> * tensor<16x16xf32> -> tensor<16x16xf32> loc(#loc403)
    %b_Ai_43_437 = arith.constant 0.000000e+00 : f32 loc(#loc404)
    %b_Ai_43_438 = arith.constant dense<0.000000e+00> : tensor<16x16xf32> loc(#loc404)
    %b_Ai_43_439 = tt.dot %b_Ai_43_436, %b_Ai_33_254, %b_Ai_43_438 : tensor<16x16xf32> * tensor<16x16xf32> -> tensor<16x16xf32> loc(#loc404)
    %b_Ai_43_440 = arith.constant 0.000000e+00 : f32 loc(#loc405)
    %b_Ai_43_441 = arith.constant dense<0.000000e+00> : tensor<16x16xf32> loc(#loc405)
    %b_Ai_43_442 = arith.subf %b_Ai_43_441, %b_Ai_43_439 : tensor<16x16xf32> loc(#loc405)
    %b_Ai_31 = arith.constant 0.000000e+00 : f32 loc(#loc406)
    %b_Ai_31_443 = arith.constant dense<0.000000e+00> : tensor<16x16xf32> loc(#loc406)
    %b_Ai_31_444 = tt.dot %b_A_31, %b_Ai_11_250, %b_Ai_31_443 : tensor<16x16xf32> * tensor<16x16xf32> -> tensor<16x16xf32> loc(#loc406)
    %b_Ai_31_445 = arith.constant 0.000000e+00 : f32 loc(#loc407)
    %b_Ai_31_446 = arith.constant dense<0.000000e+00> : tensor<16x16xf32> loc(#loc407)
    %b_Ai_31_447 = tt.dot %b_A_32, %b_Ai_21_426, %b_Ai_31_446 : tensor<16x16xf32> * tensor<16x16xf32> -> tensor<16x16xf32> loc(#loc407)
    %b_Ai_31_448 = arith.addf %b_Ai_31_444, %b_Ai_31_447 : tensor<16x16xf32> loc(#loc408)
    %b_Ai_31_449 = arith.constant 0.000000e+00 : f32 loc(#loc409)
    %b_Ai_31_450 = arith.constant dense<0.000000e+00> : tensor<16x16xf32> loc(#loc409)
    %b_Ai_31_451 = tt.dot %b_Ai_33_254, %b_Ai_31_448, %b_Ai_31_450 : tensor<16x16xf32> * tensor<16x16xf32> -> tensor<16x16xf32> loc(#loc409)
    %b_Ai_31_452 = arith.constant 0.000000e+00 : f32 loc(#loc410)
    %b_Ai_31_453 = arith.constant dense<0.000000e+00> : tensor<16x16xf32> loc(#loc410)
    %b_Ai_31_454 = arith.subf %b_Ai_31_453, %b_Ai_31_451 : tensor<16x16xf32> loc(#loc410)
    %b_Ai_42 = arith.constant 0.000000e+00 : f32 loc(#loc411)
    %b_Ai_42_455 = arith.constant dense<0.000000e+00> : tensor<16x16xf32> loc(#loc411)
    %b_Ai_42_456 = tt.dot %b_A_42, %b_Ai_22_252, %b_Ai_42_455 : tensor<16x16xf32> * tensor<16x16xf32> -> tensor<16x16xf32> loc(#loc411)
    %b_Ai_42_457 = arith.constant 0.000000e+00 : f32 loc(#loc412)
    %b_Ai_42_458 = arith.constant dense<0.000000e+00> : tensor<16x16xf32> loc(#loc412)
    %b_Ai_42_459 = tt.dot %b_A_43, %b_Ai_32_434, %b_Ai_42_458 : tensor<16x16xf32> * tensor<16x16xf32> -> tensor<16x16xf32> loc(#loc412)
    %b_Ai_42_460 = arith.addf %b_Ai_42_456, %b_Ai_42_459 : tensor<16x16xf32> loc(#loc413)
    %b_Ai_42_461 = arith.constant 0.000000e+00 : f32 loc(#loc414)
    %b_Ai_42_462 = arith.constant dense<0.000000e+00> : tensor<16x16xf32> loc(#loc414)
    %b_Ai_42_463 = tt.dot %b_Ai_44_256, %b_Ai_42_460, %b_Ai_42_462 : tensor<16x16xf32> * tensor<16x16xf32> -> tensor<16x16xf32> loc(#loc414)
    %b_Ai_42_464 = arith.constant 0.000000e+00 : f32 loc(#loc415)
    %b_Ai_42_465 = arith.constant dense<0.000000e+00> : tensor<16x16xf32> loc(#loc415)
    %b_Ai_42_466 = arith.subf %b_Ai_42_465, %b_Ai_42_463 : tensor<16x16xf32> loc(#loc415)
    %b_Ai_41 = arith.constant 0.000000e+00 : f32 loc(#loc416)
    %b_Ai_41_467 = arith.constant dense<0.000000e+00> : tensor<16x16xf32> loc(#loc416)
    %b_Ai_41_468 = tt.dot %b_A_41, %b_Ai_11_250, %b_Ai_41_467 : tensor<16x16xf32> * tensor<16x16xf32> -> tensor<16x16xf32> loc(#loc416)
    %b_Ai_41_469 = arith.constant 0.000000e+00 : f32 loc(#loc417)
    %b_Ai_41_470 = arith.constant dense<0.000000e+00> : tensor<16x16xf32> loc(#loc417)
    %b_Ai_41_471 = tt.dot %b_A_42, %b_Ai_21_426, %b_Ai_41_470 : tensor<16x16xf32> * tensor<16x16xf32> -> tensor<16x16xf32> loc(#loc417)
    %b_Ai_41_472 = arith.addf %b_Ai_41_468, %b_Ai_41_471 : tensor<16x16xf32> loc(#loc418)
    %b_Ai_41_473 = arith.constant 0.000000e+00 : f32 loc(#loc419)
    %b_Ai_41_474 = arith.constant dense<0.000000e+00> : tensor<16x16xf32> loc(#loc419)
    %b_Ai_41_475 = tt.dot %b_A_43, %b_Ai_31_454, %b_Ai_41_474 : tensor<16x16xf32> * tensor<16x16xf32> -> tensor<16x16xf32> loc(#loc419)
    %b_Ai_41_476 = arith.addf %b_Ai_41_472, %b_Ai_41_475 : tensor<16x16xf32> loc(#loc420)
    %b_Ai_41_477 = arith.constant 0.000000e+00 : f32 loc(#loc421)
    %b_Ai_41_478 = arith.constant dense<0.000000e+00> : tensor<16x16xf32> loc(#loc421)
    %b_Ai_41_479 = tt.dot %b_Ai_44_256, %b_Ai_41_476, %b_Ai_41_478 : tensor<16x16xf32> * tensor<16x16xf32> -> tensor<16x16xf32> loc(#loc421)
    %b_Ai_41_480 = arith.constant 0.000000e+00 : f32 loc(#loc422)
    %b_Ai_41_481 = arith.constant dense<0.000000e+00> : tensor<16x16xf32> loc(#loc422)
    %b_Ai_41_482 = arith.subf %b_Ai_41_481, %b_Ai_41_479 : tensor<16x16xf32> loc(#loc422)
    %p_Ai_11 = arith.constant 64 : i32 loc(#loc423)
    %p_Ai_11_483 = arith.constant 64 : i32 loc(#loc423)
    %p_Ai_11_484 = arith.extsi %22 : i32 to i64 loc(#loc423)
    %p_Ai_11_485 = arith.extsi %p_Ai_11_483 : i32 to i64 loc(#loc423)
    %p_Ai_11_486 = arith.muli %p_Ai_11_484, %p_Ai_11_485 : i64 loc(#loc423)
    %p_Ai_11_487 = arith.constant 2147483647 : i64 loc(#loc423)
    %p_Ai_11_488 = arith.constant -2147483648 : i64 loc(#loc423)
    %p_Ai_11_489 = arith.cmpi sle, %p_Ai_11_486, %p_Ai_11_487 : i64 loc(#loc423)
    %p_Ai_11_490 = arith.cmpi sge, %p_Ai_11_486, %p_Ai_11_488 : i64 loc(#loc423)
    %p_Ai_11_491 = arith.andi %p_Ai_11_489, %p_Ai_11_490 : i1 loc(#loc423)
    %p_Ai_11_492 = arith.muli %22, %p_Ai_11_483 : i32 loc(#loc423)
    %p_Ai_11_493 = arith.extsi %T_17 : i32 to i64 loc(#loc424)
    %p_Ai_11_494 = arith.constant 64 : i64 loc(#loc424)
    %p_Ai_11_495 = arith.constant 1024 : i64 loc(#loc424)
    %p_Ai_11_496 = arith.constant 1 : i64 loc(#loc424)
    %p_Ai_11_497 = arith.constant 0 : i32 loc(#loc424)
    %p_Ai_11_498 = tt.make_tensor_ptr %Ai_89, [%p_Ai_11_493, %p_Ai_11_494], [%p_Ai_11_495, %p_Ai_11_496], [%p_Ai_11_492, %p_Ai_11_497] {order = array<i32: 1, 0>} : <tensor<16x16xf16>> loc(#loc424)
    %p_Ai_22 = arith.constant 64 : i32 loc(#loc425)
    %p_Ai_22_499 = arith.constant 64 : i32 loc(#loc425)
    %p_Ai_22_500 = arith.extsi %22 : i32 to i64 loc(#loc425)
    %p_Ai_22_501 = arith.extsi %p_Ai_22_499 : i32 to i64 loc(#loc425)
    %p_Ai_22_502 = arith.muli %p_Ai_22_500, %p_Ai_22_501 : i64 loc(#loc425)
    %p_Ai_22_503 = arith.constant 2147483647 : i64 loc(#loc425)
    %p_Ai_22_504 = arith.constant -2147483648 : i64 loc(#loc425)
    %p_Ai_22_505 = arith.cmpi sle, %p_Ai_22_502, %p_Ai_22_503 : i64 loc(#loc425)
    %p_Ai_22_506 = arith.cmpi sge, %p_Ai_22_502, %p_Ai_22_504 : i64 loc(#loc425)
    %p_Ai_22_507 = arith.andi %p_Ai_22_505, %p_Ai_22_506 : i1 loc(#loc425)
    %p_Ai_22_508 = arith.muli %22, %p_Ai_22_499 : i32 loc(#loc425)
    %p_Ai_22_509 = arith.constant 16 : i32 loc(#loc426)
    %p_Ai_22_510 = arith.constant 16 : i32 loc(#loc426)
    %p_Ai_22_511 = arith.extsi %p_Ai_22_508 : i32 to i64 loc(#loc426)
    %p_Ai_22_512 = arith.extsi %p_Ai_22_510 : i32 to i64 loc(#loc426)
    %p_Ai_22_513 = arith.addi %p_Ai_22_511, %p_Ai_22_512 : i64 loc(#loc426)
    %p_Ai_22_514 = arith.constant 2147483647 : i64 loc(#loc426)
    %p_Ai_22_515 = arith.constant -2147483648 : i64 loc(#loc426)
    %p_Ai_22_516 = arith.cmpi sle, %p_Ai_22_513, %p_Ai_22_514 : i64 loc(#loc426)
    %p_Ai_22_517 = arith.cmpi sge, %p_Ai_22_513, %p_Ai_22_515 : i64 loc(#loc426)
    %p_Ai_22_518 = arith.andi %p_Ai_22_516, %p_Ai_22_517 : i1 loc(#loc426)
    %p_Ai_22_519 = arith.addi %p_Ai_22_508, %p_Ai_22_510 : i32 loc(#loc426)
    %p_Ai_22_520 = arith.extsi %T_17 : i32 to i64 loc(#loc427)
    %p_Ai_22_521 = arith.constant 64 : i64 loc(#loc427)
    %p_Ai_22_522 = arith.constant 1024 : i64 loc(#loc427)
    %p_Ai_22_523 = arith.constant 1 : i64 loc(#loc427)
    %p_Ai_22_524 = arith.constant 16 : i32 loc(#loc427)
    %p_Ai_22_525 = tt.make_tensor_ptr %Ai_89, [%p_Ai_22_520, %p_Ai_22_521], [%p_Ai_22_522, %p_Ai_22_523], [%p_Ai_22_519, %p_Ai_22_524] {order = array<i32: 1, 0>} : <tensor<16x16xf16>> loc(#loc427)
    %p_Ai_33 = arith.constant 64 : i32 loc(#loc428)
    %p_Ai_33_526 = arith.constant 64 : i32 loc(#loc428)
    %p_Ai_33_527 = arith.extsi %22 : i32 to i64 loc(#loc428)
    %p_Ai_33_528 = arith.extsi %p_Ai_33_526 : i32 to i64 loc(#loc428)
    %p_Ai_33_529 = arith.muli %p_Ai_33_527, %p_Ai_33_528 : i64 loc(#loc428)
    %p_Ai_33_530 = arith.constant 2147483647 : i64 loc(#loc428)
    %p_Ai_33_531 = arith.constant -2147483648 : i64 loc(#loc428)
    %p_Ai_33_532 = arith.cmpi sle, %p_Ai_33_529, %p_Ai_33_530 : i64 loc(#loc428)
    %p_Ai_33_533 = arith.cmpi sge, %p_Ai_33_529, %p_Ai_33_531 : i64 loc(#loc428)
    %p_Ai_33_534 = arith.andi %p_Ai_33_532, %p_Ai_33_533 : i1 loc(#loc428)
    %p_Ai_33_535 = arith.muli %22, %p_Ai_33_526 : i32 loc(#loc428)
    %p_Ai_33_536 = arith.constant 32 : i32 loc(#loc429)
    %p_Ai_33_537 = arith.constant 32 : i32 loc(#loc429)
    %p_Ai_33_538 = arith.extsi %p_Ai_33_535 : i32 to i64 loc(#loc429)
    %p_Ai_33_539 = arith.extsi %p_Ai_33_537 : i32 to i64 loc(#loc429)
    %p_Ai_33_540 = arith.addi %p_Ai_33_538, %p_Ai_33_539 : i64 loc(#loc429)
    %p_Ai_33_541 = arith.constant 2147483647 : i64 loc(#loc429)
    %p_Ai_33_542 = arith.constant -2147483648 : i64 loc(#loc429)
    %p_Ai_33_543 = arith.cmpi sle, %p_Ai_33_540, %p_Ai_33_541 : i64 loc(#loc429)
    %p_Ai_33_544 = arith.cmpi sge, %p_Ai_33_540, %p_Ai_33_542 : i64 loc(#loc429)
    %p_Ai_33_545 = arith.andi %p_Ai_33_543, %p_Ai_33_544 : i1 loc(#loc429)
    %p_Ai_33_546 = arith.addi %p_Ai_33_535, %p_Ai_33_537 : i32 loc(#loc429)
    %p_Ai_33_547 = arith.extsi %T_17 : i32 to i64 loc(#loc430)
    %p_Ai_33_548 = arith.constant 64 : i64 loc(#loc430)
    %p_Ai_33_549 = arith.constant 1024 : i64 loc(#loc430)
    %p_Ai_33_550 = arith.constant 1 : i64 loc(#loc430)
    %p_Ai_33_551 = arith.constant 32 : i32 loc(#loc430)
    %p_Ai_33_552 = tt.make_tensor_ptr %Ai_89, [%p_Ai_33_547, %p_Ai_33_548], [%p_Ai_33_549, %p_Ai_33_550], [%p_Ai_33_546, %p_Ai_33_551] {order = array<i32: 1, 0>} : <tensor<16x16xf16>> loc(#loc430)
    %p_Ai_44 = arith.constant 64 : i32 loc(#loc431)
    %p_Ai_44_553 = arith.constant 64 : i32 loc(#loc431)
    %p_Ai_44_554 = arith.extsi %22 : i32 to i64 loc(#loc431)
    %p_Ai_44_555 = arith.extsi %p_Ai_44_553 : i32 to i64 loc(#loc431)
    %p_Ai_44_556 = arith.muli %p_Ai_44_554, %p_Ai_44_555 : i64 loc(#loc431)
    %p_Ai_44_557 = arith.constant 2147483647 : i64 loc(#loc431)
    %p_Ai_44_558 = arith.constant -2147483648 : i64 loc(#loc431)
    %p_Ai_44_559 = arith.cmpi sle, %p_Ai_44_556, %p_Ai_44_557 : i64 loc(#loc431)
    %p_Ai_44_560 = arith.cmpi sge, %p_Ai_44_556, %p_Ai_44_558 : i64 loc(#loc431)
    %p_Ai_44_561 = arith.andi %p_Ai_44_559, %p_Ai_44_560 : i1 loc(#loc431)
    %p_Ai_44_562 = arith.muli %22, %p_Ai_44_553 : i32 loc(#loc431)
    %p_Ai_44_563 = arith.constant 48 : i32 loc(#loc432)
    %p_Ai_44_564 = arith.constant 48 : i32 loc(#loc432)
    %p_Ai_44_565 = arith.extsi %p_Ai_44_562 : i32 to i64 loc(#loc432)
    %p_Ai_44_566 = arith.extsi %p_Ai_44_564 : i32 to i64 loc(#loc432)
    %p_Ai_44_567 = arith.addi %p_Ai_44_565, %p_Ai_44_566 : i64 loc(#loc432)
    %p_Ai_44_568 = arith.constant 2147483647 : i64 loc(#loc432)
    %p_Ai_44_569 = arith.constant -2147483648 : i64 loc(#loc432)
    %p_Ai_44_570 = arith.cmpi sle, %p_Ai_44_567, %p_Ai_44_568 : i64 loc(#loc432)
    %p_Ai_44_571 = arith.cmpi sge, %p_Ai_44_567, %p_Ai_44_569 : i64 loc(#loc432)
    %p_Ai_44_572 = arith.andi %p_Ai_44_570, %p_Ai_44_571 : i1 loc(#loc432)
    %p_Ai_44_573 = arith.addi %p_Ai_44_562, %p_Ai_44_564 : i32 loc(#loc432)
    %p_Ai_44_574 = arith.extsi %T_17 : i32 to i64 loc(#loc433)
    %p_Ai_44_575 = arith.constant 64 : i64 loc(#loc433)
    %p_Ai_44_576 = arith.constant 1024 : i64 loc(#loc433)
    %p_Ai_44_577 = arith.constant 1 : i64 loc(#loc433)
    %p_Ai_44_578 = arith.constant 48 : i32 loc(#loc433)
    %p_Ai_44_579 = tt.make_tensor_ptr %Ai_89, [%p_Ai_44_574, %p_Ai_44_575], [%p_Ai_44_576, %p_Ai_44_577], [%p_Ai_44_573, %p_Ai_44_578] {order = array<i32: 1, 0>} : <tensor<16x16xf16>> loc(#loc433)
    %p_Ai_21 = arith.constant 64 : i32 loc(#loc434)
    %p_Ai_21_580 = arith.constant 64 : i32 loc(#loc434)
    %p_Ai_21_581 = arith.extsi %22 : i32 to i64 loc(#loc434)
    %p_Ai_21_582 = arith.extsi %p_Ai_21_580 : i32 to i64 loc(#loc434)
    %p_Ai_21_583 = arith.muli %p_Ai_21_581, %p_Ai_21_582 : i64 loc(#loc434)
    %p_Ai_21_584 = arith.constant 2147483647 : i64 loc(#loc434)
    %p_Ai_21_585 = arith.constant -2147483648 : i64 loc(#loc434)
    %p_Ai_21_586 = arith.cmpi sle, %p_Ai_21_583, %p_Ai_21_584 : i64 loc(#loc434)
    %p_Ai_21_587 = arith.cmpi sge, %p_Ai_21_583, %p_Ai_21_585 : i64 loc(#loc434)
    %p_Ai_21_588 = arith.andi %p_Ai_21_586, %p_Ai_21_587 : i1 loc(#loc434)
    %p_Ai_21_589 = arith.muli %22, %p_Ai_21_580 : i32 loc(#loc434)
    %p_Ai_21_590 = arith.constant 16 : i32 loc(#loc435)
    %p_Ai_21_591 = arith.constant 16 : i32 loc(#loc435)
    %p_Ai_21_592 = arith.extsi %p_Ai_21_589 : i32 to i64 loc(#loc435)
    %p_Ai_21_593 = arith.extsi %p_Ai_21_591 : i32 to i64 loc(#loc435)
    %p_Ai_21_594 = arith.addi %p_Ai_21_592, %p_Ai_21_593 : i64 loc(#loc435)
    %p_Ai_21_595 = arith.constant 2147483647 : i64 loc(#loc435)
    %p_Ai_21_596 = arith.constant -2147483648 : i64 loc(#loc435)
    %p_Ai_21_597 = arith.cmpi sle, %p_Ai_21_594, %p_Ai_21_595 : i64 loc(#loc435)
    %p_Ai_21_598 = arith.cmpi sge, %p_Ai_21_594, %p_Ai_21_596 : i64 loc(#loc435)
    %p_Ai_21_599 = arith.andi %p_Ai_21_597, %p_Ai_21_598 : i1 loc(#loc435)
    %p_Ai_21_600 = arith.addi %p_Ai_21_589, %p_Ai_21_591 : i32 loc(#loc435)
    %p_Ai_21_601 = arith.extsi %T_17 : i32 to i64 loc(#loc436)
    %p_Ai_21_602 = arith.constant 64 : i64 loc(#loc436)
    %p_Ai_21_603 = arith.constant 1024 : i64 loc(#loc436)
    %p_Ai_21_604 = arith.constant 1 : i64 loc(#loc436)
    %p_Ai_21_605 = arith.constant 0 : i32 loc(#loc436)
    %p_Ai_21_606 = tt.make_tensor_ptr %Ai_89, [%p_Ai_21_601, %p_Ai_21_602], [%p_Ai_21_603, %p_Ai_21_604], [%p_Ai_21_600, %p_Ai_21_605] {order = array<i32: 1, 0>} : <tensor<16x16xf16>> loc(#loc436)
    %p_Ai_31 = arith.constant 64 : i32 loc(#loc437)
    %p_Ai_31_607 = arith.constant 64 : i32 loc(#loc437)
    %p_Ai_31_608 = arith.extsi %22 : i32 to i64 loc(#loc437)
    %p_Ai_31_609 = arith.extsi %p_Ai_31_607 : i32 to i64 loc(#loc437)
    %p_Ai_31_610 = arith.muli %p_Ai_31_608, %p_Ai_31_609 : i64 loc(#loc437)
    %p_Ai_31_611 = arith.constant 2147483647 : i64 loc(#loc437)
    %p_Ai_31_612 = arith.constant -2147483648 : i64 loc(#loc437)
    %p_Ai_31_613 = arith.cmpi sle, %p_Ai_31_610, %p_Ai_31_611 : i64 loc(#loc437)
    %p_Ai_31_614 = arith.cmpi sge, %p_Ai_31_610, %p_Ai_31_612 : i64 loc(#loc437)
    %p_Ai_31_615 = arith.andi %p_Ai_31_613, %p_Ai_31_614 : i1 loc(#loc437)
    %p_Ai_31_616 = arith.muli %22, %p_Ai_31_607 : i32 loc(#loc437)
    %p_Ai_31_617 = arith.constant 32 : i32 loc(#loc438)
    %p_Ai_31_618 = arith.constant 32 : i32 loc(#loc438)
    %p_Ai_31_619 = arith.extsi %p_Ai_31_616 : i32 to i64 loc(#loc438)
    %p_Ai_31_620 = arith.extsi %p_Ai_31_618 : i32 to i64 loc(#loc438)
    %p_Ai_31_621 = arith.addi %p_Ai_31_619, %p_Ai_31_620 : i64 loc(#loc438)
    %p_Ai_31_622 = arith.constant 2147483647 : i64 loc(#loc438)
    %p_Ai_31_623 = arith.constant -2147483648 : i64 loc(#loc438)
    %p_Ai_31_624 = arith.cmpi sle, %p_Ai_31_621, %p_Ai_31_622 : i64 loc(#loc438)
    %p_Ai_31_625 = arith.cmpi sge, %p_Ai_31_621, %p_Ai_31_623 : i64 loc(#loc438)
    %p_Ai_31_626 = arith.andi %p_Ai_31_624, %p_Ai_31_625 : i1 loc(#loc438)
    %p_Ai_31_627 = arith.addi %p_Ai_31_616, %p_Ai_31_618 : i32 loc(#loc438)
    %p_Ai_31_628 = arith.extsi %T_17 : i32 to i64 loc(#loc439)
    %p_Ai_31_629 = arith.constant 64 : i64 loc(#loc439)
    %p_Ai_31_630 = arith.constant 1024 : i64 loc(#loc439)
    %p_Ai_31_631 = arith.constant 1 : i64 loc(#loc439)
    %p_Ai_31_632 = arith.constant 0 : i32 loc(#loc439)
    %p_Ai_31_633 = tt.make_tensor_ptr %Ai_89, [%p_Ai_31_628, %p_Ai_31_629], [%p_Ai_31_630, %p_Ai_31_631], [%p_Ai_31_627, %p_Ai_31_632] {order = array<i32: 1, 0>} : <tensor<16x16xf16>> loc(#loc439)
    %p_Ai_32 = arith.constant 64 : i32 loc(#loc440)
    %p_Ai_32_634 = arith.constant 64 : i32 loc(#loc440)
    %p_Ai_32_635 = arith.extsi %22 : i32 to i64 loc(#loc440)
    %p_Ai_32_636 = arith.extsi %p_Ai_32_634 : i32 to i64 loc(#loc440)
    %p_Ai_32_637 = arith.muli %p_Ai_32_635, %p_Ai_32_636 : i64 loc(#loc440)
    %p_Ai_32_638 = arith.constant 2147483647 : i64 loc(#loc440)
    %p_Ai_32_639 = arith.constant -2147483648 : i64 loc(#loc440)
    %p_Ai_32_640 = arith.cmpi sle, %p_Ai_32_637, %p_Ai_32_638 : i64 loc(#loc440)
    %p_Ai_32_641 = arith.cmpi sge, %p_Ai_32_637, %p_Ai_32_639 : i64 loc(#loc440)
    %p_Ai_32_642 = arith.andi %p_Ai_32_640, %p_Ai_32_641 : i1 loc(#loc440)
    %p_Ai_32_643 = arith.muli %22, %p_Ai_32_634 : i32 loc(#loc440)
    %p_Ai_32_644 = arith.constant 32 : i32 loc(#loc441)
    %p_Ai_32_645 = arith.constant 32 : i32 loc(#loc441)
    %p_Ai_32_646 = arith.extsi %p_Ai_32_643 : i32 to i64 loc(#loc441)
    %p_Ai_32_647 = arith.extsi %p_Ai_32_645 : i32 to i64 loc(#loc441)
    %p_Ai_32_648 = arith.addi %p_Ai_32_646, %p_Ai_32_647 : i64 loc(#loc441)
    %p_Ai_32_649 = arith.constant 2147483647 : i64 loc(#loc441)
    %p_Ai_32_650 = arith.constant -2147483648 : i64 loc(#loc441)
    %p_Ai_32_651 = arith.cmpi sle, %p_Ai_32_648, %p_Ai_32_649 : i64 loc(#loc441)
    %p_Ai_32_652 = arith.cmpi sge, %p_Ai_32_648, %p_Ai_32_650 : i64 loc(#loc441)
    %p_Ai_32_653 = arith.andi %p_Ai_32_651, %p_Ai_32_652 : i1 loc(#loc441)
    %p_Ai_32_654 = arith.addi %p_Ai_32_643, %p_Ai_32_645 : i32 loc(#loc441)
    %p_Ai_32_655 = arith.extsi %T_17 : i32 to i64 loc(#loc442)
    %p_Ai_32_656 = arith.constant 64 : i64 loc(#loc442)
    %p_Ai_32_657 = arith.constant 1024 : i64 loc(#loc442)
    %p_Ai_32_658 = arith.constant 1 : i64 loc(#loc442)
    %p_Ai_32_659 = arith.constant 16 : i32 loc(#loc442)
    %p_Ai_32_660 = tt.make_tensor_ptr %Ai_89, [%p_Ai_32_655, %p_Ai_32_656], [%p_Ai_32_657, %p_Ai_32_658], [%p_Ai_32_654, %p_Ai_32_659] {order = array<i32: 1, 0>} : <tensor<16x16xf16>> loc(#loc442)
    %p_Ai_41 = arith.constant 64 : i32 loc(#loc443)
    %p_Ai_41_661 = arith.constant 64 : i32 loc(#loc443)
    %p_Ai_41_662 = arith.extsi %22 : i32 to i64 loc(#loc443)
    %p_Ai_41_663 = arith.extsi %p_Ai_41_661 : i32 to i64 loc(#loc443)
    %p_Ai_41_664 = arith.muli %p_Ai_41_662, %p_Ai_41_663 : i64 loc(#loc443)
    %p_Ai_41_665 = arith.constant 2147483647 : i64 loc(#loc443)
    %p_Ai_41_666 = arith.constant -2147483648 : i64 loc(#loc443)
    %p_Ai_41_667 = arith.cmpi sle, %p_Ai_41_664, %p_Ai_41_665 : i64 loc(#loc443)
    %p_Ai_41_668 = arith.cmpi sge, %p_Ai_41_664, %p_Ai_41_666 : i64 loc(#loc443)
    %p_Ai_41_669 = arith.andi %p_Ai_41_667, %p_Ai_41_668 : i1 loc(#loc443)
    %p_Ai_41_670 = arith.muli %22, %p_Ai_41_661 : i32 loc(#loc443)
    %p_Ai_41_671 = arith.constant 48 : i32 loc(#loc444)
    %p_Ai_41_672 = arith.constant 48 : i32 loc(#loc444)
    %p_Ai_41_673 = arith.extsi %p_Ai_41_670 : i32 to i64 loc(#loc444)
    %p_Ai_41_674 = arith.extsi %p_Ai_41_672 : i32 to i64 loc(#loc444)
    %p_Ai_41_675 = arith.addi %p_Ai_41_673, %p_Ai_41_674 : i64 loc(#loc444)
    %p_Ai_41_676 = arith.constant 2147483647 : i64 loc(#loc444)
    %p_Ai_41_677 = arith.constant -2147483648 : i64 loc(#loc444)
    %p_Ai_41_678 = arith.cmpi sle, %p_Ai_41_675, %p_Ai_41_676 : i64 loc(#loc444)
    %p_Ai_41_679 = arith.cmpi sge, %p_Ai_41_675, %p_Ai_41_677 : i64 loc(#loc444)
    %p_Ai_41_680 = arith.andi %p_Ai_41_678, %p_Ai_41_679 : i1 loc(#loc444)
    %p_Ai_41_681 = arith.addi %p_Ai_41_670, %p_Ai_41_672 : i32 loc(#loc444)
    %p_Ai_41_682 = arith.extsi %T_17 : i32 to i64 loc(#loc445)
    %p_Ai_41_683 = arith.constant 64 : i64 loc(#loc445)
    %p_Ai_41_684 = arith.constant 1024 : i64 loc(#loc445)
    %p_Ai_41_685 = arith.constant 1 : i64 loc(#loc445)
    %p_Ai_41_686 = arith.constant 0 : i32 loc(#loc445)
    %p_Ai_41_687 = tt.make_tensor_ptr %Ai_89, [%p_Ai_41_682, %p_Ai_41_683], [%p_Ai_41_684, %p_Ai_41_685], [%p_Ai_41_681, %p_Ai_41_686] {order = array<i32: 1, 0>} : <tensor<16x16xf16>> loc(#loc445)
    %p_Ai_42 = arith.constant 64 : i32 loc(#loc446)
    %p_Ai_42_688 = arith.constant 64 : i32 loc(#loc446)
    %p_Ai_42_689 = arith.extsi %22 : i32 to i64 loc(#loc446)
    %p_Ai_42_690 = arith.extsi %p_Ai_42_688 : i32 to i64 loc(#loc446)
    %p_Ai_42_691 = arith.muli %p_Ai_42_689, %p_Ai_42_690 : i64 loc(#loc446)
    %p_Ai_42_692 = arith.constant 2147483647 : i64 loc(#loc446)
    %p_Ai_42_693 = arith.constant -2147483648 : i64 loc(#loc446)
    %p_Ai_42_694 = arith.cmpi sle, %p_Ai_42_691, %p_Ai_42_692 : i64 loc(#loc446)
    %p_Ai_42_695 = arith.cmpi sge, %p_Ai_42_691, %p_Ai_42_693 : i64 loc(#loc446)
    %p_Ai_42_696 = arith.andi %p_Ai_42_694, %p_Ai_42_695 : i1 loc(#loc446)
    %p_Ai_42_697 = arith.muli %22, %p_Ai_42_688 : i32 loc(#loc446)
    %p_Ai_42_698 = arith.constant 48 : i32 loc(#loc447)
    %p_Ai_42_699 = arith.constant 48 : i32 loc(#loc447)
    %p_Ai_42_700 = arith.extsi %p_Ai_42_697 : i32 to i64 loc(#loc447)
    %p_Ai_42_701 = arith.extsi %p_Ai_42_699 : i32 to i64 loc(#loc447)
    %p_Ai_42_702 = arith.addi %p_Ai_42_700, %p_Ai_42_701 : i64 loc(#loc447)
    %p_Ai_42_703 = arith.constant 2147483647 : i64 loc(#loc447)
    %p_Ai_42_704 = arith.constant -2147483648 : i64 loc(#loc447)
    %p_Ai_42_705 = arith.cmpi sle, %p_Ai_42_702, %p_Ai_42_703 : i64 loc(#loc447)
    %p_Ai_42_706 = arith.cmpi sge, %p_Ai_42_702, %p_Ai_42_704 : i64 loc(#loc447)
    %p_Ai_42_707 = arith.andi %p_Ai_42_705, %p_Ai_42_706 : i1 loc(#loc447)
    %p_Ai_42_708 = arith.addi %p_Ai_42_697, %p_Ai_42_699 : i32 loc(#loc447)
    %p_Ai_42_709 = arith.extsi %T_17 : i32 to i64 loc(#loc448)
    %p_Ai_42_710 = arith.constant 64 : i64 loc(#loc448)
    %p_Ai_42_711 = arith.constant 1024 : i64 loc(#loc448)
    %p_Ai_42_712 = arith.constant 1 : i64 loc(#loc448)
    %p_Ai_42_713 = arith.constant 16 : i32 loc(#loc448)
    %p_Ai_42_714 = tt.make_tensor_ptr %Ai_89, [%p_Ai_42_709, %p_Ai_42_710], [%p_Ai_42_711, %p_Ai_42_712], [%p_Ai_42_708, %p_Ai_42_713] {order = array<i32: 1, 0>} : <tensor<16x16xf16>> loc(#loc448)
    %p_Ai_43 = arith.constant 64 : i32 loc(#loc449)
    %p_Ai_43_715 = arith.constant 64 : i32 loc(#loc449)
    %p_Ai_43_716 = arith.extsi %22 : i32 to i64 loc(#loc449)
    %p_Ai_43_717 = arith.extsi %p_Ai_43_715 : i32 to i64 loc(#loc449)
    %p_Ai_43_718 = arith.muli %p_Ai_43_716, %p_Ai_43_717 : i64 loc(#loc449)
    %p_Ai_43_719 = arith.constant 2147483647 : i64 loc(#loc449)
    %p_Ai_43_720 = arith.constant -2147483648 : i64 loc(#loc449)
    %p_Ai_43_721 = arith.cmpi sle, %p_Ai_43_718, %p_Ai_43_719 : i64 loc(#loc449)
    %p_Ai_43_722 = arith.cmpi sge, %p_Ai_43_718, %p_Ai_43_720 : i64 loc(#loc449)
    %p_Ai_43_723 = arith.andi %p_Ai_43_721, %p_Ai_43_722 : i1 loc(#loc449)
    %p_Ai_43_724 = arith.muli %22, %p_Ai_43_715 : i32 loc(#loc449)
    %p_Ai_43_725 = arith.constant 48 : i32 loc(#loc450)
    %p_Ai_43_726 = arith.constant 48 : i32 loc(#loc450)
    %p_Ai_43_727 = arith.extsi %p_Ai_43_724 : i32 to i64 loc(#loc450)
    %p_Ai_43_728 = arith.extsi %p_Ai_43_726 : i32 to i64 loc(#loc450)
    %p_Ai_43_729 = arith.addi %p_Ai_43_727, %p_Ai_43_728 : i64 loc(#loc450)
    %p_Ai_43_730 = arith.constant 2147483647 : i64 loc(#loc450)
    %p_Ai_43_731 = arith.constant -2147483648 : i64 loc(#loc450)
    %p_Ai_43_732 = arith.cmpi sle, %p_Ai_43_729, %p_Ai_43_730 : i64 loc(#loc450)
    %p_Ai_43_733 = arith.cmpi sge, %p_Ai_43_729, %p_Ai_43_731 : i64 loc(#loc450)
    %p_Ai_43_734 = arith.andi %p_Ai_43_732, %p_Ai_43_733 : i1 loc(#loc450)
    %p_Ai_43_735 = arith.addi %p_Ai_43_724, %p_Ai_43_726 : i32 loc(#loc450)
    %p_Ai_43_736 = arith.extsi %T_17 : i32 to i64 loc(#loc451)
    %p_Ai_43_737 = arith.constant 64 : i64 loc(#loc451)
    %p_Ai_43_738 = arith.constant 1024 : i64 loc(#loc451)
    %p_Ai_43_739 = arith.constant 1 : i64 loc(#loc451)
    %p_Ai_43_740 = arith.constant 32 : i32 loc(#loc451)
    %p_Ai_43_741 = tt.make_tensor_ptr %Ai_89, [%p_Ai_43_736, %p_Ai_43_737], [%p_Ai_43_738, %p_Ai_43_739], [%p_Ai_43_735, %p_Ai_43_740] {order = array<i32: 1, 0>} : <tensor<16x16xf16>> loc(#loc451)
    %104 = arith.truncf %b_Ai_11_250 : tensor<16x16xf32> to tensor<16x16xf16> loc(#loc225)
    tt.store %p_Ai_11_498, %104 {boundaryCheck = array<i32: 0, 1>} : !tt.ptr<tensor<16x16xf16>> loc(#loc226)
    %105 = arith.truncf %b_Ai_22_252 : tensor<16x16xf32> to tensor<16x16xf16> loc(#loc227)
    tt.store %p_Ai_22_525, %105 {boundaryCheck = array<i32: 0, 1>} : !tt.ptr<tensor<16x16xf16>> loc(#loc228)
    %106 = arith.truncf %b_Ai_33_254 : tensor<16x16xf32> to tensor<16x16xf16> loc(#loc229)
    tt.store %p_Ai_33_552, %106 {boundaryCheck = array<i32: 0, 1>} : !tt.ptr<tensor<16x16xf16>> loc(#loc230)
    %107 = arith.truncf %b_Ai_44_256 : tensor<16x16xf32> to tensor<16x16xf16> loc(#loc231)
    tt.store %p_Ai_44_579, %107 {boundaryCheck = array<i32: 0, 1>} : !tt.ptr<tensor<16x16xf16>> loc(#loc232)
    %108 = arith.truncf %b_Ai_21_426 : tensor<16x16xf32> to tensor<16x16xf16> loc(#loc233)
    tt.store %p_Ai_21_606, %108 {boundaryCheck = array<i32: 0, 1>} : !tt.ptr<tensor<16x16xf16>> loc(#loc234)
    %109 = arith.truncf %b_Ai_31_454 : tensor<16x16xf32> to tensor<16x16xf16> loc(#loc235)
    tt.store %p_Ai_31_633, %109 {boundaryCheck = array<i32: 0, 1>} : !tt.ptr<tensor<16x16xf16>> loc(#loc236)
    %110 = arith.truncf %b_Ai_32_434 : tensor<16x16xf32> to tensor<16x16xf16> loc(#loc237)
    tt.store %p_Ai_32_660, %110 {boundaryCheck = array<i32: 0, 1>} : !tt.ptr<tensor<16x16xf16>> loc(#loc238)
    %111 = arith.truncf %b_Ai_41_482 : tensor<16x16xf32> to tensor<16x16xf16> loc(#loc239)
    tt.store %p_Ai_41_687, %111 {boundaryCheck = array<i32: 0, 1>} : !tt.ptr<tensor<16x16xf16>> loc(#loc240)
    %112 = arith.truncf %b_Ai_42_466 : tensor<16x16xf32> to tensor<16x16xf16> loc(#loc241)
    tt.store %p_Ai_42_714, %112 {boundaryCheck = array<i32: 0, 1>} : !tt.ptr<tensor<16x16xf16>> loc(#loc242)
    %113 = arith.truncf %b_Ai_43_442 : tensor<16x16xf32> to tensor<16x16xf16> loc(#loc243)
    tt.store %p_Ai_43_741, %113 {boundaryCheck = array<i32: 0, 1>} : !tt.ptr<tensor<16x16xf16>> loc(#loc244)
    tt.return loc(#loc245)
  } loc(#loc)
  tt.func private @"triton.language.standard.sum__fp32S16_16S__(1,)cconstexpr_0__(2,)cconstexpr_False__(3,)cNone"(%input: tensor<16x16xf32> loc("input"(#loc246))) -> tensor<16xf32> attributes {noinline = false} {
    %0 = "tt.reduce"(%input) <{axis = 0 : i32}> ({
    ^bb0(%arg1: f32 loc(unknown), %arg2: f32 loc(unknown)):
      %2 = tt.call @triton.language.standard._sum_combine__fp32_fp32__(%arg1, %arg2) : (f32, f32) -> f32 loc(#loc247)
      tt.reduce.return %2 : f32 loc(#loc247)
    }) : (tensor<16x16xf32>) -> tensor<16xf32> loc(#loc247)
    tt.return %0 : tensor<16xf32> loc(#loc249)
  ^bb1:  // no predecessors
    %1 = ub.poison : tensor<16xf32> loc(#loc250)
    tt.return %1 : tensor<16xf32> loc(#loc250)
  } loc(#loc246)
  tt.func private @triton.language.standard._sum_combine__fp32_fp32__(%a: f32 loc("a"(#loc251)), %b: f32 loc("b"(#loc251))) -> f32 attributes {noinline = false} {
    %0 = arith.addf %a, %b : f32 loc(#loc252)
    tt.return %0 : f32 loc(#loc253)
  ^bb1:  // no predecessors
    %1 = ub.poison : f32 loc(#loc254)
    tt.return %1 : f32 loc(#loc254)
  } loc(#loc251)
} loc(#loc)
#loc1 = loc("/usr/local/lib/python3.12/dist-packages/vllm/model_executor/layers/fla/ops/solve_tril.py":250:30)
#loc2 = loc("/usr/local/lib/python3.12/dist-packages/vllm/model_executor/layers/fla/ops/solve_tril.py":250:48)
#loc3 = loc("/usr/local/lib/python3.12/dist-packages/vllm/model_executor/layers/fla/ops/solve_tril.py":251:23)
#loc4 = loc("/usr/local/lib/python3.12/dist-packages/vllm/model_executor/layers/fla/ops/solve_tril.py":251:33)
#loc5 = loc("/usr/local/lib/python3.12/dist-packages/vllm/model_executor/layers/fla/ops/solve_tril.py":254:42)
#loc6 = loc("/usr/local/lib/python3.12/dist-packages/vllm/model_executor/layers/fla/ops/solve_tril.py":254:36)
#loc7 = loc("/usr/local/lib/python3.12/dist-packages/vllm/model_executor/layers/fla/ops/solve_tril.py":254:20)
#loc8 = loc("/usr/local/lib/python3.12/dist-packages/vllm/model_executor/layers/fla/ops/solve_tril.py":255:42)
#loc9 = loc("/usr/local/lib/python3.12/dist-packages/vllm/model_executor/layers/fla/ops/solve_tril.py":255:36)
#loc10 = loc("/usr/local/lib/python3.12/dist-packages/vllm/model_executor/layers/fla/ops/solve_tril.py":255:46)
#loc11 = loc("/usr/local/lib/python3.12/dist-packages/vllm/model_executor/layers/fla/ops/solve_tril.py":255:20)
#loc12 = loc("/usr/local/lib/python3.12/dist-packages/vllm/model_executor/layers/fla/ops/solve_tril.py":258:33)
#loc13 = loc("/usr/local/lib/python3.12/dist-packages/vllm/model_executor/layers/fla/ops/solve_tril.py":258:20)
#loc14 = loc("/usr/local/lib/python3.12/dist-packages/vllm/model_executor/layers/fla/ops/solve_tril.py":259:33)
#loc15 = loc("/usr/local/lib/python3.12/dist-packages/vllm/model_executor/layers/fla/ops/solve_tril.py":259:39)
#loc16 = loc("/usr/local/lib/python3.12/dist-packages/vllm/model_executor/layers/fla/ops/solve_tril.py":259:20)
#loc17 = loc("/usr/local/lib/python3.12/dist-packages/vllm/model_executor/layers/fla/ops/solve_tril.py":261:18)
#loc18 = loc("/usr/local/lib/python3.12/dist-packages/vllm/model_executor/layers/fla/ops/solve_tril.py":265:23)
#loc19 = loc("/usr/local/lib/python3.12/dist-packages/vllm/model_executor/layers/fla/ops/solve_tril.py":266:14)
#loc20 = loc("/usr/local/lib/python3.12/dist-packages/vllm/model_executor/layers/fla/ops/solve_tril.py":266:29)
#loc21 = loc("/usr/local/lib/python3.12/dist-packages/vllm/model_executor/layers/fla/ops/solve_tril.py":266:25)
#loc22 = loc("/usr/local/lib/python3.12/dist-packages/vllm/model_executor/layers/fla/ops/solve_tril.py":267:14)
#loc23 = loc("/usr/local/lib/python3.12/dist-packages/vllm/model_executor/layers/fla/ops/solve_tril.py":267:30)
#loc24 = loc("/usr/local/lib/python3.12/dist-packages/vllm/model_executor/layers/fla/ops/solve_tril.py":267:26)
#loc25 = loc("/usr/local/lib/python3.12/dist-packages/vllm/model_executor/layers/fla/ops/solve_tril.py":268:16)
#loc26 = loc("/usr/local/lib/python3.12/dist-packages/vllm/model_executor/layers/fla/ops/solve_tril.py":268:20)
#loc27 = loc("/usr/local/lib/python3.12/dist-packages/vllm/model_executor/layers/fla/ops/solve_tril.py":268:27)
#loc28 = loc("/usr/local/lib/python3.12/dist-packages/vllm/model_executor/layers/fla/ops/solve_tril.py":268:9)
#loc29 = loc("/usr/local/lib/python3.12/dist-packages/vllm/model_executor/layers/fla/ops/solve_tril.py":269:17)
#loc30 = loc("/usr/local/lib/python3.12/dist-packages/vllm/model_executor/layers/fla/ops/solve_tril.py":269:21)
#loc31 = loc("/usr/local/lib/python3.12/dist-packages/vllm/model_executor/layers/fla/ops/solve_tril.py":269:28)
#loc32 = loc("/usr/local/lib/python3.12/dist-packages/vllm/model_executor/layers/fla/ops/solve_tril.py":269:10)
#loc33 = loc("/usr/local/lib/python3.12/dist-packages/vllm/model_executor/layers/fla/ops/solve_tril.py":273:44)
#loc34 = loc("/usr/local/lib/python3.12/dist-packages/vllm/model_executor/layers/fla/ops/solve_tril.py":273:62)
#loc35 = loc("/usr/local/lib/python3.12/dist-packages/vllm/model_executor/layers/fla/ops/solve_tril.py":276:44)
#loc36 = loc("/usr/local/lib/python3.12/dist-packages/vllm/model_executor/layers/fla/ops/solve_tril.py":276:49)
#loc37 = loc("/usr/local/lib/python3.12/dist-packages/vllm/model_executor/layers/fla/ops/solve_tril.py":276:68)
#loc38 = loc("/usr/local/lib/python3.12/dist-packages/vllm/model_executor/layers/fla/ops/solve_tril.py":279:44)
#loc39 = loc("/usr/local/lib/python3.12/dist-packages/vllm/model_executor/layers/fla/ops/solve_tril.py":279:49)
#loc40 = loc("/usr/local/lib/python3.12/dist-packages/vllm/model_executor/layers/fla/ops/solve_tril.py":279:68)
#loc41 = loc("/usr/local/lib/python3.12/dist-packages/vllm/model_executor/layers/fla/ops/solve_tril.py":282:44)
#loc42 = loc("/usr/local/lib/python3.12/dist-packages/vllm/model_executor/layers/fla/ops/solve_tril.py":282:49)
#loc43 = loc("/usr/local/lib/python3.12/dist-packages/vllm/model_executor/layers/fla/ops/solve_tril.py":282:68)
#loc44 = loc("/usr/local/lib/python3.12/dist-packages/vllm/model_executor/layers/fla/ops/solve_tril.py":284:26)
#loc45 = loc("/usr/local/lib/python3.12/dist-packages/vllm/model_executor/layers/fla/ops/solve_tril.py":285:26)
#loc46 = loc("/usr/local/lib/python3.12/dist-packages/vllm/model_executor/layers/fla/ops/solve_tril.py":286:26)
#loc47 = loc("/usr/local/lib/python3.12/dist-packages/vllm/model_executor/layers/fla/ops/solve_tril.py":287:26)
#loc48 = loc("/usr/local/lib/python3.12/dist-packages/vllm/model_executor/layers/fla/ops/solve_tril.py":297:38)
#loc49 = loc("/usr/local/lib/python3.12/dist-packages/vllm/model_executor/layers/fla/ops/solve_tril.py":297:15)
#loc50 = loc("/usr/local/lib/python3.12/dist-packages/vllm/model_executor/layers/fla/ops/solve_tril.py":298:38)
#loc51 = loc("/usr/local/lib/python3.12/dist-packages/vllm/model_executor/layers/fla/ops/solve_tril.py":298:15)
#loc52 = loc("/usr/local/lib/python3.12/dist-packages/vllm/model_executor/layers/fla/ops/solve_tril.py":299:38)
#loc53 = loc("/usr/local/lib/python3.12/dist-packages/vllm/model_executor/layers/fla/ops/solve_tril.py":299:15)
#loc54 = loc("/usr/local/lib/python3.12/dist-packages/vllm/model_executor/layers/fla/ops/solve_tril.py":300:38)
#loc55 = loc("/usr/local/lib/python3.12/dist-packages/vllm/model_executor/layers/fla/ops/solve_tril.py":300:15)
#loc56 = loc("/usr/local/lib/python3.12/dist-packages/vllm/model_executor/layers/fla/ops/solve_tril.py":302:40)
#loc57 = loc("/usr/local/lib/python3.12/dist-packages/vllm/model_executor/layers/fla/ops/solve_tril.py":302:34)
#loc58 = loc("/usr/local/lib/python3.12/dist-packages/vllm/model_executor/layers/fla/ops/solve_tril.py":302:30)
#loc59 = loc("/usr/local/lib/python3.12/dist-packages/vllm/model_executor/layers/fla/ops/solve_tril.py":302:22)
#loc60 = loc("/usr/local/lib/python3.12/dist-packages/vllm/model_executor/layers/fla/ops/solve_tril.py":303:37)
#loc61 = loc("/usr/local/lib/python3.12/dist-packages/vllm/model_executor/layers/fla/ops/solve_tril.py":303:42)
#loc62 = loc("/usr/local/lib/python3.12/dist-packages/vllm/model_executor/layers/fla/ops/solve_tril.py":303:47)
#loc63 = loc("/usr/local/lib/python3.12/dist-packages/vllm/model_executor/layers/fla/ops/solve_tril.py":303:51)
#loc64 = loc("/usr/local/lib/python3.12/dist-packages/vllm/model_executor/layers/fla/ops/solve_tril.py":303:30)
#loc65 = loc("/usr/local/lib/python3.12/dist-packages/vllm/model_executor/layers/fla/ops/solve_tril.py":303:56)
#loc66 = loc("/usr/local/lib/python3.12/dist-packages/vllm/model_executor/layers/fla/ops/solve_tril.py":303:26)
#loc67 = loc("/usr/local/lib/python3.12/dist-packages/vllm/model_executor/layers/fla/ops/solve_tril.py":303:18)
#loc68 = loc("/usr/local/lib/python3.12/dist-packages/vllm/model_executor/layers/fla/ops/solve_tril.py":304:32)
#loc69 = loc("/usr/local/lib/python3.12/dist-packages/vllm/model_executor/layers/fla/ops/solve_tril.py":304:43)
#loc70 = loc("/usr/local/lib/python3.12/dist-packages/vllm/model_executor/layers/fla/ops/solve_tril.py":304:52)
#loc71 = loc("/usr/local/lib/python3.12/dist-packages/vllm/model_executor/layers/fla/ops/solve_tril.py":304:18)
#loc72 = loc("/usr/local/lib/python3.12/dist-packages/vllm/model_executor/layers/fla/ops/solve_tril.py":305:35)
#loc73 = loc("/usr/local/lib/python3.12/dist-packages/vllm/model_executor/layers/fla/ops/solve_tril.py":305:38)
#loc74 = loc("/usr/local/lib/python3.12/dist-packages/vllm/model_executor/layers/fla/ops/solve_tril.py":305:56)
#loc75 = loc("/usr/local/lib/python3.12/dist-packages/vllm/model_executor/layers/fla/ops/solve_tril.py":305:8)
#loc76 = loc("/usr/local/lib/python3.12/dist-packages/vllm/model_executor/layers/fla/ops/solve_tril.py":306:45)
#loc77 = loc("/usr/local/lib/python3.12/dist-packages/vllm/model_executor/layers/fla/ops/solve_tril.py":306:39)
#loc78 = loc("/usr/local/lib/python3.12/dist-packages/vllm/model_executor/layers/fla/ops/solve_tril.py":306:35)
#loc79 = loc("/usr/local/lib/python3.12/dist-packages/vllm/model_executor/layers/fla/ops/solve_tril.py":306:27)
#loc80 = loc("/usr/local/lib/python3.12/dist-packages/vllm/model_executor/layers/fla/ops/solve_tril.py":307:37)
#loc81 = loc("/usr/local/lib/python3.12/dist-packages/vllm/model_executor/layers/fla/ops/solve_tril.py":307:42)
#loc82 = loc("/usr/local/lib/python3.12/dist-packages/vllm/model_executor/layers/fla/ops/solve_tril.py":307:47)
#loc83 = loc("/usr/local/lib/python3.12/dist-packages/vllm/model_executor/layers/fla/ops/solve_tril.py":307:51)
#loc84 = loc("/usr/local/lib/python3.12/dist-packages/vllm/model_executor/layers/fla/ops/solve_tril.py":307:30)
#loc85 = loc("/usr/local/lib/python3.12/dist-packages/vllm/model_executor/layers/fla/ops/solve_tril.py":307:56)
#loc86 = loc("/usr/local/lib/python3.12/dist-packages/vllm/model_executor/layers/fla/ops/solve_tril.py":307:62)
#loc87 = loc("/usr/local/lib/python3.12/dist-packages/vllm/model_executor/layers/fla/ops/solve_tril.py":307:26)
#loc88 = loc("/usr/local/lib/python3.12/dist-packages/vllm/model_executor/layers/fla/ops/solve_tril.py":307:18)
#loc89 = loc("/usr/local/lib/python3.12/dist-packages/vllm/model_executor/layers/fla/ops/solve_tril.py":308:32)
#loc90 = loc("/usr/local/lib/python3.12/dist-packages/vllm/model_executor/layers/fla/ops/solve_tril.py":308:43)
#loc91 = loc("/usr/local/lib/python3.12/dist-packages/vllm/model_executor/layers/fla/ops/solve_tril.py":308:52)
#loc92 = loc("/usr/local/lib/python3.12/dist-packages/vllm/model_executor/layers/fla/ops/solve_tril.py":308:18)
#loc93 = loc("/usr/local/lib/python3.12/dist-packages/vllm/model_executor/layers/fla/ops/solve_tril.py":309:39)
#loc94 = loc("/usr/local/lib/python3.12/dist-packages/vllm/model_executor/layers/fla/ops/solve_tril.py":309:35)
#loc95 = loc("/usr/local/lib/python3.12/dist-packages/vllm/model_executor/layers/fla/ops/solve_tril.py":309:43)
#loc96 = loc("/usr/local/lib/python3.12/dist-packages/vllm/model_executor/layers/fla/ops/solve_tril.py":309:61)
#loc97 = loc("/usr/local/lib/python3.12/dist-packages/vllm/model_executor/layers/fla/ops/solve_tril.py":309:8)
#loc98 = loc("/usr/local/lib/python3.12/dist-packages/vllm/model_executor/layers/fla/ops/solve_tril.py":310:45)
#loc99 = loc("/usr/local/lib/python3.12/dist-packages/vllm/model_executor/layers/fla/ops/solve_tril.py":310:39)
#loc100 = loc("/usr/local/lib/python3.12/dist-packages/vllm/model_executor/layers/fla/ops/solve_tril.py":310:35)
#loc101 = loc("/usr/local/lib/python3.12/dist-packages/vllm/model_executor/layers/fla/ops/solve_tril.py":310:27)
#loc102 = loc("/usr/local/lib/python3.12/dist-packages/vllm/model_executor/layers/fla/ops/solve_tril.py":311:37)
#loc103 = loc("/usr/local/lib/python3.12/dist-packages/vllm/model_executor/layers/fla/ops/solve_tril.py":311:42)
#loc104 = loc("/usr/local/lib/python3.12/dist-packages/vllm/model_executor/layers/fla/ops/solve_tril.py":311:47)
#loc105 = loc("/usr/local/lib/python3.12/dist-packages/vllm/model_executor/layers/fla/ops/solve_tril.py":311:51)
#loc106 = loc("/usr/local/lib/python3.12/dist-packages/vllm/model_executor/layers/fla/ops/solve_tril.py":311:30)
#loc107 = loc("/usr/local/lib/python3.12/dist-packages/vllm/model_executor/layers/fla/ops/solve_tril.py":311:56)
#loc108 = loc("/usr/local/lib/python3.12/dist-packages/vllm/model_executor/layers/fla/ops/solve_tril.py":311:62)
#loc109 = loc("/usr/local/lib/python3.12/dist-packages/vllm/model_executor/layers/fla/ops/solve_tril.py":311:26)
#loc110 = loc("/usr/local/lib/python3.12/dist-packages/vllm/model_executor/layers/fla/ops/solve_tril.py":311:18)
#loc111 = loc("/usr/local/lib/python3.12/dist-packages/vllm/model_executor/layers/fla/ops/solve_tril.py":312:32)
#loc112 = loc("/usr/local/lib/python3.12/dist-packages/vllm/model_executor/layers/fla/ops/solve_tril.py":312:43)
#loc113 = loc("/usr/local/lib/python3.12/dist-packages/vllm/model_executor/layers/fla/ops/solve_tril.py":312:52)
#loc114 = loc("/usr/local/lib/python3.12/dist-packages/vllm/model_executor/layers/fla/ops/solve_tril.py":312:18)
#loc115 = loc("/usr/local/lib/python3.12/dist-packages/vllm/model_executor/layers/fla/ops/solve_tril.py":313:39)
#loc116 = loc("/usr/local/lib/python3.12/dist-packages/vllm/model_executor/layers/fla/ops/solve_tril.py":313:35)
#loc117 = loc("/usr/local/lib/python3.12/dist-packages/vllm/model_executor/layers/fla/ops/solve_tril.py":313:43)
#loc118 = loc("/usr/local/lib/python3.12/dist-packages/vllm/model_executor/layers/fla/ops/solve_tril.py":313:61)
#loc119 = loc("/usr/local/lib/python3.12/dist-packages/vllm/model_executor/layers/fla/ops/solve_tril.py":313:8)
#loc120 = loc("/usr/local/lib/python3.12/dist-packages/vllm/model_executor/layers/fla/ops/solve_tril.py":314:45)
#loc121 = loc("/usr/local/lib/python3.12/dist-packages/vllm/model_executor/layers/fla/ops/solve_tril.py":314:39)
#loc122 = loc("/usr/local/lib/python3.12/dist-packages/vllm/model_executor/layers/fla/ops/solve_tril.py":314:35)
#loc123 = loc("/usr/local/lib/python3.12/dist-packages/vllm/model_executor/layers/fla/ops/solve_tril.py":314:27)
#loc124 = loc("/usr/local/lib/python3.12/dist-packages/vllm/model_executor/layers/fla/ops/solve_tril.py":315:37)
#loc125 = loc("/usr/local/lib/python3.12/dist-packages/vllm/model_executor/layers/fla/ops/solve_tril.py":315:42)
#loc126 = loc("/usr/local/lib/python3.12/dist-packages/vllm/model_executor/layers/fla/ops/solve_tril.py":315:47)
#loc127 = loc("/usr/local/lib/python3.12/dist-packages/vllm/model_executor/layers/fla/ops/solve_tril.py":315:51)
#loc128 = loc("/usr/local/lib/python3.12/dist-packages/vllm/model_executor/layers/fla/ops/solve_tril.py":315:30)
#loc129 = loc("/usr/local/lib/python3.12/dist-packages/vllm/model_executor/layers/fla/ops/solve_tril.py":315:56)
#loc130 = loc("/usr/local/lib/python3.12/dist-packages/vllm/model_executor/layers/fla/ops/solve_tril.py":315:62)
#loc131 = loc("/usr/local/lib/python3.12/dist-packages/vllm/model_executor/layers/fla/ops/solve_tril.py":315:26)
#loc132 = loc("/usr/local/lib/python3.12/dist-packages/vllm/model_executor/layers/fla/ops/solve_tril.py":315:18)
#loc133 = loc("/usr/local/lib/python3.12/dist-packages/vllm/model_executor/layers/fla/ops/solve_tril.py":316:32)
#loc134 = loc("/usr/local/lib/python3.12/dist-packages/vllm/model_executor/layers/fla/ops/solve_tril.py":316:43)
#loc135 = loc("/usr/local/lib/python3.12/dist-packages/vllm/model_executor/layers/fla/ops/solve_tril.py":316:52)
#loc136 = loc("/usr/local/lib/python3.12/dist-packages/vllm/model_executor/layers/fla/ops/solve_tril.py":316:18)
#loc137 = loc("/usr/local/lib/python3.12/dist-packages/vllm/model_executor/layers/fla/ops/solve_tril.py":317:39)
#loc138 = loc("/usr/local/lib/python3.12/dist-packages/vllm/model_executor/layers/fla/ops/solve_tril.py":317:35)
#loc139 = loc("/usr/local/lib/python3.12/dist-packages/vllm/model_executor/layers/fla/ops/solve_tril.py":317:43)
#loc140 = loc("/usr/local/lib/python3.12/dist-packages/vllm/model_executor/layers/fla/ops/solve_tril.py":317:61)
#loc141 = loc("/usr/local/lib/python3.12/dist-packages/vllm/model_executor/layers/fla/ops/solve_tril.py":317:8)
#loc142 = loc("/usr/local/lib/python3.12/dist-packages/vllm/model_executor/layers/fla/ops/solve_tril.py":318:15)
#loc143 = loc("/usr/local/lib/python3.12/dist-packages/vllm/model_executor/layers/fla/ops/solve_tril.py":319:15)
#loc144 = loc("/usr/local/lib/python3.12/dist-packages/vllm/model_executor/layers/fla/ops/solve_tril.py":320:15)
#loc145 = loc("/usr/local/lib/python3.12/dist-packages/vllm/model_executor/layers/fla/ops/solve_tril.py":321:15)
#loc146 = loc("/usr/local/lib/python3.12/dist-packages/vllm/model_executor/layers/fla/ops/solve_tril.py":325:44)
#loc147 = loc("/usr/local/lib/python3.12/dist-packages/vllm/model_executor/layers/fla/ops/solve_tril.py":325:49)
#loc148 = loc("/usr/local/lib/python3.12/dist-packages/vllm/model_executor/layers/fla/ops/solve_tril.py":325:67)
#loc149 = loc("/usr/local/lib/python3.12/dist-packages/vllm/model_executor/layers/fla/ops/solve_tril.py":328:44)
#loc150 = loc("/usr/local/lib/python3.12/dist-packages/vllm/model_executor/layers/fla/ops/solve_tril.py":328:49)
#loc151 = loc("/usr/local/lib/python3.12/dist-packages/vllm/model_executor/layers/fla/ops/solve_tril.py":328:67)
#loc152 = loc("/usr/local/lib/python3.12/dist-packages/vllm/model_executor/layers/fla/ops/solve_tril.py":331:44)
#loc153 = loc("/usr/local/lib/python3.12/dist-packages/vllm/model_executor/layers/fla/ops/solve_tril.py":331:49)
#loc154 = loc("/usr/local/lib/python3.12/dist-packages/vllm/model_executor/layers/fla/ops/solve_tril.py":331:68)
#loc155 = loc("/usr/local/lib/python3.12/dist-packages/vllm/model_executor/layers/fla/ops/solve_tril.py":334:44)
#loc156 = loc("/usr/local/lib/python3.12/dist-packages/vllm/model_executor/layers/fla/ops/solve_tril.py":334:49)
#loc157 = loc("/usr/local/lib/python3.12/dist-packages/vllm/model_executor/layers/fla/ops/solve_tril.py":334:67)
#loc158 = loc("/usr/local/lib/python3.12/dist-packages/vllm/model_executor/layers/fla/ops/solve_tril.py":337:44)
#loc159 = loc("/usr/local/lib/python3.12/dist-packages/vllm/model_executor/layers/fla/ops/solve_tril.py":337:49)
#loc160 = loc("/usr/local/lib/python3.12/dist-packages/vllm/model_executor/layers/fla/ops/solve_tril.py":337:68)
#loc161 = loc("/usr/local/lib/python3.12/dist-packages/vllm/model_executor/layers/fla/ops/solve_tril.py":340:44)
#loc162 = loc("/usr/local/lib/python3.12/dist-packages/vllm/model_executor/layers/fla/ops/solve_tril.py":340:49)
#loc163 = loc("/usr/local/lib/python3.12/dist-packages/vllm/model_executor/layers/fla/ops/solve_tril.py":340:68)
#loc164 = loc("/usr/local/lib/python3.12/dist-packages/vllm/model_executor/layers/fla/ops/solve_tril.py":342:25)
#loc165 = loc("/usr/local/lib/python3.12/dist-packages/vllm/model_executor/layers/fla/ops/solve_tril.py":343:25)
#loc166 = loc("/usr/local/lib/python3.12/dist-packages/vllm/model_executor/layers/fla/ops/solve_tril.py":344:25)
#loc167 = loc("/usr/local/lib/python3.12/dist-packages/vllm/model_executor/layers/fla/ops/solve_tril.py":345:25)
#loc168 = loc("/usr/local/lib/python3.12/dist-packages/vllm/model_executor/layers/fla/ops/solve_tril.py":346:25)
#loc169 = loc("/usr/local/lib/python3.12/dist-packages/vllm/model_executor/layers/fla/ops/solve_tril.py":347:25)
#loc170 = loc("/usr/local/lib/python3.12/dist-packages/vllm/model_executor/layers/fla/ops/solve_tril.py":357:24)
#loc171 = loc("/usr/local/lib/python3.12/dist-packages/vllm/model_executor/layers/fla/ops/solve_tril.py":358:8)
#loc172 = loc("/usr/local/lib/python3.12/dist-packages/vllm/model_executor/layers/fla/ops/solve_tril.py":356:15)
#loc173 = loc("/usr/local/lib/python3.12/dist-packages/vllm/model_executor/layers/fla/ops/solve_tril.py":362:24)
#loc174 = loc("/usr/local/lib/python3.12/dist-packages/vllm/model_executor/layers/fla/ops/solve_tril.py":363:8)
#loc175 = loc("/usr/local/lib/python3.12/dist-packages/vllm/model_executor/layers/fla/ops/solve_tril.py":361:15)
#loc176 = loc("/usr/local/lib/python3.12/dist-packages/vllm/model_executor/layers/fla/ops/solve_tril.py":367:24)
#loc177 = loc("/usr/local/lib/python3.12/dist-packages/vllm/model_executor/layers/fla/ops/solve_tril.py":368:8)
#loc178 = loc("/usr/local/lib/python3.12/dist-packages/vllm/model_executor/layers/fla/ops/solve_tril.py":366:15)
#loc179 = loc("/usr/local/lib/python3.12/dist-packages/vllm/model_executor/layers/fla/ops/solve_tril.py":374:23)
#loc180 = loc("/usr/local/lib/python3.12/dist-packages/vllm/model_executor/layers/fla/ops/solve_tril.py":375:25)
#loc181 = loc("/usr/local/lib/python3.12/dist-packages/vllm/model_executor/layers/fla/ops/solve_tril.py":375:10)
#loc182 = loc("/usr/local/lib/python3.12/dist-packages/vllm/model_executor/layers/fla/ops/solve_tril.py":374:8)
#loc183 = loc("/usr/local/lib/python3.12/dist-packages/vllm/model_executor/layers/fla/ops/solve_tril.py":372:15)
#loc184 = loc("/usr/local/lib/python3.12/dist-packages/vllm/model_executor/layers/fla/ops/solve_tril.py":380:23)
#loc185 = loc("/usr/local/lib/python3.12/dist-packages/vllm/model_executor/layers/fla/ops/solve_tril.py":381:25)
#loc186 = loc("/usr/local/lib/python3.12/dist-packages/vllm/model_executor/layers/fla/ops/solve_tril.py":381:10)
#loc187 = loc("/usr/local/lib/python3.12/dist-packages/vllm/model_executor/layers/fla/ops/solve_tril.py":380:8)
#loc188 = loc("/usr/local/lib/python3.12/dist-packages/vllm/model_executor/layers/fla/ops/solve_tril.py":378:15)
#loc189 = loc("/usr/local/lib/python3.12/dist-packages/vllm/model_executor/layers/fla/ops/solve_tril.py":386:23)
#loc190 = loc("/usr/local/lib/python3.12/dist-packages/vllm/model_executor/layers/fla/ops/solve_tril.py":387:25)
#loc191 = loc("/usr/local/lib/python3.12/dist-packages/vllm/model_executor/layers/fla/ops/solve_tril.py":387:10)
#loc192 = loc("/usr/local/lib/python3.12/dist-packages/vllm/model_executor/layers/fla/ops/solve_tril.py":388:25)
#loc193 = loc("/usr/local/lib/python3.12/dist-packages/vllm/model_executor/layers/fla/ops/solve_tril.py":388:10)
#loc194 = loc("/usr/local/lib/python3.12/dist-packages/vllm/model_executor/layers/fla/ops/solve_tril.py":386:8)
#loc195 = loc("/usr/local/lib/python3.12/dist-packages/vllm/model_executor/layers/fla/ops/solve_tril.py":384:15)
#loc196 = loc("/usr/local/lib/python3.12/dist-packages/vllm/model_executor/layers/fla/ops/solve_tril.py":394:45)
#loc197 = loc("/usr/local/lib/python3.12/dist-packages/vllm/model_executor/layers/fla/ops/solve_tril.py":394:63)
#loc198 = loc("/usr/local/lib/python3.12/dist-packages/vllm/model_executor/layers/fla/ops/solve_tril.py":397:45)
#loc199 = loc("/usr/local/lib/python3.12/dist-packages/vllm/model_executor/layers/fla/ops/solve_tril.py":397:50)
#loc200 = loc("/usr/local/lib/python3.12/dist-packages/vllm/model_executor/layers/fla/ops/solve_tril.py":397:69)
#loc201 = loc("/usr/local/lib/python3.12/dist-packages/vllm/model_executor/layers/fla/ops/solve_tril.py":400:45)
#loc202 = loc("/usr/local/lib/python3.12/dist-packages/vllm/model_executor/layers/fla/ops/solve_tril.py":400:50)
#loc203 = loc("/usr/local/lib/python3.12/dist-packages/vllm/model_executor/layers/fla/ops/solve_tril.py":400:69)
#loc204 = loc("/usr/local/lib/python3.12/dist-packages/vllm/model_executor/layers/fla/ops/solve_tril.py":403:45)
#loc205 = loc("/usr/local/lib/python3.12/dist-packages/vllm/model_executor/layers/fla/ops/solve_tril.py":403:50)
#loc206 = loc("/usr/local/lib/python3.12/dist-packages/vllm/model_executor/layers/fla/ops/solve_tril.py":403:69)
#loc207 = loc("/usr/local/lib/python3.12/dist-packages/vllm/model_executor/layers/fla/ops/solve_tril.py":406:45)
#loc208 = loc("/usr/local/lib/python3.12/dist-packages/vllm/model_executor/layers/fla/ops/solve_tril.py":406:50)
#loc209 = loc("/usr/local/lib/python3.12/dist-packages/vllm/model_executor/layers/fla/ops/solve_tril.py":406:68)
#loc210 = loc("/usr/local/lib/python3.12/dist-packages/vllm/model_executor/layers/fla/ops/solve_tril.py":409:45)
#loc211 = loc("/usr/local/lib/python3.12/dist-packages/vllm/model_executor/layers/fla/ops/solve_tril.py":409:50)
#loc212 = loc("/usr/local/lib/python3.12/dist-packages/vllm/model_executor/layers/fla/ops/solve_tril.py":409:68)
#loc213 = loc("/usr/local/lib/python3.12/dist-packages/vllm/model_executor/layers/fla/ops/solve_tril.py":412:45)
#loc214 = loc("/usr/local/lib/python3.12/dist-packages/vllm/model_executor/layers/fla/ops/solve_tril.py":412:50)
#loc215 = loc("/usr/local/lib/python3.12/dist-packages/vllm/model_executor/layers/fla/ops/solve_tril.py":412:69)
#loc216 = loc("/usr/local/lib/python3.12/dist-packages/vllm/model_executor/layers/fla/ops/solve_tril.py":415:45)
#loc217 = loc("/usr/local/lib/python3.12/dist-packages/vllm/model_executor/layers/fla/ops/solve_tril.py":415:50)
#loc218 = loc("/usr/local/lib/python3.12/dist-packages/vllm/model_executor/layers/fla/ops/solve_tril.py":415:68)
#loc219 = loc("/usr/local/lib/python3.12/dist-packages/vllm/model_executor/layers/fla/ops/solve_tril.py":418:45)
#loc220 = loc("/usr/local/lib/python3.12/dist-packages/vllm/model_executor/layers/fla/ops/solve_tril.py":418:50)
#loc221 = loc("/usr/local/lib/python3.12/dist-packages/vllm/model_executor/layers/fla/ops/solve_tril.py":418:69)
#loc222 = loc("/usr/local/lib/python3.12/dist-packages/vllm/model_executor/layers/fla/ops/solve_tril.py":421:45)
#loc223 = loc("/usr/local/lib/python3.12/dist-packages/vllm/model_executor/layers/fla/ops/solve_tril.py":421:50)
#loc224 = loc("/usr/local/lib/python3.12/dist-packages/vllm/model_executor/layers/fla/ops/solve_tril.py":421:69)
#loc225 = loc("/usr/local/lib/python3.12/dist-packages/vllm/model_executor/layers/fla/ops/solve_tril.py":425:23)
#loc226 = loc("/usr/local/lib/python3.12/dist-packages/vllm/model_executor/layers/fla/ops/solve_tril.py":425:12)
#loc227 = loc("/usr/local/lib/python3.12/dist-packages/vllm/model_executor/layers/fla/ops/solve_tril.py":430:23)
#loc228 = loc("/usr/local/lib/python3.12/dist-packages/vllm/model_executor/layers/fla/ops/solve_tril.py":430:12)
#loc229 = loc("/usr/local/lib/python3.12/dist-packages/vllm/model_executor/layers/fla/ops/solve_tril.py":435:23)
#loc230 = loc("/usr/local/lib/python3.12/dist-packages/vllm/model_executor/layers/fla/ops/solve_tril.py":435:12)
#loc231 = loc("/usr/local/lib/python3.12/dist-packages/vllm/model_executor/layers/fla/ops/solve_tril.py":440:23)
#loc232 = loc("/usr/local/lib/python3.12/dist-packages/vllm/model_executor/layers/fla/ops/solve_tril.py":440:12)
#loc233 = loc("/usr/local/lib/python3.12/dist-packages/vllm/model_executor/layers/fla/ops/solve_tril.py":445:23)
#loc234 = loc("/usr/local/lib/python3.12/dist-packages/vllm/model_executor/layers/fla/ops/solve_tril.py":445:12)
#loc235 = loc("/usr/local/lib/python3.12/dist-packages/vllm/model_executor/layers/fla/ops/solve_tril.py":450:23)
#loc236 = loc("/usr/local/lib/python3.12/dist-packages/vllm/model_executor/layers/fla/ops/solve_tril.py":450:12)
#loc237 = loc("/usr/local/lib/python3.12/dist-packages/vllm/model_executor/layers/fla/ops/solve_tril.py":455:23)
#loc238 = loc("/usr/local/lib/python3.12/dist-packages/vllm/model_executor/layers/fla/ops/solve_tril.py":455:12)
#loc239 = loc("/usr/local/lib/python3.12/dist-packages/vllm/model_executor/layers/fla/ops/solve_tril.py":460:23)
#loc240 = loc("/usr/local/lib/python3.12/dist-packages/vllm/model_executor/layers/fla/ops/solve_tril.py":460:12)
#loc241 = loc("/usr/local/lib/python3.12/dist-packages/vllm/model_executor/layers/fla/ops/solve_tril.py":465:23)
#loc242 = loc("/usr/local/lib/python3.12/dist-packages/vllm/model_executor/layers/fla/ops/solve_tril.py":465:12)
#loc243 = loc("/usr/local/lib/python3.12/dist-packages/vllm/model_executor/layers/fla/ops/solve_tril.py":470:23)
#loc244 = loc("/usr/local/lib/python3.12/dist-packages/vllm/model_executor/layers/fla/ops/solve_tril.py":470:12)
#loc245 = loc("/usr/local/lib/python3.12/dist-packages/vllm/model_executor/layers/fla/ops/solve_tril.py":392:4)
#loc247 = loc("/usr/local/lib/python3.12/dist-packages/triton/language/standard.py":293:36)
#loc249 = loc("/usr/local/lib/python3.12/dist-packages/triton/language/standard.py":293:11)
#loc250 = loc("/usr/local/lib/python3.12/dist-packages/triton/language/standard.py":293:4)
#loc252 = loc("/usr/local/lib/python3.12/dist-packages/triton/language/standard.py":263:15)
#loc253 = loc("/usr/local/lib/python3.12/dist-packages/triton/language/standard.py":263:11)
#loc254 = loc("/usr/local/lib/python3.12/dist-packages/triton/language/standard.py":263:4)
#loc260 = loc("T"(#loc17))
#loc261 = loc("o_i"(#loc18))
#loc262 = loc("m_A"(#loc19))
#loc263 = loc("m_A"(#loc20))
#loc264 = loc("m_A"(#loc21))
#loc265 = loc("m_I"(#loc22))
#loc266 = loc("m_I"(#loc23))
#loc267 = loc("m_I"(#loc24))
#loc268 = loc("A"(#loc25))
#loc269 = loc("A"(#loc26))
#loc270 = loc("A"(#loc27))
#loc271 = loc("A"(#loc28))
#loc272 = loc("Ai"(#loc29))
#loc273 = loc("Ai"(#loc30))
#loc274 = loc("Ai"(#loc31))
#loc275 = loc("Ai"(#loc32))
#loc276 = loc("p_A_11"(#loc33))
#loc277 = loc("p_A_11"(#loc34))
#loc278 = loc("p_A_22"(#loc35))
#loc279 = loc("p_A_22"(#loc36))
#loc280 = loc("p_A_22"(#loc37))
#loc281 = loc("p_A_33"(#loc38))
#loc282 = loc("p_A_33"(#loc39))
#loc283 = loc("p_A_33"(#loc40))
#loc284 = loc("p_A_44"(#loc41))
#loc285 = loc("p_A_44"(#loc42))
#loc286 = loc("p_A_44"(#loc43))
#loc287 = loc("b_Ai_11"(#loc44))
#loc288 = loc("b_Ai_22"(#loc45))
#loc289 = loc("b_Ai_33"(#loc46))
#loc290 = loc("b_Ai_44"(#loc47))
#loc291 = loc("b_Ai_11"(#loc48))
#loc292 = loc("b_Ai_11"(#loc49))
#loc293 = loc("b_Ai_22"(#loc50))
#loc294 = loc("b_Ai_22"(#loc51))
#loc295 = loc("b_Ai_33"(#loc52))
#loc296 = loc("b_Ai_33"(#loc53))
#loc297 = loc("b_Ai_44"(#loc54))
#loc298 = loc("b_Ai_44"(#loc55))
#loc299 = loc("b_Ai_11"(#loc59))
#loc300 = loc("b_a_11"(#loc60))
#loc301 = loc("b_a_11"(#loc61))
#loc302 = loc("b_a_11"(#loc62))
#loc303 = loc("b_a_11"(#loc63))
#loc304 = loc("b_a_11"(#loc64))
#loc305 = loc("b_a_11"(#loc65))
#loc306 = loc("b_a_11"(#loc66))
#loc307 = loc("b_a_11"(#loc67))
#loc308 = loc("b_a_11"(#loc68))
#loc309 = loc("b_a_11"(#loc69))
#loc310 = loc("b_a_11"(#loc70))
#loc311 = loc("b_a_11"(#loc71))
#loc312 = loc("b_Ai_11"(#loc72))
#loc313 = loc("b_Ai_11"(#loc73))
#loc314 = loc("b_Ai_11"(#loc74))
#loc315 = loc("b_Ai_22"(#loc79))
#loc316 = loc("b_a_22"(#loc80))
#loc317 = loc("b_a_22"(#loc81))
#loc318 = loc("b_a_22"(#loc82))
#loc319 = loc("b_a_22"(#loc83))
#loc320 = loc("b_a_22"(#loc84))
#loc321 = loc("b_a_22"(#loc85))
#loc322 = loc("b_a_22"(#loc86))
#loc323 = loc("b_a_22"(#loc87))
#loc324 = loc("b_a_22"(#loc88))
#loc325 = loc("b_a_22"(#loc89))
#loc326 = loc("b_a_22"(#loc90))
#loc327 = loc("b_a_22"(#loc91))
#loc328 = loc("b_a_22"(#loc92))
#loc329 = loc("b_Ai_22"(#loc93))
#loc330 = loc("b_Ai_22"(#loc94))
#loc331 = loc("b_Ai_22"(#loc95))
#loc332 = loc("b_Ai_22"(#loc96))
#loc333 = loc("b_Ai_33"(#loc101))
#loc334 = loc("b_a_33"(#loc102))
#loc335 = loc("b_a_33"(#loc103))
#loc336 = loc("b_a_33"(#loc104))
#loc337 = loc("b_a_33"(#loc105))
#loc338 = loc("b_a_33"(#loc106))
#loc339 = loc("b_a_33"(#loc107))
#loc340 = loc("b_a_33"(#loc108))
#loc341 = loc("b_a_33"(#loc109))
#loc342 = loc("b_a_33"(#loc110))
#loc343 = loc("b_a_33"(#loc111))
#loc344 = loc("b_a_33"(#loc112))
#loc345 = loc("b_a_33"(#loc113))
#loc346 = loc("b_a_33"(#loc114))
#loc347 = loc("b_Ai_33"(#loc115))
#loc348 = loc("b_Ai_33"(#loc116))
#loc349 = loc("b_Ai_33"(#loc117))
#loc350 = loc("b_Ai_33"(#loc118))
#loc351 = loc("b_Ai_44"(#loc123))
#loc352 = loc("b_a_44"(#loc124))
#loc353 = loc("b_a_44"(#loc125))
#loc354 = loc("b_a_44"(#loc126))
#loc355 = loc("b_a_44"(#loc127))
#loc356 = loc("b_a_44"(#loc128))
#loc357 = loc("b_a_44"(#loc129))
#loc358 = loc("b_a_44"(#loc130))
#loc359 = loc("b_a_44"(#loc131))
#loc360 = loc("b_a_44"(#loc132))
#loc361 = loc("b_a_44"(#loc133))
#loc362 = loc("b_a_44"(#loc134))
#loc363 = loc("b_a_44"(#loc135))
#loc364 = loc("b_a_44"(#loc136))
#loc365 = loc("b_Ai_44"(#loc137))
#loc366 = loc("b_Ai_44"(#loc138))
#loc367 = loc("b_Ai_44"(#loc139))
#loc368 = loc("b_Ai_44"(#loc140))
#loc369 = loc("b_Ai_11"(#loc142))
#loc370 = loc("b_Ai_22"(#loc143))
#loc371 = loc("b_Ai_33"(#loc144))
#loc372 = loc("b_Ai_44"(#loc145))
#loc373 = loc("p_A_21"(#loc146))
#loc374 = loc("p_A_21"(#loc147))
#loc375 = loc("p_A_21"(#loc148))
#loc376 = loc("p_A_31"(#loc149))
#loc377 = loc("p_A_31"(#loc150))
#loc378 = loc("p_A_31"(#loc151))
#loc379 = loc("p_A_32"(#loc152))
#loc380 = loc("p_A_32"(#loc153))
#loc381 = loc("p_A_32"(#loc154))
#loc382 = loc("p_A_41"(#loc155))
#loc383 = loc("p_A_41"(#loc156))
#loc384 = loc("p_A_41"(#loc157))
#loc385 = loc("p_A_42"(#loc158))
#loc386 = loc("p_A_42"(#loc159))
#loc387 = loc("p_A_42"(#loc160))
#loc388 = loc("p_A_43"(#loc161))
#loc389 = loc("p_A_43"(#loc162))
#loc390 = loc("p_A_43"(#loc163))
#loc391 = loc("b_A_21"(#loc164))
#loc392 = loc("b_A_31"(#loc165))
#loc393 = loc("b_A_32"(#loc166))
#loc394 = loc("b_A_41"(#loc167))
#loc395 = loc("b_A_42"(#loc168))
#loc396 = loc("b_A_43"(#loc169))
#loc397 = loc("b_Ai_21"(#loc170))
#loc398 = loc("b_Ai_21"(#loc171))
#loc399 = loc("b_Ai_21"(#loc172))
#loc400 = loc("b_Ai_32"(#loc173))
#loc401 = loc("b_Ai_32"(#loc174))
#loc402 = loc("b_Ai_32"(#loc175))
#loc403 = loc("b_Ai_43"(#loc176))
#loc404 = loc("b_Ai_43"(#loc177))
#loc405 = loc("b_Ai_43"(#loc178))
#loc406 = loc("b_Ai_31"(#loc179))
#loc407 = loc("b_Ai_31"(#loc180))
#loc408 = loc("b_Ai_31"(#loc181))
#loc409 = loc("b_Ai_31"(#loc182))
#loc410 = loc("b_Ai_31"(#loc183))
#loc411 = loc("b_Ai_42"(#loc184))
#loc412 = loc("b_Ai_42"(#loc185))
#loc413 = loc("b_Ai_42"(#loc186))
#loc414 = loc("b_Ai_42"(#loc187))
#loc415 = loc("b_Ai_42"(#loc188))
#loc416 = loc("b_Ai_41"(#loc189))
#loc417 = loc("b_Ai_41"(#loc190))
#loc418 = loc("b_Ai_41"(#loc191))
#loc419 = loc("b_Ai_41"(#loc192))
#loc420 = loc("b_Ai_41"(#loc193))
#loc421 = loc("b_Ai_41"(#loc194))
#loc422 = loc("b_Ai_41"(#loc195))
#loc423 = loc("p_Ai_11"(#loc196))
#loc424 = loc("p_Ai_11"(#loc197))
#loc425 = loc("p_Ai_22"(#loc198))
#loc426 = loc("p_Ai_22"(#loc199))
#loc427 = loc("p_Ai_22"(#loc200))
#loc428 = loc("p_Ai_33"(#loc201))
#loc429 = loc("p_Ai_33"(#loc202))
#loc430 = loc("p_Ai_33"(#loc203))
#loc431 = loc("p_Ai_44"(#loc204))
#loc432 = loc("p_Ai_44"(#loc205))
#loc433 = loc("p_Ai_44"(#loc206))
#loc434 = loc("p_Ai_21"(#loc207))
#loc435 = loc("p_Ai_21"(#loc208))
#loc436 = loc("p_Ai_21"(#loc209))
#loc437 = loc("p_Ai_31"(#loc210))
#loc438 = loc("p_Ai_31"(#loc211))
#loc439 = loc("p_Ai_31"(#loc212))
#loc440 = loc("p_Ai_32"(#loc213))
#loc441 = loc("p_Ai_32"(#loc214))
#loc442 = loc("p_Ai_32"(#loc215))
#loc443 = loc("p_Ai_41"(#loc216))
#loc444 = loc("p_Ai_41"(#loc217))
#loc445 = loc("p_Ai_41"(#loc218))
#loc446 = loc("p_Ai_42"(#loc219))
#loc447 = loc("p_Ai_42"(#loc220))
#loc448 = loc("p_Ai_42"(#loc221))
#loc449 = loc("p_Ai_43"(#loc222))
#loc450 = loc("p_Ai_43"(#loc223))
#loc451 = loc("p_Ai_43"(#loc224))
