#loc = loc("/usr/local/lib/python3.12/dist-packages/vllm/model_executor/layers/fla/ops/solve_tril.py":238:0)
#loc1 = loc(unknown)
#loc60 = loc("/usr/local/lib/python3.12/dist-packages/vllm/model_executor/layers/fla/ops/solve_tril.py":304:52)
#loc77 = loc("/usr/local/lib/python3.12/dist-packages/vllm/model_executor/layers/fla/ops/solve_tril.py":308:52)
#loc94 = loc("/usr/local/lib/python3.12/dist-packages/vllm/model_executor/layers/fla/ops/solve_tril.py":312:52)
#loc111 = loc("/usr/local/lib/python3.12/dist-packages/vllm/model_executor/layers/fla/ops/solve_tril.py":316:52)
#loc171 = loc("A"(#loc))
#loc172 = loc("Ai"(#loc))
#loc173 = loc("cu_seqlens"(#loc))
#loc174 = loc("chunk_indices"(#loc))
#loc175 = loc("T"(#loc))
#loc216 = loc("b_a_11"(#loc60))
#loc231 = loc("b_a_22"(#loc77))
#loc247 = loc("b_a_33"(#loc94))
#loc263 = loc("b_a_44"(#loc111))
#loc302 = loc(callsite(#loc1 at #loc216))
#loc304 = loc(callsite(#loc1 at #loc231))
#loc306 = loc(callsite(#loc1 at #loc247))
#loc308 = loc(callsite(#loc1 at #loc263))
module {
  tt.func public @merge_16x16_to_64x64_inverse_kernel(%A: !tt.ptr<f32> {tt.divisibility = 16 : i32} loc("A"(#loc)), %Ai: !tt.ptr<f16> {tt.divisibility = 16 : i32} loc("Ai"(#loc)), %cu_seqlens: !tt.ptr<i32> {tt.divisibility = 16 : i32} loc("cu_seqlens"(#loc)), %chunk_indices: !tt.ptr<i32> {tt.divisibility = 16 : i32} loc("chunk_indices"(#loc)), %T: i32 loc("T"(#loc))) attributes {noinline = false} {
    %cst = arith.constant dense<48> : tensor<16xi64> loc(#loc1)
    %cst_0 = arith.constant dense<32> : tensor<16xi64> loc(#loc1)
    %cst_1 = arith.constant dense<16> : tensor<16xi64> loc(#loc1)
    %cst_2 = arith.constant dense<64> : tensor<1x16xi64> loc(#loc1)
    %cst_3 = arith.constant dense<0> : tensor<1x16xi64> loc(#loc1)
    %cst_4 = arith.constant dense<0> : tensor<16x1xi64> loc(#loc1)
    %cst_5 = arith.constant dense<1024> : tensor<16x1xi64> loc(#loc1)
    %c50_i32 = arith.constant 50 : i32 loc(#loc2)
    %c34_i32 = arith.constant 34 : i32 loc(#loc3)
    %c18_i32 = arith.constant 18 : i32 loc(#loc4)
    %c1024_i32 = arith.constant 1024 : i32 loc(#loc1)
    %cst_6 = arith.constant dense<48> : tensor<16xi32> loc(#loc1)
    %cst_7 = arith.constant dense<32> : tensor<16xi32> loc(#loc1)
    %cst_8 = arith.constant dense<16> : tensor<16xi32> loc(#loc1)
    %cst_9 = arith.constant dense<0.000000e+00> : tensor<16xf32> loc(#loc1)
    %cst_10 = arith.constant dense<0.000000e+00> : tensor<16x16xf32> loc(#loc1)
    %c48_i32 = arith.constant 48 : i32 loc(#loc1)
    %c32_i32 = arith.constant 32 : i32 loc(#loc1)
    %c64_i32 = arith.constant 64 : i32 loc(#loc1)
    %c1_i32 = arith.constant 1 : i32 loc(#loc1)
    %c2_i32 = arith.constant 2 : i32 loc(#loc1)
    %c16_i32 = arith.constant 16 : i32 loc(#loc1)
    %0 = tt.get_program_id x : i32 loc(#loc5)
    %1 = tt.get_program_id y : i32 loc(#loc6)
    %2 = arith.remsi %1, %c16_i32 : i32 loc(#loc7)
    %3 = arith.muli %0, %c2_i32 : i32 loc(#loc8)
    %4 = tt.addptr %chunk_indices, %3 : !tt.ptr<i32>, i32 loc(#loc9)
    %5 = tt.load %4 : !tt.ptr<i32> loc(#loc10)
    %6 = tt.addptr %4, %c1_i32 : !tt.ptr<i32>, i32 loc(#loc11)
    %7 = tt.load %6 : !tt.ptr<i32> loc(#loc12)
    %8 = tt.addptr %cu_seqlens, %5 : !tt.ptr<i32>, i32 loc(#loc13)
    %9 = tt.load %8 : !tt.ptr<i32> loc(#loc14)
    %10 = tt.addptr %8, %c1_i32 : !tt.ptr<i32>, i32 loc(#loc15)
    %11 = tt.load %10 : !tt.ptr<i32> loc(#loc16)
    %T_11 = arith.subi %11, %9 : i32 loc(#loc176)
    %o_i = tt.make_range {end = 16 : i32, start = 0 : i32} : tensor<16xi32> loc(#loc177)
    %m_A = tt.expand_dims %o_i {axis = 1 : i32} : tensor<16xi32> -> tensor<16x1xi32> loc(#loc178)
    %m_A_12 = tt.expand_dims %o_i {axis = 0 : i32} : tensor<16xi32> -> tensor<1x16xi32> loc(#loc179)
    %m_A_13 = tt.broadcast %m_A : tensor<16x1xi32> -> tensor<16x16xi32> loc(#loc180)
    %m_A_14 = tt.broadcast %m_A_12 : tensor<1x16xi32> -> tensor<16x16xi32> loc(#loc180)
    %m_A_15 = arith.cmpi sgt, %m_A_13, %m_A_14 : tensor<16x16xi32> loc(#loc180)
    %m_I = arith.cmpi eq, %m_A_13, %m_A_14 : tensor<16x16xi32> loc(#loc181)
    %A_16 = arith.muli %9, %c16_i32 : i32 loc(#loc182)
    %A_17 = arith.addi %A_16, %2 : i32 loc(#loc183)
    %A_18 = arith.muli %A_17, %c64_i32 : i32 loc(#loc184)
    %A_19 = tt.addptr %A, %A_18 : !tt.ptr<f32>, i32 loc(#loc185)
    %Ai_20 = tt.addptr %Ai, %A_18 : !tt.ptr<f16>, i32 loc(#loc186)
    %p_A_11 = arith.muli %7, %c64_i32 : i32 loc(#loc187)
    %p_A_11_21 = arith.extsi %T_11 : i32 to i64 loc(#loc188)
    %p_A_11_22 = arith.extsi %p_A_11 : i32 to i64 loc(#loc188)
    %p_A_22 = arith.addi %p_A_11, %c16_i32 : i32 loc(#loc189)
    %p_A_22_23 = arith.extsi %p_A_22 : i32 to i64 loc(#loc190)
    %p_A_33 = arith.addi %p_A_11, %c32_i32 : i32 loc(#loc191)
    %p_A_33_24 = arith.extsi %p_A_33 : i32 to i64 loc(#loc192)
    %p_A_44 = arith.addi %p_A_11, %c48_i32 : i32 loc(#loc193)
    %p_A_44_25 = arith.extsi %p_A_44 : i32 to i64 loc(#loc194)
    %b_Ai_11 = tt.splat %A_19 : !tt.ptr<f32> -> tensor<16x16x!tt.ptr<f32>> loc(#loc195)
    %b_Ai_11_26 = tt.splat %p_A_11_22 : i64 -> tensor<16xi64> loc(#loc195)
    %b_Ai_11_27 = arith.extsi %o_i : tensor<16xi32> to tensor<16xi64> loc(#loc195)
    %b_Ai_11_28 = arith.addi %b_Ai_11_26, %b_Ai_11_27 : tensor<16xi64> loc(#loc195)
    %b_Ai_11_29 = tt.expand_dims %b_Ai_11_28 {axis = 1 : i32} : tensor<16xi64> -> tensor<16x1xi64> loc(#loc195)
    %b_Ai_11_30 = arith.muli %b_Ai_11_29, %cst_5 : tensor<16x1xi64> loc(#loc195)
    %b_Ai_11_31 = tt.broadcast %b_Ai_11_30 : tensor<16x1xi64> -> tensor<16x16xi64> loc(#loc195)
    %b_Ai_11_32 = tt.expand_dims %b_Ai_11_27 {axis = 0 : i32} : tensor<16xi64> -> tensor<1x16xi64> loc(#loc195)
    %b_Ai_11_33 = tt.broadcast %b_Ai_11_32 : tensor<1x16xi64> -> tensor<16x16xi64> loc(#loc195)
    %b_Ai_11_34 = arith.addi %b_Ai_11_31, %b_Ai_11_33 : tensor<16x16xi64> loc(#loc195)
    %b_Ai_11_35 = tt.addptr %b_Ai_11, %b_Ai_11_34 : tensor<16x16x!tt.ptr<f32>>, tensor<16x16xi64> loc(#loc195)
    %b_Ai_11_36 = arith.cmpi sge, %b_Ai_11_29, %cst_4 : tensor<16x1xi64> loc(#loc195)
    %b_Ai_11_37 = tt.splat %p_A_11_21 : i64 -> tensor<16x1xi64> loc(#loc195)
    %b_Ai_11_38 = arith.cmpi slt, %b_Ai_11_29, %b_Ai_11_37 : tensor<16x1xi64> loc(#loc195)
    %b_Ai_11_39 = arith.andi %b_Ai_11_36, %b_Ai_11_38 : tensor<16x1xi1> loc(#loc195)
    %b_Ai_11_40 = tt.broadcast %b_Ai_11_39 : tensor<16x1xi1> -> tensor<16x16xi1> loc(#loc195)
    %b_Ai_11_41 = arith.cmpi sge, %b_Ai_11_32, %cst_3 : tensor<1x16xi64> loc(#loc195)
    %b_Ai_11_42 = arith.cmpi slt, %b_Ai_11_32, %cst_2 : tensor<1x16xi64> loc(#loc195)
    %b_Ai_11_43 = arith.andi %b_Ai_11_41, %b_Ai_11_42 : tensor<1x16xi1> loc(#loc195)
    %b_Ai_11_44 = tt.broadcast %b_Ai_11_43 : tensor<1x16xi1> -> tensor<16x16xi1> loc(#loc195)
    %b_Ai_11_45 = arith.andi %b_Ai_11_40, %b_Ai_11_44 : tensor<16x16xi1> loc(#loc195)
    %b_Ai_11_46 = tt.load %b_Ai_11_35, %b_Ai_11_45 : tensor<16x16x!tt.ptr<f32>> loc(#loc195)
    %b_Ai_22 = tt.splat %p_A_22_23 : i64 -> tensor<16xi64> loc(#loc196)
    %b_Ai_22_47 = arith.addi %b_Ai_22, %b_Ai_11_27 : tensor<16xi64> loc(#loc196)
    %b_Ai_22_48 = tt.expand_dims %b_Ai_22_47 {axis = 1 : i32} : tensor<16xi64> -> tensor<16x1xi64> loc(#loc196)
    %b_Ai_22_49 = arith.muli %b_Ai_22_48, %cst_5 : tensor<16x1xi64> loc(#loc196)
    %b_Ai_22_50 = tt.broadcast %b_Ai_22_49 : tensor<16x1xi64> -> tensor<16x16xi64> loc(#loc196)
    %b_Ai_22_51 = arith.addi %b_Ai_11_27, %cst_1 : tensor<16xi64> loc(#loc196)
    %b_Ai_22_52 = tt.expand_dims %b_Ai_22_51 {axis = 0 : i32} : tensor<16xi64> -> tensor<1x16xi64> loc(#loc196)
    %b_Ai_22_53 = tt.broadcast %b_Ai_22_52 : tensor<1x16xi64> -> tensor<16x16xi64> loc(#loc196)
    %b_Ai_22_54 = arith.addi %b_Ai_22_50, %b_Ai_22_53 : tensor<16x16xi64> loc(#loc196)
    %b_Ai_22_55 = tt.addptr %b_Ai_11, %b_Ai_22_54 : tensor<16x16x!tt.ptr<f32>>, tensor<16x16xi64> loc(#loc196)
    %b_Ai_22_56 = arith.cmpi sge, %b_Ai_22_48, %cst_4 : tensor<16x1xi64> loc(#loc196)
    %b_Ai_22_57 = arith.cmpi slt, %b_Ai_22_48, %b_Ai_11_37 : tensor<16x1xi64> loc(#loc196)
    %b_Ai_22_58 = arith.andi %b_Ai_22_56, %b_Ai_22_57 : tensor<16x1xi1> loc(#loc196)
    %b_Ai_22_59 = tt.broadcast %b_Ai_22_58 : tensor<16x1xi1> -> tensor<16x16xi1> loc(#loc196)
    %b_Ai_22_60 = arith.cmpi sge, %b_Ai_22_52, %cst_3 : tensor<1x16xi64> loc(#loc196)
    %b_Ai_22_61 = arith.cmpi slt, %b_Ai_22_52, %cst_2 : tensor<1x16xi64> loc(#loc196)
    %b_Ai_22_62 = arith.andi %b_Ai_22_60, %b_Ai_22_61 : tensor<1x16xi1> loc(#loc196)
    %b_Ai_22_63 = tt.broadcast %b_Ai_22_62 : tensor<1x16xi1> -> tensor<16x16xi1> loc(#loc196)
    %b_Ai_22_64 = arith.andi %b_Ai_22_59, %b_Ai_22_63 : tensor<16x16xi1> loc(#loc196)
    %b_Ai_22_65 = tt.load %b_Ai_22_55, %b_Ai_22_64 : tensor<16x16x!tt.ptr<f32>> loc(#loc196)
    %b_Ai_33 = tt.splat %p_A_33_24 : i64 -> tensor<16xi64> loc(#loc197)
    %b_Ai_33_66 = arith.addi %b_Ai_33, %b_Ai_11_27 : tensor<16xi64> loc(#loc197)
    %b_Ai_33_67 = tt.expand_dims %b_Ai_33_66 {axis = 1 : i32} : tensor<16xi64> -> tensor<16x1xi64> loc(#loc197)
    %b_Ai_33_68 = arith.muli %b_Ai_33_67, %cst_5 : tensor<16x1xi64> loc(#loc197)
    %b_Ai_33_69 = tt.broadcast %b_Ai_33_68 : tensor<16x1xi64> -> tensor<16x16xi64> loc(#loc197)
    %b_Ai_33_70 = arith.addi %b_Ai_11_27, %cst_0 : tensor<16xi64> loc(#loc197)
    %b_Ai_33_71 = tt.expand_dims %b_Ai_33_70 {axis = 0 : i32} : tensor<16xi64> -> tensor<1x16xi64> loc(#loc197)
    %b_Ai_33_72 = tt.broadcast %b_Ai_33_71 : tensor<1x16xi64> -> tensor<16x16xi64> loc(#loc197)
    %b_Ai_33_73 = arith.addi %b_Ai_33_69, %b_Ai_33_72 : tensor<16x16xi64> loc(#loc197)
    %b_Ai_33_74 = tt.addptr %b_Ai_11, %b_Ai_33_73 : tensor<16x16x!tt.ptr<f32>>, tensor<16x16xi64> loc(#loc197)
    %b_Ai_33_75 = arith.cmpi sge, %b_Ai_33_67, %cst_4 : tensor<16x1xi64> loc(#loc197)
    %b_Ai_33_76 = arith.cmpi slt, %b_Ai_33_67, %b_Ai_11_37 : tensor<16x1xi64> loc(#loc197)
    %b_Ai_33_77 = arith.andi %b_Ai_33_75, %b_Ai_33_76 : tensor<16x1xi1> loc(#loc197)
    %b_Ai_33_78 = tt.broadcast %b_Ai_33_77 : tensor<16x1xi1> -> tensor<16x16xi1> loc(#loc197)
    %b_Ai_33_79 = arith.cmpi sge, %b_Ai_33_71, %cst_3 : tensor<1x16xi64> loc(#loc197)
    %b_Ai_33_80 = arith.cmpi slt, %b_Ai_33_71, %cst_2 : tensor<1x16xi64> loc(#loc197)
    %b_Ai_33_81 = arith.andi %b_Ai_33_79, %b_Ai_33_80 : tensor<1x16xi1> loc(#loc197)
    %b_Ai_33_82 = tt.broadcast %b_Ai_33_81 : tensor<1x16xi1> -> tensor<16x16xi1> loc(#loc197)
    %b_Ai_33_83 = arith.andi %b_Ai_33_78, %b_Ai_33_82 : tensor<16x16xi1> loc(#loc197)
    %b_Ai_33_84 = tt.load %b_Ai_33_74, %b_Ai_33_83 : tensor<16x16x!tt.ptr<f32>> loc(#loc197)
    %b_Ai_44 = tt.splat %p_A_44_25 : i64 -> tensor<16xi64> loc(#loc198)
    %b_Ai_44_85 = arith.addi %b_Ai_44, %b_Ai_11_27 : tensor<16xi64> loc(#loc198)
    %b_Ai_44_86 = tt.expand_dims %b_Ai_44_85 {axis = 1 : i32} : tensor<16xi64> -> tensor<16x1xi64> loc(#loc198)
    %b_Ai_44_87 = arith.muli %b_Ai_44_86, %cst_5 : tensor<16x1xi64> loc(#loc198)
    %b_Ai_44_88 = tt.broadcast %b_Ai_44_87 : tensor<16x1xi64> -> tensor<16x16xi64> loc(#loc198)
    %b_Ai_44_89 = arith.addi %b_Ai_11_27, %cst : tensor<16xi64> loc(#loc198)
    %b_Ai_44_90 = tt.expand_dims %b_Ai_44_89 {axis = 0 : i32} : tensor<16xi64> -> tensor<1x16xi64> loc(#loc198)
    %b_Ai_44_91 = tt.broadcast %b_Ai_44_90 : tensor<1x16xi64> -> tensor<16x16xi64> loc(#loc198)
    %b_Ai_44_92 = arith.addi %b_Ai_44_88, %b_Ai_44_91 : tensor<16x16xi64> loc(#loc198)
    %b_Ai_44_93 = tt.addptr %b_Ai_11, %b_Ai_44_92 : tensor<16x16x!tt.ptr<f32>>, tensor<16x16xi64> loc(#loc198)
    %b_Ai_44_94 = arith.cmpi sge, %b_Ai_44_86, %cst_4 : tensor<16x1xi64> loc(#loc198)
    %b_Ai_44_95 = arith.cmpi slt, %b_Ai_44_86, %b_Ai_11_37 : tensor<16x1xi64> loc(#loc198)
    %b_Ai_44_96 = arith.andi %b_Ai_44_94, %b_Ai_44_95 : tensor<16x1xi1> loc(#loc198)
    %b_Ai_44_97 = tt.broadcast %b_Ai_44_96 : tensor<16x1xi1> -> tensor<16x16xi1> loc(#loc198)
    %b_Ai_44_98 = arith.cmpi sge, %b_Ai_44_90, %cst_3 : tensor<1x16xi64> loc(#loc198)
    %b_Ai_44_99 = arith.cmpi slt, %b_Ai_44_90, %cst_2 : tensor<1x16xi64> loc(#loc198)
    %b_Ai_44_100 = arith.andi %b_Ai_44_98, %b_Ai_44_99 : tensor<1x16xi1> loc(#loc198)
    %b_Ai_44_101 = tt.broadcast %b_Ai_44_100 : tensor<1x16xi1> -> tensor<16x16xi1> loc(#loc198)
    %b_Ai_44_102 = arith.andi %b_Ai_44_97, %b_Ai_44_101 : tensor<16x16xi1> loc(#loc198)
    %b_Ai_44_103 = tt.load %b_Ai_44_93, %b_Ai_44_102 : tensor<16x16x!tt.ptr<f32>> loc(#loc198)
    %b_Ai_11_104 = arith.select %m_A_15, %b_Ai_11_46, %cst_10 : tensor<16x16xi1>, tensor<16x16xf32> loc(#loc199)
    %b_Ai_11_105 = arith.subf %cst_10, %b_Ai_11_104 : tensor<16x16xf32> loc(#loc200)
    %b_Ai_22_106 = arith.select %m_A_15, %b_Ai_22_65, %cst_10 : tensor<16x16xi1>, tensor<16x16xf32> loc(#loc201)
    %b_Ai_22_107 = arith.subf %cst_10, %b_Ai_22_106 : tensor<16x16xf32> loc(#loc202)
    %b_Ai_33_108 = arith.select %m_A_15, %b_Ai_33_84, %cst_10 : tensor<16x16xi1>, tensor<16x16xf32> loc(#loc203)
    %b_Ai_33_109 = arith.subf %cst_10, %b_Ai_33_108 : tensor<16x16xf32> loc(#loc204)
    %b_Ai_44_110 = arith.select %m_A_15, %b_Ai_44_103, %cst_10 : tensor<16x16xi1>, tensor<16x16xf32> loc(#loc205)
    %b_Ai_44_111 = arith.subf %cst_10, %b_Ai_44_110 : tensor<16x16xf32> loc(#loc206)
    %12 = arith.subi %T_11, %p_A_11 : i32 loc(#loc48)
    %13 = arith.minsi %12, %c16_i32 : i32 loc(#loc49)
    %b_Ai_11_112 = scf.for %i = %c2_i32 to %13 step %c1_i32 iter_args(%b_Ai_11_155 = %b_Ai_11_105) -> (tensor<16x16xf32>)  : i32 {
      %b_a_11 = arith.addi %p_A_11, %i : i32 loc(#loc208)
      %b_a_11_156 = arith.muli %b_a_11, %c1024_i32 : i32 loc(#loc209)
      %b_a_11_157 = tt.addptr %A_19, %b_a_11_156 : !tt.ptr<f32>, i32 loc(#loc210)
      %b_a_11_158 = tt.splat %b_a_11_157 : !tt.ptr<f32> -> tensor<16x!tt.ptr<f32>> loc(#loc211)
      %b_a_11_159 = tt.addptr %b_a_11_158, %o_i : tensor<16x!tt.ptr<f32>>, tensor<16xi32> loc(#loc211)
      %b_a_11_160 = tt.load %b_a_11_159 : tensor<16x!tt.ptr<f32>> loc(#loc212)
      %b_a_11_161 = arith.subf %cst_9, %b_a_11_160 : tensor<16xf32> loc(#loc213)
      %b_a_11_162 = tt.expand_dims %b_a_11_161 {axis = 1 : i32} : tensor<16xf32> -> tensor<16x1xf32> loc(#loc214)
      %b_a_11_163 = tt.broadcast %b_a_11_162 : tensor<16x1xf32> -> tensor<16x16xf32> loc(#loc215)
      %b_a_11_164 = arith.mulf %b_a_11_163, %b_Ai_11_155 : tensor<16x16xf32> loc(#loc215)
      %b_a_11_165 = "tt.reduce"(%b_a_11_164) <{axis = 0 : i32}> ({
      ^bb0(%b_a_11_174: f32 loc(callsite(#loc1 at #loc216)), %b_a_11_175: f32 loc(callsite(#loc1 at #loc216))):
        %b_a_11_176 = arith.addf %b_a_11_174, %b_a_11_175 : f32 loc(#loc309)
        tt.reduce.return %b_a_11_176 : f32 loc(#loc301)
      }) : (tensor<16x16xf32>) -> tensor<16xf32> loc(#loc301)
      %b_a_11_166 = arith.addf %b_a_11_161, %b_a_11_165 : tensor<16xf32> loc(#loc217)
      %b_Ai_11_167 = tt.splat %i : i32 -> tensor<16xi32> loc(#loc218)
      %b_Ai_11_168 = arith.cmpi eq, %o_i, %b_Ai_11_167 : tensor<16xi32> loc(#loc218)
      %b_Ai_11_169 = tt.expand_dims %b_Ai_11_168 {axis = 1 : i32} : tensor<16xi1> -> tensor<16x1xi1> loc(#loc219)
      %b_Ai_11_170 = tt.expand_dims %b_a_11_166 {axis = 0 : i32} : tensor<16xf32> -> tensor<1x16xf32> loc(#loc220)
      %b_Ai_11_171 = tt.broadcast %b_Ai_11_170 : tensor<1x16xf32> -> tensor<16x16xf32> loc(#loc220)
      %b_Ai_11_172 = tt.broadcast %b_Ai_11_169 : tensor<16x1xi1> -> tensor<16x16xi1> loc(#loc220)
      %b_Ai_11_173 = arith.select %b_Ai_11_172, %b_Ai_11_171, %b_Ai_11_155 : tensor<16x16xi1>, tensor<16x16xf32> loc(#loc220)
      scf.yield %b_Ai_11_173 : tensor<16x16xf32> loc(#loc66)
    } loc(#loc207)
    %14 = arith.minsi %12, %c32_i32 : i32 loc(#loc67)
    %b_Ai_22_113 = scf.for %i = %c18_i32 to %14 step %c1_i32 iter_args(%b_Ai_22_155 = %b_Ai_22_107) -> (tensor<16x16xf32>)  : i32 {
      %b_a_22 = arith.addi %p_A_11, %i : i32 loc(#loc222)
      %b_a_22_156 = arith.muli %b_a_22, %c1024_i32 : i32 loc(#loc223)
      %b_a_22_157 = tt.addptr %A_19, %b_a_22_156 : !tt.ptr<f32>, i32 loc(#loc224)
      %b_a_22_158 = tt.splat %b_a_22_157 : !tt.ptr<f32> -> tensor<16x!tt.ptr<f32>> loc(#loc225)
      %b_a_22_159 = tt.addptr %b_a_22_158, %o_i : tensor<16x!tt.ptr<f32>>, tensor<16xi32> loc(#loc225)
      %b_a_22_160 = tt.addptr %b_a_22_159, %cst_8 : tensor<16x!tt.ptr<f32>>, tensor<16xi32> loc(#loc226)
      %b_a_22_161 = tt.load %b_a_22_160 : tensor<16x!tt.ptr<f32>> loc(#loc227)
      %b_a_22_162 = arith.subf %cst_9, %b_a_22_161 : tensor<16xf32> loc(#loc228)
      %b_a_22_163 = tt.expand_dims %b_a_22_162 {axis = 1 : i32} : tensor<16xf32> -> tensor<16x1xf32> loc(#loc229)
      %b_a_22_164 = tt.broadcast %b_a_22_163 : tensor<16x1xf32> -> tensor<16x16xf32> loc(#loc230)
      %b_a_22_165 = arith.mulf %b_a_22_164, %b_Ai_22_155 : tensor<16x16xf32> loc(#loc230)
      %b_a_22_166 = "tt.reduce"(%b_a_22_165) <{axis = 0 : i32}> ({
      ^bb0(%b_a_22_176: f32 loc(callsite(#loc1 at #loc231)), %b_a_22_177: f32 loc(callsite(#loc1 at #loc231))):
        %b_a_22_178 = arith.addf %b_a_22_176, %b_a_22_177 : f32 loc(#loc310)
        tt.reduce.return %b_a_22_178 : f32 loc(#loc303)
      }) : (tensor<16x16xf32>) -> tensor<16xf32> loc(#loc303)
      %b_a_22_167 = arith.addf %b_a_22_162, %b_a_22_166 : tensor<16xf32> loc(#loc232)
      %b_Ai_22_168 = arith.subi %i, %c16_i32 : i32 loc(#loc233)
      %b_Ai_22_169 = tt.splat %b_Ai_22_168 : i32 -> tensor<16xi32> loc(#loc234)
      %b_Ai_22_170 = arith.cmpi eq, %o_i, %b_Ai_22_169 : tensor<16xi32> loc(#loc234)
      %b_Ai_22_171 = tt.expand_dims %b_Ai_22_170 {axis = 1 : i32} : tensor<16xi1> -> tensor<16x1xi1> loc(#loc235)
      %b_Ai_22_172 = tt.expand_dims %b_a_22_167 {axis = 0 : i32} : tensor<16xf32> -> tensor<1x16xf32> loc(#loc236)
      %b_Ai_22_173 = tt.broadcast %b_Ai_22_172 : tensor<1x16xf32> -> tensor<16x16xf32> loc(#loc236)
      %b_Ai_22_174 = tt.broadcast %b_Ai_22_171 : tensor<16x1xi1> -> tensor<16x16xi1> loc(#loc236)
      %b_Ai_22_175 = arith.select %b_Ai_22_174, %b_Ai_22_173, %b_Ai_22_155 : tensor<16x16xi1>, tensor<16x16xf32> loc(#loc236)
      scf.yield %b_Ai_22_175 : tensor<16x16xf32> loc(#loc83)
    } loc(#loc221)
    %15 = arith.minsi %12, %c48_i32 : i32 loc(#loc84)
    %b_Ai_33_114 = scf.for %i = %c34_i32 to %15 step %c1_i32 iter_args(%b_Ai_33_155 = %b_Ai_33_109) -> (tensor<16x16xf32>)  : i32 {
      %b_a_33 = arith.addi %p_A_11, %i : i32 loc(#loc238)
      %b_a_33_156 = arith.muli %b_a_33, %c1024_i32 : i32 loc(#loc239)
      %b_a_33_157 = tt.addptr %A_19, %b_a_33_156 : !tt.ptr<f32>, i32 loc(#loc240)
      %b_a_33_158 = tt.splat %b_a_33_157 : !tt.ptr<f32> -> tensor<16x!tt.ptr<f32>> loc(#loc241)
      %b_a_33_159 = tt.addptr %b_a_33_158, %o_i : tensor<16x!tt.ptr<f32>>, tensor<16xi32> loc(#loc241)
      %b_a_33_160 = tt.addptr %b_a_33_159, %cst_7 : tensor<16x!tt.ptr<f32>>, tensor<16xi32> loc(#loc242)
      %b_a_33_161 = tt.load %b_a_33_160 : tensor<16x!tt.ptr<f32>> loc(#loc243)
      %b_a_33_162 = arith.subf %cst_9, %b_a_33_161 : tensor<16xf32> loc(#loc244)
      %b_a_33_163 = tt.expand_dims %b_a_33_162 {axis = 1 : i32} : tensor<16xf32> -> tensor<16x1xf32> loc(#loc245)
      %b_a_33_164 = tt.broadcast %b_a_33_163 : tensor<16x1xf32> -> tensor<16x16xf32> loc(#loc246)
      %b_a_33_165 = arith.mulf %b_a_33_164, %b_Ai_33_155 : tensor<16x16xf32> loc(#loc246)
      %b_a_33_166 = "tt.reduce"(%b_a_33_165) <{axis = 0 : i32}> ({
      ^bb0(%b_a_33_176: f32 loc(callsite(#loc1 at #loc247)), %b_a_33_177: f32 loc(callsite(#loc1 at #loc247))):
        %b_a_33_178 = arith.addf %b_a_33_176, %b_a_33_177 : f32 loc(#loc311)
        tt.reduce.return %b_a_33_178 : f32 loc(#loc305)
      }) : (tensor<16x16xf32>) -> tensor<16xf32> loc(#loc305)
      %b_a_33_167 = arith.addf %b_a_33_162, %b_a_33_166 : tensor<16xf32> loc(#loc248)
      %b_Ai_33_168 = arith.subi %i, %c32_i32 : i32 loc(#loc249)
      %b_Ai_33_169 = tt.splat %b_Ai_33_168 : i32 -> tensor<16xi32> loc(#loc250)
      %b_Ai_33_170 = arith.cmpi eq, %o_i, %b_Ai_33_169 : tensor<16xi32> loc(#loc250)
      %b_Ai_33_171 = tt.expand_dims %b_Ai_33_170 {axis = 1 : i32} : tensor<16xi1> -> tensor<16x1xi1> loc(#loc251)
      %b_Ai_33_172 = tt.expand_dims %b_a_33_167 {axis = 0 : i32} : tensor<16xf32> -> tensor<1x16xf32> loc(#loc252)
      %b_Ai_33_173 = tt.broadcast %b_Ai_33_172 : tensor<1x16xf32> -> tensor<16x16xf32> loc(#loc252)
      %b_Ai_33_174 = tt.broadcast %b_Ai_33_171 : tensor<16x1xi1> -> tensor<16x16xi1> loc(#loc252)
      %b_Ai_33_175 = arith.select %b_Ai_33_174, %b_Ai_33_173, %b_Ai_33_155 : tensor<16x16xi1>, tensor<16x16xf32> loc(#loc252)
      scf.yield %b_Ai_33_175 : tensor<16x16xf32> loc(#loc100)
    } loc(#loc237)
    %16 = arith.minsi %12, %c64_i32 : i32 loc(#loc101)
    %b_Ai_44_115 = scf.for %i = %c50_i32 to %16 step %c1_i32 iter_args(%b_Ai_44_155 = %b_Ai_44_111) -> (tensor<16x16xf32>)  : i32 {
      %b_a_44 = arith.addi %p_A_11, %i : i32 loc(#loc254)
      %b_a_44_156 = arith.muli %b_a_44, %c1024_i32 : i32 loc(#loc255)
      %b_a_44_157 = tt.addptr %A_19, %b_a_44_156 : !tt.ptr<f32>, i32 loc(#loc256)
      %b_a_44_158 = tt.splat %b_a_44_157 : !tt.ptr<f32> -> tensor<16x!tt.ptr<f32>> loc(#loc257)
      %b_a_44_159 = tt.addptr %b_a_44_158, %o_i : tensor<16x!tt.ptr<f32>>, tensor<16xi32> loc(#loc257)
      %b_a_44_160 = tt.addptr %b_a_44_159, %cst_6 : tensor<16x!tt.ptr<f32>>, tensor<16xi32> loc(#loc258)
      %b_a_44_161 = tt.load %b_a_44_160 : tensor<16x!tt.ptr<f32>> loc(#loc259)
      %b_a_44_162 = arith.subf %cst_9, %b_a_44_161 : tensor<16xf32> loc(#loc260)
      %b_a_44_163 = tt.expand_dims %b_a_44_162 {axis = 1 : i32} : tensor<16xf32> -> tensor<16x1xf32> loc(#loc261)
      %b_a_44_164 = tt.broadcast %b_a_44_163 : tensor<16x1xf32> -> tensor<16x16xf32> loc(#loc262)
      %b_a_44_165 = arith.mulf %b_a_44_164, %b_Ai_44_155 : tensor<16x16xf32> loc(#loc262)
      %b_a_44_166 = "tt.reduce"(%b_a_44_165) <{axis = 0 : i32}> ({
      ^bb0(%b_a_44_176: f32 loc(callsite(#loc1 at #loc263)), %b_a_44_177: f32 loc(callsite(#loc1 at #loc263))):
        %b_a_44_178 = arith.addf %b_a_44_176, %b_a_44_177 : f32 loc(#loc312)
        tt.reduce.return %b_a_44_178 : f32 loc(#loc307)
      }) : (tensor<16x16xf32>) -> tensor<16xf32> loc(#loc307)
      %b_a_44_167 = arith.addf %b_a_44_162, %b_a_44_166 : tensor<16xf32> loc(#loc264)
      %b_Ai_44_168 = arith.subi %i, %c48_i32 : i32 loc(#loc265)
      %b_Ai_44_169 = tt.splat %b_Ai_44_168 : i32 -> tensor<16xi32> loc(#loc266)
      %b_Ai_44_170 = arith.cmpi eq, %o_i, %b_Ai_44_169 : tensor<16xi32> loc(#loc266)
      %b_Ai_44_171 = tt.expand_dims %b_Ai_44_170 {axis = 1 : i32} : tensor<16xi1> -> tensor<16x1xi1> loc(#loc267)
      %b_Ai_44_172 = tt.expand_dims %b_a_44_167 {axis = 0 : i32} : tensor<16xf32> -> tensor<1x16xf32> loc(#loc268)
      %b_Ai_44_173 = tt.broadcast %b_Ai_44_172 : tensor<1x16xf32> -> tensor<16x16xf32> loc(#loc268)
      %b_Ai_44_174 = tt.broadcast %b_Ai_44_171 : tensor<16x1xi1> -> tensor<16x16xi1> loc(#loc268)
      %b_Ai_44_175 = arith.select %b_Ai_44_174, %b_Ai_44_173, %b_Ai_44_155 : tensor<16x16xi1>, tensor<16x16xf32> loc(#loc268)
      scf.yield %b_Ai_44_175 : tensor<16x16xf32> loc(#loc117)
    } loc(#loc253)
    %b_Ai_11_116 = arith.uitofp %m_I : tensor<16x16xi1> to tensor<16x16xf32> loc(#loc269)
    %b_Ai_11_117 = arith.addf %b_Ai_11_112, %b_Ai_11_116 : tensor<16x16xf32> loc(#loc269)
    %b_Ai_22_118 = arith.addf %b_Ai_22_113, %b_Ai_11_116 : tensor<16x16xf32> loc(#loc270)
    %b_Ai_33_119 = arith.addf %b_Ai_33_114, %b_Ai_11_116 : tensor<16x16xf32> loc(#loc271)
    %b_Ai_44_120 = arith.addf %b_Ai_44_115, %b_Ai_11_116 : tensor<16x16xf32> loc(#loc272)
    %b_A_21 = arith.addi %b_Ai_22_50, %b_Ai_11_33 : tensor<16x16xi64> loc(#loc273)
    %b_A_21_121 = tt.addptr %b_Ai_11, %b_A_21 : tensor<16x16x!tt.ptr<f32>>, tensor<16x16xi64> loc(#loc273)
    %b_A_21_122 = arith.andi %b_Ai_22_59, %b_Ai_11_44 : tensor<16x16xi1> loc(#loc273)
    %b_A_21_123 = tt.load %b_A_21_121, %b_A_21_122 : tensor<16x16x!tt.ptr<f32>> loc(#loc273)
    %b_A_31 = arith.addi %b_Ai_33_69, %b_Ai_11_33 : tensor<16x16xi64> loc(#loc274)
    %b_A_31_124 = tt.addptr %b_Ai_11, %b_A_31 : tensor<16x16x!tt.ptr<f32>>, tensor<16x16xi64> loc(#loc274)
    %b_A_31_125 = arith.andi %b_Ai_33_78, %b_Ai_11_44 : tensor<16x16xi1> loc(#loc274)
    %b_A_31_126 = tt.load %b_A_31_124, %b_A_31_125 : tensor<16x16x!tt.ptr<f32>> loc(#loc274)
    %b_A_32 = arith.addi %b_Ai_33_69, %b_Ai_22_53 : tensor<16x16xi64> loc(#loc275)
    %b_A_32_127 = tt.addptr %b_Ai_11, %b_A_32 : tensor<16x16x!tt.ptr<f32>>, tensor<16x16xi64> loc(#loc275)
    %b_A_32_128 = arith.andi %b_Ai_33_78, %b_Ai_22_63 : tensor<16x16xi1> loc(#loc275)
    %b_A_32_129 = tt.load %b_A_32_127, %b_A_32_128 : tensor<16x16x!tt.ptr<f32>> loc(#loc275)
    %b_A_41 = arith.addi %b_Ai_44_88, %b_Ai_11_33 : tensor<16x16xi64> loc(#loc276)
    %b_A_41_130 = tt.addptr %b_Ai_11, %b_A_41 : tensor<16x16x!tt.ptr<f32>>, tensor<16x16xi64> loc(#loc276)
    %b_A_41_131 = arith.andi %b_Ai_44_97, %b_Ai_11_44 : tensor<16x16xi1> loc(#loc276)
    %b_A_41_132 = tt.load %b_A_41_130, %b_A_41_131 : tensor<16x16x!tt.ptr<f32>> loc(#loc276)
    %b_A_42 = arith.addi %b_Ai_44_88, %b_Ai_22_53 : tensor<16x16xi64> loc(#loc277)
    %b_A_42_133 = tt.addptr %b_Ai_11, %b_A_42 : tensor<16x16x!tt.ptr<f32>>, tensor<16x16xi64> loc(#loc277)
    %b_A_42_134 = arith.andi %b_Ai_44_97, %b_Ai_22_63 : tensor<16x16xi1> loc(#loc277)
    %b_A_42_135 = tt.load %b_A_42_133, %b_A_42_134 : tensor<16x16x!tt.ptr<f32>> loc(#loc277)
    %b_A_43 = arith.addi %b_Ai_44_88, %b_Ai_33_72 : tensor<16x16xi64> loc(#loc278)
    %b_A_43_136 = tt.addptr %b_Ai_11, %b_A_43 : tensor<16x16x!tt.ptr<f32>>, tensor<16x16xi64> loc(#loc278)
    %b_A_43_137 = arith.andi %b_Ai_44_97, %b_Ai_33_82 : tensor<16x16xi1> loc(#loc278)
    %b_A_43_138 = tt.load %b_A_43_136, %b_A_43_137 : tensor<16x16x!tt.ptr<f32>> loc(#loc278)
    %b_Ai_21 = tt.dot %b_Ai_22_118, %b_A_21_123, %cst_10 : tensor<16x16xf32> * tensor<16x16xf32> -> tensor<16x16xf32> loc(#loc279)
    %b_Ai_21_139 = tt.dot %b_Ai_21, %b_Ai_11_117, %cst_10 : tensor<16x16xf32> * tensor<16x16xf32> -> tensor<16x16xf32> loc(#loc280)
    %b_Ai_21_140 = arith.subf %cst_10, %b_Ai_21_139 : tensor<16x16xf32> loc(#loc281)
    %b_Ai_32 = tt.dot %b_Ai_33_119, %b_A_32_129, %cst_10 : tensor<16x16xf32> * tensor<16x16xf32> -> tensor<16x16xf32> loc(#loc282)
    %b_Ai_32_141 = tt.dot %b_Ai_32, %b_Ai_22_118, %cst_10 : tensor<16x16xf32> * tensor<16x16xf32> -> tensor<16x16xf32> loc(#loc283)
    %b_Ai_32_142 = arith.subf %cst_10, %b_Ai_32_141 : tensor<16x16xf32> loc(#loc284)
    %b_Ai_43 = tt.dot %b_Ai_44_120, %b_A_43_138, %cst_10 : tensor<16x16xf32> * tensor<16x16xf32> -> tensor<16x16xf32> loc(#loc285)
    %b_Ai_43_143 = tt.dot %b_Ai_43, %b_Ai_33_119, %cst_10 : tensor<16x16xf32> * tensor<16x16xf32> -> tensor<16x16xf32> loc(#loc286)
    %b_Ai_43_144 = arith.subf %cst_10, %b_Ai_43_143 : tensor<16x16xf32> loc(#loc287)
    %b_Ai_31 = tt.dot %b_A_31_126, %b_Ai_11_117, %cst_10 : tensor<16x16xf32> * tensor<16x16xf32> -> tensor<16x16xf32> loc(#loc288)
    %b_Ai_31_145 = tt.dot %b_A_32_129, %b_Ai_21_140, %b_Ai_31 : tensor<16x16xf32> * tensor<16x16xf32> -> tensor<16x16xf32> loc(#loc289)
    %b_Ai_31_146 = tt.dot %b_Ai_33_119, %b_Ai_31_145, %cst_10 : tensor<16x16xf32> * tensor<16x16xf32> -> tensor<16x16xf32> loc(#loc290)
    %b_Ai_31_147 = arith.subf %cst_10, %b_Ai_31_146 : tensor<16x16xf32> loc(#loc291)
    %b_Ai_42 = tt.dot %b_A_42_135, %b_Ai_22_118, %cst_10 : tensor<16x16xf32> * tensor<16x16xf32> -> tensor<16x16xf32> loc(#loc292)
    %b_Ai_42_148 = tt.dot %b_A_43_138, %b_Ai_32_142, %b_Ai_42 : tensor<16x16xf32> * tensor<16x16xf32> -> tensor<16x16xf32> loc(#loc293)
    %b_Ai_42_149 = tt.dot %b_Ai_44_120, %b_Ai_42_148, %cst_10 : tensor<16x16xf32> * tensor<16x16xf32> -> tensor<16x16xf32> loc(#loc294)
    %b_Ai_42_150 = arith.subf %cst_10, %b_Ai_42_149 : tensor<16x16xf32> loc(#loc295)
    %b_Ai_41 = tt.dot %b_A_41_132, %b_Ai_11_117, %cst_10 : tensor<16x16xf32> * tensor<16x16xf32> -> tensor<16x16xf32> loc(#loc296)
    %b_Ai_41_151 = tt.dot %b_A_42_135, %b_Ai_21_140, %b_Ai_41 : tensor<16x16xf32> * tensor<16x16xf32> -> tensor<16x16xf32> loc(#loc297)
    %b_Ai_41_152 = tt.dot %b_A_43_138, %b_Ai_31_147, %b_Ai_41_151 : tensor<16x16xf32> * tensor<16x16xf32> -> tensor<16x16xf32> loc(#loc298)
    %b_Ai_41_153 = tt.dot %b_Ai_44_120, %b_Ai_41_152, %cst_10 : tensor<16x16xf32> * tensor<16x16xf32> -> tensor<16x16xf32> loc(#loc299)
    %b_Ai_41_154 = arith.subf %cst_10, %b_Ai_41_153 : tensor<16x16xf32> loc(#loc300)
    %17 = arith.truncf %b_Ai_11_117 : tensor<16x16xf32> to tensor<16x16xf16> loc(#loc150)
    %18 = tt.splat %Ai_20 : !tt.ptr<f16> -> tensor<16x16x!tt.ptr<f16>> loc(#loc151)
    %19 = tt.addptr %18, %b_Ai_11_34 : tensor<16x16x!tt.ptr<f16>>, tensor<16x16xi64> loc(#loc151)
    tt.store %19, %17, %b_Ai_11_45 : tensor<16x16x!tt.ptr<f16>> loc(#loc151)
    %20 = arith.truncf %b_Ai_22_118 : tensor<16x16xf32> to tensor<16x16xf16> loc(#loc152)
    %21 = tt.addptr %18, %b_Ai_22_54 : tensor<16x16x!tt.ptr<f16>>, tensor<16x16xi64> loc(#loc153)
    tt.store %21, %20, %b_Ai_22_64 : tensor<16x16x!tt.ptr<f16>> loc(#loc153)
    %22 = arith.truncf %b_Ai_33_119 : tensor<16x16xf32> to tensor<16x16xf16> loc(#loc154)
    %23 = tt.addptr %18, %b_Ai_33_73 : tensor<16x16x!tt.ptr<f16>>, tensor<16x16xi64> loc(#loc155)
    tt.store %23, %22, %b_Ai_33_83 : tensor<16x16x!tt.ptr<f16>> loc(#loc155)
    %24 = arith.truncf %b_Ai_44_120 : tensor<16x16xf32> to tensor<16x16xf16> loc(#loc156)
    %25 = tt.addptr %18, %b_Ai_44_92 : tensor<16x16x!tt.ptr<f16>>, tensor<16x16xi64> loc(#loc157)
    tt.store %25, %24, %b_Ai_44_102 : tensor<16x16x!tt.ptr<f16>> loc(#loc157)
    %26 = arith.truncf %b_Ai_21_140 : tensor<16x16xf32> to tensor<16x16xf16> loc(#loc158)
    %27 = tt.addptr %18, %b_A_21 : tensor<16x16x!tt.ptr<f16>>, tensor<16x16xi64> loc(#loc159)
    tt.store %27, %26, %b_A_21_122 : tensor<16x16x!tt.ptr<f16>> loc(#loc159)
    %28 = arith.truncf %b_Ai_31_147 : tensor<16x16xf32> to tensor<16x16xf16> loc(#loc160)
    %29 = tt.addptr %18, %b_A_31 : tensor<16x16x!tt.ptr<f16>>, tensor<16x16xi64> loc(#loc161)
    tt.store %29, %28, %b_A_31_125 : tensor<16x16x!tt.ptr<f16>> loc(#loc161)
    %30 = arith.truncf %b_Ai_32_142 : tensor<16x16xf32> to tensor<16x16xf16> loc(#loc162)
    %31 = tt.addptr %18, %b_A_32 : tensor<16x16x!tt.ptr<f16>>, tensor<16x16xi64> loc(#loc163)
    tt.store %31, %30, %b_A_32_128 : tensor<16x16x!tt.ptr<f16>> loc(#loc163)
    %32 = arith.truncf %b_Ai_41_154 : tensor<16x16xf32> to tensor<16x16xf16> loc(#loc164)
    %33 = tt.addptr %18, %b_A_41 : tensor<16x16x!tt.ptr<f16>>, tensor<16x16xi64> loc(#loc165)
    tt.store %33, %32, %b_A_41_131 : tensor<16x16x!tt.ptr<f16>> loc(#loc165)
    %34 = arith.truncf %b_Ai_42_150 : tensor<16x16xf32> to tensor<16x16xf16> loc(#loc166)
    %35 = tt.addptr %18, %b_A_42 : tensor<16x16x!tt.ptr<f16>>, tensor<16x16xi64> loc(#loc167)
    tt.store %35, %34, %b_A_42_134 : tensor<16x16x!tt.ptr<f16>> loc(#loc167)
    %36 = arith.truncf %b_Ai_43_144 : tensor<16x16xf32> to tensor<16x16xf16> loc(#loc168)
    %37 = tt.addptr %18, %b_A_43 : tensor<16x16x!tt.ptr<f16>>, tensor<16x16xi64> loc(#loc169)
    tt.store %37, %36, %b_A_43_137 : tensor<16x16x!tt.ptr<f16>> loc(#loc169)
    tt.return loc(#loc170)
  } loc(#loc)
} loc(#loc)
#loc2 = loc("/usr/local/lib/python3.12/dist-packages/vllm/model_executor/layers/fla/ops/solve_tril.py":314:27)
#loc3 = loc("/usr/local/lib/python3.12/dist-packages/vllm/model_executor/layers/fla/ops/solve_tril.py":310:27)
#loc4 = loc("/usr/local/lib/python3.12/dist-packages/vllm/model_executor/layers/fla/ops/solve_tril.py":306:27)
#loc5 = loc("/usr/local/lib/python3.12/dist-packages/vllm/model_executor/layers/fla/ops/solve_tril.py":250:30)
#loc6 = loc("/usr/local/lib/python3.12/dist-packages/vllm/model_executor/layers/fla/ops/solve_tril.py":250:48)
#loc7 = loc("/usr/local/lib/python3.12/dist-packages/vllm/model_executor/layers/fla/ops/solve_tril.py":251:33)
#loc8 = loc("/usr/local/lib/python3.12/dist-packages/vllm/model_executor/layers/fla/ops/solve_tril.py":254:42)
#loc9 = loc("/usr/local/lib/python3.12/dist-packages/vllm/model_executor/layers/fla/ops/solve_tril.py":254:36)
#loc10 = loc("/usr/local/lib/python3.12/dist-packages/vllm/model_executor/layers/fla/ops/solve_tril.py":254:20)
#loc11 = loc("/usr/local/lib/python3.12/dist-packages/vllm/model_executor/layers/fla/ops/solve_tril.py":255:46)
#loc12 = loc("/usr/local/lib/python3.12/dist-packages/vllm/model_executor/layers/fla/ops/solve_tril.py":255:20)
#loc13 = loc("/usr/local/lib/python3.12/dist-packages/vllm/model_executor/layers/fla/ops/solve_tril.py":258:33)
#loc14 = loc("/usr/local/lib/python3.12/dist-packages/vllm/model_executor/layers/fla/ops/solve_tril.py":258:20)
#loc15 = loc("/usr/local/lib/python3.12/dist-packages/vllm/model_executor/layers/fla/ops/solve_tril.py":259:39)
#loc16 = loc("/usr/local/lib/python3.12/dist-packages/vllm/model_executor/layers/fla/ops/solve_tril.py":259:20)
#loc17 = loc("/usr/local/lib/python3.12/dist-packages/vllm/model_executor/layers/fla/ops/solve_tril.py":261:18)
#loc18 = loc("/usr/local/lib/python3.12/dist-packages/vllm/model_executor/layers/fla/ops/solve_tril.py":265:23)
#loc19 = loc("/usr/local/lib/python3.12/dist-packages/vllm/model_executor/layers/fla/ops/solve_tril.py":266:14)
#loc20 = loc("/usr/local/lib/python3.12/dist-packages/vllm/model_executor/layers/fla/ops/solve_tril.py":266:29)
#loc21 = loc("/usr/local/lib/python3.12/dist-packages/vllm/model_executor/layers/fla/ops/solve_tril.py":266:25)
#loc22 = loc("/usr/local/lib/python3.12/dist-packages/vllm/model_executor/layers/fla/ops/solve_tril.py":267:26)
#loc23 = loc("/usr/local/lib/python3.12/dist-packages/vllm/model_executor/layers/fla/ops/solve_tril.py":268:16)
#loc24 = loc("/usr/local/lib/python3.12/dist-packages/vllm/model_executor/layers/fla/ops/solve_tril.py":268:20)
#loc25 = loc("/usr/local/lib/python3.12/dist-packages/vllm/model_executor/layers/fla/ops/solve_tril.py":268:27)
#loc26 = loc("/usr/local/lib/python3.12/dist-packages/vllm/model_executor/layers/fla/ops/solve_tril.py":268:9)
#loc27 = loc("/usr/local/lib/python3.12/dist-packages/vllm/model_executor/layers/fla/ops/solve_tril.py":269:10)
#loc28 = loc("/usr/local/lib/python3.12/dist-packages/vllm/model_executor/layers/fla/ops/solve_tril.py":273:44)
#loc29 = loc("/usr/local/lib/python3.12/dist-packages/vllm/model_executor/layers/fla/ops/solve_tril.py":273:62)
#loc30 = loc("/usr/local/lib/python3.12/dist-packages/vllm/model_executor/layers/fla/ops/solve_tril.py":276:49)
#loc31 = loc("/usr/local/lib/python3.12/dist-packages/vllm/model_executor/layers/fla/ops/solve_tril.py":276:68)
#loc32 = loc("/usr/local/lib/python3.12/dist-packages/vllm/model_executor/layers/fla/ops/solve_tril.py":279:49)
#loc33 = loc("/usr/local/lib/python3.12/dist-packages/vllm/model_executor/layers/fla/ops/solve_tril.py":279:68)
#loc34 = loc("/usr/local/lib/python3.12/dist-packages/vllm/model_executor/layers/fla/ops/solve_tril.py":282:49)
#loc35 = loc("/usr/local/lib/python3.12/dist-packages/vllm/model_executor/layers/fla/ops/solve_tril.py":282:68)
#loc36 = loc("/usr/local/lib/python3.12/dist-packages/vllm/model_executor/layers/fla/ops/solve_tril.py":284:26)
#loc37 = loc("/usr/local/lib/python3.12/dist-packages/vllm/model_executor/layers/fla/ops/solve_tril.py":285:26)
#loc38 = loc("/usr/local/lib/python3.12/dist-packages/vllm/model_executor/layers/fla/ops/solve_tril.py":286:26)
#loc39 = loc("/usr/local/lib/python3.12/dist-packages/vllm/model_executor/layers/fla/ops/solve_tril.py":287:26)
#loc40 = loc("/usr/local/lib/python3.12/dist-packages/vllm/model_executor/layers/fla/ops/solve_tril.py":297:38)
#loc41 = loc("/usr/local/lib/python3.12/dist-packages/vllm/model_executor/layers/fla/ops/solve_tril.py":297:15)
#loc42 = loc("/usr/local/lib/python3.12/dist-packages/vllm/model_executor/layers/fla/ops/solve_tril.py":298:38)
#loc43 = loc("/usr/local/lib/python3.12/dist-packages/vllm/model_executor/layers/fla/ops/solve_tril.py":298:15)
#loc44 = loc("/usr/local/lib/python3.12/dist-packages/vllm/model_executor/layers/fla/ops/solve_tril.py":299:38)
#loc45 = loc("/usr/local/lib/python3.12/dist-packages/vllm/model_executor/layers/fla/ops/solve_tril.py":299:15)
#loc46 = loc("/usr/local/lib/python3.12/dist-packages/vllm/model_executor/layers/fla/ops/solve_tril.py":300:38)
#loc47 = loc("/usr/local/lib/python3.12/dist-packages/vllm/model_executor/layers/fla/ops/solve_tril.py":300:15)
#loc48 = loc("/usr/local/lib/python3.12/dist-packages/vllm/model_executor/layers/fla/ops/solve_tril.py":302:34)
#loc49 = loc("/usr/local/lib/python3.12/dist-packages/vllm/model_executor/layers/fla/ops/solve_tril.py":302:30)
#loc50 = loc("/usr/local/lib/python3.12/dist-packages/vllm/model_executor/layers/fla/ops/solve_tril.py":302:22)
#loc51 = loc("/usr/local/lib/python3.12/dist-packages/vllm/model_executor/layers/fla/ops/solve_tril.py":303:42)
#loc52 = loc("/usr/local/lib/python3.12/dist-packages/vllm/model_executor/layers/fla/ops/solve_tril.py":303:51)
#loc53 = loc("/usr/local/lib/python3.12/dist-packages/vllm/model_executor/layers/fla/ops/solve_tril.py":303:30)
#loc54 = loc("/usr/local/lib/python3.12/dist-packages/vllm/model_executor/layers/fla/ops/solve_tril.py":303:56)
#loc55 = loc("/usr/local/lib/python3.12/dist-packages/vllm/model_executor/layers/fla/ops/solve_tril.py":303:26)
#loc56 = loc("/usr/local/lib/python3.12/dist-packages/vllm/model_executor/layers/fla/ops/solve_tril.py":303:18)
#loc57 = loc("/usr/local/lib/python3.12/dist-packages/vllm/model_executor/layers/fla/ops/solve_tril.py":304:32)
#loc58 = loc("/usr/local/lib/python3.12/dist-packages/vllm/model_executor/layers/fla/ops/solve_tril.py":304:43)
#loc59 = loc("/usr/local/lib/python3.12/dist-packages/triton/language/standard.py":293:36)
#loc61 = loc("/usr/local/lib/python3.12/dist-packages/triton/language/standard.py":263:15)
#loc62 = loc("/usr/local/lib/python3.12/dist-packages/vllm/model_executor/layers/fla/ops/solve_tril.py":304:18)
#loc63 = loc("/usr/local/lib/python3.12/dist-packages/vllm/model_executor/layers/fla/ops/solve_tril.py":305:35)
#loc64 = loc("/usr/local/lib/python3.12/dist-packages/vllm/model_executor/layers/fla/ops/solve_tril.py":305:38)
#loc65 = loc("/usr/local/lib/python3.12/dist-packages/vllm/model_executor/layers/fla/ops/solve_tril.py":305:56)
#loc66 = loc("/usr/local/lib/python3.12/dist-packages/vllm/model_executor/layers/fla/ops/solve_tril.py":305:8)
#loc67 = loc("/usr/local/lib/python3.12/dist-packages/vllm/model_executor/layers/fla/ops/solve_tril.py":306:35)
#loc68 = loc("/usr/local/lib/python3.12/dist-packages/vllm/model_executor/layers/fla/ops/solve_tril.py":307:42)
#loc69 = loc("/usr/local/lib/python3.12/dist-packages/vllm/model_executor/layers/fla/ops/solve_tril.py":307:51)
#loc70 = loc("/usr/local/lib/python3.12/dist-packages/vllm/model_executor/layers/fla/ops/solve_tril.py":307:30)
#loc71 = loc("/usr/local/lib/python3.12/dist-packages/vllm/model_executor/layers/fla/ops/solve_tril.py":307:56)
#loc72 = loc("/usr/local/lib/python3.12/dist-packages/vllm/model_executor/layers/fla/ops/solve_tril.py":307:62)
#loc73 = loc("/usr/local/lib/python3.12/dist-packages/vllm/model_executor/layers/fla/ops/solve_tril.py":307:26)
#loc74 = loc("/usr/local/lib/python3.12/dist-packages/vllm/model_executor/layers/fla/ops/solve_tril.py":307:18)
#loc75 = loc("/usr/local/lib/python3.12/dist-packages/vllm/model_executor/layers/fla/ops/solve_tril.py":308:32)
#loc76 = loc("/usr/local/lib/python3.12/dist-packages/vllm/model_executor/layers/fla/ops/solve_tril.py":308:43)
#loc78 = loc("/usr/local/lib/python3.12/dist-packages/vllm/model_executor/layers/fla/ops/solve_tril.py":308:18)
#loc79 = loc("/usr/local/lib/python3.12/dist-packages/vllm/model_executor/layers/fla/ops/solve_tril.py":309:39)
#loc80 = loc("/usr/local/lib/python3.12/dist-packages/vllm/model_executor/layers/fla/ops/solve_tril.py":309:35)
#loc81 = loc("/usr/local/lib/python3.12/dist-packages/vllm/model_executor/layers/fla/ops/solve_tril.py":309:43)
#loc82 = loc("/usr/local/lib/python3.12/dist-packages/vllm/model_executor/layers/fla/ops/solve_tril.py":309:61)
#loc83 = loc("/usr/local/lib/python3.12/dist-packages/vllm/model_executor/layers/fla/ops/solve_tril.py":309:8)
#loc84 = loc("/usr/local/lib/python3.12/dist-packages/vllm/model_executor/layers/fla/ops/solve_tril.py":310:35)
#loc85 = loc("/usr/local/lib/python3.12/dist-packages/vllm/model_executor/layers/fla/ops/solve_tril.py":311:42)
#loc86 = loc("/usr/local/lib/python3.12/dist-packages/vllm/model_executor/layers/fla/ops/solve_tril.py":311:51)
#loc87 = loc("/usr/local/lib/python3.12/dist-packages/vllm/model_executor/layers/fla/ops/solve_tril.py":311:30)
#loc88 = loc("/usr/local/lib/python3.12/dist-packages/vllm/model_executor/layers/fla/ops/solve_tril.py":311:56)
#loc89 = loc("/usr/local/lib/python3.12/dist-packages/vllm/model_executor/layers/fla/ops/solve_tril.py":311:62)
#loc90 = loc("/usr/local/lib/python3.12/dist-packages/vllm/model_executor/layers/fla/ops/solve_tril.py":311:26)
#loc91 = loc("/usr/local/lib/python3.12/dist-packages/vllm/model_executor/layers/fla/ops/solve_tril.py":311:18)
#loc92 = loc("/usr/local/lib/python3.12/dist-packages/vllm/model_executor/layers/fla/ops/solve_tril.py":312:32)
#loc93 = loc("/usr/local/lib/python3.12/dist-packages/vllm/model_executor/layers/fla/ops/solve_tril.py":312:43)
#loc95 = loc("/usr/local/lib/python3.12/dist-packages/vllm/model_executor/layers/fla/ops/solve_tril.py":312:18)
#loc96 = loc("/usr/local/lib/python3.12/dist-packages/vllm/model_executor/layers/fla/ops/solve_tril.py":313:39)
#loc97 = loc("/usr/local/lib/python3.12/dist-packages/vllm/model_executor/layers/fla/ops/solve_tril.py":313:35)
#loc98 = loc("/usr/local/lib/python3.12/dist-packages/vllm/model_executor/layers/fla/ops/solve_tril.py":313:43)
#loc99 = loc("/usr/local/lib/python3.12/dist-packages/vllm/model_executor/layers/fla/ops/solve_tril.py":313:61)
#loc100 = loc("/usr/local/lib/python3.12/dist-packages/vllm/model_executor/layers/fla/ops/solve_tril.py":313:8)
#loc101 = loc("/usr/local/lib/python3.12/dist-packages/vllm/model_executor/layers/fla/ops/solve_tril.py":314:35)
#loc102 = loc("/usr/local/lib/python3.12/dist-packages/vllm/model_executor/layers/fla/ops/solve_tril.py":315:42)
#loc103 = loc("/usr/local/lib/python3.12/dist-packages/vllm/model_executor/layers/fla/ops/solve_tril.py":315:51)
#loc104 = loc("/usr/local/lib/python3.12/dist-packages/vllm/model_executor/layers/fla/ops/solve_tril.py":315:30)
#loc105 = loc("/usr/local/lib/python3.12/dist-packages/vllm/model_executor/layers/fla/ops/solve_tril.py":315:56)
#loc106 = loc("/usr/local/lib/python3.12/dist-packages/vllm/model_executor/layers/fla/ops/solve_tril.py":315:62)
#loc107 = loc("/usr/local/lib/python3.12/dist-packages/vllm/model_executor/layers/fla/ops/solve_tril.py":315:26)
#loc108 = loc("/usr/local/lib/python3.12/dist-packages/vllm/model_executor/layers/fla/ops/solve_tril.py":315:18)
#loc109 = loc("/usr/local/lib/python3.12/dist-packages/vllm/model_executor/layers/fla/ops/solve_tril.py":316:32)
#loc110 = loc("/usr/local/lib/python3.12/dist-packages/vllm/model_executor/layers/fla/ops/solve_tril.py":316:43)
#loc112 = loc("/usr/local/lib/python3.12/dist-packages/vllm/model_executor/layers/fla/ops/solve_tril.py":316:18)
#loc113 = loc("/usr/local/lib/python3.12/dist-packages/vllm/model_executor/layers/fla/ops/solve_tril.py":317:39)
#loc114 = loc("/usr/local/lib/python3.12/dist-packages/vllm/model_executor/layers/fla/ops/solve_tril.py":317:35)
#loc115 = loc("/usr/local/lib/python3.12/dist-packages/vllm/model_executor/layers/fla/ops/solve_tril.py":317:43)
#loc116 = loc("/usr/local/lib/python3.12/dist-packages/vllm/model_executor/layers/fla/ops/solve_tril.py":317:61)
#loc117 = loc("/usr/local/lib/python3.12/dist-packages/vllm/model_executor/layers/fla/ops/solve_tril.py":317:8)
#loc118 = loc("/usr/local/lib/python3.12/dist-packages/vllm/model_executor/layers/fla/ops/solve_tril.py":318:15)
#loc119 = loc("/usr/local/lib/python3.12/dist-packages/vllm/model_executor/layers/fla/ops/solve_tril.py":319:15)
#loc120 = loc("/usr/local/lib/python3.12/dist-packages/vllm/model_executor/layers/fla/ops/solve_tril.py":320:15)
#loc121 = loc("/usr/local/lib/python3.12/dist-packages/vllm/model_executor/layers/fla/ops/solve_tril.py":321:15)
#loc122 = loc("/usr/local/lib/python3.12/dist-packages/vllm/model_executor/layers/fla/ops/solve_tril.py":342:25)
#loc123 = loc("/usr/local/lib/python3.12/dist-packages/vllm/model_executor/layers/fla/ops/solve_tril.py":343:25)
#loc124 = loc("/usr/local/lib/python3.12/dist-packages/vllm/model_executor/layers/fla/ops/solve_tril.py":344:25)
#loc125 = loc("/usr/local/lib/python3.12/dist-packages/vllm/model_executor/layers/fla/ops/solve_tril.py":345:25)
#loc126 = loc("/usr/local/lib/python3.12/dist-packages/vllm/model_executor/layers/fla/ops/solve_tril.py":346:25)
#loc127 = loc("/usr/local/lib/python3.12/dist-packages/vllm/model_executor/layers/fla/ops/solve_tril.py":347:25)
#loc128 = loc("/usr/local/lib/python3.12/dist-packages/vllm/model_executor/layers/fla/ops/solve_tril.py":357:24)
#loc129 = loc("/usr/local/lib/python3.12/dist-packages/vllm/model_executor/layers/fla/ops/solve_tril.py":358:8)
#loc130 = loc("/usr/local/lib/python3.12/dist-packages/vllm/model_executor/layers/fla/ops/solve_tril.py":356:15)
#loc131 = loc("/usr/local/lib/python3.12/dist-packages/vllm/model_executor/layers/fla/ops/solve_tril.py":362:24)
#loc132 = loc("/usr/local/lib/python3.12/dist-packages/vllm/model_executor/layers/fla/ops/solve_tril.py":363:8)
#loc133 = loc("/usr/local/lib/python3.12/dist-packages/vllm/model_executor/layers/fla/ops/solve_tril.py":361:15)
#loc134 = loc("/usr/local/lib/python3.12/dist-packages/vllm/model_executor/layers/fla/ops/solve_tril.py":367:24)
#loc135 = loc("/usr/local/lib/python3.12/dist-packages/vllm/model_executor/layers/fla/ops/solve_tril.py":368:8)
#loc136 = loc("/usr/local/lib/python3.12/dist-packages/vllm/model_executor/layers/fla/ops/solve_tril.py":366:15)
#loc137 = loc("/usr/local/lib/python3.12/dist-packages/vllm/model_executor/layers/fla/ops/solve_tril.py":374:23)
#loc138 = loc("/usr/local/lib/python3.12/dist-packages/vllm/model_executor/layers/fla/ops/solve_tril.py":375:25)
#loc139 = loc("/usr/local/lib/python3.12/dist-packages/vllm/model_executor/layers/fla/ops/solve_tril.py":374:8)
#loc140 = loc("/usr/local/lib/python3.12/dist-packages/vllm/model_executor/layers/fla/ops/solve_tril.py":372:15)
#loc141 = loc("/usr/local/lib/python3.12/dist-packages/vllm/model_executor/layers/fla/ops/solve_tril.py":380:23)
#loc142 = loc("/usr/local/lib/python3.12/dist-packages/vllm/model_executor/layers/fla/ops/solve_tril.py":381:25)
#loc143 = loc("/usr/local/lib/python3.12/dist-packages/vllm/model_executor/layers/fla/ops/solve_tril.py":380:8)
#loc144 = loc("/usr/local/lib/python3.12/dist-packages/vllm/model_executor/layers/fla/ops/solve_tril.py":378:15)
#loc145 = loc("/usr/local/lib/python3.12/dist-packages/vllm/model_executor/layers/fla/ops/solve_tril.py":386:23)
#loc146 = loc("/usr/local/lib/python3.12/dist-packages/vllm/model_executor/layers/fla/ops/solve_tril.py":387:25)
#loc147 = loc("/usr/local/lib/python3.12/dist-packages/vllm/model_executor/layers/fla/ops/solve_tril.py":388:25)
#loc148 = loc("/usr/local/lib/python3.12/dist-packages/vllm/model_executor/layers/fla/ops/solve_tril.py":386:8)
#loc149 = loc("/usr/local/lib/python3.12/dist-packages/vllm/model_executor/layers/fla/ops/solve_tril.py":384:15)
#loc150 = loc("/usr/local/lib/python3.12/dist-packages/vllm/model_executor/layers/fla/ops/solve_tril.py":425:23)
#loc151 = loc("/usr/local/lib/python3.12/dist-packages/vllm/model_executor/layers/fla/ops/solve_tril.py":425:12)
#loc152 = loc("/usr/local/lib/python3.12/dist-packages/vllm/model_executor/layers/fla/ops/solve_tril.py":430:23)
#loc153 = loc("/usr/local/lib/python3.12/dist-packages/vllm/model_executor/layers/fla/ops/solve_tril.py":430:12)
#loc154 = loc("/usr/local/lib/python3.12/dist-packages/vllm/model_executor/layers/fla/ops/solve_tril.py":435:23)
#loc155 = loc("/usr/local/lib/python3.12/dist-packages/vllm/model_executor/layers/fla/ops/solve_tril.py":435:12)
#loc156 = loc("/usr/local/lib/python3.12/dist-packages/vllm/model_executor/layers/fla/ops/solve_tril.py":440:23)
#loc157 = loc("/usr/local/lib/python3.12/dist-packages/vllm/model_executor/layers/fla/ops/solve_tril.py":440:12)
#loc158 = loc("/usr/local/lib/python3.12/dist-packages/vllm/model_executor/layers/fla/ops/solve_tril.py":445:23)
#loc159 = loc("/usr/local/lib/python3.12/dist-packages/vllm/model_executor/layers/fla/ops/solve_tril.py":445:12)
#loc160 = loc("/usr/local/lib/python3.12/dist-packages/vllm/model_executor/layers/fla/ops/solve_tril.py":450:23)
#loc161 = loc("/usr/local/lib/python3.12/dist-packages/vllm/model_executor/layers/fla/ops/solve_tril.py":450:12)
#loc162 = loc("/usr/local/lib/python3.12/dist-packages/vllm/model_executor/layers/fla/ops/solve_tril.py":455:23)
#loc163 = loc("/usr/local/lib/python3.12/dist-packages/vllm/model_executor/layers/fla/ops/solve_tril.py":455:12)
#loc164 = loc("/usr/local/lib/python3.12/dist-packages/vllm/model_executor/layers/fla/ops/solve_tril.py":460:23)
#loc165 = loc("/usr/local/lib/python3.12/dist-packages/vllm/model_executor/layers/fla/ops/solve_tril.py":460:12)
#loc166 = loc("/usr/local/lib/python3.12/dist-packages/vllm/model_executor/layers/fla/ops/solve_tril.py":465:23)
#loc167 = loc("/usr/local/lib/python3.12/dist-packages/vllm/model_executor/layers/fla/ops/solve_tril.py":465:12)
#loc168 = loc("/usr/local/lib/python3.12/dist-packages/vllm/model_executor/layers/fla/ops/solve_tril.py":470:23)
#loc169 = loc("/usr/local/lib/python3.12/dist-packages/vllm/model_executor/layers/fla/ops/solve_tril.py":470:12)
#loc170 = loc("/usr/local/lib/python3.12/dist-packages/vllm/model_executor/layers/fla/ops/solve_tril.py":392:4)
#loc176 = loc("T"(#loc17))
#loc177 = loc("o_i"(#loc18))
#loc178 = loc("m_A"(#loc19))
#loc179 = loc("m_A"(#loc20))
#loc180 = loc("m_A"(#loc21))
#loc181 = loc("m_I"(#loc22))
#loc182 = loc("A"(#loc23))
#loc183 = loc("A"(#loc24))
#loc184 = loc("A"(#loc25))
#loc185 = loc("A"(#loc26))
#loc186 = loc("Ai"(#loc27))
#loc187 = loc("p_A_11"(#loc28))
#loc188 = loc("p_A_11"(#loc29))
#loc189 = loc("p_A_22"(#loc30))
#loc190 = loc("p_A_22"(#loc31))
#loc191 = loc("p_A_33"(#loc32))
#loc192 = loc("p_A_33"(#loc33))
#loc193 = loc("p_A_44"(#loc34))
#loc194 = loc("p_A_44"(#loc35))
#loc195 = loc("b_Ai_11"(#loc36))
#loc196 = loc("b_Ai_22"(#loc37))
#loc197 = loc("b_Ai_33"(#loc38))
#loc198 = loc("b_Ai_44"(#loc39))
#loc199 = loc("b_Ai_11"(#loc40))
#loc200 = loc("b_Ai_11"(#loc41))
#loc201 = loc("b_Ai_22"(#loc42))
#loc202 = loc("b_Ai_22"(#loc43))
#loc203 = loc("b_Ai_33"(#loc44))
#loc204 = loc("b_Ai_33"(#loc45))
#loc205 = loc("b_Ai_44"(#loc46))
#loc206 = loc("b_Ai_44"(#loc47))
#loc207 = loc("b_Ai_11"(#loc50))
#loc208 = loc("b_a_11"(#loc51))
#loc209 = loc("b_a_11"(#loc52))
#loc210 = loc("b_a_11"(#loc53))
#loc211 = loc("b_a_11"(#loc54))
#loc212 = loc("b_a_11"(#loc55))
#loc213 = loc("b_a_11"(#loc56))
#loc214 = loc("b_a_11"(#loc57))
#loc215 = loc("b_a_11"(#loc58))
#loc217 = loc("b_a_11"(#loc62))
#loc218 = loc("b_Ai_11"(#loc63))
#loc219 = loc("b_Ai_11"(#loc64))
#loc220 = loc("b_Ai_11"(#loc65))
#loc221 = loc("b_Ai_22"(#loc4))
#loc222 = loc("b_a_22"(#loc68))
#loc223 = loc("b_a_22"(#loc69))
#loc224 = loc("b_a_22"(#loc70))
#loc225 = loc("b_a_22"(#loc71))
#loc226 = loc("b_a_22"(#loc72))
#loc227 = loc("b_a_22"(#loc73))
#loc228 = loc("b_a_22"(#loc74))
#loc229 = loc("b_a_22"(#loc75))
#loc230 = loc("b_a_22"(#loc76))
#loc232 = loc("b_a_22"(#loc78))
#loc233 = loc("b_Ai_22"(#loc79))
#loc234 = loc("b_Ai_22"(#loc80))
#loc235 = loc("b_Ai_22"(#loc81))
#loc236 = loc("b_Ai_22"(#loc82))
#loc237 = loc("b_Ai_33"(#loc3))
#loc238 = loc("b_a_33"(#loc85))
#loc239 = loc("b_a_33"(#loc86))
#loc240 = loc("b_a_33"(#loc87))
#loc241 = loc("b_a_33"(#loc88))
#loc242 = loc("b_a_33"(#loc89))
#loc243 = loc("b_a_33"(#loc90))
#loc244 = loc("b_a_33"(#loc91))
#loc245 = loc("b_a_33"(#loc92))
#loc246 = loc("b_a_33"(#loc93))
#loc248 = loc("b_a_33"(#loc95))
#loc249 = loc("b_Ai_33"(#loc96))
#loc250 = loc("b_Ai_33"(#loc97))
#loc251 = loc("b_Ai_33"(#loc98))
#loc252 = loc("b_Ai_33"(#loc99))
#loc253 = loc("b_Ai_44"(#loc2))
#loc254 = loc("b_a_44"(#loc102))
#loc255 = loc("b_a_44"(#loc103))
#loc256 = loc("b_a_44"(#loc104))
#loc257 = loc("b_a_44"(#loc105))
#loc258 = loc("b_a_44"(#loc106))
#loc259 = loc("b_a_44"(#loc107))
#loc260 = loc("b_a_44"(#loc108))
#loc261 = loc("b_a_44"(#loc109))
#loc262 = loc("b_a_44"(#loc110))
#loc264 = loc("b_a_44"(#loc112))
#loc265 = loc("b_Ai_44"(#loc113))
#loc266 = loc("b_Ai_44"(#loc114))
#loc267 = loc("b_Ai_44"(#loc115))
#loc268 = loc("b_Ai_44"(#loc116))
#loc269 = loc("b_Ai_11"(#loc118))
#loc270 = loc("b_Ai_22"(#loc119))
#loc271 = loc("b_Ai_33"(#loc120))
#loc272 = loc("b_Ai_44"(#loc121))
#loc273 = loc("b_A_21"(#loc122))
#loc274 = loc("b_A_31"(#loc123))
#loc275 = loc("b_A_32"(#loc124))
#loc276 = loc("b_A_41"(#loc125))
#loc277 = loc("b_A_42"(#loc126))
#loc278 = loc("b_A_43"(#loc127))
#loc279 = loc("b_Ai_21"(#loc128))
#loc280 = loc("b_Ai_21"(#loc129))
#loc281 = loc("b_Ai_21"(#loc130))
#loc282 = loc("b_Ai_32"(#loc131))
#loc283 = loc("b_Ai_32"(#loc132))
#loc284 = loc("b_Ai_32"(#loc133))
#loc285 = loc("b_Ai_43"(#loc134))
#loc286 = loc("b_Ai_43"(#loc135))
#loc287 = loc("b_Ai_43"(#loc136))
#loc288 = loc("b_Ai_31"(#loc137))
#loc289 = loc("b_Ai_31"(#loc138))
#loc290 = loc("b_Ai_31"(#loc139))
#loc291 = loc("b_Ai_31"(#loc140))
#loc292 = loc("b_Ai_42"(#loc141))
#loc293 = loc("b_Ai_42"(#loc142))
#loc294 = loc("b_Ai_42"(#loc143))
#loc295 = loc("b_Ai_42"(#loc144))
#loc296 = loc("b_Ai_41"(#loc145))
#loc297 = loc("b_Ai_41"(#loc146))
#loc298 = loc("b_Ai_41"(#loc147))
#loc299 = loc("b_Ai_41"(#loc148))
#loc300 = loc("b_Ai_41"(#loc149))
#loc301 = loc(callsite(#loc59 at #loc216))
#loc303 = loc(callsite(#loc59 at #loc231))
#loc305 = loc(callsite(#loc59 at #loc247))
#loc307 = loc(callsite(#loc59 at #loc263))
#loc309 = loc(callsite(#loc61 at #loc301))
#loc310 = loc(callsite(#loc61 at #loc303))
#loc311 = loc(callsite(#loc61 at #loc305))
#loc312 = loc(callsite(#loc61 at #loc307))
