#loc = loc("/root/.cache/vllm/torch_compile_cache/torch_aot_compile/61bda05feca29378847c32f031efa5c8dba258f38b0176a06a3e99e41df8ca50/inductor_cache/l7/cl7haw5qabzqznnb6qlemhcc6d4czcipfyxji6et5j3lygw6hy2i.py":18:0)
#loc52 = loc("/usr/local/lib/python3.12/dist-packages/triton/language/standard.py":287:0)
#loc54 = loc(unknown)
#loc57 = loc("/usr/local/lib/python3.12/dist-packages/triton/language/standard.py":262:0)
#loc61 = loc("in_ptr0"(#loc))
#loc62 = loc("in_ptr1"(#loc))
#loc63 = loc("in_ptr2"(#loc))
#loc64 = loc("out_ptr1"(#loc))
#loc65 = loc("xnumel"(#loc))
#loc66 = loc("r0_numel"(#loc))
#loc113 = loc("input"(#loc52))
#loc114 = loc("a"(#loc57))
#loc115 = loc("b"(#loc57))
module {
  tt.func public @triton_per_fused_1(%in_ptr0: !tt.ptr<f16> {tt.divisibility = 16 : i32} loc("in_ptr0"(#loc)), %in_ptr1: !tt.ptr<f16> {tt.divisibility = 16 : i32} loc("in_ptr1"(#loc)), %in_ptr2: !tt.ptr<f16> {tt.divisibility = 16 : i32} loc("in_ptr2"(#loc)), %out_ptr1: !tt.ptr<f16> {tt.divisibility = 16 : i32} loc("out_ptr1"(#loc)), %xnumel: i32 {tt.divisibility = 16 : i32} loc("xnumel"(#loc)), %r0_numel: i32 {tt.divisibility = 16 : i32} loc("r0_numel"(#loc))) attributes {noinline = false} {
    %r0_numel_0 = arith.constant 128 : i32 loc(#loc67)
    %xoffset = tt.get_program_id x : i32 loc(#loc68)
    %xoffset_1 = arith.constant 8 : i32 loc(#loc69)
    %xoffset_2 = arith.constant 8 : i32 loc(#loc69)
    %xoffset_3 = arith.muli %xoffset, %xoffset_2 : i32 loc(#loc69)
    %xindex = tt.make_range {end = 8 : i32, start = 0 : i32} : tensor<8xi32> loc(#loc70)
    %xindex_4 = tt.expand_dims %xindex {axis = 1 : i32} : tensor<8xi32> -> tensor<8x1xi32> loc(#loc71)
    %xindex_5 = tt.splat %xoffset_3 : i32 -> tensor<8x1xi32> loc(#loc72)
    %xindex_6 = arith.addi %xindex_5, %xindex_4 : tensor<8x1xi32> loc(#loc72)
    %xmask = tt.splat %xnumel : i32 -> tensor<8x1xi32> loc(#loc73)
    %xmask_7 = arith.cmpi slt, %xindex_6, %xmask : tensor<8x1xi32> loc(#loc73)
    %r0_index = tt.make_range {end = 128 : i32, start = 0 : i32} : tensor<128xi32> loc(#loc74)
    %r0_index_8 = tt.expand_dims %r0_index {axis = 0 : i32} : tensor<128xi32> -> tensor<1x128xi32> loc(#loc75)
    %r0_offset = arith.constant 0 : i32 loc(#loc76)
    %r0_mask = arith.constant true loc(#loc77)
    %r0_mask_9 = arith.constant dense<true> : tensor<128xi1> loc(#loc77)
    %r0_mask_10 = tt.expand_dims %r0_mask_9 {axis = 0 : i32} : tensor<128xi1> -> tensor<1x128xi1> loc(#loc78)
    %tmp0 = arith.constant 128 : i32 loc(#loc79)
    %tmp0_11 = arith.constant 128 : i32 loc(#loc79)
    %tmp0_12 = arith.constant dense<128> : tensor<8x1xi32> loc(#loc79)
    %tmp0_13 = arith.muli %tmp0_12, %xindex_6 : tensor<8x1xi32> loc(#loc79)
    %tmp0_14 = tt.broadcast %r0_index_8 : tensor<1x128xi32> -> tensor<8x128xi32> loc(#loc80)
    %tmp0_15 = tt.broadcast %tmp0_13 : tensor<8x1xi32> -> tensor<8x128xi32> loc(#loc80)
    %tmp0_16 = arith.addi %tmp0_14, %tmp0_15 : tensor<8x128xi32> loc(#loc80)
    %tmp0_17 = tt.splat %in_ptr0 : !tt.ptr<f16> -> tensor<8x128x!tt.ptr<f16>> loc(#loc81)
    %tmp0_18 = tt.addptr %tmp0_17, %tmp0_16 : tensor<8x128x!tt.ptr<f16>>, tensor<8x128xi32> loc(#loc81)
    %tmp0_19 = arith.constant 0.000000e+00 : f32 loc(#loc82)
    %tmp0_20 = tt.broadcast %xmask_7 : tensor<8x1xi1> -> tensor<8x128xi1> loc(#loc82)
    %tmp0_21 = arith.constant dense<0.000000e+00> : tensor<8x128xf32> loc(#loc82)
    %tmp0_22 = arith.truncf %tmp0_21 : tensor<8x128xf32> to tensor<8x128xf16> loc(#loc82)
    %tmp0_23 = tt.load %tmp0_18, %tmp0_20, %tmp0_22 : tensor<8x128x!tt.ptr<f16>> loc(#loc82)
    %tmp0_24 = arith.extf %tmp0_23 : tensor<8x128xf16> to tensor<8x128xf32> loc(#loc83)
    %tmp13 = tt.splat %in_ptr1 : !tt.ptr<f16> -> tensor<1x128x!tt.ptr<f16>> loc(#loc84)
    %tmp13_25 = tt.addptr %tmp13, %r0_index_8 : tensor<1x128x!tt.ptr<f16>>, tensor<1x128xi32> loc(#loc84)
    %tmp13_26 = tt.load %tmp13_25 evictionPolicy = evict_last : tensor<1x128x!tt.ptr<f16>> loc(#loc85)
    %tmp13_27 = arith.extf %tmp13_26 : tensor<1x128xf16> to tensor<1x128xf32> loc(#loc86)
    %tmp16 = arith.constant 16 : i32 loc(#loc87)
    %tmp16_28 = arith.constant 16 : i32 loc(#loc87)
    %tmp16_29 = arith.constant dense<16> : tensor<8x1xi32> loc(#loc87)
    %tmp16_30 = arith.remsi %xindex_6, %tmp16_29 : tensor<8x1xi32> loc(#loc87)
    %tmp16_31 = arith.constant 128 : i32 loc(#loc88)
    %tmp16_32 = arith.constant 128 : i32 loc(#loc88)
    %tmp16_33 = arith.constant dense<128> : tensor<8x1xi32> loc(#loc88)
    %tmp16_34 = arith.muli %tmp16_33, %tmp16_30 : tensor<8x1xi32> loc(#loc88)
    %tmp16_35 = tt.broadcast %r0_index_8 : tensor<1x128xi32> -> tensor<8x128xi32> loc(#loc89)
    %tmp16_36 = tt.broadcast %tmp16_34 : tensor<8x1xi32> -> tensor<8x128xi32> loc(#loc89)
    %tmp16_37 = arith.addi %tmp16_35, %tmp16_36 : tensor<8x128xi32> loc(#loc89)
    %tmp16_38 = arith.constant 16 : i32 loc(#loc90)
    %tmp16_39 = arith.constant 16 : i32 loc(#loc90)
    %tmp16_40 = arith.constant dense<16> : tensor<8x1xi32> loc(#loc90)
    %tmp16_41 = arith.divsi %xindex_6, %tmp16_40 : tensor<8x1xi32> loc(#loc90)
    %tmp16_42 = arith.constant 6144 : i32 loc(#loc91)
    %tmp16_43 = arith.constant 6144 : i32 loc(#loc91)
    %tmp16_44 = arith.constant dense<6144> : tensor<8x1xi32> loc(#loc91)
    %tmp16_45 = arith.muli %tmp16_44, %tmp16_41 : tensor<8x1xi32> loc(#loc91)
    %tmp16_46 = tt.broadcast %tmp16_45 : tensor<8x1xi32> -> tensor<8x128xi32> loc(#loc92)
    %tmp16_47 = arith.addi %tmp16_37, %tmp16_46 : tensor<8x128xi32> loc(#loc92)
    %tmp16_48 = tt.splat %in_ptr2 : !tt.ptr<f16> -> tensor<8x128x!tt.ptr<f16>> loc(#loc93)
    %tmp16_49 = tt.addptr %tmp16_48, %tmp16_47 : tensor<8x128x!tt.ptr<f16>>, tensor<8x128xi32> loc(#loc93)
    %tmp16_50 = arith.constant 0.000000e+00 : f32 loc(#loc94)
    %tmp16_51 = tt.broadcast %xmask_7 : tensor<8x1xi1> -> tensor<8x128xi1> loc(#loc94)
    %tmp16_52 = arith.constant dense<0.000000e+00> : tensor<8x128xf32> loc(#loc94)
    %tmp16_53 = arith.truncf %tmp16_52 : tensor<8x128xf32> to tensor<8x128xf16> loc(#loc94)
    %tmp16_54 = tt.load %tmp16_49, %tmp16_51, %tmp16_53 : tensor<8x128x!tt.ptr<f16>> loc(#loc94)
    %tmp16_55 = arith.extf %tmp16_54 : tensor<8x128xf16> to tensor<8x128xf32> loc(#loc95)
    %tmp2 = arith.mulf %tmp0_24, %tmp0_24 : tensor<8x128xf32> loc(#loc96)
    %tmp5 = arith.constant 0 : i32 loc(#loc97)
    %tmp5_56 = arith.constant 0.000000e+00 : f32 loc(#loc97)
    %tmp5_57 = arith.constant dense<0.000000e+00> : tensor<8x128xf32> loc(#loc97)
    %tmp5_58 = tt.broadcast %xmask_7 : tensor<8x1xi1> -> tensor<8x128xi1> loc(#loc97)
    %tmp5_59 = arith.select %tmp5_58, %tmp2, %tmp5_57 : tensor<8x128xi1>, tensor<8x128xf32> loc(#loc97)
    %tmp6 = tt.call @"triton.language.standard.sum__fp32S8_128S__(1,)cconstexpr_1__(2,)cconstexpr_False__(3,)cNone"(%tmp5_59) : (tensor<8x128xf32>) -> tensor<8xf32> loc(#loc98)
    %tmp6_60 = tt.expand_dims %tmp6 {axis = 1 : i32} : tensor<8xf32> -> tensor<8x1xf32> loc(#loc99)
    %tmp7 = arith.constant 1.280000e+02 : f32 loc(#loc100)
    %tmp7_61 = arith.constant dense<1.280000e+02> : tensor<1x1xf32> loc(#loc100)
    %tmp8 = arith.constant dense<1.280000e+02> : tensor<8x1xf32> loc(#loc101)
    %tmp8_62 = arith.divf %tmp6_60, %tmp8 : tensor<8x1xf32> loc(#loc101)
    %tmp9 = arith.constant 9.99999997E-7 : f32 loc(#loc102)
    %tmp9_63 = arith.constant dense<9.99999997E-7> : tensor<1x1xf32> loc(#loc102)
    %tmp10 = arith.constant dense<9.99999997E-7> : tensor<8x1xf32> loc(#loc103)
    %tmp10_64 = arith.addf %tmp8_62, %tmp10 : tensor<8x1xf32> loc(#loc103)
    %tmp11 = tt.extern_elementwise %tmp10_64 {libname = "", libpath = "", pure = true, symbol = "__nv_rsqrtf"} : (tensor<8x1xf32>) -> tensor<8x1xf32> loc(#loc104)
    %tmp12 = tt.broadcast %tmp11 : tensor<8x1xf32> -> tensor<8x128xf32> loc(#loc105)
    %tmp12_65 = arith.mulf %tmp0_24, %tmp12 : tensor<8x128xf32> loc(#loc105)
    %tmp15 = tt.broadcast %tmp13_27 : tensor<1x128xf32> -> tensor<8x128xf32> loc(#loc106)
    %tmp15_66 = arith.mulf %tmp12_65, %tmp15 : tensor<8x128xf32> loc(#loc106)
    %tmp18 = arith.constant 0.000000e+00 : f32 loc(#loc107)
    %tmp18_67 = arith.constant dense<0.000000e+00> : tensor<8x128xf32> loc(#loc107)
    %tmp18_68 = arith.subf %tmp18_67, %tmp16_55 : tensor<8x128xf32> loc(#loc107)
    %tmp19 = tt.extern_elementwise %tmp18_68 {libname = "", libpath = "", pure = true, symbol = "__nv_expf"} : (tensor<8x128xf32>) -> tensor<8x128xf32> loc(#loc108)
    %tmp20 = arith.constant 1.000000e+00 : f32 loc(#loc109)
    %tmp20_69 = arith.constant dense<1.000000e+00> : tensor<1x1xf32> loc(#loc109)
    %tmp21 = arith.constant dense<1.000000e+00> : tensor<8x128xf32> loc(#loc110)
    %tmp21_70 = arith.addf %tmp19, %tmp21 : tensor<8x128xf32> loc(#loc110)
    %tmp22 = arith.divf %tmp16_55, %tmp21_70 : tensor<8x128xf32> loc(#loc111)
    %tmp23 = arith.mulf %tmp15_66, %tmp22 : tensor<8x128xf32> loc(#loc112)
    %c128_i32 = arith.constant 128 : i32 loc(#loc47)
    %c128_i32_71 = arith.constant 128 : i32 loc(#loc47)
    %cst = arith.constant dense<128> : tensor<8x1xi32> loc(#loc47)
    %0 = arith.muli %cst, %xindex_6 : tensor<8x1xi32> loc(#loc47)
    %1 = tt.broadcast %r0_index_8 : tensor<1x128xi32> -> tensor<8x128xi32> loc(#loc48)
    %2 = tt.broadcast %0 : tensor<8x1xi32> -> tensor<8x128xi32> loc(#loc48)
    %3 = arith.addi %1, %2 : tensor<8x128xi32> loc(#loc48)
    %4 = tt.splat %out_ptr1 : !tt.ptr<f16> -> tensor<8x128x!tt.ptr<f16>> loc(#loc49)
    %5 = tt.addptr %4, %3 : tensor<8x128x!tt.ptr<f16>>, tensor<8x128xi32> loc(#loc49)
    %6 = tt.broadcast %xmask_7 : tensor<8x1xi1> -> tensor<8x128xi1> loc(#loc50)
    %7 = arith.truncf %tmp23 : tensor<8x128xf32> to tensor<8x128xf16> loc(#loc50)
    tt.store %5, %7, %6 : tensor<8x128x!tt.ptr<f16>> loc(#loc50)
    tt.return loc(#loc51)
  } loc(#loc)
  tt.func private @"triton.language.standard.sum__fp32S8_128S__(1,)cconstexpr_1__(2,)cconstexpr_False__(3,)cNone"(%input: tensor<8x128xf32> loc("input"(#loc52))) -> tensor<8xf32> attributes {noinline = false} {
    %0 = "tt.reduce"(%input) <{axis = 1 : i32}> ({
    ^bb0(%arg1: f32 loc(unknown), %arg2: f32 loc(unknown)):
      %2 = tt.call @triton.language.standard._sum_combine__fp32_fp32__(%arg1, %arg2) : (f32, f32) -> f32 loc(#loc53)
      tt.reduce.return %2 : f32 loc(#loc53)
    }) : (tensor<8x128xf32>) -> tensor<8xf32> loc(#loc53)
    tt.return %0 : tensor<8xf32> loc(#loc55)
  ^bb1:  // no predecessors
    %1 = ub.poison : tensor<8xf32> loc(#loc56)
    tt.return %1 : tensor<8xf32> loc(#loc56)
  } loc(#loc52)
  tt.func private @triton.language.standard._sum_combine__fp32_fp32__(%a: f32 loc("a"(#loc57)), %b: f32 loc("b"(#loc57))) -> f32 attributes {noinline = false} {
    %0 = arith.addf %a, %b : f32 loc(#loc58)
    tt.return %0 : f32 loc(#loc59)
  ^bb1:  // no predecessors
    %1 = ub.poison : f32 loc(#loc60)
    tt.return %1 : f32 loc(#loc60)
  } loc(#loc57)
} loc(#loc)
#loc1 = loc("/root/.cache/vllm/torch_compile_cache/torch_aot_compile/61bda05feca29378847c32f031efa5c8dba258f38b0176a06a3e99e41df8ca50/inductor_cache/l7/cl7haw5qabzqznnb6qlemhcc6d4czcipfyxji6et5j3lygw6hy2i.py":19:15)
#loc2 = loc("/root/.cache/vllm/torch_compile_cache/torch_aot_compile/61bda05feca29378847c32f031efa5c8dba258f38b0176a06a3e99e41df8ca50/inductor_cache/l7/cl7haw5qabzqznnb6qlemhcc6d4czcipfyxji6et5j3lygw6hy2i.py":23:28)
#loc3 = loc("/root/.cache/vllm/torch_compile_cache/torch_aot_compile/61bda05feca29378847c32f031efa5c8dba258f38b0176a06a3e99e41df8ca50/inductor_cache/l7/cl7haw5qabzqznnb6qlemhcc6d4czcipfyxji6et5j3lygw6hy2i.py":23:33)
#loc4 = loc("/root/.cache/vllm/torch_compile_cache/torch_aot_compile/61bda05feca29378847c32f031efa5c8dba258f38b0176a06a3e99e41df8ca50/inductor_cache/l7/cl7haw5qabzqznnb6qlemhcc6d4czcipfyxji6et5j3lygw6hy2i.py":24:36)
#loc5 = loc("/root/.cache/vllm/torch_compile_cache/torch_aot_compile/61bda05feca29378847c32f031efa5c8dba258f38b0176a06a3e99e41df8ca50/inductor_cache/l7/cl7haw5qabzqznnb6qlemhcc6d4czcipfyxji6et5j3lygw6hy2i.py":24:44)
#loc6 = loc("/root/.cache/vllm/torch_compile_cache/torch_aot_compile/61bda05feca29378847c32f031efa5c8dba258f38b0176a06a3e99e41df8ca50/inductor_cache/l7/cl7haw5qabzqznnb6qlemhcc6d4czcipfyxji6et5j3lygw6hy2i.py":24:23)
#loc7 = loc("/root/.cache/vllm/torch_compile_cache/torch_aot_compile/61bda05feca29378847c32f031efa5c8dba258f38b0176a06a3e99e41df8ca50/inductor_cache/l7/cl7haw5qabzqznnb6qlemhcc6d4czcipfyxji6et5j3lygw6hy2i.py":25:21)
#loc8 = loc("/root/.cache/vllm/torch_compile_cache/torch_aot_compile/61bda05feca29378847c32f031efa5c8dba258f38b0176a06a3e99e41df8ca50/inductor_cache/l7/cl7haw5qabzqznnb6qlemhcc6d4czcipfyxji6et5j3lygw6hy2i.py":26:28)
#loc9 = loc("/root/.cache/vllm/torch_compile_cache/torch_aot_compile/61bda05feca29378847c32f031efa5c8dba258f38b0176a06a3e99e41df8ca50/inductor_cache/l7/cl7haw5qabzqznnb6qlemhcc6d4czcipfyxji6et5j3lygw6hy2i.py":26:38)
#loc10 = loc("/root/.cache/vllm/torch_compile_cache/torch_aot_compile/61bda05feca29378847c32f031efa5c8dba258f38b0176a06a3e99e41df8ca50/inductor_cache/l7/cl7haw5qabzqznnb6qlemhcc6d4czcipfyxji6et5j3lygw6hy2i.py":27:16)
#loc11 = loc("/root/.cache/vllm/torch_compile_cache/torch_aot_compile/61bda05feca29378847c32f031efa5c8dba258f38b0176a06a3e99e41df8ca50/inductor_cache/l7/cl7haw5qabzqznnb6qlemhcc6d4czcipfyxji6et5j3lygw6hy2i.py":28:40)
#loc12 = loc("/root/.cache/vllm/torch_compile_cache/torch_aot_compile/61bda05feca29378847c32f031efa5c8dba258f38b0176a06a3e99e41df8ca50/inductor_cache/l7/cl7haw5qabzqznnb6qlemhcc6d4czcipfyxji6et5j3lygw6hy2i.py":28:49)
#loc13 = loc("/root/.cache/vllm/torch_compile_cache/torch_aot_compile/61bda05feca29378847c32f031efa5c8dba258f38b0176a06a3e99e41df8ca50/inductor_cache/l7/cl7haw5qabzqznnb6qlemhcc6d4czcipfyxji6et5j3lygw6hy2i.py":33:41)
#loc14 = loc("/root/.cache/vllm/torch_compile_cache/torch_aot_compile/61bda05feca29378847c32f031efa5c8dba258f38b0176a06a3e99e41df8ca50/inductor_cache/l7/cl7haw5qabzqznnb6qlemhcc6d4czcipfyxji6et5j3lygw6hy2i.py":33:37)
#loc15 = loc("/root/.cache/vllm/torch_compile_cache/torch_aot_compile/61bda05feca29378847c32f031efa5c8dba258f38b0176a06a3e99e41df8ca50/inductor_cache/l7/cl7haw5qabzqznnb6qlemhcc6d4czcipfyxji6et5j3lygw6hy2i.py":33:30)
#loc16 = loc("/root/.cache/vllm/torch_compile_cache/torch_aot_compile/61bda05feca29378847c32f031efa5c8dba258f38b0176a06a3e99e41df8ca50/inductor_cache/l7/cl7haw5qabzqznnb6qlemhcc6d4czcipfyxji6et5j3lygw6hy2i.py":33:46)
#loc17 = loc("/root/.cache/vllm/torch_compile_cache/torch_aot_compile/61bda05feca29378847c32f031efa5c8dba258f38b0176a06a3e99e41df8ca50/inductor_cache/l7/cl7haw5qabzqznnb6qlemhcc6d4czcipfyxji6et5j3lygw6hy2i.py":33:67)
#loc18 = loc("/root/.cache/vllm/torch_compile_cache/torch_aot_compile/61bda05feca29378847c32f031efa5c8dba258f38b0176a06a3e99e41df8ca50/inductor_cache/l7/cl7haw5qabzqznnb6qlemhcc6d4czcipfyxji6et5j3lygw6hy2i.py":34:31)
#loc19 = loc("/root/.cache/vllm/torch_compile_cache/torch_aot_compile/61bda05feca29378847c32f031efa5c8dba258f38b0176a06a3e99e41df8ca50/inductor_cache/l7/cl7haw5qabzqznnb6qlemhcc6d4czcipfyxji6et5j3lygw6hy2i.py":34:38)
#loc20 = loc("/root/.cache/vllm/torch_compile_cache/torch_aot_compile/61bda05feca29378847c32f031efa5c8dba258f38b0176a06a3e99e41df8ca50/inductor_cache/l7/cl7haw5qabzqznnb6qlemhcc6d4czcipfyxji6et5j3lygw6hy2i.py":34:77)
#loc21 = loc("/root/.cache/vllm/torch_compile_cache/torch_aot_compile/61bda05feca29378847c32f031efa5c8dba258f38b0176a06a3e99e41df8ca50/inductor_cache/l7/cl7haw5qabzqznnb6qlemhcc6d4czcipfyxji6et5j3lygw6hy2i.py":35:49)
#loc22 = loc("/root/.cache/vllm/torch_compile_cache/torch_aot_compile/61bda05feca29378847c32f031efa5c8dba258f38b0176a06a3e99e41df8ca50/inductor_cache/l7/cl7haw5qabzqznnb6qlemhcc6d4czcipfyxji6et5j3lygw6hy2i.py":35:44)
#loc23 = loc("/root/.cache/vllm/torch_compile_cache/torch_aot_compile/61bda05feca29378847c32f031efa5c8dba258f38b0176a06a3e99e41df8ca50/inductor_cache/l7/cl7haw5qabzqznnb6qlemhcc6d4czcipfyxji6et5j3lygw6hy2i.py":35:38)
#loc24 = loc("/root/.cache/vllm/torch_compile_cache/torch_aot_compile/61bda05feca29378847c32f031efa5c8dba258f38b0176a06a3e99e41df8ca50/inductor_cache/l7/cl7haw5qabzqznnb6qlemhcc6d4czcipfyxji6et5j3lygw6hy2i.py":35:68)
#loc25 = loc("/root/.cache/vllm/torch_compile_cache/torch_aot_compile/61bda05feca29378847c32f031efa5c8dba258f38b0176a06a3e99e41df8ca50/inductor_cache/l7/cl7haw5qabzqznnb6qlemhcc6d4czcipfyxji6et5j3lygw6hy2i.py":35:62)
#loc26 = loc("/root/.cache/vllm/torch_compile_cache/torch_aot_compile/61bda05feca29378847c32f031efa5c8dba258f38b0176a06a3e99e41df8ca50/inductor_cache/l7/cl7haw5qabzqznnb6qlemhcc6d4czcipfyxji6et5j3lygw6hy2i.py":35:56)
#loc27 = loc("/root/.cache/vllm/torch_compile_cache/torch_aot_compile/61bda05feca29378847c32f031efa5c8dba258f38b0176a06a3e99e41df8ca50/inductor_cache/l7/cl7haw5qabzqznnb6qlemhcc6d4czcipfyxji6et5j3lygw6hy2i.py":35:31)
#loc28 = loc("/root/.cache/vllm/torch_compile_cache/torch_aot_compile/61bda05feca29378847c32f031efa5c8dba258f38b0176a06a3e99e41df8ca50/inductor_cache/l7/cl7haw5qabzqznnb6qlemhcc6d4czcipfyxji6et5j3lygw6hy2i.py":35:74)
#loc29 = loc("/root/.cache/vllm/torch_compile_cache/torch_aot_compile/61bda05feca29378847c32f031efa5c8dba258f38b0176a06a3e99e41df8ca50/inductor_cache/l7/cl7haw5qabzqznnb6qlemhcc6d4czcipfyxji6et5j3lygw6hy2i.py":35:95)
#loc30 = loc("/root/.cache/vllm/torch_compile_cache/torch_aot_compile/61bda05feca29378847c32f031efa5c8dba258f38b0176a06a3e99e41df8ca50/inductor_cache/l7/cl7haw5qabzqznnb6qlemhcc6d4czcipfyxji6et5j3lygw6hy2i.py":37:18)
#loc31 = loc("/root/.cache/vllm/torch_compile_cache/torch_aot_compile/61bda05feca29378847c32f031efa5c8dba258f38b0176a06a3e99e41df8ca50/inductor_cache/l7/cl7haw5qabzqznnb6qlemhcc6d4czcipfyxji6et5j3lygw6hy2i.py":39:33)
#loc32 = loc("/root/.cache/vllm/torch_compile_cache/torch_aot_compile/61bda05feca29378847c32f031efa5c8dba258f38b0176a06a3e99e41df8ca50/inductor_cache/l7/cl7haw5qabzqznnb6qlemhcc6d4czcipfyxji6et5j3lygw6hy2i.py":40:24)
#loc33 = loc("/root/.cache/vllm/torch_compile_cache/torch_aot_compile/61bda05feca29378847c32f031efa5c8dba258f38b0176a06a3e99e41df8ca50/inductor_cache/l7/cl7haw5qabzqznnb6qlemhcc6d4czcipfyxji6et5j3lygw6hy2i.py":40:27)
#loc34 = loc("/root/.cache/vllm/torch_compile_cache/torch_aot_compile/61bda05feca29378847c32f031efa5c8dba258f38b0176a06a3e99e41df8ca50/inductor_cache/l7/cl7haw5qabzqznnb6qlemhcc6d4czcipfyxji6et5j3lygw6hy2i.py":41:34)
#loc35 = loc("/root/.cache/vllm/torch_compile_cache/torch_aot_compile/61bda05feca29378847c32f031efa5c8dba258f38b0176a06a3e99e41df8ca50/inductor_cache/l7/cl7haw5qabzqznnb6qlemhcc6d4czcipfyxji6et5j3lygw6hy2i.py":42:19)
#loc36 = loc("/root/.cache/vllm/torch_compile_cache/torch_aot_compile/61bda05feca29378847c32f031efa5c8dba258f38b0176a06a3e99e41df8ca50/inductor_cache/l7/cl7haw5qabzqznnb6qlemhcc6d4czcipfyxji6et5j3lygw6hy2i.py":43:34)
#loc37 = loc("/root/.cache/vllm/torch_compile_cache/torch_aot_compile/61bda05feca29378847c32f031efa5c8dba258f38b0176a06a3e99e41df8ca50/inductor_cache/l7/cl7haw5qabzqznnb6qlemhcc6d4czcipfyxji6et5j3lygw6hy2i.py":44:19)
#loc38 = loc("/root/.cache/vllm/torch_compile_cache/torch_aot_compile/61bda05feca29378847c32f031efa5c8dba258f38b0176a06a3e99e41df8ca50/inductor_cache/l7/cl7haw5qabzqznnb6qlemhcc6d4czcipfyxji6et5j3lygw6hy2i.py":45:28)
#loc39 = loc("/root/.cache/vllm/torch_compile_cache/torch_aot_compile/61bda05feca29378847c32f031efa5c8dba258f38b0176a06a3e99e41df8ca50/inductor_cache/l7/cl7haw5qabzqznnb6qlemhcc6d4czcipfyxji6et5j3lygw6hy2i.py":46:19)
#loc40 = loc("/root/.cache/vllm/torch_compile_cache/torch_aot_compile/61bda05feca29378847c32f031efa5c8dba258f38b0176a06a3e99e41df8ca50/inductor_cache/l7/cl7haw5qabzqznnb6qlemhcc6d4czcipfyxji6et5j3lygw6hy2i.py":48:20)
#loc41 = loc("/root/.cache/vllm/torch_compile_cache/torch_aot_compile/61bda05feca29378847c32f031efa5c8dba258f38b0176a06a3e99e41df8ca50/inductor_cache/l7/cl7haw5qabzqznnb6qlemhcc6d4czcipfyxji6et5j3lygw6hy2i.py":50:13)
#loc42 = loc("/root/.cache/vllm/torch_compile_cache/torch_aot_compile/61bda05feca29378847c32f031efa5c8dba258f38b0176a06a3e99e41df8ca50/inductor_cache/l7/cl7haw5qabzqznnb6qlemhcc6d4czcipfyxji6et5j3lygw6hy2i.py":51:26)
#loc43 = loc("/root/.cache/vllm/torch_compile_cache/torch_aot_compile/61bda05feca29378847c32f031efa5c8dba258f38b0176a06a3e99e41df8ca50/inductor_cache/l7/cl7haw5qabzqznnb6qlemhcc6d4czcipfyxji6et5j3lygw6hy2i.py":52:33)
#loc44 = loc("/root/.cache/vllm/torch_compile_cache/torch_aot_compile/61bda05feca29378847c32f031efa5c8dba258f38b0176a06a3e99e41df8ca50/inductor_cache/l7/cl7haw5qabzqznnb6qlemhcc6d4czcipfyxji6et5j3lygw6hy2i.py":53:20)
#loc45 = loc("/root/.cache/vllm/torch_compile_cache/torch_aot_compile/61bda05feca29378847c32f031efa5c8dba258f38b0176a06a3e99e41df8ca50/inductor_cache/l7/cl7haw5qabzqznnb6qlemhcc6d4czcipfyxji6et5j3lygw6hy2i.py":54:21)
#loc46 = loc("/root/.cache/vllm/torch_compile_cache/torch_aot_compile/61bda05feca29378847c32f031efa5c8dba258f38b0176a06a3e99e41df8ca50/inductor_cache/l7/cl7haw5qabzqznnb6qlemhcc6d4czcipfyxji6et5j3lygw6hy2i.py":55:20)
#loc47 = loc("/root/.cache/vllm/torch_compile_cache/torch_aot_compile/61bda05feca29378847c32f031efa5c8dba258f38b0176a06a3e99e41df8ca50/inductor_cache/l7/cl7haw5qabzqznnb6qlemhcc6d4czcipfyxji6et5j3lygw6hy2i.py":57:36)
#loc48 = loc("/root/.cache/vllm/torch_compile_cache/torch_aot_compile/61bda05feca29378847c32f031efa5c8dba258f38b0176a06a3e99e41df8ca50/inductor_cache/l7/cl7haw5qabzqznnb6qlemhcc6d4czcipfyxji6et5j3lygw6hy2i.py":57:32)
#loc49 = loc("/root/.cache/vllm/torch_compile_cache/torch_aot_compile/61bda05feca29378847c32f031efa5c8dba258f38b0176a06a3e99e41df8ca50/inductor_cache/l7/cl7haw5qabzqznnb6qlemhcc6d4czcipfyxji6et5j3lygw6hy2i.py":57:25)
#loc50 = loc("/root/.cache/vllm/torch_compile_cache/torch_aot_compile/61bda05feca29378847c32f031efa5c8dba258f38b0176a06a3e99e41df8ca50/inductor_cache/l7/cl7haw5qabzqznnb6qlemhcc6d4czcipfyxji6et5j3lygw6hy2i.py":57:48)
#loc51 = loc("/root/.cache/vllm/torch_compile_cache/torch_aot_compile/61bda05feca29378847c32f031efa5c8dba258f38b0176a06a3e99e41df8ca50/inductor_cache/l7/cl7haw5qabzqznnb6qlemhcc6d4czcipfyxji6et5j3lygw6hy2i.py":57:4)
#loc53 = loc("/usr/local/lib/python3.12/dist-packages/triton/language/standard.py":293:36)
#loc55 = loc("/usr/local/lib/python3.12/dist-packages/triton/language/standard.py":293:11)
#loc56 = loc("/usr/local/lib/python3.12/dist-packages/triton/language/standard.py":293:4)
#loc58 = loc("/usr/local/lib/python3.12/dist-packages/triton/language/standard.py":263:15)
#loc59 = loc("/usr/local/lib/python3.12/dist-packages/triton/language/standard.py":263:11)
#loc60 = loc("/usr/local/lib/python3.12/dist-packages/triton/language/standard.py":263:4)
#loc67 = loc("r0_numel"(#loc1))
#loc68 = loc("xoffset"(#loc2))
#loc69 = loc("xoffset"(#loc3))
#loc70 = loc("xindex"(#loc4))
#loc71 = loc("xindex"(#loc5))
#loc72 = loc("xindex"(#loc6))
#loc73 = loc("xmask"(#loc7))
#loc74 = loc("r0_index"(#loc8))
#loc75 = loc("r0_index"(#loc9))
#loc76 = loc("r0_offset"(#loc10))
#loc77 = loc("r0_mask"(#loc11))
#loc78 = loc("r0_mask"(#loc12))
#loc79 = loc("tmp0"(#loc13))
#loc80 = loc("tmp0"(#loc14))
#loc81 = loc("tmp0"(#loc15))
#loc82 = loc("tmp0"(#loc16))
#loc83 = loc("tmp0"(#loc17))
#loc84 = loc("tmp13"(#loc18))
#loc85 = loc("tmp13"(#loc19))
#loc86 = loc("tmp13"(#loc20))
#loc87 = loc("tmp16"(#loc21))
#loc88 = loc("tmp16"(#loc22))
#loc89 = loc("tmp16"(#loc23))
#loc90 = loc("tmp16"(#loc24))
#loc91 = loc("tmp16"(#loc25))
#loc92 = loc("tmp16"(#loc26))
#loc93 = loc("tmp16"(#loc27))
#loc94 = loc("tmp16"(#loc28))
#loc95 = loc("tmp16"(#loc29))
#loc96 = loc("tmp2"(#loc30))
#loc97 = loc("tmp5"(#loc31))
#loc98 = loc("tmp6"(#loc32))
#loc99 = loc("tmp6"(#loc33))
#loc100 = loc("tmp7"(#loc34))
#loc101 = loc("tmp8"(#loc35))
#loc102 = loc("tmp9"(#loc36))
#loc103 = loc("tmp10"(#loc37))
#loc104 = loc("tmp11"(#loc38))
#loc105 = loc("tmp12"(#loc39))
#loc106 = loc("tmp15"(#loc40))
#loc107 = loc("tmp18"(#loc41))
#loc108 = loc("tmp19"(#loc42))
#loc109 = loc("tmp20"(#loc43))
#loc110 = loc("tmp21"(#loc44))
#loc111 = loc("tmp22"(#loc45))
#loc112 = loc("tmp23"(#loc46))
