#loc = loc("/root/.cache/vllm/torch_compile_cache/torch_aot_compile/61bda05feca29378847c32f031efa5c8dba258f38b0176a06a3e99e41df8ca50/inductor_cache/6b/c6bekhk6lquqeezvidcdog2ffsuplczk2lpt2e6vifwuyonodzxh.py":18:0)
#loc35 = loc("in_ptr0"(#loc))
#loc36 = loc("out_ptr0"(#loc))
#loc37 = loc("out_ptr1"(#loc))
#loc38 = loc("ks0"(#loc))
#loc39 = loc("ks1"(#loc))
#loc40 = loc("ks2"(#loc))
#loc41 = loc("ks3"(#loc))
#loc42 = loc("ks4"(#loc))
#loc43 = loc("xnumel"(#loc))
module {
  tt.func public @triton_poi_fused_add_bitwise_and_bitwise_not_bitwise_or_ge_lt_mul_sub_0(%in_ptr0: !tt.ptr<i32> {tt.divisibility = 16 : i32} loc("in_ptr0"(#loc)), %out_ptr0: !tt.ptr<i64> {tt.divisibility = 16 : i32} loc("out_ptr0"(#loc)), %out_ptr1: !tt.ptr<i1> {tt.divisibility = 16 : i32} loc("out_ptr1"(#loc)), %ks0: i64 loc("ks0"(#loc)), %ks1: i64 loc("ks1"(#loc)), %ks2: i64 loc("ks2"(#loc)), %ks3: i64 loc("ks3"(#loc)), %ks4: i64 loc("ks4"(#loc)), %xnumel: i32 loc("xnumel"(#loc))) attributes {noinline = false} {
    %xoffset = tt.get_program_id x : i32 loc(#loc44)
    %xoffset_0 = arith.constant 32 : i32 loc(#loc45)
    %xoffset_1 = arith.constant 32 : i32 loc(#loc45)
    %xoffset_2 = arith.muli %xoffset, %xoffset_1 : i32 loc(#loc45)
    %xindex = tt.make_range {end = 32 : i32, start = 0 : i32} : tensor<32xi32> loc(#loc46)
    %xindex_3 = tt.splat %xoffset_2 : i32 -> tensor<32xi32> loc(#loc47)
    %xindex_4 = arith.addi %xindex_3, %xindex : tensor<32xi32> loc(#loc47)
    %xmask = tt.splat %xnumel : i32 -> tensor<32xi32> loc(#loc48)
    %xmask_5 = arith.cmpi slt, %xindex_4, %xmask : tensor<32xi32> loc(#loc48)
    %tmp0 = tt.splat %in_ptr0 : !tt.ptr<i32> -> tensor<32x!tt.ptr<i32>> loc(#loc49)
    %tmp0_6 = tt.addptr %tmp0, %xindex_4 : tensor<32x!tt.ptr<i32>>, tensor<32xi32> loc(#loc49)
    %tmp0_7 = tt.load %tmp0_6, %xmask_5 : tensor<32x!tt.ptr<i32>> loc(#loc50)
    %tmp2 = arith.extsi %tmp0_7 : tensor<32xi32> to tensor<32xi64> loc(#loc51)
    %tmp2_8 = tt.splat %ks0 : i64 -> tensor<32xi64> loc(#loc51)
    %tmp2_9 = arith.cmpi sge, %tmp2, %tmp2_8 : tensor<32xi64> loc(#loc51)
    %tmp4 = arith.extsi %tmp0_7 : tensor<32xi32> to tensor<32xi64> loc(#loc52)
    %tmp4_10 = tt.splat %ks1 : i64 -> tensor<32xi64> loc(#loc52)
    %tmp4_11 = arith.cmpi slt, %tmp4, %tmp4_10 : tensor<32xi64> loc(#loc52)
    %tmp5 = arith.andi %tmp2_9, %tmp4_11 : tensor<32xi1> loc(#loc53)
    %tmp7 = arith.extsi %tmp0_7 : tensor<32xi32> to tensor<32xi64> loc(#loc54)
    %tmp7_12 = tt.splat %ks2 : i64 -> tensor<32xi64> loc(#loc54)
    %tmp7_13 = arith.cmpi sge, %tmp7, %tmp7_12 : tensor<32xi64> loc(#loc54)
    %tmp9 = arith.extsi %tmp0_7 : tensor<32xi32> to tensor<32xi64> loc(#loc55)
    %tmp9_14 = tt.splat %ks3 : i64 -> tensor<32xi64> loc(#loc55)
    %tmp9_15 = arith.cmpi slt, %tmp9, %tmp9_14 : tensor<32xi64> loc(#loc55)
    %tmp10 = arith.andi %tmp7_13, %tmp9_15 : tensor<32xi1> loc(#loc56)
    %tmp11 = arith.ori %tmp5, %tmp10 : tensor<32xi1> loc(#loc57)
    %tmp12 = arith.extui %tmp11 : tensor<32xi1> to tensor<32xi64> loc(#loc58)
    %tmp13 = arith.extsi %tmp0_7 : tensor<32xi32> to tensor<32xi64> loc(#loc59)
    %tmp14 = arith.extui %tmp5 : tensor<32xi1> to tensor<32xi64> loc(#loc60)
    %tmp15 = tt.splat %ks0 : i64 -> tensor<32xi64> loc(#loc61)
    %tmp15_16 = arith.muli %tmp14, %tmp15 : tensor<32xi64> loc(#loc61)
    %tmp16 = arith.extui %tmp10 : tensor<32xi1> to tensor<32xi64> loc(#loc62)
    %tmp17 = arith.addi %ks0, %ks2 : i64 loc(#loc63)
    %tmp17_17 = arith.constant -1 : i32 loc(#loc64)
    %tmp17_18 = arith.constant -1 : i64 loc(#loc64)
    %tmp17_19 = arith.muli %tmp17_18, %ks1 : i64 loc(#loc64)
    %tmp17_20 = arith.addi %tmp17, %tmp17_19 : i64 loc(#loc65)
    %tmp17_21 = arith.constant -1 : i32 loc(#loc66)
    %tmp17_22 = arith.constant -1 : i64 loc(#loc66)
    %tmp17_23 = arith.muli %tmp17_22, %ks4 : i64 loc(#loc66)
    %tmp17_24 = arith.addi %tmp17_20, %tmp17_23 : i64 loc(#loc67)
    %tmp18 = tt.splat %tmp17_24 : i64 -> tensor<32xi64> loc(#loc68)
    %tmp18_25 = arith.muli %tmp16, %tmp18 : tensor<32xi64> loc(#loc68)
    %tmp19 = arith.addi %tmp15_16, %tmp18_25 : tensor<32xi64> loc(#loc69)
    %tmp20 = arith.subi %tmp13, %tmp19 : tensor<32xi64> loc(#loc70)
    %tmp21 = arith.muli %tmp12, %tmp20 : tensor<32xi64> loc(#loc71)
    %tmp22 = arith.constant 0 : i32 loc(#loc72)
    %tmp22_26 = arith.extui %tmp11 : tensor<32xi1> to tensor<32xi32> loc(#loc72)
    %tmp22_27 = arith.constant dense<0> : tensor<32xi32> loc(#loc72)
    %tmp22_28 = arith.cmpi eq, %tmp22_26, %tmp22_27 : tensor<32xi32> loc(#loc72)
    %0 = tt.splat %out_ptr0 : !tt.ptr<i64> -> tensor<32x!tt.ptr<i64>> loc(#loc30)
    %1 = tt.addptr %0, %xindex_4 : tensor<32x!tt.ptr<i64>>, tensor<32xi32> loc(#loc30)
    tt.store %1, %tmp21, %xmask_5 : tensor<32x!tt.ptr<i64>> loc(#loc31)
    %2 = tt.splat %out_ptr1 : !tt.ptr<i1> -> tensor<32x!tt.ptr<i1>> loc(#loc32)
    %3 = tt.addptr %2, %xindex_4 : tensor<32x!tt.ptr<i1>>, tensor<32xi32> loc(#loc32)
    %4 = tt.bitcast %3 : tensor<32x!tt.ptr<i1>> -> tensor<32x!tt.ptr<i8>> loc(#loc33)
    %5 = arith.extui %tmp22_28 : tensor<32xi1> to tensor<32xi8> loc(#loc33)
    tt.store %4, %5, %xmask_5 : tensor<32x!tt.ptr<i8>> loc(#loc33)
    tt.return loc(#loc34)
  } loc(#loc)
} loc(#loc)
#loc1 = loc("/root/.cache/vllm/torch_compile_cache/torch_aot_compile/61bda05feca29378847c32f031efa5c8dba258f38b0176a06a3e99e41df8ca50/inductor_cache/6b/c6bekhk6lquqeezvidcdog2ffsuplczk2lpt2e6vifwuyonodzxh.py":19:28)
#loc2 = loc("/root/.cache/vllm/torch_compile_cache/torch_aot_compile/61bda05feca29378847c32f031efa5c8dba258f38b0176a06a3e99e41df8ca50/inductor_cache/6b/c6bekhk6lquqeezvidcdog2ffsuplczk2lpt2e6vifwuyonodzxh.py":19:33)
#loc3 = loc("/root/.cache/vllm/torch_compile_cache/torch_aot_compile/61bda05feca29378847c32f031efa5c8dba258f38b0176a06a3e99e41df8ca50/inductor_cache/6b/c6bekhk6lquqeezvidcdog2ffsuplczk2lpt2e6vifwuyonodzxh.py":20:36)
#loc4 = loc("/root/.cache/vllm/torch_compile_cache/torch_aot_compile/61bda05feca29378847c32f031efa5c8dba258f38b0176a06a3e99e41df8ca50/inductor_cache/6b/c6bekhk6lquqeezvidcdog2ffsuplczk2lpt2e6vifwuyonodzxh.py":20:23)
#loc5 = loc("/root/.cache/vllm/torch_compile_cache/torch_aot_compile/61bda05feca29378847c32f031efa5c8dba258f38b0176a06a3e99e41df8ca50/inductor_cache/6b/c6bekhk6lquqeezvidcdog2ffsuplczk2lpt2e6vifwuyonodzxh.py":21:21)
#loc6 = loc("/root/.cache/vllm/torch_compile_cache/torch_aot_compile/61bda05feca29378847c32f031efa5c8dba258f38b0176a06a3e99e41df8ca50/inductor_cache/6b/c6bekhk6lquqeezvidcdog2ffsuplczk2lpt2e6vifwuyonodzxh.py":23:30)
#loc7 = loc("/root/.cache/vllm/torch_compile_cache/torch_aot_compile/61bda05feca29378847c32f031efa5c8dba258f38b0176a06a3e99e41df8ca50/inductor_cache/6b/c6bekhk6lquqeezvidcdog2ffsuplczk2lpt2e6vifwuyonodzxh.py":23:35)
#loc8 = loc("/root/.cache/vllm/torch_compile_cache/torch_aot_compile/61bda05feca29378847c32f031efa5c8dba258f38b0176a06a3e99e41df8ca50/inductor_cache/6b/c6bekhk6lquqeezvidcdog2ffsuplczk2lpt2e6vifwuyonodzxh.py":25:19)
#loc9 = loc("/root/.cache/vllm/torch_compile_cache/torch_aot_compile/61bda05feca29378847c32f031efa5c8dba258f38b0176a06a3e99e41df8ca50/inductor_cache/6b/c6bekhk6lquqeezvidcdog2ffsuplczk2lpt2e6vifwuyonodzxh.py":27:18)
#loc10 = loc("/root/.cache/vllm/torch_compile_cache/torch_aot_compile/61bda05feca29378847c32f031efa5c8dba258f38b0176a06a3e99e41df8ca50/inductor_cache/6b/c6bekhk6lquqeezvidcdog2ffsuplczk2lpt2e6vifwuyonodzxh.py":28:18)
#loc11 = loc("/root/.cache/vllm/torch_compile_cache/torch_aot_compile/61bda05feca29378847c32f031efa5c8dba258f38b0176a06a3e99e41df8ca50/inductor_cache/6b/c6bekhk6lquqeezvidcdog2ffsuplczk2lpt2e6vifwuyonodzxh.py":30:19)
#loc12 = loc("/root/.cache/vllm/torch_compile_cache/torch_aot_compile/61bda05feca29378847c32f031efa5c8dba258f38b0176a06a3e99e41df8ca50/inductor_cache/6b/c6bekhk6lquqeezvidcdog2ffsuplczk2lpt2e6vifwuyonodzxh.py":32:18)
#loc13 = loc("/root/.cache/vllm/torch_compile_cache/torch_aot_compile/61bda05feca29378847c32f031efa5c8dba258f38b0176a06a3e99e41df8ca50/inductor_cache/6b/c6bekhk6lquqeezvidcdog2ffsuplczk2lpt2e6vifwuyonodzxh.py":33:19)
#loc14 = loc("/root/.cache/vllm/torch_compile_cache/torch_aot_compile/61bda05feca29378847c32f031efa5c8dba258f38b0176a06a3e99e41df8ca50/inductor_cache/6b/c6bekhk6lquqeezvidcdog2ffsuplczk2lpt2e6vifwuyonodzxh.py":34:19)
#loc15 = loc("/root/.cache/vllm/torch_compile_cache/torch_aot_compile/61bda05feca29378847c32f031efa5c8dba258f38b0176a06a3e99e41df8ca50/inductor_cache/6b/c6bekhk6lquqeezvidcdog2ffsuplczk2lpt2e6vifwuyonodzxh.py":35:21)
#loc16 = loc("/root/.cache/vllm/torch_compile_cache/torch_aot_compile/61bda05feca29378847c32f031efa5c8dba258f38b0176a06a3e99e41df8ca50/inductor_cache/6b/c6bekhk6lquqeezvidcdog2ffsuplczk2lpt2e6vifwuyonodzxh.py":36:20)
#loc17 = loc("/root/.cache/vllm/torch_compile_cache/torch_aot_compile/61bda05feca29378847c32f031efa5c8dba258f38b0176a06a3e99e41df8ca50/inductor_cache/6b/c6bekhk6lquqeezvidcdog2ffsuplczk2lpt2e6vifwuyonodzxh.py":37:20)
#loc18 = loc("/root/.cache/vllm/torch_compile_cache/torch_aot_compile/61bda05feca29378847c32f031efa5c8dba258f38b0176a06a3e99e41df8ca50/inductor_cache/6b/c6bekhk6lquqeezvidcdog2ffsuplczk2lpt2e6vifwuyonodzxh.py":38:20)
#loc19 = loc("/root/.cache/vllm/torch_compile_cache/torch_aot_compile/61bda05feca29378847c32f031efa5c8dba258f38b0176a06a3e99e41df8ca50/inductor_cache/6b/c6bekhk6lquqeezvidcdog2ffsuplczk2lpt2e6vifwuyonodzxh.py":39:21)
#loc20 = loc("/root/.cache/vllm/torch_compile_cache/torch_aot_compile/61bda05feca29378847c32f031efa5c8dba258f38b0176a06a3e99e41df8ca50/inductor_cache/6b/c6bekhk6lquqeezvidcdog2ffsuplczk2lpt2e6vifwuyonodzxh.py":40:18)
#loc21 = loc("/root/.cache/vllm/torch_compile_cache/torch_aot_compile/61bda05feca29378847c32f031efa5c8dba258f38b0176a06a3e99e41df8ca50/inductor_cache/6b/c6bekhk6lquqeezvidcdog2ffsuplczk2lpt2e6vifwuyonodzxh.py":40:30)
#loc22 = loc("/root/.cache/vllm/torch_compile_cache/torch_aot_compile/61bda05feca29378847c32f031efa5c8dba258f38b0176a06a3e99e41df8ca50/inductor_cache/6b/c6bekhk6lquqeezvidcdog2ffsuplczk2lpt2e6vifwuyonodzxh.py":40:25)
#loc23 = loc("/root/.cache/vllm/torch_compile_cache/torch_aot_compile/61bda05feca29378847c32f031efa5c8dba258f38b0176a06a3e99e41df8ca50/inductor_cache/6b/c6bekhk6lquqeezvidcdog2ffsuplczk2lpt2e6vifwuyonodzxh.py":40:43)
#loc24 = loc("/root/.cache/vllm/torch_compile_cache/torch_aot_compile/61bda05feca29378847c32f031efa5c8dba258f38b0176a06a3e99e41df8ca50/inductor_cache/6b/c6bekhk6lquqeezvidcdog2ffsuplczk2lpt2e6vifwuyonodzxh.py":40:38)
#loc25 = loc("/root/.cache/vllm/torch_compile_cache/torch_aot_compile/61bda05feca29378847c32f031efa5c8dba258f38b0176a06a3e99e41df8ca50/inductor_cache/6b/c6bekhk6lquqeezvidcdog2ffsuplczk2lpt2e6vifwuyonodzxh.py":41:20)
#loc26 = loc("/root/.cache/vllm/torch_compile_cache/torch_aot_compile/61bda05feca29378847c32f031efa5c8dba258f38b0176a06a3e99e41df8ca50/inductor_cache/6b/c6bekhk6lquqeezvidcdog2ffsuplczk2lpt2e6vifwuyonodzxh.py":42:20)
#loc27 = loc("/root/.cache/vllm/torch_compile_cache/torch_aot_compile/61bda05feca29378847c32f031efa5c8dba258f38b0176a06a3e99e41df8ca50/inductor_cache/6b/c6bekhk6lquqeezvidcdog2ffsuplczk2lpt2e6vifwuyonodzxh.py":43:20)
#loc28 = loc("/root/.cache/vllm/torch_compile_cache/torch_aot_compile/61bda05feca29378847c32f031efa5c8dba258f38b0176a06a3e99e41df8ca50/inductor_cache/6b/c6bekhk6lquqeezvidcdog2ffsuplczk2lpt2e6vifwuyonodzxh.py":44:20)
#loc29 = loc("/root/.cache/vllm/torch_compile_cache/torch_aot_compile/61bda05feca29378847c32f031efa5c8dba258f38b0176a06a3e99e41df8ca50/inductor_cache/6b/c6bekhk6lquqeezvidcdog2ffsuplczk2lpt2e6vifwuyonodzxh.py":45:21)
#loc30 = loc("/root/.cache/vllm/torch_compile_cache/torch_aot_compile/61bda05feca29378847c32f031efa5c8dba258f38b0176a06a3e99e41df8ca50/inductor_cache/6b/c6bekhk6lquqeezvidcdog2ffsuplczk2lpt2e6vifwuyonodzxh.py":46:25)
#loc31 = loc("/root/.cache/vllm/torch_compile_cache/torch_aot_compile/61bda05feca29378847c32f031efa5c8dba258f38b0176a06a3e99e41df8ca50/inductor_cache/6b/c6bekhk6lquqeezvidcdog2ffsuplczk2lpt2e6vifwuyonodzxh.py":46:37)
#loc32 = loc("/root/.cache/vllm/torch_compile_cache/torch_aot_compile/61bda05feca29378847c32f031efa5c8dba258f38b0176a06a3e99e41df8ca50/inductor_cache/6b/c6bekhk6lquqeezvidcdog2ffsuplczk2lpt2e6vifwuyonodzxh.py":47:25)
#loc33 = loc("/root/.cache/vllm/torch_compile_cache/torch_aot_compile/61bda05feca29378847c32f031efa5c8dba258f38b0176a06a3e99e41df8ca50/inductor_cache/6b/c6bekhk6lquqeezvidcdog2ffsuplczk2lpt2e6vifwuyonodzxh.py":47:37)
#loc34 = loc("/root/.cache/vllm/torch_compile_cache/torch_aot_compile/61bda05feca29378847c32f031efa5c8dba258f38b0176a06a3e99e41df8ca50/inductor_cache/6b/c6bekhk6lquqeezvidcdog2ffsuplczk2lpt2e6vifwuyonodzxh.py":47:4)
#loc44 = loc("xoffset"(#loc1))
#loc45 = loc("xoffset"(#loc2))
#loc46 = loc("xindex"(#loc3))
#loc47 = loc("xindex"(#loc4))
#loc48 = loc("xmask"(#loc5))
#loc49 = loc("tmp0"(#loc6))
#loc50 = loc("tmp0"(#loc7))
#loc51 = loc("tmp2"(#loc8))
#loc52 = loc("tmp4"(#loc9))
#loc53 = loc("tmp5"(#loc10))
#loc54 = loc("tmp7"(#loc11))
#loc55 = loc("tmp9"(#loc12))
#loc56 = loc("tmp10"(#loc13))
#loc57 = loc("tmp11"(#loc14))
#loc58 = loc("tmp12"(#loc15))
#loc59 = loc("tmp13"(#loc16))
#loc60 = loc("tmp14"(#loc17))
#loc61 = loc("tmp15"(#loc18))
#loc62 = loc("tmp16"(#loc19))
#loc63 = loc("tmp17"(#loc20))
#loc64 = loc("tmp17"(#loc21))
#loc65 = loc("tmp17"(#loc22))
#loc66 = loc("tmp17"(#loc23))
#loc67 = loc("tmp17"(#loc24))
#loc68 = loc("tmp18"(#loc25))
#loc69 = loc("tmp19"(#loc26))
#loc70 = loc("tmp20"(#loc27))
#loc71 = loc("tmp21"(#loc28))
#loc72 = loc("tmp22"(#loc29))
