#loc = loc("/root/.cache/vllm/torch_compile_cache/torch_aot_compile/61bda05feca29378847c32f031efa5c8dba258f38b0176a06a3e99e41df8ca50/inductor_cache/jm/cjmghpfjl6la5podcfjrnf77g4sjlmw7fzm2cfjeoccn2655f5rt.py":18:0)
#loc22 = loc("in_ptr0"(#loc))
#loc23 = loc("in_ptr1"(#loc))
#loc24 = loc("out_ptr0"(#loc))
#loc25 = loc("xnumel"(#loc))
module {
  tt.func public @triton_poi_fused_marlin_gemm_mul_sigmoid_view_0(%in_ptr0: !tt.ptr<f16> {tt.divisibility = 16 : i32} loc("in_ptr0"(#loc)), %in_ptr1: !tt.ptr<f16> {tt.divisibility = 16 : i32} loc("in_ptr1"(#loc)), %out_ptr0: !tt.ptr<f16> {tt.divisibility = 16 : i32} loc("out_ptr0"(#loc)), %xnumel: i32 {tt.divisibility = 16 : i32} loc("xnumel"(#loc))) attributes {noinline = false} {
    %tmp2 = arith.constant dense<0.000000e+00> : tensor<1024xf32> loc(#loc39)
    %tmp2_0 = arith.constant dense<1.000000e+00> : tensor<1024xf32> loc(#loc40)
    %c1024_i32 = arith.constant 1024 : i32 loc(#loc3)
    %xoffset = tt.get_program_id x : i32 loc(#loc27)
    %xoffset_1 = arith.muli %xoffset, %c1024_i32 : i32 loc(#loc28)
    %xindex = tt.make_range {end = 1024 : i32, start = 0 : i32} : tensor<1024xi32> loc(#loc29)
    %xindex_2 = tt.splat %xoffset_1 : i32 -> tensor<1024xi32> loc(#loc30)
    %xindex_3 = arith.addi %xindex_2, %xindex : tensor<1024xi32> loc(#loc30)
    %xmask = tt.splat %xnumel : i32 -> tensor<1024xi32> loc(#loc31)
    %xmask_4 = arith.cmpi slt, %xindex_3, %xmask : tensor<1024xi32> loc(#loc31)
    %tmp0 = tt.splat %in_ptr0 : !tt.ptr<f16> -> tensor<1024x!tt.ptr<f16>> loc(#loc32)
    %tmp0_5 = tt.addptr %tmp0, %xindex_3 : tensor<1024x!tt.ptr<f16>>, tensor<1024xi32> loc(#loc32)
    %tmp0_6 = tt.load %tmp0_5, %xmask_4 : tensor<1024x!tt.ptr<f16>> loc(#loc33)
    %tmp0_7 = arith.extf %tmp0_6 : tensor<1024xf16> to tensor<1024xf32> loc(#loc34)
    %tmp1 = tt.splat %in_ptr1 : !tt.ptr<f16> -> tensor<1024x!tt.ptr<f16>> loc(#loc35)
    %tmp1_8 = tt.addptr %tmp1, %xindex_3 : tensor<1024x!tt.ptr<f16>>, tensor<1024xi32> loc(#loc35)
    %tmp1_9 = tt.load %tmp1_8, %xmask_4 : tensor<1024x!tt.ptr<f16>> loc(#loc36)
    %tmp1_10 = arith.extf %tmp1_9 : tensor<1024xf16> to tensor<1024xf32> loc(#loc37)
    %tmp2_11 = arith.subf %tmp2, %tmp1_10 : tensor<1024xf32> loc(#loc39)
    %tmp2_12 = math.exp %tmp2_11 : tensor<1024xf32> loc(#loc41)
    %tmp2_13 = arith.addf %tmp2_12, %tmp2_0 : tensor<1024xf32> loc(#loc42)
    %tmp2_14 = arith.divf %tmp2_0, %tmp2_13 : tensor<1024xf32> loc(#loc43)
    %tmp3 = arith.mulf %tmp0_7, %tmp2_14 : tensor<1024xf32> loc(#loc38)
    %0 = tt.splat %out_ptr0 : !tt.ptr<f16> -> tensor<1024x!tt.ptr<f16>> loc(#loc19)
    %1 = tt.addptr %0, %xindex_3 : tensor<1024x!tt.ptr<f16>>, tensor<1024xi32> loc(#loc19)
    %2 = arith.truncf %tmp3 : tensor<1024xf32> to tensor<1024xf16> loc(#loc20)
    tt.store %1, %2, %xmask_4 : tensor<1024x!tt.ptr<f16>> loc(#loc20)
    tt.return loc(#loc21)
  } loc(#loc)
} loc(#loc)
#loc1 = loc("/usr/local/lib/python3.12/dist-packages/triton/language/standard.py":50:30)
#loc2 = loc("/root/.cache/vllm/torch_compile_cache/torch_aot_compile/61bda05feca29378847c32f031efa5c8dba258f38b0176a06a3e99e41df8ca50/inductor_cache/jm/cjmghpfjl6la5podcfjrnf77g4sjlmw7fzm2cfjeoccn2655f5rt.py":25:22)
#loc3 = loc(unknown)
#loc4 = loc("/root/.cache/vllm/torch_compile_cache/torch_aot_compile/61bda05feca29378847c32f031efa5c8dba258f38b0176a06a3e99e41df8ca50/inductor_cache/jm/cjmghpfjl6la5podcfjrnf77g4sjlmw7fzm2cfjeoccn2655f5rt.py":19:28)
#loc5 = loc("/root/.cache/vllm/torch_compile_cache/torch_aot_compile/61bda05feca29378847c32f031efa5c8dba258f38b0176a06a3e99e41df8ca50/inductor_cache/jm/cjmghpfjl6la5podcfjrnf77g4sjlmw7fzm2cfjeoccn2655f5rt.py":19:33)
#loc6 = loc("/root/.cache/vllm/torch_compile_cache/torch_aot_compile/61bda05feca29378847c32f031efa5c8dba258f38b0176a06a3e99e41df8ca50/inductor_cache/jm/cjmghpfjl6la5podcfjrnf77g4sjlmw7fzm2cfjeoccn2655f5rt.py":20:36)
#loc7 = loc("/root/.cache/vllm/torch_compile_cache/torch_aot_compile/61bda05feca29378847c32f031efa5c8dba258f38b0176a06a3e99e41df8ca50/inductor_cache/jm/cjmghpfjl6la5podcfjrnf77g4sjlmw7fzm2cfjeoccn2655f5rt.py":20:23)
#loc8 = loc("/root/.cache/vllm/torch_compile_cache/torch_aot_compile/61bda05feca29378847c32f031efa5c8dba258f38b0176a06a3e99e41df8ca50/inductor_cache/jm/cjmghpfjl6la5podcfjrnf77g4sjlmw7fzm2cfjeoccn2655f5rt.py":21:21)
#loc9 = loc("/root/.cache/vllm/torch_compile_cache/torch_aot_compile/61bda05feca29378847c32f031efa5c8dba258f38b0176a06a3e99e41df8ca50/inductor_cache/jm/cjmghpfjl6la5podcfjrnf77g4sjlmw7fzm2cfjeoccn2655f5rt.py":23:30)
#loc10 = loc("/root/.cache/vllm/torch_compile_cache/torch_aot_compile/61bda05feca29378847c32f031efa5c8dba258f38b0176a06a3e99e41df8ca50/inductor_cache/jm/cjmghpfjl6la5podcfjrnf77g4sjlmw7fzm2cfjeoccn2655f5rt.py":23:35)
#loc11 = loc("/root/.cache/vllm/torch_compile_cache/torch_aot_compile/61bda05feca29378847c32f031efa5c8dba258f38b0176a06a3e99e41df8ca50/inductor_cache/jm/cjmghpfjl6la5podcfjrnf77g4sjlmw7fzm2cfjeoccn2655f5rt.py":23:45)
#loc12 = loc("/root/.cache/vllm/torch_compile_cache/torch_aot_compile/61bda05feca29378847c32f031efa5c8dba258f38b0176a06a3e99e41df8ca50/inductor_cache/jm/cjmghpfjl6la5podcfjrnf77g4sjlmw7fzm2cfjeoccn2655f5rt.py":24:30)
#loc13 = loc("/root/.cache/vllm/torch_compile_cache/torch_aot_compile/61bda05feca29378847c32f031efa5c8dba258f38b0176a06a3e99e41df8ca50/inductor_cache/jm/cjmghpfjl6la5podcfjrnf77g4sjlmw7fzm2cfjeoccn2655f5rt.py":24:35)
#loc14 = loc("/root/.cache/vllm/torch_compile_cache/torch_aot_compile/61bda05feca29378847c32f031efa5c8dba258f38b0176a06a3e99e41df8ca50/inductor_cache/jm/cjmghpfjl6la5podcfjrnf77g4sjlmw7fzm2cfjeoccn2655f5rt.py":24:45)
#loc15 = loc("/usr/local/lib/python3.12/dist-packages/triton/language/standard.py":50:29)
#loc16 = loc("/usr/local/lib/python3.12/dist-packages/triton/language/standard.py":50:20)
#loc17 = loc("/usr/local/lib/python3.12/dist-packages/triton/language/standard.py":50:16)
#loc18 = loc("/root/.cache/vllm/torch_compile_cache/torch_aot_compile/61bda05feca29378847c32f031efa5c8dba258f38b0176a06a3e99e41df8ca50/inductor_cache/jm/cjmghpfjl6la5podcfjrnf77g4sjlmw7fzm2cfjeoccn2655f5rt.py":26:18)
#loc19 = loc("/root/.cache/vllm/torch_compile_cache/torch_aot_compile/61bda05feca29378847c32f031efa5c8dba258f38b0176a06a3e99e41df8ca50/inductor_cache/jm/cjmghpfjl6la5podcfjrnf77g4sjlmw7fzm2cfjeoccn2655f5rt.py":27:25)
#loc20 = loc("/root/.cache/vllm/torch_compile_cache/torch_aot_compile/61bda05feca29378847c32f031efa5c8dba258f38b0176a06a3e99e41df8ca50/inductor_cache/jm/cjmghpfjl6la5podcfjrnf77g4sjlmw7fzm2cfjeoccn2655f5rt.py":27:36)
#loc21 = loc("/root/.cache/vllm/torch_compile_cache/torch_aot_compile/61bda05feca29378847c32f031efa5c8dba258f38b0176a06a3e99e41df8ca50/inductor_cache/jm/cjmghpfjl6la5podcfjrnf77g4sjlmw7fzm2cfjeoccn2655f5rt.py":27:4)
#loc26 = loc("tmp2"(#loc2))
#loc27 = loc("xoffset"(#loc4))
#loc28 = loc("xoffset"(#loc5))
#loc29 = loc("xindex"(#loc6))
#loc30 = loc("xindex"(#loc7))
#loc31 = loc("xmask"(#loc8))
#loc32 = loc("tmp0"(#loc9))
#loc33 = loc("tmp0"(#loc10))
#loc34 = loc("tmp0"(#loc11))
#loc35 = loc("tmp1"(#loc12))
#loc36 = loc("tmp1"(#loc13))
#loc37 = loc("tmp1"(#loc14))
#loc38 = loc("tmp3"(#loc18))
#loc39 = loc(callsite(#loc1 at #loc26))
#loc40 = loc(callsite(#loc3 at #loc26))
#loc41 = loc(callsite(#loc15 at #loc26))
#loc42 = loc(callsite(#loc16 at #loc26))
#loc43 = loc(callsite(#loc17 at #loc26))
