#loc = loc("/root/.cache/vllm/torch_compile_cache/torch_aot_compile/61bda05feca29378847c32f031efa5c8dba258f38b0176a06a3e99e41df8ca50/inductor_cache/5p/c5povlqlv72z7uiz7ln6vd3jrxgzs4wu36logdc2rzcikwjp4s3m.py":22:0)
#loc32 = loc("in_ptr0"(#loc))
#loc33 = loc("in_ptr1"(#loc))
#loc34 = loc("in_ptr2"(#loc))
#loc35 = loc("out_ptr0"(#loc))
#loc36 = loc("xnumel"(#loc))
module {
  tt.func public @triton_(%in_ptr0: !tt.ptr<f16> {tt.divisibility = 16 : i32} loc("in_ptr0"(#loc)), %in_ptr1: !tt.ptr<f32> {tt.divisibility = 16 : i32} loc("in_ptr1"(#loc)), %in_ptr2: !tt.ptr<f16> {tt.divisibility = 16 : i32} loc("in_ptr2"(#loc)), %out_ptr0: !tt.ptr<f16> {tt.divisibility = 16 : i32} loc("out_ptr0"(#loc)), %xnumel: i32 {tt.divisibility = 16 : i32} loc("xnumel"(#loc))) attributes {noinline = false} {
    %cst = arith.constant dense<256> : tensor<512xi32> loc(#loc1)
    %tmp12 = arith.constant dense<1.000000e+00> : tensor<512xf32> loc(#loc37)
    %tmp6 = arith.constant dense<9.99999997E-7> : tensor<512xf32> loc(#loc38)
    %tmp4 = arith.constant dense<2.560000e+02> : tensor<512xf32> loc(#loc39)
    %tmp9 = arith.constant dense<64> : tensor<512xi32> loc(#loc40)
    %tmp0 = arith.constant dense<4608> : tensor<512xi32> loc(#loc41)
    %tmp0_0 = arith.constant dense<4160> : tensor<512xi32> loc(#loc42)
    %cst_1 = arith.constant dense<192> : tensor<512xi32> loc(#loc8)
    %c512_i32 = arith.constant 512 : i32 loc(#loc8)
    %xoffset = tt.get_program_id x : i32 loc(#loc43)
    %xoffset_2 = arith.muli %xoffset, %c512_i32 : i32 loc(#loc44)
    %xindex = tt.make_range {end = 512 : i32, start = 0 : i32} : tensor<512xi32> loc(#loc45)
    %xindex_3 = tt.splat %xoffset_2 : i32 -> tensor<512xi32> loc(#loc46)
    %xindex_4 = arith.addi %xindex_3, %xindex : tensor<512xi32> loc(#loc46)
    %xmask = tt.splat %xnumel : i32 -> tensor<512xi32> loc(#loc47)
    %xmask_5 = arith.cmpi slt, %xindex_4, %xmask : tensor<512xi32> loc(#loc47)
    %x0 = arith.remsi %xindex_4, %cst_1 : tensor<512xi32> loc(#loc48)
    %x1 = arith.divsi %xindex_4, %cst_1 : tensor<512xi32> loc(#loc49)
    %tmp0_6 = arith.addi %x0, %tmp0_0 : tensor<512xi32> loc(#loc42)
    %tmp0_7 = arith.muli %x1, %tmp0 : tensor<512xi32> loc(#loc41)
    %tmp0_8 = arith.addi %tmp0_6, %tmp0_7 : tensor<512xi32> loc(#loc50)
    %tmp0_9 = tt.splat %in_ptr0 : !tt.ptr<f16> -> tensor<512x!tt.ptr<f16>> loc(#loc51)
    %tmp0_10 = tt.addptr %tmp0_9, %tmp0_8 : tensor<512x!tt.ptr<f16>>, tensor<512xi32> loc(#loc51)
    %tmp0_11 = tt.load %tmp0_10, %xmask_5 : tensor<512x!tt.ptr<f16>> loc(#loc52)
    %tmp0_12 = arith.extf %tmp0_11 : tensor<512xf16> to tensor<512xf32> loc(#loc53)
    %tmp2 = tt.splat %in_ptr1 : !tt.ptr<f32> -> tensor<512x!tt.ptr<f32>> loc(#loc54)
    %tmp2_13 = tt.addptr %tmp2, %x1 : tensor<512x!tt.ptr<f32>>, tensor<512xi32> loc(#loc54)
    %tmp2_14 = tt.load %tmp2_13, %xmask_5 evictionPolicy = evict_last : tensor<512x!tt.ptr<f32>> loc(#loc55)
    %tmp9_15 = arith.addi %x0, %tmp9 : tensor<512xi32> loc(#loc40)
    %tmp9_16 = tt.splat %in_ptr2 : !tt.ptr<f16> -> tensor<512x!tt.ptr<f16>> loc(#loc56)
    %tmp9_17 = tt.addptr %tmp9_16, %tmp9_15 : tensor<512x!tt.ptr<f16>>, tensor<512xi32> loc(#loc56)
    %tmp9_18 = tt.load %tmp9_17, %xmask_5 evictionPolicy = evict_last : tensor<512x!tt.ptr<f16>> loc(#loc57)
    %tmp9_19 = arith.extf %tmp9_18 : tensor<512xf16> to tensor<512xf32> loc(#loc58)
    %tmp4_20 = arith.divf %tmp2_14, %tmp4 : tensor<512xf32> loc(#loc39)
    %tmp6_21 = arith.addf %tmp4_20, %tmp6 : tensor<512xf32> loc(#loc38)
    %tmp7 = tt.extern_elementwise %tmp6_21 {libname = "", libpath = "", pure = true, symbol = "__nv_rsqrtf"} : (tensor<512xf32>) -> tensor<512xf32> loc(#loc59)
    %tmp8 = arith.mulf %tmp0_12, %tmp7 : tensor<512xf32> loc(#loc60)
    %tmp12_22 = arith.addf %tmp9_19, %tmp12 : tensor<512xf32> loc(#loc37)
    %tmp13 = arith.mulf %tmp8, %tmp12_22 : tensor<512xf32> loc(#loc61)
    %0 = arith.muli %x1, %cst : tensor<512xi32> loc(#loc1)
    %1 = arith.addi %x0, %0 : tensor<512xi32> loc(#loc28)
    %2 = tt.splat %out_ptr0 : !tt.ptr<f16> -> tensor<512x!tt.ptr<f16>> loc(#loc29)
    %3 = tt.addptr %2, %1 : tensor<512x!tt.ptr<f16>>, tensor<512xi32> loc(#loc29)
    %4 = arith.truncf %tmp13 : tensor<512xf32> to tensor<512xf16> loc(#loc30)
    tt.store %3, %4, %xmask_5 : tensor<512x!tt.ptr<f16>> loc(#loc30)
    tt.return loc(#loc31)
  } loc(#loc)
} loc(#loc)
#loc1 = loc("/root/.cache/vllm/torch_compile_cache/torch_aot_compile/61bda05feca29378847c32f031efa5c8dba258f38b0176a06a3e99e41df8ca50/inductor_cache/5p/c5povlqlv72z7uiz7ln6vd3jrxgzs4wu36logdc2rzcikwjp4s3m.py":43:34)
#loc2 = loc("/root/.cache/vllm/torch_compile_cache/torch_aot_compile/61bda05feca29378847c32f031efa5c8dba258f38b0176a06a3e99e41df8ca50/inductor_cache/5p/c5povlqlv72z7uiz7ln6vd3jrxgzs4wu36logdc2rzcikwjp4s3m.py":40:20)
#loc3 = loc("/root/.cache/vllm/torch_compile_cache/torch_aot_compile/61bda05feca29378847c32f031efa5c8dba258f38b0176a06a3e99e41df8ca50/inductor_cache/5p/c5povlqlv72z7uiz7ln6vd3jrxgzs4wu36logdc2rzcikwjp4s3m.py":35:18)
#loc4 = loc("/root/.cache/vllm/torch_compile_cache/torch_aot_compile/61bda05feca29378847c32f031efa5c8dba258f38b0176a06a3e99e41df8ca50/inductor_cache/5p/c5povlqlv72z7uiz7ln6vd3jrxgzs4wu36logdc2rzcikwjp4s3m.py":33:19)
#loc5 = loc("/root/.cache/vllm/torch_compile_cache/torch_aot_compile/61bda05feca29378847c32f031efa5c8dba258f38b0176a06a3e99e41df8ca50/inductor_cache/5p/c5povlqlv72z7uiz7ln6vd3jrxgzs4wu36logdc2rzcikwjp4s3m.py":30:35)
#loc6 = loc("/root/.cache/vllm/torch_compile_cache/torch_aot_compile/61bda05feca29378847c32f031efa5c8dba258f38b0176a06a3e99e41df8ca50/inductor_cache/5p/c5povlqlv72z7uiz7ln6vd3jrxgzs4wu36logdc2rzcikwjp4s3m.py":28:47)
#loc7 = loc("/root/.cache/vllm/torch_compile_cache/torch_aot_compile/61bda05feca29378847c32f031efa5c8dba258f38b0176a06a3e99e41df8ca50/inductor_cache/5p/c5povlqlv72z7uiz7ln6vd3jrxgzs4wu36logdc2rzcikwjp4s3m.py":28:37)
#loc8 = loc(unknown)
#loc9 = loc("/root/.cache/vllm/torch_compile_cache/torch_aot_compile/61bda05feca29378847c32f031efa5c8dba258f38b0176a06a3e99e41df8ca50/inductor_cache/5p/c5povlqlv72z7uiz7ln6vd3jrxgzs4wu36logdc2rzcikwjp4s3m.py":23:28)
#loc10 = loc("/root/.cache/vllm/torch_compile_cache/torch_aot_compile/61bda05feca29378847c32f031efa5c8dba258f38b0176a06a3e99e41df8ca50/inductor_cache/5p/c5povlqlv72z7uiz7ln6vd3jrxgzs4wu36logdc2rzcikwjp4s3m.py":23:33)
#loc11 = loc("/root/.cache/vllm/torch_compile_cache/torch_aot_compile/61bda05feca29378847c32f031efa5c8dba258f38b0176a06a3e99e41df8ca50/inductor_cache/5p/c5povlqlv72z7uiz7ln6vd3jrxgzs4wu36logdc2rzcikwjp4s3m.py":24:36)
#loc12 = loc("/root/.cache/vllm/torch_compile_cache/torch_aot_compile/61bda05feca29378847c32f031efa5c8dba258f38b0176a06a3e99e41df8ca50/inductor_cache/5p/c5povlqlv72z7uiz7ln6vd3jrxgzs4wu36logdc2rzcikwjp4s3m.py":24:23)
#loc13 = loc("/root/.cache/vllm/torch_compile_cache/torch_aot_compile/61bda05feca29378847c32f031efa5c8dba258f38b0176a06a3e99e41df8ca50/inductor_cache/5p/c5povlqlv72z7uiz7ln6vd3jrxgzs4wu36logdc2rzcikwjp4s3m.py":25:21)
#loc14 = loc("/root/.cache/vllm/torch_compile_cache/torch_aot_compile/61bda05feca29378847c32f031efa5c8dba258f38b0176a06a3e99e41df8ca50/inductor_cache/5p/c5povlqlv72z7uiz7ln6vd3jrxgzs4wu36logdc2rzcikwjp4s3m.py":26:19)
#loc15 = loc("/root/.cache/vllm/torch_compile_cache/torch_aot_compile/61bda05feca29378847c32f031efa5c8dba258f38b0176a06a3e99e41df8ca50/inductor_cache/5p/c5povlqlv72z7uiz7ln6vd3jrxgzs4wu36logdc2rzcikwjp4s3m.py":27:19)
#loc16 = loc("/root/.cache/vllm/torch_compile_cache/torch_aot_compile/61bda05feca29378847c32f031efa5c8dba258f38b0176a06a3e99e41df8ca50/inductor_cache/5p/c5povlqlv72z7uiz7ln6vd3jrxgzs4wu36logdc2rzcikwjp4s3m.py":28:42)
#loc17 = loc("/root/.cache/vllm/torch_compile_cache/torch_aot_compile/61bda05feca29378847c32f031efa5c8dba258f38b0176a06a3e99e41df8ca50/inductor_cache/5p/c5povlqlv72z7uiz7ln6vd3jrxgzs4wu36logdc2rzcikwjp4s3m.py":28:30)
#loc18 = loc("/root/.cache/vllm/torch_compile_cache/torch_aot_compile/61bda05feca29378847c32f031efa5c8dba258f38b0176a06a3e99e41df8ca50/inductor_cache/5p/c5povlqlv72z7uiz7ln6vd3jrxgzs4wu36logdc2rzcikwjp4s3m.py":28:52)
#loc19 = loc("/root/.cache/vllm/torch_compile_cache/torch_aot_compile/61bda05feca29378847c32f031efa5c8dba258f38b0176a06a3e99e41df8ca50/inductor_cache/5p/c5povlqlv72z7uiz7ln6vd3jrxgzs4wu36logdc2rzcikwjp4s3m.py":28:62)
#loc20 = loc("/root/.cache/vllm/torch_compile_cache/torch_aot_compile/61bda05feca29378847c32f031efa5c8dba258f38b0176a06a3e99e41df8ca50/inductor_cache/5p/c5povlqlv72z7uiz7ln6vd3jrxgzs4wu36logdc2rzcikwjp4s3m.py":29:30)
#loc21 = loc("/root/.cache/vllm/torch_compile_cache/torch_aot_compile/61bda05feca29378847c32f031efa5c8dba258f38b0176a06a3e99e41df8ca50/inductor_cache/5p/c5povlqlv72z7uiz7ln6vd3jrxgzs4wu36logdc2rzcikwjp4s3m.py":29:35)
#loc22 = loc("/root/.cache/vllm/torch_compile_cache/torch_aot_compile/61bda05feca29378847c32f031efa5c8dba258f38b0176a06a3e99e41df8ca50/inductor_cache/5p/c5povlqlv72z7uiz7ln6vd3jrxgzs4wu36logdc2rzcikwjp4s3m.py":30:30)
#loc23 = loc("/root/.cache/vllm/torch_compile_cache/torch_aot_compile/61bda05feca29378847c32f031efa5c8dba258f38b0176a06a3e99e41df8ca50/inductor_cache/5p/c5povlqlv72z7uiz7ln6vd3jrxgzs4wu36logdc2rzcikwjp4s3m.py":30:40)
#loc24 = loc("/root/.cache/vllm/torch_compile_cache/torch_aot_compile/61bda05feca29378847c32f031efa5c8dba258f38b0176a06a3e99e41df8ca50/inductor_cache/5p/c5povlqlv72z7uiz7ln6vd3jrxgzs4wu36logdc2rzcikwjp4s3m.py":30:80)
#loc25 = loc("/root/.cache/vllm/torch_compile_cache/torch_aot_compile/61bda05feca29378847c32f031efa5c8dba258f38b0176a06a3e99e41df8ca50/inductor_cache/5p/c5povlqlv72z7uiz7ln6vd3jrxgzs4wu36logdc2rzcikwjp4s3m.py":36:27)
#loc26 = loc("/root/.cache/vllm/torch_compile_cache/torch_aot_compile/61bda05feca29378847c32f031efa5c8dba258f38b0176a06a3e99e41df8ca50/inductor_cache/5p/c5povlqlv72z7uiz7ln6vd3jrxgzs4wu36logdc2rzcikwjp4s3m.py":37:18)
#loc27 = loc("/root/.cache/vllm/torch_compile_cache/torch_aot_compile/61bda05feca29378847c32f031efa5c8dba258f38b0176a06a3e99e41df8ca50/inductor_cache/5p/c5povlqlv72z7uiz7ln6vd3jrxgzs4wu36logdc2rzcikwjp4s3m.py":41:19)
#loc28 = loc("/root/.cache/vllm/torch_compile_cache/torch_aot_compile/61bda05feca29378847c32f031efa5c8dba258f38b0176a06a3e99e41df8ca50/inductor_cache/5p/c5povlqlv72z7uiz7ln6vd3jrxgzs4wu36logdc2rzcikwjp4s3m.py":43:30)
#loc29 = loc("/root/.cache/vllm/torch_compile_cache/torch_aot_compile/61bda05feca29378847c32f031efa5c8dba258f38b0176a06a3e99e41df8ca50/inductor_cache/5p/c5povlqlv72z7uiz7ln6vd3jrxgzs4wu36logdc2rzcikwjp4s3m.py":43:25)
#loc30 = loc("/root/.cache/vllm/torch_compile_cache/torch_aot_compile/61bda05feca29378847c32f031efa5c8dba258f38b0176a06a3e99e41df8ca50/inductor_cache/5p/c5povlqlv72z7uiz7ln6vd3jrxgzs4wu36logdc2rzcikwjp4s3m.py":43:46)
#loc31 = loc("/root/.cache/vllm/torch_compile_cache/torch_aot_compile/61bda05feca29378847c32f031efa5c8dba258f38b0176a06a3e99e41df8ca50/inductor_cache/5p/c5povlqlv72z7uiz7ln6vd3jrxgzs4wu36logdc2rzcikwjp4s3m.py":43:4)
#loc37 = loc("tmp12"(#loc2))
#loc38 = loc("tmp6"(#loc3))
#loc39 = loc("tmp4"(#loc4))
#loc40 = loc("tmp9"(#loc5))
#loc41 = loc("tmp0"(#loc6))
#loc42 = loc("tmp0"(#loc7))
#loc43 = loc("xoffset"(#loc9))
#loc44 = loc("xoffset"(#loc10))
#loc45 = loc("xindex"(#loc11))
#loc46 = loc("xindex"(#loc12))
#loc47 = loc("xmask"(#loc13))
#loc48 = loc("x0"(#loc14))
#loc49 = loc("x1"(#loc15))
#loc50 = loc("tmp0"(#loc16))
#loc51 = loc("tmp0"(#loc17))
#loc52 = loc("tmp0"(#loc18))
#loc53 = loc("tmp0"(#loc19))
#loc54 = loc("tmp2"(#loc20))
#loc55 = loc("tmp2"(#loc21))
#loc56 = loc("tmp9"(#loc22))
#loc57 = loc("tmp9"(#loc23))
#loc58 = loc("tmp9"(#loc24))
#loc59 = loc("tmp7"(#loc25))
#loc60 = loc("tmp8"(#loc26))
#loc61 = loc("tmp13"(#loc27))
