#loc = loc("/usr/local/lib/python3.12/dist-packages/vllm/model_executor/layers/fla/ops/cumsum.py":27:0)
#loc1 = loc(unknown)
#loc24 = loc("/usr/local/lib/python3.12/dist-packages/vllm/model_executor/layers/fla/ops/cumsum.py":67:20)
#loc28 = loc("s"(#loc))
#loc29 = loc("o"(#loc))
#loc30 = loc("cu_seqlens"(#loc))
#loc31 = loc("chunk_indices"(#loc))
#loc32 = loc("T"(#loc))
#loc42 = loc("b_o"(#loc24))
#loc44 = loc(callsite(#loc1 at #loc42))
module {
  tt.func public @chunk_local_cumsum_scalar_kernel(%s: !tt.ptr<f32> {tt.divisibility = 16 : i32} loc("s"(#loc)), %o: !tt.ptr<f32> {tt.divisibility = 16 : i32} loc("o"(#loc)), %cu_seqlens: !tt.ptr<i32> {tt.divisibility = 16 : i32} loc("cu_seqlens"(#loc)), %chunk_indices: !tt.ptr<i32> {tt.divisibility = 16 : i32} loc("chunk_indices"(#loc)), %T: i32 loc("T"(#loc))) attributes {noinline = false} {
    %cst = arith.constant dense<0> : tensor<64xi64> loc(#loc1)
    %cst_0 = arith.constant dense<16> : tensor<64xi64> loc(#loc1)
    %c64_i32 = arith.constant 64 : i32 loc(#loc1)
    %c1_i32 = arith.constant 1 : i32 loc(#loc1)
    %c2_i32 = arith.constant 2 : i32 loc(#loc1)
    %c16_i32 = arith.constant 16 : i32 loc(#loc1)
    %0 = tt.get_program_id x : i32 loc(#loc2)
    %1 = tt.get_program_id y : i32 loc(#loc3)
    %2 = arith.remsi %1, %c16_i32 : i32 loc(#loc4)
    %3 = arith.muli %0, %c2_i32 : i32 loc(#loc5)
    %4 = tt.addptr %chunk_indices, %3 : !tt.ptr<i32>, i32 loc(#loc6)
    %5 = tt.load %4 : !tt.ptr<i32> loc(#loc7)
    %6 = tt.addptr %4, %c1_i32 : !tt.ptr<i32>, i32 loc(#loc8)
    %7 = tt.load %6 : !tt.ptr<i32> loc(#loc9)
    %8 = tt.addptr %cu_seqlens, %5 : !tt.ptr<i32>, i32 loc(#loc10)
    %9 = tt.load %8 : !tt.ptr<i32> loc(#loc11)
    %10 = tt.addptr %8, %c1_i32 : !tt.ptr<i32>, i32 loc(#loc12)
    %11 = tt.load %10 : !tt.ptr<i32> loc(#loc13)
    %T_1 = arith.subi %11, %9 : i32 loc(#loc33)
    %p_s = arith.muli %9, %c16_i32 : i32 loc(#loc34)
    %p_s_2 = tt.addptr %s, %p_s : !tt.ptr<f32>, i32 loc(#loc35)
    %p_s_3 = tt.addptr %p_s_2, %2 : !tt.ptr<f32>, i32 loc(#loc36)
    %p_s_4 = arith.muli %7, %c64_i32 : i32 loc(#loc37)
    %p_s_5 = arith.extsi %T_1 : i32 to i64 loc(#loc38)
    %p_s_6 = arith.extsi %p_s_4 : i32 to i64 loc(#loc38)
    %p_o = tt.addptr %o, %p_s : !tt.ptr<f32>, i32 loc(#loc39)
    %p_o_7 = tt.addptr %p_o, %2 : !tt.ptr<f32>, i32 loc(#loc40)
    %b_s = tt.splat %p_s_3 : !tt.ptr<f32> -> tensor<64x!tt.ptr<f32>> loc(#loc41)
    %b_s_8 = tt.splat %p_s_6 : i64 -> tensor<64xi64> loc(#loc41)
    %b_s_9 = tt.make_range {end = 64 : i32, start = 0 : i32} : tensor<64xi32> loc(#loc41)
    %b_s_10 = arith.extsi %b_s_9 : tensor<64xi32> to tensor<64xi64> loc(#loc41)
    %b_s_11 = arith.addi %b_s_8, %b_s_10 : tensor<64xi64> loc(#loc41)
    %b_s_12 = arith.muli %b_s_11, %cst_0 : tensor<64xi64> loc(#loc41)
    %b_s_13 = tt.addptr %b_s, %b_s_12 : tensor<64x!tt.ptr<f32>>, tensor<64xi64> loc(#loc41)
    %b_s_14 = arith.cmpi sge, %b_s_11, %cst : tensor<64xi64> loc(#loc41)
    %b_s_15 = tt.splat %p_s_5 : i64 -> tensor<64xi64> loc(#loc41)
    %b_s_16 = arith.cmpi slt, %b_s_11, %b_s_15 : tensor<64xi64> loc(#loc41)
    %b_s_17 = arith.andi %b_s_14, %b_s_16 : tensor<64xi1> loc(#loc41)
    %b_s_18 = tt.load %b_s_13, %b_s_17 : tensor<64x!tt.ptr<f32>> loc(#loc41)
    %b_o = "tt.scan"(%b_s_18) <{axis = 0 : i32, reverse = false}> ({
    ^bb0(%b_o_19: f32 loc(callsite(#loc1 at #loc42)), %b_o_20: f32 loc(callsite(#loc1 at #loc42))):
      %b_o_21 = arith.addf %b_o_19, %b_o_20 : f32 loc(#loc45)
      tt.scan.return %b_o_21 : f32 loc(#loc43)
    }) : (tensor<64xf32>) -> tensor<64xf32> loc(#loc43)
    %12 = tt.splat %p_o_7 : !tt.ptr<f32> -> tensor<64x!tt.ptr<f32>> loc(#loc26)
    %13 = tt.addptr %12, %b_s_12 : tensor<64x!tt.ptr<f32>>, tensor<64xi64> loc(#loc26)
    tt.store %13, %b_o, %b_s_17 : tensor<64x!tt.ptr<f32>> loc(#loc26)
    tt.return loc(#loc27)
  } loc(#loc)
} loc(#loc)
#loc2 = loc("/usr/local/lib/python3.12/dist-packages/vllm/model_executor/layers/fla/ops/cumsum.py":40:30)
#loc3 = loc("/usr/local/lib/python3.12/dist-packages/vllm/model_executor/layers/fla/ops/cumsum.py":40:48)
#loc4 = loc("/usr/local/lib/python3.12/dist-packages/vllm/model_executor/layers/fla/ops/cumsum.py":41:33)
#loc5 = loc("/usr/local/lib/python3.12/dist-packages/vllm/model_executor/layers/fla/ops/cumsum.py":44:42)
#loc6 = loc("/usr/local/lib/python3.12/dist-packages/vllm/model_executor/layers/fla/ops/cumsum.py":44:36)
#loc7 = loc("/usr/local/lib/python3.12/dist-packages/vllm/model_executor/layers/fla/ops/cumsum.py":44:20)
#loc8 = loc("/usr/local/lib/python3.12/dist-packages/vllm/model_executor/layers/fla/ops/cumsum.py":45:46)
#loc9 = loc("/usr/local/lib/python3.12/dist-packages/vllm/model_executor/layers/fla/ops/cumsum.py":45:20)
#loc10 = loc("/usr/local/lib/python3.12/dist-packages/vllm/model_executor/layers/fla/ops/cumsum.py":48:33)
#loc11 = loc("/usr/local/lib/python3.12/dist-packages/vllm/model_executor/layers/fla/ops/cumsum.py":48:20)
#loc12 = loc("/usr/local/lib/python3.12/dist-packages/vllm/model_executor/layers/fla/ops/cumsum.py":49:39)
#loc13 = loc("/usr/local/lib/python3.12/dist-packages/vllm/model_executor/layers/fla/ops/cumsum.py":49:20)
#loc14 = loc("/usr/local/lib/python3.12/dist-packages/vllm/model_executor/layers/fla/ops/cumsum.py":51:18)
#loc15 = loc("/usr/local/lib/python3.12/dist-packages/vllm/model_executor/layers/fla/ops/cumsum.py":63:42)
#loc16 = loc("/usr/local/lib/python3.12/dist-packages/vllm/model_executor/layers/fla/ops/cumsum.py":63:36)
#loc17 = loc("/usr/local/lib/python3.12/dist-packages/vllm/model_executor/layers/fla/ops/cumsum.py":63:46)
#loc18 = loc("/usr/local/lib/python3.12/dist-packages/vllm/model_executor/layers/fla/ops/cumsum.py":63:70)
#loc19 = loc("/usr/local/lib/python3.12/dist-packages/vllm/model_executor/layers/fla/ops/cumsum.py":63:83)
#loc20 = loc("/usr/local/lib/python3.12/dist-packages/vllm/model_executor/layers/fla/ops/cumsum.py":64:36)
#loc21 = loc("/usr/local/lib/python3.12/dist-packages/vllm/model_executor/layers/fla/ops/cumsum.py":64:46)
#loc22 = loc("/usr/local/lib/python3.12/dist-packages/vllm/model_executor/layers/fla/ops/cumsum.py":66:18)
#loc23 = loc("/usr/local/lib/python3.12/dist-packages/triton/language/standard.py":343:60)
#loc25 = loc("/usr/local/lib/python3.12/dist-packages/triton/language/standard.py":263:15)
#loc26 = loc("/usr/local/lib/python3.12/dist-packages/vllm/model_executor/layers/fla/ops/cumsum.py":71:18)
#loc27 = loc("/usr/local/lib/python3.12/dist-packages/vllm/model_executor/layers/fla/ops/cumsum.py":71:4)
#loc33 = loc("T"(#loc14))
#loc34 = loc("p_s"(#loc15))
#loc35 = loc("p_s"(#loc16))
#loc36 = loc("p_s"(#loc17))
#loc37 = loc("p_s"(#loc18))
#loc38 = loc("p_s"(#loc19))
#loc39 = loc("p_o"(#loc20))
#loc40 = loc("p_o"(#loc21))
#loc41 = loc("b_s"(#loc22))
#loc43 = loc(callsite(#loc23 at #loc42))
#loc45 = loc(callsite(#loc25 at #loc43))
