#loc = loc("/usr/local/lib/python3.12/dist-packages/vllm/model_executor/layers/fla/ops/chunk_scaled_dot_kkt.py":36:0)
#loc55 = loc("k"(#loc))
#loc56 = loc("beta"(#loc))
#loc57 = loc("g"(#loc))
#loc58 = loc("A"(#loc))
#loc59 = loc("cu_seqlens"(#loc))
#loc60 = loc("chunk_indices"(#loc))
#loc61 = loc("T"(#loc))
module {
  tt.func public @chunk_scaled_dot_kkt_fwd_kernel(%k: !tt.ptr<f16> {tt.divisibility = 16 : i32} loc("k"(#loc)), %beta: !tt.ptr<f32> {tt.divisibility = 16 : i32} loc("beta"(#loc)), %g: !tt.ptr<f32> {tt.divisibility = 16 : i32} loc("g"(#loc)), %A: !tt.ptr<f32> {tt.divisibility = 16 : i32} loc("A"(#loc)), %cu_seqlens: !tt.ptr<i32> {tt.divisibility = 16 : i32} loc("cu_seqlens"(#loc)), %chunk_indices: !tt.ptr<i32> {tt.divisibility = 16 : i32} loc("chunk_indices"(#loc)), %T: i32 loc("T"(#loc))) attributes {noinline = false} {
    %cst = arith.constant dense<64> : tensor<1x64xi64> loc(#loc1)
    %cst_0 = arith.constant dense<0> : tensor<1x64xi64> loc(#loc1)
    %b_k = arith.constant dense<128> : tensor<1x128xi64> loc(#loc62)
    %b_k_1 = arith.constant dense<0> : tensor<1x128xi64> loc(#loc62)
    %cst_2 = arith.constant dense<0> : tensor<64x1xi64> loc(#loc3)
    %cst_3 = arith.constant dense<1024> : tensor<64x1xi64> loc(#loc3)
    %cst_4 = arith.constant dense<0> : tensor<64xi64> loc(#loc3)
    %cst_5 = arith.constant dense<16> : tensor<64xi64> loc(#loc3)
    %cst_6 = arith.constant dense<0.000000e+00> : tensor<64x64xf32> loc(#loc3)
    %c128_i32 = arith.constant 128 : i32 loc(#loc3)
    %c8_i32 = arith.constant 8 : i32 loc(#loc3)
    %c64_i32 = arith.constant 64 : i32 loc(#loc3)
    %c1_i32 = arith.constant 1 : i32 loc(#loc3)
    %c2_i32 = arith.constant 2 : i32 loc(#loc3)
    %c16_i32 = arith.constant 16 : i32 loc(#loc3)
    %0 = tt.get_program_id x : i32 loc(#loc4)
    %1 = tt.get_program_id y : i32 loc(#loc5)
    %2 = arith.remsi %1, %c16_i32 : i32 loc(#loc6)
    %3 = arith.muli %0, %c2_i32 : i32 loc(#loc7)
    %4 = tt.addptr %chunk_indices, %3 : !tt.ptr<i32>, i32 loc(#loc8)
    %5 = tt.load %4 : !tt.ptr<i32> loc(#loc9)
    %6 = tt.addptr %4, %c1_i32 : !tt.ptr<i32>, i32 loc(#loc10)
    %7 = tt.load %6 : !tt.ptr<i32> loc(#loc11)
    %8 = tt.addptr %cu_seqlens, %5 : !tt.ptr<i32>, i32 loc(#loc12)
    %9 = tt.load %8 : !tt.ptr<i32> loc(#loc13)
    %10 = tt.addptr %8, %c1_i32 : !tt.ptr<i32>, i32 loc(#loc14)
    %11 = tt.load %10 : !tt.ptr<i32> loc(#loc15)
    %T_7 = arith.subi %11, %9 : i32 loc(#loc63)
    %o_t = arith.muli %7, %c64_i32 : i32 loc(#loc64)
    %o_t_8 = tt.make_range {end = 64 : i32, start = 0 : i32} : tensor<64xi32> loc(#loc65)
    %o_t_9 = tt.splat %o_t : i32 -> tensor<64xi32> loc(#loc66)
    %o_t_10 = arith.addi %o_t_9, %o_t_8 : tensor<64xi32> loc(#loc66)
    %m_t = tt.splat %T_7 : i32 -> tensor<64xi32> loc(#loc67)
    %m_t_11 = arith.cmpi slt, %o_t_10, %m_t : tensor<64xi32> loc(#loc67)
    %p_beta = arith.muli %9, %c16_i32 : i32 loc(#loc68)
    %p_beta_12 = tt.addptr %beta, %p_beta : !tt.ptr<f32>, i32 loc(#loc69)
    %p_beta_13 = tt.addptr %p_beta_12, %2 : !tt.ptr<f32>, i32 loc(#loc70)
    %p_beta_14 = arith.extsi %T_7 : i32 to i64 loc(#loc71)
    %p_beta_15 = arith.extsi %o_t : i32 to i64 loc(#loc71)
    %b_beta = tt.splat %p_beta_13 : !tt.ptr<f32> -> tensor<64x!tt.ptr<f32>> loc(#loc72)
    %b_beta_16 = tt.splat %p_beta_15 : i64 -> tensor<64xi64> loc(#loc72)
    %b_beta_17 = arith.extsi %o_t_8 : tensor<64xi32> to tensor<64xi64> loc(#loc72)
    %b_beta_18 = arith.addi %b_beta_16, %b_beta_17 : tensor<64xi64> loc(#loc72)
    %b_beta_19 = arith.muli %b_beta_18, %cst_5 : tensor<64xi64> loc(#loc72)
    %b_beta_20 = tt.addptr %b_beta, %b_beta_19 : tensor<64x!tt.ptr<f32>>, tensor<64xi64> loc(#loc72)
    %b_beta_21 = arith.cmpi sge, %b_beta_18, %cst_4 : tensor<64xi64> loc(#loc72)
    %b_beta_22 = tt.splat %p_beta_14 : i64 -> tensor<64xi64> loc(#loc72)
    %b_beta_23 = arith.cmpi slt, %b_beta_18, %b_beta_22 : tensor<64xi64> loc(#loc72)
    %b_beta_24 = arith.andi %b_beta_21, %b_beta_23 : tensor<64xi1> loc(#loc72)
    %b_beta_25 = tt.load %b_beta_20, %b_beta_24 : tensor<64x!tt.ptr<f32>> loc(#loc72)
    %p_k = arith.muli %9, %c8_i32 : i32 loc(#loc73)
    %p_k_26 = arith.divsi %2, %c2_i32 : i32 loc(#loc74)
    %p_k_27 = arith.addi %p_k, %p_k_26 : i32 loc(#loc75)
    %p_k_28 = arith.muli %p_k_27, %c128_i32 : i32 loc(#loc76)
    %p_k_29 = tt.addptr %k, %p_k_28 : !tt.ptr<f16>, i32 loc(#loc77)
    %b_k_30 = tt.splat %p_k_29 : !tt.ptr<f16> -> tensor<64x128x!tt.ptr<f16>> loc(#loc62)
    %b_k_31 = tt.expand_dims %b_beta_18 {axis = 1 : i32} : tensor<64xi64> -> tensor<64x1xi64> loc(#loc62)
    %b_k_32 = arith.muli %b_k_31, %cst_3 : tensor<64x1xi64> loc(#loc62)
    %b_k_33 = tt.broadcast %b_k_32 : tensor<64x1xi64> -> tensor<64x128xi64> loc(#loc62)
    %b_k_34 = tt.make_range {end = 128 : i32, start = 0 : i32} : tensor<128xi32> loc(#loc62)
    %b_k_35 = arith.extsi %b_k_34 : tensor<128xi32> to tensor<128xi64> loc(#loc62)
    %b_k_36 = tt.expand_dims %b_k_35 {axis = 0 : i32} : tensor<128xi64> -> tensor<1x128xi64> loc(#loc62)
    %b_k_37 = tt.broadcast %b_k_36 : tensor<1x128xi64> -> tensor<64x128xi64> loc(#loc62)
    %b_k_38 = arith.addi %b_k_33, %b_k_37 : tensor<64x128xi64> loc(#loc62)
    %b_k_39 = tt.addptr %b_k_30, %b_k_38 : tensor<64x128x!tt.ptr<f16>>, tensor<64x128xi64> loc(#loc62)
    %b_k_40 = arith.cmpi sge, %b_k_31, %cst_2 : tensor<64x1xi64> loc(#loc62)
    %b_k_41 = tt.splat %p_beta_14 : i64 -> tensor<64x1xi64> loc(#loc62)
    %b_k_42 = arith.cmpi slt, %b_k_31, %b_k_41 : tensor<64x1xi64> loc(#loc62)
    %b_k_43 = arith.andi %b_k_40, %b_k_42 : tensor<64x1xi1> loc(#loc62)
    %b_k_44 = tt.broadcast %b_k_43 : tensor<64x1xi1> -> tensor<64x128xi1> loc(#loc62)
    %b_k_45 = arith.cmpi sge, %b_k_36, %b_k_1 : tensor<1x128xi64> loc(#loc62)
    %b_k_46 = arith.cmpi slt, %b_k_36, %b_k : tensor<1x128xi64> loc(#loc62)
    %b_k_47 = arith.andi %b_k_45, %b_k_46 : tensor<1x128xi1> loc(#loc62)
    %b_k_48 = tt.broadcast %b_k_47 : tensor<1x128xi1> -> tensor<64x128xi1> loc(#loc62)
    %b_k_49 = arith.andi %b_k_44, %b_k_48 : tensor<64x128xi1> loc(#loc62)
    %b_k_50 = tt.load %b_k_39, %b_k_49 : tensor<64x128x!tt.ptr<f16>> loc(#loc62)
    %b_kb = tt.expand_dims %b_beta_25 {axis = 1 : i32} : tensor<64xf32> -> tensor<64x1xf32> loc(#loc78)
    %b_kb_51 = arith.extf %b_k_50 : tensor<64x128xf16> to tensor<64x128xf32> loc(#loc79)
    %b_kb_52 = tt.broadcast %b_kb : tensor<64x1xf32> -> tensor<64x128xf32> loc(#loc79)
    %b_kb_53 = arith.mulf %b_kb_51, %b_kb_52 : tensor<64x128xf32> loc(#loc79)
    %b_A = tt.trans %b_k_50 {order = array<i32: 1, 0>} : tensor<64x128xf16> -> tensor<128x64xf16> loc(#loc80)
    %b_A_54 = arith.extf %b_A : tensor<128x64xf16> to tensor<128x64xf32> loc(#loc81)
    %b_A_55 = tt.dot %b_kb_53, %b_A_54, %cst_6, inputPrecision = tf32 : tensor<64x128xf32> * tensor<128x64xf32> -> tensor<64x64xf32> loc(#loc82)
    %p_g = tt.addptr %g, %p_beta : !tt.ptr<f32>, i32 loc(#loc83)
    %p_g_56 = tt.addptr %p_g, %2 : !tt.ptr<f32>, i32 loc(#loc84)
    %b_g = tt.splat %p_g_56 : !tt.ptr<f32> -> tensor<64x!tt.ptr<f32>> loc(#loc85)
    %b_g_57 = tt.addptr %b_g, %b_beta_19 : tensor<64x!tt.ptr<f32>>, tensor<64xi64> loc(#loc85)
    %b_g_58 = tt.load %b_g_57, %b_beta_24 : tensor<64x!tt.ptr<f32>> loc(#loc85)
    %b_g_diff = tt.expand_dims %b_g_58 {axis = 1 : i32} : tensor<64xf32> -> tensor<64x1xf32> loc(#loc86)
    %b_g_diff_59 = tt.expand_dims %b_g_58 {axis = 0 : i32} : tensor<64xf32> -> tensor<1x64xf32> loc(#loc87)
    %b_g_diff_60 = tt.broadcast %b_g_diff : tensor<64x1xf32> -> tensor<64x64xf32> loc(#loc88)
    %b_g_diff_61 = tt.broadcast %b_g_diff_59 : tensor<1x64xf32> -> tensor<64x64xf32> loc(#loc88)
    %b_g_diff_62 = arith.subf %b_g_diff_60, %b_g_diff_61 : tensor<64x64xf32> loc(#loc88)
    %b_A_63 = math.exp %b_g_diff_62 : tensor<64x64xf32> loc(#loc89)
    %b_A_64 = arith.mulf %b_A_55, %b_A_63 : tensor<64x64xf32> loc(#loc90)
    %m_A = tt.expand_dims %o_t_10 {axis = 1 : i32} : tensor<64xi32> -> tensor<64x1xi32> loc(#loc91)
    %m_A_65 = tt.expand_dims %o_t_10 {axis = 0 : i32} : tensor<64xi32> -> tensor<1x64xi32> loc(#loc92)
    %m_A_66 = tt.broadcast %m_A : tensor<64x1xi32> -> tensor<64x64xi32> loc(#loc93)
    %m_A_67 = tt.broadcast %m_A_65 : tensor<1x64xi32> -> tensor<64x64xi32> loc(#loc93)
    %m_A_68 = arith.cmpi sgt, %m_A_66, %m_A_67 : tensor<64x64xi32> loc(#loc93)
    %m_A_69 = tt.expand_dims %m_t_11 {axis = 1 : i32} : tensor<64xi1> -> tensor<64x1xi1> loc(#loc94)
    %m_A_70 = tt.expand_dims %m_t_11 {axis = 0 : i32} : tensor<64xi1> -> tensor<1x64xi1> loc(#loc95)
    %m_A_71 = tt.broadcast %m_A_69 : tensor<64x1xi1> -> tensor<64x64xi1> loc(#loc95)
    %m_A_72 = tt.broadcast %m_A_70 : tensor<1x64xi1> -> tensor<64x64xi1> loc(#loc95)
    %m_A_73 = arith.andi %m_A_71, %m_A_72 : tensor<64x64xi1> loc(#loc95)
    %m_A_74 = arith.andi %m_A_68, %m_A_73 : tensor<64x64xi1> loc(#loc96)
    %b_A_75 = arith.select %m_A_74, %b_A_64, %cst_6 : tensor<64x64xi1>, tensor<64x64xf32> loc(#loc97)
    %p_A = arith.addi %p_beta, %2 : i32 loc(#loc98)
    %p_A_76 = arith.muli %p_A, %c64_i32 : i32 loc(#loc99)
    %p_A_77 = tt.addptr %A, %p_A_76 : !tt.ptr<f32>, i32 loc(#loc100)
    %12 = tt.splat %p_A_77 : !tt.ptr<f32> -> tensor<64x64x!tt.ptr<f32>> loc(#loc1)
    %13 = tt.broadcast %b_k_32 : tensor<64x1xi64> -> tensor<64x64xi64> loc(#loc1)
    %14 = tt.expand_dims %b_beta_17 {axis = 0 : i32} : tensor<64xi64> -> tensor<1x64xi64> loc(#loc1)
    %15 = tt.broadcast %14 : tensor<1x64xi64> -> tensor<64x64xi64> loc(#loc1)
    %16 = arith.addi %13, %15 : tensor<64x64xi64> loc(#loc1)
    %17 = tt.addptr %12, %16 : tensor<64x64x!tt.ptr<f32>>, tensor<64x64xi64> loc(#loc1)
    %18 = tt.broadcast %b_k_43 : tensor<64x1xi1> -> tensor<64x64xi1> loc(#loc1)
    %19 = arith.cmpi sge, %14, %cst_0 : tensor<1x64xi64> loc(#loc1)
    %20 = arith.cmpi slt, %14, %cst : tensor<1x64xi64> loc(#loc1)
    %21 = arith.andi %19, %20 : tensor<1x64xi1> loc(#loc1)
    %22 = tt.broadcast %21 : tensor<1x64xi1> -> tensor<64x64xi1> loc(#loc1)
    %23 = arith.andi %18, %22 : tensor<64x64xi1> loc(#loc1)
    tt.store %17, %b_A_75, %23 : tensor<64x64x!tt.ptr<f32>> loc(#loc1)
    tt.return loc(#loc54)
  } loc(#loc)
} loc(#loc)
#loc1 = loc("/usr/local/lib/python3.12/dist-packages/vllm/model_executor/layers/fla/ops/chunk_scaled_dot_kkt.py":99:18)
#loc2 = loc("/usr/local/lib/python3.12/dist-packages/vllm/model_executor/layers/fla/ops/chunk_scaled_dot_kkt.py":84:22)
#loc3 = loc(unknown)
#loc4 = loc("/usr/local/lib/python3.12/dist-packages/vllm/model_executor/layers/fla/ops/chunk_scaled_dot_kkt.py":52:30)
#loc5 = loc("/usr/local/lib/python3.12/dist-packages/vllm/model_executor/layers/fla/ops/chunk_scaled_dot_kkt.py":52:48)
#loc6 = loc("/usr/local/lib/python3.12/dist-packages/vllm/model_executor/layers/fla/ops/chunk_scaled_dot_kkt.py":53:33)
#loc7 = loc("/usr/local/lib/python3.12/dist-packages/vllm/model_executor/layers/fla/ops/chunk_scaled_dot_kkt.py":56:42)
#loc8 = loc("/usr/local/lib/python3.12/dist-packages/vllm/model_executor/layers/fla/ops/chunk_scaled_dot_kkt.py":56:36)
#loc9 = loc("/usr/local/lib/python3.12/dist-packages/vllm/model_executor/layers/fla/ops/chunk_scaled_dot_kkt.py":56:20)
#loc10 = loc("/usr/local/lib/python3.12/dist-packages/vllm/model_executor/layers/fla/ops/chunk_scaled_dot_kkt.py":57:46)
#loc11 = loc("/usr/local/lib/python3.12/dist-packages/vllm/model_executor/layers/fla/ops/chunk_scaled_dot_kkt.py":57:20)
#loc12 = loc("/usr/local/lib/python3.12/dist-packages/vllm/model_executor/layers/fla/ops/chunk_scaled_dot_kkt.py":60:33)
#loc13 = loc("/usr/local/lib/python3.12/dist-packages/vllm/model_executor/layers/fla/ops/chunk_scaled_dot_kkt.py":60:20)
#loc14 = loc("/usr/local/lib/python3.12/dist-packages/vllm/model_executor/layers/fla/ops/chunk_scaled_dot_kkt.py":61:39)
#loc15 = loc("/usr/local/lib/python3.12/dist-packages/vllm/model_executor/layers/fla/ops/chunk_scaled_dot_kkt.py":61:20)
#loc16 = loc("/usr/local/lib/python3.12/dist-packages/vllm/model_executor/layers/fla/ops/chunk_scaled_dot_kkt.py":63:18)
#loc17 = loc("/usr/local/lib/python3.12/dist-packages/vllm/model_executor/layers/fla/ops/chunk_scaled_dot_kkt.py":66:16)
#loc18 = loc("/usr/local/lib/python3.12/dist-packages/vllm/model_executor/layers/fla/ops/chunk_scaled_dot_kkt.py":66:34)
#loc19 = loc("/usr/local/lib/python3.12/dist-packages/vllm/model_executor/layers/fla/ops/chunk_scaled_dot_kkt.py":66:21)
#loc20 = loc("/usr/local/lib/python3.12/dist-packages/vllm/model_executor/layers/fla/ops/chunk_scaled_dot_kkt.py":67:16)
#loc21 = loc("/usr/local/lib/python3.12/dist-packages/vllm/model_executor/layers/fla/ops/chunk_scaled_dot_kkt.py":70:21)
#loc22 = loc("/usr/local/lib/python3.12/dist-packages/vllm/model_executor/layers/fla/ops/chunk_scaled_dot_kkt.py":70:15)
#loc23 = loc("/usr/local/lib/python3.12/dist-packages/vllm/model_executor/layers/fla/ops/chunk_scaled_dot_kkt.py":70:25)
#loc24 = loc("/usr/local/lib/python3.12/dist-packages/vllm/model_executor/layers/fla/ops/chunk_scaled_dot_kkt.py":70:62)
#loc25 = loc("/usr/local/lib/python3.12/dist-packages/vllm/model_executor/layers/fla/ops/chunk_scaled_dot_kkt.py":72:21)
#loc26 = loc("/usr/local/lib/python3.12/dist-packages/vllm/model_executor/layers/fla/ops/chunk_scaled_dot_kkt.py":77:23)
#loc27 = loc("/usr/local/lib/python3.12/dist-packages/vllm/model_executor/layers/fla/ops/chunk_scaled_dot_kkt.py":77:36)
#loc28 = loc("/usr/local/lib/python3.12/dist-packages/vllm/model_executor/layers/fla/ops/chunk_scaled_dot_kkt.py":77:28)
#loc29 = loc("/usr/local/lib/python3.12/dist-packages/vllm/model_executor/layers/fla/ops/chunk_scaled_dot_kkt.py":77:48)
#loc30 = loc("/usr/local/lib/python3.12/dist-packages/vllm/model_executor/layers/fla/ops/chunk_scaled_dot_kkt.py":77:16)
#loc31 = loc("/usr/local/lib/python3.12/dist-packages/vllm/model_executor/layers/fla/ops/chunk_scaled_dot_kkt.py":85:28)
#loc32 = loc("/usr/local/lib/python3.12/dist-packages/vllm/model_executor/layers/fla/ops/chunk_scaled_dot_kkt.py":85:21)
#loc33 = loc("/usr/local/lib/python3.12/dist-packages/vllm/model_executor/layers/fla/ops/chunk_scaled_dot_kkt.py":86:37)
#loc34 = loc("/usr/local/lib/python3.12/dist-packages/vllm/model_executor/layers/fla/ops/chunk_scaled_dot_kkt.py":86:45)
#loc35 = loc("/usr/local/lib/python3.12/dist-packages/vllm/model_executor/layers/fla/ops/chunk_scaled_dot_kkt.py":86:28)
#loc36 = loc("/usr/local/lib/python3.12/dist-packages/vllm/model_executor/layers/fla/ops/chunk_scaled_dot_kkt.py":89:36)
#loc37 = loc("/usr/local/lib/python3.12/dist-packages/vllm/model_executor/layers/fla/ops/chunk_scaled_dot_kkt.py":89:46)
#loc38 = loc("/usr/local/lib/python3.12/dist-packages/vllm/model_executor/layers/fla/ops/chunk_scaled_dot_kkt.py":90:22)
#loc39 = loc("/usr/local/lib/python3.12/dist-packages/vllm/model_executor/layers/fla/ops/chunk_scaled_dot_kkt.py":91:23)
#loc40 = loc("/usr/local/lib/python3.12/dist-packages/vllm/model_executor/layers/fla/ops/chunk_scaled_dot_kkt.py":91:38)
#loc41 = loc("/usr/local/lib/python3.12/dist-packages/vllm/model_executor/layers/fla/ops/chunk_scaled_dot_kkt.py":91:34)
#loc42 = loc("/usr/local/lib/python3.12/dist-packages/vllm/model_executor/layers/fla/ops/chunk_scaled_dot_kkt.py":92:24)
#loc43 = loc("/usr/local/lib/python3.12/dist-packages/vllm/model_executor/layers/fla/ops/chunk_scaled_dot_kkt.py":92:20)
#loc44 = loc("/usr/local/lib/python3.12/dist-packages/vllm/model_executor/layers/fla/ops/chunk_scaled_dot_kkt.py":94:15)
#loc45 = loc("/usr/local/lib/python3.12/dist-packages/vllm/model_executor/layers/fla/ops/chunk_scaled_dot_kkt.py":94:30)
#loc46 = loc("/usr/local/lib/python3.12/dist-packages/vllm/model_executor/layers/fla/ops/chunk_scaled_dot_kkt.py":94:26)
#loc47 = loc("/usr/local/lib/python3.12/dist-packages/vllm/model_executor/layers/fla/ops/chunk_scaled_dot_kkt.py":94:47)
#loc48 = loc("/usr/local/lib/python3.12/dist-packages/vllm/model_executor/layers/fla/ops/chunk_scaled_dot_kkt.py":94:58)
#loc49 = loc("/usr/local/lib/python3.12/dist-packages/vllm/model_executor/layers/fla/ops/chunk_scaled_dot_kkt.py":94:43)
#loc50 = loc("/usr/local/lib/python3.12/dist-packages/vllm/model_executor/layers/fla/ops/chunk_scaled_dot_kkt.py":95:29)
#loc51 = loc("/usr/local/lib/python3.12/dist-packages/vllm/model_executor/layers/fla/ops/chunk_scaled_dot_kkt.py":97:23)
#loc52 = loc("/usr/local/lib/python3.12/dist-packages/vllm/model_executor/layers/fla/ops/chunk_scaled_dot_kkt.py":97:30)
#loc53 = loc("/usr/local/lib/python3.12/dist-packages/vllm/model_executor/layers/fla/ops/chunk_scaled_dot_kkt.py":97:12)
#loc54 = loc("/usr/local/lib/python3.12/dist-packages/vllm/model_executor/layers/fla/ops/chunk_scaled_dot_kkt.py":99:4)
#loc62 = loc("b_k"(#loc2))
#loc63 = loc("T"(#loc16))
#loc64 = loc("o_t"(#loc17))
#loc65 = loc("o_t"(#loc18))
#loc66 = loc("o_t"(#loc19))
#loc67 = loc("m_t"(#loc20))
#loc68 = loc("p_beta"(#loc21))
#loc69 = loc("p_beta"(#loc22))
#loc70 = loc("p_beta"(#loc23))
#loc71 = loc("p_beta"(#loc24))
#loc72 = loc("b_beta"(#loc25))
#loc73 = loc("p_k"(#loc26))
#loc74 = loc("p_k"(#loc27))
#loc75 = loc("p_k"(#loc28))
#loc76 = loc("p_k"(#loc29))
#loc77 = loc("p_k"(#loc30))
#loc78 = loc("b_kb"(#loc31))
#loc79 = loc("b_kb"(#loc32))
#loc80 = loc("b_A"(#loc33))
#loc81 = loc("b_A"(#loc34))
#loc82 = loc("b_A"(#loc35))
#loc83 = loc("p_g"(#loc36))
#loc84 = loc("p_g"(#loc37))
#loc85 = loc("b_g"(#loc38))
#loc86 = loc("b_g_diff"(#loc39))
#loc87 = loc("b_g_diff"(#loc40))
#loc88 = loc("b_g_diff"(#loc41))
#loc89 = loc("b_A"(#loc42))
#loc90 = loc("b_A"(#loc43))
#loc91 = loc("m_A"(#loc44))
#loc92 = loc("m_A"(#loc45))
#loc93 = loc("m_A"(#loc46))
#loc94 = loc("m_A"(#loc47))
#loc95 = loc("m_A"(#loc48))
#loc96 = loc("m_A"(#loc49))
#loc97 = loc("b_A"(#loc50))
#loc98 = loc("p_A"(#loc51))
#loc99 = loc("p_A"(#loc52))
#loc100 = loc("p_A"(#loc53))
