#loc = loc("/root/.cache/vllm/torch_compile_cache/torch_aot_compile/61bda05feca29378847c32f031efa5c8dba258f38b0176a06a3e99e41df8ca50/inductor_cache/cp/ccpsge7mfp27npsag4utjppqvmefecme7x5mpqgvibeul6aocl7n.py":22:0)
#loc31 = loc("/usr/local/lib/python3.12/dist-packages/triton/language/standard.py":287:0)
#loc33 = loc(unknown)
#loc36 = loc("/usr/local/lib/python3.12/dist-packages/triton/language/standard.py":262:0)
#loc40 = loc("in_ptr0"(#loc))
#loc41 = loc("out_ptr0"(#loc))
#loc42 = loc("xnumel"(#loc))
#loc43 = loc("r0_numel"(#loc))
#loc70 = loc("input"(#loc31))
#loc71 = loc("a"(#loc36))
#loc72 = loc("b"(#loc36))
module {
  tt.func public @triton_(%in_ptr0: !tt.ptr<f16> {tt.divisibility = 16 : i32} loc("in_ptr0"(#loc)), %out_ptr0: !tt.ptr<f32> {tt.divisibility = 16 : i32} loc("out_ptr0"(#loc)), %xnumel: i32 loc("xnumel"(#loc)), %r0_numel: i32 {tt.divisibility = 16 : i32} loc("r0_numel"(#loc))) attributes {noinline = false} {
    %r0_numel_0 = arith.constant 256 : i32 loc(#loc44)
    %xoffset = tt.get_program_id x : i32 loc(#loc45)
    %xoffset_1 = arith.constant 16 : i32 loc(#loc46)
    %xoffset_2 = arith.constant 16 : i32 loc(#loc46)
    %xoffset_3 = arith.muli %xoffset, %xoffset_2 : i32 loc(#loc46)
    %xindex = tt.make_range {end = 16 : i32, start = 0 : i32} : tensor<16xi32> loc(#loc47)
    %xindex_4 = tt.expand_dims %xindex {axis = 1 : i32} : tensor<16xi32> -> tensor<16x1xi32> loc(#loc48)
    %xindex_5 = tt.splat %xoffset_3 : i32 -> tensor<16x1xi32> loc(#loc49)
    %xindex_6 = arith.addi %xindex_5, %xindex_4 : tensor<16x1xi32> loc(#loc49)
    %xmask = tt.splat %xnumel : i32 -> tensor<16x1xi32> loc(#loc50)
    %xmask_7 = arith.cmpi slt, %xindex_6, %xmask : tensor<16x1xi32> loc(#loc50)
    %r0_base = tt.make_range {end = 32 : i32, start = 0 : i32} : tensor<32xi32> loc(#loc51)
    %r0_base_8 = tt.expand_dims %r0_base {axis = 0 : i32} : tensor<32xi32> -> tensor<1x32xi32> loc(#loc52)
    %_tmp4 = arith.constant 0.000000e+00 : f32 loc(#loc53)
    %_tmp4_9 = arith.constant dense<0.000000e+00> : tensor<16x32xf32> loc(#loc53)
    %c0_i32 = arith.constant 0 : i32 loc(#loc11)
    %c32_i32 = arith.constant 32 : i32 loc(#loc11)
    %0 = arith.bitcast %c0_i32 : i32 to i32 loc(#loc11)
    %1 = arith.bitcast %r0_numel_0 : i32 to i32 loc(#loc11)
    %2 = arith.bitcast %c32_i32 : i32 to i32 loc(#loc11)
    %3 = ub.poison : i32 loc(#loc11)
    %_tmp4_10 = scf.for %r0_offset = %0 to %1 step %2 iter_args(%_tmp4_12 = %_tmp4_9) -> (tensor<16x32xf32>)  : i32 {
      %r0_index = tt.splat %r0_offset : i32 -> tensor<1x32xi32> loc(#loc55)
      %r0_index_13 = arith.addi %r0_index, %r0_base_8 : tensor<1x32xi32> loc(#loc55)
      %r0_mask = arith.constant dense<256> : tensor<1x32xi32> loc(#loc56)
      %r0_mask_14 = arith.cmpi slt, %r0_index_13, %r0_mask : tensor<1x32xi32> loc(#loc56)
      %tmp0 = arith.constant 4096 : i32 loc(#loc57)
      %tmp0_15 = arith.constant 4096 : i32 loc(#loc57)
      %tmp0_16 = arith.constant dense<4096> : tensor<1x32xi32> loc(#loc57)
      %tmp0_17 = arith.addi %tmp0_16, %r0_index_13 : tensor<1x32xi32> loc(#loc57)
      %tmp0_18 = arith.constant 4608 : i32 loc(#loc58)
      %tmp0_19 = arith.constant 4608 : i32 loc(#loc58)
      %tmp0_20 = arith.constant dense<4608> : tensor<16x1xi32> loc(#loc58)
      %tmp0_21 = arith.muli %tmp0_20, %xindex_6 : tensor<16x1xi32> loc(#loc58)
      %tmp0_22 = tt.broadcast %tmp0_17 : tensor<1x32xi32> -> tensor<16x32xi32> loc(#loc59)
      %tmp0_23 = tt.broadcast %tmp0_21 : tensor<16x1xi32> -> tensor<16x32xi32> loc(#loc59)
      %tmp0_24 = arith.addi %tmp0_22, %tmp0_23 : tensor<16x32xi32> loc(#loc59)
      %tmp0_25 = tt.splat %in_ptr0 : !tt.ptr<f16> -> tensor<16x32x!tt.ptr<f16>> loc(#loc60)
      %tmp0_26 = tt.addptr %tmp0_25, %tmp0_24 : tensor<16x32x!tt.ptr<f16>>, tensor<16x32xi32> loc(#loc60)
      %tmp0_27 = tt.broadcast %r0_mask_14 : tensor<1x32xi1> -> tensor<16x32xi1> loc(#loc61)
      %tmp0_28 = tt.broadcast %xmask_7 : tensor<16x1xi1> -> tensor<16x32xi1> loc(#loc61)
      %tmp0_29 = arith.andi %tmp0_27, %tmp0_28 : tensor<16x32xi1> loc(#loc61)
      %tmp0_30 = arith.constant 0.000000e+00 : f32 loc(#loc62)
      %tmp0_31 = arith.constant dense<0.000000e+00> : tensor<16x32xf32> loc(#loc62)
      %tmp0_32 = arith.truncf %tmp0_31 : tensor<16x32xf32> to tensor<16x32xf16> loc(#loc62)
      %tmp0_33 = tt.load %tmp0_26, %tmp0_29, %tmp0_32 evictionPolicy = evict_first : tensor<16x32x!tt.ptr<f16>> loc(#loc62)
      %tmp0_34 = arith.extf %tmp0_33 : tensor<16x32xf16> to tensor<16x32xf32> loc(#loc63)
      %tmp2 = arith.mulf %tmp0_34, %tmp0_34 : tensor<16x32xf32> loc(#loc64)
      %tmp5 = arith.addf %_tmp4_12, %tmp2 : tensor<16x32xf32> loc(#loc65)
      %_tmp4_35 = tt.broadcast %r0_mask_14 : tensor<1x32xi1> -> tensor<16x32xi1> loc(#loc66)
      %_tmp4_36 = tt.broadcast %xmask_7 : tensor<16x1xi1> -> tensor<16x32xi1> loc(#loc66)
      %_tmp4_37 = arith.andi %_tmp4_35, %_tmp4_36 : tensor<16x32xi1> loc(#loc66)
      %_tmp4_38 = arith.select %_tmp4_37, %tmp5, %_tmp4_12 : tensor<16x32xi1>, tensor<16x32xf32> loc(#loc67)
      scf.yield %_tmp4_38 : tensor<16x32xf32> loc(#loc25)
    } loc(#loc54)
    %tmp4 = tt.call @"triton.language.standard.sum__fp32S16_32S__(1,)cconstexpr_1__(2,)cconstexpr_False__(3,)cNone"(%_tmp4_10) : (tensor<16x32xf32>) -> tensor<16xf32> loc(#loc68)
    %tmp4_11 = tt.expand_dims %tmp4 {axis = 1 : i32} : tensor<16xf32> -> tensor<16x1xf32> loc(#loc69)
    %4 = tt.splat %out_ptr0 : !tt.ptr<f32> -> tensor<16x1x!tt.ptr<f32>> loc(#loc28)
    %5 = tt.addptr %4, %xindex_6 : tensor<16x1x!tt.ptr<f32>>, tensor<16x1xi32> loc(#loc28)
    tt.store %5, %tmp4_11, %xmask_7 : tensor<16x1x!tt.ptr<f32>> loc(#loc29)
    tt.return loc(#loc30)
  } loc(#loc)
  tt.func private @"triton.language.standard.sum__fp32S16_32S__(1,)cconstexpr_1__(2,)cconstexpr_False__(3,)cNone"(%input: tensor<16x32xf32> loc("input"(#loc31))) -> tensor<16xf32> attributes {noinline = false} {
    %0 = "tt.reduce"(%input) <{axis = 1 : i32}> ({
    ^bb0(%arg1: f32 loc(unknown), %arg2: f32 loc(unknown)):
      %2 = tt.call @triton.language.standard._sum_combine__fp32_fp32__(%arg1, %arg2) : (f32, f32) -> f32 loc(#loc32)
      tt.reduce.return %2 : f32 loc(#loc32)
    }) : (tensor<16x32xf32>) -> tensor<16xf32> loc(#loc32)
    tt.return %0 : tensor<16xf32> loc(#loc34)
  ^bb1:  // no predecessors
    %1 = ub.poison : tensor<16xf32> loc(#loc35)
    tt.return %1 : tensor<16xf32> loc(#loc35)
  } loc(#loc31)
  tt.func private @triton.language.standard._sum_combine__fp32_fp32__(%a: f32 loc("a"(#loc36)), %b: f32 loc("b"(#loc36))) -> f32 attributes {noinline = false} {
    %0 = arith.addf %a, %b : f32 loc(#loc37)
    tt.return %0 : f32 loc(#loc38)
  ^bb1:  // no predecessors
    %1 = ub.poison : f32 loc(#loc39)
    tt.return %1 : f32 loc(#loc39)
  } loc(#loc36)
} loc(#loc)
#loc1 = loc("/root/.cache/vllm/torch_compile_cache/torch_aot_compile/61bda05feca29378847c32f031efa5c8dba258f38b0176a06a3e99e41df8ca50/inductor_cache/cp/ccpsge7mfp27npsag4utjppqvmefecme7x5mpqgvibeul6aocl7n.py":23:15)
#loc2 = loc("/root/.cache/vllm/torch_compile_cache/torch_aot_compile/61bda05feca29378847c32f031efa5c8dba258f38b0176a06a3e99e41df8ca50/inductor_cache/cp/ccpsge7mfp27npsag4utjppqvmefecme7x5mpqgvibeul6aocl7n.py":26:28)
#loc3 = loc("/root/.cache/vllm/torch_compile_cache/torch_aot_compile/61bda05feca29378847c32f031efa5c8dba258f38b0176a06a3e99e41df8ca50/inductor_cache/cp/ccpsge7mfp27npsag4utjppqvmefecme7x5mpqgvibeul6aocl7n.py":26:33)
#loc4 = loc("/root/.cache/vllm/torch_compile_cache/torch_aot_compile/61bda05feca29378847c32f031efa5c8dba258f38b0176a06a3e99e41df8ca50/inductor_cache/cp/ccpsge7mfp27npsag4utjppqvmefecme7x5mpqgvibeul6aocl7n.py":27:36)
#loc5 = loc("/root/.cache/vllm/torch_compile_cache/torch_aot_compile/61bda05feca29378847c32f031efa5c8dba258f38b0176a06a3e99e41df8ca50/inductor_cache/cp/ccpsge7mfp27npsag4utjppqvmefecme7x5mpqgvibeul6aocl7n.py":27:44)
#loc6 = loc("/root/.cache/vllm/torch_compile_cache/torch_aot_compile/61bda05feca29378847c32f031efa5c8dba258f38b0176a06a3e99e41df8ca50/inductor_cache/cp/ccpsge7mfp27npsag4utjppqvmefecme7x5mpqgvibeul6aocl7n.py":27:23)
#loc7 = loc("/root/.cache/vllm/torch_compile_cache/torch_aot_compile/61bda05feca29378847c32f031efa5c8dba258f38b0176a06a3e99e41df8ca50/inductor_cache/cp/ccpsge7mfp27npsag4utjppqvmefecme7x5mpqgvibeul6aocl7n.py":28:21)
#loc8 = loc("/root/.cache/vllm/torch_compile_cache/torch_aot_compile/61bda05feca29378847c32f031efa5c8dba258f38b0176a06a3e99e41df8ca50/inductor_cache/cp/ccpsge7mfp27npsag4utjppqvmefecme7x5mpqgvibeul6aocl7n.py":29:27)
#loc9 = loc("/root/.cache/vllm/torch_compile_cache/torch_aot_compile/61bda05feca29378847c32f031efa5c8dba258f38b0176a06a3e99e41df8ca50/inductor_cache/cp/ccpsge7mfp27npsag4utjppqvmefecme7x5mpqgvibeul6aocl7n.py":29:37)
#loc10 = loc("/root/.cache/vllm/torch_compile_cache/torch_aot_compile/61bda05feca29378847c32f031efa5c8dba258f38b0176a06a3e99e41df8ca50/inductor_cache/cp/ccpsge7mfp27npsag4utjppqvmefecme7x5mpqgvibeul6aocl7n.py":32:43)
#loc11 = loc("/root/.cache/vllm/torch_compile_cache/torch_aot_compile/61bda05feca29378847c32f031efa5c8dba258f38b0176a06a3e99e41df8ca50/inductor_cache/cp/ccpsge7mfp27npsag4utjppqvmefecme7x5mpqgvibeul6aocl7n.py":33:43)
#loc12 = loc("/root/.cache/vllm/torch_compile_cache/torch_aot_compile/61bda05feca29378847c32f031efa5c8dba258f38b0176a06a3e99e41df8ca50/inductor_cache/cp/ccpsge7mfp27npsag4utjppqvmefecme7x5mpqgvibeul6aocl7n.py":34:31)
#loc13 = loc("/root/.cache/vllm/torch_compile_cache/torch_aot_compile/61bda05feca29378847c32f031efa5c8dba258f38b0176a06a3e99e41df8ca50/inductor_cache/cp/ccpsge7mfp27npsag4utjppqvmefecme7x5mpqgvibeul6aocl7n.py":35:29)
#loc14 = loc("/root/.cache/vllm/torch_compile_cache/torch_aot_compile/61bda05feca29378847c32f031efa5c8dba258f38b0176a06a3e99e41df8ca50/inductor_cache/cp/ccpsge7mfp27npsag4utjppqvmefecme7x5mpqgvibeul6aocl7n.py":39:41)
#loc15 = loc("/root/.cache/vllm/torch_compile_cache/torch_aot_compile/61bda05feca29378847c32f031efa5c8dba258f38b0176a06a3e99e41df8ca50/inductor_cache/cp/ccpsge7mfp27npsag4utjppqvmefecme7x5mpqgvibeul6aocl7n.py":39:53)
#loc16 = loc("/root/.cache/vllm/torch_compile_cache/torch_aot_compile/61bda05feca29378847c32f031efa5c8dba258f38b0176a06a3e99e41df8ca50/inductor_cache/cp/ccpsge7mfp27npsag4utjppqvmefecme7x5mpqgvibeul6aocl7n.py":39:48)
#loc17 = loc("/root/.cache/vllm/torch_compile_cache/torch_aot_compile/61bda05feca29378847c32f031efa5c8dba258f38b0176a06a3e99e41df8ca50/inductor_cache/cp/ccpsge7mfp27npsag4utjppqvmefecme7x5mpqgvibeul6aocl7n.py":39:34)
#loc18 = loc("/root/.cache/vllm/torch_compile_cache/torch_aot_compile/61bda05feca29378847c32f031efa5c8dba258f38b0176a06a3e99e41df8ca50/inductor_cache/cp/ccpsge7mfp27npsag4utjppqvmefecme7x5mpqgvibeul6aocl7n.py":39:68)
#loc19 = loc("/root/.cache/vllm/torch_compile_cache/torch_aot_compile/61bda05feca29378847c32f031efa5c8dba258f38b0176a06a3e99e41df8ca50/inductor_cache/cp/ccpsge7mfp27npsag4utjppqvmefecme7x5mpqgvibeul6aocl7n.py":39:58)
#loc20 = loc("/root/.cache/vllm/torch_compile_cache/torch_aot_compile/61bda05feca29378847c32f031efa5c8dba258f38b0176a06a3e99e41df8ca50/inductor_cache/cp/ccpsge7mfp27npsag4utjppqvmefecme7x5mpqgvibeul6aocl7n.py":39:120)
#loc21 = loc("/root/.cache/vllm/torch_compile_cache/torch_aot_compile/61bda05feca29378847c32f031efa5c8dba258f38b0176a06a3e99e41df8ca50/inductor_cache/cp/ccpsge7mfp27npsag4utjppqvmefecme7x5mpqgvibeul6aocl7n.py":41:22)
#loc22 = loc("/root/.cache/vllm/torch_compile_cache/torch_aot_compile/61bda05feca29378847c32f031efa5c8dba258f38b0176a06a3e99e41df8ca50/inductor_cache/cp/ccpsge7mfp27npsag4utjppqvmefecme7x5mpqgvibeul6aocl7n.py":43:23)
#loc23 = loc("/root/.cache/vllm/torch_compile_cache/torch_aot_compile/61bda05feca29378847c32f031efa5c8dba258f38b0176a06a3e99e41df8ca50/inductor_cache/cp/ccpsge7mfp27npsag4utjppqvmefecme7x5mpqgvibeul6aocl7n.py":44:35)
#loc24 = loc("/root/.cache/vllm/torch_compile_cache/torch_aot_compile/61bda05feca29378847c32f031efa5c8dba258f38b0176a06a3e99e41df8ca50/inductor_cache/cp/ccpsge7mfp27npsag4utjppqvmefecme7x5mpqgvibeul6aocl7n.py":44:48)
#loc25 = loc("/root/.cache/vllm/torch_compile_cache/torch_aot_compile/61bda05feca29378847c32f031efa5c8dba258f38b0176a06a3e99e41df8ca50/inductor_cache/cp/ccpsge7mfp27npsag4utjppqvmefecme7x5mpqgvibeul6aocl7n.py":44:8)
#loc26 = loc("/root/.cache/vllm/torch_compile_cache/torch_aot_compile/61bda05feca29378847c32f031efa5c8dba258f38b0176a06a3e99e41df8ca50/inductor_cache/cp/ccpsge7mfp27npsag4utjppqvmefecme7x5mpqgvibeul6aocl7n.py":45:25)
#loc27 = loc("/root/.cache/vllm/torch_compile_cache/torch_aot_compile/61bda05feca29378847c32f031efa5c8dba258f38b0176a06a3e99e41df8ca50/inductor_cache/cp/ccpsge7mfp27npsag4utjppqvmefecme7x5mpqgvibeul6aocl7n.py":45:28)
#loc28 = loc("/root/.cache/vllm/torch_compile_cache/torch_aot_compile/61bda05feca29378847c32f031efa5c8dba258f38b0176a06a3e99e41df8ca50/inductor_cache/cp/ccpsge7mfp27npsag4utjppqvmefecme7x5mpqgvibeul6aocl7n.py":46:25)
#loc29 = loc("/root/.cache/vllm/torch_compile_cache/torch_aot_compile/61bda05feca29378847c32f031efa5c8dba258f38b0176a06a3e99e41df8ca50/inductor_cache/cp/ccpsge7mfp27npsag4utjppqvmefecme7x5mpqgvibeul6aocl7n.py":46:36)
#loc30 = loc("/root/.cache/vllm/torch_compile_cache/torch_aot_compile/61bda05feca29378847c32f031efa5c8dba258f38b0176a06a3e99e41df8ca50/inductor_cache/cp/ccpsge7mfp27npsag4utjppqvmefecme7x5mpqgvibeul6aocl7n.py":46:4)
#loc32 = loc("/usr/local/lib/python3.12/dist-packages/triton/language/standard.py":293:36)
#loc34 = loc("/usr/local/lib/python3.12/dist-packages/triton/language/standard.py":293:11)
#loc35 = loc("/usr/local/lib/python3.12/dist-packages/triton/language/standard.py":293:4)
#loc37 = loc("/usr/local/lib/python3.12/dist-packages/triton/language/standard.py":263:15)
#loc38 = loc("/usr/local/lib/python3.12/dist-packages/triton/language/standard.py":263:11)
#loc39 = loc("/usr/local/lib/python3.12/dist-packages/triton/language/standard.py":263:4)
#loc44 = loc("r0_numel"(#loc1))
#loc45 = loc("xoffset"(#loc2))
#loc46 = loc("xoffset"(#loc3))
#loc47 = loc("xindex"(#loc4))
#loc48 = loc("xindex"(#loc5))
#loc49 = loc("xindex"(#loc6))
#loc50 = loc("xmask"(#loc7))
#loc51 = loc("r0_base"(#loc8))
#loc52 = loc("r0_base"(#loc9))
#loc53 = loc("_tmp4"(#loc10))
#loc54 = loc("_tmp4"(#loc11))
#loc55 = loc("r0_index"(#loc12))
#loc56 = loc("r0_mask"(#loc13))
#loc57 = loc("tmp0"(#loc14))
#loc58 = loc("tmp0"(#loc15))
#loc59 = loc("tmp0"(#loc16))
#loc60 = loc("tmp0"(#loc17))
#loc61 = loc("tmp0"(#loc18))
#loc62 = loc("tmp0"(#loc19))
#loc63 = loc("tmp0"(#loc20))
#loc64 = loc("tmp2"(#loc21))
#loc65 = loc("tmp5"(#loc22))
#loc66 = loc("_tmp4"(#loc23))
#loc67 = loc("_tmp4"(#loc24))
#loc68 = loc("tmp4"(#loc26))
#loc69 = loc("tmp4"(#loc27))
