#loc = loc("/root/.cache/vllm/torch_compile_cache/torch_aot_compile/61bda05feca29378847c32f031efa5c8dba258f38b0176a06a3e99e41df8ca50/inductor_cache/jw/cjw64zluotjyqqp6qsmb2wgrqubkvrjkdnp4lhpupz6f5ieofcto.py":18:0)
#loc2 = loc(unknown)
#loc32 = loc("/root/.cache/vllm/torch_compile_cache/torch_aot_compile/61bda05feca29378847c32f031efa5c8dba258f38b0176a06a3e99e41df8ca50/inductor_cache/jw/cjw64zluotjyqqp6qsmb2wgrqubkvrjkdnp4lhpupz6f5ieofcto.py":51:27)
#loc56 = loc("in_ptr0"(#loc))
#loc57 = loc("in_ptr1"(#loc))
#loc58 = loc("in_ptr2"(#loc))
#loc59 = loc("in_ptr3"(#loc))
#loc60 = loc("out_ptr1"(#loc))
#loc61 = loc("out_ptr2"(#loc))
#loc62 = loc("out_ptr3"(#loc))
#loc63 = loc("xnumel"(#loc))
#loc64 = loc("r0_numel"(#loc))
#loc92 = loc("tmp12"(#loc32))
#loc111 = loc(callsite(#loc2 at #loc92))
module {
  tt.func public @triton_red_fused__to_copy_add_copy__fused_add_rms_norm_5(%in_ptr0: !tt.ptr<f16> {tt.divisibility = 16 : i32} loc("in_ptr0"(#loc)), %in_ptr1: !tt.ptr<f16> {tt.divisibility = 16 : i32} loc("in_ptr1"(#loc)), %in_ptr2: !tt.ptr<f16> {tt.divisibility = 16 : i32} loc("in_ptr2"(#loc)), %in_ptr3: !tt.ptr<f16> {tt.divisibility = 16 : i32} loc("in_ptr3"(#loc)), %out_ptr1: !tt.ptr<f16> {tt.divisibility = 16 : i32} loc("out_ptr1"(#loc)), %out_ptr2: !tt.ptr<f16> {tt.divisibility = 16 : i32} loc("out_ptr2"(#loc)), %out_ptr3: !tt.ptr<f16> {tt.divisibility = 16 : i32} loc("out_ptr3"(#loc)), %xnumel: i32 loc("xnumel"(#loc)), %r0_numel: i32 {tt.divisibility = 16 : i32} loc("r0_numel"(#loc))) attributes {noinline = false} {
    %tmp31 = arith.constant dense<0.000000e+00> : tensor<1x2048xf16> loc(#loc65)
    %cst = arith.constant dense<0.000000e+00> : tensor<2x2048xf16> loc(#loc2)
    %cst_0 = arith.constant dense<1.000000e+00> : tensor<1x2048xf32> loc(#loc2)
    %cst_1 = arith.constant dense<9.99999997E-7> : tensor<2x1xf32> loc(#loc2)
    %cst_2 = arith.constant dense<2.048000e+03> : tensor<2x1xf32> loc(#loc2)
    %cst_3 = arith.constant dense<2048> : tensor<2x1xi32> loc(#loc2)
    %cst_4 = arith.constant dense<2048> : tensor<1x2048xi32> loc(#loc2)
    %cst_5 = arith.constant dense<0.000000e+00> : tensor<2x2048xf32> loc(#loc2)
    %c2_i32 = arith.constant 2 : i32 loc(#loc2)
    %xoffset = tt.get_program_id x : i32 loc(#loc66)
    %xoffset_6 = arith.muli %xoffset, %c2_i32 : i32 loc(#loc67)
    %xindex = tt.make_range {end = 2 : i32, start = 0 : i32} : tensor<2xi32> loc(#loc68)
    %xindex_7 = tt.expand_dims %xindex {axis = 1 : i32} : tensor<2xi32> -> tensor<2x1xi32> loc(#loc69)
    %xindex_8 = tt.splat %xoffset_6 : i32 -> tensor<2x1xi32> loc(#loc70)
    %xindex_9 = arith.addi %xindex_8, %xindex_7 : tensor<2x1xi32> loc(#loc70)
    %xmask = tt.splat %xnumel : i32 -> tensor<2x1xi32> loc(#loc71)
    %xmask_10 = arith.cmpi slt, %xindex_9, %xmask : tensor<2x1xi32> loc(#loc71)
    %r0_base = tt.make_range {end = 2048 : i32, start = 0 : i32} : tensor<2048xi32> loc(#loc72)
    %r0_base_11 = tt.expand_dims %r0_base {axis = 0 : i32} : tensor<2048xi32> -> tensor<1x2048xi32> loc(#loc73)
    %r0_mask = arith.cmpi slt, %r0_base_11, %cst_4 : tensor<1x2048xi32> loc(#loc74)
    %tmp0 = arith.muli %xindex_9, %cst_3 : tensor<2x1xi32> loc(#loc75)
    %tmp0_12 = tt.broadcast %r0_base_11 : tensor<1x2048xi32> -> tensor<2x2048xi32> loc(#loc76)
    %tmp0_13 = tt.broadcast %tmp0 : tensor<2x1xi32> -> tensor<2x2048xi32> loc(#loc76)
    %tmp0_14 = arith.addi %tmp0_12, %tmp0_13 : tensor<2x2048xi32> loc(#loc76)
    %tmp0_15 = tt.splat %in_ptr0 : !tt.ptr<f16> -> tensor<2x2048x!tt.ptr<f16>> loc(#loc77)
    %tmp0_16 = tt.addptr %tmp0_15, %tmp0_14 : tensor<2x2048x!tt.ptr<f16>>, tensor<2x2048xi32> loc(#loc77)
    %tmp0_17 = tt.broadcast %r0_mask : tensor<1x2048xi1> -> tensor<2x2048xi1> loc(#loc78)
    %tmp0_18 = tt.broadcast %xmask_10 : tensor<2x1xi1> -> tensor<2x2048xi1> loc(#loc78)
    %tmp0_19 = arith.andi %tmp0_17, %tmp0_18 : tensor<2x2048xi1> loc(#loc78)
    %tmp0_20 = tt.load %tmp0_16, %tmp0_19, %cst evictionPolicy = evict_last : tensor<2x2048x!tt.ptr<f16>> loc(#loc79)
    %tmp0_21 = arith.extf %tmp0_20 : tensor<2x2048xf16> to tensor<2x2048xf32> loc(#loc80)
    %tmp2 = tt.splat %in_ptr1 : !tt.ptr<f16> -> tensor<2x2048x!tt.ptr<f16>> loc(#loc81)
    %tmp2_22 = tt.addptr %tmp2, %tmp0_14 : tensor<2x2048x!tt.ptr<f16>>, tensor<2x2048xi32> loc(#loc81)
    %tmp2_23 = tt.load %tmp2_22, %tmp0_19, %cst evictionPolicy = evict_last : tensor<2x2048x!tt.ptr<f16>> loc(#loc82)
    %tmp2_24 = arith.extf %tmp2_23 : tensor<2x2048xf16> to tensor<2x2048xf32> loc(#loc83)
    %tmp4 = tt.splat %in_ptr2 : !tt.ptr<f16> -> tensor<2x2048x!tt.ptr<f16>> loc(#loc84)
    %tmp4_25 = tt.addptr %tmp4, %tmp0_14 : tensor<2x2048x!tt.ptr<f16>>, tensor<2x2048xi32> loc(#loc84)
    %tmp4_26 = tt.load %tmp4_25, %tmp0_19, %cst evictionPolicy = evict_last : tensor<2x2048x!tt.ptr<f16>> loc(#loc85)
    %tmp4_27 = arith.extf %tmp4_26 : tensor<2x2048xf16> to tensor<2x2048xf32> loc(#loc86)
    %tmp6 = arith.addf %tmp2_24, %tmp4_27 : tensor<2x2048xf32> loc(#loc87)
    %tmp9 = arith.addf %tmp0_21, %tmp6 : tensor<2x2048xf32> loc(#loc88)
    %tmp10 = arith.mulf %tmp9, %tmp9 : tensor<2x2048xf32> loc(#loc89)
    %tmp13 = arith.addf %tmp10, %cst_5 : tensor<2x2048xf32> loc(#loc90)
    %_tmp12 = arith.select %tmp0_19, %tmp13, %cst_5 : tensor<2x2048xi1>, tensor<2x2048xf32> loc(#loc91)
    %0 = tt.splat %out_ptr1 : !tt.ptr<f16> -> tensor<2x2048x!tt.ptr<f16>> loc(#loc29)
    %1 = tt.addptr %0, %tmp0_14 : tensor<2x2048x!tt.ptr<f16>>, tensor<2x2048xi32> loc(#loc29)
    %2 = arith.truncf %tmp9 : tensor<2x2048xf32> to tensor<2x2048xf16> loc(#loc30)
    tt.store %1, %2, %tmp0_19 : tensor<2x2048x!tt.ptr<f16>> loc(#loc30)
    %tmp12 = "tt.reduce"(%_tmp12) <{axis = 1 : i32}> ({
    ^bb0(%tmp12_38: f32 loc(callsite(#loc2 at #loc92)), %tmp12_39: f32 loc(callsite(#loc2 at #loc92))):
      %tmp12_40 = arith.addf %tmp12_38, %tmp12_39 : f32 loc(#loc112)
      tt.reduce.return %tmp12_40 : f32 loc(#loc110)
    }) : (tensor<2x2048xf32>) -> tensor<2xf32> loc(#loc110)
    %tmp12_28 = tt.expand_dims %tmp12 {axis = 1 : i32} : tensor<2xf32> -> tensor<2x1xf32> loc(#loc93)
    %tmp15 = tt.load %tmp0_16, %tmp0_19, %cst evictionPolicy = evict_first : tensor<2x2048x!tt.ptr<f16>> loc(#loc94)
    %tmp15_29 = arith.extf %tmp15 : tensor<2x2048xf16> to tensor<2x2048xf32> loc(#loc95)
    %tmp17 = tt.load %tmp2_22, %tmp0_19, %cst evictionPolicy = evict_first : tensor<2x2048x!tt.ptr<f16>> loc(#loc96)
    %tmp17_30 = arith.extf %tmp17 : tensor<2x2048xf16> to tensor<2x2048xf32> loc(#loc97)
    %tmp19 = tt.load %tmp4_25, %tmp0_19, %cst evictionPolicy = evict_first : tensor<2x2048x!tt.ptr<f16>> loc(#loc98)
    %tmp19_31 = arith.extf %tmp19 : tensor<2x2048xf16> to tensor<2x2048xf32> loc(#loc99)
    %tmp31_32 = tt.splat %in_ptr3 : !tt.ptr<f16> -> tensor<1x2048x!tt.ptr<f16>> loc(#loc100)
    %tmp31_33 = tt.addptr %tmp31_32, %r0_base_11 : tensor<1x2048x!tt.ptr<f16>>, tensor<1x2048xi32> loc(#loc100)
    %tmp31_34 = tt.load %tmp31_33, %r0_mask, %tmp31 evictionPolicy = evict_last : tensor<1x2048x!tt.ptr<f16>> loc(#loc65)
    %tmp31_35 = arith.extf %tmp31_34 : tensor<1x2048xf16> to tensor<1x2048xf32> loc(#loc101)
    %tmp21 = arith.addf %tmp17_30, %tmp19_31 : tensor<2x2048xf32> loc(#loc102)
    %tmp24 = arith.addf %tmp15_29, %tmp21 : tensor<2x2048xf32> loc(#loc103)
    %tmp26 = arith.divf %tmp12_28, %cst_2 : tensor<2x1xf32> loc(#loc104)
    %tmp28 = arith.addf %tmp26, %cst_1 : tensor<2x1xf32> loc(#loc105)
    %tmp29 = tt.extern_elementwise %tmp28 {libname = "", libpath = "", pure = true, symbol = "__nv_rsqrtf"} : (tensor<2x1xf32>) -> tensor<2x1xf32> loc(#loc106)
    %tmp30 = tt.broadcast %tmp29 : tensor<2x1xf32> -> tensor<2x2048xf32> loc(#loc107)
    %tmp30_36 = arith.mulf %tmp24, %tmp30 : tensor<2x2048xf32> loc(#loc107)
    %tmp34 = arith.addf %tmp31_35, %cst_0 : tensor<1x2048xf32> loc(#loc108)
    %tmp35 = tt.broadcast %tmp34 : tensor<1x2048xf32> -> tensor<2x2048xf32> loc(#loc109)
    %tmp35_37 = arith.mulf %tmp30_36, %tmp35 : tensor<2x2048xf32> loc(#loc109)
    %3 = tt.splat %out_ptr2 : !tt.ptr<f16> -> tensor<2x2048x!tt.ptr<f16>> loc(#loc51)
    %4 = tt.addptr %3, %tmp0_14 : tensor<2x2048x!tt.ptr<f16>>, tensor<2x2048xi32> loc(#loc51)
    %5 = arith.truncf %tmp35_37 : tensor<2x2048xf32> to tensor<2x2048xf16> loc(#loc52)
    tt.store %4, %5, %tmp0_19 : tensor<2x2048x!tt.ptr<f16>> loc(#loc52)
    %6 = tt.splat %out_ptr3 : !tt.ptr<f16> -> tensor<2x2048x!tt.ptr<f16>> loc(#loc53)
    %7 = tt.addptr %6, %tmp0_14 : tensor<2x2048x!tt.ptr<f16>>, tensor<2x2048xi32> loc(#loc53)
    tt.store %7, %tmp17, %tmp0_19 : tensor<2x2048x!tt.ptr<f16>> loc(#loc54)
    tt.return loc(#loc55)
  } loc(#loc)
} loc(#loc)
#loc1 = loc("/root/.cache/vllm/torch_compile_cache/torch_aot_compile/61bda05feca29378847c32f031efa5c8dba258f38b0176a06a3e99e41df8ca50/inductor_cache/jw/cjw64zluotjyqqp6qsmb2wgrqubkvrjkdnp4lhpupz6f5ieofcto.py":61:42)
#loc3 = loc("/root/.cache/vllm/torch_compile_cache/torch_aot_compile/61bda05feca29378847c32f031efa5c8dba258f38b0176a06a3e99e41df8ca50/inductor_cache/jw/cjw64zluotjyqqp6qsmb2wgrqubkvrjkdnp4lhpupz6f5ieofcto.py":22:28)
#loc4 = loc("/root/.cache/vllm/torch_compile_cache/torch_aot_compile/61bda05feca29378847c32f031efa5c8dba258f38b0176a06a3e99e41df8ca50/inductor_cache/jw/cjw64zluotjyqqp6qsmb2wgrqubkvrjkdnp4lhpupz6f5ieofcto.py":22:33)
#loc5 = loc("/root/.cache/vllm/torch_compile_cache/torch_aot_compile/61bda05feca29378847c32f031efa5c8dba258f38b0176a06a3e99e41df8ca50/inductor_cache/jw/cjw64zluotjyqqp6qsmb2wgrqubkvrjkdnp4lhpupz6f5ieofcto.py":23:36)
#loc6 = loc("/root/.cache/vllm/torch_compile_cache/torch_aot_compile/61bda05feca29378847c32f031efa5c8dba258f38b0176a06a3e99e41df8ca50/inductor_cache/jw/cjw64zluotjyqqp6qsmb2wgrqubkvrjkdnp4lhpupz6f5ieofcto.py":23:44)
#loc7 = loc("/root/.cache/vllm/torch_compile_cache/torch_aot_compile/61bda05feca29378847c32f031efa5c8dba258f38b0176a06a3e99e41df8ca50/inductor_cache/jw/cjw64zluotjyqqp6qsmb2wgrqubkvrjkdnp4lhpupz6f5ieofcto.py":23:23)
#loc8 = loc("/root/.cache/vllm/torch_compile_cache/torch_aot_compile/61bda05feca29378847c32f031efa5c8dba258f38b0176a06a3e99e41df8ca50/inductor_cache/jw/cjw64zluotjyqqp6qsmb2wgrqubkvrjkdnp4lhpupz6f5ieofcto.py":24:21)
#loc9 = loc("/root/.cache/vllm/torch_compile_cache/torch_aot_compile/61bda05feca29378847c32f031efa5c8dba258f38b0176a06a3e99e41df8ca50/inductor_cache/jw/cjw64zluotjyqqp6qsmb2wgrqubkvrjkdnp4lhpupz6f5ieofcto.py":25:27)
#loc10 = loc("/root/.cache/vllm/torch_compile_cache/torch_aot_compile/61bda05feca29378847c32f031efa5c8dba258f38b0176a06a3e99e41df8ca50/inductor_cache/jw/cjw64zluotjyqqp6qsmb2wgrqubkvrjkdnp4lhpupz6f5ieofcto.py":25:37)
#loc11 = loc("/root/.cache/vllm/torch_compile_cache/torch_aot_compile/61bda05feca29378847c32f031efa5c8dba258f38b0176a06a3e99e41df8ca50/inductor_cache/jw/cjw64zluotjyqqp6qsmb2wgrqubkvrjkdnp4lhpupz6f5ieofcto.py":31:29)
#loc12 = loc("/root/.cache/vllm/torch_compile_cache/torch_aot_compile/61bda05feca29378847c32f031efa5c8dba258f38b0176a06a3e99e41df8ca50/inductor_cache/jw/cjw64zluotjyqqp6qsmb2wgrqubkvrjkdnp4lhpupz6f5ieofcto.py":35:46)
#loc13 = loc("/root/.cache/vllm/torch_compile_cache/torch_aot_compile/61bda05feca29378847c32f031efa5c8dba258f38b0176a06a3e99e41df8ca50/inductor_cache/jw/cjw64zluotjyqqp6qsmb2wgrqubkvrjkdnp4lhpupz6f5ieofcto.py":35:41)
#loc14 = loc("/root/.cache/vllm/torch_compile_cache/torch_aot_compile/61bda05feca29378847c32f031efa5c8dba258f38b0176a06a3e99e41df8ca50/inductor_cache/jw/cjw64zluotjyqqp6qsmb2wgrqubkvrjkdnp4lhpupz6f5ieofcto.py":35:34)
#loc15 = loc("/root/.cache/vllm/torch_compile_cache/torch_aot_compile/61bda05feca29378847c32f031efa5c8dba258f38b0176a06a3e99e41df8ca50/inductor_cache/jw/cjw64zluotjyqqp6qsmb2wgrqubkvrjkdnp4lhpupz6f5ieofcto.py":35:61)
#loc16 = loc("/root/.cache/vllm/torch_compile_cache/torch_aot_compile/61bda05feca29378847c32f031efa5c8dba258f38b0176a06a3e99e41df8ca50/inductor_cache/jw/cjw64zluotjyqqp6qsmb2wgrqubkvrjkdnp4lhpupz6f5ieofcto.py":35:51)
#loc17 = loc("/root/.cache/vllm/torch_compile_cache/torch_aot_compile/61bda05feca29378847c32f031efa5c8dba258f38b0176a06a3e99e41df8ca50/inductor_cache/jw/cjw64zluotjyqqp6qsmb2wgrqubkvrjkdnp4lhpupz6f5ieofcto.py":35:112)
#loc18 = loc("/root/.cache/vllm/torch_compile_cache/torch_aot_compile/61bda05feca29378847c32f031efa5c8dba258f38b0176a06a3e99e41df8ca50/inductor_cache/jw/cjw64zluotjyqqp6qsmb2wgrqubkvrjkdnp4lhpupz6f5ieofcto.py":36:34)
#loc19 = loc("/root/.cache/vllm/torch_compile_cache/torch_aot_compile/61bda05feca29378847c32f031efa5c8dba258f38b0176a06a3e99e41df8ca50/inductor_cache/jw/cjw64zluotjyqqp6qsmb2wgrqubkvrjkdnp4lhpupz6f5ieofcto.py":36:51)
#loc20 = loc("/root/.cache/vllm/torch_compile_cache/torch_aot_compile/61bda05feca29378847c32f031efa5c8dba258f38b0176a06a3e99e41df8ca50/inductor_cache/jw/cjw64zluotjyqqp6qsmb2wgrqubkvrjkdnp4lhpupz6f5ieofcto.py":36:112)
#loc21 = loc("/root/.cache/vllm/torch_compile_cache/torch_aot_compile/61bda05feca29378847c32f031efa5c8dba258f38b0176a06a3e99e41df8ca50/inductor_cache/jw/cjw64zluotjyqqp6qsmb2wgrqubkvrjkdnp4lhpupz6f5ieofcto.py":37:34)
#loc22 = loc("/root/.cache/vllm/torch_compile_cache/torch_aot_compile/61bda05feca29378847c32f031efa5c8dba258f38b0176a06a3e99e41df8ca50/inductor_cache/jw/cjw64zluotjyqqp6qsmb2wgrqubkvrjkdnp4lhpupz6f5ieofcto.py":37:51)
#loc23 = loc("/root/.cache/vllm/torch_compile_cache/torch_aot_compile/61bda05feca29378847c32f031efa5c8dba258f38b0176a06a3e99e41df8ca50/inductor_cache/jw/cjw64zluotjyqqp6qsmb2wgrqubkvrjkdnp4lhpupz6f5ieofcto.py":37:112)
#loc24 = loc("/root/.cache/vllm/torch_compile_cache/torch_aot_compile/61bda05feca29378847c32f031efa5c8dba258f38b0176a06a3e99e41df8ca50/inductor_cache/jw/cjw64zluotjyqqp6qsmb2wgrqubkvrjkdnp4lhpupz6f5ieofcto.py":41:22)
#loc25 = loc("/root/.cache/vllm/torch_compile_cache/torch_aot_compile/61bda05feca29378847c32f031efa5c8dba258f38b0176a06a3e99e41df8ca50/inductor_cache/jw/cjw64zluotjyqqp6qsmb2wgrqubkvrjkdnp4lhpupz6f5ieofcto.py":44:22)
#loc26 = loc("/root/.cache/vllm/torch_compile_cache/torch_aot_compile/61bda05feca29378847c32f031efa5c8dba258f38b0176a06a3e99e41df8ca50/inductor_cache/jw/cjw64zluotjyqqp6qsmb2wgrqubkvrjkdnp4lhpupz6f5ieofcto.py":45:23)
#loc27 = loc("/root/.cache/vllm/torch_compile_cache/torch_aot_compile/61bda05feca29378847c32f031efa5c8dba258f38b0176a06a3e99e41df8ca50/inductor_cache/jw/cjw64zluotjyqqp6qsmb2wgrqubkvrjkdnp4lhpupz6f5ieofcto.py":47:25)
#loc28 = loc("/root/.cache/vllm/torch_compile_cache/torch_aot_compile/61bda05feca29378847c32f031efa5c8dba258f38b0176a06a3e99e41df8ca50/inductor_cache/jw/cjw64zluotjyqqp6qsmb2wgrqubkvrjkdnp4lhpupz6f5ieofcto.py":48:50)
#loc29 = loc("/root/.cache/vllm/torch_compile_cache/torch_aot_compile/61bda05feca29378847c32f031efa5c8dba258f38b0176a06a3e99e41df8ca50/inductor_cache/jw/cjw64zluotjyqqp6qsmb2wgrqubkvrjkdnp4lhpupz6f5ieofcto.py":50:29)
#loc30 = loc("/root/.cache/vllm/torch_compile_cache/torch_aot_compile/61bda05feca29378847c32f031efa5c8dba258f38b0176a06a3e99e41df8ca50/inductor_cache/jw/cjw64zluotjyqqp6qsmb2wgrqubkvrjkdnp4lhpupz6f5ieofcto.py":50:53)
#loc31 = loc("/usr/local/lib/python3.12/dist-packages/triton/language/standard.py":293:36)
#loc33 = loc("/usr/local/lib/python3.12/dist-packages/triton/language/standard.py":263:15)
#loc34 = loc("/root/.cache/vllm/torch_compile_cache/torch_aot_compile/61bda05feca29378847c32f031efa5c8dba258f38b0176a06a3e99e41df8ca50/inductor_cache/jw/cjw64zluotjyqqp6qsmb2wgrqubkvrjkdnp4lhpupz6f5ieofcto.py":51:30)
#loc35 = loc("/root/.cache/vllm/torch_compile_cache/torch_aot_compile/61bda05feca29378847c32f031efa5c8dba258f38b0176a06a3e99e41df8ca50/inductor_cache/jw/cjw64zluotjyqqp6qsmb2wgrqubkvrjkdnp4lhpupz6f5ieofcto.py":58:52)
#loc36 = loc("/root/.cache/vllm/torch_compile_cache/torch_aot_compile/61bda05feca29378847c32f031efa5c8dba258f38b0176a06a3e99e41df8ca50/inductor_cache/jw/cjw64zluotjyqqp6qsmb2wgrqubkvrjkdnp4lhpupz6f5ieofcto.py":58:114)
#loc37 = loc("/root/.cache/vllm/torch_compile_cache/torch_aot_compile/61bda05feca29378847c32f031efa5c8dba258f38b0176a06a3e99e41df8ca50/inductor_cache/jw/cjw64zluotjyqqp6qsmb2wgrqubkvrjkdnp4lhpupz6f5ieofcto.py":59:52)
#loc38 = loc("/root/.cache/vllm/torch_compile_cache/torch_aot_compile/61bda05feca29378847c32f031efa5c8dba258f38b0176a06a3e99e41df8ca50/inductor_cache/jw/cjw64zluotjyqqp6qsmb2wgrqubkvrjkdnp4lhpupz6f5ieofcto.py":59:114)
#loc39 = loc("/root/.cache/vllm/torch_compile_cache/torch_aot_compile/61bda05feca29378847c32f031efa5c8dba258f38b0176a06a3e99e41df8ca50/inductor_cache/jw/cjw64zluotjyqqp6qsmb2wgrqubkvrjkdnp4lhpupz6f5ieofcto.py":60:52)
#loc40 = loc("/root/.cache/vllm/torch_compile_cache/torch_aot_compile/61bda05feca29378847c32f031efa5c8dba258f38b0176a06a3e99e41df8ca50/inductor_cache/jw/cjw64zluotjyqqp6qsmb2wgrqubkvrjkdnp4lhpupz6f5ieofcto.py":60:114)
#loc41 = loc("/root/.cache/vllm/torch_compile_cache/torch_aot_compile/61bda05feca29378847c32f031efa5c8dba258f38b0176a06a3e99e41df8ca50/inductor_cache/jw/cjw64zluotjyqqp6qsmb2wgrqubkvrjkdnp4lhpupz6f5ieofcto.py":61:35)
#loc42 = loc("/root/.cache/vllm/torch_compile_cache/torch_aot_compile/61bda05feca29378847c32f031efa5c8dba258f38b0176a06a3e99e41df8ca50/inductor_cache/jw/cjw64zluotjyqqp6qsmb2wgrqubkvrjkdnp4lhpupz6f5ieofcto.py":61:95)
#loc43 = loc("/root/.cache/vllm/torch_compile_cache/torch_aot_compile/61bda05feca29378847c32f031efa5c8dba258f38b0176a06a3e99e41df8ca50/inductor_cache/jw/cjw64zluotjyqqp6qsmb2wgrqubkvrjkdnp4lhpupz6f5ieofcto.py":65:24)
#loc44 = loc("/root/.cache/vllm/torch_compile_cache/torch_aot_compile/61bda05feca29378847c32f031efa5c8dba258f38b0176a06a3e99e41df8ca50/inductor_cache/jw/cjw64zluotjyqqp6qsmb2wgrqubkvrjkdnp4lhpupz6f5ieofcto.py":68:24)
#loc45 = loc("/root/.cache/vllm/torch_compile_cache/torch_aot_compile/61bda05feca29378847c32f031efa5c8dba258f38b0176a06a3e99e41df8ca50/inductor_cache/jw/cjw64zluotjyqqp6qsmb2wgrqubkvrjkdnp4lhpupz6f5ieofcto.py":70:25)
#loc46 = loc("/root/.cache/vllm/torch_compile_cache/torch_aot_compile/61bda05feca29378847c32f031efa5c8dba258f38b0176a06a3e99e41df8ca50/inductor_cache/jw/cjw64zluotjyqqp6qsmb2wgrqubkvrjkdnp4lhpupz6f5ieofcto.py":72:24)
#loc47 = loc("/root/.cache/vllm/torch_compile_cache/torch_aot_compile/61bda05feca29378847c32f031efa5c8dba258f38b0176a06a3e99e41df8ca50/inductor_cache/jw/cjw64zluotjyqqp6qsmb2wgrqubkvrjkdnp4lhpupz6f5ieofcto.py":73:32)
#loc48 = loc("/root/.cache/vllm/torch_compile_cache/torch_aot_compile/61bda05feca29378847c32f031efa5c8dba258f38b0176a06a3e99e41df8ca50/inductor_cache/jw/cjw64zluotjyqqp6qsmb2wgrqubkvrjkdnp4lhpupz6f5ieofcto.py":74:24)
#loc49 = loc("/root/.cache/vllm/torch_compile_cache/torch_aot_compile/61bda05feca29378847c32f031efa5c8dba258f38b0176a06a3e99e41df8ca50/inductor_cache/jw/cjw64zluotjyqqp6qsmb2wgrqubkvrjkdnp4lhpupz6f5ieofcto.py":77:24)
#loc50 = loc("/root/.cache/vllm/torch_compile_cache/torch_aot_compile/61bda05feca29378847c32f031efa5c8dba258f38b0176a06a3e99e41df8ca50/inductor_cache/jw/cjw64zluotjyqqp6qsmb2wgrqubkvrjkdnp4lhpupz6f5ieofcto.py":78:24)
#loc51 = loc("/root/.cache/vllm/torch_compile_cache/torch_aot_compile/61bda05feca29378847c32f031efa5c8dba258f38b0176a06a3e99e41df8ca50/inductor_cache/jw/cjw64zluotjyqqp6qsmb2wgrqubkvrjkdnp4lhpupz6f5ieofcto.py":80:29)
#loc52 = loc("/root/.cache/vllm/torch_compile_cache/torch_aot_compile/61bda05feca29378847c32f031efa5c8dba258f38b0176a06a3e99e41df8ca50/inductor_cache/jw/cjw64zluotjyqqp6qsmb2wgrqubkvrjkdnp4lhpupz6f5ieofcto.py":80:53)
#loc53 = loc("/root/.cache/vllm/torch_compile_cache/torch_aot_compile/61bda05feca29378847c32f031efa5c8dba258f38b0176a06a3e99e41df8ca50/inductor_cache/jw/cjw64zluotjyqqp6qsmb2wgrqubkvrjkdnp4lhpupz6f5ieofcto.py":81:29)
#loc54 = loc("/root/.cache/vllm/torch_compile_cache/torch_aot_compile/61bda05feca29378847c32f031efa5c8dba258f38b0176a06a3e99e41df8ca50/inductor_cache/jw/cjw64zluotjyqqp6qsmb2wgrqubkvrjkdnp4lhpupz6f5ieofcto.py":81:53)
#loc55 = loc("/root/.cache/vllm/torch_compile_cache/torch_aot_compile/61bda05feca29378847c32f031efa5c8dba258f38b0176a06a3e99e41df8ca50/inductor_cache/jw/cjw64zluotjyqqp6qsmb2wgrqubkvrjkdnp4lhpupz6f5ieofcto.py":52:4)
#loc65 = loc("tmp31"(#loc1))
#loc66 = loc("xoffset"(#loc3))
#loc67 = loc("xoffset"(#loc4))
#loc68 = loc("xindex"(#loc5))
#loc69 = loc("xindex"(#loc6))
#loc70 = loc("xindex"(#loc7))
#loc71 = loc("xmask"(#loc8))
#loc72 = loc("r0_base"(#loc9))
#loc73 = loc("r0_base"(#loc10))
#loc74 = loc("r0_mask"(#loc11))
#loc75 = loc("tmp0"(#loc12))
#loc76 = loc("tmp0"(#loc13))
#loc77 = loc("tmp0"(#loc14))
#loc78 = loc("tmp0"(#loc15))
#loc79 = loc("tmp0"(#loc16))
#loc80 = loc("tmp0"(#loc17))
#loc81 = loc("tmp2"(#loc18))
#loc82 = loc("tmp2"(#loc19))
#loc83 = loc("tmp2"(#loc20))
#loc84 = loc("tmp4"(#loc21))
#loc85 = loc("tmp4"(#loc22))
#loc86 = loc("tmp4"(#loc23))
#loc87 = loc("tmp6"(#loc24))
#loc88 = loc("tmp9"(#loc25))
#loc89 = loc("tmp10"(#loc26))
#loc90 = loc("tmp13"(#loc27))
#loc91 = loc("_tmp12"(#loc28))
#loc93 = loc("tmp12"(#loc34))
#loc94 = loc("tmp15"(#loc35))
#loc95 = loc("tmp15"(#loc36))
#loc96 = loc("tmp17"(#loc37))
#loc97 = loc("tmp17"(#loc38))
#loc98 = loc("tmp19"(#loc39))
#loc99 = loc("tmp19"(#loc40))
#loc100 = loc("tmp31"(#loc41))
#loc101 = loc("tmp31"(#loc42))
#loc102 = loc("tmp21"(#loc43))
#loc103 = loc("tmp24"(#loc44))
#loc104 = loc("tmp26"(#loc45))
#loc105 = loc("tmp28"(#loc46))
#loc106 = loc("tmp29"(#loc47))
#loc107 = loc("tmp30"(#loc48))
#loc108 = loc("tmp34"(#loc49))
#loc109 = loc("tmp35"(#loc50))
#loc110 = loc(callsite(#loc31 at #loc92))
#loc112 = loc(callsite(#loc33 at #loc110))
