#loc = loc("/root/.cache/vllm/torch_compile_cache/torch_aot_compile/61bda05feca29378847c32f031efa5c8dba258f38b0176a06a3e99e41df8ca50/inductor_cache/mg/cmgawz4d4elcmb5foe2fhvxopc3ms5l4wsuwbdjxr5a5u47ligrm.py":21:0)
#loc1 = loc(unknown)
#loc35 = loc("/root/.cache/vllm/torch_compile_cache/torch_aot_compile/61bda05feca29378847c32f031efa5c8dba258f38b0176a06a3e99e41df8ca50/inductor_cache/mg/cmgawz4d4elcmb5foe2fhvxopc3ms5l4wsuwbdjxr5a5u47ligrm.py":51:29)
#loc64 = loc("/root/.cache/vllm/torch_compile_cache/torch_aot_compile/61bda05feca29378847c32f031efa5c8dba258f38b0176a06a3e99e41df8ca50/inductor_cache/mg/cmgawz4d4elcmb5foe2fhvxopc3ms5l4wsuwbdjxr5a5u47ligrm.py":77:31)
#loc69 = loc("in_ptr0"(#loc))
#loc70 = loc("out_ptr0"(#loc))
#loc71 = loc("out_ptr1"(#loc))
#loc72 = loc("xnumel_0"(#loc))
#loc73 = loc("xnumel_1"(#loc))
#loc101 = loc("tmp4"(#loc35))
#loc124 = loc("tmp10"(#loc64))
#loc131 = loc(callsite(#loc1 at #loc101))
#loc133 = loc(callsite(#loc1 at #loc124))
module {
  tt.func public @triton_(%in_ptr0: !tt.ptr<f16> {tt.divisibility = 16 : i32} loc("in_ptr0"(#loc)), %out_ptr0: !tt.ptr<f32> {tt.divisibility = 16 : i32} loc("out_ptr0"(#loc)), %out_ptr1: !tt.ptr<f32> {tt.divisibility = 16 : i32} loc("out_ptr1"(#loc)), %xnumel_0: i32 loc("xnumel_0"(#loc)), %xnumel_1: i32 loc("xnumel_1"(#loc))) attributes {noinline = false} {
    %c63_i32 = arith.constant 63 : i32 loc(#loc1)
    %cst = arith.constant dense<0.000000e+00> : tensor<64x8xf16> loc(#loc1)
    %c8_i32 = arith.constant 8 : i32 loc(#loc1)
    %c256_i32 = arith.constant 256 : i32 loc(#loc1)
    %c0_i32 = arith.constant 0 : i32 loc(#loc1)
    %cst_0 = arith.constant dense<4096> : tensor<1x8xi32> loc(#loc1)
    %cst_1 = arith.constant dense<4608> : tensor<64x1xi32> loc(#loc1)
    %cst_2 = arith.constant dense<512> : tensor<64x1xi32> loc(#loc1)
    %cst_3 = arith.constant dense<256> : tensor<1x8xi32> loc(#loc1)
    %cst_4 = arith.constant dense<0.000000e+00> : tensor<64x8xf32> loc(#loc1)
    %cst_5 = arith.constant dense<8> : tensor<64x1xi32> loc(#loc1)
    %c64_i32 = arith.constant 64 : i32 loc(#loc1)
    %pid = tt.get_program_id x : i32 loc(#loc74)
    %num_xblocks_0 = arith.addi %xnumel_0, %c63_i32 : i32 loc(#loc126)
    %num_xblocks_0_6 = arith.divsi %num_xblocks_0, %c64_i32 : i32 loc(#loc127)
    %num_xblocks_1 = arith.addi %xnumel_1, %c63_i32 : i32 loc(#loc128)
    %num_xblocks_1_7 = arith.divsi %num_xblocks_1, %c64_i32 : i32 loc(#loc129)
    %num_xblocks_1_8 = arith.addi %num_xblocks_0_6, %num_xblocks_1_7 : i32 loc(#loc77)
    %0 = arith.cmpi slt, %pid, %num_xblocks_0_6 : i32 loc(#loc8)
    scf.if %0 {
      %xoffset = arith.muli %pid, %c64_i32 : i32 loc(#loc78)
      %xindex = tt.make_range {end = 64 : i32, start = 0 : i32} : tensor<64xi32> loc(#loc79)
      %xindex_9 = tt.expand_dims %xindex {axis = 1 : i32} : tensor<64xi32> -> tensor<64x1xi32> loc(#loc80)
      %xindex_10 = tt.splat %xoffset : i32 -> tensor<64x1xi32> loc(#loc81)
      %xindex_11 = arith.addi %xindex_10, %xindex_9 : tensor<64x1xi32> loc(#loc81)
      %xmask = tt.splat %xnumel_0 : i32 -> tensor<64x1xi32> loc(#loc82)
      %xmask_12 = arith.cmpi slt, %xindex_11, %xmask : tensor<64x1xi32> loc(#loc82)
      %r0_base = tt.make_range {end = 8 : i32, start = 0 : i32} : tensor<8xi32> loc(#loc83)
      %r0_base_13 = tt.expand_dims %r0_base {axis = 0 : i32} : tensor<8xi32> -> tensor<1x8xi32> loc(#loc84)
      %x0 = arith.remsi %xindex_11, %cst_5 : tensor<64x1xi32> loc(#loc85)
      %x1 = arith.divsi %xindex_11, %cst_5 : tensor<64x1xi32> loc(#loc86)
      %_tmp4 = scf.for %r0_offset = %c0_i32 to %c256_i32 step %c8_i32 iter_args(%_tmp4_15 = %cst_4) -> (tensor<64x8xf32>)  : i32 {
        %r0_index = tt.splat %r0_offset : i32 -> tensor<1x8xi32> loc(#loc88)
        %r0_index_16 = arith.addi %r0_index, %r0_base_13 : tensor<1x8xi32> loc(#loc88)
        %r0_mask = arith.cmpi slt, %r0_index_16, %cst_3 : tensor<1x8xi32> loc(#loc89)
        %tmp0 = arith.muli %x0, %cst_2 : tensor<64x1xi32> loc(#loc90)
        %tmp0_17 = tt.broadcast %r0_index_16 : tensor<1x8xi32> -> tensor<64x8xi32> loc(#loc91)
        %tmp0_18 = tt.broadcast %tmp0 : tensor<64x1xi32> -> tensor<64x8xi32> loc(#loc91)
        %tmp0_19 = arith.addi %tmp0_17, %tmp0_18 : tensor<64x8xi32> loc(#loc91)
        %tmp0_20 = arith.muli %x1, %cst_1 : tensor<64x1xi32> loc(#loc92)
        %tmp0_21 = tt.broadcast %tmp0_20 : tensor<64x1xi32> -> tensor<64x8xi32> loc(#loc93)
        %tmp0_22 = arith.addi %tmp0_19, %tmp0_21 : tensor<64x8xi32> loc(#loc93)
        %tmp0_23 = tt.splat %in_ptr0 : !tt.ptr<f16> -> tensor<64x8x!tt.ptr<f16>> loc(#loc94)
        %tmp0_24 = tt.addptr %tmp0_23, %tmp0_22 : tensor<64x8x!tt.ptr<f16>>, tensor<64x8xi32> loc(#loc94)
        %tmp0_25 = tt.broadcast %r0_mask : tensor<1x8xi1> -> tensor<64x8xi1> loc(#loc95)
        %tmp0_26 = tt.broadcast %xmask_12 : tensor<64x1xi1> -> tensor<64x8xi1> loc(#loc95)
        %tmp0_27 = arith.andi %tmp0_25, %tmp0_26 : tensor<64x8xi1> loc(#loc95)
        %tmp0_28 = tt.load %tmp0_24, %tmp0_27, %cst evictionPolicy = evict_first : tensor<64x8x!tt.ptr<f16>> loc(#loc96)
        %tmp0_29 = arith.extf %tmp0_28 : tensor<64x8xf16> to tensor<64x8xf32> loc(#loc97)
        %tmp2 = arith.mulf %tmp0_29, %tmp0_29 : tensor<64x8xf32> loc(#loc98)
        %tmp5 = arith.addf %_tmp4_15, %tmp2 : tensor<64x8xf32> loc(#loc99)
        %_tmp4_30 = arith.select %tmp0_27, %tmp5, %_tmp4_15 : tensor<64x8xi1>, tensor<64x8xf32> loc(#loc100)
        scf.yield %_tmp4_30 : tensor<64x8xf32> loc(#loc33)
      } loc(#loc87)
      %tmp4 = "tt.reduce"(%_tmp4) <{axis = 1 : i32}> ({
      ^bb0(%tmp4_15: f32 loc(callsite(#loc1 at #loc101)), %tmp4_16: f32 loc(callsite(#loc1 at #loc101))):
        %tmp4_17 = arith.addf %tmp4_15, %tmp4_16 : f32 loc(#loc134)
        tt.reduce.return %tmp4_17 : f32 loc(#loc130)
      }) : (tensor<64x8xf32>) -> tensor<64xf32> loc(#loc130)
      %tmp4_14 = tt.expand_dims %tmp4 {axis = 1 : i32} : tensor<64xf32> -> tensor<64x1xf32> loc(#loc102)
      %1 = tt.splat %out_ptr0 : !tt.ptr<f32> -> tensor<64x1x!tt.ptr<f32>> loc(#loc38)
      %2 = tt.addptr %1, %xindex_11 : tensor<64x1x!tt.ptr<f32>>, tensor<64x1xi32> loc(#loc38)
      tt.store %2, %tmp4_14, %xmask_12 : tensor<64x1x!tt.ptr<f32>> loc(#loc39)
    } else {
      %1 = arith.cmpi slt, %pid, %num_xblocks_1_8 : i32 loc(#loc40)
      scf.if %1 {
        %pid_offset = arith.subi %pid, %num_xblocks_0_6 : i32 loc(#loc103)
        %xoffset = arith.muli %pid_offset, %c64_i32 : i32 loc(#loc104)
        %xindex = tt.make_range {end = 64 : i32, start = 0 : i32} : tensor<64xi32> loc(#loc105)
        %xindex_9 = tt.expand_dims %xindex {axis = 1 : i32} : tensor<64xi32> -> tensor<64x1xi32> loc(#loc106)
        %xindex_10 = tt.splat %xoffset : i32 -> tensor<64x1xi32> loc(#loc107)
        %xindex_11 = arith.addi %xindex_10, %xindex_9 : tensor<64x1xi32> loc(#loc107)
        %xmask = tt.splat %xnumel_1 : i32 -> tensor<64x1xi32> loc(#loc108)
        %xmask_12 = arith.cmpi slt, %xindex_11, %xmask : tensor<64x1xi32> loc(#loc108)
        %r0_base = tt.make_range {end = 8 : i32, start = 0 : i32} : tensor<8xi32> loc(#loc109)
        %r0_base_13 = tt.expand_dims %r0_base {axis = 0 : i32} : tensor<8xi32> -> tensor<1x8xi32> loc(#loc110)
        %_tmp10 = scf.for %r0_offset = %c0_i32 to %c256_i32 step %c8_i32 iter_args(%_tmp10_15 = %cst_4) -> (tensor<64x8xf32>)  : i32 {
          %r0_index = tt.splat %r0_offset : i32 -> tensor<1x8xi32> loc(#loc112)
          %r0_index_16 = arith.addi %r0_index, %r0_base_13 : tensor<1x8xi32> loc(#loc112)
          %r0_mask = arith.cmpi slt, %r0_index_16, %cst_3 : tensor<1x8xi32> loc(#loc113)
          %tmp6 = arith.addi %r0_index_16, %cst_0 : tensor<1x8xi32> loc(#loc114)
          %tmp6_17 = arith.muli %xindex_11, %cst_1 : tensor<64x1xi32> loc(#loc115)
          %tmp6_18 = tt.broadcast %tmp6 : tensor<1x8xi32> -> tensor<64x8xi32> loc(#loc116)
          %tmp6_19 = tt.broadcast %tmp6_17 : tensor<64x1xi32> -> tensor<64x8xi32> loc(#loc116)
          %tmp6_20 = arith.addi %tmp6_18, %tmp6_19 : tensor<64x8xi32> loc(#loc116)
          %tmp6_21 = tt.splat %in_ptr0 : !tt.ptr<f16> -> tensor<64x8x!tt.ptr<f16>> loc(#loc117)
          %tmp6_22 = tt.addptr %tmp6_21, %tmp6_20 : tensor<64x8x!tt.ptr<f16>>, tensor<64x8xi32> loc(#loc117)
          %tmp6_23 = tt.broadcast %r0_mask : tensor<1x8xi1> -> tensor<64x8xi1> loc(#loc118)
          %tmp6_24 = tt.broadcast %xmask_12 : tensor<64x1xi1> -> tensor<64x8xi1> loc(#loc118)
          %tmp6_25 = arith.andi %tmp6_23, %tmp6_24 : tensor<64x8xi1> loc(#loc118)
          %tmp6_26 = tt.load %tmp6_22, %tmp6_25, %cst evictionPolicy = evict_first : tensor<64x8x!tt.ptr<f16>> loc(#loc119)
          %tmp6_27 = arith.extf %tmp6_26 : tensor<64x8xf16> to tensor<64x8xf32> loc(#loc120)
          %tmp8 = arith.mulf %tmp6_27, %tmp6_27 : tensor<64x8xf32> loc(#loc121)
          %tmp11 = arith.addf %_tmp10_15, %tmp8 : tensor<64x8xf32> loc(#loc122)
          %_tmp10_28 = arith.select %tmp6_25, %tmp11, %_tmp10_15 : tensor<64x8xi1>, tensor<64x8xf32> loc(#loc123)
          scf.yield %_tmp10_28 : tensor<64x8xf32> loc(#loc63)
        } loc(#loc111)
        %tmp10 = "tt.reduce"(%_tmp10) <{axis = 1 : i32}> ({
        ^bb0(%tmp10_15: f32 loc(callsite(#loc1 at #loc124)), %tmp10_16: f32 loc(callsite(#loc1 at #loc124))):
          %tmp10_17 = arith.addf %tmp10_15, %tmp10_16 : f32 loc(#loc135)
          tt.reduce.return %tmp10_17 : f32 loc(#loc132)
        }) : (tensor<64x8xf32>) -> tensor<64xf32> loc(#loc132)
        %tmp10_14 = tt.expand_dims %tmp10 {axis = 1 : i32} : tensor<64xf32> -> tensor<64x1xf32> loc(#loc125)
        %2 = tt.splat %out_ptr1 : !tt.ptr<f32> -> tensor<64x1x!tt.ptr<f32>> loc(#loc66)
        %3 = tt.addptr %2, %xindex_11 : tensor<64x1x!tt.ptr<f32>>, tensor<64x1xi32> loc(#loc66)
        tt.store %3, %tmp10_14, %xmask_12 : tensor<64x1x!tt.ptr<f32>> loc(#loc67)
      } loc(#loc41)
    } loc(#loc9)
    tt.return loc(#loc68)
  } loc(#loc)
} loc(#loc)
#loc2 = loc("/root/.cache/vllm/torch_compile_cache/torch_aot_compile/61bda05feca29378847c32f031efa5c8dba258f38b0176a06a3e99e41df8ca50/inductor_cache/mg/cmgawz4d4elcmb5foe2fhvxopc3ms5l4wsuwbdjxr5a5u47ligrm.py":22:24)
#loc3 = loc("/usr/local/lib/python3.12/dist-packages/triton/language/standard.py":43:17)
#loc4 = loc("/root/.cache/vllm/torch_compile_cache/torch_aot_compile/61bda05feca29378847c32f031efa5c8dba258f38b0176a06a3e99e41df8ca50/inductor_cache/mg/cmgawz4d4elcmb5foe2fhvxopc3ms5l4wsuwbdjxr5a5u47ligrm.py":23:38)
#loc5 = loc("/usr/local/lib/python3.12/dist-packages/triton/language/standard.py":43:30)
#loc6 = loc("/root/.cache/vllm/torch_compile_cache/torch_aot_compile/61bda05feca29378847c32f031efa5c8dba258f38b0176a06a3e99e41df8ca50/inductor_cache/mg/cmgawz4d4elcmb5foe2fhvxopc3ms5l4wsuwbdjxr5a5u47ligrm.py":24:54)
#loc7 = loc("/root/.cache/vllm/torch_compile_cache/torch_aot_compile/61bda05feca29378847c32f031efa5c8dba258f38b0176a06a3e99e41df8ca50/inductor_cache/mg/cmgawz4d4elcmb5foe2fhvxopc3ms5l4wsuwbdjxr5a5u47ligrm.py":24:36)
#loc8 = loc("/root/.cache/vllm/torch_compile_cache/torch_aot_compile/61bda05feca29378847c32f031efa5c8dba258f38b0176a06a3e99e41df8ca50/inductor_cache/mg/cmgawz4d4elcmb5foe2fhvxopc3ms5l4wsuwbdjxr5a5u47ligrm.py":25:13)
#loc9 = loc("/root/.cache/vllm/torch_compile_cache/torch_aot_compile/61bda05feca29378847c32f031efa5c8dba258f38b0176a06a3e99e41df8ca50/inductor_cache/mg/cmgawz4d4elcmb5foe2fhvxopc3ms5l4wsuwbdjxr5a5u47ligrm.py":25:7)
#loc10 = loc("/root/.cache/vllm/torch_compile_cache/torch_aot_compile/61bda05feca29378847c32f031efa5c8dba258f38b0176a06a3e99e41df8ca50/inductor_cache/mg/cmgawz4d4elcmb5foe2fhvxopc3ms5l4wsuwbdjxr5a5u47ligrm.py":30:31)
#loc11 = loc("/root/.cache/vllm/torch_compile_cache/torch_aot_compile/61bda05feca29378847c32f031efa5c8dba258f38b0176a06a3e99e41df8ca50/inductor_cache/mg/cmgawz4d4elcmb5foe2fhvxopc3ms5l4wsuwbdjxr5a5u47ligrm.py":31:40)
#loc12 = loc("/root/.cache/vllm/torch_compile_cache/torch_aot_compile/61bda05feca29378847c32f031efa5c8dba258f38b0176a06a3e99e41df8ca50/inductor_cache/mg/cmgawz4d4elcmb5foe2fhvxopc3ms5l4wsuwbdjxr5a5u47ligrm.py":31:48)
#loc13 = loc("/root/.cache/vllm/torch_compile_cache/torch_aot_compile/61bda05feca29378847c32f031efa5c8dba258f38b0176a06a3e99e41df8ca50/inductor_cache/mg/cmgawz4d4elcmb5foe2fhvxopc3ms5l4wsuwbdjxr5a5u47ligrm.py":31:27)
#loc14 = loc("/root/.cache/vllm/torch_compile_cache/torch_aot_compile/61bda05feca29378847c32f031efa5c8dba258f38b0176a06a3e99e41df8ca50/inductor_cache/mg/cmgawz4d4elcmb5foe2fhvxopc3ms5l4wsuwbdjxr5a5u47ligrm.py":32:25)
#loc15 = loc("/root/.cache/vllm/torch_compile_cache/torch_aot_compile/61bda05feca29378847c32f031efa5c8dba258f38b0176a06a3e99e41df8ca50/inductor_cache/mg/cmgawz4d4elcmb5foe2fhvxopc3ms5l4wsuwbdjxr5a5u47ligrm.py":33:31)
#loc16 = loc("/root/.cache/vllm/torch_compile_cache/torch_aot_compile/61bda05feca29378847c32f031efa5c8dba258f38b0176a06a3e99e41df8ca50/inductor_cache/mg/cmgawz4d4elcmb5foe2fhvxopc3ms5l4wsuwbdjxr5a5u47ligrm.py":33:41)
#loc17 = loc("/root/.cache/vllm/torch_compile_cache/torch_aot_compile/61bda05feca29378847c32f031efa5c8dba258f38b0176a06a3e99e41df8ca50/inductor_cache/mg/cmgawz4d4elcmb5foe2fhvxopc3ms5l4wsuwbdjxr5a5u47ligrm.py":35:23)
#loc18 = loc("/root/.cache/vllm/torch_compile_cache/torch_aot_compile/61bda05feca29378847c32f031efa5c8dba258f38b0176a06a3e99e41df8ca50/inductor_cache/mg/cmgawz4d4elcmb5foe2fhvxopc3ms5l4wsuwbdjxr5a5u47ligrm.py":36:23)
#loc19 = loc("/root/.cache/vllm/torch_compile_cache/torch_aot_compile/61bda05feca29378847c32f031efa5c8dba258f38b0176a06a3e99e41df8ca50/inductor_cache/mg/cmgawz4d4elcmb5foe2fhvxopc3ms5l4wsuwbdjxr5a5u47ligrm.py":39:47)
#loc20 = loc("/root/.cache/vllm/torch_compile_cache/torch_aot_compile/61bda05feca29378847c32f031efa5c8dba258f38b0176a06a3e99e41df8ca50/inductor_cache/mg/cmgawz4d4elcmb5foe2fhvxopc3ms5l4wsuwbdjxr5a5u47ligrm.py":40:35)
#loc21 = loc("/root/.cache/vllm/torch_compile_cache/torch_aot_compile/61bda05feca29378847c32f031efa5c8dba258f38b0176a06a3e99e41df8ca50/inductor_cache/mg/cmgawz4d4elcmb5foe2fhvxopc3ms5l4wsuwbdjxr5a5u47ligrm.py":41:33)
#loc22 = loc("/root/.cache/vllm/torch_compile_cache/torch_aot_compile/61bda05feca29378847c32f031efa5c8dba258f38b0176a06a3e99e41df8ca50/inductor_cache/mg/cmgawz4d4elcmb5foe2fhvxopc3ms5l4wsuwbdjxr5a5u47ligrm.py":45:49)
#loc23 = loc("/root/.cache/vllm/torch_compile_cache/torch_aot_compile/61bda05feca29378847c32f031efa5c8dba258f38b0176a06a3e99e41df8ca50/inductor_cache/mg/cmgawz4d4elcmb5foe2fhvxopc3ms5l4wsuwbdjxr5a5u47ligrm.py":45:45)
#loc24 = loc("/root/.cache/vllm/torch_compile_cache/torch_aot_compile/61bda05feca29378847c32f031efa5c8dba258f38b0176a06a3e99e41df8ca50/inductor_cache/mg/cmgawz4d4elcmb5foe2fhvxopc3ms5l4wsuwbdjxr5a5u47ligrm.py":45:59)
#loc25 = loc("/root/.cache/vllm/torch_compile_cache/torch_aot_compile/61bda05feca29378847c32f031efa5c8dba258f38b0176a06a3e99e41df8ca50/inductor_cache/mg/cmgawz4d4elcmb5foe2fhvxopc3ms5l4wsuwbdjxr5a5u47ligrm.py":45:54)
#loc26 = loc("/root/.cache/vllm/torch_compile_cache/torch_aot_compile/61bda05feca29378847c32f031efa5c8dba258f38b0176a06a3e99e41df8ca50/inductor_cache/mg/cmgawz4d4elcmb5foe2fhvxopc3ms5l4wsuwbdjxr5a5u47ligrm.py":45:38)
#loc27 = loc("/root/.cache/vllm/torch_compile_cache/torch_aot_compile/61bda05feca29378847c32f031efa5c8dba258f38b0176a06a3e99e41df8ca50/inductor_cache/mg/cmgawz4d4elcmb5foe2fhvxopc3ms5l4wsuwbdjxr5a5u47ligrm.py":45:74)
#loc28 = loc("/root/.cache/vllm/torch_compile_cache/torch_aot_compile/61bda05feca29378847c32f031efa5c8dba258f38b0176a06a3e99e41df8ca50/inductor_cache/mg/cmgawz4d4elcmb5foe2fhvxopc3ms5l4wsuwbdjxr5a5u47ligrm.py":45:64)
#loc29 = loc("/root/.cache/vllm/torch_compile_cache/torch_aot_compile/61bda05feca29378847c32f031efa5c8dba258f38b0176a06a3e99e41df8ca50/inductor_cache/mg/cmgawz4d4elcmb5foe2fhvxopc3ms5l4wsuwbdjxr5a5u47ligrm.py":45:126)
#loc30 = loc("/root/.cache/vllm/torch_compile_cache/torch_aot_compile/61bda05feca29378847c32f031efa5c8dba258f38b0176a06a3e99e41df8ca50/inductor_cache/mg/cmgawz4d4elcmb5foe2fhvxopc3ms5l4wsuwbdjxr5a5u47ligrm.py":47:26)
#loc31 = loc("/root/.cache/vllm/torch_compile_cache/torch_aot_compile/61bda05feca29378847c32f031efa5c8dba258f38b0176a06a3e99e41df8ca50/inductor_cache/mg/cmgawz4d4elcmb5foe2fhvxopc3ms5l4wsuwbdjxr5a5u47ligrm.py":49:27)
#loc32 = loc("/root/.cache/vllm/torch_compile_cache/torch_aot_compile/61bda05feca29378847c32f031efa5c8dba258f38b0176a06a3e99e41df8ca50/inductor_cache/mg/cmgawz4d4elcmb5foe2fhvxopc3ms5l4wsuwbdjxr5a5u47ligrm.py":50:52)
#loc33 = loc("/root/.cache/vllm/torch_compile_cache/torch_aot_compile/61bda05feca29378847c32f031efa5c8dba258f38b0176a06a3e99e41df8ca50/inductor_cache/mg/cmgawz4d4elcmb5foe2fhvxopc3ms5l4wsuwbdjxr5a5u47ligrm.py":50:12)
#loc34 = loc("/usr/local/lib/python3.12/dist-packages/triton/language/standard.py":293:36)
#loc36 = loc("/usr/local/lib/python3.12/dist-packages/triton/language/standard.py":263:15)
#loc37 = loc("/root/.cache/vllm/torch_compile_cache/torch_aot_compile/61bda05feca29378847c32f031efa5c8dba258f38b0176a06a3e99e41df8ca50/inductor_cache/mg/cmgawz4d4elcmb5foe2fhvxopc3ms5l4wsuwbdjxr5a5u47ligrm.py":51:32)
#loc38 = loc("/root/.cache/vllm/torch_compile_cache/torch_aot_compile/61bda05feca29378847c32f031efa5c8dba258f38b0176a06a3e99e41df8ca50/inductor_cache/mg/cmgawz4d4elcmb5foe2fhvxopc3ms5l4wsuwbdjxr5a5u47ligrm.py":52:29)
#loc39 = loc("/root/.cache/vllm/torch_compile_cache/torch_aot_compile/61bda05feca29378847c32f031efa5c8dba258f38b0176a06a3e99e41df8ca50/inductor_cache/mg/cmgawz4d4elcmb5foe2fhvxopc3ms5l4wsuwbdjxr5a5u47ligrm.py":52:40)
#loc40 = loc("/root/.cache/vllm/torch_compile_cache/torch_aot_compile/61bda05feca29378847c32f031efa5c8dba258f38b0176a06a3e99e41df8ca50/inductor_cache/mg/cmgawz4d4elcmb5foe2fhvxopc3ms5l4wsuwbdjxr5a5u47ligrm.py":53:15)
#loc41 = loc("/root/.cache/vllm/torch_compile_cache/torch_aot_compile/61bda05feca29378847c32f031efa5c8dba258f38b0176a06a3e99e41df8ca50/inductor_cache/mg/cmgawz4d4elcmb5foe2fhvxopc3ms5l4wsuwbdjxr5a5u47ligrm.py":53:9)
#loc42 = loc("/root/.cache/vllm/torch_compile_cache/torch_aot_compile/61bda05feca29378847c32f031efa5c8dba258f38b0176a06a3e99e41df8ca50/inductor_cache/mg/cmgawz4d4elcmb5foe2fhvxopc3ms5l4wsuwbdjxr5a5u47ligrm.py":54:27)
#loc43 = loc("/root/.cache/vllm/torch_compile_cache/torch_aot_compile/61bda05feca29378847c32f031efa5c8dba258f38b0176a06a3e99e41df8ca50/inductor_cache/mg/cmgawz4d4elcmb5foe2fhvxopc3ms5l4wsuwbdjxr5a5u47ligrm.py":58:31)
#loc44 = loc("/root/.cache/vllm/torch_compile_cache/torch_aot_compile/61bda05feca29378847c32f031efa5c8dba258f38b0176a06a3e99e41df8ca50/inductor_cache/mg/cmgawz4d4elcmb5foe2fhvxopc3ms5l4wsuwbdjxr5a5u47ligrm.py":59:40)
#loc45 = loc("/root/.cache/vllm/torch_compile_cache/torch_aot_compile/61bda05feca29378847c32f031efa5c8dba258f38b0176a06a3e99e41df8ca50/inductor_cache/mg/cmgawz4d4elcmb5foe2fhvxopc3ms5l4wsuwbdjxr5a5u47ligrm.py":59:48)
#loc46 = loc("/root/.cache/vllm/torch_compile_cache/torch_aot_compile/61bda05feca29378847c32f031efa5c8dba258f38b0176a06a3e99e41df8ca50/inductor_cache/mg/cmgawz4d4elcmb5foe2fhvxopc3ms5l4wsuwbdjxr5a5u47ligrm.py":59:27)
#loc47 = loc("/root/.cache/vllm/torch_compile_cache/torch_aot_compile/61bda05feca29378847c32f031efa5c8dba258f38b0176a06a3e99e41df8ca50/inductor_cache/mg/cmgawz4d4elcmb5foe2fhvxopc3ms5l4wsuwbdjxr5a5u47ligrm.py":60:25)
#loc48 = loc("/root/.cache/vllm/torch_compile_cache/torch_aot_compile/61bda05feca29378847c32f031efa5c8dba258f38b0176a06a3e99e41df8ca50/inductor_cache/mg/cmgawz4d4elcmb5foe2fhvxopc3ms5l4wsuwbdjxr5a5u47ligrm.py":61:31)
#loc49 = loc("/root/.cache/vllm/torch_compile_cache/torch_aot_compile/61bda05feca29378847c32f031efa5c8dba258f38b0176a06a3e99e41df8ca50/inductor_cache/mg/cmgawz4d4elcmb5foe2fhvxopc3ms5l4wsuwbdjxr5a5u47ligrm.py":61:41)
#loc50 = loc("/root/.cache/vllm/torch_compile_cache/torch_aot_compile/61bda05feca29378847c32f031efa5c8dba258f38b0176a06a3e99e41df8ca50/inductor_cache/mg/cmgawz4d4elcmb5foe2fhvxopc3ms5l4wsuwbdjxr5a5u47ligrm.py":65:47)
#loc51 = loc("/root/.cache/vllm/torch_compile_cache/torch_aot_compile/61bda05feca29378847c32f031efa5c8dba258f38b0176a06a3e99e41df8ca50/inductor_cache/mg/cmgawz4d4elcmb5foe2fhvxopc3ms5l4wsuwbdjxr5a5u47ligrm.py":66:35)
#loc52 = loc("/root/.cache/vllm/torch_compile_cache/torch_aot_compile/61bda05feca29378847c32f031efa5c8dba258f38b0176a06a3e99e41df8ca50/inductor_cache/mg/cmgawz4d4elcmb5foe2fhvxopc3ms5l4wsuwbdjxr5a5u47ligrm.py":67:33)
#loc53 = loc("/root/.cache/vllm/torch_compile_cache/torch_aot_compile/61bda05feca29378847c32f031efa5c8dba258f38b0176a06a3e99e41df8ca50/inductor_cache/mg/cmgawz4d4elcmb5foe2fhvxopc3ms5l4wsuwbdjxr5a5u47ligrm.py":71:45)
#loc54 = loc("/root/.cache/vllm/torch_compile_cache/torch_aot_compile/61bda05feca29378847c32f031efa5c8dba258f38b0176a06a3e99e41df8ca50/inductor_cache/mg/cmgawz4d4elcmb5foe2fhvxopc3ms5l4wsuwbdjxr5a5u47ligrm.py":71:57)
#loc55 = loc("/root/.cache/vllm/torch_compile_cache/torch_aot_compile/61bda05feca29378847c32f031efa5c8dba258f38b0176a06a3e99e41df8ca50/inductor_cache/mg/cmgawz4d4elcmb5foe2fhvxopc3ms5l4wsuwbdjxr5a5u47ligrm.py":71:52)
#loc56 = loc("/root/.cache/vllm/torch_compile_cache/torch_aot_compile/61bda05feca29378847c32f031efa5c8dba258f38b0176a06a3e99e41df8ca50/inductor_cache/mg/cmgawz4d4elcmb5foe2fhvxopc3ms5l4wsuwbdjxr5a5u47ligrm.py":71:38)
#loc57 = loc("/root/.cache/vllm/torch_compile_cache/torch_aot_compile/61bda05feca29378847c32f031efa5c8dba258f38b0176a06a3e99e41df8ca50/inductor_cache/mg/cmgawz4d4elcmb5foe2fhvxopc3ms5l4wsuwbdjxr5a5u47ligrm.py":71:72)
#loc58 = loc("/root/.cache/vllm/torch_compile_cache/torch_aot_compile/61bda05feca29378847c32f031efa5c8dba258f38b0176a06a3e99e41df8ca50/inductor_cache/mg/cmgawz4d4elcmb5foe2fhvxopc3ms5l4wsuwbdjxr5a5u47ligrm.py":71:62)
#loc59 = loc("/root/.cache/vllm/torch_compile_cache/torch_aot_compile/61bda05feca29378847c32f031efa5c8dba258f38b0176a06a3e99e41df8ca50/inductor_cache/mg/cmgawz4d4elcmb5foe2fhvxopc3ms5l4wsuwbdjxr5a5u47ligrm.py":71:124)
#loc60 = loc("/root/.cache/vllm/torch_compile_cache/torch_aot_compile/61bda05feca29378847c32f031efa5c8dba258f38b0176a06a3e99e41df8ca50/inductor_cache/mg/cmgawz4d4elcmb5foe2fhvxopc3ms5l4wsuwbdjxr5a5u47ligrm.py":73:26)
#loc61 = loc("/root/.cache/vllm/torch_compile_cache/torch_aot_compile/61bda05feca29378847c32f031efa5c8dba258f38b0176a06a3e99e41df8ca50/inductor_cache/mg/cmgawz4d4elcmb5foe2fhvxopc3ms5l4wsuwbdjxr5a5u47ligrm.py":75:29)
#loc62 = loc("/root/.cache/vllm/torch_compile_cache/torch_aot_compile/61bda05feca29378847c32f031efa5c8dba258f38b0176a06a3e99e41df8ca50/inductor_cache/mg/cmgawz4d4elcmb5foe2fhvxopc3ms5l4wsuwbdjxr5a5u47ligrm.py":76:54)
#loc63 = loc("/root/.cache/vllm/torch_compile_cache/torch_aot_compile/61bda05feca29378847c32f031efa5c8dba258f38b0176a06a3e99e41df8ca50/inductor_cache/mg/cmgawz4d4elcmb5foe2fhvxopc3ms5l4wsuwbdjxr5a5u47ligrm.py":76:12)
#loc65 = loc("/root/.cache/vllm/torch_compile_cache/torch_aot_compile/61bda05feca29378847c32f031efa5c8dba258f38b0176a06a3e99e41df8ca50/inductor_cache/mg/cmgawz4d4elcmb5foe2fhvxopc3ms5l4wsuwbdjxr5a5u47ligrm.py":77:34)
#loc66 = loc("/root/.cache/vllm/torch_compile_cache/torch_aot_compile/61bda05feca29378847c32f031efa5c8dba258f38b0176a06a3e99e41df8ca50/inductor_cache/mg/cmgawz4d4elcmb5foe2fhvxopc3ms5l4wsuwbdjxr5a5u47ligrm.py":78:29)
#loc67 = loc("/root/.cache/vllm/torch_compile_cache/torch_aot_compile/61bda05feca29378847c32f031efa5c8dba258f38b0176a06a3e99e41df8ca50/inductor_cache/mg/cmgawz4d4elcmb5foe2fhvxopc3ms5l4wsuwbdjxr5a5u47ligrm.py":78:41)
#loc68 = loc("/root/.cache/vllm/torch_compile_cache/torch_aot_compile/61bda05feca29378847c32f031efa5c8dba258f38b0176a06a3e99e41df8ca50/inductor_cache/mg/cmgawz4d4elcmb5foe2fhvxopc3ms5l4wsuwbdjxr5a5u47ligrm.py":25:4)
#loc74 = loc("pid"(#loc2))
#loc75 = loc("num_xblocks_0"(#loc4))
#loc76 = loc("num_xblocks_1"(#loc6))
#loc77 = loc("num_xblocks_1"(#loc7))
#loc78 = loc("xoffset"(#loc10))
#loc79 = loc("xindex"(#loc11))
#loc80 = loc("xindex"(#loc12))
#loc81 = loc("xindex"(#loc13))
#loc82 = loc("xmask"(#loc14))
#loc83 = loc("r0_base"(#loc15))
#loc84 = loc("r0_base"(#loc16))
#loc85 = loc("x0"(#loc17))
#loc86 = loc("x1"(#loc18))
#loc87 = loc("_tmp4"(#loc19))
#loc88 = loc("r0_index"(#loc20))
#loc89 = loc("r0_mask"(#loc21))
#loc90 = loc("tmp0"(#loc22))
#loc91 = loc("tmp0"(#loc23))
#loc92 = loc("tmp0"(#loc24))
#loc93 = loc("tmp0"(#loc25))
#loc94 = loc("tmp0"(#loc26))
#loc95 = loc("tmp0"(#loc27))
#loc96 = loc("tmp0"(#loc28))
#loc97 = loc("tmp0"(#loc29))
#loc98 = loc("tmp2"(#loc30))
#loc99 = loc("tmp5"(#loc31))
#loc100 = loc("_tmp4"(#loc32))
#loc102 = loc("tmp4"(#loc37))
#loc103 = loc("pid_offset"(#loc42))
#loc104 = loc("xoffset"(#loc43))
#loc105 = loc("xindex"(#loc44))
#loc106 = loc("xindex"(#loc45))
#loc107 = loc("xindex"(#loc46))
#loc108 = loc("xmask"(#loc47))
#loc109 = loc("r0_base"(#loc48))
#loc110 = loc("r0_base"(#loc49))
#loc111 = loc("_tmp10"(#loc50))
#loc112 = loc("r0_index"(#loc51))
#loc113 = loc("r0_mask"(#loc52))
#loc114 = loc("tmp6"(#loc53))
#loc115 = loc("tmp6"(#loc54))
#loc116 = loc("tmp6"(#loc55))
#loc117 = loc("tmp6"(#loc56))
#loc118 = loc("tmp6"(#loc57))
#loc119 = loc("tmp6"(#loc58))
#loc120 = loc("tmp6"(#loc59))
#loc121 = loc("tmp8"(#loc60))
#loc122 = loc("tmp11"(#loc61))
#loc123 = loc("_tmp10"(#loc62))
#loc125 = loc("tmp10"(#loc65))
#loc126 = loc(callsite(#loc3 at #loc75))
#loc127 = loc(callsite(#loc5 at #loc75))
#loc128 = loc(callsite(#loc3 at #loc76))
#loc129 = loc(callsite(#loc5 at #loc76))
#loc130 = loc(callsite(#loc34 at #loc101))
#loc132 = loc(callsite(#loc34 at #loc124))
#loc134 = loc(callsite(#loc36 at #loc130))
#loc135 = loc(callsite(#loc36 at #loc132))
