#loc = loc("/root/.cache/vllm/torch_compile_cache/torch_aot_compile/61bda05feca29378847c32f031efa5c8dba258f38b0176a06a3e99e41df8ca50/inductor_cache/tl/ctl252n2bunnej67466acbjh2kgukawrnhxu6ajjvtanw4r5xzrk.py":18:0)
#loc92 = loc("/usr/local/lib/python3.12/dist-packages/triton/language/standard.py":287:0)
#loc94 = loc(unknown)
#loc97 = loc("/usr/local/lib/python3.12/dist-packages/triton/language/standard.py":262:0)
#loc101 = loc("in_ptr0"(#loc))
#loc102 = loc("in_ptr1"(#loc))
#loc103 = loc("in_ptr2"(#loc))
#loc104 = loc("in_ptr3"(#loc))
#loc105 = loc("out_ptr1"(#loc))
#loc106 = loc("out_ptr2"(#loc))
#loc107 = loc("out_ptr3"(#loc))
#loc108 = loc("xnumel"(#loc))
#loc109 = loc("r0_numel"(#loc))
#loc183 = loc("input"(#loc92))
#loc184 = loc("a"(#loc97))
#loc185 = loc("b"(#loc97))
module {
  tt.func public @triton_red_fused__to_copy_add_copy__fused_add_rms_norm_3(%in_ptr0: !tt.ptr<f16> {tt.divisibility = 16 : i32} loc("in_ptr0"(#loc)), %in_ptr1: !tt.ptr<f16> {tt.divisibility = 16 : i32} loc("in_ptr1"(#loc)), %in_ptr2: !tt.ptr<f16> {tt.divisibility = 16 : i32} loc("in_ptr2"(#loc)), %in_ptr3: !tt.ptr<f16> {tt.divisibility = 16 : i32} loc("in_ptr3"(#loc)), %out_ptr1: !tt.ptr<f16> {tt.divisibility = 16 : i32} loc("out_ptr1"(#loc)), %out_ptr2: !tt.ptr<f16> {tt.divisibility = 16 : i32} loc("out_ptr2"(#loc)), %out_ptr3: !tt.ptr<f16> {tt.divisibility = 16 : i32} loc("out_ptr3"(#loc)), %xnumel: i32 loc("xnumel"(#loc)), %r0_numel: i32 {tt.divisibility = 16 : i32} loc("r0_numel"(#loc))) attributes {noinline = false} {
    %r0_numel_0 = arith.constant 2048 : i32 loc(#loc110)
    %xoffset = tt.get_program_id x : i32 loc(#loc111)
    %xoffset_1 = arith.constant 2 : i32 loc(#loc112)
    %xoffset_2 = arith.constant 2 : i32 loc(#loc112)
    %xoffset_3 = arith.muli %xoffset, %xoffset_2 : i32 loc(#loc112)
    %xindex = tt.make_range {end = 2 : i32, start = 0 : i32} : tensor<2xi32> loc(#loc113)
    %xindex_4 = tt.expand_dims %xindex {axis = 1 : i32} : tensor<2xi32> -> tensor<2x1xi32> loc(#loc114)
    %xindex_5 = tt.splat %xoffset_3 : i32 -> tensor<2x1xi32> loc(#loc115)
    %xindex_6 = arith.addi %xindex_5, %xindex_4 : tensor<2x1xi32> loc(#loc115)
    %xmask = tt.splat %xnumel : i32 -> tensor<2x1xi32> loc(#loc116)
    %xmask_7 = arith.cmpi slt, %xindex_6, %xmask : tensor<2x1xi32> loc(#loc116)
    %r0_base = tt.make_range {end = 2048 : i32, start = 0 : i32} : tensor<2048xi32> loc(#loc117)
    %r0_base_8 = tt.expand_dims %r0_base {axis = 0 : i32} : tensor<2048xi32> -> tensor<1x2048xi32> loc(#loc118)
    %_tmp12 = arith.constant 0.000000e+00 : f32 loc(#loc119)
    %_tmp12_9 = arith.constant dense<0.000000e+00> : tensor<2x2048xf32> loc(#loc119)
    %c0_i32 = arith.constant 0 : i32 loc(#loc11)
    %c2048_i32 = arith.constant 2048 : i32 loc(#loc11)
    %0 = arith.bitcast %c0_i32 : i32 to i32 loc(#loc11)
    %1 = arith.bitcast %r0_numel_0 : i32 to i32 loc(#loc11)
    %2 = arith.bitcast %c2048_i32 : i32 to i32 loc(#loc11)
    %3 = ub.poison : i32 loc(#loc11)
    %_tmp12_10 = scf.for %r0_offset = %0 to %1 step %2 iter_args(%_tmp12_14 = %_tmp12_9) -> (tensor<2x2048xf32>)  : i32 {
      %r0_index = tt.splat %r0_offset : i32 -> tensor<1x2048xi32> loc(#loc121)
      %r0_index_15 = arith.addi %r0_index, %r0_base_8 : tensor<1x2048xi32> loc(#loc121)
      %r0_mask = arith.constant dense<2048> : tensor<1x2048xi32> loc(#loc122)
      %r0_mask_16 = arith.cmpi slt, %r0_index_15, %r0_mask : tensor<1x2048xi32> loc(#loc122)
      %tmp0 = arith.constant 2048 : i32 loc(#loc123)
      %tmp0_17 = arith.constant 2048 : i32 loc(#loc123)
      %tmp0_18 = arith.constant dense<2048> : tensor<2x1xi32> loc(#loc123)
      %tmp0_19 = arith.muli %tmp0_18, %xindex_6 : tensor<2x1xi32> loc(#loc123)
      %tmp0_20 = tt.broadcast %r0_index_15 : tensor<1x2048xi32> -> tensor<2x2048xi32> loc(#loc124)
      %tmp0_21 = tt.broadcast %tmp0_19 : tensor<2x1xi32> -> tensor<2x2048xi32> loc(#loc124)
      %tmp0_22 = arith.addi %tmp0_20, %tmp0_21 : tensor<2x2048xi32> loc(#loc124)
      %tmp0_23 = tt.splat %in_ptr0 : !tt.ptr<f16> -> tensor<2x2048x!tt.ptr<f16>> loc(#loc125)
      %tmp0_24 = tt.addptr %tmp0_23, %tmp0_22 : tensor<2x2048x!tt.ptr<f16>>, tensor<2x2048xi32> loc(#loc125)
      %tmp0_25 = tt.broadcast %r0_mask_16 : tensor<1x2048xi1> -> tensor<2x2048xi1> loc(#loc126)
      %tmp0_26 = tt.broadcast %xmask_7 : tensor<2x1xi1> -> tensor<2x2048xi1> loc(#loc126)
      %tmp0_27 = arith.andi %tmp0_25, %tmp0_26 : tensor<2x2048xi1> loc(#loc126)
      %tmp0_28 = arith.constant 0.000000e+00 : f32 loc(#loc127)
      %tmp0_29 = arith.constant dense<0.000000e+00> : tensor<2x2048xf32> loc(#loc127)
      %tmp0_30 = arith.truncf %tmp0_29 : tensor<2x2048xf32> to tensor<2x2048xf16> loc(#loc127)
      %tmp0_31 = tt.load %tmp0_24, %tmp0_27, %tmp0_30 evictionPolicy = evict_last : tensor<2x2048x!tt.ptr<f16>> loc(#loc127)
      %tmp0_32 = arith.extf %tmp0_31 : tensor<2x2048xf16> to tensor<2x2048xf32> loc(#loc128)
      %tmp2 = arith.constant 2048 : i32 loc(#loc129)
      %tmp2_33 = arith.constant 2048 : i32 loc(#loc129)
      %tmp2_34 = arith.constant dense<2048> : tensor<2x1xi32> loc(#loc129)
      %tmp2_35 = arith.muli %tmp2_34, %xindex_6 : tensor<2x1xi32> loc(#loc129)
      %tmp2_36 = tt.broadcast %r0_index_15 : tensor<1x2048xi32> -> tensor<2x2048xi32> loc(#loc130)
      %tmp2_37 = tt.broadcast %tmp2_35 : tensor<2x1xi32> -> tensor<2x2048xi32> loc(#loc130)
      %tmp2_38 = arith.addi %tmp2_36, %tmp2_37 : tensor<2x2048xi32> loc(#loc130)
      %tmp2_39 = tt.splat %in_ptr1 : !tt.ptr<f16> -> tensor<2x2048x!tt.ptr<f16>> loc(#loc131)
      %tmp2_40 = tt.addptr %tmp2_39, %tmp2_38 : tensor<2x2048x!tt.ptr<f16>>, tensor<2x2048xi32> loc(#loc131)
      %tmp2_41 = tt.broadcast %r0_mask_16 : tensor<1x2048xi1> -> tensor<2x2048xi1> loc(#loc132)
      %tmp2_42 = tt.broadcast %xmask_7 : tensor<2x1xi1> -> tensor<2x2048xi1> loc(#loc132)
      %tmp2_43 = arith.andi %tmp2_41, %tmp2_42 : tensor<2x2048xi1> loc(#loc132)
      %tmp2_44 = arith.constant 0.000000e+00 : f32 loc(#loc133)
      %tmp2_45 = arith.constant dense<0.000000e+00> : tensor<2x2048xf32> loc(#loc133)
      %tmp2_46 = arith.truncf %tmp2_45 : tensor<2x2048xf32> to tensor<2x2048xf16> loc(#loc133)
      %tmp2_47 = tt.load %tmp2_40, %tmp2_43, %tmp2_46 evictionPolicy = evict_last : tensor<2x2048x!tt.ptr<f16>> loc(#loc133)
      %tmp2_48 = arith.extf %tmp2_47 : tensor<2x2048xf16> to tensor<2x2048xf32> loc(#loc134)
      %tmp4 = arith.constant 2048 : i32 loc(#loc135)
      %tmp4_49 = arith.constant 2048 : i32 loc(#loc135)
      %tmp4_50 = arith.constant dense<2048> : tensor<2x1xi32> loc(#loc135)
      %tmp4_51 = arith.muli %tmp4_50, %xindex_6 : tensor<2x1xi32> loc(#loc135)
      %tmp4_52 = tt.broadcast %r0_index_15 : tensor<1x2048xi32> -> tensor<2x2048xi32> loc(#loc136)
      %tmp4_53 = tt.broadcast %tmp4_51 : tensor<2x1xi32> -> tensor<2x2048xi32> loc(#loc136)
      %tmp4_54 = arith.addi %tmp4_52, %tmp4_53 : tensor<2x2048xi32> loc(#loc136)
      %tmp4_55 = tt.splat %in_ptr2 : !tt.ptr<f16> -> tensor<2x2048x!tt.ptr<f16>> loc(#loc137)
      %tmp4_56 = tt.addptr %tmp4_55, %tmp4_54 : tensor<2x2048x!tt.ptr<f16>>, tensor<2x2048xi32> loc(#loc137)
      %tmp4_57 = tt.broadcast %r0_mask_16 : tensor<1x2048xi1> -> tensor<2x2048xi1> loc(#loc138)
      %tmp4_58 = tt.broadcast %xmask_7 : tensor<2x1xi1> -> tensor<2x2048xi1> loc(#loc138)
      %tmp4_59 = arith.andi %tmp4_57, %tmp4_58 : tensor<2x2048xi1> loc(#loc138)
      %tmp4_60 = arith.constant 0.000000e+00 : f32 loc(#loc139)
      %tmp4_61 = arith.constant dense<0.000000e+00> : tensor<2x2048xf32> loc(#loc139)
      %tmp4_62 = arith.truncf %tmp4_61 : tensor<2x2048xf32> to tensor<2x2048xf16> loc(#loc139)
      %tmp4_63 = tt.load %tmp4_56, %tmp4_59, %tmp4_62 evictionPolicy = evict_last : tensor<2x2048x!tt.ptr<f16>> loc(#loc139)
      %tmp4_64 = arith.extf %tmp4_63 : tensor<2x2048xf16> to tensor<2x2048xf32> loc(#loc140)
      %tmp6 = arith.addf %tmp2_48, %tmp4_64 : tensor<2x2048xf32> loc(#loc141)
      %tmp9 = arith.addf %tmp0_32, %tmp6 : tensor<2x2048xf32> loc(#loc142)
      %tmp10 = arith.mulf %tmp9, %tmp9 : tensor<2x2048xf32> loc(#loc143)
      %tmp13 = arith.addf %_tmp12_14, %tmp10 : tensor<2x2048xf32> loc(#loc144)
      %_tmp12_65 = tt.broadcast %r0_mask_16 : tensor<1x2048xi1> -> tensor<2x2048xi1> loc(#loc145)
      %_tmp12_66 = tt.broadcast %xmask_7 : tensor<2x1xi1> -> tensor<2x2048xi1> loc(#loc145)
      %_tmp12_67 = arith.andi %_tmp12_65, %_tmp12_66 : tensor<2x2048xi1> loc(#loc145)
      %_tmp12_68 = arith.select %_tmp12_67, %tmp13, %_tmp12_14 : tensor<2x2048xi1>, tensor<2x2048xf32> loc(#loc146)
      %c2048_i32_69 = arith.constant 2048 : i32 loc(#loc38)
      %c2048_i32_70 = arith.constant 2048 : i32 loc(#loc38)
      %cst = arith.constant dense<2048> : tensor<2x1xi32> loc(#loc38)
      %8 = arith.muli %cst, %xindex_6 : tensor<2x1xi32> loc(#loc38)
      %9 = tt.broadcast %r0_index_15 : tensor<1x2048xi32> -> tensor<2x2048xi32> loc(#loc39)
      %10 = tt.broadcast %8 : tensor<2x1xi32> -> tensor<2x2048xi32> loc(#loc39)
      %11 = arith.addi %9, %10 : tensor<2x2048xi32> loc(#loc39)
      %12 = tt.splat %out_ptr1 : !tt.ptr<f16> -> tensor<2x2048x!tt.ptr<f16>> loc(#loc40)
      %13 = tt.addptr %12, %11 : tensor<2x2048x!tt.ptr<f16>>, tensor<2x2048xi32> loc(#loc40)
      %14 = tt.broadcast %r0_mask_16 : tensor<1x2048xi1> -> tensor<2x2048xi1> loc(#loc41)
      %15 = tt.broadcast %xmask_7 : tensor<2x1xi1> -> tensor<2x2048xi1> loc(#loc41)
      %16 = arith.andi %14, %15 : tensor<2x2048xi1> loc(#loc41)
      %17 = arith.truncf %tmp9 : tensor<2x2048xf32> to tensor<2x2048xf16> loc(#loc42)
      tt.store %13, %17, %16 : tensor<2x2048x!tt.ptr<f16>> loc(#loc42)
      scf.yield %_tmp12_68 : tensor<2x2048xf32> loc(#loc43)
    } loc(#loc120)
    %tmp12 = tt.call @"triton.language.standard.sum__fp32S2_2048S__(1,)cconstexpr_1__(2,)cconstexpr_False__(3,)cNone"(%_tmp12_10) : (tensor<2x2048xf32>) -> tensor<2xf32> loc(#loc147)
    %tmp12_11 = tt.expand_dims %tmp12 {axis = 1 : i32} : tensor<2xf32> -> tensor<2x1xf32> loc(#loc148)
    %c0_i32_12 = arith.constant 0 : i32 loc(#loc46)
    %c2048_i32_13 = arith.constant 2048 : i32 loc(#loc46)
    %4 = arith.bitcast %c0_i32_12 : i32 to i32 loc(#loc46)
    %5 = arith.bitcast %r0_numel_0 : i32 to i32 loc(#loc46)
    %6 = arith.bitcast %c2048_i32_13 : i32 to i32 loc(#loc46)
    %7 = ub.poison : i32 loc(#loc46)
    scf.for %r0_offset = %4 to %5 step %6  : i32 {
      %r0_index = tt.splat %r0_offset : i32 -> tensor<1x2048xi32> loc(#loc149)
      %r0_index_14 = arith.addi %r0_index, %r0_base_8 : tensor<1x2048xi32> loc(#loc149)
      %r0_mask = arith.constant dense<2048> : tensor<1x2048xi32> loc(#loc150)
      %r0_mask_15 = arith.cmpi slt, %r0_index_14, %r0_mask : tensor<1x2048xi32> loc(#loc150)
      %tmp15 = arith.constant 2048 : i32 loc(#loc151)
      %tmp15_16 = arith.constant 2048 : i32 loc(#loc151)
      %tmp15_17 = arith.constant dense<2048> : tensor<2x1xi32> loc(#loc151)
      %tmp15_18 = arith.muli %tmp15_17, %xindex_6 : tensor<2x1xi32> loc(#loc151)
      %tmp15_19 = tt.broadcast %r0_index_14 : tensor<1x2048xi32> -> tensor<2x2048xi32> loc(#loc152)
      %tmp15_20 = tt.broadcast %tmp15_18 : tensor<2x1xi32> -> tensor<2x2048xi32> loc(#loc152)
      %tmp15_21 = arith.addi %tmp15_19, %tmp15_20 : tensor<2x2048xi32> loc(#loc152)
      %tmp15_22 = tt.splat %in_ptr0 : !tt.ptr<f16> -> tensor<2x2048x!tt.ptr<f16>> loc(#loc153)
      %tmp15_23 = tt.addptr %tmp15_22, %tmp15_21 : tensor<2x2048x!tt.ptr<f16>>, tensor<2x2048xi32> loc(#loc153)
      %tmp15_24 = tt.broadcast %r0_mask_15 : tensor<1x2048xi1> -> tensor<2x2048xi1> loc(#loc154)
      %tmp15_25 = tt.broadcast %xmask_7 : tensor<2x1xi1> -> tensor<2x2048xi1> loc(#loc154)
      %tmp15_26 = arith.andi %tmp15_24, %tmp15_25 : tensor<2x2048xi1> loc(#loc154)
      %tmp15_27 = arith.constant 0.000000e+00 : f32 loc(#loc155)
      %tmp15_28 = arith.constant dense<0.000000e+00> : tensor<2x2048xf32> loc(#loc155)
      %tmp15_29 = arith.truncf %tmp15_28 : tensor<2x2048xf32> to tensor<2x2048xf16> loc(#loc155)
      %tmp15_30 = tt.load %tmp15_23, %tmp15_26, %tmp15_29 evictionPolicy = evict_first : tensor<2x2048x!tt.ptr<f16>> loc(#loc155)
      %tmp15_31 = arith.extf %tmp15_30 : tensor<2x2048xf16> to tensor<2x2048xf32> loc(#loc156)
      %tmp17 = arith.constant 2048 : i32 loc(#loc157)
      %tmp17_32 = arith.constant 2048 : i32 loc(#loc157)
      %tmp17_33 = arith.constant dense<2048> : tensor<2x1xi32> loc(#loc157)
      %tmp17_34 = arith.muli %tmp17_33, %xindex_6 : tensor<2x1xi32> loc(#loc157)
      %tmp17_35 = tt.broadcast %r0_index_14 : tensor<1x2048xi32> -> tensor<2x2048xi32> loc(#loc158)
      %tmp17_36 = tt.broadcast %tmp17_34 : tensor<2x1xi32> -> tensor<2x2048xi32> loc(#loc158)
      %tmp17_37 = arith.addi %tmp17_35, %tmp17_36 : tensor<2x2048xi32> loc(#loc158)
      %tmp17_38 = tt.splat %in_ptr1 : !tt.ptr<f16> -> tensor<2x2048x!tt.ptr<f16>> loc(#loc159)
      %tmp17_39 = tt.addptr %tmp17_38, %tmp17_37 : tensor<2x2048x!tt.ptr<f16>>, tensor<2x2048xi32> loc(#loc159)
      %tmp17_40 = tt.broadcast %r0_mask_15 : tensor<1x2048xi1> -> tensor<2x2048xi1> loc(#loc160)
      %tmp17_41 = tt.broadcast %xmask_7 : tensor<2x1xi1> -> tensor<2x2048xi1> loc(#loc160)
      %tmp17_42 = arith.andi %tmp17_40, %tmp17_41 : tensor<2x2048xi1> loc(#loc160)
      %tmp17_43 = arith.constant 0.000000e+00 : f32 loc(#loc161)
      %tmp17_44 = arith.constant dense<0.000000e+00> : tensor<2x2048xf32> loc(#loc161)
      %tmp17_45 = arith.truncf %tmp17_44 : tensor<2x2048xf32> to tensor<2x2048xf16> loc(#loc161)
      %tmp17_46 = tt.load %tmp17_39, %tmp17_42, %tmp17_45 evictionPolicy = evict_first : tensor<2x2048x!tt.ptr<f16>> loc(#loc161)
      %tmp17_47 = arith.extf %tmp17_46 : tensor<2x2048xf16> to tensor<2x2048xf32> loc(#loc162)
      %tmp19 = arith.constant 2048 : i32 loc(#loc163)
      %tmp19_48 = arith.constant 2048 : i32 loc(#loc163)
      %tmp19_49 = arith.constant dense<2048> : tensor<2x1xi32> loc(#loc163)
      %tmp19_50 = arith.muli %tmp19_49, %xindex_6 : tensor<2x1xi32> loc(#loc163)
      %tmp19_51 = tt.broadcast %r0_index_14 : tensor<1x2048xi32> -> tensor<2x2048xi32> loc(#loc164)
      %tmp19_52 = tt.broadcast %tmp19_50 : tensor<2x1xi32> -> tensor<2x2048xi32> loc(#loc164)
      %tmp19_53 = arith.addi %tmp19_51, %tmp19_52 : tensor<2x2048xi32> loc(#loc164)
      %tmp19_54 = tt.splat %in_ptr2 : !tt.ptr<f16> -> tensor<2x2048x!tt.ptr<f16>> loc(#loc165)
      %tmp19_55 = tt.addptr %tmp19_54, %tmp19_53 : tensor<2x2048x!tt.ptr<f16>>, tensor<2x2048xi32> loc(#loc165)
      %tmp19_56 = tt.broadcast %r0_mask_15 : tensor<1x2048xi1> -> tensor<2x2048xi1> loc(#loc166)
      %tmp19_57 = tt.broadcast %xmask_7 : tensor<2x1xi1> -> tensor<2x2048xi1> loc(#loc166)
      %tmp19_58 = arith.andi %tmp19_56, %tmp19_57 : tensor<2x2048xi1> loc(#loc166)
      %tmp19_59 = arith.constant 0.000000e+00 : f32 loc(#loc167)
      %tmp19_60 = arith.constant dense<0.000000e+00> : tensor<2x2048xf32> loc(#loc167)
      %tmp19_61 = arith.truncf %tmp19_60 : tensor<2x2048xf32> to tensor<2x2048xf16> loc(#loc167)
      %tmp19_62 = tt.load %tmp19_55, %tmp19_58, %tmp19_61 evictionPolicy = evict_first : tensor<2x2048x!tt.ptr<f16>> loc(#loc167)
      %tmp19_63 = arith.extf %tmp19_62 : tensor<2x2048xf16> to tensor<2x2048xf32> loc(#loc168)
      %tmp31 = tt.splat %in_ptr3 : !tt.ptr<f16> -> tensor<1x2048x!tt.ptr<f16>> loc(#loc169)
      %tmp31_64 = tt.addptr %tmp31, %r0_index_14 : tensor<1x2048x!tt.ptr<f16>>, tensor<1x2048xi32> loc(#loc169)
      %tmp31_65 = arith.constant 0.000000e+00 : f32 loc(#loc170)
      %tmp31_66 = arith.constant dense<0.000000e+00> : tensor<1x2048xf32> loc(#loc170)
      %tmp31_67 = arith.truncf %tmp31_66 : tensor<1x2048xf32> to tensor<1x2048xf16> loc(#loc170)
      %tmp31_68 = tt.load %tmp31_64, %r0_mask_15, %tmp31_67 evictionPolicy = evict_last : tensor<1x2048x!tt.ptr<f16>> loc(#loc170)
      %tmp31_69 = arith.extf %tmp31_68 : tensor<1x2048xf16> to tensor<1x2048xf32> loc(#loc171)
      %tmp21 = arith.addf %tmp17_47, %tmp19_63 : tensor<2x2048xf32> loc(#loc172)
      %tmp24 = arith.addf %tmp15_31, %tmp21 : tensor<2x2048xf32> loc(#loc173)
      %tmp25 = arith.constant 2.048000e+03 : f32 loc(#loc174)
      %tmp25_70 = arith.constant dense<2.048000e+03> : tensor<1x1xf32> loc(#loc174)
      %tmp26 = arith.constant dense<2.048000e+03> : tensor<2x1xf32> loc(#loc175)
      %tmp26_71 = arith.divf %tmp12_11, %tmp26 : tensor<2x1xf32> loc(#loc175)
      %tmp27 = arith.constant 9.99999997E-7 : f32 loc(#loc176)
      %tmp27_72 = arith.constant dense<9.99999997E-7> : tensor<1x1xf32> loc(#loc176)
      %tmp28 = arith.constant dense<9.99999997E-7> : tensor<2x1xf32> loc(#loc177)
      %tmp28_73 = arith.addf %tmp26_71, %tmp28 : tensor<2x1xf32> loc(#loc177)
      %tmp29 = tt.extern_elementwise %tmp28_73 {libname = "", libpath = "", pure = true, symbol = "__nv_rsqrtf"} : (tensor<2x1xf32>) -> tensor<2x1xf32> loc(#loc178)
      %tmp30 = tt.broadcast %tmp29 : tensor<2x1xf32> -> tensor<2x2048xf32> loc(#loc179)
      %tmp30_74 = arith.mulf %tmp24, %tmp30 : tensor<2x2048xf32> loc(#loc179)
      %tmp33 = arith.constant 1.000000e+00 : f32 loc(#loc180)
      %tmp33_75 = arith.constant dense<1.000000e+00> : tensor<1x1xf32> loc(#loc180)
      %tmp34 = arith.constant dense<1.000000e+00> : tensor<1x2048xf32> loc(#loc181)
      %tmp34_76 = arith.addf %tmp31_69, %tmp34 : tensor<1x2048xf32> loc(#loc181)
      %tmp35 = tt.broadcast %tmp34_76 : tensor<1x2048xf32> -> tensor<2x2048xf32> loc(#loc182)
      %tmp35_77 = arith.mulf %tmp30_74, %tmp35 : tensor<2x2048xf32> loc(#loc182)
      %c2048_i32_78 = arith.constant 2048 : i32 loc(#loc81)
      %c2048_i32_79 = arith.constant 2048 : i32 loc(#loc81)
      %cst = arith.constant dense<2048> : tensor<2x1xi32> loc(#loc81)
      %8 = arith.muli %cst, %xindex_6 : tensor<2x1xi32> loc(#loc81)
      %9 = tt.broadcast %r0_index_14 : tensor<1x2048xi32> -> tensor<2x2048xi32> loc(#loc82)
      %10 = tt.broadcast %8 : tensor<2x1xi32> -> tensor<2x2048xi32> loc(#loc82)
      %11 = arith.addi %9, %10 : tensor<2x2048xi32> loc(#loc82)
      %12 = tt.splat %out_ptr2 : !tt.ptr<f16> -> tensor<2x2048x!tt.ptr<f16>> loc(#loc83)
      %13 = tt.addptr %12, %11 : tensor<2x2048x!tt.ptr<f16>>, tensor<2x2048xi32> loc(#loc83)
      %14 = tt.broadcast %r0_mask_15 : tensor<1x2048xi1> -> tensor<2x2048xi1> loc(#loc84)
      %15 = tt.broadcast %xmask_7 : tensor<2x1xi1> -> tensor<2x2048xi1> loc(#loc84)
      %16 = arith.andi %14, %15 : tensor<2x2048xi1> loc(#loc84)
      %17 = arith.truncf %tmp35_77 : tensor<2x2048xf32> to tensor<2x2048xf16> loc(#loc85)
      tt.store %13, %17, %16 : tensor<2x2048x!tt.ptr<f16>> loc(#loc85)
      %c2048_i32_80 = arith.constant 2048 : i32 loc(#loc86)
      %c2048_i32_81 = arith.constant 2048 : i32 loc(#loc86)
      %cst_82 = arith.constant dense<2048> : tensor<2x1xi32> loc(#loc86)
      %18 = arith.muli %cst_82, %xindex_6 : tensor<2x1xi32> loc(#loc86)
      %19 = tt.broadcast %r0_index_14 : tensor<1x2048xi32> -> tensor<2x2048xi32> loc(#loc87)
      %20 = tt.broadcast %18 : tensor<2x1xi32> -> tensor<2x2048xi32> loc(#loc87)
      %21 = arith.addi %19, %20 : tensor<2x2048xi32> loc(#loc87)
      %22 = tt.splat %out_ptr3 : !tt.ptr<f16> -> tensor<2x2048x!tt.ptr<f16>> loc(#loc88)
      %23 = tt.addptr %22, %21 : tensor<2x2048x!tt.ptr<f16>>, tensor<2x2048xi32> loc(#loc88)
      %24 = tt.broadcast %r0_mask_15 : tensor<1x2048xi1> -> tensor<2x2048xi1> loc(#loc89)
      %25 = tt.broadcast %xmask_7 : tensor<2x1xi1> -> tensor<2x2048xi1> loc(#loc89)
      %26 = arith.andi %24, %25 : tensor<2x2048xi1> loc(#loc89)
      %27 = arith.truncf %tmp17_47 : tensor<2x2048xf32> to tensor<2x2048xf16> loc(#loc90)
      tt.store %23, %27, %26 : tensor<2x2048x!tt.ptr<f16>> loc(#loc90)
    } loc(#loc46)
    tt.return loc(#loc91)
  } loc(#loc)
  tt.func private @"triton.language.standard.sum__fp32S2_2048S__(1,)cconstexpr_1__(2,)cconstexpr_False__(3,)cNone"(%input: tensor<2x2048xf32> loc("input"(#loc92))) -> tensor<2xf32> attributes {noinline = false} {
    %0 = "tt.reduce"(%input) <{axis = 1 : i32}> ({
    ^bb0(%arg1: f32 loc(unknown), %arg2: f32 loc(unknown)):
      %2 = tt.call @triton.language.standard._sum_combine__fp32_fp32__(%arg1, %arg2) : (f32, f32) -> f32 loc(#loc93)
      tt.reduce.return %2 : f32 loc(#loc93)
    }) : (tensor<2x2048xf32>) -> tensor<2xf32> loc(#loc93)
    tt.return %0 : tensor<2xf32> loc(#loc95)
  ^bb1:  // no predecessors
    %1 = ub.poison : tensor<2xf32> loc(#loc96)
    tt.return %1 : tensor<2xf32> loc(#loc96)
  } loc(#loc92)
  tt.func private @triton.language.standard._sum_combine__fp32_fp32__(%a: f32 loc("a"(#loc97)), %b: f32 loc("b"(#loc97))) -> f32 attributes {noinline = false} {
    %0 = arith.addf %a, %b : f32 loc(#loc98)
    tt.return %0 : f32 loc(#loc99)
  ^bb1:  // no predecessors
    %1 = ub.poison : f32 loc(#loc100)
    tt.return %1 : f32 loc(#loc100)
  } loc(#loc97)
} loc(#loc)
#loc1 = loc("/root/.cache/vllm/torch_compile_cache/torch_aot_compile/61bda05feca29378847c32f031efa5c8dba258f38b0176a06a3e99e41df8ca50/inductor_cache/tl/ctl252n2bunnej67466acbjh2kgukawrnhxu6ajjvtanw4r5xzrk.py":19:15)
#loc2 = loc("/root/.cache/vllm/torch_compile_cache/torch_aot_compile/61bda05feca29378847c32f031efa5c8dba258f38b0176a06a3e99e41df8ca50/inductor_cache/tl/ctl252n2bunnej67466acbjh2kgukawrnhxu6ajjvtanw4r5xzrk.py":22:28)
#loc3 = loc("/root/.cache/vllm/torch_compile_cache/torch_aot_compile/61bda05feca29378847c32f031efa5c8dba258f38b0176a06a3e99e41df8ca50/inductor_cache/tl/ctl252n2bunnej67466acbjh2kgukawrnhxu6ajjvtanw4r5xzrk.py":22:33)
#loc4 = loc("/root/.cache/vllm/torch_compile_cache/torch_aot_compile/61bda05feca29378847c32f031efa5c8dba258f38b0176a06a3e99e41df8ca50/inductor_cache/tl/ctl252n2bunnej67466acbjh2kgukawrnhxu6ajjvtanw4r5xzrk.py":23:36)
#loc5 = loc("/root/.cache/vllm/torch_compile_cache/torch_aot_compile/61bda05feca29378847c32f031efa5c8dba258f38b0176a06a3e99e41df8ca50/inductor_cache/tl/ctl252n2bunnej67466acbjh2kgukawrnhxu6ajjvtanw4r5xzrk.py":23:44)
#loc6 = loc("/root/.cache/vllm/torch_compile_cache/torch_aot_compile/61bda05feca29378847c32f031efa5c8dba258f38b0176a06a3e99e41df8ca50/inductor_cache/tl/ctl252n2bunnej67466acbjh2kgukawrnhxu6ajjvtanw4r5xzrk.py":23:23)
#loc7 = loc("/root/.cache/vllm/torch_compile_cache/torch_aot_compile/61bda05feca29378847c32f031efa5c8dba258f38b0176a06a3e99e41df8ca50/inductor_cache/tl/ctl252n2bunnej67466acbjh2kgukawrnhxu6ajjvtanw4r5xzrk.py":24:21)
#loc8 = loc("/root/.cache/vllm/torch_compile_cache/torch_aot_compile/61bda05feca29378847c32f031efa5c8dba258f38b0176a06a3e99e41df8ca50/inductor_cache/tl/ctl252n2bunnej67466acbjh2kgukawrnhxu6ajjvtanw4r5xzrk.py":25:27)
#loc9 = loc("/root/.cache/vllm/torch_compile_cache/torch_aot_compile/61bda05feca29378847c32f031efa5c8dba258f38b0176a06a3e99e41df8ca50/inductor_cache/tl/ctl252n2bunnej67466acbjh2kgukawrnhxu6ajjvtanw4r5xzrk.py":25:37)
#loc10 = loc("/root/.cache/vllm/torch_compile_cache/torch_aot_compile/61bda05feca29378847c32f031efa5c8dba258f38b0176a06a3e99e41df8ca50/inductor_cache/tl/ctl252n2bunnej67466acbjh2kgukawrnhxu6ajjvtanw4r5xzrk.py":28:44)
#loc11 = loc("/root/.cache/vllm/torch_compile_cache/torch_aot_compile/61bda05feca29378847c32f031efa5c8dba258f38b0176a06a3e99e41df8ca50/inductor_cache/tl/ctl252n2bunnej67466acbjh2kgukawrnhxu6ajjvtanw4r5xzrk.py":29:43)
#loc12 = loc("/root/.cache/vllm/torch_compile_cache/torch_aot_compile/61bda05feca29378847c32f031efa5c8dba258f38b0176a06a3e99e41df8ca50/inductor_cache/tl/ctl252n2bunnej67466acbjh2kgukawrnhxu6ajjvtanw4r5xzrk.py":30:31)
#loc13 = loc("/root/.cache/vllm/torch_compile_cache/torch_aot_compile/61bda05feca29378847c32f031efa5c8dba258f38b0176a06a3e99e41df8ca50/inductor_cache/tl/ctl252n2bunnej67466acbjh2kgukawrnhxu6ajjvtanw4r5xzrk.py":31:29)
#loc14 = loc("/root/.cache/vllm/torch_compile_cache/torch_aot_compile/61bda05feca29378847c32f031efa5c8dba258f38b0176a06a3e99e41df8ca50/inductor_cache/tl/ctl252n2bunnej67466acbjh2kgukawrnhxu6ajjvtanw4r5xzrk.py":35:46)
#loc15 = loc("/root/.cache/vllm/torch_compile_cache/torch_aot_compile/61bda05feca29378847c32f031efa5c8dba258f38b0176a06a3e99e41df8ca50/inductor_cache/tl/ctl252n2bunnej67466acbjh2kgukawrnhxu6ajjvtanw4r5xzrk.py":35:41)
#loc16 = loc("/root/.cache/vllm/torch_compile_cache/torch_aot_compile/61bda05feca29378847c32f031efa5c8dba258f38b0176a06a3e99e41df8ca50/inductor_cache/tl/ctl252n2bunnej67466acbjh2kgukawrnhxu6ajjvtanw4r5xzrk.py":35:34)
#loc17 = loc("/root/.cache/vllm/torch_compile_cache/torch_aot_compile/61bda05feca29378847c32f031efa5c8dba258f38b0176a06a3e99e41df8ca50/inductor_cache/tl/ctl252n2bunnej67466acbjh2kgukawrnhxu6ajjvtanw4r5xzrk.py":35:61)
#loc18 = loc("/root/.cache/vllm/torch_compile_cache/torch_aot_compile/61bda05feca29378847c32f031efa5c8dba258f38b0176a06a3e99e41df8ca50/inductor_cache/tl/ctl252n2bunnej67466acbjh2kgukawrnhxu6ajjvtanw4r5xzrk.py":35:51)
#loc19 = loc("/root/.cache/vllm/torch_compile_cache/torch_aot_compile/61bda05feca29378847c32f031efa5c8dba258f38b0176a06a3e99e41df8ca50/inductor_cache/tl/ctl252n2bunnej67466acbjh2kgukawrnhxu6ajjvtanw4r5xzrk.py":35:112)
#loc20 = loc("/root/.cache/vllm/torch_compile_cache/torch_aot_compile/61bda05feca29378847c32f031efa5c8dba258f38b0176a06a3e99e41df8ca50/inductor_cache/tl/ctl252n2bunnej67466acbjh2kgukawrnhxu6ajjvtanw4r5xzrk.py":36:46)
#loc21 = loc("/root/.cache/vllm/torch_compile_cache/torch_aot_compile/61bda05feca29378847c32f031efa5c8dba258f38b0176a06a3e99e41df8ca50/inductor_cache/tl/ctl252n2bunnej67466acbjh2kgukawrnhxu6ajjvtanw4r5xzrk.py":36:41)
#loc22 = loc("/root/.cache/vllm/torch_compile_cache/torch_aot_compile/61bda05feca29378847c32f031efa5c8dba258f38b0176a06a3e99e41df8ca50/inductor_cache/tl/ctl252n2bunnej67466acbjh2kgukawrnhxu6ajjvtanw4r5xzrk.py":36:34)
#loc23 = loc("/root/.cache/vllm/torch_compile_cache/torch_aot_compile/61bda05feca29378847c32f031efa5c8dba258f38b0176a06a3e99e41df8ca50/inductor_cache/tl/ctl252n2bunnej67466acbjh2kgukawrnhxu6ajjvtanw4r5xzrk.py":36:61)
#loc24 = loc("/root/.cache/vllm/torch_compile_cache/torch_aot_compile/61bda05feca29378847c32f031efa5c8dba258f38b0176a06a3e99e41df8ca50/inductor_cache/tl/ctl252n2bunnej67466acbjh2kgukawrnhxu6ajjvtanw4r5xzrk.py":36:51)
#loc25 = loc("/root/.cache/vllm/torch_compile_cache/torch_aot_compile/61bda05feca29378847c32f031efa5c8dba258f38b0176a06a3e99e41df8ca50/inductor_cache/tl/ctl252n2bunnej67466acbjh2kgukawrnhxu6ajjvtanw4r5xzrk.py":36:112)
#loc26 = loc("/root/.cache/vllm/torch_compile_cache/torch_aot_compile/61bda05feca29378847c32f031efa5c8dba258f38b0176a06a3e99e41df8ca50/inductor_cache/tl/ctl252n2bunnej67466acbjh2kgukawrnhxu6ajjvtanw4r5xzrk.py":37:46)
#loc27 = loc("/root/.cache/vllm/torch_compile_cache/torch_aot_compile/61bda05feca29378847c32f031efa5c8dba258f38b0176a06a3e99e41df8ca50/inductor_cache/tl/ctl252n2bunnej67466acbjh2kgukawrnhxu6ajjvtanw4r5xzrk.py":37:41)
#loc28 = loc("/root/.cache/vllm/torch_compile_cache/torch_aot_compile/61bda05feca29378847c32f031efa5c8dba258f38b0176a06a3e99e41df8ca50/inductor_cache/tl/ctl252n2bunnej67466acbjh2kgukawrnhxu6ajjvtanw4r5xzrk.py":37:34)
#loc29 = loc("/root/.cache/vllm/torch_compile_cache/torch_aot_compile/61bda05feca29378847c32f031efa5c8dba258f38b0176a06a3e99e41df8ca50/inductor_cache/tl/ctl252n2bunnej67466acbjh2kgukawrnhxu6ajjvtanw4r5xzrk.py":37:61)
#loc30 = loc("/root/.cache/vllm/torch_compile_cache/torch_aot_compile/61bda05feca29378847c32f031efa5c8dba258f38b0176a06a3e99e41df8ca50/inductor_cache/tl/ctl252n2bunnej67466acbjh2kgukawrnhxu6ajjvtanw4r5xzrk.py":37:51)
#loc31 = loc("/root/.cache/vllm/torch_compile_cache/torch_aot_compile/61bda05feca29378847c32f031efa5c8dba258f38b0176a06a3e99e41df8ca50/inductor_cache/tl/ctl252n2bunnej67466acbjh2kgukawrnhxu6ajjvtanw4r5xzrk.py":37:112)
#loc32 = loc("/root/.cache/vllm/torch_compile_cache/torch_aot_compile/61bda05feca29378847c32f031efa5c8dba258f38b0176a06a3e99e41df8ca50/inductor_cache/tl/ctl252n2bunnej67466acbjh2kgukawrnhxu6ajjvtanw4r5xzrk.py":41:22)
#loc33 = loc("/root/.cache/vllm/torch_compile_cache/torch_aot_compile/61bda05feca29378847c32f031efa5c8dba258f38b0176a06a3e99e41df8ca50/inductor_cache/tl/ctl252n2bunnej67466acbjh2kgukawrnhxu6ajjvtanw4r5xzrk.py":44:22)
#loc34 = loc("/root/.cache/vllm/torch_compile_cache/torch_aot_compile/61bda05feca29378847c32f031efa5c8dba258f38b0176a06a3e99e41df8ca50/inductor_cache/tl/ctl252n2bunnej67466acbjh2kgukawrnhxu6ajjvtanw4r5xzrk.py":45:23)
#loc35 = loc("/root/.cache/vllm/torch_compile_cache/torch_aot_compile/61bda05feca29378847c32f031efa5c8dba258f38b0176a06a3e99e41df8ca50/inductor_cache/tl/ctl252n2bunnej67466acbjh2kgukawrnhxu6ajjvtanw4r5xzrk.py":47:25)
#loc36 = loc("/root/.cache/vllm/torch_compile_cache/torch_aot_compile/61bda05feca29378847c32f031efa5c8dba258f38b0176a06a3e99e41df8ca50/inductor_cache/tl/ctl252n2bunnej67466acbjh2kgukawrnhxu6ajjvtanw4r5xzrk.py":48:36)
#loc37 = loc("/root/.cache/vllm/torch_compile_cache/torch_aot_compile/61bda05feca29378847c32f031efa5c8dba258f38b0176a06a3e99e41df8ca50/inductor_cache/tl/ctl252n2bunnej67466acbjh2kgukawrnhxu6ajjvtanw4r5xzrk.py":48:50)
#loc38 = loc("/root/.cache/vllm/torch_compile_cache/torch_aot_compile/61bda05feca29378847c32f031efa5c8dba258f38b0176a06a3e99e41df8ca50/inductor_cache/tl/ctl252n2bunnej67466acbjh2kgukawrnhxu6ajjvtanw4r5xzrk.py":50:41)
#loc39 = loc("/root/.cache/vllm/torch_compile_cache/torch_aot_compile/61bda05feca29378847c32f031efa5c8dba258f38b0176a06a3e99e41df8ca50/inductor_cache/tl/ctl252n2bunnej67466acbjh2kgukawrnhxu6ajjvtanw4r5xzrk.py":50:36)
#loc40 = loc("/root/.cache/vllm/torch_compile_cache/torch_aot_compile/61bda05feca29378847c32f031efa5c8dba258f38b0176a06a3e99e41df8ca50/inductor_cache/tl/ctl252n2bunnej67466acbjh2kgukawrnhxu6ajjvtanw4r5xzrk.py":50:29)
#loc41 = loc("/root/.cache/vllm/torch_compile_cache/torch_aot_compile/61bda05feca29378847c32f031efa5c8dba258f38b0176a06a3e99e41df8ca50/inductor_cache/tl/ctl252n2bunnej67466acbjh2kgukawrnhxu6ajjvtanw4r5xzrk.py":50:63)
#loc42 = loc("/root/.cache/vllm/torch_compile_cache/torch_aot_compile/61bda05feca29378847c32f031efa5c8dba258f38b0176a06a3e99e41df8ca50/inductor_cache/tl/ctl252n2bunnej67466acbjh2kgukawrnhxu6ajjvtanw4r5xzrk.py":50:53)
#loc43 = loc("/root/.cache/vllm/torch_compile_cache/torch_aot_compile/61bda05feca29378847c32f031efa5c8dba258f38b0176a06a3e99e41df8ca50/inductor_cache/tl/ctl252n2bunnej67466acbjh2kgukawrnhxu6ajjvtanw4r5xzrk.py":50:8)
#loc44 = loc("/root/.cache/vllm/torch_compile_cache/torch_aot_compile/61bda05feca29378847c32f031efa5c8dba258f38b0176a06a3e99e41df8ca50/inductor_cache/tl/ctl252n2bunnej67466acbjh2kgukawrnhxu6ajjvtanw4r5xzrk.py":51:27)
#loc45 = loc("/root/.cache/vllm/torch_compile_cache/torch_aot_compile/61bda05feca29378847c32f031efa5c8dba258f38b0176a06a3e99e41df8ca50/inductor_cache/tl/ctl252n2bunnej67466acbjh2kgukawrnhxu6ajjvtanw4r5xzrk.py":51:30)
#loc46 = loc("/root/.cache/vllm/torch_compile_cache/torch_aot_compile/61bda05feca29378847c32f031efa5c8dba258f38b0176a06a3e99e41df8ca50/inductor_cache/tl/ctl252n2bunnej67466acbjh2kgukawrnhxu6ajjvtanw4r5xzrk.py":52:43)
#loc47 = loc("/root/.cache/vllm/torch_compile_cache/torch_aot_compile/61bda05feca29378847c32f031efa5c8dba258f38b0176a06a3e99e41df8ca50/inductor_cache/tl/ctl252n2bunnej67466acbjh2kgukawrnhxu6ajjvtanw4r5xzrk.py":53:31)
#loc48 = loc("/root/.cache/vllm/torch_compile_cache/torch_aot_compile/61bda05feca29378847c32f031efa5c8dba258f38b0176a06a3e99e41df8ca50/inductor_cache/tl/ctl252n2bunnej67466acbjh2kgukawrnhxu6ajjvtanw4r5xzrk.py":54:29)
#loc49 = loc("/root/.cache/vllm/torch_compile_cache/torch_aot_compile/61bda05feca29378847c32f031efa5c8dba258f38b0176a06a3e99e41df8ca50/inductor_cache/tl/ctl252n2bunnej67466acbjh2kgukawrnhxu6ajjvtanw4r5xzrk.py":58:47)
#loc50 = loc("/root/.cache/vllm/torch_compile_cache/torch_aot_compile/61bda05feca29378847c32f031efa5c8dba258f38b0176a06a3e99e41df8ca50/inductor_cache/tl/ctl252n2bunnej67466acbjh2kgukawrnhxu6ajjvtanw4r5xzrk.py":58:42)
#loc51 = loc("/root/.cache/vllm/torch_compile_cache/torch_aot_compile/61bda05feca29378847c32f031efa5c8dba258f38b0176a06a3e99e41df8ca50/inductor_cache/tl/ctl252n2bunnej67466acbjh2kgukawrnhxu6ajjvtanw4r5xzrk.py":58:35)
#loc52 = loc("/root/.cache/vllm/torch_compile_cache/torch_aot_compile/61bda05feca29378847c32f031efa5c8dba258f38b0176a06a3e99e41df8ca50/inductor_cache/tl/ctl252n2bunnej67466acbjh2kgukawrnhxu6ajjvtanw4r5xzrk.py":58:62)
#loc53 = loc("/root/.cache/vllm/torch_compile_cache/torch_aot_compile/61bda05feca29378847c32f031efa5c8dba258f38b0176a06a3e99e41df8ca50/inductor_cache/tl/ctl252n2bunnej67466acbjh2kgukawrnhxu6ajjvtanw4r5xzrk.py":58:52)
#loc54 = loc("/root/.cache/vllm/torch_compile_cache/torch_aot_compile/61bda05feca29378847c32f031efa5c8dba258f38b0176a06a3e99e41df8ca50/inductor_cache/tl/ctl252n2bunnej67466acbjh2kgukawrnhxu6ajjvtanw4r5xzrk.py":58:114)
#loc55 = loc("/root/.cache/vllm/torch_compile_cache/torch_aot_compile/61bda05feca29378847c32f031efa5c8dba258f38b0176a06a3e99e41df8ca50/inductor_cache/tl/ctl252n2bunnej67466acbjh2kgukawrnhxu6ajjvtanw4r5xzrk.py":59:47)
#loc56 = loc("/root/.cache/vllm/torch_compile_cache/torch_aot_compile/61bda05feca29378847c32f031efa5c8dba258f38b0176a06a3e99e41df8ca50/inductor_cache/tl/ctl252n2bunnej67466acbjh2kgukawrnhxu6ajjvtanw4r5xzrk.py":59:42)
#loc57 = loc("/root/.cache/vllm/torch_compile_cache/torch_aot_compile/61bda05feca29378847c32f031efa5c8dba258f38b0176a06a3e99e41df8ca50/inductor_cache/tl/ctl252n2bunnej67466acbjh2kgukawrnhxu6ajjvtanw4r5xzrk.py":59:35)
#loc58 = loc("/root/.cache/vllm/torch_compile_cache/torch_aot_compile/61bda05feca29378847c32f031efa5c8dba258f38b0176a06a3e99e41df8ca50/inductor_cache/tl/ctl252n2bunnej67466acbjh2kgukawrnhxu6ajjvtanw4r5xzrk.py":59:62)
#loc59 = loc("/root/.cache/vllm/torch_compile_cache/torch_aot_compile/61bda05feca29378847c32f031efa5c8dba258f38b0176a06a3e99e41df8ca50/inductor_cache/tl/ctl252n2bunnej67466acbjh2kgukawrnhxu6ajjvtanw4r5xzrk.py":59:52)
#loc60 = loc("/root/.cache/vllm/torch_compile_cache/torch_aot_compile/61bda05feca29378847c32f031efa5c8dba258f38b0176a06a3e99e41df8ca50/inductor_cache/tl/ctl252n2bunnej67466acbjh2kgukawrnhxu6ajjvtanw4r5xzrk.py":59:114)
#loc61 = loc("/root/.cache/vllm/torch_compile_cache/torch_aot_compile/61bda05feca29378847c32f031efa5c8dba258f38b0176a06a3e99e41df8ca50/inductor_cache/tl/ctl252n2bunnej67466acbjh2kgukawrnhxu6ajjvtanw4r5xzrk.py":60:47)
#loc62 = loc("/root/.cache/vllm/torch_compile_cache/torch_aot_compile/61bda05feca29378847c32f031efa5c8dba258f38b0176a06a3e99e41df8ca50/inductor_cache/tl/ctl252n2bunnej67466acbjh2kgukawrnhxu6ajjvtanw4r5xzrk.py":60:42)
#loc63 = loc("/root/.cache/vllm/torch_compile_cache/torch_aot_compile/61bda05feca29378847c32f031efa5c8dba258f38b0176a06a3e99e41df8ca50/inductor_cache/tl/ctl252n2bunnej67466acbjh2kgukawrnhxu6ajjvtanw4r5xzrk.py":60:35)
#loc64 = loc("/root/.cache/vllm/torch_compile_cache/torch_aot_compile/61bda05feca29378847c32f031efa5c8dba258f38b0176a06a3e99e41df8ca50/inductor_cache/tl/ctl252n2bunnej67466acbjh2kgukawrnhxu6ajjvtanw4r5xzrk.py":60:62)
#loc65 = loc("/root/.cache/vllm/torch_compile_cache/torch_aot_compile/61bda05feca29378847c32f031efa5c8dba258f38b0176a06a3e99e41df8ca50/inductor_cache/tl/ctl252n2bunnej67466acbjh2kgukawrnhxu6ajjvtanw4r5xzrk.py":60:52)
#loc66 = loc("/root/.cache/vllm/torch_compile_cache/torch_aot_compile/61bda05feca29378847c32f031efa5c8dba258f38b0176a06a3e99e41df8ca50/inductor_cache/tl/ctl252n2bunnej67466acbjh2kgukawrnhxu6ajjvtanw4r5xzrk.py":60:114)
#loc67 = loc("/root/.cache/vllm/torch_compile_cache/torch_aot_compile/61bda05feca29378847c32f031efa5c8dba258f38b0176a06a3e99e41df8ca50/inductor_cache/tl/ctl252n2bunnej67466acbjh2kgukawrnhxu6ajjvtanw4r5xzrk.py":61:35)
#loc68 = loc("/root/.cache/vllm/torch_compile_cache/torch_aot_compile/61bda05feca29378847c32f031efa5c8dba258f38b0176a06a3e99e41df8ca50/inductor_cache/tl/ctl252n2bunnej67466acbjh2kgukawrnhxu6ajjvtanw4r5xzrk.py":61:42)
#loc69 = loc("/root/.cache/vllm/torch_compile_cache/torch_aot_compile/61bda05feca29378847c32f031efa5c8dba258f38b0176a06a3e99e41df8ca50/inductor_cache/tl/ctl252n2bunnej67466acbjh2kgukawrnhxu6ajjvtanw4r5xzrk.py":61:95)
#loc70 = loc("/root/.cache/vllm/torch_compile_cache/torch_aot_compile/61bda05feca29378847c32f031efa5c8dba258f38b0176a06a3e99e41df8ca50/inductor_cache/tl/ctl252n2bunnej67466acbjh2kgukawrnhxu6ajjvtanw4r5xzrk.py":65:24)
#loc71 = loc("/root/.cache/vllm/torch_compile_cache/torch_aot_compile/61bda05feca29378847c32f031efa5c8dba258f38b0176a06a3e99e41df8ca50/inductor_cache/tl/ctl252n2bunnej67466acbjh2kgukawrnhxu6ajjvtanw4r5xzrk.py":68:24)
#loc72 = loc("/root/.cache/vllm/torch_compile_cache/torch_aot_compile/61bda05feca29378847c32f031efa5c8dba258f38b0176a06a3e99e41df8ca50/inductor_cache/tl/ctl252n2bunnej67466acbjh2kgukawrnhxu6ajjvtanw4r5xzrk.py":69:40)
#loc73 = loc("/root/.cache/vllm/torch_compile_cache/torch_aot_compile/61bda05feca29378847c32f031efa5c8dba258f38b0176a06a3e99e41df8ca50/inductor_cache/tl/ctl252n2bunnej67466acbjh2kgukawrnhxu6ajjvtanw4r5xzrk.py":70:25)
#loc74 = loc("/root/.cache/vllm/torch_compile_cache/torch_aot_compile/61bda05feca29378847c32f031efa5c8dba258f38b0176a06a3e99e41df8ca50/inductor_cache/tl/ctl252n2bunnej67466acbjh2kgukawrnhxu6ajjvtanw4r5xzrk.py":71:39)
#loc75 = loc("/root/.cache/vllm/torch_compile_cache/torch_aot_compile/61bda05feca29378847c32f031efa5c8dba258f38b0176a06a3e99e41df8ca50/inductor_cache/tl/ctl252n2bunnej67466acbjh2kgukawrnhxu6ajjvtanw4r5xzrk.py":72:24)
#loc76 = loc("/root/.cache/vllm/torch_compile_cache/torch_aot_compile/61bda05feca29378847c32f031efa5c8dba258f38b0176a06a3e99e41df8ca50/inductor_cache/tl/ctl252n2bunnej67466acbjh2kgukawrnhxu6ajjvtanw4r5xzrk.py":73:32)
#loc77 = loc("/root/.cache/vllm/torch_compile_cache/torch_aot_compile/61bda05feca29378847c32f031efa5c8dba258f38b0176a06a3e99e41df8ca50/inductor_cache/tl/ctl252n2bunnej67466acbjh2kgukawrnhxu6ajjvtanw4r5xzrk.py":74:24)
#loc78 = loc("/root/.cache/vllm/torch_compile_cache/torch_aot_compile/61bda05feca29378847c32f031efa5c8dba258f38b0176a06a3e99e41df8ca50/inductor_cache/tl/ctl252n2bunnej67466acbjh2kgukawrnhxu6ajjvtanw4r5xzrk.py":76:37)
#loc79 = loc("/root/.cache/vllm/torch_compile_cache/torch_aot_compile/61bda05feca29378847c32f031efa5c8dba258f38b0176a06a3e99e41df8ca50/inductor_cache/tl/ctl252n2bunnej67466acbjh2kgukawrnhxu6ajjvtanw4r5xzrk.py":77:24)
#loc80 = loc("/root/.cache/vllm/torch_compile_cache/torch_aot_compile/61bda05feca29378847c32f031efa5c8dba258f38b0176a06a3e99e41df8ca50/inductor_cache/tl/ctl252n2bunnej67466acbjh2kgukawrnhxu6ajjvtanw4r5xzrk.py":78:24)
#loc81 = loc("/root/.cache/vllm/torch_compile_cache/torch_aot_compile/61bda05feca29378847c32f031efa5c8dba258f38b0176a06a3e99e41df8ca50/inductor_cache/tl/ctl252n2bunnej67466acbjh2kgukawrnhxu6ajjvtanw4r5xzrk.py":80:41)
#loc82 = loc("/root/.cache/vllm/torch_compile_cache/torch_aot_compile/61bda05feca29378847c32f031efa5c8dba258f38b0176a06a3e99e41df8ca50/inductor_cache/tl/ctl252n2bunnej67466acbjh2kgukawrnhxu6ajjvtanw4r5xzrk.py":80:36)
#loc83 = loc("/root/.cache/vllm/torch_compile_cache/torch_aot_compile/61bda05feca29378847c32f031efa5c8dba258f38b0176a06a3e99e41df8ca50/inductor_cache/tl/ctl252n2bunnej67466acbjh2kgukawrnhxu6ajjvtanw4r5xzrk.py":80:29)
#loc84 = loc("/root/.cache/vllm/torch_compile_cache/torch_aot_compile/61bda05feca29378847c32f031efa5c8dba258f38b0176a06a3e99e41df8ca50/inductor_cache/tl/ctl252n2bunnej67466acbjh2kgukawrnhxu6ajjvtanw4r5xzrk.py":80:63)
#loc85 = loc("/root/.cache/vllm/torch_compile_cache/torch_aot_compile/61bda05feca29378847c32f031efa5c8dba258f38b0176a06a3e99e41df8ca50/inductor_cache/tl/ctl252n2bunnej67466acbjh2kgukawrnhxu6ajjvtanw4r5xzrk.py":80:53)
#loc86 = loc("/root/.cache/vllm/torch_compile_cache/torch_aot_compile/61bda05feca29378847c32f031efa5c8dba258f38b0176a06a3e99e41df8ca50/inductor_cache/tl/ctl252n2bunnej67466acbjh2kgukawrnhxu6ajjvtanw4r5xzrk.py":81:41)
#loc87 = loc("/root/.cache/vllm/torch_compile_cache/torch_aot_compile/61bda05feca29378847c32f031efa5c8dba258f38b0176a06a3e99e41df8ca50/inductor_cache/tl/ctl252n2bunnej67466acbjh2kgukawrnhxu6ajjvtanw4r5xzrk.py":81:36)
#loc88 = loc("/root/.cache/vllm/torch_compile_cache/torch_aot_compile/61bda05feca29378847c32f031efa5c8dba258f38b0176a06a3e99e41df8ca50/inductor_cache/tl/ctl252n2bunnej67466acbjh2kgukawrnhxu6ajjvtanw4r5xzrk.py":81:29)
#loc89 = loc("/root/.cache/vllm/torch_compile_cache/torch_aot_compile/61bda05feca29378847c32f031efa5c8dba258f38b0176a06a3e99e41df8ca50/inductor_cache/tl/ctl252n2bunnej67466acbjh2kgukawrnhxu6ajjvtanw4r5xzrk.py":81:63)
#loc90 = loc("/root/.cache/vllm/torch_compile_cache/torch_aot_compile/61bda05feca29378847c32f031efa5c8dba258f38b0176a06a3e99e41df8ca50/inductor_cache/tl/ctl252n2bunnej67466acbjh2kgukawrnhxu6ajjvtanw4r5xzrk.py":81:53)
#loc91 = loc("/root/.cache/vllm/torch_compile_cache/torch_aot_compile/61bda05feca29378847c32f031efa5c8dba258f38b0176a06a3e99e41df8ca50/inductor_cache/tl/ctl252n2bunnej67466acbjh2kgukawrnhxu6ajjvtanw4r5xzrk.py":52:4)
#loc93 = loc("/usr/local/lib/python3.12/dist-packages/triton/language/standard.py":293:36)
#loc95 = loc("/usr/local/lib/python3.12/dist-packages/triton/language/standard.py":293:11)
#loc96 = loc("/usr/local/lib/python3.12/dist-packages/triton/language/standard.py":293:4)
#loc98 = loc("/usr/local/lib/python3.12/dist-packages/triton/language/standard.py":263:15)
#loc99 = loc("/usr/local/lib/python3.12/dist-packages/triton/language/standard.py":263:11)
#loc100 = loc("/usr/local/lib/python3.12/dist-packages/triton/language/standard.py":263:4)
#loc110 = loc("r0_numel"(#loc1))
#loc111 = loc("xoffset"(#loc2))
#loc112 = loc("xoffset"(#loc3))
#loc113 = loc("xindex"(#loc4))
#loc114 = loc("xindex"(#loc5))
#loc115 = loc("xindex"(#loc6))
#loc116 = loc("xmask"(#loc7))
#loc117 = loc("r0_base"(#loc8))
#loc118 = loc("r0_base"(#loc9))
#loc119 = loc("_tmp12"(#loc10))
#loc120 = loc("_tmp12"(#loc11))
#loc121 = loc("r0_index"(#loc12))
#loc122 = loc("r0_mask"(#loc13))
#loc123 = loc("tmp0"(#loc14))
#loc124 = loc("tmp0"(#loc15))
#loc125 = loc("tmp0"(#loc16))
#loc126 = loc("tmp0"(#loc17))
#loc127 = loc("tmp0"(#loc18))
#loc128 = loc("tmp0"(#loc19))
#loc129 = loc("tmp2"(#loc20))
#loc130 = loc("tmp2"(#loc21))
#loc131 = loc("tmp2"(#loc22))
#loc132 = loc("tmp2"(#loc23))
#loc133 = loc("tmp2"(#loc24))
#loc134 = loc("tmp2"(#loc25))
#loc135 = loc("tmp4"(#loc26))
#loc136 = loc("tmp4"(#loc27))
#loc137 = loc("tmp4"(#loc28))
#loc138 = loc("tmp4"(#loc29))
#loc139 = loc("tmp4"(#loc30))
#loc140 = loc("tmp4"(#loc31))
#loc141 = loc("tmp6"(#loc32))
#loc142 = loc("tmp9"(#loc33))
#loc143 = loc("tmp10"(#loc34))
#loc144 = loc("tmp13"(#loc35))
#loc145 = loc("_tmp12"(#loc36))
#loc146 = loc("_tmp12"(#loc37))
#loc147 = loc("tmp12"(#loc44))
#loc148 = loc("tmp12"(#loc45))
#loc149 = loc("r0_index"(#loc47))
#loc150 = loc("r0_mask"(#loc48))
#loc151 = loc("tmp15"(#loc49))
#loc152 = loc("tmp15"(#loc50))
#loc153 = loc("tmp15"(#loc51))
#loc154 = loc("tmp15"(#loc52))
#loc155 = loc("tmp15"(#loc53))
#loc156 = loc("tmp15"(#loc54))
#loc157 = loc("tmp17"(#loc55))
#loc158 = loc("tmp17"(#loc56))
#loc159 = loc("tmp17"(#loc57))
#loc160 = loc("tmp17"(#loc58))
#loc161 = loc("tmp17"(#loc59))
#loc162 = loc("tmp17"(#loc60))
#loc163 = loc("tmp19"(#loc61))
#loc164 = loc("tmp19"(#loc62))
#loc165 = loc("tmp19"(#loc63))
#loc166 = loc("tmp19"(#loc64))
#loc167 = loc("tmp19"(#loc65))
#loc168 = loc("tmp19"(#loc66))
#loc169 = loc("tmp31"(#loc67))
#loc170 = loc("tmp31"(#loc68))
#loc171 = loc("tmp31"(#loc69))
#loc172 = loc("tmp21"(#loc70))
#loc173 = loc("tmp24"(#loc71))
#loc174 = loc("tmp25"(#loc72))
#loc175 = loc("tmp26"(#loc73))
#loc176 = loc("tmp27"(#loc74))
#loc177 = loc("tmp28"(#loc75))
#loc178 = loc("tmp29"(#loc76))
#loc179 = loc("tmp30"(#loc77))
#loc180 = loc("tmp33"(#loc78))
#loc181 = loc("tmp34"(#loc79))
#loc182 = loc("tmp35"(#loc80))
