#loc = loc("/root/.cache/vllm/torch_compile_cache/torch_aot_compile/61bda05feca29378847c32f031efa5c8dba258f38b0176a06a3e99e41df8ca50/inductor_cache/pf/cpflte6pyjgl2kv6xlfwzknhtwhysitxjs2m4luyrmnp4jjarqgg.py":22:0)
#loc39 = loc("in_ptr0"(#loc))
#loc40 = loc("in_ptr1"(#loc))
#loc41 = loc("in_ptr2"(#loc))
#loc42 = loc("out_ptr0"(#loc))
#loc43 = loc("xnumel"(#loc))
module {
  tt.func public @triton_(%in_ptr0: !tt.ptr<f16> {tt.divisibility = 16 : i32} loc("in_ptr0"(#loc)), %in_ptr1: !tt.ptr<f32> {tt.divisibility = 16 : i32} loc("in_ptr1"(#loc)), %in_ptr2: !tt.ptr<f16> {tt.divisibility = 16 : i32} loc("in_ptr2"(#loc)), %out_ptr0: !tt.ptr<f16> {tt.divisibility = 16 : i32} loc("out_ptr0"(#loc)), %xnumel: i32 {tt.divisibility = 16 : i32} loc("xnumel"(#loc))) attributes {noinline = false} {
    %xoffset = tt.get_program_id x : i32 loc(#loc44)
    %xoffset_0 = arith.constant 1024 : i32 loc(#loc45)
    %xoffset_1 = arith.constant 1024 : i32 loc(#loc45)
    %xoffset_2 = arith.muli %xoffset, %xoffset_1 : i32 loc(#loc45)
    %xindex = tt.make_range {end = 1024 : i32, start = 0 : i32} : tensor<1024xi32> loc(#loc46)
    %xindex_3 = tt.splat %xoffset_2 : i32 -> tensor<1024xi32> loc(#loc47)
    %xindex_4 = arith.addi %xindex_3, %xindex : tensor<1024xi32> loc(#loc47)
    %xmask = tt.splat %xnumel : i32 -> tensor<1024xi32> loc(#loc48)
    %xmask_5 = arith.cmpi slt, %xindex_4, %xmask : tensor<1024xi32> loc(#loc48)
    %x0 = arith.constant 192 : i32 loc(#loc49)
    %x0_6 = arith.constant 192 : i32 loc(#loc49)
    %x0_7 = arith.constant dense<192> : tensor<1024xi32> loc(#loc49)
    %x0_8 = arith.remsi %xindex_4, %x0_7 : tensor<1024xi32> loc(#loc49)
    %x1 = arith.constant 192 : i32 loc(#loc50)
    %x1_9 = arith.constant 192 : i32 loc(#loc50)
    %x1_10 = arith.constant dense<192> : tensor<1024xi32> loc(#loc50)
    %x1_11 = arith.divsi %xindex_4, %x1_10 : tensor<1024xi32> loc(#loc50)
    %x1_12 = arith.constant 8 : i32 loc(#loc51)
    %x1_13 = arith.constant 8 : i32 loc(#loc51)
    %x1_14 = arith.constant dense<8> : tensor<1024xi32> loc(#loc51)
    %x1_15 = arith.remsi %x1_11, %x1_14 : tensor<1024xi32> loc(#loc51)
    %x2 = arith.constant 1536 : i32 loc(#loc52)
    %x2_16 = arith.constant 1536 : i32 loc(#loc52)
    %x2_17 = arith.constant dense<1536> : tensor<1024xi32> loc(#loc52)
    %x2_18 = arith.divsi %xindex_4, %x2_17 : tensor<1024xi32> loc(#loc52)
    %x3 = arith.constant 192 : i32 loc(#loc53)
    %x3_19 = arith.constant 192 : i32 loc(#loc53)
    %x3_20 = arith.constant dense<192> : tensor<1024xi32> loc(#loc53)
    %x3_21 = arith.divsi %xindex_4, %x3_20 : tensor<1024xi32> loc(#loc53)
    %tmp0 = arith.constant 64 : i32 loc(#loc54)
    %tmp0_22 = arith.constant 64 : i32 loc(#loc54)
    %tmp0_23 = arith.constant dense<64> : tensor<1024xi32> loc(#loc54)
    %tmp0_24 = arith.addi %tmp0_23, %x0_8 : tensor<1024xi32> loc(#loc54)
    %tmp0_25 = arith.constant 512 : i32 loc(#loc55)
    %tmp0_26 = arith.constant 512 : i32 loc(#loc55)
    %tmp0_27 = arith.constant dense<512> : tensor<1024xi32> loc(#loc55)
    %tmp0_28 = arith.muli %tmp0_27, %x1_15 : tensor<1024xi32> loc(#loc55)
    %tmp0_29 = arith.addi %tmp0_24, %tmp0_28 : tensor<1024xi32> loc(#loc56)
    %tmp0_30 = arith.constant 4608 : i32 loc(#loc57)
    %tmp0_31 = arith.constant 4608 : i32 loc(#loc57)
    %tmp0_32 = arith.constant dense<4608> : tensor<1024xi32> loc(#loc57)
    %tmp0_33 = arith.muli %tmp0_32, %x2_18 : tensor<1024xi32> loc(#loc57)
    %tmp0_34 = arith.addi %tmp0_29, %tmp0_33 : tensor<1024xi32> loc(#loc58)
    %tmp0_35 = tt.splat %in_ptr0 : !tt.ptr<f16> -> tensor<1024x!tt.ptr<f16>> loc(#loc59)
    %tmp0_36 = tt.addptr %tmp0_35, %tmp0_34 : tensor<1024x!tt.ptr<f16>>, tensor<1024xi32> loc(#loc59)
    %tmp0_37 = tt.load %tmp0_36, %xmask_5 : tensor<1024x!tt.ptr<f16>> loc(#loc60)
    %tmp0_38 = arith.extf %tmp0_37 : tensor<1024xf16> to tensor<1024xf32> loc(#loc61)
    %tmp2 = tt.splat %in_ptr1 : !tt.ptr<f32> -> tensor<1024x!tt.ptr<f32>> loc(#loc62)
    %tmp2_39 = tt.addptr %tmp2, %x3_21 : tensor<1024x!tt.ptr<f32>>, tensor<1024xi32> loc(#loc62)
    %tmp2_40 = tt.load %tmp2_39, %xmask_5 evictionPolicy = evict_last : tensor<1024x!tt.ptr<f32>> loc(#loc63)
    %tmp9 = arith.constant 64 : i32 loc(#loc64)
    %tmp9_41 = arith.constant 64 : i32 loc(#loc64)
    %tmp9_42 = arith.constant dense<64> : tensor<1024xi32> loc(#loc64)
    %tmp9_43 = arith.addi %tmp9_42, %x0_8 : tensor<1024xi32> loc(#loc64)
    %tmp9_44 = tt.splat %in_ptr2 : !tt.ptr<f16> -> tensor<1024x!tt.ptr<f16>> loc(#loc65)
    %tmp9_45 = tt.addptr %tmp9_44, %tmp9_43 : tensor<1024x!tt.ptr<f16>>, tensor<1024xi32> loc(#loc65)
    %tmp9_46 = tt.load %tmp9_45, %xmask_5 evictionPolicy = evict_last : tensor<1024x!tt.ptr<f16>> loc(#loc66)
    %tmp9_47 = arith.extf %tmp9_46 : tensor<1024xf16> to tensor<1024xf32> loc(#loc67)
    %tmp3 = arith.constant 2.560000e+02 : f32 loc(#loc68)
    %tmp3_48 = arith.constant dense<2.560000e+02> : tensor<1xf32> loc(#loc68)
    %tmp4 = arith.constant dense<2.560000e+02> : tensor<1024xf32> loc(#loc69)
    %tmp4_49 = arith.divf %tmp2_40, %tmp4 : tensor<1024xf32> loc(#loc69)
    %tmp5 = arith.constant 9.99999997E-7 : f32 loc(#loc70)
    %tmp5_50 = arith.constant dense<9.99999997E-7> : tensor<1xf32> loc(#loc70)
    %tmp6 = arith.constant dense<9.99999997E-7> : tensor<1024xf32> loc(#loc71)
    %tmp6_51 = arith.addf %tmp4_49, %tmp6 : tensor<1024xf32> loc(#loc71)
    %tmp7 = tt.extern_elementwise %tmp6_51 {libname = "", libpath = "", pure = true, symbol = "__nv_rsqrtf"} : (tensor<1024xf32>) -> tensor<1024xf32> loc(#loc72)
    %tmp8 = arith.mulf %tmp0_38, %tmp7 : tensor<1024xf32> loc(#loc73)
    %tmp11 = arith.constant 1.000000e+00 : f32 loc(#loc74)
    %tmp11_52 = arith.constant dense<1.000000e+00> : tensor<1xf32> loc(#loc74)
    %tmp12 = arith.constant dense<1.000000e+00> : tensor<1024xf32> loc(#loc75)
    %tmp12_53 = arith.addf %tmp9_47, %tmp12 : tensor<1024xf32> loc(#loc75)
    %tmp13 = arith.mulf %tmp8, %tmp12_53 : tensor<1024xf32> loc(#loc76)
    %c256_i32 = arith.constant 256 : i32 loc(#loc34)
    %c256_i32_54 = arith.constant 256 : i32 loc(#loc34)
    %cst = arith.constant dense<256> : tensor<1024xi32> loc(#loc34)
    %0 = arith.muli %cst, %x3_21 : tensor<1024xi32> loc(#loc34)
    %1 = arith.addi %x0_8, %0 : tensor<1024xi32> loc(#loc35)
    %2 = tt.splat %out_ptr0 : !tt.ptr<f16> -> tensor<1024x!tt.ptr<f16>> loc(#loc36)
    %3 = tt.addptr %2, %1 : tensor<1024x!tt.ptr<f16>>, tensor<1024xi32> loc(#loc36)
    %4 = arith.truncf %tmp13 : tensor<1024xf32> to tensor<1024xf16> loc(#loc37)
    tt.store %3, %4, %xmask_5 : tensor<1024x!tt.ptr<f16>> loc(#loc37)
    tt.return loc(#loc38)
  } loc(#loc)
} loc(#loc)
#loc1 = loc("/root/.cache/vllm/torch_compile_cache/torch_aot_compile/61bda05feca29378847c32f031efa5c8dba258f38b0176a06a3e99e41df8ca50/inductor_cache/pf/cpflte6pyjgl2kv6xlfwzknhtwhysitxjs2m4luyrmnp4jjarqgg.py":23:28)
#loc2 = loc("/root/.cache/vllm/torch_compile_cache/torch_aot_compile/61bda05feca29378847c32f031efa5c8dba258f38b0176a06a3e99e41df8ca50/inductor_cache/pf/cpflte6pyjgl2kv6xlfwzknhtwhysitxjs2m4luyrmnp4jjarqgg.py":23:33)
#loc3 = loc("/root/.cache/vllm/torch_compile_cache/torch_aot_compile/61bda05feca29378847c32f031efa5c8dba258f38b0176a06a3e99e41df8ca50/inductor_cache/pf/cpflte6pyjgl2kv6xlfwzknhtwhysitxjs2m4luyrmnp4jjarqgg.py":24:36)
#loc4 = loc("/root/.cache/vllm/torch_compile_cache/torch_aot_compile/61bda05feca29378847c32f031efa5c8dba258f38b0176a06a3e99e41df8ca50/inductor_cache/pf/cpflte6pyjgl2kv6xlfwzknhtwhysitxjs2m4luyrmnp4jjarqgg.py":24:23)
#loc5 = loc("/root/.cache/vllm/torch_compile_cache/torch_aot_compile/61bda05feca29378847c32f031efa5c8dba258f38b0176a06a3e99e41df8ca50/inductor_cache/pf/cpflte6pyjgl2kv6xlfwzknhtwhysitxjs2m4luyrmnp4jjarqgg.py":25:21)
#loc6 = loc("/root/.cache/vllm/torch_compile_cache/torch_aot_compile/61bda05feca29378847c32f031efa5c8dba258f38b0176a06a3e99e41df8ca50/inductor_cache/pf/cpflte6pyjgl2kv6xlfwzknhtwhysitxjs2m4luyrmnp4jjarqgg.py":26:19)
#loc7 = loc("/root/.cache/vllm/torch_compile_cache/torch_aot_compile/61bda05feca29378847c32f031efa5c8dba258f38b0176a06a3e99e41df8ca50/inductor_cache/pf/cpflte6pyjgl2kv6xlfwzknhtwhysitxjs2m4luyrmnp4jjarqgg.py":27:21)
#loc8 = loc("/root/.cache/vllm/torch_compile_cache/torch_aot_compile/61bda05feca29378847c32f031efa5c8dba258f38b0176a06a3e99e41df8ca50/inductor_cache/pf/cpflte6pyjgl2kv6xlfwzknhtwhysitxjs2m4luyrmnp4jjarqgg.py":27:28)
#loc9 = loc("/root/.cache/vllm/torch_compile_cache/torch_aot_compile/61bda05feca29378847c32f031efa5c8dba258f38b0176a06a3e99e41df8ca50/inductor_cache/pf/cpflte6pyjgl2kv6xlfwzknhtwhysitxjs2m4luyrmnp4jjarqgg.py":28:19)
#loc10 = loc("/root/.cache/vllm/torch_compile_cache/torch_aot_compile/61bda05feca29378847c32f031efa5c8dba258f38b0176a06a3e99e41df8ca50/inductor_cache/pf/cpflte6pyjgl2kv6xlfwzknhtwhysitxjs2m4luyrmnp4jjarqgg.py":29:19)
#loc11 = loc("/root/.cache/vllm/torch_compile_cache/torch_aot_compile/61bda05feca29378847c32f031efa5c8dba258f38b0176a06a3e99e41df8ca50/inductor_cache/pf/cpflte6pyjgl2kv6xlfwzknhtwhysitxjs2m4luyrmnp4jjarqgg.py":30:35)
#loc12 = loc("/root/.cache/vllm/torch_compile_cache/torch_aot_compile/61bda05feca29378847c32f031efa5c8dba258f38b0176a06a3e99e41df8ca50/inductor_cache/pf/cpflte6pyjgl2kv6xlfwzknhtwhysitxjs2m4luyrmnp4jjarqgg.py":30:44)
#loc13 = loc("/root/.cache/vllm/torch_compile_cache/torch_aot_compile/61bda05feca29378847c32f031efa5c8dba258f38b0176a06a3e99e41df8ca50/inductor_cache/pf/cpflte6pyjgl2kv6xlfwzknhtwhysitxjs2m4luyrmnp4jjarqgg.py":30:40)
#loc14 = loc("/root/.cache/vllm/torch_compile_cache/torch_aot_compile/61bda05feca29378847c32f031efa5c8dba258f38b0176a06a3e99e41df8ca50/inductor_cache/pf/cpflte6pyjgl2kv6xlfwzknhtwhysitxjs2m4luyrmnp4jjarqgg.py":30:54)
#loc15 = loc("/root/.cache/vllm/torch_compile_cache/torch_aot_compile/61bda05feca29378847c32f031efa5c8dba258f38b0176a06a3e99e41df8ca50/inductor_cache/pf/cpflte6pyjgl2kv6xlfwzknhtwhysitxjs2m4luyrmnp4jjarqgg.py":30:49)
#loc16 = loc("/root/.cache/vllm/torch_compile_cache/torch_aot_compile/61bda05feca29378847c32f031efa5c8dba258f38b0176a06a3e99e41df8ca50/inductor_cache/pf/cpflte6pyjgl2kv6xlfwzknhtwhysitxjs2m4luyrmnp4jjarqgg.py":30:30)
#loc17 = loc("/root/.cache/vllm/torch_compile_cache/torch_aot_compile/61bda05feca29378847c32f031efa5c8dba258f38b0176a06a3e99e41df8ca50/inductor_cache/pf/cpflte6pyjgl2kv6xlfwzknhtwhysitxjs2m4luyrmnp4jjarqgg.py":30:59)
#loc18 = loc("/root/.cache/vllm/torch_compile_cache/torch_aot_compile/61bda05feca29378847c32f031efa5c8dba258f38b0176a06a3e99e41df8ca50/inductor_cache/pf/cpflte6pyjgl2kv6xlfwzknhtwhysitxjs2m4luyrmnp4jjarqgg.py":30:69)
#loc19 = loc("/root/.cache/vllm/torch_compile_cache/torch_aot_compile/61bda05feca29378847c32f031efa5c8dba258f38b0176a06a3e99e41df8ca50/inductor_cache/pf/cpflte6pyjgl2kv6xlfwzknhtwhysitxjs2m4luyrmnp4jjarqgg.py":31:30)
#loc20 = loc("/root/.cache/vllm/torch_compile_cache/torch_aot_compile/61bda05feca29378847c32f031efa5c8dba258f38b0176a06a3e99e41df8ca50/inductor_cache/pf/cpflte6pyjgl2kv6xlfwzknhtwhysitxjs2m4luyrmnp4jjarqgg.py":31:35)
#loc21 = loc("/root/.cache/vllm/torch_compile_cache/torch_aot_compile/61bda05feca29378847c32f031efa5c8dba258f38b0176a06a3e99e41df8ca50/inductor_cache/pf/cpflte6pyjgl2kv6xlfwzknhtwhysitxjs2m4luyrmnp4jjarqgg.py":32:35)
#loc22 = loc("/root/.cache/vllm/torch_compile_cache/torch_aot_compile/61bda05feca29378847c32f031efa5c8dba258f38b0176a06a3e99e41df8ca50/inductor_cache/pf/cpflte6pyjgl2kv6xlfwzknhtwhysitxjs2m4luyrmnp4jjarqgg.py":32:30)
#loc23 = loc("/root/.cache/vllm/torch_compile_cache/torch_aot_compile/61bda05feca29378847c32f031efa5c8dba258f38b0176a06a3e99e41df8ca50/inductor_cache/pf/cpflte6pyjgl2kv6xlfwzknhtwhysitxjs2m4luyrmnp4jjarqgg.py":32:40)
#loc24 = loc("/root/.cache/vllm/torch_compile_cache/torch_aot_compile/61bda05feca29378847c32f031efa5c8dba258f38b0176a06a3e99e41df8ca50/inductor_cache/pf/cpflte6pyjgl2kv6xlfwzknhtwhysitxjs2m4luyrmnp4jjarqgg.py":32:80)
#loc25 = loc("/root/.cache/vllm/torch_compile_cache/torch_aot_compile/61bda05feca29378847c32f031efa5c8dba258f38b0176a06a3e99e41df8ca50/inductor_cache/pf/cpflte6pyjgl2kv6xlfwzknhtwhysitxjs2m4luyrmnp4jjarqgg.py":34:31)
#loc26 = loc("/root/.cache/vllm/torch_compile_cache/torch_aot_compile/61bda05feca29378847c32f031efa5c8dba258f38b0176a06a3e99e41df8ca50/inductor_cache/pf/cpflte6pyjgl2kv6xlfwzknhtwhysitxjs2m4luyrmnp4jjarqgg.py":35:19)
#loc27 = loc("/root/.cache/vllm/torch_compile_cache/torch_aot_compile/61bda05feca29378847c32f031efa5c8dba258f38b0176a06a3e99e41df8ca50/inductor_cache/pf/cpflte6pyjgl2kv6xlfwzknhtwhysitxjs2m4luyrmnp4jjarqgg.py":36:31)
#loc28 = loc("/root/.cache/vllm/torch_compile_cache/torch_aot_compile/61bda05feca29378847c32f031efa5c8dba258f38b0176a06a3e99e41df8ca50/inductor_cache/pf/cpflte6pyjgl2kv6xlfwzknhtwhysitxjs2m4luyrmnp4jjarqgg.py":37:18)
#loc29 = loc("/root/.cache/vllm/torch_compile_cache/torch_aot_compile/61bda05feca29378847c32f031efa5c8dba258f38b0176a06a3e99e41df8ca50/inductor_cache/pf/cpflte6pyjgl2kv6xlfwzknhtwhysitxjs2m4luyrmnp4jjarqgg.py":38:27)
#loc30 = loc("/root/.cache/vllm/torch_compile_cache/torch_aot_compile/61bda05feca29378847c32f031efa5c8dba258f38b0176a06a3e99e41df8ca50/inductor_cache/pf/cpflte6pyjgl2kv6xlfwzknhtwhysitxjs2m4luyrmnp4jjarqgg.py":39:18)
#loc31 = loc("/root/.cache/vllm/torch_compile_cache/torch_aot_compile/61bda05feca29378847c32f031efa5c8dba258f38b0176a06a3e99e41df8ca50/inductor_cache/pf/cpflte6pyjgl2kv6xlfwzknhtwhysitxjs2m4luyrmnp4jjarqgg.py":41:30)
#loc32 = loc("/root/.cache/vllm/torch_compile_cache/torch_aot_compile/61bda05feca29378847c32f031efa5c8dba258f38b0176a06a3e99e41df8ca50/inductor_cache/pf/cpflte6pyjgl2kv6xlfwzknhtwhysitxjs2m4luyrmnp4jjarqgg.py":42:20)
#loc33 = loc("/root/.cache/vllm/torch_compile_cache/torch_aot_compile/61bda05feca29378847c32f031efa5c8dba258f38b0176a06a3e99e41df8ca50/inductor_cache/pf/cpflte6pyjgl2kv6xlfwzknhtwhysitxjs2m4luyrmnp4jjarqgg.py":43:19)
#loc34 = loc("/root/.cache/vllm/torch_compile_cache/torch_aot_compile/61bda05feca29378847c32f031efa5c8dba258f38b0176a06a3e99e41df8ca50/inductor_cache/pf/cpflte6pyjgl2kv6xlfwzknhtwhysitxjs2m4luyrmnp4jjarqgg.py":45:34)
#loc35 = loc("/root/.cache/vllm/torch_compile_cache/torch_aot_compile/61bda05feca29378847c32f031efa5c8dba258f38b0176a06a3e99e41df8ca50/inductor_cache/pf/cpflte6pyjgl2kv6xlfwzknhtwhysitxjs2m4luyrmnp4jjarqgg.py":45:30)
#loc36 = loc("/root/.cache/vllm/torch_compile_cache/torch_aot_compile/61bda05feca29378847c32f031efa5c8dba258f38b0176a06a3e99e41df8ca50/inductor_cache/pf/cpflte6pyjgl2kv6xlfwzknhtwhysitxjs2m4luyrmnp4jjarqgg.py":45:25)
#loc37 = loc("/root/.cache/vllm/torch_compile_cache/torch_aot_compile/61bda05feca29378847c32f031efa5c8dba258f38b0176a06a3e99e41df8ca50/inductor_cache/pf/cpflte6pyjgl2kv6xlfwzknhtwhysitxjs2m4luyrmnp4jjarqgg.py":45:46)
#loc38 = loc("/root/.cache/vllm/torch_compile_cache/torch_aot_compile/61bda05feca29378847c32f031efa5c8dba258f38b0176a06a3e99e41df8ca50/inductor_cache/pf/cpflte6pyjgl2kv6xlfwzknhtwhysitxjs2m4luyrmnp4jjarqgg.py":45:4)
#loc44 = loc("xoffset"(#loc1))
#loc45 = loc("xoffset"(#loc2))
#loc46 = loc("xindex"(#loc3))
#loc47 = loc("xindex"(#loc4))
#loc48 = loc("xmask"(#loc5))
#loc49 = loc("x0"(#loc6))
#loc50 = loc("x1"(#loc7))
#loc51 = loc("x1"(#loc8))
#loc52 = loc("x2"(#loc9))
#loc53 = loc("x3"(#loc10))
#loc54 = loc("tmp0"(#loc11))
#loc55 = loc("tmp0"(#loc12))
#loc56 = loc("tmp0"(#loc13))
#loc57 = loc("tmp0"(#loc14))
#loc58 = loc("tmp0"(#loc15))
#loc59 = loc("tmp0"(#loc16))
#loc60 = loc("tmp0"(#loc17))
#loc61 = loc("tmp0"(#loc18))
#loc62 = loc("tmp2"(#loc19))
#loc63 = loc("tmp2"(#loc20))
#loc64 = loc("tmp9"(#loc21))
#loc65 = loc("tmp9"(#loc22))
#loc66 = loc("tmp9"(#loc23))
#loc67 = loc("tmp9"(#loc24))
#loc68 = loc("tmp3"(#loc25))
#loc69 = loc("tmp4"(#loc26))
#loc70 = loc("tmp5"(#loc27))
#loc71 = loc("tmp6"(#loc28))
#loc72 = loc("tmp7"(#loc29))
#loc73 = loc("tmp8"(#loc30))
#loc74 = loc("tmp11"(#loc31))
#loc75 = loc("tmp12"(#loc32))
#loc76 = loc("tmp13"(#loc33))
