#loc = loc("/root/.cache/vllm/torch_compile_cache/torch_aot_compile/61bda05feca29378847c32f031efa5c8dba258f38b0176a06a3e99e41df8ca50/inductor_cache/l7/cl7haw5qabzqznnb6qlemhcc6d4czcipfyxji6et5j3lygw6hy2i.py":18:0)
#loc2 = loc(unknown)
#loc29 = loc("/root/.cache/vllm/torch_compile_cache/torch_aot_compile/61bda05feca29378847c32f031efa5c8dba258f38b0176a06a3e99e41df8ca50/inductor_cache/l7/cl7haw5qabzqznnb6qlemhcc6d4czcipfyxji6et5j3lygw6hy2i.py":40:24)
#loc44 = loc("in_ptr0"(#loc))
#loc45 = loc("in_ptr1"(#loc))
#loc46 = loc("in_ptr2"(#loc))
#loc47 = loc("out_ptr1"(#loc))
#loc48 = loc("xnumel"(#loc))
#loc49 = loc("r0_numel"(#loc))
#loc76 = loc("tmp6"(#loc29))
#loc92 = loc(callsite(#loc2 at #loc76))
module {
  tt.func public @triton_per_fused_1(%in_ptr0: !tt.ptr<f16> {tt.divisibility = 16 : i32} loc("in_ptr0"(#loc)), %in_ptr1: !tt.ptr<f16> {tt.divisibility = 16 : i32} loc("in_ptr1"(#loc)), %in_ptr2: !tt.ptr<f16> {tt.divisibility = 16 : i32} loc("in_ptr2"(#loc)), %out_ptr1: !tt.ptr<f16> {tt.divisibility = 16 : i32} loc("out_ptr1"(#loc)), %xnumel: i32 {tt.divisibility = 16 : i32} loc("xnumel"(#loc)), %r0_numel: i32 {tt.divisibility = 16 : i32} loc("r0_numel"(#loc))) attributes {noinline = false} {
    %tmp16 = arith.constant 6144 : i32 loc(#loc50)
    %c16_i32 = arith.constant 16 : i32 loc(#loc2)
    %c128_i32 = arith.constant 128 : i32 loc(#loc2)
    %cst = arith.constant dense<0.000000e+00> : tensor<1x128xf16> loc(#loc2)
    %tmp21 = arith.constant dense<1.000000e+00> : tensor<1x128xf32> loc(#loc51)
    %tmp9 = arith.constant dense<9.99999997E-7> : tensor<1x1xf32> loc(#loc52)
    %tmp7 = arith.constant dense<1.280000e+02> : tensor<1x1xf32> loc(#loc53)
    %cst_0 = arith.constant dense<0.000000e+00> : tensor<1x128xf32> loc(#loc2)
    %xoffset = tt.get_program_id x : i32 loc(#loc54)
    %xmask = arith.cmpi slt, %xoffset, %xnumel : i32 loc(#loc55)
    %r0_index = tt.make_range {end = 128 : i32, start = 0 : i32} : tensor<128xi32> loc(#loc56)
    %r0_index_1 = tt.expand_dims %r0_index {axis = 0 : i32} : tensor<128xi32> -> tensor<1x128xi32> loc(#loc57)
    %tmp0 = arith.muli %xoffset, %c128_i32 : i32 loc(#loc58)
    %tmp0_2 = tt.splat %tmp0 : i32 -> tensor<1x128xi32> loc(#loc87)
    %tmp0_3 = arith.addi %r0_index_1, %tmp0_2 : tensor<1x128xi32> loc(#loc59)
    %tmp0_4 = tt.splat %in_ptr0 : !tt.ptr<f16> -> tensor<1x128x!tt.ptr<f16>> loc(#loc60)
    %tmp0_5 = tt.addptr %tmp0_4, %tmp0_3 : tensor<1x128x!tt.ptr<f16>>, tensor<1x128xi32> loc(#loc60)
    %tmp0_6 = tt.splat %xmask : i1 -> tensor<1x128xi1> loc(#loc88)
    %tmp0_7 = tt.load %tmp0_5, %tmp0_6, %cst : tensor<1x128x!tt.ptr<f16>> loc(#loc61)
    %tmp0_8 = arith.extf %tmp0_7 : tensor<1x128xf16> to tensor<1x128xf32> loc(#loc62)
    %tmp13 = tt.splat %in_ptr1 : !tt.ptr<f16> -> tensor<1x128x!tt.ptr<f16>> loc(#loc63)
    %tmp13_9 = tt.addptr %tmp13, %r0_index_1 : tensor<1x128x!tt.ptr<f16>>, tensor<1x128xi32> loc(#loc63)
    %tmp13_10 = tt.load %tmp13_9 evictionPolicy = evict_last : tensor<1x128x!tt.ptr<f16>> loc(#loc64)
    %tmp13_11 = arith.extf %tmp13_10 : tensor<1x128xf16> to tensor<1x128xf32> loc(#loc65)
    %tmp16_12 = arith.remsi %xoffset, %c16_i32 : i32 loc(#loc66)
    %tmp16_13 = arith.muli %tmp16_12, %c128_i32 : i32 loc(#loc67)
    %tmp16_14 = tt.splat %tmp16_13 : i32 -> tensor<1x128xi32> loc(#loc89)
    %tmp16_15 = arith.addi %r0_index_1, %tmp16_14 : tensor<1x128xi32> loc(#loc68)
    %tmp16_16 = arith.divsi %xoffset, %c16_i32 : i32 loc(#loc69)
    %tmp16_17 = arith.muli %tmp16_16, %tmp16 : i32 loc(#loc50)
    %tmp16_18 = tt.splat %tmp16_17 : i32 -> tensor<1x128xi32> loc(#loc90)
    %tmp16_19 = arith.addi %tmp16_15, %tmp16_18 : tensor<1x128xi32> loc(#loc70)
    %tmp16_20 = tt.splat %in_ptr2 : !tt.ptr<f16> -> tensor<1x128x!tt.ptr<f16>> loc(#loc71)
    %tmp16_21 = tt.addptr %tmp16_20, %tmp16_19 : tensor<1x128x!tt.ptr<f16>>, tensor<1x128xi32> loc(#loc71)
    %tmp16_22 = tt.load %tmp16_21, %tmp0_6, %cst : tensor<1x128x!tt.ptr<f16>> loc(#loc72)
    %tmp16_23 = arith.extf %tmp16_22 : tensor<1x128xf16> to tensor<1x128xf32> loc(#loc73)
    %tmp2 = arith.mulf %tmp0_8, %tmp0_8 : tensor<1x128xf32> loc(#loc74)
    %tmp5 = arith.select %tmp0_6, %tmp2, %cst_0 : tensor<1x128xi1>, tensor<1x128xf32> loc(#loc75)
    %tmp6 = "tt.reduce"(%tmp5) <{axis = 1 : i32}> ({
    ^bb0(%tmp6_27: f32 loc(callsite(#loc2 at #loc76)), %tmp6_28: f32 loc(callsite(#loc2 at #loc76))):
      %tmp6_29 = arith.addf %tmp6_27, %tmp6_28 : f32 loc(#loc93)
      tt.reduce.return %tmp6_29 : f32 loc(#loc91)
    }) : (tensor<1x128xf32>) -> tensor<1xf32> loc(#loc91)
    %tmp6_24 = tt.expand_dims %tmp6 {axis = 1 : i32} : tensor<1xf32> -> tensor<1x1xf32> loc(#loc77)
    %tmp8 = arith.divf %tmp6_24, %tmp7 : tensor<1x1xf32> loc(#loc78)
    %tmp10 = arith.addf %tmp8, %tmp9 : tensor<1x1xf32> loc(#loc79)
    %tmp11 = tt.extern_elementwise %tmp10 {libname = "", libpath = "", pure = true, symbol = "__nv_rsqrtf"} : (tensor<1x1xf32>) -> tensor<1x1xf32> loc(#loc80)
    %tmp12 = tt.broadcast %tmp11 : tensor<1x1xf32> -> tensor<1x128xf32> loc(#loc81)
    %tmp12_25 = arith.mulf %tmp0_8, %tmp12 : tensor<1x128xf32> loc(#loc81)
    %tmp15 = arith.mulf %tmp12_25, %tmp13_11 : tensor<1x128xf32> loc(#loc82)
    %tmp18 = arith.subf %cst_0, %tmp16_23 : tensor<1x128xf32> loc(#loc83)
    %tmp19 = tt.extern_elementwise %tmp18 {libname = "", libpath = "", pure = true, symbol = "__nv_expf"} : (tensor<1x128xf32>) -> tensor<1x128xf32> loc(#loc84)
    %tmp21_26 = arith.addf %tmp19, %tmp21 : tensor<1x128xf32> loc(#loc51)
    %tmp22 = arith.divf %tmp16_23, %tmp21_26 : tensor<1x128xf32> loc(#loc85)
    %tmp23 = arith.mulf %tmp15, %tmp22 : tensor<1x128xf32> loc(#loc86)
    %0 = tt.splat %out_ptr1 : !tt.ptr<f16> -> tensor<1x128x!tt.ptr<f16>> loc(#loc41)
    %1 = tt.addptr %0, %tmp0_3 : tensor<1x128x!tt.ptr<f16>>, tensor<1x128xi32> loc(#loc41)
    %2 = arith.truncf %tmp23 : tensor<1x128xf32> to tensor<1x128xf16> loc(#loc42)
    tt.store %1, %2, %tmp0_6 : tensor<1x128x!tt.ptr<f16>> loc(#loc42)
    tt.return loc(#loc43)
  } loc(#loc)
} loc(#loc)
#loc1 = loc("/root/.cache/vllm/torch_compile_cache/torch_aot_compile/61bda05feca29378847c32f031efa5c8dba258f38b0176a06a3e99e41df8ca50/inductor_cache/l7/cl7haw5qabzqznnb6qlemhcc6d4czcipfyxji6et5j3lygw6hy2i.py":35:62)
#loc3 = loc("/root/.cache/vllm/torch_compile_cache/torch_aot_compile/61bda05feca29378847c32f031efa5c8dba258f38b0176a06a3e99e41df8ca50/inductor_cache/l7/cl7haw5qabzqznnb6qlemhcc6d4czcipfyxji6et5j3lygw6hy2i.py":53:20)
#loc4 = loc("/root/.cache/vllm/torch_compile_cache/torch_aot_compile/61bda05feca29378847c32f031efa5c8dba258f38b0176a06a3e99e41df8ca50/inductor_cache/l7/cl7haw5qabzqznnb6qlemhcc6d4czcipfyxji6et5j3lygw6hy2i.py":43:34)
#loc5 = loc("/root/.cache/vllm/torch_compile_cache/torch_aot_compile/61bda05feca29378847c32f031efa5c8dba258f38b0176a06a3e99e41df8ca50/inductor_cache/l7/cl7haw5qabzqznnb6qlemhcc6d4czcipfyxji6et5j3lygw6hy2i.py":41:34)
#loc6 = loc("/root/.cache/vllm/torch_compile_cache/torch_aot_compile/61bda05feca29378847c32f031efa5c8dba258f38b0176a06a3e99e41df8ca50/inductor_cache/l7/cl7haw5qabzqznnb6qlemhcc6d4czcipfyxji6et5j3lygw6hy2i.py":23:28)
#loc7 = loc("/root/.cache/vllm/torch_compile_cache/torch_aot_compile/61bda05feca29378847c32f031efa5c8dba258f38b0176a06a3e99e41df8ca50/inductor_cache/l7/cl7haw5qabzqznnb6qlemhcc6d4czcipfyxji6et5j3lygw6hy2i.py":25:21)
#loc8 = loc("/root/.cache/vllm/torch_compile_cache/torch_aot_compile/61bda05feca29378847c32f031efa5c8dba258f38b0176a06a3e99e41df8ca50/inductor_cache/l7/cl7haw5qabzqznnb6qlemhcc6d4czcipfyxji6et5j3lygw6hy2i.py":26:28)
#loc9 = loc("/root/.cache/vllm/torch_compile_cache/torch_aot_compile/61bda05feca29378847c32f031efa5c8dba258f38b0176a06a3e99e41df8ca50/inductor_cache/l7/cl7haw5qabzqznnb6qlemhcc6d4czcipfyxji6et5j3lygw6hy2i.py":26:38)
#loc10 = loc("/root/.cache/vllm/torch_compile_cache/torch_aot_compile/61bda05feca29378847c32f031efa5c8dba258f38b0176a06a3e99e41df8ca50/inductor_cache/l7/cl7haw5qabzqznnb6qlemhcc6d4czcipfyxji6et5j3lygw6hy2i.py":33:41)
#loc11 = loc("/root/.cache/vllm/torch_compile_cache/torch_aot_compile/61bda05feca29378847c32f031efa5c8dba258f38b0176a06a3e99e41df8ca50/inductor_cache/l7/cl7haw5qabzqznnb6qlemhcc6d4czcipfyxji6et5j3lygw6hy2i.py":33:37)
#loc12 = loc("/root/.cache/vllm/torch_compile_cache/torch_aot_compile/61bda05feca29378847c32f031efa5c8dba258f38b0176a06a3e99e41df8ca50/inductor_cache/l7/cl7haw5qabzqznnb6qlemhcc6d4czcipfyxji6et5j3lygw6hy2i.py":33:30)
#loc13 = loc("/root/.cache/vllm/torch_compile_cache/torch_aot_compile/61bda05feca29378847c32f031efa5c8dba258f38b0176a06a3e99e41df8ca50/inductor_cache/l7/cl7haw5qabzqznnb6qlemhcc6d4czcipfyxji6et5j3lygw6hy2i.py":33:46)
#loc14 = loc("/root/.cache/vllm/torch_compile_cache/torch_aot_compile/61bda05feca29378847c32f031efa5c8dba258f38b0176a06a3e99e41df8ca50/inductor_cache/l7/cl7haw5qabzqznnb6qlemhcc6d4czcipfyxji6et5j3lygw6hy2i.py":33:67)
#loc15 = loc("/root/.cache/vllm/torch_compile_cache/torch_aot_compile/61bda05feca29378847c32f031efa5c8dba258f38b0176a06a3e99e41df8ca50/inductor_cache/l7/cl7haw5qabzqznnb6qlemhcc6d4czcipfyxji6et5j3lygw6hy2i.py":34:31)
#loc16 = loc("/root/.cache/vllm/torch_compile_cache/torch_aot_compile/61bda05feca29378847c32f031efa5c8dba258f38b0176a06a3e99e41df8ca50/inductor_cache/l7/cl7haw5qabzqznnb6qlemhcc6d4czcipfyxji6et5j3lygw6hy2i.py":34:38)
#loc17 = loc("/root/.cache/vllm/torch_compile_cache/torch_aot_compile/61bda05feca29378847c32f031efa5c8dba258f38b0176a06a3e99e41df8ca50/inductor_cache/l7/cl7haw5qabzqznnb6qlemhcc6d4czcipfyxji6et5j3lygw6hy2i.py":34:77)
#loc18 = loc("/root/.cache/vllm/torch_compile_cache/torch_aot_compile/61bda05feca29378847c32f031efa5c8dba258f38b0176a06a3e99e41df8ca50/inductor_cache/l7/cl7haw5qabzqznnb6qlemhcc6d4czcipfyxji6et5j3lygw6hy2i.py":35:49)
#loc19 = loc("/root/.cache/vllm/torch_compile_cache/torch_aot_compile/61bda05feca29378847c32f031efa5c8dba258f38b0176a06a3e99e41df8ca50/inductor_cache/l7/cl7haw5qabzqznnb6qlemhcc6d4czcipfyxji6et5j3lygw6hy2i.py":35:44)
#loc20 = loc("/root/.cache/vllm/torch_compile_cache/torch_aot_compile/61bda05feca29378847c32f031efa5c8dba258f38b0176a06a3e99e41df8ca50/inductor_cache/l7/cl7haw5qabzqznnb6qlemhcc6d4czcipfyxji6et5j3lygw6hy2i.py":35:38)
#loc21 = loc("/root/.cache/vllm/torch_compile_cache/torch_aot_compile/61bda05feca29378847c32f031efa5c8dba258f38b0176a06a3e99e41df8ca50/inductor_cache/l7/cl7haw5qabzqznnb6qlemhcc6d4czcipfyxji6et5j3lygw6hy2i.py":35:68)
#loc22 = loc("/root/.cache/vllm/torch_compile_cache/torch_aot_compile/61bda05feca29378847c32f031efa5c8dba258f38b0176a06a3e99e41df8ca50/inductor_cache/l7/cl7haw5qabzqznnb6qlemhcc6d4czcipfyxji6et5j3lygw6hy2i.py":35:56)
#loc23 = loc("/root/.cache/vllm/torch_compile_cache/torch_aot_compile/61bda05feca29378847c32f031efa5c8dba258f38b0176a06a3e99e41df8ca50/inductor_cache/l7/cl7haw5qabzqznnb6qlemhcc6d4czcipfyxji6et5j3lygw6hy2i.py":35:31)
#loc24 = loc("/root/.cache/vllm/torch_compile_cache/torch_aot_compile/61bda05feca29378847c32f031efa5c8dba258f38b0176a06a3e99e41df8ca50/inductor_cache/l7/cl7haw5qabzqznnb6qlemhcc6d4czcipfyxji6et5j3lygw6hy2i.py":35:74)
#loc25 = loc("/root/.cache/vllm/torch_compile_cache/torch_aot_compile/61bda05feca29378847c32f031efa5c8dba258f38b0176a06a3e99e41df8ca50/inductor_cache/l7/cl7haw5qabzqznnb6qlemhcc6d4czcipfyxji6et5j3lygw6hy2i.py":35:95)
#loc26 = loc("/root/.cache/vllm/torch_compile_cache/torch_aot_compile/61bda05feca29378847c32f031efa5c8dba258f38b0176a06a3e99e41df8ca50/inductor_cache/l7/cl7haw5qabzqznnb6qlemhcc6d4czcipfyxji6et5j3lygw6hy2i.py":37:18)
#loc27 = loc("/root/.cache/vllm/torch_compile_cache/torch_aot_compile/61bda05feca29378847c32f031efa5c8dba258f38b0176a06a3e99e41df8ca50/inductor_cache/l7/cl7haw5qabzqznnb6qlemhcc6d4czcipfyxji6et5j3lygw6hy2i.py":39:33)
#loc28 = loc("/usr/local/lib/python3.12/dist-packages/triton/language/standard.py":293:36)
#loc30 = loc("/usr/local/lib/python3.12/dist-packages/triton/language/standard.py":263:15)
#loc31 = loc("/root/.cache/vllm/torch_compile_cache/torch_aot_compile/61bda05feca29378847c32f031efa5c8dba258f38b0176a06a3e99e41df8ca50/inductor_cache/l7/cl7haw5qabzqznnb6qlemhcc6d4czcipfyxji6et5j3lygw6hy2i.py":40:27)
#loc32 = loc("/root/.cache/vllm/torch_compile_cache/torch_aot_compile/61bda05feca29378847c32f031efa5c8dba258f38b0176a06a3e99e41df8ca50/inductor_cache/l7/cl7haw5qabzqznnb6qlemhcc6d4czcipfyxji6et5j3lygw6hy2i.py":42:19)
#loc33 = loc("/root/.cache/vllm/torch_compile_cache/torch_aot_compile/61bda05feca29378847c32f031efa5c8dba258f38b0176a06a3e99e41df8ca50/inductor_cache/l7/cl7haw5qabzqznnb6qlemhcc6d4czcipfyxji6et5j3lygw6hy2i.py":44:19)
#loc34 = loc("/root/.cache/vllm/torch_compile_cache/torch_aot_compile/61bda05feca29378847c32f031efa5c8dba258f38b0176a06a3e99e41df8ca50/inductor_cache/l7/cl7haw5qabzqznnb6qlemhcc6d4czcipfyxji6et5j3lygw6hy2i.py":45:28)
#loc35 = loc("/root/.cache/vllm/torch_compile_cache/torch_aot_compile/61bda05feca29378847c32f031efa5c8dba258f38b0176a06a3e99e41df8ca50/inductor_cache/l7/cl7haw5qabzqznnb6qlemhcc6d4czcipfyxji6et5j3lygw6hy2i.py":46:19)
#loc36 = loc("/root/.cache/vllm/torch_compile_cache/torch_aot_compile/61bda05feca29378847c32f031efa5c8dba258f38b0176a06a3e99e41df8ca50/inductor_cache/l7/cl7haw5qabzqznnb6qlemhcc6d4czcipfyxji6et5j3lygw6hy2i.py":48:20)
#loc37 = loc("/root/.cache/vllm/torch_compile_cache/torch_aot_compile/61bda05feca29378847c32f031efa5c8dba258f38b0176a06a3e99e41df8ca50/inductor_cache/l7/cl7haw5qabzqznnb6qlemhcc6d4czcipfyxji6et5j3lygw6hy2i.py":50:13)
#loc38 = loc("/root/.cache/vllm/torch_compile_cache/torch_aot_compile/61bda05feca29378847c32f031efa5c8dba258f38b0176a06a3e99e41df8ca50/inductor_cache/l7/cl7haw5qabzqznnb6qlemhcc6d4czcipfyxji6et5j3lygw6hy2i.py":51:26)
#loc39 = loc("/root/.cache/vllm/torch_compile_cache/torch_aot_compile/61bda05feca29378847c32f031efa5c8dba258f38b0176a06a3e99e41df8ca50/inductor_cache/l7/cl7haw5qabzqznnb6qlemhcc6d4czcipfyxji6et5j3lygw6hy2i.py":54:21)
#loc40 = loc("/root/.cache/vllm/torch_compile_cache/torch_aot_compile/61bda05feca29378847c32f031efa5c8dba258f38b0176a06a3e99e41df8ca50/inductor_cache/l7/cl7haw5qabzqznnb6qlemhcc6d4czcipfyxji6et5j3lygw6hy2i.py":55:20)
#loc41 = loc("/root/.cache/vllm/torch_compile_cache/torch_aot_compile/61bda05feca29378847c32f031efa5c8dba258f38b0176a06a3e99e41df8ca50/inductor_cache/l7/cl7haw5qabzqznnb6qlemhcc6d4czcipfyxji6et5j3lygw6hy2i.py":57:25)
#loc42 = loc("/root/.cache/vllm/torch_compile_cache/torch_aot_compile/61bda05feca29378847c32f031efa5c8dba258f38b0176a06a3e99e41df8ca50/inductor_cache/l7/cl7haw5qabzqznnb6qlemhcc6d4czcipfyxji6et5j3lygw6hy2i.py":57:48)
#loc43 = loc("/root/.cache/vllm/torch_compile_cache/torch_aot_compile/61bda05feca29378847c32f031efa5c8dba258f38b0176a06a3e99e41df8ca50/inductor_cache/l7/cl7haw5qabzqznnb6qlemhcc6d4czcipfyxji6et5j3lygw6hy2i.py":57:4)
#loc50 = loc("tmp16"(#loc1))
#loc51 = loc("tmp21"(#loc3))
#loc52 = loc("tmp9"(#loc4))
#loc53 = loc("tmp7"(#loc5))
#loc54 = loc("xoffset"(#loc6))
#loc55 = loc("xmask"(#loc7))
#loc56 = loc("r0_index"(#loc8))
#loc57 = loc("r0_index"(#loc9))
#loc58 = loc("tmp0"(#loc10))
#loc59 = loc("tmp0"(#loc11))
#loc60 = loc("tmp0"(#loc12))
#loc61 = loc("tmp0"(#loc13))
#loc62 = loc("tmp0"(#loc14))
#loc63 = loc("tmp13"(#loc15))
#loc64 = loc("tmp13"(#loc16))
#loc65 = loc("tmp13"(#loc17))
#loc66 = loc("tmp16"(#loc18))
#loc67 = loc("tmp16"(#loc19))
#loc68 = loc("tmp16"(#loc20))
#loc69 = loc("tmp16"(#loc21))
#loc70 = loc("tmp16"(#loc22))
#loc71 = loc("tmp16"(#loc23))
#loc72 = loc("tmp16"(#loc24))
#loc73 = loc("tmp16"(#loc25))
#loc74 = loc("tmp2"(#loc26))
#loc75 = loc("tmp5"(#loc27))
#loc77 = loc("tmp6"(#loc31))
#loc78 = loc("tmp8"(#loc32))
#loc79 = loc("tmp10"(#loc33))
#loc80 = loc("tmp11"(#loc34))
#loc81 = loc("tmp12"(#loc35))
#loc82 = loc("tmp15"(#loc36))
#loc83 = loc("tmp18"(#loc37))
#loc84 = loc("tmp19"(#loc38))
#loc85 = loc("tmp22"(#loc39))
#loc86 = loc("tmp23"(#loc40))
#loc87 = loc(fused[#loc59, #loc58])
#loc88 = loc(fused[#loc61, #loc55])
#loc89 = loc(fused[#loc68, #loc67])
#loc90 = loc(fused[#loc70, #loc50])
#loc91 = loc(callsite(#loc28 at #loc76))
#loc93 = loc(callsite(#loc30 at #loc91))
