#loc = loc("/usr/local/lib/python3.12/dist-packages/vllm/model_executor/layers/fla/ops/chunk_o.py":42:0)
#loc106 = loc("/usr/local/lib/python3.12/dist-packages/triton/language/standard.py":34:0)
#loc115 = loc("q"(#loc))
#loc116 = loc("k"(#loc))
#loc117 = loc("v"(#loc))
#loc118 = loc("h"(#loc))
#loc119 = loc("g"(#loc))
#loc120 = loc("o"(#loc))
#loc121 = loc("cu_seqlens"(#loc))
#loc122 = loc("chunk_indices"(#loc))
#loc123 = loc("scale"(#loc))
#loc124 = loc("T"(#loc))
#loc208 = loc("x"(#loc106))
module {
  tt.func public @chunk_fwd_kernel_o(%q: !tt.ptr<f16> {tt.divisibility = 16 : i32} loc("q"(#loc)), %k: !tt.ptr<f16> {tt.divisibility = 16 : i32} loc("k"(#loc)), %v: !tt.ptr<f16> {tt.divisibility = 16 : i32} loc("v"(#loc)), %h: !tt.ptr<f16> {tt.divisibility = 16 : i32} loc("h"(#loc)), %g: !tt.ptr<f32> {tt.divisibility = 16 : i32} loc("g"(#loc)), %o: !tt.ptr<f16> {tt.divisibility = 16 : i32} loc("o"(#loc)), %cu_seqlens: !tt.ptr<i32> {tt.divisibility = 16 : i32} loc("cu_seqlens"(#loc)), %chunk_indices: !tt.ptr<i32> {tt.divisibility = 16 : i32} loc("chunk_indices"(#loc)), %scale: f32 loc("scale"(#loc)), %T: i32 loc("T"(#loc))) attributes {noinline = false} {
    %0 = tt.get_program_id x : i32 loc(#loc1)
    %1 = tt.get_program_id y : i32 loc(#loc2)
    %2 = tt.get_program_id z : i32 loc(#loc3)
    %c16_i32 = arith.constant 16 : i32 loc(#loc4)
    %c16_i32_0 = arith.constant 16 : i32 loc(#loc4)
    %3 = arith.divsi %2, %c16_i32_0 : i32 loc(#loc4)
    %c16_i32_1 = arith.constant 16 : i32 loc(#loc5)
    %c16_i32_2 = arith.constant 16 : i32 loc(#loc5)
    %4 = arith.remsi %2, %c16_i32_2 : i32 loc(#loc5)
    %c2_i32 = arith.constant 2 : i32 loc(#loc6)
    %c2_i32_3 = arith.constant 2 : i32 loc(#loc6)
    %5 = arith.extsi %1 : i32 to i64 loc(#loc6)
    %6 = arith.extsi %c2_i32_3 : i32 to i64 loc(#loc6)
    %7 = arith.muli %5, %6 : i64 loc(#loc6)
    %c2147483647_i64 = arith.constant 2147483647 : i64 loc(#loc6)
    %c-2147483648_i64 = arith.constant -2147483648 : i64 loc(#loc6)
    %8 = arith.cmpi sle, %7, %c2147483647_i64 : i64 loc(#loc6)
    %9 = arith.cmpi sge, %7, %c-2147483648_i64 : i64 loc(#loc6)
    %10 = arith.andi %8, %9 : i1 loc(#loc6)
    %11 = arith.muli %1, %c2_i32_3 : i32 loc(#loc6)
    %12 = tt.addptr %chunk_indices, %11 : !tt.ptr<i32>, i32 loc(#loc7)
    %13 = tt.load %12 : !tt.ptr<i32> loc(#loc8)
    %c2_i32_4 = arith.constant 2 : i32 loc(#loc9)
    %c2_i32_5 = arith.constant 2 : i32 loc(#loc9)
    %14 = arith.extsi %1 : i32 to i64 loc(#loc9)
    %15 = arith.extsi %c2_i32_5 : i32 to i64 loc(#loc9)
    %16 = arith.muli %14, %15 : i64 loc(#loc9)
    %c2147483647_i64_6 = arith.constant 2147483647 : i64 loc(#loc9)
    %c-2147483648_i64_7 = arith.constant -2147483648 : i64 loc(#loc9)
    %17 = arith.cmpi sle, %16, %c2147483647_i64_6 : i64 loc(#loc9)
    %18 = arith.cmpi sge, %16, %c-2147483648_i64_7 : i64 loc(#loc9)
    %19 = arith.andi %17, %18 : i1 loc(#loc9)
    %20 = arith.muli %1, %c2_i32_5 : i32 loc(#loc9)
    %21 = tt.addptr %chunk_indices, %20 : !tt.ptr<i32>, i32 loc(#loc10)
    %c1_i32 = arith.constant 1 : i32 loc(#loc11)
    %22 = tt.addptr %21, %c1_i32 : !tt.ptr<i32>, i32 loc(#loc11)
    %23 = tt.load %22 : !tt.ptr<i32> loc(#loc12)
    %24 = tt.addptr %cu_seqlens, %13 : !tt.ptr<i32>, i32 loc(#loc13)
    %25 = tt.load %24 : !tt.ptr<i32> loc(#loc14)
    %26 = tt.addptr %cu_seqlens, %13 : !tt.ptr<i32>, i32 loc(#loc15)
    %c1_i32_8 = arith.constant 1 : i32 loc(#loc16)
    %27 = tt.addptr %26, %c1_i32_8 : !tt.ptr<i32>, i32 loc(#loc16)
    %28 = tt.load %27 : !tt.ptr<i32> loc(#loc17)
    %T_9 = arith.extsi %28 : i32 to i64 loc(#loc125)
    %T_10 = arith.extsi %25 : i32 to i64 loc(#loc125)
    %T_11 = arith.subi %T_9, %T_10 : i64 loc(#loc125)
    %T_12 = arith.constant 2147483647 : i64 loc(#loc125)
    %T_13 = arith.constant -2147483648 : i64 loc(#loc125)
    %T_14 = arith.cmpi sle, %T_11, %T_12 : i64 loc(#loc125)
    %T_15 = arith.cmpi sge, %T_11, %T_13 : i64 loc(#loc125)
    %T_16 = arith.andi %T_14, %T_15 : i1 loc(#loc125)
    %T_17 = arith.subi %28, %25 : i32 loc(#loc125)
    %NT = tt.call @"triton.language.standard.cdiv__i32__(1,)cconstexpr_64_"(%T_17) : (i32) -> i32 loc(#loc126)
    %q_18 = arith.constant 8 : i32 loc(#loc127)
    %q_19 = arith.constant 8 : i32 loc(#loc127)
    %q_20 = arith.extsi %25 : i32 to i64 loc(#loc127)
    %q_21 = arith.extsi %q_19 : i32 to i64 loc(#loc127)
    %q_22 = arith.muli %q_20, %q_21 : i64 loc(#loc127)
    %q_23 = arith.constant 2147483647 : i64 loc(#loc127)
    %q_24 = arith.constant -2147483648 : i64 loc(#loc127)
    %q_25 = arith.cmpi sle, %q_22, %q_23 : i64 loc(#loc127)
    %q_26 = arith.cmpi sge, %q_22, %q_24 : i64 loc(#loc127)
    %q_27 = arith.andi %q_25, %q_26 : i1 loc(#loc127)
    %q_28 = arith.muli %25, %q_19 : i32 loc(#loc127)
    %q_29 = arith.constant 2 : i32 loc(#loc128)
    %q_30 = arith.constant 2 : i32 loc(#loc128)
    %q_31 = arith.divsi %4, %q_30 : i32 loc(#loc128)
    %q_32 = arith.extsi %q_28 : i32 to i64 loc(#loc129)
    %q_33 = arith.extsi %q_31 : i32 to i64 loc(#loc129)
    %q_34 = arith.addi %q_32, %q_33 : i64 loc(#loc129)
    %q_35 = arith.constant 2147483647 : i64 loc(#loc129)
    %q_36 = arith.constant -2147483648 : i64 loc(#loc129)
    %q_37 = arith.cmpi sle, %q_34, %q_35 : i64 loc(#loc129)
    %q_38 = arith.cmpi sge, %q_34, %q_36 : i64 loc(#loc129)
    %q_39 = arith.andi %q_37, %q_38 : i1 loc(#loc129)
    %q_40 = arith.addi %q_28, %q_31 : i32 loc(#loc129)
    %q_41 = arith.constant 128 : i32 loc(#loc130)
    %q_42 = arith.constant 128 : i32 loc(#loc130)
    %q_43 = arith.extsi %q_40 : i32 to i64 loc(#loc130)
    %q_44 = arith.extsi %q_42 : i32 to i64 loc(#loc130)
    %q_45 = arith.muli %q_43, %q_44 : i64 loc(#loc130)
    %q_46 = arith.constant 2147483647 : i64 loc(#loc130)
    %q_47 = arith.constant -2147483648 : i64 loc(#loc130)
    %q_48 = arith.cmpi sle, %q_45, %q_46 : i64 loc(#loc130)
    %q_49 = arith.cmpi sge, %q_45, %q_47 : i64 loc(#loc130)
    %q_50 = arith.andi %q_48, %q_49 : i1 loc(#loc130)
    %q_51 = arith.muli %q_40, %q_42 : i32 loc(#loc130)
    %q_52 = tt.addptr %q, %q_51 : !tt.ptr<f16>, i32 loc(#loc131)
    %k_53 = arith.constant 8 : i32 loc(#loc132)
    %k_54 = arith.constant 8 : i32 loc(#loc132)
    %k_55 = arith.extsi %25 : i32 to i64 loc(#loc132)
    %k_56 = arith.extsi %k_54 : i32 to i64 loc(#loc132)
    %k_57 = arith.muli %k_55, %k_56 : i64 loc(#loc132)
    %k_58 = arith.constant 2147483647 : i64 loc(#loc132)
    %k_59 = arith.constant -2147483648 : i64 loc(#loc132)
    %k_60 = arith.cmpi sle, %k_57, %k_58 : i64 loc(#loc132)
    %k_61 = arith.cmpi sge, %k_57, %k_59 : i64 loc(#loc132)
    %k_62 = arith.andi %k_60, %k_61 : i1 loc(#loc132)
    %k_63 = arith.muli %25, %k_54 : i32 loc(#loc132)
    %k_64 = arith.constant 2 : i32 loc(#loc133)
    %k_65 = arith.constant 2 : i32 loc(#loc133)
    %k_66 = arith.divsi %4, %k_65 : i32 loc(#loc133)
    %k_67 = arith.extsi %k_63 : i32 to i64 loc(#loc134)
    %k_68 = arith.extsi %k_66 : i32 to i64 loc(#loc134)
    %k_69 = arith.addi %k_67, %k_68 : i64 loc(#loc134)
    %k_70 = arith.constant 2147483647 : i64 loc(#loc134)
    %k_71 = arith.constant -2147483648 : i64 loc(#loc134)
    %k_72 = arith.cmpi sle, %k_69, %k_70 : i64 loc(#loc134)
    %k_73 = arith.cmpi sge, %k_69, %k_71 : i64 loc(#loc134)
    %k_74 = arith.andi %k_72, %k_73 : i1 loc(#loc134)
    %k_75 = arith.addi %k_63, %k_66 : i32 loc(#loc134)
    %k_76 = arith.constant 128 : i32 loc(#loc135)
    %k_77 = arith.constant 128 : i32 loc(#loc135)
    %k_78 = arith.extsi %k_75 : i32 to i64 loc(#loc135)
    %k_79 = arith.extsi %k_77 : i32 to i64 loc(#loc135)
    %k_80 = arith.muli %k_78, %k_79 : i64 loc(#loc135)
    %k_81 = arith.constant 2147483647 : i64 loc(#loc135)
    %k_82 = arith.constant -2147483648 : i64 loc(#loc135)
    %k_83 = arith.cmpi sle, %k_80, %k_81 : i64 loc(#loc135)
    %k_84 = arith.cmpi sge, %k_80, %k_82 : i64 loc(#loc135)
    %k_85 = arith.andi %k_83, %k_84 : i1 loc(#loc135)
    %k_86 = arith.muli %k_75, %k_77 : i32 loc(#loc135)
    %k_87 = tt.addptr %k, %k_86 : !tt.ptr<f16>, i32 loc(#loc136)
    %v_88 = arith.constant 16 : i32 loc(#loc137)
    %v_89 = arith.constant 16 : i32 loc(#loc137)
    %v_90 = arith.extsi %25 : i32 to i64 loc(#loc137)
    %v_91 = arith.extsi %v_89 : i32 to i64 loc(#loc137)
    %v_92 = arith.muli %v_90, %v_91 : i64 loc(#loc137)
    %v_93 = arith.constant 2147483647 : i64 loc(#loc137)
    %v_94 = arith.constant -2147483648 : i64 loc(#loc137)
    %v_95 = arith.cmpi sle, %v_92, %v_93 : i64 loc(#loc137)
    %v_96 = arith.cmpi sge, %v_92, %v_94 : i64 loc(#loc137)
    %v_97 = arith.andi %v_95, %v_96 : i1 loc(#loc137)
    %v_98 = arith.muli %25, %v_89 : i32 loc(#loc137)
    %v_99 = arith.extsi %v_98 : i32 to i64 loc(#loc138)
    %v_100 = arith.extsi %4 : i32 to i64 loc(#loc138)
    %v_101 = arith.addi %v_99, %v_100 : i64 loc(#loc138)
    %v_102 = arith.constant 2147483647 : i64 loc(#loc138)
    %v_103 = arith.constant -2147483648 : i64 loc(#loc138)
    %v_104 = arith.cmpi sle, %v_101, %v_102 : i64 loc(#loc138)
    %v_105 = arith.cmpi sge, %v_101, %v_103 : i64 loc(#loc138)
    %v_106 = arith.andi %v_104, %v_105 : i1 loc(#loc138)
    %v_107 = arith.addi %v_98, %4 : i32 loc(#loc138)
    %v_108 = arith.constant 128 : i32 loc(#loc139)
    %v_109 = arith.constant 128 : i32 loc(#loc139)
    %v_110 = arith.extsi %v_107 : i32 to i64 loc(#loc139)
    %v_111 = arith.extsi %v_109 : i32 to i64 loc(#loc139)
    %v_112 = arith.muli %v_110, %v_111 : i64 loc(#loc139)
    %v_113 = arith.constant 2147483647 : i64 loc(#loc139)
    %v_114 = arith.constant -2147483648 : i64 loc(#loc139)
    %v_115 = arith.cmpi sle, %v_112, %v_113 : i64 loc(#loc139)
    %v_116 = arith.cmpi sge, %v_112, %v_114 : i64 loc(#loc139)
    %v_117 = arith.andi %v_115, %v_116 : i1 loc(#loc139)
    %v_118 = arith.muli %v_107, %v_109 : i32 loc(#loc139)
    %v_119 = tt.addptr %v, %v_118 : !tt.ptr<f16>, i32 loc(#loc140)
    %o_120 = arith.constant 16 : i32 loc(#loc141)
    %o_121 = arith.constant 16 : i32 loc(#loc141)
    %o_122 = arith.extsi %25 : i32 to i64 loc(#loc141)
    %o_123 = arith.extsi %o_121 : i32 to i64 loc(#loc141)
    %o_124 = arith.muli %o_122, %o_123 : i64 loc(#loc141)
    %o_125 = arith.constant 2147483647 : i64 loc(#loc141)
    %o_126 = arith.constant -2147483648 : i64 loc(#loc141)
    %o_127 = arith.cmpi sle, %o_124, %o_125 : i64 loc(#loc141)
    %o_128 = arith.cmpi sge, %o_124, %o_126 : i64 loc(#loc141)
    %o_129 = arith.andi %o_127, %o_128 : i1 loc(#loc141)
    %o_130 = arith.muli %25, %o_121 : i32 loc(#loc141)
    %o_131 = arith.extsi %o_130 : i32 to i64 loc(#loc142)
    %o_132 = arith.extsi %4 : i32 to i64 loc(#loc142)
    %o_133 = arith.addi %o_131, %o_132 : i64 loc(#loc142)
    %o_134 = arith.constant 2147483647 : i64 loc(#loc142)
    %o_135 = arith.constant -2147483648 : i64 loc(#loc142)
    %o_136 = arith.cmpi sle, %o_133, %o_134 : i64 loc(#loc142)
    %o_137 = arith.cmpi sge, %o_133, %o_135 : i64 loc(#loc142)
    %o_138 = arith.andi %o_136, %o_137 : i1 loc(#loc142)
    %o_139 = arith.addi %o_130, %4 : i32 loc(#loc142)
    %o_140 = arith.constant 128 : i32 loc(#loc143)
    %o_141 = arith.constant 128 : i32 loc(#loc143)
    %o_142 = arith.extsi %o_139 : i32 to i64 loc(#loc143)
    %o_143 = arith.extsi %o_141 : i32 to i64 loc(#loc143)
    %o_144 = arith.muli %o_142, %o_143 : i64 loc(#loc143)
    %o_145 = arith.constant 2147483647 : i64 loc(#loc143)
    %o_146 = arith.constant -2147483648 : i64 loc(#loc143)
    %o_147 = arith.cmpi sle, %o_144, %o_145 : i64 loc(#loc143)
    %o_148 = arith.cmpi sge, %o_144, %o_146 : i64 loc(#loc143)
    %o_149 = arith.andi %o_147, %o_148 : i1 loc(#loc143)
    %o_150 = arith.muli %o_139, %o_141 : i32 loc(#loc143)
    %o_151 = tt.addptr %o, %o_150 : !tt.ptr<f16>, i32 loc(#loc144)
    %h_152 = arith.constant 16 : i32 loc(#loc145)
    %h_153 = arith.constant 16 : i32 loc(#loc145)
    %h_154 = arith.extsi %1 : i32 to i64 loc(#loc145)
    %h_155 = arith.extsi %h_153 : i32 to i64 loc(#loc145)
    %h_156 = arith.muli %h_154, %h_155 : i64 loc(#loc145)
    %h_157 = arith.constant 2147483647 : i64 loc(#loc145)
    %h_158 = arith.constant -2147483648 : i64 loc(#loc145)
    %h_159 = arith.cmpi sle, %h_156, %h_157 : i64 loc(#loc145)
    %h_160 = arith.cmpi sge, %h_156, %h_158 : i64 loc(#loc145)
    %h_161 = arith.andi %h_159, %h_160 : i1 loc(#loc145)
    %h_162 = arith.muli %1, %h_153 : i32 loc(#loc145)
    %h_163 = arith.extsi %h_162 : i32 to i64 loc(#loc146)
    %h_164 = arith.extsi %4 : i32 to i64 loc(#loc146)
    %h_165 = arith.addi %h_163, %h_164 : i64 loc(#loc146)
    %h_166 = arith.constant 2147483647 : i64 loc(#loc146)
    %h_167 = arith.constant -2147483648 : i64 loc(#loc146)
    %h_168 = arith.cmpi sle, %h_165, %h_166 : i64 loc(#loc146)
    %h_169 = arith.cmpi sge, %h_165, %h_167 : i64 loc(#loc146)
    %h_170 = arith.andi %h_168, %h_169 : i1 loc(#loc146)
    %h_171 = arith.addi %h_162, %4 : i32 loc(#loc146)
    %h_172 = arith.extsi %h_171 : i32 to i64 loc(#loc147)
    %h_173 = arith.constant 128 : i32 loc(#loc148)
    %h_174 = arith.constant 128 : i64 loc(#loc148)
    %h_175 = arith.muli %h_172, %h_174 : i64 loc(#loc148)
    %h_176 = arith.constant 128 : i32 loc(#loc149)
    %h_177 = arith.constant 128 : i64 loc(#loc149)
    %h_178 = arith.muli %h_175, %h_177 : i64 loc(#loc149)
    %h_179 = tt.addptr %h, %h_178 : !tt.ptr<f16>, i64 loc(#loc150)
    %b_o = tt.call @"triton.language.standard.zeros____(0, 0)cconstexpr_64__(0, 1)cconstexpr_64__(1,)cconstexpr_fp32_"() : () -> tensor<64x64xf32> loc(#loc151)
    %b_A = tt.call @"triton.language.standard.zeros____(0, 0)cconstexpr_64__(0, 1)cconstexpr_64__(1,)cconstexpr_fp32_"() : () -> tensor<64x64xf32> loc(#loc152)
    %29 = tt.call @"triton.language.standard.cdiv____(0,)cconstexpr_128__(1,)cconstexpr_64_"() : () -> i32 loc(#loc46)
    %30 = tt.call @"triton.language.standard.cdiv____(0,)cconstexpr_128__(1,)cconstexpr_64_"() : () -> i32 loc(#loc46)
    %c0_i32 = arith.constant 0 : i32 loc(#loc47)
    %c1_i32_180 = arith.constant 1 : i32 loc(#loc47)
    %31 = arith.bitcast %c0_i32 : i32 to i32 loc(#loc47)
    %32 = arith.bitcast %30 : i32 to i32 loc(#loc47)
    %33 = arith.bitcast %c1_i32_180 : i32 to i32 loc(#loc47)
    %34 = ub.poison : i32 loc(#loc47)
    %b_A_181:2 = scf.for %i_k = %31 to %32 step %33 iter_args(%b_o_326 = %b_o, %b_A_327 = %b_A) -> (tensor<64x64xf32>, tensor<64x64xf32>)  : i32 {
      %p_q = arith.constant 64 : i32 loc(#loc154)
      %p_q_328 = arith.constant 64 : i32 loc(#loc154)
      %p_q_329 = arith.extsi %23 : i32 to i64 loc(#loc154)
      %p_q_330 = arith.extsi %p_q_328 : i32 to i64 loc(#loc154)
      %p_q_331 = arith.muli %p_q_329, %p_q_330 : i64 loc(#loc154)
      %p_q_332 = arith.constant 2147483647 : i64 loc(#loc154)
      %p_q_333 = arith.constant -2147483648 : i64 loc(#loc154)
      %p_q_334 = arith.cmpi sle, %p_q_331, %p_q_332 : i64 loc(#loc154)
      %p_q_335 = arith.cmpi sge, %p_q_331, %p_q_333 : i64 loc(#loc154)
      %p_q_336 = arith.andi %p_q_334, %p_q_335 : i1 loc(#loc154)
      %p_q_337 = arith.muli %23, %p_q_328 : i32 loc(#loc154)
      %p_q_338 = arith.constant 64 : i32 loc(#loc155)
      %p_q_339 = arith.constant 64 : i32 loc(#loc155)
      %p_q_340 = arith.extsi %i_k : i32 to i64 loc(#loc155)
      %p_q_341 = arith.extsi %p_q_339 : i32 to i64 loc(#loc155)
      %p_q_342 = arith.muli %p_q_340, %p_q_341 : i64 loc(#loc155)
      %p_q_343 = arith.constant 2147483647 : i64 loc(#loc155)
      %p_q_344 = arith.constant -2147483648 : i64 loc(#loc155)
      %p_q_345 = arith.cmpi sle, %p_q_342, %p_q_343 : i64 loc(#loc155)
      %p_q_346 = arith.cmpi sge, %p_q_342, %p_q_344 : i64 loc(#loc155)
      %p_q_347 = arith.andi %p_q_345, %p_q_346 : i1 loc(#loc155)
      %p_q_348 = arith.muli %i_k, %p_q_339 : i32 loc(#loc155)
      %p_q_349 = arith.extsi %T_17 : i32 to i64 loc(#loc156)
      %p_q_350 = arith.constant 128 : i64 loc(#loc156)
      %p_q_351 = arith.constant 1024 : i64 loc(#loc156)
      %p_q_352 = arith.constant 1 : i64 loc(#loc156)
      %p_q_353 = tt.make_tensor_ptr %q_52, [%p_q_349, %p_q_350], [%p_q_351, %p_q_352], [%p_q_337, %p_q_348] {order = array<i32: 1, 0>} : <tensor<64x64xf16>> loc(#loc156)
      %p_k = arith.constant 64 : i32 loc(#loc157)
      %p_k_354 = arith.constant 64 : i32 loc(#loc157)
      %p_k_355 = arith.extsi %i_k : i32 to i64 loc(#loc157)
      %p_k_356 = arith.extsi %p_k_354 : i32 to i64 loc(#loc157)
      %p_k_357 = arith.muli %p_k_355, %p_k_356 : i64 loc(#loc157)
      %p_k_358 = arith.constant 2147483647 : i64 loc(#loc157)
      %p_k_359 = arith.constant -2147483648 : i64 loc(#loc157)
      %p_k_360 = arith.cmpi sle, %p_k_357, %p_k_358 : i64 loc(#loc157)
      %p_k_361 = arith.cmpi sge, %p_k_357, %p_k_359 : i64 loc(#loc157)
      %p_k_362 = arith.andi %p_k_360, %p_k_361 : i1 loc(#loc157)
      %p_k_363 = arith.muli %i_k, %p_k_354 : i32 loc(#loc157)
      %p_k_364 = arith.constant 64 : i32 loc(#loc158)
      %p_k_365 = arith.constant 64 : i32 loc(#loc158)
      %p_k_366 = arith.extsi %23 : i32 to i64 loc(#loc158)
      %p_k_367 = arith.extsi %p_k_365 : i32 to i64 loc(#loc158)
      %p_k_368 = arith.muli %p_k_366, %p_k_367 : i64 loc(#loc158)
      %p_k_369 = arith.constant 2147483647 : i64 loc(#loc158)
      %p_k_370 = arith.constant -2147483648 : i64 loc(#loc158)
      %p_k_371 = arith.cmpi sle, %p_k_368, %p_k_369 : i64 loc(#loc158)
      %p_k_372 = arith.cmpi sge, %p_k_368, %p_k_370 : i64 loc(#loc158)
      %p_k_373 = arith.andi %p_k_371, %p_k_372 : i1 loc(#loc158)
      %p_k_374 = arith.muli %23, %p_k_365 : i32 loc(#loc158)
      %p_k_375 = arith.constant 128 : i64 loc(#loc159)
      %p_k_376 = arith.extsi %T_17 : i32 to i64 loc(#loc159)
      %p_k_377 = arith.constant 1 : i64 loc(#loc159)
      %p_k_378 = arith.constant 1024 : i64 loc(#loc159)
      %p_k_379 = tt.make_tensor_ptr %k_87, [%p_k_375, %p_k_376], [%p_k_377, %p_k_378], [%p_k_363, %p_k_374] {order = array<i32: 0, 1>} : <tensor<64x64xf16>> loc(#loc159)
      %p_h = arith.constant 64 : i32 loc(#loc160)
      %p_h_380 = arith.constant 64 : i32 loc(#loc160)
      %p_h_381 = arith.extsi %0 : i32 to i64 loc(#loc160)
      %p_h_382 = arith.extsi %p_h_380 : i32 to i64 loc(#loc160)
      %p_h_383 = arith.muli %p_h_381, %p_h_382 : i64 loc(#loc160)
      %p_h_384 = arith.constant 2147483647 : i64 loc(#loc160)
      %p_h_385 = arith.constant -2147483648 : i64 loc(#loc160)
      %p_h_386 = arith.cmpi sle, %p_h_383, %p_h_384 : i64 loc(#loc160)
      %p_h_387 = arith.cmpi sge, %p_h_383, %p_h_385 : i64 loc(#loc160)
      %p_h_388 = arith.andi %p_h_386, %p_h_387 : i1 loc(#loc160)
      %p_h_389 = arith.muli %0, %p_h_380 : i32 loc(#loc160)
      %p_h_390 = arith.constant 64 : i32 loc(#loc161)
      %p_h_391 = arith.constant 64 : i32 loc(#loc161)
      %p_h_392 = arith.extsi %i_k : i32 to i64 loc(#loc161)
      %p_h_393 = arith.extsi %p_h_391 : i32 to i64 loc(#loc161)
      %p_h_394 = arith.muli %p_h_392, %p_h_393 : i64 loc(#loc161)
      %p_h_395 = arith.constant 2147483647 : i64 loc(#loc161)
      %p_h_396 = arith.constant -2147483648 : i64 loc(#loc161)
      %p_h_397 = arith.cmpi sle, %p_h_394, %p_h_395 : i64 loc(#loc161)
      %p_h_398 = arith.cmpi sge, %p_h_394, %p_h_396 : i64 loc(#loc161)
      %p_h_399 = arith.andi %p_h_397, %p_h_398 : i1 loc(#loc161)
      %p_h_400 = arith.muli %i_k, %p_h_391 : i32 loc(#loc161)
      %p_h_401 = arith.constant 128 : i64 loc(#loc162)
      %p_h_402 = arith.constant 128 : i64 loc(#loc162)
      %p_h_403 = arith.constant 128 : i64 loc(#loc162)
      %p_h_404 = arith.constant 1 : i64 loc(#loc162)
      %p_h_405 = tt.make_tensor_ptr %h_179, [%p_h_401, %p_h_402], [%p_h_403, %p_h_404], [%p_h_389, %p_h_400] {order = array<i32: 1, 0>} : <tensor<64x64xf16>> loc(#loc162)
      %b_q = tt.load %p_q_353 {boundaryCheck = array<i32: 0, 1>} : !tt.ptr<tensor<64x64xf16>> loc(#loc163)
      %b_k = tt.load %p_k_379 {boundaryCheck = array<i32: 0, 1>} : !tt.ptr<tensor<64x64xf16>> loc(#loc164)
      %b_h = tt.load %p_h_405 {boundaryCheck = array<i32: 0, 1>} : !tt.ptr<tensor<64x64xf16>> loc(#loc165)
      %b_o_406 = tt.trans %b_h {order = array<i32: 1, 0>} : tensor<64x64xf16> -> tensor<64x64xf16> loc(#loc166)
      %b_o_407 = arith.constant 0.000000e+00 : f32 loc(#loc167)
      %b_o_408 = arith.constant dense<0.000000e+00> : tensor<64x64xf32> loc(#loc167)
      %b_o_409 = tt.dot %b_q, %b_o_406, %b_o_408, inputPrecision = tf32 : tensor<64x64xf16> * tensor<64x64xf16> -> tensor<64x64xf32> loc(#loc167)
      %b_o_410 = arith.addf %b_o_326, %b_o_409 : tensor<64x64xf32> loc(#loc168)
      %b_A_411 = arith.constant 0.000000e+00 : f32 loc(#loc169)
      %b_A_412 = arith.constant dense<0.000000e+00> : tensor<64x64xf32> loc(#loc169)
      %b_A_413 = tt.dot %b_q, %b_k, %b_A_412, inputPrecision = tf32 : tensor<64x64xf16> * tensor<64x64xf16> -> tensor<64x64xf32> loc(#loc169)
      %b_A_414 = arith.addf %b_A_327, %b_A_413 : tensor<64x64xf32> loc(#loc170)
      scf.yield %b_o_410, %b_A_414 : tensor<64x64xf32>, tensor<64x64xf32> loc(#loc65)
    } loc(#loc209)
    %g_182 = arith.constant 16 : i32 loc(#loc171)
    %g_183 = arith.constant 16 : i32 loc(#loc171)
    %g_184 = arith.extsi %25 : i32 to i64 loc(#loc171)
    %g_185 = arith.extsi %g_183 : i32 to i64 loc(#loc171)
    %g_186 = arith.muli %g_184, %g_185 : i64 loc(#loc171)
    %g_187 = arith.constant 2147483647 : i64 loc(#loc171)
    %g_188 = arith.constant -2147483648 : i64 loc(#loc171)
    %g_189 = arith.cmpi sle, %g_186, %g_187 : i64 loc(#loc171)
    %g_190 = arith.cmpi sge, %g_186, %g_188 : i64 loc(#loc171)
    %g_191 = arith.andi %g_189, %g_190 : i1 loc(#loc171)
    %g_192 = arith.muli %25, %g_183 : i32 loc(#loc171)
    %g_193 = arith.extsi %g_192 : i32 to i64 loc(#loc172)
    %g_194 = arith.extsi %4 : i32 to i64 loc(#loc172)
    %g_195 = arith.addi %g_193, %g_194 : i64 loc(#loc172)
    %g_196 = arith.constant 2147483647 : i64 loc(#loc172)
    %g_197 = arith.constant -2147483648 : i64 loc(#loc172)
    %g_198 = arith.cmpi sle, %g_195, %g_196 : i64 loc(#loc172)
    %g_199 = arith.cmpi sge, %g_195, %g_197 : i64 loc(#loc172)
    %g_200 = arith.andi %g_198, %g_199 : i1 loc(#loc172)
    %g_201 = arith.addi %g_192, %4 : i32 loc(#loc172)
    %g_202 = tt.addptr %g, %g_201 : !tt.ptr<f32>, i32 loc(#loc173)
    %p_g = arith.constant 64 : i32 loc(#loc174)
    %p_g_203 = arith.constant 64 : i32 loc(#loc174)
    %p_g_204 = arith.extsi %23 : i32 to i64 loc(#loc174)
    %p_g_205 = arith.extsi %p_g_203 : i32 to i64 loc(#loc174)
    %p_g_206 = arith.muli %p_g_204, %p_g_205 : i64 loc(#loc174)
    %p_g_207 = arith.constant 2147483647 : i64 loc(#loc174)
    %p_g_208 = arith.constant -2147483648 : i64 loc(#loc174)
    %p_g_209 = arith.cmpi sle, %p_g_206, %p_g_207 : i64 loc(#loc174)
    %p_g_210 = arith.cmpi sge, %p_g_206, %p_g_208 : i64 loc(#loc174)
    %p_g_211 = arith.andi %p_g_209, %p_g_210 : i1 loc(#loc174)
    %p_g_212 = arith.muli %23, %p_g_203 : i32 loc(#loc174)
    %p_g_213 = arith.extsi %T_17 : i32 to i64 loc(#loc175)
    %p_g_214 = arith.constant 16 : i64 loc(#loc175)
    %p_g_215 = tt.make_tensor_ptr %g_202, [%p_g_213], [%p_g_214], [%p_g_212] {order = array<i32: 0>} : <tensor<64xf32>> loc(#loc175)
    %b_g = tt.load %p_g_215 {boundaryCheck = array<i32: 0>} : !tt.ptr<tensor<64xf32>> loc(#loc176)
    %b_o_216 = math.exp %b_g : tensor<64xf32> loc(#loc177)
    %b_o_217 = tt.expand_dims %b_o_216 {axis = 1 : i32} : tensor<64xf32> -> tensor<64x1xf32> loc(#loc178)
    %b_o_218 = tt.broadcast %b_o_217 : tensor<64x1xf32> -> tensor<64x64xf32> loc(#loc179)
    %b_o_219 = arith.mulf %b_A_181#0, %b_o_218 : tensor<64x64xf32> loc(#loc179)
    %b_A_220 = tt.expand_dims %b_g {axis = 1 : i32} : tensor<64xf32> -> tensor<64x1xf32> loc(#loc180)
    %b_A_221 = tt.expand_dims %b_g {axis = 0 : i32} : tensor<64xf32> -> tensor<1x64xf32> loc(#loc181)
    %b_A_222 = tt.broadcast %b_A_220 : tensor<64x1xf32> -> tensor<64x64xf32> loc(#loc182)
    %b_A_223 = tt.broadcast %b_A_221 : tensor<1x64xf32> -> tensor<64x64xf32> loc(#loc182)
    %b_A_224 = arith.subf %b_A_222, %b_A_223 : tensor<64x64xf32> loc(#loc182)
    %b_A_225 = math.exp %b_A_224 : tensor<64x64xf32> loc(#loc183)
    %b_A_226 = arith.mulf %b_A_181#1, %b_A_225 : tensor<64x64xf32> loc(#loc184)
    %o_t = arith.constant 64 : i32 loc(#loc185)
    %o_t_227 = arith.constant 64 : i32 loc(#loc185)
    %o_t_228 = arith.extsi %23 : i32 to i64 loc(#loc185)
    %o_t_229 = arith.extsi %o_t_227 : i32 to i64 loc(#loc185)
    %o_t_230 = arith.muli %o_t_228, %o_t_229 : i64 loc(#loc185)
    %o_t_231 = arith.constant 2147483647 : i64 loc(#loc185)
    %o_t_232 = arith.constant -2147483648 : i64 loc(#loc185)
    %o_t_233 = arith.cmpi sle, %o_t_230, %o_t_231 : i64 loc(#loc185)
    %o_t_234 = arith.cmpi sge, %o_t_230, %o_t_232 : i64 loc(#loc185)
    %o_t_235 = arith.andi %o_t_233, %o_t_234 : i1 loc(#loc185)
    %o_t_236 = arith.muli %23, %o_t_227 : i32 loc(#loc185)
    %o_t_237 = tt.make_range {end = 64 : i32, start = 0 : i32} : tensor<64xi32> loc(#loc186)
    %o_t_238 = tt.splat %o_t_236 : i32 -> tensor<64xi32> loc(#loc187)
    %o_t_239 = arith.extsi %o_t_238 : tensor<64xi32> to tensor<64xi64> loc(#loc187)
    %o_t_240 = arith.extsi %o_t_237 : tensor<64xi32> to tensor<64xi64> loc(#loc187)
    %o_t_241 = arith.addi %o_t_239, %o_t_240 : tensor<64xi64> loc(#loc187)
    %o_t_242 = arith.constant 2147483647 : i64 loc(#loc187)
    %o_t_243 = arith.constant -2147483648 : i64 loc(#loc187)
    %o_t_244 = arith.constant dense<2147483647> : tensor<64xi64> loc(#loc187)
    %o_t_245 = arith.cmpi sle, %o_t_241, %o_t_244 : tensor<64xi64> loc(#loc187)
    %o_t_246 = arith.constant dense<-2147483648> : tensor<64xi64> loc(#loc187)
    %o_t_247 = arith.cmpi sge, %o_t_241, %o_t_246 : tensor<64xi64> loc(#loc187)
    %o_t_248 = arith.andi %o_t_245, %o_t_247 : tensor<64xi1> loc(#loc187)
    %o_t_249 = arith.addi %o_t_238, %o_t_237 : tensor<64xi32> loc(#loc187)
    %m_t = tt.splat %T_17 : i32 -> tensor<64xi32> loc(#loc188)
    %m_t_250 = arith.cmpi slt, %o_t_249, %m_t : tensor<64xi32> loc(#loc188)
    %m_A = tt.expand_dims %o_t_249 {axis = 1 : i32} : tensor<64xi32> -> tensor<64x1xi32> loc(#loc189)
    %m_A_251 = tt.expand_dims %o_t_249 {axis = 0 : i32} : tensor<64xi32> -> tensor<1x64xi32> loc(#loc190)
    %m_A_252 = tt.broadcast %m_A : tensor<64x1xi32> -> tensor<64x64xi32> loc(#loc191)
    %m_A_253 = tt.broadcast %m_A_251 : tensor<1x64xi32> -> tensor<64x64xi32> loc(#loc191)
    %m_A_254 = arith.cmpi sge, %m_A_252, %m_A_253 : tensor<64x64xi32> loc(#loc191)
    %m_A_255 = tt.expand_dims %m_t_250 {axis = 1 : i32} : tensor<64xi1> -> tensor<64x1xi1> loc(#loc192)
    %m_A_256 = tt.expand_dims %m_t_250 {axis = 0 : i32} : tensor<64xi1> -> tensor<1x64xi1> loc(#loc193)
    %m_A_257 = tt.broadcast %m_A_255 : tensor<64x1xi1> -> tensor<64x64xi1> loc(#loc193)
    %m_A_258 = tt.broadcast %m_A_256 : tensor<1x64xi1> -> tensor<64x64xi1> loc(#loc193)
    %m_A_259 = arith.andi %m_A_257, %m_A_258 : tensor<64x64xi1> loc(#loc193)
    %m_A_260 = arith.andi %m_A_254, %m_A_259 : tensor<64x64xi1> loc(#loc194)
    %b_A_261 = arith.constant 0 : i32 loc(#loc195)
    %b_A_262 = arith.constant 0.000000e+00 : f32 loc(#loc195)
    %b_A_263 = arith.constant dense<0.000000e+00> : tensor<64x64xf32> loc(#loc195)
    %b_A_264 = arith.select %m_A_260, %b_A_226, %b_A_263 : tensor<64x64xi1>, tensor<64x64xf32> loc(#loc195)
    %p_v = arith.constant 64 : i32 loc(#loc196)
    %p_v_265 = arith.constant 64 : i32 loc(#loc196)
    %p_v_266 = arith.extsi %23 : i32 to i64 loc(#loc196)
    %p_v_267 = arith.extsi %p_v_265 : i32 to i64 loc(#loc196)
    %p_v_268 = arith.muli %p_v_266, %p_v_267 : i64 loc(#loc196)
    %p_v_269 = arith.constant 2147483647 : i64 loc(#loc196)
    %p_v_270 = arith.constant -2147483648 : i64 loc(#loc196)
    %p_v_271 = arith.cmpi sle, %p_v_268, %p_v_269 : i64 loc(#loc196)
    %p_v_272 = arith.cmpi sge, %p_v_268, %p_v_270 : i64 loc(#loc196)
    %p_v_273 = arith.andi %p_v_271, %p_v_272 : i1 loc(#loc196)
    %p_v_274 = arith.muli %23, %p_v_265 : i32 loc(#loc196)
    %p_v_275 = arith.constant 64 : i32 loc(#loc197)
    %p_v_276 = arith.constant 64 : i32 loc(#loc197)
    %p_v_277 = arith.extsi %0 : i32 to i64 loc(#loc197)
    %p_v_278 = arith.extsi %p_v_276 : i32 to i64 loc(#loc197)
    %p_v_279 = arith.muli %p_v_277, %p_v_278 : i64 loc(#loc197)
    %p_v_280 = arith.constant 2147483647 : i64 loc(#loc197)
    %p_v_281 = arith.constant -2147483648 : i64 loc(#loc197)
    %p_v_282 = arith.cmpi sle, %p_v_279, %p_v_280 : i64 loc(#loc197)
    %p_v_283 = arith.cmpi sge, %p_v_279, %p_v_281 : i64 loc(#loc197)
    %p_v_284 = arith.andi %p_v_282, %p_v_283 : i1 loc(#loc197)
    %p_v_285 = arith.muli %0, %p_v_276 : i32 loc(#loc197)
    %p_v_286 = arith.extsi %T_17 : i32 to i64 loc(#loc198)
    %p_v_287 = arith.constant 128 : i64 loc(#loc198)
    %p_v_288 = arith.constant 2048 : i64 loc(#loc198)
    %p_v_289 = arith.constant 1 : i64 loc(#loc198)
    %p_v_290 = tt.make_tensor_ptr %v_119, [%p_v_286, %p_v_287], [%p_v_288, %p_v_289], [%p_v_274, %p_v_285] {order = array<i32: 1, 0>} : <tensor<64x64xf16>> loc(#loc198)
    %p_o = arith.constant 64 : i32 loc(#loc199)
    %p_o_291 = arith.constant 64 : i32 loc(#loc199)
    %p_o_292 = arith.extsi %23 : i32 to i64 loc(#loc199)
    %p_o_293 = arith.extsi %p_o_291 : i32 to i64 loc(#loc199)
    %p_o_294 = arith.muli %p_o_292, %p_o_293 : i64 loc(#loc199)
    %p_o_295 = arith.constant 2147483647 : i64 loc(#loc199)
    %p_o_296 = arith.constant -2147483648 : i64 loc(#loc199)
    %p_o_297 = arith.cmpi sle, %p_o_294, %p_o_295 : i64 loc(#loc199)
    %p_o_298 = arith.cmpi sge, %p_o_294, %p_o_296 : i64 loc(#loc199)
    %p_o_299 = arith.andi %p_o_297, %p_o_298 : i1 loc(#loc199)
    %p_o_300 = arith.muli %23, %p_o_291 : i32 loc(#loc199)
    %p_o_301 = arith.constant 64 : i32 loc(#loc200)
    %p_o_302 = arith.constant 64 : i32 loc(#loc200)
    %p_o_303 = arith.extsi %0 : i32 to i64 loc(#loc200)
    %p_o_304 = arith.extsi %p_o_302 : i32 to i64 loc(#loc200)
    %p_o_305 = arith.muli %p_o_303, %p_o_304 : i64 loc(#loc200)
    %p_o_306 = arith.constant 2147483647 : i64 loc(#loc200)
    %p_o_307 = arith.constant -2147483648 : i64 loc(#loc200)
    %p_o_308 = arith.cmpi sle, %p_o_305, %p_o_306 : i64 loc(#loc200)
    %p_o_309 = arith.cmpi sge, %p_o_305, %p_o_307 : i64 loc(#loc200)
    %p_o_310 = arith.andi %p_o_308, %p_o_309 : i1 loc(#loc200)
    %p_o_311 = arith.muli %0, %p_o_302 : i32 loc(#loc200)
    %p_o_312 = arith.extsi %T_17 : i32 to i64 loc(#loc201)
    %p_o_313 = arith.constant 128 : i64 loc(#loc201)
    %p_o_314 = arith.constant 2048 : i64 loc(#loc201)
    %p_o_315 = arith.constant 1 : i64 loc(#loc201)
    %p_o_316 = tt.make_tensor_ptr %o_151, [%p_o_312, %p_o_313], [%p_o_314, %p_o_315], [%p_o_300, %p_o_311] {order = array<i32: 1, 0>} : <tensor<64x64xf16>> loc(#loc201)
    %b_v = tt.load %p_v_290 {boundaryCheck = array<i32: 0, 1>} : !tt.ptr<tensor<64x64xf16>> loc(#loc202)
    %b_o_317 = tt.splat %scale : f32 -> tensor<64x64xf32> loc(#loc203)
    %b_o_318 = arith.mulf %b_o_219, %b_o_317 : tensor<64x64xf32> loc(#loc203)
    %b_o_319 = arith.truncf %b_A_264 : tensor<64x64xf32> to tensor<64x64xf16> loc(#loc204)
    %b_o_320 = arith.constant 0.000000e+00 : f32 loc(#loc205)
    %b_o_321 = arith.constant dense<0.000000e+00> : tensor<64x64xf32> loc(#loc205)
    %b_o_322 = tt.dot %b_o_319, %b_v, %b_o_321, inputPrecision = tf32 : tensor<64x64xf16> * tensor<64x64xf16> -> tensor<64x64xf32> loc(#loc205)
    %b_o_323 = tt.splat %scale : f32 -> tensor<64x64xf32> loc(#loc206)
    %b_o_324 = arith.mulf %b_o_322, %b_o_323 : tensor<64x64xf32> loc(#loc206)
    %b_o_325 = arith.addf %b_o_318, %b_o_324 : tensor<64x64xf32> loc(#loc207)
    %35 = arith.truncf %b_o_325 : tensor<64x64xf32> to tensor<64x64xf16> loc(#loc103)
    tt.store %p_o_316, %35 {boundaryCheck = array<i32: 0, 1>} : !tt.ptr<tensor<64x64xf16>> loc(#loc104)
    tt.return loc(#loc105)
  } loc(#loc)
  tt.func private @"triton.language.standard.cdiv__i32__(1,)cconstexpr_64_"(%x: i32 loc("x"(#loc106))) -> i32 attributes {noinline = false} {
    %c63_i32 = arith.constant 63 : i32 loc(#loc107)
    %c63_i32_0 = arith.constant 63 : i32 loc(#loc107)
    %0 = arith.extsi %x : i32 to i64 loc(#loc107)
    %1 = arith.extsi %c63_i32_0 : i32 to i64 loc(#loc107)
    %2 = arith.addi %0, %1 : i64 loc(#loc107)
    %c2147483647_i64 = arith.constant 2147483647 : i64 loc(#loc107)
    %c-2147483648_i64 = arith.constant -2147483648 : i64 loc(#loc107)
    %3 = arith.cmpi sle, %2, %c2147483647_i64 : i64 loc(#loc107)
    %4 = arith.cmpi sge, %2, %c-2147483648_i64 : i64 loc(#loc107)
    %5 = arith.andi %3, %4 : i1 loc(#loc107)
    %6 = arith.addi %x, %c63_i32_0 : i32 loc(#loc107)
    %c64_i32 = arith.constant 64 : i32 loc(#loc108)
    %c64_i32_1 = arith.constant 64 : i32 loc(#loc108)
    %7 = arith.divsi %6, %c64_i32_1 : i32 loc(#loc108)
    tt.return %7 : i32 loc(#loc109)
  ^bb1:  // no predecessors
    %8 = ub.poison : i32 loc(#loc110)
    tt.return %8 : i32 loc(#loc110)
  } loc(#loc106)
  tt.func private @"triton.language.standard.zeros____(0, 0)cconstexpr_64__(0, 1)cconstexpr_64__(1,)cconstexpr_fp32_"() -> tensor<64x64xf32> attributes {noinline = false} {
    %cst = arith.constant 0.000000e+00 : f32 loc(#loc112)
    %cst_0 = arith.constant dense<0.000000e+00> : tensor<64x64xf32> loc(#loc112)
    tt.return %cst_0 : tensor<64x64xf32> loc(#loc113)
  ^bb1:  // no predecessors
    %0 = ub.poison : tensor<64x64xf32> loc(#loc114)
    tt.return %0 : tensor<64x64xf32> loc(#loc114)
  } loc(#loc111)
  tt.func private @"triton.language.standard.cdiv____(0,)cconstexpr_128__(1,)cconstexpr_64_"() -> i32 attributes {noinline = false} {
    %c2_i32 = arith.constant 2 : i32 loc(#loc109)
    tt.return %c2_i32 : i32 loc(#loc109)
  ^bb1:  // no predecessors
    %0 = ub.poison : i32 loc(#loc110)
    tt.return %0 : i32 loc(#loc110)
  } loc(#loc106)
} loc(#loc)
#loc1 = loc("/usr/local/lib/python3.12/dist-packages/vllm/model_executor/layers/fla/ops/chunk_o.py":63:35)
#loc2 = loc("/usr/local/lib/python3.12/dist-packages/vllm/model_executor/layers/fla/ops/chunk_o.py":63:53)
#loc3 = loc("/usr/local/lib/python3.12/dist-packages/vllm/model_executor/layers/fla/ops/chunk_o.py":63:71)
#loc4 = loc("/usr/local/lib/python3.12/dist-packages/vllm/model_executor/layers/fla/ops/chunk_o.py":64:23)
#loc5 = loc("/usr/local/lib/python3.12/dist-packages/vllm/model_executor/layers/fla/ops/chunk_o.py":64:33)
#loc6 = loc("/usr/local/lib/python3.12/dist-packages/vllm/model_executor/layers/fla/ops/chunk_o.py":69:42)
#loc7 = loc("/usr/local/lib/python3.12/dist-packages/vllm/model_executor/layers/fla/ops/chunk_o.py":69:36)
#loc8 = loc("/usr/local/lib/python3.12/dist-packages/vllm/model_executor/layers/fla/ops/chunk_o.py":69:20)
#loc9 = loc("/usr/local/lib/python3.12/dist-packages/vllm/model_executor/layers/fla/ops/chunk_o.py":70:42)
#loc10 = loc("/usr/local/lib/python3.12/dist-packages/vllm/model_executor/layers/fla/ops/chunk_o.py":70:36)
#loc11 = loc("/usr/local/lib/python3.12/dist-packages/vllm/model_executor/layers/fla/ops/chunk_o.py":70:46)
#loc12 = loc("/usr/local/lib/python3.12/dist-packages/vllm/model_executor/layers/fla/ops/chunk_o.py":70:20)
#loc13 = loc("/usr/local/lib/python3.12/dist-packages/vllm/model_executor/layers/fla/ops/chunk_o.py":73:33)
#loc14 = loc("/usr/local/lib/python3.12/dist-packages/vllm/model_executor/layers/fla/ops/chunk_o.py":73:20)
#loc15 = loc("/usr/local/lib/python3.12/dist-packages/vllm/model_executor/layers/fla/ops/chunk_o.py":74:33)
#loc16 = loc("/usr/local/lib/python3.12/dist-packages/vllm/model_executor/layers/fla/ops/chunk_o.py":74:39)
#loc17 = loc("/usr/local/lib/python3.12/dist-packages/vllm/model_executor/layers/fla/ops/chunk_o.py":74:20)
#loc18 = loc("/usr/local/lib/python3.12/dist-packages/vllm/model_executor/layers/fla/ops/chunk_o.py":76:18)
#loc19 = loc("/usr/local/lib/python3.12/dist-packages/vllm/model_executor/layers/fla/ops/chunk_o.py":77:24)
#loc20 = loc("/usr/local/lib/python3.12/dist-packages/vllm/model_executor/layers/fla/ops/chunk_o.py":84:16)
#loc21 = loc("/usr/local/lib/python3.12/dist-packages/vllm/model_executor/layers/fla/ops/chunk_o.py":84:29)
#loc22 = loc("/usr/local/lib/python3.12/dist-packages/vllm/model_executor/layers/fla/ops/chunk_o.py":84:21)
#loc23 = loc("/usr/local/lib/python3.12/dist-packages/vllm/model_executor/layers/fla/ops/chunk_o.py":84:41)
#loc24 = loc("/usr/local/lib/python3.12/dist-packages/vllm/model_executor/layers/fla/ops/chunk_o.py":84:9)
#loc25 = loc("/usr/local/lib/python3.12/dist-packages/vllm/model_executor/layers/fla/ops/chunk_o.py":85:16)
#loc26 = loc("/usr/local/lib/python3.12/dist-packages/vllm/model_executor/layers/fla/ops/chunk_o.py":85:29)
#loc27 = loc("/usr/local/lib/python3.12/dist-packages/vllm/model_executor/layers/fla/ops/chunk_o.py":85:21)
#loc28 = loc("/usr/local/lib/python3.12/dist-packages/vllm/model_executor/layers/fla/ops/chunk_o.py":85:41)
#loc29 = loc("/usr/local/lib/python3.12/dist-packages/vllm/model_executor/layers/fla/ops/chunk_o.py":85:9)
#loc30 = loc("/usr/local/lib/python3.12/dist-packages/vllm/model_executor/layers/fla/ops/chunk_o.py":86:16)
#loc31 = loc("/usr/local/lib/python3.12/dist-packages/vllm/model_executor/layers/fla/ops/chunk_o.py":86:20)
#loc32 = loc("/usr/local/lib/python3.12/dist-packages/vllm/model_executor/layers/fla/ops/chunk_o.py":86:27)
#loc33 = loc("/usr/local/lib/python3.12/dist-packages/vllm/model_executor/layers/fla/ops/chunk_o.py":86:9)
#loc34 = loc("/usr/local/lib/python3.12/dist-packages/vllm/model_executor/layers/fla/ops/chunk_o.py":87:16)
#loc35 = loc("/usr/local/lib/python3.12/dist-packages/vllm/model_executor/layers/fla/ops/chunk_o.py":87:20)
#loc36 = loc("/usr/local/lib/python3.12/dist-packages/vllm/model_executor/layers/fla/ops/chunk_o.py":87:27)
#loc37 = loc("/usr/local/lib/python3.12/dist-packages/vllm/model_executor/layers/fla/ops/chunk_o.py":87:9)
#loc38 = loc("/usr/local/lib/python3.12/dist-packages/vllm/model_executor/layers/fla/ops/chunk_o.py":88:17)
#loc39 = loc("/usr/local/lib/python3.12/dist-packages/vllm/model_executor/layers/fla/ops/chunk_o.py":88:21)
#loc40 = loc("/usr/local/lib/python3.12/dist-packages/vllm/model_executor/layers/fla/ops/chunk_o.py":88:29)
#loc41 = loc("/usr/local/lib/python3.12/dist-packages/vllm/model_executor/layers/fla/ops/chunk_o.py":88:41)
#loc42 = loc("/usr/local/lib/python3.12/dist-packages/vllm/model_executor/layers/fla/ops/chunk_o.py":88:45)
#loc43 = loc("/usr/local/lib/python3.12/dist-packages/vllm/model_executor/layers/fla/ops/chunk_o.py":88:9)
#loc44 = loc("/usr/local/lib/python3.12/dist-packages/vllm/model_executor/layers/fla/ops/chunk_o.py":90:19)
#loc45 = loc("/usr/local/lib/python3.12/dist-packages/vllm/model_executor/layers/fla/ops/chunk_o.py":91:19)
#loc46 = loc("/usr/local/lib/python3.12/dist-packages/vllm/model_executor/layers/fla/ops/chunk_o.py":93:32)
#loc47 = loc("/usr/local/lib/python3.12/dist-packages/vllm/model_executor/layers/fla/ops/chunk_o.py":93:21)
#loc48 = loc("/usr/local/lib/python3.12/dist-packages/vllm/model_executor/layers/fla/ops/chunk_o.py":95:43)
#loc49 = loc("/usr/local/lib/python3.12/dist-packages/vllm/model_executor/layers/fla/ops/chunk_o.py":95:53)
#loc50 = loc("/usr/local/lib/python3.12/dist-packages/vllm/model_executor/layers/fla/ops/chunk_o.py":95:68)
#loc51 = loc("/usr/local/lib/python3.12/dist-packages/vllm/model_executor/layers/fla/ops/chunk_o.py":98:43)
#loc52 = loc("/usr/local/lib/python3.12/dist-packages/vllm/model_executor/layers/fla/ops/chunk_o.py":98:53)
#loc53 = loc("/usr/local/lib/python3.12/dist-packages/vllm/model_executor/layers/fla/ops/chunk_o.py":98:68)
#loc54 = loc("/usr/local/lib/python3.12/dist-packages/vllm/model_executor/layers/fla/ops/chunk_o.py":101:38)
#loc55 = loc("/usr/local/lib/python3.12/dist-packages/vllm/model_executor/layers/fla/ops/chunk_o.py":101:48)
#loc56 = loc("/usr/local/lib/python3.12/dist-packages/vllm/model_executor/layers/fla/ops/chunk_o.py":101:63)
#loc57 = loc("/usr/local/lib/python3.12/dist-packages/vllm/model_executor/layers/fla/ops/chunk_o.py":104:22)
#loc58 = loc("/usr/local/lib/python3.12/dist-packages/vllm/model_executor/layers/fla/ops/chunk_o.py":106:22)
#loc59 = loc("/usr/local/lib/python3.12/dist-packages/vllm/model_executor/layers/fla/ops/chunk_o.py":108:22)
#loc60 = loc("/usr/local/lib/python3.12/dist-packages/vllm/model_executor/layers/fla/ops/chunk_o.py":111:36)
#loc61 = loc("/usr/local/lib/python3.12/dist-packages/vllm/model_executor/layers/fla/ops/chunk_o.py":111:27)
#loc62 = loc("/usr/local/lib/python3.12/dist-packages/vllm/model_executor/layers/fla/ops/chunk_o.py":111:15)
#loc63 = loc("/usr/local/lib/python3.12/dist-packages/vllm/model_executor/layers/fla/ops/chunk_o.py":113:27)
#loc64 = loc("/usr/local/lib/python3.12/dist-packages/vllm/model_executor/layers/fla/ops/chunk_o.py":113:15)
#loc65 = loc("/usr/local/lib/python3.12/dist-packages/vllm/model_executor/layers/fla/ops/chunk_o.py":113:8)
#loc66 = loc("/usr/local/lib/python3.12/dist-packages/vllm/model_executor/layers/fla/ops/chunk_o.py":116:19)
#loc67 = loc("/usr/local/lib/python3.12/dist-packages/vllm/model_executor/layers/fla/ops/chunk_o.py":116:23)
#loc68 = loc("/usr/local/lib/python3.12/dist-packages/vllm/model_executor/layers/fla/ops/chunk_o.py":116:13)
#loc69 = loc("/usr/local/lib/python3.12/dist-packages/vllm/model_executor/layers/fla/ops/chunk_o.py":117:54)
#loc70 = loc("/usr/local/lib/python3.12/dist-packages/vllm/model_executor/layers/fla/ops/chunk_o.py":117:67)
#loc71 = loc("/usr/local/lib/python3.12/dist-packages/vllm/model_executor/layers/fla/ops/chunk_o.py":118:22)
#loc72 = loc("/usr/local/lib/python3.12/dist-packages/vllm/model_executor/layers/fla/ops/chunk_o.py":119:24)
#loc73 = loc("/usr/local/lib/python3.12/dist-packages/vllm/model_executor/layers/fla/ops/chunk_o.py":119:29)
#loc74 = loc("/usr/local/lib/python3.12/dist-packages/vllm/model_executor/layers/fla/ops/chunk_o.py":119:20)
#loc75 = loc("/usr/local/lib/python3.12/dist-packages/vllm/model_executor/layers/fla/ops/chunk_o.py":120:28)
#loc76 = loc("/usr/local/lib/python3.12/dist-packages/vllm/model_executor/layers/fla/ops/chunk_o.py":120:43)
#loc77 = loc("/usr/local/lib/python3.12/dist-packages/vllm/model_executor/layers/fla/ops/chunk_o.py":120:39)
#loc78 = loc("/usr/local/lib/python3.12/dist-packages/vllm/model_executor/layers/fla/ops/chunk_o.py":120:24)
#loc79 = loc("/usr/local/lib/python3.12/dist-packages/vllm/model_executor/layers/fla/ops/chunk_o.py":120:20)
#loc80 = loc("/usr/local/lib/python3.12/dist-packages/vllm/model_executor/layers/fla/ops/chunk_o.py":122:16)
#loc81 = loc("/usr/local/lib/python3.12/dist-packages/vllm/model_executor/layers/fla/ops/chunk_o.py":122:34)
#loc82 = loc("/usr/local/lib/python3.12/dist-packages/vllm/model_executor/layers/fla/ops/chunk_o.py":122:21)
#loc83 = loc("/usr/local/lib/python3.12/dist-packages/vllm/model_executor/layers/fla/ops/chunk_o.py":123:16)
#loc84 = loc("/usr/local/lib/python3.12/dist-packages/vllm/model_executor/layers/fla/ops/chunk_o.py":124:15)
#loc85 = loc("/usr/local/lib/python3.12/dist-packages/vllm/model_executor/layers/fla/ops/chunk_o.py":124:31)
#loc86 = loc("/usr/local/lib/python3.12/dist-packages/vllm/model_executor/layers/fla/ops/chunk_o.py":124:27)
#loc87 = loc("/usr/local/lib/python3.12/dist-packages/vllm/model_executor/layers/fla/ops/chunk_o.py":124:48)
#loc88 = loc("/usr/local/lib/python3.12/dist-packages/vllm/model_executor/layers/fla/ops/chunk_o.py":124:59)
#loc89 = loc("/usr/local/lib/python3.12/dist-packages/vllm/model_executor/layers/fla/ops/chunk_o.py":124:44)
#loc90 = loc("/usr/local/lib/python3.12/dist-packages/vllm/model_executor/layers/fla/ops/chunk_o.py":125:29)
#loc91 = loc("/usr/local/lib/python3.12/dist-packages/vllm/model_executor/layers/fla/ops/chunk_o.py":128:38)
#loc92 = loc("/usr/local/lib/python3.12/dist-packages/vllm/model_executor/layers/fla/ops/chunk_o.py":128:48)
#loc93 = loc("/usr/local/lib/python3.12/dist-packages/vllm/model_executor/layers/fla/ops/chunk_o.py":128:63)
#loc94 = loc("/usr/local/lib/python3.12/dist-packages/vllm/model_executor/layers/fla/ops/chunk_o.py":131:38)
#loc95 = loc("/usr/local/lib/python3.12/dist-packages/vllm/model_executor/layers/fla/ops/chunk_o.py":131:48)
#loc96 = loc("/usr/local/lib/python3.12/dist-packages/vllm/model_executor/layers/fla/ops/chunk_o.py":131:63)
#loc97 = loc("/usr/local/lib/python3.12/dist-packages/vllm/model_executor/layers/fla/ops/chunk_o.py":133:18)
#loc98 = loc("/usr/local/lib/python3.12/dist-packages/vllm/model_executor/layers/fla/ops/chunk_o.py":137:16)
#loc99 = loc("/usr/local/lib/python3.12/dist-packages/vllm/model_executor/layers/fla/ops/chunk_o.py":137:38)
#loc100 = loc("/usr/local/lib/python3.12/dist-packages/vllm/model_executor/layers/fla/ops/chunk_o.py":137:50)
#loc101 = loc("/usr/local/lib/python3.12/dist-packages/vllm/model_executor/layers/fla/ops/chunk_o.py":137:57)
#loc102 = loc("/usr/local/lib/python3.12/dist-packages/vllm/model_executor/layers/fla/ops/chunk_o.py":137:24)
#loc103 = loc("/usr/local/lib/python3.12/dist-packages/vllm/model_executor/layers/fla/ops/chunk_o.py":138:25)
#loc104 = loc("/usr/local/lib/python3.12/dist-packages/vllm/model_executor/layers/fla/ops/chunk_o.py":138:18)
#loc105 = loc("/usr/local/lib/python3.12/dist-packages/vllm/model_executor/layers/fla/ops/chunk_o.py":138:4)
#loc107 = loc("/usr/local/lib/python3.12/dist-packages/triton/language/standard.py":43:17)
#loc108 = loc("/usr/local/lib/python3.12/dist-packages/triton/language/standard.py":43:30)
#loc109 = loc("/usr/local/lib/python3.12/dist-packages/triton/language/standard.py":43:11)
#loc110 = loc("/usr/local/lib/python3.12/dist-packages/triton/language/standard.py":43:4)
#loc111 = loc("/usr/local/lib/python3.12/dist-packages/triton/language/standard.py":120:0)
#loc112 = loc("/usr/local/lib/python3.12/dist-packages/triton/language/standard.py":129:31)
#loc113 = loc("/usr/local/lib/python3.12/dist-packages/triton/language/standard.py":129:11)
#loc114 = loc("/usr/local/lib/python3.12/dist-packages/triton/language/standard.py":129:4)
#loc125 = loc("T"(#loc18))
#loc126 = loc("NT"(#loc19))
#loc127 = loc("q"(#loc20))
#loc128 = loc("q"(#loc21))
#loc129 = loc("q"(#loc22))
#loc130 = loc("q"(#loc23))
#loc131 = loc("q"(#loc24))
#loc132 = loc("k"(#loc25))
#loc133 = loc("k"(#loc26))
#loc134 = loc("k"(#loc27))
#loc135 = loc("k"(#loc28))
#loc136 = loc("k"(#loc29))
#loc137 = loc("v"(#loc30))
#loc138 = loc("v"(#loc31))
#loc139 = loc("v"(#loc32))
#loc140 = loc("v"(#loc33))
#loc141 = loc("o"(#loc34))
#loc142 = loc("o"(#loc35))
#loc143 = loc("o"(#loc36))
#loc144 = loc("o"(#loc37))
#loc145 = loc("h"(#loc38))
#loc146 = loc("h"(#loc39))
#loc147 = loc("h"(#loc40))
#loc148 = loc("h"(#loc41))
#loc149 = loc("h"(#loc42))
#loc150 = loc("h"(#loc43))
#loc151 = loc("b_o"(#loc44))
#loc152 = loc("b_A"(#loc45))
#loc153 = loc("b_o"(#loc47))
#loc154 = loc("p_q"(#loc48))
#loc155 = loc("p_q"(#loc49))
#loc156 = loc("p_q"(#loc50))
#loc157 = loc("p_k"(#loc51))
#loc158 = loc("p_k"(#loc52))
#loc159 = loc("p_k"(#loc53))
#loc160 = loc("p_h"(#loc54))
#loc161 = loc("p_h"(#loc55))
#loc162 = loc("p_h"(#loc56))
#loc163 = loc("b_q"(#loc57))
#loc164 = loc("b_k"(#loc58))
#loc165 = loc("b_h"(#loc59))
#loc166 = loc("b_o"(#loc60))
#loc167 = loc("b_o"(#loc61))
#loc168 = loc("b_o"(#loc62))
#loc169 = loc("b_A"(#loc63))
#loc170 = loc("b_A"(#loc64))
#loc171 = loc("g"(#loc66))
#loc172 = loc("g"(#loc67))
#loc173 = loc("g"(#loc68))
#loc174 = loc("p_g"(#loc69))
#loc175 = loc("p_g"(#loc70))
#loc176 = loc("b_g"(#loc71))
#loc177 = loc("b_o"(#loc72))
#loc178 = loc("b_o"(#loc73))
#loc179 = loc("b_o"(#loc74))
#loc180 = loc("b_A"(#loc75))
#loc181 = loc("b_A"(#loc76))
#loc182 = loc("b_A"(#loc77))
#loc183 = loc("b_A"(#loc78))
#loc184 = loc("b_A"(#loc79))
#loc185 = loc("o_t"(#loc80))
#loc186 = loc("o_t"(#loc81))
#loc187 = loc("o_t"(#loc82))
#loc188 = loc("m_t"(#loc83))
#loc189 = loc("m_A"(#loc84))
#loc190 = loc("m_A"(#loc85))
#loc191 = loc("m_A"(#loc86))
#loc192 = loc("m_A"(#loc87))
#loc193 = loc("m_A"(#loc88))
#loc194 = loc("m_A"(#loc89))
#loc195 = loc("b_A"(#loc90))
#loc196 = loc("p_v"(#loc91))
#loc197 = loc("p_v"(#loc92))
#loc198 = loc("p_v"(#loc93))
#loc199 = loc("p_o"(#loc94))
#loc200 = loc("p_o"(#loc95))
#loc201 = loc("p_o"(#loc96))
#loc202 = loc("b_v"(#loc97))
#loc203 = loc("b_o"(#loc98))
#loc204 = loc("b_o"(#loc99))
#loc205 = loc("b_o"(#loc100))
#loc206 = loc("b_o"(#loc101))
#loc207 = loc("b_o"(#loc102))
#loc209 = loc("b_A"(#loc153))
