#loc = loc("/root/.cache/vllm/torch_compile_cache/torch_aot_compile/61bda05feca29378847c32f031efa5c8dba258f38b0176a06a3e99e41df8ca50/inductor_cache/3w/c3wbudxlkf4rey2yc5qaugp3yp7uy773vkfzqzfkfz4g7clhlmdg.py":22:0)
#loc52 = loc("/usr/local/lib/python3.12/dist-packages/triton/language/standard.py":287:0)
#loc54 = loc(unknown)
#loc57 = loc("/usr/local/lib/python3.12/dist-packages/triton/language/standard.py":262:0)
#loc61 = loc("in_ptr0"(#loc))
#loc62 = loc("in_ptr1"(#loc))
#loc63 = loc("in_ptr2"(#loc))
#loc64 = loc("out_ptr1"(#loc))
#loc65 = loc("xnumel"(#loc))
#loc66 = loc("r0_numel"(#loc))
#loc113 = loc("input"(#loc52))
#loc114 = loc("a"(#loc57))
#loc115 = loc("b"(#loc57))
module {
  tt.func public @triton_(%in_ptr0: !tt.ptr<f16> {tt.divisibility = 16 : i32} loc("in_ptr0"(#loc)), %in_ptr1: !tt.ptr<f16> {tt.divisibility = 16 : i32} loc("in_ptr1"(#loc)), %in_ptr2: !tt.ptr<f16> {tt.divisibility = 16 : i32} loc("in_ptr2"(#loc)), %out_ptr1: !tt.ptr<f16> {tt.divisibility = 16 : i32} loc("out_ptr1"(#loc)), %xnumel: i32 {tt.divisibility = 16 : i32} loc("xnumel"(#loc)), %r0_numel: i32 {tt.divisibility = 16 : i32} loc("r0_numel"(#loc))) attributes {noinline = false} {
    %r0_numel_0 = arith.constant 128 : i32 loc(#loc67)
    %xoffset = tt.get_program_id x : i32 loc(#loc68)
    %xoffset_1 = arith.constant 1 : i32 loc(#loc69)
    %xoffset_2 = arith.constant 1 : i32 loc(#loc69)
    %xoffset_3 = arith.muli %xoffset, %xoffset_2 : i32 loc(#loc69)
    %xindex = tt.make_range {end = 1 : i32, start = 0 : i32} : tensor<1xi32> loc(#loc70)
    %xindex_4 = tt.expand_dims %xindex {axis = 1 : i32} : tensor<1xi32> -> tensor<1x1xi32> loc(#loc71)
    %xindex_5 = tt.splat %xoffset_3 : i32 -> tensor<1x1xi32> loc(#loc72)
    %xindex_6 = arith.addi %xindex_5, %xindex_4 : tensor<1x1xi32> loc(#loc72)
    %xmask = tt.splat %xnumel : i32 -> tensor<1x1xi32> loc(#loc73)
    %xmask_7 = arith.cmpi slt, %xindex_6, %xmask : tensor<1x1xi32> loc(#loc73)
    %r0_index = tt.make_range {end = 128 : i32, start = 0 : i32} : tensor<128xi32> loc(#loc74)
    %r0_index_8 = tt.expand_dims %r0_index {axis = 0 : i32} : tensor<128xi32> -> tensor<1x128xi32> loc(#loc75)
    %r0_offset = arith.constant 0 : i32 loc(#loc76)
    %r0_mask = arith.constant true loc(#loc77)
    %r0_mask_9 = arith.constant dense<true> : tensor<128xi1> loc(#loc77)
    %r0_mask_10 = tt.expand_dims %r0_mask_9 {axis = 0 : i32} : tensor<128xi1> -> tensor<1x128xi1> loc(#loc78)
    %tmp0 = arith.constant 128 : i32 loc(#loc79)
    %tmp0_11 = arith.constant 128 : i32 loc(#loc79)
    %tmp0_12 = arith.constant dense<128> : tensor<1x1xi32> loc(#loc79)
    %tmp0_13 = arith.muli %tmp0_12, %xindex_6 : tensor<1x1xi32> loc(#loc79)
    %tmp0_14 = tt.broadcast %tmp0_13 : tensor<1x1xi32> -> tensor<1x128xi32> loc(#loc80)
    %tmp0_15 = arith.addi %r0_index_8, %tmp0_14 : tensor<1x128xi32> loc(#loc80)
    %tmp0_16 = tt.splat %in_ptr0 : !tt.ptr<f16> -> tensor<1x128x!tt.ptr<f16>> loc(#loc81)
    %tmp0_17 = tt.addptr %tmp0_16, %tmp0_15 : tensor<1x128x!tt.ptr<f16>>, tensor<1x128xi32> loc(#loc81)
    %tmp0_18 = arith.constant 0.000000e+00 : f32 loc(#loc82)
    %tmp0_19 = tt.broadcast %xmask_7 : tensor<1x1xi1> -> tensor<1x128xi1> loc(#loc82)
    %tmp0_20 = arith.constant dense<0.000000e+00> : tensor<1x128xf32> loc(#loc82)
    %tmp0_21 = arith.truncf %tmp0_20 : tensor<1x128xf32> to tensor<1x128xf16> loc(#loc82)
    %tmp0_22 = tt.load %tmp0_17, %tmp0_19, %tmp0_21 : tensor<1x128x!tt.ptr<f16>> loc(#loc82)
    %tmp0_23 = arith.extf %tmp0_22 : tensor<1x128xf16> to tensor<1x128xf32> loc(#loc83)
    %tmp13 = tt.splat %in_ptr1 : !tt.ptr<f16> -> tensor<1x128x!tt.ptr<f16>> loc(#loc84)
    %tmp13_24 = tt.addptr %tmp13, %r0_index_8 : tensor<1x128x!tt.ptr<f16>>, tensor<1x128xi32> loc(#loc84)
    %tmp13_25 = tt.load %tmp13_24 evictionPolicy = evict_last : tensor<1x128x!tt.ptr<f16>> loc(#loc85)
    %tmp13_26 = arith.extf %tmp13_25 : tensor<1x128xf16> to tensor<1x128xf32> loc(#loc86)
    %tmp16 = arith.constant 16 : i32 loc(#loc87)
    %tmp16_27 = arith.constant 16 : i32 loc(#loc87)
    %tmp16_28 = arith.constant dense<16> : tensor<1x1xi32> loc(#loc87)
    %tmp16_29 = arith.remsi %xindex_6, %tmp16_28 : tensor<1x1xi32> loc(#loc87)
    %tmp16_30 = arith.constant 128 : i32 loc(#loc88)
    %tmp16_31 = arith.constant 128 : i32 loc(#loc88)
    %tmp16_32 = arith.constant dense<128> : tensor<1x1xi32> loc(#loc88)
    %tmp16_33 = arith.muli %tmp16_32, %tmp16_29 : tensor<1x1xi32> loc(#loc88)
    %tmp16_34 = tt.broadcast %tmp16_33 : tensor<1x1xi32> -> tensor<1x128xi32> loc(#loc89)
    %tmp16_35 = arith.addi %r0_index_8, %tmp16_34 : tensor<1x128xi32> loc(#loc89)
    %tmp16_36 = arith.constant 16 : i32 loc(#loc90)
    %tmp16_37 = arith.constant 16 : i32 loc(#loc90)
    %tmp16_38 = arith.constant dense<16> : tensor<1x1xi32> loc(#loc90)
    %tmp16_39 = arith.divsi %xindex_6, %tmp16_38 : tensor<1x1xi32> loc(#loc90)
    %tmp16_40 = arith.constant 6144 : i32 loc(#loc91)
    %tmp16_41 = arith.constant 6144 : i32 loc(#loc91)
    %tmp16_42 = arith.constant dense<6144> : tensor<1x1xi32> loc(#loc91)
    %tmp16_43 = arith.muli %tmp16_42, %tmp16_39 : tensor<1x1xi32> loc(#loc91)
    %tmp16_44 = tt.broadcast %tmp16_43 : tensor<1x1xi32> -> tensor<1x128xi32> loc(#loc92)
    %tmp16_45 = arith.addi %tmp16_35, %tmp16_44 : tensor<1x128xi32> loc(#loc92)
    %tmp16_46 = tt.splat %in_ptr2 : !tt.ptr<f16> -> tensor<1x128x!tt.ptr<f16>> loc(#loc93)
    %tmp16_47 = tt.addptr %tmp16_46, %tmp16_45 : tensor<1x128x!tt.ptr<f16>>, tensor<1x128xi32> loc(#loc93)
    %tmp16_48 = arith.constant 0.000000e+00 : f32 loc(#loc94)
    %tmp16_49 = tt.broadcast %xmask_7 : tensor<1x1xi1> -> tensor<1x128xi1> loc(#loc94)
    %tmp16_50 = arith.constant dense<0.000000e+00> : tensor<1x128xf32> loc(#loc94)
    %tmp16_51 = arith.truncf %tmp16_50 : tensor<1x128xf32> to tensor<1x128xf16> loc(#loc94)
    %tmp16_52 = tt.load %tmp16_47, %tmp16_49, %tmp16_51 : tensor<1x128x!tt.ptr<f16>> loc(#loc94)
    %tmp16_53 = arith.extf %tmp16_52 : tensor<1x128xf16> to tensor<1x128xf32> loc(#loc95)
    %tmp2 = arith.mulf %tmp0_23, %tmp0_23 : tensor<1x128xf32> loc(#loc96)
    %tmp5 = arith.constant 0 : i32 loc(#loc97)
    %tmp5_54 = arith.constant 0.000000e+00 : f32 loc(#loc97)
    %tmp5_55 = arith.constant dense<0.000000e+00> : tensor<1x128xf32> loc(#loc97)
    %tmp5_56 = tt.broadcast %xmask_7 : tensor<1x1xi1> -> tensor<1x128xi1> loc(#loc97)
    %tmp5_57 = arith.select %tmp5_56, %tmp2, %tmp5_55 : tensor<1x128xi1>, tensor<1x128xf32> loc(#loc97)
    %tmp6 = tt.call @"triton.language.standard.sum__fp32S1_128S__(1,)cconstexpr_1__(2,)cconstexpr_False__(3,)cNone"(%tmp5_57) : (tensor<1x128xf32>) -> tensor<1xf32> loc(#loc98)
    %tmp6_58 = tt.expand_dims %tmp6 {axis = 1 : i32} : tensor<1xf32> -> tensor<1x1xf32> loc(#loc99)
    %tmp7 = arith.constant 1.280000e+02 : f32 loc(#loc100)
    %tmp7_59 = arith.constant dense<1.280000e+02> : tensor<1x1xf32> loc(#loc100)
    %tmp8 = arith.divf %tmp6_58, %tmp7_59 : tensor<1x1xf32> loc(#loc101)
    %tmp9 = arith.constant 9.99999997E-7 : f32 loc(#loc102)
    %tmp9_60 = arith.constant dense<9.99999997E-7> : tensor<1x1xf32> loc(#loc102)
    %tmp10 = arith.addf %tmp8, %tmp9_60 : tensor<1x1xf32> loc(#loc103)
    %tmp11 = tt.extern_elementwise %tmp10 {libname = "", libpath = "", pure = true, symbol = "__nv_rsqrtf"} : (tensor<1x1xf32>) -> tensor<1x1xf32> loc(#loc104)
    %tmp12 = tt.broadcast %tmp11 : tensor<1x1xf32> -> tensor<1x128xf32> loc(#loc105)
    %tmp12_61 = arith.mulf %tmp0_23, %tmp12 : tensor<1x128xf32> loc(#loc105)
    %tmp15 = arith.mulf %tmp12_61, %tmp13_26 : tensor<1x128xf32> loc(#loc106)
    %tmp18 = arith.constant 0.000000e+00 : f32 loc(#loc107)
    %tmp18_62 = arith.constant dense<0.000000e+00> : tensor<1x128xf32> loc(#loc107)
    %tmp18_63 = arith.subf %tmp18_62, %tmp16_53 : tensor<1x128xf32> loc(#loc107)
    %tmp19 = tt.extern_elementwise %tmp18_63 {libname = "", libpath = "", pure = true, symbol = "__nv_expf"} : (tensor<1x128xf32>) -> tensor<1x128xf32> loc(#loc108)
    %tmp20 = arith.constant 1.000000e+00 : f32 loc(#loc109)
    %tmp20_64 = arith.constant dense<1.000000e+00> : tensor<1x1xf32> loc(#loc109)
    %tmp21 = arith.constant dense<1.000000e+00> : tensor<1x128xf32> loc(#loc110)
    %tmp21_65 = arith.addf %tmp19, %tmp21 : tensor<1x128xf32> loc(#loc110)
    %tmp22 = arith.divf %tmp16_53, %tmp21_65 : tensor<1x128xf32> loc(#loc111)
    %tmp23 = arith.mulf %tmp15, %tmp22 : tensor<1x128xf32> loc(#loc112)
    %c128_i32 = arith.constant 128 : i32 loc(#loc47)
    %c128_i32_66 = arith.constant 128 : i32 loc(#loc47)
    %cst = arith.constant dense<128> : tensor<1x1xi32> loc(#loc47)
    %0 = arith.muli %cst, %xindex_6 : tensor<1x1xi32> loc(#loc47)
    %1 = tt.broadcast %0 : tensor<1x1xi32> -> tensor<1x128xi32> loc(#loc48)
    %2 = arith.addi %r0_index_8, %1 : tensor<1x128xi32> loc(#loc48)
    %3 = tt.splat %out_ptr1 : !tt.ptr<f16> -> tensor<1x128x!tt.ptr<f16>> loc(#loc49)
    %4 = tt.addptr %3, %2 : tensor<1x128x!tt.ptr<f16>>, tensor<1x128xi32> loc(#loc49)
    %5 = tt.broadcast %xmask_7 : tensor<1x1xi1> -> tensor<1x128xi1> loc(#loc50)
    %6 = arith.truncf %tmp23 : tensor<1x128xf32> to tensor<1x128xf16> loc(#loc50)
    tt.store %4, %6, %5 : tensor<1x128x!tt.ptr<f16>> loc(#loc50)
    tt.return loc(#loc51)
  } loc(#loc)
  tt.func private @"triton.language.standard.sum__fp32S1_128S__(1,)cconstexpr_1__(2,)cconstexpr_False__(3,)cNone"(%input: tensor<1x128xf32> loc("input"(#loc52))) -> tensor<1xf32> attributes {noinline = false} {
    %0 = "tt.reduce"(%input) <{axis = 1 : i32}> ({
    ^bb0(%arg1: f32 loc(unknown), %arg2: f32 loc(unknown)):
      %2 = tt.call @triton.language.standard._sum_combine__fp32_fp32__(%arg1, %arg2) : (f32, f32) -> f32 loc(#loc53)
      tt.reduce.return %2 : f32 loc(#loc53)
    }) : (tensor<1x128xf32>) -> tensor<1xf32> loc(#loc53)
    tt.return %0 : tensor<1xf32> loc(#loc55)
  ^bb1:  // no predecessors
    %1 = ub.poison : tensor<1xf32> loc(#loc56)
    tt.return %1 : tensor<1xf32> loc(#loc56)
  } loc(#loc52)
  tt.func private @triton.language.standard._sum_combine__fp32_fp32__(%a: f32 loc("a"(#loc57)), %b: f32 loc("b"(#loc57))) -> f32 attributes {noinline = false} {
    %0 = arith.addf %a, %b : f32 loc(#loc58)
    tt.return %0 : f32 loc(#loc59)
  ^bb1:  // no predecessors
    %1 = ub.poison : f32 loc(#loc60)
    tt.return %1 : f32 loc(#loc60)
  } loc(#loc57)
} loc(#loc)
#loc1 = loc("/root/.cache/vllm/torch_compile_cache/torch_aot_compile/61bda05feca29378847c32f031efa5c8dba258f38b0176a06a3e99e41df8ca50/inductor_cache/3w/c3wbudxlkf4rey2yc5qaugp3yp7uy773vkfzqzfkfz4g7clhlmdg.py":23:15)
#loc2 = loc("/root/.cache/vllm/torch_compile_cache/torch_aot_compile/61bda05feca29378847c32f031efa5c8dba258f38b0176a06a3e99e41df8ca50/inductor_cache/3w/c3wbudxlkf4rey2yc5qaugp3yp7uy773vkfzqzfkfz4g7clhlmdg.py":27:28)
#loc3 = loc("/root/.cache/vllm/torch_compile_cache/torch_aot_compile/61bda05feca29378847c32f031efa5c8dba258f38b0176a06a3e99e41df8ca50/inductor_cache/3w/c3wbudxlkf4rey2yc5qaugp3yp7uy773vkfzqzfkfz4g7clhlmdg.py":27:33)
#loc4 = loc("/root/.cache/vllm/torch_compile_cache/torch_aot_compile/61bda05feca29378847c32f031efa5c8dba258f38b0176a06a3e99e41df8ca50/inductor_cache/3w/c3wbudxlkf4rey2yc5qaugp3yp7uy773vkfzqzfkfz4g7clhlmdg.py":28:36)
#loc5 = loc("/root/.cache/vllm/torch_compile_cache/torch_aot_compile/61bda05feca29378847c32f031efa5c8dba258f38b0176a06a3e99e41df8ca50/inductor_cache/3w/c3wbudxlkf4rey2yc5qaugp3yp7uy773vkfzqzfkfz4g7clhlmdg.py":28:44)
#loc6 = loc("/root/.cache/vllm/torch_compile_cache/torch_aot_compile/61bda05feca29378847c32f031efa5c8dba258f38b0176a06a3e99e41df8ca50/inductor_cache/3w/c3wbudxlkf4rey2yc5qaugp3yp7uy773vkfzqzfkfz4g7clhlmdg.py":28:23)
#loc7 = loc("/root/.cache/vllm/torch_compile_cache/torch_aot_compile/61bda05feca29378847c32f031efa5c8dba258f38b0176a06a3e99e41df8ca50/inductor_cache/3w/c3wbudxlkf4rey2yc5qaugp3yp7uy773vkfzqzfkfz4g7clhlmdg.py":29:21)
#loc8 = loc("/root/.cache/vllm/torch_compile_cache/torch_aot_compile/61bda05feca29378847c32f031efa5c8dba258f38b0176a06a3e99e41df8ca50/inductor_cache/3w/c3wbudxlkf4rey2yc5qaugp3yp7uy773vkfzqzfkfz4g7clhlmdg.py":30:28)
#loc9 = loc("/root/.cache/vllm/torch_compile_cache/torch_aot_compile/61bda05feca29378847c32f031efa5c8dba258f38b0176a06a3e99e41df8ca50/inductor_cache/3w/c3wbudxlkf4rey2yc5qaugp3yp7uy773vkfzqzfkfz4g7clhlmdg.py":30:38)
#loc10 = loc("/root/.cache/vllm/torch_compile_cache/torch_aot_compile/61bda05feca29378847c32f031efa5c8dba258f38b0176a06a3e99e41df8ca50/inductor_cache/3w/c3wbudxlkf4rey2yc5qaugp3yp7uy773vkfzqzfkfz4g7clhlmdg.py":31:16)
#loc11 = loc("/root/.cache/vllm/torch_compile_cache/torch_aot_compile/61bda05feca29378847c32f031efa5c8dba258f38b0176a06a3e99e41df8ca50/inductor_cache/3w/c3wbudxlkf4rey2yc5qaugp3yp7uy773vkfzqzfkfz4g7clhlmdg.py":32:40)
#loc12 = loc("/root/.cache/vllm/torch_compile_cache/torch_aot_compile/61bda05feca29378847c32f031efa5c8dba258f38b0176a06a3e99e41df8ca50/inductor_cache/3w/c3wbudxlkf4rey2yc5qaugp3yp7uy773vkfzqzfkfz4g7clhlmdg.py":32:49)
#loc13 = loc("/root/.cache/vllm/torch_compile_cache/torch_aot_compile/61bda05feca29378847c32f031efa5c8dba258f38b0176a06a3e99e41df8ca50/inductor_cache/3w/c3wbudxlkf4rey2yc5qaugp3yp7uy773vkfzqzfkfz4g7clhlmdg.py":37:41)
#loc14 = loc("/root/.cache/vllm/torch_compile_cache/torch_aot_compile/61bda05feca29378847c32f031efa5c8dba258f38b0176a06a3e99e41df8ca50/inductor_cache/3w/c3wbudxlkf4rey2yc5qaugp3yp7uy773vkfzqzfkfz4g7clhlmdg.py":37:37)
#loc15 = loc("/root/.cache/vllm/torch_compile_cache/torch_aot_compile/61bda05feca29378847c32f031efa5c8dba258f38b0176a06a3e99e41df8ca50/inductor_cache/3w/c3wbudxlkf4rey2yc5qaugp3yp7uy773vkfzqzfkfz4g7clhlmdg.py":37:30)
#loc16 = loc("/root/.cache/vllm/torch_compile_cache/torch_aot_compile/61bda05feca29378847c32f031efa5c8dba258f38b0176a06a3e99e41df8ca50/inductor_cache/3w/c3wbudxlkf4rey2yc5qaugp3yp7uy773vkfzqzfkfz4g7clhlmdg.py":37:46)
#loc17 = loc("/root/.cache/vllm/torch_compile_cache/torch_aot_compile/61bda05feca29378847c32f031efa5c8dba258f38b0176a06a3e99e41df8ca50/inductor_cache/3w/c3wbudxlkf4rey2yc5qaugp3yp7uy773vkfzqzfkfz4g7clhlmdg.py":37:67)
#loc18 = loc("/root/.cache/vllm/torch_compile_cache/torch_aot_compile/61bda05feca29378847c32f031efa5c8dba258f38b0176a06a3e99e41df8ca50/inductor_cache/3w/c3wbudxlkf4rey2yc5qaugp3yp7uy773vkfzqzfkfz4g7clhlmdg.py":38:31)
#loc19 = loc("/root/.cache/vllm/torch_compile_cache/torch_aot_compile/61bda05feca29378847c32f031efa5c8dba258f38b0176a06a3e99e41df8ca50/inductor_cache/3w/c3wbudxlkf4rey2yc5qaugp3yp7uy773vkfzqzfkfz4g7clhlmdg.py":38:38)
#loc20 = loc("/root/.cache/vllm/torch_compile_cache/torch_aot_compile/61bda05feca29378847c32f031efa5c8dba258f38b0176a06a3e99e41df8ca50/inductor_cache/3w/c3wbudxlkf4rey2yc5qaugp3yp7uy773vkfzqzfkfz4g7clhlmdg.py":38:77)
#loc21 = loc("/root/.cache/vllm/torch_compile_cache/torch_aot_compile/61bda05feca29378847c32f031efa5c8dba258f38b0176a06a3e99e41df8ca50/inductor_cache/3w/c3wbudxlkf4rey2yc5qaugp3yp7uy773vkfzqzfkfz4g7clhlmdg.py":39:49)
#loc22 = loc("/root/.cache/vllm/torch_compile_cache/torch_aot_compile/61bda05feca29378847c32f031efa5c8dba258f38b0176a06a3e99e41df8ca50/inductor_cache/3w/c3wbudxlkf4rey2yc5qaugp3yp7uy773vkfzqzfkfz4g7clhlmdg.py":39:44)
#loc23 = loc("/root/.cache/vllm/torch_compile_cache/torch_aot_compile/61bda05feca29378847c32f031efa5c8dba258f38b0176a06a3e99e41df8ca50/inductor_cache/3w/c3wbudxlkf4rey2yc5qaugp3yp7uy773vkfzqzfkfz4g7clhlmdg.py":39:38)
#loc24 = loc("/root/.cache/vllm/torch_compile_cache/torch_aot_compile/61bda05feca29378847c32f031efa5c8dba258f38b0176a06a3e99e41df8ca50/inductor_cache/3w/c3wbudxlkf4rey2yc5qaugp3yp7uy773vkfzqzfkfz4g7clhlmdg.py":39:68)
#loc25 = loc("/root/.cache/vllm/torch_compile_cache/torch_aot_compile/61bda05feca29378847c32f031efa5c8dba258f38b0176a06a3e99e41df8ca50/inductor_cache/3w/c3wbudxlkf4rey2yc5qaugp3yp7uy773vkfzqzfkfz4g7clhlmdg.py":39:62)
#loc26 = loc("/root/.cache/vllm/torch_compile_cache/torch_aot_compile/61bda05feca29378847c32f031efa5c8dba258f38b0176a06a3e99e41df8ca50/inductor_cache/3w/c3wbudxlkf4rey2yc5qaugp3yp7uy773vkfzqzfkfz4g7clhlmdg.py":39:56)
#loc27 = loc("/root/.cache/vllm/torch_compile_cache/torch_aot_compile/61bda05feca29378847c32f031efa5c8dba258f38b0176a06a3e99e41df8ca50/inductor_cache/3w/c3wbudxlkf4rey2yc5qaugp3yp7uy773vkfzqzfkfz4g7clhlmdg.py":39:31)
#loc28 = loc("/root/.cache/vllm/torch_compile_cache/torch_aot_compile/61bda05feca29378847c32f031efa5c8dba258f38b0176a06a3e99e41df8ca50/inductor_cache/3w/c3wbudxlkf4rey2yc5qaugp3yp7uy773vkfzqzfkfz4g7clhlmdg.py":39:74)
#loc29 = loc("/root/.cache/vllm/torch_compile_cache/torch_aot_compile/61bda05feca29378847c32f031efa5c8dba258f38b0176a06a3e99e41df8ca50/inductor_cache/3w/c3wbudxlkf4rey2yc5qaugp3yp7uy773vkfzqzfkfz4g7clhlmdg.py":39:95)
#loc30 = loc("/root/.cache/vllm/torch_compile_cache/torch_aot_compile/61bda05feca29378847c32f031efa5c8dba258f38b0176a06a3e99e41df8ca50/inductor_cache/3w/c3wbudxlkf4rey2yc5qaugp3yp7uy773vkfzqzfkfz4g7clhlmdg.py":41:18)
#loc31 = loc("/root/.cache/vllm/torch_compile_cache/torch_aot_compile/61bda05feca29378847c32f031efa5c8dba258f38b0176a06a3e99e41df8ca50/inductor_cache/3w/c3wbudxlkf4rey2yc5qaugp3yp7uy773vkfzqzfkfz4g7clhlmdg.py":43:33)
#loc32 = loc("/root/.cache/vllm/torch_compile_cache/torch_aot_compile/61bda05feca29378847c32f031efa5c8dba258f38b0176a06a3e99e41df8ca50/inductor_cache/3w/c3wbudxlkf4rey2yc5qaugp3yp7uy773vkfzqzfkfz4g7clhlmdg.py":44:24)
#loc33 = loc("/root/.cache/vllm/torch_compile_cache/torch_aot_compile/61bda05feca29378847c32f031efa5c8dba258f38b0176a06a3e99e41df8ca50/inductor_cache/3w/c3wbudxlkf4rey2yc5qaugp3yp7uy773vkfzqzfkfz4g7clhlmdg.py":44:27)
#loc34 = loc("/root/.cache/vllm/torch_compile_cache/torch_aot_compile/61bda05feca29378847c32f031efa5c8dba258f38b0176a06a3e99e41df8ca50/inductor_cache/3w/c3wbudxlkf4rey2yc5qaugp3yp7uy773vkfzqzfkfz4g7clhlmdg.py":45:34)
#loc35 = loc("/root/.cache/vllm/torch_compile_cache/torch_aot_compile/61bda05feca29378847c32f031efa5c8dba258f38b0176a06a3e99e41df8ca50/inductor_cache/3w/c3wbudxlkf4rey2yc5qaugp3yp7uy773vkfzqzfkfz4g7clhlmdg.py":46:19)
#loc36 = loc("/root/.cache/vllm/torch_compile_cache/torch_aot_compile/61bda05feca29378847c32f031efa5c8dba258f38b0176a06a3e99e41df8ca50/inductor_cache/3w/c3wbudxlkf4rey2yc5qaugp3yp7uy773vkfzqzfkfz4g7clhlmdg.py":47:34)
#loc37 = loc("/root/.cache/vllm/torch_compile_cache/torch_aot_compile/61bda05feca29378847c32f031efa5c8dba258f38b0176a06a3e99e41df8ca50/inductor_cache/3w/c3wbudxlkf4rey2yc5qaugp3yp7uy773vkfzqzfkfz4g7clhlmdg.py":48:19)
#loc38 = loc("/root/.cache/vllm/torch_compile_cache/torch_aot_compile/61bda05feca29378847c32f031efa5c8dba258f38b0176a06a3e99e41df8ca50/inductor_cache/3w/c3wbudxlkf4rey2yc5qaugp3yp7uy773vkfzqzfkfz4g7clhlmdg.py":49:28)
#loc39 = loc("/root/.cache/vllm/torch_compile_cache/torch_aot_compile/61bda05feca29378847c32f031efa5c8dba258f38b0176a06a3e99e41df8ca50/inductor_cache/3w/c3wbudxlkf4rey2yc5qaugp3yp7uy773vkfzqzfkfz4g7clhlmdg.py":50:19)
#loc40 = loc("/root/.cache/vllm/torch_compile_cache/torch_aot_compile/61bda05feca29378847c32f031efa5c8dba258f38b0176a06a3e99e41df8ca50/inductor_cache/3w/c3wbudxlkf4rey2yc5qaugp3yp7uy773vkfzqzfkfz4g7clhlmdg.py":52:20)
#loc41 = loc("/root/.cache/vllm/torch_compile_cache/torch_aot_compile/61bda05feca29378847c32f031efa5c8dba258f38b0176a06a3e99e41df8ca50/inductor_cache/3w/c3wbudxlkf4rey2yc5qaugp3yp7uy773vkfzqzfkfz4g7clhlmdg.py":54:13)
#loc42 = loc("/root/.cache/vllm/torch_compile_cache/torch_aot_compile/61bda05feca29378847c32f031efa5c8dba258f38b0176a06a3e99e41df8ca50/inductor_cache/3w/c3wbudxlkf4rey2yc5qaugp3yp7uy773vkfzqzfkfz4g7clhlmdg.py":55:26)
#loc43 = loc("/root/.cache/vllm/torch_compile_cache/torch_aot_compile/61bda05feca29378847c32f031efa5c8dba258f38b0176a06a3e99e41df8ca50/inductor_cache/3w/c3wbudxlkf4rey2yc5qaugp3yp7uy773vkfzqzfkfz4g7clhlmdg.py":56:33)
#loc44 = loc("/root/.cache/vllm/torch_compile_cache/torch_aot_compile/61bda05feca29378847c32f031efa5c8dba258f38b0176a06a3e99e41df8ca50/inductor_cache/3w/c3wbudxlkf4rey2yc5qaugp3yp7uy773vkfzqzfkfz4g7clhlmdg.py":57:20)
#loc45 = loc("/root/.cache/vllm/torch_compile_cache/torch_aot_compile/61bda05feca29378847c32f031efa5c8dba258f38b0176a06a3e99e41df8ca50/inductor_cache/3w/c3wbudxlkf4rey2yc5qaugp3yp7uy773vkfzqzfkfz4g7clhlmdg.py":58:21)
#loc46 = loc("/root/.cache/vllm/torch_compile_cache/torch_aot_compile/61bda05feca29378847c32f031efa5c8dba258f38b0176a06a3e99e41df8ca50/inductor_cache/3w/c3wbudxlkf4rey2yc5qaugp3yp7uy773vkfzqzfkfz4g7clhlmdg.py":59:20)
#loc47 = loc("/root/.cache/vllm/torch_compile_cache/torch_aot_compile/61bda05feca29378847c32f031efa5c8dba258f38b0176a06a3e99e41df8ca50/inductor_cache/3w/c3wbudxlkf4rey2yc5qaugp3yp7uy773vkfzqzfkfz4g7clhlmdg.py":61:36)
#loc48 = loc("/root/.cache/vllm/torch_compile_cache/torch_aot_compile/61bda05feca29378847c32f031efa5c8dba258f38b0176a06a3e99e41df8ca50/inductor_cache/3w/c3wbudxlkf4rey2yc5qaugp3yp7uy773vkfzqzfkfz4g7clhlmdg.py":61:32)
#loc49 = loc("/root/.cache/vllm/torch_compile_cache/torch_aot_compile/61bda05feca29378847c32f031efa5c8dba258f38b0176a06a3e99e41df8ca50/inductor_cache/3w/c3wbudxlkf4rey2yc5qaugp3yp7uy773vkfzqzfkfz4g7clhlmdg.py":61:25)
#loc50 = loc("/root/.cache/vllm/torch_compile_cache/torch_aot_compile/61bda05feca29378847c32f031efa5c8dba258f38b0176a06a3e99e41df8ca50/inductor_cache/3w/c3wbudxlkf4rey2yc5qaugp3yp7uy773vkfzqzfkfz4g7clhlmdg.py":61:48)
#loc51 = loc("/root/.cache/vllm/torch_compile_cache/torch_aot_compile/61bda05feca29378847c32f031efa5c8dba258f38b0176a06a3e99e41df8ca50/inductor_cache/3w/c3wbudxlkf4rey2yc5qaugp3yp7uy773vkfzqzfkfz4g7clhlmdg.py":61:4)
#loc53 = loc("/usr/local/lib/python3.12/dist-packages/triton/language/standard.py":293:36)
#loc55 = loc("/usr/local/lib/python3.12/dist-packages/triton/language/standard.py":293:11)
#loc56 = loc("/usr/local/lib/python3.12/dist-packages/triton/language/standard.py":293:4)
#loc58 = loc("/usr/local/lib/python3.12/dist-packages/triton/language/standard.py":263:15)
#loc59 = loc("/usr/local/lib/python3.12/dist-packages/triton/language/standard.py":263:11)
#loc60 = loc("/usr/local/lib/python3.12/dist-packages/triton/language/standard.py":263:4)
#loc67 = loc("r0_numel"(#loc1))
#loc68 = loc("xoffset"(#loc2))
#loc69 = loc("xoffset"(#loc3))
#loc70 = loc("xindex"(#loc4))
#loc71 = loc("xindex"(#loc5))
#loc72 = loc("xindex"(#loc6))
#loc73 = loc("xmask"(#loc7))
#loc74 = loc("r0_index"(#loc8))
#loc75 = loc("r0_index"(#loc9))
#loc76 = loc("r0_offset"(#loc10))
#loc77 = loc("r0_mask"(#loc11))
#loc78 = loc("r0_mask"(#loc12))
#loc79 = loc("tmp0"(#loc13))
#loc80 = loc("tmp0"(#loc14))
#loc81 = loc("tmp0"(#loc15))
#loc82 = loc("tmp0"(#loc16))
#loc83 = loc("tmp0"(#loc17))
#loc84 = loc("tmp13"(#loc18))
#loc85 = loc("tmp13"(#loc19))
#loc86 = loc("tmp13"(#loc20))
#loc87 = loc("tmp16"(#loc21))
#loc88 = loc("tmp16"(#loc22))
#loc89 = loc("tmp16"(#loc23))
#loc90 = loc("tmp16"(#loc24))
#loc91 = loc("tmp16"(#loc25))
#loc92 = loc("tmp16"(#loc26))
#loc93 = loc("tmp16"(#loc27))
#loc94 = loc("tmp16"(#loc28))
#loc95 = loc("tmp16"(#loc29))
#loc96 = loc("tmp2"(#loc30))
#loc97 = loc("tmp5"(#loc31))
#loc98 = loc("tmp6"(#loc32))
#loc99 = loc("tmp6"(#loc33))
#loc100 = loc("tmp7"(#loc34))
#loc101 = loc("tmp8"(#loc35))
#loc102 = loc("tmp9"(#loc36))
#loc103 = loc("tmp10"(#loc37))
#loc104 = loc("tmp11"(#loc38))
#loc105 = loc("tmp12"(#loc39))
#loc106 = loc("tmp15"(#loc40))
#loc107 = loc("tmp18"(#loc41))
#loc108 = loc("tmp19"(#loc42))
#loc109 = loc("tmp20"(#loc43))
#loc110 = loc("tmp21"(#loc44))
#loc111 = loc("tmp22"(#loc45))
#loc112 = loc("tmp23"(#loc46))
