#loc = loc("/root/.cache/vllm/torch_compile_cache/torch_aot_compile/61bda05feca29378847c32f031efa5c8dba258f38b0176a06a3e99e41df8ca50/inductor_cache/zr/czrpodugeuc7q3bn4imcx7ooczpdja3pil5fjolr3qefiqmnj4tj.py":18:0)
#loc35 = loc("in_ptr0"(#loc))
#loc36 = loc("out_ptr0"(#loc))
#loc37 = loc("ks0"(#loc))
#loc38 = loc("ks1"(#loc))
#loc39 = loc("xnumel"(#loc))
module {
  tt.func public @triton_poi_fused_mul_silu_slice_0(%in_ptr0: !tt.ptr<f16> {tt.divisibility = 16 : i32} loc("in_ptr0"(#loc)), %out_ptr0: !tt.ptr<f16> {tt.divisibility = 16 : i32} loc("out_ptr0"(#loc)), %ks0: i64 loc("ks0"(#loc)), %ks1: i64 loc("ks1"(#loc)), %xnumel: i32 loc("xnumel"(#loc))) attributes {noinline = false} {
    %xoffset = tt.get_program_id x : i32 loc(#loc40)
    %xoffset_0 = arith.constant 512 : i32 loc(#loc41)
    %xoffset_1 = arith.constant 512 : i32 loc(#loc41)
    %xoffset_2 = arith.muli %xoffset, %xoffset_1 : i32 loc(#loc41)
    %xindex = tt.make_range {end = 512 : i32, start = 0 : i32} : tensor<512xi32> loc(#loc42)
    %xindex_3 = tt.splat %xoffset_2 : i32 -> tensor<512xi32> loc(#loc43)
    %xindex_4 = arith.addi %xindex_3, %xindex : tensor<512xi32> loc(#loc43)
    %xmask = tt.splat %xnumel : i32 -> tensor<512xi32> loc(#loc44)
    %xmask_5 = arith.cmpi slt, %xindex_4, %xmask : tensor<512xi32> loc(#loc44)
    %x0 = arith.extsi %xindex_4 : tensor<512xi32> to tensor<512xi64> loc(#loc45)
    %x0_6 = tt.splat %ks0 : i64 -> tensor<512xi64> loc(#loc45)
    %x0_7 = arith.remsi %x0, %x0_6 : tensor<512xi64> loc(#loc45)
    %x1 = arith.extsi %xindex_4 : tensor<512xi32> to tensor<512xi64> loc(#loc46)
    %x1_8 = tt.splat %ks0 : i64 -> tensor<512xi64> loc(#loc46)
    %x1_9 = arith.divsi %x1, %x1_8 : tensor<512xi64> loc(#loc46)
    %tmp0 = tt.splat %ks1 : i64 -> tensor<512xi64> loc(#loc47)
    %tmp0_10 = arith.muli %tmp0, %x1_9 : tensor<512xi64> loc(#loc47)
    %tmp0_11 = arith.addi %x0_7, %tmp0_10 : tensor<512xi64> loc(#loc48)
    %tmp0_12 = tt.splat %in_ptr0 : !tt.ptr<f16> -> tensor<512x!tt.ptr<f16>> loc(#loc49)
    %tmp0_13 = tt.addptr %tmp0_12, %tmp0_11 : tensor<512x!tt.ptr<f16>>, tensor<512xi64> loc(#loc49)
    %tmp0_14 = tt.load %tmp0_13, %xmask_5 evictionPolicy = evict_last : tensor<512x!tt.ptr<f16>> loc(#loc50)
    %tmp0_15 = arith.extf %tmp0_14 : tensor<512xf16> to tensor<512xf32> loc(#loc51)
    %tmp8 = tt.splat %ks0 : i64 -> tensor<512xi64> loc(#loc52)
    %tmp8_16 = arith.addi %tmp8, %x0_7 : tensor<512xi64> loc(#loc52)
    %tmp8_17 = tt.splat %ks1 : i64 -> tensor<512xi64> loc(#loc53)
    %tmp8_18 = arith.muli %tmp8_17, %x1_9 : tensor<512xi64> loc(#loc53)
    %tmp8_19 = arith.addi %tmp8_16, %tmp8_18 : tensor<512xi64> loc(#loc54)
    %tmp8_20 = tt.splat %in_ptr0 : !tt.ptr<f16> -> tensor<512x!tt.ptr<f16>> loc(#loc55)
    %tmp8_21 = tt.addptr %tmp8_20, %tmp8_19 : tensor<512x!tt.ptr<f16>>, tensor<512xi64> loc(#loc55)
    %tmp8_22 = tt.load %tmp8_21, %xmask_5 evictionPolicy = evict_last : tensor<512x!tt.ptr<f16>> loc(#loc56)
    %tmp8_23 = arith.extf %tmp8_22 : tensor<512xf16> to tensor<512xf32> loc(#loc57)
    %tmp2 = arith.constant 0.000000e+00 : f32 loc(#loc58)
    %tmp2_24 = arith.constant dense<0.000000e+00> : tensor<512xf32> loc(#loc58)
    %tmp2_25 = arith.subf %tmp2_24, %tmp0_15 : tensor<512xf32> loc(#loc58)
    %tmp3 = tt.extern_elementwise %tmp2_25 {libname = "", libpath = "", pure = true, symbol = "__nv_expf"} : (tensor<512xf32>) -> tensor<512xf32> loc(#loc59)
    %tmp4 = arith.constant 1.000000e+00 : f32 loc(#loc60)
    %tmp4_26 = arith.constant dense<1.000000e+00> : tensor<1xf32> loc(#loc60)
    %tmp5 = arith.constant dense<1.000000e+00> : tensor<512xf32> loc(#loc61)
    %tmp5_27 = arith.addf %tmp3, %tmp5 : tensor<512xf32> loc(#loc61)
    %tmp6 = arith.divf %tmp0_15, %tmp5_27 : tensor<512xf32> loc(#loc62)
    %tmp9 = arith.mulf %tmp6, %tmp8_23 : tensor<512xf32> loc(#loc63)
    %c1_i32 = arith.constant 1 : i32 loc(#loc25)
    %0 = arith.extsi %c1_i32 : i32 to i64 loc(#loc25)
    %1 = arith.cmpi sge, %0, %ks0 : i64 loc(#loc25)
    %c1_i32_28 = arith.constant 1 : i32 loc(#loc26)
    %c1_i32_29 = arith.constant 1 : i32 loc(#loc26)
    %2 = arith.extui %1 : i1 to i32 loc(#loc26)
    %3 = arith.muli %c1_i32_29, %2 : i32 loc(#loc26)
    %c1_i32_30 = arith.constant 1 : i32 loc(#loc27)
    %4 = arith.extsi %c1_i32_30 : i32 to i64 loc(#loc27)
    %5 = arith.cmpi sgt, %ks0, %4 : i64 loc(#loc27)
    %6 = arith.extui %5 : i1 to i64 loc(#loc28)
    %7 = arith.muli %ks0, %6 : i64 loc(#loc28)
    %8 = arith.extsi %3 : i32 to i64 loc(#loc29)
    %9 = arith.addi %8, %7 : i64 loc(#loc29)
    %10 = tt.splat %9 : i64 -> tensor<512xi64> loc(#loc30)
    %11 = arith.muli %x1_9, %10 : tensor<512xi64> loc(#loc30)
    %12 = arith.addi %x0_7, %11 : tensor<512xi64> loc(#loc31)
    %13 = tt.splat %out_ptr0 : !tt.ptr<f16> -> tensor<512x!tt.ptr<f16>> loc(#loc32)
    %14 = tt.addptr %13, %12 : tensor<512x!tt.ptr<f16>>, tensor<512xi64> loc(#loc32)
    %15 = arith.truncf %tmp9 : tensor<512xf32> to tensor<512xf16> loc(#loc33)
    tt.store %14, %15, %xmask_5 : tensor<512x!tt.ptr<f16>> loc(#loc33)
    tt.return loc(#loc34)
  } loc(#loc)
} loc(#loc)
#loc1 = loc("/root/.cache/vllm/torch_compile_cache/torch_aot_compile/61bda05feca29378847c32f031efa5c8dba258f38b0176a06a3e99e41df8ca50/inductor_cache/zr/czrpodugeuc7q3bn4imcx7ooczpdja3pil5fjolr3qefiqmnj4tj.py":19:28)
#loc2 = loc("/root/.cache/vllm/torch_compile_cache/torch_aot_compile/61bda05feca29378847c32f031efa5c8dba258f38b0176a06a3e99e41df8ca50/inductor_cache/zr/czrpodugeuc7q3bn4imcx7ooczpdja3pil5fjolr3qefiqmnj4tj.py":19:33)
#loc3 = loc("/root/.cache/vllm/torch_compile_cache/torch_aot_compile/61bda05feca29378847c32f031efa5c8dba258f38b0176a06a3e99e41df8ca50/inductor_cache/zr/czrpodugeuc7q3bn4imcx7ooczpdja3pil5fjolr3qefiqmnj4tj.py":20:36)
#loc4 = loc("/root/.cache/vllm/torch_compile_cache/torch_aot_compile/61bda05feca29378847c32f031efa5c8dba258f38b0176a06a3e99e41df8ca50/inductor_cache/zr/czrpodugeuc7q3bn4imcx7ooczpdja3pil5fjolr3qefiqmnj4tj.py":20:23)
#loc5 = loc("/root/.cache/vllm/torch_compile_cache/torch_aot_compile/61bda05feca29378847c32f031efa5c8dba258f38b0176a06a3e99e41df8ca50/inductor_cache/zr/czrpodugeuc7q3bn4imcx7ooczpdja3pil5fjolr3qefiqmnj4tj.py":21:21)
#loc6 = loc("/root/.cache/vllm/torch_compile_cache/torch_aot_compile/61bda05feca29378847c32f031efa5c8dba258f38b0176a06a3e99e41df8ca50/inductor_cache/zr/czrpodugeuc7q3bn4imcx7ooczpdja3pil5fjolr3qefiqmnj4tj.py":22:19)
#loc7 = loc("/root/.cache/vllm/torch_compile_cache/torch_aot_compile/61bda05feca29378847c32f031efa5c8dba258f38b0176a06a3e99e41df8ca50/inductor_cache/zr/czrpodugeuc7q3bn4imcx7ooczpdja3pil5fjolr3qefiqmnj4tj.py":23:19)
#loc8 = loc("/root/.cache/vllm/torch_compile_cache/torch_aot_compile/61bda05feca29378847c32f031efa5c8dba258f38b0176a06a3e99e41df8ca50/inductor_cache/zr/czrpodugeuc7q3bn4imcx7ooczpdja3pil5fjolr3qefiqmnj4tj.py":24:39)
#loc9 = loc("/root/.cache/vllm/torch_compile_cache/torch_aot_compile/61bda05feca29378847c32f031efa5c8dba258f38b0176a06a3e99e41df8ca50/inductor_cache/zr/czrpodugeuc7q3bn4imcx7ooczpdja3pil5fjolr3qefiqmnj4tj.py":24:35)
#loc10 = loc("/root/.cache/vllm/torch_compile_cache/torch_aot_compile/61bda05feca29378847c32f031efa5c8dba258f38b0176a06a3e99e41df8ca50/inductor_cache/zr/czrpodugeuc7q3bn4imcx7ooczpdja3pil5fjolr3qefiqmnj4tj.py":24:30)
#loc11 = loc("/root/.cache/vllm/torch_compile_cache/torch_aot_compile/61bda05feca29378847c32f031efa5c8dba258f38b0176a06a3e99e41df8ca50/inductor_cache/zr/czrpodugeuc7q3bn4imcx7ooczpdja3pil5fjolr3qefiqmnj4tj.py":24:44)
#loc12 = loc("/root/.cache/vllm/torch_compile_cache/torch_aot_compile/61bda05feca29378847c32f031efa5c8dba258f38b0176a06a3e99e41df8ca50/inductor_cache/zr/czrpodugeuc7q3bn4imcx7ooczpdja3pil5fjolr3qefiqmnj4tj.py":24:84)
#loc13 = loc("/root/.cache/vllm/torch_compile_cache/torch_aot_compile/61bda05feca29378847c32f031efa5c8dba258f38b0176a06a3e99e41df8ca50/inductor_cache/zr/czrpodugeuc7q3bn4imcx7ooczpdja3pil5fjolr3qefiqmnj4tj.py":25:36)
#loc14 = loc("/root/.cache/vllm/torch_compile_cache/torch_aot_compile/61bda05feca29378847c32f031efa5c8dba258f38b0176a06a3e99e41df8ca50/inductor_cache/zr/czrpodugeuc7q3bn4imcx7ooczpdja3pil5fjolr3qefiqmnj4tj.py":25:45)
#loc15 = loc("/root/.cache/vllm/torch_compile_cache/torch_aot_compile/61bda05feca29378847c32f031efa5c8dba258f38b0176a06a3e99e41df8ca50/inductor_cache/zr/czrpodugeuc7q3bn4imcx7ooczpdja3pil5fjolr3qefiqmnj4tj.py":25:41)
#loc16 = loc("/root/.cache/vllm/torch_compile_cache/torch_aot_compile/61bda05feca29378847c32f031efa5c8dba258f38b0176a06a3e99e41df8ca50/inductor_cache/zr/czrpodugeuc7q3bn4imcx7ooczpdja3pil5fjolr3qefiqmnj4tj.py":25:30)
#loc17 = loc("/root/.cache/vllm/torch_compile_cache/torch_aot_compile/61bda05feca29378847c32f031efa5c8dba258f38b0176a06a3e99e41df8ca50/inductor_cache/zr/czrpodugeuc7q3bn4imcx7ooczpdja3pil5fjolr3qefiqmnj4tj.py":25:50)
#loc18 = loc("/root/.cache/vllm/torch_compile_cache/torch_aot_compile/61bda05feca29378847c32f031efa5c8dba258f38b0176a06a3e99e41df8ca50/inductor_cache/zr/czrpodugeuc7q3bn4imcx7ooczpdja3pil5fjolr3qefiqmnj4tj.py":25:90)
#loc19 = loc("/root/.cache/vllm/torch_compile_cache/torch_aot_compile/61bda05feca29378847c32f031efa5c8dba258f38b0176a06a3e99e41df8ca50/inductor_cache/zr/czrpodugeuc7q3bn4imcx7ooczpdja3pil5fjolr3qefiqmnj4tj.py":27:12)
#loc20 = loc("/root/.cache/vllm/torch_compile_cache/torch_aot_compile/61bda05feca29378847c32f031efa5c8dba258f38b0176a06a3e99e41df8ca50/inductor_cache/zr/czrpodugeuc7q3bn4imcx7ooczpdja3pil5fjolr3qefiqmnj4tj.py":28:25)
#loc21 = loc("/root/.cache/vllm/torch_compile_cache/torch_aot_compile/61bda05feca29378847c32f031efa5c8dba258f38b0176a06a3e99e41df8ca50/inductor_cache/zr/czrpodugeuc7q3bn4imcx7ooczpdja3pil5fjolr3qefiqmnj4tj.py":29:29)
#loc22 = loc("/root/.cache/vllm/torch_compile_cache/torch_aot_compile/61bda05feca29378847c32f031efa5c8dba258f38b0176a06a3e99e41df8ca50/inductor_cache/zr/czrpodugeuc7q3bn4imcx7ooczpdja3pil5fjolr3qefiqmnj4tj.py":30:18)
#loc23 = loc("/root/.cache/vllm/torch_compile_cache/torch_aot_compile/61bda05feca29378847c32f031efa5c8dba258f38b0176a06a3e99e41df8ca50/inductor_cache/zr/czrpodugeuc7q3bn4imcx7ooczpdja3pil5fjolr3qefiqmnj4tj.py":31:19)
#loc24 = loc("/root/.cache/vllm/torch_compile_cache/torch_aot_compile/61bda05feca29378847c32f031efa5c8dba258f38b0176a06a3e99e41df8ca50/inductor_cache/zr/czrpodugeuc7q3bn4imcx7ooczpdja3pil5fjolr3qefiqmnj4tj.py":33:18)
#loc25 = loc("/root/.cache/vllm/torch_compile_cache/torch_aot_compile/61bda05feca29378847c32f031efa5c8dba258f38b0176a06a3e99e41df8ca50/inductor_cache/zr/czrpodugeuc7q3bn4imcx7ooczpdja3pil5fjolr3qefiqmnj4tj.py":34:49)
#loc26 = loc("/root/.cache/vllm/torch_compile_cache/torch_aot_compile/61bda05feca29378847c32f031efa5c8dba258f38b0176a06a3e99e41df8ca50/inductor_cache/zr/czrpodugeuc7q3bn4imcx7ooczpdja3pil5fjolr3qefiqmnj4tj.py":34:41)
#loc27 = loc("/root/.cache/vllm/torch_compile_cache/torch_aot_compile/61bda05feca29378847c32f031efa5c8dba258f38b0176a06a3e99e41df8ca50/inductor_cache/zr/czrpodugeuc7q3bn4imcx7ooczpdja3pil5fjolr3qefiqmnj4tj.py":34:75)
#loc28 = loc("/root/.cache/vllm/torch_compile_cache/torch_aot_compile/61bda05feca29378847c32f031efa5c8dba258f38b0176a06a3e99e41df8ca50/inductor_cache/zr/czrpodugeuc7q3bn4imcx7ooczpdja3pil5fjolr3qefiqmnj4tj.py":34:66)
#loc29 = loc("/root/.cache/vllm/torch_compile_cache/torch_aot_compile/61bda05feca29378847c32f031efa5c8dba258f38b0176a06a3e99e41df8ca50/inductor_cache/zr/czrpodugeuc7q3bn4imcx7ooczpdja3pil5fjolr3qefiqmnj4tj.py":34:57)
#loc30 = loc("/root/.cache/vllm/torch_compile_cache/torch_aot_compile/61bda05feca29378847c32f031efa5c8dba258f38b0176a06a3e99e41df8ca50/inductor_cache/zr/czrpodugeuc7q3bn4imcx7ooczpdja3pil5fjolr3qefiqmnj4tj.py":34:34)
#loc31 = loc("/root/.cache/vllm/torch_compile_cache/torch_aot_compile/61bda05feca29378847c32f031efa5c8dba258f38b0176a06a3e99e41df8ca50/inductor_cache/zr/czrpodugeuc7q3bn4imcx7ooczpdja3pil5fjolr3qefiqmnj4tj.py":34:30)
#loc32 = loc("/root/.cache/vllm/torch_compile_cache/torch_aot_compile/61bda05feca29378847c32f031efa5c8dba258f38b0176a06a3e99e41df8ca50/inductor_cache/zr/czrpodugeuc7q3bn4imcx7ooczpdja3pil5fjolr3qefiqmnj4tj.py":34:25)
#loc33 = loc("/root/.cache/vllm/torch_compile_cache/torch_aot_compile/61bda05feca29378847c32f031efa5c8dba258f38b0176a06a3e99e41df8ca50/inductor_cache/zr/czrpodugeuc7q3bn4imcx7ooczpdja3pil5fjolr3qefiqmnj4tj.py":34:88)
#loc34 = loc("/root/.cache/vllm/torch_compile_cache/torch_aot_compile/61bda05feca29378847c32f031efa5c8dba258f38b0176a06a3e99e41df8ca50/inductor_cache/zr/czrpodugeuc7q3bn4imcx7ooczpdja3pil5fjolr3qefiqmnj4tj.py":34:4)
#loc40 = loc("xoffset"(#loc1))
#loc41 = loc("xoffset"(#loc2))
#loc42 = loc("xindex"(#loc3))
#loc43 = loc("xindex"(#loc4))
#loc44 = loc("xmask"(#loc5))
#loc45 = loc("x0"(#loc6))
#loc46 = loc("x1"(#loc7))
#loc47 = loc("tmp0"(#loc8))
#loc48 = loc("tmp0"(#loc9))
#loc49 = loc("tmp0"(#loc10))
#loc50 = loc("tmp0"(#loc11))
#loc51 = loc("tmp0"(#loc12))
#loc52 = loc("tmp8"(#loc13))
#loc53 = loc("tmp8"(#loc14))
#loc54 = loc("tmp8"(#loc15))
#loc55 = loc("tmp8"(#loc16))
#loc56 = loc("tmp8"(#loc17))
#loc57 = loc("tmp8"(#loc18))
#loc58 = loc("tmp2"(#loc19))
#loc59 = loc("tmp3"(#loc20))
#loc60 = loc("tmp4"(#loc21))
#loc61 = loc("tmp5"(#loc22))
#loc62 = loc("tmp6"(#loc23))
#loc63 = loc("tmp9"(#loc24))
