#loc = loc("/root/.cache/vllm/torch_compile_cache/torch_aot_compile/61bda05feca29378847c32f031efa5c8dba258f38b0176a06a3e99e41df8ca50/inductor_cache/cp/ccpsge7mfp27npsag4utjppqvmefecme7x5mpqgvibeul6aocl7n.py":22:0)
#loc1 = loc(unknown)
#loc25 = loc("/root/.cache/vllm/torch_compile_cache/torch_aot_compile/61bda05feca29378847c32f031efa5c8dba258f38b0176a06a3e99e41df8ca50/inductor_cache/cp/ccpsge7mfp27npsag4utjppqvmefecme7x5mpqgvibeul6aocl7n.py":45:25)
#loc31 = loc("in_ptr0"(#loc))
#loc32 = loc("out_ptr0"(#loc))
#loc33 = loc("xnumel"(#loc))
#loc34 = loc("r0_numel"(#loc))
#loc56 = loc("tmp4"(#loc25))
#loc59 = loc(callsite(#loc1 at #loc56))
module {
  tt.func public @triton_(%in_ptr0: !tt.ptr<f16> {tt.divisibility = 16 : i32} loc("in_ptr0"(#loc)), %out_ptr0: !tt.ptr<f32> {tt.divisibility = 16 : i32} loc("out_ptr0"(#loc)), %xnumel: i32 loc("xnumel"(#loc)), %r0_numel: i32 {tt.divisibility = 16 : i32} loc("r0_numel"(#loc))) attributes {noinline = false} {
    %cst = arith.constant dense<0.000000e+00> : tensor<64x4xf16> loc(#loc1)
    %c4_i32 = arith.constant 4 : i32 loc(#loc2)
    %c256_i32 = arith.constant 256 : i32 loc(#loc2)
    %c0_i32 = arith.constant 0 : i32 loc(#loc2)
    %cst_0 = arith.constant dense<4608> : tensor<64x1xi32> loc(#loc1)
    %cst_1 = arith.constant dense<4096> : tensor<1x4xi32> loc(#loc1)
    %cst_2 = arith.constant dense<256> : tensor<1x4xi32> loc(#loc1)
    %cst_3 = arith.constant dense<0.000000e+00> : tensor<64x4xf32> loc(#loc1)
    %c64_i32 = arith.constant 64 : i32 loc(#loc1)
    %xoffset = tt.get_program_id x : i32 loc(#loc35)
    %xoffset_4 = arith.muli %xoffset, %c64_i32 : i32 loc(#loc36)
    %xindex = tt.make_range {end = 64 : i32, start = 0 : i32} : tensor<64xi32> loc(#loc37)
    %xindex_5 = tt.expand_dims %xindex {axis = 1 : i32} : tensor<64xi32> -> tensor<64x1xi32> loc(#loc38)
    %xindex_6 = tt.splat %xoffset_4 : i32 -> tensor<64x1xi32> loc(#loc39)
    %xindex_7 = arith.addi %xindex_6, %xindex_5 : tensor<64x1xi32> loc(#loc39)
    %xmask = tt.splat %xnumel : i32 -> tensor<64x1xi32> loc(#loc40)
    %xmask_8 = arith.cmpi slt, %xindex_7, %xmask : tensor<64x1xi32> loc(#loc40)
    %r0_base = tt.make_range {end = 4 : i32, start = 0 : i32} : tensor<4xi32> loc(#loc41)
    %r0_base_9 = tt.expand_dims %r0_base {axis = 0 : i32} : tensor<4xi32> -> tensor<1x4xi32> loc(#loc42)
    %_tmp4 = scf.for %r0_offset = %c0_i32 to %c256_i32 step %c4_i32 iter_args(%_tmp4_11 = %cst_3) -> (tensor<64x4xf32>)  : i32 {
      %r0_index = tt.splat %r0_offset : i32 -> tensor<1x4xi32> loc(#loc44)
      %r0_index_12 = arith.addi %r0_index, %r0_base_9 : tensor<1x4xi32> loc(#loc44)
      %r0_mask = arith.cmpi slt, %r0_index_12, %cst_2 : tensor<1x4xi32> loc(#loc45)
      %tmp0 = arith.addi %r0_index_12, %cst_1 : tensor<1x4xi32> loc(#loc46)
      %tmp0_13 = arith.muli %xindex_7, %cst_0 : tensor<64x1xi32> loc(#loc47)
      %tmp0_14 = tt.broadcast %tmp0 : tensor<1x4xi32> -> tensor<64x4xi32> loc(#loc48)
      %tmp0_15 = tt.broadcast %tmp0_13 : tensor<64x1xi32> -> tensor<64x4xi32> loc(#loc48)
      %tmp0_16 = arith.addi %tmp0_14, %tmp0_15 : tensor<64x4xi32> loc(#loc48)
      %tmp0_17 = tt.splat %in_ptr0 : !tt.ptr<f16> -> tensor<64x4x!tt.ptr<f16>> loc(#loc49)
      %tmp0_18 = tt.addptr %tmp0_17, %tmp0_16 : tensor<64x4x!tt.ptr<f16>>, tensor<64x4xi32> loc(#loc49)
      %tmp0_19 = tt.broadcast %r0_mask : tensor<1x4xi1> -> tensor<64x4xi1> loc(#loc50)
      %tmp0_20 = tt.broadcast %xmask_8 : tensor<64x1xi1> -> tensor<64x4xi1> loc(#loc50)
      %tmp0_21 = arith.andi %tmp0_19, %tmp0_20 : tensor<64x4xi1> loc(#loc50)
      %tmp0_22 = tt.load %tmp0_18, %tmp0_21, %cst evictionPolicy = evict_first : tensor<64x4x!tt.ptr<f16>> loc(#loc51)
      %tmp0_23 = arith.extf %tmp0_22 : tensor<64x4xf16> to tensor<64x4xf32> loc(#loc52)
      %tmp2 = arith.mulf %tmp0_23, %tmp0_23 : tensor<64x4xf32> loc(#loc53)
      %tmp5 = arith.addf %_tmp4_11, %tmp2 : tensor<64x4xf32> loc(#loc54)
      %_tmp4_24 = arith.select %tmp0_21, %tmp5, %_tmp4_11 : tensor<64x4xi1>, tensor<64x4xf32> loc(#loc55)
      scf.yield %_tmp4_24 : tensor<64x4xf32> loc(#loc23)
    } loc(#loc43)
    %tmp4 = "tt.reduce"(%_tmp4) <{axis = 1 : i32}> ({
    ^bb0(%tmp4_11: f32 loc(callsite(#loc1 at #loc56)), %tmp4_12: f32 loc(callsite(#loc1 at #loc56))):
      %tmp4_13 = arith.addf %tmp4_11, %tmp4_12 : f32 loc(#loc60)
      tt.reduce.return %tmp4_13 : f32 loc(#loc58)
    }) : (tensor<64x4xf32>) -> tensor<64xf32> loc(#loc58)
    %tmp4_10 = tt.expand_dims %tmp4 {axis = 1 : i32} : tensor<64xf32> -> tensor<64x1xf32> loc(#loc57)
    %0 = tt.splat %out_ptr0 : !tt.ptr<f32> -> tensor<64x1x!tt.ptr<f32>> loc(#loc28)
    %1 = tt.addptr %0, %xindex_7 : tensor<64x1x!tt.ptr<f32>>, tensor<64x1xi32> loc(#loc28)
    tt.store %1, %tmp4_10, %xmask_8 : tensor<64x1x!tt.ptr<f32>> loc(#loc29)
    tt.return loc(#loc30)
  } loc(#loc)
} loc(#loc)
#loc2 = loc("/root/.cache/vllm/torch_compile_cache/torch_aot_compile/61bda05feca29378847c32f031efa5c8dba258f38b0176a06a3e99e41df8ca50/inductor_cache/cp/ccpsge7mfp27npsag4utjppqvmefecme7x5mpqgvibeul6aocl7n.py":33:43)
#loc3 = loc("/root/.cache/vllm/torch_compile_cache/torch_aot_compile/61bda05feca29378847c32f031efa5c8dba258f38b0176a06a3e99e41df8ca50/inductor_cache/cp/ccpsge7mfp27npsag4utjppqvmefecme7x5mpqgvibeul6aocl7n.py":26:28)
#loc4 = loc("/root/.cache/vllm/torch_compile_cache/torch_aot_compile/61bda05feca29378847c32f031efa5c8dba258f38b0176a06a3e99e41df8ca50/inductor_cache/cp/ccpsge7mfp27npsag4utjppqvmefecme7x5mpqgvibeul6aocl7n.py":26:33)
#loc5 = loc("/root/.cache/vllm/torch_compile_cache/torch_aot_compile/61bda05feca29378847c32f031efa5c8dba258f38b0176a06a3e99e41df8ca50/inductor_cache/cp/ccpsge7mfp27npsag4utjppqvmefecme7x5mpqgvibeul6aocl7n.py":27:36)
#loc6 = loc("/root/.cache/vllm/torch_compile_cache/torch_aot_compile/61bda05feca29378847c32f031efa5c8dba258f38b0176a06a3e99e41df8ca50/inductor_cache/cp/ccpsge7mfp27npsag4utjppqvmefecme7x5mpqgvibeul6aocl7n.py":27:44)
#loc7 = loc("/root/.cache/vllm/torch_compile_cache/torch_aot_compile/61bda05feca29378847c32f031efa5c8dba258f38b0176a06a3e99e41df8ca50/inductor_cache/cp/ccpsge7mfp27npsag4utjppqvmefecme7x5mpqgvibeul6aocl7n.py":27:23)
#loc8 = loc("/root/.cache/vllm/torch_compile_cache/torch_aot_compile/61bda05feca29378847c32f031efa5c8dba258f38b0176a06a3e99e41df8ca50/inductor_cache/cp/ccpsge7mfp27npsag4utjppqvmefecme7x5mpqgvibeul6aocl7n.py":28:21)
#loc9 = loc("/root/.cache/vllm/torch_compile_cache/torch_aot_compile/61bda05feca29378847c32f031efa5c8dba258f38b0176a06a3e99e41df8ca50/inductor_cache/cp/ccpsge7mfp27npsag4utjppqvmefecme7x5mpqgvibeul6aocl7n.py":29:27)
#loc10 = loc("/root/.cache/vllm/torch_compile_cache/torch_aot_compile/61bda05feca29378847c32f031efa5c8dba258f38b0176a06a3e99e41df8ca50/inductor_cache/cp/ccpsge7mfp27npsag4utjppqvmefecme7x5mpqgvibeul6aocl7n.py":29:37)
#loc11 = loc("/root/.cache/vllm/torch_compile_cache/torch_aot_compile/61bda05feca29378847c32f031efa5c8dba258f38b0176a06a3e99e41df8ca50/inductor_cache/cp/ccpsge7mfp27npsag4utjppqvmefecme7x5mpqgvibeul6aocl7n.py":34:31)
#loc12 = loc("/root/.cache/vllm/torch_compile_cache/torch_aot_compile/61bda05feca29378847c32f031efa5c8dba258f38b0176a06a3e99e41df8ca50/inductor_cache/cp/ccpsge7mfp27npsag4utjppqvmefecme7x5mpqgvibeul6aocl7n.py":35:29)
#loc13 = loc("/root/.cache/vllm/torch_compile_cache/torch_aot_compile/61bda05feca29378847c32f031efa5c8dba258f38b0176a06a3e99e41df8ca50/inductor_cache/cp/ccpsge7mfp27npsag4utjppqvmefecme7x5mpqgvibeul6aocl7n.py":39:41)
#loc14 = loc("/root/.cache/vllm/torch_compile_cache/torch_aot_compile/61bda05feca29378847c32f031efa5c8dba258f38b0176a06a3e99e41df8ca50/inductor_cache/cp/ccpsge7mfp27npsag4utjppqvmefecme7x5mpqgvibeul6aocl7n.py":39:53)
#loc15 = loc("/root/.cache/vllm/torch_compile_cache/torch_aot_compile/61bda05feca29378847c32f031efa5c8dba258f38b0176a06a3e99e41df8ca50/inductor_cache/cp/ccpsge7mfp27npsag4utjppqvmefecme7x5mpqgvibeul6aocl7n.py":39:48)
#loc16 = loc("/root/.cache/vllm/torch_compile_cache/torch_aot_compile/61bda05feca29378847c32f031efa5c8dba258f38b0176a06a3e99e41df8ca50/inductor_cache/cp/ccpsge7mfp27npsag4utjppqvmefecme7x5mpqgvibeul6aocl7n.py":39:34)
#loc17 = loc("/root/.cache/vllm/torch_compile_cache/torch_aot_compile/61bda05feca29378847c32f031efa5c8dba258f38b0176a06a3e99e41df8ca50/inductor_cache/cp/ccpsge7mfp27npsag4utjppqvmefecme7x5mpqgvibeul6aocl7n.py":39:68)
#loc18 = loc("/root/.cache/vllm/torch_compile_cache/torch_aot_compile/61bda05feca29378847c32f031efa5c8dba258f38b0176a06a3e99e41df8ca50/inductor_cache/cp/ccpsge7mfp27npsag4utjppqvmefecme7x5mpqgvibeul6aocl7n.py":39:58)
#loc19 = loc("/root/.cache/vllm/torch_compile_cache/torch_aot_compile/61bda05feca29378847c32f031efa5c8dba258f38b0176a06a3e99e41df8ca50/inductor_cache/cp/ccpsge7mfp27npsag4utjppqvmefecme7x5mpqgvibeul6aocl7n.py":39:120)
#loc20 = loc("/root/.cache/vllm/torch_compile_cache/torch_aot_compile/61bda05feca29378847c32f031efa5c8dba258f38b0176a06a3e99e41df8ca50/inductor_cache/cp/ccpsge7mfp27npsag4utjppqvmefecme7x5mpqgvibeul6aocl7n.py":41:22)
#loc21 = loc("/root/.cache/vllm/torch_compile_cache/torch_aot_compile/61bda05feca29378847c32f031efa5c8dba258f38b0176a06a3e99e41df8ca50/inductor_cache/cp/ccpsge7mfp27npsag4utjppqvmefecme7x5mpqgvibeul6aocl7n.py":43:23)
#loc22 = loc("/root/.cache/vllm/torch_compile_cache/torch_aot_compile/61bda05feca29378847c32f031efa5c8dba258f38b0176a06a3e99e41df8ca50/inductor_cache/cp/ccpsge7mfp27npsag4utjppqvmefecme7x5mpqgvibeul6aocl7n.py":44:48)
#loc23 = loc("/root/.cache/vllm/torch_compile_cache/torch_aot_compile/61bda05feca29378847c32f031efa5c8dba258f38b0176a06a3e99e41df8ca50/inductor_cache/cp/ccpsge7mfp27npsag4utjppqvmefecme7x5mpqgvibeul6aocl7n.py":44:8)
#loc24 = loc("/usr/local/lib/python3.12/dist-packages/triton/language/standard.py":293:36)
#loc26 = loc("/usr/local/lib/python3.12/dist-packages/triton/language/standard.py":263:15)
#loc27 = loc("/root/.cache/vllm/torch_compile_cache/torch_aot_compile/61bda05feca29378847c32f031efa5c8dba258f38b0176a06a3e99e41df8ca50/inductor_cache/cp/ccpsge7mfp27npsag4utjppqvmefecme7x5mpqgvibeul6aocl7n.py":45:28)
#loc28 = loc("/root/.cache/vllm/torch_compile_cache/torch_aot_compile/61bda05feca29378847c32f031efa5c8dba258f38b0176a06a3e99e41df8ca50/inductor_cache/cp/ccpsge7mfp27npsag4utjppqvmefecme7x5mpqgvibeul6aocl7n.py":46:25)
#loc29 = loc("/root/.cache/vllm/torch_compile_cache/torch_aot_compile/61bda05feca29378847c32f031efa5c8dba258f38b0176a06a3e99e41df8ca50/inductor_cache/cp/ccpsge7mfp27npsag4utjppqvmefecme7x5mpqgvibeul6aocl7n.py":46:36)
#loc30 = loc("/root/.cache/vllm/torch_compile_cache/torch_aot_compile/61bda05feca29378847c32f031efa5c8dba258f38b0176a06a3e99e41df8ca50/inductor_cache/cp/ccpsge7mfp27npsag4utjppqvmefecme7x5mpqgvibeul6aocl7n.py":46:4)
#loc35 = loc("xoffset"(#loc3))
#loc36 = loc("xoffset"(#loc4))
#loc37 = loc("xindex"(#loc5))
#loc38 = loc("xindex"(#loc6))
#loc39 = loc("xindex"(#loc7))
#loc40 = loc("xmask"(#loc8))
#loc41 = loc("r0_base"(#loc9))
#loc42 = loc("r0_base"(#loc10))
#loc43 = loc("_tmp4"(#loc2))
#loc44 = loc("r0_index"(#loc11))
#loc45 = loc("r0_mask"(#loc12))
#loc46 = loc("tmp0"(#loc13))
#loc47 = loc("tmp0"(#loc14))
#loc48 = loc("tmp0"(#loc15))
#loc49 = loc("tmp0"(#loc16))
#loc50 = loc("tmp0"(#loc17))
#loc51 = loc("tmp0"(#loc18))
#loc52 = loc("tmp0"(#loc19))
#loc53 = loc("tmp2"(#loc20))
#loc54 = loc("tmp5"(#loc21))
#loc55 = loc("_tmp4"(#loc22))
#loc57 = loc("tmp4"(#loc27))
#loc58 = loc(callsite(#loc24 at #loc56))
#loc60 = loc(callsite(#loc26 at #loc58))
