#loc = loc("/root/.cache/vllm/torch_compile_cache/torch_aot_compile/61bda05feca29378847c32f031efa5c8dba258f38b0176a06a3e99e41df8ca50/inductor_cache/er/cerdf7dyaddaoncsc4dgcfxpqtnxukn2rwdcrhr4lemklz2poq25.py":22:0)
#loc17 = loc("in_ptr0"(#loc))
#loc18 = loc("out_ptr0"(#loc))
#loc19 = loc("xnumel"(#loc))
module {
  tt.func public @triton_(%in_ptr0: !tt.ptr<f16> {tt.divisibility = 16 : i32} loc("in_ptr0"(#loc)), %out_ptr0: !tt.ptr<f16> {tt.divisibility = 16 : i32} loc("out_ptr0"(#loc)), %xnumel: i32 {tt.divisibility = 16 : i32} loc("xnumel"(#loc))) attributes {noinline = false} {
    %xoffset = tt.get_program_id x : i32 loc(#loc20)
    %xoffset_0 = arith.constant 1024 : i32 loc(#loc21)
    %xoffset_1 = arith.constant 1024 : i32 loc(#loc21)
    %xoffset_2 = arith.muli %xoffset, %xoffset_1 : i32 loc(#loc21)
    %xindex = tt.make_range {end = 1024 : i32, start = 0 : i32} : tensor<1024xi32> loc(#loc22)
    %xindex_3 = tt.splat %xoffset_2 : i32 -> tensor<1024xi32> loc(#loc23)
    %xindex_4 = arith.addi %xindex_3, %xindex : tensor<1024xi32> loc(#loc23)
    %xmask = tt.splat %xnumel : i32 -> tensor<1024xi32> loc(#loc24)
    %xmask_5 = arith.cmpi slt, %xindex_4, %xmask : tensor<1024xi32> loc(#loc24)
    %x0 = arith.constant 16 : i32 loc(#loc25)
    %x0_6 = arith.constant 16 : i32 loc(#loc25)
    %x0_7 = arith.constant dense<16> : tensor<1024xi32> loc(#loc25)
    %x0_8 = arith.remsi %xindex_4, %x0_7 : tensor<1024xi32> loc(#loc25)
    %x1 = arith.constant 16 : i32 loc(#loc26)
    %x1_9 = arith.constant 16 : i32 loc(#loc26)
    %x1_10 = arith.constant dense<16> : tensor<1024xi32> loc(#loc26)
    %x1_11 = arith.divsi %xindex_4, %x1_10 : tensor<1024xi32> loc(#loc26)
    %tmp0 = arith.constant 16 : i32 loc(#loc27)
    %tmp0_12 = arith.constant 16 : i32 loc(#loc27)
    %tmp0_13 = arith.constant dense<16> : tensor<1024xi32> loc(#loc27)
    %tmp0_14 = arith.addi %tmp0_13, %x0_8 : tensor<1024xi32> loc(#loc27)
    %tmp0_15 = arith.constant 32 : i32 loc(#loc28)
    %tmp0_16 = arith.constant 32 : i32 loc(#loc28)
    %tmp0_17 = arith.constant dense<32> : tensor<1024xi32> loc(#loc28)
    %tmp0_18 = arith.muli %tmp0_17, %x1_11 : tensor<1024xi32> loc(#loc28)
    %tmp0_19 = arith.addi %tmp0_14, %tmp0_18 : tensor<1024xi32> loc(#loc29)
    %tmp0_20 = tt.splat %in_ptr0 : !tt.ptr<f16> -> tensor<1024x!tt.ptr<f16>> loc(#loc30)
    %tmp0_21 = tt.addptr %tmp0_20, %tmp0_19 : tensor<1024x!tt.ptr<f16>>, tensor<1024xi32> loc(#loc30)
    %tmp0_22 = tt.load %tmp0_21, %xmask_5 : tensor<1024x!tt.ptr<f16>> loc(#loc31)
    %tmp0_23 = arith.extf %tmp0_22 : tensor<1024xf16> to tensor<1024xf32> loc(#loc32)
    %0 = tt.splat %out_ptr0 : !tt.ptr<f16> -> tensor<1024x!tt.ptr<f16>> loc(#loc14)
    %1 = tt.addptr %0, %xindex_4 : tensor<1024x!tt.ptr<f16>>, tensor<1024xi32> loc(#loc14)
    %2 = arith.truncf %tmp0_23 : tensor<1024xf32> to tensor<1024xf16> loc(#loc15)
    tt.store %1, %2, %xmask_5 : tensor<1024x!tt.ptr<f16>> loc(#loc15)
    tt.return loc(#loc16)
  } loc(#loc)
} loc(#loc)
#loc1 = loc("/root/.cache/vllm/torch_compile_cache/torch_aot_compile/61bda05feca29378847c32f031efa5c8dba258f38b0176a06a3e99e41df8ca50/inductor_cache/er/cerdf7dyaddaoncsc4dgcfxpqtnxukn2rwdcrhr4lemklz2poq25.py":23:28)
#loc2 = loc("/root/.cache/vllm/torch_compile_cache/torch_aot_compile/61bda05feca29378847c32f031efa5c8dba258f38b0176a06a3e99e41df8ca50/inductor_cache/er/cerdf7dyaddaoncsc4dgcfxpqtnxukn2rwdcrhr4lemklz2poq25.py":23:33)
#loc3 = loc("/root/.cache/vllm/torch_compile_cache/torch_aot_compile/61bda05feca29378847c32f031efa5c8dba258f38b0176a06a3e99e41df8ca50/inductor_cache/er/cerdf7dyaddaoncsc4dgcfxpqtnxukn2rwdcrhr4lemklz2poq25.py":24:36)
#loc4 = loc("/root/.cache/vllm/torch_compile_cache/torch_aot_compile/61bda05feca29378847c32f031efa5c8dba258f38b0176a06a3e99e41df8ca50/inductor_cache/er/cerdf7dyaddaoncsc4dgcfxpqtnxukn2rwdcrhr4lemklz2poq25.py":24:23)
#loc5 = loc("/root/.cache/vllm/torch_compile_cache/torch_aot_compile/61bda05feca29378847c32f031efa5c8dba258f38b0176a06a3e99e41df8ca50/inductor_cache/er/cerdf7dyaddaoncsc4dgcfxpqtnxukn2rwdcrhr4lemklz2poq25.py":25:21)
#loc6 = loc("/root/.cache/vllm/torch_compile_cache/torch_aot_compile/61bda05feca29378847c32f031efa5c8dba258f38b0176a06a3e99e41df8ca50/inductor_cache/er/cerdf7dyaddaoncsc4dgcfxpqtnxukn2rwdcrhr4lemklz2poq25.py":26:19)
#loc7 = loc("/root/.cache/vllm/torch_compile_cache/torch_aot_compile/61bda05feca29378847c32f031efa5c8dba258f38b0176a06a3e99e41df8ca50/inductor_cache/er/cerdf7dyaddaoncsc4dgcfxpqtnxukn2rwdcrhr4lemklz2poq25.py":27:19)
#loc8 = loc("/root/.cache/vllm/torch_compile_cache/torch_aot_compile/61bda05feca29378847c32f031efa5c8dba258f38b0176a06a3e99e41df8ca50/inductor_cache/er/cerdf7dyaddaoncsc4dgcfxpqtnxukn2rwdcrhr4lemklz2poq25.py":29:35)
#loc9 = loc("/root/.cache/vllm/torch_compile_cache/torch_aot_compile/61bda05feca29378847c32f031efa5c8dba258f38b0176a06a3e99e41df8ca50/inductor_cache/er/cerdf7dyaddaoncsc4dgcfxpqtnxukn2rwdcrhr4lemklz2poq25.py":29:43)
#loc10 = loc("/root/.cache/vllm/torch_compile_cache/torch_aot_compile/61bda05feca29378847c32f031efa5c8dba258f38b0176a06a3e99e41df8ca50/inductor_cache/er/cerdf7dyaddaoncsc4dgcfxpqtnxukn2rwdcrhr4lemklz2poq25.py":29:40)
#loc11 = loc("/root/.cache/vllm/torch_compile_cache/torch_aot_compile/61bda05feca29378847c32f031efa5c8dba258f38b0176a06a3e99e41df8ca50/inductor_cache/er/cerdf7dyaddaoncsc4dgcfxpqtnxukn2rwdcrhr4lemklz2poq25.py":29:30)
#loc12 = loc("/root/.cache/vllm/torch_compile_cache/torch_aot_compile/61bda05feca29378847c32f031efa5c8dba258f38b0176a06a3e99e41df8ca50/inductor_cache/er/cerdf7dyaddaoncsc4dgcfxpqtnxukn2rwdcrhr4lemklz2poq25.py":29:48)
#loc13 = loc("/root/.cache/vllm/torch_compile_cache/torch_aot_compile/61bda05feca29378847c32f031efa5c8dba258f38b0176a06a3e99e41df8ca50/inductor_cache/er/cerdf7dyaddaoncsc4dgcfxpqtnxukn2rwdcrhr4lemklz2poq25.py":29:58)
#loc14 = loc("/root/.cache/vllm/torch_compile_cache/torch_aot_compile/61bda05feca29378847c32f031efa5c8dba258f38b0176a06a3e99e41df8ca50/inductor_cache/er/cerdf7dyaddaoncsc4dgcfxpqtnxukn2rwdcrhr4lemklz2poq25.py":30:25)
#loc15 = loc("/root/.cache/vllm/torch_compile_cache/torch_aot_compile/61bda05feca29378847c32f031efa5c8dba258f38b0176a06a3e99e41df8ca50/inductor_cache/er/cerdf7dyaddaoncsc4dgcfxpqtnxukn2rwdcrhr4lemklz2poq25.py":30:36)
#loc16 = loc("/root/.cache/vllm/torch_compile_cache/torch_aot_compile/61bda05feca29378847c32f031efa5c8dba258f38b0176a06a3e99e41df8ca50/inductor_cache/er/cerdf7dyaddaoncsc4dgcfxpqtnxukn2rwdcrhr4lemklz2poq25.py":30:4)
#loc20 = loc("xoffset"(#loc1))
#loc21 = loc("xoffset"(#loc2))
#loc22 = loc("xindex"(#loc3))
#loc23 = loc("xindex"(#loc4))
#loc24 = loc("xmask"(#loc5))
#loc25 = loc("x0"(#loc6))
#loc26 = loc("x1"(#loc7))
#loc27 = loc("tmp0"(#loc8))
#loc28 = loc("tmp0"(#loc9))
#loc29 = loc("tmp0"(#loc10))
#loc30 = loc("tmp0"(#loc11))
#loc31 = loc("tmp0"(#loc12))
#loc32 = loc("tmp0"(#loc13))
