#loc = loc("/root/.cache/vllm/torch_compile_cache/torch_aot_compile/61bda05feca29378847c32f031efa5c8dba258f38b0176a06a3e99e41df8ca50/inductor_cache/bz/cbz6levsryuhn5zafoyu2atbs7muodww2ho5qy6m5ezngeuq75hv.py":18:0)
#loc110 = loc("in_ptr0"(#loc))
#loc111 = loc("in_ptr1"(#loc))
#loc112 = loc("out_ptr0"(#loc))
#loc113 = loc("out_ptr1"(#loc))
#loc114 = loc("ks0"(#loc))
#loc115 = loc("xnumel"(#loc))
module {
  tt.func public @triton_poi_fused_0(%in_ptr0: !tt.ptr<i64> {tt.divisibility = 16 : i32} loc("in_ptr0"(#loc)), %in_ptr1: !tt.ptr<f16> {tt.divisibility = 16 : i32} loc("in_ptr1"(#loc)), %out_ptr0: !tt.ptr<f16> {tt.divisibility = 16 : i32} loc("out_ptr0"(#loc)), %out_ptr1: !tt.ptr<f16> {tt.divisibility = 16 : i32} loc("out_ptr1"(#loc)), %ks0: i64 loc("ks0"(#loc)), %xnumel: i32 {tt.divisibility = 16 : i32} loc("xnumel"(#loc))) attributes {noinline = false} {
    %cst = arith.constant dense<0> : tensor<1024xi32> loc(#loc1)
    %cst_0 = arith.constant dense<0.000000e+00> : tensor<1024xf16> loc(#loc1)
    %cst_1 = arith.constant dense<1048576> : tensor<1024xi64> loc(#loc1)
    %tmp39 = arith.constant dense<33> : tensor<1024xi32> loc(#loc116)
    %tmp38 = arith.constant dense<34> : tensor<1024xi32> loc(#loc117)
    %cst_2 = arith.constant dense<1> : tensor<1024xi32> loc(#loc1)
    %cst_3 = arith.constant dense<-1> : tensor<1024xi32> loc(#loc1)
    %tmp18 = arith.constant dense<1> : tensor<1024xi64> loc(#loc118)
    %cst_4 = arith.constant dense<64> : tensor<1024xi64> loc(#loc1)
    %tmp16 = arith.constant dense<2> : tensor<1024xi32> loc(#loc119)
    %cst_5 = arith.constant dense<true> : tensor<1024xi1> loc(#loc1)
    %cst_6 = arith.constant dense<0> : tensor<1024xi64> loc(#loc1)
    %cst_7 = arith.constant dense<3> : tensor<1024xi32> loc(#loc1)
    %cst_8 = arith.constant dense<-2> : tensor<1024xi32> loc(#loc1)
    %tmp4 = arith.constant dense<30> : tensor<1024xi64> loc(#loc120)
    %tmp2 = arith.constant dense<2> : tensor<1024xi64> loc(#loc121)
    %c2_i64 = arith.constant 2 : i64 loc(#loc1)
    %cst_9 = arith.constant dense<32> : tensor<1024xi32> loc(#loc1)
    %c1024_i32 = arith.constant 1024 : i32 loc(#loc1)
    %xoffset = tt.get_program_id x : i32 loc(#loc122)
    %xoffset_10 = arith.muli %xoffset, %c1024_i32 : i32 loc(#loc123)
    %xindex = tt.make_range {end = 1024 : i32, start = 0 : i32} : tensor<1024xi32> loc(#loc124)
    %xindex_11 = tt.splat %xoffset_10 : i32 -> tensor<1024xi32> loc(#loc125)
    %xindex_12 = arith.addi %xindex_11, %xindex : tensor<1024xi32> loc(#loc125)
    %xmask = tt.splat %xnumel : i32 -> tensor<1024xi32> loc(#loc126)
    %xmask_13 = arith.cmpi slt, %xindex_12, %xmask : tensor<1024xi32> loc(#loc126)
    %x0 = arith.remsi %xindex_12, %cst_9 : tensor<1024xi32> loc(#loc127)
    %x1 = arith.divsi %xindex_12, %cst_9 : tensor<1024xi32> loc(#loc128)
    %tmp29 = tt.splat %in_ptr0 : !tt.ptr<i64> -> tensor<1024x!tt.ptr<i64>> loc(#loc129)
    %tmp29_14 = tt.addptr %tmp29, %x1 : tensor<1024x!tt.ptr<i64>>, tensor<1024xi32> loc(#loc129)
    %tmp29_15 = tt.load %tmp29_14, %xmask_13 evictionPolicy = evict_last : tensor<1024x!tt.ptr<i64>> loc(#loc130)
    %tmp2_16 = arith.extsi %x0 : tensor<1024xi32> to tensor<1024xi64> loc(#loc121)
    %tmp2_17 = arith.cmpi sge, %tmp2_16, %tmp2 : tensor<1024xi64> loc(#loc121)
    %tmp4_18 = arith.cmpi slt, %tmp2_16, %tmp4 : tensor<1024xi64> loc(#loc120)
    %tmp5 = arith.addi %x0, %cst_8 : tensor<1024xi32> loc(#loc131)
    %tmp5_19 = arith.remsi %tmp5, %cst_7 : tensor<1024xi32> loc(#loc132)
    %tmp7 = arith.extsi %tmp5_19 : tensor<1024xi32> to tensor<1024xi64> loc(#loc133)
    %tmp7_20 = arith.cmpi eq, %tmp7, %cst_6 : tensor<1024xi64> loc(#loc133)
    %tmp8 = arith.andi %tmp2_17, %tmp4_18 : tensor<1024xi1> loc(#loc134)
    %tmp9 = arith.andi %tmp8, %tmp7_20 : tensor<1024xi1> loc(#loc135)
    %tmp10 = arith.muli %ks0, %c2_i64 : i64 loc(#loc136)
    %tmp10_21 = arith.extsi %x1 : tensor<1024xi32> to tensor<1024xi64> loc(#loc137)
    %tmp10_22 = tt.splat %tmp10 : i64 -> tensor<1024xi64> loc(#loc137)
    %tmp10_23 = arith.addi %tmp10_21, %tmp10_22 : tensor<1024xi64> loc(#loc137)
    %tmp10_24 = tt.addptr %tmp29, %tmp10_23 : tensor<1024x!tt.ptr<i64>>, tensor<1024xi64> loc(#loc138)
    %tmp10_25 = arith.andi %tmp9, %xmask_13 : tensor<1024xi1> loc(#loc139)
    %tmp10_26 = tt.load %tmp10_24, %tmp10_25, %cst_6 evictionPolicy = evict_last : tensor<1024x!tt.ptr<i64>> loc(#loc140)
    %tmp12 = arith.addi %tmp10_26, %cst_1 : tensor<1024xi64> loc(#loc141)
    %tmp13 = arith.cmpi slt, %tmp10_26, %cst_6 : tensor<1024xi64> loc(#loc142)
    %tmp14 = arith.select %tmp13, %tmp12, %tmp10_26 : tensor<1024xi1>, tensor<1024xi64> loc(#loc143)
    %0 = arith.cmpi sge, %tmp14, %cst_6 : tensor<1024xi64> loc(#loc30)
    %1 = arith.cmpi slt, %tmp14, %cst_1 : tensor<1024xi64> loc(#loc31)
    %2 = arith.andi %0, %1 : tensor<1024xi1> loc(#loc32)
    %3 = arith.xori %tmp10_25, %cst_5 : tensor<1024xi1> loc(#loc33)
    %4 = arith.ori %2, %3 : tensor<1024xi1> loc(#loc34)
    tt.assert %4, "index out of bounds: 0 <= tl.broadcast_to(tmp14, [XBLOCK]) < 1048576" : tensor<1024xi1> loc(#loc35)
    %quot = arith.divsi %tmp5, %cst_7 : tensor<1024xi32> loc(#loc199)
    %fixed = arith.cmpi ne, %tmp5_19, %cst : tensor<1024xi32> loc(#loc200)
    %fixed_27 = arith.subi %quot, %cst_2 : tensor<1024xi32> loc(#loc201)
    %fixed_28 = arith.select %fixed, %fixed_27, %quot : tensor<1024xi1>, tensor<1024xi32> loc(#loc202)
    %tmp16_29 = arith.cmpi slt, %tmp5, %cst : tensor<1024xi32> loc(#loc203)
    %tmp16_30 = arith.select %tmp16_29, %fixed_28, %quot : tensor<1024xi1>, tensor<1024xi32> loc(#loc204)
    %tmp16_31 = arith.muli %tmp16_30, %cst_7 : tensor<1024xi32> loc(#loc149)
    %tmp16_32 = arith.addi %tmp16_31, %tmp16 : tensor<1024xi32> loc(#loc119)
    %tmp16_33 = arith.muli %tmp14, %cst_4 : tensor<1024xi64> loc(#loc150)
    %tmp16_34 = arith.extsi %tmp16_32 : tensor<1024xi32> to tensor<1024xi64> loc(#loc151)
    %tmp16_35 = arith.addi %tmp16_34, %tmp16_33 : tensor<1024xi64> loc(#loc151)
    %tmp16_36 = tt.splat %in_ptr1 : !tt.ptr<f16> -> tensor<1024x!tt.ptr<f16>> loc(#loc152)
    %tmp16_37 = tt.addptr %tmp16_36, %tmp16_35 : tensor<1024x!tt.ptr<f16>>, tensor<1024xi64> loc(#loc152)
    %tmp16_38 = tt.load %tmp16_37, %tmp10_25, %cst_0 evictionPolicy = evict_last : tensor<1024x!tt.ptr<f16>> loc(#loc153)
    %tmp16_39 = arith.extf %tmp16_38 : tensor<1024xf16> to tensor<1024xf32> loc(#loc154)
    %tmp18_40 = arith.cmpi sge, %tmp2_16, %tmp18 : tensor<1024xi64> loc(#loc118)
    %tmp19 = arith.addi %x0, %cst_3 : tensor<1024xi32> loc(#loc155)
    %tmp19_41 = arith.remsi %tmp19, %cst_7 : tensor<1024xi32> loc(#loc156)
    %tmp20 = arith.extsi %tmp19_41 : tensor<1024xi32> to tensor<1024xi64> loc(#loc157)
    %tmp20_42 = arith.cmpi eq, %tmp20, %cst_6 : tensor<1024xi64> loc(#loc157)
    %tmp21 = arith.andi %tmp18_40, %tmp20_42 : tensor<1024xi1> loc(#loc158)
    %tmp22 = tt.splat %ks0 : i64 -> tensor<1024xi64> loc(#loc159)
    %tmp22_43 = arith.addi %tmp22, %tmp10_21 : tensor<1024xi64> loc(#loc159)
    %tmp22_44 = tt.addptr %tmp29, %tmp22_43 : tensor<1024x!tt.ptr<i64>>, tensor<1024xi64> loc(#loc160)
    %tmp22_45 = arith.andi %tmp21, %xmask_13 : tensor<1024xi1> loc(#loc161)
    %tmp22_46 = tt.load %tmp22_44, %tmp22_45, %cst_6 evictionPolicy = evict_last : tensor<1024x!tt.ptr<i64>> loc(#loc162)
    %tmp24 = arith.addi %tmp22_46, %cst_1 : tensor<1024xi64> loc(#loc163)
    %tmp25 = arith.cmpi slt, %tmp22_46, %cst_6 : tensor<1024xi64> loc(#loc164)
    %tmp26 = arith.select %tmp25, %tmp24, %tmp22_46 : tensor<1024xi1>, tensor<1024xi64> loc(#loc165)
    %5 = arith.cmpi sge, %tmp26, %cst_6 : tensor<1024xi64> loc(#loc60)
    %6 = arith.cmpi slt, %tmp26, %cst_1 : tensor<1024xi64> loc(#loc61)
    %7 = arith.andi %5, %6 : tensor<1024xi1> loc(#loc62)
    %8 = arith.xori %tmp22_45, %cst_5 : tensor<1024xi1> loc(#loc63)
    %9 = arith.ori %7, %8 : tensor<1024xi1> loc(#loc64)
    tt.assert %9, "index out of bounds: 0 <= tl.broadcast_to(tmp26, [XBLOCK]) < 1048576" : tensor<1024xi1> loc(#loc65)
    %quot_47 = arith.divsi %tmp19, %cst_7 : tensor<1024xi32> loc(#loc205)
    %fixed_48 = arith.cmpi ne, %tmp19_41, %cst : tensor<1024xi32> loc(#loc206)
    %fixed_49 = arith.subi %quot_47, %cst_2 : tensor<1024xi32> loc(#loc207)
    %fixed_50 = arith.select %fixed_48, %fixed_49, %quot_47 : tensor<1024xi1>, tensor<1024xi32> loc(#loc208)
    %tmp28 = arith.cmpi slt, %tmp19, %cst : tensor<1024xi32> loc(#loc209)
    %tmp28_51 = arith.select %tmp28, %fixed_50, %quot_47 : tensor<1024xi1>, tensor<1024xi32> loc(#loc210)
    %tmp28_52 = arith.muli %tmp28_51, %cst_7 : tensor<1024xi32> loc(#loc167)
    %tmp28_53 = arith.addi %tmp28_52, %cst_2 : tensor<1024xi32> loc(#loc168)
    %tmp28_54 = arith.muli %tmp26, %cst_4 : tensor<1024xi64> loc(#loc169)
    %tmp28_55 = arith.extsi %tmp28_53 : tensor<1024xi32> to tensor<1024xi64> loc(#loc170)
    %tmp28_56 = arith.addi %tmp28_55, %tmp28_54 : tensor<1024xi64> loc(#loc170)
    %tmp28_57 = tt.addptr %tmp16_36, %tmp28_56 : tensor<1024x!tt.ptr<f16>>, tensor<1024xi64> loc(#loc171)
    %tmp28_58 = tt.load %tmp28_57, %tmp22_45, %cst_0 evictionPolicy = evict_last : tensor<1024x!tt.ptr<f16>> loc(#loc172)
    %tmp28_59 = arith.extf %tmp28_58 : tensor<1024xf16> to tensor<1024xf32> loc(#loc173)
    %tmp31 = arith.addi %tmp29_15, %cst_1 : tensor<1024xi64> loc(#loc174)
    %tmp32 = arith.cmpi slt, %tmp29_15, %cst_6 : tensor<1024xi64> loc(#loc175)
    %tmp33 = arith.select %tmp32, %tmp31, %tmp29_15 : tensor<1024xi1>, tensor<1024xi64> loc(#loc176)
    %10 = arith.cmpi sge, %tmp33, %cst_6 : tensor<1024xi64> loc(#loc77)
    %11 = arith.cmpi slt, %tmp33, %cst_1 : tensor<1024xi64> loc(#loc78)
    %12 = arith.andi %10, %11 : tensor<1024xi1> loc(#loc79)
    %13 = arith.xori %xmask_13, %cst_5 : tensor<1024xi1> loc(#loc80)
    %14 = arith.ori %12, %13 : tensor<1024xi1> loc(#loc81)
    tt.assert %14, "index out of bounds: 0 <= tmp33 < 1048576" : tensor<1024xi1> loc(#loc82)
    %tmp35 = arith.muli %tmp33, %cst_4 : tensor<1024xi64> loc(#loc177)
    %tmp35_60 = arith.addi %tmp2_16, %tmp35 : tensor<1024xi64> loc(#loc178)
    %tmp35_61 = tt.addptr %tmp16_36, %tmp35_60 : tensor<1024x!tt.ptr<f16>>, tensor<1024xi64> loc(#loc179)
    %tmp35_62 = tt.load %tmp35_61, %xmask_13 : tensor<1024x!tt.ptr<f16>> loc(#loc180)
    %tmp35_63 = arith.extf %tmp35_62 : tensor<1024xf16> to tensor<1024xf32> loc(#loc181)
    %tmp36 = arith.select %tmp21, %tmp28_59, %tmp35_63 : tensor<1024xi1>, tensor<1024xf32> loc(#loc182)
    %tmp37 = arith.select %tmp9, %tmp16_39, %tmp36 : tensor<1024xi1>, tensor<1024xf32> loc(#loc183)
    %tmp38_64 = arith.addi %tmp16_31, %tmp38 : tensor<1024xi32> loc(#loc117)
    %tmp38_65 = arith.extsi %tmp38_64 : tensor<1024xi32> to tensor<1024xi64> loc(#loc184)
    %tmp38_66 = arith.addi %tmp38_65, %tmp16_33 : tensor<1024xi64> loc(#loc184)
    %tmp38_67 = tt.addptr %tmp16_36, %tmp38_66 : tensor<1024x!tt.ptr<f16>>, tensor<1024xi64> loc(#loc185)
    %tmp38_68 = tt.load %tmp38_67, %tmp10_25, %cst_0 evictionPolicy = evict_last : tensor<1024x!tt.ptr<f16>> loc(#loc186)
    %tmp38_69 = arith.extf %tmp38_68 : tensor<1024xf16> to tensor<1024xf32> loc(#loc187)
    %tmp39_70 = arith.addi %tmp28_52, %tmp39 : tensor<1024xi32> loc(#loc116)
    %tmp39_71 = arith.extsi %tmp39_70 : tensor<1024xi32> to tensor<1024xi64> loc(#loc188)
    %tmp39_72 = arith.addi %tmp39_71, %tmp28_54 : tensor<1024xi64> loc(#loc188)
    %tmp39_73 = tt.addptr %tmp16_36, %tmp39_72 : tensor<1024x!tt.ptr<f16>>, tensor<1024xi64> loc(#loc189)
    %tmp39_74 = tt.load %tmp39_73, %tmp22_45, %cst_0 evictionPolicy = evict_last : tensor<1024x!tt.ptr<f16>> loc(#loc190)
    %tmp39_75 = arith.extf %tmp39_74 : tensor<1024xf16> to tensor<1024xf32> loc(#loc191)
    %tmp40 = arith.addi %x0, %cst_9 : tensor<1024xi32> loc(#loc192)
    %tmp40_76 = arith.extsi %tmp40 : tensor<1024xi32> to tensor<1024xi64> loc(#loc193)
    %tmp40_77 = arith.addi %tmp40_76, %tmp35 : tensor<1024xi64> loc(#loc193)
    %tmp40_78 = tt.addptr %tmp16_36, %tmp40_77 : tensor<1024x!tt.ptr<f16>>, tensor<1024xi64> loc(#loc194)
    %tmp40_79 = tt.load %tmp40_78, %xmask_13 : tensor<1024x!tt.ptr<f16>> loc(#loc195)
    %tmp40_80 = arith.extf %tmp40_79 : tensor<1024xf16> to tensor<1024xf32> loc(#loc196)
    %tmp41 = arith.select %tmp21, %tmp39_75, %tmp40_80 : tensor<1024xi1>, tensor<1024xf32> loc(#loc197)
    %tmp42 = arith.select %tmp9, %tmp38_69, %tmp41 : tensor<1024xi1>, tensor<1024xf32> loc(#loc198)
    %15 = tt.splat %out_ptr0 : !tt.ptr<f16> -> tensor<1024x!tt.ptr<f16>> loc(#loc105)
    %16 = tt.addptr %15, %xindex_12 : tensor<1024x!tt.ptr<f16>>, tensor<1024xi32> loc(#loc105)
    %17 = arith.truncf %tmp37 : tensor<1024xf32> to tensor<1024xf16> loc(#loc106)
    tt.store %16, %17, %xmask_13 : tensor<1024x!tt.ptr<f16>> loc(#loc106)
    %18 = tt.splat %out_ptr1 : !tt.ptr<f16> -> tensor<1024x!tt.ptr<f16>> loc(#loc107)
    %19 = tt.addptr %18, %xindex_12 : tensor<1024x!tt.ptr<f16>>, tensor<1024xi32> loc(#loc107)
    %20 = arith.truncf %tmp42 : tensor<1024xf32> to tensor<1024xf16> loc(#loc108)
    tt.store %19, %20, %xmask_13 : tensor<1024x!tt.ptr<f16>> loc(#loc108)
    tt.return loc(#loc109)
  } loc(#loc)
} loc(#loc)
#loc1 = loc(unknown)
#loc2 = loc("/root/.cache/vllm/torch_compile_cache/torch_aot_compile/61bda05feca29378847c32f031efa5c8dba258f38b0176a06a3e99e41df8ca50/inductor_cache/bz/cbz6levsryuhn5zafoyu2atbs7muodww2ho5qy6m5ezngeuq75hv.py":64:36)
#loc3 = loc("/root/.cache/vllm/torch_compile_cache/torch_aot_compile/61bda05feca29378847c32f031efa5c8dba258f38b0176a06a3e99e41df8ca50/inductor_cache/bz/cbz6levsryuhn5zafoyu2atbs7muodww2ho5qy6m5ezngeuq75hv.py":63:36)
#loc4 = loc("/root/.cache/vllm/torch_compile_cache/torch_aot_compile/61bda05feca29378847c32f031efa5c8dba258f38b0176a06a3e99e41df8ca50/inductor_cache/bz/cbz6levsryuhn5zafoyu2atbs7muodww2ho5qy6m5ezngeuq75hv.py":44:20)
#loc5 = loc("/root/.cache/vllm/torch_compile_cache/torch_aot_compile/61bda05feca29378847c32f031efa5c8dba258f38b0176a06a3e99e41df8ca50/inductor_cache/bz/cbz6levsryuhn5zafoyu2atbs7muodww2ho5qy6m5ezngeuq75hv.py":42:35)
#loc6 = loc("/root/.cache/vllm/torch_compile_cache/torch_aot_compile/61bda05feca29378847c32f031efa5c8dba258f38b0176a06a3e99e41df8ca50/inductor_cache/bz/cbz6levsryuhn5zafoyu2atbs7muodww2ho5qy6m5ezngeuq75hv.py":30:18)
#loc7 = loc("/root/.cache/vllm/torch_compile_cache/torch_aot_compile/61bda05feca29378847c32f031efa5c8dba258f38b0176a06a3e99e41df8ca50/inductor_cache/bz/cbz6levsryuhn5zafoyu2atbs7muodww2ho5qy6m5ezngeuq75hv.py":28:19)
#loc8 = loc("/root/.cache/vllm/torch_compile_cache/torch_aot_compile/61bda05feca29378847c32f031efa5c8dba258f38b0176a06a3e99e41df8ca50/inductor_cache/bz/cbz6levsryuhn5zafoyu2atbs7muodww2ho5qy6m5ezngeuq75hv.py":19:28)
#loc9 = loc("/root/.cache/vllm/torch_compile_cache/torch_aot_compile/61bda05feca29378847c32f031efa5c8dba258f38b0176a06a3e99e41df8ca50/inductor_cache/bz/cbz6levsryuhn5zafoyu2atbs7muodww2ho5qy6m5ezngeuq75hv.py":19:33)
#loc10 = loc("/root/.cache/vllm/torch_compile_cache/torch_aot_compile/61bda05feca29378847c32f031efa5c8dba258f38b0176a06a3e99e41df8ca50/inductor_cache/bz/cbz6levsryuhn5zafoyu2atbs7muodww2ho5qy6m5ezngeuq75hv.py":20:36)
#loc11 = loc("/root/.cache/vllm/torch_compile_cache/torch_aot_compile/61bda05feca29378847c32f031efa5c8dba258f38b0176a06a3e99e41df8ca50/inductor_cache/bz/cbz6levsryuhn5zafoyu2atbs7muodww2ho5qy6m5ezngeuq75hv.py":20:23)
#loc12 = loc("/root/.cache/vllm/torch_compile_cache/torch_aot_compile/61bda05feca29378847c32f031efa5c8dba258f38b0176a06a3e99e41df8ca50/inductor_cache/bz/cbz6levsryuhn5zafoyu2atbs7muodww2ho5qy6m5ezngeuq75hv.py":21:21)
#loc13 = loc("/root/.cache/vllm/torch_compile_cache/torch_aot_compile/61bda05feca29378847c32f031efa5c8dba258f38b0176a06a3e99e41df8ca50/inductor_cache/bz/cbz6levsryuhn5zafoyu2atbs7muodww2ho5qy6m5ezngeuq75hv.py":22:19)
#loc14 = loc("/root/.cache/vllm/torch_compile_cache/torch_aot_compile/61bda05feca29378847c32f031efa5c8dba258f38b0176a06a3e99e41df8ca50/inductor_cache/bz/cbz6levsryuhn5zafoyu2atbs7muodww2ho5qy6m5ezngeuq75hv.py":23:19)
#loc15 = loc("/root/.cache/vllm/torch_compile_cache/torch_aot_compile/61bda05feca29378847c32f031efa5c8dba258f38b0176a06a3e99e41df8ca50/inductor_cache/bz/cbz6levsryuhn5zafoyu2atbs7muodww2ho5qy6m5ezngeuq75hv.py":25:31)
#loc16 = loc("/root/.cache/vllm/torch_compile_cache/torch_aot_compile/61bda05feca29378847c32f031efa5c8dba258f38b0176a06a3e99e41df8ca50/inductor_cache/bz/cbz6levsryuhn5zafoyu2atbs7muodww2ho5qy6m5ezngeuq75hv.py":25:36)
#loc17 = loc("/root/.cache/vllm/torch_compile_cache/torch_aot_compile/61bda05feca29378847c32f031efa5c8dba258f38b0176a06a3e99e41df8ca50/inductor_cache/bz/cbz6levsryuhn5zafoyu2atbs7muodww2ho5qy6m5ezngeuq75hv.py":31:20)
#loc18 = loc("/root/.cache/vllm/torch_compile_cache/torch_aot_compile/61bda05feca29378847c32f031efa5c8dba258f38b0176a06a3e99e41df8ca50/inductor_cache/bz/cbz6levsryuhn5zafoyu2atbs7muodww2ho5qy6m5ezngeuq75hv.py":31:26)
#loc19 = loc("/root/.cache/vllm/torch_compile_cache/torch_aot_compile/61bda05feca29378847c32f031efa5c8dba258f38b0176a06a3e99e41df8ca50/inductor_cache/bz/cbz6levsryuhn5zafoyu2atbs7muodww2ho5qy6m5ezngeuq75hv.py":33:19)
#loc20 = loc("/root/.cache/vllm/torch_compile_cache/torch_aot_compile/61bda05feca29378847c32f031efa5c8dba258f38b0176a06a3e99e41df8ca50/inductor_cache/bz/cbz6levsryuhn5zafoyu2atbs7muodww2ho5qy6m5ezngeuq75hv.py":34:18)
#loc21 = loc("/root/.cache/vllm/torch_compile_cache/torch_aot_compile/61bda05feca29378847c32f031efa5c8dba258f38b0176a06a3e99e41df8ca50/inductor_cache/bz/cbz6levsryuhn5zafoyu2atbs7muodww2ho5qy6m5ezngeuq75hv.py":35:18)
#loc22 = loc("/root/.cache/vllm/torch_compile_cache/torch_aot_compile/61bda05feca29378847c32f031efa5c8dba258f38b0176a06a3e99e41df8ca50/inductor_cache/bz/cbz6levsryuhn5zafoyu2atbs7muodww2ho5qy6m5ezngeuq75hv.py":36:38)
#loc23 = loc("/root/.cache/vllm/torch_compile_cache/torch_aot_compile/61bda05feca29378847c32f031efa5c8dba258f38b0176a06a3e99e41df8ca50/inductor_cache/bz/cbz6levsryuhn5zafoyu2atbs7muodww2ho5qy6m5ezngeuq75hv.py":36:36)
#loc24 = loc("/root/.cache/vllm/torch_compile_cache/torch_aot_compile/61bda05feca29378847c32f031efa5c8dba258f38b0176a06a3e99e41df8ca50/inductor_cache/bz/cbz6levsryuhn5zafoyu2atbs7muodww2ho5qy6m5ezngeuq75hv.py":36:31)
#loc25 = loc("/root/.cache/vllm/torch_compile_cache/torch_aot_compile/61bda05feca29378847c32f031efa5c8dba258f38b0176a06a3e99e41df8ca50/inductor_cache/bz/cbz6levsryuhn5zafoyu2atbs7muodww2ho5qy6m5ezngeuq75hv.py":36:51)
#loc26 = loc("/root/.cache/vllm/torch_compile_cache/torch_aot_compile/61bda05feca29378847c32f031efa5c8dba258f38b0176a06a3e99e41df8ca50/inductor_cache/bz/cbz6levsryuhn5zafoyu2atbs7muodww2ho5qy6m5ezngeuq75hv.py":36:44)
#loc27 = loc("/root/.cache/vllm/torch_compile_cache/torch_aot_compile/61bda05feca29378847c32f031efa5c8dba258f38b0176a06a3e99e41df8ca50/inductor_cache/bz/cbz6levsryuhn5zafoyu2atbs7muodww2ho5qy6m5ezngeuq75hv.py":38:20)
#loc28 = loc("/root/.cache/vllm/torch_compile_cache/torch_aot_compile/61bda05feca29378847c32f031efa5c8dba258f38b0176a06a3e99e41df8ca50/inductor_cache/bz/cbz6levsryuhn5zafoyu2atbs7muodww2ho5qy6m5ezngeuq75hv.py":39:20)
#loc29 = loc("/root/.cache/vllm/torch_compile_cache/torch_aot_compile/61bda05feca29378847c32f031efa5c8dba258f38b0176a06a3e99e41df8ca50/inductor_cache/bz/cbz6levsryuhn5zafoyu2atbs7muodww2ho5qy6m5ezngeuq75hv.py":40:35)
#loc30 = loc("/root/.cache/vllm/torch_compile_cache/torch_aot_compile/61bda05feca29378847c32f031efa5c8dba258f38b0176a06a3e99e41df8ca50/inductor_cache/bz/cbz6levsryuhn5zafoyu2atbs7muodww2ho5qy6m5ezngeuq75hv.py":41:28)
#loc31 = loc("/root/.cache/vllm/torch_compile_cache/torch_aot_compile/61bda05feca29378847c32f031efa5c8dba258f38b0176a06a3e99e41df8ca50/inductor_cache/bz/cbz6levsryuhn5zafoyu2atbs7muodww2ho5qy6m5ezngeuq75hv.py":41:100)
#loc32 = loc("/root/.cache/vllm/torch_compile_cache/torch_aot_compile/61bda05feca29378847c32f031efa5c8dba258f38b0176a06a3e99e41df8ca50/inductor_cache/bz/cbz6levsryuhn5zafoyu2atbs7muodww2ho5qy6m5ezngeuq75hv.py":41:65)
#loc33 = loc("/root/.cache/vllm/torch_compile_cache/torch_aot_compile/61bda05feca29378847c32f031efa5c8dba258f38b0176a06a3e99e41df8ca50/inductor_cache/bz/cbz6levsryuhn5zafoyu2atbs7muodww2ho5qy6m5ezngeuq75hv.py":41:114)
#loc34 = loc("/root/.cache/vllm/torch_compile_cache/torch_aot_compile/61bda05feca29378847c32f031efa5c8dba258f38b0176a06a3e99e41df8ca50/inductor_cache/bz/cbz6levsryuhn5zafoyu2atbs7muodww2ho5qy6m5ezngeuq75hv.py":41:112)
#loc35 = loc("/root/.cache/vllm/torch_compile_cache/torch_aot_compile/61bda05feca29378847c32f031efa5c8dba258f38b0176a06a3e99e41df8ca50/inductor_cache/bz/cbz6levsryuhn5zafoyu2atbs7muodww2ho5qy6m5ezngeuq75hv.py":41:129)
#loc36 = loc("/usr/local/lib/python3.12/dist-packages/torch/_inductor/runtime/triton_helpers.py":78:16)
#loc37 = loc("/root/.cache/vllm/torch_compile_cache/torch_aot_compile/61bda05feca29378847c32f031efa5c8dba258f38b0176a06a3e99e41df8ca50/inductor_cache/bz/cbz6levsryuhn5zafoyu2atbs7muodww2ho5qy6m5ezngeuq75hv.py":42:83)
#loc38 = loc("/usr/local/lib/python3.12/dist-packages/torch/_inductor/runtime/triton_helpers.py":80:34)
#loc39 = loc("/usr/local/lib/python3.12/dist-packages/torch/_inductor/runtime/triton_helpers.py":80:44)
#loc40 = loc("/usr/local/lib/python3.12/dist-packages/torch/_inductor/runtime/triton_helpers.py":80:47)
#loc41 = loc("/usr/local/lib/python3.12/dist-packages/torch/_inductor/runtime/triton_helpers.py":81:25)
#loc42 = loc("/usr/local/lib/python3.12/dist-packages/torch/_inductor/runtime/triton_helpers.py":81:47)
#loc43 = loc("/root/.cache/vllm/torch_compile_cache/torch_aot_compile/61bda05feca29378847c32f031efa5c8dba258f38b0176a06a3e99e41df8ca50/inductor_cache/bz/cbz6levsryuhn5zafoyu2atbs7muodww2ho5qy6m5ezngeuq75hv.py":42:38)
#loc44 = loc("/root/.cache/vllm/torch_compile_cache/torch_aot_compile/61bda05feca29378847c32f031efa5c8dba258f38b0176a06a3e99e41df8ca50/inductor_cache/bz/cbz6levsryuhn5zafoyu2atbs7muodww2ho5qy6m5ezngeuq75hv.py":42:92)
#loc45 = loc("/root/.cache/vllm/torch_compile_cache/torch_aot_compile/61bda05feca29378847c32f031efa5c8dba258f38b0176a06a3e99e41df8ca50/inductor_cache/bz/cbz6levsryuhn5zafoyu2atbs7muodww2ho5qy6m5ezngeuq75hv.py":42:89)
#loc46 = loc("/root/.cache/vllm/torch_compile_cache/torch_aot_compile/61bda05feca29378847c32f031efa5c8dba258f38b0176a06a3e99e41df8ca50/inductor_cache/bz/cbz6levsryuhn5zafoyu2atbs7muodww2ho5qy6m5ezngeuq75hv.py":42:31)
#loc47 = loc("/root/.cache/vllm/torch_compile_cache/torch_aot_compile/61bda05feca29378847c32f031efa5c8dba258f38b0176a06a3e99e41df8ca50/inductor_cache/bz/cbz6levsryuhn5zafoyu2atbs7muodww2ho5qy6m5ezngeuq75hv.py":42:100)
#loc48 = loc("/root/.cache/vllm/torch_compile_cache/torch_aot_compile/61bda05feca29378847c32f031efa5c8dba258f38b0176a06a3e99e41df8ca50/inductor_cache/bz/cbz6levsryuhn5zafoyu2atbs7muodww2ho5qy6m5ezngeuq75hv.py":42:158)
#loc49 = loc("/root/.cache/vllm/torch_compile_cache/torch_aot_compile/61bda05feca29378847c32f031efa5c8dba258f38b0176a06a3e99e41df8ca50/inductor_cache/bz/cbz6levsryuhn5zafoyu2atbs7muodww2ho5qy6m5ezngeuq75hv.py":45:21)
#loc50 = loc("/root/.cache/vllm/torch_compile_cache/torch_aot_compile/61bda05feca29378847c32f031efa5c8dba258f38b0176a06a3e99e41df8ca50/inductor_cache/bz/cbz6levsryuhn5zafoyu2atbs7muodww2ho5qy6m5ezngeuq75hv.py":45:27)
#loc51 = loc("/root/.cache/vllm/torch_compile_cache/torch_aot_compile/61bda05feca29378847c32f031efa5c8dba258f38b0176a06a3e99e41df8ca50/inductor_cache/bz/cbz6levsryuhn5zafoyu2atbs7muodww2ho5qy6m5ezngeuq75hv.py":46:21)
#loc52 = loc("/root/.cache/vllm/torch_compile_cache/torch_aot_compile/61bda05feca29378847c32f031efa5c8dba258f38b0176a06a3e99e41df8ca50/inductor_cache/bz/cbz6levsryuhn5zafoyu2atbs7muodww2ho5qy6m5ezngeuq75hv.py":47:20)
#loc53 = loc("/root/.cache/vllm/torch_compile_cache/torch_aot_compile/61bda05feca29378847c32f031efa5c8dba258f38b0176a06a3e99e41df8ca50/inductor_cache/bz/cbz6levsryuhn5zafoyu2atbs7muodww2ho5qy6m5ezngeuq75hv.py":48:37)
#loc54 = loc("/root/.cache/vllm/torch_compile_cache/torch_aot_compile/61bda05feca29378847c32f031efa5c8dba258f38b0176a06a3e99e41df8ca50/inductor_cache/bz/cbz6levsryuhn5zafoyu2atbs7muodww2ho5qy6m5ezngeuq75hv.py":48:31)
#loc55 = loc("/root/.cache/vllm/torch_compile_cache/torch_aot_compile/61bda05feca29378847c32f031efa5c8dba258f38b0176a06a3e99e41df8ca50/inductor_cache/bz/cbz6levsryuhn5zafoyu2atbs7muodww2ho5qy6m5ezngeuq75hv.py":48:50)
#loc56 = loc("/root/.cache/vllm/torch_compile_cache/torch_aot_compile/61bda05feca29378847c32f031efa5c8dba258f38b0176a06a3e99e41df8ca50/inductor_cache/bz/cbz6levsryuhn5zafoyu2atbs7muodww2ho5qy6m5ezngeuq75hv.py":48:42)
#loc57 = loc("/root/.cache/vllm/torch_compile_cache/torch_aot_compile/61bda05feca29378847c32f031efa5c8dba258f38b0176a06a3e99e41df8ca50/inductor_cache/bz/cbz6levsryuhn5zafoyu2atbs7muodww2ho5qy6m5ezngeuq75hv.py":50:20)
#loc58 = loc("/root/.cache/vllm/torch_compile_cache/torch_aot_compile/61bda05feca29378847c32f031efa5c8dba258f38b0176a06a3e99e41df8ca50/inductor_cache/bz/cbz6levsryuhn5zafoyu2atbs7muodww2ho5qy6m5ezngeuq75hv.py":51:20)
#loc59 = loc("/root/.cache/vllm/torch_compile_cache/torch_aot_compile/61bda05feca29378847c32f031efa5c8dba258f38b0176a06a3e99e41df8ca50/inductor_cache/bz/cbz6levsryuhn5zafoyu2atbs7muodww2ho5qy6m5ezngeuq75hv.py":52:35)
#loc60 = loc("/root/.cache/vllm/torch_compile_cache/torch_aot_compile/61bda05feca29378847c32f031efa5c8dba258f38b0176a06a3e99e41df8ca50/inductor_cache/bz/cbz6levsryuhn5zafoyu2atbs7muodww2ho5qy6m5ezngeuq75hv.py":53:28)
#loc61 = loc("/root/.cache/vllm/torch_compile_cache/torch_aot_compile/61bda05feca29378847c32f031efa5c8dba258f38b0176a06a3e99e41df8ca50/inductor_cache/bz/cbz6levsryuhn5zafoyu2atbs7muodww2ho5qy6m5ezngeuq75hv.py":53:100)
#loc62 = loc("/root/.cache/vllm/torch_compile_cache/torch_aot_compile/61bda05feca29378847c32f031efa5c8dba258f38b0176a06a3e99e41df8ca50/inductor_cache/bz/cbz6levsryuhn5zafoyu2atbs7muodww2ho5qy6m5ezngeuq75hv.py":53:65)
#loc63 = loc("/root/.cache/vllm/torch_compile_cache/torch_aot_compile/61bda05feca29378847c32f031efa5c8dba258f38b0176a06a3e99e41df8ca50/inductor_cache/bz/cbz6levsryuhn5zafoyu2atbs7muodww2ho5qy6m5ezngeuq75hv.py":53:114)
#loc64 = loc("/root/.cache/vllm/torch_compile_cache/torch_aot_compile/61bda05feca29378847c32f031efa5c8dba258f38b0176a06a3e99e41df8ca50/inductor_cache/bz/cbz6levsryuhn5zafoyu2atbs7muodww2ho5qy6m5ezngeuq75hv.py":53:112)
#loc65 = loc("/root/.cache/vllm/torch_compile_cache/torch_aot_compile/61bda05feca29378847c32f031efa5c8dba258f38b0176a06a3e99e41df8ca50/inductor_cache/bz/cbz6levsryuhn5zafoyu2atbs7muodww2ho5qy6m5ezngeuq75hv.py":53:130)
#loc66 = loc("/root/.cache/vllm/torch_compile_cache/torch_aot_compile/61bda05feca29378847c32f031efa5c8dba258f38b0176a06a3e99e41df8ca50/inductor_cache/bz/cbz6levsryuhn5zafoyu2atbs7muodww2ho5qy6m5ezngeuq75hv.py":54:83)
#loc67 = loc("/root/.cache/vllm/torch_compile_cache/torch_aot_compile/61bda05feca29378847c32f031efa5c8dba258f38b0176a06a3e99e41df8ca50/inductor_cache/bz/cbz6levsryuhn5zafoyu2atbs7muodww2ho5qy6m5ezngeuq75hv.py":54:38)
#loc68 = loc("/root/.cache/vllm/torch_compile_cache/torch_aot_compile/61bda05feca29378847c32f031efa5c8dba258f38b0176a06a3e99e41df8ca50/inductor_cache/bz/cbz6levsryuhn5zafoyu2atbs7muodww2ho5qy6m5ezngeuq75hv.py":54:35)
#loc69 = loc("/root/.cache/vllm/torch_compile_cache/torch_aot_compile/61bda05feca29378847c32f031efa5c8dba258f38b0176a06a3e99e41df8ca50/inductor_cache/bz/cbz6levsryuhn5zafoyu2atbs7muodww2ho5qy6m5ezngeuq75hv.py":54:92)
#loc70 = loc("/root/.cache/vllm/torch_compile_cache/torch_aot_compile/61bda05feca29378847c32f031efa5c8dba258f38b0176a06a3e99e41df8ca50/inductor_cache/bz/cbz6levsryuhn5zafoyu2atbs7muodww2ho5qy6m5ezngeuq75hv.py":54:89)
#loc71 = loc("/root/.cache/vllm/torch_compile_cache/torch_aot_compile/61bda05feca29378847c32f031efa5c8dba258f38b0176a06a3e99e41df8ca50/inductor_cache/bz/cbz6levsryuhn5zafoyu2atbs7muodww2ho5qy6m5ezngeuq75hv.py":54:31)
#loc72 = loc("/root/.cache/vllm/torch_compile_cache/torch_aot_compile/61bda05feca29378847c32f031efa5c8dba258f38b0176a06a3e99e41df8ca50/inductor_cache/bz/cbz6levsryuhn5zafoyu2atbs7muodww2ho5qy6m5ezngeuq75hv.py":54:100)
#loc73 = loc("/root/.cache/vllm/torch_compile_cache/torch_aot_compile/61bda05feca29378847c32f031efa5c8dba258f38b0176a06a3e99e41df8ca50/inductor_cache/bz/cbz6levsryuhn5zafoyu2atbs7muodww2ho5qy6m5ezngeuq75hv.py":54:159)
#loc74 = loc("/root/.cache/vllm/torch_compile_cache/torch_aot_compile/61bda05feca29378847c32f031efa5c8dba258f38b0176a06a3e99e41df8ca50/inductor_cache/bz/cbz6levsryuhn5zafoyu2atbs7muodww2ho5qy6m5ezngeuq75hv.py":56:20)
#loc75 = loc("/root/.cache/vllm/torch_compile_cache/torch_aot_compile/61bda05feca29378847c32f031efa5c8dba258f38b0176a06a3e99e41df8ca50/inductor_cache/bz/cbz6levsryuhn5zafoyu2atbs7muodww2ho5qy6m5ezngeuq75hv.py":57:20)
#loc76 = loc("/root/.cache/vllm/torch_compile_cache/torch_aot_compile/61bda05feca29378847c32f031efa5c8dba258f38b0176a06a3e99e41df8ca50/inductor_cache/bz/cbz6levsryuhn5zafoyu2atbs7muodww2ho5qy6m5ezngeuq75hv.py":58:35)
#loc77 = loc("/root/.cache/vllm/torch_compile_cache/torch_aot_compile/61bda05feca29378847c32f031efa5c8dba258f38b0176a06a3e99e41df8ca50/inductor_cache/bz/cbz6levsryuhn5zafoyu2atbs7muodww2ho5qy6m5ezngeuq75hv.py":59:28)
#loc78 = loc("/root/.cache/vllm/torch_compile_cache/torch_aot_compile/61bda05feca29378847c32f031efa5c8dba258f38b0176a06a3e99e41df8ca50/inductor_cache/bz/cbz6levsryuhn5zafoyu2atbs7muodww2ho5qy6m5ezngeuq75hv.py":59:46)
#loc79 = loc("/root/.cache/vllm/torch_compile_cache/torch_aot_compile/61bda05feca29378847c32f031efa5c8dba258f38b0176a06a3e99e41df8ca50/inductor_cache/bz/cbz6levsryuhn5zafoyu2atbs7muodww2ho5qy6m5ezngeuq75hv.py":59:38)
#loc80 = loc("/root/.cache/vllm/torch_compile_cache/torch_aot_compile/61bda05feca29378847c32f031efa5c8dba258f38b0176a06a3e99e41df8ca50/inductor_cache/bz/cbz6levsryuhn5zafoyu2atbs7muodww2ho5qy6m5ezngeuq75hv.py":59:60)
#loc81 = loc("/root/.cache/vllm/torch_compile_cache/torch_aot_compile/61bda05feca29378847c32f031efa5c8dba258f38b0176a06a3e99e41df8ca50/inductor_cache/bz/cbz6levsryuhn5zafoyu2atbs7muodww2ho5qy6m5ezngeuq75hv.py":59:58)
#loc82 = loc("/root/.cache/vllm/torch_compile_cache/torch_aot_compile/61bda05feca29378847c32f031efa5c8dba258f38b0176a06a3e99e41df8ca50/inductor_cache/bz/cbz6levsryuhn5zafoyu2atbs7muodww2ho5qy6m5ezngeuq75hv.py":59:68)
#loc83 = loc("/root/.cache/vllm/torch_compile_cache/torch_aot_compile/61bda05feca29378847c32f031efa5c8dba258f38b0176a06a3e99e41df8ca50/inductor_cache/bz/cbz6levsryuhn5zafoyu2atbs7muodww2ho5qy6m5ezngeuq75hv.py":60:39)
#loc84 = loc("/root/.cache/vllm/torch_compile_cache/torch_aot_compile/61bda05feca29378847c32f031efa5c8dba258f38b0176a06a3e99e41df8ca50/inductor_cache/bz/cbz6levsryuhn5zafoyu2atbs7muodww2ho5qy6m5ezngeuq75hv.py":60:36)
#loc85 = loc("/root/.cache/vllm/torch_compile_cache/torch_aot_compile/61bda05feca29378847c32f031efa5c8dba258f38b0176a06a3e99e41df8ca50/inductor_cache/bz/cbz6levsryuhn5zafoyu2atbs7muodww2ho5qy6m5ezngeuq75hv.py":60:31)
#loc86 = loc("/root/.cache/vllm/torch_compile_cache/torch_aot_compile/61bda05feca29378847c32f031efa5c8dba258f38b0176a06a3e99e41df8ca50/inductor_cache/bz/cbz6levsryuhn5zafoyu2atbs7muodww2ho5qy6m5ezngeuq75hv.py":60:47)
#loc87 = loc("/root/.cache/vllm/torch_compile_cache/torch_aot_compile/61bda05feca29378847c32f031efa5c8dba258f38b0176a06a3e99e41df8ca50/inductor_cache/bz/cbz6levsryuhn5zafoyu2atbs7muodww2ho5qy6m5ezngeuq75hv.py":60:57)
#loc88 = loc("/root/.cache/vllm/torch_compile_cache/torch_aot_compile/61bda05feca29378847c32f031efa5c8dba258f38b0176a06a3e99e41df8ca50/inductor_cache/bz/cbz6levsryuhn5zafoyu2atbs7muodww2ho5qy6m5ezngeuq75hv.py":61:35)
#loc89 = loc("/root/.cache/vllm/torch_compile_cache/torch_aot_compile/61bda05feca29378847c32f031efa5c8dba258f38b0176a06a3e99e41df8ca50/inductor_cache/bz/cbz6levsryuhn5zafoyu2atbs7muodww2ho5qy6m5ezngeuq75hv.py":62:34)
#loc90 = loc("/root/.cache/vllm/torch_compile_cache/torch_aot_compile/61bda05feca29378847c32f031efa5c8dba258f38b0176a06a3e99e41df8ca50/inductor_cache/bz/cbz6levsryuhn5zafoyu2atbs7muodww2ho5qy6m5ezngeuq75hv.py":63:90)
#loc91 = loc("/root/.cache/vllm/torch_compile_cache/torch_aot_compile/61bda05feca29378847c32f031efa5c8dba258f38b0176a06a3e99e41df8ca50/inductor_cache/bz/cbz6levsryuhn5zafoyu2atbs7muodww2ho5qy6m5ezngeuq75hv.py":63:31)
#loc92 = loc("/root/.cache/vllm/torch_compile_cache/torch_aot_compile/61bda05feca29378847c32f031efa5c8dba258f38b0176a06a3e99e41df8ca50/inductor_cache/bz/cbz6levsryuhn5zafoyu2atbs7muodww2ho5qy6m5ezngeuq75hv.py":63:101)
#loc93 = loc("/root/.cache/vllm/torch_compile_cache/torch_aot_compile/61bda05feca29378847c32f031efa5c8dba258f38b0176a06a3e99e41df8ca50/inductor_cache/bz/cbz6levsryuhn5zafoyu2atbs7muodww2ho5qy6m5ezngeuq75hv.py":63:159)
#loc94 = loc("/root/.cache/vllm/torch_compile_cache/torch_aot_compile/61bda05feca29378847c32f031efa5c8dba258f38b0176a06a3e99e41df8ca50/inductor_cache/bz/cbz6levsryuhn5zafoyu2atbs7muodww2ho5qy6m5ezngeuq75hv.py":64:90)
#loc95 = loc("/root/.cache/vllm/torch_compile_cache/torch_aot_compile/61bda05feca29378847c32f031efa5c8dba258f38b0176a06a3e99e41df8ca50/inductor_cache/bz/cbz6levsryuhn5zafoyu2atbs7muodww2ho5qy6m5ezngeuq75hv.py":64:31)
#loc96 = loc("/root/.cache/vllm/torch_compile_cache/torch_aot_compile/61bda05feca29378847c32f031efa5c8dba258f38b0176a06a3e99e41df8ca50/inductor_cache/bz/cbz6levsryuhn5zafoyu2atbs7muodww2ho5qy6m5ezngeuq75hv.py":64:101)
#loc97 = loc("/root/.cache/vllm/torch_compile_cache/torch_aot_compile/61bda05feca29378847c32f031efa5c8dba258f38b0176a06a3e99e41df8ca50/inductor_cache/bz/cbz6levsryuhn5zafoyu2atbs7muodww2ho5qy6m5ezngeuq75hv.py":64:160)
#loc98 = loc("/root/.cache/vllm/torch_compile_cache/torch_aot_compile/61bda05feca29378847c32f031efa5c8dba258f38b0176a06a3e99e41df8ca50/inductor_cache/bz/cbz6levsryuhn5zafoyu2atbs7muodww2ho5qy6m5ezngeuq75hv.py":65:36)
#loc99 = loc("/root/.cache/vllm/torch_compile_cache/torch_aot_compile/61bda05feca29378847c32f031efa5c8dba258f38b0176a06a3e99e41df8ca50/inductor_cache/bz/cbz6levsryuhn5zafoyu2atbs7muodww2ho5qy6m5ezngeuq75hv.py":65:41)
#loc100 = loc("/root/.cache/vllm/torch_compile_cache/torch_aot_compile/61bda05feca29378847c32f031efa5c8dba258f38b0176a06a3e99e41df8ca50/inductor_cache/bz/cbz6levsryuhn5zafoyu2atbs7muodww2ho5qy6m5ezngeuq75hv.py":65:31)
#loc101 = loc("/root/.cache/vllm/torch_compile_cache/torch_aot_compile/61bda05feca29378847c32f031efa5c8dba258f38b0176a06a3e99e41df8ca50/inductor_cache/bz/cbz6levsryuhn5zafoyu2atbs7muodww2ho5qy6m5ezngeuq75hv.py":65:52)
#loc102 = loc("/root/.cache/vllm/torch_compile_cache/torch_aot_compile/61bda05feca29378847c32f031efa5c8dba258f38b0176a06a3e99e41df8ca50/inductor_cache/bz/cbz6levsryuhn5zafoyu2atbs7muodww2ho5qy6m5ezngeuq75hv.py":65:62)
#loc103 = loc("/root/.cache/vllm/torch_compile_cache/torch_aot_compile/61bda05feca29378847c32f031efa5c8dba258f38b0176a06a3e99e41df8ca50/inductor_cache/bz/cbz6levsryuhn5zafoyu2atbs7muodww2ho5qy6m5ezngeuq75hv.py":66:35)
#loc104 = loc("/root/.cache/vllm/torch_compile_cache/torch_aot_compile/61bda05feca29378847c32f031efa5c8dba258f38b0176a06a3e99e41df8ca50/inductor_cache/bz/cbz6levsryuhn5zafoyu2atbs7muodww2ho5qy6m5ezngeuq75hv.py":67:34)
#loc105 = loc("/root/.cache/vllm/torch_compile_cache/torch_aot_compile/61bda05feca29378847c32f031efa5c8dba258f38b0176a06a3e99e41df8ca50/inductor_cache/bz/cbz6levsryuhn5zafoyu2atbs7muodww2ho5qy6m5ezngeuq75hv.py":68:25)
#loc106 = loc("/root/.cache/vllm/torch_compile_cache/torch_aot_compile/61bda05feca29378847c32f031efa5c8dba258f38b0176a06a3e99e41df8ca50/inductor_cache/bz/cbz6levsryuhn5zafoyu2atbs7muodww2ho5qy6m5ezngeuq75hv.py":68:37)
#loc107 = loc("/root/.cache/vllm/torch_compile_cache/torch_aot_compile/61bda05feca29378847c32f031efa5c8dba258f38b0176a06a3e99e41df8ca50/inductor_cache/bz/cbz6levsryuhn5zafoyu2atbs7muodww2ho5qy6m5ezngeuq75hv.py":69:25)
#loc108 = loc("/root/.cache/vllm/torch_compile_cache/torch_aot_compile/61bda05feca29378847c32f031efa5c8dba258f38b0176a06a3e99e41df8ca50/inductor_cache/bz/cbz6levsryuhn5zafoyu2atbs7muodww2ho5qy6m5ezngeuq75hv.py":69:37)
#loc109 = loc("/root/.cache/vllm/torch_compile_cache/torch_aot_compile/61bda05feca29378847c32f031efa5c8dba258f38b0176a06a3e99e41df8ca50/inductor_cache/bz/cbz6levsryuhn5zafoyu2atbs7muodww2ho5qy6m5ezngeuq75hv.py":69:4)
#loc116 = loc("tmp39"(#loc2))
#loc117 = loc("tmp38"(#loc3))
#loc118 = loc("tmp18"(#loc4))
#loc119 = loc("tmp16"(#loc5))
#loc120 = loc("tmp4"(#loc6))
#loc121 = loc("tmp2"(#loc7))
#loc122 = loc("xoffset"(#loc8))
#loc123 = loc("xoffset"(#loc9))
#loc124 = loc("xindex"(#loc10))
#loc125 = loc("xindex"(#loc11))
#loc126 = loc("xmask"(#loc12))
#loc127 = loc("x0"(#loc13))
#loc128 = loc("x1"(#loc14))
#loc129 = loc("tmp29"(#loc15))
#loc130 = loc("tmp29"(#loc16))
#loc131 = loc("tmp5"(#loc17))
#loc132 = loc("tmp5"(#loc18))
#loc133 = loc("tmp7"(#loc19))
#loc134 = loc("tmp8"(#loc20))
#loc135 = loc("tmp9"(#loc21))
#loc136 = loc("tmp10"(#loc22))
#loc137 = loc("tmp10"(#loc23))
#loc138 = loc("tmp10"(#loc24))
#loc139 = loc("tmp10"(#loc25))
#loc140 = loc("tmp10"(#loc26))
#loc141 = loc("tmp12"(#loc27))
#loc142 = loc("tmp13"(#loc28))
#loc143 = loc("tmp14"(#loc29))
#loc144 = loc("quot"(#loc36))
#loc145 = loc("tmp16"(#loc37))
#loc146 = loc("fixed"(#loc38))
#loc147 = loc("fixed"(#loc39))
#loc148 = loc("fixed"(#loc40))
#loc149 = loc("tmp16"(#loc43))
#loc150 = loc("tmp16"(#loc44))
#loc151 = loc("tmp16"(#loc45))
#loc152 = loc("tmp16"(#loc46))
#loc153 = loc("tmp16"(#loc47))
#loc154 = loc("tmp16"(#loc48))
#loc155 = loc("tmp19"(#loc49))
#loc156 = loc("tmp19"(#loc50))
#loc157 = loc("tmp20"(#loc51))
#loc158 = loc("tmp21"(#loc52))
#loc159 = loc("tmp22"(#loc53))
#loc160 = loc("tmp22"(#loc54))
#loc161 = loc("tmp22"(#loc55))
#loc162 = loc("tmp22"(#loc56))
#loc163 = loc("tmp24"(#loc57))
#loc164 = loc("tmp25"(#loc58))
#loc165 = loc("tmp26"(#loc59))
#loc166 = loc("tmp28"(#loc66))
#loc167 = loc("tmp28"(#loc67))
#loc168 = loc("tmp28"(#loc68))
#loc169 = loc("tmp28"(#loc69))
#loc170 = loc("tmp28"(#loc70))
#loc171 = loc("tmp28"(#loc71))
#loc172 = loc("tmp28"(#loc72))
#loc173 = loc("tmp28"(#loc73))
#loc174 = loc("tmp31"(#loc74))
#loc175 = loc("tmp32"(#loc75))
#loc176 = loc("tmp33"(#loc76))
#loc177 = loc("tmp35"(#loc83))
#loc178 = loc("tmp35"(#loc84))
#loc179 = loc("tmp35"(#loc85))
#loc180 = loc("tmp35"(#loc86))
#loc181 = loc("tmp35"(#loc87))
#loc182 = loc("tmp36"(#loc88))
#loc183 = loc("tmp37"(#loc89))
#loc184 = loc("tmp38"(#loc90))
#loc185 = loc("tmp38"(#loc91))
#loc186 = loc("tmp38"(#loc92))
#loc187 = loc("tmp38"(#loc93))
#loc188 = loc("tmp39"(#loc94))
#loc189 = loc("tmp39"(#loc95))
#loc190 = loc("tmp39"(#loc96))
#loc191 = loc("tmp39"(#loc97))
#loc192 = loc("tmp40"(#loc98))
#loc193 = loc("tmp40"(#loc99))
#loc194 = loc("tmp40"(#loc100))
#loc195 = loc("tmp40"(#loc101))
#loc196 = loc("tmp40"(#loc102))
#loc197 = loc("tmp41"(#loc103))
#loc198 = loc("tmp42"(#loc104))
#loc199 = loc(callsite(#loc144 at #loc145))
#loc200 = loc(callsite(#loc146 at #loc145))
#loc201 = loc(callsite(#loc147 at #loc145))
#loc202 = loc(callsite(#loc148 at #loc145))
#loc203 = loc(callsite(#loc41 at #loc145))
#loc204 = loc(callsite(#loc42 at #loc145))
#loc205 = loc(callsite(#loc144 at #loc166))
#loc206 = loc(callsite(#loc146 at #loc166))
#loc207 = loc(callsite(#loc147 at #loc166))
#loc208 = loc(callsite(#loc148 at #loc166))
#loc209 = loc(callsite(#loc41 at #loc166))
#loc210 = loc(callsite(#loc42 at #loc166))
