#loc = loc("/usr/local/lib/python3.12/dist-packages/vllm/model_executor/layers/fla/ops/chunk_o.py":42:0)
#loc77 = loc("q"(#loc))
#loc78 = loc("k"(#loc))
#loc79 = loc("v"(#loc))
#loc80 = loc("h"(#loc))
#loc81 = loc("g"(#loc))
#loc82 = loc("o"(#loc))
#loc83 = loc("cu_seqlens"(#loc))
#loc84 = loc("chunk_indices"(#loc))
#loc85 = loc("scale"(#loc))
#loc86 = loc("T"(#loc))
module {
  tt.func public @chunk_fwd_kernel_o(%q: !tt.ptr<f16> {tt.divisibility = 16 : i32} loc("q"(#loc)), %k: !tt.ptr<f16> {tt.divisibility = 16 : i32} loc("k"(#loc)), %v: !tt.ptr<f16> {tt.divisibility = 16 : i32} loc("v"(#loc)), %h: !tt.ptr<f16> {tt.divisibility = 16 : i32} loc("h"(#loc)), %g: !tt.ptr<f32> {tt.divisibility = 16 : i32} loc("g"(#loc)), %o: !tt.ptr<f16> {tt.divisibility = 16 : i32} loc("o"(#loc)), %cu_seqlens: !tt.ptr<i32> {tt.divisibility = 16 : i32} loc("cu_seqlens"(#loc)), %chunk_indices: !tt.ptr<i32> {tt.divisibility = 16 : i32} loc("chunk_indices"(#loc)), %scale: f32 loc("scale"(#loc)), %T: i32 loc("T"(#loc))) attributes {noinline = false} {
    %cst = arith.constant dense<2048> : tensor<64x1xi64> loc(#loc1)
    %b_g = arith.constant dense<0> : tensor<64xi64> loc(#loc87)
    %b_g_0 = arith.constant dense<16> : tensor<64xi64> loc(#loc87)
    %cst_1 = arith.constant dense<128> : tensor<64x1xi64> loc(#loc1)
    %cst_2 = arith.constant dense<1024> : tensor<1x64xi64> loc(#loc1)
    %cst_3 = arith.constant dense<128> : tensor<1x64xi64> loc(#loc1)
    %cst_4 = arith.constant dense<0> : tensor<1x64xi64> loc(#loc1)
    %cst_5 = arith.constant dense<0> : tensor<64x1xi64> loc(#loc1)
    %cst_6 = arith.constant dense<1024> : tensor<64x1xi64> loc(#loc1)
    %c0_i32 = arith.constant 0 : i32 loc(#loc3)
    %h_7 = arith.constant 16384 : i64 loc(#loc88)
    %cst_8 = arith.constant dense<0.000000e+00> : tensor<64x64xf32> loc(#loc1)
    %c64_i32 = arith.constant 64 : i32 loc(#loc1)
    %c128_i32 = arith.constant 128 : i32 loc(#loc1)
    %c8_i32 = arith.constant 8 : i32 loc(#loc1)
    %c1_i32 = arith.constant 1 : i32 loc(#loc1)
    %c2_i32 = arith.constant 2 : i32 loc(#loc1)
    %c16_i32 = arith.constant 16 : i32 loc(#loc1)
    %0 = tt.get_program_id x : i32 loc(#loc5)
    %1 = tt.get_program_id y : i32 loc(#loc6)
    %2 = tt.get_program_id z : i32 loc(#loc7)
    %3 = arith.remsi %2, %c16_i32 : i32 loc(#loc8)
    %4 = arith.muli %1, %c2_i32 : i32 loc(#loc9)
    %5 = tt.addptr %chunk_indices, %4 : !tt.ptr<i32>, i32 loc(#loc10)
    %6 = tt.load %5 : !tt.ptr<i32> loc(#loc11)
    %7 = tt.addptr %5, %c1_i32 : !tt.ptr<i32>, i32 loc(#loc12)
    %8 = tt.load %7 : !tt.ptr<i32> loc(#loc13)
    %9 = tt.addptr %cu_seqlens, %6 : !tt.ptr<i32>, i32 loc(#loc14)
    %10 = tt.load %9 : !tt.ptr<i32> loc(#loc15)
    %11 = tt.addptr %9, %c1_i32 : !tt.ptr<i32>, i32 loc(#loc16)
    %12 = tt.load %11 : !tt.ptr<i32> loc(#loc17)
    %T_9 = arith.subi %12, %10 : i32 loc(#loc89)
    %q_10 = arith.muli %10, %c8_i32 : i32 loc(#loc90)
    %q_11 = arith.divsi %3, %c2_i32 : i32 loc(#loc91)
    %q_12 = arith.addi %q_10, %q_11 : i32 loc(#loc92)
    %q_13 = arith.muli %q_12, %c128_i32 : i32 loc(#loc93)
    %q_14 = tt.addptr %q, %q_13 : !tt.ptr<f16>, i32 loc(#loc94)
    %k_15 = tt.addptr %k, %q_13 : !tt.ptr<f16>, i32 loc(#loc95)
    %v_16 = arith.muli %10, %c16_i32 : i32 loc(#loc96)
    %v_17 = arith.addi %v_16, %3 : i32 loc(#loc97)
    %v_18 = arith.muli %v_17, %c128_i32 : i32 loc(#loc98)
    %v_19 = tt.addptr %v, %v_18 : !tt.ptr<f16>, i32 loc(#loc99)
    %o_20 = tt.addptr %o, %v_18 : !tt.ptr<f16>, i32 loc(#loc100)
    %h_21 = arith.muli %1, %c16_i32 : i32 loc(#loc101)
    %h_22 = arith.addi %h_21, %3 : i32 loc(#loc102)
    %h_23 = arith.extsi %h_22 : i32 to i64 loc(#loc103)
    %h_24 = arith.muli %h_23, %h_7 : i64 loc(#loc88)
    %h_25 = tt.addptr %h, %h_24 : !tt.ptr<f16>, i64 loc(#loc104)
    %b_A:2 = scf.for %i_k = %c0_i32 to %c2_i32 step %c1_i32 iter_args(%b_o_91 = %cst_8, %b_A_92 = %cst_8) -> (tensor<64x64xf32>, tensor<64x64xf32>)  : i32 {
      %p_q = arith.muli %8, %c64_i32 : i32 loc(#loc106)
      %p_q_93 = arith.muli %i_k, %c64_i32 : i32 loc(#loc107)
      %p_q_94 = arith.extsi %T_9 : i32 to i64 loc(#loc108)
      %p_q_95 = arith.extsi %p_q : i32 to i64 loc(#loc108)
      %p_q_96 = arith.extsi %p_q_93 : i32 to i64 loc(#loc108)
      %p_h = arith.muli %0, %c64_i32 : i32 loc(#loc109)
      %p_h_97 = arith.extsi %p_h : i32 to i64 loc(#loc110)
      %b_q = tt.splat %q_14 : !tt.ptr<f16> -> tensor<64x64x!tt.ptr<f16>> loc(#loc111)
      %b_q_98 = tt.splat %p_q_95 : i64 -> tensor<64xi64> loc(#loc111)
      %b_q_99 = tt.make_range {end = 64 : i32, start = 0 : i32} : tensor<64xi32> loc(#loc111)
      %b_q_100 = arith.extsi %b_q_99 : tensor<64xi32> to tensor<64xi64> loc(#loc111)
      %b_q_101 = arith.addi %b_q_98, %b_q_100 : tensor<64xi64> loc(#loc111)
      %b_q_102 = tt.expand_dims %b_q_101 {axis = 1 : i32} : tensor<64xi64> -> tensor<64x1xi64> loc(#loc111)
      %b_q_103 = arith.muli %b_q_102, %cst_6 : tensor<64x1xi64> loc(#loc111)
      %b_q_104 = tt.broadcast %b_q_103 : tensor<64x1xi64> -> tensor<64x64xi64> loc(#loc111)
      %b_q_105 = tt.splat %p_q_96 : i64 -> tensor<64xi64> loc(#loc111)
      %b_q_106 = arith.addi %b_q_105, %b_q_100 : tensor<64xi64> loc(#loc111)
      %b_q_107 = tt.expand_dims %b_q_106 {axis = 0 : i32} : tensor<64xi64> -> tensor<1x64xi64> loc(#loc111)
      %b_q_108 = tt.broadcast %b_q_107 : tensor<1x64xi64> -> tensor<64x64xi64> loc(#loc111)
      %b_q_109 = arith.addi %b_q_104, %b_q_108 : tensor<64x64xi64> loc(#loc111)
      %b_q_110 = tt.addptr %b_q, %b_q_109 : tensor<64x64x!tt.ptr<f16>>, tensor<64x64xi64> loc(#loc111)
      %b_q_111 = arith.cmpi sge, %b_q_102, %cst_5 : tensor<64x1xi64> loc(#loc111)
      %b_q_112 = tt.splat %p_q_94 : i64 -> tensor<64x1xi64> loc(#loc111)
      %b_q_113 = arith.cmpi slt, %b_q_102, %b_q_112 : tensor<64x1xi64> loc(#loc111)
      %b_q_114 = arith.andi %b_q_111, %b_q_113 : tensor<64x1xi1> loc(#loc111)
      %b_q_115 = tt.broadcast %b_q_114 : tensor<64x1xi1> -> tensor<64x64xi1> loc(#loc111)
      %b_q_116 = arith.cmpi sge, %b_q_107, %cst_4 : tensor<1x64xi64> loc(#loc111)
      %b_q_117 = arith.cmpi slt, %b_q_107, %cst_3 : tensor<1x64xi64> loc(#loc111)
      %b_q_118 = arith.andi %b_q_116, %b_q_117 : tensor<1x64xi1> loc(#loc111)
      %b_q_119 = tt.broadcast %b_q_118 : tensor<1x64xi1> -> tensor<64x64xi1> loc(#loc111)
      %b_q_120 = arith.andi %b_q_115, %b_q_119 : tensor<64x64xi1> loc(#loc111)
      %b_q_121 = tt.load %b_q_110, %b_q_120 : tensor<64x64x!tt.ptr<f16>> loc(#loc111)
      %b_k = tt.splat %k_15 : !tt.ptr<f16> -> tensor<64x64x!tt.ptr<f16>> loc(#loc112)
      %b_k_122 = tt.expand_dims %b_q_106 {axis = 1 : i32} : tensor<64xi64> -> tensor<64x1xi64> loc(#loc112)
      %b_k_123 = tt.broadcast %b_k_122 : tensor<64x1xi64> -> tensor<64x64xi64> loc(#loc112)
      %b_k_124 = tt.expand_dims %b_q_101 {axis = 0 : i32} : tensor<64xi64> -> tensor<1x64xi64> loc(#loc112)
      %b_k_125 = arith.muli %b_k_124, %cst_2 : tensor<1x64xi64> loc(#loc112)
      %b_k_126 = tt.broadcast %b_k_125 : tensor<1x64xi64> -> tensor<64x64xi64> loc(#loc112)
      %b_k_127 = arith.addi %b_k_123, %b_k_126 : tensor<64x64xi64> loc(#loc112)
      %b_k_128 = tt.addptr %b_k, %b_k_127 : tensor<64x64x!tt.ptr<f16>>, tensor<64x64xi64> loc(#loc112)
      %b_k_129 = arith.cmpi sge, %b_k_122, %cst_5 : tensor<64x1xi64> loc(#loc112)
      %b_k_130 = arith.cmpi slt, %b_k_122, %cst_1 : tensor<64x1xi64> loc(#loc112)
      %b_k_131 = arith.andi %b_k_129, %b_k_130 : tensor<64x1xi1> loc(#loc112)
      %b_k_132 = tt.broadcast %b_k_131 : tensor<64x1xi1> -> tensor<64x64xi1> loc(#loc112)
      %b_k_133 = arith.cmpi sge, %b_k_124, %cst_4 : tensor<1x64xi64> loc(#loc112)
      %b_k_134 = tt.splat %p_q_94 : i64 -> tensor<1x64xi64> loc(#loc112)
      %b_k_135 = arith.cmpi slt, %b_k_124, %b_k_134 : tensor<1x64xi64> loc(#loc112)
      %b_k_136 = arith.andi %b_k_133, %b_k_135 : tensor<1x64xi1> loc(#loc112)
      %b_k_137 = tt.broadcast %b_k_136 : tensor<1x64xi1> -> tensor<64x64xi1> loc(#loc112)
      %b_k_138 = arith.andi %b_k_132, %b_k_137 : tensor<64x64xi1> loc(#loc112)
      %b_k_139 = tt.load %b_k_128, %b_k_138 : tensor<64x64x!tt.ptr<f16>> loc(#loc112)
      %b_h = tt.splat %h_25 : !tt.ptr<f16> -> tensor<64x64x!tt.ptr<f16>> loc(#loc113)
      %b_h_140 = tt.splat %p_h_97 : i64 -> tensor<64xi64> loc(#loc113)
      %b_h_141 = arith.addi %b_h_140, %b_q_100 : tensor<64xi64> loc(#loc113)
      %b_h_142 = tt.expand_dims %b_h_141 {axis = 1 : i32} : tensor<64xi64> -> tensor<64x1xi64> loc(#loc113)
      %b_h_143 = arith.muli %b_h_142, %cst_1 : tensor<64x1xi64> loc(#loc113)
      %b_h_144 = tt.broadcast %b_h_143 : tensor<64x1xi64> -> tensor<64x64xi64> loc(#loc113)
      %b_h_145 = arith.addi %b_h_144, %b_q_108 : tensor<64x64xi64> loc(#loc113)
      %b_h_146 = tt.addptr %b_h, %b_h_145 : tensor<64x64x!tt.ptr<f16>>, tensor<64x64xi64> loc(#loc113)
      %b_h_147 = arith.cmpi sge, %b_h_142, %cst_5 : tensor<64x1xi64> loc(#loc113)
      %b_h_148 = arith.cmpi slt, %b_h_142, %cst_1 : tensor<64x1xi64> loc(#loc113)
      %b_h_149 = arith.andi %b_h_147, %b_h_148 : tensor<64x1xi1> loc(#loc113)
      %b_h_150 = tt.broadcast %b_h_149 : tensor<64x1xi1> -> tensor<64x64xi1> loc(#loc113)
      %b_h_151 = arith.andi %b_h_150, %b_q_119 : tensor<64x64xi1> loc(#loc113)
      %b_h_152 = tt.load %b_h_146, %b_h_151 : tensor<64x64x!tt.ptr<f16>> loc(#loc113)
      %b_o_153 = tt.trans %b_h_152 {order = array<i32: 1, 0>} : tensor<64x64xf16> -> tensor<64x64xf16> loc(#loc114)
      %b_o_154 = tt.dot %b_q_121, %b_o_153, %b_o_91, inputPrecision = tf32 : tensor<64x64xf16> * tensor<64x64xf16> -> tensor<64x64xf32> loc(#loc115)
      %b_A_155 = tt.dot %b_q_121, %b_k_139, %b_A_92, inputPrecision = tf32 : tensor<64x64xf16> * tensor<64x64xf16> -> tensor<64x64xf32> loc(#loc116)
      scf.yield %b_o_154, %b_A_155 : tensor<64x64xf32>, tensor<64x64xf32> loc(#loc45)
    } loc(#loc145)
    %g_26 = tt.addptr %g, %v_17 : !tt.ptr<f32>, i32 loc(#loc117)
    %p_g = arith.muli %8, %c64_i32 : i32 loc(#loc118)
    %p_g_27 = arith.extsi %T_9 : i32 to i64 loc(#loc119)
    %p_g_28 = arith.extsi %p_g : i32 to i64 loc(#loc119)
    %b_g_29 = tt.splat %g_26 : !tt.ptr<f32> -> tensor<64x!tt.ptr<f32>> loc(#loc87)
    %b_g_30 = tt.splat %p_g_28 : i64 -> tensor<64xi64> loc(#loc87)
    %b_g_31 = tt.make_range {end = 64 : i32, start = 0 : i32} : tensor<64xi32> loc(#loc87)
    %b_g_32 = arith.extsi %b_g_31 : tensor<64xi32> to tensor<64xi64> loc(#loc87)
    %b_g_33 = arith.addi %b_g_30, %b_g_32 : tensor<64xi64> loc(#loc87)
    %b_g_34 = arith.muli %b_g_33, %b_g_0 : tensor<64xi64> loc(#loc87)
    %b_g_35 = tt.addptr %b_g_29, %b_g_34 : tensor<64x!tt.ptr<f32>>, tensor<64xi64> loc(#loc87)
    %b_g_36 = arith.cmpi sge, %b_g_33, %b_g : tensor<64xi64> loc(#loc87)
    %b_g_37 = tt.splat %p_g_27 : i64 -> tensor<64xi64> loc(#loc87)
    %b_g_38 = arith.cmpi slt, %b_g_33, %b_g_37 : tensor<64xi64> loc(#loc87)
    %b_g_39 = arith.andi %b_g_36, %b_g_38 : tensor<64xi1> loc(#loc87)
    %b_g_40 = tt.load %b_g_35, %b_g_39 : tensor<64x!tt.ptr<f32>> loc(#loc87)
    %b_o = math.exp %b_g_40 : tensor<64xf32> loc(#loc120)
    %b_o_41 = tt.expand_dims %b_o {axis = 1 : i32} : tensor<64xf32> -> tensor<64x1xf32> loc(#loc121)
    %b_o_42 = tt.broadcast %b_o_41 : tensor<64x1xf32> -> tensor<64x64xf32> loc(#loc122)
    %b_o_43 = arith.mulf %b_A#0, %b_o_42 : tensor<64x64xf32> loc(#loc122)
    %b_A_44 = tt.expand_dims %b_g_40 {axis = 1 : i32} : tensor<64xf32> -> tensor<64x1xf32> loc(#loc123)
    %b_A_45 = tt.expand_dims %b_g_40 {axis = 0 : i32} : tensor<64xf32> -> tensor<1x64xf32> loc(#loc124)
    %b_A_46 = tt.broadcast %b_A_44 : tensor<64x1xf32> -> tensor<64x64xf32> loc(#loc125)
    %b_A_47 = tt.broadcast %b_A_45 : tensor<1x64xf32> -> tensor<64x64xf32> loc(#loc125)
    %b_A_48 = arith.subf %b_A_46, %b_A_47 : tensor<64x64xf32> loc(#loc125)
    %b_A_49 = math.exp %b_A_48 : tensor<64x64xf32> loc(#loc126)
    %b_A_50 = arith.mulf %b_A#1, %b_A_49 : tensor<64x64xf32> loc(#loc127)
    %o_t = tt.splat %p_g : i32 -> tensor<64xi32> loc(#loc128)
    %o_t_51 = arith.addi %o_t, %b_g_31 : tensor<64xi32> loc(#loc128)
    %m_t = tt.splat %T_9 : i32 -> tensor<64xi32> loc(#loc129)
    %m_t_52 = arith.cmpi slt, %o_t_51, %m_t : tensor<64xi32> loc(#loc129)
    %m_A = tt.expand_dims %o_t_51 {axis = 1 : i32} : tensor<64xi32> -> tensor<64x1xi32> loc(#loc130)
    %m_A_53 = tt.expand_dims %o_t_51 {axis = 0 : i32} : tensor<64xi32> -> tensor<1x64xi32> loc(#loc131)
    %m_A_54 = tt.broadcast %m_A : tensor<64x1xi32> -> tensor<64x64xi32> loc(#loc132)
    %m_A_55 = tt.broadcast %m_A_53 : tensor<1x64xi32> -> tensor<64x64xi32> loc(#loc132)
    %m_A_56 = arith.cmpi sge, %m_A_54, %m_A_55 : tensor<64x64xi32> loc(#loc132)
    %m_A_57 = tt.expand_dims %m_t_52 {axis = 1 : i32} : tensor<64xi1> -> tensor<64x1xi1> loc(#loc133)
    %m_A_58 = tt.expand_dims %m_t_52 {axis = 0 : i32} : tensor<64xi1> -> tensor<1x64xi1> loc(#loc134)
    %m_A_59 = tt.broadcast %m_A_57 : tensor<64x1xi1> -> tensor<64x64xi1> loc(#loc134)
    %m_A_60 = tt.broadcast %m_A_58 : tensor<1x64xi1> -> tensor<64x64xi1> loc(#loc134)
    %m_A_61 = arith.andi %m_A_59, %m_A_60 : tensor<64x64xi1> loc(#loc134)
    %m_A_62 = arith.andi %m_A_56, %m_A_61 : tensor<64x64xi1> loc(#loc135)
    %b_A_63 = arith.select %m_A_62, %b_A_50, %cst_8 : tensor<64x64xi1>, tensor<64x64xf32> loc(#loc136)
    %p_v = arith.muli %0, %c64_i32 : i32 loc(#loc137)
    %p_v_64 = arith.extsi %p_v : i32 to i64 loc(#loc138)
    %b_v = tt.splat %v_19 : !tt.ptr<f16> -> tensor<64x64x!tt.ptr<f16>> loc(#loc139)
    %b_v_65 = tt.expand_dims %b_g_33 {axis = 1 : i32} : tensor<64xi64> -> tensor<64x1xi64> loc(#loc139)
    %b_v_66 = arith.muli %b_v_65, %cst : tensor<64x1xi64> loc(#loc139)
    %b_v_67 = tt.broadcast %b_v_66 : tensor<64x1xi64> -> tensor<64x64xi64> loc(#loc139)
    %b_v_68 = tt.splat %p_v_64 : i64 -> tensor<64xi64> loc(#loc139)
    %b_v_69 = arith.addi %b_v_68, %b_g_32 : tensor<64xi64> loc(#loc139)
    %b_v_70 = tt.expand_dims %b_v_69 {axis = 0 : i32} : tensor<64xi64> -> tensor<1x64xi64> loc(#loc139)
    %b_v_71 = tt.broadcast %b_v_70 : tensor<1x64xi64> -> tensor<64x64xi64> loc(#loc139)
    %b_v_72 = arith.addi %b_v_67, %b_v_71 : tensor<64x64xi64> loc(#loc139)
    %b_v_73 = tt.addptr %b_v, %b_v_72 : tensor<64x64x!tt.ptr<f16>>, tensor<64x64xi64> loc(#loc139)
    %b_v_74 = arith.cmpi sge, %b_v_65, %cst_5 : tensor<64x1xi64> loc(#loc139)
    %b_v_75 = tt.splat %p_g_27 : i64 -> tensor<64x1xi64> loc(#loc139)
    %b_v_76 = arith.cmpi slt, %b_v_65, %b_v_75 : tensor<64x1xi64> loc(#loc139)
    %b_v_77 = arith.andi %b_v_74, %b_v_76 : tensor<64x1xi1> loc(#loc139)
    %b_v_78 = tt.broadcast %b_v_77 : tensor<64x1xi1> -> tensor<64x64xi1> loc(#loc139)
    %b_v_79 = arith.cmpi sge, %b_v_70, %cst_4 : tensor<1x64xi64> loc(#loc139)
    %b_v_80 = arith.cmpi slt, %b_v_70, %cst_3 : tensor<1x64xi64> loc(#loc139)
    %b_v_81 = arith.andi %b_v_79, %b_v_80 : tensor<1x64xi1> loc(#loc139)
    %b_v_82 = tt.broadcast %b_v_81 : tensor<1x64xi1> -> tensor<64x64xi1> loc(#loc139)
    %b_v_83 = arith.andi %b_v_78, %b_v_82 : tensor<64x64xi1> loc(#loc139)
    %b_v_84 = tt.load %b_v_73, %b_v_83 : tensor<64x64x!tt.ptr<f16>> loc(#loc139)
    %b_o_85 = tt.splat %scale : f32 -> tensor<64x64xf32> loc(#loc140)
    %b_o_86 = arith.mulf %b_o_43, %b_o_85 : tensor<64x64xf32> loc(#loc140)
    %b_o_87 = arith.truncf %b_A_63 : tensor<64x64xf32> to tensor<64x64xf16> loc(#loc141)
    %b_o_88 = tt.dot %b_o_87, %b_v_84, %cst_8, inputPrecision = tf32 : tensor<64x64xf16> * tensor<64x64xf16> -> tensor<64x64xf32> loc(#loc142)
    %b_o_89 = arith.mulf %b_o_88, %b_o_85 : tensor<64x64xf32> loc(#loc143)
    %b_o_90 = arith.addf %b_o_86, %b_o_89 : tensor<64x64xf32> loc(#loc144)
    %13 = arith.truncf %b_o_90 : tensor<64x64xf32> to tensor<64x64xf16> loc(#loc74)
    %14 = tt.splat %o_20 : !tt.ptr<f16> -> tensor<64x64x!tt.ptr<f16>> loc(#loc75)
    %15 = tt.addptr %14, %b_v_72 : tensor<64x64x!tt.ptr<f16>>, tensor<64x64xi64> loc(#loc75)
    tt.store %15, %13, %b_v_83 : tensor<64x64x!tt.ptr<f16>> loc(#loc75)
    tt.return loc(#loc76)
  } loc(#loc)
} loc(#loc)
#loc1 = loc(unknown)
#loc2 = loc("/usr/local/lib/python3.12/dist-packages/vllm/model_executor/layers/fla/ops/chunk_o.py":118:22)
#loc3 = loc("/usr/local/lib/python3.12/dist-packages/vllm/model_executor/layers/fla/ops/chunk_o.py":93:21)
#loc4 = loc("/usr/local/lib/python3.12/dist-packages/vllm/model_executor/layers/fla/ops/chunk_o.py":88:45)
#loc5 = loc("/usr/local/lib/python3.12/dist-packages/vllm/model_executor/layers/fla/ops/chunk_o.py":63:35)
#loc6 = loc("/usr/local/lib/python3.12/dist-packages/vllm/model_executor/layers/fla/ops/chunk_o.py":63:53)
#loc7 = loc("/usr/local/lib/python3.12/dist-packages/vllm/model_executor/layers/fla/ops/chunk_o.py":63:71)
#loc8 = loc("/usr/local/lib/python3.12/dist-packages/vllm/model_executor/layers/fla/ops/chunk_o.py":64:33)
#loc9 = loc("/usr/local/lib/python3.12/dist-packages/vllm/model_executor/layers/fla/ops/chunk_o.py":69:42)
#loc10 = loc("/usr/local/lib/python3.12/dist-packages/vllm/model_executor/layers/fla/ops/chunk_o.py":69:36)
#loc11 = loc("/usr/local/lib/python3.12/dist-packages/vllm/model_executor/layers/fla/ops/chunk_o.py":69:20)
#loc12 = loc("/usr/local/lib/python3.12/dist-packages/vllm/model_executor/layers/fla/ops/chunk_o.py":70:46)
#loc13 = loc("/usr/local/lib/python3.12/dist-packages/vllm/model_executor/layers/fla/ops/chunk_o.py":70:20)
#loc14 = loc("/usr/local/lib/python3.12/dist-packages/vllm/model_executor/layers/fla/ops/chunk_o.py":73:33)
#loc15 = loc("/usr/local/lib/python3.12/dist-packages/vllm/model_executor/layers/fla/ops/chunk_o.py":73:20)
#loc16 = loc("/usr/local/lib/python3.12/dist-packages/vllm/model_executor/layers/fla/ops/chunk_o.py":74:39)
#loc17 = loc("/usr/local/lib/python3.12/dist-packages/vllm/model_executor/layers/fla/ops/chunk_o.py":74:20)
#loc18 = loc("/usr/local/lib/python3.12/dist-packages/vllm/model_executor/layers/fla/ops/chunk_o.py":76:18)
#loc19 = loc("/usr/local/lib/python3.12/dist-packages/vllm/model_executor/layers/fla/ops/chunk_o.py":84:16)
#loc20 = loc("/usr/local/lib/python3.12/dist-packages/vllm/model_executor/layers/fla/ops/chunk_o.py":84:29)
#loc21 = loc("/usr/local/lib/python3.12/dist-packages/vllm/model_executor/layers/fla/ops/chunk_o.py":84:21)
#loc22 = loc("/usr/local/lib/python3.12/dist-packages/vllm/model_executor/layers/fla/ops/chunk_o.py":84:41)
#loc23 = loc("/usr/local/lib/python3.12/dist-packages/vllm/model_executor/layers/fla/ops/chunk_o.py":84:9)
#loc24 = loc("/usr/local/lib/python3.12/dist-packages/vllm/model_executor/layers/fla/ops/chunk_o.py":85:9)
#loc25 = loc("/usr/local/lib/python3.12/dist-packages/vllm/model_executor/layers/fla/ops/chunk_o.py":86:16)
#loc26 = loc("/usr/local/lib/python3.12/dist-packages/vllm/model_executor/layers/fla/ops/chunk_o.py":86:20)
#loc27 = loc("/usr/local/lib/python3.12/dist-packages/vllm/model_executor/layers/fla/ops/chunk_o.py":86:27)
#loc28 = loc("/usr/local/lib/python3.12/dist-packages/vllm/model_executor/layers/fla/ops/chunk_o.py":86:9)
#loc29 = loc("/usr/local/lib/python3.12/dist-packages/vllm/model_executor/layers/fla/ops/chunk_o.py":87:9)
#loc30 = loc("/usr/local/lib/python3.12/dist-packages/vllm/model_executor/layers/fla/ops/chunk_o.py":88:17)
#loc31 = loc("/usr/local/lib/python3.12/dist-packages/vllm/model_executor/layers/fla/ops/chunk_o.py":88:21)
#loc32 = loc("/usr/local/lib/python3.12/dist-packages/vllm/model_executor/layers/fla/ops/chunk_o.py":88:29)
#loc33 = loc("/usr/local/lib/python3.12/dist-packages/vllm/model_executor/layers/fla/ops/chunk_o.py":88:9)
#loc34 = loc("/usr/local/lib/python3.12/dist-packages/vllm/model_executor/layers/fla/ops/chunk_o.py":95:43)
#loc35 = loc("/usr/local/lib/python3.12/dist-packages/vllm/model_executor/layers/fla/ops/chunk_o.py":95:53)
#loc36 = loc("/usr/local/lib/python3.12/dist-packages/vllm/model_executor/layers/fla/ops/chunk_o.py":95:68)
#loc37 = loc("/usr/local/lib/python3.12/dist-packages/vllm/model_executor/layers/fla/ops/chunk_o.py":101:38)
#loc38 = loc("/usr/local/lib/python3.12/dist-packages/vllm/model_executor/layers/fla/ops/chunk_o.py":101:63)
#loc39 = loc("/usr/local/lib/python3.12/dist-packages/vllm/model_executor/layers/fla/ops/chunk_o.py":104:22)
#loc40 = loc("/usr/local/lib/python3.12/dist-packages/vllm/model_executor/layers/fla/ops/chunk_o.py":106:22)
#loc41 = loc("/usr/local/lib/python3.12/dist-packages/vllm/model_executor/layers/fla/ops/chunk_o.py":108:22)
#loc42 = loc("/usr/local/lib/python3.12/dist-packages/vllm/model_executor/layers/fla/ops/chunk_o.py":111:36)
#loc43 = loc("/usr/local/lib/python3.12/dist-packages/vllm/model_executor/layers/fla/ops/chunk_o.py":111:27)
#loc44 = loc("/usr/local/lib/python3.12/dist-packages/vllm/model_executor/layers/fla/ops/chunk_o.py":113:27)
#loc45 = loc("/usr/local/lib/python3.12/dist-packages/vllm/model_executor/layers/fla/ops/chunk_o.py":113:8)
#loc46 = loc("/usr/local/lib/python3.12/dist-packages/vllm/model_executor/layers/fla/ops/chunk_o.py":116:13)
#loc47 = loc("/usr/local/lib/python3.12/dist-packages/vllm/model_executor/layers/fla/ops/chunk_o.py":117:54)
#loc48 = loc("/usr/local/lib/python3.12/dist-packages/vllm/model_executor/layers/fla/ops/chunk_o.py":117:67)
#loc49 = loc("/usr/local/lib/python3.12/dist-packages/vllm/model_executor/layers/fla/ops/chunk_o.py":119:24)
#loc50 = loc("/usr/local/lib/python3.12/dist-packages/vllm/model_executor/layers/fla/ops/chunk_o.py":119:29)
#loc51 = loc("/usr/local/lib/python3.12/dist-packages/vllm/model_executor/layers/fla/ops/chunk_o.py":119:20)
#loc52 = loc("/usr/local/lib/python3.12/dist-packages/vllm/model_executor/layers/fla/ops/chunk_o.py":120:28)
#loc53 = loc("/usr/local/lib/python3.12/dist-packages/vllm/model_executor/layers/fla/ops/chunk_o.py":120:43)
#loc54 = loc("/usr/local/lib/python3.12/dist-packages/vllm/model_executor/layers/fla/ops/chunk_o.py":120:39)
#loc55 = loc("/usr/local/lib/python3.12/dist-packages/vllm/model_executor/layers/fla/ops/chunk_o.py":120:24)
#loc56 = loc("/usr/local/lib/python3.12/dist-packages/vllm/model_executor/layers/fla/ops/chunk_o.py":120:20)
#loc57 = loc("/usr/local/lib/python3.12/dist-packages/vllm/model_executor/layers/fla/ops/chunk_o.py":122:21)
#loc58 = loc("/usr/local/lib/python3.12/dist-packages/vllm/model_executor/layers/fla/ops/chunk_o.py":123:16)
#loc59 = loc("/usr/local/lib/python3.12/dist-packages/vllm/model_executor/layers/fla/ops/chunk_o.py":124:15)
#loc60 = loc("/usr/local/lib/python3.12/dist-packages/vllm/model_executor/layers/fla/ops/chunk_o.py":124:31)
#loc61 = loc("/usr/local/lib/python3.12/dist-packages/vllm/model_executor/layers/fla/ops/chunk_o.py":124:27)
#loc62 = loc("/usr/local/lib/python3.12/dist-packages/vllm/model_executor/layers/fla/ops/chunk_o.py":124:48)
#loc63 = loc("/usr/local/lib/python3.12/dist-packages/vllm/model_executor/layers/fla/ops/chunk_o.py":124:59)
#loc64 = loc("/usr/local/lib/python3.12/dist-packages/vllm/model_executor/layers/fla/ops/chunk_o.py":124:44)
#loc65 = loc("/usr/local/lib/python3.12/dist-packages/vllm/model_executor/layers/fla/ops/chunk_o.py":125:29)
#loc66 = loc("/usr/local/lib/python3.12/dist-packages/vllm/model_executor/layers/fla/ops/chunk_o.py":128:48)
#loc67 = loc("/usr/local/lib/python3.12/dist-packages/vllm/model_executor/layers/fla/ops/chunk_o.py":128:63)
#loc68 = loc("/usr/local/lib/python3.12/dist-packages/vllm/model_executor/layers/fla/ops/chunk_o.py":133:18)
#loc69 = loc("/usr/local/lib/python3.12/dist-packages/vllm/model_executor/layers/fla/ops/chunk_o.py":137:16)
#loc70 = loc("/usr/local/lib/python3.12/dist-packages/vllm/model_executor/layers/fla/ops/chunk_o.py":137:38)
#loc71 = loc("/usr/local/lib/python3.12/dist-packages/vllm/model_executor/layers/fla/ops/chunk_o.py":137:50)
#loc72 = loc("/usr/local/lib/python3.12/dist-packages/vllm/model_executor/layers/fla/ops/chunk_o.py":137:57)
#loc73 = loc("/usr/local/lib/python3.12/dist-packages/vllm/model_executor/layers/fla/ops/chunk_o.py":137:24)
#loc74 = loc("/usr/local/lib/python3.12/dist-packages/vllm/model_executor/layers/fla/ops/chunk_o.py":138:25)
#loc75 = loc("/usr/local/lib/python3.12/dist-packages/vllm/model_executor/layers/fla/ops/chunk_o.py":138:18)
#loc76 = loc("/usr/local/lib/python3.12/dist-packages/vllm/model_executor/layers/fla/ops/chunk_o.py":138:4)
#loc87 = loc("b_g"(#loc2))
#loc88 = loc("h"(#loc4))
#loc89 = loc("T"(#loc18))
#loc90 = loc("q"(#loc19))
#loc91 = loc("q"(#loc20))
#loc92 = loc("q"(#loc21))
#loc93 = loc("q"(#loc22))
#loc94 = loc("q"(#loc23))
#loc95 = loc("k"(#loc24))
#loc96 = loc("v"(#loc25))
#loc97 = loc("v"(#loc26))
#loc98 = loc("v"(#loc27))
#loc99 = loc("v"(#loc28))
#loc100 = loc("o"(#loc29))
#loc101 = loc("h"(#loc30))
#loc102 = loc("h"(#loc31))
#loc103 = loc("h"(#loc32))
#loc104 = loc("h"(#loc33))
#loc105 = loc("b_o"(#loc3))
#loc106 = loc("p_q"(#loc34))
#loc107 = loc("p_q"(#loc35))
#loc108 = loc("p_q"(#loc36))
#loc109 = loc("p_h"(#loc37))
#loc110 = loc("p_h"(#loc38))
#loc111 = loc("b_q"(#loc39))
#loc112 = loc("b_k"(#loc40))
#loc113 = loc("b_h"(#loc41))
#loc114 = loc("b_o"(#loc42))
#loc115 = loc("b_o"(#loc43))
#loc116 = loc("b_A"(#loc44))
#loc117 = loc("g"(#loc46))
#loc118 = loc("p_g"(#loc47))
#loc119 = loc("p_g"(#loc48))
#loc120 = loc("b_o"(#loc49))
#loc121 = loc("b_o"(#loc50))
#loc122 = loc("b_o"(#loc51))
#loc123 = loc("b_A"(#loc52))
#loc124 = loc("b_A"(#loc53))
#loc125 = loc("b_A"(#loc54))
#loc126 = loc("b_A"(#loc55))
#loc127 = loc("b_A"(#loc56))
#loc128 = loc("o_t"(#loc57))
#loc129 = loc("m_t"(#loc58))
#loc130 = loc("m_A"(#loc59))
#loc131 = loc("m_A"(#loc60))
#loc132 = loc("m_A"(#loc61))
#loc133 = loc("m_A"(#loc62))
#loc134 = loc("m_A"(#loc63))
#loc135 = loc("m_A"(#loc64))
#loc136 = loc("b_A"(#loc65))
#loc137 = loc("p_v"(#loc66))
#loc138 = loc("p_v"(#loc67))
#loc139 = loc("b_v"(#loc68))
#loc140 = loc("b_o"(#loc69))
#loc141 = loc("b_o"(#loc70))
#loc142 = loc("b_o"(#loc71))
#loc143 = loc("b_o"(#loc72))
#loc144 = loc("b_o"(#loc73))
#loc145 = loc("b_A"(#loc105))
