#loc = loc("/root/.cache/vllm/torch_compile_cache/torch_aot_compile/61bda05feca29378847c32f031efa5c8dba258f38b0176a06a3e99e41df8ca50/inductor_cache/xp/cxpedqij7tnm2sjjntvhjpf4uan57dryupejsfxzryjmjz4nlc2c.py":22:0)
#loc2 = loc(unknown)
#loc22 = loc("/root/.cache/vllm/torch_compile_cache/torch_aot_compile/61bda05feca29378847c32f031efa5c8dba258f38b0176a06a3e99e41df8ca50/inductor_cache/xp/cxpedqij7tnm2sjjntvhjpf4uan57dryupejsfxzryjmjz4nlc2c.py":45:25)
#loc38 = loc("in_ptr0"(#loc))
#loc39 = loc("in_ptr1"(#loc))
#loc40 = loc("out_ptr1"(#loc))
#loc41 = loc("xnumel"(#loc))
#loc42 = loc("r0_numel"(#loc))
#loc62 = loc("tmp4"(#loc22))
#loc75 = loc(callsite(#loc2 at #loc62))
module {
  tt.func public @triton_(%in_ptr0: !tt.ptr<f16> {tt.divisibility = 16 : i32} loc("in_ptr0"(#loc)), %in_ptr1: !tt.ptr<f16> {tt.divisibility = 16 : i32} loc("in_ptr1"(#loc)), %out_ptr1: !tt.ptr<f16> {tt.divisibility = 16 : i32} loc("out_ptr1"(#loc)), %xnumel: i32 loc("xnumel"(#loc)), %r0_numel: i32 {tt.divisibility = 16 : i32} loc("r0_numel"(#loc))) attributes {noinline = false} {
    %tmp14 = arith.constant dense<0.000000e+00> : tensor<1x2048xf16> loc(#loc43)
    %cst = arith.constant dense<0.000000e+00> : tensor<2x2048xf16> loc(#loc2)
    %cst_0 = arith.constant dense<1.000000e+00> : tensor<1x2048xf32> loc(#loc2)
    %cst_1 = arith.constant dense<9.99999997E-7> : tensor<2x1xf32> loc(#loc2)
    %cst_2 = arith.constant dense<2.048000e+03> : tensor<2x1xf32> loc(#loc2)
    %cst_3 = arith.constant dense<2048> : tensor<2x1xi32> loc(#loc2)
    %cst_4 = arith.constant dense<2048> : tensor<1x2048xi32> loc(#loc2)
    %cst_5 = arith.constant dense<0.000000e+00> : tensor<2x2048xf32> loc(#loc2)
    %c2_i32 = arith.constant 2 : i32 loc(#loc2)
    %xoffset = tt.get_program_id x : i32 loc(#loc44)
    %xoffset_6 = arith.muli %xoffset, %c2_i32 : i32 loc(#loc45)
    %xindex = tt.make_range {end = 2 : i32, start = 0 : i32} : tensor<2xi32> loc(#loc46)
    %xindex_7 = tt.expand_dims %xindex {axis = 1 : i32} : tensor<2xi32> -> tensor<2x1xi32> loc(#loc47)
    %xindex_8 = tt.splat %xoffset_6 : i32 -> tensor<2x1xi32> loc(#loc48)
    %xindex_9 = arith.addi %xindex_8, %xindex_7 : tensor<2x1xi32> loc(#loc48)
    %xmask = tt.splat %xnumel : i32 -> tensor<2x1xi32> loc(#loc49)
    %xmask_10 = arith.cmpi slt, %xindex_9, %xmask : tensor<2x1xi32> loc(#loc49)
    %r0_base = tt.make_range {end = 2048 : i32, start = 0 : i32} : tensor<2048xi32> loc(#loc50)
    %r0_base_11 = tt.expand_dims %r0_base {axis = 0 : i32} : tensor<2048xi32> -> tensor<1x2048xi32> loc(#loc51)
    %r0_mask = arith.cmpi slt, %r0_base_11, %cst_4 : tensor<1x2048xi32> loc(#loc52)
    %tmp0 = arith.muli %xindex_9, %cst_3 : tensor<2x1xi32> loc(#loc53)
    %tmp0_12 = tt.broadcast %r0_base_11 : tensor<1x2048xi32> -> tensor<2x2048xi32> loc(#loc54)
    %tmp0_13 = tt.broadcast %tmp0 : tensor<2x1xi32> -> tensor<2x2048xi32> loc(#loc54)
    %tmp0_14 = arith.addi %tmp0_12, %tmp0_13 : tensor<2x2048xi32> loc(#loc54)
    %tmp0_15 = tt.splat %in_ptr0 : !tt.ptr<f16> -> tensor<2x2048x!tt.ptr<f16>> loc(#loc55)
    %tmp0_16 = tt.addptr %tmp0_15, %tmp0_14 : tensor<2x2048x!tt.ptr<f16>>, tensor<2x2048xi32> loc(#loc55)
    %tmp0_17 = tt.broadcast %r0_mask : tensor<1x2048xi1> -> tensor<2x2048xi1> loc(#loc56)
    %tmp0_18 = tt.broadcast %xmask_10 : tensor<2x1xi1> -> tensor<2x2048xi1> loc(#loc56)
    %tmp0_19 = arith.andi %tmp0_17, %tmp0_18 : tensor<2x2048xi1> loc(#loc56)
    %tmp0_20 = tt.load %tmp0_16, %tmp0_19, %cst evictionPolicy = evict_last : tensor<2x2048x!tt.ptr<f16>> loc(#loc57)
    %tmp0_21 = arith.extf %tmp0_20 : tensor<2x2048xf16> to tensor<2x2048xf32> loc(#loc58)
    %tmp2 = arith.mulf %tmp0_21, %tmp0_21 : tensor<2x2048xf32> loc(#loc59)
    %tmp5 = arith.addf %tmp2, %cst_5 : tensor<2x2048xf32> loc(#loc60)
    %_tmp4 = arith.select %tmp0_19, %tmp5, %cst_5 : tensor<2x2048xi1>, tensor<2x2048xf32> loc(#loc61)
    %tmp4 = "tt.reduce"(%_tmp4) <{axis = 1 : i32}> ({
    ^bb0(%tmp4_30: f32 loc(callsite(#loc2 at #loc62)), %tmp4_31: f32 loc(callsite(#loc2 at #loc62))):
      %tmp4_32 = arith.addf %tmp4_30, %tmp4_31 : f32 loc(#loc76)
      tt.reduce.return %tmp4_32 : f32 loc(#loc74)
    }) : (tensor<2x2048xf32>) -> tensor<2xf32> loc(#loc74)
    %tmp4_22 = tt.expand_dims %tmp4 {axis = 1 : i32} : tensor<2xf32> -> tensor<2x1xf32> loc(#loc63)
    %tmp6 = tt.load %tmp0_16, %tmp0_19, %cst evictionPolicy = evict_first : tensor<2x2048x!tt.ptr<f16>> loc(#loc64)
    %tmp6_23 = arith.extf %tmp6 : tensor<2x2048xf16> to tensor<2x2048xf32> loc(#loc65)
    %tmp14_24 = tt.splat %in_ptr1 : !tt.ptr<f16> -> tensor<1x2048x!tt.ptr<f16>> loc(#loc66)
    %tmp14_25 = tt.addptr %tmp14_24, %r0_base_11 : tensor<1x2048x!tt.ptr<f16>>, tensor<1x2048xi32> loc(#loc66)
    %tmp14_26 = tt.load %tmp14_25, %r0_mask, %tmp14 evictionPolicy = evict_last : tensor<1x2048x!tt.ptr<f16>> loc(#loc43)
    %tmp14_27 = arith.extf %tmp14_26 : tensor<1x2048xf16> to tensor<1x2048xf32> loc(#loc67)
    %tmp9 = arith.divf %tmp4_22, %cst_2 : tensor<2x1xf32> loc(#loc68)
    %tmp11 = arith.addf %tmp9, %cst_1 : tensor<2x1xf32> loc(#loc69)
    %tmp12 = tt.extern_elementwise %tmp11 {libname = "", libpath = "", pure = true, symbol = "__nv_rsqrtf"} : (tensor<2x1xf32>) -> tensor<2x1xf32> loc(#loc70)
    %tmp13 = tt.broadcast %tmp12 : tensor<2x1xf32> -> tensor<2x2048xf32> loc(#loc71)
    %tmp13_28 = arith.mulf %tmp6_23, %tmp13 : tensor<2x2048xf32> loc(#loc71)
    %tmp17 = arith.addf %tmp14_27, %cst_0 : tensor<1x2048xf32> loc(#loc72)
    %tmp18 = tt.broadcast %tmp17 : tensor<1x2048xf32> -> tensor<2x2048xf32> loc(#loc73)
    %tmp18_29 = arith.mulf %tmp13_28, %tmp18 : tensor<2x2048xf32> loc(#loc73)
    %0 = tt.splat %out_ptr1 : !tt.ptr<f16> -> tensor<2x2048x!tt.ptr<f16>> loc(#loc35)
    %1 = tt.addptr %0, %tmp0_14 : tensor<2x2048x!tt.ptr<f16>>, tensor<2x2048xi32> loc(#loc35)
    %2 = arith.truncf %tmp18_29 : tensor<2x2048xf32> to tensor<2x2048xf16> loc(#loc36)
    tt.store %1, %2, %tmp0_19 : tensor<2x2048x!tt.ptr<f16>> loc(#loc36)
    tt.return loc(#loc37)
  } loc(#loc)
} loc(#loc)
#loc1 = loc("/root/.cache/vllm/torch_compile_cache/torch_aot_compile/61bda05feca29378847c32f031efa5c8dba258f38b0176a06a3e99e41df8ca50/inductor_cache/xp/cxpedqij7tnm2sjjntvhjpf4uan57dryupejsfxzryjmjz4nlc2c.py":53:42)
#loc3 = loc("/root/.cache/vllm/torch_compile_cache/torch_aot_compile/61bda05feca29378847c32f031efa5c8dba258f38b0176a06a3e99e41df8ca50/inductor_cache/xp/cxpedqij7tnm2sjjntvhjpf4uan57dryupejsfxzryjmjz4nlc2c.py":26:28)
#loc4 = loc("/root/.cache/vllm/torch_compile_cache/torch_aot_compile/61bda05feca29378847c32f031efa5c8dba258f38b0176a06a3e99e41df8ca50/inductor_cache/xp/cxpedqij7tnm2sjjntvhjpf4uan57dryupejsfxzryjmjz4nlc2c.py":26:33)
#loc5 = loc("/root/.cache/vllm/torch_compile_cache/torch_aot_compile/61bda05feca29378847c32f031efa5c8dba258f38b0176a06a3e99e41df8ca50/inductor_cache/xp/cxpedqij7tnm2sjjntvhjpf4uan57dryupejsfxzryjmjz4nlc2c.py":27:36)
#loc6 = loc("/root/.cache/vllm/torch_compile_cache/torch_aot_compile/61bda05feca29378847c32f031efa5c8dba258f38b0176a06a3e99e41df8ca50/inductor_cache/xp/cxpedqij7tnm2sjjntvhjpf4uan57dryupejsfxzryjmjz4nlc2c.py":27:44)
#loc7 = loc("/root/.cache/vllm/torch_compile_cache/torch_aot_compile/61bda05feca29378847c32f031efa5c8dba258f38b0176a06a3e99e41df8ca50/inductor_cache/xp/cxpedqij7tnm2sjjntvhjpf4uan57dryupejsfxzryjmjz4nlc2c.py":27:23)
#loc8 = loc("/root/.cache/vllm/torch_compile_cache/torch_aot_compile/61bda05feca29378847c32f031efa5c8dba258f38b0176a06a3e99e41df8ca50/inductor_cache/xp/cxpedqij7tnm2sjjntvhjpf4uan57dryupejsfxzryjmjz4nlc2c.py":28:21)
#loc9 = loc("/root/.cache/vllm/torch_compile_cache/torch_aot_compile/61bda05feca29378847c32f031efa5c8dba258f38b0176a06a3e99e41df8ca50/inductor_cache/xp/cxpedqij7tnm2sjjntvhjpf4uan57dryupejsfxzryjmjz4nlc2c.py":29:27)
#loc10 = loc("/root/.cache/vllm/torch_compile_cache/torch_aot_compile/61bda05feca29378847c32f031efa5c8dba258f38b0176a06a3e99e41df8ca50/inductor_cache/xp/cxpedqij7tnm2sjjntvhjpf4uan57dryupejsfxzryjmjz4nlc2c.py":29:37)
#loc11 = loc("/root/.cache/vllm/torch_compile_cache/torch_aot_compile/61bda05feca29378847c32f031efa5c8dba258f38b0176a06a3e99e41df8ca50/inductor_cache/xp/cxpedqij7tnm2sjjntvhjpf4uan57dryupejsfxzryjmjz4nlc2c.py":35:29)
#loc12 = loc("/root/.cache/vllm/torch_compile_cache/torch_aot_compile/61bda05feca29378847c32f031efa5c8dba258f38b0176a06a3e99e41df8ca50/inductor_cache/xp/cxpedqij7tnm2sjjntvhjpf4uan57dryupejsfxzryjmjz4nlc2c.py":39:46)
#loc13 = loc("/root/.cache/vllm/torch_compile_cache/torch_aot_compile/61bda05feca29378847c32f031efa5c8dba258f38b0176a06a3e99e41df8ca50/inductor_cache/xp/cxpedqij7tnm2sjjntvhjpf4uan57dryupejsfxzryjmjz4nlc2c.py":39:41)
#loc14 = loc("/root/.cache/vllm/torch_compile_cache/torch_aot_compile/61bda05feca29378847c32f031efa5c8dba258f38b0176a06a3e99e41df8ca50/inductor_cache/xp/cxpedqij7tnm2sjjntvhjpf4uan57dryupejsfxzryjmjz4nlc2c.py":39:34)
#loc15 = loc("/root/.cache/vllm/torch_compile_cache/torch_aot_compile/61bda05feca29378847c32f031efa5c8dba258f38b0176a06a3e99e41df8ca50/inductor_cache/xp/cxpedqij7tnm2sjjntvhjpf4uan57dryupejsfxzryjmjz4nlc2c.py":39:61)
#loc16 = loc("/root/.cache/vllm/torch_compile_cache/torch_aot_compile/61bda05feca29378847c32f031efa5c8dba258f38b0176a06a3e99e41df8ca50/inductor_cache/xp/cxpedqij7tnm2sjjntvhjpf4uan57dryupejsfxzryjmjz4nlc2c.py":39:51)
#loc17 = loc("/root/.cache/vllm/torch_compile_cache/torch_aot_compile/61bda05feca29378847c32f031efa5c8dba258f38b0176a06a3e99e41df8ca50/inductor_cache/xp/cxpedqij7tnm2sjjntvhjpf4uan57dryupejsfxzryjmjz4nlc2c.py":39:112)
#loc18 = loc("/root/.cache/vllm/torch_compile_cache/torch_aot_compile/61bda05feca29378847c32f031efa5c8dba258f38b0176a06a3e99e41df8ca50/inductor_cache/xp/cxpedqij7tnm2sjjntvhjpf4uan57dryupejsfxzryjmjz4nlc2c.py":41:22)
#loc19 = loc("/root/.cache/vllm/torch_compile_cache/torch_aot_compile/61bda05feca29378847c32f031efa5c8dba258f38b0176a06a3e99e41df8ca50/inductor_cache/xp/cxpedqij7tnm2sjjntvhjpf4uan57dryupejsfxzryjmjz4nlc2c.py":43:23)
#loc20 = loc("/root/.cache/vllm/torch_compile_cache/torch_aot_compile/61bda05feca29378847c32f031efa5c8dba258f38b0176a06a3e99e41df8ca50/inductor_cache/xp/cxpedqij7tnm2sjjntvhjpf4uan57dryupejsfxzryjmjz4nlc2c.py":44:48)
#loc21 = loc("/usr/local/lib/python3.12/dist-packages/triton/language/standard.py":293:36)
#loc23 = loc("/usr/local/lib/python3.12/dist-packages/triton/language/standard.py":263:15)
#loc24 = loc("/root/.cache/vllm/torch_compile_cache/torch_aot_compile/61bda05feca29378847c32f031efa5c8dba258f38b0176a06a3e99e41df8ca50/inductor_cache/xp/cxpedqij7tnm2sjjntvhjpf4uan57dryupejsfxzryjmjz4nlc2c.py":45:28)
#loc25 = loc("/root/.cache/vllm/torch_compile_cache/torch_aot_compile/61bda05feca29378847c32f031efa5c8dba258f38b0176a06a3e99e41df8ca50/inductor_cache/xp/cxpedqij7tnm2sjjntvhjpf4uan57dryupejsfxzryjmjz4nlc2c.py":52:51)
#loc26 = loc("/root/.cache/vllm/torch_compile_cache/torch_aot_compile/61bda05feca29378847c32f031efa5c8dba258f38b0176a06a3e99e41df8ca50/inductor_cache/xp/cxpedqij7tnm2sjjntvhjpf4uan57dryupejsfxzryjmjz4nlc2c.py":52:113)
#loc27 = loc("/root/.cache/vllm/torch_compile_cache/torch_aot_compile/61bda05feca29378847c32f031efa5c8dba258f38b0176a06a3e99e41df8ca50/inductor_cache/xp/cxpedqij7tnm2sjjntvhjpf4uan57dryupejsfxzryjmjz4nlc2c.py":53:35)
#loc28 = loc("/root/.cache/vllm/torch_compile_cache/torch_aot_compile/61bda05feca29378847c32f031efa5c8dba258f38b0176a06a3e99e41df8ca50/inductor_cache/xp/cxpedqij7tnm2sjjntvhjpf4uan57dryupejsfxzryjmjz4nlc2c.py":53:95)
#loc29 = loc("/root/.cache/vllm/torch_compile_cache/torch_aot_compile/61bda05feca29378847c32f031efa5c8dba258f38b0176a06a3e99e41df8ca50/inductor_cache/xp/cxpedqij7tnm2sjjntvhjpf4uan57dryupejsfxzryjmjz4nlc2c.py":56:23)
#loc30 = loc("/root/.cache/vllm/torch_compile_cache/torch_aot_compile/61bda05feca29378847c32f031efa5c8dba258f38b0176a06a3e99e41df8ca50/inductor_cache/xp/cxpedqij7tnm2sjjntvhjpf4uan57dryupejsfxzryjmjz4nlc2c.py":58:23)
#loc31 = loc("/root/.cache/vllm/torch_compile_cache/torch_aot_compile/61bda05feca29378847c32f031efa5c8dba258f38b0176a06a3e99e41df8ca50/inductor_cache/xp/cxpedqij7tnm2sjjntvhjpf4uan57dryupejsfxzryjmjz4nlc2c.py":59:32)
#loc32 = loc("/root/.cache/vllm/torch_compile_cache/torch_aot_compile/61bda05feca29378847c32f031efa5c8dba258f38b0176a06a3e99e41df8ca50/inductor_cache/xp/cxpedqij7tnm2sjjntvhjpf4uan57dryupejsfxzryjmjz4nlc2c.py":60:23)
#loc33 = loc("/root/.cache/vllm/torch_compile_cache/torch_aot_compile/61bda05feca29378847c32f031efa5c8dba258f38b0176a06a3e99e41df8ca50/inductor_cache/xp/cxpedqij7tnm2sjjntvhjpf4uan57dryupejsfxzryjmjz4nlc2c.py":63:24)
#loc34 = loc("/root/.cache/vllm/torch_compile_cache/torch_aot_compile/61bda05feca29378847c32f031efa5c8dba258f38b0176a06a3e99e41df8ca50/inductor_cache/xp/cxpedqij7tnm2sjjntvhjpf4uan57dryupejsfxzryjmjz4nlc2c.py":64:24)
#loc35 = loc("/root/.cache/vllm/torch_compile_cache/torch_aot_compile/61bda05feca29378847c32f031efa5c8dba258f38b0176a06a3e99e41df8ca50/inductor_cache/xp/cxpedqij7tnm2sjjntvhjpf4uan57dryupejsfxzryjmjz4nlc2c.py":66:29)
#loc36 = loc("/root/.cache/vllm/torch_compile_cache/torch_aot_compile/61bda05feca29378847c32f031efa5c8dba258f38b0176a06a3e99e41df8ca50/inductor_cache/xp/cxpedqij7tnm2sjjntvhjpf4uan57dryupejsfxzryjmjz4nlc2c.py":66:53)
#loc37 = loc("/root/.cache/vllm/torch_compile_cache/torch_aot_compile/61bda05feca29378847c32f031efa5c8dba258f38b0176a06a3e99e41df8ca50/inductor_cache/xp/cxpedqij7tnm2sjjntvhjpf4uan57dryupejsfxzryjmjz4nlc2c.py":46:4)
#loc43 = loc("tmp14"(#loc1))
#loc44 = loc("xoffset"(#loc3))
#loc45 = loc("xoffset"(#loc4))
#loc46 = loc("xindex"(#loc5))
#loc47 = loc("xindex"(#loc6))
#loc48 = loc("xindex"(#loc7))
#loc49 = loc("xmask"(#loc8))
#loc50 = loc("r0_base"(#loc9))
#loc51 = loc("r0_base"(#loc10))
#loc52 = loc("r0_mask"(#loc11))
#loc53 = loc("tmp0"(#loc12))
#loc54 = loc("tmp0"(#loc13))
#loc55 = loc("tmp0"(#loc14))
#loc56 = loc("tmp0"(#loc15))
#loc57 = loc("tmp0"(#loc16))
#loc58 = loc("tmp0"(#loc17))
#loc59 = loc("tmp2"(#loc18))
#loc60 = loc("tmp5"(#loc19))
#loc61 = loc("_tmp4"(#loc20))
#loc63 = loc("tmp4"(#loc24))
#loc64 = loc("tmp6"(#loc25))
#loc65 = loc("tmp6"(#loc26))
#loc66 = loc("tmp14"(#loc27))
#loc67 = loc("tmp14"(#loc28))
#loc68 = loc("tmp9"(#loc29))
#loc69 = loc("tmp11"(#loc30))
#loc70 = loc("tmp12"(#loc31))
#loc71 = loc("tmp13"(#loc32))
#loc72 = loc("tmp17"(#loc33))
#loc73 = loc("tmp18"(#loc34))
#loc74 = loc(callsite(#loc21 at #loc62))
#loc76 = loc(callsite(#loc23 at #loc74))
