#loc = loc("/usr/local/lib/python3.12/dist-packages/vllm/model_executor/models/qwen3_vl.py":163:0)
#loc77 = loc("embed_ptr"(#loc))
#loc78 = loc("output_ptr"(#loc))
#loc79 = loc("H"(#loc))
#loc80 = loc("W"(#loc))
#loc81 = loc("h_scale"(#loc))
#loc82 = loc("w_scale"(#loc))
module {
  tt.func public @_bilinear_pos_embed_kernel(%embed_ptr: !tt.ptr<f16> {tt.divisibility = 16 : i32} loc("embed_ptr"(#loc)), %output_ptr: !tt.ptr<f16> {tt.divisibility = 16 : i32} loc("output_ptr"(#loc)), %H: i32 {tt.divisibility = 16 : i32} loc("H"(#loc)), %W: i32 {tt.divisibility = 16 : i32} loc("W"(#loc)), %h_scale: f32 loc("h_scale"(#loc)), %w_scale: f32 loc("w_scale"(#loc))) attributes {noinline = false} {
    %cst = arith.constant dense<1152> : tensor<2048xi32> loc(#loc1)
    %c1152_i32 = arith.constant 1152 : i32 loc(#loc1)
    %c48_i32 = arith.constant 48 : i32 loc(#loc1)
    %cst_0 = arith.constant 1.000000e+00 : f32 loc(#loc1)
    %c47_i32 = arith.constant 47 : i32 loc(#loc1)
    %c1_i32 = arith.constant 1 : i32 loc(#loc1)
    %c4_i32 = arith.constant 4 : i32 loc(#loc1)
    %c2_i32 = arith.constant 2 : i32 loc(#loc1)
    %pid = tt.get_program_id x : i32 loc(#loc83)
    %total_spatial = arith.muli %H, %W : i32 loc(#loc84)
    %spatial_idx = arith.remsi %pid, %total_spatial : i32 loc(#loc85)
    %num_blocks_w = arith.divsi %W, %c2_i32 : i32 loc(#loc86)
    %block_idx = arith.divsi %spatial_idx, %c4_i32 : i32 loc(#loc87)
    %local_idx = arith.remsi %spatial_idx, %c4_i32 : i32 loc(#loc88)
    %br = arith.divsi %block_idx, %num_blocks_w : i32 loc(#loc89)
    %bc = arith.remsi %block_idx, %num_blocks_w : i32 loc(#loc90)
    %lr = arith.divsi %local_idx, %c2_i32 : i32 loc(#loc91)
    %lc = arith.remsi %local_idx, %c2_i32 : i32 loc(#loc92)
    %row = arith.muli %br, %c2_i32 : i32 loc(#loc93)
    %row_1 = arith.addi %row, %lr : i32 loc(#loc94)
    %col = arith.muli %bc, %c2_i32 : i32 loc(#loc95)
    %col_2 = arith.addi %col, %lc : i32 loc(#loc96)
    %h_frac = arith.sitofp %row_1 : i32 to f32 loc(#loc97)
    %h_frac_3 = arith.mulf %h_frac, %h_scale : f32 loc(#loc98)
    %w_frac = arith.sitofp %col_2 : i32 to f32 loc(#loc99)
    %w_frac_4 = arith.mulf %w_frac, %w_scale : f32 loc(#loc100)
    %hf = math.floor %h_frac_3 : f32 loc(#loc101)
    %hf_5 = arith.fptosi %hf : f32 to i32 loc(#loc102)
    %wf = math.floor %w_frac_4 : f32 loc(#loc103)
    %wf_6 = arith.fptosi %wf : f32 to i32 loc(#loc104)
    %hc = arith.addi %hf_5, %c1_i32 : i32 loc(#loc105)
    %hc_7 = arith.minsi %hc, %c47_i32 : i32 loc(#loc106)
    %wc = arith.addi %wf_6, %c1_i32 : i32 loc(#loc107)
    %wc_8 = arith.minsi %wc, %c47_i32 : i32 loc(#loc108)
    %dh = arith.sitofp %hf_5 : i32 to f32 loc(#loc109)
    %dh_9 = arith.subf %h_frac_3, %dh : f32 loc(#loc110)
    %dw = arith.sitofp %wf_6 : i32 to f32 loc(#loc111)
    %dw_10 = arith.subf %w_frac_4, %dw : f32 loc(#loc112)
    %w11 = arith.mulf %dh_9, %dw_10 : f32 loc(#loc113)
    %w10 = arith.subf %dh_9, %w11 : f32 loc(#loc114)
    %w01 = arith.subf %dw_10, %w11 : f32 loc(#loc115)
    %w00 = arith.subf %cst_0, %dh_9 : f32 loc(#loc116)
    %w00_11 = arith.subf %w00, %w01 : f32 loc(#loc117)
    %off00 = arith.muli %hf_5, %c48_i32 : i32 loc(#loc118)
    %off00_12 = arith.addi %off00, %wf_6 : i32 loc(#loc119)
    %off00_13 = arith.muli %off00_12, %c1152_i32 : i32 loc(#loc120)
    %off01 = arith.addi %off00, %wc_8 : i32 loc(#loc121)
    %off01_14 = arith.muli %off01, %c1152_i32 : i32 loc(#loc122)
    %off10 = arith.muli %hc_7, %c48_i32 : i32 loc(#loc123)
    %off10_15 = arith.addi %off10, %wf_6 : i32 loc(#loc124)
    %off10_16 = arith.muli %off10_15, %c1152_i32 : i32 loc(#loc125)
    %off11 = arith.addi %off10, %wc_8 : i32 loc(#loc126)
    %off11_17 = arith.muli %off11, %c1152_i32 : i32 loc(#loc127)
    %out_off = arith.muli %pid, %c1152_i32 : i32 loc(#loc128)
    %w00_c = arith.truncf %w00_11 : f32 to f16 loc(#loc129)
    %w01_c = arith.truncf %w01 : f32 to f16 loc(#loc130)
    %w10_c = arith.truncf %w10 : f32 to f16 loc(#loc131)
    %w11_c = arith.truncf %w11 : f32 to f16 loc(#loc132)
    %cols = tt.make_range {end = 2048 : i32, start = 0 : i32} : tensor<2048xi32> loc(#loc133)
    %mask = arith.cmpi slt, %cols, %cst : tensor<2048xi32> loc(#loc134)
    %e00 = tt.addptr %embed_ptr, %off00_13 : !tt.ptr<f16>, i32 loc(#loc135)
    %e00_18 = tt.splat %e00 : !tt.ptr<f16> -> tensor<2048x!tt.ptr<f16>> loc(#loc136)
    %e00_19 = tt.addptr %e00_18, %cols : tensor<2048x!tt.ptr<f16>>, tensor<2048xi32> loc(#loc136)
    %e00_20 = tt.load %e00_19, %mask : tensor<2048x!tt.ptr<f16>> loc(#loc137)
    %e01 = tt.addptr %embed_ptr, %off01_14 : !tt.ptr<f16>, i32 loc(#loc138)
    %e01_21 = tt.splat %e01 : !tt.ptr<f16> -> tensor<2048x!tt.ptr<f16>> loc(#loc139)
    %e01_22 = tt.addptr %e01_21, %cols : tensor<2048x!tt.ptr<f16>>, tensor<2048xi32> loc(#loc139)
    %e01_23 = tt.load %e01_22, %mask : tensor<2048x!tt.ptr<f16>> loc(#loc140)
    %e10 = tt.addptr %embed_ptr, %off10_16 : !tt.ptr<f16>, i32 loc(#loc141)
    %e10_24 = tt.splat %e10 : !tt.ptr<f16> -> tensor<2048x!tt.ptr<f16>> loc(#loc142)
    %e10_25 = tt.addptr %e10_24, %cols : tensor<2048x!tt.ptr<f16>>, tensor<2048xi32> loc(#loc142)
    %e10_26 = tt.load %e10_25, %mask : tensor<2048x!tt.ptr<f16>> loc(#loc143)
    %e11 = tt.addptr %embed_ptr, %off11_17 : !tt.ptr<f16>, i32 loc(#loc144)
    %e11_27 = tt.splat %e11 : !tt.ptr<f16> -> tensor<2048x!tt.ptr<f16>> loc(#loc145)
    %e11_28 = tt.addptr %e11_27, %cols : tensor<2048x!tt.ptr<f16>>, tensor<2048xi32> loc(#loc145)
    %e11_29 = tt.load %e11_28, %mask : tensor<2048x!tt.ptr<f16>> loc(#loc146)
    %val = tt.splat %w00_c : f16 -> tensor<2048xf16> loc(#loc147)
    %val_30 = arith.mulf %val, %e00_20 : tensor<2048xf16> loc(#loc147)
    %val_31 = tt.splat %w01_c : f16 -> tensor<2048xf16> loc(#loc148)
    %val_32 = arith.mulf %val_31, %e01_23 : tensor<2048xf16> loc(#loc148)
    %val_33 = arith.addf %val_30, %val_32 : tensor<2048xf16> loc(#loc149)
    %val_34 = tt.splat %w10_c : f16 -> tensor<2048xf16> loc(#loc150)
    %val_35 = arith.mulf %val_34, %e10_26 : tensor<2048xf16> loc(#loc150)
    %val_36 = arith.addf %val_33, %val_35 : tensor<2048xf16> loc(#loc151)
    %val_37 = tt.splat %w11_c : f16 -> tensor<2048xf16> loc(#loc152)
    %val_38 = arith.mulf %val_37, %e11_29 : tensor<2048xf16> loc(#loc152)
    %val_39 = arith.addf %val_36, %val_38 : tensor<2048xf16> loc(#loc153)
    %0 = tt.addptr %output_ptr, %out_off : !tt.ptr<f16>, i32 loc(#loc73)
    %1 = tt.splat %0 : !tt.ptr<f16> -> tensor<2048x!tt.ptr<f16>> loc(#loc74)
    %2 = tt.addptr %1, %cols : tensor<2048x!tt.ptr<f16>>, tensor<2048xi32> loc(#loc74)
    tt.store %2, %val_39, %mask : tensor<2048x!tt.ptr<f16>> loc(#loc75)
    tt.return loc(#loc76)
  } loc(#loc)
} loc(#loc)
#loc1 = loc(unknown)
#loc2 = loc("/usr/local/lib/python3.12/dist-packages/vllm/model_executor/models/qwen3_vl.py":176:24)
#loc3 = loc("/usr/local/lib/python3.12/dist-packages/vllm/model_executor/models/qwen3_vl.py":177:24)
#loc4 = loc("/usr/local/lib/python3.12/dist-packages/vllm/model_executor/models/qwen3_vl.py":178:24)
#loc5 = loc("/usr/local/lib/python3.12/dist-packages/vllm/model_executor/models/qwen3_vl.py":180:24)
#loc6 = loc("/usr/local/lib/python3.12/dist-packages/vllm/model_executor/models/qwen3_vl.py":181:32)
#loc7 = loc("/usr/local/lib/python3.12/dist-packages/vllm/model_executor/models/qwen3_vl.py":182:31)
#loc8 = loc("/usr/local/lib/python3.12/dist-packages/vllm/model_executor/models/qwen3_vl.py":183:22)
#loc9 = loc("/usr/local/lib/python3.12/dist-packages/vllm/model_executor/models/qwen3_vl.py":184:21)
#loc10 = loc("/usr/local/lib/python3.12/dist-packages/vllm/model_executor/models/qwen3_vl.py":185:22)
#loc11 = loc("/usr/local/lib/python3.12/dist-packages/vllm/model_executor/models/qwen3_vl.py":186:21)
#loc12 = loc("/usr/local/lib/python3.12/dist-packages/vllm/model_executor/models/qwen3_vl.py":187:15)
#loc13 = loc("/usr/local/lib/python3.12/dist-packages/vllm/model_executor/models/qwen3_vl.py":187:24)
#loc14 = loc("/usr/local/lib/python3.12/dist-packages/vllm/model_executor/models/qwen3_vl.py":188:15)
#loc15 = loc("/usr/local/lib/python3.12/dist-packages/vllm/model_executor/models/qwen3_vl.py":188:24)
#loc16 = loc("/usr/local/lib/python3.12/dist-packages/vllm/model_executor/models/qwen3_vl.py":190:20)
#loc17 = loc("/usr/local/lib/python3.12/dist-packages/vllm/model_executor/models/qwen3_vl.py":190:34)
#loc18 = loc("/usr/local/lib/python3.12/dist-packages/vllm/model_executor/models/qwen3_vl.py":191:20)
#loc19 = loc("/usr/local/lib/python3.12/dist-packages/vllm/model_executor/models/qwen3_vl.py":191:34)
#loc20 = loc("/usr/local/lib/python3.12/dist-packages/vllm/model_executor/models/qwen3_vl.py":193:23)
#loc21 = loc("/usr/local/lib/python3.12/dist-packages/vllm/model_executor/models/qwen3_vl.py":193:34)
#loc22 = loc("/usr/local/lib/python3.12/dist-packages/vllm/model_executor/models/qwen3_vl.py":194:23)
#loc23 = loc("/usr/local/lib/python3.12/dist-packages/vllm/model_executor/models/qwen3_vl.py":194:34)
#loc24 = loc("/usr/local/lib/python3.12/dist-packages/vllm/model_executor/models/qwen3_vl.py":195:25)
#loc25 = loc("/usr/local/lib/python3.12/dist-packages/vllm/model_executor/models/qwen3_vl.py":195:28)
#loc26 = loc("/usr/local/lib/python3.12/dist-packages/vllm/model_executor/models/qwen3_vl.py":196:25)
#loc27 = loc("/usr/local/lib/python3.12/dist-packages/vllm/model_executor/models/qwen3_vl.py":196:28)
#loc28 = loc("/usr/local/lib/python3.12/dist-packages/vllm/model_executor/models/qwen3_vl.py":198:24)
#loc29 = loc("/usr/local/lib/python3.12/dist-packages/vllm/model_executor/models/qwen3_vl.py":198:18)
#loc30 = loc("/usr/local/lib/python3.12/dist-packages/vllm/model_executor/models/qwen3_vl.py":199:24)
#loc31 = loc("/usr/local/lib/python3.12/dist-packages/vllm/model_executor/models/qwen3_vl.py":199:18)
#loc32 = loc("/usr/local/lib/python3.12/dist-packages/vllm/model_executor/models/qwen3_vl.py":200:15)
#loc33 = loc("/usr/local/lib/python3.12/dist-packages/vllm/model_executor/models/qwen3_vl.py":201:15)
#loc34 = loc("/usr/local/lib/python3.12/dist-packages/vllm/model_executor/models/qwen3_vl.py":202:15)
#loc35 = loc("/usr/local/lib/python3.12/dist-packages/vllm/model_executor/models/qwen3_vl.py":203:16)
#loc36 = loc("/usr/local/lib/python3.12/dist-packages/vllm/model_executor/models/qwen3_vl.py":203:21)
#loc37 = loc("/usr/local/lib/python3.12/dist-packages/vllm/model_executor/models/qwen3_vl.py":205:18)
#loc38 = loc("/usr/local/lib/python3.12/dist-packages/vllm/model_executor/models/qwen3_vl.py":205:29)
#loc39 = loc("/usr/local/lib/python3.12/dist-packages/vllm/model_executor/models/qwen3_vl.py":205:35)
#loc40 = loc("/usr/local/lib/python3.12/dist-packages/vllm/model_executor/models/qwen3_vl.py":206:29)
#loc41 = loc("/usr/local/lib/python3.12/dist-packages/vllm/model_executor/models/qwen3_vl.py":206:35)
#loc42 = loc("/usr/local/lib/python3.12/dist-packages/vllm/model_executor/models/qwen3_vl.py":207:18)
#loc43 = loc("/usr/local/lib/python3.12/dist-packages/vllm/model_executor/models/qwen3_vl.py":207:29)
#loc44 = loc("/usr/local/lib/python3.12/dist-packages/vllm/model_executor/models/qwen3_vl.py":207:35)
#loc45 = loc("/usr/local/lib/python3.12/dist-packages/vllm/model_executor/models/qwen3_vl.py":208:29)
#loc46 = loc("/usr/local/lib/python3.12/dist-packages/vllm/model_executor/models/qwen3_vl.py":208:35)
#loc47 = loc("/usr/local/lib/python3.12/dist-packages/vllm/model_executor/models/qwen3_vl.py":209:20)
#loc48 = loc("/usr/local/lib/python3.12/dist-packages/vllm/model_executor/models/qwen3_vl.py":214:19)
#loc49 = loc("/usr/local/lib/python3.12/dist-packages/vllm/model_executor/models/qwen3_vl.py":215:19)
#loc50 = loc("/usr/local/lib/python3.12/dist-packages/vllm/model_executor/models/qwen3_vl.py":216:19)
#loc51 = loc("/usr/local/lib/python3.12/dist-packages/vllm/model_executor/models/qwen3_vl.py":217:19)
#loc52 = loc("/usr/local/lib/python3.12/dist-packages/vllm/model_executor/models/qwen3_vl.py":220:32)
#loc53 = loc("/usr/local/lib/python3.12/dist-packages/vllm/model_executor/models/qwen3_vl.py":221:22)
#loc54 = loc("/usr/local/lib/python3.12/dist-packages/vllm/model_executor/models/qwen3_vl.py":223:34)
#loc55 = loc("/usr/local/lib/python3.12/dist-packages/vllm/model_executor/models/qwen3_vl.py":223:42)
#loc56 = loc("/usr/local/lib/python3.12/dist-packages/vllm/model_executor/models/qwen3_vl.py":223:22)
#loc57 = loc("/usr/local/lib/python3.12/dist-packages/vllm/model_executor/models/qwen3_vl.py":224:34)
#loc58 = loc("/usr/local/lib/python3.12/dist-packages/vllm/model_executor/models/qwen3_vl.py":224:42)
#loc59 = loc("/usr/local/lib/python3.12/dist-packages/vllm/model_executor/models/qwen3_vl.py":224:22)
#loc60 = loc("/usr/local/lib/python3.12/dist-packages/vllm/model_executor/models/qwen3_vl.py":225:34)
#loc61 = loc("/usr/local/lib/python3.12/dist-packages/vllm/model_executor/models/qwen3_vl.py":225:42)
#loc62 = loc("/usr/local/lib/python3.12/dist-packages/vllm/model_executor/models/qwen3_vl.py":225:22)
#loc63 = loc("/usr/local/lib/python3.12/dist-packages/vllm/model_executor/models/qwen3_vl.py":226:34)
#loc64 = loc("/usr/local/lib/python3.12/dist-packages/vllm/model_executor/models/qwen3_vl.py":226:42)
#loc65 = loc("/usr/local/lib/python3.12/dist-packages/vllm/model_executor/models/qwen3_vl.py":226:22)
#loc66 = loc("/usr/local/lib/python3.12/dist-packages/vllm/model_executor/models/qwen3_vl.py":228:22)
#loc67 = loc("/usr/local/lib/python3.12/dist-packages/vllm/model_executor/models/qwen3_vl.py":228:36)
#loc68 = loc("/usr/local/lib/python3.12/dist-packages/vllm/model_executor/models/qwen3_vl.py":228:28)
#loc69 = loc("/usr/local/lib/python3.12/dist-packages/vllm/model_executor/models/qwen3_vl.py":228:50)
#loc70 = loc("/usr/local/lib/python3.12/dist-packages/vllm/model_executor/models/qwen3_vl.py":228:42)
#loc71 = loc("/usr/local/lib/python3.12/dist-packages/vllm/model_executor/models/qwen3_vl.py":228:64)
#loc72 = loc("/usr/local/lib/python3.12/dist-packages/vllm/model_executor/models/qwen3_vl.py":228:56)
#loc73 = loc("/usr/local/lib/python3.12/dist-packages/vllm/model_executor/models/qwen3_vl.py":230:30)
#loc74 = loc("/usr/local/lib/python3.12/dist-packages/vllm/model_executor/models/qwen3_vl.py":230:40)
#loc75 = loc("/usr/local/lib/python3.12/dist-packages/vllm/model_executor/models/qwen3_vl.py":230:46)
#loc76 = loc("/usr/local/lib/python3.12/dist-packages/vllm/model_executor/models/qwen3_vl.py":219:4)
#loc83 = loc("pid"(#loc2))
#loc84 = loc("total_spatial"(#loc3))
#loc85 = loc("spatial_idx"(#loc4))
#loc86 = loc("num_blocks_w"(#loc5))
#loc87 = loc("block_idx"(#loc6))
#loc88 = loc("local_idx"(#loc7))
#loc89 = loc("br"(#loc8))
#loc90 = loc("bc"(#loc9))
#loc91 = loc("lr"(#loc10))
#loc92 = loc("lc"(#loc11))
#loc93 = loc("row"(#loc12))
#loc94 = loc("row"(#loc13))
#loc95 = loc("col"(#loc14))
#loc96 = loc("col"(#loc15))
#loc97 = loc("h_frac"(#loc16))
#loc98 = loc("h_frac"(#loc17))
#loc99 = loc("w_frac"(#loc18))
#loc100 = loc("w_frac"(#loc19))
#loc101 = loc("hf"(#loc20))
#loc102 = loc("hf"(#loc21))
#loc103 = loc("wf"(#loc22))
#loc104 = loc("wf"(#loc23))
#loc105 = loc("hc"(#loc24))
#loc106 = loc("hc"(#loc25))
#loc107 = loc("wc"(#loc26))
#loc108 = loc("wc"(#loc27))
#loc109 = loc("dh"(#loc28))
#loc110 = loc("dh"(#loc29))
#loc111 = loc("dw"(#loc30))
#loc112 = loc("dw"(#loc31))
#loc113 = loc("w11"(#loc32))
#loc114 = loc("w10"(#loc33))
#loc115 = loc("w01"(#loc34))
#loc116 = loc("w00"(#loc35))
#loc117 = loc("w00"(#loc36))
#loc118 = loc("off00"(#loc37))
#loc119 = loc("off00"(#loc38))
#loc120 = loc("off00"(#loc39))
#loc121 = loc("off01"(#loc40))
#loc122 = loc("off01"(#loc41))
#loc123 = loc("off10"(#loc42))
#loc124 = loc("off10"(#loc43))
#loc125 = loc("off10"(#loc44))
#loc126 = loc("off11"(#loc45))
#loc127 = loc("off11"(#loc46))
#loc128 = loc("out_off"(#loc47))
#loc129 = loc("w00_c"(#loc48))
#loc130 = loc("w01_c"(#loc49))
#loc131 = loc("w10_c"(#loc50))
#loc132 = loc("w11_c"(#loc51))
#loc133 = loc("cols"(#loc52))
#loc134 = loc("mask"(#loc53))
#loc135 = loc("e00"(#loc54))
#loc136 = loc("e00"(#loc55))
#loc137 = loc("e00"(#loc56))
#loc138 = loc("e01"(#loc57))
#loc139 = loc("e01"(#loc58))
#loc140 = loc("e01"(#loc59))
#loc141 = loc("e10"(#loc60))
#loc142 = loc("e10"(#loc61))
#loc143 = loc("e10"(#loc62))
#loc144 = loc("e11"(#loc63))
#loc145 = loc("e11"(#loc64))
#loc146 = loc("e11"(#loc65))
#loc147 = loc("val"(#loc66))
#loc148 = loc("val"(#loc67))
#loc149 = loc("val"(#loc68))
#loc150 = loc("val"(#loc69))
#loc151 = loc("val"(#loc70))
#loc152 = loc("val"(#loc71))
#loc153 = loc("val"(#loc72))
